humanoidprac/humanoidprac/scripts/skrl/logs/skrl/h1_flat/joint_experiment_ver3/2025-09-18_04-39-00_ppo_torch/checkpoints/agent_19200.pt (torch, 549970 bytes, 40 tensors)

log_std_parameter f4 [19]
0	0xc049f8cf	-3.155811
1	0xc04b95ae	-3.1810107
2	0xc055fedf	-3.343681
3	0xbfe64ae7	-1.7991608
4	0xbfe1c94d	-1.7639557
5	0xbf531028	-0.8244653
6	0xbf5436e5	-0.8289626
7	0xc014b038	-2.3232555
8	0xc0121da9	-2.2830603
9	0xbf26db24	-0.6517813
10	0xbf38bb89	-0.72161156
11	0xbfce7b8b	-1.6131452
12	0xbfbc2b8a	-1.4700787
13	0xbf5aab58	-0.854177
14	0xbf30a9df	-0.690092
15	0xbf3d490f	-0.73939604
16	0xbf50992b	-0.81483716
17	0xbf484490	-0.7822962
18	0xbf30eb43	-0.6910898

net_container.0.weight f4 [128, 69]
0	0xbdb18d9a	-0.086695865
1	0xbeb01555	-0.34391275
2	0x3e4bb631	0.1989372
3	0xbebf6a93	-0.37385997
4	0x3d77c96c	0.060494825
5	0x3c88b35e	0.016687091
6	0xbe39f09f	-0.18158196
7	0xbe829d67	-0.25510713
8	0x3dc9a44b	0.098457895
9	0xbd4bd0a1	-0.04975951
10	0xbd7eda87	-0.062220123
11	0x3dc30913	0.09523215
12	0xbe1c5647	-0.15267287
13	0xbee90440	-0.45511055
14	0xbe5c194b	-0.21494024
15	0xbe8b056f	-0.27152583
16	0x3ead2a14	0.33821166
17	0xbea0e3f6	-0.3142392
18	0x3f0f0728	0.55870295
19	0xbe2a5bc2	-0.16636565
20	0xbe5a32cc	-0.2130844
21	0x3c92f715	0.017940084
22	0x3e2a00a2	0.16601804
23	0xbe8074be	-0.25089067
24	0xbebc49af	-0.36774966
25	0x3de408a4	0.111344606
26	0xbeb1c2af	-0.34718844
27	0xbac3d429	-0.0014940548
28	0x3e59d6b6	0.21273312
29	0xbc66db77	-0.01409041
30	0x3e55dfc6	0.20886144
31	0x3c999127	0.018745972
32	0xbb94fc11	-0.00454665
33	0x3aea040e	0.0017853992
34	0xbd4ff373	-0.05076928
35	0x3d8c1fc6	0.06841998
36	0x3ca500b3	0.020141935
37	0xbd727936	-0.059197627
38	0xbdae3059	-0.08505315
39	0x3d7c23d3	0.061557602
40	0x3c19576f	0.009359225
41	0xbe12ebb3	-0.14347725
42	0x3d2fd4cd	0.042927552
43	0x3d016687	0.03159192
44	0x3dd55978	0.104174554
45	0x3d6d76a5	0.057974476
46	0xbd7c2027	-0.0615541
47	0x3e1b8adc	0.1518969
48	0xbdb59d1a	-0.08867855
49	0xbc7451e0	-0.014912099
50	0xbd6171a7	-0.055040028
51	0x3dc85afb	0.09782978
52	0x3e0ca290	0.13733888
53	0x3df10fce	0.11770593
54	0xbcd8dc03	-0.026472097
55	0x3cb4f79a	0.022090722
56	0xbdbb0c02	-0.0913315
57	0xbcf2e002	-0.02964783
58	0x3c9782d5	0.018495003
59	0x3de9ae77	0.1141023
60	0x3dd2c1ec	0.10290894
61	0xbde9701f	-0.113983385
62	0xbe008e9e	-0.12554404
63	0xbd2f62cc	-0.04281883
64	0x39d07922	0.00039763103
65	0x3d6155ba	0.055013396
66	0xbd66d1dd	-0.056352485
67	0x3d497255	0.0491813
68	0x3daf663f	0.08564424
69	0x3d052752	0.032508202
70	0x3e63c0ce	0.22241518
71	0x3e73ad83	0.23796658
72	0xbe5ec83e	-0.21756074
73	0xbe0eb4b2	-0.13936117
74	0x3e11485c	0.14187759
75	0x3d13e9d3	0.036111664
76	0xbea9dabd	-0.33174697
77	0x3daecd04	0.085351974
78	0x3d169b57	0.036769237
79	0xbd28830b	-0.041140597
80	0x3e5d3823	0.21603446
81	0x3d890822	0.06691004
82	0xbea18587	-0.31547186
83	0x3e05fdc5	0.13085087
84	0xbde896ba	-0.11356874
85	0x3cb7a6f7	0.022418482
86	0xbea234b5	-0.31680837
87	0x3eb31b31	0.34981683
88	0x3e196097	0.14978252
89	0xbba7e4b4	-0.005123699
90	0x3dba6b2a	0.09102471
91	0xbe3f65db	-0.18691199
92	0x3c0abed4	0.0084683485
93	0x3dc18ba6	0.09450464
94	0x3dee8e7a	0.11648269
95	0xbe8c2601	-0.27372745
96	0xbd5e66d0	-0.05429727
97	0x3e262af4	0.16227323
98	0x3a8becdb	0.0010675447
99	0xbf0c535e	-0.5481471
100	0x3af90866	0.0018999695
101	0x3da1c406	0.07898717
102	0xbd74bf78	-0.05975291
103	0x3ccde358	0.02513282
104	0xbdbe407a	-0.09289642
105	0xbb47ca77	-0.0030485669
106	0xbb7c49ed	-0.0038496212
107	0xbd0f695e	-0.035012595
108	0xbc5f67ba	-0.01363557
109	0xbbe9810e	-0.00712598
110	0xbcd484a2	-0.02594215
111	0xbda3c819	-0.0799715
112	0x3a59195f	0.00082816737
113	0xbd090e26	-0.03346076
114	0x3c9e487b	0.01932167
115	0x3db08c45	0.08620504
116	0x3cdb66d5	0.026782433
117	0x3dc63548	0.09678131
118	0x3d5c3235	0.05375882
119	0x3af4aea0	0.0018667765
120	0xbac248ae	-0.0014822686
121	0x3dbadd99	0.09124298
122	0x3d066f2e	0.032820873
123	0x3d8654a6	0.06559114
124	0xbd5c4d14	-0.053784445
125	0xbd931a18	-0.07182711
126	0xbe6b2c4c	-0.22966117
127	0xbd1015f8	-0.0351772
128	0xbc815530	-0.01578769
129	0x3d0cc55d	0.034367908
130	0x3da1dd4d	0.07903538
131	0xbe8f3aac	-0.2797445
132	0x3c0e3474	0.008679498
133	0xbe30ef33	-0.17278747
134	0xbdb45615	-0.08805481
135	0xbd0a4dee	-0.033765726
136	0xbdb6797d	-0.08909891
137	0x3d4c23ca	0.04983882
138	0xbe91b9ae	-0.28461975
139	0x3ed66a58	0.4187801
140	0x3d0ea328	0.034823567
141	0x3d867631	0.06565512
142	0x3d6ee81b	0.05832682
143	0xbd50164b	-0.05080251
144	0xbed5326a	-0.41640025
145	0x3e92ca15	0.286698
146	0x3e63e2d5	0.22254498
147	0x3e8d96a8	0.27654004
148	0x3d2a0e7d	0.041517723
149	0x3e6dd947	0.23227416
150	0x3d82e64a	0.063915804
151	0xbdbf4c1b	-0.09340688
152	0x3cf4deb4	0.02989135
153	0x3e50f0f9	0.20404424
154	0xbefb4a01	-0.49079898
155	0xbe86cb7c	-0.2632712
156	0x3f1dc2cf	0.6162538
157	0xbed551a4	-0.4166385
158	0xbe3032e8	-0.17206919
159	0xbdfc49bb	-0.123187505
160	0x3df0f592	0.11765589
161	0x3be5bb21	0.007010833
162	0x3c9c9093	0.019111907
163	0xbe0427e1	-0.12905838
164	0x3e0032c9	0.12519373
165	0xbb133fab	-0.002246837
166	0x3d768497	0.06018504
167	0x3d260966	0.040536307
168	0x3e08fd86	0.13377962
169	0x3ca79418	0.020456359
170	0xbd112f2e	-0.035445385
171	0x3d6642f2	0.056216188
172	0x3e2356fc	0.1595115
173	0xbdfa7604	-0.12229541
174	0xbc6b5be3	-0.014365169
175	0xbd7fc96e	-0.062447958
176	0xbd26d30f	-0.040728625
177	0x3d67199f	0.05642092
178	0xbdb2bf8f	-0.08727943
179	0xbdcc206f	-0.09967124
180	0xbd7e2ce0	-0.062054515
181	0x3cd01172	0.025398944
182	0x3d117835	0.03551503
183	0x3b7bec34	0.0038440349
184	0xbd911de6	-0.07085781
185	0xba3a0472	-0.00070959993
186	0x3bc54237	0.0060198563
187	0xbd17331f	-0.036913987
188	0xbd76e47f	-0.060276505
189	0xbd654c83	-0.05598117
190	0x3da9a636	0.08283655
191	0xbd14565a	-0.036215164
192	0x3c78f1bb	0.015194352
193	0x3d204e51	0.03913719
194	0xbdbde8f7	-0.0927295
195	0xbdd77def	-0.10522067
196	0x3e8a4f54	0.27013648
197	0x3d7c184b	0.061546605
198	0x3d70d008	0.058792144
199	0xbda6cffa	-0.08145137
200	0x3dcd8d18	0.10036677
201	0xbd90837f	-0.07056331
202	0x3d660376	0.056155644
203	0xbc80a1b2	-0.015702102
204	0xbc6da19f	-0.0145038655
205	0x3d6f79cc	0.058465764
206	0xbc3ec88e	-0.011644496
207	0x3e751bc8	0.23936379
208	0x3eb8608e	0.36011165
209	0xbe59ad62	-0.21257547
210	0xbdd9d7ea	-0.106368855
211	0x3aa1ad16	0.0012334909
212	0xbd98508c	-0.07437238
213	0x3fa56575	1.2921587
214	0xbec4780d	-0.3837284
215	0xbd8a456c	-0.067515224
216	0xbcc6543c	-0.024210088
217	0x3deee56c	0.116648525
218	0xbd6a7277	-0.05723807
219	0x3e964dce	0.29356235
220	0xbe1edd21	-0.15514041
221	0x3e750058	0.23925912
222	0x3f06beea	0.5263506
223	0xbea9a43b	-0.3313311
224	0xbd29cc8f	-0.041454848
225	0x3e1f4b78	0.15556133
226	0x3eeea351	0.46608976
227	0x3ebe3acb	0.3715423
228	0x3e693599	0.22774352
229	0x3e249540	0.1607256
230	0x3ea18dd4	0.3155352
231	0x3e9ff6f7	0.31243107
232	0x3e0d3cf5	0.13792785
233	0xbdf8f03d	-0.12155197
234	0xbde308a3	-0.11085632
235	0xbd67eaed	-0.056620527
236	0x3db19b3f	0.08672189
237	0x3da2b5ad	0.07944808
238	0x3bb3f2d6	0.005491595
239	0x3baf6905	0.0053530955
240	0xbd13cd9e	-0.036084764
241	0x3d0d0d18	0.034436315
242	0xbc6e93c4	-0.014561597
243	0x3d3c7237	0.04600736
244	0x3d53776b	0.051627558
245	0x3c2b4a8c	0.010454785
246	0xbb85c331	-0.0040821065
247	0xbd29c334	-0.041445926
248	0x3a8a45ea	0.00105494
249	0xbc6b1cb1	-0.014350102
250	0xbc996f97	-0.018729968
251	0xbb4f14f3	-0.003159818
252	0x3d9144fb	0.07093235
253	0x3d843338	0.06455082
254	0x3dbf23cc	0.093329996
255	0xbd83b3a8	-0.06430751

net_container.0.bias f4 [128]
0	0x3dc05859	0.09391851
1	0xbe09da85	-0.13462265
2	0xbd78a653	-0.060705494
3	0x3c902e2f	0.017600147
4	0x3dc303b7	0.09522193
5	0x3cd78851	0.026310118
6	0x3daa5812	0.08317579
7	0x3db7d98b	0.0897704
8	0x3e0c137a	0.13679305
9	0x3db8d073	0.090241335
10	0xbd39f24a	-0.04539708
11	0xbb923e9d	-0.0044630305
12	0x3c8aa872	0.016926024
13	0xbb7adac4	-0.0038277367
14	0x3e43fb87	0.19138919
15	0xbe20f994	-0.15720206
16	0x3e095ed7	0.13415085
17	0xbe02ad1f	-0.12761353
18	0x3e1d1b38	0.15342414
19	0x3d5d916b	0.05409376
20	0x3d7075cd	0.058706094
21	0x3d351bf6	0.04421612
22	0xbd6c2b3e	-0.057658426
23	0x3dff243a	0.124580815
24	0x3d4b25f6	0.04959675
25	0x3de71042	0.11282398
26	0xbe025809	-0.12728895
27	0xbd723fdb	-0.05914293
28	0xbcdfe6b2	-0.027331684
29	0xbd8e6881	-0.06953526
30	0xbd4fb018	-0.050705045
31	0x3c526fff	0.012844085
32	0x3e320f50	0.17388654
33	0x3d1730cd	0.036911774
34	0xbb5c70e2	-0.003363662
35	0xbdb93d19	-0.090448566
36	0x3e02bdda	0.12767735
37	0xbc97bed1	-0.018523606
38	0x3dd03008	0.10165411
39	0xbc431994	-0.011907954
40	0xbdba4132	-0.09094466
41	0x3dee0eef	0.11623942
42	0xbdbf8c4e	-0.09352933
43	0xbd859716	-0.06522958
44	0x3def1bbc	0.11675212
45	0xbdd0242a	-0.10163148
46	0x3dd4c198	0.103884876
47	0xbd4ec9bf	-0.05048537
48	0x3e6b2d92	0.22966602
49	0x3d9fcb5c	0.078024596
50	0x3ce4652a	0.02788027
51	0xbbd6219c	-0.0065347683
52	0xbde45af7	-0.11150163
53	0xbdc8dc7b	-0.09807678
54	0xbd817ddb	-0.06322833
55	0x3d0d9b4b	0.034571927
56	0x3e020373	0.12696628
57	0x3d86a870	0.06575096
58	0x3df445c9	0.11927373
59	0x3e0116c2	0.12606338
60	0x3c0ebec0	0.0087124705
61	0x3cd20a95	0.025639812
62	0x3e24b0df	0.16083096
63	0x3bfe0f57	0.0077532935
64	0xba9dc23a	-0.0012036033
65	0x3e0c3a55	0.13694127
66	0x3d7f6410	0.062351286
67	0x3cd48ae5	0.025945136
68	0x3e081fa2	0.13293317
69	0x3dc53003	0.09628298
70	0x3cc1ef1a	0.023673583
71	0xbdf5b33a	-0.119970754
72	0x3de9ec87	0.11422067
73	0x3d95d4b8	0.073159635
74	0x3d361a84	0.04445888
75	0xbbe28ce2	-0.006913767
76	0x3e5db039	0.21649255
77	0xbd64167c	-0.055685505
78	0x3e33b3ed	0.17549105
79	0x3d83b603	0.064312
80	0xbd883e68	-0.06652528
81	0xbd8c591c	-0.06852934
82	0x3e08c0de	0.13354823
83	0x3d2ddc59	0.042446468
84	0x3bd036e6	0.0063542007
85	0x3d9606c7	0.073255114
86	0x3d8ca923	0.06868198
87	0x3e53b181	0.20673181
88	0xbd4f77e4	-0.050651446
89	0x3e253c90	0.16136384
90	0xbd07ec65	-0.033184428
91	0xbdb44d8e	-0.08803855
92	0x3d3b99d3	0.045800995
93	0xbca0fec7	-0.019652737
94	0x3bc4e3ea	0.006008615
95	0xbcbe790a	-0.023251075
96	0x3d45c772	0.04828591
97	0xbd29d81a	-0.041465856
98	0xbd5b8a70	-0.05359882
99	0x3c9c1394	0.019052304
100	0x3ddf36ce	0.10899125
101	0x3c164da9	0.009173789
102	0xbd9fb334	-0.07797852
103	0x3bfa69cc	0.0076420065
104	0xbd46ca49	-0.048532758
105	0x3d06bbb5	0.032893855
106	0x3d72d864	0.059288397
107	0xbde06df7	-0.10958474
108	0x3c322bd5	0.010874708
109	0xbe1aed82	-0.15129665
110	0xbb184c03	-0.0023238666
111	0xbcf56400	-0.02995491
112	0xbc22d338	-0.009938054
113	0xbd9cf352	-0.07663597
114	0x3e02f5d2	0.12789086
115	0x3e2181cf	0.15772174
116	0xbe099031	-0.13433911
117	0x3da0a22a	0.0784343
118	0x3b5bb0e4	0.0033522183
119	0xbe048802	-0.12942508
120	0xbb52d05e	-0.0032167654
121	0xbe07746d	-0.13228007
122	0x3e1d5421	0.15364124
123	0xbdefee3e	-0.11715363
124	0x3d7b625e	0.061373107
125	0xbddaa612	-0.10676207
126	0xbdfa1ad3	-0.122121476
127	0x3dbee3bf	0.09320783

net_container.2.weight f4 [128, 128]
0	0x3d91fc29	0.07128174
1	0xbe0aa7f8	-0.13540637
2	0x3d01c716	0.031684004
3	0xbe2031fe	-0.1564407
4	0x3bff0df9	0.007783648
5	0x3cb2ec49	0.021841185
6	0x3d497d84	0.049191967
7	0xbdddfdfb	-0.108394586
8	0x3b4475ff	0.0029977558
9	0x3de2b8e6	0.11070423
10	0x3d386fdc	0.045028552
11	0xbdf6f744	-0.12058881
12	0x3e309132	0.17242888
13	0xbdca8fa3	-0.09890678
14	0x3d11b0d4	0.035569027
15	0x3ca5242d	0.020158852
16	0xbd9c680c	-0.07637033
17	0x3d9a63a2	0.07538535
18	0xbd1a18c8	-0.03762129
19	0x3da6af59	0.08138914
20	0xbe20be43	-0.15697579
21	0x3d4a59bf	0.049401995
22	0xbdbdc576	-0.09266178
23	0xbdaac07c	-0.08337495
24	0xbd919f24	-0.07110432
25	0xbdef0f94	-0.11672893
26	0xbcbb1a2f	-0.022839634
27	0x3d7ba50e	0.061436705
28	0x3d045eb1	0.032316867
29	0xbd5444d4	-0.051823452
30	0xb94a0655	-0.0001926658
31	0x3cc16490	0.023607522
32	0xbd7a912c	-0.061173603
33	0xbe2931f5	-0.16522963
34	0xbdbe7832	-0.09300269
35	0xbd6f8464	-0.058475867
36	0x3b40dd4c	0.0029428778
37	0x3d69fc45	0.05712535
38	0x3cda5633	0.026652431
39	0x3bd8a562	0.006611512
40	0x3db03c7c	0.086052865
41	0x3def5397	0.11685865
42	0xbe0d09bb	-0.13773243
43	0xbda2bff8	-0.079467714
44	0x3d0bd3fd	0.034137715
45	0x3c9a7984	0.018856771
46	0xbdc4e80a	-0.096145704
47	0xbc1e986b	-0.009679894
48	0x3d3e5a6c	0.04647295
49	0x3ddb339b	0.10703202
50	0x3d6f92c4	0.058489576
51	0x3da068cf	0.07832491
52	0xbc30b27f	-0.010784744
53	0xbd56ec7f	-0.052471634
54	0x3b6d589b	0.0036216143
55	0x3d0285f9	0.031866048
56	0xbd309606	-0.043111823
57	0xbcf738ce	-0.030178454
58	0x3db463e1	0.08808113
59	0x3da5aadc	0.080892295
60	0xbb8bffbd	-0.0042724297
61	0x3d19e2d5	0.03756984
62	0x3d360cd9	0.044445846
63	0x3d22a94c	0.039712235
64	0xbd4a611f	-0.04940903
65	0xbd15500d	-0.036453295
66	0x3b24825b	0.0025102112
67	0xbdfa0c2b	-0.12209352
68	0xbcdcf04c	-0.026970051
69	0x3d630df5	0.055433232
70	0xbd1250a6	-0.035721444
71	0xbcf6e45b	-0.030138185
72	0x3d69e29a	0.05710087
73	0xbd7a246b	-0.061069887
74	0xbdda64ff	-0.10663795
75	0x3d88d0de	0.06680463
76	0xbd0331fc	-0.03203009
77	0xbe06f0e5	-0.13177831
78	0x3d737bbf	0.059444185
79	0x3ceeb71c	0.029140048
80	0x3d83d4e1	0.06437088
81	0x3c64f90c	0.013975393
82	0xbc41a50a	-0.011819134
83	0x3dae969e	0.08524822
84	0xbd856980	-0.06514263
85	0x3d7134d2	0.058888264
86	0xbdc00911	-0.09376729
87	0xbe0a9716	-0.13534197
88	0x3dcc84a3	0.09986236
89	0xbc5cf5ed	-0.013486368
90	0xbdbc8644	-0.09205297
91	0xbdcee639	-0.10102505
92	0xbc8fdfc2	-0.01756275
93	0x3d06ff6c	0.032958433
94	0xbdf347d3	-0.11878934
95	0xbe10b264	-0.1413055
96	0x3d0aa5c4	0.033849493
97	0xbcb81a72	-0.022473548
98	0x3d85d856	0.065354034
99	0xbd595789	-0.053061996
100	0x3e2ce8dc	0.16885704
101	0x3d6959d4	0.056970432
102	0xbddf4b1e	-0.10902999
103	0xbb859fd2	-0.00407789
104	0x3d2800a3	0.041016232
105	0xbd38322b	-0.04496972
106	0xbd97461a	-0.07386418
107	0x3b86ed32	0.0041176314
108	0x3de3b35b	0.11118194
109	0xbc52e9a6	-0.012873089
110	0xbd89ee08	-0.06734854
111	0xbd8ec5bd	-0.06971309
112	0x3cd5b5e9	0.026087718
113	0xbcc8500a	-0.024452228
114	0xbd6bb434	-0.057544902
115	0xbe123d57	-0.14281212
116	0xbdce4070	-0.10070884
117	0xbdd092d5	-0.10184256
118	0x3dd71509	0.10502059
119	0xbc561f11	-0.01306893
120	0xbacab512	-0.001546534
121	0x3befbc8f	0.007316179
122	0xbbc7004f	-0.006073035
123	0x3d3d20e7	0.046173956
124	0x3da27b9b	0.07933732
125	0x3d0c629c	0.03427373
126	0xbd8d39dc	-0.068958014
127	0xbd15bfb4	-0.036559775
128	0x3c9db077	0.019249184
129	0x3d261c01	0.04055405
130	0xbe0aa4d3	-0.13539438
131	0xbdc14f59	-0.094389625
132	0x3d1a205b	0.037628513
133	0xbc15c604	-0.009141449
134	0x3dacb6d5	0.0843331
135	0x3cac65ff	0.02104473
136	0x3d4f6c83	0.050640594
137	0xbe1bf3d0	-0.15229726
138	0x3dd9f799	0.10642929
139	0x3dc5bff7	0.09655755
140	0xbe348a7c	-0.17630953
141	0x3d09166c	0.03346865
142	0xbd8dbf7e	-0.0692129
143	0x3da172cb	0.07883223
144	0x3d255ef6	0.040373765
145	0x3db20b14	0.08693519
146	0x3d8379eb	0.064197384
147	0xbdc28124	-0.09497288
148	0xbcf9e20d	-0.030503297
149	0xbd75bfa1	-0.059997205
150	0x3c7f4e70	0.015582666
151	0xbde8f2ca	-0.11374433
152	0xbe1d6034	-0.1536873
153	0x3d9dd85d	0.07707284
154	0xba3d6c91	-0.00072259555
155	0x3d4482d8	0.047976345
156	0x3e288cfe	0.16460034
157	0x3d8485d2	0.06470837
158	0x3cfd88ce	0.030949023
159	0x3b8a6674	0.004223639
160	0x3d06b899	0.03289089
161	0x3bb3f2e8	0.005491603
162	0xbb9fc11a	-0.0048753144
163	0xbcb92c96	-0.022604268
164	0x3cadd0c9	0.02121772
165	0xbd58833e	-0.052859537
166	0xbde3f9e5	-0.11131648
167	0xbaeb5b3a	-0.0017956265
168	0x3e0bd930	0.13657069
169	0x3c8da941	0.01729262
170	0x3c77db2f	0.015127941
171	0x3e06f9e0	0.13181257
172	0xbdee3120	-0.116304636
173	0x3d2f5b5d	0.04281174
174	0x3d58fd1c	0.05297576
175	0xbd74530b	-0.05964951
176	0xbe0e7ebd	-0.13915534
177	0xbd3be9a4	-0.045877114
178	0xbc9c642f	-0.01909074
179	0xbde73249	-0.11288888
180	0xbdf3aed2	-0.11898579
181	0xbcd9fccb	-0.026609799
182	0x3d0c6701	0.03427792
183	0xbe195fc0	-0.14977932
184	0xbd8f9371	-0.07010544
185	0xbdc9f690	-0.09861481
186	0xbddf42bc	-0.109014004
187	0x3db63a85	0.088978805
188	0xbe3284d8	-0.17433488
189	0xbdba1ddf	-0.09087729
190	0xbd883b16	-0.06651895
191	0x397c5111	0.00024062792
192	0xbc11588d	-0.00887121
193	0xbd918ab9	-0.07106537
194	0xbce1c4c9	-0.027559655
195	0xbdb6d2dc	-0.08926937
196	0xbac14464	-0.0014745113
197	0x3b92b1e1	0.004476771
198	0x3d9f4537	0.077768736
199	0xbca23ec9	-0.019805329
200	0x3d0146b0	0.031561553
201	0x3cafbdf5	0.021452883
202	0xbdf302e9	-0.118657894
203	0x3d7d1d27	0.06179538
204	0xbd178ab4	-0.036997512
205	0xbe0d4df4	-0.13799268
206	0x3d5d8391	0.05408055
207	0xbd02f223	-0.0319692
208	0xbd41b44b	-0.04729108
209	0xbc510060	-0.012756437
210	0xbd097885	-0.033562202
211	0xbcec5438	-0.028848752
212	0xbdd52b25	-0.1040862
213	0xbdd4f7f2	-0.10398854
214	0x3d6a7df2	0.057249017
215	0xbe0cdd8c	-0.13756388
216	0xbd8d3250	-0.06894362
217	0x3bb8ea62	0.005643175
218	0xbe173ab0	-0.14768481
219	0x3da12ee9	0.078702755
220	0x3def0e68	0.1167267
221	0x3d073856	0.03301271
222	0xbcb15ea8	-0.02165158
223	0xbddb6645	-0.10712866
224	0x3a904003	0.0011005405
225	0x3d5a993b	0.05336879
226	0x3e37ef39	0.1796235
227	0x3d0f1430	0.03493136
228	0xbccd2e2e	-0.025046434
229	0xbddce2ab	-0.10785421
230	0x3d0da9c1	0.034585718
231	0x3d2aabe6	0.04166784
232	0xbd8c1015	-0.06839005
233	0xbb043127	-0.0020170899
234	0xbdf391fa	-0.11893077
235	0xbe0ff15f	-0.1405692
236	0xbc292a5f	-0.010325043
237	0xbcc6d8cd	-0.0242733
238	0x3db1f1fb	0.08688732
239	0xbe1f57a7	-0.1556078
240	0xbd938667	-0.072033696
241	0x3ca4d87a	0.020122755
242	0xbcb40620	-0.021975577
243	0xbdb5c68b	-0.0887576
244	0xbe2094bf	-0.15681742
245	0xbcecc65d	-0.02890318
246	0x3db2858b	0.087168775
247	0x3c8bbd3a	0.017058004
248	0xbcd7037a	-0.026246775
249	0xbcf96e0b	-0.03044798
250	0xbe0e2f6e	-0.1388528
251	0xbe00fe19	-0.1259693
252	0xbd6aa872	-0.05728955
253	0x3d913c72	0.07091607
254	0xbd85860f	-0.0651971
255	0xbe19eb9d	-0.15031286

net_container.2.bias f4 [128]
0	0x3d9d5d7c	0.07683846
1	0xbe491258	-0.19635904
2	0xbe84d725	-0.25945392
3	0xbce37b72	-0.027768824
4	0xbe2cccc0	-0.16874981
5	0xbd12e4b1	-0.03586263
6	0x3c7da305	0.015480761
7	0x3dbed631	0.093181975
8	0x3c7a1a98	0.0152651295
9	0xbdf1f4a5	-0.1181424
10	0x3e2f67c8	0.17129433
11	0xbe12c63a	-0.1433343
12	0x3dd49adf	0.10381102
13	0xbd9f2769	-0.07771189
14	0x3d82de44	0.0639005
15	0xbbc4dd2f	-0.0060078125
16	0xbd958e0d	-0.07302485
17	0x3db02796	0.086013004
18	0xbc35d9b2	-0.011099266
19	0x3c9224a7	0.017839743
20	0x3db69975	0.08915988
21	0x3ab43a17	0.0013750222
22	0x3c860ca3	0.016363448
23	0xbe489e2a	-0.19591585
24	0x3d5e25be	0.054235213
25	0x3c5ed298	0.013600014
26	0x3d0a2302	0.033724792
27	0xbe3681fa	-0.1782302
28	0xbd872f18	-0.06600779
29	0xbe180d8f	-0.14848922
30	0xbddf519b	-0.10904237
31	0x3d1f6556	0.038915
32	0xbd4aa76c	-0.049476072
33	0xbdc88b2f	-0.09792172
34	0x3d355d65	0.04427852
35	0xbcb4b9a4	-0.022061177
36	0xbe159d22	-0.14610723
37	0xbce0cd31	-0.027441593
38	0x3d2a22fb	0.041537266
39	0xbda184ef	-0.07886683
40	0xbdf65957	-0.12028759
41	0xbd9b7784	-0.07591155
42	0xbdc7e39c	-0.0976021
43	0x3e04aae8	0.1295582
44	0x3e1a279c	0.15054172
45	0x3e23a919	0.15982474
46	0xbd1be2ab	-0.038057964
47	0xbbeb9aeb	-0.0071900985
48	0x3d3cd5ab	0.046102207
49	0xbe176042	-0.14782813
50	0x3d49e851	0.04929382
51	0xbe809e7a	-0.25120908
52	0xbc8fddff	-0.01756191
53	0x3e2b31f7	0.16718279
54	0xbddd3992	-0.10801996
55	0xbdd5d7ce	-0.10441552
56	0x3d4ff77b	0.050773125
57	0xbe242557	-0.16029869
58	0x3dbc8972	0.09205903
59	0x3e508116	0.20361742
60	0xbe613b49	-0.21995272
61	0xbdbb9d57	-0.091608696
62	0xbe1259d4	-0.14292079
63	0x3defafc2	0.11703445
64	0xbcdee766	-0.027209949
65	0xbe18e9f7	-0.14933
66	0x3dae88c0	0.08522177
67	0xbd120e1a	-0.03565798
68	0xbd6cbebd	-0.05779909
69	0x3dcef87a	0.10105987
70	0xbdd0ecc1	-0.10201407
71	0xbddcd2b8	-0.10782379
72	0xbd898314	-0.06714454
73	0x3dd9e0cb	0.10638579
74	0xbcf20678	-0.0295441
75	0xbd004853	-0.031318974
76	0x3e127112	0.14300945
77	0xbdbb5107	-0.09146314
78	0xbdbaf841	-0.09129382
79	0x3c6e714b	0.014553378
80	0x3d043f41	0.032286886
81	0xbd2ce0f7	-0.04220673
82	0x3d60b95a	0.054864265
83	0xbd0cfee8	-0.034422785
84	0xbe014b5c	-0.12626404
85	0xbcff5c5a	-0.031171966
86	0x3cb59c70	0.022169322
87	0x3e010387	0.12599002
88	0x3dbfc20a	0.09363182
89	0xbde05bb0	-0.10954988
90	0xbe087908	-0.1332742
91	0x3d6547a9	0.055976544
92	0xbe0623d6	-0.13099608
93	0x3d023ff1	0.03179926
94	0xbe1421f0	-0.14466071
95	0x3dd75a19	0.10515232
96	0xbc0d3381	-0.0086182365
97	0x3db98415	0.09058396
98	0xbe8140c2	-0.2524472
99	0x3daefe28	0.0854457
100	0xbe812290	-0.25221682
101	0xbd871689	-0.06596095
102	0xbd51fdff	-0.05126762
103	0x3cd47913	0.025936639
104	0xbd5c21d9	-0.053743217
105	0xbdf5c9d2	-0.12001385
106	0xbe03120c	-0.12799853
107	0xbdfc8e63	-0.123318456
108	0xbe0f87e3	-0.1401668
109	0xbd4b078b	-0.04956774
110	0x3dc47db7	0.09594291
111	0xbc122600	-0.008920193
112	0xbe81999d	-0.2531251
113	0x3d2c04c6	0.04199674
114	0x3d9cdae9	0.07658941
115	0xbcc6f268	-0.02428551
116	0x3e077ed5	0.13231976
117	0x3cdc152b	0.026865562
118	0xbe1dfaaf	-0.1542766
119	0xbcb40716	-0.021976035
120	0x3d50c9ce	0.050973706
121	0xbe1e3cbf	-0.1545286
122	0x3cccdcb5	0.025007585
123	0xbd7d34be	-0.061817877
124	0xbc1fb821	-0.00974849
125	0xbd78a038	-0.06069967
126	0xbe2f3aa6	-0.17112216
127	0xbe1fdfc2	-0.156127

net_container.4.weight f4 [128, 128]
0	0xbd08dbc5	-0.033412714
1	0x3e295116	0.16534838
2	0x3c2216b1	0.009893105
3	0xbd7b000a	-0.061279334
4	0x3d2d4780	0.042304516
5	0xbc679374	-0.014134277
6	0x3d2165da	0.039403774
7	0x3c95ece3	0.018301433
8	0xbd6bcad6	-0.057566486
9	0xbcce24a7	-0.025163962
10	0xbdfe3ce9	-0.124139614
11	0x3d1b09e8	0.037851244
12	0x3def194a	0.116747454
13	0x3b2b4a70	0.0026136898
14	0x3b671427	0.0035259814
15	0xbbf7f742	-0.007567317
16	0xbd17e594	-0.037084177
17	0xbd454e31	-0.048170272
18	0xbc6edd08	-0.014579065
19	0xbba572c5	-0.005049082
20	0xbe25b27e	-0.1618137
21	0xbdf679b3	-0.12034931
22	0x3c9ba712	0.019000564
23	0xbd19082a	-0.0373613
24	0x3d0bc855	0.0341266
25	0x3d3346a8	0.043768555
26	0xbd5ef15e	-0.054429404
27	0x3cc832de	0.024438318
28	0x3d9bb3c7	0.07602649
29	0x3d8d475c	0.06898376
30	0x3cea4e03	0.028601652
31	0xbc7b8630	-0.015351817
32	0xbc56ad99	-0.013102912
33	0x3cbd560d	0.023112321
34	0xbd450398	-0.04809913
35	0xbd94b37f	-0.07260799
36	0x3d1cecdb	0.03831182
37	0xb9cb7fc5	-0.00038814373
38	0x3c7135ce	0.014722301
39	0xb989d4b9	-0.00026289167
40	0x3ce56616	0.02800278
41	0x3cc25139	0.02372037
42	0x3c2f9c12	0.010718362
43	0xbd06c770	-0.032905042
44	0x3d018c59	0.031627987
45	0xbd705371	-0.058673326
46	0xbd74e80e	-0.059791617
47	0x3e1a6a3c	0.15079588
48	0xbd6cec9a	-0.05784283
49	0x3c9db147	0.019249571
50	0x3d5136f1	0.051077787
51	0x3db845e5	0.08997706
52	0x3dd585a0	0.104258776
53	0xbdb2b6f2	-0.087263
54	0x3d74ef81	0.05979872
55	0x3ca50e39	0.020148383
56	0x3c0ba7fb	0.008523936
57	0xbc99153d	-0.018686885
58	0xbbe681ac	-0.007034501
59	0xbcfe7e25	-0.03106601
60	0x3d95f8b0	0.07322824
61	0x3cf98977	0.030461056
62	0x3c8a3bbb	0.016874185
63	0xbc677167	-0.014126158
64	0xbc95a53d	-0.018267268
65	0xbdaf1311	-0.085485585
66	0xbdced612	-0.100994244
67	0xbd318832	-0.043342777
68	0x3d86e01b	0.065857135
69	0x3d13649b	0.035984617
70	0x3c5f6e4c	0.013637137
71	0x3dfb4595	0.12269131
72	0x3e016e55	0.12639745
73	0xbd024e87	-0.03181317
74	0xbd545502	-0.051838882
75	0xbdc8c38c	-0.098029226
76	0xbca018eb	-0.019543132
77	0x3db3ce25	0.08779553
78	0x3dad9126	0.084749505
79	0xbdb99a05	-0.0906258
80	0x3cd367d6	0.025806349
81	0x3d3bfdeb	0.045896452
82	0xbcf6745c	-0.030084781
83	0xbcabe47e	-0.020982977
84	0x3d2cd5bc	0.04219602
85	0x3d84ef98	0.064910114
86	0x3c625f05	0.0138166
87	0x3c2ffa02	0.010740759
88	0x3d4283fb	0.047489148
89	0x3c8c65d5	0.017138401
90	0x3da1b9ed	0.07896791
91	0xbd8c0be5	-0.06838206
92	0x3db49c64	0.08818892
93	0xbca91b0d	-0.020642782
94	0xbcd3ccd2	-0.025854502
95	0xbdef000c	-0.11669931
96	0x3aeadbbb	0.0017918268
97	0x3d4486ed	0.047980238
98	0xbb20e966	-0.0024553179
99	0x3c5b404a	0.013382027
100	0x3e2c43cf	0.16822742
101	0x3d78b89e	0.06072294
102	0x3cecd1dd	0.028908664
103	0x3aa9f819	0.0012967616
104	0xbcd02a43	-0.025410777
105	0x3d6d23b6	0.057895385
106	0x3d9a4325	0.07532338
107	0xbbe23869	-0.0069036973
108	0xbd612f76	-0.054976903
109	0xbd99cf07	-0.075101905
110	0xbc1e0850	-0.009645537
111	0x3d94ea1d	0.07271216
112	0xbc8d1214	-0.017220534
113	0x3b258fc5	0.0025262695
114	0x3c212e9d	0.009837774
115	0x3d4ea4ba	0.050450064
116	0xbd917643	-0.07102635
117	0x3ca05d77	0.019575818
118	0xbd3a5d1e	-0.04549896
119	0xbc101f69	-0.008796551
120	0x3d294de0	0.041334033
121	0xbd29f718	-0.041495413
122	0xbbbf429b	-0.0058367974
123	0x3dca7734	0.098860174
124	0xbc5da533	-0.013528156
125	0x3d452ad2	0.04813654
126	0x3e2216f2	0.15829065
127	0x3d528850	0.05139953
128	0x3daf968b	0.08573636
129	0xbddd91d3	-0.108188294
130	0xbde7a37f	-0.11310481
131	0x3d2a62e3	0.041598212
132	0x3d7b5d20	0.061368108
133	0xbd619080	-0.055069447
134	0xbc6e30c6	-0.014537996
135	0xbd83f36d	-0.06442914
136	0xbd92ef79	-0.07174582
137	0xbddb5651	-0.10709823
138	0x3dfdf148	0.12399536
139	0xbe46f389	-0.19428839
140	0x3cfc2939	0.030781375
141	0xb809de34	-3.2870288e-05
142	0x3dd6028a	0.10449703
143	0xbd4c67f8	-0.04990384
144	0x3d14af8e	0.036300234
145	0xbd1a99f2	-0.03774447
146	0xbd97186d	-0.07377706
147	0x3cb6e2ae	0.022324886
148	0xbcefda46	-0.029278886
149	0xbc121650	-0.0089164525
150	0x3d509eda	0.050932743
151	0x3c9b83b4	0.0189837
152	0x3d10fc60	0.035396934
153	0x3d432744	0.04764487
154	0x3dab19d9	0.083545394
155	0xbccb3239	-0.024804221
156	0x3cbc1fb2	0.022964332
157	0xbd96c4a7	-0.07361727
158	0x3c3ad715	0.011403819
159	0x3e324f49	0.17413057
160	0x3d8d69ef	0.06904971
161	0x3d1b72a2	0.03795112
162	0xbdd24e46	-0.10268836
163	0x3d15e2c8	0.03659323
164	0x3c8b6c95	0.01701955
165	0xbcced80b	-0.025249502
166	0x3d85b2e7	0.065282635
167	0xbd96fa78	-0.07371992
168	0xbcd6340c	-0.026147865
169	0x3c057e10	0.008147731
170	0xbe3bed2c	-0.18352193
171	0x3e2a1f69	0.16613545
172	0x3b8c4762	0.0042809704
173	0x3e07d035	0.13263018
174	0xbdfe4369	-0.12415201
175	0xbd423fe3	-0.04742421
176	0xbd6f5537	-0.058430877
177	0xbdbddbff	-0.092704765
178	0x3decce67	0.115628056
179	0xbd3930c8	-0.045212537
180	0xbde3bc89	-0.111199446
181	0x3e0474c1	0.12935163
182	0xbb9371e1	-0.0044996594
183	0xbe0d47b1	-0.1379688
184	0x3c9e8ac6	0.019353282
185	0xbd552c86	-0.052044414
186	0x3dd9cbed	0.10634599
187	0xbd3eaaaf	-0.046549495
188	0x3cf73227	0.030175282
189	0x3d3833ad	0.044971157
190	0x3d4a331d	0.04936515
191	0xbd1ff6f8	-0.039053887
192	0xbdad733f	-0.08469247
193	0xbd3e45cb	-0.04645328
194	0x3dd5279b	0.10407945
195	0x3d46b8d4	0.04851611
196	0x3ce02d9b	0.027365496
197	0x3d033518	0.032033056
198	0xbd27b5b9	-0.04094479
199	0xbd7ce635	-0.06174298
200	0x3d5c1e43	0.053739797
201	0xbb061576	-0.002045957
202	0x3cda1292	0.026620183
203	0x3dacf39d	0.08444903
204	0x3bbe7111	0.0058118184
205	0xbd62fa57	-0.055414524
206	0xbe08fde0	-0.13378096
207	0x3cc14327	0.023591591
208	0x3cf39f6a	0.0297391
209	0xbd49f8b2	-0.04930944
210	0xba62e904	-0.0008655938
211	0x3c0c54da	0.008565152
212	0xbd7f03a5	-0.062259335
213	0x3c86ee80	0.016471148
214	0xbe35ed94	-0.1776641
215	0x3d73059a	0.059331514
216	0x3d96bb92	0.07359995
217	0xbd1d0192	-0.038331576
218	0xbd8ae201	-0.06781388
219	0x3c52bd78	0.012862556
220	0x3d7fdf2b	0.06246869
221	0xbca1b3c3	-0.019739037
222	0x3c625750	0.013814762
223	0x3d73d531	0.059529487
224	0x3d5c6d98	0.053815454
225	0x3cdc1a69	0.026868062
226	0xbd38e3aa	-0.045138992
227	0x3dc5cc8c	0.09658155
228	0xbd786847	-0.06064632
229	0xbd8dc6a3	-0.069226526
230	0x3d03423d	0.03204559
231	0x3df89f7a	0.12139793
232	0x3de822dc	0.11334774
233	0xbd1d2f3c	-0.038375124
234	0xbdc6b961	-0.09703327
235	0xbda89321	-0.082311876
236	0x3d43c38b	0.047793906
237	0xbcd9822b	-0.026551327
238	0x3c6a8264	0.014313314
239	0x3c0c0b6c	0.008547645
240	0xbd4dacdf	-0.05021369
241	0x3d9a1536	0.07523577
242	0x3daf3c61	0.08556438
243	0xbc3cfa1b	-0.011534239
244	0x3d11c108	0.03558448
245	0xbcf37ea0	-0.029723465
246	0x3da09ce5	0.07842425
247	0x3d6d701c	0.057968244
248	0xbc6512ec	-0.013981562
249	0xbd3130eb	-0.043259542
250	0x3d823850	0.06358397
251	0x3d6a4f00	0.057204247
252	0xbcebb0d6	-0.028770845
253	0xbc8efe80	-0.01745534
254	0xbd4e6fd0	-0.0503996
255	0x3b49da62	0.0030800332

net_container.4.bias f4 [128]
0	0xbe26b552	-0.16280106
1	0x3d5200d2	0.051270314
2	0x3d9c717e	0.076388344
3	0xbe067c26	-0.13133296
4	0xbdd75366	-0.10513954
5	0xbdfa4fcd	-0.12222252
6	0xbe27f504	-0.1640206
7	0xbdf9456c	-0.12171444
8	0xbda78921	-0.08180452
9	0xbd84a8c6	-0.064775035
10	0x3d1d1c12	0.038356848
11	0xbdf7c1e9	-0.12097532
12	0x3c9f7a2c	0.019467436
13	0xbdc806b8	-0.097669065
14	0x3ca3bea9	0.019988375
15	0x3d3c4432	0.045963474
16	0xbdc60520	-0.09668946
17	0xbc0f68bf	-0.008753001
18	0x3dc92515	0.09821526
19	0xbbc640ac	-0.00605019
20	0xbdc0e6cc	-0.09419021
21	0xbc8fef52	-0.017570172
22	0xbdad5f47	-0.08465438
23	0xbcad0611	-0.021121057
24	0xbd028642	-0.03186632
25	0xbd247ea9	-0.040159855
26	0x3d7ed3e0	0.06221378
27	0xbb4f1051	-0.0031595419
28	0xbd5218d7	-0.05129322
29	0x3bbb9aa9	0.005725224
30	0xbda31566	-0.07963066
31	0x3d9e8dc6	0.07741885
32	0xbc85187d	-0.016247028
33	0xbdbdb02d	-0.092621185
34	0xbc82444a	-0.015901703
35	0xbdbd7787	-0.09251314
36	0xbdb1810c	-0.08667192
37	0xbd05ed93	-0.03269727
38	0xbbd7e07a	-0.006588039
39	0x3c98ece8	0.018667653
40	0xbd385c70	-0.04501003
41	0xbd3e6ebc	-0.046492323
42	0x3d44a57f	0.048009392
43	0xbdc62cc2	-0.096765056
44	0xbd863f94	-0.06555095
45	0x3d339c9c	0.043850526
46	0xbd8363bb	-0.064155065
47	0x3c8f05de	0.017458852
48	0x3c432d8c	0.011912715
49	0x3d541c1c	0.05178462
50	0x3d89cad9	0.06728143
51	0xbd128c50	-0.035778344
52	0xbd3f017f	-0.046632286
53	0xbd6a9f0b	-0.05728058
54	0xbd02f598	-0.031972498
55	0xbcea94bc	-0.028635375
56	0x3e029507	0.12752162
57	0xbe2d6aff	-0.16935347
58	0xbcd841f9	-0.026398646
59	0x3db257c4	0.08708146
60	0xbaaf794e	-0.0013387592
61	0xbbaa6979	-0.0052005616
62	0xbdb1d92f	-0.086840026
63	0xbde16f3f	-0.11007547
64	0xbd3aea1d	-0.045633424
65	0x3d2a1a92	0.041529246
66	0xbdbc1778	-0.09184164
67	0x3d3b5f2e	0.045745067
68	0xbd47772a	-0.048697628
69	0x3caa9a60	0.020825565
70	0x3ccce152	0.025009785
71	0x3d643468	0.05571404
72	0x3dbca1de	0.09210561
73	0x3e4a3aa5	0.19748934
74	0xbd09f9eb	-0.033685606
75	0xbc75ec2c	-0.015009921
76	0x3c8138ad	0.015774095
77	0x3da5246c	0.080635875
78	0x3cdc14d2	0.026865397
79	0xbd62485e	-0.055244796
80	0x3db68e9d	0.0891392
81	0x3ce6bb02	0.028165344
82	0xbd86992c	-0.06572184
83	0x3d67043a	0.056400515
84	0x3d60b142	0.054856546
85	0xbda50321	-0.080572374
86	0xbc6095ce	-0.013707591
87	0xbd4ad7c9	-0.049522195
88	0x3d91267c	0.070874184
89	0x3da4886a	0.080338314
90	0xbd9c6af5	-0.07637588
91	0xbdc25d3f	-0.094904415
92	0xbd7323b3	-0.059360217
93	0xbd94e6d6	-0.07270591
94	0x3dcce45a	0.10004492
95	0xbddcf520	-0.107889414
96	0xbd91a7c1	-0.07112075
97	0xbd69460a	-0.05695156
98	0x3c8585a8	0.016299084
99	0xbce33744	-0.027736314
100	0xbddc81f1	-0.10766972
101	0xbde64d58	-0.11245221
102	0xbe7c711f	-0.24652527
103	0x3c4eae9f	0.012614875
104	0x3bc09587	0.0058772
105	0xbcbf5910	-0.023357898
106	0x3cb344e2	0.021883432
107	0xbb949114	-0.004533896
108	0xbe157c52	-0.14598206
109	0xbcdfc9eb	-0.027317962
110	0x3d8455e2	0.06461693
111	0x3dbbd405	0.09171299
112	0xbe100a5a	-0.14066449
113	0xbdcf922e	-0.101353034
114	0x3ded6116	0.11590783
115	0x3d8207c6	0.06349139
116	0x3c9ee84e	0.01939788
117	0x3dc23883	0.09483435
118	0xbc11a690	-0.008889809
119	0x3d454360	0.048159957
120	0x3d9005c4	0.0703235
121	0x3d3fff25	0.046874184
122	0x3d8e9ad9	0.069631286
123	0xbc95116e	-0.018196788
124	0x3c0df7f3	0.008665073
125	0xbd79a26e	-0.06094592
126	0xbad35028	-0.0016121911
127	0xbc175c44	-0.009238306

policy_layer.weight f4 [19, 128]
0	0xbc666093	-0.014061111
1	0xbbfaf89d	-0.0076590315
2	0xbd0bed71	-0.03416199
3	0xbc8d6bb6	-0.017263275
4	0xbd29e07d	-0.041473854
5	0x3da0cb19	0.07851238
6	0x3c2628b7	0.010141543
7	0xbd6e3ea6	-0.058165215
8	0x3c83b9f6	0.016079884
9	0x3d9f2c79	0.07772154
10	0xbd0208d4	-0.0317467
11	0x3cc92e43	0.024558192
12	0x3cfe04cb	0.031008145
13	0x3d0624de	0.032750003
14	0x3d10b9de	0.035333507
15	0x3c90c008	0.017669693
16	0xbc10963d	-0.008824882
17	0x3cc165a2	0.023608033
18	0x3ce5023a	0.027955163
19	0x3c8d71ff	0.017266272
20	0x3b034954	0.002003272
21	0xbcd40fee	-0.025886502
22	0x3d5b0b0c	0.053477332
23	0xbdadf3a4	-0.084937364
24	0x3d084513	0.033269
25	0xbd12aa9b	-0.035807233
26	0x3c9be5ab	0.019030413
27	0x3a570068	0.00082016597
28	0x3cfa32f4	0.030541874
29	0x3d2bb5b6	0.04192134
30	0x3c501afb	0.012701745
31	0x3cb65ab5	0.02226005
32	0xbd7db332	-0.061938472
33	0xbce57bf5	-0.028013209
34	0x3c7e4b47	0.015520877
35	0xbd89d2a3	-0.06729629
36	0x3d7962d0	0.06088525
37	0xbb122b9b	-0.0022303823
38	0xbc9a2f5f	-0.018821416
39	0xbcfd3a5f	-0.030911623
40	0xbd97fd8c	-0.07421407
41	0x3d1f9a75	0.03896566
42	0xbd1546f4	-0.03644462
43	0x3d34a679	0.044104073
44	0xbd018fe1	-0.031631354
45	0xbd9f50f5	-0.07779113
46	0x3c81462e	0.015780535
47	0xbc500ddb	-0.012698616
48	0x3c1d4a0a	0.009600172
49	0x3a73f8d7	0.00093067944
50	0xbd4be05b	-0.04977451
51	0x3ca65000	0.020301819
52	0x3cf4a6e4	0.029864736
53	0x3d2026e5	0.039099593
54	0xbd10b79e	-0.03533136
55	0xbc7fdcf1	-0.015616641
56	0x3ba7714a	0.0051099407
57	0x3c9f9a9c	0.019482903
58	0x3d203410	0.03911215
59	0x3c88bcc7	0.016691579
60	0x3cc85b1f	0.024457512
61	0x3d9c46b2	0.076306716
62	0x3c997519	0.018732594
63	0xbc28fd84	-0.010314349
64	0xbb66f33b	-0.0035240192
65	0xbd0d8fdb	-0.03456102
66	0xbd54a343	-0.05191351
67	0x3d289f08	0.04116729
68	0xbd0a2947	-0.03373077
69	0xbd0e6372	-0.034762807
70	0xbd0cfda0	-0.034421563
71	0x3da7d4a2	0.08194853
72	0x3d50d6cb	0.050986093
73	0xbd522564	-0.05130519
74	0xbad7fbc9	-0.0016478236
75	0x3c72e310	0.014824644
76	0x3d5dadc9	0.054120813
77	0xbd5de364	-0.054171935
78	0xbcbf2895	-0.02333478
79	0x3c12e74a	0.008966276
80	0xbb2ecdb5	-0.0026672904
81	0x3c8dbe54	0.01730267
82	0x3e0b3e73	0.13598041
83	0xbd15fad4	-0.03661616
84	0x3d22977d	0.03969525
85	0xbcd9551c	-0.026529841
86	0x3c157a81	0.0091234455
87	0x3d65f73c	0.056143984
88	0xbc039b72	-0.0080326665
89	0x3ce4c314	0.027925052
90	0x3cc9da5d	0.024640257
91	0xbd1cf484	-0.038319126
92	0xbd18e7fe	-0.03733062
93	0x3ced6d51	0.02898279
94	0xbd19502b	-0.03742997
95	0xbbdf9a1d	-0.0068237917
96	0x3d4ed385	0.05049469
97	0x3d572e6f	0.052534517
98	0x3c147556	0.009061178
99	0xbcba4514	-0.022738017
100	0xbaa0cbd7	-0.001226778
101	0x3b5e8b78	0.0033957642
102	0xbd3f28c4	-0.046669737
103	0xbc90b202	-0.017663006
104	0xbd64cf71	-0.055861894
105	0xbc6ab552	-0.014325457
106	0x3d33056a	0.043706335
107	0x3d1511d8	0.03639397
108	0xbc9c7e8f	-0.019103317
109	0xbd4ff0eb	-0.050766867
110	0x3c802e69	0.01564713
111	0x3ba5e868	0.0050631054
112	0x3bc2c25d	0.00594358
113	0x3cfcb3b8	0.030847415
114	0xbb6aa694	-0.0035804855
115	0x3b692c4b	0.003557938
116	0xbd16108e	-0.03663688
117	0x3d1dfd57	0.03857168
118	0xbc83e9cc	-0.016102694
119	0xbc84cfe2	-0.016212407
120	0x3cc4dc18	0.02403073
121	0xbd51c302	-0.051211365
122	0xbbeaf702	-0.007170559
123	0x3c317e58	0.010833345
124	0xb99742a5	-0.00028850618
125	0xbd931c4d	-0.07183132
126	0xbc1a1a78	-0.009405725
127	0xbd03f45b	-0.032215457
128	0x3babf6e4	0.0052479375
129	0x3d6c601b	0.05770884
130	0x3d345b11	0.04403216
131	0xbd9be574	-0.07612124
132	0xbd1c07bc	-0.038093314
133	0x3ceb809d	0.028747851
134	0xbca0a7eb	-0.01961132
135	0xbc09a996	-0.008402249
136	0xbcc574db	-0.024103573
137	0x3cbdb157	0.023155851
138	0xbd61670d	-0.055029918
139	0xbceccc38	-0.028905973
140	0xbd5fd6eb	-0.05464832
141	0xbdbe0b52	-0.09279503
142	0x3cb7105b	0.022346666
143	0xbd505930	-0.050866306
144	0x3b3e01f5	0.0028992866
145	0xbd8b7e58	-0.068112075
146	0x3cc5fe69	0.024169164
147	0xbca141b2	-0.019684646
148	0x3cafca7d	0.021458859
149	0x3d2a772a	0.04161755
150	0xbcc52168	-0.02406378
151	0x3d68f36a	0.056872763
152	0x3c87a15a	0.01655643
153	0x3da2d443	0.07950642
154	0x3d129d99	0.035794828
155	0xbbdbd93e	-0.006709247
156	0x3c85c71d	0.016330296
157	0xbd59537a	-0.053058125
158	0xbc3e2292	-0.011604922
159	0xbcf3990d	-0.029736066
160	0x3c997d41	0.018736484
161	0x3d9d3501	0.07676125
162	0x3b24e885	0.0025163007
163	0xbc9beb0e	-0.019032981
164	0x3d63e4e0	0.055638194
165	0xbcaa96f5	-0.020823935
166	0x3ca386f9	0.01996182
167	0xbc94efc9	-0.018180745
168	0xbcacf064	-0.021110721
169	0xbcc2f3a9	-0.023797827
170	0xbba47ee2	-0.0050200084
171	0xbc024aab	-0.007952373
172	0xbbac5120	-0.0052586943
173	0x3d73c94a	0.059518136
174	0xbc3f0192	-0.011658089
175	0x3cbf6575	0.023363808
176	0xbb484a86	-0.0030561998
177	0xbd7e21d6	-0.062043987
178	0xbcda3169	-0.026634889
179	0xbd47dc05	-0.04879381
180	0x3c305a83	0.010763767
181	0x3cb23936	0.021755796
182	0xbc0230e0	-0.007946223
183	0x3d2e7aa5	0.04259743
184	0xbc8fd684	-0.017558344
185	0xbd42dfee	-0.047576837
186	0xbd63d6f3	-0.055624913
187	0x3d2912b1	0.04127759
188	0xbd498918	-0.04920301
189	0x3ce00ac6	0.027348887
190	0xbd05c761	-0.032660846
191	0xbd83ffbf	-0.06445264
192	0xbc3fc7ef	-0.011705383
193	0xbcebff73	-0.028808331
194	0x3d2b3d21	0.041806344
195	0xbc9cbdec	-0.01913353
196	0x3d57e5a1	0.052709226
197	0x3d551f85	0.052032012
198	0xbd32f658	-0.043691963
199	0xbd9a60d7	-0.07538002
200	0xbd8ba860	-0.06819224
201	0xbc421610	-0.01184608
202	0x3cc393d2	0.023874197
203	0xbb119658	-0.0022214856
204	0x3a0b4422	0.0005312582
205	0x3d5af55c	0.05345665
206	0x3ccf07f7	0.025272353
207	0xbdb79a79	-0.0896501
208	0xbb500a01	-0.0031744244
209	0x3db1a746	0.08674483
210	0xbd528495	-0.05139597
211	0x3d6b0b99	0.057384107
212	0x3c82d21e	0.015969332
213	0x3cada052	0.02119461
214	0x3cdbd08c	0.026832841
215	0x3cc1b2d0	0.023644835
216	0xba102411	-0.00054985384
217	0x3cb8e6c7	0.02257098
218	0x3c1e472d	0.009660524
219	0xbd81c59b	-0.063365184
220	0xbd3a8de4	-0.045545474
221	0xbcac676c	-0.02104541
222	0xbbb8ec65	-0.005643415
223	0x3d13a50d	0.036046077
224	0x3d3f4795	0.046699125
225	0xbc71b982	-0.014753701
226	0xbcf40923	-0.029789513
227	0x3bb6e8f8	0.0055819713
228	0xbc1dcc21	-0.009631188
229	0x3d372d6c	0.044721052
230	0xbb97c405	-0.0046315216
231	0x3d306532	0.043065257
232	0x3ac233df	0.0014816484
233	0x3bb7ef22	0.0056132236
234	0x3b2fbd9c	0.0026815897
235	0x3bd05d10	0.00635875
236	0xbd990aba	-0.07472749
237	0xbbfcc871	-0.007714324
238	0x3bd408ca	0.0064707743
239	0xbd4dfa69	-0.050287638
240	0xbcf53f41	-0.029937388
241	0xbd029501	-0.031880382
242	0xbcc64090	-0.024200708
243	0x3c1967fb	0.00936317
244	0x3d815ace	0.06316148
245	0x3c166801	0.00918007
246	0xbd03884b	-0.0321124
247	0xbcbcef4e	-0.023063328
248	0xbb059cfd	-0.0020387762
249	0x3c8a8c36	0.01691256
250	0xbb67b42c	-0.0035355194
251	0x3d199fab	0.037505787
252	0x3c658dd2	0.014010863
253	0x3cf7357f	0.030176876
254	0xbc4ac3a9	-0.012375751
255	0x3cc9085a	0.024540115

policy_layer.bias f4 [19]
0	0xbd180d6f	-0.037122186
1	0xbbbde4bd	-0.00579509
2	0xbc50c52a	-0.01274232
3	0x3b21a132	0.002466273
4	0x3c0781f6	0.008270731
5	0xbcdad579	-0.02671312
6	0xbcbf5d9f	-0.023360072
7	0x3c97924a	0.018502373
8	0xbd5debd5	-0.054179985
9	0x3db28236	0.08716242
10	0x3d05066e	0.032476835
11	0x3db79c54	0.08965364
12	0x3d89536a	0.06705363
13	0x3cdfd914	0.02732519
14	0xbcf356c9	-0.029704468
15	0xbe17237f	-0.14759634
16	0xbe364972	-0.17801455
17	0x3b799c8f	0.00380877
18	0xbd565e06	-0.05233576

value_layer.weight f4 [1, 128]
0	0xbe050ed9	-0.12993945
1	0x3e18f306	0.14936456
2	0xbb64b5ac	-0.0034898324
3	0xbcdeff6c	-0.027221404
4	0xbdd5b276	-0.10434429
5	0xbc29ca9d	-0.010363248
6	0xbd0beb91	-0.0341602
7	0x3d897fcd	0.06713829
8	0x3bf6106c	0.007509282
9	0xbd8492e4	-0.0647333
10	0xbdec52d1	-0.115392335
11	0xbd4948c6	-0.049141668
12	0x3e260352	0.16212204
13	0x3d0f9bc1	0.035060648
14	0x3b96decd	0.0046041966
15	0xbd7b53b4	-0.061359122
16	0xbc051a86	-0.008123999
17	0xbdaf9092	-0.085724965
18	0x3d8397cc	0.06425437
19	0x3cb68a36	0.022282701
20	0xbe059188	-0.13043797
21	0xbdacb67d	-0.084332444
22	0x3bcac7d3	0.0061883717
23	0x3d8826dc	0.06648037
24	0xbc8b06bf	-0.01697099
25	0x3dadde95	0.0848972
26	0xbde228b7	-0.11042922
27	0xbc821473	-0.015878892
28	0x3cbe1f4d	0.023208285
29	0xbcfccc70	-0.030859202
30	0x3ddf85e8	0.109142125
31	0x3e029337	0.1275147
32	0xbd8a6f76	-0.06759541
33	0xbbce6e2f	-0.006299756
34	0x3dfca59d	0.12336276
35	0x3d019f34	0.03164597
36	0xbdc847e3	-0.09779336
37	0xbdb024c9	-0.08600766
38	0xbdc2eb54	-0.095175415
39	0xbe2cc215	-0.16870911
40	0xbd045d65	-0.03231563
41	0x3dccfbd4	0.1000897
42	0xbd9bf37d	-0.07614801
43	0xbe0a95df	-0.13533734
44	0x3dae5d48	0.08513886
45	0xbd1d0ecb	-0.038344186
46	0x3e31a5f3	0.17348461
47	0x3d036eb9	0.032088015
48	0xbdff0e38	-0.12453884
49	0x3daedb2c	0.085378975
50	0x3df48766	0.11939888
51	0x3d42daad	0.047571827
52	0xbe0c3d47	-0.1369525
53	0xbd3e634d	-0.04648142
54	0xbdd73a6f	-0.10509192
55	0xbe053811	-0.13009669
56	0x3dc70a73	0.0971879
57	0xbe21b1da	-0.15790501
58	0x3c6c94a7	0.014439738
59	0x3da055f0	0.07828891
60	0x3db3bfb9	0.087768026
61	0x3e0be48a	0.136614
62	0xbe161ab3	-0.14658622
63	0xbe46ce7d	-0.19414707
64	0xbe6315e3	-0.22176318
65	0x3dcc4dc6	0.099757716
66	0x3c42b016	0.0118828025
67	0xbb6df4e8	-0.0036309306
68	0xbd0dd527	-0.034627106
69	0x3dec845b	0.11548682
70	0xbe03acbf	-0.12858866
71	0x3daa3d72	0.08312501
72	0x3e5fa476	0.2184008
73	0x3e448e06	0.19194803
74	0x3d8f861b	0.070080005
75	0xbe1638db	-0.14670126
76	0x3cb10126	0.021606993
77	0x3d816932	0.063188925
78	0xbd24f69c	-0.040274248
79	0xbd08243a	-0.033237673
80	0xbc510977	-0.012758604
81	0xbba4a965	-0.005025076
82	0xbd2debb9	-0.04246113
83	0x3d69a73d	0.057044256
84	0x3def6629	0.116894074
85	0x3d25beff	0.04046535
86	0xbd0f406e	-0.034973554
87	0xbd3e9526	-0.046528958
88	0x3d871b37	0.06596988
89	0x3e13cd86	0.1443387
90	0x3c4b3f72	0.012405263
91	0xbe1fad5c	-0.15593475
92	0x3b9856ae	0.004649005
93	0xbd5f9919	-0.054589365
94	0x3de1dff9	0.110290475
95	0xbe16975b	-0.14706175
96	0xbd99be70	-0.07507026
97	0x3da13252	0.07870926
98	0xbcc38923	-0.023869103
99	0x3cc58752	0.024112377
100	0x3ce70c2c	0.028204046
101	0xbdc66a39	-0.09688229
102	0xbe5d8088	-0.21631062
103	0xbd550a6d	-0.052011896
104	0x3cdea418	0.027177855
105	0xbe2445a5	-0.16042192
106	0xbd1857f3	-0.03719325
107	0x3d7a1172	0.061051793
108	0xbe1e8f8c	-0.15484446
109	0x3d935995	0.07194821
110	0x3e3103aa	0.17286554
111	0x3c5825fa	0.013192648
112	0xbd453720	-0.048148274
113	0x3d868fb9	0.06570382
114	0x3da52f2e	0.080656394
115	0xbe19c011	-0.15014674
116	0xbd4d9cd0	-0.050198376
117	0x3d5a3ce1	0.053280715
118	0x3cb5e723	0.022204941
119	0xbd8e6c6e	-0.06954275
120	0x3e494383	0.1965466
121	0x3d440674	0.047857717
122	0x3d76f4ca	0.060292043
123	0x3d489f1e	0.04897987
124	0x3df9bf6c	0.12194714
125	0x3cdb0871	0.026737424
126	0xbde60389	-0.11231143
127	0x3d05f267	0.032701876

log_std_parameter f4 [19]
0	0xc049f8cf	-3.155811
1	0xc04b95ae	-3.1810107
2	0xc055fedf	-3.343681
3	0xbfe64ae7	-1.7991608
4	0xbfe1c94d	-1.7639557
5	0xbf531028	-0.8244653
6	0xbf5436e5	-0.8289626
7	0xc014b038	-2.3232555
8	0xc0121da9	-2.2830603
9	0xbf26db24	-0.6517813
10	0xbf38bb89	-0.72161156
11	0xbfce7b8b	-1.6131452
12	0xbfbc2b8a	-1.4700787
13	0xbf5aab58	-0.854177
14	0xbf30a9df	-0.690092
15	0xbf3d490f	-0.73939604
16	0xbf50992b	-0.81483716
17	0xbf484490	-0.7822962
18	0xbf30eb43	-0.6910898

net_container.0.weight f4 [128, 69]
0	0xbdb18d9a	-0.086695865
1	0xbeb01555	-0.34391275
2	0x3e4bb631	0.1989372
3	0xbebf6a93	-0.37385997
4	0x3d77c96c	0.060494825
5	0x3c88b35e	0.016687091
6	0xbe39f09f	-0.18158196
7	0xbe829d67	-0.25510713
8	0x3dc9a44b	0.098457895
9	0xbd4bd0a1	-0.04975951
10	0xbd7eda87	-0.062220123
11	0x3dc30913	0.09523215
12	0xbe1c5647	-0.15267287
13	0xbee90440	-0.45511055
14	0xbe5c194b	-0.21494024
15	0xbe8b056f	-0.27152583
16	0x3ead2a14	0.33821166
17	0xbea0e3f6	-0.3142392
18	0x3f0f0728	0.55870295
19	0xbe2a5bc2	-0.16636565
20	0xbe5a32cc	-0.2130844
21	0x3c92f715	0.017940084
22	0x3e2a00a2	0.16601804
23	0xbe8074be	-0.25089067
24	0xbebc49af	-0.36774966
25	0x3de408a4	0.111344606
26	0xbeb1c2af	-0.34718844
27	0xbac3d429	-0.0014940548
28	0x3e59d6b6	0.21273312
29	0xbc66db77	-0.01409041
30	0x3e55dfc6	0.20886144
31	0x3c999127	0.018745972
32	0xbb94fc11	-0.00454665
33	0x3aea040e	0.0017853992
34	0xbd4ff373	-0.05076928
35	0x3d8c1fc6	0.06841998
36	0x3ca500b3	0.020141935
37	0xbd727936	-0.059197627
38	0xbdae3059	-0.08505315
39	0x3d7c23d3	0.061557602
40	0x3c19576f	0.009359225
41	0xbe12ebb3	-0.14347725
42	0x3d2fd4cd	0.042927552
43	0x3d016687	0.03159192
44	0x3dd55978	0.104174554
45	0x3d6d76a5	0.057974476
46	0xbd7c2027	-0.0615541
47	0x3e1b8adc	0.1518969
48	0xbdb59d1a	-0.08867855
49	0xbc7451e0	-0.014912099
50	0xbd6171a7	-0.055040028
51	0x3dc85afb	0.09782978
52	0x3e0ca290	0.13733888
53	0x3df10fce	0.11770593
54	0xbcd8dc03	-0.026472097
55	0x3cb4f79a	0.022090722
56	0xbdbb0c02	-0.0913315
57	0xbcf2e002	-0.02964783
58	0x3c9782d5	0.018495003
59	0x3de9ae77	0.1141023
60	0x3dd2c1ec	0.10290894
61	0xbde9701f	-0.113983385
62	0xbe008e9e	-0.12554404
63	0xbd2f62cc	-0.04281883
64	0x39d07922	0.00039763103
65	0x3d6155ba	0.055013396
66	0xbd66d1dd	-0.056352485
67	0x3d497255	0.0491813
68	0x3daf663f	0.08564424
69	0x3d052752	0.032508202
70	0x3e63c0ce	0.22241518
71	0x3e73ad83	0.23796658
72	0xbe5ec83e	-0.21756074
73	0xbe0eb4b2	-0.13936117
74	0x3e11485c	0.14187759
75	0x3d13e9d3	0.036111664
76	0xbea9dabd	-0.33174697
77	0x3daecd04	0.085351974
78	0x3d169b57	0.036769237
79	0xbd28830b	-0.041140597
80	0x3e5d3823	0.21603446
81	0x3d890822	0.06691004
82	0xbea18587	-0.31547186
83	0x3e05fdc5	0.13085087
84	0xbde896ba	-0.11356874
85	0x3cb7a6f7	0.022418482
86	0xbea234b5	-0.31680837
87	0x3eb31b31	0.34981683
88	0x3e196097	0.14978252
89	0xbba7e4b4	-0.005123699
90	0x3dba6b2a	0.09102471
91	0xbe3f65db	-0.18691199
92	0x3c0abed4	0.0084683485
93	0x3dc18ba6	0.09450464
94	0x3dee8e7a	0.11648269
95	0xbe8c2601	-0.27372745
96	0xbd5e66d0	-0.05429727
97	0x3e262af4	0.16227323
98	0x3a8becdb	0.0010675447
99	0xbf0c535e	-0.5481471
100	0x3af90866	0.0018999695
101	0x3da1c406	0.07898717
102	0xbd74bf78	-0.05975291
103	0x3ccde358	0.02513282
104	0xbdbe407a	-0.09289642
105	0xbb47ca77	-0.0030485669
106	0xbb7c49ed	-0.0038496212
107	0xbd0f695e	-0.035012595
108	0xbc5f67ba	-0.01363557
109	0xbbe9810e	-0.00712598
110	0xbcd484a2	-0.02594215
111	0xbda3c819	-0.0799715
112	0x3a59195f	0.00082816737
113	0xbd090e26	-0.03346076
114	0x3c9e487b	0.01932167
115	0x3db08c45	0.08620504
116	0x3cdb66d5	0.026782433
117	0x3dc63548	0.09678131
118	0x3d5c3235	0.05375882
119	0x3af4aea0	0.0018667765
120	0xbac248ae	-0.0014822686
121	0x3dbadd99	0.09124298
122	0x3d066f2e	0.032820873
123	0x3d8654a6	0.06559114
124	0xbd5c4d14	-0.053784445
125	0xbd931a18	-0.07182711
126	0xbe6b2c4c	-0.22966117
127	0xbd1015f8	-0.0351772
128	0xbc815530	-0.01578769
129	0x3d0cc55d	0.034367908
130	0x3da1dd4d	0.07903538
131	0xbe8f3aac	-0.2797445
132	0x3c0e3474	0.008679498
133	0xbe30ef33	-0.17278747
134	0xbdb45615	-0.08805481
135	0xbd0a4dee	-0.033765726
136	0xbdb6797d	-0.08909891
137	0x3d4c23ca	0.04983882
138	0xbe91b9ae	-0.28461975
139	0x3ed66a58	0.4187801
140	0x3d0ea328	0.034823567
141	0x3d867631	0.06565512
142	0x3d6ee81b	0.05832682
143	0xbd50164b	-0.05080251
144	0xbed5326a	-0.41640025
145	0x3e92ca15	0.286698
146	0x3e63e2d5	0.22254498
147	0x3e8d96a8	0.27654004
148	0x3d2a0e7d	0.041517723
149	0x3e6dd947	0.23227416
150	0x3d82e64a	0.063915804
151	0xbdbf4c1b	-0.09340688
152	0x3cf4deb4	0.02989135
153	0x3e50f0f9	0.20404424
154	0xbefb4a01	-0.49079898
155	0xbe86cb7c	-0.2632712
156	0x3f1dc2cf	0.6162538
157	0xbed551a4	-0.4166385
158	0xbe3032e8	-0.17206919
159	0xbdfc49bb	-0.123187505
160	0x3df0f592	0.11765589
161	0x3be5bb21	0.007010833
162	0x3c9c9093	0.019111907
163	0xbe0427e1	-0.12905838
164	0x3e0032c9	0.12519373
165	0xbb133fab	-0.002246837
166	0x3d768497	0.06018504
167	0x3d260966	0.040536307
168	0x3e08fd86	0.13377962
169	0x3ca79418	0.020456359
170	0xbd112f2e	-0.035445385
171	0x3d6642f2	0.056216188
172	0x3e2356fc	0.1595115
173	0xbdfa7604	-0.12229541
174	0xbc6b5be3	-0.014365169
175	0xbd7fc96e	-0.062447958
176	0xbd26d30f	-0.040728625
177	0x3d67199f	0.05642092
178	0xbdb2bf8f	-0.08727943
179	0xbdcc206f	-0.09967124
180	0xbd7e2ce0	-0.062054515
181	0x3cd01172	0.025398944
182	0x3d117835	0.03551503
183	0x3b7bec34	0.0038440349
184	0xbd911de6	-0.07085781
185	0xba3a0472	-0.00070959993
186	0x3bc54237	0.0060198563
187	0xbd17331f	-0.036913987
188	0xbd76e47f	-0.060276505
189	0xbd654c83	-0.05598117
190	0x3da9a636	0.08283655
191	0xbd14565a	-0.036215164
192	0x3c78f1bb	0.015194352
193	0x3d204e51	0.03913719
194	0xbdbde8f7	-0.0927295
195	0xbdd77def	-0.10522067
196	0x3e8a4f54	0.27013648
197	0x3d7c184b	0.061546605
198	0x3d70d008	0.058792144
199	0xbda6cffa	-0.08145137
200	0x3dcd8d18	0.10036677
201	0xbd90837f	-0.07056331
202	0x3d660376	0.056155644
203	0xbc80a1b2	-0.015702102
204	0xbc6da19f	-0.0145038655
205	0x3d6f79cc	0.058465764
206	0xbc3ec88e	-0.011644496
207	0x3e751bc8	0.23936379
208	0x3eb8608e	0.36011165
209	0xbe59ad62	-0.21257547
210	0xbdd9d7ea	-0.106368855
211	0x3aa1ad16	0.0012334909
212	0xbd98508c	-0.07437238
213	0x3fa56575	1.2921587
214	0xbec4780d	-0.3837284
215	0xbd8a456c	-0.067515224
216	0xbcc6543c	-0.024210088
217	0x3deee56c	0.116648525
218	0xbd6a7277	-0.05723807
219	0x3e964dce	0.29356235
220	0xbe1edd21	-0.15514041
221	0x3e750058	0.23925912
222	0x3f06beea	0.5263506
223	0xbea9a43b	-0.3313311
224	0xbd29cc8f	-0.041454848
225	0x3e1f4b78	0.15556133
226	0x3eeea351	0.46608976
227	0x3ebe3acb	0.3715423
228	0x3e693599	0.22774352
229	0x3e249540	0.1607256
230	0x3ea18dd4	0.3155352
231	0x3e9ff6f7	0.31243107
232	0x3e0d3cf5	0.13792785
233	0xbdf8f03d	-0.12155197
234	0xbde308a3	-0.11085632
235	0xbd67eaed	-0.056620527
236	0x3db19b3f	0.08672189
237	0x3da2b5ad	0.07944808
238	0x3bb3f2d6	0.005491595
239	0x3baf6905	0.0053530955
240	0xbd13cd9e	-0.036084764
241	0x3d0d0d18	0.034436315
242	0xbc6e93c4	-0.014561597
243	0x3d3c7237	0.04600736
244	0x3d53776b	0.051627558
245	0x3c2b4a8c	0.010454785
246	0xbb85c331	-0.0040821065
247	0xbd29c334	-0.041445926
248	0x3a8a45ea	0.00105494
249	0xbc6b1cb1	-0.014350102
250	0xbc996f97	-0.018729968
251	0xbb4f14f3	-0.003159818
252	0x3d9144fb	0.07093235
253	0x3d843338	0.06455082
254	0x3dbf23cc	0.093329996
255	0xbd83b3a8	-0.06430751
