humanoidprac/humanoidprac/scripts/skrl/logs/skrl/h1_flat/joint_experiment_ver3/2025-09-18_04-39-00_ppo_torch/checkpoints/best_agent.pt (torch, 730594 bytes, 40 tensors)

log_std_parameter f4 [19]
-3.3013947 -3.3292434 -3.4683454 -1.8808752 -1.8151425 -0.8870649 -0.854651 -2.4018712
-2.4114106 -0.7053234 -0.7777593 -1.6786891 -1.5236748 -0.8831905 -0.73248374 -0.7809628
-0.8643744 -0.8122899 -0.74339014
00000000: 0d4a 53c0 5312 55c0 5ff9 5dc0 85c0 f0bf
00000010: 9756 e8bf af16 63bf 68ca 5abf 42b8 19c0
00000020: 8d54 1ac0 1390 34bf 3c1b 47bf 49df d6bf
00000030: c707 c3bf c618 62bf 0e84 3bbf 2eed 47bf
00000040: a447 5dbf 3bf2 4fbf d14e 3ebf

net_container.0.weight f4 [128, 69]
-0.08425884 -0.34675044 0.2174865 -0.3807609 0.05835161 0.0014174504 -0.1792107 -0.2386491
0.098656006 -0.04765242 -0.062220123 0.08850137 -0.1582454 -0.4790428 -0.21287437 -0.26891986
0.34225813 -0.32253763 0.5598612 -0.16642986 -0.2147588 0.008773311 0.17015938 -0.24986199
-0.36776912 0.107603535 -0.3519602 -0.0018364787 0.22059426 -0.015301859 0.20760936 0.014243285
-0.017064393 -0.003326402 -0.04025257 0.06920663 0.025969135 -0.06180973 -0.08754881 0.058923136
0.007848762 -0.14061597 0.04561301 0.035812825 0.10337576 0.06257714 -0.06629263 0.15577455
-0.079887696 -0.016866721 -0.048705634 0.07866615 0.13203597 0.13386787 -0.03665047 0.028714085
-0.09574405 -0.028161708 0.0150850145 0.10647324 0.106953904 -0.110550866 -0.12937608 -0.04469536
0.012629693 0.04517484 -0.055950936 0.03820614 0.08324734 0.030079205 0.22710074 0.24746504
-0.22483191 -0.13787188 0.15333769 0.03795729 -0.3299173 0.08510281 0.03781437 -0.041140597
0.19778578 0.06472193 -0.34259525 0.12838681 -0.101741806 0.012436474 -0.32124406 0.3611856
0.1500827 -0.0060917516 0.09988228 -0.18947616 0.008128772 0.09529118 0.12538646 -0.28117895
-0.059652757 0.16130541 0.0062801926 -0.55464125 0.010012882 0.07646764 -0.060499333 0.021195944
-0.09000525 0.0029085563 0.003912364 -0.025899816 -0.0051474213 -0.019850548 -0.020276379 -0.07644292
-0.004012699 -0.039367247 0.012193235 0.08311652 0.022800297 0.10972416 0.058339927 -0.0024304215
-0.0020265623 0.09263167 0.03362876 0.07146814 -0.050511513 -0.0776157 -0.23147525 -0.035247188
-0.017629389 0.028733864 0.07791317 -0.2857788 0.01374536 -0.17167406 -0.082425445 -0.0314529
-0.08055821 0.045302946 -0.2855168 0.42273736 0.030539298 0.069075316 0.071634725 -0.030134255
-0.41617835 0.28771532 0.22406593 0.28115672 0.041517723 0.22354051 0.04642814 -0.086455025
0.020857021 0.20539165 -0.49360824 -0.25384465 0.6280346 -0.41540024 -0.17099714 -0.116200365
0.11967481 0.008347123 0.020799434 -0.12827787 0.122759104 -0.013809132 0.059807636 0.032156598
0.13492565 0.023456477 -0.0359329 0.05450628 0.14653867 -0.11968965 -0.019437794 -0.053912222
-0.033556525 0.049241588 -0.082144365 -0.10021998 -0.061824836 0.028125029 0.03844046 0.0061524534
-0.06995428 0.011111289 0.004153809 -0.02928873 -0.05591574 -0.061008614 0.07236976 -0.0344906
0.023091642 0.035750333 -0.08365397 -0.10442868 0.2717233 0.055054132 0.053882584 -0.08116087
0.100343235 -0.07110151 0.06346704 -0.012129723 -0.013668639 0.055214986 -0.0058557875 0.23900405
0.34797803 -0.2045502 -0.10275162 -0.013799081 -0.07720374 1.2946286 -0.4010681 -0.069406494
-0.023810197 0.116648525 -0.05683667 0.30164203 -0.1501463 0.24531129 0.52486247 -0.32172778
-0.04635441 0.14753841 0.4612414 0.36976674 0.22154367 0.17160207 0.3157993 0.31254947
0.1370561 -0.116421625 -0.082140274 -0.063355364 0.08179776 0.08552797 0.009030713 0.005037137
-0.039054055 0.034911655 -0.013819029 0.04539826 0.055614397 0.0125629585 -0.0017365667 -0.035413276
-0.001101132 -0.015747955 -0.022100432 0.0047147195 0.06717488 0.07411658 0.09200389 -0.0510347
00000000: e68f acbd 4689 b1be c8b4 5e3e 18f3 c2be
00000010: 1902 6f3d bec9 b93a 0283 37be 6e60 74be
00000020: 290c ca3d 2f2f 43bd 87da 7ebd 3540 b53d
00000030: 150b 22be 1945 f5be bdfb 59be ddaf 89be
00000040: 753c af3e a723 a5be 1053 0f3f 976c 2abe
00000050: bbe9 5bbe efbd 0f3c 433e 2e3e d2db 7fbe
00000060: 3c4c bcbe 3e5f dc3d 2134 b4be 00b6 f0ba
00000070: 76e3 613e a6b4 7abc 8c97 543e ab5c 693c
00000080: a0ca 8bbc c4ff 59bb e1df 24bd 35bc 8d3d
00000090: 39bd d43c 332c 7dbd ca4c b3bd 6359 713d
000000a0: 1898 003c a2fd 0fbe b5d4 3a3d 78b0 123d
000000b0: acb6 d33d 7228 803d 6ec4 87bd 5d83 1f3e
000000c0: 299c a3bd 142c 8abc 8f7f 47bd b81b a13d
000000d0: 7034 073e a914 093e ce1e 16bd cd39 eb3c
000000e0: 7515 c4bd 62b3 e6bc 2327 773c a40e da3d
000000f0: a60a db3d 7e68 e2bd 2a7b 04be 7b12 37bd
00000100: c6ec 4e3c 4109 393d cf2c 65bd 0b7e 1c3d
00000110: 957d aa3d aa68 f63c 198d 683e 7a67 7d3e
00000120: 563a 66be 492e 0dbe 8e04 1d3e 1a79 1b3d
00000130: ecea a8be 624a ae3d 3ee3 1a3d 0b83 28bd
00000140: 5b88 4a3e ee8c 843d a568 afbe d577 033e
00000150: 025e d0bd 5ac2 4b3c 1a7a a4be 52ed b83e
00000160: 48af 193e 519d c7bb 158f cc3d 0a06 42be
00000170: 8a2e 053c 0628 c33d 4f65 003e b0f6 8fbe
00000180: 7356 74bd 3f2d 253e 13ca cd3b f8fc 0dbf
00000190: 120d 243c 119b 9c3d 26ce 77bd 1ea3 ad3c
000001a0: ac54 b8bd 7a9d 3e3b 4a33 803b da2b d4bc
000001b0: b3ab a8bb 9e9d a2bc a61a a6bc 1b8e 9cbd
000001c0: f57c 83bb 8d3f 21bd 22c6 473c fe38 aa3d
000001d0: b0c7 ba3c 0fb7 e03d d9f5 6e3d b547 1fbb
000001e0: 13d0 04bb acb5 bd3d 50be 093d e35d 923d
000001f0: 29e5 4ebd fbf4 9ebd d907 6dbe 5b5f 10bd
00000200: 826b 90bc 4863 eb3c f190 9f3d 9951 92be
00000210: 3834 613c 53cb 2fbe acce a8bd c2d4 00bd
00000220: b4fb a4bd 958f 393d 422f 92be 0871 d83e
00000230: 8d2d fa3c 5c77 8d3d 3ab5 923d 1ddc f6bc
00000240: 5415 d5be 6c4f 933e 8a71 653e c6f3 8f3e
00000250: 7d0e 2a3d cee7 643e 6f2b 3e3d 550f b1bd
00000260: 58dc aa3c 3052 523e 38ba fcbe edf7 81be
00000270: e0c6 203f 57af d4be e019 2fbe 75fa edbd
00000280: 1118 f53d 5fc2 083c 9363 aa3c 465b 03be
00000290: 2069 fb3d b33f 62bc daf8 743d a3b6 033d
000002a0: f329 0a3e cc27 c03c 602e 13bd fa41 5f3d
000002b0: 3c0e 163e d91f f5bd 023c 9fbc 10d3 5cbd
000002c0: 9172 09bd 8cb1 493d 4e3b a8bd 2240 cdbd
000002d0: 0a3c 7dbd 7666 e63c be73 1d3d 859a c93b
000002e0: 3144 8fbd 200c 363c ad1c 883b ebee efbc
000002f0: e707 65bd 2be4 79bd 9936 943d 0446 0dbd
00000300: af2a bd3c f16e 123d c652 abbd b4de d5bd
00000310: 511f 8b3e 7180 613d fcb3 5c3d ac37 a6bd
00000320: c180 cd3d ab9d 91bd 02fb 813d bfbb 46bc
00000330: 6df2 5fbc 1c29 623d e8e1 bfbb 7abd 743e
00000340: 2d2a b23e 9c75 51be 716f d2bd 8a15 62bc
00000350: ff1c 9ebd 64b6 a53f cc58 cdbe fe24 8ebd
00000360: 9a0d c3bc 6ce5 ee3d 91cd 68bd d370 9a3e
00000370: f4bf 19be e232 7b3e 635d 063f 81b9 a4be
00000380: 1fde 3dbd 4f14 173e d527 ec3e 1152 bd3e
00000390: 58dc 623e 74b8 2f3e 72b0 a13e 7c06 a03e
000003a0: 6f58 0c3e 766e eebd 2939 a8bd 75c0 81bd
000003b0: 9685 a73d 4a29 af3d 8ef5 133c 910e a53b
000003c0: 25f7 1fbd 86ff 0e3d 3569 62bc 87f3 393d
000003d0: eccb 633d ded4 4d3c 829d e3ba 830d 11bd
000003e0: dc53 90ba db01 81bc f70b b5bc ef7d 9a3b
000003f0: fc92 893d 6fca 973d 896c bc3d c309 51bd

net_container.0.bias f4 [128]
0.09347101 -0.13494436 -0.06333634 0.020887716 0.09423679 0.02549494 0.08303224 0.09057552
0.13502106 0.08948901 -0.047273625 -0.0024943564 0.013541602 -0.001367886 0.19453819 -0.16191651
0.13692656 -0.124971576 0.15216649 0.05270723 0.06122851 0.041943733 -0.060056392 0.12496448
0.047905724 0.114236 -0.12874267 -0.05804744 -0.027254941 -0.067677595 -0.047823403 0.012247261
0.17423311 0.036622446 -0.00012729896 -0.087751254 0.12862024 -0.0199302 0.10098639 -0.01630823
-0.09065693 0.11379317 -0.091341354 -0.06322362 0.11880427 -0.099793985 0.10333728 -0.04889477
0.23173268 0.077406466 0.031543203 -0.009003195 -0.114017464 -0.09787458 -0.0631456 0.030263256
0.12969305 0.063268095 0.117949344 0.12747295 0.008903886 0.024615636 0.1602566 0.0050849533
-0.003696031 0.13714433 0.063344255 0.024523837 0.13551447 0.09970167 0.0237256 -0.12024496
0.11368281 0.07115488 0.04502075 -0.006380987 0.21930568 -0.058808733 0.17144084 0.064483926
-0.06337649 -0.067370825 0.13203782 0.040636387 0.008415366 0.07390027 0.069688946 0.20814471
-0.050599545 0.16255125 -0.030930666 -0.093311846 0.045839965 -0.019618144 0.003644174 -0.021903832
0.05016421 -0.043115884 -0.053870834 0.021112634 0.10582951 0.006914042 -0.075759254 0.0068221786
-0.04885175 0.03270897 0.061439313 -0.111591905 0.013299046 -0.15189399 0.0011729926 -0.02842035
-0.010231581 -0.07782777 0.12649223 0.15740885 -0.13413155 0.076078855 0.002507492 -0.13312465
-0.0039199777 -0.13232186 0.14810814 -0.11804286 0.060177676 -0.1043991 -0.12568162 0.09456703
00000000: bb6d bf3d db2e 0abe 7cb6 81bd b71c ab3c
00000010: 38ff c03d c4da d03c cf0c aa3d a97f b93d
00000020: f642 0a3e 0446 b73d fda1 41bd 5b78 23bb
00000030: 98dd 5d3c a34a b3ba 0535 473e 71cd 25be
00000040: 7a36 0c3e 19f1 ffbd 88d1 1b3e 89e3 573d
00000050: bfca 7a3d 31cd 2b3d b1fd 75bd 61ed ff3d
00000060: cb38 443d 90f4 e93d 1ed5 03be 27c3 6dbd
00000070: c145 dfbc 8d9a 8abd 79e2 43bd bca8 483c
00000080: 2a6a 323e 6b01 163d 8e7b 05b9 eeb6 b3bd
00000090: 06b5 033e a944 a3bc f4d1 ce3d d698 85bc
000000a0: 57aa b9bd 650c e93d 2d11 bbbd 637b 81bd
000000b0: a74f f33d ca60 ccbd 7fa2 d33d e245 48bd
000000c0: 554b 6d3e 4887 9e3d 7233 013d 2382 13bc
000000d0: fd81 e9bd 7872 c8bd 7b52 81bd a6ea f73c
000000e0: 41ce 043e b492 813d 6d8f f13d 4588 023e
000000f0: 9be1 113c bba6 c93c 4e1a 243e ae9f a63b
00000100: 1c39 72bb 906f 0c3e a2ba 813d 37e6 c83c
00000110: 4ec4 0a3e 6430 cc3d 315c c23c fd42 f6bd
00000120: 88d2 e83d a6b9 913d ae67 383d 9917 d1bb
00000130: ab91 603e 6de1 70bd 308e 2f3e 2610 843d
00000140: 88cb 81bd b7f9 89bd ec34 073e 5772 263d
00000150: 9ae0 093c 0659 973d 14b9 8e3d e323 553e
00000160: 7841 4fbd d673 263e 4f62 fdbc 481a bfbd
00000170: b0c2 3b3d 3bb6 a0bc 18d3 6e3b aa6f b3bc
00000180: fd78 4d3d 489a 30bd aaa7 5cbd 67f4 ac3c
00000190: 24bd d83d 308f e23b ab27 9bbd 958c df3b
000001a0: c618 48bd d7f9 053d caa7 7b3d 4c8a e4bd
000001b0: 3ee4 593c 198a 1bbe 1abf 993a cbd1 e8bc
000001c0: 5ca2 27bc 2a64 9fbd 2e87 013e c92f 213e
000001d0: c859 09be 3bcf 9b3d bc54 243b d451 08be
000001e0: 2873 80bb 627f 07be a9a9 173e 74c0 f1bd
000001f0: de7c 763d 32cf d5bd afb2 00be 5cac c13d

net_container.2.weight f4 [128, 128]
0.07428221 -0.13291344 0.032484993 -0.15698324 0.0073697856 0.02270902 0.04968396 -0.1055065
0.005075352 0.10154284 0.04936891 -0.11979841 0.17285259 -0.10038178 0.030593155 0.016607169
-0.07618425 0.065551095 -0.038452126 0.0807602 -0.15746555 0.054640815 -0.09116118 -0.09019412
-0.070040986 -0.11779729 -0.024230888 0.05959088 0.021802284 -0.052780867 0.0014944676 0.024988659
-0.06440368 -0.15829262 -0.09659305 -0.05800358 0.0023345929 0.060723282 0.027392067 0.007964872
0.085416295 0.11608994 -0.13838574 -0.08048149 0.033671945 0.008897063 -0.09936886 -0.0014592732
0.04968301 0.10316493 0.0634248 0.07525675 -0.012073339 -0.051844288 -0.0035876024 0.0293597
-0.046399225 -0.032353945 0.09211201 0.08260333 -0.0020579086 0.036677342 0.04646114 0.040473033
-0.047615077 -0.033365436 0.004265191 -0.12323567 -0.029996239 0.05073333 -0.036466926 -0.033913612
0.050765235 -0.06258251 -0.10670533 0.06560583 -0.03413676 -0.12922855 0.059975408 0.03291138
0.06309791 0.018827211 -0.009701283 0.07605564 -0.06719853 0.059226383 -0.090870194 -0.13521418
0.09385483 -0.013546548 -0.09418434 -0.10053609 -0.01754665 0.030847406 -0.11343649 -0.14045544
0.030560324 -0.023623131 0.069645986 -0.051286556 0.16641349 0.060505852 -0.10711536 -0.0037459165
0.038539894 -0.046409436 -0.072699465 0.0069776927 0.10739136 -0.020911627 -0.06490981 -0.06853119
0.030397804 -0.03251328 -0.053892735 -0.1365049 -0.097410105 -0.09984274 0.10861405 -0.013380967
0.0068897097 0.008302128 -0.003706245 0.046123113 0.077884994 0.03238754 -0.061031125 -0.03730244
0.021054573 0.02489717 -0.13053367 -0.09320098 0.04445807 -0.010577303 0.077790916 0.021774365
0.054087788 -0.15957019 0.11934671 0.09320175 -0.18778071 0.040361576 -0.05712445 0.09582604
0.045296036 0.08426948 0.0606572 -0.09333655 -0.034224015 -0.051751897 0.021061389 -0.11514125
-0.14554967 0.06958143 0.008064338 0.046851993 0.1525343 0.06462707 0.019723218 -0.008015325
0.04166186 0.002853109 0.004504421 -0.007973613 0.022842623 -0.051769786 -0.106153555 -0.01083829
0.13881923 0.024127638 0.022971699 0.11006655 -0.10533732 0.03174428 0.05054622 -0.05511514
-0.13513921 -0.057162307 -0.020474657 -0.1133217 -0.12449667 -0.026355933 0.039709438 -0.14562148
-0.05866342 -0.10341611 -0.10558227 0.09894362 -0.177868 -0.090361536 -0.07113777 0.0011589061
-0.011384598 -0.07672637 -0.019511892 -0.09897226 -0.010018161 -0.014801944 0.062127374 -0.023067705
0.03209093 0.014791575 -0.11629573 0.053245213 -0.038551275 -0.13395137 0.05076566 -0.035560746
-0.05009222 -0.0076836767 -0.035145465 -0.02909344 -0.12119106 -0.11675704 0.044345725 -0.13915141
-0.075425565 -0.0018842376 -0.1542059 0.07644932 0.121713296 0.03860294 -0.020927975 -0.11757765
0.005249964 0.043890536 0.18156594 0.030428112 -0.026262855 -0.1142721 0.033404853 0.04125056
-0.06638578 -0.011726122 -0.12317495 -0.1454843 -0.026108922 -0.02688463 0.085910454 -0.16321819
-0.06417891 0.013998999 -0.035217933 -0.08275845 -0.1629316 -0.013654356 0.09636918 0.013518658
-0.034093477 -0.014963945 -0.12911703 -0.12313105 -0.06186989 0.06908232 -0.07119456 -0.16146587
00000000: 4521 983d 761a 08be fc0e 053d 37c0 20be
00000010: 3e7e f13b 4408 ba3c 6881 4b3d cb13 d8bd
00000020: 234f a63b b1f5 cf3d 0e37 4a3d de58 f5bd
00000030: 4500 313e f694 cdbd 7f9e fa3c c20b 883c
00000040: 7d06 9cbd a73f 863d fa7f 1dbd 9b65 a53d
00000050: a63e 21be 0ccf 5f3d b6b2 babd b2b7 b8bd
00000060: a671 8fbd b53f f1bd db7f c6bc 9115 743d
00000070: b49a b23c c030 58bd 03e2 c33a 04b5 cc3c
00000080: 14e6 83bd 7617 22be 94d2 c5bd 2995 6dbd
00000090: f8ff 183b fab8 783d 5465 e03c 187f 023c
000000a0: bdee ae3d 90c0 ed3d feb4 0dbe 7bd3 a4bd
000000b0: 98eb 093d fdc4 113c e781 cbbd 1545 bfba
000000c0: 6980 4b3d 2348 d33d dde4 813d 3620 9a3d
000000d0: 41cf 45bc ad5a 54bd fb1d 6bbb c183 f03c
000000e0: 1d0d 3ebd 9285 04bd 39a5 bc3d ef2b a93d
000000f0: fadd 06bb fb3a 163d 094e 3e3d 0dc7 253d
00000100: 0708 43bd 32aa 08bd 04c3 8b3b fc62 fcbd
00000110: acba f5bc c1cd 4f3d 585e 15bd 00e9 0abd
00000120: 35ef 4f3d 422b 80bd 5388 dabd 595c 863d
00000130: fdd2 0bbd 7d54 04be c6a8 753d 15ce 063d
00000140: 7a39 813d 863b 9a3c 21f2 1ebc 0fc3 9b3d
00000150: 629f 89bd 5d97 723d 271a babd 9675 0abe
00000160: f636 c03d 57f2 5dbc b8e3 c0bd dee5 cdbd
00000170: febd 8fbc b3b3 fc3c 6451 e8bd 8dd3 0fbe
00000180: a559 fa3c 4c85 c1bc 8ea2 8e3d da11 52bd
00000190: 4c68 2a3e fcd4 773d 4c5f dbbd 0d7e 75bb
000001a0: 02dc 1d3d d217 3ebd 75e3 94bd 21a5 e43b
000001b0: 00f0 db3d dc4e abbc 6fef 84bd 155a 8cbd
000001c0: d104 f93c a52c 05bd a1be 5cbd f1c7 0bbe
000001d0: f37e c7bd 5a7a ccbd 0b71 de3d d83b 5bbc
000001e0: 13c3 e13b a605 083c 79e4 72bb 97eb 3c3d
000001f0: 2b82 9f3d cca8 043d c6fb 79bd 71ca 18bd
00000200: a47a ac3c 26f5 cb3c 9eaa 05be 28e0 bebd
00000210: aa19 363d 6d4c 2dbc d850 9f3d 2760 b23c
00000220: 288b 5d3d 5e66 23be 0c6c f43d 8fe0 be3d
00000230: 9649 40be 2e52 253d 54fb 69bd 7140 c43d
00000240: 5688 393d 7a95 ac3d af73 783d 3c27 bfbd
00000250: 7b2e 0cbd ccf9 53bd ef88 ac3c 2dcf ebbd
00000260: f90a 15be b580 8e3d 4920 043c e0e7 3f3d
00000270: f431 1c3e 335b 843d 9692 a13c b652 03bc
00000280: a0a5 2a3d 3afb 3a3b d299 933b c2a3 02bc
00000290: 7420 bb3c 8e0c 54bd 0967 d9bd 1593 31bc
000002a0: a126 0e3e 53a7 c53c 252f bc3c 926a e13d
000002b0: 18bb d7bd 4a06 023d 8e09 4f3d 6ac0 61bd
000002c0: ef61 0abe 0623 6abd 78ba a7bc 3515 e8bd
000002d0: 1cf8 febd 66e8 d7bc 5da6 223d cc1d 15be
000002e0: 0e49 70bd d3cb d3bd 843b d8bd f4a2 ca3d
000002f0: 0723 36be 780f b9bd aeb0 91bd 70e6 973a
00000300: 7786 3abc b722 9dbd 67d7 9fbc f8b1 cabd
00000310: 3623 24bc da83 72bc 4679 7e3d 7cf8 bcbc
00000320: c771 033d 5d58 723c 752c eebd a717 5a3d
00000330: f1e7 1dbd 8c2a 09be a7ef 4f3d 25a8 11bd
00000340: 802d 4dbd 5ac7 fbbb b1f4 0fbd 5e55 eebc
00000350: 0533 f8bd 511e efbd dda3 353d b57d 0ebe
00000360: b878 9abd 86f8 f6ba 27e8 1dbe 7691 9c3d
00000370: d244 f93d 1e1e 1e3d 2571 abbc 8dcc f0bd
00000380: e407 ac3b 90c6 333d 6cec 393e 6044 f93c
00000390: 3325 d7bc 7e07 eabd 87d3 083d 59f6 283d
000003a0: 45f5 87bd ec1e 40bc 2643 fcbd d6f9 14be
000003b0: 61e2 d5bc 283d dcbc d2f1 af3d ab22 27be
000003c0: 3b70 83bd 0f5c 653c ae40 10bd 437d a9bd
000003d0: 8bd7 26be 85b6 5fbc 345d c53d 5c7d 5d3c
000003e0: 9aa5 0bbd 562b 75bc 4137 04be 222c fcbd
000003f0: 486b 7dbd 087b 8d3d 74ce 91bd 4f57 25be

net_container.2.bias f4 [128]
0.07729498 -0.19422352 -0.26141793 -0.026405286 -0.17193305 -0.03703201 0.015219911 0.0935771
0.013483002 -0.11828704 0.17031565 -0.1482831 0.10223089 -0.07827954 0.06408524 -0.006254695
-0.07495374 0.08293306 -0.012208088 0.018755637 0.08989274 0.0009388983 0.015082138 -0.19725712
0.053233203 0.014776922 0.033868212 -0.18035398 -0.066246904 -0.15017846 -0.1064181 0.040159144
-0.052171256 -0.09939209 0.04594214 -0.021038957 -0.14890406 -0.027440595 0.04109304 -0.073354214
-0.116488956 -0.07460712 -0.09697081 0.13274789 0.15398715 0.16089074 -0.03668968 -0.0076034274
0.043300617 -0.14887011 0.046443343 -0.25584835 -0.019074626 0.16951464 -0.11033874 -0.10404057
0.049366746 -0.16128327 0.09242635 0.20405933 -0.22137454 -0.09071434 -0.14403978 0.121726215
-0.02941416 -0.1497137 0.083151184 -0.03765445 -0.056645304 0.10377444 -0.09780546 -0.10747877
-0.06930751 0.10840644 -0.028579153 -0.03301451 0.14490929 -0.092007905 -0.090363465 0.016374946
0.03425383 -0.040513933 0.0512486 -0.037871525 -0.12836167 -0.030471575 0.021128733 0.12293144
0.09408178 -0.10628654 -0.13408408 0.05752885 -0.13118736 0.031618237 -0.14425194 0.105751745
-0.008951527 0.09166796 -0.25620505 0.08469082 -0.25350353 -0.06890735 -0.05137402 0.02458256
-0.05568604 -0.122121565 -0.13113871 -0.12533428 -0.14086302 -0.049101207 0.094693355 -0.009007007
-0.25794464 0.04108547 0.073938824 -0.024440205 0.13430671 0.028323596 -0.15698673 -0.021842884
0.05220242 -0.15480737 0.025614878 -0.060289923 -0.012351979 -0.06047475 -0.17430837 -0.1577087
00000000: d54c 9e3d 88e2 46be 92d8 85be e64f d8bc
00000010: 380f 30be e0ae 17bd ef5c 793c 5aa5 bf3d
00000020: cfe7 5c3c 7a40 f2bd 3a67 2e3e 86d7 17be
00000030: 6e5e d13d 0651 a0bd 1f3f 833d 2ff4 ccbb
00000040: 5981 99bd cfd8 a93d 6f04 48bc 6ca5 993c
00000050: af19 b83d 6620 763a 121b 773c c5fd 49be
00000060: 0f0b 5a3d e71a 723c 65b9 0a3d b7ae 38be
00000070: 75ac 87bd 62c8 19be bcf1 d9bd ea7d 243d
00000080: 87b1 55bd 158e cbbd d32d 3c3d e459 acbc
00000090: 4e7a 18be 19cb e0bc 2d51 283d bc3a 96bd
000000a0: c391 eebd 9ecb 98bd a298 c6bd 10ef 073e
000000b0: cfae 1d3e 8bc0 243e eb47 16bd 2c26 f9bb
000000c0: fd5b 313d 6871 18be 603b 3e3d 8efe 82be
000000d0: 6442 9cbc 3f95 2d3e 47f9 e1bd 3913 d5bd
000000e0: c934 4a3d 7127 25be 074a bd3d eef4 503e
000000f0: 02b0 62be 71c8 b9bd 2a7f 13be 984b f93d
00000100: f7f5 f0bc 8c4e 19be 2b4b aa3d 8d3b 1abd
00000110: e804 68bd b287 d43d 3b4e c8bd d41d dcbd
00000120: 19f1 8dbd 3204 de3d d41e eabc 393a 07bd
00000130: 1a63 143e a46e bcbd 7b10 b9bd c024 863c
00000140: be4d 0c3d f0f1 25bd 0dea 513d 2c1f 1bbd
00000150: 3e71 03be 869f f9bc 2a16 ad3c 7bc3 fb3d
00000160: f3ad c03d c2ac d9bd 564d 09be 5fa3 6b3d
00000170: fb55 06be 2082 013d c8b6 13be 5f94 d83d
00000180: 6da9 12bc 69bc bb3d 4f2d 83be 6172 ad3d
00000190: 37cb 81be 4c1f 8dbd 906d 52bd 5d61 c93c
000001a0: 0c17 64bd df1a fabd 3a49 06be a157 00be
000001b0: 653e 10be 591e 49bd 97ee c13d 2092 13bc
000001c0: 5211 84be 3d49 283d 3d6d 973d d336 c8bc
000001d0: b387 093e e306 e83c 21c1 20be d9ef b2bc
000001e0: 34d2 553d d385 1ebe 4bd6 d13c 91f2 76bd
000001f0: f45f 4abc 5fb4 77bd e57d 32be 647e 21be

net_container.4.weight f4 [128, 128]
-0.033282544 0.1663783 0.0099741705 -0.059031114 0.044311572 -0.016574293 0.03601674 0.019027418
-0.046599053 -0.02548937 -0.12292759 0.038841218 0.11684129 0.0022115281 0.0032929082 -0.0053916024
-0.035996486 -0.04482546 -0.013091655 -0.0065248813 -0.1594565 -0.121019095 0.021049917 -0.035838146
0.024012582 0.04558238 -0.05582422 0.028999025 0.0736805 0.069055825 0.03028576 -0.014313224
-0.008571752 0.02612268 -0.05128209 -0.07100101 0.038552918 -0.0037165019 0.015993431 0.003932689
0.03263996 0.023449361 0.0187303 -0.028461523 0.03122481 -0.06842744 -0.058070123 0.15187812
-0.05743684 0.021284845 0.05231881 0.09009281 0.102697 -0.088997334 0.063954726 0.017966645
0.010650598 -0.023005657 -0.009528534 -0.02926003 0.0771868 0.032696314 0.019506725 -0.01290949
-0.018489296 -0.08504345 -0.09959614 -0.036119603 0.06452015 0.0355286 0.017168997 0.12138033
0.1291965 -0.030266851 -0.055262625 -0.100615926 -0.019316748 0.08485009 0.08696271 -0.08755157
0.025832105 0.051657084 -0.030963084 -0.02201994 0.050726037 0.06609087 0.01465173 0.010000835
0.05124561 0.01889216 0.07907077 -0.063727595 0.09038441 -0.021172365 -0.026729995 -0.11625757
5.260459e-05 0.05302892 -0.003188456 0.017881287 0.17178507 0.06376177 0.033928536 0.0048829326
-0.022572912 0.057477504 0.07729117 -0.0066573136 -0.057840154 -0.07165908 -0.0037301516 0.071944766
-0.017874217 0.004025267 0.012863407 0.051147103 -0.074755386 0.017933339 -0.042055894 -0.0016858396
0.044438083 -0.040788766 -0.006280212 0.098140694 -0.0152838025 0.051323704 0.16136558 0.050083548
0.091805086 -0.10898378 -0.10966526 0.03830859 0.06397319 -0.055341844 -0.012857789 -0.0646728
-0.06854976 -0.105633065 0.12810984 -0.1918409 0.029201197 0.0020007086 0.10532368 -0.045442678
0.03943081 -0.04022813 -0.06943625 0.020893868 -0.029625047 -0.005568758 0.05490565 0.019940674
0.037475895 0.04731309 0.08471732 -0.017973775 0.021008128 -0.0719706 0.010185773 0.1750939
0.07281675 0.038228583 -0.10265862 0.03593723 0.018325612 -0.030640319 0.072478876 -0.07112464
-0.027775515 0.0064001167 -0.17957135 0.16493349 0.008552304 0.13375303 -0.12616128 -0.046463657
-0.059994053 -0.08816455 0.12064401 -0.04360402 -0.11372459 0.13162538 0.00072869816 -0.13820139
0.026032694 -0.05130196 0.11035858 -0.04461599 0.032589555 0.0421264 0.050547015 -0.036530007
-0.083398074 -0.044226333 0.1049622 0.04134942 0.023749985 0.033598743 -0.036338948 -0.059573047
0.056834046 -0.002808466 0.022739405 0.088307954 0.0087566925 -0.05242574 -0.13393168 0.023163782
0.02668465 -0.04719885 -0.0009983602 0.0057078456 -0.063204795 0.014001541 -0.1786904 0.060274485
0.07082522 -0.038756937 -0.06477993 0.011932063 0.06184643 -0.022518065 0.01593281 0.05834169
0.054226905 0.022337748 -0.043364014 0.09424856 -0.06006884 -0.06674109 0.026155632 0.12479109
0.11392542 -0.03783162 -0.09394396 -0.07916657 0.046601135 -0.02635425 0.012965773 0.011868234
-0.049521938 0.07385681 0.08955997 -0.016633175 0.031480152 -0.03057065 0.07641957 0.06350754
-0.01494448 -0.04617721 0.06675766 0.06338731 -0.027413975 -0.021867212 -0.05035576 0.0015949294
00000000: 4753 08bd 135f 2a3e b46a 233c 9cca 71bd
00000010: 0d80 353d d0c6 87bc 4a86 133d 63df 9b3c
00000020: a6de 3ebd 15cf d0bc 76c1 fbbd f817 1f3d
00000030: 7c4a ef3d 49ef 103b d5cd 573b 0aac b0bb
00000040: 0d71 13bd e79a 37bd 627e 56bc acce d5bb
00000050: 9148 23be dcd8 f7bd e070 ac3c 05cb 12bd
00000060: 09b6 c43c 97b4 3a3d f0a7 64bd 5d8f ed3c
00000070: cde5 963d 246d 8d3d d819 f83c 0382 6abc
00000080: 8970 0cbc 3bff d53c 2b0d 52bd fa68 91bd
00000090: aae9 1d3d 8e90 73bb a804 833c c9dd 803b
000000a0: 7bb1 053d e018 c03c 4970 993c 2428 e9bc
000000b0: 2ccb ff3c b023 8cbd f0da 6dbd f085 1b3e
000000c0: e442 6bbd 8e5d ae3c 404c 563d 9482 b83d
000000d0: ce52 d23d 3c44 b6bd b2fa 823d c92e 933c
000000e0: d97f 2e3c 5c76 bcbc 911d 1cbc bbb2 efbc
000000f0: 1d14 9e3d 92ec 053d 91cc 9f3c 5382 53bc
00000100: dd76 97bc 432b aebd 10f9 cbbd 26f2 13bd
00000110: 2423 843d 7086 113d ffa5 8c3c 4096 f83d
00000120: 164c 043e 30f2 f7bc 105b 62bd b90f cebd
00000130: 283e 9ebc e2c5 ad3d 8119 b23d 3d4e b3bd
00000140: da9d d33c 6196 533d 4ba6 fdbc 2963 b4bc
00000150: 1bc6 4f3d a65a 873d cf0d 703c 8bda 233c
00000160: ebe6 513d bbc3 9a3c dbef a13d 9d83 82bd
00000170: 761b b93d ab71 adbc ddf8 dabc 7318 eebd
00000180: c0a3 5c38 da34 593d 6af5 50bb c77b 923c
00000190: 6de8 2f3e 8895 823d a6f8 0a3d 0201 a03b
000001a0: d4ea b8bc 886d 6b3d d54a 9e3d 9825 dabb
000001b0: cce9 6cbd ffc1 92bd 8f75 74bb c757 933d
000001c0: f36c 92bc 63e6 833b 0ac1 523c a07f 513d
000001d0: 5a19 99bd f0e8 923c cd42 2cbd 64f7 dcba
000001e0: b504 363d 1f12 27bd 3dca cdbb fdfd c83d
000001f0: ea68 7abc ce38 523d 053d 253e 6824 4d3d
00000200: 4e04 bc3d e332 dfbd 2e98 e0bd 78e9 1c3d
00000210: 6004 833d 21ae 62bd 7aa9 52bc 2c73 84bd
00000220: d163 8cbd 2656 d8bd 3a2f 033e f171 44be
00000230: 5937 ef3c 521e 033b f1b3 d73d 1a22 3abd
00000240: 3382 213d 40c6 24bd 9834 8ebd 9e29 ab3c
00000250: 3ab0 f2bc 217a b6bb bfe4 603d a05a a33c
00000260: 5380 193d 5fcb 413d 4680 ad3d bd3d 93bc
00000270: 3d19 ac3c 5265 93bd 3ae2 263c d14b 333e
00000280: f320 953d 9395 1c3d af3e d2bd eb32 133d
00000290: 981f 963c 6801 fbbc ce6f 943d cca9 91bd
000002a0: 7a89 e3bc 12b8 d13b 8de1 37be 53e4 283e
000002b0: f61e 0c3c 8ef6 083e 6c30 01be ad50 3ebd
000002c0: 53bc 75bd 9e8f b4bd 3514 f73d 219a 32bd
000002d0: 70e8 e8bd cec8 063e 1b06 3f3a aa84 0dbe
000002e0: 8442 d53c 0122 52bd ae03 e23d 42bf 36bd
000002f0: a07c 053d bb8c 2c3d 630a 4f3d 7da0 15bd
00000300: 9ccc aabd ac26 35bd 6cf6 d63d 025e 293d
00000310: 548f c23c d69e 093d 26d8 14bd de02 74bd
00000320: d1ca 683d 3e0e 38bb fd47 ba3c cdda b43d
00000330: 3b78 0f3c 5fbc 56bd 6325 09be f9c1 bd3c
00000340: c499 da3c 9553 41bd 69db 82ba e108 bb3b
00000350: 8471 81bd b866 653c 9efa 36be 61e2 763d
00000360: d00c 913d 98bf 1ebd 57ab 84bd b37e 433c
00000370: af52 7d3d ce77 b8bc 8685 823c b2f7 6e3d
00000380: 081d 5e3d a7fd b63c 779e 31bd 6405 c13d
00000390: be0a 76bd 8daf 88bd 5644 d63c 7992 ff3d
000003a0: bb51 e93d 54f5 1abd b165 c0bd 1522 a2bd
000003b0: d5e0 3e3d dee4 d7bc 656e 543c fb72 423c
000003c0: 84d7 4abd 3d42 973d 386b b73d 4c42 88bc
000003d0: 55f1 003d 4d6f fabc dd81 9c3d 3e10 823d
000003e0: b1d9 74bc 5024 3dbd 3db8 883d 35d1 813d
000003f0: 4693 e0bc de22 b3bc d741 4ebd f30c d13a

net_container.4.bias f4 [128]
-0.16285999 0.05153588 0.07577202 -0.13353594 -0.10637321 -0.12125886 -0.1707436 -0.12019216
-0.08058606 -0.06595546 0.036205623 -0.121779375 0.021282693 -0.09733964 0.020237116 0.041088205
-0.09696291 -0.012439607 0.09956702 -0.008323356 -0.09535963 -0.02061557 -0.084503554 -0.021474691
-0.03213622 -0.040355552 0.06103261 -0.0014804454 -0.055224273 0.0051231766 -0.08023805 0.07647043
-0.015325086 -0.094086826 -0.016281702 -0.08930633 -0.087215126 -0.035085253 -0.0068196426 0.020564295
-0.044848055 -0.044349354 0.04851224 -0.0964143 -0.06483669 0.044826176 -0.0647193 0.020500114
0.0059820935 0.051418092 0.06739501 -0.034870923 -0.047472905 -0.05837661 -0.033929147 -0.02877084
0.12874666 -0.17183898 -0.025311068 0.087102644 -0.0022823885 -0.0039491793 -0.08766037 -0.11208482
-0.04922964 0.04248774 -0.092645146 0.046258613 -0.049535707 0.02284302 0.024555052 0.056110784
0.09308219 0.19922099 -0.03532624 -0.015759263 0.015254484 0.07955916 0.02607728 -0.05466012
0.089401774 0.028728506 -0.06587677 0.057600863 0.055726096 -0.08024672 -0.01464158 -0.051334634
0.07025014 0.0824417 -0.076919965 -0.09596351 -0.060940836 -0.072662555 0.10235257 -0.107244335
-0.07310422 -0.05707391 0.015091393 -0.026746783 -0.110631086 -0.11453146 -0.24983653 0.0144790355
0.007028836 -0.025430774 0.020924384 -0.003523988 -0.14823176 -0.026630875 0.06556025 0.091933824
-0.13930859 -0.09965223 0.11560991 0.060828734 0.019338217 0.09269933 -0.007753438 0.047870584
0.072156146 0.0477103 0.07038155 -0.017649436 0.0107015725 -0.058351792 -0.0030842728 -0.009991453
00000000: c5c4 26be 4917 533d 5c2e 9b3d a5bd 08be
00000010: 33da d9bd 9156 f8bd 69d7 2ebe 4f27 f6bd
00000020: 4e0a a5bd a813 87bd 594c 143d 7767 f9bd
00000030: 0b59 ae3c 015a c7bd 4fc8 a53c 1b4c 283d
00000040: 7d94 c6bd 7ecf 4bbc cbe9 cb3d af5e 08bc
00000050: e94b c3bd fce1 a8bc 3310 adbd b1eb afbc
00000060: 45a1 03bd dd4b 25bd 54fd 793d 810b c2ba
00000070: d932 62bd 52e0 a73b d953 a4bd 879c 9c3d
00000080: 1216 7bbc 98b0 c0bd 3461 85bc 3de6 b6bd
00000090: d89d b2bd 8eb5 0fbd 4f77 dfbb 7476 a83c
000000a0: 98b2 37bd aba7 35bd c5b4 463d dc74 c5bd
000000b0: 19c9 84bd a79b 373d 8d8b 84bd dbef a73c
000000c0: 7005 c43b c79b 523d 6506 8a3d d0d4 0ebd
000000d0: f372 42bd 501c 6fbd 4af9 0abd d3b0 ebbc
000000e0: 2ad6 033e 8ff6 2fbe 2859 cfbc df62 b23d
000000f0: 2094 15bb 1e68 81bb 4887 b3bd ba8c e5bd
00000100: 05a5 49bd a007 2e3d bdbc bdbd ac79 3d3d
00000110: f4e5 4abd 4921 bb3c ad27 c93c 6cd4 653d
00000120: e0a1 be3d 9600 4c3e 3fb2 10bd 9219 81bc
00000130: f1ed 793c eaef a23d 05a0 d53c 4ae3 5fbd
00000140: 4718 b73d 0b58 eb3c 66ea 86bd e2ee 6b3d
00000150: 0c41 643d 6458 a4bd 3de3 6fbc 4444 52bd
00000160: 4edf 8f3d 32d7 a83d 3788 9dbd 8488 c4bd
00000170: 199d 79bd 1bd0 94bd 399e d13d eba2 dbbd
00000180: aab7 95bd 55c6 69bd e441 773c 121c dbbc
00000190: 8d92 e2bd 788f eabd 26d5 7fbe 7a39 6d3c
000001a0: 2652 e63b 3354 d0bc 9d69 ab3c b5f2 66bb
000001b0: 11ca 17be fe28 dabc 7444 863d cd47 bc3d
000001c0: e9a6 0ebe 7816 ccbd e3c4 ec3d 8d27 793d
000001d0: 2e6b 9e3c 25d9 bd3d 8d10 febb f213 443d
000001e0: 9ac6 933d e06b 433d 3424 903d 8d95 90bc
000001f0: a655 2f3c 4a02 6fbd 8321 4abb 31b3 23bc

policy_layer.weight f4 [19, 128]
-0.014250828 -0.008209238 -0.03330205 -0.016978662 -0.042524274 0.07851621 0.0107926475 -0.056969486
0.01249823 0.07652917 -0.03188957 0.022775473 0.030826908 0.032461394 0.033567972 0.016752299
-0.017302673 0.024001548 0.027087882 0.017808713 0.002337197 -0.02489517 0.05176012 -0.08333085
0.03366741 -0.034629002 0.017444083 -0.0025174161 0.028101144 0.04379294 0.0114299515 0.021592585
-0.0623305 -0.028023249 0.013837272 -0.068516254 0.059969515 -0.0021184296 -0.017416062 -0.03291321
-0.07520705 0.039030317 -0.03376841 0.04331355 -0.03196092 -0.07762331 0.014878722 -0.011860415
0.009586664 0.0013582192 -0.04766764 0.022746189 0.028098611 0.035609428 -0.040302444 -0.01571093
0.00647773 0.019252036 0.038769055 0.0130804535 0.02588085 0.07509793 0.018792402 -0.010049299
-0.0068557276 -0.03155813 -0.051216435 0.03727104 -0.03387798 -0.034909535 -0.034811463 0.08236881
0.050847806 -0.050784495 -0.0027049342 0.015052351 0.049499515 -0.053404093 -0.022022286 0.00905193
-0.002305615 0.01448951 0.13452356 -0.03690167 0.037939865 -0.025305374 0.0038696958 0.055133387
-0.0062111598 0.025122171 0.02580428 -0.039749026 -0.037659973 0.028373538 -0.036976837 -0.006875204
0.051328193 0.049134586 0.0059723407 -0.023423737 -0.0023888652 0.004373874 -0.046406455 -0.01948275
-0.057738084 -0.009353596 0.042732026 0.037619162 -0.024123609 -0.04947458 0.016291732 0.00082370697
0.005685869 0.02788761 -0.0029515983 0.0014117094 -0.034226857 0.037461523 -0.013372314 -0.019259281
0.023825968 -0.052292325 -0.005886429 0.01157907 0.0006045424 -0.07179905 -0.00832283 -0.03247468
0.0060961535 0.056605343 0.042954627 -0.07473195 -0.037174884 0.030132769 -0.016760265 -0.008527473
-0.023733167 0.022760134 -0.053957712 -0.029778149 -0.053943243 -0.0918768 0.020387132 -0.050531637
0.0048213056 -0.06725203 0.025540628 -0.01937873 0.020979267 0.041484144 -0.02221904 0.054163955
0.01691702 0.07972043 0.036587033 -0.004573863 0.0139125455 -0.050024875 -0.012039605 -0.027802989
0.018548341 0.074580826 0.0037784441 -0.018650107 0.056565236 -0.019757513 0.017386198 -0.01537154
-0.019053653 -0.02170212 -0.0024877267 -0.004185076 -0.0051702214 0.058786843 -0.013437891 0.021447001
-0.0023883383 -0.06082029 -0.02612566 -0.050149094 0.012350162 0.0210108 -0.0073961504 0.04341709
-0.013175776 -0.04716355 -0.053277645 0.04198934 -0.048149735 0.027391039 -0.031837706 -0.06411838
-0.010799111 -0.027095018 0.043455787 -0.017804002 0.052657153 0.05124096 -0.043485545 -0.07450564
-0.06184555 -0.012230674 0.02548329 -0.0017394052 0.0023827783 0.051399503 0.025624465 -0.08794963
0.00046179406 0.08228152 -0.050868973 0.055490717 0.016528798 0.022434145 0.024257584 0.023933705
0.0009161036 0.02030162 0.010091836 -0.0598403 -0.04492611 -0.020391343 -0.0054754606 0.03705641
0.04513386 -0.014474958 -0.028201852 0.0068134177 -0.009435459 0.043924086 -0.0048868074 0.04536033
0.0014753275 0.006178423 0.0039238557 0.007754191 -0.07291131 -0.007253673 0.007675371 -0.04787281
-0.03059579 -0.029685846 -0.023124546 0.010513987 0.05877925 0.00913922 -0.028786812 -0.023681464
-0.0028424703 0.016540285 -0.005500425 0.037007637 0.01084556 0.02627553 -0.008068239 0.024980903
00000000: 4e7c 69bc 0a80 06bc bb67 08bd d616 8bbc
00000010: ef2d 2ebd 1bcd a03d a5d3 303c d658 69bd
00000020: 60c5 4c3c 53bb 9c3d a39e 02bd a193 ba3c
00000030: b688 fc3c 3df6 043d 927e 093d 1e3c 893c
00000040: 56be 8dbc e59e c43c 68e7 dd3c 94e3 913c
00000050: a92b 193b f5f0 cbbc 6b02 543d 5da9 aabd
00000060: d7e6 093d 24d7 0dbd e5e6 8e3c 3cfb 24bb
00000070: 5f34 e63c 3a60 333d b144 3b3c efe2 b03c
00000080: 444e 7fbd 0391 e5bc bab5 623c 4052 8cbd
00000090: 98a2 753d 5ad5 0abb 21ac 8ebc 01d0 06bd
000000a0: 2706 9abd 41de 1f3d bf50 0abd 8d69 313d
000000b0: 74e9 02bd f8f8 9ebd e2c5 733c 3052 42bc
000000c0: 6211 1d3c 4606 b23a 253f 43bd 3756 ba3c
000000d0: 0f2f e63c 31db 113d 2d14 25bd 35b4 80bc
000000e0: 2343 d43b 72b6 9d3c 4dcc 1e3d 664f 563c
000000f0: 1404 d43c f2cc 993d 86f2 993c d1a5 24bc
00000100: 03a6 e0bb 1943 01bd 53c8 51bd 85a9 183d
00000110: a3c3 0abd 4dfd 0ebd 7796 0ebd fbb0 a83d
00000120: ca45 503d 6703 50bd 4445 31bb 239e 763c
00000130: 01c0 4a3d 40be 5abd 1568 b4bc 8c4e 143c
00000140: cd19 17bb 6965 6d3c 8bc0 093e 3526 17bd
00000150: d566 1b3d 374d cfbc b99a 7d3b 8cd3 613d
00000160: fc86 cbbb 03cd cd3c 7f63 d33c e0cf 22bd
00000170: 5841 1abd 9f6f e83c 0675 17bd 6449 e1bb
00000180: 833d 523d 5941 493d a0b3 c33b 23e3 bfbc
00000190: 828e 1cbb b752 8f3b b214 3ebd 4a9a 9fbc
000001a0: c57e 6cbd d33f 19bc c707 2f3d 8d16 1a3d
000001b0: e09e c5bc dba5 4abd 3d76 853c 0aee 573a
000001c0: 8750 ba3b 8f74 e43c 9a6f 41bb 1b09 b93a
000001d0: 7631 0cbd 4171 193d 8d17 5bbc a4c5 9dbc
000001e0: ad2e c33c 7a30 56bd f2e2 c0bb 24b6 3d3c
000001f0: 277a 1e3a 610b 93bd 7b5c 08bc 2c04 05bd
00000200: 3ec2 c73b 01db 673d 31f1 2f3d 110d 99bd
00000210: b144 18bd ffd8 f63c d34c 89bc d0b6 0bbc
00000220: 0f6c c2bc 7673 ba3c c302 5dbd 4ef1 f3bc
00000230: 97f3 5cbd e729 bcbd ea02 a73c 43fa 4ebd
00000240: 0bfc 9d3b 6fbb 89bd 943a d13c 24c0 9ebc
00000250: b6dc ab3c 47eb 293d b404 b6bc 06db 5d3d
00000260: 9095 8a3c 7744 a33d 49dc 153d 58e0 95bb
00000270: 72f1 633c e2e6 4cbd c341 45bc 18c3 e3bc
00000280: b1f2 973c d5bd 983d c69f 773b 1cc8 98bc
00000290: f3b0 673d 82da a1bc 806d 8e3c e9d8 7bbc
000002a0: 6816 9cbc a5c8 b1bc 2109 23bb f622 89bb
000002b0: f66a a9bb 79ca 703d 9a2a 5cbc 9fb1 af3c
000002c0: ab85 1cbb b21e 79bd 7b05 d6bc 2369 4dbd
000002d0: 5558 4a3c d71e ac3c 685b f2bb 1ed6 313d
000002e0: 36df 57bc 912e 41bd a939 5abd 04fd 2b3d
000002f0: a838 45bd 2c63 e03c 4168 02bd 7f50 83bd
00000300: c1ee 30bc 5ff6 ddbc b2fe 313d b3d9 91bc
00000310: 07af 573d 0ae2 513d e61d 32bd 6a96 98bd
00000320: c251 7dbd 2a63 48bc 55c2 d03c c1fc e3ba
00000330: 6328 1c3b 4988 523d 66ea d13c f01e b4bd
00000340: f31c f239 3783 a83d fc5b 50bd 3c4a 633d
00000350: 6767 873c d0c7 b73c d7b7 c63c 9e10 c43c
00000360: ac26 703a 954f a63c 3a58 253c 1a1b 75bd
00000370: 7104 38bd bf0b a7bc 7e6b b3bb 76c8 173d
00000380: 48de 383d 6028 6dbc 9207 e7bc 1743 df3b
00000390: 2f97 1abc bee9 333d 8321 a0bb c1cb 393d
000003a0: c75f c13a 5e74 ca3b b093 803b de16 fe3b
000003b0: 8652 95bd 38b0 edbb ae81 fb3b 4816 44bd
000003c0: 06a4 fabc bb2f f3bc b06f bdbc dc42 2c3c
000003d0: 83c2 703d abbc 153c 52d2 ebbc a1ff c1bc
000003e0: bd48 3abb 7e7f 873c e93c b4bb 5295 173d
000003f0: 93b1 313c c83f d73c a630 04bc c0a4 cc3c

policy_layer.bias f4 [19]
-0.03750776 -0.0058115846 -0.013079015 0.004786766 0.003767967 -0.029024554 -0.01944625 0.017994413
-0.055133082 0.09004406 0.03399956 0.08989851 0.065034576 0.027319249 -0.03602104 -0.14579694
-0.17731929 0.0047402577 -0.049845044
00000000: bda1 19bd 1b6f bebb 5d49 56bc 4eda 9c3b
00000010: ffef 763b e7c4 edbc be4d 9fbc 0569 933c
00000020: 3ad3 61bd 0569 b83d 1f43 0b3d b61c b83d
00000030: d930 853d 9ecc df3c cc8a 13bd cb4b 15be
00000040: 3093 35be 2a54 9b3b 512a 4cbd

value_layer.weight f4 [1, 128]
-0.13525707 0.15385444 -0.008451852 -0.030481886 -0.1077187 -0.018334981 -0.028969314 0.067061715
0.010378963 -0.06907637 -0.11568254 -0.048663836 0.16577236 0.031165456 0.011076297 -0.06134272
-0.008745824 -0.089118846 0.061447483 0.023384368 -0.13715397 -0.08407508 -0.0031975105 0.06953232
-0.016507939 0.08442275 -0.11585859 0.0025279762 0.017112432 -0.028784735 0.1042286 0.12729836
-0.06863765 -0.006747811 0.119322196 0.026601741 -0.10387771 -0.08936368 -0.10298329 -0.17443934
-0.035813943 0.10680551 -0.068658225 -0.14427806 0.087578855 -0.03732805 0.17566563 0.030648235
-0.12802704 0.088530615 0.12302638 0.049020223 -0.1476386 -0.05174074 -0.12479735 -0.13150994
0.0977814 -0.16208048 0.010927824 0.07786957 0.0841174 0.1390189 -0.15166157 -0.19883089
-0.2296703 0.10448337 0.012030305 -0.00093731354 -0.031708654 0.118663676 -0.13126537 0.08234067
0.2284422 0.19500782 0.07456192 -0.15198787 0.028562736 0.07205075 -0.03941941 -0.031534083
-0.002867442 -0.0044276468 -0.0388638 0.043758422 0.11488805 0.04214588 -0.038921148 -0.048213962
0.07043606 0.15229748 0.012028222 -0.15980287 0.009103256 -0.050278746 0.11291928 -0.15268302
-0.07927514 0.08008836 -0.030753123 0.025359744 0.026140956 -0.10019437 -0.22267531 -0.05328766
0.023117786 -0.16786547 -0.037313063 0.055433232 -0.15829179 0.06996383 0.17711157 0.019512074
-0.04538893 0.062156964 0.08918188 -0.16118255 -0.03986013 0.05570113 0.010483533 -0.06358656
0.20203714 0.0468071 0.063224085 0.0385004 0.13370776 0.02501873 -0.11916926 0.038354263
00000000: d480 0abe 058c 1d3e a379 0abc 26b5 f9bc
00000010: 9f9b dcbd 3e33 96bc 0e51 edbc a757 893d
00000020: 870c 2a3c e977 8dbd f8ea ecbd bb53 47bd
00000030: 3bc0 293e b34e ff3c 5b79 353c 8142 7bbd
00000040: a54a 0fbc f183 b6bd 5bb0 7b3d 9390 bf3c
00000050: 1772 0cbe 8e2f acbd 538d 51bb f666 8e3d
00000060: a83b 87bc d6e5 ac3d 4547 edbd 67ac 253b
00000070: 5f2f 8c3c f7cd ebbc ce75 d53d 805a 023e
00000080: e591 8cbd be1c ddbb 325f f43d e5eb d93c
00000090: d6bd d4bd 4e04 b7bd e7e8 d2bd 3aa0 32be
000000a0: a4b1 12bd d9bc da3d af9c 8cbd a1bd 13be
000000b0: 8b5c b33d 4ce5 18bd b1e1 333e 0212 fb3c
000000c0: 8519 03be 8a4f b53d 41f5 fb3d 6ec9 483d
000000d0: 932e 17be 19ee 53bd c195 ffbd 8baa 06be
000000e0: 9d41 c83d 6df8 25be 9e0a 333c 157a 9f3d
000000f0: be45 ac3d f85a 0e3e 2c4d 1bbe 539a 4bbe
00000100: b12e 6bbe 61fb d53d c21a 453c 0cb6 75ba
00000110: efe0 01bd f105 f33d 6e6a 06be 3aa2 a83d
00000120: c1ec 693e 21b0 473e ebb3 983d b5a2 1bbe
00000130: 66fc e93c 588f 933d 3f76 21bd e229 01bd
00000140: b2eb 3bbb cb15 91bb a62f 1fbd 083c 333d
00000150: 6d4a eb3d 29a1 2c3d c86b 1fbd 017c 45bd
00000160: c840 903d dff3 1b3e 0512 453c 5da3 23be
00000170: d325 153c 16f1 4dbd 3942 e73d f058 1cbe
00000180: 015b a2bd 5e05 a43d f9ed fbbc 3dbf cf3c
00000190: 8f25 d63c b532 cdbd ff04 64be 2944 5abd
000001a0: 8361 bd3c ede4 2bbe 95d5 18bd f50d 633d
000001b0: 3e17 22be 3249 8f3d bc5c 353e c9d7 9f3c
000001c0: bee9 39bd 4d98 7e3d fda4 b63d 0a0d 25be
000001d0: 6044 23bd de26 643d 20c3 2b3c ac39 82bd
000001e0: d3e2 4e3e cdb8 3f3d a17b 813d 98b2 1d3d
000001f0: b0ea 083e 14f4 cc3c 030f f4bd 5c19 1d3d

log_std_parameter f4 [19]
-3.3013947 -3.3292434 -3.4683454 -1.8808752 -1.8151425 -0.8870649 -0.854651 -2.4018712
-2.4114106 -0.7053234 -0.7777593 -1.6786891 -1.5236748 -0.8831905 -0.73248374 -0.7809628
-0.8643744 -0.8122899 -0.74339014
00000000: 0d4a 53c0 5312 55c0 5ff9 5dc0 85c0 f0bf
00000010: 9756 e8bf af16 63bf 68ca 5abf 42b8 19c0
00000020: 8d54 1ac0 1390 34bf 3c1b 47bf 49df d6bf
00000030: c707 c3bf c618 62bf 0e84 3bbf 2eed 47bf
00000040: a447 5dbf 3bf2 4fbf d14e 3ebf

net_container.0.weight f4 [128, 69]
-0.08425884 -0.34675044 0.2174865 -0.3807609 0.05835161 0.0014174504 -0.1792107 -0.2386491
0.098656006 -0.04765242 -0.062220123 0.08850137 -0.1582454 -0.4790428 -0.21287437 -0.26891986
0.34225813 -0.32253763 0.5598612 -0.16642986 -0.2147588 0.008773311 0.17015938 -0.24986199
-0.36776912 0.107603535 -0.3519602 -0.0018364787 0.22059426 -0.015301859 0.20760936 0.014243285
-0.017064393 -0.003326402 -0.04025257 0.06920663 0.025969135 -0.06180973 -0.08754881 0.058923136
0.007848762 -0.14061597 0.04561301 0.035812825 0.10337576 0.06257714 -0.06629263 0.15577455
-0.079887696 -0.016866721 -0.048705634 0.07866615 0.13203597 0.13386787 -0.03665047 0.028714085
-0.09574405 -0.028161708 0.0150850145 0.10647324 0.106953904 -0.110550866 -0.12937608 -0.04469536
0.012629693 0.04517484 -0.055950936 0.03820614 0.08324734 0.030079205 0.22710074 0.24746504
-0.22483191 -0.13787188 0.15333769 0.03795729 -0.3299173 0.08510281 0.03781437 -0.041140597
0.19778578 0.06472193 -0.34259525 0.12838681 -0.101741806 0.012436474 -0.32124406 0.3611856
0.1500827 -0.0060917516 0.09988228 -0.18947616 0.008128772 0.09529118 0.12538646 -0.28117895
-0.059652757 0.16130541 0.0062801926 -0.55464125 0.010012882 0.07646764 -0.060499333 0.021195944
-0.09000525 0.0029085563 0.003912364 -0.025899816 -0.0051474213 -0.019850548 -0.020276379 -0.07644292
-0.004012699 -0.039367247 0.012193235 0.08311652 0.022800297 0.10972416 0.058339927 -0.0024304215
-0.0020265623 0.09263167 0.03362876 0.07146814 -0.050511513 -0.0776157 -0.23147525 -0.035247188
-0.017629389 0.028733864 0.07791317 -0.2857788 0.01374536 -0.17167406 -0.082425445 -0.0314529
-0.08055821 0.045302946 -0.2855168 0.42273736 0.030539298 0.069075316 0.071634725 -0.030134255
-0.41617835 0.28771532 0.22406593 0.28115672 0.041517723 0.22354051 0.04642814 -0.086455025
0.020857021 0.20539165 -0.49360824 -0.25384465 0.6280346 -0.41540024 -0.17099714 -0.116200365
0.11967481 0.008347123 0.020799434 -0.12827787 0.122759104 -0.013809132 0.059807636 0.032156598
0.13492565 0.023456477 -0.0359329 0.05450628 0.14653867 -0.11968965 -0.019437794 -0.053912222
-0.033556525 0.049241588 -0.082144365 -0.10021998 -0.061824836 0.028125029 0.03844046 0.0061524534
-0.06995428 0.011111289 0.004153809 -0.02928873 -0.05591574 -0.061008614 0.07236976 -0.0344906
0.023091642 0.035750333 -0.08365397 -0.10442868 0.2717233 0.055054132 0.053882584 -0.08116087
0.100343235 -0.07110151 0.06346704 -0.012129723 -0.013668639 0.055214986 -0.0058557875 0.23900405
0.34797803 -0.2045502 -0.10275162 -0.013799081 -0.07720374 1.2946286 -0.4010681 -0.069406494
-0.023810197 0.116648525 -0.05683667 0.30164203 -0.1501463 0.24531129 0.52486247 -0.32172778
-0.04635441 0.14753841 0.4612414 0.36976674 0.22154367 0.17160207 0.3157993 0.31254947
0.1370561 -0.116421625 -0.082140274 -0.063355364 0.08179776 0.08552797 0.009030713 0.005037137
-0.039054055 0.034911655 -0.013819029 0.04539826 0.055614397 0.0125629585 -0.0017365667 -0.035413276
-0.001101132 -0.015747955 -0.022100432 0.0047147195 0.06717488 0.07411658 0.09200389 -0.0510347
00000000: e68f acbd 4689 b1be c8b4 5e3e 18f3 c2be
00000010: 1902 6f3d bec9 b93a 0283 37be 6e60 74be
00000020: 290c ca3d 2f2f 43bd 87da 7ebd 3540 b53d
00000030: 150b 22be 1945 f5be bdfb 59be ddaf 89be
00000040: 753c af3e a723 a5be 1053 0f3f 976c 2abe
00000050: bbe9 5bbe efbd 0f3c 433e 2e3e d2db 7fbe
00000060: 3c4c bcbe 3e5f dc3d 2134 b4be 00b6 f0ba
00000070: 76e3 613e a6b4 7abc 8c97 543e ab5c 693c
00000080: a0ca 8bbc c4ff 59bb e1df 24bd 35bc 8d3d
00000090: 39bd d43c 332c 7dbd ca4c b3bd 6359 713d
000000a0: 1898 003c a2fd 0fbe b5d4 3a3d 78b0 123d
000000b0: acb6 d33d 7228 803d 6ec4 87bd 5d83 1f3e
000000c0: 299c a3bd 142c 8abc 8f7f 47bd b81b a13d
000000d0: 7034 073e a914 093e ce1e 16bd cd39 eb3c
000000e0: 7515 c4bd 62b3 e6bc 2327 773c a40e da3d
000000f0: a60a db3d 7e68 e2bd 2a7b 04be 7b12 37bd
00000100: c6ec 4e3c 4109 393d cf2c 65bd 0b7e 1c3d
00000110: 957d aa3d aa68 f63c 198d 683e 7a67 7d3e
00000120: 563a 66be 492e 0dbe 8e04 1d3e 1a79 1b3d
00000130: ecea a8be 624a ae3d 3ee3 1a3d 0b83 28bd
00000140: 5b88 4a3e ee8c 843d a568 afbe d577 033e
00000150: 025e d0bd 5ac2 4b3c 1a7a a4be 52ed b83e
00000160: 48af 193e 519d c7bb 158f cc3d 0a06 42be
00000170: 8a2e 053c 0628 c33d 4f65 003e b0f6 8fbe
00000180: 7356 74bd 3f2d 253e 13ca cd3b f8fc 0dbf
00000190: 120d 243c 119b 9c3d 26ce 77bd 1ea3 ad3c
000001a0: ac54 b8bd 7a9d 3e3b 4a33 803b da2b d4bc
000001b0: b3ab a8bb 9e9d a2bc a61a a6bc 1b8e 9cbd
000001c0: f57c 83bb 8d3f 21bd 22c6 473c fe38 aa3d
000001d0: b0c7 ba3c 0fb7 e03d d9f5 6e3d b547 1fbb
000001e0: 13d0 04bb acb5 bd3d 50be 093d e35d 923d
000001f0: 29e5 4ebd fbf4 9ebd d907 6dbe 5b5f 10bd
00000200: 826b 90bc 4863 eb3c f190 9f3d 9951 92be
00000210: 3834 613c 53cb 2fbe acce a8bd c2d4 00bd
00000220: b4fb a4bd 958f 393d 422f 92be 0871 d83e
00000230: 8d2d fa3c 5c77 8d3d 3ab5 923d 1ddc f6bc
00000240: 5415 d5be 6c4f 933e 8a71 653e c6f3 8f3e
00000250: 7d0e 2a3d cee7 643e 6f2b 3e3d 550f b1bd
00000260: 58dc aa3c 3052 523e 38ba fcbe edf7 81be
00000270: e0c6 203f 57af d4be e019 2fbe 75fa edbd
00000280: 1118 f53d 5fc2 083c 9363 aa3c 465b 03be
00000290: 2069 fb3d b33f 62bc daf8 743d a3b6 033d
000002a0: f329 0a3e cc27 c03c 602e 13bd fa41 5f3d
000002b0: 3c0e 163e d91f f5bd 023c 9fbc 10d3 5cbd
000002c0: 9172 09bd 8cb1 493d 4e3b a8bd 2240 cdbd
000002d0: 0a3c 7dbd 7666 e63c be73 1d3d 859a c93b
000002e0: 3144 8fbd 200c 363c ad1c 883b ebee efbc
000002f0: e707 65bd 2be4 79bd 9936 943d 0446 0dbd
00000300: af2a bd3c f16e 123d c652 abbd b4de d5bd
00000310: 511f 8b3e 7180 613d fcb3 5c3d ac37 a6bd
00000320: c180 cd3d ab9d 91bd 02fb 813d bfbb 46bc
00000330: 6df2 5fbc 1c29 623d e8e1 bfbb 7abd 743e
00000340: 2d2a b23e 9c75 51be 716f d2bd 8a15 62bc
00000350: ff1c 9ebd 64b6 a53f cc58 cdbe fe24 8ebd
00000360: 9a0d c3bc 6ce5 ee3d 91cd 68bd d370 9a3e
00000370: f4bf 19be e232 7b3e 635d 063f 81b9 a4be
00000380: 1fde 3dbd 4f14 173e d527 ec3e 1152 bd3e
00000390: 58dc 623e 74b8 2f3e 72b0 a13e 7c06 a03e
000003a0: 6f58 0c3e 766e eebd 2939 a8bd 75c0 81bd
000003b0: 9685 a73d 4a29 af3d 8ef5 133c 910e a53b
000003c0: 25f7 1fbd 86ff 0e3d 3569 62bc 87f3 393d
000003d0: eccb 633d ded4 4d3c 829d e3ba 830d 11bd
000003e0: dc53 90ba db01 81bc f70b b5bc ef7d 9a3b
000003f0: fc92 893d 6fca 973d 896c bc3d c309 51bd

net_container.0.bias f4 [128]
0.09347101 -0.13494436 -0.06333634 0.020887716 0.09423679 0.02549494 0.08303224 0.09057552
0.13502106 0.08948901 -0.047273625 -0.0024943564 0.013541602 -0.001367886 0.19453819 -0.16191651
0.13692656 -0.124971576 0.15216649 0.05270723 0.06122851 0.041943733 -0.060056392 0.12496448
0.047905724 0.114236 -0.12874267 -0.05804744 -0.027254941 -0.067677595 -0.047823403 0.012247261
0.17423311 0.036622446 -0.00012729896 -0.087751254 0.12862024 -0.0199302 0.10098639 -0.01630823
-0.09065693 0.11379317 -0.091341354 -0.06322362 0.11880427 -0.099793985 0.10333728 -0.04889477
0.23173268 0.077406466 0.031543203 -0.009003195 -0.114017464 -0.09787458 -0.0631456 0.030263256
0.12969305 0.063268095 0.117949344 0.12747295 0.008903886 0.024615636 0.1602566 0.0050849533
-0.003696031 0.13714433 0.063344255 0.024523837 0.13551447 0.09970167 0.0237256 -0.12024496
0.11368281 0.07115488 0.04502075 -0.006380987 0.21930568 -0.058808733 0.17144084 0.064483926
-0.06337649 -0.067370825 0.13203782 0.040636387 0.008415366 0.07390027 0.069688946 0.20814471
-0.050599545 0.16255125 -0.030930666 -0.093311846 0.045839965 -0.019618144 0.003644174 -0.021903832
0.05016421 -0.043115884 -0.053870834 0.021112634 0.10582951 0.006914042 -0.075759254 0.0068221786
-0.04885175 0.03270897 0.061439313 -0.111591905 0.013299046 -0.15189399 0.0011729926 -0.02842035
-0.010231581 -0.07782777 0.12649223 0.15740885 -0.13413155 0.076078855 0.002507492 -0.13312465
-0.0039199777 -0.13232186 0.14810814 -0.11804286 0.060177676 -0.1043991 -0.12568162 0.09456703
00000000: bb6d bf3d db2e 0abe 7cb6 81bd b71c ab3c
00000010: 38ff c03d c4da d03c cf0c aa3d a97f b93d
00000020: f642 0a3e 0446 b73d fda1 41bd 5b78 23bb
00000030: 98dd 5d3c a34a b3ba 0535 473e 71cd 25be
00000040: 7a36 0c3e 19f1 ffbd 88d1 1b3e 89e3 573d
00000050: bfca 7a3d 31cd 2b3d b1fd 75bd 61ed ff3d
00000060: cb38 443d 90f4 e93d 1ed5 03be 27c3 6dbd
00000070: c145 dfbc 8d9a 8abd 79e2 43bd bca8 483c
00000080: 2a6a 323e 6b01 163d 8e7b 05b9 eeb6 b3bd
00000090: 06b5 033e a944 a3bc f4d1 ce3d d698 85bc
000000a0: 57aa b9bd 650c e93d 2d11 bbbd 637b 81bd
000000b0: a74f f33d ca60 ccbd 7fa2 d33d e245 48bd
000000c0: 554b 6d3e 4887 9e3d 7233 013d 2382 13bc
000000d0: fd81 e9bd 7872 c8bd 7b52 81bd a6ea f73c
000000e0: 41ce 043e b492 813d 6d8f f13d 4588 023e
000000f0: 9be1 113c bba6 c93c 4e1a 243e ae9f a63b
00000100: 1c39 72bb 906f 0c3e a2ba 813d 37e6 c83c
00000110: 4ec4 0a3e 6430 cc3d 315c c23c fd42 f6bd
00000120: 88d2 e83d a6b9 913d ae67 383d 9917 d1bb
00000130: ab91 603e 6de1 70bd 308e 2f3e 2610 843d
00000140: 88cb 81bd b7f9 89bd ec34 073e 5772 263d
00000150: 9ae0 093c 0659 973d 14b9 8e3d e323 553e
00000160: 7841 4fbd d673 263e 4f62 fdbc 481a bfbd
00000170: b0c2 3b3d 3bb6 a0bc 18d3 6e3b aa6f b3bc
00000180: fd78 4d3d 489a 30bd aaa7 5cbd 67f4 ac3c
00000190: 24bd d83d 308f e23b ab27 9bbd 958c df3b
000001a0: c618 48bd d7f9 053d caa7 7b3d 4c8a e4bd
000001b0: 3ee4 593c 198a 1bbe 1abf 993a cbd1 e8bc
000001c0: 5ca2 27bc 2a64 9fbd 2e87 013e c92f 213e
000001d0: c859 09be 3bcf 9b3d bc54 243b d451 08be
000001e0: 2873 80bb 627f 07be a9a9 173e 74c0 f1bd
000001f0: de7c 763d 32cf d5bd afb2 00be 5cac c13d
