humanoidprac/humanoidprac/scripts/skrl/logs/skrl/h1_flat/joint_experiment_ver3/2025-09-18_09-59-11_ppo_torch/checkpoints/agent_16800.pt (torch, 549970 bytes, 40 tensors)

log_std_parameter f4 [19]
00000000: bada 49c0 ae24 4dc0 da82 55c0 b724 dfbf
00000010: d69f e3bf 63f4 58bf 81f3 51bf 8467 1ac0
00000020: 2054 17c0 1e79 2bbf ec0f 2bbf a50f c8bf
00000030: 6b72 c1bf 0ba2 40bf e2d9 48bf 2f9d 56bf
00000040: 88d7 42bf 1ec3 39bf fbda 3ebf
-3.153975 -3.2053638 -3.3361115 -1.743308 -1.7783153 -0.84747905 -0.8201218 -2.412568
-2.3645096 -0.66981685 -0.6682117 -1.5629774 -1.5113043 -0.7524726 -0.7845746 -0.83833593
-0.76110125 -0.7256335 -0.7455289

net_container.0.weight f4 [128, 69]
00000000: 5ff9 9cbe 3a60 cc3c 2884 753c 3205 60be
00000010: 57ce a43d b09c 283d 7840 16bc beb0 8f3d
00000020: c580 d93d e382 103d 87da 7ebd 650b 663e
00000030: 8176 e33e 367e 65be 71a7 573e 1a73 86be
00000040: 6d98 363e 384a 6abd f62e 9e3e a5bc c0bd
00000050: 7e55 94be 527d c83e 8d87 a23c 81c5 a8be
00000060: 2161 a9be a194 f13c 776c 35be aa11 a13e
00000070: 9939 893e 0f34 02bd 77c1 47be ead2 90bc
00000080: bad6 333d 9b8a 04bd 5398 debc aad5 b43d
00000090: 5d32 1dbd 60d1 eb3c 0f17 fabd d461 5c3d
000000a0: 0e14 673d 8eda 84bd 9e49 013e 6a06 583c
000000b0: f297 9d3d fa2f 533c 7998 0dbe f01d 103d
000000c0: b6a7 8ebd f6b8 2e3c 31f2 3e3c ecc0 d1bd
000000d0: be8b f63d 83b7 363c 1dee 533c 556c fb3c
000000e0: 0b15 253d c7ab 28bc 463b 113d 7e51 493d
000000f0: 0d6b 15bd f66c 563d db7c 01be 34b6 04bd
00000100: 25de 9bbd ab6a 40bd 6d20 0abd d115 b13c
00000110: 301e 503c d705 84bd 3535 cb3c 072c 8f3e
00000120: c3bf 0dbd 7060 1fbe 7b19 3f3e 6986 34be
00000130: 1f79 12bd d78d 573c 36e8 053c 0b83 28bd
00000140: 67ae d13e 65d6 85bd 18ba 463d 6644 b03e
00000150: 29e2 9e3e 8a6e a53e 4429 9fbe ad9a 853e
00000160: 76cc ba3d 7297 a3be 32b0 bb3e 6241 5abe
00000170: 86e0 4f3d 345e 4b3d 3074 e33d f6e3 b7bd
00000180: ae26 0d3e aba3 ac3e 7034 2e3d 652f 123f
00000190: cacd 21bd 7d75 a73c b83a 6ebb fbf5 a5bd
000001a0: 3267 933d 3d3d 8ebd 6989 2fbd eb0c b5bc
000001b0: fc1e ad3d 4394 f73c 5874 d63c f649 73bd
000001c0: d9ab dc3b c014 ea3c 7d74 c2bb 17ec cb3d
000001d0: d831 d73d 0d82 623d 9f5c 4fbd 1462 753c
000001e0: 3913 67bc 5034 17bd 48bf 89bd bf83 093e
000001f0: 5bd1 1bbe ddb9 903b 54b7 43be 8db6 1abe
00000200: f998 883d da5a f33b ff1a 26bd c6ca 3dbe
00000210: f9ba c43c 9dc6 fcbd 6f66 2abe 4f25 033e
00000220: a395 2e3c 1b9c 053e 7875 89be f7aa b73e
00000230: c90d dcbd 1389 9d39 7b32 88bc e6f1 d6bd
00000240: d143 ccbe f0e4 493e 1a0b 0a3e ec46 ad3e
00000250: 7d0e 2a3d f1c2 82be 94ea cebd ddfa 9a3e
00000260: c164 323e f925 8d3e 8c9d 46be 55b2 bb3d
00000270: 99e4 403d 2004 85be 431c 9d3e 8669 a6be
00000280: 2458 0abd eed9 d23d ac59 bd3d 6192 493e
00000290: 967c 36be 02ea cfbc 349a b03c 023d 48bd
000002a0: 96e6 763e be63 a33c 2026 5d3b 769b 173d
000002b0: 01e1 b83d ebf4 15bd 5fa1 723c 1d59 09bc
000002c0: 6033 b2bd daf8 193d 91bc c4bd 6ecb b4bd
000002d0: f0ef 823c bf9b 013d 8699 9cbc 11ce 493d
000002e0: 9933 8dbd ff8d 60bb 7666 14bb 3df2 bebc
000002f0: 3fb2 3dbd 510a d33d c6da 303d 96a1 11bb
00000300: de0a 19bc cf13 ed3d 8c39 9abc 1665 a4bd
00000310: bde9 203d 4ccf 853b 6987 d23b 6af2 72be
00000320: ccc8 eb3d 15de 823d c30e a5bc 3614 633e
00000330: 8ff1 2ebd 7a01 2f3d d7f6 e13c 3b31 db3d
00000340: a8a6 96bd f266 a5be 48a2 a9bd 3ed1 b4bd
00000350: 5b99 a7bc fc39 893f 34d5 87bf d435 873c
00000360: aa65 663e 6ce5 ee3d d8e1 5dbc 396e ed3d
00000370: 0419 bcbe cb40 7e3e e03b 373f 92a8 69be
00000380: bc38 e63d defa 22be 7918 453e b496 7a3e
00000390: eb62 a1bc 9ab3 3cbd ad8c 6d3e 71e0 8a3e
000003a0: 867c c83c 50ec 0dbe 2c1b 87be 0976 07be
000003b0: 1167 223e e93f cebd 57a1 9abc d0a7 ab3c
000003c0: 1581 1abc 5352 a9bc a567 20bd cb11 733d
000003d0: 3771 8f3d e296 45bd f6f4 dbbc 3b61 8bbc
000003e0: 85c8 c53c aa4d bebc 77c4 513c 0c73 3d3d
000003f0: cb78 4d3d 34ef 753c 8cc8 413d fc7d 1ebd
-0.30659005 0.024948228 0.014985122 -0.21876982 0.08047169 0.041165054 -0.009170644 0.07016133
0.10620264 0.035281073 -0.062220123 0.22465284 0.4442635 -0.22411427 0.21059968 -0.2625969
0.17831583 -0.057199687 0.30895203 -0.09410981 -0.28971475 0.39158112 0.019840026 -0.32963184
-0.33081916 0.029489817 -0.17717157 0.3145879 0.26801756 -0.03178793 -0.19507395 -0.017678697
0.04390595 -0.032358747 -0.027172243 0.08829816 -0.03837811 0.028786361 -0.12211429 0.053804234
0.05641561 -0.064869985 0.12625739 0.013185123 0.07694997 0.0128898565 -0.13827695 0.0351848
-0.06965582 0.010664215 0.011654423 -0.10241875 0.120383725 0.011152151 0.012935189 0.030691305
0.04030327 -0.010294861 0.03545692 0.049149983 -0.036479045 0.052350007 -0.12645285 -0.032400325
-0.0761073 -0.046976727 -0.03372233 0.021616848 0.01270251 -0.06446426 0.024805645 0.27963278
-0.034606706 -0.15564132 0.18662064 -0.17629398 -0.03576004 0.013156376 0.008173039 -0.041140597
0.4095337 -0.06535033 0.048517317 0.34427184 0.31031922 0.32310897 -0.3108617 0.2609457
0.09121029 -0.3195148 0.36657864 -0.21314004 0.05075123 0.049650386 0.111061454 -0.08979027
0.13784286 0.3371862 0.042530477 0.5710357 -0.039502896 0.020441765 -0.0036350917 -0.08103558
0.07197417 -0.06945274 -0.042855654 -0.022100886 0.084531754 0.030222064 0.026178524 -0.059396707
0.006734353 0.028574347 -0.0059342966 0.0995714 0.10507554 0.055299807 -0.05062544 0.014976997
-0.014103704 -0.036915123 -0.06725937 0.13429163 -0.15216582 0.004416688 -0.19112903 -0.151087
0.06669802 0.007426602 -0.04055309 -0.18534383 0.024014937 -0.1234257 -0.16640638 0.12807201
0.010655793 0.13047831 -0.26847434 0.35872623 -0.10744817 0.00030047502 -0.016625633 -0.10495357
-0.3989549 0.19716239 0.13480797 0.33843172 0.041517723 -0.25539353 -0.10103336 0.30269518
0.17421247 0.27568033 -0.19396037 0.091648735 0.047093008 -0.2597971 0.30685624 -0.32502383
-0.033775464 0.10295473 0.09245619 0.19684745 -0.17820963 -0.025380138 0.021557905 -0.048886307
0.24111399 0.019945022 0.0033744648 0.037013493 0.09027291 -0.036610525 0.014808982 -0.008383063
-0.08701205 0.03759084 -0.09606279 -0.08827864 0.015983552 0.03164267 -0.019116174 0.049268786
-0.06894607 -0.0034264324 -0.002264408 -0.023308868 -0.046312567 0.10304702 0.04317739 -0.0022221557
-0.00934097 0.11576044 -0.018826269 -0.08027093 0.03928541 0.0040835496 0.0064248336 -0.23725286
0.11512908 0.06390015 -0.02014864 0.22175679 -0.042710837 0.042726018 0.027583523 0.10702749
-0.07356006 -0.32305104 -0.08282906 -0.08828972 -0.020458868 1.072082 -1.061194 0.01650516
0.2249972 0.116648525 -0.013542615 0.11593289 -0.36737835 0.24829404 0.71575737 -0.2281821
0.1124129 -0.1591601 0.19247617 0.24471551 -0.019700488 -0.04606972 0.23198195 0.2712436
0.02447344 -0.13859677 -0.26387918 -0.1322862 0.15859629 -0.10070784 -0.018875761 0.020954043
-0.00943019 -0.020669138 -0.039161343 0.05934314 0.07004016 -0.048239596 -0.026850205 -0.017014137
0.024143467 -0.023230392 0.0128031885 0.046252295 0.050164025 0.015010644 0.047310397 -0.038694367

net_container.0.bias f4 [128]
00000000: 29a1 dc3d 25bc bcbc 8219 9b3c bbda 2abb
00000010: c989 f63d dbbe d33b 93c5 e33d 9680 ed3d
00000020: a8ca 1e3e 9027 cd3d 0470 f0bc da14 c73b
00000030: b42a 323d f8df c2b9 132f 843e bbe6 d8bd
00000040: 6e8e 0b3e d4a2 ccbd 094f f03d 5c12 3e3d
00000050: af13 783d cb49 483d ac18 8bbd 5074 203e
00000060: dc4a 923d ad99 a53d 690f 563a 3290 05be
00000070: d5fa b2bd aeff 6dbd 5bc1 e93b a2d4 163c
00000080: 1423 713e 6794 ab3d 1db4 223d 8ee4 fdbd
00000090: c53d b33d 4f86 a8bb d7e6 a93d 25b7 873b
000000a0: 8d15 3ebd 5b2e 333e 6236 b7bd 44e1 b7bd
000000b0: 7db9 eb3d 596b 0dbe 42d3 b13c 7a3f 32bd
000000c0: ab4d 5d3e d29c 443d 3cd4 98bc 5740 173d
000000d0: 78df 0bbd cb16 74bd 86c9 1ebd d3b8 843d
000000e0: e3d9 343e 6dfc 933d f828 e53d 71b8 193e
000000f0: 45cd acbd 0606 9f3d e9a0 4c3e 7b9b 043c
00000100: fd29 653d 2d16 353e 3942 cb3d ac8a 953d
00000110: ac77 993d a2ab dc3d f64e 3c3e 567b aabd
00000120: 569b 303e b586 083e 255c 81bb 2cbe d43d
00000130: e953 323e 05db c7bc 9568 263e 417f aa3d
00000140: 10f2 47bd 6b9f b73a 161a 303e bd28 be3d
00000150: 4523 023e 5f2a cb3d 2d19 2e3e ea2a 9b3e
00000160: 33e1 843d f188 6b3e 2d4c 83bd 348f 3cbd
00000170: 6c2a 043e 2c1a a0bd a72c ad3c 728a 593c
00000180: dd52 7abb 84c9 84bd 8da0 06be 796e 03bd
00000190: ca50 ea3d 6156 193d ab4e 9ebd c2be 253d
000001a0: 2932 173d 9866 003e ae59 873d 196c 85bd
000001b0: 050e 36bd 6045 09be 49d1 2c3d ffcd 513d
000001c0: b1e1 d9bd 1e5e a4bd 83fe 3c3e 6463 173e
000001d0: 4747 07be cacf ea3d b6d9 efbc c2a7 a2bd
000001e0: bbab d43c 4ce3 ddbd fe59 2d3e d465 5abd
000001f0: 8e59 e73c e5e9 ecbd db89 abbd b4b1 123e
0.10772926 -0.023038933 0.018933062 -0.0026070315 0.12037999 0.0064619607 0.11121669 0.115967914
0.15506995 0.100173116 -0.029350288 0.0060754837 0.043497756 -0.00037169433 0.25817165 -0.10590883
0.13628551 -0.099919945 0.11733825 0.046404228 0.060565647 0.0488985 -0.06791815 0.1566937
0.071431845 0.08085952 0.00081657484 -0.13043287 -0.08739249 -0.058105163 0.0071336455 0.009205969
0.23548537 0.08377915 0.03972255 -0.12397109 0.08752016 -0.005142964 0.08295982 0.0041417056
-0.04640727 0.17498152 -0.089459196 -0.08978513 0.115099885 -0.13810481 0.02170718 -0.043517567
0.21611659 0.048001118 -0.018655889 0.036926594 -0.034148663 -0.05959205 -0.038766406 0.06480565
0.17661242 0.07225881 0.11189455 0.15011765 -0.084375896 0.07764821 0.19983257 0.00809371
0.055948246 0.1768424 0.0992474 0.0730184 0.07493529 0.10774924 0.18389496 -0.08324306
0.17246756 0.13332637 -0.003947752 0.10387835 0.17414822 -0.024396429 0.16250832 0.08325053
-0.048814833 0.0014009302 0.17197451 0.09285114 0.12708767 0.09920191 0.17001791 0.30306178
0.06488266 0.23001458 -0.06411014 -0.046035007 0.12906808 -0.07817492 0.021139456 0.013277637
-0.0038196363 -0.064837486 -0.13147183 -0.032087777 0.114411905 0.037435893 -0.077298485 0.040465124
0.03691307 0.12539136 0.06608902 -0.065147586 -0.044446964 -0.1340537 0.042191777 0.051221844
-0.1063875 -0.08025764 0.18456464 0.14784008 -0.13210784 0.11465414 -0.029278617 -0.079421535
0.025960794 -0.10834369 0.1692886 -0.053319767 0.028240945 -0.11568049 -0.08375903 0.14325601

net_container.2.weight f4 [128, 128]
00000000: 8728 5bbc ceb5 dfbd 63f2 8d3d 8c3f 3bbd
00000010: c5f3 1cbd 30ae edbd 90be 133c 5021 25bc
00000020: a24f 4bbd 6f20 883d 04e7 15bc 91bf efbd
00000030: ce13 e93d fc3a ecbd 6af1 463d 413e 473d
00000040: df0d 56bc 23ed dd3d 6084 d0bd 0b51 073e
00000050: d6e3 22bd cd1b 9e3a e3b6 ffbd 06e0 94bd
00000060: bfae 19be d61b 04bd 7a13 d4bd 6dc6 513d
00000070: d531 0a3d 6e0d b3bc 2875 2bbd 5377 4a3d
00000080: c209 88bd 5cd1 4cbe 74d4 a9bd 8c40 073d
00000090: 5cbc 53bd 8ff6 dd3c b683 3e3d 19e6 62bd
000000a0: 1886 9a3d d942 c03d 475a 41bd 06ae 06be
000000b0: 255b 40bd 9d74 dfbb f2fc fabd 509c 933d
000000c0: 6485 c33d d331 0a3d f452 263d 945d da3b
000000d0: 90b6 41bd 5475 02bd 14cb 5bbd 15a4 22bd
000000e0: ff81 74bd 1af3 a5bc b71c a73d 3275 2f3d
000000f0: fc41 a83d 768c 16bc 38c4 4c3d dfae eabd
00000100: bd8f f33c 2847 e6bd 3e47 83bd 339f 8bbd
00000110: 4269 c2bd 8f65 d03b 636a 863c a6d4 3039
00000120: fe31 2b3d 15bc 7cbd 68bc 24be bc0a 673d
00000130: e277 a5bd acc3 17be 467f 6b3d 4e62 a03c
00000140: ff25 e03d 25c7 b43c ae9d 9e3c d42d 5f3d
00000150: 264c 0dbe d5cf 853d 055c 2dbe e345 22be
00000160: 21b1 553d 7c6a 30bd 3367 81bd f9f2 89bd
00000170: 62aa 14bd cbd0 dfbc 86f9 2bbe 1eb8 90bd
00000180: 338d 4f3d a48a c0ba d458 863d d06b 063d
00000190: 3df9 313d be8d 2b3d 731b 87bd c32c 1fbd
000001a0: 14c0 913d 85f9 4fbd d267 473c 346e 66bb
000001b0: 63f1 883d 6ad4 cb3d 039a 6d39 3e16 4fbd
000001c0: ba8e 1d3c 7dc5 06bc 32b1 23bd c901 0cbe
000001d0: 3495 c1bd 6849 81bd d431 153d 5659 1fbd
000001e0: 7cc0 0cbd 0541 61bd 4634 c0bd 074a adbc
000001f0: 51d2 c93c 561f 983d 8a76 04bd eac1 f6bd
00000200: 9ef1 903d 6b90 143c c526 46be 1169 9abd
00000210: 1886 5abd e3f2 a03d d121 213e 9227 0b3e
00000220: bfe3 b03d 34f2 29be 3829 d9bb 92e2 f13c
00000230: 0523 80be 4df6 763d 195f d8bd 26f7 e53c
00000240: f83f 033e b141 fb3d 73c2 0fbc fecb d1bd
00000250: 1d66 91bd 5978 44be c678 7d3d 8fdf 75bd
00000260: 6a80 75bd 9f9e 8f3d 5b9f e7bd 3521 b53a
00000270: 8ec4 9a3d c08a 853d f69b b63d 489d d5bd
00000280: 4382 013d c05c 5b3c 98e7 02bd 225e 5fbd
00000290: d20d 833d bab3 88bd c7ab 8ebd 1a3b 54bd
000002a0: 7be2 b83d d0d2 13bd cd0f 593c e0bd 573e
000002b0: dcea 26be 321b 0d3d ac28 b43d 8814 7c3d
000002c0: 3c2d 03bc 9568 c0bd 1972 76bd 25e5 adbe
000002d0: 887e 17be b138 a0bc 8cc3 42bb 5589 15be
000002e0: 1765 cdbd babf 9fbe 18de 5abd 430b 173e
000002f0: bc8c 3fbe f523 b2bc 7659 96bd e972 593d
00000300: 35f6 c5bd b4f3 a1bd 5125 f23c 91a7 6fbd
00000310: c6e2 a5bd 10ca d6bd 1339 803d ebed c83d
00000320: 656f 2fbe 7d8e c73d ef10 27be b740 333d
00000330: 7254 0c3d 3fe6 99bd 9c64 3c3d 50b0 07bd
00000340: ded9 30bd 7728 2fbe d09a 0abd 8e16 2cbe
00000350: 693f 39be 0a7d 14be 2510 803c 6d24 bdba
00000360: 09be ffbc 0018 33bd 2768 00be 2758 1b3d
00000370: 4fc1 393e 82c3 373d a09d 99bd 2f29 d9bd
00000380: 7186 fe3c 4de5 4dbd 43e0 cc3c dcb6 8cbd
00000390: 8abb f1bc 527e 51be f5bc 093d 56bc 483d
000003a0: fe5f 0dbd 37b7 a23d ca62 9b3b 6f31 4abe
000003b0: ec30 993d 6597 29be cad7 153d 0705 3ebe
000003c0: 271a 46be ac97 423d 1957 503d 486d 84ba
000003d0: 2630 273c c354 da3d da04 873d b490 943d
000003e0: 3aa4 da3d 376c 17be 8894 fabd 62c1 cebd
000003f0: 670b a3bd 4c0f 06bd 946c 41bd 4df3 8dbd
-0.013376362 -0.10923348 0.06930997 -0.0457149 -0.038318414 -0.11605489 0.009017602 -0.010078743
-0.04963649 0.06646811 -0.009149317 -0.1170646 0.113807306 -0.11534688 0.048570074 0.048643354
-0.013064831 0.10836246 -0.101814985 0.13214509 -0.039768063 0.0012062729 -0.12486055 -0.072692916
-0.15008067 -0.03225311 -0.10355277 0.051214624 0.03373893 -0.02185699 -0.041859776 0.049430203
-0.06642486 -0.2000174 -0.08292475 0.03302054 -0.051693305 0.027095107 0.046512328 -0.05539522
0.075451076 0.0938775 -0.047205236 -0.13152322 -0.046961922 -0.0068193213 -0.12255277 0.072075486
0.095469266 0.033738922 0.040606454 0.0066639874 -0.047293246 -0.031850174 -0.053660467 -0.039707262
-0.059694286 -0.020257521 0.08159774 0.042836376 0.082157105 -0.009188762 0.049991816 -0.11459135
0.029731626 -0.11244041 -0.06410073 -0.06817474 -0.094927326 0.006359763 0.016408151 0.00016863886
0.041795723 -0.061702807 -0.16087496 0.05640672 -0.080795065 -0.14820737 0.057494424 0.019578125
0.10944747 0.022067616 0.019362297 0.054487064 -0.1379858 0.065337814 -0.16929634 -0.15846972
0.052170876 -0.0430703 -0.06318512 -0.067357965 -0.036295302 -0.02732124 -0.16794404 -0.070663676
0.050671767 -0.0014689756 0.06559911 0.03281766 0.043450583 0.041883223 -0.065970324 -0.038861047
0.07116714 -0.05077507 0.012170749 -0.00351609 0.06686666 0.09952624 0.00022659455 -0.05055832
0.009616548 -0.008225796 -0.03996391 -0.13672556 -0.09452286 -0.06312829 0.036424473 -0.038903557
-0.034363255 -0.054993648 -0.0938497 -0.021153463 0.02463642 0.07427852 -0.03233961 -0.12048705
0.07077335 0.009067635 -0.19350727 -0.07539571 -0.053350538 0.07858827 0.15735556 0.13589314
0.08637189 -0.165963 -0.006627228 0.029526982 -0.25026718 0.060293484 -0.105650134 0.028071951
0.12817371 0.12268389 -0.008774388 -0.102439865 -0.07099555 -0.19186534 0.061882757 -0.060027655
-0.05993692 0.070126764 -0.113096915 0.00138191 0.07557021 0.06520605 0.08916466 -0.1043039
0.031618368 0.013388813 -0.031959146 -0.05453313 0.063991204 -0.06674905 -0.06966358 -0.051814176
0.09027573 -0.03608972 0.013248396 0.21068525 -0.16300529 0.034449764 0.0879682 0.061543018
-0.00800639 -0.093949474 -0.060167406 -0.33963886 -0.14794362 -0.019558283 -0.0029718606 -0.1460317
-0.10029047 -0.31200963 -0.05343446 0.1475039 -0.1870603 -0.021745661 -0.07341282 0.053088102
-0.09666101 -0.07907811 0.02955881 -0.058509413 -0.08099894 -0.10487759 0.06260886 0.09811004
-0.17132337 0.09743974 -0.16315053 0.04376289 0.03426022 -0.07514619 0.045994386 -0.03312713
-0.043176524 -0.1710528 -0.033839047 -0.16805479 -0.18090595 -0.14500824 0.015632698 -0.0014430411
-0.031218546 -0.04372406 -0.12539731 0.037925866 0.18140148 0.044864185 -0.07500768 -0.10603558
0.031069966 -0.050267506 0.02500928 -0.06870815 -0.02950837 -0.20458344 0.03362747 0.049007736
-0.034515373 0.07945102 0.004742001 -0.1974542 0.07480034 -0.16561659 0.036582746 -0.18556605
-0.19345914 0.047507927 0.050864313 -0.0010103369 0.010204351 0.10660698 0.06592722 0.072541624
0.10675855 -0.14787374 -0.12235361 -0.100954786 -0.07961159 -0.032729432 -0.04722269 -0.069311716

net_container.2.bias f4 [128]
00000000: e6a6 293d 23a6 f9bd 8623 59be 4733 223d
00000010: 1434 89bd 9d4c 253c f0e1 633d fe7f f33d
00000020: 3d30 af3c 62a3 dcbd 6567 0f3e 5c97 12be
00000030: 6725 193e d729 4cbd 2263 a03d b906 03be
00000040: 9d05 cfbd fe93 76bc fda7 cbbd 7dcc fcbc
00000050: 58c5 423e 3aa0 96bd 1a18 1d3b ba62 e2bd
00000060: 2d0c a4bd c95d 0b3d b5d3 073d 6cc6 25be
00000070: 437c 273d 6915 38be 64f0 c3bd 6a39 22bd
00000080: a00b 3ebd 04a1 9cbd 03f9 9c3c 6e3d ddbc
00000090: eaf3 e3bd 1516 b63d 602e ccbd b027 e0bd
000000a0: 98a0 06be 0a8b 2b3c 71a3 8abd 0823 9bbc
000000b0: cd4a c53d f748 bc3d efde f7bc 4512 3c3d
000000c0: 12ca 413c b924 1bbe 7115 913d 5ac7 3ebe
000000d0: 2ef3 7cbc f7b3 c23d 2480 1bbe 232c 163c
000000e0: 05e3 e33d 1d56 12be 2f72 23bb d681 503e
000000f0: 6fb6 40be 67d5 a0bd 3670 fbbd 8f43 573d
00000100: 9509 52bc d41d 26be 63d2 353d 3d09 f9bc
00000110: c97c 99bd 5868 353d a0e2 b0bd 3884 abbc
00000120: ce69 afbc d8b4 7a39 00e4 1bbe 99fb 843b
00000130: ba5b d53d 4eca 31bd b40b 49bd efd5 46bc
00000140: c2ca 4ebd 3087 41bd b6f1 083d df40 3abd
00000150: b986 c7bd 1e53 1fbd ea45 5bbc 2106 ea3d
00000160: aff6 f13c 0df8 2cbd 1d1a 09be 3efc 5d3d
00000170: a372 ecbd 086a 4e3c 1fca 25be 384b 743d
00000180: 9deb 873a 47d4 c53c 93a0 51be eac3 cc3c
00000190: c9d8 3abe 42a9 29be e095 57bd b020 12bc
000001a0: f398 53bd 03ea b9bd 27a3 e4bc 158f f13c
000001b0: ab10 3abe 9f13 92bd cc40 d83d 0413 873d
000001c0: 1910 a3be b5ce 733c b855 a93d 2763 28bc
000001d0: 9bc9 a73d 3008 8ebc fd93 00be 2f5a 14bd
000001e0: aff6 143d 0cf2 01be bcf2 4b3c 3cd9 26bd
000001f0: b381 0e3e 93ce 9abd d37f 54bd 9dbb 0dbe
0.041418932 -0.12189891 -0.21204957 0.039599683 -0.06699386 0.010089067 0.055635393 0.11889647
0.021385306 -0.1077335 0.14004286 -0.14315552 0.14955674 -0.04984459 0.07831408 -0.12795533
-0.101084925 -0.0150499325 -0.099441506 -0.030859226 0.19020593 -0.073547795 0.0023970664 -0.11053987
-0.08010135 0.034024987 0.033160884 -0.16188973 0.04088999 -0.17976917 -0.09567335 -0.039605536
-0.046397805 -0.07647899 0.019161707 -0.027006831 -0.11130507 0.088909306 -0.09969783 -0.1094507
-0.13147199 0.010470161 -0.06769455 -0.018937603 0.09633408 0.091936044 -0.03025767 0.04591586
0.0118279625 -0.15150727 0.07084168 -0.18630734 -0.015438838 0.09506982 -0.151856 0.009165796
0.11127285 -0.14290662 -0.0024939885 0.20362028 -0.18819593 -0.07853203 -0.12277262 0.052554663
-0.012819667 -0.16222316 0.044390094 -0.030399913 -0.07494504 0.044288963 -0.08636975 -0.02093707
-0.021412756 0.00023909227 -0.15223694 0.004058313 0.10417886 -0.043405823 -0.049083427 -0.012135967
-0.050486334 -0.047248065 0.03343364 -0.045472022 -0.09742493 -0.038897626 -0.013383368 0.1142695
0.029536573 -0.042228747 -0.13388868 0.054195635 -0.11545303 0.012598522 -0.16190384 0.059642047
0.0010369901 0.024149073 -0.2047141 0.024995763 -0.1824676 -0.16568473 -0.052633166 -0.008918926
-0.051659536 -0.09077837 -0.027909828 0.029487172 -0.18170421 -0.07132649 0.10559234 0.06595424
-0.3184822 0.014880826 0.08268303 -0.010277546 0.0819275 -0.017337888 -0.12556453 -0.03621882
0.03636807 -0.1268999 0.012448009 -0.040734515 0.13916664 -0.07558932 -0.051879715 -0.138411

net_container.4.weight f4 [128, 128]
00000000: 8d61 87bd 3853 123e 374a 15bd b2a7 47bd
00000010: a519 c53c b7e5 f1bc 2e57 233b c27d b73d
00000020: a6be a0bb 1d04 88bd 01b8 5bbd 3142 94bb
00000030: 2a16 f93c 0352 d1bc 7256 7fbc c592 29bd
00000040: 3452 e2bc f163 afbc ea5e ae3c 2b8e c73b
00000050: 412e cfbd bad9 d4bd cf34 053e f227 51bd
00000060: c9b1 b63c a808 133d aa81 483d ce38 81bc
00000070: d392 81bc bc14 6d3d 5371 57bc 771b bd3d
00000080: 1b4c 50bd f3ed 873c 4346 7ebd 10d1 bcbd
00000090: e677 7e3c 6ddf 0fbd 2475 5abc dac6 f9bc
000000a0: 553b 80bc 04f0 a63b 2f4e 4c3d 1516 9e3d
000000b0: 5248 cfbc 323e d33c fe27 f5bd 8322 ec3c
000000c0: 1e76 11bd b3c9 efbb c396 7e3d aec9 4e3d
000000d0: 98bf 133d 56d9 2dbd fcfb b9bb 9594 30bd
000000e0: 07d8 703d 8e36 b5bc e023 91bc 1cec c33c
000000f0: 446f 803d f40b 30bb 1861 9bbb f755 75bc
00000100: de2c 3abd 03aa 98bd 43fd 83bd f927 7fbd
00000110: b14c 933d ed7b 283d f35f 07bd 89de 7dbc
00000120: ffd1 183e 1cca ab3c 2a28 aabd ea64 82bd
00000130: c707 213b e88d db3c aeea 0a3d 7065 92bd
00000140: 3e1b 023d 471d 0d3d 4c15 42bd 5092 42bd
00000150: 13ab 053d 1e4c bdbc 19fa 97bc 99ed 83bc
00000160: 6283 fcbc bed8 193b 8285 a63c f9ad 7fbe
00000170: bc78 e33d ea39 95bd f550 71bd 1906 d8bd
00000180: fc01 2cbd d682 a33d eed8 4cbd 5042 733d
00000190: 3171 223e 6758 b73c a584 f53c 9fc8 77ba
000001a0: 898e f33c 88fe 5bbc e556 d73d 172b ecbc
000001b0: a820 bdbd 5036 b6bd 0f8a 37bd 2200 b53b
000001c0: 806e 3fbd f85d f03c b62b b0bc a60b a739
000001d0: d588 80bd d9e3 a43d 5b59 84bd 6221 09bd
000001e0: 0552 32bd 335e 86bd 50c5 05bd c7a3 db3c
000001f0: f2c5 6cbc 5f25 b93d 95fc 573d e5f2 cdba
00000200: 8cc8 ca3d 4162 bbbd 939c 043d 2684 d13c
00000210: 6241 883d 0e9d a2bd db09 03bd 1797 b7bd
00000220: 5e04 63bd e2f6 b6bd 2977 6a3d 0d27 ccbd
00000230: fd2f 873d 575c 403d 01a8 a03d cdcf 19be
00000240: 5f16 ac3b 2b79 a5bd 6d37 92bd 42da cbbc
00000250: 6586 85bc 9349 cbbb 2321 5c3c 0728 c23d
00000260: 8287 3f3d 8acd 123d 24a8 043d 4c1c bbbc
00000270: bb1b e43c 329b 95bd 9498 103d 3008 ed3c
00000280: c010 17bc cb3c ad3d 1528 a0bc 2653 8d3c
00000290: 6e78 ffbc 8e8d 5abd f5fb 66bc f0aa cfbb
000002a0: b2ac 743d e764 8739 13c6 aebd 72f8 85bc
000002b0: 1440 c1bc e9d6 603d ad5c adbc b1a4 a83d
000002c0: 8bc4 b6bd e830 92bd bfcd e9bb bc32 ea3b
000002d0: 7d84 85bd 1d86 bd3d 80bb 79bd c985 1cbd
000002e0: 3bf4 473d 8382 19bb a038 1b3d 23d0 6bbd
000002f0: 251b 7d3c acd0 b63d c228 843d b236 96bd
00000300: c297 55bd 2e66 8cbd b55f 093d ba50 233d
00000310: 5805 a63c dec8 4ebb 57d9 89bd 51d2 6dbc
00000320: 50d4 ea3d bbfa 9fbd ca78 b93d 5ad5 963d
00000330: 4399 2f3d 1084 41bd 4c3b c8bd 056c 79bd
00000340: b8a3 d5bc 6b45 8e3b 5541 f6ba 1e6e 503d
00000350: f345 d7bc 52c3 7cbd ff8c 03be 210a 3cbd
00000360: f3b3 233d 8d39 e1bd 9b45 c23c 1b51 00bd
00000370: d0b4 c9bc 263b 11bb 0ba0 343d 1ae9 813c
00000380: 8e4c 393d adbd 753a 0670 503d 5a4a 94bc
00000390: 3d53 8e3d 1739 b43b fbe0 543d 35f4 373d
000003a0: 1899 46bb 984b c13c 1bc2 6cbd dc9c 57bd
000003b0: 7a09 093b 24ee b5bd ec30 5dbd 23c7 15be
000003c0: a706 5b3d c969 673d e36b b43c 6ab2 623d
000003d0: bb00 ce3d 3472 71bd 06bc 4b3d e57c 4e3d
000003e0: 0c3d 90bc 23e5 e5bc a3a7 a13d b9cc 1a3d
000003f0: 0da5 043c b89d c5bc 2201 e83c 3031 8d3d
-0.06610403 0.14289558 -0.03644773 -0.04874391 0.02406008 -0.029528482 0.002492379 0.08959533
-0.0049055396 -0.066414095 -0.053642277 -0.004524492 0.030406076 -0.025551802 -0.015584575 -0.041399736
-0.027627088 -0.02140996 0.021285493 0.006089946 -0.10116244 -0.103930905 0.13008426 -0.051063485
0.022301571 0.035896927 0.048951782 -0.015774157 -0.015817082 0.057881102 -0.013149577 0.09233754
-0.05085383 0.016592955 -0.062078726 -0.09219563 0.015531516 -0.035125185 -0.013333593 -0.030490328
-0.015653292 0.00509453 0.04987925 0.077190556 -0.02530304 0.025786493 -0.119705185 0.02882505
-0.035513036 -0.0073177456 0.062155496 0.050485305 0.03607139 -0.042443596 -0.005675791 -0.04311045
0.05879977 -0.02212074 -0.017717302 0.023916297 0.06271222 -0.0026862593 -0.004741799 -0.014974109
-0.045452945 -0.07454302 -0.0644479 -0.06229398 0.07192362 0.04113381 -0.03305049 -0.015494951
0.14923857 0.020970397 -0.08308442 -0.06366904 0.0024571286 0.026801065 0.033915214 -0.07148254
0.03176426 0.03445175 -0.04738359 -0.047502816 0.032633852 -0.023107585 -0.018551873 -0.016104506
-0.030824367 0.0023475136 0.020327333 -0.24968709 0.11107013 -0.07286437 -0.058915097 -0.10548038
-0.04199408 0.07983939 -0.050011568 0.059389412 0.15863492 0.02238102 0.029970476 -0.0009452197
0.029731052 -0.013427384 0.10514621 -0.02882914 -0.09234744 -0.08897078 -0.044809397 0.0055236975
-0.04673624 0.029341683 -0.021505218 0.000318614 -0.06276099 0.08051271 -0.06462356 -0.033479102
-0.04353525 -0.06560936 -0.032658875 0.026811494 -0.014451491 0.09040331 0.052731115 -0.0015712647
0.099015325 -0.091496 0.032375883 0.025575709 0.06653096 -0.07940112 -0.03199182 -0.08964365
-0.055424087 -0.08933808 0.057242546 -0.09968386 0.0660095 0.046963062 0.07844544 -0.15020676
0.0052516903 -0.080797516 -0.07139478 -0.024884347 -0.016299436 -0.006203839 0.013435635 0.09480291
0.04676009 0.03584055 0.032386914 -0.022840641 0.027845254 -0.07304992 0.03530176 0.028934568
-0.009220302 0.08458861 -0.019550363 0.017251562 -0.031185355 -0.053357653 -0.014098157 -0.006337516
0.059735008 0.00025824385 -0.085338734 -0.01635382 -0.023590125 0.054892454 -0.021162355 0.082345374
-0.08924206 -0.071382344 -0.0071351225 0.0071471613 -0.06519411 0.09254096 -0.06096983 -0.038213525
0.0488169 -0.0023423738 0.0378958 -0.05757154 0.015448366 0.0892652 0.064530864 -0.07334651
-0.05214668 -0.06855427 0.03353854 0.03987191 0.02026622 -0.0031552832 -0.067309074 -0.014515475
0.11466277 -0.07811495 0.09056242 0.07364912 0.04287077 -0.047245085 -0.09776935 -0.06089403
-0.026079044 0.0043417714 -0.0018787781 0.050886266 -0.026278472 -0.06170971 -0.12846754 -0.045908097
0.039966535 -0.10997305 0.023714831 -0.03132735 -0.02462235 -0.00221605 0.04409794 0.015858222
0.045239024 0.0009374272 0.050888084 -0.01810186 0.0694947 0.0054999697 0.05197237 0.04491063
-0.0030303653 0.023595616 -0.0578023 -0.052639827 0.002091019 -0.08883312 -0.054001734 -0.14626746
0.05347314 0.05649737 0.0220241 0.05534593 0.10058733 -0.058946803 0.04973986 0.050412077
-0.017607234 -0.028063362 0.07893302 0.037792895 0.008095992 -0.024123058 0.028320853 0.068941474

net_container.4.bias f4 [128]
00000000: 1218 a9bd 0c70 afbd b771 0b3e 52b8 02be
00000010: 2006 e2bd f709 ddbd 345a e1bd 55d2 c8bd
00000020: 9deb f2bd c2ed 03bc 55af 523d 799a ddbd
00000030: 6603 f83c a443 a2bd 7b06 943d cc97 273d
00000040: 702f b4bd 1c68 c0bc 55eb d93d 1846 ea3b
00000050: 8f53 c6bd 45dc 673d ff01 f6bd b133 18ba
00000060: 9e1b 85bd 6b67 33bd 985b 833d 2cca c13c
00000070: 124d 5ebd 5c24 923d 2c94 67bd 3154 283d
00000080: e9b1 cbbc 804c 0fbc 69ec 23bd 502b c5bd
00000090: 6405 01be 34d9 d6bb 45b8 bbbc 9242 cf3c
000000a0: 0806 2dbc 2928 79bd aea5 433d 0339 a3bc
000000b0: 60ee 95bd e476 c73c 1aa8 52bd 7ec3 ce3c
000000c0: bb76 e13c 2975 813d 7127 813d 2db0 b9bd
000000d0: 7600 6ebd 6473 f6bd fd2a 97bd 20c3 0d3c
000000e0: 9be5 1c3e 99e3 21be b848 0dbd c264 983d
000000f0: 8253 e5ba 2820 d4bb 9be2 27be 8483 87bd
00000100: a924 07bd fabe c9bc 4c48 d7bd 8f39 f63d
00000110: e67e a0bd e0d8 613b cba8 8f3d 03b9 b3bb
00000120: d2c3 b1bc ae33 153e 51cd 3fbd 2412 fa3c
00000130: 1ec3 bc3c bd7a 933d 15a8 4c3d 47ef cebd
00000140: 9cd6 053e f6d7 0cbd 2de2 8e3c b08d 153b
00000150: 8d64 d83a 180e b4bd 9dbf 77bc 06b9 b7bd
00000160: f96c 5f3c 1f60 3a3d 319b e9bd 8bd0 38bd
00000170: f048 1cbd 2c82 1bbd a45d 893d 9515 debd
00000180: b292 1dbd 24ae 68bd 3f1d 263d 1513 a83c
00000190: 9070 1fbe 1f4a f4bd dd9e 5dbe a51d 303d
000001a0: bae1 1b3e c437 c9bc c398 653d da92 10bd
000001b0: 5597 17be ec2a a1bc ef05 cd3c cb47 003d
000001c0: aecf 03be bc7f b3bd 52b4 113e 96aa 313d
000001d0: 21ea b23c 3290 963d c687 d8bc 4cb7 803d
000001e0: 6c22 82ba 0f0f 763d 0760 e63c 3257 f4bc
000001f0: 4ff0 23bc 2f94 85bd bfa4 423b 99ef ac3c
-0.08256544 -0.08566293 0.13617598 -0.12765625 -0.110363245 -0.10792916 -0.11003533 -0.09805743
-0.11861346 -0.008052291 0.05143674 -0.10820479 0.030275058 -0.07923058 0.072277986 0.04091625
-0.087981105 -0.023487143 0.10640589 0.007149469 -0.09683906 0.05660655 -0.120120995 -0.00058060425
-0.06499408 -0.0437998 0.064139545 0.023655973 -0.05427272 0.07135841 -0.056537792 0.041095916
-0.024865108 -0.008746266 -0.04002038 -0.09627402 -0.12599713 -0.0065566543 -0.022915015 0.025300298
-0.01056052 -0.060829315 0.047765426 -0.019924646 -0.07320857 0.024348684 -0.051429845 0.025239702
0.027522435 0.06321175 0.06306351 -0.09066806 -0.05810591 -0.12033728 -0.07381246 0.008652478
0.15321963 -0.15809478 -0.034493178 0.07441093 -0.0017496201 -0.00647356 -0.16395037 -0.066168815
-0.032993946 -0.024627198 -0.105118364 0.12022697 -0.07836704 0.0034461543 0.070146166 -0.0054847016
-0.02169982 0.14570495 -0.046826664 0.030526228 0.023042258 0.07201145 0.049964983 -0.10104232
0.13070148 -0.034385644 0.017441833 0.0022820048 0.0016509459 -0.08791751 -0.015121368 -0.08970837
0.013636821 0.045501824 -0.114065535 -0.045120757 -0.038155496 -0.03796594 0.06707314 -0.1084396
-0.038469978 -0.0568067 0.040555235 0.020516912 -0.15570283 -0.119282 -0.21642633 0.04299702
0.15222827 -0.024562724 0.056053888 -0.0352963 -0.14803822 -0.019673787 0.025027243 0.031318467
-0.12872192 -0.08764598 0.14228943 0.043375574 0.021840157 0.07351722 -0.02643193 0.06284961
-0.0009928471 0.060072955 0.028121961 -0.029826734 -0.0100060245 -0.065224044 0.0029700247 0.021110343

policy_layer.weight f4 [19, 128]
00000000: e2ab 5abc 9e18 a33c 24e7 63bd 0511 49bb
00000010: 423f 41bd 4988 803d 8e56 e23c 32a3 d0bc
00000020: 8214 7c3c 9b77 9a3d fdce 7bbc 0557 723c
00000030: fd36 833c 5f4a 633c 51dc 5bbc 14b4 d53c
00000040: 6f05 c53b cb53 e8ba f53d a73c 0c96 0fbb
00000050: 0e59 223c 2b0e 6dbc dcb0 053d 324c 86bd
00000060: 8850 1dbc 9320 e2bc 4cfe d4bc 72b0 743c
00000070: cbf6 7e3d f076 c03c 6802 d5bc cd41 5f3c
00000080: 5fab 4fbd fdd7 323b fcd6 533c dc9d 00bd
00000090: baf0 223d e666 3d3c a2fd 09bd 6e6a 9339
000000a0: 6eb8 9fbc 560b 9e3c c721 a1bd aad6 7f3d
000000b0: 4b22 82bd cee3 37bd a692 233d c504 173d
000000c0: db75 6c3c 0d9f 67bc 1e8a 96bd 6e20 4c3a
000000d0: ed68 a83c ed04 a03c 24f2 8cbb 1ab5 5bbc
000000e0: d8fa 4ebc 4c38 b2bb f621 aa3c ae9b 33bc
000000f0: 55b2 413c 786a 3d3d ca62 723c 6d99 b3bd
00000100: 5224 d63b 77d1 86bc a2ed 32bd 447c d23c
00000110: 63b1 1abd 1d00 4abd 6ffb 8ebd feb0 413d
00000120: cfb9 593d 1d6e 49bd 3ad8 f4bc 6f90 b13c
00000130: 9f66 aa3d 3536 83b7 ed94 213c e4d2 1f3d
00000140: e583 dc3c 1f9c 45bd 954f 6c3d 0003 a8bc
00000150: f660 393d 105f 9cbd f6c6 cd3b 5c40 f0ba
00000160: 3cd5 dabc 1a11 5c3b 7b5d 273d afe5 dfbc
00000170: 3701 12bd ffb3 de3c c36d 85bd c11f 08bd
00000180: 3983 e83c 34ce 1c3d 91d1 efbb 879e 92bb
00000190: 8d71 283c 4eb5 b63c e306 32bc 3733 ebbc
000001a0: 9708 8cbb dd1a 6abb fb61 4c3d 94ae fa3c
000001b0: fd48 10bd 7199 09bd fe42 f33c 186e ad3c
000001c0: 0b48 2b3c f4ab 473c ed8c 0f3d 37b2 20bb
000001d0: 207c 8cbd c950 e63c 2766 70bd e158 9bbc
000001e0: 6e21 9d3c 626c bdbd 3b42 4dbd 14c0 45bc
000001f0: b018 a2ba 5af5 5abd 78f2 c4ba b775 0abd
00000200: 8a0e 07bd 302d 1f3d 4c51 a43a ce51 31bd
00000210: f5d2 2dbd 3cc7 df3c 454a 2e3d 241f b1bb
00000220: 03a2 fb39 ad12 ec3c ca4b 11bd c1fe 42bd
00000230: c337 24bd be8b 8fbd 36e0 d73c 42e0 01bd
00000240: de47 d33c b9d7 b4bc fe6e 5d3d 725c c73b
00000250: 1294 513c 90ac 7d3d 547d 0ebd f8e0 7e3d
00000260: 5a11 23bc c7a6 803d 4414 ca3d 908b 79bc
00000270: 0963 b23c 3031 d4bb ba3b 303c e79a 2cbc
00000280: 4030 1d3d b936 0e3d 0cf7 f83b 249a 41bd
00000290: cff1 023c 92db be3c 7a34 523d b2a6 22bd
000002a0: 7d6b 3f3c cfde eebc 30a5 87bc fb41 7fbd
000002b0: 9883 183d f971 8e3d dc37 28bc 2423 4c3a
000002c0: af1e 05bc 8302 db3b 7a3e 3ebd 6eda f2bc
000002d0: c953 0a3d a8b3 833d fa71 9dbc 7dd5 5f3d
000002e0: c830 cebc c084 02bd 43bc 6cbd 9d38 bd3d
000002f0: a73f 6fbd 4a00 b43c 6546 cbbc ff47 053d
00000300: a5e6 16bd 77cb 87bc 2bac 1a3d 2b6c a4bb
00000310: 9897 d83c 5c36 8d3d 3ab0 81bb e44e 8cbd
00000320: 024c 3abd 74ec 2abd 839f 9b3c 1e70 6a3c
00000330: 8ea3 10bd c62c 6c3d 9cc2 643c 939d 03be
00000340: d6d7 88bb a307 123c f537 04bd 8a59 b53c
00000350: ff52 563d 583c 883d 896e e3b9 1b17 103c
00000360: c199 773c 452c a63c bdd5 a13b 60cd b4bc
00000370: e459 2bbd d447 ddbc 03a6 113d 9234 753d
00000380: 7244 433d f5e7 4a3c 0325 4d3d b0f4 66bc
00000390: 6721 25bd 3e44 7f3c 98b6 0e3d 43fb c53d
000003a0: bfed 3dbc 56bc f0bb b027 a0bc db18 7f3c
000003b0: 2355 95bd 1686 68bc c82e bebc 3b3e 2ebc
000003c0: 44e8 d5b8 efca 13bd ae69 6b3c 5958 8fbc
000003d0: a903 813d a1e7 5d3c f49a 02bd 3a8f b1bc
000003e0: e92c 7ebc 3e7b 943c 2b46 583d fb7a 133d
000003f0: c3fa 213c a221 2a3d 182d e13b 09f5 a13c
-0.013346644 0.0199092 -0.055640355 -0.003068031 -0.047179468 0.06275994 0.027629163 -0.025468443
0.015385749 0.07542344 -0.015369174 0.014791255 0.016017431 0.013872712 -0.013419227 0.026086845
0.0060126106 -0.0017725168 0.020415286 -0.0021909503 0.009908928 -0.01446871 0.03263937 -0.06557502
-0.00960172 -0.027603423 -0.026000164 0.014934646 0.06224708 0.023494214 -0.026002124 0.013626528
-0.05070054 0.0027289384 0.012929674 -0.031400546 0.039780356 0.011560177 -0.03368915 0.0002811732
-0.019497123 0.019292515 -0.07867771 0.06246058 -0.06354197 -0.044894986 0.039934777 0.036869783
0.014432396 -0.014137042 -0.073505625 0.0007786815 0.020557845 0.019533599 -0.0043013263 -0.013409877
-0.012633048 -0.00543884 0.020768147 -0.01096241 0.011822303 0.046244115 0.014794061 -0.08769498
0.0065350914 -0.016457302 -0.043683656 0.02569402 -0.037766825 -0.049316514 -0.06981551 0.047287934
0.053155717 -0.049177278 -0.029888261 0.021675317 0.08320355 -1.5641659e-05 0.009862167 0.03901948
0.026918361 -0.04824459 0.057693083 -0.020509243 0.045258485 -0.07635319 0.0062798215 -0.0018329727
-0.026713006 0.003357953 0.040860634 -0.027331201 -0.03564569 0.027185438 -0.06515076 -0.033233408
0.028382884 0.038282588 -0.0073186834 -0.0044744643 0.010280979 0.02230325 -0.0108659 -0.028710945
-0.004273485 -0.0035721578 0.04989813 0.030600823 -0.035225857 -0.0335936 0.02969503 0.02117066
0.010454188 0.012186993 0.035046507 -0.0024520287 -0.068596125 0.028114693 -0.05869117 -0.01896328
0.01918098 -0.09249188 -0.05011199 -0.012069721 -0.0012366977 -0.05345664 -0.0015025875 -0.033803668
-0.03297285 0.038861454 0.0012536435 -0.043290906 -0.042437512 0.027316682 0.042551298 -0.0054053236
0.0004799516 0.028817499 -0.03547267 -0.047606234 -0.04009224 -0.070090756 0.02635203 -0.03170801
0.025791105 -0.02207552 0.05406093 0.0060840184 0.01279165 0.061932147 -0.03478749 0.062226266
-0.009952867 0.0628181 0.098671466 -0.015231028 0.02177574 -0.00647559 0.010756427 -0.0105349785
0.038376093 0.034720156 0.0075978097 -0.04726614 0.007992222 0.023298059 0.051319577 -0.039709754
0.011683342 -0.029158978 -0.01655826 -0.062318783 0.037234873 0.06955332 -0.010267224 0.0007787219
-0.008124991 0.006683649 -0.0464463 -0.029645171 0.03377131 0.06430751 -0.019219387 0.054646958
-0.025169745 -0.03186488 -0.057796728 0.09239314 -0.058410313 0.021972794 -0.02481384 0.032539364
-0.036841054 -0.016576512 0.03776185 -0.0050177774 0.026439473 0.06895134 -0.0039577754 -0.06850985
-0.045482643 -0.041729406 0.01899696 0.014308957 -0.035312228 0.057659887 0.013962414 -0.12853079
-0.0041761203 0.008912954 -0.032279927 0.022137422 0.052325245 0.06652135 -0.0004337917 0.008794571
0.015112341 0.020284781 0.0049388097 -0.022070587 -0.041833773 -0.02701179 0.03555871 0.059864588
0.047672696 0.012384404 0.050084125 -0.014096424 -0.040315058 0.015580235 0.034842104 0.09667065
-0.011592328 -0.00734667 -0.019550174 0.015569891 -0.07291629 -0.014192125 -0.023215666 -0.010634954
-0.00010199894 -0.036082204 0.014368458 -0.017498182 0.06299526 0.013543994 -0.031886056 -0.021674741
-0.015513637 0.018125173 0.052801292 0.036005955 0.009886446 0.04153598 0.0068718307 0.019770162

policy_layer.bias f4 [19]
00000000: c04a d9bc 49fd 94bc e0fb 5bbd 68e7 8fbb
00000010: 02f6 ef3b dd3a 3dbd bcaa 59bd 8c97 7c3c
00000020: 6095 58bd 498c bc3d 46fe 293d dd50 7c3d
00000030: aa56 473d 72bb d83c 065b 10bd 59ae 18be
00000040: 5ecb 10be 7de9 6dbc 5df4 4fbd
-0.026524901 -0.018187182 -0.053707004 -0.0043915994 0.0073230276 -0.046198715 -0.05314134 0.015416991
-0.05287683 0.09206445 0.04150226 0.061600555 0.048666634 0.026456568 -0.035243057 -0.14910258
-0.14140078 -0.014521 -0.050770152

value_layer.weight f4 [1, 128]
00000000: 7bbd 2cbd e5a3 45bd 01df 0a3e 76e0 7d3c
00000010: 1629 d4bd ab32 03bc 1f91 b2bd 3118 9cbd
00000020: 1c45 73bd 2452 20bd 1fec e8bd c0be 57bd
00000030: 09c4 f33d f189 853d 9d10 153e 3e92 d4bd
00000040: 9a5a b33b d978 debd ba08 e03d 311f 1a3d
00000050: 302c 1abe 09c9 333e c2be 353d 8775 683d
00000060: 9bb6 d4bd b625 b83d f8fd 81bc 1075 8dbd
00000070: ff34 f13c 7cef fb3d 98f8 293e 75bd 823d
00000080: 0e3d 8bbd 11f2 f43b 957f 9c3d ed73 1f3d
00000090: 59e6 4abe 8d2c abbd 2aee 22be 0db5 2fbe
000000a0: df58 a13c 3ee8 b53d 2748 03bc 4dbb 4c3d
000000b0: 6d9b 943d d18b f0bd 4e19 be3d 60d4 043b
000000c0: 942e d0bd f405 543d 043d d53d 25c7 e3bc
000000d0: b221 08be 4531 f1bd 19ba e8bd ffcb cbbd
000000e0: 9bd7 173e 5263 62be ee74 823d 33e3 d03b
000000f0: 15bc 783d 4aa0 153e a828 69be 9104 18be
00000100: b619 343d 60bc 4f3a 5488 b13c 9943 cb3d
00000110: 01a4 88bd b9c4 043e 1a2c 15be 44c1 8fbd
00000120: a5f9 86bd c856 383e 0e28 e93c 618b c4bd
00000130: 630d 5a3c 63da 713d 7bfe 083d 2676 b8bd
00000140: 4508 953d 763b a8bd 3063 903d 323e 7e3c
00000150: 2462 843d f1d0 183c 806f c6bc a792 aebd
00000160: 43c2 e9bc f362 ea3d 827e cbbd fe26 483c
00000170: 8e60 793d 6d6f 933c 0323 a83d 6eb1 30be
00000180: 7321 b73c f9bb 8f3d 2d62 743b 0894 3a3d
00000190: bc2a 9fbb 4c42 d4bd b4ca 08be 4d15 173d
000001a0: 9365 2f3e 7856 abbd 794f 0d3c e1e7 f63c
000001b0: 0472 18be d7e8 9a3d e97f a53d 9b18 1e3d
000001c0: dafc 02be aeb1 c63d bb83 ba3d 3696 f3bd
000001d0: 61ed 0abd 2feb 663d 7d7d 943d cac5 8ebd
000001e0: c195 053e 5e6e 8b3c b087 6cbc d1ac 033d
000001f0: 19d6 20bb 1c2a ddbb 4368 04be edc1 c23d
-0.04217289 -0.048252005 0.13561632 0.01549541 -0.10359399 -0.008007686 -0.08719086 -0.07621802
-0.05939208 -0.039140835 -0.113731615 -0.052672148 0.11902625 0.06520451 0.14557119 -0.10379456
0.005473447 -0.108628936 0.109391645 0.037627403 -0.15055919 0.17557158 0.044371374 0.056752708
-0.10386392 0.08991568 -0.015868172 -0.069070935 0.029444216 0.123015374 0.16598737 0.06383792
-0.06798755 0.0074751456 0.07641522 0.038928915 -0.19814433 -0.08358107 -0.15911165 -0.17158909
0.019695697 0.08882187 -0.008012808 0.04998331 0.072562076 -0.11745418 0.0928217 0.0020268187
-0.10165134 0.05176349 0.104120284 -0.02780492 -0.13294104 -0.117769755 -0.1136362 -0.099510185
0.1482834 -0.221082 0.06369959 0.0063747405 0.060726244 0.14611927 -0.22769415 -0.14845492
0.043969832 0.00079244934 0.021671452 0.099250026 -0.06671906 0.12965669 -0.14567605 -0.07019284
-0.06590585 0.18001854 0.028461482 -0.09596897 0.013308856 0.05904616 0.033445816 -0.0900691
0.07276968 -0.08214466 0.070501685 0.015517758 0.06464031 0.009327159 -0.02422309 -0.085240655
-0.028535014 0.11444654 -0.09936239 0.012216328 0.060883097 0.017997468 0.08209803 -0.17255184
0.022354817 0.07018275 0.0037289963 0.04555133 -0.0048573893 -0.103642076 -0.13358575 0.03688555
0.17128591 -0.08366102 0.008624905 0.030139865 -0.14887244 0.07563942 0.080810376 0.038597684
-0.12791768 0.097018585 0.09107157 -0.11893885 -0.03391779 0.056376632 0.072504975 -0.06971319
0.13045408 0.0170204 -0.014436647 0.032147232 -0.0024541675 -0.0067494046 -0.12930398 0.09509645

log_std_parameter f4 [19]
00000000: bada 49c0 ae24 4dc0 da82 55c0 b724 dfbf
00000010: d69f e3bf 63f4 58bf 81f3 51bf 8467 1ac0
00000020: 2054 17c0 1e79 2bbf ec0f 2bbf a50f c8bf
00000030: 6b72 c1bf 0ba2 40bf e2d9 48bf 2f9d 56bf
00000040: 88d7 42bf 1ec3 39bf fbda 3ebf
-3.153975 -3.2053638 -3.3361115 -1.743308 -1.7783153 -0.84747905 -0.8201218 -2.412568
-2.3645096 -0.66981685 -0.6682117 -1.5629774 -1.5113043 -0.7524726 -0.7845746 -0.83833593
-0.76110125 -0.7256335 -0.7455289

net_container.0.weight f4 [128, 69]
00000000: 5ff9 9cbe 3a60 cc3c 2884 753c 3205 60be
00000010: 57ce a43d b09c 283d 7840 16bc beb0 8f3d
00000020: c580 d93d e382 103d 87da 7ebd 650b 663e
00000030: 8176 e33e 367e 65be 71a7 573e 1a73 86be
00000040: 6d98 363e 384a 6abd f62e 9e3e a5bc c0bd
00000050: 7e55 94be 527d c83e 8d87 a23c 81c5 a8be
00000060: 2161 a9be a194 f13c 776c 35be aa11 a13e
00000070: 9939 893e 0f34 02bd 77c1 47be ead2 90bc
00000080: bad6 333d 9b8a 04bd 5398 debc aad5 b43d
00000090: 5d32 1dbd 60d1 eb3c 0f17 fabd d461 5c3d
000000a0: 0e14 673d 8eda 84bd 9e49 013e 6a06 583c
000000b0: f297 9d3d fa2f 533c 7998 0dbe f01d 103d
000000c0: b6a7 8ebd f6b8 2e3c 31f2 3e3c ecc0 d1bd
000000d0: be8b f63d 83b7 363c 1dee 533c 556c fb3c
000000e0: 0b15 253d c7ab 28bc 463b 113d 7e51 493d
000000f0: 0d6b 15bd f66c 563d db7c 01be 34b6 04bd
00000100: 25de 9bbd ab6a 40bd 6d20 0abd d115 b13c
00000110: 301e 503c d705 84bd 3535 cb3c 072c 8f3e
00000120: c3bf 0dbd 7060 1fbe 7b19 3f3e 6986 34be
00000130: 1f79 12bd d78d 573c 36e8 053c 0b83 28bd
00000140: 67ae d13e 65d6 85bd 18ba 463d 6644 b03e
00000150: 29e2 9e3e 8a6e a53e 4429 9fbe ad9a 853e
00000160: 76cc ba3d 7297 a3be 32b0 bb3e 6241 5abe
00000170: 86e0 4f3d 345e 4b3d 3074 e33d f6e3 b7bd
00000180: ae26 0d3e aba3 ac3e 7034 2e3d 652f 123f
00000190: cacd 21bd 7d75 a73c b83a 6ebb fbf5 a5bd
000001a0: 3267 933d 3d3d 8ebd 6989 2fbd eb0c b5bc
000001b0: fc1e ad3d 4394 f73c 5874 d63c f649 73bd
000001c0: d9ab dc3b c014 ea3c 7d74 c2bb 17ec cb3d
000001d0: d831 d73d 0d82 623d 9f5c 4fbd 1462 753c
000001e0: 3913 67bc 5034 17bd 48bf 89bd bf83 093e
000001f0: 5bd1 1bbe ddb9 903b 54b7 43be 8db6 1abe
00000200: f998 883d da5a f33b ff1a 26bd c6ca 3dbe
00000210: f9ba c43c 9dc6 fcbd 6f66 2abe 4f25 033e
00000220: a395 2e3c 1b9c 053e 7875 89be f7aa b73e
00000230: c90d dcbd 1389 9d39 7b32 88bc e6f1 d6bd
00000240: d143 ccbe f0e4 493e 1a0b 0a3e ec46 ad3e
00000250: 7d0e 2a3d f1c2 82be 94ea cebd ddfa 9a3e
00000260: c164 323e f925 8d3e 8c9d 46be 55b2 bb3d
00000270: 99e4 403d 2004 85be 431c 9d3e 8669 a6be
00000280: 2458 0abd eed9 d23d ac59 bd3d 6192 493e
00000290: 967c 36be 02ea cfbc 349a b03c 023d 48bd
000002a0: 96e6 763e be63 a33c 2026 5d3b 769b 173d
000002b0: 01e1 b83d ebf4 15bd 5fa1 723c 1d59 09bc
000002c0: 6033 b2bd daf8 193d 91bc c4bd 6ecb b4bd
000002d0: f0ef 823c bf9b 013d 8699 9cbc 11ce 493d
000002e0: 9933 8dbd ff8d 60bb 7666 14bb 3df2 bebc
000002f0: 3fb2 3dbd 510a d33d c6da 303d 96a1 11bb
00000300: de0a 19bc cf13 ed3d 8c39 9abc 1665 a4bd
00000310: bde9 203d 4ccf 853b 6987 d23b 6af2 72be
00000320: ccc8 eb3d 15de 823d c30e a5bc 3614 633e
00000330: 8ff1 2ebd 7a01 2f3d d7f6 e13c 3b31 db3d
00000340: a8a6 96bd f266 a5be 48a2 a9bd 3ed1 b4bd
00000350: 5b99 a7bc fc39 893f 34d5 87bf d435 873c
00000360: aa65 663e 6ce5 ee3d d8e1 5dbc 396e ed3d
00000370: 0419 bcbe cb40 7e3e e03b 373f 92a8 69be
00000380: bc38 e63d defa 22be 7918 453e b496 7a3e
00000390: eb62 a1bc 9ab3 3cbd ad8c 6d3e 71e0 8a3e
000003a0: 867c c83c 50ec 0dbe 2c1b 87be 0976 07be
000003b0: 1167 223e e93f cebd 57a1 9abc d0a7 ab3c
000003c0: 1581 1abc 5352 a9bc a567 20bd cb11 733d
000003d0: 3771 8f3d e296 45bd f6f4 dbbc 3b61 8bbc
000003e0: 85c8 c53c aa4d bebc 77c4 513c 0c73 3d3d
000003f0: cb78 4d3d 34ef 753c 8cc8 413d fc7d 1ebd
-0.30659005 0.024948228 0.014985122 -0.21876982 0.08047169 0.041165054 -0.009170644 0.07016133
0.10620264 0.035281073 -0.062220123 0.22465284 0.4442635 -0.22411427 0.21059968 -0.2625969
0.17831583 -0.057199687 0.30895203 -0.09410981 -0.28971475 0.39158112 0.019840026 -0.32963184
-0.33081916 0.029489817 -0.17717157 0.3145879 0.26801756 -0.03178793 -0.19507395 -0.017678697
0.04390595 -0.032358747 -0.027172243 0.08829816 -0.03837811 0.028786361 -0.12211429 0.053804234
0.05641561 -0.064869985 0.12625739 0.013185123 0.07694997 0.0128898565 -0.13827695 0.0351848
-0.06965582 0.010664215 0.011654423 -0.10241875 0.120383725 0.011152151 0.012935189 0.030691305
0.04030327 -0.010294861 0.03545692 0.049149983 -0.036479045 0.052350007 -0.12645285 -0.032400325
-0.0761073 -0.046976727 -0.03372233 0.021616848 0.01270251 -0.06446426 0.024805645 0.27963278
-0.034606706 -0.15564132 0.18662064 -0.17629398 -0.03576004 0.013156376 0.008173039 -0.041140597
0.4095337 -0.06535033 0.048517317 0.34427184 0.31031922 0.32310897 -0.3108617 0.2609457
0.09121029 -0.3195148 0.36657864 -0.21314004 0.05075123 0.049650386 0.111061454 -0.08979027
0.13784286 0.3371862 0.042530477 0.5710357 -0.039502896 0.020441765 -0.0036350917 -0.08103558
0.07197417 -0.06945274 -0.042855654 -0.022100886 0.084531754 0.030222064 0.026178524 -0.059396707
0.006734353 0.028574347 -0.0059342966 0.0995714 0.10507554 0.055299807 -0.05062544 0.014976997
-0.014103704 -0.036915123 -0.06725937 0.13429163 -0.15216582 0.004416688 -0.19112903 -0.151087
0.06669802 0.007426602 -0.04055309 -0.18534383 0.024014937 -0.1234257 -0.16640638 0.12807201
0.010655793 0.13047831 -0.26847434 0.35872623 -0.10744817 0.00030047502 -0.016625633 -0.10495357
-0.3989549 0.19716239 0.13480797 0.33843172 0.041517723 -0.25539353 -0.10103336 0.30269518
0.17421247 0.27568033 -0.19396037 0.091648735 0.047093008 -0.2597971 0.30685624 -0.32502383
-0.033775464 0.10295473 0.09245619 0.19684745 -0.17820963 -0.025380138 0.021557905 -0.048886307
0.24111399 0.019945022 0.0033744648 0.037013493 0.09027291 -0.036610525 0.014808982 -0.008383063
-0.08701205 0.03759084 -0.09606279 -0.08827864 0.015983552 0.03164267 -0.019116174 0.049268786
-0.06894607 -0.0034264324 -0.002264408 -0.023308868 -0.046312567 0.10304702 0.04317739 -0.0022221557
-0.00934097 0.11576044 -0.018826269 -0.08027093 0.03928541 0.0040835496 0.0064248336 -0.23725286
0.11512908 0.06390015 -0.02014864 0.22175679 -0.042710837 0.042726018 0.027583523 0.10702749
-0.07356006 -0.32305104 -0.08282906 -0.08828972 -0.020458868 1.072082 -1.061194 0.01650516
0.2249972 0.116648525 -0.013542615 0.11593289 -0.36737835 0.24829404 0.71575737 -0.2281821
0.1124129 -0.1591601 0.19247617 0.24471551 -0.019700488 -0.04606972 0.23198195 0.2712436
0.02447344 -0.13859677 -0.26387918 -0.1322862 0.15859629 -0.10070784 -0.018875761 0.020954043
-0.00943019 -0.020669138 -0.039161343 0.05934314 0.07004016 -0.048239596 -0.026850205 -0.017014137
0.024143467 -0.023230392 0.0128031885 0.046252295 0.050164025 0.015010644 0.047310397 -0.038694367

net_container.0.bias f4 [128]
00000000: 29a1 dc3d 25bc bcbc 8219 9b3c bbda 2abb
00000010: c989 f63d dbbe d33b 93c5 e33d 9680 ed3d
00000020: a8ca 1e3e 9027 cd3d 0470 f0bc da14 c73b
00000030: b42a 323d f8df c2b9 132f 843e bbe6 d8bd
00000040: 6e8e 0b3e d4a2 ccbd 094f f03d 5c12 3e3d
00000050: af13 783d cb49 483d ac18 8bbd 5074 203e
00000060: dc4a 923d ad99 a53d 690f 563a 3290 05be
00000070: d5fa b2bd aeff 6dbd 5bc1 e93b a2d4 163c
00000080: 1423 713e 6794 ab3d 1db4 223d 8ee4 fdbd
00000090: c53d b33d 4f86 a8bb d7e6 a93d 25b7 873b
000000a0: 8d15 3ebd 5b2e 333e 6236 b7bd 44e1 b7bd
000000b0: 7db9 eb3d 596b 0dbe 42d3 b13c 7a3f 32bd
000000c0: ab4d 5d3e d29c 443d 3cd4 98bc 5740 173d
000000d0: 78df 0bbd cb16 74bd 86c9 1ebd d3b8 843d
000000e0: e3d9 343e 6dfc 933d f828 e53d 71b8 193e
000000f0: 45cd acbd 0606 9f3d e9a0 4c3e 7b9b 043c
00000100: fd29 653d 2d16 353e 3942 cb3d ac8a 953d
00000110: ac77 993d a2ab dc3d f64e 3c3e 567b aabd
00000120: 569b 303e b586 083e 255c 81bb 2cbe d43d
00000130: e953 323e 05db c7bc 9568 263e 417f aa3d
00000140: 10f2 47bd 6b9f b73a 161a 303e bd28 be3d
00000150: 4523 023e 5f2a cb3d 2d19 2e3e ea2a 9b3e
00000160: 33e1 843d f188 6b3e 2d4c 83bd 348f 3cbd
00000170: 6c2a 043e 2c1a a0bd a72c ad3c 728a 593c
00000180: dd52 7abb 84c9 84bd 8da0 06be 796e 03bd
00000190: ca50 ea3d 6156 193d ab4e 9ebd c2be 253d
000001a0: 2932 173d 9866 003e ae59 873d 196c 85bd
000001b0: 050e 36bd 6045 09be 49d1 2c3d ffcd 513d
000001c0: b1e1 d9bd 1e5e a4bd 83fe 3c3e 6463 173e
000001d0: 4747 07be cacf ea3d b6d9 efbc c2a7 a2bd
000001e0: bbab d43c 4ce3 ddbd fe59 2d3e d465 5abd
000001f0: 8e59 e73c e5e9 ecbd db89 abbd b4b1 123e
0.10772926 -0.023038933 0.018933062 -0.0026070315 0.12037999 0.0064619607 0.11121669 0.115967914
0.15506995 0.100173116 -0.029350288 0.0060754837 0.043497756 -0.00037169433 0.25817165 -0.10590883
0.13628551 -0.099919945 0.11733825 0.046404228 0.060565647 0.0488985 -0.06791815 0.1566937
0.071431845 0.08085952 0.00081657484 -0.13043287 -0.08739249 -0.058105163 0.0071336455 0.009205969
0.23548537 0.08377915 0.03972255 -0.12397109 0.08752016 -0.005142964 0.08295982 0.0041417056
-0.04640727 0.17498152 -0.089459196 -0.08978513 0.115099885 -0.13810481 0.02170718 -0.043517567
0.21611659 0.048001118 -0.018655889 0.036926594 -0.034148663 -0.05959205 -0.038766406 0.06480565
0.17661242 0.07225881 0.11189455 0.15011765 -0.084375896 0.07764821 0.19983257 0.00809371
0.055948246 0.1768424 0.0992474 0.0730184 0.07493529 0.10774924 0.18389496 -0.08324306
0.17246756 0.13332637 -0.003947752 0.10387835 0.17414822 -0.024396429 0.16250832 0.08325053
-0.048814833 0.0014009302 0.17197451 0.09285114 0.12708767 0.09920191 0.17001791 0.30306178
0.06488266 0.23001458 -0.06411014 -0.046035007 0.12906808 -0.07817492 0.021139456 0.013277637
-0.0038196363 -0.064837486 -0.13147183 -0.032087777 0.114411905 0.037435893 -0.077298485 0.040465124
0.03691307 0.12539136 0.06608902 -0.065147586 -0.044446964 -0.1340537 0.042191777 0.051221844
-0.1063875 -0.08025764 0.18456464 0.14784008 -0.13210784 0.11465414 -0.029278617 -0.079421535
0.025960794 -0.10834369 0.1692886 -0.053319767 0.028240945 -0.11568049 -0.08375903 0.14325601
