humanoidprac/humanoidprac/scripts/skrl/logs/skrl/h1_flat/joint_experiment_ver3/2025-09-18_07-54-57_ppo_torch/checkpoints/agent_21600.pt (torch, 549970 bytes, 40 tensors)

log_std_parameter f4 [19]
0	0xc05021c8	-3.2520618
1	0xc04caf15	-3.1981862
2	0xc05a5a26	-3.4117522
3	0xbfe9f178	-1.8276815
4	0xbfe1eb79	-1.7649986
5	0xbf4546dd	-0.77061254
6	0xbf6b3081	-0.91870886
7	0xc016e5d8	-2.3577785
8	0xc01a6d69	-2.4129279
9	0xbf3280d6	-0.6972784
10	0xbf4141fe	-0.7549132
11	0xbfc34e47	-1.5258263
12	0xbfd00323	-1.6250957
13	0xbf431ba2	-0.7621404
14	0xbf3dddcf	-0.7416658
15	0xbf4b7885	-0.79480773
16	0xbf440e06	-0.765839
17	0xbf559f97	-0.8344664
18	0xbf3d83d3	-0.7402927

net_container.0.weight f4 [128, 69]
0	0xbb501932	-0.0031753299
1	0xbe1b2aaa	-0.15152994
2	0x3e352028	0.17688048
3	0xbe8af937	-0.2714326
4	0xbcc5bbbd	-0.024137372
5	0xbdc71b11	-0.097219594
6	0xbe2c9a75	-0.16855796
7	0xbd59cc39	-0.053173278
8	0x3cb0b599	0.021570968
9	0xbd208388	-0.039187938
10	0xbd7eda87	-0.062220123
11	0x3e7c97a5	0.24667223
12	0x3d61d180	0.055131435
13	0xbeaeb73c	-0.34124172
14	0x3d9ed976	0.07756321
15	0xbf10ffb7	-0.5664019
16	0x3e4897bd	0.19589134
17	0x3e217aa8	0.15769446
18	0x3e286397	0.1644424
19	0xbed6710f	-0.41883132
20	0xbdb9011c	-0.09033415
21	0x3d8aced4	0.067777306
22	0xbdef508c	-0.11685285
23	0xbea821ad	-0.32838193
24	0xbee5d6eb	-0.44890532
25	0x3d926e9c	0.07150003
26	0xbc2b6a1c	-0.01046231
27	0x3e4b23bb	0.19837849
28	0x3e8409a8	0.25788617
29	0xbdab2539	-0.08356709
30	0x3e49ec34	0.1971901
31	0xbcafa838	-0.021442518
32	0x3b00882b	0.0019612412
33	0x3ceed5fb	0.029154768
34	0xbd74af0b	-0.059737246
35	0x3d275f74	0.040862516
36	0x3ad79774	0.0016448335
37	0xbe0208bb	-0.12698643
38	0xbd246c8d	-0.040142585
39	0xbd7851e7	-0.060624983
40	0x3d9490c5	0.07254175
41	0xbd066fd1	-0.03282148
42	0x3d86dd60	0.06585193
43	0x3c689d82	0.014197709
44	0xbc57817b	-0.013153429
45	0x3c42d40a	0.011891374
46	0xbde759fc	-0.1129646
47	0x3d1091da	0.035295345
48	0xbddc6c13	-0.10762801
49	0xbda359ee	-0.07976137
50	0x3cd99b34	0.026563264
51	0x3c55978f	0.013036623
52	0x3b84a8b6	0.004048432
53	0x3c9ea438	0.019365415
54	0xbda37127	-0.079805665
55	0xbe2014c7	-0.15632926
56	0xbbad75c5	-0.0052935802
57	0x3da3f33a	0.08005376
58	0xbe041810	-0.12899804
59	0x3e14121a	0.1446003
60	0x3d1cc9c9	0.038278375
61	0x3d97c79c	0.07411119
62	0xbe33dfd1	-0.17565848
63	0xbddd5001	-0.10806275
64	0xbbf68891	-0.007523604
65	0xbd5170d1	-0.05113298
66	0xbc968bf4	-0.018377282
67	0xbcb397df	-0.021923004
68	0x3ddb582a	0.10710175
69	0x3e1d32f8	0.15351474
70	0x3d14dfed	0.036346365
71	0x3ec5997e	0.38593668
72	0xbe089a6d	-0.13340159
73	0xbd81597f	-0.06315898
74	0x3e8ff023	0.28112897
75	0x3d1090b7	0.03529426
76	0x3efe2585	0.49638
77	0x3d683226	0.05668845
78	0xbcd0d898	-0.025493905
79	0xbd28830b	-0.041140597
80	0xbe38c6cb	-0.18044583
81	0x3c274ca7	0.010211146
82	0x3e6ab809	0.22921766
83	0x3f1ce38c	0.6128471
84	0xbcdebd50	-0.02718988
85	0x3e94c9dc	0.29060256
86	0xbed4e911	-0.41584066
87	0xbea654c9	-0.3248656
88	0x3d5d81e0	0.054078937
89	0x3baddaf0	0.0053056404
90	0x3ec0d384	0.37661374
91	0xbe36d902	-0.1785622
92	0xbd6417ec	-0.055686876
93	0x3dbbcc82	0.09169866
94	0x3e569c13	0.20957975
95	0xbe7cd2f7	-0.24689852
96	0xbd99a178	-0.07501501
97	0x3e560ca0	0.20903254
98	0xbcd39dd6	-0.025832098
99	0x3db31576	0.08744328
100	0xba431d16	-0.0007442994
101	0x3da890ca	0.08230741
102	0xbdc3964a	-0.0955015
103	0xbd3e04ce	-0.0463913
104	0x3d334c87	0.043774154
105	0xbd5d916e	-0.05409377
106	0x3c160c26	0.00915817
107	0x3e00e22e	0.1258628
108	0x3db23c8d	0.087029554
109	0x3d1f745b	0.038929325
110	0xbbb4e25a	-0.0055201473
111	0xbd265085	-0.040604133
112	0x3bee8382	0.0072788605
113	0x3d4b482d	0.04962938
114	0xbd70f178	-0.058824033
115	0x3de38d94	0.11110988
116	0x3d2cab98	0.042155832
117	0xbd21ae2e	-0.03947275
118	0xbb961512	-0.0045801485
119	0x3d3af643	0.04564501
120	0x3dd7c550	0.10535681
121	0xbd716605	-0.058935184
122	0x3c2f5b64	0.010702942
123	0x3eb004af	0.34378573
124	0xbe05e7bc	-0.13076681
125	0x3d6bdafe	0.057581894
126	0x3d3ebc05	0.04656603
127	0x3ccedd3c	0.025251977
128	0xbd64f3c9	-0.055896554
129	0xbe04397d	-0.12912555
130	0xbd862dbc	-0.06551692
131	0xbcc1d4db	-0.023661068
132	0xbdc545ee	-0.09632479
133	0xbe4d80d0	-0.2006867
134	0xbd67ca39	-0.05658934
135	0xbdd4aec3	-0.10384896
136	0xbe37e5d6	-0.17958769
137	0xbdb89355	-0.09012476
138	0x3bd9b0e8	0.0066434033
139	0x3f4d5e97	0.8022246
140	0xbc03063b	-0.007997091
141	0xbbc5fccc	-0.0060420986
142	0x39259eb4	0.00015794748
143	0xbe007b19	-0.12546958
144	0xbea1b02f	-0.3157973
145	0x3f02b87d	0.51062757
146	0x3e5b9dc8	0.21446908
147	0x3e725b72	0.23667696
148	0x3d2a0e7d	0.041517723
149	0xbd8f2742	-0.0698991
150	0xbed240f1	-0.4106517
151	0xbe6769fd	-0.22599025
152	0xbf0de7e5	-0.5543197
153	0xbf28f156	-0.6599325
154	0xbe09ac73	-0.1344469
155	0xbe847da9	-0.2587712
156	0x3dce6bb1	0.10079134
157	0xbc28eae3	-0.010309908
158	0x3e19e477	0.15028559
159	0x3df15791	0.1178428
160	0x3e78ca2a	0.2429587
161	0xbde92a41	-0.113850124
162	0x3d8baefc	0.06820485
163	0xbc5e2aa0	-0.013559967
164	0xbdc11584	-0.09427932
165	0xbda70e81	-0.08157063
166	0xbd827cf1	-0.06371487
167	0x3e2a67e0	0.16641188
168	0xbdc96585	-0.098338164
169	0x3b9a2fd7	0.00470541
170	0x3d03bf2b	0.032164734
171	0x3d80780a	0.06272896
172	0x3de75f7f	0.11297511
173	0x3d001651	0.031271283
174	0xbd1124bf	-0.035435434
175	0xbc3fccf9	-0.011706584
176	0xbd207462	-0.03917349
177	0x3d1a4f0c	0.03767304
178	0xbd161c91	-0.036648337
179	0xbd19529f	-0.03743231
180	0xbd0cad51	-0.034344975
181	0x3ce506f8	0.027957425
182	0x3da6f930	0.081529975
183	0x3cae4dde	0.021277364
184	0xbd8613c6	-0.0654674
185	0xbb4d3324	-0.0031311
186	0x3c9f2d47	0.01943077
187	0x3ced96c8	0.029002562
188	0xbd35a83f	-0.044349905
189	0xbd7410f8	-0.059586495
190	0xbcd92638	-0.026507482
191	0xbe8dc88d	-0.2769207
192	0xbdceb313	-0.100927494
193	0x3db8cb76	0.09023182
194	0xbdbee2ad	-0.09320579
195	0x3cc8e6b6	0.024524074
196	0x3e206ed0	0.15667272
197	0x3d39b501	0.045338634
198	0x3d9b9e78	0.07598585
199	0xbcc6e78e	-0.024280336
200	0x3e45155e	0.19246432
201	0x3d9366af	0.0719732
202	0xbd683611	-0.056692187
203	0x3e040581	0.12892725
204	0xbd8ebd60	-0.06969714
205	0x3d8c84b2	0.06861247
206	0x3d5e8567	0.05432644
207	0x3ea97f10	0.33104753
208	0x3e3c7df3	0.18407421
209	0xbea68f78	-0.32531333
210	0xbce31808	-0.02772142
211	0x3d35421e	0.044252507
212	0xbca57e3a	-0.020201791
213	0x3fb845f5	1.4396349
214	0xbf1987f7	-0.5997309
215	0xbe2227e8	-0.15835536
216	0x3d2ef70d	0.042716075
217	0x3deee56c	0.116648525
218	0xbe177cc0	-0.14793682
219	0x3e30782e	0.17233345
220	0xbe753614	-0.2394641
221	0x3e919729	0.2843564
222	0x3f3f352e	0.7469052
223	0xbe8f8429	-0.28030518
224	0xbe638211	-0.22217585
225	0xbe827546	-0.25480098
226	0x3ee82d3f	0.4534702
227	0x3ed96eb3	0.4246727
228	0x3df69913	0.12040915
229	0xbcbd928d	-0.02314117
230	0x3eee81a9	0.46583298
231	0x3eb5ee0b	0.35533175
232	0x3b95ca81	0.0045712595
233	0x3e6a63e9	0.22889675
234	0xbe9d01b5	-0.30665365
235	0xbcfcef88	-0.030875936
236	0xbe19b7af	-0.15011476
237	0xbce6758b	-0.02813222
238	0x3cb1f358	0.02172248
239	0xbc84535e	-0.016153034
240	0xbcbe08cd	-0.023197556
241	0x3d1123b7	0.03543445
242	0xbd069534	-0.032857135
243	0x3d5e47b8	0.054267615
244	0x3c325eb8	0.0108868405
245	0x3c6cb221	0.014446766
246	0xbd10a536	-0.035313807
247	0xbca69414	-0.020334281
248	0xbd0c0b4e	-0.03419047
249	0x3c501d67	0.012702323
250	0x3bb42f0a	0.0054987716
251	0x3d2afcb9	0.04174492
252	0x3aaf6a79	0.0013383172
253	0x3cfb32ac	0.03066381
254	0x3d47b645	0.04875781
255	0xbc13290c	-0.008981954

net_container.0.bias f4 [128]
0	0x3e178156	0.14795431
1	0xbdd99f45	-0.106260814
2	0xbd8c34ae	-0.06845985
3	0x3db43956	0.087999985
4	0x3d824860	0.06361461
5	0x3d81b993	0.063342236
6	0x3e0910e2	0.13385347
7	0x3e3858d6	0.18002638
8	0x3dcd7889	0.10032756
9	0x3e2adeb2	0.16686514
10	0x3d4f0778	0.050544232
11	0xbd5c39d6	-0.053766094
12	0x3d3a9a82	0.045557506
13	0xbd3d3be6	-0.0461997
14	0x3e3ce058	0.18444955
15	0xbe0a6ca7	-0.1351801
16	0x3e348596	0.17629084
17	0xbd4053d6	-0.046954952
18	0x3de65887	0.11247354
19	0x3cad04de	0.021120485
20	0x3dfa51f0	0.122226596
21	0x3dbd9655	0.09257189
22	0xbc8a76cd	-0.016902352
23	0x3dd28c0a	0.102806166
24	0x3d8c8687	0.068615966
25	0x3d6e45e8	0.058172137
26	0xbdb8a951	-0.090166695
27	0xbdf004bd	-0.11719654
28	0xbd2c7b62	-0.042109855
29	0xbd5ebb24	-0.05437769
30	0xbca5053b	-0.020144096
31	0x3cb32edb	0.021872928
32	0x3e65cf87	0.22442447
33	0x3d4c89d0	0.049936116
34	0xbd74a435	-0.059726913
35	0xbe1d6e24	-0.15374047
36	0x3d9bb499	0.07602806
37	0x3ade846c	0.0016976721
38	0x3c6d236c	0.014473777
39	0x3d1574ad	0.036488224
40	0x3c9fd2b4	0.01950965
41	0x3e2a4447	0.16627608
42	0xbdf05421	-0.11734796
43	0xbd484e8a	-0.048903026
44	0x3e1ff5fb	0.15621178
45	0xbd3f5e81	-0.046720985
46	0x3d37834e	0.044802956
47	0xbd54e10d	-0.051972438
48	0x3e621886	0.22079667
49	0x3d18fe3f	0.037351843
50	0xbd2627a6	-0.040565155
51	0xbb36c0b0	-0.0027885847
52	0xbda78e50	-0.08181441
53	0xbd67d2c7	-0.056597497
54	0xbc53da3b	-0.012930448
55	0x3dad5095	0.084626354
56	0x3e3b21df	0.1827464
57	0x3da5e176	0.08099644
58	0x3dfa7c18	0.122307
59	0x3df1fb3b	0.118154965
60	0xbe187c9c	-0.14891285
61	0x3d06372e	0.032767467
62	0x3e469ab4	0.19394952
63	0x3c92624b	0.017869135
64	0x3c71155e	0.014714567
65	0x3e221e8f	0.1583197
66	0x3d86b9bf	0.06578397
67	0x3d30531d	0.043048013
68	0x3d838a26	0.06422834
69	0x3dc53852	0.09629883
70	0x3d3fa7a8	0.04679075
71	0xbe04494e	-0.12918589
72	0x3e1bf8bc	0.15231603
73	0x3e06e1f7	0.13172136
74	0x3d542414	0.05179222
75	0x3e1e1e12	0.15441158
76	0x3e18e29c	0.14930195
77	0x3d10cf3a	0.035353877
78	0x3e699979	0.22812451
79	0x3d8f47f9	0.069961496
80	0xbd6f0b45	-0.058360357
81	0xbd9e298f	-0.077227704
82	0x3e52f3f8	0.20600879
83	0x3d95a7ea	0.07307418
84	0x3cedcc52	0.029028092
85	0x3de3d7af	0.11125123
86	0x3dd72ec3	0.10506966
87	0x3e581227	0.21100675
88	0xbd7b7252	-0.06138832
89	0x3e547437	0.20747457
90	0xbd8b8091	-0.068116315
91	0xbcd348d6	-0.025791567
92	0x3da8ecb5	0.08248273
93	0xbc4ace77	-0.012378327
94	0xbb26a1ac	-0.0025425954
95	0xbb635f22	-0.0034694155
96	0x3b109895	0.0022063602
97	0xbd93ca07	-0.07216268
98	0xbd7d36e8	-0.06181994
99	0x3b428591	0.0029681663
100	0x3e4a56a8	0.19759619
101	0x3cd09f10	0.025466472
102	0xbde614bd	-0.11234424
103	0x3bb74879	0.005593356
104	0xbc427d82	-0.011870744
105	0x3da7e1d0	0.08197367
106	0x3d7da36d	0.061923433
107	0xbd7d4d07	-0.061841037
108	0x3adb77b5	0.001674405
109	0xbe3b041e	-0.1826329
110	0xbdc7ae16	-0.09750001
111	0x3d7ed909	0.0622187
112	0x3b76dda7	0.0037668736
113	0xbda3f9c6	-0.08006625
114	0x3e4ac6f8	0.19802463
115	0x3e0efa93	0.13962774
116	0xbe084e78	-0.13311183
117	0x3e036c43	0.12834267
118	0xbc16e448	-0.0092097
119	0xbd9106bf	-0.07081365
120	0x3d6f728d	0.058458854
121	0xbde8a796	-0.113600895
122	0x3e5e8388	0.21729863
123	0xbbad990c	-0.0052977856
124	0xbc4e841a	-0.012604738
125	0xbe1c816e	-0.15283749
126	0xbd8f81d7	-0.07007187
127	0x3dfabac0	0.12242651

net_container.2.weight f4 [128, 128]
0	0xbd3d4f0f	-0.046217974
1	0xbd0d75a5	-0.034536023
2	0x3cc57f1a	0.024108458
3	0xbd0abcb7	-0.03387138
4	0x3bef8998	0.0073101036
5	0x3c020dc8	0.007937856
6	0x3d9934f5	0.07480804
7	0xbe16b0a5	-0.14715822
8	0xbc1b7072	-0.009487258
9	0x3dc86270	0.097844005
10	0xbd2783aa	-0.04089705
11	0x38b6d76e	8.718563e-05
12	0x3df0699a	0.11738892
13	0xbccb3ab5	-0.024808267
14	0xbb552180	-0.0032521188
15	0x3d3b3f85	0.045714874
16	0xbda63447	-0.0811544
17	0x3d0bf84a	0.034172334
18	0xbc0466ea	-0.008081177
19	0x3e085432	0.13313368
20	0xbd68e888	-0.056862384
21	0x3d9301c6	0.07178073
22	0xbe05657f	-0.13026999
23	0xbd9a6ef0	-0.07540691
24	0x3c7fb05f	0.015606015
25	0xbd906f0f	-0.07052433
26	0xbdf66c52	-0.12032379
27	0x3dcda380	0.10040951
28	0x3cb257a1	0.0217703
29	0x3d77d677	0.060507264
30	0x3c93189c	0.01795607
31	0x3de95bd8	0.11394471
32	0xbde6697c	-0.11250588
33	0xbdc2a748	-0.095045626
34	0xbd9bdb16	-0.07610147
35	0x3da9d830	0.082931876
36	0x3c1a2fdc	0.009410825
37	0xbc0d26fc	-0.008615252
38	0x3d051a8b	0.032496016
39	0x3d3a68e3	0.045510184
40	0xbd43e4ac	-0.0478255
41	0x3d392c10	0.045208037
42	0xbe020f58	-0.12701166
43	0xbd4818ec	-0.048851892
44	0x3c6ea7b5	0.014566352
45	0x3d30195f	0.042992946
46	0xbdb583c0	-0.0886302
47	0x3d6b0712	0.05737979
48	0x3aa32988	0.001244829
49	0x3d50e6c0	0.05100131
50	0x3bc7e506	0.0061003
51	0x3d89818b	0.067141615
52	0xbbca3a50	-0.006171502
53	0xbe36f117	-0.17865406
54	0xbd0a4064	-0.033752814
55	0x3d0ae0e8	0.033905894
56	0xbe53cb02	-0.2068291
57	0xbd392980	-0.045205593
58	0x3dd02d91	0.10164941
59	0x3c8008bf	0.01562917
60	0x3e39a8cf	0.18130802
61	0x3d48eee4	0.04905595
62	0x3ae88f89	0.0017742972
63	0xbd3a78d5	-0.04552539
64	0xbd65b102	-0.05607701
65	0xbd9de6bb	-0.07710024
66	0xbc424c57	-0.011859021
67	0xbe407975	-0.18796332
68	0x3c1080fb	0.008819814
69	0xbdab3546	-0.083597705
70	0x3cfc0d92	0.03076819
71	0xbd71689d	-0.058937658
72	0x3d6a257a	0.057164647
73	0xbd808763	-0.06275823
74	0xbda79a19	-0.08183689
75	0x3d8f406a	0.06994708
76	0xbdba26ee	-0.090894565
77	0xbdf2a762	-0.11848332
78	0xbd050ceb	-0.032483023
79	0x3d8a1fb7	0.067443304
80	0x3d1103ea	0.035404123
81	0x3c908786	0.017642748
82	0xbdae02bd	-0.08496616
83	0x3e0567df	0.13027905
84	0xbdffb38f	-0.1248542
85	0xbccb1e03	-0.024794584
86	0xbe17e425	-0.14833124
87	0xbe1a4ed8	-0.15069139
88	0x3d6d8266	0.057985686
89	0xbd8e2e27	-0.069423966
90	0xbdd2c289	-0.10291011
91	0xbdeab679	-0.11460585
92	0xbdddcc7a	-0.108300164
93	0x3c0fdeb9	0.008781129
94	0xbdfac08d	-0.122437574
95	0xbe0d5aaf	-0.13804124
96	0x3dc2164f	0.09476911
97	0x3d621213	0.05519302
98	0x3d91e97c	0.07124612
99	0xbd2ce537	-0.042210784
100	0x3b3553a3	0.002766826
101	0x3c7e5a7d	0.015524504
102	0xbdec6323	-0.11542346
103	0xbc053150	-0.008129433
104	0x3d2271c8	0.03965929
105	0xbc9f6440	-0.019456983
106	0x3b621bf9	0.0034501536
107	0xbd296358	-0.041354507
108	0x3ccef1ff	0.025261877
109	0x3d0dfc36	0.034664355
110	0xbd8f55be	-0.06998776
111	0xbdca21f5	-0.09869758
112	0x3d291948	0.041283876
113	0x3ab697e1	0.0013930761
114	0xbd7820bd	-0.060578097
115	0xbd254d32	-0.040356822
116	0xbda09f1d	-0.078428484
117	0xbe3a4b6a	-0.1819283
118	0xbd05b11b	-0.032639604
119	0x3d872ce8	0.06600362
120	0xbd642a2a	-0.055704273
121	0x3cc96a0c	0.0245867
122	0xbe188e2d	-0.14897986
123	0x3da129aa	0.07869275
124	0x3d4f3613	0.05058868
125	0xbde98bf5	-0.11403648
126	0xbc8206b7	-0.015872343
127	0xbddd1b67	-0.10796242
128	0x3e0c4639	0.13698663
129	0xbe1c30de	-0.15253016
130	0xbad0c98a	-0.0015929204
131	0xbeadc1cc	-0.33936918
132	0x3d64ff24	0.055907384
133	0x3d49264d	0.049108792
134	0x3d8fef94	0.07028118
135	0x3e1e5daf	0.15465425
136	0x3e63c399	0.22242583
137	0x3d50755c	0.050893173
138	0x3df3f9aa	0.11912854
139	0x3d7d7392	0.061877795
140	0x3e208627	0.15676175
141	0x3c6214ba	0.013798887
142	0xbd92f8e4	-0.07176378
143	0xbd7ad8e2	-0.06124199
144	0xbdb1f165	-0.086886205
145	0xbd54b4a6	-0.051930092
146	0x3d8c13c1	0.06839705
147	0xbcdce461	-0.026964368
148	0xbd534413	-0.051578593
149	0xbdfa7bec	-0.122306675
150	0x3ccad99d	0.02476197
151	0x39db964b	0.00041882912
152	0xbdded0b3	-0.1087965
153	0x3cd81cbc	0.02638089
154	0x3d85520d	0.065097906
155	0x3d54c849	0.05194882
156	0xbce0f4bc	-0.027460448
157	0xbd81c99f	-0.06337284
158	0x3d7a2b71	0.061076585
159	0xbdfc9ed3	-0.12334981
160	0xbc6b66e9	-0.014367797
161	0xbde47eb1	-0.11156977
162	0xbdd99c4b	-0.10625514
163	0xbe6d4aa9	-0.23173012
164	0x3d9a5402	0.075355545
165	0x3dd1720e	0.10226832
166	0xbe112b4a	-0.1417667
167	0x3cdfce38	0.027320012
168	0x3e0a9b6b	0.1353585
169	0x3e0ad794	0.13558799
170	0xbd29a7b1	-0.04141969
171	0x3db0a2aa	0.08624776
172	0xbcf2e7e2	-0.029651586
173	0x3d33174f	0.0437234
174	0x3ced25a0	0.028948605
175	0xbd95c059	-0.07312078
176	0x3c06eae2	0.008234711
177	0x3cb65f43	0.022262221
178	0xbb278afb	-0.0025565017
179	0xbe23d649	-0.15999712
180	0xbc89fbbd	-0.016843671
181	0xbd9f1830	-0.07768285
182	0x3d88a0c9	0.06671292
183	0xbd9144d8	-0.07093209
184	0xbdb01179	-0.08597083
185	0x3c6fcae5	0.014635776
186	0xbd890f9e	-0.06692432
187	0x3d4efda7	0.05053487
188	0xbd700ead	-0.058607746
189	0xbdbda0ea	-0.092592075
190	0xbd6e306b	-0.058151644
191	0x3e270ac1	0.16312696
192	0x3d39c214	0.045351103
193	0xbde49f48	-0.11163193
194	0xbd353c80	-0.04424715
195	0x3e19d278	0.15021694
196	0xbe2f38df	-0.17111538
197	0xbd22a46e	-0.039707594
198	0x3d4963ad	0.049167324
199	0x3cbabd74	0.022795416
200	0x3cb10e1e	0.021613177
201	0x3dc2c5d3	0.09510388
202	0xbd264a2b	-0.040598076
203	0xbddc8d18	-0.10769099
204	0x3d16f906	0.03685858
205	0x3d2b0d9b	0.041761022
206	0x3e82c65e	0.25541967
207	0xbda2fe7e	-0.07958697
208	0x3c7a9858	0.015295111
209	0xbe5f39aa	-0.21799341
210	0xbdadcda4	-0.084864885
211	0xbdc14929	-0.09437782
212	0xbe381d74	-0.17979985
213	0xbd074ca9	-0.033032093
214	0x3dafaa15	0.085773624
215	0xbe39dba9	-0.181502
216	0x3e00abf4	0.12565595
217	0x3d7197de	0.058982722
218	0x3d7668d3	0.060158562
219	0xbe3427c9	-0.17593302
220	0x3d97d071	0.07412804
221	0x3d89d35e	0.06729768
222	0x3c872227	0.016495777
223	0xbdfcd099	-0.12344474
224	0x3ba96945	0.00517002
225	0x3e3a6d08	0.18205655
226	0x3c1bffe6	0.00952146
227	0x3e035d50	0.12828565
228	0x3d34dd63	0.044156443
229	0xbe4321b2	-0.19055822
230	0x3cd6cc45	0.02622045
231	0x3e0e8106	0.13916406
232	0xbc57467e	-0.013139365
233	0x3e047034	0.12933427
234	0xbdcf0b35	-0.101095594
235	0xbe0443fd	-0.1291656
236	0xbc8b8906	-0.017033111
237	0x3d5dd453	0.054157566
238	0xbd24269d	-0.040075887
239	0xbc90e5a9	-0.017687635
240	0xbe0a315f	-0.13495396
241	0x3d4cc97a	0.04999683
242	0xbbebbe55	-0.00719432
243	0x3d1ef630	0.038809
244	0xbdebf9c5	-0.11522249
245	0x3e07f4df	0.13277005
246	0x3dce3438	0.10068554
247	0x3dc6bfbe	0.09704541
248	0x3d2f83d0	0.042850316
249	0xbe0202b3	-0.12696342
250	0x3d043a05	0.032281894
251	0xbdb023ec	-0.086006016
252	0x3daecc64	0.08535078
253	0xbb888ed2	-0.004167416
254	0x3d902276	0.07037823
255	0xbd4bd9a6	-0.049768113

net_container.2.bias f4 [128]
0	0x3d9ea201	0.077457435
1	0xbe0b8a47	-0.13626967
2	0xbe3d5270	-0.18488479
3	0x3ba9d51d	0.005182876
4	0xbe16b035	-0.14715655
5	0x3d52dec3	0.051481973
6	0xbd20bb3a	-0.039241053
7	0x3de4bdc1	0.11169005
8	0x3db17edd	0.086667754
9	0xbddf2463	-0.10895612
10	0x3e18da21	0.1492696
11	0xbdb69ff7	-0.089172296
12	0xbd6acbdc	-0.05732332
13	0xbde5df0d	-0.11224184
14	0x3d3bb942	0.045830972
15	0xbdd940f1	-0.1060809
16	0xbdde9abd	-0.10869358
17	0xbd5c6424	-0.05380644
18	0xbca6143c	-0.02027332
19	0x3c47d7ca	0.012197444
20	0x3e150ec9	0.14556421
21	0x3ce8fd04	0.02844096
22	0x3d695ccd	0.056973267
23	0xbe0820ae	-0.13293716
24	0xbc59c883	-0.013292435
25	0x3d0f914f	0.035050686
26	0x3d432a3b	0.047647696
27	0xbdfd6adf	-0.123739
28	0x3d0a51cd	0.033769418
29	0xbe7747db	-0.24148504
30	0xbdf2dc22	-0.11858393
31	0x3bbb9536	0.0057245744
32	0x3c4ed48e	0.012623919
33	0xbdbc7e9d	-0.09203837
34	0xbac09727	-0.0014693484
35	0xbdd78cea	-0.10524924
36	0xbe01f0c3	-0.126895
37	0xbc234496	-0.009965083
38	0x3e00ed93	0.12590627
39	0xbde0da73	-0.10979166
40	0xbe0a58e0	-0.13510466
41	0xbd663d3e	-0.05621075
42	0xbdc7d2b1	-0.09756983
43	0x3cabf31c	0.020989947
44	0x3d9c73a8	0.07639247
45	0x3dc8592a	0.09782632
46	0xbcdc36c5	-0.026881585
47	0x3d96e22c	0.073673576
48	0x3d85d262	0.06534268
49	0xbde76d45	-0.113001384
50	0x3d42f256	0.04759439
51	0xbe05130d	-0.12995549
52	0x3cec87cb	0.028873345
53	0x3d7804a1	0.06055129
54	0xbdae0f47	-0.08499008
55	0xbd7c923f	-0.06166291
56	0x3dbc7352	0.09201683
57	0xbd996da8	-0.074916184
58	0x3d8c5562	0.06852223
59	0x3dfe2061	0.124085195
60	0xbe65996e	-0.2242181
61	0xbddf205b	-0.10894843
62	0xbdf42424	-0.11920956
63	0x3d0c5a4c	0.0342658
64	0x3bb7665e	0.00559692
65	0xbddd4560	-0.10804248
66	0x3e096eba	0.13421145
67	0xbbda8fbe	-0.0066699674
68	0xbe2cc7f9	-0.16873159
69	0x3dfbba80	0.122914314
70	0xbdef27b6	-0.11677496
71	0xbdaea1ff	-0.08526992
72	0xbcea336f	-0.028588979
73	0x3d812a7b	0.06306931
74	0xbe099a12	-0.1343768
75	0xbd0ab943	-0.033868086
76	0x3dfc8570	0.12330139
77	0xbd91fc48	-0.07128197
78	0xbc8eb91b	-0.01742225
79	0xbc94ffd6	-0.018188398
80	0xbcd14db9	-0.025549756
81	0xbd8282ad	-0.06372581
82	0x3da471af	0.08029496
83	0xbcee0c4f	-0.029058604
84	0xbdfd2094	-0.123597294
85	0xbdb2eaa0	-0.087361574
86	0x3ca83ec6	0.020537745
87	0x3da9456e	0.08265196
88	0x3dea48f9	0.114397
89	0xbd83efba	-0.064422086
90	0xbd9aeda7	-0.0756486
91	0x3db12cc3	0.08651116
92	0xbdd49aad	-0.103810646
93	0x3c807db3	0.015684938
94	0xbe186ee5	-0.14886053
95	0x3d6494e5	0.05580606
96	0xbd1ebc06	-0.038753532
97	0xbc5ecb2d	-0.013598246
98	0xbe2749c3	-0.16336732
99	0x3d2e7bd8	0.042598575
100	0xbe627258	-0.22113931
101	0xbdc500b5	-0.096192755
102	0xbd6f18c5	-0.05837323
103	0xbc683114	-0.014171857
104	0xbd9f34c6	-0.077737376
105	0xbe3b4a4b	-0.1829006
106	0xbd5acbef	-0.053417142
107	0xbd5be443	-0.053684484
108	0xbe06e621	-0.13173725
109	0xbd2e35eb	-0.04253189
110	0x3e11513b	0.14191143
111	0x3b003e75	0.0019568477
112	0xbe831fe7	-0.25610277
113	0x3d9c6cc7	0.07637935
114	0x3df5258b	0.119700514
115	0x3b922d28	0.0044609495
116	0x3dc77d13	0.09740653
117	0x3bba595a	0.005686921
118	0xbd99372b	-0.074812256
119	0xbd999fa3	-0.075011514
120	0xbe05b5c7	-0.13057624
121	0xbe47cedc	-0.19512504
122	0x3e1aac7b	0.15104859
123	0xbd0d9a10	-0.034570754
124	0x3e24c15b	0.16089384
125	0x3c16cb56	0.0092037525
126	0xbdf14611	-0.11780942
127	0xbe2d2785	-0.16909607

net_container.4.weight f4 [128, 128]
0	0xbdf705d8	-0.120616615
1	0x3e1b2aa0	0.15152979
2	0xbd261f89	-0.040557418
3	0x3d683c50	0.056698143
4	0xbc7c9868	-0.015417196
5	0xbcbf30f6	-0.023338776
6	0x3dc39d6b	0.095515095
7	0x3d6d2b63	0.057902705
8	0xbd9819eb	-0.074268185
9	0xbd95ec54	-0.07320467
10	0xbdf9fe89	-0.12206752
11	0xbdbf69d0	-0.09346354
12	0x3de435b7	0.11143058
13	0xbc725e0e	-0.014792932
14	0x3d27a7fc	0.040931687
15	0xbdd0f34e	-0.10202657
16	0xbd8f7c44	-0.07006124
17	0xbc8e6dfa	-0.017386425
18	0xbdc2b8bf	-0.09507894
19	0x3dde071e	0.10841201
20	0xbe12b2f2	-0.14326075
21	0xbe0beecc	-0.13665313
22	0x3cd7eb16	0.026357215
23	0xbbecb75f	-0.007224008
24	0xbd21db85	-0.03951599
25	0x3d8c34e5	0.06846026
26	0xbd0d9073	-0.034561586
27	0x3bcd3ca2	0.0062633315
28	0x3dd9c947	0.10634094
29	0x3dea35ad	0.11436019
30	0x3c379460	0.011204809
31	0x3dadf49e	0.08493923
32	0xbc794fc5	-0.015216772
33	0x3c90fc4d	0.017698431
34	0xbcc15b2b	-0.023603043
35	0xbcec598c	-0.028851293
36	0xbda4ad4a	-0.08040865
37	0xbd23d5f5	-0.039998967
38	0x3cabcc38	0.020971403
39	0x3b846051	0.004039802
40	0xbd076c30	-0.03306216
41	0x3c5cba8b	0.01347221
42	0x3d7e6b79	0.062114213
43	0xbd31292e	-0.043252163
44	0xba93a55d	-0.0011264492
45	0xbb092e6f	-0.0020932218
46	0x3d3337ca	0.043754376
47	0x3cc962ff	0.024583338
48	0xbd07de94	-0.03317125
49	0x3db1a8bb	0.08674761
50	0x3d3b1f74	0.045684293
51	0x3baf2cd1	0.0053459187
52	0x3dfe6858	0.12422246
53	0xbc0928c8	-0.008371539
54	0x3d2a1d87	0.041532066
55	0x3cab96ef	0.020945994
56	0x3d77d0ae	0.060501747
57	0xbd872b7b	-0.0660009
58	0xbe126e9f	-0.14300011
59	0x3af8ed3c	0.00189916
60	0x3dee40b3	0.11633434
61	0xba52058a	-0.00080116896
62	0x3a35f170	0.0006940579
63	0xbb9e5b75	-0.00483268
64	0xbd310031	-0.043213073
65	0xbdc50c8c	-0.09621534
66	0xbdadeb2e	-0.084921226
67	0xbd8837dc	-0.06651279
68	0x3db1e756	0.08686702
69	0x3d14dddb	0.03634439
70	0xbcb4da64	-0.022076793
71	0x3e0806f8	0.13283908
72	0x3d7fc6db	0.062445503
73	0xbbf64c48	-0.0075164177
74	0xbdd09a69	-0.101857014
75	0xbc625b06	-0.013815647
76	0x3ca0ba4f	0.019620089
77	0x3d5f36f3	0.054495763
78	0x3d183240	0.037157297
79	0xbd8b4304	-0.067998916
80	0x3d082b8a	0.033244647
81	0x3d5613f7	0.052265134
82	0xbdbc2392	-0.09186472
83	0xbb51fddf	-0.0032042188
84	0x3d6423ed	0.055698324
85	0x3c5042fe	0.012711285
86	0xbc4c51b1	-0.012470649
87	0x3d199dde	0.03750407
88	0x3a85ddef	0.0010213236
89	0x3c74473c	0.014909562
90	0xbb3223a3	-0.0027181886
91	0xba6caa87	-0.0009028096
92	0x3e2663b3	0.1624897
93	0x3c5f3708	0.01362396
94	0x3c376bb2	0.01119511
95	0xbdc7b615	-0.09751526
96	0xbc89e136	-0.016831022
97	0x3d5f802a	0.054565586
98	0x3c793a92	0.015211718
99	0x3d8f24eb	0.069894634
100	0x3e47fa2e	0.1952903
101	0x3cbe01bc	0.023194186
102	0x3d67d036	0.05659505
103	0x3d6ec501	0.058293346
104	0x3cfc66a9	0.03081067
105	0x3d257818	0.040397733
106	0x3d30b03e	0.043136828
107	0xbdab2c24	-0.083580285
108	0xbc4e6e27	-0.012599505
109	0xbde8d439	-0.11368603
110	0xbc4d2508	-0.012521036
111	0x3dd9adce	0.10628854
112	0xbe2176bf	-0.15767954
113	0x3d9160e9	0.07098562
114	0x3c8ebbfe	0.017423626
115	0x3d3f3b08	0.046687156
116	0xbd9727c6	-0.07380633
117	0x3d2b4595	0.041814405
118	0xbc8459b1	-0.01615605
119	0x3b6ed8be	0.0036445106
120	0x3dbb3b05	0.091421165
121	0x3cc083f4	0.02350042
122	0xbbfd0b7f	-0.0077223177
123	0x3ce41504	0.027842052
124	0xbd261449	-0.04054669
125	0xbc8832aa	-0.016625721
126	0x3e51a621	0.2047353
127	0x3cd0be82	0.025481466
128	0x3e1af4dd	0.1513247
129	0xbd9ec4a2	-0.077523485
130	0x3c18cfe7	0.0093269115
131	0x3c97fbbf	0.01855266
132	0x3d90687d	0.070511796
133	0xbc0523c8	-0.008126207
134	0xbbafd112	-0.0053654993
135	0xbd97430b	-0.07385834
136	0x3b67edf8	0.0035389643
137	0xbda8b04b	-0.0823675
138	0x3dac408a	0.08410747
139	0xbdb8712f	-0.09005963
140	0x3dbcd1ba	0.0921969
141	0x3d5bb51a	0.05363951
142	0x3db9ee93	0.090787075
143	0xbcc85777	-0.024455769
144	0xbce3e77e	-0.027820345
145	0xbda4e536	-0.08051531
146	0xbc630739	-0.0138567025
147	0x3daa2e22	0.083095804
148	0x3d34474a	0.0440133
149	0xbcea6d9c	-0.028616719
150	0x3c86dfae	0.01646408
151	0xba1e0c9e	-0.0006029102
152	0x3deb8774	0.11500445
153	0x3d180561	0.037114505
154	0x3da0d729	0.078535385
155	0xbd9f04a7	-0.07764559
156	0x3c578b12	0.013155716
157	0xbd2a9458	-0.041645378
158	0x3c2dfcfe	0.0106194
159	0x3df61b5a	0.12016936
160	0x3ce417aa	0.027843315
161	0x3d8b2f09	0.067960806
162	0x3d3e287f	0.04642534
163	0x3d2acdba	0.041700102
164	0x3d74288a	0.059608974
165	0xb9b1e6a1	-0.00033931903
166	0x3cf3871c	0.029727511
167	0xbc98cc0c	-0.018651985
168	0x3d4a8016	0.04943856
169	0x3c0931a9	0.008373656
170	0xbe27f0bb	-0.16400425
171	0x3d7a8c48	0.06116894
172	0xbe002505	-0.12514122
173	0x3d6ba361	0.057528857
174	0xbe22add5	-0.15886624
175	0x3d7c6799	0.061622236
176	0xbd5988f8	-0.05310914
177	0xbd80c59d	-0.06287692
178	0x3d2f4bdb	0.04279695
179	0x3d04abc4	0.03239037
180	0xbd71fb52	-0.05907757
181	0x3c8f0a6a	0.01746102
182	0x3bfc234f	0.007694639
183	0x3cb47c9e	0.022032078
184	0x3d270175	0.040772874
185	0x3cd1d31f	0.025613366
186	0x3de65c18	0.11248034
187	0xbd0d2f1a	-0.034468748
188	0x3d2fe229	0.042940293
189	0x3de93cfb	0.11388584
190	0x3d8f363f	0.069927685
191	0xbdc41052	-0.09573425
192	0xbdad03c4	-0.08447984
193	0xb9741878	-0.00023278769
194	0x3d9a57ad	0.07536254
195	0x3d0094b9	0.031391833
196	0x3d1acb71	0.037791673
197	0xbd03b645	-0.032156248
198	0xbdabd393	-0.08389964
199	0xbdd4e3c8	-0.10395008
200	0x3e05bdeb	0.13060729
201	0xbcfd2e7b	-0.030905953
202	0x3c00cd47	0.007861442
203	0x3e1b1f3a	0.1514863
204	0xbdd5dad6	-0.1044213
205	0xbd33712a	-0.043809094
206	0xbddcb7b3	-0.10777225
207	0xbd535c47	-0.051601674
208	0xbd83cb2f	-0.064352386
209	0xbc4f5393	-0.012654203
210	0xbd1b33c7	-0.037891176
211	0x3d8ac45b	0.06775733
212	0xbc44cba1	-0.01201144
213	0x3d195903	0.037438404
214	0xbdf96379	-0.12177176
215	0xbc459ccc	-0.012061309
216	0x3d94c699	0.07264442
217	0xbd8842b6	-0.06653349
218	0xbdb9fdbf	-0.09081601
219	0xbbb40271	-0.005493455
220	0x3d29d233	0.041460227
221	0x3cdcdced	0.026960814
222	0xbd085588	-0.033284694
223	0x3d6f8da3	0.058484685
224	0x3c9b0211	0.018921884
225	0x3c083464	0.008313272
226	0x3cf2a656	0.02962033
227	0x3c39870a	0.0113237
228	0x3dc550ca	0.0963455
229	0xbde2d04a	-0.11074884
230	0x3c518aff	0.012789487
231	0x3dac689d	0.08418391
232	0x3c6ef3fc	0.014584538
233	0xbc0aa9d3	-0.008463341
234	0xbd0bffb4	-0.034179404
235	0x3d02ccee	0.031933717
236	0x3d8aa47e	0.06769656
237	0xbcca999d	-0.024731452
238	0xbd1cf715	-0.038321573
239	0xbdaca9ba	-0.0843081
240	0x3d11a7f3	0.03556056
241	0x3cb0eb8e	0.021596696
242	0x3cf4c96d	0.029881204
243	0x3c999da0	0.01875192
244	0x3d3cb0c3	0.04606701
245	0xbd6adda1	-0.057340268
246	0x3db23500	0.08701515
247	0x3da58782	0.08082487
248	0x3d02ae6b	0.03190462
249	0xbd6454a8	-0.055744797
250	0x3da26ddc	0.0793111
251	0x3db89d36	0.090143606
252	0x3e01704f	0.12640499
253	0x3d87b1a2	0.06625678
254	0x3d9990ef	0.07498347
255	0x3d62ea76	0.05539938

net_container.4.bias f4 [128]
0	0xbde74c1b	-0.11293813
1	0xbd7b6ea8	-0.061384827
2	0x3dbcaa03	0.09212115
3	0xbe08296b	-0.1329705
4	0xbdd64626	-0.104625985
5	0xbdf04804	-0.11732486
6	0xbe2174f4	-0.1576727
7	0xbd178a03	-0.036996853
8	0xbdc4cfa7	-0.09609919
9	0xbcbda2d0	-0.023148924
10	0x3d07f564	0.033193007
11	0xbd9eb3c7	-0.077491336
12	0xbd60fe52	-0.05493004
13	0xbe00e3ef	-0.1258695
14	0x3c31c53d	0.010850248
15	0x3d745bcc	0.059657857
16	0xbdb08603	-0.08619311
17	0xbceb7416	-0.028741878
18	0x3d84f397	0.064917736
19	0xbd558395	-0.05212744
20	0xbd4688ba	-0.048470236
21	0xbd5dfb9a	-0.054195024
22	0xbdafb480	-0.085793495
23	0xbc8daf8f	-0.017295627
24	0xbcbc3160	-0.022972763
25	0xbd830234	-0.063969046
26	0x3dd8a640	0.10578585
27	0x3b5ec041	0.0033989104
28	0xbda9abb0	-0.082847
29	0x3cd1df94	0.025619306
30	0xbdaf315c	-0.085543364
31	0x3d4d25a7	0.050084736
32	0x3d3c4fe0	0.045974612
33	0xbc036d1e	-0.008021621
34	0xbd9060fc	-0.07049748
35	0xbe071afd	-0.13193889
36	0xbd0e2e23	-0.03471197
37	0x3d4c487b	0.04987381
38	0x3b083b78	0.00207874
39	0xbb04e690	-0.0020279028
40	0xbd6b1a06	-0.057397865
41	0xbd8bb5e9	-0.06821806
42	0x3d2c373b	0.04204486
43	0xbd95a54c	-0.073069185
44	0xbddfd57a	-0.10929389
45	0x3ca91013	0.020637548
46	0xbd9e988d	-0.077439405
47	0xbc6cb7f6	-0.014448157
48	0x3d3191e0	0.043352008
49	0xbc27500c	-0.010211956
50	0x3cd8bde1	0.026457729
51	0xbd9fe8aa	-0.07808049
52	0xbd4fb356	-0.050708137
53	0xbd591632	-0.052999683
54	0xbd869634	-0.06571618
55	0x3d47d035	0.048782546
56	0x3d9aeabf	0.075643055
57	0xbdae437f	-0.085089676
58	0xbd846ec9	-0.06466443
59	0x3d896665	0.06708983
60	0xbca405bc	-0.020022266
61	0xbd8373ac	-0.06418547
62	0xbe09dd6e	-0.13463375
63	0xbd46564a	-0.048422135
64	0xbdcd17d2	-0.10014309
65	0xbd5ca83b	-0.053871375
66	0xbdbcc80a	-0.09217842
67	0x3d22793f	0.03966641
68	0xbddeaf84	-0.10873321
69	0xbd0034b3	-0.031300258
70	0x3d81be95	0.06335179
71	0x3dd241d3	0.10266461
72	0x3d8b8419	0.06812305
73	0x3dd528e5	0.10408191
74	0xbce81634	-0.0283309
75	0x3d8edda0	0.06975865
76	0x3c61346a	0.013745407
77	0xbc927d4f	-0.017882017
78	0x3d9bb522	0.07602908
79	0x3b534248	0.0032235552
80	0x3d19cf54	0.03755124
81	0x3c47542e	0.012166066
82	0xbcb87280	-0.022515535
83	0xbc656fb0	-0.014003679
84	0x3c148edb	0.0090672625
85	0xbd8e5a77	-0.069508485
86	0xbd3c24c7	-0.04593351
87	0xbd447a87	-0.047968414
88	0x3d1f1992	0.038842745
89	0xbd538e90	-0.05164963
90	0xbdcbcc95	-0.0995113
91	0xbdbb12c4	-0.09134439
92	0xbca351cb	-0.019936463
93	0xbd91eafd	-0.071248986
94	0x3cbf17a7	0.023326708
95	0xbd555b9b	-0.052089315
96	0xbd0e334c	-0.03471689
97	0xbd9b1dfc	-0.075740784
98	0xbc8a0296	-0.016846936
99	0xbcf3d370	-0.029763907
100	0xbe04eade	-0.1298022
101	0xbde74de0	-0.1129415
102	0xbe170971	-0.14749695
103	0xbc0fa80d	-0.008768094
104	0xbc0f8a2f	-0.008760973
105	0xbcbb3ce1	-0.022856178
106	0x3d6b5d49	0.05746201
107	0x3b48b79a	0.0030627013
108	0xbd5628d3	-0.052285027
109	0xbcc2ce55	-0.023780027
110	0xbc257b61	-0.010100217
111	0x3d0b1ca0	0.033962846
112	0xbd5d0f05	-0.053969402
113	0xbdfd7aed	-0.12376962
114	0x3dd4f2e4	0.1039789
115	0x3dc74942	0.0973077
116	0x3cd48a2d	0.025944794
117	0x3d653773	0.055961084
118	0xbcbc7745	-0.02300609
119	0x3dd257fa	0.102706864
120	0xbd78bd12	-0.060727187
121	0x3c07b858	0.008283697
122	0x3d4a0f10	0.04933077
123	0xbd361ea2	-0.044462807
124	0x3c86b502	0.016443733
125	0xbdd9e83f	-0.106400006
126	0xbc0dafd5	-0.008647879
127	0xbc1c48fd	-0.009538886

policy_layer.weight f4 [19, 128]
0	0xbb007128	-0.0019598696
1	0x3c3731c8	0.011181302
2	0x3c6d726b	0.014492611
3	0x3ce35d14	0.027754344
4	0xbcc008a9	-0.02344163
5	0x3da665d0	0.08124888
6	0x3c566ee6	0.013087964
7	0xbc459b31	-0.012060926
8	0xbca87795	-0.020564834
9	0x3b3c038b	0.0028688635
10	0xbcbc3c7c	-0.02297806
11	0x3c2e1677	0.010625473
12	0x3d18ea7c	0.037332997
13	0x3d172816	0.036903463
14	0x3d09e935	0.03366967
15	0x3cafcde2	0.021460477
16	0x3ccb4c6f	0.02481672
17	0xbc0fc7f7	-0.008775703
18	0x3d2b4542	0.041814096
19	0x3c97a8ad	0.018513048
20	0x3c395cb3	0.011313605
21	0x3c71d74d	0.014760804
22	0x3d4ac1eb	0.04950134
23	0xbd9a68a0	-0.07539487
24	0x3ac5f925	0.0015104158
25	0x3bf68dfa	0.007524249
26	0x3bc308ed	0.005951992
27	0xbc500b01	-0.012697936
28	0x3d5fdd6c	0.054654524
29	0xbb063101	-0.0020475986
30	0xbd29e619	-0.041479204
31	0x3c87af56	0.016563099
32	0xbd2e1de5	-0.04250898
33	0xbc3f3a13	-0.011671561
34	0x3ba587a7	0.0050515714
35	0xbd897119	-0.06711025
36	0x3d8e1c13	0.069389485
37	0xbc13291d	-0.00898197
38	0xbc3cc626	-0.011521852
39	0x3ce8d62c	0.028422438
40	0xbcc48b04	-0.023992069
41	0x3c2574be	0.010098634
42	0xbd7f3257	-0.062303867
43	0x3d9983d6	0.07495849
44	0xbd2569b2	-0.040384002
45	0xbd8d0d4a	-0.068873
46	0x3c82b69f	0.015956221
47	0x3ca508e8	0.020145848
48	0x3c81e828	0.015857771
49	0x3d44233b	0.04788516
50	0xbd2da303	-0.04239179
51	0x3cb1c7a7	0.021701647
52	0x3c5348c1	0.012895764
53	0x3d04718f	0.03233486
54	0xbc2f71ff	-0.010708331
55	0x3cc20ca7	0.023687674
56	0x3c5a32f1	0.013317809
57	0x3c912407	0.017717374
58	0x3b42b2a7	0.0029708536
59	0x3d0aa8d8	0.03385243
60	0x3cd9722c	0.0265437
61	0x3d708faf	0.058730777
62	0x3c836348	0.016038552
63	0xbc26e8f9	-0.010187381
64	0x3a7d8875	0.0009671518
65	0xbbf54599	-0.0074851033
66	0xbd7c2f2c	-0.061568424
67	0x3c0b545f	0.008504002
68	0xbbe76679	-0.0070617762
69	0xbc81b89d	-0.0158351
70	0xbd002cb4	-0.031292632
71	0x3d5e7d66	0.054318808
72	0x3d511e18	0.05105409
73	0xbc93565b	-0.017985513
74	0x3c0bf39a	0.008541966
75	0xbc965f20	-0.018355906
76	0x3d39df13	0.045378756
77	0xbd3045a5	-0.04303517
78	0xbb3f3d0f	-0.002918068
79	0x3c3e1343	0.011601272
80	0x3cc6e192	0.024277482
81	0x3c2527a6	0.010080254
82	0x3da1d644	0.07902196
83	0xbbf80d01	-0.0075699096
84	0x3d479142	0.048722513
85	0xbd05627c	-0.032564625
86	0x3c324b2d	0.010882181
87	0xbc4053ac	-0.011738699
88	0xbbf2ab90	-0.0074057057
89	0x3d45caba	0.04828904
90	0x3d9acbd7	0.075584106
91	0x3c454c39	0.012042099
92	0xbc75e2f7	-0.015007726
93	0x3b610d48	0.0034340192
94	0xbdaa8035	-0.08325235
95	0xbc1a31a1	-0.0094112465
96	0x3c9e5874	0.019329287
97	0x3d56f02b	0.052475136
98	0x3d0ddd33	0.03463478
99	0xbc695d1a	-0.014243389
100	0xbb5aa5d1	-0.0033362994
101	0x3c1bc2a3	0.009506854
102	0xbce52976	-0.027973872
103	0xbc259786	-0.010106927
104	0xbc755fb9	-0.014976435
105	0xbd69deeb	-0.057097357
106	0x3d9f033b	0.07764288
107	0x3cca5891	0.024700435
108	0xbbe99a90	-0.007129021
109	0xbcfc1a22	-0.03077418
110	0x3bb5277a	0.0055283876
111	0x3c1df64a	0.009641239
112	0xbc5907de	-0.013246505
113	0xbc579918	-0.013159059
114	0x3d14364a	0.036184587
115	0xbb60437b	-0.003421991
116	0xbc83ee35	-0.016104797
117	0x3d552c09	0.05204395
118	0xbd268b31	-0.040660087
119	0x3d200aa5	0.03907265
120	0xbd11ca2c	-0.035593197
121	0xbdb426d7	-0.087964706
122	0xbcb5215b	-0.022110632
123	0xbd390cab	-0.045178097
124	0x3bf6ec51	0.0075354953
125	0xbd0c9119	-0.034318063
126	0x3c2c1ec2	0.01050538
127	0xbd122a31	-0.035684768
128	0xbd013016	-0.03154
129	0x3cf9d718	0.030498073
130	0x3d306bb0	0.04307145
131	0xbd0c96be	-0.034323446
132	0xbd65a73e	-0.056067698
133	0x3d4e3f53	0.05035336
134	0x3cd6a910	0.026203662
135	0x3cc7639a	0.024339486
136	0xbc73ab11	-0.014872328
137	0x3c678505	0.014130835
138	0xbd4eb0ad	-0.05046146
139	0xbc8594ca	-0.0163063
140	0xbd4114d1	-0.047138993
141	0xbde04fa2	-0.10952689
142	0xb8fbead2	-0.00012012351
143	0xbd4586f3	-0.0482244
144	0xbb38ff8d	-0.0028228492
145	0xbd205dc2	-0.039151914
146	0x3cf32039	0.02967845
147	0xbca903ec	-0.020631753
148	0x3d128638	0.035772532
149	0xbcadbb00	-0.021207333
150	0x3af28f93	0.0018505923
151	0x3d2e163f	0.042501684
152	0x3c96fd13	0.018431222
153	0x3d1262aa	0.035738625
154	0x3bb67e5a	0.0055692615
155	0x3848d5cb	4.7882826e-05
156	0x3ce76bc7	0.028249634
157	0xbc4da758	-0.012552105
158	0x3a99df56	0.0011739533
159	0xbcfaeed3	-0.030631458
160	0x3d0d162f	0.034444984
161	0xba7cee5d	-0.0009648556
162	0xbc930b88	-0.017949834
163	0xbd313d0f	-0.04327112
164	0x3ccad4d4	0.024759687
165	0xbcc1c20f	-0.023652105
166	0x3d72083b	0.05908988
167	0xbc3b4e8b	-0.0114323
168	0xbc861451	-0.01636711
169	0x3b34a313	0.002756302
170	0xbc84dec4	-0.016219504
171	0xbd10ae2c	-0.035322353
172	0x3d0ad6c4	0.033896223
173	0x3d8d283c	0.0689244
174	0xbbf277b8	-0.0073995255
175	0x3c8226ea	0.015887696
176	0xbc4cc7fa	-0.01249885
177	0xbc6cdd88	-0.014457114
178	0xbcf3e53b	-0.029772392
179	0xbd1af08f	-0.03782707
180	0x3ccdf21e	0.025139865
181	0xbcd32975	-0.025776604
182	0xbc39d758	-0.011342846
183	0x3d33107b	0.04371689
184	0x3b81d4b6	0.0039621247
185	0x3be49f0c	0.0069769677
186	0xbdbd0065	-0.09228591
187	0x3db40dab	0.087916695
188	0xbd7a5c8a	-0.06112341
189	0x3c5b31ef	0.013378604
190	0xbcc830ae	-0.024437275
191	0x3c2b8e1c	0.010470893
192	0xbb8eef35	-0.004362012
193	0xbc65fd23	-0.014037403
194	0x3d059db8	0.032621115
195	0x3b4a66c1	0.0030884
196	0x3d0c70e4	0.03428735
197	0x3c23015d	0.0099490555
198	0xbcfcf9b0	-0.030880779
199	0xbdb8dcc1	-0.090264805
200	0xbc60f0e4	-0.013729308
201	0xbcd654c9	-0.026163476
202	0xb98f93f8	-0.0002738533
203	0x3d08d29d	0.03340398
204	0x3ca827e1	0.020526828
205	0x3d4f1055	0.050552685
206	0x3c4737fc	0.012159344
207	0xbc58852a	-0.013215343
208	0xbca18a04	-0.019719131
209	0xbc3f4251	-0.011673526
210	0xbd32430c	-0.043520972
211	0x3da81c29	0.08208496
212	0x3c5b4f95	0.013385673
213	0x3ce0b8ce	0.027431872
214	0x3cfe6141	0.031052234
215	0x3d21c280	0.03949213
216	0xbc8ecdec	-0.017432176
217	0xbaae9e03	-0.0013322238
218	0xbc7358be	-0.014852701
219	0xbc84d9e7	-0.016217185
220	0xbd2d2415	-0.04227074
221	0xbd520796	-0.051276766
222	0x3bc0e2b9	0.0058864024
223	0x3d3b6178	0.04574725
224	0x3ba07ef7	0.004897948
225	0x3bc8358c	0.006109899
226	0xbc9a709e	-0.018852528
227	0xbafd75d1	-0.001933748
228	0xbcfea67a	-0.031085242
229	0x3d42840b	0.047489207
230	0x3c0b9c49	0.008521148
231	0x3c42b185	0.011883144
232	0xbc28029e	-0.01025453
233	0x3cbc5159	0.022988008
234	0x3c2ce01b	0.010551478
235	0x3cd668f6	0.026173096
236	0xbc87cf88	-0.01657845
237	0x3b8b2243	0.0042460277
238	0xbc470dc5	-0.012149279
239	0xbab448c1	-0.0013754593
240	0xbc94fe8a	-0.01818778
241	0xbce89c22	-0.028394762
242	0xbd11c190	-0.035584986
243	0xbce57dce	-0.02801409
244	0x3d797d03	0.060910236
245	0xbd25317a	-0.040330388
246	0xbc5224dd	-0.012826172
247	0xbc90e261	-0.01768607
248	0x3d1beea6	0.03806939
249	0x3d299f01	0.041411404
250	0x3c5f691e	0.013635902
251	0x3d83cd50	0.064356446
252	0x3cb4c0ca	0.022064585
253	0x3c55e773	0.01305567
254	0xba4ff976	-0.0007933596
255	0x3c57dedd	0.013175693

policy_layer.bias f4 [19]
0	0xbc9301a5	-0.01794512
1	0xbc9aa788	-0.018878713
2	0xbc7cf65d	-0.015439597
3	0xbc8d10dc	-0.017219953
4	0x3d0fce57	0.03510889
5	0xbc236b79	-0.009974354
6	0xbd225501	-0.039631847
7	0xbc648940	-0.013948739
8	0xbd46388f	-0.048393782
9	0x3d934fa2	0.07192923
10	0x3c25bd9a	0.010116005
11	0x3d92ab85	0.07161621
12	0x3d5e67d5	0.05429824
13	0x3c95054d	0.018191004
14	0x3c90c2ee	0.017671075
15	0xbe12b061	-0.14325096
16	0xbdd047c1	-0.10169936
17	0x3d3f194f	0.046654996
18	0xbd35ce02	-0.044385917

value_layer.weight f4 [1, 128]
0	0xbe3fc416	-0.18727145
1	0xbdc57661	-0.096417196
2	0x3e24022f	0.16016458
3	0xbcb8becb	-0.022551915
4	0xbe16c995	-0.14725335
5	0xbd4a689a	-0.049416162
6	0xbe2b287f	-0.16714667
7	0x3dd345ee	0.103160724
8	0xbdb0e25c	-0.086369246
9	0xbc06fd7c	-0.008239146
10	0xbdfaf617	-0.12253969
11	0xbe0cc428	-0.13746703
12	0xbd2220dd	-0.039582122
13	0x3cf1b3aa	0.029504616
14	0x3cbb029b	0.02282839
15	0xbe033f76	-0.12817177
16	0x3cd21cd3	0.02564851
17	0xbe1ad89b	-0.15121691
18	0x3c56b3cf	0.013104393
19	0xbc02cb40	-0.007983029
20	0xbdf1c3f6	-0.11804955
21	0xbcdbb31f	-0.02681881
22	0x3d5b5159	0.053544376
23	0x3decd696	0.115643665
24	0xbca27dcf	-0.01983538
25	0x3df59607	0.11991506
26	0xbdd4a35e	-0.10382722
27	0xbde0c19c	-0.10974428
28	0xbd2e801d	-0.042602647
29	0xbdfeab45	-0.12435011
30	0x3e24ff85	0.16113098
31	0x3df4dbb5	0.11955968
32	0x3d32786e	0.043571882
33	0x3dbcd321	0.09219957
34	0x3d28fe3d	0.041258086
35	0x3d0ecedf	0.034865256
36	0xbd4fd84c	-0.050743386
37	0x3da0fad0	0.07860339
38	0xbdea2cee	-0.11434351
39	0xbe6e0bd3	-0.23246698
40	0xbe6db1f1	-0.2321241
41	0x3dea2742	0.11433269
42	0x3ce5b4e3	0.028040355
43	0xbd13fb8e	-0.036128573
44	0x3d0887a9	0.0333325
45	0xbda567c6	-0.08076434
46	0x3dcf25a4	0.10114601
47	0xbda97022	-0.08273341
48	0xbdfab535	-0.12241594
49	0x3c74ffe0	0.0149535835
50	0x3d8b3eed	0.067991115
51	0xbc04da9a	-0.008108759
52	0xbe18224f	-0.14856838
53	0xbddabfd8	-0.106811225
54	0xbe01a833	-0.12661819
55	0x3d56b90c	0.05242257
56	0x3c01d070	0.0079232305
57	0xbc2d2dd2	-0.010570006
58	0x3cec6819	0.028858231
59	0xbbc1bfe1	-0.0059127663
60	0x3dcf115c	0.10110733
61	0x3da4e995	0.08052365
62	0xbe478e1e	-0.19487807
63	0xbd9fc6f0	-0.07801616
64	0xbdc3855d	-0.095469214
65	0xbcaef34a	-0.021356244
66	0xbc86b768	-0.016444877
67	0xbd90a0a4	-0.0706189
68	0xbe164b45	-0.1467715
69	0x3df0bb46	0.117544696
70	0xbd61acc9	-0.05509642
71	0x3e971427	0.29507563
72	0x3e4f574b	0.20248143
73	0x3e08630d	0.13319035
74	0x3dd0050b	0.10157212
75	0xbcf2001d	-0.02954107
76	0xbd475a40	-0.048670053
77	0x3a9faba1	0.0012181887
78	0xb916efb0	-0.00014394405
79	0x3c2ac1c9	0.010422179
80	0xbdddb9f5	-0.10826484
81	0xbbffb888	-0.0078039803
82	0xbd6eceb5	-0.0583026
83	0x3c1dab3d	0.009623346
84	0x3d5148b9	0.051094744
85	0x3d395679	0.045248482
86	0xbdb0041f	-0.08594536
87	0xbbd94a9e	-0.0066312095
88	0xbd579ff3	-0.052642774
89	0xbe2c813f	-0.16846178
90	0xbbae7cb0	-0.0053249225
91	0xbe88a281	-0.2668648
92	0x3d928c44	0.0715566
93	0xbd6a09b1	-0.05713815
94	0x3d4473b4	0.047961906
95	0xbd9e267c	-0.07722184
96	0xbda8630d	-0.082220174
97	0x3d7c4646	0.061590455
98	0xbd96d9e3	-0.07365777
99	0x3ca5b407	0.020227445
100	0x3c20447a	0.009781951
101	0xbe1f3245	-0.1554652
102	0xbdf17b17	-0.11791056
103	0xbe04f8b7	-0.12985502
104	0xbe936e64	-0.2879516
105	0xbcd2b9bf	-0.025723336
106	0x3d5acac3	0.053416025
107	0x3e1272af	0.14301561
108	0xbd00b447	-0.031421926
109	0x3da545a6	0.08069925
110	0xbb657cd2	-0.0035017026
111	0x3d19ed54	0.03757985
112	0x3d2e9c28	0.04262939
113	0x3e3921fb	0.18079369
114	0x3d856fbe	0.06515454
115	0xbd98a5d9	-0.07453508
116	0xbde2881f	-0.11061119
117	0x3bb58b1c	0.005540265
118	0x3d77af20	0.060469747
119	0xbe20fc58	-0.15721262
120	0xbd854f61	-0.06509281
121	0x3d3030d7	0.043015327
122	0x3d170425	0.036869187
123	0x3cd42f5c	0.025901489
124	0x3d9bb646	0.07603125
125	0x3d1de17e	0.038545124
126	0xbe304aca	-0.1721603
127	0xbc50faa6	-0.012755072

log_std_parameter f4 [19]
0	0xc05021c8	-3.2520618
1	0xc04caf15	-3.1981862
2	0xc05a5a26	-3.4117522
3	0xbfe9f178	-1.8276815
4	0xbfe1eb79	-1.7649986
5	0xbf4546dd	-0.77061254
6	0xbf6b3081	-0.91870886
7	0xc016e5d8	-2.3577785
8	0xc01a6d69	-2.4129279
9	0xbf3280d6	-0.6972784
10	0xbf4141fe	-0.7549132
11	0xbfc34e47	-1.5258263
12	0xbfd00323	-1.6250957
13	0xbf431ba2	-0.7621404
14	0xbf3dddcf	-0.7416658
15	0xbf4b7885	-0.79480773
16	0xbf440e06	-0.765839
17	0xbf559f97	-0.8344664
18	0xbf3d83d3	-0.7402927

net_container.0.weight f4 [128, 69]
0	0xbb501932	-0.0031753299
1	0xbe1b2aaa	-0.15152994
2	0x3e352028	0.17688048
3	0xbe8af937	-0.2714326
4	0xbcc5bbbd	-0.024137372
5	0xbdc71b11	-0.097219594
6	0xbe2c9a75	-0.16855796
7	0xbd59cc39	-0.053173278
8	0x3cb0b599	0.021570968
9	0xbd208388	-0.039187938
10	0xbd7eda87	-0.062220123
11	0x3e7c97a5	0.24667223
12	0x3d61d180	0.055131435
13	0xbeaeb73c	-0.34124172
14	0x3d9ed976	0.07756321
15	0xbf10ffb7	-0.5664019
16	0x3e4897bd	0.19589134
17	0x3e217aa8	0.15769446
18	0x3e286397	0.1644424
19	0xbed6710f	-0.41883132
20	0xbdb9011c	-0.09033415
21	0x3d8aced4	0.067777306
22	0xbdef508c	-0.11685285
23	0xbea821ad	-0.32838193
24	0xbee5d6eb	-0.44890532
25	0x3d926e9c	0.07150003
26	0xbc2b6a1c	-0.01046231
27	0x3e4b23bb	0.19837849
28	0x3e8409a8	0.25788617
29	0xbdab2539	-0.08356709
30	0x3e49ec34	0.1971901
31	0xbcafa838	-0.021442518
32	0x3b00882b	0.0019612412
33	0x3ceed5fb	0.029154768
34	0xbd74af0b	-0.059737246
35	0x3d275f74	0.040862516
36	0x3ad79774	0.0016448335
37	0xbe0208bb	-0.12698643
38	0xbd246c8d	-0.040142585
39	0xbd7851e7	-0.060624983
40	0x3d9490c5	0.07254175
41	0xbd066fd1	-0.03282148
42	0x3d86dd60	0.06585193
43	0x3c689d82	0.014197709
44	0xbc57817b	-0.013153429
45	0x3c42d40a	0.011891374
46	0xbde759fc	-0.1129646
47	0x3d1091da	0.035295345
48	0xbddc6c13	-0.10762801
49	0xbda359ee	-0.07976137
50	0x3cd99b34	0.026563264
51	0x3c55978f	0.013036623
52	0x3b84a8b6	0.004048432
53	0x3c9ea438	0.019365415
54	0xbda37127	-0.079805665
55	0xbe2014c7	-0.15632926
56	0xbbad75c5	-0.0052935802
57	0x3da3f33a	0.08005376
58	0xbe041810	-0.12899804
59	0x3e14121a	0.1446003
60	0x3d1cc9c9	0.038278375
61	0x3d97c79c	0.07411119
62	0xbe33dfd1	-0.17565848
63	0xbddd5001	-0.10806275
64	0xbbf68891	-0.007523604
65	0xbd5170d1	-0.05113298
66	0xbc968bf4	-0.018377282
67	0xbcb397df	-0.021923004
68	0x3ddb582a	0.10710175
69	0x3e1d32f8	0.15351474
70	0x3d14dfed	0.036346365
71	0x3ec5997e	0.38593668
72	0xbe089a6d	-0.13340159
73	0xbd81597f	-0.06315898
74	0x3e8ff023	0.28112897
75	0x3d1090b7	0.03529426
76	0x3efe2585	0.49638
77	0x3d683226	0.05668845
78	0xbcd0d898	-0.025493905
79	0xbd28830b	-0.041140597
80	0xbe38c6cb	-0.18044583
81	0x3c274ca7	0.010211146
82	0x3e6ab809	0.22921766
83	0x3f1ce38c	0.6128471
84	0xbcdebd50	-0.02718988
85	0x3e94c9dc	0.29060256
86	0xbed4e911	-0.41584066
87	0xbea654c9	-0.3248656
88	0x3d5d81e0	0.054078937
89	0x3baddaf0	0.0053056404
90	0x3ec0d384	0.37661374
91	0xbe36d902	-0.1785622
92	0xbd6417ec	-0.055686876
93	0x3dbbcc82	0.09169866
94	0x3e569c13	0.20957975
95	0xbe7cd2f7	-0.24689852
96	0xbd99a178	-0.07501501
97	0x3e560ca0	0.20903254
98	0xbcd39dd6	-0.025832098
99	0x3db31576	0.08744328
100	0xba431d16	-0.0007442994
101	0x3da890ca	0.08230741
102	0xbdc3964a	-0.0955015
103	0xbd3e04ce	-0.0463913
104	0x3d334c87	0.043774154
105	0xbd5d916e	-0.05409377
106	0x3c160c26	0.00915817
107	0x3e00e22e	0.1258628
108	0x3db23c8d	0.087029554
109	0x3d1f745b	0.038929325
110	0xbbb4e25a	-0.0055201473
111	0xbd265085	-0.040604133
112	0x3bee8382	0.0072788605
113	0x3d4b482d	0.04962938
114	0xbd70f178	-0.058824033
115	0x3de38d94	0.11110988
116	0x3d2cab98	0.042155832
117	0xbd21ae2e	-0.03947275
118	0xbb961512	-0.0045801485
119	0x3d3af643	0.04564501
120	0x3dd7c550	0.10535681
121	0xbd716605	-0.058935184
122	0x3c2f5b64	0.010702942
123	0x3eb004af	0.34378573
124	0xbe05e7bc	-0.13076681
125	0x3d6bdafe	0.057581894
126	0x3d3ebc05	0.04656603
127	0x3ccedd3c	0.025251977
128	0xbd64f3c9	-0.055896554
129	0xbe04397d	-0.12912555
130	0xbd862dbc	-0.06551692
131	0xbcc1d4db	-0.023661068
132	0xbdc545ee	-0.09632479
133	0xbe4d80d0	-0.2006867
134	0xbd67ca39	-0.05658934
135	0xbdd4aec3	-0.10384896
136	0xbe37e5d6	-0.17958769
137	0xbdb89355	-0.09012476
138	0x3bd9b0e8	0.0066434033
139	0x3f4d5e97	0.8022246
140	0xbc03063b	-0.007997091
141	0xbbc5fccc	-0.0060420986
142	0x39259eb4	0.00015794748
143	0xbe007b19	-0.12546958
144	0xbea1b02f	-0.3157973
145	0x3f02b87d	0.51062757
146	0x3e5b9dc8	0.21446908
147	0x3e725b72	0.23667696
148	0x3d2a0e7d	0.041517723
149	0xbd8f2742	-0.0698991
150	0xbed240f1	-0.4106517
151	0xbe6769fd	-0.22599025
152	0xbf0de7e5	-0.5543197
153	0xbf28f156	-0.6599325
154	0xbe09ac73	-0.1344469
155	0xbe847da9	-0.2587712
156	0x3dce6bb1	0.10079134
157	0xbc28eae3	-0.010309908
158	0x3e19e477	0.15028559
159	0x3df15791	0.1178428
160	0x3e78ca2a	0.2429587
161	0xbde92a41	-0.113850124
162	0x3d8baefc	0.06820485
163	0xbc5e2aa0	-0.013559967
164	0xbdc11584	-0.09427932
165	0xbda70e81	-0.08157063
166	0xbd827cf1	-0.06371487
167	0x3e2a67e0	0.16641188
168	0xbdc96585	-0.098338164
169	0x3b9a2fd7	0.00470541
170	0x3d03bf2b	0.032164734
171	0x3d80780a	0.06272896
172	0x3de75f7f	0.11297511
173	0x3d001651	0.031271283
174	0xbd1124bf	-0.035435434
175	0xbc3fccf9	-0.011706584
176	0xbd207462	-0.03917349
177	0x3d1a4f0c	0.03767304
178	0xbd161c91	-0.036648337
179	0xbd19529f	-0.03743231
180	0xbd0cad51	-0.034344975
181	0x3ce506f8	0.027957425
182	0x3da6f930	0.081529975
183	0x3cae4dde	0.021277364
184	0xbd8613c6	-0.0654674
185	0xbb4d3324	-0.0031311
186	0x3c9f2d47	0.01943077
187	0x3ced96c8	0.029002562
188	0xbd35a83f	-0.044349905
189	0xbd7410f8	-0.059586495
190	0xbcd92638	-0.026507482
191	0xbe8dc88d	-0.2769207
192	0xbdceb313	-0.100927494
193	0x3db8cb76	0.09023182
194	0xbdbee2ad	-0.09320579
195	0x3cc8e6b6	0.024524074
196	0x3e206ed0	0.15667272
197	0x3d39b501	0.045338634
198	0x3d9b9e78	0.07598585
199	0xbcc6e78e	-0.024280336
200	0x3e45155e	0.19246432
201	0x3d9366af	0.0719732
202	0xbd683611	-0.056692187
203	0x3e040581	0.12892725
204	0xbd8ebd60	-0.06969714
205	0x3d8c84b2	0.06861247
206	0x3d5e8567	0.05432644
207	0x3ea97f10	0.33104753
208	0x3e3c7df3	0.18407421
209	0xbea68f78	-0.32531333
210	0xbce31808	-0.02772142
211	0x3d35421e	0.044252507
212	0xbca57e3a	-0.020201791
213	0x3fb845f5	1.4396349
214	0xbf1987f7	-0.5997309
215	0xbe2227e8	-0.15835536
216	0x3d2ef70d	0.042716075
217	0x3deee56c	0.116648525
218	0xbe177cc0	-0.14793682
219	0x3e30782e	0.17233345
220	0xbe753614	-0.2394641
221	0x3e919729	0.2843564
222	0x3f3f352e	0.7469052
223	0xbe8f8429	-0.28030518
224	0xbe638211	-0.22217585
225	0xbe827546	-0.25480098
226	0x3ee82d3f	0.4534702
227	0x3ed96eb3	0.4246727
228	0x3df69913	0.12040915
229	0xbcbd928d	-0.02314117
230	0x3eee81a9	0.46583298
231	0x3eb5ee0b	0.35533175
232	0x3b95ca81	0.0045712595
233	0x3e6a63e9	0.22889675
234	0xbe9d01b5	-0.30665365
235	0xbcfcef88	-0.030875936
236	0xbe19b7af	-0.15011476
237	0xbce6758b	-0.02813222
238	0x3cb1f358	0.02172248
239	0xbc84535e	-0.016153034
240	0xbcbe08cd	-0.023197556
241	0x3d1123b7	0.03543445
242	0xbd069534	-0.032857135
243	0x3d5e47b8	0.054267615
244	0x3c325eb8	0.0108868405
245	0x3c6cb221	0.014446766
246	0xbd10a536	-0.035313807
247	0xbca69414	-0.020334281
248	0xbd0c0b4e	-0.03419047
249	0x3c501d67	0.012702323
250	0x3bb42f0a	0.0054987716
251	0x3d2afcb9	0.04174492
252	0x3aaf6a79	0.0013383172
253	0x3cfb32ac	0.03066381
254	0x3d47b645	0.04875781
255	0xbc13290c	-0.008981954
