humanoidprac/humanoidprac/scripts/skrl/logs/skrl/h1_flat/joint_experiment_ver3/2025-09-18_07-54-57_ppo_torch/checkpoints/agent_7200.pt (torch, 549922 bytes, 40 tensors)

log_std_parameter f4 [19]
0	0xc018bc56	-2.386495
1	0xc015badb	-2.3395298
2	0xc022b4f9	-2.5422957
3	0xbfc07633	-1.5036072
4	0xbfbbd6d1	-1.4674932
5	0xbf0bd2cd	-0.5461853
6	0xbf1f7179	-0.6228252
7	0xbfe9d8a0	-1.8269234
8	0xbfea7951	-1.8318273
9	0xbf0efabc	-0.5585134
10	0xbf1aa549	-0.60408455
11	0xbf8e5d37	-1.1122197
12	0xbf9f5d87	-1.2450417
13	0xbf1c978a	-0.6116873
14	0xbf11e706	-0.5699314
15	0xbf197407	-0.5994267
16	0xbf1407a9	-0.5782419
17	0xbf1d2967	-0.613913
18	0xbf196b06	-0.5992893

net_container.0.weight f4 [128, 69]
0	0xbbe84cea	-0.007089247
1	0xbe4b90fe	-0.19879529
2	0x3e2d6b68	0.16935503
3	0xbe74d8ae	-0.23910782
4	0xbcc1545e	-0.0235998
5	0xbd387ebb	-0.045042735
6	0xbe33273c	-0.17495435
7	0xbd449314	-0.047991827
8	0x3c9b754c	0.01897683
9	0xbc8f82c1	-0.017518403
10	0xbd7eda87	-0.062220123
11	0x3e4f611d	0.2025189
12	0x3d2dd1e8	0.04243651
13	0xbea2083a	-0.316469
14	0x3da5e3ae	0.08100067
15	0xbf084387	-0.5322804
16	0x3e589fd5	0.21154721
17	0x3e20c368	0.15699542
18	0x3e289c4b	0.16465871
19	0xbed59c24	-0.41720688
20	0xbdb899ce	-0.09013711
21	0x3ddd6819	0.10810871
22	0xbe120219	-0.14258613
23	0xbeaacf7d	-0.33361426
24	0xbed0facd	-0.40816346
25	0x3cc51a15	0.024060288
26	0x3c1d7c20	0.009612113
27	0x3e2139c3	0.1574469
28	0x3e7ec576	0.24880013
29	0xbe0ddbea	-0.13853422
30	0x3e2f38ed	0.17111559
31	0xbd3cd887	-0.046104934
32	0x3bea2302	0.0071452865
33	0x3cb12f81	0.021629097
34	0xbd7bae06	-0.06144526
35	0x3d5e1009	0.05421451
36	0xbc5c5a92	-0.013449328
37	0xbe04796f	-0.12936948
38	0xbd602ba9	-0.054729138
39	0xbd759dc1	-0.0599649
40	0x3ddd3c24	0.108024865
41	0xbc940213	-0.018067395
42	0x3d8818f9	0.06645388
43	0x3ccf3098	0.025291726
44	0xbcadcb8d	-0.021215225
45	0xbc836c1e	-0.016042765
46	0xbde5e8ad	-0.1122602
47	0x3d554841	0.05207086
48	0xbdcf3031	-0.10116614
49	0xbda18869	-0.07887346
50	0x3d164c2d	0.03669374
51	0x3cbc4328	0.022981241
52	0x3c4030f5	0.011730422
53	0xbd226ef5	-0.039656598
54	0xbd966ef3	-0.07345381
55	0xbe16ba76	-0.14719567
56	0xbd461a9e	-0.048365228
57	0x3da09378	0.078406274
58	0xbdf336c7	-0.11875682
59	0x3e1b14b8	0.15144622
60	0x3d83b969	0.064318486
61	0x3d67f7e2	0.056632884
62	0xbe29e949	-0.16592897
63	0xbe029187	-0.12750827
64	0xbc26786d	-0.010160548
65	0xbd420e77	-0.047377076
66	0xbb60a01d	-0.0034275122
67	0xbce96f75	-0.02849553
68	0x3df59aa1	0.11992384
69	0x3e03f7cf	0.128875
70	0x3d3d4afa	0.04621408
71	0x3ea7a0b4	0.32739794
72	0xbdfaa898	-0.12239188
73	0xbe073bbd	-0.13206382
74	0x3e4f9040	0.20269871
75	0xbd1d0d1a	-0.038342573
76	0x3eed1fdc	0.4631337
77	0x3d78b1a8	0.0607163
78	0xbd170fc4	-0.03688027
79	0xbd28830b	-0.041140597
80	0xbde352d4	-0.110997826
81	0x3caf95fc	0.021433823
82	0x3e2843bb	0.16432087
83	0x3f24ae8d	0.64328843
84	0x3d4ed582	0.050496586
85	0x3e51837b	0.20460312
86	0xbecc6de0	-0.39927578
87	0xbebaa466	-0.3645355
88	0x3d87bad4	0.066274315
89	0x3d9bedf6	0.07613747
90	0x3ea65a29	0.32490662
91	0xbe35284e	-0.17691156
92	0xbd37e1e9	-0.04489318
93	0x3d448ba1	0.047984723
94	0x3e4a5cf7	0.19762026
95	0xbe40fea4	-0.18847138
96	0xbdaa217d	-0.08307169
97	0x3e272cc3	0.16325669
98	0x3ca66719	0.020312833
99	0x3e1bf386	0.15229616
100	0x3d25b2a2	0.04045356
101	0x3e175481	0.1477833
102	0xbd502d0c	-0.05082421
103	0xbd504f17	-0.050856676
104	0x3d7888bc	0.060677275
105	0xbc34dab7	-0.011038474
106	0x3d054c9b	0.03254376
107	0x3e0a9e29	0.13536896
108	0x3d9b089c	0.075700015
109	0x3bfeba82	0.0077736983
110	0x3baf86fe	0.0053566685
111	0xbd6bb616	-0.057546698
112	0x3c9d49cf	0.019200234
113	0x3d3f712b	0.046738785
114	0xbd86a6b8	-0.06574768
115	0x3e001088	0.12506306
116	0x3d9036ed	0.07041726
117	0xbcdd6610	-0.027026206
118	0xbcb20743	-0.021731978
119	0x3dfa58ee	0.12223993
120	0x3d1662af	0.036715206
121	0xbcb4d298	-0.022073075
122	0x3d5fc5a6	0.05463185
123	0x3ec14ac3	0.3775235
124	0xbe1b87ea	-0.15188566
125	0x3d811b54	0.063040406
126	0x3d6e588c	0.058189914
127	0x3d6f9149	0.058488164
128	0xbceb0eaf	-0.028693525
129	0xbdc21bbc	-0.09477946
130	0xbcff3571	-0.031153413
131	0xbd3d344a	-0.046192445
132	0xbdb9e005	-0.090759315
133	0xbe34ed7a	-0.17668715
134	0xbd237f01	-0.039916042
135	0xbd991fe1	-0.074767835
136	0xbe31cf71	-0.17364289
137	0xbde2fda8	-0.11083537
138	0x3c3ab34c	0.011395287
139	0x3f4c4da2	0.7980596
140	0x3d167b38	0.036738604
141	0xbc80d4b6	-0.015726428
142	0xbc560a72	-0.013064014
143	0xbdc6b158	-0.097017944
144	0xbeb2c38f	-0.34914824
145	0x3f0a4329	0.5400873
146	0x3e549f19	0.20763816
147	0x3e5f90cf	0.21832584
148	0x3d2a0e7d	0.041517723
149	0xbd365852	-0.044517823
150	0xbeb7e0a7	-0.35913584
151	0xbe66b6c7	-0.22530662
152	0xbf04f73f	-0.5193977
153	0xbf31f6b7	-0.6951708
154	0xbe23a90d	-0.15982457
155	0xbeab026a	-0.3340028
156	0x3dfbbf58	0.12292355
157	0xbc3a21e7	-0.011360622
158	0x3e1e2b5e	0.15446231
159	0x3e07ce26	0.13262233
160	0x3e82b808	0.2553103
161	0xbdf6c3ef	-0.1204909
162	0x3d25d932	0.040490337
163	0xbcc57201	-0.024102213
164	0xbdbcf519	-0.09226436
165	0x3c2217f2	0.009893404
166	0xbd2d46b0	-0.04230374
167	0x3e330bce	0.17484972
168	0xbd9d88b1	-0.076920874
169	0x3ba8d259	0.0051520285
170	0x3d36d5c8	0.04463747
171	0x3d751adb	0.059840064
172	0x3dffbbaa	0.12486966
173	0x3c9c8cfc	0.019110195
174	0xbd286af2	-0.041117616
175	0xbc1bfc22	-0.009520562
176	0xbd18233f	-0.03714299
177	0x3d1f42d6	0.0388821
178	0xbd770781	-0.06030989
179	0xbce2bbdb	-0.027677467
180	0xbcff088c	-0.031132005
181	0x3cc1700f	0.023613004
182	0x3da61c0a	0.08110817
183	0x3c726c9c	0.014796402
184	0xbd84992c	-0.06474528
185	0x3bac886c	0.005265286
186	0x3d18e1af	0.037324604
187	0x3cdb86fa	0.02679776
188	0xbd6f9a84	-0.058496967
189	0xbd4df113	-0.050278734
190	0xbc8a55a9	-0.01688655
191	0xbe8e4498	-0.27786708
192	0xbda7bacb	-0.08189925
193	0x3d6a645d	0.05722462
194	0xbdbd3642	-0.092388645
195	0x3d16b226	0.03679099
196	0x3e29d9bc	0.16586965
197	0x3ceb3a5f	0.028714357
198	0x3da40965	0.08009604
199	0xbc15942c	-0.009129565
200	0x3e37d204	0.17951208
201	0x3d811302	0.063024536
202	0xbd8307b0	-0.06397951
203	0x3e1350d4	0.14386302
204	0xbd985f5f	-0.074400656
205	0x3d96da87	0.073658995
206	0x3d66a3c7	0.056308534
207	0x3eaaa42c	0.33328378
208	0x3e4e68c8	0.20157158
209	0xbea8f4f3	-0.3299938
210	0xbd12a7f7	-0.035804715
211	0x3b76ae89	0.0037640652
212	0xbccae964	-0.024769492
213	0x3fbd9451	1.4810888
214	0xbf21cd7f	-0.6320419
215	0xbe194f33	-0.14971618
216	0x3cf556e8	0.029948667
217	0x3deee56c	0.116648525
218	0xbded7372	-0.11594285
219	0x3e3dce83	0.18535809
220	0xbe58bad5	-0.21165021
221	0x3e86f1dc	0.263564
222	0x3f36daa3	0.71427363
223	0xbe9bd0f6	-0.30432862
224	0xbe46510e	-0.19366857
225	0xbe8708b1	-0.2637382
226	0x3eed3d87	0.46336004
227	0x3ec9fd0b	0.3945087
228	0x3dd02103	0.101625465
229	0x3b345be4	0.0027520591
230	0x3eee93a8	0.46597028
231	0x3eadd6ab	0.3395284
232	0xbc1b5de8	-0.009482838
233	0x3e695cba	0.22789279
234	0xbe8f6e6a	-0.28013927
235	0xbd3c3f4d	-0.045958806
236	0xbe06b543	-0.13155083
237	0x3c22c019	0.009933495
238	0x3be4e9cf	0.00698588
239	0xbca5d70a	-0.02024414
240	0xbccde1d3	-0.025132095
241	0x3d1acfce	0.037795834
242	0xbd1d1db1	-0.038358394
243	0x3d43f702	0.047842987
244	0x3b624317	0.0034524852
245	0x3cbf7d99	0.02337532
246	0xbd05eba6	-0.032695435
247	0xbcff73a5	-0.031183073
248	0xbd326420	-0.043552518
249	0x3bb73628	0.0055911727
250	0x3c282b73	0.010264265
251	0x3d421969	0.047387514
252	0x3c6256b4	0.013814617
253	0x3d1cc94c	0.03827791
254	0x3d466254	0.048433617
255	0xbbec2af1	-0.0072072675

net_container.0.bias f4 [128]
0	0x3e18832e	0.14893791
1	0xbdde8df3	-0.108669184
2	0xbd7e2a0f	-0.06205183
3	0x3d9ce981	0.07661725
4	0x3d812623	0.06306102
5	0x3d550190	0.052003443
6	0x3dfe25bb	0.1240954
7	0x3e33e810	0.17568994
8	0x3dd5207c	0.104065865
9	0x3e2d9cc8	0.16954339
10	0x3d67ca8e	0.056589656
11	0xbd6c5f71	-0.057708208
12	0x3d435458	0.04768786
13	0xbd55c0f7	-0.05218598
14	0x3e355666	0.1770874
15	0xbe07530e	-0.13215277
16	0x3e257a18	0.16159856
17	0xbd5303f4	-0.051517442
18	0x3de9591b	0.11393949
19	0x3cbc544f	0.02298942
20	0x3ded9807	0.116012625
21	0x3dbf0a05	0.09328083
22	0xbcad5c67	-0.021162225
23	0x3dcf41bc	0.1011996
24	0x3d93fa88	0.072255194
25	0x3d7ae68b	0.06125502
26	0xbdb855ec	-0.09000763
27	0xbdeab8b2	-0.11461009
28	0xbd565073	-0.052322816
29	0xbd66ec20	-0.05637753
30	0xbc472eab	-0.012157123
31	0x3cd5cc8e	0.026098516
32	0x3e56d0f9	0.20978154
33	0x3d535af5	0.051600415
34	0xbd8b3100	-0.067964554
35	0xbe21497c	-0.15750688
36	0x3d9c75da	0.07639666
37	0x3c44b826	0.012006795
38	0x3c8b8fd9	0.017036365
39	0x3d257f92	0.040404864
40	0x3c84317c	0.016136877
41	0x3e2a79d3	0.16648035
42	0xbdf000f7	-0.11718934
43	0xbd5725af	-0.052526172
44	0x3e0e2b9a	0.1388382
45	0xbd4234d2	-0.047413655
46	0x3d2b3d91	0.04180676
47	0xbd6248bf	-0.055245157
48	0x3e5657d2	0.20931938
49	0x3d31afff	0.043380734
50	0xbd477e9e	-0.048704736
51	0x3b6b34ab	0.0035889547
52	0xbda0aee4	-0.07845858
53	0xbd5a0b11	-0.05323321
54	0xbc02eca2	-0.007990988
55	0x3dba80c3	0.091065906
56	0x3e3506af	0.17678331
57	0x3dc41d24	0.09575871
58	0x3df507ec	0.119644016
59	0x3df056c2	0.11735298
60	0xbe04609f	-0.12927483
61	0x3d1330c4	0.03593518
62	0x3e4884a7	0.19581853
63	0x3cf2d54f	0.02964273
64	0x3cbf1298	0.023324296
65	0x3e224dd5	0.15850003
66	0x3d5c401d	0.05377208
67	0x3d257062	0.04039038
68	0x3d972049	0.07379205
69	0x3db9cae5	0.09071902
70	0x3d64f180	0.055894375
71	0xbdf7e151	-0.121035226
72	0x3e1be238	0.15223014
73	0x3e028561	0.12746193
74	0x3d511ed5	0.051054794
75	0x3e08169b	0.13289873
76	0x3e16991c	0.14706844
77	0x3d189031	0.037246887
78	0x3e6ac2d8	0.2292589
79	0x3d883b8b	0.06651982
80	0xbd5f34e8	-0.054493815
81	0xbdadb9c3	-0.08482697
82	0x3e483f5e	0.19555423
83	0x3d8d2958	0.06892651
84	0x3ce1be5c	0.02755659
85	0x3ddffe12	0.10937132
86	0x3ddc6475	0.10761348
87	0x3e49af16	0.19695696
88	0xbd5d2204	-0.053987518
89	0x3e52076e	0.20510647
90	0xbd7560bf	-0.059906717
91	0xbcc8b4c6	-0.024500262
92	0x3da0c3a3	0.07849815
93	0xbc7af4b8	-0.015317135
94	0x3c290e96	0.010318419
95	0xbb96ff67	-0.004608083
96	0x3b19797c	0.0023418358
97	0xbd910c18	-0.07082385
98	0xbd77b8fb	-0.060479145
99	0x3c99f069	0.018791394
100	0x3e4bd0d9	0.19903888
101	0x3cc16dd8	0.023611948
102	0xbddaa8d0	-0.1067673
103	0x3c630bfc	0.013857838
104	0xbb7430ad	-0.0037260458
105	0x3dae76ef	0.085187785
106	0x3d65d4a4	0.056110993
107	0xbd8645df	-0.065562956
108	0xbb202758	-0.0024437513
109	0xbe2dac06	-0.16960153
110	0xbdcde271	-0.10052956
111	0x3d546289	0.051851783
112	0x384ebb05	4.9288403e-05
113	0xbdabaf7a	-0.08383079
114	0x3e41884b	0.18899648
115	0x3e113061	0.14178611
116	0xbe0dab66	-0.13834915
117	0x3e02e713	0.1278346
118	0x3a690fc0	0.00088905916
119	0xbd86254b	-0.06550082
120	0x3d866859	0.065628715
121	0xbdf8556c	-0.12125668
122	0x3e61bc6e	0.22044536
123	0xbbd2a3bb	-0.0064282096
124	0xbbbf637b	-0.0058407164
125	0xbe21e42b	-0.15809695
126	0xbd8e9896	-0.06962697
127	0x3e0448ce	0.12918398

net_container.2.weight f4 [128, 128]
0	0xbd4a9962	-0.049462683
1	0xbd187166	-0.03721752
2	0x3d2f0c78	0.0427365
3	0xbd097a23	-0.033563744
4	0x3ce5242a	0.027971346
5	0x3be9777f	0.0071248407
6	0x3d943528	0.07236701
7	0xbe1e3615	-0.15450318
8	0xbc25af0e	-0.010112537
9	0x3dbd8b13	0.09255042
10	0xbc1d3d67	-0.009597159
11	0xbc1aa816	-0.009439489
12	0x3deb71cf	0.11496317
13	0xbd0e7e0a	-0.03478817
14	0x3c94c422	0.01815993
15	0x3d3a60a1	0.04550231
16	0xbd9cfd71	-0.076655276
17	0x3cc523c5	0.024064908
18	0xbc013f94	-0.007888693
19	0x3e124209	0.14283003
20	0xbce845f3	-0.028353667
21	0x3d8f9556	0.070109054
22	0xbe04f8ef	-0.12985586
23	0xbd9552d5	-0.072911896
24	0x3b342421	0.0027487355
25	0xbd3206fe	-0.0434637
26	0xbde8dadf	-0.11369871
27	0x3dd7b488	0.105324805
28	0x3d1635e0	0.036672473
29	0x3d8ecc05	0.069725074
30	0xbae3e248	-0.0017386163
31	0x3ddeea70	0.10884559
32	0xbdcf1f65	-0.1011341
33	0xbdd7a3fb	-0.10529324
34	0xbd9b0815	-0.07569901
35	0x3d8fcd7c	0.07021615
36	0x3c77fa71	0.0151353935
37	0xbbafc3ed	-0.0053639323
38	0x3d58c85e	0.05292546
39	0x3d232b94	0.03983648
40	0xbd23a57a	-0.039952733
41	0x3d28be8e	0.041197352
42	0xbde703f6	-0.11280052
43	0xbd9b5a40	-0.07585573
44	0x3cb94157	0.022614164
45	0x3ce5fdb9	0.028075086
46	0xbd8ed0b2	-0.06973399
47	0x3d436959	0.04770789
48	0x3c00aed9	0.007854187
49	0x3d2f647c	0.04282044
50	0x3d10f7eb	0.035392683
51	0x3d7d4a34	0.061838344
52	0xbc93a81a	-0.018024493
53	0xbe3bd8df	-0.18344449
54	0xbd3d9b18	-0.046290487
55	0x3c3bae2b	0.011455099
56	0xbe4c3bf1	-0.19944741
57	0xbcff45e0	-0.031161249
58	0x3dbfee61	0.09371639
59	0x3d04db60	0.032435775
60	0x3e3d20bd	0.1846952
61	0x3d72a2d1	0.059237305
62	0x3b3f3ab1	0.002917927
63	0xbd76185b	-0.06008182
64	0xbd8a8a40	-0.0676465
65	0xbd9e5c95	-0.07732502
66	0xbc2cef55	-0.010555108
67	0xbe3a1f84	-0.18176085
68	0x3ce84ea9	0.02835782
69	0xbdcde16d	-0.10052762
70	0x3c8d2302	0.017228607
71	0xbd86e800	-0.06587219
72	0x3d0ebcb5	0.034847934
73	0xbd5ab571	-0.053395692
74	0xbdba367f	-0.090924256
75	0x3d94471a	0.07240124
76	0xbd9ea357	-0.07745998
77	0xbdebd0db	-0.115144454
78	0xbccda96b	-0.025105199
79	0x3d5e78bc	0.05431436
80	0x3cece000	0.028915405
81	0x3bdace82	0.0066774497
82	0xbd9a2918	-0.07527369
83	0x3df5ba68	0.11998445
84	0xbde5ada0	-0.11214757
85	0xbb556e66	-0.0032567023
86	0xbe19ded4	-0.15026408
87	0xbe2254b5	-0.15852626
88	0x3d638f73	0.055556726
89	0xbd1197a7	-0.035545018
90	0xbdd9a10e	-0.10626422
91	0xbdcb6682	-0.09931661
92	0xbdbc2337	-0.09186404
93	0x3d04226e	0.032259397
94	0xbdffb644	-0.12485936
95	0xbe0da697	-0.1383308
96	0x3ddf38af	0.108994834
97	0x3d4fecc9	0.050762925
98	0x3d5e5933	0.054284286
99	0xbd6c5c34	-0.05770512
100	0x3c34214a	0.010994265
101	0x3d0aa168	0.033845335
102	0xbdb3ce76	-0.08779614
103	0xbba2fdc8	-0.0049741007
104	0x3d18a285	0.037264366
105	0xbc51be26	-0.012801683
106	0xbb67aff7	-0.0035352686
107	0xbd063a07	-0.032770183
108	0x3d5bccf7	0.053662267
109	0x3cedfa87	0.029050125
110	0xbd65dce1	-0.05611885
111	0xbdde0722	-0.10841204
112	0x3d3856e4	0.04500474
113	0x3c84f9fb	0.016232481
114	0xbd8a3aef	-0.06749522
115	0xbd967fcb	-0.07348593
116	0xbd9d57b4	-0.07682744
117	0xbe49052a	-0.19630876
118	0xbd3e22e8	-0.046420008
119	0x3ca97628	0.020686224
120	0xbd891723	-0.06693866
121	0x3cd79123	0.026314324
122	0xbe33208f	-0.17492889
123	0x3d467887	0.048454788
124	0x3d2f117b	0.04274128
125	0xbdd4999d	-0.10380862
126	0x3c8585d3	0.016299164
127	0xbe019a35	-0.12656482
128	0x3e0d3f5f	0.13793705
129	0xbe0c7288	-0.13715565
130	0xbc89e9dd	-0.016835148
131	0xbea2815c	-0.31739318
132	0x3da1ae75	0.07894603
133	0x3d8c2a0f	0.068439595
134	0x3db1c40d	0.08679972
135	0x3e2e921c	0.17047924
136	0x3e7cbf31	0.24682309
137	0x3d07584d	0.033043195
138	0x3def115f	0.11673235
139	0x3db01500	0.085977554
140	0x3e2d4197	0.16919552
141	0x3b0373cb	0.0020058032
142	0xbd7a1ec1	-0.061064485
143	0xbd2c98ed	-0.04213803
144	0xbda5a023	-0.08087184
145	0xbd624e69	-0.05525056
146	0x3d97e00e	0.07415782
147	0xbcad9eae	-0.021193828
148	0xbcf48328	-0.029847696
149	0xbdf5b165	-0.11996726
150	0x3d5cbd2a	0.05389134
151	0xbbcae91c	-0.0061923396
152	0xbdd81279	-0.105503984
153	0x3bcc5660	0.0062358826
154	0x3da56258	0.08075398
155	0x3cb4cb64	0.02206964
156	0x3c1dc5d6	0.009629687
157	0xbd2323fd	-0.039829243
158	0x3dc3713e	0.095430836
159	0xbe0290f2	-0.12750605
160	0xba8735dd	-0.0010315735
161	0xbd9cbde1	-0.07653404
162	0xbdbdc08b	-0.0926524
163	0xbe4e7f23	-0.20165686
164	0x3daf1f14	0.085508496
165	0x3dc877ae	0.09788452
166	0xbe008b60	-0.12553167
167	0x3d2dc5ce	0.04242497
168	0x3ddf23b5	0.108954825
169	0x3df383bf	0.11890363
170	0xbd11e5f1	-0.03561968
171	0x3deb0f7a	0.11477561
172	0xbcdb6a5f	-0.02678412
173	0x3d86ab47	0.06575637
174	0xbbbc0a12	-0.005738505
175	0xbd98193f	-0.0742669
176	0x3c057616	0.00814583
177	0x3d910702	0.07081415
178	0xbca983af	-0.020692674
179	0xbe385e59	-0.18004741
180	0xbbaaca67	-0.0052121165
181	0xbdacfc5c	-0.08446571
182	0x3d96d805	0.07365421
183	0xbd829ee5	-0.06377963
184	0xbdc9fcce	-0.09862672
185	0x3d0b3a53	0.03399117
186	0xbd3fb13d	-0.046799887
187	0x3d51795b	0.051141124
188	0xbd93ea93	-0.07222476
189	0xbd8024cf	-0.06257021
190	0xbd5fc1b4	-0.05462809
191	0x3e1209d6	0.14261565
192	0x3d118c63	0.035534274
193	0xbd9e007d	-0.07714937
194	0xbcfb834a	-0.030702252
195	0x3e071ea2	0.13195279
196	0xbe3145cd	-0.17311783
197	0xbd0d1c53	-0.03445084
198	0x3d445019	0.04792795
199	0x3ca506b6	0.020144802
200	0x3d087f9d	0.033324827
201	0x3dce2b20	0.10066819
202	0xbd208850	-0.039192498
203	0xbdb4f198	-0.08835143
204	0x3d6306e1	0.055426482
205	0x3d1f6584	0.038915172
206	0x3e5f88a4	0.21829468
207	0xbd8074fc	-0.06272313
208	0x3cb1c5ac	0.021700703
209	0xbe651cf7	-0.2237433
210	0xbda44e83	-0.080227874
211	0xbd8a7ffc	-0.06762692
212	0xbe31fc70	-0.17381454
213	0xbd028b32	-0.03187103
214	0x3d3c3d05	0.04595663
215	0xbe2cc549	-0.16872133
216	0x3e25a697	0.1617683
217	0x3d209a09	0.0392094
218	0x3d521832	0.051292606
219	0xbe3b2cb7	-0.18278776
220	0x3d998ae0	0.074971914
221	0x3dad6ef5	0.08468429
222	0x3caa09a6	0.020756554
223	0xbe008c63	-0.12553553
224	0xbb2b2d24	-0.0026119435
225	0x3e423273	0.18964557
226	0xbc30bd22	-0.01078728
227	0x3e06b4f5	0.13154967
228	0x3d4511cb	0.04811267
229	0xbe374bef	-0.1790006
230	0x3d439653	0.047750782
231	0x3e181faf	0.14855836
232	0xbbca614a	-0.0061761485
233	0x3df40781	0.11915494
234	0xbdac90b8	-0.084260404
235	0xbe0843db	-0.13307135
236	0xbcee1831	-0.02906427
237	0x3ccb2d94	0.024802007
238	0xbc86ad73	-0.016440129
239	0xbd2f033c	-0.042727694
240	0xbdf1687c	-0.11787507
241	0x3d7527d9	0.059852455
242	0x3ca4c4fe	0.020113464
243	0x3d8e1d80	0.069392204
244	0xbdf62993	-0.120196484
245	0x3e0eeadd	0.1395678
246	0x3dc2bdcc	0.09508857
247	0x3dcae58c	0.09907064
248	0x3d9fd527	0.078043275
249	0xbe023e39	-0.12719049
250	0x3d24df6a	0.040252127
251	0xbd953528	-0.072855294
252	0x3dde8767	0.1086567
253	0xbcdd9843	-0.027050143
254	0x3d90c509	0.070688315
255	0xbd37a719	-0.04483709

net_container.2.bias f4 [128]
0	0x3da24edc	0.079251975
1	0xbdf8c3b2	-0.12146701
2	0xbe36ab6b	-0.17838828
3	0x3a6f06bb	0.00091181294
4	0xbe12d4aa	-0.14338937
5	0x3d32eb64	0.043681517
6	0xbcfc8fe6	-0.030830335
7	0x3dd12238	0.10211605
8	0x3da0967d	0.07841203
9	0xbde56afb	-0.112020455
10	0x3e08eb3d	0.13370986
11	0xbda2cfba	-0.07949777
12	0xbc44a93f	-0.012003242
13	0xbdd7e52b	-0.10541757
14	0x3d284d17	0.041089144
15	0xbdba57b9	-0.09098763
16	0xbdd938fb	-0.10606571
17	0xbd4d0c5b	-0.05006061
18	0xbc817573	-0.015803074
19	0x3c696412	0.01424505
20	0x3e0e8c2c	0.13920659
21	0x3cce9a57	0.02522008
22	0x3d78c740	0.060736895
23	0xbe001e3a	-0.1251153
24	0xbc7c5014	-0.0153999515
25	0x3cfc09a4	0.030766316
26	0x3d341630	0.043966472
27	0xbe0766d9	-0.13222827
28	0x3cdc4ef0	0.02689311
29	0xbe518f51	-0.20464827
30	0xbdf62d7a	-0.12020393
31	0xbb7183a6	-0.003685215
32	0x3c9d6e78	0.019217715
33	0xbdcc39e1	-0.09971977
34	0x3c004d17	0.00783088
35	0xbdd4a9e8	-0.103839695
36	0xbdf482c3	-0.11939003
37	0xbc2fcdce	-0.01073022
38	0x3df0d50e	0.11759387
39	0xbdd74c2f	-0.10512578
40	0xbe0a2377	-0.13490091
41	0xbd77f8ed	-0.06054013
42	0xbdc65762	-0.09684636
43	0x3c74ab21	0.014933378
44	0x3d95da78	0.0731706
45	0x3dbeea1f	0.09321999
46	0xbc8834cc	-0.016626738
47	0x3d9444b5	0.07239667
48	0x3d677783	0.05651046
49	0xbde6b6eb	-0.112653576
50	0x3d3aafea	0.04557792
51	0xbdf81ac8	-0.12114483
52	0x3cfce960	0.030873
53	0x3d698544	0.057011858
54	0xbda332cf	-0.07968675
55	0xbd86a26c	-0.06573948
56	0x3dc05afd	0.09392355
57	0xbd95bc0b	-0.07311257
58	0x3d87f429	0.06638367
59	0x3e010ae6	0.12601814
60	0xbe624ac6	-0.22098836
61	0xbdc7ec0f	-0.097618215
62	0xbdf4116b	-0.11917385
63	0x3d0e403d	0.03472923
64	0x3bb533aa	0.0055298405
65	0xbdcf039a	-0.10108109
66	0x3e0218b7	0.1270474
67	0xbc7ed19d	-0.015552905
68	0xbe1fad7e	-0.15593526
69	0x3ded5c28	0.11589843
70	0xbdec83a3	-0.11548545
71	0xbda9f6c9	-0.08299024
72	0xbcec9815	-0.028881112
73	0x3d821dc0	0.063533306
74	0xbe05297d	-0.13004108
75	0xbccd79a3	-0.025082415
76	0x3df10cc1	0.11770011
77	0xbd8c93fe	-0.06864165
78	0xbcbdd22d	-0.023171509
79	0xbc5d1a21	-0.013494999
80	0xbcc9ab24	-0.024617739
81	0xbd8fa4fd	-0.07013891
82	0x3dac8208	0.08423239
83	0xbcd92724	-0.026507922
84	0xbe08078a	-0.13284126
85	0xbda74a38	-0.08168453
86	0x3cdf47dd	0.027255947
87	0x3da83cdd	0.08214734
88	0x3deaae15	0.11458985
89	0xbd6bd005	-0.05757143
90	0xbd9fa3b6	-0.07794897
91	0x3da84fe4	0.08218363
92	0xbdcf405d	-0.10119698
93	0x3c4ff2a7	0.01269213
94	0xbe114d11	-0.14189555
95	0x3d57a645	0.0526488
96	0xbd1683c3	-0.03674675
97	0xbc6e88b3	-0.014558959
98	0xbe1a641d	-0.15077253
99	0x3d2fbba9	0.042903576
100	0xbe50c08d	-0.20385952
101	0xbdb0331f	-0.086035006
102	0xbd665353	-0.056231808
103	0xbc9e6468	-0.019334987
104	0xbd8914b3	-0.06693401
105	0xbe2f186e	-0.17099163
106	0xbd6d5cdf	-0.057949897
107	0xbd298a68	-0.04139176
108	0xbe09a797	-0.13442837
109	0xbd02b4f1	-0.03191084
110	0x3e0f83b9	0.14015092
111	0xba7da1d8	-0.00096753007
112	0xbe72ec24	-0.23722893
113	0x3da4015e	0.08008073
114	0x3dedaed0	0.116056085
115	0x3b9f5b08	0.0048631467
116	0x3db1ff99	0.086913295
117	0xb9ade786	-0.0003316963
118	0xbd96720a	-0.0734597
119	0xbd882c4b	-0.06649073
120	0xbd868e87	-0.06570154
121	0xbe47708c	-0.19476527
122	0x3e1010f6	0.1406897
123	0xbd0b2674	-0.03397222
124	0x3e1baba3	0.15202193
125	0x3c347935	0.011015226
126	0xbdded55f	-0.10880541
127	0xbe23cfeb	-0.15997283

net_container.4.weight f4 [128, 128]
0	0xbde20c55	-0.110375084
1	0x3e243a07	0.1603776
2	0xbd9df779	-0.07713217
3	0x3d2d82cb	0.042361062
4	0x3c914955	0.017735163
5	0xbbb14a37	-0.0054104584
6	0x3dc00d4d	0.09377537
7	0x3d7c04dd	0.061528075
8	0xbdb251a3	-0.08706977
9	0xbd9ba93e	-0.0760064
10	0xbdfcb3cc	-0.12338981
11	0xbd34ec23	-0.04417051
12	0x3de8c02d	0.113647796
13	0xbc9d60c6	-0.019211184
14	0x3ce6c4fd	0.028170103
15	0xbd99a548	-0.07502228
16	0xbd5a47ee	-0.053291254
17	0xbce99923	-0.028515404
18	0xbd69c8d5	-0.057076294
19	0x3db513f0	0.088416934
20	0xbde3ac5e	-0.11116861
21	0xbddfc5b1	-0.109263785
22	0x3d0e7ebb	0.03478883
23	0xbc765acb	-0.015036295
24	0xbd3fb52f	-0.04680365
25	0x3d829256	0.063755676
26	0xbc44544c	-0.011982989
27	0x3bfcec97	0.0077186334
28	0x3d83b5f0	0.06431186
29	0x3dee8767	0.1164692
30	0x3bc3f5c2	0.0059802243
31	0x3dbff5c3	0.09373047
32	0xbcb9d899	-0.02268629
33	0x3c1fa05d	0.009742823
34	0x3b5a66a1	0.0033325332
35	0xbd1268ad	-0.035744358
36	0xbd6e6f74	-0.05821176
37	0xbd1bfdce	-0.038083844
38	0x3cecce70	0.02890703
39	0x3c3b7a32	0.011442708
40	0xbceb05a7	-0.028689219
41	0x3c24d7df	0.010061233
42	0x3d632e6c	0.055464193
43	0xbd3d0c98	-0.04615459
44	0x3c8ca0ef	0.017166583
45	0x3d24b880	0.040215015
46	0x3c963c7b	0.018339386
47	0x3cfb54a1	0.030680003
48	0xbd222d38	-0.039593905
49	0x3dac6f60	0.084196806
50	0x3cdb740f	0.02678874
51	0x3bffc1a9	0.0078050685
52	0x3e0addd2	0.1356118
53	0xbcd17edc	-0.025573187
54	0x3d98b291	0.07455934
55	0x3b5ac9da	0.0033384473
56	0x3d2b6dad	0.04185264
57	0xbd4d6bf8	-0.050151795
58	0xbdd2011f	-0.1025412
59	0x3bb713ef	0.005587093
60	0x3d99cd70	0.07509887
61	0x3c2df038	0.010616355
62	0xbb539364	-0.0032283897
63	0xba0e2800	-0.00054228306
64	0xbd2d8b25	-0.042369027
65	0xbdb9b333	-0.09067383
66	0xbda36f03	-0.07980158
67	0xbd97ac4d	-0.07405911
68	0x3db99c07	0.09062963
69	0x3d2d9473	0.0423779
70	0xbc35396a	-0.011061052
71	0x3e127ccf	0.14305423
72	0x3d8d7b63	0.069083
73	0xbc2b01c0	-0.010437429
74	0xbdc9035f	-0.09815096
75	0xbccb6dd3	-0.024832642
76	0x3d43ebbe	0.047832243
77	0x3d8881a5	0.06665353
78	0x3d87b68d	0.06626616
79	0xbd7a2bf9	-0.06107709
80	0x3c8007ee	0.015628781
81	0x3d82a6eb	0.06379493
82	0xbd94e851	-0.07270873
83	0xbd193cb6	-0.037411414
84	0x3d36b09c	0.04460202
85	0xbd0196fa	-0.031638123
86	0xbb8bf420	-0.0042710453
87	0x3d3fa347	0.046786573
88	0x3d17e735	0.03708573
89	0xba0dc058	-0.00054073846
90	0x3ceddc3c	0.02903568
91	0xbcba959d	-0.02277642
92	0x3e11dc98	0.14244306
93	0xbb660606	-0.0035098805
94	0x3d003fe4	0.03131093
95	0xbd9e01ac	-0.07715163
96	0xbc807b47	-0.015683783
97	0x3d1685c7	0.036748674
98	0x3c7b9f29	0.015357771
99	0x3da584e2	0.08081986
100	0x3e188cfe	0.14897534
101	0x3d3f632c	0.046725437
102	0x3d242ea4	0.040083542
103	0x3d17cec9	0.03706244
104	0x3d4eb0c5	0.05046155
105	0x3d574348	0.0525544
106	0x3d2ae17b	0.04171894
107	0xbda7e770	-0.0819844
108	0xbd0a8e0f	-0.033826884
109	0xbde0b7d5	-0.10972563
110	0xbbd0fcb0	-0.006377779
111	0x3dc4ff8c	0.09619054
112	0xbe1f59a9	-0.15561546
113	0x3d95598d	0.07292471
114	0x3cb32ae8	0.021871045
115	0x3d481c6b	0.048855226
116	0xbdbb2fba	-0.091399625
117	0x3cd9e395	0.026597777
118	0xbc34c606	-0.011033541
119	0xbb9aaf67	-0.0047206166
120	0x3db9da69	0.090748616
121	0xbba0fc6c	-0.0049129035
122	0xbcae68ee	-0.021290269
123	0x3c3caac1	0.01151532
124	0xbd472e74	-0.048628286
125	0xbce1ccfc	-0.027563564
126	0x3e2a7cda	0.1664919
127	0x3c73773f	0.014859973
128	0x3e0aff02	0.1357384
129	0xbd9fe7c2	-0.07807876
130	0xbc15a964	-0.009134624
131	0x3c44218c	0.011970889
132	0x3d93ed3b	0.072229825
133	0xbbbda056	-0.005786936
134	0xbc16870c	-0.009187471
135	0xbd83d455	-0.064369835
136	0xbcdcd661	-0.026957693
137	0xbdd88561	-0.10572315
138	0x3d7d4009	0.061828647
139	0xbdc8a13f	-0.0979638
140	0x3db9e6d2	0.090772286
141	0x3d65fca1	0.05614913
142	0x3da61b86	0.081107184
143	0xbd0b9665	-0.034078974
144	0xbcd10217	-0.025513692
145	0xbd9db32d	-0.07700191
146	0xb95c529f	-0.00021011614
147	0x3d653f9e	0.055968873
148	0x3d2afad4	0.041743115
149	0xbca78588	-0.020449415
150	0x3c38c174	0.011276592
151	0xbb06f63e	-0.002059355
152	0x3dd681a4	0.10473946
153	0x3d1acbbd	0.037791956
154	0x3dba2d58	0.0909068
155	0xbd8fe7eb	-0.07026657
156	0xbb5fdbca	-0.0034158104
157	0xbd49a467	-0.049229052
158	0x3cc8693d	0.024464244
159	0x3df09bdd	0.117484786
160	0x3c54b560	0.012982696
161	0x3da4bd12	0.08043875
162	0x3c94db27	0.018170906
163	0x3cfcc33b	0.030854812
164	0x3d3a9c74	0.04555936
165	0xbc956fb9	-0.01824175
166	0x3c81e9e2	0.015858594
167	0xbcc914bb	-0.024546018
168	0x3d4fefbe	0.050765745
169	0x3c8d63f5	0.017259577
170	0xbe18ffa9	-0.14941277
171	0x3d901b96	0.070365116
172	0xbdf975d6	-0.121806785
173	0x3d84f14b	0.064913355
174	0xbe0e6169	-0.13904347
175	0x3d78c587	0.06073525
176	0xbd87ad96	-0.06624906
177	0xbd5af80e	-0.05345922
178	0x3d1a9d45	0.03774764
179	0x3d198af7	0.037486043
180	0xbd7882d2	-0.060671635
181	0x3cbd9949	0.023144381
182	0xbba816dd	-0.0051296786
183	0x3bc5a779	0.006031927
184	0x3d232c79	0.039837334
185	0x3ca3aeb8	0.019980773
186	0x3dd9139b	0.105994426
187	0xbcfb4fcc	-0.030677699
188	0x3d1459b7	0.03621837
189	0x3dddd948	0.10832459
190	0x3d939b8a	0.07207401
191	0xbdc36eda	-0.09542628
192	0xbd9c6085	-0.07635597
193	0xbc276ebf	-0.010219275
194	0x3d9b4014	0.07580581
195	0x3ceb0c7f	0.028692482
196	0x3d1a5205	0.037675876
197	0xbd0850a1	-0.03328002
198	0xbd9090d4	-0.07058874
199	0xbdcc6a9e	-0.09981273
200	0x3df71d68	0.12066156
201	0xbd06fa4e	-0.032953553
202	0x3c436080	0.011924863
203	0x3e07b339	0.13251962
204	0xbda7cfdc	-0.08193943
205	0xbd450134	-0.04809685
206	0xbdcb4c5b	-0.09926673
207	0xbd55332b	-0.05205075
208	0xbd7ffe2a	-0.06249825
209	0xbc725565	-0.014790867
210	0xbd3d72a2	-0.0462519
211	0x3d29a3c1	0.041415934
212	0xbc1c1317	-0.009526036
213	0x3cd4e678	0.025988802
214	0xbe05ae72	-0.13054827
215	0xbc1599e3	-0.009130928
216	0x3d9c39ce	0.07628213
217	0xbd7bb692	-0.06145341
218	0xbda05a76	-0.07829754
219	0x3bc0a430	0.0058789477
220	0x3d3b52bf	0.04573321
221	0x3ca4bf2b	0.020110687
222	0xbc80b68d	-0.015712047
223	0x3d5e6c48	0.054302484
224	0x3cce328e	0.02517059
225	0xbbc075eb	-0.005873432
226	0x3c8db0eb	0.017296275
227	0x3c56299b	0.013071443
228	0x3db9925d	0.0906112
229	0xbdd77d52	-0.1052195
230	0x3c6dd693	0.0145164905
231	0x3da6f056	0.08151309
232	0x3c6916d8	0.014226638
233	0xbcc0cb54	-0.023534454
234	0xbcf8725e	-0.030327972
235	0x3cc8966b	0.024485787
236	0x3d6ed0f3	0.05830474
237	0xbd257a5f	-0.040399905
238	0xbd447b3d	-0.04796909
239	0xbddfdaf4	-0.10930434
240	0x3d047763	0.03234042
241	0x3cb7a56b	0.022417745
242	0x3ca3052b	0.019899925
243	0x3c070d28	0.008242883
244	0x3d6557ca	0.055991925
245	0xbd2fc667	-0.04291382
246	0x3dbd0214	0.09228912
247	0x3d9642c6	0.07336955
248	0x3cae41f7	0.021271689
249	0xbd68e3c6	-0.056857847
250	0x3d9361ba	0.07196374
251	0x3daa82c1	0.083257206
252	0x3dd6d01f	0.10488915
253	0x3d2652b5	0.04060622
254	0x3d91170f	0.07084476
255	0x3d89cde4	0.06728724

net_container.4.bias f4 [128]
0	0xbdddacc8	-0.10823971
1	0xbd735660	-0.059408545
2	0x3db8448f	0.089974515
3	0xbe0b7164	-0.13617474
4	0xbdc95e00	-0.09832382
5	0xbde8db00	-0.11369896
6	0xbe0c14b4	-0.13679773
7	0xbd1c0ef8	-0.038100213
8	0xbdbc0b8a	-0.091818884
9	0xbc9ecfdf	-0.01938623
10	0x3d39e86a	0.045387663
11	0xbda57754	-0.08079401
12	0xbd6cb24f	-0.057787236
13	0xbdfbabcc	-0.12288627
14	0x3bb3679f	0.005474999
15	0x3d76097f	0.06006765
16	0xbdb9804e	-0.09057675
17	0xbc770d8e	-0.015078915
18	0x3d7069df	0.058694717
19	0xbd491028	-0.049087673
20	0xbd3e8070	-0.046509206
21	0xbd76b43d	-0.060230482
22	0xbdcef15a	-0.10104628
23	0xbc836b9c	-0.016042523
24	0xbca6a5c9	-0.020342724
25	0xbd891bb8	-0.0669474
26	0x3dcc268e	0.09968291
27	0x3c11d83b	0.008901651
28	0xbda87fdb	-0.082275115
29	0x3c92e88f	0.017933158
30	0xbda8b53e	-0.08237694
31	0x3d3019d2	0.042993374
32	0x3d393217	0.045213785
33	0xbc567a47	-0.013090677
34	0xbd8e66a5	-0.06953172
35	0xbdf187c5	-0.11793474
36	0xbd094d99	-0.03352127
37	0x3d3eb07c	0.046555027
38	0x3c89debc	0.01682984
39	0x3c8e1a1d	0.017346436
40	0xbd58ca28	-0.052927166
41	0xbd997dd0	-0.074947
42	0x3d481672	0.04884953
43	0xbd91e3e0	-0.07123542
44	0xbdd3475a	-0.103163436
45	0x3d046634	0.03232403
46	0xbdb68b1f	-0.08913254
47	0xbc4c534d	-0.012471032
48	0x3d50aa85	0.05094387
49	0xbc53d321	-0.012928755
50	0x3ce4b598	0.027918622
51	0xbda797a9	-0.08183224
52	0xbd1875a3	-0.037221562
53	0xbd3cbdf9	-0.04607961
54	0xbd8727c9	-0.06599385
55	0x3d412225	0.047151703
56	0x3d9b35b1	0.075786
57	0xbdab3ee5	-0.083616056
58	0xbd7c14ce	-0.06154328
59	0x3d823f12	0.06359686
60	0xbca34381	-0.01992965
61	0xbd8ae7a5	-0.06782464
62	0xbdb48382	-0.088141456
63	0xbd1d766f	-0.038443025
64	0xbdd1c976	-0.10243504
65	0xbd639d9b	-0.055570226
66	0xbdc19cf7	-0.09453767
67	0x3d21f8db	0.039543968
68	0xbdcc64d8	-0.09980172
69	0xbd006427	-0.031345513
70	0x3d90ac23	0.070640825
71	0x3dbe2ede	0.09286283
72	0x3d6838db	0.056694847
73	0x3dc2950e	0.09501086
74	0xbd0edfa2	-0.03488124
75	0x3d9054c6	0.07047419
76	0x3c739c24	0.01486877
77	0x3c0cc1e1	0.008591146
78	0x3d982b42	0.07430126
79	0xbaa9ae7f	-0.0012945681
80	0x3d22e3ab	0.039767902
81	0x3c5185b6	0.012788227
82	0xbca2ddb1	-0.019881101
83	0xbbb4d73f	-0.0055188234
84	0x3b94328e	0.004522628
85	0xbd832f0e	-0.06405459
86	0xbd2cdae8	-0.042200953
87	0xbd2345eb	-0.0398616
88	0x3d1e4e85	0.0386491
89	0xbd44aca8	-0.04801622
90	0xbdc90860	-0.098160505
91	0xbd92cd98	-0.0716812
92	0xbce557cb	-0.027995965
93	0xbd8b61c8	-0.0680576
94	0x3cca76ba	0.024714816
95	0xbd4485f5	-0.047979314
96	0xbcfc5057	-0.030800028
97	0xbda6ffee	-0.081542835
98	0xbcbbc095	-0.022918979
99	0xbcfd7bae	-0.030942764
100	0xbdfd95f5	-0.12382118
101	0xbdcf8432	-0.10132636
102	0xbe05d27e	-0.13068578
103	0xbb65340a	-0.0034973645
104	0xbb4e8073	-0.0031509667
105	0xbc89aaea	-0.016805131
106	0x3d4f9ffb	0.05068968
107	0xbbd51ac7	-0.0065034362
108	0xbd5c2c2a	-0.053753056
109	0xbc5b6c3f	-0.013392507
110	0xbc5d5ed9	-0.013511383
111	0x3cea5b5b	0.028608015
112	0xbd4f45dc	-0.050603732
113	0xbe034a4d	-0.12821312
114	0x3dd2413e	0.1026635
115	0x3dc4206c	0.095764965
116	0x3cfd7211	0.03093818
117	0x3d41eda4	0.047345772
118	0xbce0b36b	-0.027429303
119	0x3dd05936	0.10173266
120	0xbd63d9a9	-0.0556275
121	0x3c9040d9	0.017609047
122	0x3d4f5893	0.05062158
123	0xbd35ad3c	-0.044354662
124	0x3c36552f	0.011128708
125	0xbddc3ee1	-0.10754181
126	0x386f39c6	5.7035846e-05
127	0xbc445a43	-0.011984411

policy_layer.weight f4 [19, 128]
0	0x39143cf8	0.00014137093
1	0x3bd95bd5	0.0066332617
2	0x3c2bd04e	0.010486675
3	0x3cef2fa4	0.029197522
4	0xbcc5c40a	-0.02414133
5	0x3da2422f	0.0792278
6	0x3c968a6a	0.018376548
7	0xbcbddf1d	-0.023177678
8	0xbcf83a16	-0.030301135
9	0x3bd0fbbd	0.006377666
10	0xbcdb7fc6	-0.026794326
11	0x3c318931	0.010835932
12	0x3d2458e5	0.04012384
13	0x3d049727	0.032370713
14	0x3d0aab06	0.033854507
15	0x3c9f0ad7	0.019414349
16	0x3ce2a966	0.027668666
17	0xbbb85252	-0.0056250477
18	0x3d34eb94	0.044169977
19	0x3c785cfa	0.015158886
20	0x3c64f801	0.013975144
21	0x3c0f537a	0.00874793
22	0x3d5c33b9	0.053760264
23	0xbda6c657	-0.08143299
24	0x3bba98e8	0.0056944974
25	0x3c2ab814	0.010419864
26	0x3c8c7a6f	0.017148225
27	0xbc609d05	-0.013709311
28	0x3d805cf2	0.06267728
29	0xbb56e200	-0.0032788515
30	0xbd3067c1	-0.043067697
31	0x3cf3410c	0.029694103
32	0xbd49e55b	-0.049290996
33	0xbc6f909a	-0.014621878
34	0x3bac32b3	0.0052550673
35	0xbd87ba85	-0.06627373
36	0x3d7e80e2	0.06213463
37	0xbbb9d207	-0.005670789
38	0xbc19352d	-0.009351057
39	0x3cecc797	0.028903766
40	0xbccb2e3e	-0.024802323
41	0x3c7b717a	0.015346879
42	0xbd88b85d	-0.066757895
43	0x3da5b8a2	0.080918565
44	0xbd5946f3	-0.053046178
45	0xbd90ab26	-0.07063894
46	0x3ca74437	0.02041827
47	0x3cf85b0a	0.030316848
48	0x3caf59c2	0.021405105
49	0x3d4d4563	0.050115
50	0xbd4e210e	-0.050324492
51	0x3caddaa3	0.021222418
52	0x3c932988	0.01796414
53	0x3d11a102	0.03555394
54	0xbbb6895a	-0.005570573
55	0x3d026aa4	0.03183998
56	0x3bcee24e	0.0063135987
57	0x3c556f71	0.013027058
58	0x3bce3ff8	0.0062942468
59	0x3d15350a	0.036427535
60	0x3ced8d52	0.02899805
61	0x3d7d628a	0.061861552
62	0x3c8396f5	0.016063193
63	0xbc5164c5	-0.012780373
64	0x39bc4225	0.00035907436
65	0xbc427886	-0.011869555
66	0xbd963b43	-0.07335522
67	0x3c822baa	0.015889961
68	0xba58b2e7	-0.00082664046
69	0xbcd83be7	-0.026395751
70	0xbcfbbc1f	-0.030729352
71	0x3d5cdcd9	0.053921554
72	0x3d61e24d	0.055147458
73	0xbc9bc16a	-0.019013125
74	0x3c0615fc	0.008183952
75	0xbca20829	-0.019779282
76	0x3d7347c8	0.059394628
77	0xbd1e2b8a	-0.03861574
78	0xbc46a30c	-0.012123834
79	0x3cb31459	0.021860288
80	0x3ceff69f	0.029292403
81	0x3c1d2af1	0.009592758
82	0x3d9b6c69	0.07589037
83	0xbab0aa38	-0.0013478464
84	0x3d487bcd	0.04894619
85	0xbd12a4c2	-0.035801657
86	0x3c92cac2	0.017918948
87	0xbc1c4dbd	-0.009540019
88	0xbbf69ede	-0.0075262627
89	0x3d6a2513	0.057164263
90	0x3d94920f	0.07254421
91	0x3b855f1b	0.0040701753
92	0xbca62f52	-0.020286236
93	0x3c0c6bc9	0.00857062
94	0xbda2f86b	-0.07957538
95	0xbc060ca4	-0.008181725
96	0x3d1b491b	0.037911516
97	0x3d63438b	0.055484336
98	0x3d32b0aa	0.04362551
99	0xbc9d2f12	-0.019187484
100	0xbbc9f294	-0.006162951
101	0x3c3bd824	0.011465106
102	0xbcef437a	-0.02920698
103	0xbc97135d	-0.01844185
104	0xbcbf9111	-0.023384603
105	0xbd699c85	-0.057034034
106	0x3d975893	0.07389941
107	0x3d01bc35	0.03167363
108	0xbc0cfba8	-0.008604921
109	0xbd0cd8fd	-0.034386624
110	0x391f65c9	0.0001520134
111	0x3c9dc757	0.019260092
112	0xbc71ddb2	-0.014762329
113	0xbc19048e	-0.009339465
114	0x3d2128fd	0.03934573
115	0xbbefc2a7	-0.0073169055
116	0xbcb80ae4	-0.02246613
117	0x3d47241a	0.048618414
118	0xbd38fc3a	-0.045162417
119	0x3d0061f8	0.03134343
120	0xbd0e2700	-0.034705162
121	0xbdb7125c	-0.08939049
122	0xbce2af6b	-0.027671536
123	0xbd41f917	-0.04735669
124	0x3c166c30	0.009181067
125	0xbcfb2e81	-0.030661823
126	0x3c37d5c8	0.011220403
127	0xbd036b2d	-0.032084633
128	0xbd2e93fa	-0.04262159
129	0x3d2df14b	0.042466443
130	0x3d6fe4c1	0.058567766
131	0xbd11d712	-0.035605498
132	0xbd8d064b	-0.06885966
133	0x3d651b6c	0.055934355
134	0x3cf38967	0.029728604
135	0x3d04563d	0.032308806
136	0xbcf5cfc4	-0.030006297
137	0x3cf00095	0.029297153
138	0xbd83cef0	-0.064359546
139	0xbcd9cf77	-0.026588185
140	0xbd776cd4	-0.06040652
141	0xbde62acf	-0.11238634
142	0x3a84a23b	0.0010119149
143	0xbd5269c0	-0.051370382
144	0xbb532403	-0.003221751
145	0xbd32bd6c	-0.043637678
146	0x3d1ade36	0.037809573
147	0xbcbfefae	-0.023429718
148	0x3d4616a3	0.04836143
149	0x3abd5de6	0.001444754
150	0x3a87961f	0.0010344422
151	0x3d6d96df	0.05800521
152	0x3ccb8e15	0.024848023
153	0x3d39083c	0.04517387
154	0x3bb78786	0.0056008724
155	0xbb3c5be3	-0.0028741292
156	0x3d11cf11	0.035597865
157	0xbc2833a9	-0.010266223
158	0x3c5ee7f3	0.013605106
159	0xbcdb790c	-0.026791118
160	0x3d223259	0.039598797
161	0x3c346688	0.0110107735
162	0xbc83a952	-0.01607195
163	0xbd1b5001	-0.037918095
164	0x3cd226cb	0.025653264
165	0xbd02ab9f	-0.031901952
166	0x3d81af50	0.06332266
167	0xbc547b28	-0.012968816
168	0xbcb054ed	-0.02152487
169	0x3b99cada	0.0046933712
170	0xbc8c50f2	-0.017128441
171	0xbd142ed3	-0.036177468
172	0x3d38cb14	0.045115545
173	0x3d83d1cb	0.06436499
174	0xbcb1ecd9	-0.021719383
175	0x3cb0fcc8	0.02160491
176	0xbc29ecec	-0.010371428
177	0xbc3e4bf5	-0.011614789
178	0xbd125493	-0.035725188
179	0xbd3bcd81	-0.04585028
180	0x3cde72d0	0.027154356
181	0xbce88a4b	-0.028386256
182	0xbc8f1582	-0.01746631
183	0x3d3800e3	0.04492272
184	0x3aa1007e	0.0012283472
185	0x3ac048c3	0.0014670122
186	0xbdbeaa8c	-0.09309873
187	0x3db4a089	0.08819682
188	0xbd866e53	-0.065640114
189	0x3c3d531f	0.011555462
190	0xbcd02f28	-0.02541311
191	0x3c28f8bc	0.010313209
192	0xbbfb55e4	-0.007670151
193	0xbc5ca3d8	-0.013466798
194	0x3d3a3a6b	0.045465868
195	0xbbe08408	-0.006851677
196	0x3d08cb96	0.03339728
197	0x3cacd019	0.021095322
198	0xbd02f205	-0.03196909
199	0xbdb831f0	-0.089939
200	0xbc2927d5	-0.010324438
201	0xbcc827af	-0.024432985
202	0x3bef9c03	0.007312299
203	0x3d2f2c9f	0.042767163
204	0x3c826019	0.015914964
205	0x3d5359a1	0.05159915
206	0x3c77d313	0.015126008
207	0xbcd93010	-0.026512176
208	0xbcc90f20	-0.024543345
209	0xbb8e5b6e	-0.0043443954
210	0xbd341dee	-0.043973856
211	0x3daece31	0.08535422
212	0x3bc999e7	0.00615238
213	0x3d14cc15	0.03632744
214	0x3d209160	0.03920114
215	0x3d29063d	0.041265715
216	0xbc95c4e6	-0.018282365
217	0xbb593d00	-0.003314793
218	0xbc19d712	-0.009389656
219	0xbcbbde89	-0.022933261
220	0xbd30aecf	-0.04313546
221	0xbd7ca07f	-0.0616765
222	0x3bd78993	0.0065776794
223	0x3d335865	0.04378547
224	0x3bff89d7	0.007798414
225	0x3b8361ab	0.0040094457
226	0xbccbfd63	-0.024901098
227	0x3b0c28fe	0.0021386738
228	0xbcbaf7e7	-0.022823287
229	0x3d3b209c	0.045685396
230	0x3bc6aa11	0.006062754
231	0x3c25b0a7	0.010112918
232	0xbc0c3d2a	-0.0085595045
233	0x3ca28918	0.019840762
234	0x3c1f0e3e	0.009707985
235	0x3d11c985	0.035592575
236	0xbcca583e	-0.02470028
237	0xba08d919	-0.00052203384
238	0xbc63ce30	-0.013904139
239	0x3bbe8c62	0.005815075
240	0xbcc033f9	-0.023462282
241	0xbcd72827	-0.026264263
242	0xbd2594e3	-0.040425193
243	0xbd16eeb8	-0.036848754
244	0x3d84fa0b	0.064930044
245	0xbd4674f7	-0.04845139
246	0xbc900cdf	-0.017584262
247	0xbd18a892	-0.037270136
248	0x3d25cfad	0.04048126
249	0x3d3794bd	0.044819582
250	0x3c7002c0	0.014649093
251	0x3d8fa0d6	0.07013099
252	0x3d3de74f	0.04636317
253	0x3c7c953f	0.015416442
254	0xbbf4691b	-0.0074588186
255	0x3c8739cd	0.016507054

policy_layer.bias f4 [19]
0	0xbcc273bf	-0.023736833
1	0xbc831751	-0.016002329
2	0xbc75226f	-0.014961823
3	0xbc7b82e4	-0.015351031
4	0x3cdebf0a	0.027190704
5	0xbc84320f	-0.016137151
6	0xbd1cdbab	-0.03829543
7	0xbb41b48e	-0.0029557082
8	0xbd47e892	-0.04880578
9	0x3da6f739	0.08152623
10	0x3cb6a543	0.0222956
11	0x3d8d1455	0.06888644
12	0x3d597993	0.053094458
13	0x3cbb37ed	0.022853816
14	0x3cae0ba0	0.021245778
15	0xbe10a023	-0.14123587
16	0xbdeece65	-0.116604604
17	0x3d23e7e5	0.040016074
18	0xbd43a5c7	-0.04776552

value_layer.weight f4 [1, 128]
0	0xbe044d18	-0.12920034
1	0xbd2df4fb	-0.04246996
2	0x3e06ba9f	0.13157128
3	0xbc81dac8	-0.015851393
4	0xbdde222b	-0.10846361
5	0xbd10b538	-0.035329074
6	0xbe169aec	-0.14707536
7	0x3db8d12a	0.0902427
8	0xbd846a76	-0.06465618
9	0xbcaf428b	-0.021394035
10	0xbddf34be	-0.10898732
11	0xbd8fb61d	-0.07017157
12	0x3b92b752	0.00447742
13	0x3d283ee7	0.041075613
14	0x3cf46813	0.029834783
15	0xbde1b464	-0.11020735
16	0x3c1ca412	0.009560602
17	0xbe043a1a	-0.12912789
18	0x3c5599c3	0.013037148
19	0xbc4fc78c	-0.012681853
20	0xbd78ba61	-0.06072462
21	0xbca4531a	-0.020059157
22	0x3d3718b6	0.0447013
23	0x3dc6623b	0.09686705
24	0xbc59730d	-0.013272059
25	0x3de1413f	0.10998773
26	0xbd9f3e0a	-0.07775505
27	0xbdcb6663	-0.09931638
28	0xbcd49186	-0.025948297
29	0xbda2369f	-0.079205744
30	0x3e1260e4	0.14294773
31	0x3dccc951	0.099993356
32	0x3cb982b5	0.022645334
33	0x3d21950e	0.03944879
34	0x3d0f0e98	0.034926027
35	0x3cf5302a	0.029930193
36	0xbd046426	-0.03232207
37	0x3d9e7200	0.077365875
38	0xbdd7680f	-0.105178945
39	0xbe4b86cf	-0.19875644
40	0xbe2ad12c	-0.16681355
41	0x3dbea42e	0.093086585
42	0x3c8a313b	0.016869178
43	0xbd154323	-0.03644098
44	0x3d71a16c	0.058991835
45	0xbdacfccb	-0.08446654
46	0x3dd29c2a	0.10283692
47	0xbd6b2ff2	-0.05741877
48	0xbdf1a8e0	-0.117997885
49	0x3c0fdb93	0.008780378
50	0x3d221b3b	0.03957675
51	0x3b122ac4	0.0022303322
52	0xbdd2fded	-0.10302339
53	0xbdc7bbcc	-0.09752616
54	0xbdc46faf	-0.095916145
55	0x3c98e284	0.018662699
56	0xbc1c5557	-0.009541831
57	0xbd18e52d	-0.037327934
58	0x3d04396a	0.032281317
59	0xbcb00fb9	-0.021491872
60	0x3dd5a15e	0.10431169
61	0x3dbe906f	0.09304892
62	0xbe1acc23	-0.15116934
63	0xbd99e317	-0.07514017
64	0xbd8f18a0	-0.06987119
65	0xbcb368df	-0.021900592
66	0x3d3b99a0	0.045800805
67	0xbda1028d	-0.07861815
68	0xbe174bf0	-0.14775062
69	0x3dcaad35	0.09896318
70	0xbdae6874	-0.085160166
71	0x3e8fabb5	0.2806069
72	0x3e3590f5	0.17731078
73	0x3df31832	0.11869849
74	0x3db106b2	0.08643855
75	0xbc8c791b	-0.017147591
76	0xbd3331f1	-0.0437488
77	0x3a17021d	0.0005760508
78	0xbd0e2fa3	-0.0347134
79	0x3ca6b3da	0.020349432
80	0xbdb0880e	-0.086197
81	0x3c913e7e	0.017729994
82	0xbd671fef	-0.05642694
83	0xbc2f797c	-0.0107101165
84	0x3d159743	0.036521208
85	0x3d71f203	0.05906869
86	0xbd73bea4	-0.05950798
87	0xbb912691	-0.0044296463
88	0xbcb0caac	-0.021581016
89	0xbe0edb67	-0.13950883
90	0xbbddb099	-0.006765437
91	0xbe588bb7	-0.21147047
92	0x3d8e0533	0.069345854
93	0xbd4fd099	-0.050736044
94	0x3d9aeb26	0.07564382
95	0xbda1be41	-0.07897616
96	0xbd833741	-0.06407023
97	0x3d9f2350	0.07770407
98	0xbd3f6fae	-0.046737365
99	0x3c37b46c	0.0112124495
100	0x3ca59739	0.02021371
101	0xbdefd458	-0.11710423
102	0xbdbf25cc	-0.09333381
103	0xbdc618d3	-0.096727036
104	0xbe42901d	-0.19000287
105	0xbcd39f11	-0.025832685
106	0x3d2528a3	0.040321957
107	0x3e031dad	0.12804289
108	0xbcdcbe0d	-0.026946092
109	0x3dba5b98	0.09099501
110	0x3a9254ad	0.0011164151
111	0x3d907ee9	0.07055456
112	0x3ca2a2c0	0.019852996
113	0x3dd6ec96	0.10494344
114	0x3d791c5d	0.060818065
115	0xbce535ff	-0.027979849
116	0xbda32919	-0.07966823
117	0x3cf7e29c	0.030259423
118	0x3d9e1ac8	0.07719952
119	0xbde046e2	-0.1095102
120	0xbdb14ee9	-0.08657629
121	0x3d0ad810	0.03389746
122	0x3ca8c284	0.020600565
123	0x3d54ed69	0.051984224
124	0x3d76a7f5	0.06021877
125	0x3d905699	0.07047767
126	0xbe10f984	-0.14157683
127	0xbbf863ca	-0.007580255

log_std_parameter f4 [19]
0	0xc018bc56	-2.386495
1	0xc015badb	-2.3395298
2	0xc022b4f9	-2.5422957
3	0xbfc07633	-1.5036072
4	0xbfbbd6d1	-1.4674932
5	0xbf0bd2cd	-0.5461853
6	0xbf1f7179	-0.6228252
7	0xbfe9d8a0	-1.8269234
8	0xbfea7951	-1.8318273
9	0xbf0efabc	-0.5585134
10	0xbf1aa549	-0.60408455
11	0xbf8e5d37	-1.1122197
12	0xbf9f5d87	-1.2450417
13	0xbf1c978a	-0.6116873
14	0xbf11e706	-0.5699314
15	0xbf197407	-0.5994267
16	0xbf1407a9	-0.5782419
17	0xbf1d2967	-0.613913
18	0xbf196b06	-0.5992893

net_container.0.weight f4 [128, 69]
0	0xbbe84cea	-0.007089247
1	0xbe4b90fe	-0.19879529
2	0x3e2d6b68	0.16935503
3	0xbe74d8ae	-0.23910782
4	0xbcc1545e	-0.0235998
5	0xbd387ebb	-0.045042735
6	0xbe33273c	-0.17495435
7	0xbd449314	-0.047991827
8	0x3c9b754c	0.01897683
9	0xbc8f82c1	-0.017518403
10	0xbd7eda87	-0.062220123
11	0x3e4f611d	0.2025189
12	0x3d2dd1e8	0.04243651
13	0xbea2083a	-0.316469
14	0x3da5e3ae	0.08100067
15	0xbf084387	-0.5322804
16	0x3e589fd5	0.21154721
17	0x3e20c368	0.15699542
18	0x3e289c4b	0.16465871
19	0xbed59c24	-0.41720688
20	0xbdb899ce	-0.09013711
21	0x3ddd6819	0.10810871
22	0xbe120219	-0.14258613
23	0xbeaacf7d	-0.33361426
24	0xbed0facd	-0.40816346
25	0x3cc51a15	0.024060288
26	0x3c1d7c20	0.009612113
27	0x3e2139c3	0.1574469
28	0x3e7ec576	0.24880013
29	0xbe0ddbea	-0.13853422
30	0x3e2f38ed	0.17111559
31	0xbd3cd887	-0.046104934
32	0x3bea2302	0.0071452865
33	0x3cb12f81	0.021629097
34	0xbd7bae06	-0.06144526
35	0x3d5e1009	0.05421451
36	0xbc5c5a92	-0.013449328
37	0xbe04796f	-0.12936948
38	0xbd602ba9	-0.054729138
39	0xbd759dc1	-0.0599649
40	0x3ddd3c24	0.108024865
41	0xbc940213	-0.018067395
42	0x3d8818f9	0.06645388
43	0x3ccf3098	0.025291726
44	0xbcadcb8d	-0.021215225
45	0xbc836c1e	-0.016042765
46	0xbde5e8ad	-0.1122602
47	0x3d554841	0.05207086
48	0xbdcf3031	-0.10116614
49	0xbda18869	-0.07887346
50	0x3d164c2d	0.03669374
51	0x3cbc4328	0.022981241
52	0x3c4030f5	0.011730422
53	0xbd226ef5	-0.039656598
54	0xbd966ef3	-0.07345381
55	0xbe16ba76	-0.14719567
56	0xbd461a9e	-0.048365228
57	0x3da09378	0.078406274
58	0xbdf336c7	-0.11875682
59	0x3e1b14b8	0.15144622
60	0x3d83b969	0.064318486
61	0x3d67f7e2	0.056632884
62	0xbe29e949	-0.16592897
63	0xbe029187	-0.12750827
64	0xbc26786d	-0.010160548
65	0xbd420e77	-0.047377076
66	0xbb60a01d	-0.0034275122
67	0xbce96f75	-0.02849553
68	0x3df59aa1	0.11992384
69	0x3e03f7cf	0.128875
70	0x3d3d4afa	0.04621408
71	0x3ea7a0b4	0.32739794
72	0xbdfaa898	-0.12239188
73	0xbe073bbd	-0.13206382
74	0x3e4f9040	0.20269871
75	0xbd1d0d1a	-0.038342573
76	0x3eed1fdc	0.4631337
77	0x3d78b1a8	0.0607163
78	0xbd170fc4	-0.03688027
79	0xbd28830b	-0.041140597
80	0xbde352d4	-0.110997826
81	0x3caf95fc	0.021433823
82	0x3e2843bb	0.16432087
83	0x3f24ae8d	0.64328843
84	0x3d4ed582	0.050496586
85	0x3e51837b	0.20460312
86	0xbecc6de0	-0.39927578
87	0xbebaa466	-0.3645355
88	0x3d87bad4	0.066274315
89	0x3d9bedf6	0.07613747
90	0x3ea65a29	0.32490662
91	0xbe35284e	-0.17691156
92	0xbd37e1e9	-0.04489318
93	0x3d448ba1	0.047984723
94	0x3e4a5cf7	0.19762026
95	0xbe40fea4	-0.18847138
96	0xbdaa217d	-0.08307169
97	0x3e272cc3	0.16325669
98	0x3ca66719	0.020312833
99	0x3e1bf386	0.15229616
100	0x3d25b2a2	0.04045356
101	0x3e175481	0.1477833
102	0xbd502d0c	-0.05082421
103	0xbd504f17	-0.050856676
104	0x3d7888bc	0.060677275
105	0xbc34dab7	-0.011038474
106	0x3d054c9b	0.03254376
107	0x3e0a9e29	0.13536896
108	0x3d9b089c	0.075700015
109	0x3bfeba82	0.0077736983
110	0x3baf86fe	0.0053566685
111	0xbd6bb616	-0.057546698
112	0x3c9d49cf	0.019200234
113	0x3d3f712b	0.046738785
114	0xbd86a6b8	-0.06574768
115	0x3e001088	0.12506306
116	0x3d9036ed	0.07041726
117	0xbcdd6610	-0.027026206
118	0xbcb20743	-0.021731978
119	0x3dfa58ee	0.12223993
120	0x3d1662af	0.036715206
121	0xbcb4d298	-0.022073075
122	0x3d5fc5a6	0.05463185
123	0x3ec14ac3	0.3775235
124	0xbe1b87ea	-0.15188566
125	0x3d811b54	0.063040406
126	0x3d6e588c	0.058189914
127	0x3d6f9149	0.058488164
128	0xbceb0eaf	-0.028693525
129	0xbdc21bbc	-0.09477946
130	0xbcff3571	-0.031153413
131	0xbd3d344a	-0.046192445
132	0xbdb9e005	-0.090759315
133	0xbe34ed7a	-0.17668715
134	0xbd237f01	-0.039916042
135	0xbd991fe1	-0.074767835
136	0xbe31cf71	-0.17364289
137	0xbde2fda8	-0.11083537
138	0x3c3ab34c	0.011395287
139	0x3f4c4da2	0.7980596
140	0x3d167b38	0.036738604
141	0xbc80d4b6	-0.015726428
142	0xbc560a72	-0.013064014
143	0xbdc6b158	-0.097017944
144	0xbeb2c38f	-0.34914824
145	0x3f0a4329	0.5400873
146	0x3e549f19	0.20763816
147	0x3e5f90cf	0.21832584
148	0x3d2a0e7d	0.041517723
149	0xbd365852	-0.044517823
150	0xbeb7e0a7	-0.35913584
151	0xbe66b6c7	-0.22530662
152	0xbf04f73f	-0.5193977
153	0xbf31f6b7	-0.6951708
154	0xbe23a90d	-0.15982457
155	0xbeab026a	-0.3340028
156	0x3dfbbf58	0.12292355
157	0xbc3a21e7	-0.011360622
158	0x3e1e2b5e	0.15446231
159	0x3e07ce26	0.13262233
160	0x3e82b808	0.2553103
161	0xbdf6c3ef	-0.1204909
162	0x3d25d932	0.040490337
163	0xbcc57201	-0.024102213
164	0xbdbcf519	-0.09226436
165	0x3c2217f2	0.009893404
166	0xbd2d46b0	-0.04230374
167	0x3e330bce	0.17484972
168	0xbd9d88b1	-0.076920874
169	0x3ba8d259	0.0051520285
170	0x3d36d5c8	0.04463747
171	0x3d751adb	0.059840064
172	0x3dffbbaa	0.12486966
173	0x3c9c8cfc	0.019110195
174	0xbd286af2	-0.041117616
175	0xbc1bfc22	-0.009520562
176	0xbd18233f	-0.03714299
177	0x3d1f42d6	0.0388821
178	0xbd770781	-0.06030989
179	0xbce2bbdb	-0.027677467
180	0xbcff088c	-0.031132005
181	0x3cc1700f	0.023613004
182	0x3da61c0a	0.08110817
183	0x3c726c9c	0.014796402
184	0xbd84992c	-0.06474528
185	0x3bac886c	0.005265286
186	0x3d18e1af	0.037324604
187	0x3cdb86fa	0.02679776
188	0xbd6f9a84	-0.058496967
189	0xbd4df113	-0.050278734
190	0xbc8a55a9	-0.01688655
191	0xbe8e4498	-0.27786708
192	0xbda7bacb	-0.08189925
193	0x3d6a645d	0.05722462
194	0xbdbd3642	-0.092388645
195	0x3d16b226	0.03679099
196	0x3e29d9bc	0.16586965
197	0x3ceb3a5f	0.028714357
198	0x3da40965	0.08009604
199	0xbc15942c	-0.009129565
200	0x3e37d204	0.17951208
201	0x3d811302	0.063024536
202	0xbd8307b0	-0.06397951
203	0x3e1350d4	0.14386302
204	0xbd985f5f	-0.074400656
205	0x3d96da87	0.073658995
206	0x3d66a3c7	0.056308534
207	0x3eaaa42c	0.33328378
208	0x3e4e68c8	0.20157158
209	0xbea8f4f3	-0.3299938
210	0xbd12a7f7	-0.035804715
211	0x3b76ae89	0.0037640652
212	0xbccae964	-0.024769492
213	0x3fbd9451	1.4810888
214	0xbf21cd7f	-0.6320419
215	0xbe194f33	-0.14971618
216	0x3cf556e8	0.029948667
217	0x3deee56c	0.116648525
218	0xbded7372	-0.11594285
219	0x3e3dce83	0.18535809
220	0xbe58bad5	-0.21165021
221	0x3e86f1dc	0.263564
222	0x3f36daa3	0.71427363
223	0xbe9bd0f6	-0.30432862
224	0xbe46510e	-0.19366857
225	0xbe8708b1	-0.2637382
226	0x3eed3d87	0.46336004
227	0x3ec9fd0b	0.3945087
228	0x3dd02103	0.101625465
229	0x3b345be4	0.0027520591
230	0x3eee93a8	0.46597028
231	0x3eadd6ab	0.3395284
232	0xbc1b5de8	-0.009482838
233	0x3e695cba	0.22789279
234	0xbe8f6e6a	-0.28013927
235	0xbd3c3f4d	-0.045958806
236	0xbe06b543	-0.13155083
237	0x3c22c019	0.009933495
238	0x3be4e9cf	0.00698588
239	0xbca5d70a	-0.02024414
240	0xbccde1d3	-0.025132095
241	0x3d1acfce	0.037795834
242	0xbd1d1db1	-0.038358394
243	0x3d43f702	0.047842987
244	0x3b624317	0.0034524852
245	0x3cbf7d99	0.02337532
246	0xbd05eba6	-0.032695435
247	0xbcff73a5	-0.031183073
248	0xbd326420	-0.043552518
249	0x3bb73628	0.0055911727
250	0x3c282b73	0.010264265
251	0x3d421969	0.047387514
252	0x3c6256b4	0.013814617
253	0x3d1cc94c	0.03827791
254	0x3d466254	0.048433617
255	0xbbec2af1	-0.0072072675
