humanoidprac/humanoidprac/scripts/skrl/logs/skrl/h1_flat/joint_experiment_ver3/2025-09-18_09-05-47_ppo_torch/checkpoints/agent_16800.pt (torch, 549970 bytes, 40 tensors)

log_std_parameter f4 [19]
0	0xc0452aaf	-3.0807302
1	0xc047ba5b	-3.1207492
2	0xc0514bd6	-3.2702537
3	0xbfe3adb1	-1.7787381
4	0xbfe1cbe4	-1.7640347
5	0xbf591116	-0.84791696
6	0xbf5f3e7f	-0.87204736
7	0xc015413a	-2.332106
8	0xc0178c0e	-2.3679233
9	0xbf43dda3	-0.76510066
10	0xbf3a59d0	-0.72793293
11	0xbfc982ce	-1.5743043
12	0xbfda0b9e	-1.7034795
13	0xbf3c8ab0	-0.7364912
14	0xbf2a2a4c	-0.6647079
15	0xbf497017	-0.7868666
16	0xbf4394fc	-0.7639921
17	0xbf45a2fb	-0.77201813
18	0xbf4bd89c	-0.79627395

net_container.0.weight f4 [128, 69]
0	0xbe084f7d	-0.13311572
1	0x3e8f9ea1	0.28050712
2	0xbc1d1ae5	-0.009588932
3	0xbe3f554e	-0.18684885
4	0xbd0bb4b2	-0.03410787
5	0x3bd556e5	0.006510603
6	0xbddbe038	-0.10736126
7	0x3f0b9c02	0.54534924
8	0x3c33f910	0.010984674
9	0x3e39e361	0.18153144
10	0xbd7eda87	-0.062220123
11	0xbd9a7d86	-0.07543473
12	0x3e213243	0.1574183
13	0xbe4692b7	-0.19391905
14	0x3e92dae8	0.28682637
15	0xbe8286f4	-0.25493586
16	0xbc54eb6f	-0.012995585
17	0xbd663677	-0.056204285
18	0x3dc1cbd4	0.09462705
19	0x3dc3322d	0.09531055
20	0x3e0fc73b	0.14040844
21	0x3e987bba	0.29781896
22	0xbdfc00ee	-0.12304865
23	0xbe4c04f0	-0.19923759
24	0xbde6d73d	-0.11271522
25	0xbe899876	-0.2687413
26	0xbe2caba0	-0.16862345
27	0x3de17c4b	0.11010035
28	0x3ebd1dbc	0.36936748
29	0x3eaf358c	0.3422054
30	0xbe06bb06	-0.13157281
31	0xbd76a82a	-0.060218967
32	0x3d169517	0.036763277
33	0xbd8d8145	-0.06909422
34	0xbdd7a077	-0.10528653
35	0x3d86d72a	0.06584008
36	0xbd996f2b	-0.07491907
37	0xbcdd2b8e	-0.026998308
38	0xbde6c7d3	-0.11268582
39	0x3d1cb93c	0.03826259
40	0x3d80b4b9	0.0628447
41	0x3bceafee	0.0063075935
42	0x3cb99d16	0.022657912
43	0x3d636f8e	0.05552631
44	0x3d8c966c	0.06864628
45	0xbcf7d91b	-0.030254891
46	0xbdd33ee9	-0.103147335
47	0x3b974e0f	0.0046174596
48	0xbcee806c	-0.02911397
49	0x3c85c35c	0.016328506
50	0xbdc2132a	-0.094763115
51	0x3e43b570	0.19112182
52	0x3e598f60	0.212461
53	0xbdadf614	-0.08494201
54	0xbdc3a6f1	-0.09553326
55	0xbe07f71e	-0.13277861
56	0x3d968480	0.07349491
57	0xbe7229da	-0.23648778
58	0x3e0ea968	0.13931811
59	0x3dcd8862	0.100357786
60	0xbd5bfebf	-0.05370974
61	0xbe56f430	-0.20991588
62	0x3d8d9c09	0.06914527
63	0xbe0f399a	-0.13986817
64	0xbd8dcb05	-0.069234885
65	0xbc81a93a	-0.015827764
66	0xbd8b648e	-0.06806289
67	0x3cc31afa	0.023816574
68	0x3d47eee8	0.048811823
69	0xbdbc4d9e	-0.09194492
70	0xbec673b8	-0.3876016
71	0x3e454a89	0.19266714
72	0xbde0b648	-0.109722674
73	0xbde5c92e	-0.112200126
74	0x3db4ddac	0.08831343
75	0xbe77504e	-0.24151728
76	0xbde15045	-0.11001638
77	0x3d228767	0.03967991
78	0x3e5510da	0.2080721
79	0xbd28830b	-0.041140597
80	0xbe741f7e	-0.23840138
81	0x3e6c75ab	0.23091762
82	0x3dc8169e	0.09769939
83	0x3e2ec39b	0.17066805
84	0x3ed43029	0.41442993
85	0x3e38d35e	0.1804938
86	0xbcfa46d3	-0.03055135
87	0xbd87ff2e	-0.066404685
88	0x3e8458ce	0.25849003
89	0xbe394e91	-0.18096377
90	0xbdcd8e7d	-0.10036943
91	0x3e328a79	0.17435636
92	0xbce8c313	-0.028413331
93	0x3e5b65ce	0.21425554
94	0x3c95e047	0.01829542
95	0xbea62161	-0.3244734
96	0x3e40fdab	0.18846767
97	0x3d795690	0.060873568
98	0x3db68b5d	0.089133
99	0xbee8dfa3	-0.4548312
100	0x3c3216a4	0.010869656
101	0x3dbdecf6	0.09273712
102	0xb94a0df8	-0.00019269425
103	0xbcbc49b8	-0.02298437
104	0xbd796645	-0.060888547
105	0xbda00114	-0.07812706
106	0xbd4d9ce4	-0.05019845
107	0x3d024a93	0.0318094
108	0x3d448cc9	0.047985826
109	0x3b1c2018	0.002382284
110	0xbd4b5829	-0.049644623
111	0xbd7d679f	-0.0618664
112	0x3da95dfb	0.082698785
113	0x3c2109f3	0.009829032
114	0x3da777a7	0.08177119
115	0x3d3e283f	0.0464251
116	0x3d957927	0.072984986
117	0x3c2788d3	0.0102254925
118	0xbcd9ca12	-0.026585612
119	0x3cd5f89d	0.026119525
120	0xbd52ffa2	-0.05151332
121	0x3e7e2297	0.24817882
122	0x3e0a33e4	0.13496357
123	0x3e4b95d2	0.1988137
124	0xbd3a1d65	-0.04543819
125	0xbe2329d6	-0.15933928
126	0x3d4f7aa6	0.050654076
127	0x3d88490c	0.066545576
128	0x3ca2ed8d	0.019888664
129	0xbda572b7	-0.08078521
130	0x3d9a52c4	0.075353175
131	0xbe2adc0a	-0.166855
132	0xbe0e209b	-0.13879625
133	0xb9d0278d	-0.0003970232
134	0xbdce570b	-0.10075196
135	0xbe4818a0	-0.19540644
136	0xbdd2bf70	-0.1029042
137	0xbde3c63d	-0.11121795
138	0xbe8fdb44	-0.28096974
139	0x3e62b32a	0.22138658
140	0xbe0a9602	-0.13533786
141	0xbd0259f7	-0.03182408
142	0xbd9bbfe1	-0.07604957
143	0x3c66800b	0.014068614
144	0xbef59cf1	-0.479713
145	0x3f586e0a	0.84542906
146	0x3e2d920a	0.1695024
147	0x3eabea97	0.33577415
148	0x3d2a0e7d	0.041517723
149	0x3e886619	0.26640394
150	0xbeb79529	-0.35855988
151	0xbd87555e	-0.066080794
152	0x3d3536a9	0.04424158
153	0xbda8ffad	-0.08251891
154	0xbe48e7ce	-0.19619676
155	0xbe097153	-0.13422136
156	0xbddc8a93	-0.107686184
157	0xbf22d3d2	-0.6360446
158	0x3eb4d32f	0.3531737
159	0x3e197a7a	0.14988127
160	0xbd1edb0f	-0.03878313
161	0xbb61cc59	-0.0034454076
162	0x3d232f2a	0.0398399
163	0xbe4ea595	-0.20180352
164	0xbe0d7690	-0.13814759
165	0xbe4cb807	-0.19992076
166	0xbda17335	-0.07883302
167	0x3e480176	0.19531807
168	0x3dc1967c	0.09452531
169	0x3bc1ceb1	0.005914532
170	0xbcb85eb8	-0.022506103
171	0x3cda9c88	0.026685968
172	0x3d15f439	0.036609862
173	0xbd91d860	-0.071213484
174	0xbcd83e54	-0.026396908
175	0x3d8e58d8	0.06950539
176	0xbd9ba83e	-0.07600449
177	0x3cf9c12d	0.030487621
178	0xbd021723	-0.031760346
179	0xbc85d008	-0.016334549
180	0xbbdb4bb6	-0.006692375
181	0xbc2f4e59	-0.010699832
182	0x3d476e3d	0.048689116
183	0x3d976e62	0.07394101
184	0xbd8c326b	-0.06845554
185	0x3d2301f1	0.039796773
186	0xb8b1ae9a	-8.47254e-05
187	0xbc61912a	-0.01376752
188	0xbdd71689	-0.10502345
189	0x3dcfc0c0	0.10144186
190	0xbe0d4ddb	-0.13799231
191	0xbd79ea34	-0.06101437
192	0x3d4e045a	0.05029712
193	0x3e417ceb	0.18895309
194	0x3db4bb85	0.08824829
195	0xbda0b547	-0.07847076
196	0x3dc46a73	0.09590616
197	0x3d251120	0.040299535
198	0x3d35d27c	0.044390187
199	0xbe2cb126	-0.16864452
200	0x3e540b4a	0.20707431
201	0x3c33581a	0.010946298
202	0xbcca235f	-0.02467507
203	0x3c9ef743	0.019405013
204	0x3d91b536	0.07114641
205	0xbb46ff2e	-0.0030364501
206	0xbd8a232f	-0.06744992
207	0x3e731943	0.23740105
208	0xbec81879	-0.3908117
209	0xbe2ab34c	-0.16669959
210	0x3b649095	0.0034876217
211	0x3dd4f0d4	0.10397497
212	0xbc890098	-0.016723916
213	0x3f9ff827	1.2497605
214	0xbf5b5864	-0.8568175
215	0xbd0ea505	-0.034825344
216	0x3e893de8	0.26805043
217	0x3deee56c	0.116648525
218	0xbe830352	-0.2558847
219	0x3eecdd62	0.46262652
220	0xbe607865	-0.21920927
221	0x3ec09eb9	0.37621096
222	0x3f21861b	0.63095254
223	0x3d160c9d	0.036633123
224	0xbdffd611	-0.12492002
225	0xbd5d317c	-0.05400227
226	0x3e79a559	0.24379481
227	0x3f249d90	0.6430292
228	0xbe1860fe	-0.1488075
229	0xbdc856e9	-0.09782202
230	0x3e072f54	0.13201648
231	0x3e9db1e9	0.30799797
232	0xbd846f07	-0.06466489
233	0x3c2e7e63	0.01065025
234	0xbde61bfa	-0.11235805
235	0xbe89b72b	-0.2689756
236	0x3e14489a	0.1448082
237	0x3de6271a	0.11237927
238	0x3b13eb4c	0.0022570668
239	0x3bb61981	0.0055572395
240	0xbc2ad63e	-0.010427056
241	0x3c2383bd	0.009980139
242	0xbbb13d55	-0.0054089227
243	0x3cf85586	0.030314218
244	0x3d1b5c2d	0.037929703
245	0xbc93e5ab	-0.01805385
246	0x3befc4b0	0.007317148
247	0xbcaa079d	-0.020755583
248	0xbcc70951	-0.024296435
249	0x3ac18a00	0.0014765859
250	0x3b2eb0d9	0.0026655702
251	0x3d3a11fd	0.04542731
252	0x3d18ce9b	0.03730641
253	0xbc6b4c5d	-0.014361468
254	0x3c391a7c	0.011297818
255	0xbd627117	-0.055283632

net_container.0.bias f4 [128]
0	0x3e4aec63	0.19816737
1	0xbd399b71	-0.045314256
2	0xbd60e421	-0.05490506
3	0x3bf2d6e6	0.007410872
4	0x3daeada0	0.0852921
5	0xbc82e2d9	-0.01597731
6	0x3db5c840	0.08876085
7	0x3c9ae60f	0.018908529
8	0x3db0214c	0.08600101
9	0x3d97ed9d	0.07418368
10	0xbd85071c	-0.06495497
11	0xbddaf3b0	-0.10691011
12	0x3c4c219b	0.012459184
13	0x3af146d7	0.0018407953
14	0x3e4e8d24	0.20171028
15	0xbdfec82a	-0.12440522
16	0x3e2d1a99	0.16904677
17	0xbdb56db0	-0.08858812
18	0x3e0847ff	0.13308714
19	0x3d7e54f4	0.062092736
20	0x3d111239	0.03541777
21	0x3cec80bc	0.02886998
22	0x3afa9b29	0.0019119728
23	0x3d9b709d	0.07589839
24	0x3d8117f8	0.063034
25	0x3da12c3f	0.078697674
26	0xbd449741	-0.04799581
27	0xbe241d0f	-0.1602671
28	0xbd81d11c	-0.063387126
29	0xbc1b23d0	-0.009468988
30	0xbd4536c4	-0.04814793
31	0x3ccaba80	0.024747133
32	0x3e0b7e48	0.13622391
33	0x3d68240c	0.056675002
34	0xbc87d4dc	-0.016580991
35	0xbe0f05d8	-0.13967073
36	0x3cbafd10	0.022825748
37	0x3bfa2c71	0.0076346924
38	0x3da45d23	0.08025577
39	0xbc5ef238	-0.013607554
40	0x3d034798	0.0320507
41	0x3e4e2588	0.20131505
42	0xbda475d0	-0.080302835
43	0xbddebc16	-0.10875718
44	0x3db43b66	0.08800392
45	0xbe08f879	-0.13376035
46	0xbcd403b9	-0.025880681
47	0xbd7f158e	-0.062276416
48	0x3e5fd0c6	0.21856984
49	0xbb7a1762	-0.003816091
50	0x3cd140a9	0.025543528
51	0x3d066514	0.03281124
52	0xbe07186a	-0.13192907
53	0xbd6b4696	-0.057440363
54	0xbbee082b	-0.0072641573
55	0x3da6cdfe	0.08144759
56	0x3d9e2119	0.077211566
57	0x3d8cb81a	0.06871052
58	0x3dc36e10	0.09542477
59	0x3e10a01e	0.1412358
60	0xbd8a9df3	-0.06768408
61	0x3a3d1e2c	0.0007214274
62	0x3e1755b7	0.14778791
63	0x3d8005fe	0.06251143
64	0x3d801f2b	0.06255945
65	0x3e3ee374	0.18641454
66	0x3d4bd614	0.049764708
67	0x3cb46955	0.022022882
68	0x3db7590a	0.0895253
69	0x3d17a961	0.037026767
70	0x3ddb54e3	0.1070955
71	0x3bc45dd8	0.0059926324
72	0x3e0648ed	0.13113756
73	0x3de7bd82	0.113154426
74	0x3d0aaade	0.033854358
75	0x3d218861	0.0394367
76	0x3e40fdfe	0.1884689
77	0xbc6cb0a2	-0.014446409
78	0x3e1fb093	0.15594701
79	0x3c9ccc92	0.019140515
80	0xbd5df1c7	-0.054185655
81	0xbd24a7c6	-0.040199064
82	0x3daf186f	0.08549582
83	0x3c734ae7	0.014849401
84	0x3e22795e	0.1586661
85	0x3e233942	0.15939811
86	0x3de84f09	0.113432
87	0x3e5c65ce	0.2152321
88	0x3db1d4ff	0.08683204
89	0x3e025674	0.12728292
90	0x3ab775ca	0.0013996896
91	0xbd0e077f	-0.034675118
92	0x3deb9599	0.11503143
93	0xbd215957	-0.03939184
94	0x3d2a1f9d	0.041534055
95	0xbbbc694b	-0.0057498566
96	0xbc28b0b1	-0.010296033
97	0xbd68a692	-0.05679948
98	0xbde8bbec	-0.11363968
99	0xbd142e27	-0.036176827
100	0x3e08d8e8	0.13363993
101	0x3d271f5e	0.0408014
102	0xbde6a040	-0.11261034
103	0xbbd665b5	-0.006542886
104	0x3cfcae26	0.03084476
105	0x3dd7d257	0.10538166
106	0x3d5b8828	0.053596646
107	0xbe0796be	-0.13241097
108	0xbc961def	-0.01832482
109	0xbdb08230	-0.08618581
110	0x3d817fdc	0.06323215
111	0x3d821782	0.0635214
112	0x3cd1c5ff	0.025607107
113	0xbe103b8a	-0.14085212
114	0x3e1888a9	0.14895882
115	0x3da2262f	0.07917439
116	0xbdf92982	-0.1216612
117	0x3dba1de7	0.09087735
118	0xbd93cb65	-0.07216529
119	0xbdb7dc30	-0.08977544
120	0x3d4143ec	0.047183916
121	0xbdf8e43c	-0.12152907
122	0x3e1f1ad2	0.15537575
123	0xbc8a4d72	-0.016882632
124	0x3e024ae5	0.12723882
125	0xbdfc8387	-0.12329774
126	0xbdd2b336	-0.10288088
127	0x3d7c7023	0.06163038

net_container.2.weight f4 [128, 128]
0	0xba413c96	-0.0007371394
1	0xbd391dcd	-0.045194436
2	0x3cf63a97	0.030057235
3	0xbdeed5db	-0.116618834
4	0xbcebbc71	-0.02877638
5	0x3d004e59	0.03132472
6	0x3bf9e8a0	0.007626608
7	0xbdcbeaaf	-0.09956872
8	0xbc039333	-0.0080307005
9	0x3daef290	0.08542359
10	0xbbfe82cb	-0.0077670566
11	0xbd9374d1	-0.07200015
12	0x3db3360e	0.087505445
13	0xbe0320f3	-0.12805538
14	0xbc9ea30f	-0.019364862
15	0x3d3c0bf9	0.045909856
16	0xbdfd49e6	-0.12367611
17	0x3d62c192	0.055360384
18	0xbd6c6420	-0.057712674
19	0x3e13fac4	0.14451128
20	0xbdaccada	-0.08437128
21	0xbcb44491	-0.022005351
22	0xbd1858e2	-0.03719414
23	0xbdb22ca6	-0.08699922
24	0xbd95dc68	-0.0731743
25	0xbce91ced	-0.028456176
26	0x3c5532a1	0.013012559
27	0x3d4ea513	0.050450396
28	0x3d0d03e4	0.03442754
29	0xbc302acd	-0.010752392
30	0x3c7871ba	0.015163833
31	0x3a09477c	0.0005236787
32	0xbd3cbf14	-0.046080664
33	0xbdae4fd9	-0.085113235
34	0xbd996b8c	-0.07491216
35	0x3d018617	0.03162202
36	0xbd059e30	-0.032621562
37	0xbc4e04b4	-0.0125743635
38	0x3d68f249	0.056871686
39	0x3cbc3f5c	0.02297943
40	0x3d73fc73	0.059566926
41	0x3d26d38d	0.040729094
42	0xbd892b1b	-0.06697675
43	0xbdb32ee8	-0.08749181
44	0x3c9e6171	0.019333573
45	0x3dbad06e	0.09121786
46	0xbe16f4f3	-0.14741878
47	0x3dcb1082	0.09915258
48	0x3d996ff6	0.07492058
49	0x3c78aa94	0.015177388
50	0x3bcddfe9	0.0062827957
51	0x3d93f832	0.07225074
52	0xbdc36f95	-0.09542767
53	0xbcfb17fa	-0.030651081
54	0x3b815949	0.003947411
55	0x3c5794b2	0.01315801
56	0xbdb7abe3	-0.08968332
57	0xbc748522	-0.014924319
58	0x3da4f153	0.080538414
59	0x3ce7b109	0.02828266
60	0x3dc225fa	0.094799
61	0x3cc5e456	0.02415673
62	0xbc2b77bc	-0.010465559
63	0xbcc1ba68	-0.023648456
64	0x3b8d0f13	0.0043047755
65	0xbdec0730	-0.115248084
66	0xbd48e351	-0.04904491
67	0xbddecb52	-0.10878624
68	0xbc167ec1	-0.009185494
69	0x3c02d23b	0.007984693
70	0x3c076982	0.008264901
71	0x3cebd668	0.02878876
72	0xbc78e6fa	-0.015191788
73	0xbd45e77c	-0.048316464
74	0xbe0152a7	-0.12629186
75	0x3d905042	0.07046558
76	0xbca9a094	-0.020706452
77	0xbe255a09	-0.16147627
78	0xbb58cf3d	-0.0033082508
79	0x3c7ba424	0.015358958
80	0x3e206383	0.1566296
81	0x3ca40efd	0.020026678
82	0x3d4d98b7	0.05019447
83	0x3dc35ed1	0.09539569
84	0xbe09cdf9	-0.13457479
85	0x3d58a8f6	0.05289551
86	0xbe0dd9ff	-0.1385269
87	0xbdf48eea	-0.11941321
88	0x3dd3ae0a	0.1033593
89	0xbd61806b	-0.05505411
90	0xbde2f073	-0.11081018
91	0x38b24168	8.499884e-05
92	0xbde0e9e2	-0.109821096
93	0xbc0d4f69	-0.00862489
94	0xbe55bd64	-0.20873028
95	0xbd9e9353	-0.077429436
96	0x3d9d37b0	0.07676637
97	0x3e101017	0.14068638
98	0x3d204846	0.039131425
99	0x3d5c3094	0.053757265
100	0x3d851d94	0.06499782
101	0x3b387362	0.0028144945
102	0xbd9ef849	-0.077622004
103	0x3ab5907f	0.0013852267
104	0x3d820100	0.06347847
105	0xbd16b5f1	-0.036794607
106	0xbd0a082d	-0.033699203
107	0x3bcd9bcf	0.0062746773
108	0x3e035600	0.12825775
109	0x3d04fd0b	0.032467883
110	0xbca3160d	-0.019907976
111	0xbe091541	-0.13387014
112	0x3cb617f3	0.022228217
113	0x3c3f95a9	0.011693397
114	0xbd940248	-0.072269976
115	0xbdc07c89	-0.09398753
116	0xbd887d96	-0.066645786
117	0xbdcebb8a	-0.10094364
118	0x3d27a7d7	0.04093155
119	0xbb78bce6	-0.003795439
120	0xbd64e4d1	-0.05588228
121	0xbd7ea16a	-0.062165655
122	0xbe080610	-0.13283563
123	0x3dbe7a9e	0.09300731
124	0x3d2b32f3	0.041796636
125	0xbcee8552	-0.029116306
126	0x3d50db52	0.05099041
127	0xbe2e11b2	-0.16998938
128	0x3ae15d55	0.0017193953
129	0x3d965116	0.07339685
130	0xbe072ecf	-0.1320145
131	0x3b619485	0.00344208
132	0x3dd9f2b9	0.10641999
133	0x3d1ec19b	0.038758855
134	0x3db4e0b3	0.088319205
135	0x3db0d052	0.08633484
136	0x3d6864a1	0.056736592
137	0xbd81c3e8	-0.06336194
138	0xbc4da654	-0.012551863
139	0x3d841f13	0.064512394
140	0xbe282802	-0.16421512
141	0x3dee3edb	0.116330825
142	0xbd8cdbb1	-0.0687784
143	0xbd46ad28	-0.04850498
144	0x3db98e44	0.09060338
145	0x3c752bde	0.014964072
146	0x3cfe05e2	0.031008665
147	0xbdaa0921	-0.083025225
148	0xbd0b015f	-0.033936854
149	0xbc4136da	-0.011792863
150	0x3ccad893	0.024761474
151	0xbcadae4a	-0.021201272
152	0xbc86ccfe	-0.01645517
153	0x3c96efed	0.018424952
154	0xbda3f414	-0.080055386
155	0xbc0c8eda	-0.00857898
156	0xbd2f51fa	-0.04280279
157	0xbcae33eb	-0.02126499
158	0xb8eebd72	-0.00011384011
159	0xbdcdf7cb	-0.100570284
160	0x3dc51165	0.09622458
161	0x3d8487fc	0.064712495
162	0xbc68183d	-0.014165935
163	0xbd4106b3	-0.04712553
164	0x3d670abb	0.056406718
165	0x3c4c0090	0.012451306
166	0xbd7a341b	-0.061084848
167	0xbdc63f99	-0.09680099
168	0x3d1bfe9c	0.03808461
169	0xbb81fd23	-0.003966944
170	0x3d63b8d0	0.055596173
171	0x3e102ab6	0.14078793
172	0x3d6651b8	0.056230277
173	0x3d942ec6	0.07235484
174	0x3dcbb36c	0.099463314
175	0x3d2541e0	0.040346026
176	0xbd29f5b0	-0.04149407
177	0xbc8e500d	-0.017372156
178	0xbb4a082e	-0.003082763
179	0xbe65ef9d	-0.22454686
180	0x3aafad53	0.0013403095
181	0xbe0f3ac7	-0.13987266
182	0x3d19e0b1	0.037567798
183	0xbd249218	-0.04017839
184	0xbd8bd15e	-0.06827043
185	0x3aa917bb	0.0012900749
186	0xbdaf5f9f	-0.0856316
187	0x3d83771f	0.06419205
188	0xbe1e202e	-0.15441963
189	0x3d23a674	0.039953664
190	0xbbc044c6	-0.0058675734
191	0x3e07364c	0.13204306
192	0xbcfbdc2a	-0.03074463
193	0xbdb9b771	-0.09068192
194	0xbc3bd9fd	-0.011465547
195	0xbd4fe543	-0.05075575
196	0xbd0c2667	-0.03421631
197	0xbd36c29c	-0.044619188
198	0x3ddad237	0.106846265
199	0x3d2c9a62	0.04213942
200	0xbb6e4169	-0.0036354905
201	0x3d786828	0.060646206
202	0xbd440fee	-0.047866754
203	0xbd2ba284	-0.041903034
204	0x3b84f3be	0.0040573766
205	0xbd1385b1	-0.03601617
206	0x3d2a4b83	0.04157592
207	0xbba3d428	-0.004999656
208	0xbd847278	-0.06467146
209	0xbde43791	-0.11143411
210	0x3b923eb0	0.0044630393
211	0xbd8fac54	-0.07015291
212	0x3d05c109	0.032654796
213	0x3d548c0b	0.051891368
214	0x3cb0ef8c	0.0215986
215	0x3bd7e40b	0.006588464
216	0x3c50ebc0	0.01275152
217	0xbd55fb0f	-0.05224138
218	0xbdb84c24	-0.08998898
219	0xbd11ea0d	-0.0356236
220	0x3d70b635	0.058767516
221	0x3cd73316	0.026269477
222	0x3d00be7e	0.031431668
223	0xbd3f6965	-0.04673137
224	0xbd022121	-0.031769875
225	0x3cf7965f	0.03022307
226	0x3d767e84	0.06017925
227	0x3d39a6dd	0.04532515
228	0xbe262e7d	-0.16228671
229	0xbd30a281	-0.043123726
230	0x3d5e0b8a	0.054210223
231	0x3de20aab	0.11037191
232	0xbdb9da26	-0.09074812
233	0xbc8bc3b7	-0.017061098
234	0xbc1dc7eb	-0.009630184
235	0xbc801733	-0.015636062
236	0xbd71495d	-0.058907855
237	0x3cd5932e	0.026071157
238	0x3c57dda2	0.0131754
239	0xbd5c4c8d	-0.053783942
240	0xbd86ec36	-0.065880224
241	0x3d54e328	0.051974446
242	0x3d81eae5	0.06343631
243	0x3c1d307d	0.00959408
244	0xbd5a32c8	-0.053271085
245	0x3c64f165	0.013973569
246	0x3d89a3f0	0.06720722
247	0x3d74acee	0.05973523
248	0x3be1b812	0.006888398
249	0xbcec3dd8	-0.028838083
250	0xbd9f9154	-0.07791391
251	0xbe071017	-0.13189732
252	0xbc9980d8	-0.018738195
253	0x3d916048	0.07098442
254	0x3dc89671	0.097943194
255	0x3bec7bbe	0.0072168997

net_container.2.bias f4 [128]
0	0x3c9d03fa	0.019166935
1	0xbe10f657	-0.14156471
2	0xbea3f9e6	-0.32026595
3	0xbc6f6c1b	-0.014613177
4	0xbe2710c2	-0.16314986
5	0x3cd0c063	0.025482362
6	0x3de4958b	0.111613356
7	0x3dd1bc73	0.10241022
8	0x3d8a1089	0.06741435
9	0xbdca1785	-0.09867767
10	0x3e3067ae	0.1722705
11	0xbdf426c4	-0.119214565
12	0x3d51175e	0.051047675
13	0xbd862e85	-0.06551842
14	0x3cc57ae3	0.024106449
15	0x3c4f6364	0.012657974
16	0xbdba76a3	-0.091046594
17	0x3c6c7050	0.014431074
18	0xbdbde7cc	-0.09272727
19	0x3d049ed6	0.03237804
20	0x3e6a276a	0.22866598
21	0xbd970dc1	-0.0737567
22	0x3c277733	0.01022129
23	0xbd60ca9d	-0.054880727
24	0xbd74f310	-0.059802115
25	0x3ba7c33a	0.0051197084
26	0x3d0723ea	0.032993235
27	0xbdffba4e	-0.12486707
28	0x3d002927	0.031289246
29	0xbdb53869	-0.0884865
30	0xbda93af4	-0.082631975
31	0xbd1341ea	-0.035951532
32	0x39934fbf	0.0002809744
33	0xbdec9c4c	-0.11553249
34	0x3d69dddb	0.057096343
35	0xbd733a5d	-0.05938183
36	0xbd87cc02	-0.06630708
37	0xbd2d8456	-0.042362534
38	0xbbe5b69f	-0.0070102955
39	0xbdcaf995	-0.09910885
40	0xbe0870d4	-0.1332429
41	0xbdaafa8e	-0.08348571
42	0xbde0c8a7	-0.109757714
43	0x3d9c2f7f	0.07626247
44	0x3e284945	0.164342
45	0x3dac1886	0.08403115
46	0x3adc9b14	0.0016830885
47	0xbdbd75c2	-0.09250976
48	0x3d1435f8	0.03618428
49	0xbdffbd3d	-0.12487266
50	0x3dcab5d1	0.0989796
51	0xbe6a848c	-0.22902125
52	0xbd1c5f43	-0.038176786
53	0x3dfa030c	0.122076124
54	0xbe44f269	-0.19233097
55	0xbdc5123b	-0.09622618
56	0x3d529a1c	0.0514165
57	0xbe46773e	-0.19381425
58	0x3c89fde4	0.016844697
59	0x3e645a4f	0.22300075
60	0xbe522039	-0.20520104
61	0xbdc3f7fe	-0.09568785
62	0xbe011b20	-0.12608004
63	0x3dcc8b2b	0.09987482
64	0xbc822a73	-0.015889382
65	0xbe60e79b	-0.2196335
66	0x3d6bb228	0.05754295
67	0xbd684dce	-0.056714825
68	0xbdab692f	-0.083696716
69	0x3d838b40	0.06423044
70	0xbd8fae94	-0.0701572
71	0xbe4782ec	-0.19483536
72	0xbc96b017	-0.018394513
73	0xbbd71549	-0.0065638167
74	0xbdb8a57e	-0.0901594
75	0x3cd28e02	0.02570248
76	0x3d9fa235	0.077946104
77	0xbd90e09a	-0.07074089
78	0xbce6371c	-0.02810245
79	0xbd753c0c	-0.05987172
80	0xbd248989	-0.040170226
81	0xbd9fa75a	-0.07795592
82	0x3d108d19	0.03529081
83	0xbd8c8ac9	-0.06862409
84	0xbdf552cb	-0.11978682
85	0xbda88021	-0.08227564
86	0x3c238878	0.009981267
87	0x3e035f73	0.1282938
88	0x3c85eb5a	0.016347576
89	0xbd906d62	-0.07052113
90	0xbe08b5a3	-0.13350539
91	0x3d55b91c	0.052178487
92	0xbe34c368	-0.17652667
93	0xbdacda69	-0.08440096
94	0xbdb72321	-0.08942247
95	0x3d40608e	0.04696708
96	0xbd093eb0	-0.03350705
97	0xbc8a9717	-0.016917748
98	0xbe6d50ab	-0.23175304
99	0x3d908d02	0.07058145
100	0xbe85bc1d	-0.26120082
101	0xbe273375	-0.16328223
102	0xbd918130	-0.07104719
103	0x3bfe01fe	0.0077517023
104	0xbd918676	-0.071057245
105	0xbd857b7d	-0.06517694
106	0xbd1a2ca2	-0.03764022
107	0x3d538e9a	0.051649667
108	0xbe517ccd	-0.20457764
109	0xbdac1ba7	-0.08403712
110	0x3d00a629	0.031408463
111	0xbc8abeae	-0.016936626
112	0xbe8e8878	-0.27838492
113	0x3d338105	0.043824214
114	0x3d79ef87	0.061019447
115	0xbc455b64	-0.012045715
116	0x3d7612d3	0.060076546
117	0x3cc4da14	0.024029769
118	0xbe25d783	-0.16195492
119	0xbcdebfa0	-0.027190983
120	0x3ddf9473	0.10916986
121	0xbe19e322	-0.1502805
122	0x3ce8dc4c	0.028425358
123	0xbd5acdf8	-0.053419083
124	0x3d86cb6d	0.06581769
125	0xbdeeaa71	-0.11653603
126	0xbdec6ec5	-0.11544565
127	0xbe00e834	-0.12588578

net_container.4.weight f4 [128, 128]
0	0xbd2cd4c6	-0.042195104
1	0x3e179c40	0.14805698
2	0xbd02d57e	-0.031941883
3	0xbd791203	-0.060808193
4	0xbd01582f	-0.03157824
5	0xbc7d6ced	-0.015467864
6	0x3d80286c	0.0625771
7	0x3cab36fa	0.020900238
8	0xbd4b2e1f	-0.04960453
9	0xbd8245cf	-0.06360971
10	0xbd97a051	-0.07403625
11	0xbd1b50f3	-0.037918996
12	0x3d9525ed	0.072826244
13	0xbcd3aa28	-0.025837973
14	0xbc2c347b	-0.010510559
15	0xbd3221c7	-0.043489244
16	0xbd4feeb9	-0.050764773
17	0xbcaf476a	-0.021396358
18	0xbdb06815	-0.08613602
19	0x3d107228	0.035265118
20	0xbdc4b026	-0.0960391
21	0xbdc741ae	-0.09729324
22	0x3d9d1e87	0.07671838
23	0xbd6672bc	-0.056261763
24	0x3c61c9a3	0.013780984
25	0x3d55a110	0.052155554
26	0xbcd57898	-0.02605848
27	0xbcaea7b3	-0.0213202
28	0x3c9be7a3	0.019031351
29	0x3d0f081e	0.03491985
30	0x3cf81f42	0.030288342
31	0x3dc8537b	0.09781548
32	0xbd40c656	-0.047064148
33	0x3bbda74a	0.0057877647
34	0xbd34a25d	-0.044100154
35	0xbdbaa026	-0.09112577
36	0x3c06732b	0.008206169
37	0xbd98397b	-0.074328385
38	0xbcc420fc	-0.02394151
39	0x3c93a81a	0.018024493
40	0xbd1ebc76	-0.03875395
41	0x3cdfeedd	0.027335579
42	0x3c6ae159	0.014335954
43	0x3d21a94e	0.039468102
44	0xbd8ad280	-0.06778431
45	0x3cdf63fd	0.027269358
46	0x3c9d2792	0.019183908
47	0x3dfecd4a	0.124414995
48	0x3cf1ef7d	0.029533142
49	0x3d2dd8f7	0.042443242
50	0x3d809559	0.06278486
51	0xbd32362b	-0.04350869
52	0x3d9da795	0.07697979
53	0xbd1f6e97	-0.038923826
54	0xbba0a53f	-0.0049025114
55	0xbd780cfd	-0.06055926
56	0x3d0c8138	0.03430292
57	0xbd734afd	-0.059397686
58	0x3c16fdb2	0.009215759
59	0xbd3a2fd9	-0.045455787
60	0x3d3a9f97	0.045562353
61	0xbc2a186a	-0.010381797
62	0x3c0e7162	0.008694025
63	0xbcb90759	-0.022586511
64	0xbd9c9a09	-0.076465674
65	0xbcca9b62	-0.024732295
66	0xbd450056	-0.048096023
67	0xbdc15d99	-0.094416805
68	0xbb17032d	-0.0023042664
69	0x3d338c37	0.04383489
70	0xbcb86073	-0.022506928
71	0x3e0f62dc	0.14002556
72	0x3dd595a7	0.104289345
73	0xbb1ee5e2	-0.0024245908
74	0xbd1f1192	-0.038835116
75	0xbd85dbea	-0.06536086
76	0x3d688819	0.056770418
77	0x3d58854e	0.052861504
78	0x3dcaec19	0.09908313
79	0x3c3aa3db	0.011391605
80	0x3da66a21	0.08125711
81	0x3ca25637	0.019816501
82	0xbc58d432	-0.013234185
83	0xbd9341cb	-0.071902834
84	0x3d14d356	0.03633436
85	0x3c8ea042	0.017410401
86	0xbd6782d1	-0.05652124
87	0x3cf05dbe	0.029341575
88	0x3cbdf948	0.023190156
89	0xbcbed4c9	-0.023294823
90	0x3da68b34	0.0813202
91	0xbe2f4a5d	-0.17118211
92	0x3db20fca	0.08694418
93	0xbdbf5ab5	-0.09343473
94	0xbd7b9472	-0.061420865
95	0xbce39bb3	-0.027784204
96	0xbd0a9be4	-0.033840075
97	0x3db27a01	0.08714677
98	0xbd02c787	-0.031928565
99	0x3dc85a6f	0.09782874
100	0x3dd06cfd	0.10177038
101	0xbc637ffc	-0.013885494
102	0x3d16c1ca	0.036805905
103	0x3cefe367	0.029283239
104	0xbcf0c4e2	-0.029390756
105	0x3cd24667	0.025668336
106	0x3cfce6e8	0.030871823
107	0x3b9e1b08	0.0048249997
108	0x3bc63224	0.0060484577
109	0xbdf17cfd	-0.11791418
110	0xbd32f212	-0.043687887
111	0x3b90d844	0.004420312
112	0xbdbf6cd0	-0.09346926
113	0x3d6b4262	0.057436354
114	0x3ce3085b	0.027713945
115	0x3d4cc46a	0.049992003
116	0xbdc9dfee	-0.09857164
117	0x3da7bbf4	0.08190146
118	0xbe09924d	-0.13434716
119	0xbd6f0eed	-0.058363844
120	0x3d264429	0.040592346
121	0xbd7d8334	-0.061892703
122	0xbd4151d4	-0.047197178
123	0x3e00ef59	0.12591304
124	0xbd3e401a	-0.04644785
125	0xbbdeb885	-0.006796899
126	0x3e3e7661	0.18599845
127	0xbc8ab0c3	-0.01692999
128	0x3e0b4836	0.13601765
129	0xbda71a2b	-0.08159288
130	0xbda720ed	-0.08160577
131	0x3d66885f	0.056282397
132	0x3da2a988	0.07942492
133	0xbd59f870	-0.053215444
134	0x3d5f53fc	0.054523453
135	0xbde2eb95	-0.1108009
136	0xbd2c15c1	-0.042012934
137	0xbd8acc15	-0.06777207
138	0x3df84979	0.12123389
139	0xbd91d8a4	-0.07121399
140	0x3a566350	0.0008178251
141	0x3d814230	0.063114524
142	0x3dec0908	0.1152516
143	0xbcb3ce5d	-0.021948988
144	0xbd78908b	-0.060684722
145	0xbdbc1a0c	-0.091846555
146	0xbd371c05	-0.044704456
147	0xbc1c9653	-0.009557324
148	0x3d45ea1b	0.048318963
149	0xbd15295f	-0.036416408
150	0x3ca0ff67	0.019653035
151	0x3d889c34	0.066704184
152	0x3c9b592c	0.018963419
153	0x3ba75142	0.0051061222
154	0x3c006ebd	0.007838902
155	0xbd813631	-0.06309164
156	0x3dcbe138	0.099550664
157	0xbd3b9654	-0.04579766
158	0x3d093ea5	0.033507008
159	0xbc30570f	-0.010762944
160	0x3d27bb8b	0.04095034
161	0x3dacab1c	0.08431074
162	0x3d3b4647	0.04572132
163	0x3d22f895	0.039787848
164	0x3ca8c8c3	0.020603543
165	0xbdb05d3c	-0.08611533
166	0x3cd7d1d8	0.026345178
167	0xbd1dfafd	-0.03856944
168	0x3cfad868	0.030620769
169	0xbdab2d8c	-0.08358297
170	0xbda5ea93	-0.08101382
171	0x3c40321f	0.0117307
172	0xbd6c584e	-0.0577014
173	0x3dfde6ba	0.12397523
174	0xbd2b7f74	-0.041869596
175	0x3db2d52a	0.08732064
176	0xbdaef0be	-0.08542012
177	0xbe191447	-0.14949141
178	0x3d0de786	0.034644626
179	0x3d04cadd	0.032420028
180	0xbde7cab0	-0.113179564
181	0x3df42e40	0.11922884
182	0xbdd360c3	-0.1032119
183	0xbdc7541d	-0.0973284
184	0x3d225eac	0.039641067
185	0xbd22d4b2	-0.039753623
186	0x3de11a19	0.10991306
187	0xbcf51b89	-0.029920356
188	0x3d0a06a0	0.033697724
189	0x3da189c7	0.07887607
190	0x3dc51098	0.09622306
191	0x3ae128c5	0.0017178288
192	0xbd6459c3	-0.055749666
193	0xbd826931	-0.0636772
194	0x3dab27b3	0.083571814
195	0x3cb07b9e	0.02154332
196	0xbbc89b94	-0.006122062
197	0x3c3da9ce	0.011576129
198	0xbd75dee5	-0.060027022
199	0xbc14430d	-0.009049189
200	0x3de99b53	0.11406579
201	0xbafe75ee	-0.0019413808
202	0x3dc6674b	0.0968767
203	0x3db6770a	0.08909424
204	0x3c2317b8	0.009954385
205	0xbd88c003	-0.06677248
206	0xbd8dc687	-0.06922632
207	0xbdb65ee8	-0.08904821
208	0xbdc1efe4	-0.09469584
209	0xbd0ca5a2	-0.034337647
210	0x3c05ff0c	0.008178484
211	0xbc4282cb	-0.011872004
212	0xbc0a329b	-0.008434917
213	0x3d19a87b	0.03751419
214	0xbe59df9a	-0.21276703
215	0xbd4b9316	-0.04970082
216	0x3d84af49	0.064787455
217	0xbda517e5	-0.08061198
218	0xbc915a14	-0.017743148
219	0xbd47e03d	-0.048797835
220	0xbdae4845	-0.08509878
221	0xbdb961fe	-0.09051894
222	0x3d976243	0.07391789
223	0x3c9fd416	0.01951031
224	0x3cfe74c1	0.031061532
225	0xbceb0e13	-0.028693235
226	0xbafd8c55	-0.001934419
227	0xbbb70335	-0.005585099
228	0x3d736175	0.059419114
229	0xbd36621a	-0.04452715
230	0xbc639bac	-0.013892096
231	0x3dba1a78	0.0908708
232	0x3d231d4c	0.03982286
233	0xbc1f7bbb	-0.0097340895
234	0xbd449589	-0.04799417
235	0x3d4ab0ba	0.049484946
236	0x3c9ce829	0.019153671
237	0xbd829241	-0.06375552
238	0xbd50c80b	-0.050972026
239	0xbd3e1587	-0.04640725
240	0xbd04801a	-0.03234873
241	0x3deab9ca	0.11461218
242	0x3d54e96e	0.05198043
243	0x3cdafd0e	0.026731994
244	0x3da4b256	0.080418274
245	0xbd3609b2	-0.04444284
246	0x3d8abdab	0.067744575
247	0x3db3cde6	0.087795064
248	0x3d66d0ef	0.0563516
249	0xbd2b819e	-0.04187166
250	0x3cba1d3d	0.02271902
251	0x3e015fe1	0.12634231
252	0x3af78eca	0.0018887159
253	0xbdcd25b5	-0.10016958
254	0x3d05fb4b	0.032710355
255	0x3ca9d3e2	0.020730916

net_container.4.bias f4 [128]
0	0xbde2f1ac	-0.110812515
1	0xbd099ad3	-0.033594918
2	0x3e5765d3	0.21034937
3	0xbe0d57e9	-0.13803066
4	0xbe0192b5	-0.1265362
5	0xbdde9524	-0.1086829
6	0xbe313694	-0.17305976
7	0xbdc13e96	-0.094357654
8	0xbe5de8c2	-0.21670821
9	0xbc5e65b4	-0.013574053
10	0x3d0c5467	0.03426018
11	0xbe13c979	-0.14432324
12	0x3c5c2c05	0.013438229
13	0xbd94b6a0	-0.072613955
14	0x3c9e4915	0.019321958
15	0x3d0b4b0f	0.03400713
16	0xbe07eae7	-0.13273202
17	0xbd53b38f	-0.051684912
18	0x3d9bc28b	0.076054655
19	0x3d037cb6	0.032101355
20	0xbd0113f8	-0.031513184
21	0x3b940123	0.004516737
22	0xbdcec63c	-0.10096404
23	0x3c38c645	0.01127774
24	0xbd8be391	-0.06830514
25	0xbd3143b6	-0.043277465
26	0x3da7e5f6	0.081981584
27	0x3ca9ed56	0.020743053
28	0xbdd82023	-0.105530046
29	0x3dcf54ce	0.10123597
30	0xbd47d5dc	-0.048787937
31	0x3d28ed7b	0.041242104
32	0x3c0138f7	0.007887117
33	0xbd1cb7eb	-0.038261335
34	0xbc0e857d	-0.008698818
35	0xbdca51d4	-0.09878889
36	0xbd6e44da	-0.05817113
37	0xbdb84500	-0.08997536
38	0xbcfd38f6	-0.03091095
39	0x3d1bf7d5	0.038078148
40	0x3b15108d	0.002274546
41	0xbd1903d2	-0.03735716
42	0x3d39b3ee	0.04533761
43	0xbdbb5824	-0.09147671
44	0xbd5a9512	-0.05336482
45	0x3d0fe335	0.03512879
46	0xbd86c4d8	-0.06580514
47	0x3da2a49d	0.07941554
48	0x3c8885c4	0.016665347
49	0x3d1c459a	0.038152315
50	0x3d8d87bd	0.06910656
51	0xbd125aea	-0.035731234
52	0xbd4a7f84	-0.049438015
53	0xbdb33adb	-0.0875146
54	0xbd42c21e	-0.047548406
55	0xbc1c9a61	-0.009558291
56	0x3e345d0a	0.17613617
57	0xbe192396	-0.14954981
58	0xbc6f20be	-0.014595209
59	0x3d3b4703	0.04572202
60	0x3caabc3b	0.020841708
61	0xbb99a431	-0.0046887626
62	0xbe0f3de8	-0.13988459
63	0xbd990df7	-0.07473367
64	0xbb9be15f	-0.004757091
65	0xbd114de6	-0.03547468
66	0xbde9d271	-0.11417092
67	0x3d7090b1	0.05873174
68	0xbd454395	-0.048160154
69	0xb98bde61	-0.0002667783
70	0x3d4810a4	0.048843995
71	0xbc26ae6d	-0.010173422
72	0x3e1138cc	0.14181823
73	0x3dc36667	0.09541016
74	0xbcc577c9	-0.02410497
75	0x3d2bb7f2	0.04192347
76	0x3c1aac0e	0.009440435
77	0x3dadabb1	0.08480013
78	0x3d1ff439	0.03905127
79	0xbd2e7639	-0.042593215
80	0x3e2031ee	0.15644047
81	0x3cd7e0bf	0.026352284
82	0xbd211112	-0.03932292
83	0x3c33ed89	0.010981926
84	0x3b0cecf4	0.002150354
85	0xbdb26865	-0.08711318
86	0xbd10ed65	-0.035382647
87	0xbe0421c3	-0.12903504
88	0x3bcbcd35	0.006219531
89	0xbe0bcd8c	-0.13652629
90	0xbdd0c4d0	-0.10193789
91	0xbe3fd789	-0.18734564
92	0xbdc5fdb7	-0.09667533
93	0xbd55d36c	-0.05220358
94	0x3de48a57	0.11159199
95	0xbdb07a64	-0.08617094
96	0xbd8f2080	-0.06988621
97	0xbd2e737a	-0.042590596
98	0x3d828e42	0.0637479
99	0x3d4e67d6	0.050391994
100	0xbe2a93a1	-0.16657878
101	0xbe1d6dcf	-0.1537392
102	0xbe6d8994	-0.23197013
103	0x3d44da3a	0.04805968
104	0x3dfecb53	0.12441125
105	0xbd6a9845	-0.05727412
106	0x3d648b93	0.05579717
107	0x3c158a4e	0.009127213
108	0xbe09bba1	-0.13450481
109	0xbc7d8a7b	-0.015474911
110	0x3b9fb91f	0.004874363
111	0x3d0d9424	0.034565106
112	0x3b9fbca3	0.004874782
113	0xbdd41166	-0.10354881
114	0x3de0713e	0.10959099
115	0x3c1cd057	0.009571156
116	0x3bb6b6be	0.005575984
117	0x3db397cb	0.087691866
118	0xbcabc4f3	-0.020967936
119	0x3d64feb1	0.055906955
120	0x3d87e8cd	0.066362
121	0x3d53a45e	0.051670425
122	0x3d63ee11	0.05564696
123	0x3b9c9fe7	0.004779804
124	0x3d871e72	0.06597604
125	0xbd9febf9	-0.0780868
126	0xbc036b2d	-0.008021158
127	0x3d4020fc	0.046906456

policy_layer.weight f4 [19, 128]
0	0xbd0a64c7	-0.033787515
1	0x3b83c840	0.0040216744
2	0xbd011d99	-0.031522367
3	0xbcf4a0e3	-0.029861873
4	0xbd592ea5	-0.053023
5	0x3d9a2bf2	0.07527913
6	0x3c10cdac	0.0088380985
7	0xbcf796df	-0.030223308
8	0x3cdf01c2	0.027222518
9	0x3daeeb63	0.0854099
10	0xbc6a677a	-0.014306897
11	0xbcde9a26	-0.027173113
12	0x3cfae9dd	0.030629093
13	0x3d050f96	0.032485567
14	0x3cabaa30	0.020955175
15	0x3c6d2ad1	0.01447554
16	0xbd123d80	-0.035703182
17	0xb865db92	-5.4802345e-05
18	0xbc5c440d	-0.013443959
19	0x3c9979f7	0.018734915
20	0x3c045473	0.008076775
21	0x3d00ef72	0.031478353
22	0x3d7e5064	0.062088385
23	0xbcf3573f	-0.029704688
24	0x3d0f4a11	0.034982745
25	0x3b218bce	0.002464998
26	0xbc2f8f7a	-0.01071536
27	0x3bcdb939	0.006278184
28	0x3cff230d	0.031144643
29	0x3b94a70e	0.004536516
30	0xbc682d5b	-0.01417097
31	0x3b04ce2c	0.002026449
32	0xbd333eb1	-0.04376096
33	0x3c2f27d7	0.010690651
34	0x3cc16440	0.023607373
35	0xbbe9a9f0	-0.007130854
36	0xbc6d58f8	-0.014486544
37	0x3bc377ec	0.0059652235
38	0xbcc2edab	-0.02379497
39	0x3bea8a48	0.0071575977
40	0xbc08c809	-0.008348473
41	0x3d439343	0.04774786
42	0xbcd1b62e	-0.025599565
43	0x3cc01736	0.023448568
44	0xbcf37688	-0.029719606
45	0xbde7bd9d	-0.11315463
46	0x3d84e1cf	0.06488382
47	0x3cb41c86	0.021986257
48	0xbc9e1d29	-0.019301014
49	0xbcd385de	-0.025820669
50	0xbd41cfa3	-0.04731716
51	0x3d454c3a	0.0481684
52	0x3cbca3a4	0.023027249
53	0x3c4c4919	0.0124686
54	0xbcca38d9	-0.02468531
55	0xbb06afe7	-0.0020551623
56	0x3c140e85	0.009036665
57	0x3d2c7c92	0.042110987
58	0x3d0240ad	0.03179996
59	0x3c8f9edf	0.01753181
60	0x3ca89f6f	0.020583836
61	0x3d5fbb78	0.054622144
62	0x3cf05bf0	0.029340714
63	0xbd7e47d0	-0.062080204
64	0x3ada163c	0.0016638706
65	0xbca31033	-0.019905185
66	0xbd237acc	-0.03991203
67	0x3d09b230	0.0336172
68	0xbd8ecf9e	-0.069731936
69	0xbc8361ac	-0.016037785
70	0xbd2f91f4	-0.0428638
71	0x3d52a480	0.05142641
72	0x3d4955ce	0.049154095
73	0xbcb079f2	-0.021542523
74	0x3c906c19	0.01762967
75	0x3c8ece91	0.017432483
76	0x3d48ae71	0.048994485
77	0xbcbd94d9	-0.023142265
78	0xba307875	-0.00067318167
79	0xbbd0e1eb	-0.006374588
80	0x3cb1c115	0.021698514
81	0xbccd6774	-0.025073744
82	0x3db9aa8d	0.09065733
83	0xbd172909	-0.03690437
84	0x3d82a6c4	0.06379464
85	0xbd123db7	-0.035703387
86	0xbb10f92f	-0.0022121181
87	0x3d2810e4	0.041031733
88	0x3bbbdf08	0.0057333745
89	0xbba2ed0b	-0.0049721054
90	0x3d89f133	0.06735458
91	0xbc8797ae	-0.016551819
92	0xbd29d427	-0.04146209
93	0x3d40867e	0.04700326
94	0xbcc26b5d	-0.023732835
95	0xbd47a3a5	-0.048740048
96	0x3d4e2a74	0.050333455
97	0x3d05ca0e	0.032663397
98	0x3bc50eaf	0.0060137133
99	0xbcbefc88	-0.023313776
100	0x3b91f03a	0.004453686
101	0x3cb5acec	0.022177182
102	0xbcdd1d82	-0.02699161
103	0xbd508cac	-0.050915405
104	0xbca944f5	-0.020662764
105	0xbc8dbe0e	-0.01730254
106	0x3d9c55e1	0.076335676
107	0x3d403bf0	0.04693216
108	0x3aa17945	0.0012319466
109	0xbd046ecf	-0.032332238
110	0x3b0ad61f	0.0021184755
111	0x3cf8318f	0.030297069
112	0xbc691076	-0.014225116
113	0x3d1c0335	0.038088996
114	0x3c7e54bf	0.015523135
115	0xbc9646ef	-0.01834437
116	0xbd82ee77	-0.0639314
117	0x3cfa2b89	0.030538337
118	0xbd6ceed3	-0.057844948
119	0xbb8db35c	-0.00432436
120	0x3d0cd9b1	0.034387294
121	0xbd25d26a	-0.04048387
122	0xbd844415	-0.06458298
123	0xbba71a8f	-0.0050996016
124	0x3b452677	0.0030082741
125	0xbd4c665b	-0.0499023
126	0xbc618479	-0.013764494
127	0xbcbcb628	-0.023036078
128	0xbd808a36	-0.06276362
129	0x3c2785c7	0.010224766
130	0x3cfcd702	0.030864242
131	0xbd88f73d	-0.06687782
132	0xbca0d570	-0.019633025
133	0x3d7026db	0.058630805
134	0x3c3b26b3	0.011422801
135	0xbc0a4b1f	-0.008440762
136	0xbd2d74e6	-0.04234781
137	0x3d24748e	0.040150218
138	0xbd148456	-0.036259018
139	0xbcc1e919	-0.02367072
140	0xbd3e7c98	-0.04650554
141	0xbd22916b	-0.039689463
142	0x3d521c92	0.051296778
143	0xbc9007da	-0.017581869
144	0xbc1944de	-0.009354798
145	0xbca51482	-0.02015138
146	0x3d4b3a63	0.04961623
147	0xbc44b903	-0.012007001
148	0x3cd94593	0.026522433
149	0xbaf8804b	-0.0018959133
150	0xbcf99d20	-0.03047043
151	0x3d30dc8f	0.04317909
152	0xbbb88e03	-0.0056321635
153	0x3d491d61	0.049100284
154	0x3da38804	0.07984927
155	0x3c7c8446	0.015412396
156	0x3cb9b04a	0.022667069
157	0xbca85a1d	-0.020550782
158	0x39c9a2c4	0.00038458977
159	0xbc156166	-0.00911746
160	0x3cfb307e	0.030662771
161	0x3d27d1cf	0.040971573
162	0x3c04900a	0.008090982
163	0xbca3dbf5	-0.020002345
164	0x3de6f80f	0.11277782
165	0xbc7f6570	-0.015588149
166	0x3d3819a6	0.044946335
167	0xbcbfdac0	-0.023419738
168	0xbc9039db	-0.017605713
169	0xbccca877	-0.024982674
170	0x3bdc1ce9	0.0067173135
171	0xbd22ddfd	-0.039762486
172	0xbb9d51de	-0.004801019
173	0x3d865caf	0.06560647
174	0xbd5aa99c	-0.05338441
175	0x3c930ea9	0.017951326
176	0x3c46a19d	0.012123493
177	0x3a1011ac	0.00054957974
178	0xbd471a98	-0.048609346
179	0xbd9b723a	-0.07590146
180	0x3d4e2c85	0.050335426
181	0x3cc45ce7	0.02397008
182	0x3d1269ef	0.035745557
183	0x3d382138	0.044953555
184	0xbd3a1a14	-0.045435026
185	0xbd15549f	-0.036457654
186	0xbd8827c1	-0.066482075
187	0x3d943b0f	0.07237827
188	0xbd891a51	-0.066944726
189	0x3c31f0c6	0.0108606275
190	0xbc00dc4c	-0.007865023
191	0x3c42a775	0.011880745
192	0xbd83093d	-0.063982464
193	0xbd477f2c	-0.048705265
194	0x3d477239	0.048692916
195	0x3bc19cdc	0.0059085917
196	0x3d2ec0ae	0.042664222
197	0x3d01176e	0.031516485
198	0xbc39e400	-0.011345863
199	0xbc040185	-0.008057003
200	0xbd46ab4b	-0.0485032
201	0xbc40b01d	-0.011760739
202	0xbb9f8e97	-0.004869293
203	0x3d01d4ff	0.03169727
204	0xbbfbbb60	-0.007682249
205	0x3c4731e5	0.012157892
206	0x3c9f1637	0.019419773
207	0xbd96fd36	-0.07372515
208	0x3cb3bf98	0.021941945
209	0x3d3f170e	0.046652846
210	0xba970668	-0.0011522295
211	0x3d10313e	0.03520321
212	0x3d120322	0.03564752
213	0x3ce8b026	0.028404307
214	0x3a05e5ce	0.0005107791
215	0x3c17faed	0.009276134
216	0x3c788891	0.015169279
217	0xbc3718a5	-0.011175309
218	0xbd1454ff	-0.03621387
219	0xbd89e95e	-0.067339644
220	0xbd7e6f97	-0.06211814
221	0xbc469226	-0.012119805
222	0xbccd0660	-0.025027454
223	0x3d835349	0.0641237
224	0x3d1e1fc6	0.03860452
225	0x3bbf871f	0.005844965
226	0x3c870be2	0.016485158
227	0xbc55c9bd	-0.013048586
228	0x3ac2430e	0.0014821009
229	0x3d6e401f	0.05816662
230	0xbcab226c	-0.020890437
231	0x3c227db4	0.009917665
232	0xbceb9d81	-0.028761627
233	0x3cff25f9	0.031146036
234	0xbc401b72	-0.0117252935
235	0x3beb35cc	0.007178044
236	0xbd5f8d4f	-0.05457812
237	0x3c726484	0.014794473
238	0x3ae7b85e	0.0017678847
239	0xbcfabecf	-0.030608563
240	0xbc0e122a	-0.008671323
241	0xbd3b0193	-0.0456558
242	0x3d22f427	0.039783623
243	0xbb0f0114	-0.002182071
244	0x3d6a6981	0.057229523
245	0xbb394e34	-0.0028275372
246	0xbd4cd795	-0.050010283
247	0xbce6fa57	-0.028195543
248	0xbcf6005d	-0.03002947
249	0x3ce31ac4	0.027722724
250	0x3cc40648	0.023928776
251	0x3cf4d234	0.029885389
252	0x3cac6a3b	0.021046748
253	0xb897aa91	-7.2320116e-05
254	0xbca5a7bf	-0.02022159
255	0x3cf1b513	0.029505288

policy_layer.bias f4 [19]
0	0xbc0f0389	-0.00872887
1	0x3aaa56f7	0.0012995888
2	0xbd1413ee	-0.03615182
3	0x3b90ca30	0.004418634
4	0xbc6c2f12	-0.014415519
5	0xbc81a424	-0.015825339
6	0xbd8b3e12	-0.06798948
7	0x3cf66f7d	0.030082459
8	0xbd8389ec	-0.06422791
9	0x3de25d34	0.11052933
10	0x3c8399e4	0.016064592
11	0x3d8ac68a	0.067761496
12	0x3d659d52	0.056058235
13	0x3ca54024	0.020172186
14	0xbd481b8a	-0.04885439
15	0xbe1bd0d8	-0.15216386
16	0xbe02f37b	-0.12788193
17	0x3cc984ff	0.02459955
18	0xbd58842c	-0.052860424

value_layer.weight f4 [1, 128]
0	0xbd9a3945	-0.075304545
1	0x3cacd43d	0.021097297
2	0x3e689177	0.2271174
3	0xbc93c779	-0.018039452
4	0xbdcb2c42	-0.09920551
5	0xbd168920	-0.036751866
6	0xbe33d2f6	-0.17560944
7	0xbb7767f9	-0.0037751182
8	0xbe7254a2	-0.23665097
9	0xbcedf39f	-0.029046832
10	0xbdc15be4	-0.09441355
11	0xbd8f6a5c	-0.07002708
12	0x3d782d45	0.060590047
13	0x3cf8459a	0.030306626
14	0x3bc7a6fc	0.006092904
15	0xbdc94528	-0.09827644
16	0xbaadee6d	-0.0013269909
17	0xbe0cd5fb	-0.13753502
18	0x3daf7a16	0.08568208
19	0x3d2f5864	0.042808905
20	0xbd0c0541	-0.034184698
21	0x3d147707	0.036246326
22	0x39ac7abf	0.0003289785
23	0x3da4302b	0.08017
24	0x3cda411f	0.02664238
25	0x3df55e48	0.11980873
26	0x3cbd6eb7	0.023124082
27	0xbd1ebb0a	-0.038752593
28	0xbd9af393	-0.07565989
29	0x3d84cf50	0.06484854
30	0x3e23e0e6	0.1600376
31	0x3dc3ca91	0.09560121
32	0x3ce662c0	0.02812326
33	0xbc906916	-0.017628234
34	0x3dc10ec7	0.09426647
35	0x3cdb84af	0.026796667
36	0xbd4e83fa	-0.05041883
37	0xbe113341	-0.14179708
38	0xbe1f8ccd	-0.15581055
39	0xbe0c3083	-0.13690381
40	0x3d03d731	0.032187644
41	0x3dc3bdd3	0.095576905
42	0xbc8c111e	-0.017098006
43	0xbda06ad3	-0.07832875
44	0x3e047e8c	0.12938899
45	0xbcf35c03	-0.02970696
46	0x3d8e2052	0.06939758
47	0x3dc692f1	0.096959956
48	0xbdec3b8f	-0.115347974
49	0x3d92d64e	0.071697816
50	0x3dd94184	0.10608199
51	0xbd860864	-0.06544569
52	0xbe0ac8b8	-0.1355313
53	0xbd710b82	-0.058848865
54	0xbda9f522	-0.082987085
55	0xbe00ca81	-0.12577249
56	0x3e1e9532	0.15486601
57	0xbdfe3b33	-0.12413635
58	0x3cd9f564	0.02660627
59	0xbc83c461	-0.016084852
60	0x3dbf8e49	0.093533106
61	0x3e1bf66f	0.15230726
62	0xbe3b9877	-0.1831988
63	0xbe125587	-0.14290439
64	0x3d181323	0.037127625
65	0xbb0b7f64	-0.0021285648
66	0x3c8b56e0	0.017009199
67	0xbd4afe57	-0.049558964
68	0xbcd14dbc	-0.025549762
69	0x3d795d91	0.060880248
70	0xbe014a91	-0.12626101
71	0xbbd813dc	-0.0065941643
72	0x3e1c70a3	0.15277342
73	0x3cf88c16	0.030340236
74	0x3d6369ba	0.05552075
75	0xbd4e9c8d	-0.050442267
76	0x3a82fa26	0.0009992763
77	0x3d6a54c4	0.057209745
78	0x3cdb7c9b	0.026792815
79	0xbc821918	-0.015881106
80	0x3dd98b83	0.10622313
81	0x3da5285c	0.080643386
82	0xbd79b1e4	-0.060960665
83	0x3d14c6f2	0.03632254
84	0x3d1cc211	0.038271014
85	0x3d39adb4	0.04533167
86	0xbd580005	-0.052734394
87	0xbdfd85e9	-0.12379057
88	0xbcc17584	-0.023615606
89	0xbe1a5cfe	-0.15074536
90	0xbd8cb702	-0.068708435
91	0xbe585baa	-0.21128717
92	0x3ca5e58c	0.020251058
93	0xbcccb909	-0.024990575
94	0x3dee43bf	0.11634015
95	0xbde374e0	-0.111062765
96	0xbdf84eb2	-0.12124385
97	0x3db73a2c	0.08946642
98	0x3d7864e6	0.0606431
99	0x3db8cd02	0.09023477
100	0xbcb21423	-0.021738118
101	0xbdfa40f9	-0.12219424
102	0xbe253ca0	-0.16136408
103	0x3c84711c	0.016167216
104	0x3e6b43d2	0.2297509
105	0xbe0e96e3	-0.13924746
106	0x3ccce28d	0.025010372
107	0x3d8a56c7	0.06754833
108	0xbe114ad3	-0.141887
109	0x3dd62b72	0.10457505
110	0xbc0f2081	-0.008735777
111	0x3d662a66	0.056192778
112	0x3d9f5c52	0.077812806
113	0x3d5deb6e	0.0541796
114	0x3d7bf27e	0.061510555
115	0xbe3ecf27	-0.1863371
116	0xbdbae3f4	-0.0912551
117	0x3df0b854	0.11753908
118	0x3ca0341e	0.019556101
119	0xbd82473d	-0.06361244
120	0x3e3a2eea	0.18181959
121	0x3d4f37b2	0.050590225
122	0x3d540379	0.051761124
123	0x3dc8c0fb	0.09802433
124	0x3e1ee262	0.15516046
125	0x3c0fd955	0.008779843
126	0xbdc1db1f	-0.09465622
127	0x3df15d3d	0.11785362

log_std_parameter f4 [19]
0	0xc0452aaf	-3.0807302
1	0xc047ba5b	-3.1207492
2	0xc0514bd6	-3.2702537
3	0xbfe3adb1	-1.7787381
4	0xbfe1cbe4	-1.7640347
5	0xbf591116	-0.84791696
6	0xbf5f3e7f	-0.87204736
7	0xc015413a	-2.332106
8	0xc0178c0e	-2.3679233
9	0xbf43dda3	-0.76510066
10	0xbf3a59d0	-0.72793293
11	0xbfc982ce	-1.5743043
12	0xbfda0b9e	-1.7034795
13	0xbf3c8ab0	-0.7364912
14	0xbf2a2a4c	-0.6647079
15	0xbf497017	-0.7868666
16	0xbf4394fc	-0.7639921
17	0xbf45a2fb	-0.77201813
18	0xbf4bd89c	-0.79627395

net_container.0.weight f4 [128, 69]
0	0xbe084f7d	-0.13311572
1	0x3e8f9ea1	0.28050712
2	0xbc1d1ae5	-0.009588932
3	0xbe3f554e	-0.18684885
4	0xbd0bb4b2	-0.03410787
5	0x3bd556e5	0.006510603
6	0xbddbe038	-0.10736126
7	0x3f0b9c02	0.54534924
8	0x3c33f910	0.010984674
9	0x3e39e361	0.18153144
10	0xbd7eda87	-0.062220123
11	0xbd9a7d86	-0.07543473
12	0x3e213243	0.1574183
13	0xbe4692b7	-0.19391905
14	0x3e92dae8	0.28682637
15	0xbe8286f4	-0.25493586
16	0xbc54eb6f	-0.012995585
17	0xbd663677	-0.056204285
18	0x3dc1cbd4	0.09462705
19	0x3dc3322d	0.09531055
20	0x3e0fc73b	0.14040844
21	0x3e987bba	0.29781896
22	0xbdfc00ee	-0.12304865
23	0xbe4c04f0	-0.19923759
24	0xbde6d73d	-0.11271522
25	0xbe899876	-0.2687413
26	0xbe2caba0	-0.16862345
27	0x3de17c4b	0.11010035
28	0x3ebd1dbc	0.36936748
29	0x3eaf358c	0.3422054
30	0xbe06bb06	-0.13157281
31	0xbd76a82a	-0.060218967
32	0x3d169517	0.036763277
33	0xbd8d8145	-0.06909422
34	0xbdd7a077	-0.10528653
35	0x3d86d72a	0.06584008
36	0xbd996f2b	-0.07491907
37	0xbcdd2b8e	-0.026998308
38	0xbde6c7d3	-0.11268582
39	0x3d1cb93c	0.03826259
40	0x3d80b4b9	0.0628447
41	0x3bceafee	0.0063075935
42	0x3cb99d16	0.022657912
43	0x3d636f8e	0.05552631
44	0x3d8c966c	0.06864628
45	0xbcf7d91b	-0.030254891
46	0xbdd33ee9	-0.103147335
47	0x3b974e0f	0.0046174596
48	0xbcee806c	-0.02911397
49	0x3c85c35c	0.016328506
50	0xbdc2132a	-0.094763115
51	0x3e43b570	0.19112182
52	0x3e598f60	0.212461
53	0xbdadf614	-0.08494201
54	0xbdc3a6f1	-0.09553326
55	0xbe07f71e	-0.13277861
56	0x3d968480	0.07349491
57	0xbe7229da	-0.23648778
58	0x3e0ea968	0.13931811
59	0x3dcd8862	0.100357786
60	0xbd5bfebf	-0.05370974
61	0xbe56f430	-0.20991588
62	0x3d8d9c09	0.06914527
63	0xbe0f399a	-0.13986817
64	0xbd8dcb05	-0.069234885
65	0xbc81a93a	-0.015827764
66	0xbd8b648e	-0.06806289
67	0x3cc31afa	0.023816574
68	0x3d47eee8	0.048811823
69	0xbdbc4d9e	-0.09194492
70	0xbec673b8	-0.3876016
71	0x3e454a89	0.19266714
72	0xbde0b648	-0.109722674
73	0xbde5c92e	-0.112200126
74	0x3db4ddac	0.08831343
75	0xbe77504e	-0.24151728
76	0xbde15045	-0.11001638
77	0x3d228767	0.03967991
78	0x3e5510da	0.2080721
79	0xbd28830b	-0.041140597
80	0xbe741f7e	-0.23840138
81	0x3e6c75ab	0.23091762
82	0x3dc8169e	0.09769939
83	0x3e2ec39b	0.17066805
84	0x3ed43029	0.41442993
85	0x3e38d35e	0.1804938
86	0xbcfa46d3	-0.03055135
87	0xbd87ff2e	-0.066404685
88	0x3e8458ce	0.25849003
89	0xbe394e91	-0.18096377
90	0xbdcd8e7d	-0.10036943
91	0x3e328a79	0.17435636
92	0xbce8c313	-0.028413331
93	0x3e5b65ce	0.21425554
94	0x3c95e047	0.01829542
95	0xbea62161	-0.3244734
96	0x3e40fdab	0.18846767
97	0x3d795690	0.060873568
98	0x3db68b5d	0.089133
99	0xbee8dfa3	-0.4548312
100	0x3c3216a4	0.010869656
101	0x3dbdecf6	0.09273712
102	0xb94a0df8	-0.00019269425
103	0xbcbc49b8	-0.02298437
104	0xbd796645	-0.060888547
105	0xbda00114	-0.07812706
106	0xbd4d9ce4	-0.05019845
107	0x3d024a93	0.0318094
108	0x3d448cc9	0.047985826
109	0x3b1c2018	0.002382284
110	0xbd4b5829	-0.049644623
111	0xbd7d679f	-0.0618664
112	0x3da95dfb	0.082698785
113	0x3c2109f3	0.009829032
114	0x3da777a7	0.08177119
115	0x3d3e283f	0.0464251
116	0x3d957927	0.072984986
117	0x3c2788d3	0.0102254925
118	0xbcd9ca12	-0.026585612
119	0x3cd5f89d	0.026119525
120	0xbd52ffa2	-0.05151332
121	0x3e7e2297	0.24817882
122	0x3e0a33e4	0.13496357
123	0x3e4b95d2	0.1988137
124	0xbd3a1d65	-0.04543819
125	0xbe2329d6	-0.15933928
126	0x3d4f7aa6	0.050654076
127	0x3d88490c	0.066545576
128	0x3ca2ed8d	0.019888664
129	0xbda572b7	-0.08078521
130	0x3d9a52c4	0.075353175
131	0xbe2adc0a	-0.166855
132	0xbe0e209b	-0.13879625
133	0xb9d0278d	-0.0003970232
134	0xbdce570b	-0.10075196
135	0xbe4818a0	-0.19540644
136	0xbdd2bf70	-0.1029042
137	0xbde3c63d	-0.11121795
138	0xbe8fdb44	-0.28096974
139	0x3e62b32a	0.22138658
140	0xbe0a9602	-0.13533786
141	0xbd0259f7	-0.03182408
142	0xbd9bbfe1	-0.07604957
143	0x3c66800b	0.014068614
144	0xbef59cf1	-0.479713
145	0x3f586e0a	0.84542906
146	0x3e2d920a	0.1695024
147	0x3eabea97	0.33577415
148	0x3d2a0e7d	0.041517723
149	0x3e886619	0.26640394
150	0xbeb79529	-0.35855988
151	0xbd87555e	-0.066080794
152	0x3d3536a9	0.04424158
153	0xbda8ffad	-0.08251891
154	0xbe48e7ce	-0.19619676
155	0xbe097153	-0.13422136
156	0xbddc8a93	-0.107686184
157	0xbf22d3d2	-0.6360446
158	0x3eb4d32f	0.3531737
159	0x3e197a7a	0.14988127
160	0xbd1edb0f	-0.03878313
161	0xbb61cc59	-0.0034454076
162	0x3d232f2a	0.0398399
163	0xbe4ea595	-0.20180352
164	0xbe0d7690	-0.13814759
165	0xbe4cb807	-0.19992076
166	0xbda17335	-0.07883302
167	0x3e480176	0.19531807
168	0x3dc1967c	0.09452531
169	0x3bc1ceb1	0.005914532
170	0xbcb85eb8	-0.022506103
171	0x3cda9c88	0.026685968
172	0x3d15f439	0.036609862
173	0xbd91d860	-0.071213484
174	0xbcd83e54	-0.026396908
175	0x3d8e58d8	0.06950539
176	0xbd9ba83e	-0.07600449
177	0x3cf9c12d	0.030487621
178	0xbd021723	-0.031760346
179	0xbc85d008	-0.016334549
180	0xbbdb4bb6	-0.006692375
181	0xbc2f4e59	-0.010699832
182	0x3d476e3d	0.048689116
183	0x3d976e62	0.07394101
184	0xbd8c326b	-0.06845554
185	0x3d2301f1	0.039796773
186	0xb8b1ae9a	-8.47254e-05
187	0xbc61912a	-0.01376752
188	0xbdd71689	-0.10502345
189	0x3dcfc0c0	0.10144186
190	0xbe0d4ddb	-0.13799231
191	0xbd79ea34	-0.06101437
192	0x3d4e045a	0.05029712
193	0x3e417ceb	0.18895309
194	0x3db4bb85	0.08824829
195	0xbda0b547	-0.07847076
196	0x3dc46a73	0.09590616
197	0x3d251120	0.040299535
198	0x3d35d27c	0.044390187
199	0xbe2cb126	-0.16864452
200	0x3e540b4a	0.20707431
201	0x3c33581a	0.010946298
202	0xbcca235f	-0.02467507
203	0x3c9ef743	0.019405013
204	0x3d91b536	0.07114641
205	0xbb46ff2e	-0.0030364501
206	0xbd8a232f	-0.06744992
207	0x3e731943	0.23740105
208	0xbec81879	-0.3908117
209	0xbe2ab34c	-0.16669959
210	0x3b649095	0.0034876217
211	0x3dd4f0d4	0.10397497
212	0xbc890098	-0.016723916
213	0x3f9ff827	1.2497605
214	0xbf5b5864	-0.8568175
215	0xbd0ea505	-0.034825344
216	0x3e893de8	0.26805043
217	0x3deee56c	0.116648525
218	0xbe830352	-0.2558847
219	0x3eecdd62	0.46262652
220	0xbe607865	-0.21920927
221	0x3ec09eb9	0.37621096
222	0x3f21861b	0.63095254
223	0x3d160c9d	0.036633123
224	0xbdffd611	-0.12492002
225	0xbd5d317c	-0.05400227
226	0x3e79a559	0.24379481
227	0x3f249d90	0.6430292
228	0xbe1860fe	-0.1488075
229	0xbdc856e9	-0.09782202
230	0x3e072f54	0.13201648
231	0x3e9db1e9	0.30799797
232	0xbd846f07	-0.06466489
233	0x3c2e7e63	0.01065025
234	0xbde61bfa	-0.11235805
235	0xbe89b72b	-0.2689756
236	0x3e14489a	0.1448082
237	0x3de6271a	0.11237927
238	0x3b13eb4c	0.0022570668
239	0x3bb61981	0.0055572395
240	0xbc2ad63e	-0.010427056
241	0x3c2383bd	0.009980139
242	0xbbb13d55	-0.0054089227
243	0x3cf85586	0.030314218
244	0x3d1b5c2d	0.037929703
245	0xbc93e5ab	-0.01805385
246	0x3befc4b0	0.007317148
247	0xbcaa079d	-0.020755583
248	0xbcc70951	-0.024296435
249	0x3ac18a00	0.0014765859
250	0x3b2eb0d9	0.0026655702
251	0x3d3a11fd	0.04542731
252	0x3d18ce9b	0.03730641
253	0xbc6b4c5d	-0.014361468
254	0x3c391a7c	0.011297818
255	0xbd627117	-0.055283632
