humanoidprac/humanoidprac/scripts/skrl/logs/skrl/h1_flat/joint_experiment_ver3/2025-09-18_09-05-47_ppo_torch/checkpoints/agent_9600.pt (torch, 549922 bytes, 40 tensors)

log_std_parameter f4 [19]
000000 ec 87 28 c0 5f 7f 2a c0 40 6f 34 c0 12 f2 c8 bf
       -2.633296 -2.664024 -2.8192902 -1.5698874
000010 45 f9 cb bf d3 79 3a bf 67 d7 2c bf 14 52 06 c0
       -1.5935446 -0.7284214 -0.6751618 -2.0987597
000020 7f 99 08 c0 a3 fd 34 bf 7f 03 26 bf 76 e1 af bf
       -2.1343687 -0.7069952 -0.64849085 -1.374068
000030 d4 ad be bf 81 e3 24 bf 6f 2e 1b bf a3 40 32 bf
       -1.4896798 -0.64409643 -0.6061773 -0.6962988
000040 98 8c 24 bf 23 9f 36 bf 73 a2 33 bf
       -0.6427703 -0.71336573 -0.7016975

net_container.0.weight f4 [128, 69]
000000 a4 3b 08 be 2b d3 98 3e 4e ad 85 3c d7 41 3b be
       -0.13304001 0.29848608 0.01631799 -0.18286835
000010 1f 0e 22 3b 3b b1 13 ba f5 aa d4 bd 85 fd 06 3f
       0.0024727655 -0.00056340144 -0.1038417 0.5273059
000020 f8 4d 76 3c e1 d4 33 3e 87 da 7e bd 9f d7 a2 bd
       0.015033238 0.17561676 -0.062220123 -0.07951283
000030 01 9d e8 3d e9 53 06 be 3a ce 85 3e 97 39 83 be
       0.11358071 -0.13117947 0.261339 -0.25629875
000040 7d d1 8e bc 06 90 60 bd a1 59 a7 3d 15 49 c0 3d
       -0.017433876 -0.05482485 0.08171392 0.09388939
000050 19 e7 0a 3e 00 d5 90 3e 6e 00 df bd a7 b1 48 be
       0.1356472 0.28287506 -0.10888754 -0.19599019
000060 66 d2 d4 bd dc 3b 86 be a7 47 2c be ce ed be 3d
       -0.10391693 -0.26217544 -0.16824208 0.093227014
000070 d6 57 a5 3e 9d 6f 9f 3e 9c eb ef bd 29 c7 86 bd
       0.32293576 0.31139842 -0.11714861 -0.065809555
000080 3c 07 34 3d f1 5f 81 bd 54 9a b2 bd d1 61 a0 3d
       0.04395221 -0.063171275 -0.08720842 0.07831157
000090 5a 5b be bd 01 46 ff bc 14 fe f5 bd 50 0e f0 3c
       -0.09294768 -0.03116131 -0.12011352 0.0293037
0000a0 40 62 91 3d c4 f7 5e 3b fa c1 00 3d e2 b6 6f 3d
       0.07098818 0.0034022192 0.03143499 0.05852402
0000b0 58 be 82 3d c2 40 c0 bc b8 d9 da bd d2 e1 a9 3c
       0.063839614 -0.023468379 -0.10686058 0.020737562
0000c0 f4 5f e8 bc 83 87 b5 3c d9 96 da bd 8d 68 44 3e
       -0.028366067 0.022159344 -0.10673303 0.19180508
0000d0 c6 c9 57 3e f3 e4 b5 bd 73 4b dd bd 3a a3 27 be
       0.21073064 -0.08881559 -0.108054064 -0.1637086
0000e0 1a 95 92 3d e8 01 74 be 66 25 0f 3e 51 5d c2 3d
       0.07157345 -0.23828852 0.1397911 0.09490455
0000f0 d2 01 5d bd c7 fb 43 be a4 52 80 3d be 04 11 be
       -0.053956814 -0.19139014 0.062657624 -0.14161965
000100 5f 40 78 bd 07 71 e2 bc f1 a3 a5 bd 50 8d 81 3b
       -0.060608264 -0.027641786 -0.0808791 0.0039536133
000110 40 d8 4d 3d c5 de ad bd 54 43 bf be 20 54 4a 3e
       0.05025506 -0.084897555 -0.37356055 0.19758654
000120 bf 49 c7 bd 02 6f 17 be 1d 95 e2 3d 72 e0 67 be
       -0.09730863 -0.1478844 0.11063597 -0.22644213
000130 57 3f 06 be 45 e1 2b 3d 15 a4 57 3e 0b 83 28 bd
       -0.131101 0.04196288 0.21058686 -0.041140597
000140 7f f5 45 be 1b 89 41 3e b0 0a 8c 3d 21 b1 3a 3e
       -0.1933193 0.18899958 0.06837976 0.18231632
000150 15 31 bd 3e 9a 82 37 3e 19 b9 73 bd 55 0e 5a bd
       0.3695151 0.17920914 -0.059502695 -0.053236324
000160 42 5d 81 3e 9f 8f 3a be e1 e7 0b be 6e 5e 2c 3e
       0.25266463 -0.1821885 -0.13662674 0.16832897
000170 bf ee 2c bd 27 a3 51 3e b0 cb d3 3b 6e 3f aa be
       -0.042219874 0.20472394 0.0064634904 -0.33251518
000180 fa ac 59 3e da d7 af 3d 39 de c6 3d e9 57 de be
       0.21257392 0.08586092 0.09710354 -0.43426445
000190 d5 27 be bb 99 07 be 3d 8d fb 03 3b 09 12 13 bd
       -0.005803088 0.09278793 0.002013895 -0.03590587
0001a0 bd ce 85 bd a8 1b 90 bd 5e 76 3f bd de 3f fa 3c
       -0.06533573 -0.07036525 -0.046743743 0.030548032
0001b0 98 83 34 3d f2 46 98 bb aa 94 5a bd 4b 1e 8f bd
       0.04407081 -0.004647129 -0.053364433 -0.069882
0001c0 fd df 9e 3d 49 9e cc 3c f3 c0 9e 3d 8c 69 91 3d
       0.07757566 0.02497782 0.07751646 0.071002096
0001d0 b9 ba 86 3d dd c4 93 ba 8e ac 0c bc aa 46 cd bc
       0.06578583 -0.001127388 -0.008586062 -0.02505811
0001e0 12 10 6f bd 47 02 7a 3e 65 e5 c1 3d d5 e2 2e 3e
       -0.058364935 0.24414931 0.09467582 0.17078717
0001f0 47 41 12 bd b9 0a 17 be a0 57 4a 3d 1f 94 81 3d
       -0.035706785 -0.14750184 0.049399972 0.0632708
000200 a0 63 50 3c 52 29 8c bd 2d 23 88 3d 77 ab 30 be
       0.012719065 -0.06843819 0.06647334 -0.17252909
000210 9d 46 1a be 9e 8e 97 bc 8c 36 d6 bd 27 5e 5b be
       -0.15066 -0.018500622 -0.10459623 -0.21422635
000220 b7 a5 db bd 0a 39 c7 bd 0d 42 8d be f6 5d 58 3e
       -0.10724967 -0.09727676 -0.27589455 0.21129593
000230 c9 c0 ff bd 4e e9 f4 bc 70 9a 86 bd 8b 94 67 bb
       -0.12487943 -0.029896405 -0.06572425 -0.0035336341
000240 4f 58 f5 be 54 30 57 3f 5b c6 2f 3e 23 7d a8 3e
       -0.47918937 0.8405812 0.1716551 0.32907972
000250 7d 0e 2a 3d 71 6b 8e 3e b5 cc aa be 19 0c 45 bd
       0.041517723 0.27816346 -0.33359304 -0.04810724
000260 59 06 04 3d 03 b3 99 bd 3a ec 60 be 04 9c cf bd
       0.032232616 -0.07504847 -0.21965113 -0.101371795
000270 35 fd bf bd a5 9e 22 bf af dd b1 3e bb 24 11 3e
       -0.09374467 -0.6352332 0.34739444 0.14174168
000280 5a 25 45 bd c2 27 74 3b c9 35 15 3d 6c 09 26 be
       -0.048131324 0.0037255143 0.036428247 -0.16214532
000290 6e f9 ee bd 66 76 0a be ee 74 95 bd bb 45 61 3e
       -0.11668669 -0.13521728 -0.07297693 0.21999256
0002a0 c0 84 e1 3d b2 02 63 3b df ba b5 bc b4 0d 01 3d
       0.11011648 0.0034639058 -0.022183834 0.03150721
0002b0 33 57 e8 3c 44 35 a1 bd ea a8 0a bd 5e 2e 81 3d
       0.028361892 -0.07871488 -0.033852495 0.06307672
0002c0 ff 12 a5 bd b4 90 bb 3c 3a be 98 bc cd cd b9 bc
       -0.08060264 0.022896148 -0.018645395 -0.022681141
0002d0 a8 b3 ca bb a4 58 83 bc 1f c0 52 3d c8 48 ab 3d
       -0.0061859675 -0.016033478 0.051452752 0.08363491
0002e0 68 7a a5 bd 3e 9c 83 3d 56 71 6d 3c ac 81 4d bb
       -0.08079988 0.06426285 0.014492353 -0.0031357808
0002f0 ff 5d f8 bd 85 e2 b5 3d e8 d5 ee bd 2d d9 b2 bc
       -0.12127303 0.08881096 -0.11661893 -0.021832073
000300 68 35 50 3d 45 43 3d 3e 23 44 b0 3d 60 6a a5 bd
       0.050832182 0.18482693 0.08606746 -0.0807693
000310 0b ce ca 3d f8 9a 3d 3d 19 31 1e 3d 68 c9 2f be
       0.09902581 0.046290368 0.038621042 -0.17166674
000320 9f 2f 4e 3e 1e 07 13 3d c6 63 37 bc e9 4c b4 3c
       0.20135354 0.03589546 -0.011193221 0.02200933
000330 23 ca 85 3d 49 43 a2 3c e2 5b 72 bd 92 c7 6c 3e
       0.06532695 0.019807475 -0.059169658 0.23123005
000340 f3 90 cf be a5 e4 34 be ce a0 6c 3c 43 a9 cc 3d
       -0.40540275 -0.17665346 0.014442636 0.099932216
000350 88 8f 0f bd d8 d3 9d 3f eb d7 5b bf e0 51 04 bd
       -0.03504899 1.2330275 -0.8587634 -0.032304645
000360 4f 4a 82 3e 6c e5 ee 3d 4f 9d 68 be 31 da e7 3e
       0.25447318 0.116648525 -0.22716258 0.45283654
000370 1c 8f 67 be d2 2c bb 3e c7 58 22 3f 6b b7 76 3c
       -0.22613186 0.36557633 0.63416713 0.015058379
000380 0a e6 e5 bd d1 af 11 bd 59 5e 80 3e 20 f9 26 3f
       -0.11225517 -0.035568062 0.25071982 0.65223885
000390 2e 9a 16 be 66 34 c8 bd 3c d1 05 3e be 81 9f 3e
       -0.14707252 -0.09775619 0.13068098 0.31153673
0003a0 f9 13 b4 bd 12 66 c2 bb 4b d2 0d be 01 29 93 be
       -0.08792872 -0.005932578 -0.13849752 -0.2874222
0003b0 ed 14 0e 3e a3 44 c2 3d e7 a5 25 3c 69 0a 87 ba
       0.1387517 0.09485748 0.010110355 -0.0010302785
0003c0 ee c4 58 bc a7 14 83 bb d5 2f 2a bc e9 db 13 3d
       -0.013230545 -0.0040002647 -0.010387381 0.036098395
0003d0 2d 27 1f 3d 3a dd 57 bc 06 3f 9d 3b 1c 4e 98 bc
       0.03885572 -0.013175303 0.0047987727 -0.018591933
0003e0 b2 6c 9e bc 47 5f 21 ba d9 b7 13 bb 4d 1b 4c 3d
       -0.01933894 -0.000615586 -0.0022540002 0.049830724
0003f0 7e d7 df 3c b1 bc f7 bb bc fd 27 3c df fd 65 bd
       0.027324434 -0.0075603356 0.010253366 -0.056150313

net_container.0.bias f4 [128]
000000 39 77 47 3e 94 8f 3e bd 1b f3 61 bd 2f d2 a7 3b
       0.19479074 -0.046523646 -0.055163484 0.0051214914
000010 8c 5d ab 3d c0 c2 66 bc ae 70 bc 3d c0 0f 89 3c
       0.08367452 -0.014084518 0.092011794 0.016731143
000020 c8 42 b7 3d 45 91 99 3d dd 17 7b bd eb f9 d4 bd
       0.089482844 0.07498411 -0.061302055 -0.103992306
000030 41 4d 45 3c 49 b5 4c bb ee 13 4f 3e 11 a4 f0 bd
       0.012042345 -0.0031235984 0.20222446 -0.11750043
000040 92 54 2b 3e 3a 07 c6 bd e0 2a 0c 3e aa 9f 7f 3d
       0.1673148 -0.09669347 0.1368823 0.062408127
000050 7d 94 14 3d 4b 1a 09 3d 33 4c 74 3b a4 24 a6 3d
       0.036274422 0.03347234 0.0037276864 0.081124574
000060 62 07 8b 3d fb 1a ac 3d f9 5f 2b bd e7 53 1f be
       0.067885175 0.084035836 -0.041839574 -0.1555935
000070 d1 da 8a bd cd dc 6a bc 19 a8 31 bd 2d 6c a3 3c
       -0.06780017 -0.01433487 -0.0433732 0.019949043
000080 b9 47 0e 3e 08 15 76 3d 16 35 c2 bc 9f e6 13 be
       0.13894548 0.06007865 -0.023706954 -0.14443444
000090 f7 82 d0 3c 01 2e 48 3c 30 ce a2 3d 17 56 86 bc
       0.025453074 0.012217999 0.079494834 -0.016398473
0000a0 d9 03 ee 3c 40 91 4e 3e 37 78 ad bd 9d b8 d8 bd
       0.02905457 0.20172596 -0.08470195 -0.10582087
0000b0 05 61 c0 3d bd 3d 02 be 5a 47 d3 bc 6e 0b 78 bd
       0.09393505 -0.12718864 -0.025790859 -0.060557775
0000c0 b3 0b 5d 3e 67 e5 27 ba ba 7f af 3c 8e 10 0d 3d
       0.21586494 -0.0006404728 0.02142321 0.034439616
0000d0 69 3b 06 be 59 22 78 bd 0a b3 a9 bb f8 39 a2 3d
       -0.131086 -0.06057963 -0.005178814 0.07921213
0000e0 5b 6e a8 3d a6 99 90 3d 11 4a c9 3d 10 50 0e 3e
       0.08224174 0.07060556 0.0982858 0.13897729
0000f0 d5 ef 99 bd 74 5d 1e 39 fa 19 1c 3e c7 0d 79 3d
       -0.075164475 0.00015102868 0.15244284 0.060804155
000100 1f 16 60 3d 57 ba 3a 3e cf f4 59 3d 60 ff b8 3c
       0.054708596 0.18235146 0.053211983 0.02258271
000110 92 12 b4 3d 70 9e 31 3d b6 28 d3 3d d8 99 5c bb
       0.087926045 0.04336399 0.10310499 -0.0033661034
000120 6d 12 09 3e 52 fc e6 3d ab 54 1b 3d 4d 5b 39 3d
       0.13385935 0.11278595 0.037922543 0.045253087
000130 dc 89 3e 3e d0 b8 29 bc 3b 4f 1d 3e 99 f7 96 3c
       0.18607277 -0.010359004 0.15362255 0.01842861
000140 6d 07 6b bd ad bd 08 bd 6c 2b ae 3d 25 29 95 3c
       -0.05738013 -0.033384014 0.08504376 0.018208096
000150 e3 e0 1f 3e e0 b5 24 3e 9f 73 f0 3d af a9 5e 3e
       0.15613131 0.16085005 0.11740803 0.21744417
000160 38 ea b1 3d d9 c5 00 3e b0 3c 16 ba 50 72 06 bd
       0.08687252 0.12575473 -0.0005731089 -0.03282386
000170 ab 5d f0 3d e0 31 3d bd 3f 77 2a 3d 80 7a 5a bb
       0.11736616 -0.046190143 0.04161763 -0.0033337176
000180 92 6c 10 bc 23 2e 5c bd ed ad eb bd 27 4e 30 bd
       -0.008814948 -0.053754937 -0.11507783 -0.043043282
000190 af 1a 0d 3e 16 ec 32 3d 5a b9 d8 bd d7 19 e9 bb
       0.1377971 0.04368218 -0.10582228 -0.007113676
0001a0 ae cb 11 3d cd ff da 3d db c9 51 3d 6a c9 00 be
       0.035594635 0.106933214 0.051217895 -0.12576833
0001b0 bc 68 a9 bc 7d fa ba bd 92 73 6b 3d ce 20 8b 3d
       -0.020679824 -0.09129808 0.057483263 0.067933664
0001c0 b1 6b 91 3c b3 7d 0c be 17 ae 15 3e f8 56 aa 3d
       0.017751547 -0.13719825 0.14617191 0.08317369
0001d0 0c e4 f8 bd 57 60 b2 3d 74 98 7e bd b4 fe af bd
       -0.121528715 0.087097816 -0.06215711 -0.08593503
0001e0 cd e6 3e 3d fa b6 ec bd ff 6c 22 3e 67 a1 b8 bc
       0.046606828 -0.115583375 0.15861891 -0.0225379
0001f0 33 b2 00 3e d2 e9 fd bd ab 8e d7 bd a5 f9 83 3d
       0.12567978 -0.12398113 -0.10525259 0.064441

net_container.2.weight f4 [128, 128]
000000 87 3c 9b ba f1 21 77 bd 0c 67 47 3d 64 96 e9 bd
       -0.00118436 -0.060335103 0.048682258 -0.11405638
000010 b0 44 fb bc 6b 3a 9c 3c f9 fe 5c 3c ee e3 cf bd
       -0.030672401 0.019070825 0.013488525 -0.10150896
000020 62 8b 60 ba dd 35 be 3d 74 ad 86 bb fd 4e 8d bd
       -0.00085656915 0.09287617 -0.0041100327 -0.068998314
000030 93 b3 ac 3d d4 b7 00 be 8d d3 03 bc b0 51 2d 3d
       0.084326886 -0.12570125 -0.008046043 0.04231423
000040 09 ff ef bd dd f7 5b 3d d8 0e 84 bd 5a 1b 15 3e
       -0.11718566 0.053703178 -0.06448144 0.14561215
000050 ac e7 ce bd 17 cf fe bc ee 1b 24 bd a2 e6 93 bd
       -0.10102782 -0.031104608 -0.0400657 -0.07221724
000060 bd 4b a1 bd b9 42 07 bd fa a4 3d 3c ab 31 4d 3d
       -0.07875774 -0.033022616 0.011574978 0.050096195
000070 aa b4 db 3c fb d0 dc bb aa c5 44 3c cf 5b aa ba
       0.026819546 -0.0067387796 0.012010017 -0.0012997332
000080 b0 5f 2f bd 0e 20 bd bd 52 a7 a3 bd 38 b6 aa 3c
       -0.042815864 -0.092346296 -0.07990898 0.020838842
000090 6f a3 27 bd e9 26 9d 3b e5 05 7d 3d 1a 2c c6 3c
       -0.040927347 0.004795898 0.0617732 0.024190951
0000a0 e1 2f 55 3d ad 04 1a 3d f8 ce 81 bd 9e e6 a0 bd
       0.052047614 0.037602115 -0.06338304 -0.07856487
0000b0 82 d1 bc 3c 55 f1 d3 3d eb 80 1f be 38 a6 c5 3d
       0.02304912 0.10348765 -0.15576522 0.09650844
0000c0 90 0f 9b 3d 0c a5 0a 3d b6 06 cb 3b e1 f6 68 3d
       0.07571328 0.033848807 0.0061958684 0.056876067
0000d0 d3 62 b0 bd 0f 37 fb bc 03 26 61 bc 84 11 86 3c
       -0.08612599 -0.030665902 -0.013741973 0.016365774
0000e0 bd d7 b5 bd 51 53 87 bc e0 95 a3 3d 11 0b 9a 3c
       -0.088790394 -0.01651922 0.07987571 0.018804105
0000f0 5c c0 c6 3d 8d b2 f3 3c 80 81 8f bc 5f a7 cf bc
       0.097046584 0.029748226 -0.017517805 -0.025348363
000100 ea 28 e5 ba 47 69 d0 bd 9f e7 55 bd ff 8e d4 bd
       -0.0017483507 -0.1017633 -0.052222844 -0.10378837
000110 4f 27 93 bb 6e ff 85 3c 3f f8 32 bc 87 3f dd 3c
       -0.00449077 0.01635715 -0.010923444 0.027007831
000120 0f 56 36 bc b8 1d 49 bd 14 be 03 be 1c 1b 8e 3d
       -0.011128916 -0.049100608 -0.12865478 0.069387645
000130 f1 4e 0c bc 42 25 29 be 9e 65 ad bb c5 bf 58 3c
       -0.008563743 -0.16518119 -0.0052916547 0.013229315
000140 02 39 24 3e 6a d9 1a 3d 4f 4b 29 3d ad fb b5 3d
       0.16037372 0.037805 0.041331585 0.08885894
000150 e9 a9 f7 bd ec d0 7d 3d 77 6a 0b be 60 da f1 bd
       -0.12092955 0.06196682 -0.13614832 -0.1180923
000160 28 f7 d8 3d a6 01 5a bd 7c 85 e1 bd a6 9b ff bb
       0.10594016 -0.05322423 -0.11011788 -0.007800537
000170 85 6e d9 bd c1 20 b2 bb 42 c8 47 be 7c 32 a3 bd
       -0.10616783 -0.0054360335 -0.19509986 -0.079686135
000180 d0 2a 92 3d 37 89 23 3e 18 66 28 3d 9f 44 40 3d
       0.07137072 0.15970312 0.04111299 0.046940442
000190 d9 a4 84 3d 32 c5 36 3b 91 f4 94 bd 6d 15 cb 3b
       0.06476755 0.0027888534 -0.0727321 0.0061976225
0001a0 32 55 8d 3d c6 85 21 bd c4 df 66 bc e4 a8 1b 3b
       0.06901015 -0.039434217 -0.014091436 0.002375179
0001b0 c5 cf 15 3e 93 7a 2d 3d fc 6a 85 bc d5 5c 07 be
       0.14630039 0.042353224 -0.016286366 -0.13219006
0001c0 19 35 a6 3c ad 4c 35 3c 23 b2 98 bd 43 34 c7 bd
       0.02028899 0.011065644 -0.07455852 -0.09726765
0001d0 8d 87 8d bd 06 10 d3 bd 19 94 20 3d d1 c5 a9 bb
       -0.0691062 -0.103057906 0.039203737 -0.0051810523
0001e0 a5 7a 45 bd 0f d0 46 bd 11 89 0d be cb 12 a2 3d
       -0.048212666 -0.048538264 -0.13821818 0.07913741
0001f0 38 67 2b 3d 56 00 94 bc 5c e6 10 3d 7e ae 30 be
       0.041846484 -0.018066566 0.035375938 -0.17254063
000200 3b 28 d5 3b 54 27 9c 3d 98 23 19 be 71 d6 49 bb
       0.00650504 0.07624689 -0.14954984 -0.0030797983
000210 3d 61 ca 3d 46 e3 2d 3d e2 a6 b9 3d 9a 14 bd 3d
       0.09881828 0.042453073 0.090650335 0.09232445
000220 e1 20 6d 3d 4d ef 89 bd 8b 1b 36 bc ef dc 3a 3d
       0.057892684 -0.06735096 -0.011114965 0.045620855
000230 0d 7f 1f be c5 ff f1 3d 98 c2 96 bd 32 b3 36 bd
       -0.1557581 0.11816362 -0.073613346 -0.044604488
000240 09 9c a5 3d bd 60 f8 3b 08 ca 0d 3d 60 de 98 bd
       0.08086402 0.0075798915 0.0346165 -0.0746429
000250 25 88 49 bc 9e b8 b7 bc 30 af ae 3c 92 0f 04 bd
       -0.012300526 -0.0224269 0.02132377 -0.03224141
000260 ca 43 c0 bc 1a ee b2 3c 23 85 a0 bd 8b 1e a4 bc
       -0.023469824 0.021842051 -0.07837894 -0.020034095
000270 fa 69 36 bd 64 30 4d bc b1 69 02 bc a2 6f dc bd
       -0.04453466 -0.012523744 -0.007959769 -0.1076348
000280 77 e1 b6 3d 2f b8 af 3d 0e 5c 10 bc dd d5 45 bd
       0.08929723 0.08580052 -0.00881101 -0.04829966
000290 ae 53 8d 3d 0b 3d bc bb b2 9e 56 bd 94 0b d8 bd
       0.06900726 -0.0057445816 -0.052397437 -0.10549083
0002a0 ad a3 0f 3d d6 e8 55 bb d0 6f 57 3d 49 4d 09 3e
       0.035068203 -0.0032640002 0.052596867 0.13408388
0002b0 81 44 46 3d 62 18 79 3d ab e0 bb 3d d1 3d 2d 3d
       0.048405174 0.06081427 0.091737114 0.04229528
0002c0 1d 22 17 bd dd 50 ff bb c1 d0 54 bc 6c a6 57 be
       -0.036897767 -0.007791622 -0.012989224 -0.21059579
0002d0 43 3c 08 bc 4d 11 14 be c3 a5 10 3d 2a fb 60 bd
       -0.008315149 -0.14459725 0.035314333 -0.05492703
0002e0 05 e5 87 bd ab 23 08 3c 07 f8 a8 bd 74 ab 8e 3d
       -0.06635479 0.008309285 -0.082504325 0.06966296
0002f0 ef a6 1d be 2e 9e 0c 3d 7d 88 5a bc 11 4b d9 3d
       -0.15395711 0.03433054 -0.013338205 0.10610021
000300 dc 9b 37 bd 37 75 c9 bd 1d 5d 5a bc ba 1d 36 bd
       -0.044826373 -0.0983681 -0.013327864 -0.044461943
000310 15 30 f3 bc d6 36 cf bc 4d a6 fc 3d 75 e3 30 3d
       -0.029686013 -0.025294703 0.12336407 0.04318567
000320 6c f2 cf bc a0 2e 8d 3d 95 fe 82 bd 4c b0 39 bd
       -0.02538415 0.06893659 -0.06396214 -0.045334145
000330 2e 8e 90 ba e0 b6 59 bd c7 28 fb 3c a9 34 c8 bc
       -0.0011028701 -0.05315292 0.030659093 -0.024439173
000340 da bd 8d bd df 92 de bd a8 40 d6 3c 9f 01 94 bd
       -0.06920977 -0.10867857 0.026153877 -0.07226872
000350 f8 59 7b 3c 05 f4 4e 3d e5 9f b0 3c df c3 7a 3c
       0.015341274 0.050525684 0.021560619 0.015305488
000360 78 6f 59 3c 7d 00 85 bd 92 e2 c9 bd 25 76 38 bc
       0.013271205 -0.06494234 -0.09857668 -0.011258637
000370 b1 a9 60 3d 8c 35 2c 3d 03 8a 0a 3d e6 83 94 bc
       0.05484933 0.042043254 0.033823024 -0.0181293
000380 1a 37 ec bc 2e 14 fb 3c 5a fb 59 3d b7 e7 87 3d
       -0.028834868 0.03064927 0.053218223 0.06635993
000390 ba a0 1f be 20 a2 30 bd f2 a2 49 3d 8a 17 d3 3d
       -0.15588656 -0.043123364 0.049227662 0.10307224
0003a0 10 7d c4 bd 42 ea 13 bc 23 23 b9 bc b5 4c 5a ba
       -0.09594166 -0.009028019 -0.022599762 -0.000832747
0003b0 78 69 2d bd 35 05 ad 3c 28 41 4b 3c 3b 71 61 bd
       -0.04233691 0.021120647 0.012405671 -0.055039626
0003c0 f3 c6 9a bd 03 49 85 3d 7c 5b 95 3d 2f 4f 2d 3c
       -0.07557478 0.065080665 0.0729284 0.010577961
0003d0 34 4f 5d bd 62 5b 81 3c 2f a9 88 3d a2 60 68 3d
       -0.054030612 0.015790645 0.06672894 0.05673278
0003e0 d1 6f 4f 3c 8b a4 09 bd 59 87 ce bd dc 81 e3 bd
       0.012660936 -0.033604186 -0.10084409 -0.11108753
0003f0 7a ef 3c bc b6 6a 5c 3d da d8 e1 3d 21 47 78 3b
       -0.011531705 0.053812705 0.11027689 0.0037884193

net_container.2.bias f4 [128]
000000 e2 8a ac 3c b2 64 12 be 3e 6c a3 be d8 44 3f bc
       0.021062318 -0.14296225 -0.3191852 -0.0116741285
000010 7c 56 28 be cd 2e b1 3c 03 ea e6 3d 1c 4f d4 3d
       -0.16439241 0.021628762 0.11275103 0.103666514
000020 be 7b 8b 3d 4c 1e cb bd 4e b9 31 3e 88 15 eb bd
       0.06810711 -0.09917888 0.17355844 -0.11478716
000030 47 e7 5a 3d ea af 83 bd 05 05 df 3c 1b 98 2d 3c
       0.05344322 -0.06430037 0.027224073 0.010595347
000040 ac 05 bd bd 48 49 c1 3c 89 bc c1 bd 55 44 09 3d
       -0.092295974 0.023594514 -0.09459788 0.033512432
000050 fd ef 6c 3e c5 ce 87 bd 23 00 7d 3b 27 f7 4e bd
       0.23138423 -0.06631235 0.0038604818 -0.05052867
000060 d1 55 6e bd 01 80 01 3c 68 34 04 3d b7 2c 01 be
       -0.05818731 0.007904054 0.03227654 -0.12614714
000070 d4 d7 19 3d a1 d1 b3 bd fa 40 b9 bd 86 e7 1c bd
       0.037559345 -0.08780218 -0.090455964 -0.038306735
000080 5b d1 a5 b8 8b 2e ef bd 47 24 76 3d be b3 73 bd
       -7.9068086e-05 -0.11678799 0.06009319 -0.059497587
000090 1f 73 88 bd 8b 95 43 bd 81 fd 23 bc 61 fd c9 bd
       -0.066625826 -0.047750037 -0.0100091705 -0.09862781
0000a0 b4 38 0b be 17 71 ad bd 30 23 e4 bd ba 04 98 3d
       -0.1359585 -0.08468836 -0.11139524 0.074227765
0000b0 40 05 27 3e e8 eb ac 3d 18 72 0b 3b e4 33 b4 bd
       0.16310596 0.08443433 0.0021277722 -0.0879896
0000c0 2f c4 13 3d f5 1f fd bd 65 d3 ca 3d 7e d8 64 be
       0.036075767 -0.12359611 0.099036016 -0.2234821
0000d0 38 1a 10 bd 7c f1 fe 3d c2 d7 41 be 96 ef bc bd
       -0.035181254 0.12448403 -0.18929961 -0.09225385
0000e0 59 fa 53 3d d2 58 44 be 38 54 8f 3c 56 58 64 3e
       0.051752422 -0.19174507 0.017496213 0.22299322
0000f0 b1 8c 51 be 3f 19 ca bd 2b 3e 04 be 49 e7 c5 3d
       -0.20463826 -0.098680966 -0.1291434 0.09663255
000100 59 1d 8d bc 0b a1 5e be 99 93 6d 3d 3c 77 6c bd
       -0.017225908 -0.2174112 0.05800209 -0.0577309
000110 34 35 a2 bd b3 20 8a 3d 88 8c 8e bd 7d 88 46 be
       -0.07920304 0.06744518 -0.06960398 -0.19388004
000120 ff 92 95 bc 4c 20 1c bc 81 71 b0 bd 98 d4 d4 3c
       -0.01825857 -0.009529185 -0.08615399 0.025980279
000130 be 4d 99 3d 9f c8 84 bd 59 2d c1 bc 26 4f 46 bd
       0.07485531 -0.06483578 -0.023581194 -0.048415326
000140 15 bd 1e bd f1 a4 9d bd e5 3b 0f 3d f1 b8 8e bd
       -0.03875454 -0.07697476 0.03496923 -0.069688685
000150 a5 b2 f5 bd b4 11 a2 bd ca 64 b7 3b 79 38 04 3e
       -0.11996964 -0.07913533 0.005596732 0.12912168
000160 84 a7 58 3c 8d a6 8c bd ee ec 07 be 65 4f 53 3d
       0.013223533 -0.068677045 -0.13273975 0.05158939
000170 1f 39 2f be 44 6f a7 bd ba 11 a9 bd 73 60 3c 3d
       -0.17111634 -0.08175519 -0.08255334 0.04599042
000180 74 cf 14 bd 09 41 bd bc 0e 56 6a be 73 1a 8b 3d
       -0.036330655 -0.0231023 -0.2288439 0.06792154
000190 79 d6 85 be af 58 16 be ce 4a 8e bd f2 2b 06 3c
       -0.26140192 -0.14682268 -0.069478616 0.008189188
0001a0 d0 9a 9b bd 7c 66 7d bd 4c 4c 0b bd 38 1a 6d 3d
       -0.075978875 -0.061865315 -0.03400831 0.057886332
0001b0 35 3f 53 be 49 a7 a0 bd 26 16 10 3d 9a 65 7e bc
       -0.2062958 -0.07844407 0.035177372 -0.015527153
0001c0 b6 a2 8e be 8d 64 21 3d cf e8 75 3d d6 f4 90 bc
       -0.27858514 0.039402533 0.060036477 -0.017694872
0001d0 28 c1 79 3d b3 ce a4 3c 5f 48 23 be bd 6c e4 bc
       0.060975224 0.020118093 -0.15945576 -0.027883882
0001e0 68 d4 e3 3d d5 e6 12 be 6d cc 03 3d 36 69 60 bd
       0.11124498 -0.14345868 0.032177377 -0.054787837
0001f0 d6 e9 8e 3d b1 fe ed bd ba 62 ec bd 1a a6 ff bd
       0.069781944 -0.11620844 -0.11542268 -0.12482853

net_container.4.weight f4 [128, 128]
000000 3e ac db bc 03 b9 1d 3e 15 3e d4 bc bf 22 95 bd
       -0.02681553 0.15402608 -0.02590851 -0.07282018
000010 69 09 ca bc fb e3 ca bc d4 92 6e 3d c7 7c c9 3c
       -0.02466269 -0.024766913 0.058245495 0.024595631
000020 68 31 6c bd af b1 55 bd 37 32 9a bd 9a 67 f7 bc
       -0.057664305 -0.052171405 -0.07529109 -0.030200768
000030 12 4b 9e 3d 16 9a 86 bc b0 a0 c2 bc 57 f8 26 bd
       0.07729162 -0.016430896 -0.023758262 -0.04076418
000040 74 1d 2a bd c9 d7 49 bc c3 d3 aa bd c5 0a 2d 3d
       -0.041531995 -0.012319514 -0.083411716 0.0422466
000050 68 38 cd bd d5 50 d8 bd 07 29 a3 3d e1 8b 76 bd
       -0.10020524 -0.105622925 0.0796681 -0.060191993
000060 55 76 c6 3c bb 6a 3e 3d cc 18 f5 bc c1 e5 5e bc
       0.024226347 0.046488505 -0.02991905 -0.013604582
000070 12 96 bd 3c 19 52 44 3d af f4 f9 3c 83 94 c7 3d
       0.023142848 0.047929857 0.030512182 0.09745123
000080 3e 54 23 bd 49 41 4d 3c f7 29 41 bd 5e f5 d8 bd
       -0.03987526 0.012527772 -0.04715916 -0.10593675
000090 87 2a 47 3c 15 b0 77 bd f7 53 f7 bc 64 f8 0d 3d
       0.012156135 -0.06047066 -0.030191405 0.034660712
0000a0 23 5a 18 bd 21 0c 32 3d 0a d3 a3 3c c6 2c 09 3d
       -0.037195336 0.0434686 0.019998092 0.033489965
0000b0 c2 9a 8c bd e0 3e f3 3c 36 4b 92 3c c3 e1 04 3e
       -0.06865455 0.029693067 0.017858129 0.12976746
0000c0 d6 db d7 3c c2 d0 0d 3d d5 4d 87 3d 9e 05 26 bd
       0.026349943 0.034622915 0.06606642 -0.0405327
0000d0 cc 1b 9c 3d 30 c9 32 bd bf 49 95 ba 27 bd 5d bd
       0.07622489 -0.0436489 -0.0011389776 -0.054135468
0000e0 aa 3f 0a 3d fd d7 4f bd 1d 5e 2c 3c 18 8d 35 bd
       0.03375212 -0.05074309 0.010520485 -0.04432401
0000f0 db 07 51 3d 9b 59 5b bb 89 f4 77 3c 12 15 d6 bc
       0.051032882 -0.0033470157 0.015133985 -0.026133094
000100 20 77 7b bd 21 a7 9b bc a8 b9 50 bd 29 a1 a7 bd
       -0.061392903 -0.019000592 -0.050958306 -0.08185036
000110 83 4e ad 39 64 ea 1c 3d b8 93 f5 bb b1 95 10 3e
       0.00033055627 0.03830947 -0.007494416 0.14119603
000120 e2 c2 db 3d 0a c6 62 3b c1 1b 37 bd 87 7f 89 bd
       0.1073053 0.0034602904 -0.044704203 -0.06713777
000130 ff de 5e 3d 9c 32 67 3d d2 85 be 3d f3 3e f7 3b
       0.054411884 0.05644475 0.09302868 0.007545346
000140 05 52 9a 3d 2e cd f8 3c 50 12 15 bc ee bc 88 bd
       0.07535175 0.030371275 -0.009098604 -0.066766605
000150 ca 09 2c 3d 71 de 99 3c f3 3f 6b bd a0 20 c9 3c
       0.042001523 0.018782826 -0.057434034 0.02455169
000160 84 63 db 3c f4 61 a2 bc 40 11 aa 3d cd 8f 2f be
       0.026780851 -0.019822098 0.083040714 -0.171447
000170 e9 cf cf 3d 0f 86 a9 bd 9f da 75 bd 1d ef 27 bd
       0.101470776 -0.08277523 -0.060022946 -0.04099952
000180 aa de 8a bc 10 2f ac 3d 11 bb e2 bc bd 64 be 3d
       -0.016951878 0.08407414 -0.02767709 0.09296558
000190 63 a1 db 3d 3f 16 33 bc 23 92 2e 3d 3b f6 23 3d
       0.107241414 -0.010930597 0.042619836 0.040029746
0001a0 50 38 35 bc a4 05 dc 3c 34 10 ff 3c 41 75 7f 3a
       -0.011060789 0.026858158 0.031135656 0.000974495
0001b0 1d 68 0d 3c 3b 19 ea bd 99 f2 03 bd 64 01 fe 3b
       0.00863078 -0.114305936 -0.03221378 0.0077516306
0001c0 ef 93 b5 bd 1e 53 55 3d 8f 31 82 3c 23 da 56 3d
       -0.08866107 0.05208122 0.015892772 0.052454125
0001d0 e0 e7 aa bd f2 58 ba 3d 11 e7 01 be 6d b5 4a bd
       -0.08345008 0.09098996 -0.12685801 -0.049489427
0001e0 61 da de 3c d4 27 8b bd 58 c1 3d bd a0 21 e2 3d
       0.02720374 -0.06794706 -0.046326965 0.1104157
0001f0 ff 7c 59 bd a6 bc 71 3c 34 05 43 3e 16 5d 40 3b
       -0.05309772 0.01475445 0.19044954 0.0029352359
000200 d8 02 0d 3e e8 11 99 bd 67 5f a6 bd de c2 3e 3d
       0.13770616 -0.074741185 -0.08123665 0.04657256
000210 51 d8 a1 3d dd b4 79 bd 72 75 32 3d eb 14 ca bd
       0.07902587 -0.0609635 0.043569036 -0.09867271
000220 6b ed 1c bd 6e 9b 7e bd 74 91 ff 3d 15 c1 73 bd
       -0.038312357 -0.062159948 0.12478915 -0.05951031
000230 92 cd 44 3c 60 ef 63 3d 70 4a ea 3d 2e b5 f2 bc
       0.012011902 0.055648208 0.11439979 -0.029627409
000240 d3 4c 4d bd 79 fc c6 bd c1 50 44 bd dc 94 8d bc
       -0.050122093 -0.09716124 -0.047928575 -0.017282896
000250 ab 03 02 3d 87 a4 11 bd c1 11 83 3c ec 48 84 3d
       0.03174178 -0.035557296 0.015999677 0.06459221
000260 7c 0b 03 3d c0 0e 8d 3c dd 22 c2 3c 06 10 65 bd
       0.031993374 0.017218947 0.023698265 -0.055923484
000270 31 61 d8 3d 38 85 59 bd 6b 67 f7 3c df 5e b0 bb
       0.10565413 -0.053105563 0.03020068 -0.0053824033
000280 65 93 1e 3d 91 60 b1 3d ea bf 2e 3d 68 3b e7 3c
       0.038714785 0.08660997 0.042663492 0.02822657
000290 89 06 a0 3c d1 f7 ad bd d6 d8 a6 3c a3 c6 0d bd
       0.019534366 -0.08494533 0.020367067 -0.034613263
0002a0 b3 44 fb 3c a6 64 a5 bd 65 07 b1 bd 5e 52 a1 3c
       0.030672407 -0.08075838 -0.086439885 0.019692596
0002b0 97 f5 8d bd 27 ac 01 3e 71 67 35 bd ae 83 c4 3d
       -0.06931608 0.12663327 -0.044288103 0.095954284
0002c0 e5 a7 b0 bd 53 89 18 be f2 2f c8 3c a3 b7 19 3d
       -0.08625773 -0.14896135 0.024436925 0.037528645
0002d0 60 9c ef bd 3d 32 eb 3d 69 08 bb bd 1d ec a6 bd
       -0.11699748 0.114841916 -0.091324635 -0.08150504
0002e0 c3 5b 1c 3d 7f 62 26 bd d3 16 cf 3d 86 ae a1 bc
       0.03817345 -0.040621277 0.10111775 -0.01973654
0002f0 df 0c fe 3c 9d 70 a9 3d 08 ec c8 3d 29 4a db 3a
       0.031011997 0.082734324 0.098106444 0.0016730475
000300 ab 46 7b bd 6a cb 7b bd ad 9a a3 3d f8 97 33 3d
       -0.06134669 -0.061473288 0.079884864 0.0438461
000310 14 aa 1d 3c b0 6e 1e 3c 90 ca 8c bd c5 25 82 bb
       0.009623069 0.009669945 -0.06874573 -0.0039717876
000320 12 d8 f9 3d 27 97 6c 3b 83 6e b0 3d 2f f4 ac 3d
       0.12199415 0.0036100836 0.086148284 0.08445012
000330 66 5e 07 3c 7f df 58 bd 37 4a 8c bd f5 a7 ba bd
       0.008262252 -0.052947517 -0.06850093 -0.091140665
000340 a7 19 8c bd 44 04 1b bd 13 a6 80 bb c6 e3 fe ba
       -0.0684083 -0.037845865 -0.0039260476 -0.0019446544
000350 c8 ca 12 bc 08 e2 0d 3d 23 5a 55 be 96 0c 53 bd
       -0.00895948 0.03463939 -0.20835166 -0.051525675
000360 6a 28 81 3d 44 3c bc bd b8 1b 31 bc f1 2d 50 bd
       0.063065365 -0.09191182 -0.010809831 -0.050825063
000370 2b 15 9a bd 2d 98 66 bd c7 a5 92 3d 66 5d 8c 3c
       -0.07523569 -0.05629747 0.07160526 0.01713438
000380 3e b6 02 3d ef 04 e3 bc ed 01 51 3c a9 8d 74 3b
       0.03191208 -0.027712313 0.012756807 0.0037315881
000390 63 ad 86 3d 30 aa 1f bd e6 9f 30 bc 53 14 ae 3d
       0.0657604 -0.038980663 -0.01078031 0.0849997
0003a0 25 a0 e3 3c 8c a6 87 bb 82 60 10 bd f5 6f f7 3c
       0.027786324 -0.004139727 -0.035248287 0.030204752
0003b0 71 c2 a7 3c 23 a8 5f bd 9c bc 21 bd 20 31 4c bd
       0.02047846 -0.054603707 -0.039486513 -0.049851537
0003c0 90 ea f1 bc 87 b6 d5 3d 1e 1c 8e 3d a4 80 fb 3c
       -0.029530793 0.10435205 0.06938957 0.030700989
0003d0 d9 62 8b 3d da 7b 48 bd 84 20 a6 3d fb 4c ac 3d
       0.06805963 -0.04894624 0.081116706 0.0841312
0003e0 c0 fa 62 3d b1 38 fa bc 15 48 1b 3d 88 fc 06 3e
       0.055414915 -0.03054461 0.03791054 0.1318227
0003f0 56 2d 8d 3c 66 3e bb bd 79 87 08 3d 0e e8 15 3d
       0.017233532 -0.09142761 0.03333232 0.036598258

net_container.4.bias f4 [128]
000000 e1 cc ef bd 23 75 1a bd 6e 1c 58 3e cb db 0c be
       -0.117089994 -0.037709367 0.21104595 -0.1375572
000010 8d e2 fe bd 07 8e e3 bd 73 c0 2f be 44 fe b8 bd
       -0.12445555 -0.11111074 -0.17163257 -0.09032872
000020 43 e8 5f be 3a 0d 5d bc ae 83 26 3d ff 77 12 be
       -0.21865945 -0.013491923 0.040652923 -0.14303587
000030 56 24 3c 3c 41 a9 9a bd 91 52 b3 3c aa a7 19 3d
       0.011483273 -0.07551814 0.021889957 0.037513413
000040 d8 07 0b be e0 d3 37 bd dc d1 97 3d 38 45 07 3d
       -0.13577211 -0.044879794 0.074130744 0.033024997
000050 a2 ea 1a bd 52 cc 07 3c ea 08 d3 bd 55 fe 51 3c
       -0.03782142 0.00828846 -0.103044346 0.012816985
000060 88 f0 98 bd 22 b9 30 bd 10 3a a6 3d 42 97 be 3c
       -0.07467753 -0.043145306 0.08116543 0.023265485
000070 b7 66 d2 bd de 71 c9 3d d5 88 42 bd 3a f9 43 3d
       -0.102734976 0.098361716 -0.047493774 0.047845103
000080 08 35 e1 3b a8 14 1b bd 4b 2f b1 bb 34 8c c8 bd
       0.006872777 -0.037861496 -0.005407249 -0.097923666
000090 be 12 6b bd 2c 7c b5 bd da 9b fb bc 9a f5 1a 3d
       -0.05739092 -0.088615745 -0.030713964 0.03783188
0000a0 f9 45 e0 39 2a 6c 24 bd 21 86 3d 3d 1c 4b bc bd
       0.00042776743 -0.040142216 0.046270493 -0.091940135
0000b0 b0 bf 4b bd 3c 55 0f 3d 63 44 8a bd b3 98 9d 3d
       -0.049743354 0.034993395 -0.06751325 0.07695141
0000c0 32 bc 99 3c 04 8f 17 3d f5 1b 8a 3d e1 b2 1a bd
       0.018766496 0.037001625 0.06743614 -0.03776825
0000d0 49 c6 44 bd c1 b0 b2 bd 22 23 4a bd a8 32 fa bb
       -0.048040662 -0.087251194 -0.04934991 -0.007635433
0000e0 08 9b 31 3e 00 a1 18 be 6b 6d 5e bc 9e 1f 3a 3d
       0.17344296 -0.14905167 -0.013575892 0.04544031
0000f0 4b 3d 9c 3c c1 91 8c bb d6 65 0b be 0c 70 9c bd
       0.019072196 -0.004289836 -0.13613066 -0.07638559
000100 1a 2c db bb 6e 2c 26 bd 68 06 e4 bd db f8 7f 3d
       -0.006688607 -0.040569715 -0.111340344 0.062493186
000110 ed 08 31 bd 58 10 91 b8 2e 1c 31 3d ed 5f 86 bc
       -0.043221403 -6.917183e-05 0.043239765 -0.016403163
000120 29 c4 0d 3e bf 93 c4 3d e2 5c b3 bc 7c fe 30 3d
       0.1384436 0.09598493 -0.021894876 0.043211445
000130 48 07 2a 3c 4b 33 a8 3d 39 60 24 3d 20 60 30 bd
       0.010377713 0.08212908 0.040130828 -0.043060422
000140 a2 d0 1c 3e 29 da f4 3c db a3 12 bd fa 66 41 3c
       0.15313962 0.029889183 -0.035800796 0.011804337
000150 36 b1 98 3b cc 2d ac bd cf b9 03 bd 7a 64 02 be
       0.004659797 -0.084071726 -0.032159623 -0.12733641
000160 5f d3 11 3c 77 11 0b be 91 cc cf bd 7d 81 3e be
       0.008900492 -0.13580881 -0.1014644 -0.18604083
000170 6b 7d c8 bd 08 20 45 bd a6 0c e5 3d 33 4e b6 bd
       -0.097895466 -0.04812625 0.11184053 -0.08901634
000180 36 00 90 bd 2d 69 32 bd 8f fc 71 3d a0 c1 4b 3d
       -0.0703129 -0.043557335 0.05907875 0.049745202
000190 8c 4e 2c be 2f d7 1a be af fa 6c be f9 9c 4a 3d
       -0.16826838 -0.15121149 -0.23142503 0.049466107
0001a0 02 19 ff 3d 7f 2c 5c bd 5e eb 73 3d f9 7e 05 3c
       0.12455942 -0.053753372 0.059550636 0.008147948
0001b0 c0 cc 07 be 5e 63 96 bc 88 cc 01 3c 90 b2 0a 3d
       -0.132617 -0.018357929 0.007922299 0.033861697
0001c0 f0 36 3e b8 f4 87 cf bd 88 db e5 3d b6 70 44 3c
       -4.5350695e-05 -0.10133353 0.11223513 0.011989763
0001d0 01 70 d5 3b 00 bb b0 3d a4 a8 be bc 5e 09 62 3d
       0.006513596 0.086294174 -0.023273773 0.055184714
0001e0 2f ab 83 3d b5 00 58 3d b7 b7 65 3d 83 bf ac 3b
       0.06429135 0.05273505 0.056083407 0.0052718534
0001f0 59 db 8e 3d 80 14 9a bd 0c b1 5e bb 1b 74 42 3d
       0.06975431 -0.07523441 -0.003398004 0.047474008

policy_layer.weight f4 [19, 128]
000000 9e 10 0f bd 4d 64 e5 3b 21 e7 0a bd cd fa e9 bc
       -0.034927957 0.007000482 -0.033911828 -0.028561974
000010 ec fe 5a bd 5c 25 9b 3d 57 bc f0 3b 58 a7 e2 bc
       -0.05346577 0.07575485 0.0073466706 -0.027667686
000020 4e df f9 3c a8 f3 b3 3d 6d 0a 5d bc fa 52 d6 bc
       0.030501988 0.08786708 -0.013491255 -0.026162613
000030 fa cc 14 3d ee 22 0e 3d 2a 0e 9c 3c 48 76 75 3c
       0.036328293 0.03470128 0.019049723 0.014981814
000040 51 c8 33 bd 04 65 a4 ba 99 24 a4 bc 89 25 9f 3c
       -0.04389221 -0.0012542312 -0.020036982 0.019427078
000050 43 3f 91 3c 2a c3 ee 3c ea 7a 78 3d 87 2c 03 bd
       0.01773036 0.029145796 0.060664095 -0.032024886
000060 db 95 f6 3c f1 4b 39 ba 2e ed 4b bc 2b 55 7f 3a
       0.030100754 -0.0007068506 -0.012446685 0.0009740169
000070 34 60 e0 3c b6 ab 43 3c bb 32 98 bc db 18 43 3a
       0.027389623 0.011942795 -0.018578878 0.00074423634
000080 08 83 33 bd e6 cf 6e 3c 7d 71 c3 3c 3a f8 25 bc
       -0.043826133 0.014575934 0.023857826 -0.010129983
000090 c1 e1 8c bc bb 88 f6 3b c4 bc bc bc b1 11 3a 3c
       -0.017197492 0.0075236238 -0.02303923 0.011356757
0000a0 34 01 b1 bb 51 b9 42 3d c8 e3 1e bd c3 de dd 3c
       -0.0054017548 0.047540013 -0.038791448 0.02708376
0000b0 58 3f 22 bd 20 54 eb bd bd 77 7e 3d f7 07 c7 3c
       -0.03961119 -0.11490655 0.06212591 0.02429579
0000c0 cd fe af bc c3 4a f7 bc 73 08 4a bd 19 26 4b 3d
       -0.021483803 -0.030187016 -0.049324464 0.04959688
0000d0 cf ec b5 3c c8 dd 22 3c 7b c0 c0 bc 3a ef 69 bb
       0.022207646 0.009940572 -0.023529282 -0.0035695569
0000e0 32 2b 0a 3c c0 0b 28 3d 9a 0f 06 3d e8 b1 9f 3c
       0.00843315 0.04102683 0.032729723 0.019494012
0000f0 86 28 85 3c e5 50 62 3d ff 7b fc 3c 08 d2 7a bd
       0.016254675 0.05525293 0.030820845 -0.061235458
000100 9c e8 9b 3b cf cd 97 bc e5 5d 37 bd 70 e8 34 3d
       0.004757954 -0.018530754 -0.04476728 0.044166982
000110 97 cb 89 bd f9 a8 13 bc 22 e4 24 bd da 85 47 3d
       -0.06728285 -0.009012454 -0.040256627 0.048711635
000120 0c ec 4e 3d b2 a4 be bc 51 4f a8 3c 93 a8 ac 3c
       0.05051808 -0.023271892 0.020545634 0.021076476
000130 8c 86 53 3d 06 42 ef bc 7f 55 d5 3a 8e ff f5 bb
       0.051641986 -0.029206287 0.001627609 -0.007507271
000140 ee 8f ce 3c d4 90 dd bc ca 2a c3 3d ae f0 20 bd
       0.025215115 -0.027046598 0.09529646 -0.03929203
000150 59 e8 7c 3d 35 bb 14 bd 62 c7 dd ba 8f 03 33 3d
       0.06174502 -0.036311347 -0.0016920383 0.043704566
000160 6d 86 c6 3b 02 21 ad bb 08 04 89 3d 48 e1 6b bc
       0.0060585053 -0.005283476 0.06690222 -0.014396973
000170 2f 17 2a bd 7f 29 3b 3d 79 cd d7 bc 17 a5 50 bd
       -0.041526016 0.04569387 -0.026343094 -0.050938692
000180 12 8b 73 3d 96 9f 00 3d 55 70 82 b9 39 0f d7 bc
       0.0594588 0.031402193 -0.00024879226 -0.026252376
000190 d8 10 a3 3a b5 c4 b8 3c 90 cb d8 bc 38 fc 56 bd
       0.0012440933 0.022554735 -0.026464254 -0.05248663
0001a0 e6 a8 e0 bc a5 f7 9f bc ca 5c 9d 3d 44 64 43 3d
       -0.027424287 -0.019527266 0.07683714 0.047703043
0001b0 19 85 d4 3b 67 78 f5 bc 09 21 c7 ba 38 20 06 3d
       0.006485593 -0.029964639 -0.001519234 0.03274557
0001c0 a9 a3 4e bc ae cf 1d 3d 3c 77 66 3c 1c 98 89 bc
       -0.012612262 0.038528137 0.014066514 -0.016796164
0001d0 41 80 8b bd 13 94 f1 3c 6c 00 96 bd 8b 56 51 ba
       -0.06811572 0.029489553 -0.07324299 -0.0007985613
0001e0 d9 f3 0f 3d 27 3e 4b bd 21 ab 8f bd df 81 16 bc
       0.03514466 -0.04961982 -0.07015062 -0.009186237
0001f0 22 dc 90 bb c9 a2 57 bd 70 52 5e bc ee f3 be bc
       -0.004420773 -0.05264548 -0.013569459 -0.023309674
000200 7a 63 8a bd 3f 78 1c 3c 50 9a 08 3d 11 f8 89 bd
       -0.06757255 0.009550153 0.03335029 -0.06736768
000210 2d 9c a9 bc 16 ff 73 3d 5e 73 ff 3b b5 17 28 bc
       -0.020704353 0.05956944 0.0077957353 -0.010259558
000220 71 64 3e bd 39 74 15 3d e1 e3 1b bd 7a 33 c8 bc
       -0.046482507 0.03648779 -0.03805912 -0.024438608
000230 c8 ca 48 bd cd 5f 3b bd 62 32 63 3d 76 69 92 bc
       -0.049021512 -0.04574566 0.05546797 -0.017872553
000240 cb a6 96 bc b3 6a a7 bc 3b f5 4d 3d 11 c8 2d bc
       -0.01839008 -0.02043662 0.050282698 -0.010606782
000250 52 d6 ec 3c 97 5f 1c bb 65 a4 f5 bc 49 1b 54 3d
       0.02891079 -0.0023860687 -0.029985616 0.051783834
000260 b9 72 0a bc 84 3e 60 3d bc 33 a2 3d 72 5c 78 3c
       -0.008450204 0.05474712 0.07920024 0.015158759
000270 5a 6e b0 3c 6f af a9 bc 74 c5 ea ba 92 90 06 bc
       0.021536995 -0.020713536 -0.0017911629 -0.008213179
000280 7b 15 e2 3c 27 af 27 3d f4 cc 21 3c 71 ae d1 bc
       0.027598133 0.040938523 0.009875525 -0.025595875
000290 fd e3 eb 3d 1e 4c 9c bc 00 ef 24 3d 1d 44 ce bc
       0.11518095 -0.019079264 0.04026699 -0.025178963
0002a0 a9 3e 92 bc b8 aa cd bc 70 e2 25 3c 94 e2 38 bd
       -0.017852144 -0.02510582 0.010124788 -0.045137957
0002b0 ae ab 76 bb 24 02 81 3d 4b 83 67 bd c5 1e e3 3c
       -0.003763895 0.062992364 -0.056521695 0.027724633
0002c0 ed 6c 46 3c 8e 7a f6 39 8d 26 50 bd 10 30 99 bd
       0.012110931 0.00047012087 -0.050818015 -0.0747987
0002d0 36 ae 4e 3d 96 8e d8 3c 78 25 00 3d ea 93 44 3d
       0.05045911 0.026435178 0.031285733 0.047992624
0002e0 27 e5 38 bd f9 4c 22 bd 3e 9d 8e bd 93 5b 92 3d
       -0.04514041 -0.039624188 -0.06963585 0.07146373
0002f0 c2 9a 8a bd 67 ec 45 3c 83 69 16 bc 31 ff 35 3c
       -0.06767799 0.0120802885 -0.009180429 0.011108206
000300 e2 e5 83 bd 31 c4 3e bd ca d9 35 3d fc 2c 22 3c
       -0.06440331 -0.04657382 0.044397153 0.00989842
000310 61 3c 3e 3d 85 7f 0b 3d b6 ff 47 bc 8e 74 9c bb
       0.0464443 0.03405716 -0.012206962 -0.0047746366
000320 3c 6e 49 bd 12 5c 48 bc 74 03 04 bc 2e 6b fd 3c
       -0.049177393 -0.0122289825 -0.008057464 0.030934896
000330 cc e4 3f bc 82 cc 67 3c 56 60 b1 3c 7b 60 95 bd
       -0.011712264 0.01414788 0.021652382 -0.07293793
000340 aa 91 af 3c 63 32 3a 3d 89 9d 0f bb 84 e9 15 3d
       0.021431763 0.04545821 -0.0021913967 0.03659965
000350 e0 1f 0d 3d 2a 5e a8 3c 53 51 42 3c 5b 2d 26 3c
       0.034454226 0.020552713 0.0118602095 0.0101426495
000360 dd 4b 77 3c d7 55 33 bc f3 07 19 bd e5 b7 8f bd
       0.015093771 -0.010945759 -0.037361097 -0.07017497
000370 41 43 83 bd df ce 74 bc ad 02 ce bc 63 99 79 3d
       -0.06409312 -0.0149419 -0.02514776 0.060937297
000380 df 44 16 3d f8 f6 a0 3b ca 0e a4 3c 72 a1 92 bc
       0.036686774 0.0049122535 0.020026583 -0.017899249
000390 c7 5f 68 3b 3a e0 5a 3d d2 9d b8 bc 0c 6f 3d 3c
       0.0035457478 0.053436495 -0.022536192 0.01156212
0003a0 a1 80 c5 bc 2a de 02 3d be 16 85 bc 26 04 f8 3b
       -0.024109187 0.031950153 -0.016246196 0.007568854
0003b0 95 d6 67 bd 26 45 39 3c c9 8b af 3b b3 4e 0e bd
       -0.056601126 0.01130799 0.00535724 -0.034743022
0003c0 07 53 ef bb a1 d0 39 bd 99 ca 16 3d d1 dc 18 bb
       -0.007303599 -0.04536498 0.036814306 -0.0023324976
0003d0 e9 a7 7d 3d 5f 1b d1 bb c9 89 4c bd 5b b8 12 bd
       0.06192771 -0.0063814367 -0.04993609 -0.035820346
0003e0 16 3d f5 bc 56 b5 cd 3c f0 56 d0 3c ef 72 f6 3c
       -0.029936355 0.025110882 0.02543208 0.030084101
0003f0 d8 7e db 3c 2b 6d c4 3a 74 45 c2 bc be 9e f4 3c
       0.026793882 0.0014986148 -0.023714758 0.02986085

policy_layer.bias f4 [19]
000000 10 2f 18 bc fb 9e 08 3b 3a d0 17 bd 68 ca ec 3b
       -0.009288564 0.0020846713 -0.037063815 0.007226277
000010 a9 d5 3d bc 5c 89 c9 bc 69 98 65 bd 3e ff 0b 3d
       -0.011586585 -0.02460163 -0.056053553 0.034178965
000020 5f e2 76 bd 4d bc db 3d b4 be 7e 3c 3b ae 87 3d
       -0.060274478 0.10729275 0.015548397 0.06625029
000030 d0 c3 67 3d 10 17 5d 3c ab eb 2a bd 9f 6e 18 be
       0.056583226 0.013494268 -0.041728657 -0.14885949
000040 ec 45 0c be 68 6b b4 3c 62 07 42 bd
       -0.13698548 0.022023872 -0.047370322

value_layer.weight f4 [1, 128]
000000 b4 85 a0 bd 03 fa 07 3c ab 5c 60 3e 6d 86 6b bc
       -0.07838002 0.0082993535 0.2191035 -0.014375311
000010 61 9f bf bd 4a 23 0c bd 76 2c 30 be ba 6d aa 3b
       -0.09356571 -0.03421334 -0.1720446 0.0052010687
000020 59 ea 5c be 5c 0a e3 bc 68 22 b4 bd 8c af 8d bd
       -0.21573772 -0.0277149 -0.08795625 -0.069182485
000030 14 6d 82 3d 20 b3 16 3d d7 6d 96 3c 80 23 c7 bd
       0.06368461 0.03679192 0.018362923 -0.09723568
000040 84 07 46 bc 90 57 05 be 9b 0b 99 3d ec 79 22 3d
       -0.012086753 -0.13021684 0.07472917 0.039667055
000050 c3 87 2d bd d4 43 24 3d a2 ff d6 ba 27 31 ae 3d
       -0.0423658 0.04010375 -0.0016403089 0.08505469
000060 16 eb 06 3d dd 9a e8 3d 65 95 1d 3c 1f f8 1a bd
       0.03293904 0.11357663 0.009618138 -0.037834283
000070 44 e7 9f bd 1b f2 5a 3d 00 d8 14 3e 15 21 9f 3d
       -0.07807782 0.053453546 0.14535522 0.07769982
000080 fb 8e bf 3c ca 47 ba bc 7d 07 bb 3d f5 bb 67 3c
       0.023383608 -0.02273931 0.09132288 0.014143934
000090 ab 84 58 bd 48 79 0c be 6d ed 11 be a3 61 00 be
       -0.052860897 -0.1371814 -0.14250727 -0.12537245
0000a0 24 23 ff 3c 12 b0 b9 3d 30 2f a2 3b d1 5b 95 bd
       0.031144686 0.09066786 0.004949473 -0.07292903
0000b0 7f 1f c3 3d a9 7c 91 bc 79 d1 8e 3d 14 d9 c2 3d
       0.09527492 -0.017759638 0.069735475 0.095140606
0000c0 28 af fb bd 3a 44 8a 3d 12 11 c9 3d a2 e3 74 bd
       -0.12289268 0.067512944 0.09817709 -0.0597874
0000d0 42 64 e7 bd 41 07 77 bd e5 25 96 bd 8c d0 eb bd
       -0.112984195 -0.060309652 -0.073314466 -0.115143865
0000e0 4f 0a 19 3e 39 07 01 be c2 e4 fb 3c 48 b6 c6 bc
       0.14945339 -0.12600411 0.030748729 -0.02425684
0000f0 76 59 aa 3d 10 36 01 3e 53 1e 30 be 8c b4 00 be
       0.083178446 0.1261828 -0.17199068 -0.12568873
000100 40 11 d3 3c 29 59 38 3b e1 9f c5 3c 0e 0e 3b bc
       0.025765061 0.0028129315 0.024124088 -0.011416925
000110 54 76 bf bc ff 08 5c 3d c2 de f7 bd 3d c3 8f bc
       -0.023371853 0.053719517 -0.121030346 -0.017549152
000120 2e fa 14 3e 50 db c1 3c 3c 53 42 3d 9b ff 4f bd
       0.14548561 0.023664147 0.04744266 -0.050780874
000130 a8 c3 8c bc 7a 1e 77 3d 33 41 30 3c e2 8b 6b bc
       -0.01718314 0.0603318 0.010757732 -0.014376612
000140 1b 81 c2 3d 9b 7e 7a 3d 83 93 72 bd 39 6d ed 3c
       0.09497281 0.061155897 -0.05922271 0.028982745
000150 5d 28 43 3d d7 33 f8 3c e3 7f 28 bd e2 d5 ef bd
       0.047645915 0.030298157 -0.041137587 -0.11710717
000160 91 cd 9e bc b0 4f 0f be ab 03 8b bd e8 8b 52 be
       -0.019385131 -0.13995242 -0.06787809 -0.20561182
000170 7a 1e 9c 3c ed 3e c2 bc 7c 75 e3 3d 42 b3 d8 bd
       0.019057501 -0.023711646 0.11106393 -0.10581066
000180 17 95 e2 bd 60 1f a4 3d b0 52 58 3d a9 d6 80 3d
       -0.11063593 0.08013797 0.052813232 0.06290943
000190 ab 2c 00 bd 3d fa ef bd 94 c2 20 be e4 7b a6 3b
       -0.0312926 -0.11717651 -0.15699226 0.005080687
0001a0 85 a6 39 3e c7 c5 f1 bd da de bd 3c e1 f4 8a 3d
       0.18129928 -0.11805301 0.023177553 0.06784988
0001b0 13 87 05 be 53 3f ba 3d 5e 91 2a 3b d3 fd 29 3d
       -0.13039808 0.090941094 0.0026026587 0.04150183
0001c0 c9 67 87 3d 2a 52 40 3d 5e d8 aa 3d 71 bf 2d be
       0.06611592 0.046953358 0.0834205 -0.1696756
0001d0 7a 46 69 bd c5 2d d2 3d 3b 0c cb 3c 19 f2 d4 bc
       -0.056951977 0.10262636 0.024786105 -0.025994347
0001e0 e4 3e 30 3e 26 a9 54 3d b9 a2 6c 3d 29 ee ae 3d
       0.17211491 0.051919125 0.057772372 0.08541519
0001f0 a0 90 10 3e 25 ee 8a 3c 75 97 b7 bd 93 de d9 3d
       0.1411767 0.01695926 -0.08964435 0.10638156

log_std_parameter f4 [19]
000000 ec 87 28 c0 5f 7f 2a c0 40 6f 34 c0 12 f2 c8 bf
       -2.633296 -2.664024 -2.8192902 -1.5698874
000010 45 f9 cb bf d3 79 3a bf 67 d7 2c bf 14 52 06 c0
       -1.5935446 -0.7284214 -0.6751618 -2.0987597
000020 7f 99 08 c0 a3 fd 34 bf 7f 03 26 bf 76 e1 af bf
       -2.1343687 -0.7069952 -0.64849085 -1.374068
000030 d4 ad be bf 81 e3 24 bf 6f 2e 1b bf a3 40 32 bf
       -1.4896798 -0.64409643 -0.6061773 -0.6962988
000040 98 8c 24 bf 23 9f 36 bf 73 a2 33 bf
       -0.6427703 -0.71336573 -0.7016975
