humanoidprac/humanoidprac/scripts/skrl/logs/skrl/h1_flat/joint_experiment_ver3/2025-09-18_09-05-47_ppo_torch/checkpoints/agent_2400.pt (torch, 549922 bytes, 40 tensors)

log_std_parameter f4 [19]
000000 a5 d0 8a bf d9 06 8c bf c4 5a 8d bf d8 6c 75 bf
       -1.0844923 -1.093959 -1.1043324 -0.9586921
000010 6e b9 71 bf e2 15 97 be a3 02 5b be ee 46 96 bf
       -0.9442357 -0.29508883 -0.21387725 -1.1740396
000020 c7 23 97 bf 4c 9c ab be 2b 58 b3 be 1a 0c 49 bf
       -1.1807793 -0.33517683 -0.35028204 -0.7853409
000030 f0 5b 5c bf 9e d3 85 be 6c 81 87 be a4 4b 90 be
       -0.86077785 -0.26138014 -0.2646593 -0.2818271
000040 cb a0 90 be a2 13 9f be 62 6d 8c be
       -0.28247675 -0.31069666 -0.27427202

net_container.0.weight f4 [128, 69]
000000 70 9b ba bd 20 65 9c 3e 03 d1 0f 3d af d9 2d be
       -0.091116786 0.30545902 0.03511144 -0.16977571
000010 0b aa 62 bd f8 58 24 bc 42 0a b4 bd d1 35 ef 3e
       -0.055337947 -0.010030977 -0.08791019 0.46720746
000020 aa aa 74 3c f7 6c 19 3e 87 da 7e bd f9 3c 2e bd
       0.014933268 0.14982973 -0.062220123 -0.042538617
000030 03 b0 f8 bb 11 f2 a9 bd 7f 54 20 3e c7 85 8c be
       -0.0075893416 -0.08298124 0.15657233 -0.27445814
000040 b2 5d e9 bd 68 47 54 bd c2 12 8a 3c 51 35 09 bc
       -0.11394824 -0.05182591 0.016854648 -0.008374528
000050 bf 80 4e 3d 7d 46 8c 3e b1 fc 7a bd 8c 18 4b be
       0.05041575 0.27397528 -0.06127614 -0.19833583
000060 d2 a0 ba bd de fa 38 be 5e 4d 4b be a7 1b 61 3d
       -0.09112705 -0.18064448 -0.19853732 0.054958012
000070 1e fb 96 3e 80 1d a6 3e 4e 30 4e be 73 69 81 bd
       0.29488462 0.32444382 -0.20135614 -0.06318941
000080 02 af 8e 3d c2 a9 77 bd 73 e6 a6 bd d3 36 99 3d
       0.06966974 -0.060464628 -0.081494235 0.0748116
000090 3e 0b 93 bd 82 45 ba bb b1 2b e4 bd f8 81 da 3c
       -0.07179879 -0.0056845555 -0.11141146 0.026673302
0000a0 cd 83 91 3c 9b bb 96 3c 0d 61 df 3c 51 5a 8f 3d
       0.017763043 0.018400004 0.027267957 0.06999648
0000b0 6b 25 88 3d 39 69 c0 3c 24 d6 0e be 28 76 ec 3c
       0.06647762 0.023487674 -0.13948876 0.028864935
0000c0 90 ef 69 bd 22 46 03 3d 4b b1 9f bd ae 59 3f 3e
       -0.05711323 0.032049306 -0.07797488 0.18686554
0000d0 5c 61 57 3e 75 d8 cd bd 94 22 8f bd 94 4e 35 be
       0.21033233 -0.100510515 -0.06989017 -0.17705756
0000e0 88 58 b1 3d 8f e7 76 be 32 f6 14 3e e4 f5 7a 3d
       0.08659464 -0.2411177 0.14547041 0.061269656
0000f0 f9 c6 7a bd 82 2b 62 be d1 f3 62 3d 6b 70 e9 bd
       -0.06122491 -0.2208691 0.055408303 -0.11398395
000100 3e 9c 88 bd 81 07 00 bc c1 e5 80 bd 1e d8 51 bc
       -0.06670426 -0.007814289 -0.06293822 -0.012807874
000110 91 be 1e 3d 04 6e ca bd 5a cd ac be 0c ea 6b 3e
       0.038755957 -0.09884265 -0.3375042 0.230385
000120 30 db 99 bd 94 a4 10 be de bf e2 3d d8 41 1d be
       -0.0751251 -0.14125282 0.11071752 -0.15357149
000130 4e ad 94 bd 60 fb 53 3d 56 d7 2d 3e 0b 83 28 bd
       -0.07259618 0.0517534 0.16976675 -0.041140597
000140 55 9e 0d be 09 fa af 3b 3c ee 2e bd 9b e7 1b 3e
       -0.1382993 0.0053703827 -0.042707667 0.15225069
000150 30 f5 b8 3e 53 01 45 3e 77 ce 97 bd 59 1c 3c bd
       0.36124563 0.19238786 -0.07412427 -0.045925472
000160 4d 5c 24 3e 2e 38 51 be ab f2 39 bd 41 50 8b 3e
       0.16050835 -0.20431587 -0.04539744 0.27209666
000170 5d a8 b7 bd b9 10 45 3e d5 79 fe 3c 62 6d 86 be
       -0.089676596 0.1924466 0.031063953 -0.26255327
000180 ef fe 77 3e ce 01 cd 3d 6b c0 df 3d fd d4 bf be
       0.24218343 0.1001011 0.10925373 -0.37467185
000190 da 0c b1 bc c5 46 c4 3d ce 2b d6 3b 01 b9 85 bd
       -0.021612573 0.09583811 0.0065359836 -0.06529427
0001a0 89 dd a1 bd 18 bd 74 bd 6b 41 73 bd 81 12 41 3d
       -0.079035826 -0.059750646 -0.05938856 0.047136787
0001b0 d7 28 77 3d c3 a2 a9 bc 4c 8e 2e bd 60 eb 97 bd
       0.060341682 -0.020707494 -0.042616174 -0.07417941
0001c0 3e d4 7b 3d f9 de 92 3d f7 82 a0 3d 87 83 a7 3d
       0.061481707 0.07171435 0.078374796 0.08179384
0001d0 c2 26 46 3d ba da c5 bc 3d 4b 78 bc 06 9d 6d bd
       0.048376806 -0.024152149 -0.015154657 -0.058011077
0001e0 a1 20 77 bd 05 0c 62 3e 20 84 6e 3d 5d d0 48 3e
       -0.06033385 0.22074898 0.058231473 0.19610734
0001f0 da 8c ac bd 4c 79 30 be a2 f6 6c 3d 7b e6 4c 3d
       -0.08425303 -0.17233771 0.057852395 0.05002449
000200 7d c4 2a 3d 97 12 a0 bd c9 e9 6e 3d 7e 8d 22 be
       0.041691292 -0.07816046 0.058328424 -0.15874287
000210 c0 0e e8 bd 6b a8 df bb 48 c3 ee bd 54 72 5d be
       -0.11330938 -0.006825497 -0.11658341 -0.21625644
000220 89 b7 d3 bd 87 c1 cf bd 8d b0 8c be c3 ce 35 3e
       -0.10337741 -0.10144334 -0.27478448 0.17754655
000230 b5 ea a4 bd 2b ba 9f bb e7 3c c3 bd 94 7b 1a bc
       -0.08052579 -0.004874488 -0.095331006 -0.009428877
000240 0d 91 ea be 4c 9a 5b 3f 58 f3 2d 3e 37 a5 94 3e
       -0.4581379 0.85782313 0.1698736 0.290323
000250 7d 0e 2a 3d 22 bc fd 3d 85 f3 0d be e3 bd ea 3d
       0.041517723 0.12389399 -0.13862427 0.11461999
000260 bc fa b8 3d af c8 e5 bd 28 bd 79 be 4c ad 3b bd
       0.09032199 -0.11219918 -0.24388564 -0.045819566
000270 c9 5e 4c be fa 26 22 bf 4f f5 9c 3e 16 b8 39 bc
       -0.19958033 -0.63340724 0.30655906 -0.011335393
000280 f4 e1 ca bd 90 9e 8f 3c 78 ca 0f bc da 77 96 bd
       -0.099063784 0.017531663 -0.0087763 -0.073470786
000290 00 65 6d bd f1 20 92 bd c4 83 5f bd b6 dd 80 3e
       -0.05795765 -0.07135189 -0.05456902 0.25169152
0002a0 5e 33 8b 3d 8c fc 11 3d fc 06 70 bb 72 81 b3 3c
       0.06796907 0.035641238 -0.0036625257 0.02191231
0002b0 ff 1d 57 3d f6 4b 5f bd c0 fc 94 bc 70 3e 78 3d
       0.05251884 -0.0545158 -0.018186927 0.06060642
0002c0 79 f7 a4 bd 25 29 a3 3c 2c c3 86 bd 3b 80 ae bc
       -0.08055014 0.01991708 -0.06580195 -0.02130138
0002d0 a3 c2 d9 38 2b 3c 33 3b 02 b7 bd 3d d9 01 df 3d
       0.0001038362 0.0027349095 0.092634216 0.10889024
0002e0 6a c3 89 bd 63 b9 7b 3d e3 05 b5 3c 4e d3 3a 3d
       -0.067267254 0.061456095 0.022097534 0.045611672
0002f0 de 1f bf bd ed 96 95 3d 5f a0 a6 bd 7d 75 ac bc
       -0.0933225 0.073041774 -0.08136057 -0.021052117
000300 d8 5a 35 3d e6 12 6e 3e b7 2b a0 3d 71 db 9e bd
       0.04427609 0.23249397 0.07820838 -0.07756699
000310 58 51 9c 3d fc d7 96 3c 16 ef 20 3d 9d 2e 39 be
       0.076327026 0.018413536 0.03929051 -0.18084188
000320 6a a9 21 3e d3 e2 8b 3d ce f0 98 3c 71 a5 be 3c
       0.15787283 0.06830373 0.018669512 0.023272248
000330 f9 33 06 3d 1a 90 8d 3d 48 e7 39 bd be 9a 7c 3e
       0.03276441 0.06912251 -0.045386583 0.24668404
000340 c3 1e df be af 1b 32 be c7 46 8e 3c e2 2d 93 3d
       -0.43578157 -0.17393373 0.017367734 0.07186486
000350 8e fc cd bc b4 37 9f 3f b5 de 4f bf 14 84 e9 3a
       -0.025144842 1.2438874 -0.811992 0.0017815852
000360 7f f9 7a 3e 6c e5 ee 3d 19 7e d8 bd c4 66 9f 3e
       0.24509238 0.116648525 -0.10570926 0.3113309
000370 22 b9 a0 be 7f 61 9e 3e 5d e4 1c 3f 4d 9c d9 3c
       -0.31391245 0.3093376 0.61285955 0.026563788
000380 33 89 04 be 09 fe ba 3c ef 7b 79 3e a6 35 2a 3f
       -0.12942962 0.022826212 0.24363683 0.6648811
000390 c9 e5 92 bd 9a 0b a1 bd cc e1 d9 3d fa fc a3 3e
       -0.07172734 -0.07863541 0.106387705 0.32028943
0003a0 44 e7 a5 bd 66 fa 86 bd 15 cb 15 be 2a b6 86 be
       -0.08100751 -0.065907285 -0.14628251 -0.26310855
0003b0 be 2e 81 3d 0f 08 11 3e 18 60 a0 ba a1 3b 0e bc
       0.063077435 0.1416323 -0.001223567 -0.008681209
0003c0 ab 8e b6 bc 49 26 76 bc 4d aa 84 bc 3c 77 2e 3d
       -0.022284826 -0.015023776 -0.016194487 0.04259418
0003d0 6f ed de 3c 8b f8 b1 ba 98 7e 03 bc 0b e3 e3 bc
       0.027212827 -0.00135781 -0.008025788 -0.027818223
0003e0 80 da b0 bc d3 fa 1f bc bd 50 ef 3b e3 19 73 3d
       -0.021588564 -0.009764391 0.007303326 0.05935086
0003f0 7e 1f a2 3c 7b 84 1b 3c 85 98 94 3c 16 bd 89 bd
       0.019790407 0.009492035 0.018139133 -0.067255184

net_container.0.bias f4 [128]
000000 32 6c 42 3e 28 9a 72 bd ca 26 57 bd 51 5c de bc
       0.18986586 -0.059229046 -0.052527227 -0.02714363
000010 b0 20 c2 3d e6 34 87 bc 93 dc d8 3d a6 f5 84 3d
       0.09478891 -0.016504716 0.10588946 0.06492166
000020 c8 c6 cd 3d 54 43 be 3d c0 6b fb bc 40 01 bd bd
       0.1004768 0.092901856 -0.030691028 -0.09228754
000030 40 eb a5 3c d2 66 bf bc 9f fb 45 3e 9a 30 ce bd
       0.020253778 -0.023364458 0.19334267 -0.10067864
000040 64 76 01 3e 69 5f f3 bd bc 04 17 3e 57 42 3c 3d
       0.12642819 -0.118834324 0.147479 0.045961704
000050 af 55 c1 3c fb 96 4f 3d 9e f6 cb bb be 59 bf 3d
       0.023600427 0.050681096 -0.0062244674 0.09343289
000060 89 74 8e 3d 01 79 bf 3d 37 5f 1a bc 4e e9 09 be
       0.06955821 0.093492515 -0.009422115 -0.13467905
000070 27 70 68 bd 08 a3 1b bd 22 01 09 bd c9 aa 9d 3c
       -0.05674758 -0.037997276 -0.033448346 0.019246476
000080 b9 fa 0b 3e f4 06 4d 3d 3d 82 2c bd 47 62 e5 bd
       0.13669862 0.05005546 -0.042116392 -0.112003855
000090 fe a4 04 3d a3 99 ff 3c 97 34 96 3d 52 e3 c8 39
       0.03238391 0.03120119 0.073342495 0.0003831634
0000a0 8c 76 dd bc c0 bb 43 3e a4 f6 cd bd 71 a4 cb bd
       -0.027034067 0.1911459 -0.100568086 -0.09943474
0000b0 2a d2 ac 3d 0b c7 fe bd f0 06 5d bb b6 74 81 bd
       0.08438523 -0.12440308 -0.003372606 -0.06321089
0000c0 f3 3c 33 3e 00 a7 98 3c 7d 86 21 3c 1b 9f 19 3d
       0.17503719 0.01863432 0.009858725 0.03750525
0000d0 7c 72 c4 bd 16 14 86 bd 70 f5 96 b9 5e 78 9e 3d
       -0.09592149 -0.065468 -0.00028793095 0.07737802
0000e0 67 e7 e0 3d 5c 2c a6 3d 62 1b c0 3d fe ab e0 3d
       0.109816365 0.0811393 0.09380223 0.10970305
0000f0 4b ff 9d bd 51 ec 1e 3c a2 fc 37 3e ab 09 86 3d
       -0.07714709 0.009699897 0.17967466 0.06544813
000100 1a 78 48 3d 0b c7 33 3e bc 8a 3c 3d 94 c0 40 3b
       0.048942663 0.17556398 0.046030745 0.002941166
000110 39 61 da 3d 51 90 4e 3d 2a 44 8b 3d 79 13 4b bd
       0.10663075 0.0504306 0.06800111 -0.049579117
000120 d3 3b 0f 3e a6 06 04 3e 0c 56 e3 3c 23 19 17 3d
       0.13987665 0.12893161 0.027750991 0.036889207
000130 ef 7b 2c 3e 13 af e3 39 c0 26 34 3e 4d a3 05 3d
       0.16844152 0.00043427254 0.17592907 0.03262644
000140 0b fc 54 bd a9 98 e5 bc 81 8e d4 3d 4c 79 ce 3c
       -0.05199818 -0.028026896 0.10378743 0.025204323
000150 47 db 0c 3e bb f0 28 3e 78 f3 f6 3d 1d b0 4d 3e
       0.13755523 0.16498081 0.12058157 0.20086713
000160 3b 43 8e 3d 50 da 0d 3e 02 50 81 bb 76 df c2 bc
       0.06946417 0.13852811 -0.0039463053 -0.023788195
000170 a8 bf f0 3d 57 db 79 bd 0e 5e 28 3d d3 e8 28 bb
       0.117553055 -0.061000194 0.041105323 -0.002577354
000180 84 a0 39 3c 2e a8 3f bd 2d d8 06 be eb e8 14 bd
       0.011329774 -0.046791248 -0.13168402 -0.03635494
000190 c5 9b 1d 3e 35 12 0a 3d 11 96 a6 bd 2b fe 72 bc
       0.15391453 0.03370877 -0.08134092 -0.014831106
0001a0 2f 18 15 3d 5d 57 ee 3d ae 10 cc 3c 0f f5 c2 bd
       0.036400016 0.11637757 0.024910297 -0.095193975
0001b0 83 c0 9d bc ce 49 ed bd dd d9 9f 3c e4 05 ad 3d
       -0.019256836 -0.11586343 0.019513065 0.08448389
0001c0 61 e9 bd bc 36 21 d0 bd 84 10 1f 3e 27 2c d0 3d
       -0.023182573 -0.101625845 0.15533644 0.101646714
0001d0 dc 3e f5 bd 7f d0 be 3d a2 6e c6 bc 16 2c 7e bd
       -0.1197488 0.09317111 -0.024222676 -0.062053762
0001e0 99 39 eb 3c 86 02 ca bd bb 87 3d 3e fa ad 55 bd
       0.028713988 -0.098637626 0.18508808 -0.05216787
0001f0 f2 8e 12 3e 98 62 f2 bd 72 10 e3 bd 83 32 bf 3d
       0.14312342 -0.118352115 -0.11087121 0.09335806

net_container.2.weight f4 [128, 128]
000000 75 5a 22 3d 22 61 44 bd a4 67 72 3d 97 d2 e2 bd
       0.039637048 -0.047944196 0.05918087 -0.11075323
000010 10 5d db bc 75 d8 64 bd b3 b6 9b 3c fe 94 d3 bd
       -0.026777774 -0.055870492 0.019008016 -0.103311524
000020 4e 64 90 3c fa dd a0 3d 82 26 d2 3c 5e b0 86 bd
       0.017625954 0.07854839 0.025653128 -0.06576608
000030 e8 0a f1 3d 37 70 ef bd 31 65 9b 3c 5a de f8 3c
       0.11769658 -0.11691325 0.01896915 0.030379463
000040 7e 98 d7 bd e1 c3 8c 3d 7d 71 75 bd fe 26 ec 3d
       -0.105271325 0.068732984 -0.059922684 0.11530875
000050 f7 24 90 bd 00 b9 f5 bc 67 63 69 bd f8 9d 99 bd
       -0.070383005 -0.029995441 -0.056979563 -0.07500833
000060 7b 59 b6 bd 28 41 91 bc 3f 5c 5c 3c 37 f4 bb 3d
       -0.08903786 -0.017731264 0.013449728 0.0917744
000070 bc fe 09 3d 09 ad 99 bc 09 45 26 3c 72 4a a0 3d
       0.0336902 -0.018759267 0.010148295 0.07826699
000080 a3 ca ad bc e2 38 99 bd 4a 35 c6 bd 8d ef 01 3d
       -0.021214789 -0.07481553 -0.09678133 0.031722594
000090 90 4d 2e bd d5 d5 bd 3c 4f 29 81 3c dc 6a 8d 3d
       -0.042554438 0.023173252 0.015766768 0.069051474
0000a0 1a f8 5b 3c cc 43 8a 3c 3c 9c c4 bd af e4 f0 bd
       0.013425851 0.016878031 -0.09600112 -0.11762368
0000b0 6b cb 8f bb 26 e1 43 3d 28 9c 0c be f6 0e b1 3d
       -0.004388263 0.04782214 -0.13731444 0.08645432
0000c0 13 b6 78 3d 08 66 5a 3d 87 46 91 bc 59 80 22 3d
       0.060720515 0.05331996 -0.017733825 0.039673183
0000d0 85 65 a1 bd a7 74 56 bd 71 75 b1 bc da 6a bb b9
       -0.078806914 -0.052357342 -0.021662446 -0.0003574703
0000e0 49 79 d3 bd 50 b1 19 bb e9 7a 91 3b 5f 5f f4 3b
       -0.10325868 -0.0023451634 0.004439701 0.007457658
0000f0 70 e1 ae 3d db 97 1f 3d 43 5c 1c ba 25 6b ef bc
       0.085390925 0.03896318 -0.0005964676 -0.029225895
000100 80 e4 1c bd 6d 9c 7d bd e5 ba 83 bd a8 fe 87 bd
       -0.038303852 -0.061916757 -0.06432132 -0.06640369
000110 3b 26 a4 3b 3d d9 50 bc 18 bc 7d 3c 95 a9 c8 3c
       0.0050094402 -0.012747106 0.01548674 0.024494926
000120 98 b4 27 3c dc 95 39 bd e9 b3 cc bd 06 32 8c 3d
       0.010235928 -0.045308933 -0.09995253 0.06845479
000130 18 89 50 bc 4c 23 06 be b4 88 62 bc bd 28 1a 3d
       -0.012727998 -0.13099402 -0.013826538 0.037636507
000140 cb 3f ff 3d 27 e0 14 3d 25 e9 4b bb cd 74 ab 3d
       0.124633394 0.03634658 -0.0031114307 0.08371887
000150 0d 5b fe bd 9e 61 07 3d 58 e6 0f be f1 6e 0c be
       -0.1241971 0.03305208 -0.14052713 -0.13714196
000160 34 3b b3 3d 59 7c 77 bd 1f 6e c2 bd e6 4b 40 bd
       0.087515265 -0.06042132 -0.0949366 -0.046947382
000170 3b 07 e3 bd 32 1a 89 bc f1 8d 34 be 49 4f 4c bd
       -0.110853635 -0.016736124 -0.17632271 -0.0498803
000180 67 94 be 3d 14 c5 03 3e 04 b0 14 3d 54 4c a7 3b
       0.09305649 0.12868148 0.036300674 0.0051055346
000190 db 41 83 3d b2 9a f3 3b ab fd 42 bd ea 85 c3 bc
       0.06409045 0.0074342126 -0.047605198 -0.023867566
0001a0 f1 6a 64 3d a8 29 81 bd d5 cd 7d bd ff 39 22 bc
       0.05576605 -0.063067734 -0.061963875 -0.009901523
0001b0 07 c8 e7 3d 17 07 be 3c bf b8 b3 bc f8 42 ff bd
       0.11317449 0.02319674 -0.02193868 -0.12463945
0001c0 c5 e9 d5 3c a1 70 46 3c 30 45 b9 bd 3a 44 fd bd
       0.026112447 0.012111814 -0.090463996 -0.12366529
0001d0 b8 45 99 bd 8b f9 03 be 3b 4f dc 3c 59 2c e2 bc
       -0.07484001 -0.12888162 0.026893249 -0.027609037
0001e0 7a f5 ce bd 6d fd 37 3c 8e b9 fd bd 02 90 5a 3d
       -0.10105415 0.011229855 -0.123889074 0.053359993
0001f0 11 16 65 3d ee ae 31 3c 61 04 1f 3d 7f fa 2f be
       0.055929247 0.010844929 0.038822535 -0.171854
000200 b6 b2 42 3d 68 8c 96 3d 81 c4 ae bd ad f4 25 bd
       0.047533713 0.07350999 -0.08533574 -0.040516544
000210 4c 65 d0 3d 98 b3 db bc 51 f3 97 3d 6c 99 d1 3d
       0.10175571 -0.026819035 0.07419456 0.10234341
000220 af bf b6 3a 6c dc 97 bd 6a 94 42 3c cd 59 80 3d
       0.0013942624 -0.07415089 0.011876205 0.06267128
000230 15 e1 d8 bd 5d c6 e1 3d 5a d4 65 bd 1f e9 26 3c
       -0.10589806 0.11024163 -0.056110717 0.010187416
000240 52 98 62 3d 6b f5 88 bc c7 44 58 3d 7d cd 6b bd
       0.055321045 -0.016718587 0.052799966 -0.057569016
000250 61 9e 81 bd 9c b9 37 bd 9b 4c 68 3c 05 ec 08 bd
       -0.063290365 -0.044854745 0.01417842 -0.03342821
000260 e9 7f 2b bd df 8d 58 3d 28 22 60 bd ff f5 ab 3c
       -0.04187003 0.052869674 -0.054720074 0.020991324
000270 c0 8a 51 bd b9 b8 98 bd 6c 77 01 3d c4 79 1c be
       -0.051157713 -0.07457108 0.03160803 -0.15280825
000280 a6 11 0e 3d d4 36 39 3d a0 d9 fd bc 48 81 ad bd
       0.0346848 0.045218304 -0.03098756 -0.08471924
000290 c3 8d 6b 3d 1f 94 22 3d 21 a5 52 bd fc ed ad bd
       0.05750824 0.03969204 -0.05142701 -0.084926575
0002a0 fd 0c 40 3d 07 e5 c4 bb 58 3b a7 3c aa c4 16 3e
       0.046887387 -0.0060087475 0.02041404 0.14723459
0002b0 6f f3 35 3d 83 00 25 3d 24 85 b7 3d f7 e4 4e 3d
       0.04442161 0.04028369 0.089609414 0.050511327
0002c0 91 e4 de bc 51 e6 6c bd 6c 49 cf bc 1e a5 09 be
       -0.027208598 -0.057836834 -0.025303565 -0.13441893
0002d0 de e4 8d 3b 9d e3 ed bd 26 1a fc 3c ed f8 a1 bc
       0.0043302616 -0.116156794 0.030774187 -0.019772017
0002e0 44 27 87 bd d4 d2 ad bb 43 cb f8 bd 04 51 aa 3d
       -0.06599286 -0.0053046737 -0.12148144 0.08316234
0002f0 99 a7 08 be 54 60 ee 3c c2 c1 ab bc a8 51 95 3d
       -0.13345183 0.029098667 -0.020966414 0.07290965
000300 fd e3 02 bd fb 57 dc bd 9e 9f da ba 4a 45 c8 bd
       -0.031955708 -0.107589684 -0.001667965 -0.09778841
000310 bf fb 2f bd af 54 1f bc 2d 49 56 3d ef 9d 18 3d
       -0.042964693 -0.00972478 0.05231588 0.037259992
000320 c8 93 85 3b 72 bb e3 3d 43 f2 e0 bc 47 c0 f8 bc
       0.004076455 0.11119737 -0.02745927 -0.030365122
000330 8c d1 b6 bc be 06 9e bd 8c 74 06 3d 10 4d 19 3c
       -0.022316717 -0.0771613 0.03282599 0.009356752
000340 09 9e 86 bd 80 b1 c5 bd 4b df d4 3c ac 9f bd bd
       -0.065731116 -0.09652996 0.02598538 -0.092589706
000350 43 41 5b bd 5c 49 19 3c 10 4a d4 3c a8 b5 85 3b
       -0.053529035 0.009355869 0.025914222 0.004080493
000360 8e 98 ee bc 83 58 2a bd 32 94 ac bd ff 1a 2a bc
       -0.029125478 -0.041588318 -0.084267035 -0.010382413
000370 c8 b6 75 3d 69 4b 74 3d db 99 22 3d d8 fc 19 bd
       0.059988767 0.05964223 0.03969751 -0.037594646
000380 87 7a 81 bd 85 a2 32 3d 0b 96 e0 3c 40 72 b1 3d
       -0.06322198 0.043612022 0.027415296 0.086643696
000390 e6 ac 34 bd 75 1f 1d bd 1f 06 01 3d 23 39 d0 3d
       -0.0441102 -0.038360078 0.03149998 0.10167148
0003a0 8d 01 f1 bd d6 e1 47 bc a7 57 27 bd 0f a1 5a bc
       -0.11767874 -0.01219984 -0.040855076 -0.013344063
0003b0 93 aa c9 bc 6d cc 7d 3c ba c6 28 3c b1 a0 75 bd
       -0.024617469 0.015490633 0.010301286 -0.0599677
0003c0 b9 3e 7c bd 91 01 60 3d ce d0 a7 3d 02 21 32 3c
       -0.061583254 0.054688994 0.08194123 0.0108721275
0003d0 36 e3 51 bd 23 50 be 3c b3 db c4 3d dd 55 38 39
       -0.051242076 0.023231572 0.09612217 0.00017579594
0003e0 cc 86 95 3c 6f 3d 8d bc 77 6a a2 bd f0 03 8b bd
       0.018252753 -0.017241208 -0.07930463 -0.067878604
0003f0 ba 5a 58 bc b1 a4 5f 3d 2f 0c 38 3d e0 4a dc bc
       -0.013205225 0.05460042 0.044933494 -0.026891172

net_container.2.bias f4 [128]
000000 9e 3a b0 3c 5e ef d1 bd a3 0f 89 be 98 8c 27 bc
       0.021512326 -0.10250734 -0.26769742 -0.010226391
000010 e0 09 0e be 7f c4 ab 3c 65 f1 d0 3d b2 27 9d 3d
       -0.13870955 0.02096772 0.10202292 0.07673587
000020 2a 59 52 3d 9b 2c dc bd fe f2 02 3e 26 15 b7 bd
       0.051354565 -0.10750695 0.12788007 -0.089395806
000030 7d 8c 7f 3d 5c a3 81 bd 8c f9 be 3c bd b9 37 3a
       0.06238984 -0.063299865 0.023312353 0.0007008573
000040 e1 ae c9 bd 72 e9 3d 3c 9e fe 88 bd 45 6c bc 3b
       -0.09847809 0.011591302 -0.066891894 0.0057502114
000050 5e ef 2b 3e 1f 49 51 bd 0f 77 86 3b 20 95 52 bd
       0.1679053 -0.051095124 0.0041035484 -0.051411748
000060 58 9a 26 bd 6e 4b 19 3c d7 2a 00 3d 1c 1e 04 be
       -0.040674537 0.009356363 0.031290855 -0.12902111
000070 be 99 1a 3d 23 28 99 bd 7e 85 dd bd 7a 4c 48 bd
       0.037744276 -0.074783586 -0.10816477 -0.04890106
000080 cb f0 d4 3b 0d cd d4 bd d0 5e 2e 3d 44 4a 6f bd
       0.0064984313 -0.10390673 0.04257089 -0.058420435
000090 a5 2a 87 bd d0 5a 36 bd 6b 32 f1 ba 21 1c d1 bd
       -0.06599931 -0.0445202 -0.0018401867 -0.10210443
0000a0 66 ee 0e be 48 1f ac bd d9 d0 ce bd 4e e2 42 3d
       -0.1395813 -0.08404404 -0.10098428 0.047579102
0000b0 b2 6d d7 3d 15 e7 8a 3d 7e 94 5f 3b 7e ac 5d bd
       0.105189696 0.06782357 0.0034115608 -0.05411958
0000c0 7c 03 81 3c c0 4b dc bd 60 58 a0 3d ac 09 1e be
       0.015748732 -0.10756636 0.07829356 -0.15433377
0000d0 0f 84 f0 bc 98 fd c8 3d c1 17 0b be 87 03 87 bd
       -0.029359845 0.09813994 -0.1358328 -0.0659247
0000e0 5f b5 70 3d ae bb 2e be 15 29 65 3c a4 70 3e 3e
       0.05876672 -0.17063782 0.0139868455 0.18597656
0000f0 15 3a 2e be 7f 50 a2 bd 85 9f 07 be e6 1e 81 3d
       -0.17014344 -0.0792551 -0.13244446 0.063047215
000100 6a 0f 85 bc 03 5f 15 be d9 4c 8e 3d 76 01 f6 bc
       -0.016242702 -0.14587025 0.06948251 -0.030029994
000110 5c 65 9f bd 01 b7 33 3d 80 85 a1 bd d8 86 2e be
       -0.07783005 0.043875698 -0.07886791 -0.17043626
000120 10 64 95 bc 19 43 ce bb 8d f1 bb bd 2c 05 8e 3c
       -0.01823619 -0.0062946198 -0.091769315 0.01733645
000130 f5 56 8a 3d c2 e6 81 bd 79 e6 a0 bc 4e 2a 2e bd
       0.06754867 -0.06342842 -0.019641148 -0.042520814
000140 56 58 2e bd 60 0c ab bd 16 9f 1b 3d ce b6 7a bd
       -0.042564712 -0.0835197 0.037993513 -0.061209492
000150 4c 8f 00 be 03 b7 9b bd 57 89 4a ba cf 3b e0 3d
       -0.12554663 -0.07603266 -0.00077261537 0.109489076
000160 3a bc 09 3d 55 74 67 bd 15 7d dd bd c3 95 6c 3d
       0.033626772 -0.056507427 -0.10814873 0.05776001
000170 b8 70 27 be cb da 55 bd c5 39 a8 bd c2 b2 f6 3c
       -0.16351593 -0.05221061 -0.08214144 0.030114535
000180 49 0d c3 bc b1 28 30 bb 23 e6 52 be 3f a1 5d 3d
       -0.023810046 -0.0026879723 -0.20595603 0.054108854
000190 4f 79 3e be 0e 7e d8 bd 7f 57 79 bd cd f6 49 3c
       -0.18600963 -0.10570918 -0.06087446 0.012326908
0001a0 6d bb 8a bd ef 41 88 bd 4d c7 0d bd 91 da 05 3d
       -0.0677403 -0.06653201 -0.034613896 0.032679144
0001b0 e1 6b 23 be e9 82 9e bd e3 d7 8b 3d 0a 73 1a bd
       -0.15959121 -0.07739813 0.068282865 -0.037707366
0001c0 a4 04 6a be 78 15 49 3d db 2c 9a 3d 77 bc 22 bc
       -0.22853333 0.04909274 0.07528087 -0.009932629
0001d0 4f 2d 6e 3d 0a d5 ad 3b 2d 81 01 be 39 c1 44 bd
       0.05814868 0.0053049373 -0.12646933 -0.048035834
0001e0 31 44 e3 3d 7c 26 01 be 59 fd 9d 3c 62 33 4e bd
       0.11096991 -0.12612337 0.019285845 -0.05034197
0001f0 d6 1a 9d 3d d0 fb d5 bd d6 2b a5 bd f9 5c e0 bd
       0.07671134 -0.1044842 -0.08065002 -0.10955233

net_container.4.weight f4 [128, 128]
000000 99 e1 6b bd bb af 1f 3e 15 db 08 bd af bc 98 bd
       -0.057588194 0.1559438 -0.033412058 -0.074578635
000010 a4 1a 7d bc 0f eb 26 bd 50 90 55 3d bb 30 5b 3d
       -0.015448246 -0.040751513 0.05213958 0.05351327
000020 c2 b3 1d bd 42 d0 3e bd 8d ae df bc 67 58 89 bc
       -0.03850151 -0.04658533 -0.027304912 -0.016765786
000030 7d cc bc 3d f2 05 05 bd 98 6b 67 ba 9e b8 c4 bc
       0.092186905 -0.032476373 -0.00088279834 -0.024013814
000040 de 31 21 bc da 47 53 bc ed c9 9e bd b8 6b 12 3c
       -0.009838549 -0.012895549 -0.07753358 0.008936815
000050 52 37 d8 bd bc 70 df bd 93 55 c7 3d 0c 60 47 bd
       -0.105574265 -0.10910174 0.09733119 -0.04867558
000060 13 7e 3b 3d 44 55 51 3d c9 58 7f ba 21 eb d3 3b
       0.04577453 0.051106706 -0.0009740708 0.0064672385
000070 f7 72 7e 3d b6 dd 8d 3d 8e 93 2c 3c 52 91 94 3d
       0.062121358 0.06927054 0.010533227 0.0725428
000080 8b 23 70 bc 98 00 6b 3b bb fd 06 bd f7 a1 df bd
       -0.014656912 0.0035858508 -0.03295682 -0.10919564
000090 af 4f d5 3c 00 26 90 bd b2 08 40 bc 7e 65 42 3c
       0.026038973 -0.07038498 -0.011720823 0.011865018
0000a0 bd 45 04 bd ec f8 23 3d 91 24 a3 3c b3 60 5e b8
       -0.03229307 0.040032312 0.019914897 -5.3018983e-05
0000b0 c5 81 81 bd 5f 39 79 3d 10 57 40 bb c3 28 23 3e
       -0.0632358 0.06084573 -0.0029348768 0.15933518
0000c0 da 2d 89 3c c7 66 3f 3d 62 85 97 3d 32 0b c4 bc
       0.016745497 0.046728875 0.07398488 -0.02393112
0000d0 bb 02 bc 3d 64 3d f5 bc 47 93 08 3d fa 4d 0f bd
       0.09180208 -0.0299365 0.03334358 -0.034986474
0000e0 2c 67 0b 3d 08 20 3f bd a3 99 9d bc f2 39 46 bc
       0.03403394 -0.046661407 -0.019238299 -0.012098776
0000f0 54 79 fe 3c cd aa aa bb 56 b5 5e 3c ea 13 04 bd
       0.031063713 -0.0052083493 0.013593039 -0.032245554
000100 42 89 7c bd 33 eb 94 bb 27 55 40 bd 13 71 9b bd
       -0.061654337 -0.0045446395 -0.046956208 -0.075899266
000110 16 25 91 3c 95 59 2c 3d 76 4e a9 bc a7 8d f8 3d
       0.01771788 0.04207762 -0.020667296 0.12136393
000120 b4 d6 0f 3e 5d 3c 9d 3c 08 24 6c bd 04 2e 6f bd
       0.14046746 0.019193823 -0.05765155 -0.058393493
000130 57 28 a9 3d 3f 1a b8 3c 4c 20 9c 3d 43 6d be bc
       0.08259647 0.022473453 0.07623348 -0.02324546
000140 4c 83 5c 3d b7 4c 29 3d 39 8c d2 bc f7 3f 72 bd
       0.053836152 0.041332927 -0.025701629 -0.059143033
000150 0e 34 43 3d f3 bd 92 3c de 72 5b bd 50 f4 84 3c
       0.047657065 0.01791284 -0.053576343 0.016229779
000160 23 42 03 3d c3 a8 df bb a4 14 21 3d db 4e 08 be
       0.032045495 -0.006825538 0.039326325 -0.13311331
000170 ff 87 d7 3d 82 eb 59 bd d5 6e 35 bd b1 a5 90 bd
       0.10523986 -0.053203113 -0.04429515 -0.07062853
000180 75 83 c3 bc f1 ae 8d 3d 2a 08 a1 bc 1f bd 99 3d
       -0.023866395 0.06918133 -0.019657213 0.07506775
000190 4c 65 b5 3d 56 d5 32 bb d8 56 bf 3c 5e 71 75 3d
       0.088572115 -0.0027287803 0.02335684 0.05992257
0001a0 6b 2b c4 3c fa 8d b5 bc af ad e2 3c 22 d3 0b bc
       0.023946485 -0.022162426 0.02767071 -0.008534225
0001b0 16 0d e5 bc 47 69 b4 bd 98 95 40 3c 0f aa bb 3c
       -0.027960341 -0.088091426 0.011754416 0.022908239
0001c0 c1 1f 9b bd 3c d1 b9 3c 8b 5c 08 3d cd 45 57 3d
       -0.07574416 0.022682779 0.03329138 0.0525568
0001d0 cc ba 87 bd 34 c2 8f 3d b3 ff a5 bd 2c 65 2c bd
       -0.066274256 0.07019463 -0.081054114 -0.042088673
0001e0 7a 99 59 3d 30 41 a7 bd 4f ae fd bc af 6d db 3d
       0.053124882 -0.081667304 -0.030966906 0.1071428
0001f0 8a 58 75 ba da a1 76 3d 3d 73 40 3e 09 1c 0d bc
       -0.00093592016 0.060212947 0.1879396 -0.008612641
000200 53 14 f7 3d 03 30 93 bd e0 69 91 bd bc 95 93 3d
       0.120644234 -0.07186892 -0.07100272 0.07206294
000210 53 01 b7 3d 36 78 81 bd 11 8d 8f 3c 3f f7 c8 bd
       0.089357994 -0.063217565 0.01752332 -0.098127834
000220 bb dd d2 bc 76 70 b6 bd 02 99 fc 3d 40 90 82 bd
       -0.025740495 -0.08908169 0.123338714 -0.0637517
000230 a8 c9 a0 39 9c f8 16 3d e9 81 ef 3d b9 fe 14 bd
       0.00030667824 0.036858186 0.116947 -0.036375735
000240 b8 74 24 bc 1b 84 a9 bd a8 38 71 bd 56 84 22 bc
       -0.010037594 -0.0827715 -0.058891922 -0.009919247
000250 50 cd b7 3c 45 03 00 bd 52 21 4a 3d 08 9b b2 3c
       0.022436768 -0.031253118 0.049348183 0.02180244
000260 fb c8 36 3d 75 cc d8 3c 7e 0b b1 3c ee 1c 36 bd
       0.044625264 0.02646468 0.021611925 -0.044461183
000270 b2 e5 e3 3d d9 ed 75 bd c7 2f e9 3c ad 12 0f bc
       0.11127795 -0.060041282 0.028465165 -0.00873248
000280 41 c8 b3 3c 33 7f a4 3d 81 f7 fc 3c e8 52 87 3d
       0.021946074 0.08032074 0.030879738 0.0660761
000290 9e 79 ab bc 70 cc 8f bd 2e c6 d5 3c fe 61 00 bd
       -0.020932015 -0.07021415 0.026095476 -0.031343453
0002a0 6e 01 3e 3d 7d c8 b1 bd 3a d6 8f bd 4a 69 2f 3d
       0.046388082 -0.08680818 -0.07023282 0.04282502
0002b0 71 83 8c bd e9 87 da 3d aa 1c 49 bd 26 cc c2 3d
       -0.06861008 0.10670454 -0.0490996 0.095115945
0002c0 79 18 a7 bd 79 fc d4 bd 0e 26 1e 3d 56 c9 45 3d
       -0.08158965 -0.10399718 0.03861051 0.048287712
0002d0 f4 32 a9 bd 58 95 c9 3d a5 16 a3 bd 03 97 d0 bd
       -0.08261672 0.09842938 -0.079633035 -0.10185053
0002e0 bb 65 6b 3d e1 67 40 bd 94 26 da 3d aa 7f 64 b9
       0.057470065 -0.046974067 0.106518894 -0.00021791333
0002f0 08 9b 18 3d a7 93 81 3d 00 41 9c 3d 99 cc df bc
       0.037257224 0.063269906 0.07629585 -0.02731924
000300 0e 8c 62 bd 64 0a 62 bd d2 6c d6 3d 4f 01 59 3d
       -0.055309348 -0.05518569 0.104699746 0.052979764
000310 53 f5 27 3c f0 e9 f5 3a 0b 3e 83 bd 97 0c 54 bb
       0.010251361 0.0018761735 -0.06408318 -0.0032356137
000320 29 b2 0a 3e 85 7e 9d bb 23 6b 81 3d f9 1c 89 3d
       0.13544525 -0.004806342 0.06319263 0.06694979
000330 f6 38 b8 3c 7e b9 5e bd 58 16 ad bd 3c ef c5 bd
       0.022488099 -0.054376118 -0.08451527 -0.09664771
000340 c6 4c 4d bd 6f 36 14 bc 46 07 f4 bb 6c 89 9f 3c
       -0.050122045 -0.009046181 -0.007447156 0.019474708
000350 d9 0f ff bb 04 51 ba 3c 7f 19 51 be 8a 56 19 bd
       -0.0077838716 0.02274371 -0.20419882 -0.037436046
000360 9d f4 8d 3d dd 16 bf bd d2 2a 27 bb df 55 49 bd
       0.06931422 -0.09330533 -0.00255077 -0.04915416
000370 a2 88 8a bd a9 8d 6b bd 99 99 63 3d 4d ea f2 3c
       -0.06764342 -0.057508145 0.055566404 0.029652739
000380 1b c6 fe 3c 8d e2 19 bc db d6 34 3d e4 b3 1b 3c
       0.031100323 -0.009392393 0.044150215 0.0095033385
000390 45 e8 b4 3d 18 65 f7 bc cb 44 0b 3c e6 95 5f 3d
       0.088333644 -0.030199572 0.008500288 0.054586314
0003a0 0d 40 7f 3b 91 7b 32 bc d7 70 18 bd e0 09 f4 3c
       0.003894809 -0.010893718 -0.037216987 0.029789865
0003b0 94 56 da 3c ba 50 94 bd 11 6a 0e bd 94 f1 7b bd
       0.026652612 -0.0724196 -0.03476912 -0.061509684
0003c0 33 b0 28 bd 09 5d dd 3d 9e 8b 7b 3d af f1 d7 3c
       -0.04118366 0.10808761 0.061412446 0.02636036
0003d0 2c ea 98 3d e1 2f 30 bd 8a 6e a0 3d 1b db 9e 3d
       0.0746654 -0.04301441 0.07833584 0.07756635
0003e0 44 51 c7 3d d2 79 1f 3c c3 76 72 3d 5e e7 f4 3d
       0.09732297 0.009733634 0.05919529 0.11958192
0003f0 3d b9 0d 3d b6 fe 6f bd 7a f7 4c 3d af 37 e1 3c
       0.034600485 -0.05859252 0.0500407 0.027492372

net_container.4.bias f4 [128]
000000 12 f2 d7 bd 7f 67 26 bd 8d f8 26 3e 4c 30 0b be
       -0.10544218 -0.040626045 0.16305752 -0.13592643
000010 27 c6 ad bd 83 cf bf bd 25 d6 04 be 1e df aa bd
       -0.0848506 -0.093657516 -0.12972315 -0.083433375
000020 fe ea 33 be c3 84 b5 bb 91 f8 8c 3d d9 f0 e6 bd
       -0.17570111 -0.005539508 0.06883348 -0.11276407
000030 5e bf c0 bb 00 26 a3 bd 54 19 70 3c d6 f3 8f 3d
       -0.0058821877 -0.07966232 0.014654476 0.0702893
000040 8b ca 00 be 6b e2 72 bc 76 e1 8d 3d c9 43 cf 3c
       -0.12577264 -0.01482449 0.06927769 0.025300877
000050 b1 d5 08 bd f0 9b 29 3c 5d d2 ec bd ba e9 05 3c
       -0.033406917 0.01035212 -0.11563561 0.008173401
000060 d1 b2 96 bd 23 92 83 bd db 24 b5 3d 90 c6 ff 3c
       -0.07358325 -0.06424358 0.0884492 0.031222612
000070 94 58 a2 bd b6 f1 9f 3d df 3e 95 bd 54 88 0d 3d
       -0.07927051 0.078097746 -0.07287382 0.03455384
000080 2c 51 fc 3b 48 d4 85 bc 78 b4 be bc cc 0a c3 bd
       0.007700106 -0.016336575 -0.023279414 -0.09523544
000090 73 47 2a bd 3a fd 52 bd 6c fc 23 3c 08 ef 87 3d
       -0.041572046 -0.051511027 0.0100089125 0.066373885
0000a0 81 10 6d bb 05 6f 86 bd b6 38 68 3d 6f 92 a0 bd
       -0.0036173167 -0.06564144 0.05669471 -0.0784043
0000b0 2e 1d 8c bd 6f 6b 61 3d bf a6 ac bd 7d 81 41 3d
       -0.06841503 0.055034097 -0.08430242 0.04724263
0000c0 2d cc 59 3d df 21 13 3d 5f ac 57 3d e1 dc 20 bd
       0.053173233 0.035920974 0.05265462 -0.039273147
0000d0 f4 98 82 bc 2e d3 88 bd 07 1a fb bc cc 54 ac 3c
       -0.015942074 -0.06680904 -0.03065206 0.021036528
0000e0 b3 77 07 3e b5 28 df bd 3c 18 ce bc ac 9e 4b 3d
       0.13229255 -0.10896436 -0.02515804 0.04971187
0000f0 a3 7b 3d bc 2b a8 da bc f5 b4 ba bd 35 0e 18 bd
       -0.011565122 -0.026691517 -0.09116546 -0.037122924
000100 aa e4 02 bc 20 13 26 bd 33 32 be bd 98 0d 8c 3d
       -0.007989088 -0.040545583 -0.092869185 0.0683853
000110 22 c2 f8 bc 4b 46 85 bc b1 ea 97 3d 5f 60 88 ba
       -0.030366007 -0.01626887 0.07417811 -0.0010404697
000120 c8 2e cf 3d f0 f3 c4 3d 8d 24 0a bd f5 2c 67 3d
       0.10116345 0.0961684 -0.033726264 0.05643936
000130 dc 68 8e 3c ec 64 87 3d 21 08 4d 3d 5d 36 1b bd
       0.017383985 0.06611046 0.05005658 -0.03789364
000140 a9 bb fe 3d 1f 82 a6 3c 93 ae cc bc 9a 8c 72 3c
       0.12438137 0.020325718 -0.024985587 0.01480403
000150 23 2f bb bb cc 16 bf bd c7 7b b9 bc 46 23 c8 bd
       -0.0057124062 -0.0933052 -0.02264203 -0.09772353
000160 12 9c 43 3c 4e 85 b3 bd d0 ef a8 bd 50 59 05 be
       0.0119390655 -0.0876566 -0.082488656 -0.13022351
000170 17 f4 bf bd 0b f3 26 bd 74 d1 97 3d 47 e7 7f bd
       -0.09372728 -0.040759128 0.07412997 -0.062476423
000180 44 43 71 bd df 62 94 bd da 97 17 3d 8b 51 1f 3d
       -0.05890204 -0.07245421 0.03701005 0.038896125
000190 39 4e 22 be b1 fc eb bd a0 de 3f be bd a0 45 3d
       -0.15850152 -0.115228064 -0.18737268 0.048248995
0001a0 f6 3b a2 3d 19 91 cf bc 94 48 8f 3d 30 e3 8c bc
       0.07921593 -0.025337743 0.06996265 -0.017198175
0001b0 d5 26 d5 bd 02 29 9f bc 08 93 87 3b 3f 75 ca 3c
       -0.10407797 -0.019428734 0.0041374005 0.02471411
0001c0 8a 99 49 bc 56 2b df bd b0 30 d7 3d 0d 26 57 3d
       -0.012304673 -0.108969375 0.10507333 0.052526522
0001d0 9f 9a cf 3c b1 76 83 3d 7c 15 ef bc 91 63 90 3d
       0.025342284 0.06419123 -0.02918505 0.07050241
0001e0 23 6c c9 3c 38 29 36 3d 62 59 67 3d 1b 31 85 bc
       0.024587696 0.044472903 0.056481726 -0.016258767
0001f0 d7 25 16 3d 8d 34 96 bd 3c 4c 01 3d d6 3c f7 3c
       0.03665718 -0.07334242 0.031566843 0.030180376

policy_layer.weight f4 [19, 128]
000000 57 e1 ae bc d1 d6 9c 3b fe 09 34 bd 0a 6b 00 bd
       -0.021347685 0.0047863503 -0.04395484 -0.03135208
000010 7e 7f 53 bd 05 1b bb 3d e7 ee ab 3c 8e f8 15 bd
       -0.051635258 0.09136013 0.020987941 -0.036613993
000020 b2 d7 0d 3d 6d 52 c9 3d a0 11 80 bc 7c f0 86 bc
       0.03462953 0.098301746 -0.015633404 -0.016472094
000030 ee cf 1f 3d 51 41 ca 3c 0c 37 2a 3d 53 68 fb 3c
       0.039016657 0.024689348 0.041556403 0.030689394
000040 57 47 48 bd 7b 7f 14 3c 41 fd 88 3b 5e 88 41 b9
       -0.04889616 0.009063597 0.004180581 -0.00018456715
000050 4d 41 21 3d eb 45 fc 3c 4d 4f 48 3d 53 08 3a bd
       0.039368916 0.030795058 0.048903752 -0.045418095
000060 c4 36 01 3d 6c ff 94 bc 9d 54 ea 3b fc 7e e6 bb
       0.03154637 -0.0181882 0.0071512 -0.0070341807
000070 8a 50 e9 3c ea 8d 89 3c 5d 4c 40 bc 9f f4 b7 3c
       0.028480787 0.016791303 -0.011736956 0.022455512
000080 f9 62 00 bd 4d b8 c5 3b 4e 37 25 3d 42 72 01 bd
       -0.031344388 0.0060339333 0.040335946 -0.031603105
000090 ed 84 b1 3c b3 fe 1e 3c 6c 26 a9 bc 4a f7 4e ba
       0.02166983 0.00970428 -0.020648204 -0.00078951253
0000a0 71 0b 2b bb cc 61 2a 3d 9b ce 41 bd b9 de 60 3d
       -0.002609935 0.041597173 -0.047316175 0.054899905
0000b0 ca 68 3a bd 86 dd bc bd c9 53 08 3d 04 a7 75 3d
       -0.04551009 -0.0922194 0.03328303 0.05997373
0000c0 1a 26 8a bb 53 3f e4 bc f8 17 89 bd f8 13 af 3c
       -0.004215968 -0.027862227 -0.06694025 0.021371827
0000d0 33 1e 0c 3d 80 65 32 3d dd ad b9 3a 9d eb 9e bb
       0.034208488 0.04355383 0.0014166195 -0.0048498646
0000e0 75 b1 51 bc 66 b4 7d 3d e0 16 8e 3b 4e 5a 0c 3d
       -0.012798657 0.06193962 0.004336223 0.03426581
0000f0 b2 ab 24 3d 4d a4 5b 3d c1 4c 14 3d 61 a0 66 bd
       0.040202804 0.053623486 0.03620601 -0.056305293
000100 55 2e 27 3c 9f 6e ce bc a3 5e 49 bd a0 db 86 3d
       0.0102039175 -0.025199233 -0.04916252 0.06584859
000110 fd 8d 78 bd 19 0e b0 bc 17 40 1c bd 10 e9 14 3d
       -0.060682286 -0.021491097 -0.03814706 0.03635508
000120 18 c4 37 3d bf 0b 13 bd d7 ab 05 3c 06 77 de 3c
       0.044864744 -0.035899874 0.008158646 0.027156364
000130 59 65 97 3d 3f 4c 80 bc 3a c7 1d 3c 94 c4 05 bc
       0.073923774 -0.015661357 0.009630019 -0.008164544
000140 a3 b5 eb 3c d1 27 9f bc f1 f2 bf 3d 8c 0d e4 bc
       0.028773135 -0.019428166 0.09372509 -0.02783849
000150 11 da 5e 3d b3 2c 1d bd d7 65 c4 3c 31 b7 26 3d
       0.054407183 -0.038372707 0.023974342 0.04070205
000160 60 2c 32 3b ca f7 ad 3c 7d 16 9e 3d 18 a5 eb bb
       0.0027187094 0.02123632 0.07719133 -0.0071913116
000170 7a 9b 49 bd b1 16 2a 3d 83 9f 4f bd 92 e6 37 bd
       -0.04922054 0.041525546 -0.05068923 -0.044897623
000180 d8 db a4 3d 7f 6e 4b 3d e4 59 3d 3c a9 41 d1 bc
       0.08049744 0.049665924 0.011557076 -0.025544005
000190 11 09 71 bb 98 d4 66 3c 1f 16 00 bd b0 e4 83 bd
       -0.0036779086 0.014088772 -0.031271096 -0.06440103
0001a0 29 09 0a bd 92 f1 62 bc 15 6a 94 3d ac 81 18 3d
       -0.033700142 -0.01385154 0.07246796 0.03723304
0001b0 b0 24 a3 3c c3 e8 e2 bc d3 c0 89 bc 42 dc 0c 3d
       0.019914955 -0.02769888 -0.016815579 0.03438974
0001c0 84 74 24 bc 2d 56 06 3c 6b 58 a8 3c d4 b1 c6 bc
       -0.010037545 0.008199257 0.020549973 -0.024254717
0001d0 fa 55 77 bd 74 45 0a 3d b5 cc 9c bd 02 ad 03 b9
       -0.060384728 0.033757642 -0.07656232 -0.00012557584
0001e0 4e 46 cd 3c f8 bc 85 bd 80 25 90 bd 77 e1 b3 bc
       0.025057938 -0.065301836 -0.070384026 -0.021958096
0001f0 b3 ad b5 bc b1 94 80 bd 3b 16 db 3a a0 f4 00 bd
       -0.022177553 -0.06278361 0.0016714999 -0.031483293
000200 7e 56 94 bd b8 29 91 3c c9 6c 03 3d 7a 79 9c bd
       -0.072430596 0.017720088 0.032086167 -0.07640357
000210 16 8f 3d bd 90 6f 58 3d 0b 4a 42 3b 68 72 30 bc
       -0.046279036 0.05284077 0.0029646184 -0.010769464
000220 0c 0a 76 bd 42 15 34 3d 03 81 85 bd fe 9c 38 bd
       -0.060068175 0.043965586 -0.06518748 -0.045071594
000230 f0 12 82 bd 6e c9 6b bd cb 2f 3c 3d 61 04 ae bc
       -0.06351268 -0.057565145 0.045944016 -0.021242322
000240 e7 ce 67 bc d1 a0 ee bc 5d d6 5a 3d 23 a4 4e 3b
       -0.01414845 -0.029129418 0.05342709 0.0031530939
000250 e2 16 b8 3c d6 4e 81 bb 31 8e 4a 3a 41 22 9e 3d
       0.022471849 -0.0039461656 0.00077268766 0.07721377
000260 78 ee 29 3a c0 8c 84 3d d7 d3 70 3d 4a be 42 3d
       0.0006482373 0.064721584 0.058795776 0.047544755
000270 25 09 0e 3d 58 5c 8d bc 36 60 0a 3b 02 ad 0e bc
       0.03467669 -0.017255947 0.0021114475 -0.00870824
000280 05 50 04 3d af 9e 2c 3d c5 0a b7 3b b6 cc 04 bd
       0.032302875 0.04214352 0.0055860006 -0.03242179
000290 22 a6 be 3d cf 7f 2b bd 2b 45 47 3d 9c c5 72 bc
       0.09309031 -0.041869935 0.048649948 -0.014817622
0002a0 90 d4 2b bd 12 8b 97 bc a5 a5 b5 3c ae 81 18 bd
       -0.041950762 -0.018498931 0.022173712 -0.037233047
0002b0 7d 08 99 3c 55 1d 4b 3d 64 81 17 bd 1e c7 e1 3c
       0.018680805 0.04958852 -0.03698863 0.027560767
0002c0 a2 8e 5e 3a 52 bf 41 3a f4 9a 5b bd 53 2a 19 bd
       0.0008489882 0.00073908747 -0.05361457 -0.03739388
0002d0 a2 31 32 3d 45 26 89 3c 6f ee d3 3c e5 99 79 3d
       0.043504365 0.016741881 0.02587053 0.06093778
0002e0 bc c9 2d bd e2 f8 50 bd 22 ca 65 bd 6d ec 75 3d
       -0.042428717 -0.051018603 -0.056100972 0.060039926
0002f0 52 84 a0 bd 4e ba e0 3c 95 44 46 bc 73 7f 52 bb
       -0.07837738 0.027432587 -0.012101312 -0.0032119423
000300 58 a2 61 bd 89 86 10 bd ca b6 45 3d ab 07 9e 3c
       -0.055086464 -0.035284553 0.048270024 0.019290766
000310 81 9e 88 3d ec a2 78 3d a3 50 8c bb 51 d1 f4 bb
       0.06670857 0.06070225 -0.0042820736 -0.0074712415
000320 11 ac 2d bd d3 96 b0 bc 1e 69 2e 3b f9 7e 6b 3c
       -0.042400423 -0.021556294 0.0026612948 0.014373534
000330 b0 0f ed bb 3f ae b5 3c 25 a3 01 3b f6 38 83 bd
       -0.007234536 0.022177814 0.001978108 -0.06407349
000340 d6 2b 14 3d 10 74 4f 3d 63 94 78 3b e5 de e8 3c
       0.036174618 0.050647795 0.0037930242 0.028426597
000350 78 36 50 3d da 63 94 3b f0 46 bd 3c 98 ff 75 3c
       0.050833195 0.004528505 0.023105115 0.015014552
000360 c2 67 be 3c 62 01 d7 bb 90 d6 16 bd 35 8a 89 bd
       0.023242835 -0.006561444 -0.036825716 -0.06715814
000370 64 ad 7c bd b4 d1 14 bd d4 9a 8e bc 8b 70 88 3d
       -0.061688796 -0.0363328 -0.017407812 0.06662091
000380 f3 15 d0 3c 3e bf 21 ba 14 b4 8b 3c 72 32 43 bc
       0.025401091 -0.000617016 0.017053641 -0.011913883
000390 40 0f 32 3d 8c 47 40 3d e0 a3 e1 bc f3 39 e0 3c
       0.043471575 0.046943232 -0.027543962 0.027371382
0003a0 64 52 9c bc ec be d0 3c 60 1d 90 bc 62 58 f8 3c
       -0.019082256 0.025481664 -0.017592132 0.030315582
0003b0 a3 a7 7c bd 99 02 ca bc db b1 00 3c f9 f7 ec bc
       -0.06168331 -0.024659442 0.007854904 -0.028926836
0003c0 3e 4c 14 bc 1d 28 61 bd aa 86 38 3d b5 39 4d bb
       -0.009051381 -0.054969896 0.0450503 -0.0031314914
0003d0 e3 aa 9c 3d 76 2a 0e bc 0c 9b 8f bd 5a 4e 12 bd
       0.076497816 -0.008677116 -0.07011995 -0.035719253
0003e0 37 c4 10 bd d1 a9 84 ba e0 39 44 3d a2 73 44 3d
       -0.035343375 -0.001012141 0.047906756 0.04796184
0003f0 a4 e6 01 3d e3 02 93 3a ea d4 ab bc 9a 7f 0d 3d
       0.031714097 0.001121607 -0.020975549 0.03454552

policy_layer.bias f4 [19]
000000 5e 7e 98 bc 98 48 ac 3a b2 50 26 bd e3 07 6f 3b
       -0.018614944 0.0013144193 -0.0406043 0.0036473207
000010 e9 ac 25 bc d9 2e b1 bc ca 22 6e bd 0c 0f 17 3d
       -0.010112026 -0.021628784 -0.058138646 0.036879584
000020 78 95 4f bd 91 e2 c8 3d 6b a6 91 3c f3 c9 87 3d
       -0.050679654 0.09808839 0.01777955 0.06630316
000030 a7 62 59 3d eb e5 38 3c 17 0c 30 bd 42 34 1d be
       0.053072598 0.011285285 -0.04298028 -0.15351966
000040 6f 14 1f be 21 49 8a 3b 31 d4 38 bd
       -0.15535139 0.0042201434 -0.045124236

value_layer.weight f4 [1, 128]
000000 51 58 23 bd b2 9d e2 3b 62 f4 16 3e 81 9d 6e bb
       -0.039879147 0.0069157714 0.14741662 -0.0036409798
000010 3b 4d 74 bd d1 67 9a bc 82 3c e5 bd a9 eb 2b 3b
       -0.059643965 -0.018848332 -0.111931816 0.0026232994
000020 5d 81 dd bd e3 50 78 bc dd 5b 9f bd d1 6a 12 bd
       -0.1081569 -0.015156004 -0.077811934 -0.0357464
000030 68 a0 88 3d 2c c8 1a 3d a3 93 5f 3b 7a 9b a2 bd
       0.0667122 0.037788555 0.0034115098 -0.07939811
000040 91 c1 42 bb 79 96 b4 bd 8c e6 6c 3d 08 c5 ff 3c
       -0.0029717425 -0.08817763 0.057837054 0.031221882
000050 4d 74 f7 bc f2 be 9a 3d e6 45 29 3d 49 8b 89 3d
       -0.030206824 0.07555951 0.041326426 0.0671602
000060 2b 83 59 bc cf 83 d9 3d c8 84 01 bd 44 f2 2f bd
       -0.013275902 0.106208436 -0.03162077 -0.042955652
000070 6b 60 3c bd e4 a4 ec 3c bb 27 0b 3e 72 d1 c9 3d
       -0.04599039 0.02888722 0.13589375 0.09854402
000080 8d 1d 07 bc 0f e3 8c bb 96 97 b5 3d 5a ad 25 3d
       -0.008246792 -0.0042995284 0.08866803 0.040448524
000090 a2 1a 44 bd a3 09 ac bd ca 79 b9 bd d4 a9 b9 bd
       -0.04787696 -0.084002756 -0.090564325 -0.09065595
0000a0 0b 6b 9f 3c 80 6a c8 3d 13 90 a2 39 0d 12 16 bd
       0.019460222 0.09785938 0.00031006392 -0.03663831
0000b0 b7 fc bf 3d de 47 f6 bc 45 cb be 3d d5 b8 2d 3d
       0.093743734 -0.030063566 0.09316114 0.042412598
0000c0 80 18 cc bd 65 45 c8 3c 67 55 a2 3d 2a 33 44 3b
       -0.099656105 0.024447152 0.079264455 0.0029937723
0000d0 fd bf 62 bd 76 38 f6 bc a7 43 17 bd 6f e7 ae bd
       -0.055358876 -0.03005622 -0.036929753 -0.08540236
0000e0 aa cd d0 3d ea c3 95 bd 56 28 1f 3d c2 7c 92 bc
       0.10195477 -0.07312758 0.038856827 -0.017881755
0000f0 d8 e6 b3 3d 8b 33 d4 3d 04 93 e3 bd 39 06 93 bd
       0.08784264 0.103613935 -0.111120254 -0.07178921
000100 86 d3 4d 3d da 99 e7 3b 00 1d 50 3d 12 8a 8c 3b
       0.050250553 0.007067901 0.050808907 0.00428892
000110 c3 06 87 bc 3d 32 8e 3d d8 be b9 bd b0 18 8a bc
       -0.016482716 0.06943176 -0.09069604 -0.016857475
000120 8c 01 ad 3d 31 4b 1c 3d d3 e1 94 3d 6f 64 f6 bc
       0.08447561 0.038157646 0.07269635 -0.030077187
000130 ef d7 dc bc 97 65 53 3d f6 88 1e bc c5 b6 01 bc
       -0.026958434 0.051610555 -0.009676209 -0.007917111
000140 dc 84 54 3d b8 a4 80 3c 9b fb 1f bd 4a ed c5 3b
       0.051884517 0.015703544 -0.03905831 0.00604025
000150 8b 8e 41 3d 8f c9 45 3d c2 c9 b9 bc 8c 31 6d bd
       0.04725508 0.048287924 -0.022679213 -0.05790858
000160 b8 35 f0 bb 6b 5a 8e bd c2 b7 70 bc ba e1 ee bd
       -0.0073306225 -0.069508396 -0.014692249 -0.11664148
000170 45 0b ac 3c a7 38 ee bb f2 62 b7 3d 0e 5a a9 bd
       0.021001467 -0.007269937 0.08954419 -0.0826913
000180 d0 f5 6a bd 97 4c ab 3d 19 fc 22 3d a8 65 bd 3c
       -0.05736333 0.08364218 0.0397912 0.023119763
000190 38 5f 73 bc 62 1f 6d bd 67 34 c0 bd 1d c5 81 3b
       -0.014854245 -0.057891257 -0.09384995 0.0039602653
0001a0 9f ff b1 3d 68 27 3d bd f4 b5 96 3b 99 8f 99 3d
       0.08691334 -0.04618016 0.004599327 0.07498092
0001b0 63 29 9d bd ec 56 d0 3d 96 ae 88 3c 60 c0 67 3d
       -0.076739095 0.10172829 0.016684812 0.056579947
0001c0 06 ce 62 3d bc 30 9a 3d 6c a3 d7 3c b3 87 b8 bd
       0.05537226 0.075288266 0.026323043 -0.090102576
0001d0 f5 ff 2a bd 14 50 8d 3d ab 91 74 3d 33 1b 16 bd
       -0.041748006 0.06900039 0.059709232 -0.036647033
0001e0 77 2c fd 3d 30 55 4f 3d dd 7f b7 3c 7c 0d 92 3d
       0.123619966 0.05061835 0.022399837 0.07131478
0001f0 4e 70 93 3d 97 a1 4f 3d 32 5f 1b bd 20 98 a2 3d
       0.07199155 0.050691213 -0.037932582 0.07939172

log_std_parameter f4 [19]
000000 a5 d0 8a bf d9 06 8c bf c4 5a 8d bf d8 6c 75 bf
       -1.0844923 -1.093959 -1.1043324 -0.9586921
000010 6e b9 71 bf e2 15 97 be a3 02 5b be ee 46 96 bf
       -0.9442357 -0.29508883 -0.21387725 -1.1740396
000020 c7 23 97 bf 4c 9c ab be 2b 58 b3 be 1a 0c 49 bf
       -1.1807793 -0.33517683 -0.35028204 -0.7853409
000030 f0 5b 5c bf 9e d3 85 be 6c 81 87 be a4 4b 90 be
       -0.86077785 -0.26138014 -0.2646593 -0.2818271
000040 cb a0 90 be a2 13 9f be 62 6d 8c be
       -0.28247675 -0.31069666 -0.27427202
