humanoidprac/humanoidprac/scripts/skrl/logs/skrl/h1_flat/joint_experiment_ver3/2025-09-18_08-12-35_ppo_torch/checkpoints/agent_21600.pt (torch, 549970 bytes, 40 tensors)

log_std_parameter f4 [19]
0	0xc04da627	-3.2132661
1	0xc04fef02	-3.2489629
2	0xc05857bf	-3.3803556
3	0xbfee0d02	-1.859772
4	0xbfebe609	-1.8429576
5	0xbf65cfe2	-0.8977033
6	0xbf5df82a	-0.86706793
7	0xc015b1c2	-2.3389745
8	0xc01701f2	-2.3594937
9	0xbf49434d	-0.7861832
10	0xbf51e1fa	-0.8198544
11	0xbfb77e8f	-1.4335498
12	0xbfbfdd7b	-1.4989465
13	0xbf40cbde	-0.75311077
14	0xbf2a9142	-0.66627896
15	0xbf4c22b4	-0.7974045
16	0xbf3f4b12	-0.74723923
17	0xbf4468d7	-0.7672247
18	0xbf512ea9	-0.8171182

net_container.0.weight f4 [128, 69]
0	0xbde76edf	-0.11300444
1	0xbef03b54	-0.46920264
2	0x3e8d10f4	0.27551997
3	0xbe8cb528	-0.2748196
4	0x3c9369ad	0.017994726
5	0x3c453d6e	0.012038572
6	0xbe8c8857	-0.2744777
7	0xbe4f64f9	-0.20253362
8	0x3dc1e14c	0.094668
9	0x3d4aad90	0.04948193
10	0xbd7eda87	-0.062220123
11	0x3e46310e	0.1935465
12	0x3dca6749	0.09882981
13	0xbe809caf	-0.2511954
14	0x3c9275b1	0.017878385
15	0x3a7a8b8a	0.0009557536
16	0x3e73318d	0.23749371
17	0xbdda3e57	-0.10656422
18	0xbe276a8c	-0.16349238
19	0xbe9299fa	-0.286331
20	0xbe5b20c8	-0.21399224
21	0xbc011b08	-0.00787998
22	0x3ddad91c	0.106859416
23	0xbe756ca4	-0.23967224
24	0xbe6a19cc	-0.22861403
25	0xbd8381db	-0.06421252
26	0xbe2102dd	-0.15723749
27	0x3dfc5006	0.12319951
28	0x3e4285b6	0.18996319
29	0x3de0ede6	0.109828755
30	0xbcdec814	-0.027195014
31	0xbcd74450	-0.026277691
32	0x3d104d1e	0.035229795
33	0xbd384d89	-0.04499582
34	0xbd1283b0	-0.03577012
35	0x3d689545	0.05678298
36	0x3a6b9900	0.00089873374
37	0xbcd627c6	-0.026142012
38	0xbdf4db73	-0.11955919
39	0x3dbc3f80	0.09191799
40	0x3d0fd0ed	0.035111357
41	0x3d2347a8	0.03986326
42	0x3da140d6	0.078736946
43	0xbbee3780	-0.0072697997
44	0x3c8074b4	0.015680648
45	0x3d90a074	0.07061854
46	0xbc9d0e29	-0.019171791
47	0x3de86210	0.11346829
48	0xbddb1af4	-0.106985
49	0x3d979d78	0.07403082
50	0xbdcb5a6d	-0.09929357
51	0x3caf02d4	0.021363653
52	0x3e422493	0.18959264
53	0x3e305899	0.17221297
54	0x3d8e41eb	0.069461666
55	0x3d25f8af	0.040520366
56	0x3e1b9c2c	0.15196294
57	0xbda2ed9d	-0.079554774
58	0x3de033d4	0.109473854
59	0x3dfc61e2	0.12323357
60	0xbd65debb	-0.056120615
61	0xbda8fb08	-0.082510054
62	0x3b8f054f	0.0043646465
63	0xbc187fac	-0.009307783
64	0xbd3b0a6c	-0.045664236
65	0x3d9a1956	0.07524364
66	0xbc973281	-0.0184567
67	0xbd941d52	-0.07232155
68	0x3b5d5820	0.003377445
69	0xbdebca5b	-0.115132056
70	0xbe0fb2fd	-0.14033122
71	0x3e2fc841	0.17166235
72	0x3cfacbbf	0.030614732
73	0xbe1d1a32	-0.15342024
74	0x3e035055	0.12823613
75	0xbe576dd4	-0.2103799
76	0xbdaafb9a	-0.083487704
77	0x3d97808b	0.073975645
78	0x3db638aa	0.088975266
79	0xbd28830b	-0.041140597
80	0xbc5b1f17	-0.013374112
81	0xbe16fa4f	-0.14743923
82	0x3e0edcb2	0.13951376
83	0x3dc6183e	0.096725926
84	0x3e1f77db	0.15573065
85	0x3e8e917e	0.27845377
86	0x3eeb387c	0.45941532
87	0xbe810e66	-0.25206298
88	0x3f1edb04	0.6205294
89	0xbeebb0de	-0.46033376
90	0xbe042c65	-0.1290756
91	0xbe9c567d	-0.30534735
92	0xbc666470	-0.014062032
93	0x3e26269a	0.16225663
94	0xbdfd02c6	-0.123540446
95	0xbeadf2d6	-0.33974332
96	0x3dd3c6aa	0.103406265
97	0x3d715443	0.05891825
98	0x3ec50d00	0.3848648
99	0xbed68a5d	-0.41902438
100	0xbc8cecf4	-0.017202832
101	0x3df4bd90	0.11950219
102	0xbd3b1224	-0.045671597
103	0xbe080f78	-0.13287151
104	0xbd694742	-0.056952722
105	0xbd68a62b	-0.056799095
106	0x3d1666b4	0.03671904
107	0x3dcd261a	0.10017033
108	0x3d99bd50	0.075068116
109	0x3ce23615	0.027613679
110	0xbd8c443d	-0.06848953
111	0xbe01e68c	-0.12685603
112	0x3b94e97d	0.0045444355
113	0x3dadac97	0.084801845
114	0x3d529d03	0.05141927
115	0x3dc5bdc3	0.09655335
116	0xbd9522e7	-0.07282048
117	0xbd109001	-0.035293583
118	0xbd0a3840	-0.03374505
119	0xbd98d9a2	-0.07463385
120	0xbca17f67	-0.01971407
121	0x3db66f8c	0.08907995
122	0xbddbc8e6	-0.10731678
123	0x3d833805	0.06407169
124	0xbcf34e82	-0.029700521
125	0x3d38712f	0.045029815
126	0xbc96143f	-0.018320201
127	0xbe003aa6	-0.12522373
128	0xbc384cf6	-0.011248818
129	0x3c6bdd0c	0.014395963
130	0x3cf93363	0.03042001
131	0xbeb3008b	-0.34961352
132	0x3d214c8f	0.039379653
133	0xbdb9931f	-0.09061264
134	0xbca1c44b	-0.01974692
135	0xbe1d4859	-0.1535963
136	0xbd2089c7	-0.039193895
137	0x3d1ea897	0.038735
138	0xbe4f9a5c	-0.20273727
139	0x3e297d41	0.16551687
140	0x3d88f0c6	0.06686549
141	0x3d97a917	0.07405298
142	0xbdbf0f75	-0.0932912
143	0xbd2a1474	-0.041523412
144	0xbea7049a	-0.32620698
145	0x3dd89546	0.10575347
146	0x3e4fd501	0.20296098
147	0x3ed4f817	0.41595528
148	0x3d2a0e7d	0.041517723
149	0x3e024653	0.12722139
150	0xbe26e026	-0.16296443
151	0xbeec5e8f	-0.46165892
152	0xbec62c86	-0.38705844
153	0x3cdae754	0.026721634
154	0xbbd1adc9	-0.0063988906
155	0xbe07d854	-0.13266116
156	0x3e96e2ae	0.29469818
157	0xbeefdb6e	-0.468471
158	0xbced8c76	-0.028997641
159	0xbcc88082	-0.02447534
160	0xbdcb5fa6	-0.09930353
161	0xbd314471	-0.04327816
162	0x3d56a249	0.05240086
163	0xbed8c881	-0.42340472
164	0xbe6385bb	-0.22218983
165	0x3cfd40bc	0.030914657
166	0xbd4708e0	-0.04859245
167	0xbd12a444	-0.035801187
168	0x3e7fd19c	0.24982303
169	0x3bacfd26	0.005279201
170	0x3cf2e000	0.029647827
171	0x3c20aac1	0.009806336
172	0x3db8b1c9	0.09018285
173	0xbdb0daae	-0.0863546
174	0xbcae4707	-0.021274103
175	0x3d12ea6a	0.035868086
176	0xbd7f6dec	-0.06236069
177	0x3d8de2c5	0.069280185
178	0xbdf5b01d	-0.119964816
179	0xbcf45b8b	-0.029828807
180	0x3b9b3bc1	0.004737348
181	0x3d3199ab	0.04335944
182	0x3d378bb6	0.044810973
183	0x3daa232c	0.0830749
184	0xbcfb55aa	-0.030680496
185	0x3bae5c41	0.005321056
186	0x3c404fc9	0.011737772
187	0x3bc1df14	0.0059164856
188	0xbdf56247	-0.119816355
189	0x3d56b9da	0.052423336
190	0xbdeae2fd	-0.11469076
191	0xbce8a98b	-0.028401157
192	0xbdd5884d	-0.10426388
193	0x3d0f9250	0.035051644
194	0xbc7c8dd7	-0.015414677
195	0xbd7ec5f4	-0.0622005
196	0x3e7f32c6	0.24921712
197	0xbd5969ef	-0.05307954
198	0x3e13e50f	0.14442848
199	0xbd8e3a12	-0.0694467
200	0x3da7c319	0.08191509
201	0x3d82f65d	0.06394646
202	0xbb5497c4	-0.0032439092
203	0xbd4cfc32	-0.0500452
204	0xbcb530c8	-0.022117987
205	0x3d378453	0.04480393
206	0x3d07e8c0	0.033180952
207	0x3f0e43a2	0.5557195
208	0xbe2c93d3	-0.16853265
209	0xbec52df8	-0.38511634
210	0xbe256da1	-0.16155101
211	0x3e021f88	0.1270734
212	0x3c944af1	0.018102141
213	0x3f97c57a	1.185714
214	0xbe2b9469	-0.16755833
215	0xbe40b8b5	-0.1882046
216	0xbe24c6de	-0.16091487
217	0x3deee56c	0.116648525
218	0xbe1744a1	-0.14772274
219	0x3ed65e8e	0.41869015
220	0xbed21afd	-0.41036215
221	0xbd4ffbd2	-0.050777264
222	0x3f2b926d	0.67020303
223	0xbea70cd5	-0.32626978
224	0xbd79d2ab	-0.060991924
225	0x3e34f11f	0.17670105
226	0x3f199f35	0.60008556
227	0x3f16b544	0.5887034
228	0x3db46012	0.088073865
229	0xbdab2eed	-0.0835856
230	0x3e82e96a	0.25568706
231	0x3e9b2130	0.30298758
232	0x3dbac3ad	0.091193534
233	0x3c1f6321	0.009728224
234	0xbdf57dd6	-0.11986892
235	0xbd3b68c6	-0.045754217
236	0xbc9d280a	-0.019184131
237	0x3dbb62bc	0.091496915
238	0x3c6b8fa7	0.014377511
239	0xbb309c3b	-0.002694859
240	0xbcb4c742	-0.02206767
241	0xba276287	-0.0006385226
242	0xbd54398c	-0.051812693
243	0x3d54ff2c	0.052001163
244	0x3d652516	0.05594357
245	0x3d3c584c	0.045982644
246	0xbacd8427	-0.0015679643
247	0xbb772730	-0.0037712567
248	0xbd30c291	-0.043154303
249	0xb9c92c13	-0.00038370545
250	0xbc03579b	-0.008016492
251	0x3d1a43e7	0.037662413
252	0x3c12c1fb	0.008957381
253	0x3c7e5125	0.015522276
254	0x3b826f03	0.003980519
255	0xbd1dc5bb	-0.03851865

net_container.0.bias f4 [128]
0	0x3df4b512	0.11948599
1	0xbdde014f	-0.10840093
2	0xbcfde20d	-0.030991578
3	0x3e057e65	0.13036497
4	0x3cebb9a4	0.028775044
5	0x3d894764	0.0670307
6	0x3dfbb60e	0.122905836
7	0x3de18dce	0.11013375
8	0x3e14a69c	0.14516681
9	0x3e035f9a	0.12829438
10	0x3d50163e	0.05080246
11	0x3c59517e	0.013264058
12	0x3d6f1e1f	0.058378335
13	0xbd455a57	-0.048181858
14	0x3e5ca3e8	0.215469
15	0xbe068cb5	-0.13139613
16	0x3dffa430	0.12482488
17	0xbe2c1032	-0.16803053
18	0x3e2e139c	0.16999668
19	0x3da1c731	0.07899321
20	0x3d60cece	0.054884724
21	0x3cfe5248	0.031045094
22	0xbdb9bd7c	-0.090693444
23	0x3e233326	0.1593748
24	0x3dad78d7	0.08470314
25	0xbcdccba8	-0.02695258
26	0xbc88e33e	-0.01670992
27	0xbd85586b	-0.06511005
28	0xbdde8174	-0.10864535
29	0xbd87d83c	-0.0663304
30	0xbca0e79b	-0.019641688
31	0x3da091d5	0.07840315
32	0x3e4bb162	0.19891885
33	0x3d396d79	0.045270417
34	0xbd91830b	-0.071050726
35	0xbdaf02b1	-0.08545435
36	0x3da304db	0.079599105
37	0x3ce69895	0.028148929
38	0x3daa9301	0.0832882
39	0xbd946108	-0.0724507
40	0xbdf24e04	-0.118312865
41	0x3e3887ff	0.18020628
42	0xbe4f9468	-0.20271456
43	0xbd60453c	-0.054753527
44	0x3dbfa9da	0.093585685
45	0xbda5694f	-0.08076727
46	0x3d72eace	0.05930596
47	0xbde728e4	-0.11287096
48	0x3e2fcc9e	0.17167899
49	0x3dc03221	0.09384561
50	0x3c84bd40	0.016203523
51	0xbd0c064b	-0.03418569
52	0xbe0f0d12	-0.1396983
53	0xbda73ad9	-0.08165521
54	0xbc40845f	-0.01175031
55	0x3d617091	0.055038992
56	0x3e0a8a80	0.13529396
57	0x3d84343f	0.06455278
58	0x3e099f86	0.1343976
59	0x3dee8aab	0.116475426
60	0xbd444634	-0.047918513
61	0x3d86666d	0.06562505
62	0x3e5d2a70	0.2159822
63	0x3ca2b410	0.019861251
64	0x3d145147	0.036210325
65	0x3e4b02ba	0.19825259
66	0x3d8de662	0.06928708
67	0x3c29862e	0.010346932
68	0x3cc68f8d	0.024238372
69	0x3d895513	0.0670568
70	0x3dd0289c	0.101639956
71	0xbe1ac31a	-0.15113488
72	0x3dd927e2	0.1060331
73	0x3e009e3d	0.12560363
74	0x3d190d85	0.03736641
75	0x3a307022	0.0006730576
76	0x3e5bf573	0.2148035
77	0xbc2479b1	-0.010038779
78	0x3e243c70	0.1603868
79	0x3c471b7a	0.012152547
80	0xbc9d40c5	-0.019195924
81	0xbd22f881	-0.039787773
82	0x3e4e084d	0.20120354
83	0x3dbf40cf	0.09338533
84	0x3e0bc5ca	0.1364967
85	0x3db45c98	0.08806723
86	0x3dd3586d	0.103196
87	0x3e4bc7c7	0.19900428
88	0x3b7ef224	0.0038901651
89	0x3e3931aa	0.18085352
90	0xbbd2bc21	-0.006431118
91	0xbd5bab67	-0.05363026
92	0x3df85db3	0.12127247
93	0xbcbf663b	-0.023364177
94	0x3ca38117	0.019959016
95	0xba25c371	-0.00063233735
96	0x3c60cb1d	0.013720301
97	0xbd3a9a07	-0.04555705
98	0xbd5f9ae2	-0.054591067
99	0xbd698a67	-0.057016756
100	0x3dd90946	0.10597472
101	0x3d308a4f	0.04310065
102	0xbde47064	-0.11154249
103	0x3d241d47	0.040066984
104	0x3b8d0a64	0.004304217
105	0x3e284e81	0.16436197
106	0x3dae09a6	0.08497934
107	0xbd9b4d1a	-0.07583065
108	0xbd5580c4	-0.052124754
109	0xbe0d5768	-0.13802874
110	0xbd9d3284	-0.07675651
111	0x3d68ce17	0.056837168
112	0xbdb4a5d1	-0.088206895
113	0xbddc5fc7	-0.107604556
114	0x3e1bd94b	0.1521961
115	0x3e31c54d	0.1736042
116	0xbe04377b	-0.12911789
117	0x3debc344	0.11511853
118	0x3cb73d4f	0.022368101
119	0xbdaa3fc5	-0.08312944
120	0x3cd7139b	0.026254466
121	0xbd8ba75d	-0.068190314
122	0x3e97ee6d	0.29674092
123	0xbdca6a5c	-0.09883568
124	0x3d357e39	0.04430983
125	0xbe011ff2	-0.12609842
126	0xbd87297f	-0.065997116
127	0x3d7fdc73	0.062466096

net_container.2.weight f4 [128, 128]
0	0xbc95ef18	-0.018302485
1	0xbdb15371	-0.08658493
2	0x3d8c0565	0.068369664
3	0xbe0730fa	-0.13202277
4	0xbd05d859	-0.03267703
5	0xbc8847f7	-0.016635878
6	0x3cae024c	0.02124133
7	0xbdb80381	-0.08985043
8	0xbce37992	-0.02776793
9	0x3d92e94f	0.07173406
10	0xbd58ed66	-0.052960776
11	0xbd9dd07c	-0.07705781
12	0x3e3daa84	0.18522078
13	0xbd5e8170	-0.05432266
14	0x3d9a99f8	0.075488985
15	0x3d2416b8	0.04006073
16	0xbddadd80	-0.10686779
17	0x3d5bd64d	0.05367117
18	0xba8276c2	-0.0009953605
19	0x3d5fa96d	0.054604936
20	0xbe14ff8a	-0.14550605
21	0xbd45cd1b	-0.048291307
22	0xbd971cde	-0.07378553
23	0xbdc0919b	-0.09402772
24	0xbdb8c59a	-0.090220645
25	0xbd877886	-0.06614785
26	0xbdcae78b	-0.099074446
27	0x3d6dfed7	0.058104362
28	0xbdb7fd8d	-0.08983908
29	0xbca474f4	-0.020075299
30	0xbc516b8e	-0.012781991
31	0xbc1e432c	-0.00965957
32	0xbd754f19	-0.059889887
33	0xbdde5b07	-0.10857206
34	0xbd5c56fd	-0.053793896
35	0xbb5df758	-0.0033869352
36	0xbd7719f2	-0.060327478
37	0x3d62fcf4	0.055417016
38	0x3d23ecf3	0.040020894
39	0x3dac7fc8	0.0842281
40	0x3d2091c3	0.03920151
41	0x3dcbd213	0.09952178
42	0xbdd89c3c	-0.10576674
43	0xbe304fef	-0.17217992
44	0x3db4bb3f	0.08824777
45	0xbbf38bf8	-0.007432457
46	0xbe05de8d	-0.13073178
47	0x3c4d185a	0.012518013
48	0x3d6aa6a2	0.05728782
49	0x3cda7eea	0.026671845
50	0x3d6313c5	0.055438776
51	0x3d9b473f	0.075819485
52	0xbdadd757	-0.084883384
53	0xbdaff13c	-0.08590934
54	0xbd102ed6	-0.035200916
55	0xbcbd26c3	-0.023089772
56	0xbdd3e42b	-0.10346254
57	0xbd15f123	-0.03660692
58	0x3cc482a2	0.023988072
59	0x3c902737	0.017596824
60	0xb9b9e00e	-0.00035452883
61	0xbbf287c2	-0.0074014375
62	0x3d9f663a	0.0778317
63	0xbd9fa842	-0.077957645
64	0xbda398f2	-0.079881564
65	0xbc8ba54f	-0.017046599
66	0xbd5b5cb6	-0.053555213
67	0xbdf165e6	-0.11787014
68	0xbbff9319	-0.007799518
69	0xbd4ae62a	-0.049535908
70	0x3dc1721d	0.094455935
71	0xbc890ec2	-0.01673067
72	0x3cf0f15b	0.029411962
73	0xbc744b09	-0.014910468
74	0xbdd15283	-0.10220816
75	0xbd64f6b9	-0.055899356
76	0xbd30e921	-0.04319108
77	0xbdf2497c	-0.11830422
78	0x3d4c667a	0.049902417
79	0x3cf82136	0.030289274
80	0x3e3bb38e	0.18330213
81	0x3daac97d	0.08339212
82	0xbc89b4d3	-0.016809857
83	0x3d87fee2	0.06640412
84	0xbe2a0890	-0.16604829
85	0x3d849f18	0.06475657
86	0xbe10ccaf	-0.1414058
87	0xbdd3037f	-0.10303401
88	0x3d211872	0.039329953
89	0xbd70f96a	-0.05883161
90	0xbde16d4c	-0.11007175
91	0x3dc08427	0.09400206
92	0xbda1ea90	-0.07906067
93	0xba13c938	-0.0005637589
94	0xbdb5cfef	-0.08877551
95	0xbdd7c96f	-0.10536467
96	0x3db00fe5	0.08596782
97	0x3e3221e8	0.17395747
98	0x3c3d97ea	0.011571864
99	0x3d921f9e	0.07134937
100	0x3d6d285a	0.05789981
101	0xba1440c0	-0.00056554005
102	0xbd865ea3	-0.06561019
103	0xbc220225	-0.009888207
104	0x3d45d5b3	0.048299503
105	0x3c0d8546	0.008637732
106	0xbd8e621c	-0.06952307
107	0xbda73066	-0.08163528
108	0x3d02dfc8	0.031951696
109	0x3c0c9274	0.008579839
110	0xbc4062b5	-0.011742284
111	0xbd2d15ee	-0.042257242
112	0x3d69b6c1	0.057059053
113	0x3d0febdc	0.035137042
114	0xbe06ba5b	-0.13157026
115	0xbdb2381a	-0.08702107
116	0xbd83ca33	-0.06435051
117	0xbd3d5e82	-0.046232708
118	0xbc928f10	-0.017890483
119	0x3d93e920	0.072221994
120	0xbd91d6c3	-0.07121041
121	0xbda41646	-0.08012061
122	0xbc997aee	-0.018735375
123	0x3d3153c2	0.04329277
124	0x3dc627f7	0.096755914
125	0x3c8a458b	0.016878864
126	0x3b9e5021	0.0048313295
127	0xbe391d2c	-0.18077534
128	0xbd199a92	-0.037500925
129	0x3d2f1302	0.042742737
130	0xbd1e084d	-0.038582135
131	0xbd5f3579	-0.054494355
132	0x3d0ba5f7	0.034093823
133	0xbd8c91f2	-0.06863774
134	0x3d695b23	0.05697168
135	0x3dcc5ce5	0.09978656
136	0x3ca5bdf3	0.020232176
137	0xbe2b8ca4	-0.16752869
138	0xbcbe1d86	-0.023207437
139	0x3e1aa6f6	0.15102753
140	0xbebb1f17	-0.36547157
141	0x3e126101	0.14294817
142	0xbd53f4c9	-0.051747117
143	0x3d25ea8f	0.040506896
144	0x3c29c687	0.010362274
145	0xb96f87b3	-0.00022843368
146	0xbdb11d71	-0.08648194
147	0xbcecdbda	-0.028913427
148	0xbcbe1250	-0.023202091
149	0xbd545df8	-0.051847428
150	0xbda69046	-0.08132987
151	0xbda1eefb	-0.0790691
152	0xbb383e15	-0.0028113176
153	0x3d723469	0.059132013
154	0xbcb92136	-0.022598844
155	0x3dbcb8d4	0.09214941
156	0x3a03267c	0.0005002988
157	0xbd835a67	-0.06413727
158	0x3de50ab7	0.11183684
159	0xbe08ea07	-0.13370524
160	0xbd42014e	-0.047364525
161	0xbca72fb1	-0.020408483
162	0xbdb87ea4	-0.0900853
163	0xbd9bbe04	-0.07604602
164	0x3d2716f5	0.040793378
165	0xbda537a8	-0.08067256
166	0xbd594c29	-0.053051148
167	0xbe0cda58	-0.13755167
168	0x3d26b085	0.040695686
169	0x3d43d044	0.04780604
170	0x3d4902c8	0.049074918
171	0x3d9815d5	0.07426039
172	0xbc591ea7	-0.013251937
173	0x3d58a886	0.05289509
174	0xbcef645d	-0.029222662
175	0xbd8f7afc	-0.07005879
176	0x3cfa28ba	0.030536998
177	0xbd19f5a2	-0.03758777
178	0xbdd923ce	-0.10602532
179	0xbe486141	-0.1956835
180	0xbb628719	-0.0034565388
181	0xbdf53ad9	-0.11974115
182	0x3b925666	0.004465866
183	0xbdd4648a	-0.10370739
184	0xbd691741	-0.056906942
185	0xbd56957c	-0.052388653
186	0xbe08bfa0	-0.13354349
187	0x3d0155a2	0.031575806
188	0xbdd8ebd8	-0.105918586
189	0xbd808aeb	-0.062764965
190	0xbe28edff	-0.16497038
191	0x3db00d18	0.085962474
192	0xbe039bcb	-0.12852399
193	0xbe11c6e1	-0.14236023
194	0xbd89c17c	-0.06726357
195	0x3ca12f20	0.019675791
196	0xbd0cf34e	-0.03441172
197	0x3d4ab399	0.049487684
198	0x3c6559ea	0.013998488
199	0x3b933b95	0.0044931867
200	0xbcdca343	-0.026933318
201	0x3d43dfff	0.04782104
202	0xbdf5b983	-0.11998274
203	0xbc462a39	-0.012095028
204	0x3d4417bb	0.047874194
205	0x3a7921dd	0.0009503642
206	0x3dbdf5b9	0.092753835
207	0x394dd5e9	0.00019630011
208	0xbd7b0d8d	-0.06129222
209	0xbdd3eb0b	-0.10347565
210	0x3bf3f4e3	0.0074449643
211	0xbd5ed022	-0.05439771
212	0x3b0d7a53	0.0021587803
213	0xbd69ff32	-0.05712814
214	0x3d8c4fba	0.06851144
215	0xbd22e8e9	-0.0397729
216	0x3d1f0eb0	0.038832366
217	0xbd39d22b	-0.045366447
218	0xbd04ba58	-0.032404274
219	0xbd9138a1	-0.07090879
220	0xbd4f422b	-0.050600212
221	0xbc144021	-0.009048493
222	0x3cff8d75	0.031195382
223	0xbda2f40f	-0.07956707
224	0x3d1e6956	0.038674675
225	0xbb633a85	-0.0034672332
226	0x3dd11b7a	0.10210319
227	0x3d42efc0	0.047591925
228	0xbd1a5e35	-0.0376875
229	0xbe07e4d6	-0.13270888
230	0x3d94e753	0.07270684
231	0x3ccc7918	0.024960086
232	0xbe1f5d3b	-0.15562908
233	0xbd19b8d0	-0.037529767
234	0xbe15195a	-0.14560452
235	0xbd49fb27	-0.049311783
236	0x3cd0588a	0.025432844
237	0xbc5d0e6a	-0.013492206
238	0xbe200459	-0.15626658
239	0x3d6ae61b	0.057348352
240	0xbe0cf75e	-0.13766238
241	0xbdbb8ece	-0.09158097
242	0x3d58252c	0.052769825
243	0x3d571c03	0.05251695
244	0xbda23c54	-0.07921663
245	0x3db79602	0.089641586
246	0x3db3ac9c	0.08773157
247	0x3c7cd3ab	0.015431325
248	0x3dbfc0f5	0.093629755
249	0x3c9727e9	0.018451648
250	0xbd84c17e	-0.06482218
251	0xbda57569	-0.08079035
252	0xbce690a0	-0.028145134
253	0x3d3ef669	0.046621714
254	0x3d7cf2bd	0.06175493
255	0x3d0132dd	0.031542648

net_container.2.bias f4 [128]
0	0x3d302cd8	0.043011516
1	0xbe310d94	-0.17290336
2	0xbe952dcb	-0.291365
3	0x3ca38a10	0.019963294
4	0xbe66be33	-0.22533493
5	0xbcabef23	-0.020988053
6	0x3e245355	0.16047414
7	0x3df9094d	0.12159977
8	0x3dd38716	0.103285
9	0xbdd44eb1	-0.10366572
10	0x3e61b134	0.22040254
11	0xbe116269	-0.14197697
12	0xbbb099ba	-0.0053894194
13	0xbd7c12a8	-0.06154123
14	0x3d8c7a74	0.068592936
15	0x3d03ce8e	0.032179408
16	0xbd70d40b	-0.05879597
17	0x3c537e3d	0.0129085155
18	0xbe0bc666	-0.13649902
19	0x3d8ebd0f	0.06969654
20	0x3de23446	0.110451266
21	0xbd697d21	-0.057004098
22	0x3d106dde	0.035261028
23	0xbdc2ee90	-0.095181584
24	0x3cc07326	0.023492407
25	0x3cafbfbd	0.021453733
26	0x3d8f1c18	0.0698778
27	0xbe0cd84d	-0.13754387
28	0x3d0548dc	0.032540187
29	0xbdf6e432	-0.120552436
30	0xbde54eaa	-0.111966446
31	0xbd2d0493	-0.04224069
32	0xbdd9c9e0	-0.10634208
33	0xbdfdf94b	-0.124010645
34	0x3c4f8d41	0.012667955
35	0xbdfbfe5f	-0.12304377
36	0x3da4f8df	0.08055281
37	0x3d482409	0.04886249
38	0xbd2ac5f6	-0.041692697
39	0xbdb8809c	-0.09008905
40	0xbe1b27c2	-0.15151885
41	0xbd9158b7	-0.07096999
42	0xbddefb31	-0.10887755
43	0xbd453867	-0.048149493
44	0xbc886eae	-0.016654339
45	0x3e3ce45a	0.18446484
46	0x3bf11ed1	0.00735841
47	0xbc437d8d	-0.011931789
48	0x3c84bedc	0.01620429
49	0xbdf6d4ca	-0.12052305
50	0x3dd53811	0.104110844
51	0xbd9c4417	-0.076301746
52	0x3d0b0f77	0.033950295
53	0x3e24cd37	0.16093908
54	0xbdf64cf9	-0.120264
55	0xbd377e75	-0.044798333
56	0x3dfd3f52	0.12365593
57	0xbe06ea84	-0.13175398
58	0xbbd2899c	-0.0064250957
59	0x3e0137aa	0.1261889
60	0xbe861964	-0.26191247
61	0xbdbc8957	-0.09205883
62	0xbe08a9f7	-0.13346086
63	0x3d9b4b8d	0.075827695
64	0xbd17624d	-0.03695898
65	0xbe4e3b58	-0.20139825
66	0x3e097073	0.13421802
67	0x3d633b73	0.055476617
68	0xbdba7b0d	-0.09105501
69	0x3d1cc791	0.03827626
70	0xbd901f35	-0.07037202
71	0xbdf2a0da	-0.11847086
72	0xbd85cf4d	-0.0653368
73	0x3d772703	0.06033994
74	0xbdb32fe7	-0.08749371
75	0xbd260e2d	-0.040540863
76	0x3d47f141	0.048814062
77	0xbda12d2f	-0.07869946
78	0xbd4603ef	-0.048343595
79	0xbc9d22e8	-0.019181684
80	0xbd0d322e	-0.034471683
81	0xbd44b179	-0.048020814
82	0x3dc77cc2	0.097405925
83	0xbdeba805	-0.115066566
84	0xbdd2c2d2	-0.10291065
85	0xbd0bbf8d	-0.034118224
86	0x3d209d46	0.039212488
87	0x3e42de34	0.19030076
88	0x3d9cf5f5	0.076641
89	0xbda43841	-0.08018542
90	0xbe3751be	-0.17902276
91	0x3c0241f1	0.007950292
92	0xbde2c8a1	-0.11073423
93	0xbd682899	-0.056679342
94	0xbe2fdcec	-0.17174119
95	0x3d319ca2	0.043362267
96	0xbb95e315	-0.0045741894
97	0x3cd9c5b0	0.026583523
98	0xbe2861a2	-0.16443494
99	0x3df4d630	0.119549155
100	0xbe4a0112	-0.19726971
101	0xbd9c16eb	-0.07621559
102	0xbdb8e77e	-0.09028529
103	0xbb476f58	-0.0030431356
104	0xbe1b9964	-0.15195233
105	0xbd8c61de	-0.06854604
106	0x3a60dd10	0.0008577863
107	0x3d00a705	0.031409282
108	0xbe0572a1	-0.13032009
109	0xbd6df3fa	-0.058094002
110	0x3e0495b8	0.12947738
111	0xbcac4118	-0.021027133
112	0xbe8ff76b	-0.28118452
113	0x3c977efa	0.018493164
114	0x3def3e91	0.116818555
115	0xbd06784e	-0.032829575
116	0x3d931f66	0.07183723
117	0x3d4dc621	0.05023778
118	0xbdf57ea8	-0.119870484
119	0xbd111e53	-0.03542931
120	0x3d58f95b	0.05297218
121	0xbe47447f	-0.19459723
122	0xbd7e2c3b	-0.0620539
123	0xbd308662	-0.043096907
124	0x3dd06c28	0.10176879
125	0xbdf0eda6	-0.11764078
126	0xbd96784a	-0.07347162
127	0xbe19112c	-0.14947957

net_container.4.weight f4 [128, 128]
0	0xbd29087f	-0.041267868
1	0x3db3f10c	0.087862104
2	0xbd918e65	-0.07107238
3	0xbc9db3c2	-0.019250754
4	0xbc8d6f66	-0.017265033
5	0xbdb1d513	-0.08683219
6	0xbd2d440f	-0.042301234
7	0x3c1ca8d9	0.009561741
8	0xbdad0c9c	-0.08449671
9	0xbd8f8b75	-0.07009021
10	0xbdbb72e8	-0.09152776
11	0x3c6ed094	0.014576096
12	0x3dddcf53	0.108305596
13	0xbd69fec6	-0.057127737
14	0xbc726d8d	-0.014796627
15	0xbca7fc83	-0.02050615
16	0xbd72fd55	-0.059323628
17	0xbda27d98	-0.07934111
18	0xb953df11	-0.00020205627
19	0xbc4b7cde	-0.012419907
20	0xbe10c076	-0.14135918
21	0xbe15f76c	-0.14645165
22	0x3da00075	0.07812587
23	0xbbb62330	-0.005558394
24	0x3b3422b6	0.002748651
25	0x3d6b3437	0.057422843
26	0xbc063a42	-0.008192601
27	0x3d058e50	0.032606423
28	0x3dc10888	0.09425455
29	0x3cc8abdc	0.024496011
30	0xbcdc0163	-0.02685613
31	0x3d5e4f84	0.05427505
32	0x3d4ed567	0.050496485
33	0x3ce053ab	0.027383646
34	0xbdbd4e6f	-0.09243476
35	0xbdad8c51	-0.08474029
36	0xbd55bd5a	-0.052182533
37	0xbd504cf1	-0.050854627
38	0x3cdaebee	0.026723828
39	0xbce715f4	-0.02820871
40	0xbc9b4fff	-0.018959044
41	0xbd07c189	-0.033143554
42	0x3dd069ec	0.10176453
43	0xbd901d6e	-0.07036863
44	0xbc011019	-0.007877373
45	0xbcdd35e5	-0.027003238
46	0x3d5572d7	0.052111473
47	0x3d21d98e	0.039514117
48	0xbd176a13	-0.036966395
49	0x3c791021	0.015201599
50	0x3d612877	0.05497023
51	0x3cb95a61	0.022626104
52	0x3d4b2d5e	0.049603812
53	0xbd94cb78	-0.07265371
54	0x3d914bbc	0.07094523
55	0xbd3a4272	-0.045473523
56	0x3c94b44a	0.018152375
57	0xbd93a27b	-0.07208725
58	0xbd879892	-0.06620897
59	0x3d53d2fd	0.051714886
60	0x3d16e81c	0.03684245
61	0xbc8cae9b	-0.017173102
62	0x3c866066	0.016403388
63	0xbc414c54	-0.011797983
64	0xbd700b5a	-0.058604576
65	0xbdbe66f3	-0.0929698
66	0xbde513a5	-0.111853875
67	0xbda20d9c	-0.07912752
68	0x3d6d2a06	0.057901405
69	0x3d92a835	0.07160989
70	0xbc36a97d	-0.011148808
71	0x3db6a04e	0.089172944
72	0x3d6e1087	0.05812123
73	0xbc134085	-0.008987551
74	0xbdac59f9	-0.084155984
75	0xbd17b340	-0.03703618
76	0x3cbbdb31	0.022931667
77	0x3da1e99c	0.079058856
78	0x3ddbc61e	0.10731147
79	0xbd8fd25c	-0.07022545
80	0x3d8b30c4	0.06796411
81	0x3d4d3dce	0.05010777
82	0xbd8bc260	-0.068241835
83	0xbd7e8709	-0.0621405
84	0x3d54f039	0.051986907
85	0x3d4630cf	0.04838639
86	0xbc49c67e	-0.012315391
87	0xbc8fa67b	-0.017535439
88	0xbc30f0ef	-0.010799631
89	0x3cb5b598	0.022181317
90	0x3db026a0	0.08601117
91	0xbd6c3e8a	-0.05767683
92	0x3dc7153f	0.09720849
93	0xbbb8eb1f	-0.005643263
94	0xbccab7b8	-0.024745807
95	0xbe1c4299	-0.1525978
96	0xbc82b1e6	-0.01595397
97	0xbace6dcd	-0.0015749276
98	0xbc8725fb	-0.016497603
99	0x3d2a52ed	0.04158299
100	0x3e05402e	0.13012764
101	0x3dad1423	0.084511064
102	0x3d6fa59d	0.05850755
103	0x3cbc0e47	0.022956027
104	0x3d647d9c	0.055783853
105	0x3d1e49d2	0.03864462
106	0x3bebaec8	0.0071924664
107	0xbd863f0a	-0.065549925
108	0xbd07e2fc	-0.033175454
109	0xbdbbf617	-0.09177797
110	0xbcfb6555	-0.030687967
111	0x3dcacf95	0.099028744
112	0x3d4d5faf	0.05014008
113	0xbc63bf53	-0.013900596
114	0x3d0d60e3	0.034516227
115	0x3d66efd3	0.056381058
116	0xbda765b2	-0.08173694
117	0x3d86f82a	0.06590302
118	0xbd21e185	-0.039521713
119	0x3bad30fa	0.0052853795
120	0x3a438ea0	0.00074599124
121	0xbd7a8def	-0.061170515
122	0xbd2f46d2	-0.04279215
123	0x3d555db1	0.052091304
124	0xbd2f87cc	-0.042854115
125	0xbb17993c	-0.0023132106
126	0x3d1d8c63	0.03846396
127	0xbbaf60fd	-0.005352138
128	0x3e21a70b	0.15786378
129	0xbdb1ccc9	-0.08681638
130	0xbd8fffdf	-0.070312254
131	0xbc0fb77c	-0.008771773
132	0x3d8adc5b	0.06780311
133	0xbc925d82	-0.017866854
134	0xbcc17fd9	-0.023620533
135	0xbdb84900	-0.08998299
136	0xbdc8e868	-0.09809953
137	0xbd67ccff	-0.056591984
138	0x3dc2f775	0.09519855
139	0x38e507e0	0.00010921038
140	0x3d218d1e	0.03944122
141	0x3d80596a	0.062670544
142	0x3df3d031	0.11904944
143	0xbd27fd14	-0.04101284
144	0xbb26a4e2	-0.0025427868
145	0xbd2e3bf1	-0.042537633
146	0xbc55d234	-0.013050605
147	0xbc7b29a2	-0.01532975
148	0x3d47bde9	0.048765097
149	0xbcc95700	-0.024577618
150	0x3d80ee25	0.062954225
151	0x3d880eb7	0.06643432
152	0x3d7a53d9	0.06111512
153	0x3d44f2dd	0.048083175
154	0x3dd76b5d	0.10518525
155	0x3c850ea8	0.01624234
156	0x3d4bd22d	0.049760986
157	0x3d25e895	0.04050501
158	0x3d0248c5	0.03180768
159	0x3df3b67b	0.1190004
160	0x3c83db17	0.016095681
161	0x3de0ea7f	0.109822266
162	0x3ddfa995	0.10921017
163	0xbd2affa8	-0.04174772
164	0x3d20ad1b	0.039227586
165	0xbd279e4e	-0.040922455
166	0xbd01546b	-0.031574648
167	0xbcf08b98	-0.029363438
168	0x3cfc45c4	0.030794986
169	0xbd117624	-0.03551306
170	0xbdd03899	-0.10167045
171	0x3d4d41a2	0.05011142
172	0xbd7c358d	-0.061574508
173	0x3d1d3635	0.038381774
174	0xbe4b33c5	-0.19843967
175	0x3dcfc258	0.1014449
176	0xbde9a2e8	-0.11408025
177	0xbdb5299c	-0.08845827
178	0x3d6f8d00	0.058484077
179	0x3de30651	0.11085189
180	0xbd25f11d	-0.040513147
181	0x3d86ff20	0.0659163
182	0xbd24e8e0	-0.04026115
183	0xbdaf79ec	-0.085681766
184	0x3d1e4543	0.038640272
185	0xbdb98430	-0.09058416
186	0x3d2ae1f5	0.041719396
187	0xbd5353ee	-0.051593713
188	0x3d3f22c7	0.046664026
189	0x3dde90f7	0.108674936
190	0x3d61b7d9	0.05510697
191	0xbcfb1fa2	-0.030654732
192	0xbdaa15b3	-0.0830492
193	0xbd8c5829	-0.06852753
194	0x3d2fe05d	0.04293858
195	0x3dbd9dd4	0.09258619
196	0x3d92caed	0.07167611
197	0x3ade1d29	0.0016945946
198	0xbc86ec1c	-0.016470008
199	0xbd8feb8a	-0.070273474
200	0x3d94415b	0.07239028
201	0xbc39be5f	-0.011336892
202	0x3d107bf1	0.03527445
203	0x3d78d2b8	0.060747832
204	0x3b6722e2	0.0035268595
205	0x3c8fb58b	0.017542621
206	0xbd9e406e	-0.07727133
207	0xbb9962ea	-0.004680981
208	0xbd7307e0	-0.059333682
209	0x3a85201e	0.0010156666
210	0x3c97f607	0.018549932
211	0x3d186f5d	0.03721558
212	0xbb84b11e	-0.0040494343
213	0x3d7034a3	0.05864395
214	0xbda795d0	-0.08182871
215	0x3d41dd47	0.047330167
216	0x3d83ff0d	0.064451315
217	0xbd8ba01e	-0.06817649
218	0x3d0ee10c	0.03488259
219	0xbd96c8d0	-0.07362521
220	0x3b67082e	0.0035252678
221	0x3b877f51	0.0041350503
222	0x3c94dd17	0.01817183
223	0x3ca97a94	0.020688333
224	0x3d842a96	0.06453435
225	0xbd6665e7	-0.056249525
226	0x3cdb3818	0.026760146
227	0x3ca8b24b	0.02059283
228	0x3c4ce09d	0.012504724
229	0xbd8c88f0	-0.06862056
230	0x3c422524	0.011849675
231	0x3dd55364	0.10416296
232	0x3cb70c77	0.02234481
233	0xbd26eaad	-0.040751148
234	0x3d09bb01	0.033625606
235	0x3c28d51a	0.010304714
236	0x3c36b964	0.011152599
237	0xbc4e3489	-0.012585768
238	0xbd37e164	-0.044892684
239	0xb94f85d9	-0.0001979092
240	0x3d366ab8	0.04453537
241	0x3dda023f	0.1064496
242	0x3d46ebeb	0.048564833
243	0x3cebfd68	0.028807357
244	0x3d43df78	0.04782054
245	0xbd46b46c	-0.048511907
246	0x3dbdd7b4	0.09269658
247	0x3d75ee30	0.060041606
248	0xbbfe4f62	-0.007760928
249	0xbc990101	-0.018677237
250	0x3dba71ee	0.091037616
251	0x3da7c549	0.08191926
252	0x3d81cf5f	0.06338381
253	0xbcd5ad60	-0.026083648
254	0x3d2c37b2	0.042045303
255	0x3d45b5fd	0.04826926

net_container.4.bias f4 [128]
0	0xbe0b31a4	-0.13593155
1	0xbd913b4d	-0.07091389
2	0x3d9ca5c4	0.07648805
3	0xbdcab448	-0.09897667
4	0xbdeab472	-0.114601985
5	0xbde3da5d	-0.11125634
6	0xbdd0e8bf	-0.10200643
7	0xbdbe93de	-0.09305547
8	0xbdc4c732	-0.09608306
9	0xbcfde494	-0.030992784
10	0x3d7190d9	0.058976028
11	0xbdfcdb84	-0.12346557
12	0xbd602e62	-0.054731734
13	0xbd5f9bef	-0.05459207
14	0xbda94fd9	-0.08267183
15	0x3dfea678	0.12434095
16	0xbd82a6b0	-0.06379449
17	0xbca8080f	-0.020511655
18	0x3d7d5833	0.06185169
19	0x3d3aa133	0.045563888
20	0xbda2ebe4	-0.07955149
21	0x3de8fbaa	0.11376126
22	0xbdb483ab	-0.08814176
23	0xbb1711ef	-0.002305146
24	0xbd10d3ad	-0.03535812
25	0xbd2c339d	-0.04204141
26	0x3d88a990	0.066729665
27	0xbb0ddebe	-0.0021647657
28	0xbd932a40	-0.07185793
29	0x3d1f7d7c	0.03893803
30	0xbd41ed9e	-0.04734575
31	0x3d5ae5eb	0.053441923
32	0xbb08f51b	-0.0020898047
33	0xbc9e6e2f	-0.019339649
34	0xbc0ee553	-0.008721667
35	0xbdb0948d	-0.08622084
36	0xbd0bb32f	-0.03410643
37	0xba168dec	-0.0005743194
38	0x3af05b99	0.0018337845
39	0x3d11b7ed	0.035575796
40	0xbd8712ef	-0.06595408
41	0xbd6616cc	-0.056174085
42	0x3d15867b	0.036505204
43	0xbd6c5f9e	-0.057708375
44	0xbd67d315	-0.056597788
45	0x3d41ff9f	0.04736292
46	0xbd93b7fe	-0.07212828
47	0xbd1e8257	-0.03869852
48	0x3c65a2f6	0.014015904
49	0x3d6be4fa	0.057591416
50	0x3d0e129c	0.034685716
51	0xbd7ae929	-0.061257515
52	0xbd5660bc	-0.052338347
53	0xbda836ae	-0.08213554
54	0xbc9a14ca	-0.018808741
55	0xbb9466f9	-0.004528877
56	0x3e1598b3	0.14609031
57	0xbdf159b8	-0.117846906
58	0x3c5cf451	0.013485984
59	0x3d179bf0	0.037013948
60	0xbc80ec60	-0.015737712
61	0xbce5f2b5	-0.028069833
62	0xbe025192	-0.12726429
63	0xbd86395b	-0.065539084
64	0xbdd8247b	-0.10553833
65	0xbd28b3ad	-0.041186977
66	0xbd94f7cd	-0.07273827
67	0x3d496347	0.049166944
68	0xbd6e95b9	-0.058248255
69	0x398f383f	0.00027316992
70	0x3d9e9857	0.077439
71	0xbc8dfe4b	-0.01733317
72	0xbc58ba5d	-0.013228026
73	0x3d5cfe42	0.053953417
74	0xbca932f5	-0.020654181
75	0x3d452e67	0.048139956
76	0x3d0c5c08	0.034267455
77	0x3d835144	0.064119846
78	0x3ce96410	0.028490096
79	0xbce136a3	-0.027491873
80	0x3db5f1ef	0.08884036
81	0xbae9f8d0	-0.0017850641
82	0xbccc12d9	-0.024911331
83	0x3cb09759	0.021556543
84	0x3cc161ac	0.023606144
85	0xbd86d6c7	-0.06583934
86	0xbd13177a	-0.03591106
87	0xbe1f82e5	-0.15577276
88	0x3d917bbd	0.07103679
89	0xbd565f8f	-0.052337226
90	0xbdd20490	-0.102547765
91	0xbe011d6e	-0.12608883
92	0xbd766638	-0.060156077
93	0xbdac9889	-0.08427531
94	0x3dbd9580	0.092570305
95	0xbc256f43	-0.010097328
96	0xbd43e2ec	-0.04782383
97	0xbd94fe49	-0.072750635
98	0xbc6b55d4	-0.014363725
99	0xbbe749bc	-0.0070583504
100	0xbdf14e53	-0.11782517
101	0xbdf1736d	-0.11789594
102	0xbe5129f3	-0.20426159
103	0x3c5e05f4	0.013551224
104	0xbd096fe9	-0.03355399
105	0xbc2146ed	-0.00984357
106	0x3d741802	0.059593208
107	0x3bc1be37	0.005912568
108	0xbe0f1422	-0.13972524
109	0x3ca99a6e	0.02070352
110	0xbd0aa1d7	-0.03384575
111	0x3de09f50	0.109678864
112	0xbdaf8a8e	-0.08571349
113	0xbdbe8f20	-0.09304643
114	0x3d6d48a9	0.057930622
115	0x3d8a71da	0.06759997
116	0x3cc86ca1	0.02446586
117	0x3d956386	0.07294373
118	0x3c17eacc	0.0092722885
119	0x3dda9485	0.10672859
120	0x3d536a83	0.05161525
121	0x3cd6536d	0.026162827
122	0x3caea8d7	0.021320743
123	0xbbfd6d39	-0.0077339676
124	0xbd9f92a6	-0.07791643
125	0xbd205fe9	-0.039153967
126	0x3cd708d1	0.026249321
127	0xbd11c48b	-0.03558783

policy_layer.weight f4 [19, 128]
0	0xbc2362af	-0.0099722585
1	0xbccb6e81	-0.024832966
2	0xbcdcca5d	-0.026951963
3	0x3d00cbdd	0.03144442
4	0xbd4a932b	-0.049456757
5	0x3d33e1bc	0.04391645
6	0x3d2e59e1	0.042566184
7	0xbd2dc02d	-0.0424196
8	0xbb272441	-0.0025503787
9	0x3d315c24	0.043300763
10	0xbd2aa6af	-0.041662868
11	0x3a2e883a	0.00066578726
12	0x3cc30320	0.023805201
13	0x3c5deade	0.013544766
14	0x3c8911de	0.016732153
15	0xbc119837	-0.0088863885
16	0xbc908505	-0.017641554
17	0xbd3dcfb9	-0.046340678
18	0x3cdc3e2b	0.026885113
19	0x3cb5622f	0.022141544
20	0x3b6f08c4	0.003647373
21	0xbb49b470	-0.0030777715
22	0x3d633c27	0.055477288
23	0xbd9bfd1e	-0.07616638
24	0xbc8b0b71	-0.01697323
25	0x3c0239bb	0.007948334
26	0xbd0c026c	-0.034181997
27	0xbb81b8bf	-0.003958791
28	0x3d303192	0.043016024
29	0x3d356471	0.04428524
30	0xbc881017	-0.016609235
31	0x3d2865d3	0.041112732
32	0xbd4560b1	-0.048187915
33	0x3bf0ab44	0.007344635
34	0x3d43cbfd	0.04780196
35	0xbc2722c0	-0.010201156
36	0x3dd4a67c	0.10383317
37	0x3d4ba5be	0.04971861
38	0xbccc56d0	-0.02494374
39	0x3b925f88	0.0044669546
40	0x3ba4cfac	0.005029639
41	0x3d4ed56f	0.050496515
42	0xbd43159f	-0.04762804
43	0x3dd51cd0	0.10405886
44	0xbd21a0e4	-0.039460078
45	0xbd6fee4e	-0.058576874
46	0x3d2610f3	0.040543508
47	0x3ca3794b	0.019955298
48	0x3c67209a	0.014106894
49	0x3d612785	0.05496933
50	0xbd1a961d	-0.037740815
51	0x3d0de8c7	0.034645822
52	0x3cd14207	0.02554418
53	0x3d37d0c4	0.04487683
54	0xbc6b72d4	-0.014370639
55	0xbcafa695	-0.021441737
56	0x3c0024eb	0.007821302
57	0x3d35bed9	0.04437146
58	0x3ce27ffd	0.02764892
59	0x3cc107ea	0.023563344
60	0x3d166e4b	0.036726277
61	0x3d558967	0.05213299
62	0xb937b59f	-0.00017519899
63	0xbd8e0963	-0.06935384
64	0x3d05ffd3	0.032714676
65	0xbc7f832f	-0.015595241
66	0xbd40ca3e	-0.047067873
67	0x3c8f3dee	0.017485585
68	0xbd480f94	-0.04884298
69	0xbcf2ea3a	-0.029652704
70	0xbd79864a	-0.060919084
71	0xbc819f3e	-0.015823003
72	0x3d71e354	0.059054688
73	0xbc4675ef	-0.0121130785
74	0x3c8785b4	0.016543247
75	0xbc04241e	-0.008065252
76	0x3d3318bc	0.04372476
77	0xbc65a971	-0.014017449
78	0x3c0b5ff4	0.008506764
79	0xbcbcca7f	-0.023045776
80	0x3af2b83d	0.0018518042
81	0xbd354557	-0.04425558
82	0x3d933a53	0.07188859
83	0xbd8e4942	-0.069475666
84	0x3da4c25f	0.08044886
85	0xbd8754aa	-0.06607945
86	0x3bcb074b	0.0061959377
87	0xbcb2c9a7	-0.021824671
88	0xbaa2db61	-0.0012424999
89	0x3d07bb04	0.033137336
90	0x3d20f9b3	0.03930063
91	0xbd053d23	-0.032529008
92	0xbcc7443f	-0.024324534
93	0x3c08f091	0.008358137
94	0xbd0274fd	-0.03184985
95	0xbd06f850	-0.032951653
96	0x3cb3b76d	0.02193805
97	0x3d305145	0.043046255
98	0xbc8872e1	-0.016656341
99	0xbcb15da5	-0.021651099
100	0x3cc91e83	0.024550682
101	0xbcbbd66f	-0.022929398
102	0xbbf85c04	-0.0075793285
103	0x3d567992	0.052362032
104	0xbcf9a3a9	-0.030473547
105	0xbc0ad9e1	-0.008474798
106	0x3d036877	0.032082047
107	0x3c3179e4	0.010832284
108	0xbbfbd78e	-0.007685608
109	0xbd198d12	-0.03748805
110	0x3d43c356	0.04779371
111	0x3b747287	0.003729971
112	0xbb46dc73	-0.00303438
113	0x3bc5e402	0.0060391435
114	0xbbe0b706	-0.0068577556
115	0xbc65ef25	-0.014034067
116	0xbd59a513	-0.053135943
117	0x3d0b4dc0	0.034009695
118	0xbd3afa60	-0.045648932
119	0xbb5fc799	-0.003414607
120	0x3d3e3412	0.046436377
121	0xbd4519e1	-0.048120383
122	0xbc3e8158	-0.011627518
123	0xbc1e4d7f	-0.009662031
124	0xbcd3dbb0	-0.025861591
125	0xbd0253a0	-0.031818032
126	0xbd1fa197	-0.038972463
127	0xbcef111c	-0.029182963
128	0xbd0ca9dc	-0.034341678
129	0x3d482671	0.048864786
130	0x3d417dab	0.047238987
131	0xbdb63cf4	-0.08898345
132	0xbd84a2c5	-0.06476358
133	0x3dddb2b7	0.10825103
134	0xbcea00fd	-0.028564924
135	0x3bf352f3	0.00742566
136	0xbcb7ee77	-0.022452576
137	0x3d29fa3f	0.04149842
138	0xbd64630a	-0.055758514
139	0x3ab6f105	0.0013957327
140	0xbd0a07d1	-0.03369886
141	0xbda2ce75	-0.07949535
142	0x3c467f57	0.012115321
143	0xbcc4c5b4	-0.024020053
144	0x3cb060bc	0.021530502
145	0xbd003d68	-0.03130856
146	0x3d45e3fa	0.04831312
147	0xbcb6459c	-0.02224999
148	0x3cc651cd	0.024208928
149	0x3bea9adc	0.007159574
150	0xbc45bca3	-0.0120689
151	0x3d8d7f41	0.069090374
152	0x3cd3e56f	0.025866238
153	0x3d2bb816	0.041923605
154	0x3d975f87	0.07391267
155	0xbaebf8be	-0.0018003208
156	0x3cbcc7e1	0.023044528
157	0xbba16017	-0.004924785
158	0xbbdc2ff7	-0.006719585
159	0xbc870c0f	-0.016485242
160	0x3d059eac	0.032622024
161	0x3c9865f5	0.018603304
162	0x3ca7b33a	0.020471204
163	0xbd8a1d0b	-0.06743821
164	0x3d1e37be	0.03862738
165	0xb9d11c35	-0.00039884602
166	0x3d60203f	0.054718252
167	0x3d9c0d87	0.07619768
168	0xbd1cd896	-0.03829249
169	0xbcabc9a6	-0.020970177
170	0xbce5d265	-0.028054425
171	0xbd84c396	-0.064826176
172	0x3cf7bd93	0.030241763
173	0x3d97bec5	0.07409433
174	0xbc97be43	-0.018523341
175	0xbc1ac9ac	-0.009447496
176	0xbbdb5a5d	-0.0066941218
177	0xbd07c19b	-0.03314362
178	0xbcc629f0	-0.02418992
179	0xbd6aea06	-0.05735209
180	0x3d67b2a3	0.056566846
181	0x3b40bc0c	0.002940896
182	0xbbf90e0b	-0.007600551
183	0x3d72e861	0.059303645
184	0xbca7dc46	-0.020490777
185	0xbd043751	-0.032279316
186	0xbd6b4baa	-0.057445206
187	0x3db1ae60	0.086758375
188	0xbd271e7b	-0.040800553
189	0x3cd06980	0.025440931
190	0xbb28f257	-0.0025779211
191	0xbd27f1a0	-0.041001916
192	0xbcb2458c	-0.021761678
193	0xbc9bac14	-0.019002952
194	0x3ce4bed0	0.027923018
195	0x3b66bcae	0.0035207677
196	0x3d7339ad	0.059381176
197	0x3bf94d23	0.0076080724
198	0x3c8e8476	0.017397147
199	0x3c7899c6	0.015173381
200	0xbd0fd688	-0.035116702
201	0xbc6f5aa1	-0.01460901
202	0x3b489fe1	0.0030612873
203	0x3cfe59f7	0.031048758
204	0xb8ee483c	-0.00011362179
205	0x3c75eeb5	0.0150105255
206	0x3cd878ca	0.026424784
207	0xbd586b8b	-0.052836936
208	0x3d075a28	0.033044964
209	0x3dc22eb8	0.09481567
210	0xbd41edc3	-0.047345888
211	0x3da19832	0.07890357
212	0x3d2ae4b9	0.041722033
213	0x3d215e2f	0.03939646
214	0x3ce7a6b9	0.028277742
215	0x3d95e99f	0.0731995
216	0x3c81d990	0.015850812
217	0x3d6fa869	0.058510218
218	0x3cc6a375	0.024247864
219	0xbd503571	-0.050832216
220	0xbd096680	-0.033545017
221	0xbd4a4e8e	-0.04939132
222	0x3c8366dc	0.016040258
223	0x3cfe7ab8	0.031064376
224	0x3cbd096f	0.023075787
225	0x3bc7dff2	0.0060996944
226	0xbca5b6b4	-0.020228721
227	0x3c6cb68e	0.014447821
228	0xb9e99e9b	-0.00044559393
229	0x3dc06606	0.093944594
230	0x3d1ad4a9	0.037800465
231	0xbbd23404	-0.006414892
232	0x3cb42389	0.0219896
233	0x3d203ec8	0.039122373
234	0x3b1bd6d6	0.0023779175
235	0x3cd6e8b7	0.026234014
236	0xbd4abf8e	-0.049499087
237	0xbcd82a0f	-0.026387243
238	0x3b7a7778	0.0038218182
239	0xbcce3e1c	-0.0251761
240	0xbc9f3421	-0.019434037
241	0xbd170db0	-0.036878288
242	0x3ccb8bec	0.024846993
243	0x3cc12fba	0.023582328
244	0x3d89fe11	0.067379124
245	0xbd28da7a	-0.04122398
246	0xbcf6a148	-0.030106202
247	0xbca130a0	-0.019676507
248	0x3c777dc6	0.01510567
249	0x3c9636e8	0.018336728
250	0xbbe42881	-0.0069628363
251	0x3cfa205c	0.030533008
252	0x3cadb399	0.021203803
253	0xbc86fadb	-0.01647704
254	0xbcae791e	-0.021297988
255	0x3c83bb79	0.016080605

policy_layer.bias f4 [19]
0	0xbd238c7e	-0.039928906
1	0xbcdc58cf	-0.026897816
2	0xbca91bbf	-0.020643113
3	0x3c043799	0.008069896
4	0x3b569612	0.0032743257
5	0xbd1ac0c0	-0.037781477
6	0xbd2d80d3	-0.042359184
7	0x3c772a6a	0.015085796
8	0xbd42b19d	-0.047532666
9	0x3dcf2d18	0.10116023
10	0x3c896533	0.016771888
11	0x3d9f89aa	0.07789929
12	0x3d691a7e	0.05691003
13	0x3cb40220	0.02197367
14	0xbcd4f92d	-0.025997723
15	0xbe19a00d	-0.15002461
16	0xbdcdcd37	-0.10048907
17	0x3d119a39	0.03554747
18	0xbd9ff6b3	-0.07810726

value_layer.weight f4 [1, 128]
0	0xbdb8688a	-0.09004314
1	0xbcbe1b48	-0.023206368
2	0x3d56f07c	0.052475438
3	0x3cb15cce	0.021650698
4	0xbdb30cae	-0.08742653
5	0x3cb5445d	0.022127325
6	0xbd9ec9cf	-0.07753336
7	0x3c2547a5	0.010087882
8	0xbdf4b6bb	-0.119489156
9	0xbdb87b28	-0.09007865
10	0xbdac61a9	-0.08417065
11	0xbce9268d	-0.028460765
12	0xba9bc949	-0.0011885549
13	0x3d7d5f6f	0.06185859
14	0xbde167e0	-0.11006141
15	0xbc33a929	-0.010965624
16	0xbc27dac5	-0.01024503
17	0xbdef2a2b	-0.11677965
18	0x3d71b840	0.059013605
19	0x3dc3ece6	0.09566669
20	0xbdad67e4	-0.08467081
21	0x3e634e94	0.22197944
22	0x3c8a20e3	0.016861385
23	0x3cbe17f3	0.02320478
24	0xb8951cd7	-7.1102455e-05
25	0x3da5015a	0.080568984
26	0xbddbf715	-0.107404865
27	0xbd9e6e23	-0.07735851
28	0xbcf697a3	-0.030101603
29	0xbae083c1	-0.001712911
30	0x3e06b41b	0.13154642
31	0x3dad1ed4	0.084531456
32	0xbca7fa90	-0.02050522
33	0x3d90fd56	0.0707957
34	0x3d89913d	0.06717155
35	0x3c9ecc7d	0.019384617
36	0xbd7158bc	-0.058922514
37	0xbd89bfa5	-0.067260064
38	0xbdb39745	-0.08769087
39	0xbe005230	-0.12531352
40	0xbdc5c899	-0.096574016
41	0x3d822dad	0.06356368
42	0x3cf5c529	0.03000124
43	0xbd499352	-0.04921276
44	0x3d881833	0.06645241
45	0xbd932724	-0.071852
46	0x3dd79e98	0.10528296
47	0xbd80e88d	-0.062943555
48	0xbe1a0f2e	-0.15044853
49	0x3d9690b4	0.07351819
50	0x3d8a2178	0.06744665
51	0xbcd60b55	-0.02612845
52	0xbdcde57d	-0.10053537
53	0xbdd2c3f3	-0.102912806
54	0xbd373b10	-0.04473406
55	0xbdf2713b	-0.11838003
56	0x3e0a949b	0.13533251
57	0xbde28a38	-0.110615194
58	0x3db90070	0.090332866
59	0xbc1b2a0a	-0.009470472
60	0x3d13860a	0.0360165
61	0x3dd6b2b1	0.104833014
62	0xbe565e74	-0.20934469
63	0xbdcf5c4f	-0.10125028
64	0xbdf35b72	-0.11882676
65	0xbcf48479	-0.029848324
66	0x3d46c131	0.048524085
67	0x3d282c6f	0.041058
68	0xbd5c2192	-0.053742953
69	0x3d9a294b	0.07527407
70	0xbdb3347a	-0.087502435
71	0x36abfa66	5.1253473e-06
72	0xbd523ddc	-0.051328525
73	0x3d1a4494	0.037663057
74	0x3dec2de1	0.11532188
75	0xbd160438	-0.036625117
76	0xbc8febec	-0.017568551
77	0x3c743911	0.014906184
78	0xbd74835a	-0.05969558
79	0xbd332173	-0.04373307
80	0x3da1537b	0.07877251
81	0xbd312566	-0.043248557
82	0xbd28d2a3	-0.041216504
83	0x3c941b7f	0.018079517
84	0x3d8ff3f9	0.07028956
85	0x3c307f9e	0.010772614
86	0xbd309b34	-0.043116763
87	0xbe142b23	-0.1446958
88	0x3dc611ae	0.09671341
89	0xbd2a6b11	-0.041606013
90	0xbddb3f4d	-0.10705433
91	0xbe1759b2	-0.1478031
92	0x3bcc8b07	0.0062421593
93	0x3c7c2e6e	0.015391929
94	0x3dc7a2be	0.097478375
95	0xbc2f3a07	-0.010694987
96	0xbd418476	-0.047245465
97	0x3d3b7b6a	0.045771994
98	0xbd0d19d3	-0.034448456
99	0x3d019cde	0.03164374
100	0x3ceae2b1	0.028672548
101	0xbdddd1d6	-0.10831039
102	0xbe02b471	-0.12764145
103	0x3d25194b	0.040307324
104	0xbdf66cb0	-0.12032449
105	0xbd876a7a	-0.06612106
106	0xbbc79746	-0.0060910312
107	0x3de56538	0.112009466
108	0xbe22e85e	-0.15908954
109	0x3d98e59f	0.07465672
110	0xbd00685b	-0.03134952
111	0x3e05844f	0.13038753
112	0xbc702c8a	-0.014659056
113	0x3d823fa7	0.06359797
114	0x3c461f62	0.012092443
115	0xbd814ffd	-0.06314085
116	0xbcf2a482	-0.029619459
117	0x3da4d08d	0.080475904
118	0x3d973dfc	0.073848695
119	0x3c05cdd6	0.008166751
120	0x3e5003ff	0.20314024
121	0x3d48a3e3	0.04898442
122	0xbb0b43c7	-0.0021250115
123	0x3d18c02f	0.037292656
124	0xbdcb4ddb	-0.09926959
125	0x3da98662	0.082775846
126	0xbd87d964	-0.06633261
127	0x3d09f33e	0.03367924

log_std_parameter f4 [19]
0	0xc04da627	-3.2132661
1	0xc04fef02	-3.2489629
2	0xc05857bf	-3.3803556
3	0xbfee0d02	-1.859772
4	0xbfebe609	-1.8429576
5	0xbf65cfe2	-0.8977033
6	0xbf5df82a	-0.86706793
7	0xc015b1c2	-2.3389745
8	0xc01701f2	-2.3594937
9	0xbf49434d	-0.7861832
10	0xbf51e1fa	-0.8198544
11	0xbfb77e8f	-1.4335498
12	0xbfbfdd7b	-1.4989465
13	0xbf40cbde	-0.75311077
14	0xbf2a9142	-0.66627896
15	0xbf4c22b4	-0.7974045
16	0xbf3f4b12	-0.74723923
17	0xbf4468d7	-0.7672247
18	0xbf512ea9	-0.8171182

net_container.0.weight f4 [128, 69]
0	0xbde76edf	-0.11300444
1	0xbef03b54	-0.46920264
2	0x3e8d10f4	0.27551997
3	0xbe8cb528	-0.2748196
4	0x3c9369ad	0.017994726
5	0x3c453d6e	0.012038572
6	0xbe8c8857	-0.2744777
7	0xbe4f64f9	-0.20253362
8	0x3dc1e14c	0.094668
9	0x3d4aad90	0.04948193
10	0xbd7eda87	-0.062220123
11	0x3e46310e	0.1935465
12	0x3dca6749	0.09882981
13	0xbe809caf	-0.2511954
14	0x3c9275b1	0.017878385
15	0x3a7a8b8a	0.0009557536
16	0x3e73318d	0.23749371
17	0xbdda3e57	-0.10656422
18	0xbe276a8c	-0.16349238
19	0xbe9299fa	-0.286331
20	0xbe5b20c8	-0.21399224
21	0xbc011b08	-0.00787998
22	0x3ddad91c	0.106859416
23	0xbe756ca4	-0.23967224
24	0xbe6a19cc	-0.22861403
25	0xbd8381db	-0.06421252
26	0xbe2102dd	-0.15723749
27	0x3dfc5006	0.12319951
28	0x3e4285b6	0.18996319
29	0x3de0ede6	0.109828755
30	0xbcdec814	-0.027195014
31	0xbcd74450	-0.026277691
32	0x3d104d1e	0.035229795
33	0xbd384d89	-0.04499582
34	0xbd1283b0	-0.03577012
35	0x3d689545	0.05678298
36	0x3a6b9900	0.00089873374
37	0xbcd627c6	-0.026142012
38	0xbdf4db73	-0.11955919
39	0x3dbc3f80	0.09191799
40	0x3d0fd0ed	0.035111357
41	0x3d2347a8	0.03986326
42	0x3da140d6	0.078736946
43	0xbbee3780	-0.0072697997
44	0x3c8074b4	0.015680648
45	0x3d90a074	0.07061854
46	0xbc9d0e29	-0.019171791
47	0x3de86210	0.11346829
48	0xbddb1af4	-0.106985
49	0x3d979d78	0.07403082
50	0xbdcb5a6d	-0.09929357
51	0x3caf02d4	0.021363653
52	0x3e422493	0.18959264
53	0x3e305899	0.17221297
54	0x3d8e41eb	0.069461666
55	0x3d25f8af	0.040520366
56	0x3e1b9c2c	0.15196294
57	0xbda2ed9d	-0.079554774
58	0x3de033d4	0.109473854
59	0x3dfc61e2	0.12323357
60	0xbd65debb	-0.056120615
61	0xbda8fb08	-0.082510054
62	0x3b8f054f	0.0043646465
63	0xbc187fac	-0.009307783
64	0xbd3b0a6c	-0.045664236
65	0x3d9a1956	0.07524364
66	0xbc973281	-0.0184567
67	0xbd941d52	-0.07232155
68	0x3b5d5820	0.003377445
69	0xbdebca5b	-0.115132056
70	0xbe0fb2fd	-0.14033122
71	0x3e2fc841	0.17166235
72	0x3cfacbbf	0.030614732
73	0xbe1d1a32	-0.15342024
74	0x3e035055	0.12823613
75	0xbe576dd4	-0.2103799
76	0xbdaafb9a	-0.083487704
77	0x3d97808b	0.073975645
78	0x3db638aa	0.088975266
79	0xbd28830b	-0.041140597
80	0xbc5b1f17	-0.013374112
81	0xbe16fa4f	-0.14743923
82	0x3e0edcb2	0.13951376
83	0x3dc6183e	0.096725926
84	0x3e1f77db	0.15573065
85	0x3e8e917e	0.27845377
86	0x3eeb387c	0.45941532
87	0xbe810e66	-0.25206298
88	0x3f1edb04	0.6205294
89	0xbeebb0de	-0.46033376
90	0xbe042c65	-0.1290756
91	0xbe9c567d	-0.30534735
92	0xbc666470	-0.014062032
93	0x3e26269a	0.16225663
94	0xbdfd02c6	-0.123540446
95	0xbeadf2d6	-0.33974332
96	0x3dd3c6aa	0.103406265
97	0x3d715443	0.05891825
98	0x3ec50d00	0.3848648
99	0xbed68a5d	-0.41902438
100	0xbc8cecf4	-0.017202832
101	0x3df4bd90	0.11950219
102	0xbd3b1224	-0.045671597
103	0xbe080f78	-0.13287151
104	0xbd694742	-0.056952722
105	0xbd68a62b	-0.056799095
106	0x3d1666b4	0.03671904
107	0x3dcd261a	0.10017033
108	0x3d99bd50	0.075068116
109	0x3ce23615	0.027613679
110	0xbd8c443d	-0.06848953
111	0xbe01e68c	-0.12685603
112	0x3b94e97d	0.0045444355
113	0x3dadac97	0.084801845
114	0x3d529d03	0.05141927
115	0x3dc5bdc3	0.09655335
116	0xbd9522e7	-0.07282048
117	0xbd109001	-0.035293583
118	0xbd0a3840	-0.03374505
119	0xbd98d9a2	-0.07463385
120	0xbca17f67	-0.01971407
121	0x3db66f8c	0.08907995
122	0xbddbc8e6	-0.10731678
123	0x3d833805	0.06407169
124	0xbcf34e82	-0.029700521
125	0x3d38712f	0.045029815
126	0xbc96143f	-0.018320201
127	0xbe003aa6	-0.12522373
128	0xbc384cf6	-0.011248818
129	0x3c6bdd0c	0.014395963
130	0x3cf93363	0.03042001
131	0xbeb3008b	-0.34961352
132	0x3d214c8f	0.039379653
133	0xbdb9931f	-0.09061264
134	0xbca1c44b	-0.01974692
135	0xbe1d4859	-0.1535963
136	0xbd2089c7	-0.039193895
137	0x3d1ea897	0.038735
138	0xbe4f9a5c	-0.20273727
139	0x3e297d41	0.16551687
140	0x3d88f0c6	0.06686549
141	0x3d97a917	0.07405298
142	0xbdbf0f75	-0.0932912
143	0xbd2a1474	-0.041523412
144	0xbea7049a	-0.32620698
145	0x3dd89546	0.10575347
146	0x3e4fd501	0.20296098
147	0x3ed4f817	0.41595528
148	0x3d2a0e7d	0.041517723
149	0x3e024653	0.12722139
150	0xbe26e026	-0.16296443
151	0xbeec5e8f	-0.46165892
152	0xbec62c86	-0.38705844
153	0x3cdae754	0.026721634
154	0xbbd1adc9	-0.0063988906
155	0xbe07d854	-0.13266116
156	0x3e96e2ae	0.29469818
157	0xbeefdb6e	-0.468471
158	0xbced8c76	-0.028997641
159	0xbcc88082	-0.02447534
160	0xbdcb5fa6	-0.09930353
161	0xbd314471	-0.04327816
162	0x3d56a249	0.05240086
163	0xbed8c881	-0.42340472
164	0xbe6385bb	-0.22218983
165	0x3cfd40bc	0.030914657
166	0xbd4708e0	-0.04859245
167	0xbd12a444	-0.035801187
168	0x3e7fd19c	0.24982303
169	0x3bacfd26	0.005279201
170	0x3cf2e000	0.029647827
171	0x3c20aac1	0.009806336
172	0x3db8b1c9	0.09018285
173	0xbdb0daae	-0.0863546
174	0xbcae4707	-0.021274103
175	0x3d12ea6a	0.035868086
176	0xbd7f6dec	-0.06236069
177	0x3d8de2c5	0.069280185
178	0xbdf5b01d	-0.119964816
179	0xbcf45b8b	-0.029828807
180	0x3b9b3bc1	0.004737348
181	0x3d3199ab	0.04335944
182	0x3d378bb6	0.044810973
183	0x3daa232c	0.0830749
184	0xbcfb55aa	-0.030680496
185	0x3bae5c41	0.005321056
186	0x3c404fc9	0.011737772
187	0x3bc1df14	0.0059164856
188	0xbdf56247	-0.119816355
189	0x3d56b9da	0.052423336
190	0xbdeae2fd	-0.11469076
191	0xbce8a98b	-0.028401157
192	0xbdd5884d	-0.10426388
193	0x3d0f9250	0.035051644
194	0xbc7c8dd7	-0.015414677
195	0xbd7ec5f4	-0.0622005
196	0x3e7f32c6	0.24921712
197	0xbd5969ef	-0.05307954
198	0x3e13e50f	0.14442848
199	0xbd8e3a12	-0.0694467
200	0x3da7c319	0.08191509
201	0x3d82f65d	0.06394646
202	0xbb5497c4	-0.0032439092
203	0xbd4cfc32	-0.0500452
204	0xbcb530c8	-0.022117987
205	0x3d378453	0.04480393
206	0x3d07e8c0	0.033180952
207	0x3f0e43a2	0.5557195
208	0xbe2c93d3	-0.16853265
209	0xbec52df8	-0.38511634
210	0xbe256da1	-0.16155101
211	0x3e021f88	0.1270734
212	0x3c944af1	0.018102141
213	0x3f97c57a	1.185714
214	0xbe2b9469	-0.16755833
215	0xbe40b8b5	-0.1882046
216	0xbe24c6de	-0.16091487
217	0x3deee56c	0.116648525
218	0xbe1744a1	-0.14772274
219	0x3ed65e8e	0.41869015
220	0xbed21afd	-0.41036215
221	0xbd4ffbd2	-0.050777264
222	0x3f2b926d	0.67020303
223	0xbea70cd5	-0.32626978
224	0xbd79d2ab	-0.060991924
225	0x3e34f11f	0.17670105
226	0x3f199f35	0.60008556
227	0x3f16b544	0.5887034
228	0x3db46012	0.088073865
229	0xbdab2eed	-0.0835856
230	0x3e82e96a	0.25568706
231	0x3e9b2130	0.30298758
232	0x3dbac3ad	0.091193534
233	0x3c1f6321	0.009728224
234	0xbdf57dd6	-0.11986892
235	0xbd3b68c6	-0.045754217
236	0xbc9d280a	-0.019184131
237	0x3dbb62bc	0.091496915
238	0x3c6b8fa7	0.014377511
239	0xbb309c3b	-0.002694859
240	0xbcb4c742	-0.02206767
241	0xba276287	-0.0006385226
242	0xbd54398c	-0.051812693
243	0x3d54ff2c	0.052001163
244	0x3d652516	0.05594357
245	0x3d3c584c	0.045982644
246	0xbacd8427	-0.0015679643
247	0xbb772730	-0.0037712567
248	0xbd30c291	-0.043154303
249	0xb9c92c13	-0.00038370545
250	0xbc03579b	-0.008016492
251	0x3d1a43e7	0.037662413
252	0x3c12c1fb	0.008957381
253	0x3c7e5125	0.015522276
254	0x3b826f03	0.003980519
255	0xbd1dc5bb	-0.03851865
