humanoidprac/humanoidprac/scripts/skrl/logs/skrl/h1_flat/joint_experiment_ver3/2025-09-18_08-12-35_ppo_torch/checkpoints/agent_9600.pt (torch, 549922 bytes, 40 tensors)

log_std_parameter f4 [19]
00000000: e398 28c0 d72d 29c0 7e52 31c0 2e7f cdbf
00000010: 898c c8bf 438a 34bf 0f25 21bf b2d6 fbbf
00000020: 5752 ffbf a5e8 30bf 6def 1fbf 8774 9dbf
00000030: d854 a4bf 8b54 29bf 54b7 01bf 4ddd 20bf
00000040: 63a0 17bf e386 2cbf 1db4 24bf
-2.6343315 -2.6434228 -2.77066 -1.6054437 -1.5667888 -0.7052347 -0.6294717 -1.9674895
-1.9947003 -0.6910499 -0.6247471 -1.2301186 -1.2838392 -0.6614463 -0.5067036 -0.6283768
-0.59229106 -0.6739332 -0.6433733

net_container.0.weight f4 [128, 69]
00000000: c5e5 f7bd 232a f1be 486e 863e 3393 90be
00000010: 70ff 853b af9a b93c 7df5 9bbe 8e0d 41be
00000020: 0f50 b43d 8f3b 143d 87da 7ebd fcec 233e
00000030: 8113 0d3e 7c2c 80be 2601 ee3b 2519 a83b
00000040: 1dd1 6b3e 51ba e5bd 71cd 3fbe 58d4 8fbe
00000050: b8fb 5abe 1cb9 ca3b 2e5b fc3d 9099 6fbe
00000060: b6cd 67be 14a9 b8bd 2fee 1cbe 8007 c83d
00000070: 9f92 3c3e 414b 033e 41c3 98bc 23d2 f3bc
00000080: 4f8b 433d 4278 3bbd 200a 74bd 526f 7b3d
00000090: 94f6 673b 6db8 e9bc 8e42 e9bd 34b5 aa3d
000000a0: 4a02 5f3d d569 3a3d d742 963d 3e3d 05bb
000000b0: 4b53 28bc 16f1 9c3d 26b8 adbc 7b6c e43d
000000c0: 9eb2 efbd 284a 8f3d 52c9 96bd 36fe db3c
000000d0: 6323 483e edd3 173e a5c5 863d 95aa 543d
000000e0: fe11 1d3e 9ff5 a5bd 28b5 e03d 5b72 173e
000000f0: e6a9 f5bc 092c a5bd a82e 5fbc 9209 cebc
00000100: 8815 29bd 934a 683d 70e2 76bd b312 92bd
00000110: d5c6 463c d70c f7bd 141a aebd 5752 0b3e
00000120: 8dfc c73c 522c 33be 616d fe3d e04e 59be
00000130: e67d a4bd f6d6 993d f48d ac3d 0b83 28bd
00000140: 2f38 633b d96d 1fbe fa97 0c3e 45ac a53d
00000150: 38eb 3f3e cfa6 883e 6377 de3e 643e 89be
00000160: 48b1 1e3f 3b1c e9be df68 bebd e796 87be
00000170: cdbf babc 0f36 253e 5f62 08be 7d64 a3be
00000180: 5870 d03d 94c3 933d 7a1c c53e edef bdbe
00000190: 7412 fabc f595 f33d a8e5 44bd aab1 15be
000001a0: d653 57bd 5586 88bd 5a67 fd3c d2f9 cc3d
000001b0: 59c1 a13d b14d 373d 65c3 83bd 7917 0cbe
000001c0: 27d6 873c 8ee6 cb3d 1711 703d 4dbd d63d
000001d0: a8d8 86bd 0d7e 01bd 0f8b 82bd ed7b b8bd
000001e0: 56e0 83bc 4018 973d 290c 0cbe 1613 7a3d
000001f0: c5ad 11bd f0b8 5b3d 5f99 babc 21eb f3bd
00000200: f3d5 683c a470 fa3c 9c6f 763c 4c90 b3be
00000210: b801 c13c f4e1 9cbd 8576 cbbc 2b18 05be
00000220: 1193 70bd 3c58 103d 3d83 52be 6b4e 353e
00000230: 8ce8 2f3d 68d8 4e3d dfe4 d0bd 5f86 9cbd
00000240: 2ea7 b1be b7df 083e 6576 4d3e 4594 cf3e
00000250: 7d0e 2a3d b25c f03d f26b 05be 8f11 dfbe
00000260: 73c9 bdbe a7c9 d03c 3476 a4bc c2fa 11be
00000270: 2a0a 983e 7269 ebbe a71f e2bc 943d 6dbd
00000280: 878b ecbd f382 29bd 56bf 2e3d 5de2 d5be
00000290: 4c5f 57be 2c4c 163d 4a53 9dbd e1b6 02bd
000002a0: a47a 713e 6744 ae3b f1c2 8b3c b454 3d39
000002b0: f8e6 c83d 2a1b bcbd 8ff1 23bd 3909 1e3d
000002c0: 339d 91bd 4a46 a93d 7f76 06be 5f16 27bd
000002d0: 0c72 5f3c d633 443d c88e 543d 5cdc c23d
000002e0: 63b2 58bd b68f d63b 47b7 7d3b 20c9 d8bb
000002f0: 389d bdbd eb0f 893d f7f9 c1bd e852 2fbd
00000300: 6680 c6bd 3e49 da3c 6407 65bc 7c79 5bbd
00000310: 6ed7 813e 8651 45bd 5dcc 0e3e ba85 8ebd
00000320: 1d7c 983d 83e7 923d aa88 223c e2a5 65bd
00000330: a505 44bd 764c 3b3d 5343 bb3c 1c73 0e3f
00000340: 3398 2dbe 1b47 d9be 2c8a 27be c06f ea3d
00000350: 0f07 923b 5809 9a3f 24e7 11be 9950 3dbe
00000360: a6a9 23be 6ce5 ee3d 3c45 02be d09e bb3e
00000370: 22be cabe 2e54 81bd e98f 273f 3c74 8cbe
00000380: 8284 2abd 75cb 033e 4b81 173f 35e5 183f
00000390: 64e6 b73d 4a93 8fbd 1df9 863e 780a 9e3e
000003a0: 42b6 b93d 902e e43c f766 00be b2d2 86bd
000003b0: abc1 85bc 8cbe 913d f565 be3c 42b6 843b
000003c0: 93be b8bc c723 8aba e2c5 3bbd c8ce 613d
000003d0: e323 423d 0ef4 303d 860f e5bb 970e afbb
000003e0: 59c1 d4bc b240 ee3b 0b06 fbbb f0d0 603d
000003f0: e1bc 883b 9090 8b3c dc4b 633c 0f02 4ebd
-0.12104372 -0.4710246 0.26256013 -0.28237304 0.0040892884 0.022656767 -0.3046073 -0.18852827
0.088043325 0.036189612 -0.062220123 0.16008371 0.13776971 -0.2503394 0.0072633205 0.0051299506
0.23028989 -0.11217178 -0.18730713 -0.28091693 -0.21385086 0.0061866175 0.12322079 -0.23398423
-0.22637066 -0.09016624 -0.15325235 0.097670555 0.18415307 0.12821676 -0.018647792 -0.029763287
0.047740277 -0.045768984 -0.05957997 0.06138546 0.0035394775 -0.028530324 -0.113896474 0.08335343
0.054445542 0.045511086 0.073369674 -0.0020330693 -0.010273765 0.07663171 -0.021205973 0.111535035
-0.117039904 0.06996566 -0.073626176 0.026854616 0.19544749 0.14826937 0.065806665 0.051920492
0.15338895 -0.08103489 0.10972053 0.14789717 -0.02998824 -0.0806504 -0.013621964 -0.025151048
-0.0412803 0.056711745 -0.06027454 -0.07132473 0.012132366 -0.12062996 -0.08501068 0.13605629
0.024412418 -0.17497376 0.12423206 -0.21221495 -0.08031826 0.07511704 0.08425513 -0.041140597
0.003467094 -0.15569247 0.1372985 0.080894984 0.18742073 0.26689765 0.4345046 -0.26805413
0.6198926 -0.4552935 -0.09297346 -0.26482317 -0.022796536 0.16133903 -0.13318776 -0.31912604
0.10177678 0.07215038 0.38498288 -0.3709711 -0.030526377 0.118938364 -0.04807058 -0.14618555
-0.052570187 -0.06666247 0.03093307 0.10008587 0.07898206 0.044751827 -0.06433753 -0.13680829
0.016581608 0.09956084 0.05861005 0.10485325 -0.06584293 -0.031614352 -0.063741796 -0.09008012
-0.016098183 0.07377672 -0.13676514 0.061053358 -0.03556611 0.053643167 -0.022778211 -0.11910082
0.014211166 0.03057129 0.015041258 -0.35071027 0.02356039 -0.07660285 -0.024836788 -0.129975
-0.058734003 0.035240397 -0.20557876 0.17705695 0.042946383 0.05049935 -0.10199904 -0.07642817
-0.3469786 0.1336659 0.20064695 0.40542808 0.041517723 0.1173643 -0.13029459 -0.43568084
-0.37067756 0.02548678 -0.020075895 -0.14255813 0.29695255 -0.45978886 -0.027602984 -0.057920054
-0.1155005 -0.04138465 0.04266294 -0.41774264 -0.21032447 0.036693737 -0.07681902 -0.03191269
0.2358194 0.005318213 0.017060729 0.00018055999 0.09809679 -0.09184869 -0.04002529 0.038583014
-0.071100615 0.0826536 -0.1313114 -0.04079282 0.013638031 0.047900997 0.05189398 0.095146865
-0.052904498 0.0065478934 0.0038713978 -0.006615773 -0.09258503 0.06692489 -0.09471505 -0.042803675
-0.09692459 0.026646253 -0.013978813 -0.053582653 0.25359672 -0.04817345 0.13945146 -0.069591
0.07445548 0.071730636 0.009920279 -0.0560664 -0.047856946 0.045727216 0.022859251 0.5564439
-0.1695259 -0.42437062 -0.16361302 0.11447096 0.004456408 1.2034101 -0.1424833 -0.18487777
-0.15982684 0.116648525 -0.12721723 0.36644602 -0.39598185 -0.06314884 0.65453964 -0.2743243
-0.041630276 0.12870581 0.5918166 0.5972474 0.089794904 -0.07010515 0.26361933 0.30867362
0.09067966 0.027854234 -0.12539278 -0.06583156 -0.0163277 0.07116422 0.023241976 0.004050047
-0.02255181 -0.0010539227 -0.045843013 0.055128843 0.047397505 0.0432015 -0.006990376 -0.0053423154
-0.025971102 0.007270896 -0.0076606325 0.05488676 0.0041729067 0.017036706 0.013873067 -0.050294932

net_container.0.bias f4 [128]
00000000: 5144 013e 0478 dfbd 5463 e1bc 896f f93d
00000010: 1365 c53c 8f80 7f3d 327d 073e 608f e53d
00000020: 6532 0d3e 9eb3 083e ff3e 5f3d c1ee 313c
00000030: 6aac 853d 77eb 46bd c148 543e 6ef3 01be
00000040: 74b6 f23d 3dff 2fbe 299a 293e 2dd5 9f3d
00000050: 02e3 443d 56e4 1f3d bca5 afbd 6a48 1e3e
00000060: 1714 b33d 6911 00bd d608 3abc 6c18 80bd
00000070: 3d3f dbbd 03d8 8fbd a5ea adbc dc8a 9b3d
00000080: 55db 413e 6896 3a3d 344c 9abd 1c16 aebd
00000090: 0591 9c3d 4b91 123d 4268 a53d 73c4 49bd
000000a0: 6215 e9bd 4709 373e 406f 4dbe 56d4 7bbd
000000b0: 3040 b23d 8787 a9bd 8912 773d 84a3 e2bd
000000c0: bdef 2d3e b9dc c03d c596 223c 92f0 d7bc
000000d0: b5db 07be a9a6 94bd 0ee8 b3bb 5912 6f3d
000000e0: d530 0f3e 665e 933d c6b8 073e 23d2 e73d
000000f0: 0034 29bd 849b 873d 5875 683e 9875 0f3d
00000100: ba81 223d 7223 463e ee04 8c3d c576 a83b
00000110: f95d cb3c 8369 883d 5d5f cd3d 702b 18be
00000120: 4f22 e63d 92b3 fb3d 1309 313d 6ed5 863b
00000130: 9fe0 573e 5c53 3a3b 2992 243e e52a 433c
00000140: b683 b0bc 2118 1fbd c085 4b3e 3aed c03d
00000150: 55ec 033e 2ab6 bd3d 68d9 d53d d651 463e
00000160: 6680 653b 4ab4 363e ef09 eeb9 c59c 4dbd
00000170: 32d9 023e e68c d7bc af46 b93c da5d 1d3c
00000180: 63cb a53c aae5 49bd e83b 52bd 0985 69bd
00000190: 3850 e63d 5a66 343d 1a2f e3bd a8fe 023d
000001a0: 5288 f83b cb9b 273e 410d a23d 52da 94bd
000001b0: 49e9 76bd 6be9 0cbe 675c a3bd 0381 593d
000001c0: d787 b8bd 352a d7bd 5dbb 203e d34d 2b3e
000001d0: 1459 05be e84a f53d 0476 ca3c 3a46 9bbd
000001e0: bdb9 e33c 94ee 8dbd fddc 963e 9f54 cfbd
000001f0: 1926 453d c7a6 ffbd 321a 87bd eaa9 783d
0.12623717 -0.10911563 -0.027513184 0.12179477 0.024096048 0.062378462 0.13231352 0.11208987
0.13788755 0.13349769 0.054503437 0.010860146 0.06527026 -0.0485644 0.20730878 -0.12690517
0.118512064 -0.1718721 0.16562714 0.07804332 0.048068054 0.039036117 -0.08576533 0.15457311
0.08744066 -0.031266604 -0.011354646 -0.06254658 -0.10705421 -0.07023623 -0.021230051 0.07594845
0.18931325 0.045553595 -0.07534066 -0.08500311 0.07644848 0.035783093 0.08076526 -0.049259614
-0.113810316 0.17874633 -0.2006197 -0.061481796 0.08703649 -0.08277803 0.06032041 -0.110663444
0.16985984 0.094170995 0.009923642 -0.02635983 -0.13267405 -0.072583504 -0.0054903096 0.058367107
0.13983472 0.071957394 0.13254079 0.11319377 -0.041309357 0.06621459 0.22701013 0.035024256
0.0396745 0.19349459 0.06836878 0.0051411116 0.024825083 0.0666075 0.10027955 -0.1486032
0.112370126 0.1229011 0.043221544 0.0041147983 0.2108178 0.0028431034 0.1607138 0.011912082
-0.02154718 -0.03884137 0.1987524 0.094202474 0.12883122 0.09263261 0.104418576 0.19367155
0.0035019158 0.17842212 -0.000454023 -0.050198335 0.12778166 -0.026312303 0.022616712 0.0096048955
0.020238584 -0.04929129 -0.051326662 -0.057011638 0.11245769 0.044042923 -0.11092968 0.03198114
0.00758461 0.16368024 0.07912684 -0.07268204 -0.06028107 -0.13760917 -0.07976609 0.05310155
-0.090102844 -0.10506097 0.15696473 0.16728906 -0.13022262 0.11977178 0.024714477 -0.07581754
0.027798528 -0.06930271 0.29465476 -0.10123562 0.048132036 -0.12482982 -0.06596793 0.060708918

net_container.2.weight f4 [128, 128]
00000000: 7149 78bc f662 ccbd 106c 973d fce0 0dbe
00000010: 35d1 6cbc b959 84bc 0502 0d3d 0979 b3bd
00000020: 63c3 4ebd d5af 843d 4c52 62bd 52ba 98bd
00000030: 0c0b 373e 18e1 98bd 0f85 823d a024 073d
00000040: af7e e1bd bb45 7a3d e6c6 c5bb b554 813d
00000050: b204 25be df0c 1bbd b0f4 96bd ace3 bebd
00000060: 2a01 95bd 906e 66bd d920 a9bd 73da 853d
00000070: b435 adbd a2cf 5dbc 69ef 13bc 0c02 f3bb
00000080: 14b4 abbd cf97 ecbd 867a 6dbd e40f 31bc
00000090: b514 3dbd 5e66 133d 31d0 2b3d 697b a63d
000000a0: 6cbf 3e3d 4dd7 ca3d 99a0 dabd 4e51 30be
000000b0: e078 b33d e74a 923b 9249 fcbd 6bde df3c
000000c0: 88b0 523d 6dfb dc3c f39e 3e3d 15e4 a73d
000000d0: c9a2 abbd bd32 bfbd 0a86 71bc e9d0 17bc
000000e0: 646d ccbd 7254 30bd 72a8 eb3c fd2c e43c
000000f0: 8b7d d8bb d701 dfbb 771e 8f3d 9ced 8abd
00000100: 8030 9ebd 1e96 03bd fc44 44bd db3a f1bd
00000110: f40f a3bc 5466 51bd ec9e d73d 73df 7dbc
00000120: e1c7 2a3d 3968 98bc 8229 cbbd e67b 33bd
00000130: 5faf 2cbd d180 e4bd e47b 403d bc15 033d
00000140: 3210 2a3e 2f1d c73d f1e7 04bc cb89 a73d
00000150: 45bf 15be afc0 653d e0e9 e0bd 7377 bfbd
00000160: e0dd 413d 3aba 6cbd 07cf cbbd 8986 843d
00000170: 4d55 8abd c2df d63a e40a f4bd e2d1 d5bd
00000180: bfcb ac3d e32b 2f3e 15d3 953c bf78 8f3d
00000190: 8339 8c3d c1d4 033c b759 87bd c77a cdbc
000001a0: b639 4f3d 585f 073c 533e abbd f092 afbd
000001b0: fa5a 073d a8d9 be3c 0926 d5ba ae17 17bd
000001c0: 8db1 193d 6d92 033d 8897 02be 1071 97bd
000001d0: 98ca 7abd 9a8e efbc 8b77 1dbc 2bf4 943d
000001e0: 94a4 79bd f8ec 9bbd ba10 c0bb 80ce 683d
000001f0: 45f6 b63d 6c17 443c 5656 29ba 051f 3bbe
00000200: b8ba e8bc 3738 423d 3897 47bd 11ed 44bd
00000210: cbeb f53c 4388 88bd 92f6 4f3d 4570 bb3d
00000220: b333 913c 66f0 33be ee4a d3bc 1c8c 173e
00000230: 3f29 bbbe c234 f73d c5c9 42bd 303c 583d
00000240: ee81 a53c 7c1a 02bc e67c b5bd fc68 b5bc
00000250: d142 1abd f861 56bd bd67 98bd 4195 9cbd
00000260: 3b39 23bb edaf 6a3d 2da2 bcbc 3484 a53d
00000270: e2c2 543a 0b02 6cbd 50ba c93d 92f9 04be
00000280: 54c4 3ebd d058 1dbd 608f c2bd 5882 82bd
00000290: 2a5a 233d 969d 84bd 74b7 3abd 67fd 10be
000002a0: 0ca7 013d 3d30 213d 0e73 da3c a8f0 b13d
000002b0: 75c4 96bc 381d 5f3d f2a1 e4bc 4b29 79bd
000002c0: d7a1 e53c df94 33bd a7e7 abbd 1554 4abe
000002d0: 13bd 14bb a2de fabd d0ed b8bb 0dea debd
000002e0: 9552 51bd c052 0ebd e5a9 0fbe bc50 253d
000002f0: 039e dabd b90f 56bd b466 19be 0edf 9b3d
00000300: 274b 00be ec4d 10be dfe4 81bd 1f6d 63bb
00000310: d9af dfbc 630a 833d c6c5 173b c6ce 2bbc
00000320: c0ce 0cbd 7105 473d 5e6a edbd 289a 13bc
00000330: 3018 4f3d 7dfd 903b 8489 b33d e51c cc3b
00000340: c24f 8fbd aa21 e3bd 612a ec3b d996 62bd
00000350: 297c 18bc 4ad3 6abd a422 8e3d 8d3c d3bc
00000360: 5005 2e3d 8fa6 38bd 712a 2dbd 2371 5cbd
00000370: 040f 4fbd 515c 50bc 29df cc3c 5dd0 a6bd
00000380: d2f0 2b3d 9974 603c 7b61 b73d 2e4e 273d
00000390: 94ce 12bd d384 00be 7471 573d b9c0 9a3c
000003a0: 037f 20be d1db edbc dd74 09be 656d 60bd
000003b0: 53d0 173d b30e ecbc b271 1dbe 2d71 4c3d
000003c0: 6f76 fabd 5bb7 adbd a407 4d3d f061 353d
000003d0: 45af 9bbd b61a ac3d bb0f ba3d deab 183c
000003e0: 9898 b53d 4236 ed3c 5de3 62bd 44de 8abd
000003f0: a9eb 0ebd 4434 753d 49da 8a3d 4759 be3c
-0.015154229 -0.09979813 0.07393658 -0.13855356 -0.014454176 -0.016156064 0.034425754 -0.0876332
-0.050479304 0.0647885 -0.055254266 -0.07457413 0.17875308 -0.07464808 0.06373035 0.032993913
-0.11010491 0.061101656 -0.0060356734 0.06314985 -0.16115072 -0.03785407 -0.07370889 -0.09320769
-0.07275613 -0.056257784 -0.08258218 0.065358065 -0.08457509 -0.013538273 -0.009029248 -0.0074160155
-0.083839566 -0.11552393 -0.057978176 -0.010807011 -0.046162326 0.035986297 0.041946594 0.08129007
0.046569273 0.099043466 -0.10675163 -0.17218515 0.087632895 0.0044644955 -0.1231872 0.027327737
0.051437885 0.026975358 0.046538305 0.081978 -0.08380658 -0.093358494 -0.01474143 -0.009266117
-0.09981802 -0.043049283 0.028766844 0.027853483 -0.0066067628 -0.0068056392 0.069882326 -0.06783602
-0.077240944 -0.032125585 -0.04791735 -0.11778804 -0.019905068 -0.05112298 0.10528359 -0.015495169
0.041694526 -0.018604385 -0.09920026 -0.04381933 -0.042159434 -0.11157382 0.04699315 0.03200315
0.1660774 0.09722363 -0.00811194 0.08180579 -0.14623745 0.05609196 -0.10982108 -0.09348955
0.047330737 -0.057794787 -0.09951597 0.06470973 -0.06754551 0.0016393589 -0.1191614 -0.104404226
0.08437299 0.17106585 0.018289128 0.07005452 0.06846907 0.00804633 -0.066089086 -0.025082959
0.050592147 0.008262478 -0.08361497 -0.08572948 0.033045746 0.023297146 -0.0016261946 -0.036887817
0.03752284 0.032122064 -0.12753117 -0.07394612 -0.061228365 -0.029242802 -0.009611021 0.07273134
-0.06094797 -0.076135576 -0.005861369 0.05683756 0.08933691 0.011968475 -0.00064597034 -0.18273552
-0.028409347 0.047416892 -0.048728198 -0.048077647 0.030019661 -0.06666615 0.050772257 0.09152273
0.017724847 -0.17572173 -0.025792565 0.14799541 -0.36554906 0.1207061 -0.047555704 0.052791774
0.020203557 -0.007940885 -0.08861713 -0.022144787 -0.037661377 -0.052339524 -0.074416615 -0.076456554
-0.0024905938 0.057296682 -0.02302655 0.08081856 0.0008116198 -0.057619136 0.098499894 -0.12985829
-0.04657395 -0.038414776 -0.09500003 -0.06372517 0.03988091 -0.0647537 -0.04558511 -0.14159165
0.03165345 0.039352644 0.02666619 0.0868848 -0.018404225 0.054471225 -0.027909253 -0.060830396
0.028031273 -0.043843146 -0.083937936 -0.19758637 -0.0022695705 -0.12249495 -0.005643584 -0.108844854
-0.051104147 -0.034746885 -0.14029653 0.040360197 -0.106746696 -0.052261088 -0.14980584 0.07610904
-0.12528668 -0.14092225 -0.06342482 -0.0034702492 -0.02730553 0.063984655 0.0023158654 -0.01048631
-0.03437686 0.048589174 -0.115925536 -0.009008922 0.050560176 0.0044247494 0.087664634 0.0062290304
-0.069976345 -0.11090405 0.0072072004 -0.05531964 -0.009306946 -0.057330407 0.06940201 -0.025785709
0.042485535 -0.045080718 -0.042276803 -0.053818833 -0.05055143 -0.012717322 0.025008755 -0.08145211
0.04197771 0.013699674 0.0895414 0.040846042 -0.03584154 -0.12550668 0.05259843 0.018890725
-0.15673451 -0.02903548 -0.13423486 -0.054791827 0.037063908 -0.028815603 -0.15375403 0.04991262
-0.12229621 -0.08482238 0.050056115 0.044282854 -0.076017894 0.08403532 0.090850316 0.00931832
0.088669956 0.028956536 -0.05539261 -0.06780675 -0.03489271 0.059864298 0.06779916 0.02323593

net_container.2.bias f4 [128]
00000000: f0de 303d ccef 28be 0c5b 94be 1585 aa3c
00000010: 43b6 68be 7d8b 8abc 11f3 1e3e 7967 f83d
00000020: 0f2f c63d f347 dbbd ce11 5c3e c747 0dbe
00000030: 1513 88b7 83a6 7ebd a32a 8c3d 6d9b 143d
00000040: db43 6abd 36bc 723c aa57 03be 41e5 8c3d
00000050: 50f7 db3d 92f7 67bd ffc9 f43c 015c c7bd
00000060: dcff a03c 47ea a13c 767a 8f3d 17af 0ebe
00000070: c7db 0b3d aa90 edbd 8748 edbd d2aa 16bd
00000080: 7397 b4bd 4d3b 00be 9d59 553c 0464 f4bd
00000090: 7a29 a53d 0a6e 4c3d 83e3 1ebd b4ac c4bd
000000a0: 76c7 1bbe 7410 99bd 7bac e5bd 7818 f3bc
000000b0: 8dcb 5cbc 3ece 343e df29 033c 38ea 24bc
000000c0: a173 893c 114b f8bd b99e d03d 0801 aebd
000000d0: d9f1 0b3d bcba 203e dfe5 f0bd 3947 44bd
000000e0: 1a95 f53d de62 04be f35e c1bb ab53 013e
000000f0: 103b 84be a2c1 b8bd ad75 09be 361c 8d3d
00000100: e0fe 1cbd 8d59 47be 5de0 043e dba4 543d
00000110: 9c4d b8bd 8e7d 233d 5a95 9bbd 08cd febd
00000120: 5d13 6fbd c26d 6a3d cf0f adbd f751 34bd
00000130: a91c 393d 0746 9fbd a1cd 43bd 7ee2 a3bc
00000140: a58f f8bc 0667 54bd dd60 c23d 8e65 e8bd
00000150: f244 d6bd e156 19bd 8883 173d 5b65 3f3e
00000160: 2d77 9b3d 19e0 a0bd adec 2fbe 45cd 463c
00000170: b42a e1bd 90fd 64bd e17a 2abe 9b90 093d
00000180: 60a6 cdbb 7cd2 d53c dbd1 23be 24a3 ef3d
00000190: a7f2 41be 6fbb 9dbd 07b8 b6bd 25d3 1cbc
000001a0: 3e29 11be 4506 8bbd 0e6e 093c 50b9 0e3d
000001b0: 5b99 0abe fc14 5cbd cabc 043e 2f87 a5bc
000001c0: 7952 8dbe 245a ab3c 21ff f23d a5c8 febc
000001d0: 8856 963d 7ffd 3f3d 5020 fbbd 4193 29bd
000001e0: 3a4f 633d 767e 41be e3d7 44bd 7a5c 32bd
000001f0: f63c cf3d d97c f1bd cba3 91bd ce3c 16be
0.04318136 -0.16497725 -0.28975713 0.020815412 -0.22725777 -0.016912216 0.1552241 0.12129111
0.096769445 -0.107070826 0.21491167 -0.13796912 -1.622135e-05 -0.062170517 0.0684407 0.036281038
-0.05719362 0.014815381 -0.1282641 0.06879664 0.107405305 -0.056632586 0.029881475 -0.09734345
0.019653253 0.019765032 0.070057794 -0.13933979 0.034145143 -0.11599858 -0.11586099 -0.036784
-0.08817949 -0.12522621 0.013021854 -0.11933139 0.08064552 0.04990963 -0.03879119 -0.09603253
-0.15212807 -0.07473841 -0.11214539 -0.029674754 -0.013476265 0.176568 0.008005588 -0.010065608
0.016778769 -0.12123693 0.10186524 -0.084962904 0.03416619 0.15696234 -0.117625944 -0.047919486
0.119913295 -0.1292834 -0.0059012114 0.12629573 -0.2582631 -0.090213075 -0.13423796 0.068901464
-0.038329005 -0.19467755 0.12976213 0.05191503 -0.08999178 0.03991466 -0.07596846 -0.1244145
-0.058368076 0.05723358 -0.08450281 -0.04402348 0.045193348 -0.077770285 -0.047803525 -0.02000546
-0.030341933 -0.051856063 0.094911315 -0.11347495 -0.10462369 -0.03743637 0.036990672 0.18691008
0.0759109 -0.07855243 -0.17180128 0.012133901 -0.10994473 -0.05590588 -0.16648437 0.033585172
-0.006275937 0.026101343 -0.15998022 0.117010385 -0.18940221 -0.07701766 -0.08921819 -0.009571825
-0.14175889 -0.06788305 0.0083880555 0.034844697 -0.13535063 -0.05373095 0.12962642 -0.020206062
-0.27601984 0.020917006 0.11865068 -0.031101534 0.07340723 0.046872612 -0.122620225 -0.041400198
0.05549548 -0.18895897 -0.048057448 -0.043545224 0.10119049 -0.11791391 -0.07111319 -0.14671633

net_container.4.weight f4 [128, 128]
00000000: 215e 2fbd 5402 cb3d 3985 8fbd 10c8 90bc
00000010: b975 9fbc 47ce a5bd 69dc 4fbd 9cdf 6f3c
00000020: 297b a0bd 9962 90bd f114 b7bd 355f 8e3c
00000030: 75d1 ee3d 02ff 44bd c2d3 44bc 8089 acbc
00000040: f746 64bd 23ae a3bd 8116 a9ba 5c6d 9abc
00000050: 5b0b 19be 806b 05be ed6c a43d 07b7 99bc
00000060: 7d51 663b df88 7b3d b667 30bb 0408 5b3c
00000070: 5399 943d 37ef f03c 1162 9fbc dcec 5f3d
00000080: 7003 403d 2e53 d53c d337 bfbd 8a01 99bd
00000090: cec5 59bd 9884 1fbd 0c02 313c 5b0f d3bc
000000a0: 6701 85bc 1571 1ebd d2d6 d23d 56a3 89bd
000000b0: 62f6 b0ba f135 d7bc 61db 423d dacb 1d3d
000000c0: 18f8 1abd 00e1 ac3c 28c4 6e3d 0b01 ac3c
000000d0: 0a3e 883d 7829 9bbd b513 713d 4b11 1dbd
000000e0: 81a5 c93c 81f4 71bd 9533 7ebd e528 553d
000000f0: 8fcb 183d de0d b4bc be68 5b3c 95aa d5bb
00000100: d7a5 44bd c84b c6bd ed6d fcbd 0e58 91bd
00000110: 5fef 683d ccf5 563d 14f8 67bc 13da b83d
00000120: d796 773d ca5d 4dbc d31c 9dbd 43d6 f8bc
00000130: e8fd df3c 51e1 8b3d 089f cf3d 296c 95bd
00000140: 672e 8c3d 4ce9 433d d210 bfbd 1500 79bd
00000150: 2cf5 663d 5775 3c3d 6769 a1bc 7889 92bc
00000160: f1a3 14bc e606 963c 60b6 a33d eace 5dbd
00000170: 82e6 c93d 9dbb b7bb 26ee a3bc bbcb 03be
00000180: f054 fbbc 2134 ce3b 1531 b6bc 47a5 3c3d
00000190: f908 fe3d 1433 ba3d 82ed 5c3d 0a1a da3c
000001a0: 7a37 6c3d 2767 243d 1567 383b 5c93 84bd
000001b0: 0a00 cfbc 0574 dabd c7d9 cebc 57f6 b03d
000001c0: 9057 563d 9dab abbc 07d1 dd3c 5439 613d
000001d0: 2cb0 94bd d946 823d 3a75 9abd e5dd a4bc
000001e0: 2c6e d7ba 99f6 45bd 347b 37bd 8588 613d
000001f0: 662b 75bd 19ad 09bb 0ebe 423d 83d8 2f3b
00000200: 7d5f 1c3e 9453 b2bd cc3a 90bd d480 edbb
00000210: 6ff2 853d 6404 d5bc c6de a6bc fe97 b5bd
00000220: b830 dabd 4c94 5bbd aeb1 b73d 2842 95ba
00000230: d425 123d 4231 633d 7fbd fc3d 4b45 45bd
00000240: 9bdd 45bb af27 7ebd 62d1 8abc d984 d9bc
00000250: 9c92 1a3d d70e 1ebd 3178 453d 8616 853d
00000260: dd9c 553d c4bd 2c3d 8a54 e83d 41f2 1c3c
00000270: cdf8 5b3d c2c5 193d 7541 103d 4286 fe3d
00000280: 9e38 673c c3b3 bf3d 6335 c53d 091e 19bd
00000290: e694 133d 9d58 1bbd 1bd8 ebbc b73d eebc
000002a0: ec6a 363d 4635 17bd 8d86 e5bd 3a6e 523d
000002b0: 4357 5ebd 04f4 363d c30a 47be e57c c73d
000002c0: 1439 ecbd 27f5 adbd 8486 363d 7b2e cf3d
000002d0: 21bf 4abd 75f3 8a3d 6a72 03bd 1b1f b8bd
000002e0: 207c 0a3d 9594 c9bd 9290 083d b772 76bd
000002f0: 4fc1 3a3d f3e0 b23d f859 473d bcc2 e8bc
00000300: 868a a8bd 31ce 87bd 7590 663d 71c7 db3d
00000310: d882 8b3d 2388 2c3c b352 98bc 24c8 82bd
00000320: 666d 903d d000 7dbc 7b64 433d 3afe 753d
00000330: edfc ec3b ff59 f83a cceb aebd 2136 79ba
00000340: 14cb 45bd 0f40 cf3a 06f7 573b 4f9e 1c3d
00000350: 7ed2 0bbc e3a5 6b3d 008a acbd 184d 2c3d
00000360: f9b6 8e3d 25dc 97bd 4e86 013d 9da3 9bbd
00000370: 3564 f8bb 2012 6fbc ce0f 763c 57b1 a63c
00000380: 3755 783d aa30 49bd 2b90 b83c c83d 103d
00000390: e3b9 8f3c 9202 8bbd 1356 053c 110e d63d
000003a0: e3d1 c73c 76db 51bd f3af 0d3d 1693 1a3c
000003b0: 1f66 613c 229d e6ba bc22 30bd 0dad 2fbc
000003c0: be94 2e3d a22b e83d 0b23 513d d3b0 df3c
000003d0: 4aec 4b3d 8b30 34bd 9551 bf3d 69fc 433d
000003e0: 8f8a acba a069 b5bc 4436 ba3d 5c48 b03d
000003f0: be09 823d 9e32 ccbc 6dd4 203d bfcc 563d
-0.042814378 0.099125534 -0.07007832 -0.017673522 -0.019465314 -0.08095985 -0.05074731 0.014640715
-0.07835991 -0.07050056 -0.08939541 0.017379383 0.116610445 -0.048094757 -0.012013378 -0.021061659
-0.05573174 -0.07992198 -0.0012900383 -0.018850975 -0.14945738 -0.13029289 0.080285884 -0.018764032
0.0035143786 0.061409827 -0.0026917285 0.01336861 0.07255807 0.029410942 -0.019455941 0.054669246
0.04687828 0.02604064 -0.093368195 -0.07470997 -0.053167157 -0.03894481 0.010803711 -0.025764158
-0.01623602 -0.038682062 0.1029488 -0.06720607 -0.0013501162 -0.026270838 0.047572497 0.038524486
-0.037834257 0.021103382 0.058292538 0.020996591 0.06652458 -0.07576269 0.058856685 -0.03834657
0.024615051 -0.059071068 -0.06206091 0.052040953 0.037303504 -0.021979269 0.013391672 -0.006520579
-0.04800972 -0.09682423 -0.12325654 -0.07096873 0.056868907 0.052480504 -0.0141582675 0.09025969
0.060446586 -0.012534568 -0.076715134 -0.030375605 0.027342752 0.06830085 0.10137755 -0.072960205
0.06844788 0.04782991 -0.0932938 -0.060791094 0.056386158 0.04601034 -0.01970358 -0.017887816
-0.00907229 0.018313836 0.0799377 -0.054152407 0.09858419 -0.005607082 -0.020011019 -0.12870686
-0.03068015 0.0062928353 -0.022240201 0.04605606 0.12404055 0.09091774 0.053937443 0.026623745
0.057670094 0.040137436 0.0028137614 -0.06473419 -0.025268573 -0.1066666 -0.025250329 0.086407356
0.0523296 -0.020955855 0.027077211 0.054986313 -0.072601646 0.06361169 -0.075418904 -0.020125339
-0.0016436032 -0.048330877 -0.04479523 0.055061836 -0.05985584 -0.0021007715 0.04754453 0.0026831932
0.15270801 -0.087073475 -0.070424646 -0.0072480235 0.06540381 -0.02600307 -0.020369899 -0.08866881
-0.106538236 -0.053608224 0.089694366 -0.0011387514 0.035680607 0.055466898 0.12340831 -0.048161786
-0.0030191902 -0.062049564 -0.016945545 -0.026552605 0.037737474 -0.03858837 0.048210327 0.06498437
0.05215155 0.042173162 0.113442495 0.009579242 0.05370407 0.037542112 0.035218675 0.124279514
0.01411262 0.09360459 0.09629323 -0.03738216 0.036030672 -0.037926305 -0.02878957 -0.029082162
0.044535562 -0.03691604 -0.11207304 0.05137465 -0.054282438 0.044666305 -0.19437699 0.097406186
-0.11534324 -0.08494025 0.044561878 0.10116287 -0.04949868 0.06784717 -0.032091536 -0.08990308
0.03380978 -0.09842793 0.033340998 -0.060167994 0.04559451 0.08734312 0.048669785 -0.02841317
-0.08229546 -0.06631125 0.05629011 0.107314 0.06812066 0.010530504 -0.018594122 -0.0638583
0.07052116 -0.015442088 0.047703248 0.060056902 0.0072322995 0.0018947719 -0.085410684 -0.0009506662
-0.048289374 0.0015811938 0.0032953634 0.038236912 -0.008534072 0.05753125 -0.08424759 0.04206571
0.06968493 -0.07415036 0.031622224 -0.07599566 -0.007580305 -0.014591724 0.015018417 0.020348234
0.060628142 -0.049118675 0.022529682 0.03521517 0.017544692 -0.067875996 0.0081381975 0.10451902
0.024392074 -0.051234685 0.034591626 0.009434482 0.013757258 -0.0017594437 -0.043001875 -0.010722411
0.04262232 0.11336447 0.05105881 0.027305996 0.04978589 -0.043991607 0.093417324 0.04784814
-0.0013163852 -0.022145092 0.090923816 0.086075515 0.063495144 -0.02492648 0.039265085 0.052441355

net_container.4.bias f4 [128]
00000000: 2034 0abe b9ee 8cbd 473f a23d d379 cdbd
00000010: ce03 e9bd d534 dfbd 43cb cfbd 8a95 b8bd
00000020: 936e babd 61db f4bc d924 7b3d d313 fdbd
00000030: 79b4 68bd 7b3a 6cbd cdcb a5bd 568c fb3d
00000040: ecfe 88bd 0932 6dbc b72c 733d c04c 253d
00000050: 33ed a4bd 1630 dd3d d9a5 b6bd 86e6 9539
00000060: 04d0 fcbc e08c 29bd 8c78 973d e080 c8ba
00000070: 292e 8fbd b6d7 0f3d d5ff 4cbd 973a 433d
00000080: 84c8 93bb 263f d7bc a68e 32bc bc34 adbd
00000090: c1fb 07bd 725c 16bb f418 983b bc8e 3a3d
000000a0: 9d5b 84bd b268 83bd 7273 233d c54d 76bd
000000b0: 6226 73bd 0643 553d 23bb 9fbd ed8c 2abd
000000c0: 283e a93c 081d 663d 9f80 1c3d e969 81bd
000000d0: 70cd 4fbd 93aa a3bd 78f4 84bc 4c29 3e3a
000000e0: 1273 143e 4ea0 f6bd ce25 263c 14a5 163d
000000f0: 38a9 65bc 875d e1bc eaf0 f8bd feea 79bd
00000100: 896a d6bd 4d84 38bd b91a 93bd b2d9 453d
00000110: c7b5 5ebd 0025 c9ba e107 b13d e0d5 4dbc
00000120: 70de 3fbc c272 5e3d 787e d3bc cb59 4e3d
00000130: 2e55 033d 41b9 8b3d 85fb f53c 81fa ebbc
00000140: 8f0e b13d 91de 26bb abac c9bc 5912 aa3c
00000150: 3ebf a43c dc67 89bd a566 00bd 99f2 16be
00000160: a994 8c3d 67c8 52bd 81ff d3bd 8b91 f8bd
00000170: d505 73bd 8f27 a3bd 9a90 b03d f510 1abc
00000180: 0d16 41bd 9551 98bd 052c 2bbc 6186 eebb
00000190: f49c f7bd 74be ebbd cfb5 4dbe 89f7 293c
000001a0: bab7 dcbc a9e5 98bb 08cc 683d d550 75bb
000001b0: c9b7 0cbe 20ff 5a3c eb3f 12bd 58f4 d03d
000001c0: 52ee a4bd fc33 bebd 0eea 713d bc81 8f3d
000001d0: 7d91 ea3c 42c0 893d 24b8 b23b 9869 d43d
000001e0: c66f 433d e206 fb3c 6fe6 b73c d924 f1bb
000001f0: 9262 8ebd ac28 2ebd 72b2 e43c 457b 0cbd
-0.13496447 -0.0688147 0.079222254 -0.10033002 -0.11377679 -0.10898749 -0.10146191 -0.09012897
-0.091031216 -0.029889764 0.061314438 -0.12357297 -0.056812737 -0.05767296 -0.080955125 0.12282626
-0.066892475 -0.014477261 0.059368815 0.040356398 -0.08053055 0.10800187 -0.08918352 0.00028591248
-0.030860908 -0.041394114 0.07396039 -0.0015297197 -0.06991226 0.035117827 -0.050048668 0.047663298
-0.0045099873 -0.026275229 -0.010898268 -0.08457324 -0.033199076 -0.0022943285 0.0046416465 0.04554628
-0.06462786 -0.064164534 0.03990502 -0.06013276 -0.059362777 0.05206587 -0.07799365 -0.041638304
0.020659521 0.05618003 0.0382086 -0.06319029 -0.05073303 -0.07991519 -0.016229853 0.00072540785
0.14497021 -0.120422944 0.010140849 0.036778525 -0.014017396 -0.027510418 -0.12155326 -0.06101512
-0.10469539 -0.045048047 -0.07182831 0.048303314 -0.054372575 -0.001534611 0.08644081 -0.012563199
-0.011710748 0.05430866 -0.025817141 0.050378602 0.032063656 0.06822444 0.03002716 -0.028805973
0.08645355 -0.002546225 -0.024618467 0.020760702 0.020110723 -0.06709263 -0.03134789 -0.14740981
0.06864292 -0.05146065 -0.10351468 -0.12137135 -0.059331734 -0.079665296 0.086213306 -0.009403457
-0.04714017 -0.074374355 -0.010447507 -0.007279203 -0.12090483 -0.115109354 -0.20088886 0.010373958
-0.026943076 -0.0046660495 0.056835204 -0.0037432213 -0.13741983 0.013366491 -0.03570549 0.10202855
-0.080532685 -0.09287259 0.059061103 0.07007167 0.028633827 0.067261234 0.00545408 0.10371703
0.047714017 0.03064293 0.022448746 -0.007359129 -0.069523945 -0.042519256 0.02791712 -0.034297246

policy_layer.weight f4 [19, 128]
00000000: 8637 62bb beb5 e7bc 2b3d edbc 8f54 ea3c
00000010: 38f7 39bd 630c 363d 1991 3c3d e80e 3cbd
00000020: 28a6 18bb 440a 373d 0d38 1abd 0e43 7c3b
00000030: e31c cf3c 2e4d 793c 6775 b23c 740f 03bc
00000040: d5a0 42bc 7725 32bd f2d9 ea3c f56a ac3c
00000050: 43b7 d43b 6806 c9bb 65d1 713d cbf0 9ebd
00000060: 3fed 84bc 4a2b ad3b e97d 08bd f7c7 b5ba
00000070: df34 3d3d a2f9 5e3d d2a0 acbc df6d 173d
00000080: 584f 44bd da14 2a3c 4a78 493d 93b3 27bc
00000090: 224a e03d 97a3 5d3d 7cf4 aabc 73b7 d93b
000000a0: 0b60 1c3b da1d 4e3d d3ac 5ebd 5af2 ca3d
000000b0: 934a 1cbd b81f 6dbd a9d1 2c3d 653a d43c
000000c0: 9847 923c 44a3 5c3d 87da 4bbd 06e5 ff3c
000000d0: daa2 ee3c f16f 423d 7e9e acbc cda4 92bc
000000e0: 38b6 de3b 2faa 493d 0c4a c83c 55ad be3c
000000f0: ff6a f53c bc48 6e3d 960b 873b f96d 89bd
00000100: ad7f 1a3d ed33 81bc 2e5d 43bd 3891 1c3d
00000110: e170 45bd 2077 12bd ba27 85bd 13d5 92bc
00000120: 3924 5f3d 15ed 2cbc c6fc b23c 9405 c3bb
00000130: 7d1c 5b3d 0679 36bc 7cce 2c3c c0a1 afbc
00000140: 910c cd3a ea69 25bd cabd 983d 815e 89bd
00000150: ab80 9f3d 1de8 8fbd 9e99 453c 9ee0 92bc
00000160: 5812 18bc aa7f 303d fe73 2a3d a21d f2bc
00000170: a607 d5bc 86b7 f53b 7330 efbc 0837 0bbd
00000180: 7a7e fe3c c94e 3e3d 1b4f a3bc 741e b3bc
00000190: b4df 093d 7970 39bc c866 a8bb b05f 563d
000001a0: 9587 eabc 44cd 28bc 83ca 1a3d db0e 023c
000001b0: a2b8 e8bb 38d2 28bd c1c3 423d 50f0 87ba
000001c0: 5f9b 85bb 1ec1 c93b 2575 7ebb 3cfc f0bb
000001d0: db9f 51bd b88d 133d b8f9 37bd a69e 98bb
000001e0: 1cdd 3b3d 259c 50bd 80dd 59bc 546d 61bc
000001f0: 8d52 cdbc 7f5b 1bbd 3d5e 24bd aca2 dabc
00000200: 7447 3fbd e172 593d a5c2 673d d69c c2bd
00000210: ab5b 8bbd b079 d53d 9984 e5bc a91d d53b
00000220: 8920 e4bc d5d7 243d 0922 74bd b640 25bb
00000230: 1010 17bd 1e6c a2bd d8c1 0f3c 0406 f6bc
00000240: 35ba ea3c ce5b 0abd 22d2 4e3d f4d0 9bbc
00000250: 10f1 e03c 0790 183c 310f 7cbc 0750 883d
00000260: 8e71 e53c 6b12 4f3d bf87 a03d a0e9 71bb
00000270: 9c69 d23c 6865 2dbc 0305 07bb 2e83 77bc
00000280: 3f38 063d 5381 cd3c 713b 5d3c 7be4 83bd
00000290: bd58 243d 7442 dabb 4eb2 673d 0b3d 953d
000002a0: 1261 29bd 6f5e abbc 8161 e8bc b24a 8ebd
000002b0: c0f3 143d 4a7e 9a3d 8c8b c9bc 88c1 5fbc
000002c0: f003 22bc 1b65 0cbd 4c4d 00bd 54db 71bd
000002d0: 316b 643d d1fc d0b9 2d13 acbb 4aa3 683d
000002e0: 53cb 9dbc 319c 16bd 6f81 64bd d504 ba3d
000002f0: 7464 2fbd 1032 003d 23b0 82bb 77b9 37bd
00000300: 8b75 e6bc 2387 b1bc 5649 c53c 1a03 543b
00000310: 902f 743d f23d 393c 992f 643c 1ba3 583c
00000320: b728 17bd aefb adbc 9996 803b f5e0 f43c
00000330: 51d7 a4bb 1e3f 763c a062 cb3c 5cf9 6fbd
00000340: a290 fc3c 6cc3 c03d 2b3f 40bd bb8f a73d
00000350: 2790 2a3d 8bc9 253d d736 043d db00 993d
00000360: 4812 4a3c 83bd 8a3d 0e76 963c df4a 62bd
00000370: bfa1 19bd dd7c 46bd f02b 403c fa75 103d
00000380: c70f b53c 5fd1 023c 0980 bbbc 2851 3e3c
00000390: 1969 a53b 60bd d13d 4a0e 103d 78da e1bb
000003a0: a845 9e3c 1d7b 263d 8852 873b 2b03 f23c
000003b0: 638a 56bd b5ad ebbc ea6d e7ba 9ac5 c2bc
000003c0: 5557 b6bc 272c 21bd 7bc3 c13c be3a bb3c
000003d0: 56d2 963d 4135 24bd 27d2 10bd bd07 a5bc
000003e0: 039e a13c dc14 bc3c 5770 26bc 42b1 f43c
000003f0: 022f a73c be9e 79bc 14ad b4bc f60f 693c
-0.0034517958 -0.028284904 -0.028959831 0.028604774 -0.04540178 0.044445407 0.046036813 -0.045912653
-0.0023292396 0.044687524 -0.03765111 0.0038492116 0.025282329 0.015216155 0.021784497 -0.00799929
-0.011879166 -0.04349276 0.028668378 0.021047095 0.006491573 -0.006134797 0.059037585 -0.07760771
-0.016226409 0.0052847015 -0.033323202 -0.0013868798 0.046193 0.054437287 -0.021072779 0.036970016
-0.04792723 0.010380948 0.049186982 -0.010235685 0.1095164 0.05411109 -0.020868532 0.0066441833
0.0023860957 0.050321437 -0.054364037 0.09909506 -0.038157057 -0.057891577 0.042192135 0.025906751
0.017856404 0.05386664 -0.04976895 0.031237137 0.029130388 0.047470037 -0.021071669 -0.017900849
0.0067966245 0.049234565 0.02444937 0.02327601 0.029958246 0.058174834 0.004121254 -0.06710429
0.037719417 -0.01577183 -0.047696285 0.03822443 -0.048203353 -0.035758138 -0.06501718 -0.017923867
0.054477904 -0.010554572 0.021849047 -0.0059515927 0.053493965 -0.011137253 0.010547277 -0.021439433
0.0015644004 -0.04038421 0.074580744 -0.06707478 0.07788213 -0.07026694 0.012060551 -0.017929371
-0.009281717 0.0430905 0.041614525 -0.029555146 -0.026004624 0.0074986843 -0.029197907 -0.03398803
0.031066168 0.046461854 -0.019935181 -0.021865107 0.033660606 -0.0113183195 -0.0051392056 0.05233735
-0.028629104 -0.010302845 0.037790786 0.007938112 -0.007102088 -0.041216105 0.047549967 -0.0010371301
-0.0040773596 0.0061570546 -0.0038827148 -0.0073542874 -0.05117784 0.036023825 -0.044915885 -0.0046575842
0.045865163 -0.05093016 -0.013297439 -0.013758976 -0.025063777 -0.037929054 -0.040128935 -0.026688896
-0.046699002 0.053088073 0.056582112 -0.0950257 -0.06804594 0.10423601 -0.028017329 0.00650378
-0.027847545 0.040244896 -0.05960277 -0.0025215573 -0.036880553 -0.07930778 0.008774243 -0.030032165
0.028653244 -0.033778958 0.050493367 -0.019020535 0.027458698 0.009311683 -0.015384481 0.06655889
0.028008249 0.050554674 0.078383915 -0.0036912933 0.025685124 -0.010583259 -0.0020602352 -0.015106959
0.032768484 0.02508608 0.0135029415 -0.064400636 0.04012369 -0.006660754 0.05656653 0.07287034
-0.04135234 -0.020919053 -0.028366806 -0.06947841 0.03636527 0.07543619 -0.024602674 -0.013656981
-0.009888634 -0.03427611 -0.031323716 -0.05904706 0.05576629 -0.00039861214 -0.0052513094 0.05679635
-0.019261992 -0.03677005 -0.0557875 0.09082953 -0.04282041 0.031297743 -0.0039882823 -0.044854607
-0.02813222 -0.021670884 0.02408282 0.0032350481 0.05961567 0.011306273 0.013927364 0.013222481
-0.036904063 -0.021238174 0.0039242026 0.029892424 -0.0050305505 0.015029697 0.024827302 -0.058587417
0.030830685 0.09412274 -0.04693524 0.08181711 0.04164138 0.04047541 0.03227886 0.07470866
0.01233346 0.06774428 0.01836684 -0.055247184 -0.03750777 -0.048458923 0.0117292255 0.03526876
0.02210225 0.007984488 -0.0228882 0.011616029 0.005047929 0.102411985 0.035169877 -0.0068924986
0.019320324 0.040644754 0.0041297115 0.029542526 -0.05237807 -0.028769353 -0.0017656658 -0.023775864
-0.02225844 -0.039348748 0.023652783 0.022855159 0.07364337 -0.04008985 -0.035356667 -0.020145291
0.019728666 0.022959165 -0.01015862 0.02986968 0.020408157 -0.015235601 -0.022055186 0.014224997

policy_layer.bias f4 [19]
00000000: a962 30bd eb80 c9bc fc7f a8bc 1114 dc3b
00000010: 9903 b339 dcec fcbc 9ce0 24bd 1a06 823c
00000020: fee0 43bd 784f c43d 28b4 bb3c f0ee 9e3d
00000030: f60f 733d cffc dd3c 0f92 d3bc 61b9 21be
00000040: 294e d4bd e3c1 fc3c 4bd7 8fbd
-0.04306284 -0.024597606 -0.02056884 0.0067162593 0.0003414422 -0.030874662 -0.040253267 0.01587205
-0.04782199 0.0958547 0.022913054 0.077604175 0.059341393 0.027098088 -0.025826482 -0.15793373
-0.1036647 0.030854171 -0.07023486

value_layer.weight f4 [1, 128]
00000000: 5ae8 c9bd abab cdbb d95a 673d 9a1d 5d3c
00000010: 076f b5bd 59d7 a43c 76fb 81bd 3f1c 0d3d
00000020: b635 cabd 5dbd a8bd f19e a8bd 2408 c6bc
00000030: 850d c23a eaaf 8f3d a703 dbbd e103 e6bb
00000040: 5de1 04bc 4552 dcbd 7a44 423d f199 9f3d
00000050: a489 abbd b85e 5e3e cb54 8c3c 8c9b cb3c
00000060: d5e3 b13c dc9f cf3d 7fc3 a1bd 56fc a5bd
00000070: c149 45bd 254d 03bb fda6 0b3e 1c18 be3d
00000080: 4ba0 c6bc a2f7 133d 0874 993d c08f 9f3c
00000090: 93a8 52bd 0401 7dbd 4df0 abbd 80fd fbbd
000000a0: c402 9cbd 6024 a33d a7e3 043d 8fc4 abbc
000000b0: 92c8 ae3d 2b71 8ebd c59c d33d c959 52bd
000000c0: 8f2f 15be 9bbe b63d ec43 8d3d 8e8c c0bc
000000d0: 9925 adbd a56d b0bd 02b4 52bc f903 e1bd
000000e0: 1aa8 f83d 21f8 e7bd 25fa ae3d 573e 0f3a
000000f0: 9c61 813d 5cbe c83d fa58 4abe 08b8 c1bd
00000100: 6c6a d8bd 6d5e aebc 43f7 783d 75a4 df3c
00000110: 5154 51bd 9317 a53d 031b aabd 401c 16bb
00000120: 8eff 35bd ca37 ba3c 1eb3 a53d 0e4d 08bd
00000130: b957 e8bb a366 903c cfa7 82bd ee95 63bd
00000140: adef 513d a817 47bd 3e77 3dbd fb7f 143c
00000150: ff30 953d 32aa f03c 1868 86bc 9083 02be
00000160: cbaa c43d 590a c1bc dcfd d3bd 7373 0dbe
00000170: 5431 363c c961 acbb bfc6 a93d 622e 43bc
00000180: 745e b5bc 7e2c 8a3d f53c c9bc 439d e13c
00000190: 2c22 ae3b 956b babd 89f0 fdbd 0804 253d
000001a0: 99b9 dabd 4ad2 60bd 4b61 94bb 88ec f53d
000001b0: 2310 10be 5e08 a83d 4d0c 5fbc 1295 013e
000001c0: a878 d2bb 370b 943d 8568 473b 97c7 a9bd
000001d0: 16cd 29bd 8a06 933d 180a c43d d35e 9c3b
000001e0: e589 433e 8e25 1e3d 7806 bfbc 96a4 4f3d
000001f0: f025 bebd acca 993d 3b9c 92bd 9048 ff3c
-0.09858771 -0.006276568 0.056483123 0.013495827 -0.088590674 0.020122217 -0.063467905 0.034450766
-0.09873526 -0.08239243 -0.08233441 -0.024173804 0.0014805055 0.07015975 -0.10694056 -0.0070195054
-0.008110371 -0.10757879 0.047428586 0.07793034 -0.08375862 0.2171582 0.017130276 0.024854444
0.021715084 0.10137913 -0.07898616 -0.0810477 -0.04816604 -0.0020034995 0.1363792 0.09281942
-0.024246356 0.036124833 0.07492834 0.019477725 -0.051430296 -0.061768547 -0.08395443 -0.12304211
-0.07617715 0.07965922 0.03244367 -0.02096775 0.085343495 -0.06955179 0.10332636 -0.051355157
-0.14568923 0.08923074 0.06897721 -0.023504522 -0.08454437 -0.08614663 -0.0128603 -0.10987086
0.12141438 -0.11326624 0.08543805 0.00054643065 0.06317446 0.09801933 -0.19760504 -0.09458929
-0.10567173 -0.02128526 0.060782682 0.027300099 -0.0511058 0.08061137 -0.08305933 -0.0022905022
-0.04443317 0.02273168 0.080908045 -0.03327661 -0.0070905355 0.017627066 -0.06379663 -0.055562906
0.051253963 -0.048606545 -0.046256296 0.009063716 0.07284736 0.02937803 -0.016407058 -0.127455
0.09602889 -0.023564504 -0.10351154 -0.13813572 0.011120159 -0.0052606803 0.08289861 -0.011912914
-0.022139765 0.067467675 -0.0245652 0.027540809 0.005314132 -0.09102551 -0.12399394 0.040287048
-0.10679931 -0.054888047 -0.0045282 0.120080054 -0.14068656 0.08204721 -0.013613773 0.12654522
-0.0064230748 0.072287016 0.0030427289 -0.08290022 -0.04145535 0.071789816 0.09572238 0.004772046
0.19095571 0.038610034 -0.023318514 0.05069407 -0.0928458 0.0750936 -0.07158705 0.03116253

log_std_parameter f4 [19]
00000000: e398 28c0 d72d 29c0 7e52 31c0 2e7f cdbf
00000010: 898c c8bf 438a 34bf 0f25 21bf b2d6 fbbf
00000020: 5752 ffbf a5e8 30bf 6def 1fbf 8774 9dbf
00000030: d854 a4bf 8b54 29bf 54b7 01bf 4ddd 20bf
00000040: 63a0 17bf e386 2cbf 1db4 24bf
-2.6343315 -2.6434228 -2.77066 -1.6054437 -1.5667888 -0.7052347 -0.6294717 -1.9674895
-1.9947003 -0.6910499 -0.6247471 -1.2301186 -1.2838392 -0.6614463 -0.5067036 -0.6283768
-0.59229106 -0.6739332 -0.6433733

net_container.0.weight f4 [128, 69]
00000000: c5e5 f7bd 232a f1be 486e 863e 3393 90be
00000010: 70ff 853b af9a b93c 7df5 9bbe 8e0d 41be
00000020: 0f50 b43d 8f3b 143d 87da 7ebd fcec 233e
00000030: 8113 0d3e 7c2c 80be 2601 ee3b 2519 a83b
00000040: 1dd1 6b3e 51ba e5bd 71cd 3fbe 58d4 8fbe
00000050: b8fb 5abe 1cb9 ca3b 2e5b fc3d 9099 6fbe
00000060: b6cd 67be 14a9 b8bd 2fee 1cbe 8007 c83d
00000070: 9f92 3c3e 414b 033e 41c3 98bc 23d2 f3bc
00000080: 4f8b 433d 4278 3bbd 200a 74bd 526f 7b3d
00000090: 94f6 673b 6db8 e9bc 8e42 e9bd 34b5 aa3d
000000a0: 4a02 5f3d d569 3a3d d742 963d 3e3d 05bb
000000b0: 4b53 28bc 16f1 9c3d 26b8 adbc 7b6c e43d
000000c0: 9eb2 efbd 284a 8f3d 52c9 96bd 36fe db3c
000000d0: 6323 483e edd3 173e a5c5 863d 95aa 543d
000000e0: fe11 1d3e 9ff5 a5bd 28b5 e03d 5b72 173e
000000f0: e6a9 f5bc 092c a5bd a82e 5fbc 9209 cebc
00000100: 8815 29bd 934a 683d 70e2 76bd b312 92bd
00000110: d5c6 463c d70c f7bd 141a aebd 5752 0b3e
00000120: 8dfc c73c 522c 33be 616d fe3d e04e 59be
00000130: e67d a4bd f6d6 993d f48d ac3d 0b83 28bd
00000140: 2f38 633b d96d 1fbe fa97 0c3e 45ac a53d
00000150: 38eb 3f3e cfa6 883e 6377 de3e 643e 89be
00000160: 48b1 1e3f 3b1c e9be df68 bebd e796 87be
00000170: cdbf babc 0f36 253e 5f62 08be 7d64 a3be
00000180: 5870 d03d 94c3 933d 7a1c c53e edef bdbe
00000190: 7412 fabc f595 f33d a8e5 44bd aab1 15be
000001a0: d653 57bd 5586 88bd 5a67 fd3c d2f9 cc3d
000001b0: 59c1 a13d b14d 373d 65c3 83bd 7917 0cbe
000001c0: 27d6 873c 8ee6 cb3d 1711 703d 4dbd d63d
000001d0: a8d8 86bd 0d7e 01bd 0f8b 82bd ed7b b8bd
000001e0: 56e0 83bc 4018 973d 290c 0cbe 1613 7a3d
000001f0: c5ad 11bd f0b8 5b3d 5f99 babc 21eb f3bd
00000200: f3d5 683c a470 fa3c 9c6f 763c 4c90 b3be
00000210: b801 c13c f4e1 9cbd 8576 cbbc 2b18 05be
00000220: 1193 70bd 3c58 103d 3d83 52be 6b4e 353e
00000230: 8ce8 2f3d 68d8 4e3d dfe4 d0bd 5f86 9cbd
00000240: 2ea7 b1be b7df 083e 6576 4d3e 4594 cf3e
00000250: 7d0e 2a3d b25c f03d f26b 05be 8f11 dfbe
00000260: 73c9 bdbe a7c9 d03c 3476 a4bc c2fa 11be
00000270: 2a0a 983e 7269 ebbe a71f e2bc 943d 6dbd
00000280: 878b ecbd f382 29bd 56bf 2e3d 5de2 d5be
00000290: 4c5f 57be 2c4c 163d 4a53 9dbd e1b6 02bd
000002a0: a47a 713e 6744 ae3b f1c2 8b3c b454 3d39
000002b0: f8e6 c83d 2a1b bcbd 8ff1 23bd 3909 1e3d
000002c0: 339d 91bd 4a46 a93d 7f76 06be 5f16 27bd
000002d0: 0c72 5f3c d633 443d c88e 543d 5cdc c23d
000002e0: 63b2 58bd b68f d63b 47b7 7d3b 20c9 d8bb
000002f0: 389d bdbd eb0f 893d f7f9 c1bd e852 2fbd
00000300: 6680 c6bd 3e49 da3c 6407 65bc 7c79 5bbd
00000310: 6ed7 813e 8651 45bd 5dcc 0e3e ba85 8ebd
00000320: 1d7c 983d 83e7 923d aa88 223c e2a5 65bd
00000330: a505 44bd 764c 3b3d 5343 bb3c 1c73 0e3f
00000340: 3398 2dbe 1b47 d9be 2c8a 27be c06f ea3d
00000350: 0f07 923b 5809 9a3f 24e7 11be 9950 3dbe
00000360: a6a9 23be 6ce5 ee3d 3c45 02be d09e bb3e
00000370: 22be cabe 2e54 81bd e98f 273f 3c74 8cbe
00000380: 8284 2abd 75cb 033e 4b81 173f 35e5 183f
00000390: 64e6 b73d 4a93 8fbd 1df9 863e 780a 9e3e
000003a0: 42b6 b93d 902e e43c f766 00be b2d2 86bd
000003b0: abc1 85bc 8cbe 913d f565 be3c 42b6 843b
000003c0: 93be b8bc c723 8aba e2c5 3bbd c8ce 613d
000003d0: e323 423d 0ef4 303d 860f e5bb 970e afbb
000003e0: 59c1 d4bc b240 ee3b 0b06 fbbb f0d0 603d
000003f0: e1bc 883b 9090 8b3c dc4b 633c 0f02 4ebd
-0.12104372 -0.4710246 0.26256013 -0.28237304 0.0040892884 0.022656767 -0.3046073 -0.18852827
0.088043325 0.036189612 -0.062220123 0.16008371 0.13776971 -0.2503394 0.0072633205 0.0051299506
0.23028989 -0.11217178 -0.18730713 -0.28091693 -0.21385086 0.0061866175 0.12322079 -0.23398423
-0.22637066 -0.09016624 -0.15325235 0.097670555 0.18415307 0.12821676 -0.018647792 -0.029763287
0.047740277 -0.045768984 -0.05957997 0.06138546 0.0035394775 -0.028530324 -0.113896474 0.08335343
0.054445542 0.045511086 0.073369674 -0.0020330693 -0.010273765 0.07663171 -0.021205973 0.111535035
-0.117039904 0.06996566 -0.073626176 0.026854616 0.19544749 0.14826937 0.065806665 0.051920492
0.15338895 -0.08103489 0.10972053 0.14789717 -0.02998824 -0.0806504 -0.013621964 -0.025151048
-0.0412803 0.056711745 -0.06027454 -0.07132473 0.012132366 -0.12062996 -0.08501068 0.13605629
0.024412418 -0.17497376 0.12423206 -0.21221495 -0.08031826 0.07511704 0.08425513 -0.041140597
0.003467094 -0.15569247 0.1372985 0.080894984 0.18742073 0.26689765 0.4345046 -0.26805413
0.6198926 -0.4552935 -0.09297346 -0.26482317 -0.022796536 0.16133903 -0.13318776 -0.31912604
0.10177678 0.07215038 0.38498288 -0.3709711 -0.030526377 0.118938364 -0.04807058 -0.14618555
-0.052570187 -0.06666247 0.03093307 0.10008587 0.07898206 0.044751827 -0.06433753 -0.13680829
0.016581608 0.09956084 0.05861005 0.10485325 -0.06584293 -0.031614352 -0.063741796 -0.09008012
-0.016098183 0.07377672 -0.13676514 0.061053358 -0.03556611 0.053643167 -0.022778211 -0.11910082
0.014211166 0.03057129 0.015041258 -0.35071027 0.02356039 -0.07660285 -0.024836788 -0.129975
-0.058734003 0.035240397 -0.20557876 0.17705695 0.042946383 0.05049935 -0.10199904 -0.07642817
-0.3469786 0.1336659 0.20064695 0.40542808 0.041517723 0.1173643 -0.13029459 -0.43568084
-0.37067756 0.02548678 -0.020075895 -0.14255813 0.29695255 -0.45978886 -0.027602984 -0.057920054
-0.1155005 -0.04138465 0.04266294 -0.41774264 -0.21032447 0.036693737 -0.07681902 -0.03191269
0.2358194 0.005318213 0.017060729 0.00018055999 0.09809679 -0.09184869 -0.04002529 0.038583014
-0.071100615 0.0826536 -0.1313114 -0.04079282 0.013638031 0.047900997 0.05189398 0.095146865
-0.052904498 0.0065478934 0.0038713978 -0.006615773 -0.09258503 0.06692489 -0.09471505 -0.042803675
-0.09692459 0.026646253 -0.013978813 -0.053582653 0.25359672 -0.04817345 0.13945146 -0.069591
0.07445548 0.071730636 0.009920279 -0.0560664 -0.047856946 0.045727216 0.022859251 0.5564439
-0.1695259 -0.42437062 -0.16361302 0.11447096 0.004456408 1.2034101 -0.1424833 -0.18487777
-0.15982684 0.116648525 -0.12721723 0.36644602 -0.39598185 -0.06314884 0.65453964 -0.2743243
-0.041630276 0.12870581 0.5918166 0.5972474 0.089794904 -0.07010515 0.26361933 0.30867362
0.09067966 0.027854234 -0.12539278 -0.06583156 -0.0163277 0.07116422 0.023241976 0.004050047
-0.02255181 -0.0010539227 -0.045843013 0.055128843 0.047397505 0.0432015 -0.006990376 -0.0053423154
-0.025971102 0.007270896 -0.0076606325 0.05488676 0.0041729067 0.017036706 0.013873067 -0.050294932

net_container.0.bias f4 [128]
00000000: 5144 013e 0478 dfbd 5463 e1bc 896f f93d
00000010: 1365 c53c 8f80 7f3d 327d 073e 608f e53d
00000020: 6532 0d3e 9eb3 083e ff3e 5f3d c1ee 313c
00000030: 6aac 853d 77eb 46bd c148 543e 6ef3 01be
00000040: 74b6 f23d 3dff 2fbe 299a 293e 2dd5 9f3d
00000050: 02e3 443d 56e4 1f3d bca5 afbd 6a48 1e3e
00000060: 1714 b33d 6911 00bd d608 3abc 6c18 80bd
00000070: 3d3f dbbd 03d8 8fbd a5ea adbc dc8a 9b3d
00000080: 55db 413e 6896 3a3d 344c 9abd 1c16 aebd
00000090: 0591 9c3d 4b91 123d 4268 a53d 73c4 49bd
000000a0: 6215 e9bd 4709 373e 406f 4dbe 56d4 7bbd
000000b0: 3040 b23d 8787 a9bd 8912 773d 84a3 e2bd
000000c0: bdef 2d3e b9dc c03d c596 223c 92f0 d7bc
000000d0: b5db 07be a9a6 94bd 0ee8 b3bb 5912 6f3d
000000e0: d530 0f3e 665e 933d c6b8 073e 23d2 e73d
000000f0: 0034 29bd 849b 873d 5875 683e 9875 0f3d
00000100: ba81 223d 7223 463e ee04 8c3d c576 a83b
00000110: f95d cb3c 8369 883d 5d5f cd3d 702b 18be
00000120: 4f22 e63d 92b3 fb3d 1309 313d 6ed5 863b
00000130: 9fe0 573e 5c53 3a3b 2992 243e e52a 433c
00000140: b683 b0bc 2118 1fbd c085 4b3e 3aed c03d
00000150: 55ec 033e 2ab6 bd3d 68d9 d53d d651 463e
00000160: 6680 653b 4ab4 363e ef09 eeb9 c59c 4dbd
00000170: 32d9 023e e68c d7bc af46 b93c da5d 1d3c
00000180: 63cb a53c aae5 49bd e83b 52bd 0985 69bd
00000190: 3850 e63d 5a66 343d 1a2f e3bd a8fe 023d
000001a0: 5288 f83b cb9b 273e 410d a23d 52da 94bd
000001b0: 49e9 76bd 6be9 0cbe 675c a3bd 0381 593d
000001c0: d787 b8bd 352a d7bd 5dbb 203e d34d 2b3e
000001d0: 1459 05be e84a f53d 0476 ca3c 3a46 9bbd
000001e0: bdb9 e33c 94ee 8dbd fddc 963e 9f54 cfbd
000001f0: 1926 453d c7a6 ffbd 321a 87bd eaa9 783d
0.12623717 -0.10911563 -0.027513184 0.12179477 0.024096048 0.062378462 0.13231352 0.11208987
0.13788755 0.13349769 0.054503437 0.010860146 0.06527026 -0.0485644 0.20730878 -0.12690517
0.118512064 -0.1718721 0.16562714 0.07804332 0.048068054 0.039036117 -0.08576533 0.15457311
0.08744066 -0.031266604 -0.011354646 -0.06254658 -0.10705421 -0.07023623 -0.021230051 0.07594845
0.18931325 0.045553595 -0.07534066 -0.08500311 0.07644848 0.035783093 0.08076526 -0.049259614
-0.113810316 0.17874633 -0.2006197 -0.061481796 0.08703649 -0.08277803 0.06032041 -0.110663444
0.16985984 0.094170995 0.009923642 -0.02635983 -0.13267405 -0.072583504 -0.0054903096 0.058367107
0.13983472 0.071957394 0.13254079 0.11319377 -0.041309357 0.06621459 0.22701013 0.035024256
0.0396745 0.19349459 0.06836878 0.0051411116 0.024825083 0.0666075 0.10027955 -0.1486032
0.112370126 0.1229011 0.043221544 0.0041147983 0.2108178 0.0028431034 0.1607138 0.011912082
-0.02154718 -0.03884137 0.1987524 0.094202474 0.12883122 0.09263261 0.104418576 0.19367155
0.0035019158 0.17842212 -0.000454023 -0.050198335 0.12778166 -0.026312303 0.022616712 0.0096048955
0.020238584 -0.04929129 -0.051326662 -0.057011638 0.11245769 0.044042923 -0.11092968 0.03198114
0.00758461 0.16368024 0.07912684 -0.07268204 -0.06028107 -0.13760917 -0.07976609 0.05310155
-0.090102844 -0.10506097 0.15696473 0.16728906 -0.13022262 0.11977178 0.024714477 -0.07581754
0.027798528 -0.06930271 0.29465476 -0.10123562 0.048132036 -0.12482982 -0.06596793 0.060708918
