humanoidprac/humanoidprac/scripts/skrl/logs/skrl/h1_flat/joint_experiment_ver3/2025-09-18_03-27-25_ppo_torch/checkpoints/agent_2400.pt (torch, 549922 bytes, 40 tensors)

log_std_parameter f4 [19]
0	0xbf803c80	-1.0018463
1	0xbf83a0d7	-1.028346
2	0xbf8cc1e0	-1.0996666
3	0xbf673154	-0.90309644
4	0xbf70bc21	-0.9403706
5	0xbe94e001	-0.2907715
6	0xbe8634a3	-0.26212034
7	0xbf3c17fd	-0.73474103
8	0xbf8e2ce8	-1.1107454
9	0xbe8d9f45	-0.27660576
10	0xbea3fa23	-0.32026777
11	0xbf45fe3f	-0.77341074
12	0xbf4b5a5f	-0.7943477
13	0xbe81b2b0	-0.2533164
14	0xbe8fe249	-0.2810233
15	0xbe94dd4d	-0.2907509
16	0xbe8f0142	-0.27930647
17	0xbe8f9a8e	-0.28047603
18	0xbe975866	-0.2955963

net_container.0.weight f4 [128, 69]
0	0x3e03fed0	0.12890172
1	0xbecc3068	-0.3988068
2	0x3cc80707	0.024417413
3	0x3ce5fa28	0.028073385
4	0xbd415081	-0.047195915
5	0xbd49d928	-0.049279362
6	0xbc86e691	-0.016467365
7	0xbf4639f9	-0.7743221
8	0x3b9ee355	0.0048488774
9	0xbd4b046c	-0.049564764
10	0xbd7eda87	-0.062220123
11	0x3e44b1fe	0.19208524
12	0x3e7ef835	0.24899371
13	0xbdd5c509	-0.10437972
14	0xbedf5c2e	-0.43625015
15	0xbde5f6cf	-0.11228716
16	0x3ec04329	0.3755124
17	0x38fecf7c	0.00012150311
18	0x3e6be239	0.23035516
19	0x3d316c6b	0.043316286
20	0xbe4c4abe	-0.19950387
21	0x3e0fddf7	0.14049517
22	0x3e223667	0.15841065
23	0xbcd44ca9	-0.02591546
24	0xbe54b6e7	-0.20772897
25	0xbc7c47b9	-0.015397959
26	0xbedd1b8d	-0.43185082
27	0xbcb98b6d	-0.022649491
28	0x3e7ce02b	0.24694888
29	0x3ccec940	0.025242448
30	0xbd342aca	-0.04398612
31	0xbc3c3a6f	-0.011488541
32	0x3d00fdc6	0.031492017
33	0xbdb194a1	-0.08670927
34	0xbd53a6bf	-0.051672693
35	0x3cb3c901	0.021946432
36	0xbdd7726e	-0.105198726
37	0xbd2d148a	-0.042255916
38	0xbd618d30	-0.055066288
39	0x3d7f52bd	0.062334765
40	0xbdbeaace	-0.09309922
41	0xbdc3a0dc	-0.09552166
42	0x3db8cfd3	0.09024014
43	0x3cdd5c1b	0.027021458
44	0x3d27f667	0.041006472
45	0x3b2cfc3d	0.0026395463
46	0xbdc7f9b6	-0.097644255
47	0x3d18cb59	0.037303302
48	0xbd419f3f	-0.04727101
49	0x3d436dda	0.047712184
50	0xbb9ec360	-0.004845068
51	0x3cea40ec	0.02859541
52	0x3d8b8db5	0.06814138
53	0x3d5736b5	0.052542407
54	0xbc2afd66	-0.010436391
55	0xbdb4bd3f	-0.08825158
56	0x3cedbb7f	0.02902007
57	0xbcb4deb1	-0.022078844
58	0x3d9598cc	0.07304534
59	0x3e1343aa	0.1438128
60	0xbd891d6e	-0.066950664
61	0xbdccf76e	-0.10008131
62	0xbe79e98f	-0.24405502
63	0xbd3604f6	-0.044438325
64	0xbd83d50f	-0.06437122
65	0x3c86c663	0.01645202
66	0xbd2ee2a0	-0.042696595
67	0xbc415706	-0.011800533
68	0x3d9b1e8e	0.07574187
69	0xbe181640	-0.14852238
70	0x3bf1d907	0.007380608
71	0x3eba7e18	0.36424327
72	0xbe0cf8f0	-0.13766837
73	0xbe15b7b6	-0.14620861
74	0x3df6b8d7	0.12046974
75	0xbe9c85c8	-0.30570817
76	0x3e2ca349	0.16859163
77	0xbccee92c	-0.02525767
78	0x3e2d9597	0.16951595
79	0xbd28830b	-0.041140597
80	0x3dda5a8f	0.10661804
81	0xbe27f23a	-0.16400996
82	0xbeb800c3	-0.3593808
83	0xbe1ba25a	-0.15198651
84	0x3e4787a6	0.1948534
85	0x3d4d8ebe	0.050184958
86	0x3d00ba21	0.031427506
87	0x3e471e9a	0.19445267
88	0x3dbec00c	0.09313974
89	0xbcc1aed6	-0.023642939
90	0x3e640e5a	0.222711
91	0x3d461b3a	0.04836581
92	0x3d4d95c0	0.05019164
93	0x3ddd16f8	0.107953966
94	0x3ca64b36	0.020299535
95	0xbe87a0e9	-0.26489952
96	0x3cbd6c54	0.023122944
97	0x3e0e5007	0.13897716
98	0x3b590f8e	0.0033120844
99	0xbe5aba50	-0.21360135
100	0xbc282b79	-0.010264271
101	0x3d916e9b	0.071011744
102	0xbcebdaba	-0.02879082
103	0xbda7ab0d	-0.08186922
104	0xbd2e5ada	-0.04256711
105	0x3c38b9b1	0.011274741
106	0x3d2d1a3f	0.04226136
107	0x3ceff8b5	0.029293397
108	0x3d90ac21	0.07064081
109	0xbc99f477	-0.018793328
110	0xbe2784ad	-0.16359206
111	0xbd52709d	-0.051376928
112	0x3d11f8c0	0.035637617
113	0x3db04ca9	0.08608372
114	0x3ce315dc	0.027720384
115	0x3e48487e	0.19558904
116	0x3d80e3ed	0.062934734
117	0xbe3367a0	-0.17519999
118	0x3d1487d0	0.036262333
119	0x3ceec4ba	0.02914654
120	0xbe1bd710	-0.15218759
121	0x3d55e652	0.052221604
122	0x3ddd0471	0.10791863
123	0x3e00a1fd	0.12561794
124	0xbdadef42	-0.084929004
125	0xbd1c5243	-0.03816439
126	0x3b622a02	0.0034509902
127	0xbd552458	-0.052036613
128	0x3d0ca15c	0.03433357
129	0xbc91429a	-0.017731953
130	0x3d848982	0.0647154
131	0xbe937d86	-0.28806704
132	0xbd7ba920	-0.061440587
133	0xbe0166ce	-0.12636873
134	0xbe49004e	-0.19629022
135	0xbe1cee60	-0.15325308
136	0xbe599f39	-0.21252145
137	0x3c09abd9	0.008402788
138	0xbd8852dc	-0.06656429
139	0x3f0e053c	0.5547674
140	0xbe0abf6c	-0.13549584
141	0x3d344516	0.044011198
142	0xbad23465	-0.0016037343
143	0xbc2cff11	-0.010558859
144	0xbe9ae199	-0.30250242
145	0x3e9105d0	0.28324747
146	0x3dd8e61f	0.10590767
147	0x3e8a2149	0.2697852
148	0x3d2a0e7d	0.041517723
149	0xbd938542	-0.07203151
150	0xbda9fe39	-0.08300442
151	0x3dd04e46	0.101711795
152	0x3e564ceb	0.2092778
153	0xbd8a02f8	-0.067388475
154	0xbed6e0e3	-0.4196845
155	0xbcb25457	-0.021768732
156	0xbdbdd3a6	-0.09268884
157	0xbee33341	-0.4437504
158	0x3eb89e26	0.36058158
159	0xbd9304a4	-0.071786195
160	0x3e8f3a04	0.2797395
161	0x3c9c12ff	0.019052027
162	0x3e39066a	0.18068853
163	0xbd841f97	-0.06451338
164	0x3dbcd1ab	0.092196785
165	0x3d8b066f	0.067883365
166	0xbe0f9967	-0.14023362
167	0x3d63fd7a	0.055661656
168	0x3d767ab6	0.06017562
169	0x3c85c28f	0.016328124
170	0x3cff2759	0.031146692
171	0x3bdf8707	0.0068215164
172	0x3cb1bf60	0.0216977
173	0xbbc76ad1	-0.0060857316
174	0xbc9a9be1	-0.018873157
175	0x3b2bed16	0.0026233844
176	0xbd446d22	-0.04795564
177	0xbc70f3bf	-0.014706551
178	0x3cefc8f3	0.029270625
179	0x3c97f16b	0.018547734
180	0xbb9adda2	-0.0047261277
181	0x3d9f2d88	0.07772356
182	0x3c0705e1	0.008241148
183	0x3d6ac454	0.05731614
184	0xbe65774e	-0.22408792
185	0x3d2a3b04	0.041560188
186	0x3d13d06f	0.03608745
187	0xbdd7d9d8	-0.10539597
188	0xbdaf3d24	-0.085565835
189	0x3df1da85	0.118092574
190	0x3c68124f	0.014164521
191	0xbddb9eef	-0.107236736
192	0xbc206321	-0.009789259
193	0x3dbddb70	0.0927037
194	0xbd1005c6	-0.035161756
195	0x3daf4700	0.08558464
196	0x3dff712e	0.12472759
197	0x3cde97c1	0.027171971
198	0x3e13f54b	0.1444904
199	0xbe1dba1f	-0.15403031
200	0x3e87d1eb	0.26527342
201	0xbd6a8af7	-0.057261433
202	0x3d0313d7	0.032001343
203	0x3d7e3cb4	0.06206961
204	0xbdcf0c48	-0.10109764
205	0x3d0de17a	0.03463886
206	0xbd81a527	-0.063303284
207	0x3e142700	0.14468002
208	0x3e8a0240	0.26954842
209	0xbde3e939	-0.11128468
210	0xbdd48da2	-0.10378577
211	0xbdcf0693	-0.10108676
212	0x3cc1811f	0.02362114
213	0x3f49e94a	0.78871596
214	0xbe294328	-0.16529524
215	0x3ce8a616	0.028399508
216	0x3e849a43	0.25898942
217	0x3deee56c	0.116648525
218	0xbdcc81c7	-0.099856906
219	0x3e09f507	0.13472377
220	0xbd1e7330	-0.03868407
221	0x3f02e2b7	0.5112719
222	0x3ef6d64e	0.48210377
223	0xbe9f591c	-0.31122673
224	0xbe3cbf43	-0.18432336
225	0x3d02cfc7	0.031936433
226	0xbce70c45	-0.028204093
227	0x3f1ee66e	0.6207036
228	0x3d7b49d4	0.061349705
229	0x3e072267	0.13196717
230	0x3d32097e	0.043466084
231	0x3eb393c1	0.35073665
232	0xbbd05e01	-0.0063588624
233	0x3e5ed2fa	0.21760169
234	0xbd9e1d9d	-0.07720492
235	0xbe8f8d05	-0.28037277
236	0xbd3e3e54	-0.04644616
237	0xbc08c2e0	-0.008347243
238	0x3cbcd54a	0.023050923
239	0xbcc00d14	-0.023443736
240	0xbcc6ef47	-0.024284018
241	0x3d1a8a12	0.03772933
242	0xbcc1207c	-0.02357506
243	0x3db2d112	0.08731283
244	0x3d6052cb	0.054766458
245	0x3b733ecf	0.0037116294
246	0xbc38183b	-0.011236246
247	0xbcc565a8	-0.024096325
248	0xbcbe3b99	-0.023221778
249	0xbbdb6b02	-0.006696106
250	0xbbc01698	-0.0058620684
251	0x3c927209	0.017876642
252	0x3cd9df27	0.026595665
253	0xbae4c701	-0.0017454327
254	0x3d0a6fa3	0.03379787
255	0xbd24a0b8	-0.040192336

net_container.0.bias f4 [128]
0	0x3e25339d	0.1613297
1	0xbb10a474	-0.0022070678
2	0xbc35d682	-0.011098506
3	0x3c5ca5bc	0.0134672485
4	0x3db5f080	0.08883762
5	0x3d82c835	0.06385843
6	0x3e08e35f	0.13367985
7	0x3e1d5ba5	0.15366991
8	0x3e145bbd	0.1448812
9	0x3deef882	0.11668493
10	0x3cb61d8d	0.022230888
11	0x3d67d2b8	0.05659744
12	0x3d4f0511	0.05054194
13	0x3d8f850f	0.07007801
14	0x3e88b171	0.26697877
15	0xbdc84c00	-0.09780121
16	0x3e2628a1	0.16226436
17	0xbe4167e2	-0.18887284
18	0x3e2a3a17	0.16623722
19	0x3da8c162	0.0824001
20	0x3dc05eec	0.09393105
21	0x3debb7d4	0.11509672
22	0x3bbed6fc	0.005823968
23	0x3e4bb6bc	0.19893926
24	0x3dede17e	0.11615275
25	0x3ddf8019	0.109131046
26	0x3b70d9ea	0.003675098
27	0xbd7d2b96	-0.061809145
28	0xba2780e7	-0.00063897524
29	0xbdbc7180	-0.09201336
30	0x3d6e4526	0.058171414
31	0x3d23c81d	0.039985765
32	0x3e2e3f1a	0.17016259
33	0x3d9513ef	0.07279193
34	0xbcb3ec2f	-0.021963207
35	0xbdd44fbc	-0.103667706
36	0x3de0047f	0.109383576
37	0x3d77a4e5	0.06045999
38	0x3dd1ccc7	0.10244136
39	0x3c3811d9	0.011234724
40	0xbd0ac031	-0.033874694
41	0x3e45f7b9	0.1933278
42	0xbe1c9daa	-0.15294519
43	0x3d28609e	0.041107766
44	0x3df6ce9f	0.120511286
45	0xbdc8cd20	-0.098047495
46	0x3d99c970	0.07509124
47	0xbda116b8	-0.078656614
48	0x3e547cfa	0.207508
49	0x3dc92161	0.0982082
50	0xbd7ecf01	-0.062209133
51	0xbceeb3f3	-0.02913854
52	0xbd489805	-0.048973102
53	0xbda79319	-0.081823535
54	0x3da247ca	0.07923849
55	0x3d8c1215	0.068393864
56	0x3e4bd463	0.19905238
57	0x3d9367c4	0.07197526
58	0x3dd7bb8c	0.105338186
59	0x3e033f1e	0.12817046
60	0xbdd87717	-0.105695896
61	0x3dfbefc9	0.12301595
62	0x3e80f222	0.25184733
63	0x3da0a26e	0.07843481
64	0x3c67934e	0.014134241
65	0x3e45fd70	0.1933496
66	0x3e07f721	0.13277866
67	0x3d583602	0.05278588
68	0x3d8e877b	0.069594346
69	0x3df896ee	0.121381626
70	0x3d2bc191	0.041932646
71	0xbe294be8	-0.16532862
72	0x3e2b8245	0.16748913
73	0x3e26748d	0.16255398
74	0x3d797613	0.06090362
75	0x3d32fb72	0.04369683
76	0x3e319b7f	0.17344473
77	0x3db75f3d	0.08953712
78	0x3e217c10	0.15769982
79	0x3dc6d1ca	0.09707983
80	0x3c9eaad4	0.019368567
81	0xbc750ddc	-0.014956918
82	0x3e1ecef5	0.15508635
83	0x3dcc7eb9	0.09985108
84	0x3d984e66	0.07436828
85	0x3df85942	0.121263996
86	0x3e23774f	0.15963481
87	0x3e779b91	0.24180438
88	0x3ccfcd97	0.025366588
89	0x3e16f953	0.14743547
90	0x3cbf3baf	0.023343889
91	0x3c7434d5	0.014905174
92	0x3e1d36e2	0.15352967
93	0xbd72d5a6	-0.059285782
94	0x3c39fcdf	0.011351793
95	0x3d979b72	0.07402696
96	0x3ccdae79	0.02510761
97	0x3b9ead77	0.004842456
98	0xbe09b727	-0.13448773
99	0xbd76c4a8	-0.06024614
100	0x3e32d2c6	0.17463216
101	0x3d82c43e	0.063850865
102	0xbce65ee2	-0.028121416
103	0x3d00bc47	0.031429555
104	0x3dbaaace	0.0911461
105	0x3e2e3d7e	0.17015645
106	0x3dad997a	0.08476539
107	0xbd8b5d81	-0.06804944
108	0x3cd4e802	0.025989536
109	0xbdc4132d	-0.0957397
110	0xbd6d2e02	-0.057905205
111	0x3dc07604	0.0939751
112	0xbd5e2a53	-0.054239582
113	0xbd483021	-0.048874024
114	0x3e5b1e2f	0.21398233
115	0x3e398dd7	0.18120514
116	0xbd60d674	-0.05489202
117	0x3dcef3d4	0.101051
118	0x3d31419a	0.043275453
119	0xbb7ea9fb	-0.003885864
120	0x3d38d47f	0.045124527
121	0xbd4b9fe9	-0.04971305
122	0x3e6c5124	0.23077828
123	0xbd60660c	-0.05478482
124	0xbc9e2dd7	-0.019308968
125	0xbe2e8d9f	-0.17046212
126	0xbdb5a3e1	-0.08869148
127	0x3d871da0	0.065974474

net_container.2.weight f4 [128, 128]
0	0x3d182ace	0.037150197
1	0xbde25666	-0.110516354
2	0x3c795fb9	0.015220576
3	0xbb1d572e	-0.0024008262
4	0x3d57120e	0.052507453
5	0xbb93af8d	-0.0045070113
6	0x3d9ecc59	0.0775382
7	0xbdbe81ac	-0.09302077
8	0x39658fa9	0.0002189266
9	0x3e00a6c0	0.1256361
10	0xbcfba454	-0.030718006
11	0xbd1e17d8	-0.038596958
12	0x3da403db	0.08008548
13	0xbd371772	-0.044700094
14	0x3d1d8f21	0.038466576
15	0xbc8fb6d8	-0.017543241
16	0xbc8d23c7	-0.017228974
17	0x3d7f13c9	0.062274728
18	0x3cae7802	0.021297459
19	0x3d947f9b	0.07250901
20	0x3d03988c	0.032127902
21	0x3d13159d	0.035909284
22	0xbcd1e072	-0.02561972
23	0xbd91baa3	-0.07115676
24	0xbe02cacb	-0.12772672
25	0xbd273c43	-0.040828954
26	0xbd19e362	-0.037570365
27	0x3db10f23	0.08645465
28	0x3d0c78ff	0.03429508
29	0x3d86ed7a	0.06588264
30	0x3c8fbe53	0.017546808
31	0x3d95cec0	0.07314825
32	0xbd262008	-0.04055789
33	0xbd2d107e	-0.042252056
34	0xbd46dc2c	-0.048549816
35	0xbc84c233	-0.016205883
36	0xbd0fe48e	-0.035130076
37	0x3c98503e	0.01859295
38	0x3d4f409f	0.050598737
39	0x3d8130f0	0.06308162
40	0x3dcda481	0.10041142
41	0x3d8a422d	0.06750903
42	0xbdf20d81	-0.11818982
43	0xbdeea670	-0.11652839
44	0x3d60da14	0.054895476
45	0x3ceddea9	0.029036837
46	0xbdb7d0f8	-0.089754045
47	0x3d951c3b	0.07280775
48	0x3dfb7658	0.12278432
49	0x3d9e1650	0.077190995
50	0x3d727836	0.059196673
51	0x3d145dd5	0.036222298
52	0xbc3f7024	-0.011684451
53	0xbdc7087b	-0.097184144
54	0xbd984ce1	-0.074365385
55	0xbc51c735	-0.012803842
56	0xbdc00f69	-0.09377939
57	0xbdd77877	-0.10521024
58	0x3d9d3a98	0.076771915
59	0x3ce3b8d8	0.027798101
60	0x3cee7cfd	0.029112333
61	0x3d38affc	0.045089707
62	0x3d8106d9	0.06300134
63	0xbd85a735	-0.06526033
64	0xbd098be5	-0.03358068
65	0xbc092cf1	-0.008372531
66	0xbcec9d37	-0.02888356
67	0xbd0c375c	-0.034232482
68	0xbcadb0d0	-0.021202475
69	0x3d909a52	0.07060684
70	0x3da37458	0.07981175
71	0x3d1d8533	0.038457107
72	0x3d77c3e6	0.060489558
73	0xbd82c6df	-0.06385588
74	0xbe0b89aa	-0.13626733
75	0x3d740f0e	0.05958467
76	0x3c43f6ad	0.011960668
77	0xbde22960	-0.11043048
78	0x3db7eadf	0.08980345
79	0x3da3a60d	0.07990656
80	0x3d7d2724	0.061804906
81	0x3d43b131	0.047776405
82	0x3c95da7c	0.018292658
83	0x3daf0c33	0.08547249
84	0xbdbba2c3	-0.09161904
85	0x3db42f74	0.087981135
86	0xbd3c6959	-0.045998905
87	0xbd7eab28	-0.062174946
88	0x3dacfc7a	0.084465936
89	0xbcd52721	-0.026019635
90	0xbd348e31	-0.044080917
91	0xbd72132b	-0.05910031
92	0xbd7602c4	-0.06006123
93	0x3cbaade8	0.022788003
94	0xbdc12587	-0.09430986
95	0xbd820c58	-0.06350011
96	0x3dd43d7f	0.10363292
97	0x3c480494	0.012208123
98	0x3d0a6638	0.03378889
99	0x3c910ce1	0.017706336
100	0x3d81b1d4	0.06332746
101	0x3b14e632	0.0022720215
102	0xbdbda475	-0.09259883
103	0xbc3b46db	-0.0114304675
104	0x3d578cdb	0.052624565
105	0xbd8fa41a	-0.07013722
106	0xbc7042fb	-0.014664407
107	0xbbf17dea	-0.0073697465
108	0x3d878836	0.06617777
109	0x3d4987e9	0.04920188
110	0xbc9bbe93	-0.019011771
111	0xbd9c67c4	-0.07636979
112	0x3d6385b8	0.055547446
113	0x3cc08347	0.023500098
114	0xbd23bcac	-0.039974853
115	0xbda686ca	-0.08131178
116	0xbdade86e	-0.08491598
117	0xbdc8b55d	-0.09800217
118	0x3b498da2	0.0030754586
119	0x3d262e18	0.040571302
120	0xbcb6781e	-0.022274073
121	0xbd1bd88d	-0.038048316
122	0xbd1351ed	-0.035966802
123	0x3ce7223e	0.02821457
124	0x3d183beb	0.037166517
125	0x3dabf2cd	0.0839592
126	0xbc8ea79b	-0.017413905
127	0xbdc48b15	-0.0959684
128	0x3cf48a61	0.02985114
129	0x3d1c1fed	0.038116384
130	0xbe0a9c52	-0.13536194
131	0xbca955cc	-0.020670794
132	0x3d6543b1	0.05597276
133	0x3c4407b7	0.01196473
134	0x3df03d8d	0.1173049
135	0x3dccd3e9	0.10001356
136	0x3c65f247	0.014034814
137	0xbc014def	-0.007892116
138	0xbcadb3af	-0.021203844
139	0x3dac74db	0.08420726
140	0xbd9c9c82	-0.07647039
141	0x3d8c96f3	0.06864729
142	0xbc8c9d80	-0.017164946
143	0x3d8b816b	0.06811794
144	0x3d0c26fb	0.034216862
145	0x3c56ff50	0.013122395
146	0xbc4ce34c	-0.012505364
147	0xbd019789	-0.031638656
148	0xbd3595d2	-0.044332333
149	0xbd20d9c2	-0.03927017
150	0x3d8a898e	0.06764518
151	0xbd280438	-0.04101965
152	0xbd991796	-0.07475202
153	0x3d1960c2	0.03744579
154	0xbdaf18d5	-0.08549658
155	0x3dcbcd19	0.09951229
156	0xbc4c43cd	-0.012467337
157	0x3d05e92c	0.032693073
158	0x3cf9d5b4	0.03049741
159	0xbdea41c4	-0.11438325
160	0x3afb401c	0.0019168886
161	0xbc5d2081	-0.013496519
162	0xbd2cb9c6	-0.042169355
163	0xbcad5a71	-0.02116129
164	0x3d816c08	0.063194335
165	0x3d2bdab6	0.041956626
166	0xbdc28d82	-0.09499647
167	0xbcf42655	-0.029803434
168	0x3dde8371	0.10864914
169	0x3c30d58d	0.010793102
170	0x3ccf0270	0.025269717
171	0x3def2255	0.1167647
172	0xbc76d961	-0.015066476
173	0xbcb35c8d	-0.021894718
174	0x3d2341f9	0.03985784
175	0xbcc0962f	-0.023509113
176	0xbccd09e5	-0.025029132
177	0xbcabcf54	-0.020972885
178	0xbbde5ced	-0.00678598
179	0xbdf3be02	-0.119014755
180	0x3d796822	0.060890324
181	0x3c086bb2	0.008326458
182	0x3cade64d	0.02122798
183	0xbce59a08	-0.02802755
184	0xbd5cd72b	-0.053916138
185	0xbd086c00	-0.03330612
186	0xbd5a64e5	-0.053318877
187	0x3d94fed0	0.07275164
188	0xbdd9c4e9	-0.10633261
189	0xbadb8f4d	-0.0016751081
190	0xbd30c33e	-0.043154947
191	0x3d747b53	0.059687924
192	0xbd997b63	-0.07494237
193	0xbde46062	-0.11151196
194	0xbb0cfbce	-0.0021512392
195	0xbd667910	-0.056267798
196	0xbda8df92	-0.08245768
197	0x3d9ab0f9	0.07553286
198	0x3d91bc91	0.07116044
199	0xbd31e115	-0.043427546
200	0x3d277bd1	0.040889565
201	0x3dda393d	0.106554486
202	0xbde67761	-0.112532385
203	0xbd1a4090	-0.037659228
204	0x3d085dcb	0.033292573
205	0xbd8b9b16	-0.0681669
206	0x3d9bd791	0.076094754
207	0x3ca62b7e	0.02028441
208	0xbd16bb17	-0.036799517
209	0xbdf0a9c9	-0.11751134
210	0x3bed2c86	0.0072379736
211	0xbcd1ff19	-0.025634335
212	0xbdaed03b	-0.085358106
213	0x3bccda01	0.006251574
214	0x3d9ea2f9	0.07745928
215	0xbc3426f3	-0.010995614
216	0x3ccc476b	0.024936398
217	0xbdad786d	-0.08470235
218	0xbd07a4db	-0.033116203
219	0xbd57e073	-0.052704286
220	0x3c5af682	0.013364436
221	0x3dc0b81b	0.09410115
222	0x3cb83ebd	0.022490853
223	0xbd4c6b93	-0.04990728
224	0x3c26c93b	0.010179813
225	0x3e093510	0.13399148
226	0x3da2a925	0.07942418
227	0x3da72653	0.08161607
228	0xbca92f20	-0.020652354
229	0xbdbb1d51	-0.09136451
230	0xbd833007	-0.06405645
231	0x3d9ae1f1	0.07562626
232	0xbd8b734d	-0.06809101
233	0xbd0f2157	-0.034943905
234	0xbdcfa908	-0.10139662
235	0xbdc0dcb0	-0.09417093
236	0x3d87fd80	0.06640148
237	0x3c432296	0.011910101
238	0xbc3e5e85	-0.011619215
239	0xbdc4793f	-0.09593438
240	0xbd8e58c6	-0.06950526
241	0x3d40f9c6	0.047113203
242	0x3c99a752	0.018756542
243	0x3cb91bcf	0.022596268
244	0xbd9509a9	-0.07277233
245	0x3ce0d04a	0.02744307
246	0x3b4405b2	0.0029910621
247	0x3949789f	0.00019213789
248	0x3da8fe07	0.08251577
249	0xbd4675b1	-0.048452083
250	0xbe06f478	-0.13179195
251	0xbdc7f48e	-0.09763442
252	0xbc3401ca	-0.010986755
253	0xbd8b2852	-0.067948
254	0x3d86ac52	0.06575836
255	0xbd23fbb3	-0.04003496

net_container.2.bias f4 [128]
0	0x3dcbb6e9	0.09946997
1	0xbdf7fbcb	-0.121085726
2	0xbe320046	-0.17382917
3	0xbb2c7643	-0.0026315607
4	0xbdfa19b4	-0.12211934
5	0xbdbceb41	-0.092245586
6	0x3cfd93c0	0.030954242
7	0x3d8da5c7	0.06916385
8	0x3d68c8e2	0.0568322
9	0xbe059684	-0.13045698
10	0x3e038723	0.1284452
11	0xbd83b0d7	-0.06430214
12	0x3d8cf555	0.06882731
13	0xbdb19d72	-0.086726084
14	0x3d64b3ad	0.055835415
15	0x3c287446	0.010281628
16	0xbd5b786c	-0.05358164
17	0x3cbb32db	0.022851398
18	0xbd1d97f6	-0.038475
19	0x3d7d5d55	0.061856586
20	0x3de882c8	0.113530695
21	0xbc5f5971	-0.013632164
22	0x3d687f78	0.05676219
23	0xbd2679cc	-0.0406435
24	0x3bbb2a3c	0.005711822
25	0x3d043ed0	0.032286465
26	0x3d658ac9	0.05604056
27	0xbe20024d	-0.15625878
28	0x3d23ac8e	0.039959483
29	0xbda9ef15	-0.082975544
30	0xbe08e2a5	-0.13367708
31	0x3ce558dd	0.027996475
32	0xbca7540b	-0.020425817
33	0xbdf2bec7	-0.11852794
34	0x3d7430fb	0.059617024
35	0xbd826d50	-0.06368506
36	0xbd70e567	-0.058812525
37	0xbc8573b3	-0.016290521
38	0x3c4844a8	0.0122234
39	0xbde83221	-0.11337686
40	0xbe14e5bb	-0.1454076
41	0xbc1c138f	-0.0095261475
42	0xbd94f21b	-0.072727405
43	0x3cf38094	0.029724397
44	0x3c1b5232	0.009480046
45	0x3dec17c0	0.115279675
46	0x3d0863ba	0.03329823
47	0x3d2ba8d8	0.04190907
48	0x3d2f42e2	0.042788394
49	0xbdb5579f	-0.08854603
50	0x3db3bc3b	0.087761365
51	0xbd6b101c	-0.05738841
52	0xbc5db239	-0.013531261
53	0x3d95585a	0.07292242
54	0xbd373444	-0.04472758
55	0xbccfd629	-0.025370674
56	0x3dc13b01	0.09435082
57	0xbdf35e48	-0.11883217
58	0x3d9bb85f	0.07603525
59	0x3ddf6eb4	0.10909787
60	0xbe0ba7dc	-0.13638252
61	0xbd80ed30	-0.0629524
62	0xbe198fe6	-0.14996299
63	0x3d4f988d	0.050682593
64	0xbd167ff0	-0.036743104
65	0xbda2b234	-0.07944146
66	0x3dbbb3ea	0.09165175
67	0x3cddb4d4	0.027063765
68	0xbdcca2c2	-0.09991981
69	0x3d5e4f42	0.054274805
70	0xbdd727c3	-0.10505631
71	0xbcf97227	-0.03044994
72	0xbc09bbce	-0.0084065925
73	0x3d56e2ec	0.052462503
74	0xbdaf3c27	-0.08556395
75	0x3d69c215	0.057069857
76	0x3db5136b	0.08841594
77	0xbda47925	-0.08030919
78	0xbcfec300	-0.031098843
79	0xbc21ac2b	-0.009867708
80	0xbca13f8c	-0.019683622
81	0xbdd62dab	-0.10457929
82	0x3d9a8315	0.07544533
83	0xbd308023	-0.04309095
84	0xbe0f00a0	-0.13965082
85	0x3c874e8a	0.016516943
86	0x3d065423	0.032795083
87	0x3dbecf88	0.09316927
88	0x3d959a87	0.073048644
89	0xbd984fa0	-0.07437062
90	0xbdcdc09c	-0.10046503
91	0x3d09b463	0.033619296
92	0xbdd120e2	-0.1021135
93	0xbc4dbfcf	-0.012557938
94	0xbdb7ef60	-0.08981204
95	0x3d8654ba	0.06559129
96	0xbd70c823	-0.058784615
97	0xbb05323a	-0.0020324127
98	0xbe1e7bd5	-0.15476926
99	0x3d700140	0.058594942
100	0xbe16a7da	-0.14712468
101	0xbe066fbe	-0.13128564
102	0xbd6dbccc	-0.05804138
103	0xbc67ec4b	-0.014155458
104	0xbdb13662	-0.08652951
105	0xbdd38c4c	-0.10329494
106	0xbc997829	-0.018734055
107	0xbb2ac52c	-0.0026057465
108	0xbde66477	-0.11249631
109	0xbd45726a	-0.048204817
110	0x3de53f9e	0.11193775
111	0xbb63748c	-0.0034706919
112	0xbddc5aae	-0.10759483
113	0x3d1f2d33	0.038861465
114	0x3dda8d10	0.10671437
115	0xbd1dd8c0	-0.038536787
116	0x3da3bcd4	0.079950005
117	0xbca3051b	-0.019899895
118	0xbda0d0c5	-0.0785232
119	0xbd8d69a1	-0.06904913
120	0x3daac2bf	0.08337926
121	0xbe185cd2	-0.14879158
122	0x3d4f40e0	0.05059898
123	0xbca5625e	-0.020188507
124	0x3dd202e1	0.10254455
125	0x3c93a45b	0.018022707
126	0xbc85677f	-0.016284702
127	0xbe05dc95	-0.13072427

net_container.4.weight f4 [128, 128]
0	0xbd0a5a2d	-0.033777405
1	0x3dcba3b1	0.09943331
2	0xbe27923c	-0.16364378
3	0xbd387d13	-0.045041155
4	0x3c954983	0.01822353
5	0xbda05ded	-0.07830415
6	0x3d1a72b3	0.037707042
7	0x3d932648	0.07185036
8	0x3cbab068	0.022789195
9	0xbd7ec185	-0.062196273
10	0xbcdb8887	-0.0267985
11	0xbd3fa244	-0.046785608
12	0x3de080a1	0.10962034
13	0xbd0a8aa6	-0.03382363
14	0xbd112606	-0.035436653
15	0xbd5a0525	-0.053227562
16	0xbd332cfb	-0.04374407
17	0xbcbf1b12	-0.023328338
18	0x3cf23a0c	0.029568695
19	0x3d3efaea	0.04662601
20	0xbe037522	-0.12837651
21	0xbda7fdf9	-0.08202738
22	0x3dae5758	0.08512753
23	0xbd2486a6	-0.040167473
24	0x3d35f1e7	0.04442015
25	0x3cfba725	0.03071935
26	0xbd30b54d	-0.043141652
27	0xbb9f7491	-0.0048661907
28	0x3d8d7d13	0.06908622
29	0x3d92bec0	0.07165289
30	0xbbd95980	-0.0066329837
31	0x3ccc59d5	0.024945179
32	0x3cb77ae7	0.022397472
33	0xbc90e6a4	-0.017688103
34	0xbd6f5964	-0.05843486
35	0xbcce49c1	-0.025181653
36	0xbd406f5c	-0.0469812
37	0xbd4b3e11	-0.049619738
38	0x3ce1e8c1	0.027576806
39	0xbc3ed335	-0.011647035
40	0xbca80b85	-0.020513305
41	0x3d9b9e0b	0.07598504
42	0x3d7cf68d	0.061758567
43	0xbd5a32da	-0.053271152
44	0x3d4f41c3	0.050599825
45	0x3b778ff3	0.003777501
46	0xbc4a63bf	-0.012352883
47	0x3dce161a	0.10062809
48	0xbd4109f8	-0.047128648
49	0xbc0e1b50	-0.008673504
50	0x3d9fc936	0.0780205
51	0x3d4563c5	0.04819085
52	0x3e069555	0.13142903
53	0xbd3dc1b4	-0.046327308
54	0x3d20f320	0.039294362
55	0xbdca4869	-0.098770924
56	0x3c6551e1	0.013996572
57	0xbcf8ce75	-0.030371884
58	0xbd813b4f	-0.0631014
59	0x3cb9311c	0.022606425
60	0x3d647ff5	0.05578609
61	0xbb7a2275	-0.003816751
62	0xbb761c73	-0.0037553578
63	0x3d23618c	0.03988795
64	0xbd5cffe8	-0.05395499
65	0xbdcc506d	-0.099762775
66	0xbd82b56f	-0.06382262
67	0xbd87080f	-0.06593334
68	0x3d86e2e5	0.065862454
69	0x3d4ab4c2	0.04948879
70	0xbaf1f9b5	-0.0018461259
71	0x3d806ec9	0.062711306
72	0x3dfffde9	0.124996014
73	0x3b3a9fd1	0.0028476606
74	0xbdae1d54	-0.08501688
75	0xbcf237d2	-0.029567633
76	0xba228fbc	-0.00062012277
77	0x3c5559ab	0.013021867
78	0x3d5204be	0.051274054
79	0xbd02559d	-0.03181993
80	0x3cd3980a	0.025829334
81	0x3d47102c	0.048599407
82	0xbcebe09e	-0.02879363
83	0xbd86c2cb	-0.065801226
84	0x3d37a494	0.04483469
85	0x3dc1017e	0.09424113
86	0x3c8f2647	0.017474307
87	0x3d6487a4	0.05579342
88	0x3c93893d	0.018009776
89	0xbb294a88	-0.0025831778
90	0x3ce712fe	0.028207298
91	0xbd9dd8e2	-0.07707383
92	0x3d0ea7e6	0.03482809
93	0x3d29c7fa	0.041450478
94	0xbd137393	-0.035998892
95	0xbde083bd	-0.10962627
96	0xbca1d248	-0.01975359
97	0x3d99a24b	0.07501658
98	0xbd7a6693	-0.06113298
99	0x3d1655ab	0.036702793
100	0x3d12a0bf	0.03579783
101	0x3d585c5d	0.05282246
102	0x3cfabc4b	0.030607363
103	0x3c67f05d	0.014156428
104	0x3d87ad83	0.066248916
105	0xbc80ed40	-0.01573813
106	0x3d6790f4	0.056534722
107	0xbd0022b7	-0.031283107
108	0xbcfea03a	-0.031082261
109	0xbd97a5d2	-0.074046746
110	0x3c469fdc	0.012123074
111	0x3daaa4d4	0.0833222
112	0x3bac9ff2	0.0052680904
113	0xbc4b84f3	-0.012421834
114	0x3d10fa40	0.035394907
115	0x3d71e119	0.05905256
116	0xbd9a210b	-0.07525834
117	0x3d4bdac2	0.04976917
118	0xbc4829d2	-0.012217002
119	0xbd2baed7	-0.041914787
120	0x3d5460e8	0.05185023
121	0xbdbc21a8	-0.09186107
122	0xbd26290c	-0.04056649
123	0x3d59c96b	0.053170603
124	0xbd11b3bb	-0.035571795
125	0xbd5aaa7f	-0.053385254
126	0x3de23883	0.11045935
127	0xbcada09a	-0.021194745
128	0x3dc97ec7	0.09838634
129	0xbd9b125e	-0.07571863
130	0xbe0ddbb6	-0.13853344
131	0x3d8df009	0.06930549
132	0x3e0355f4	0.12825757
133	0xbe9d6f4f	-0.30748984
134	0x3b2f9dc5	0.0026796919
135	0xbd726197	-0.0591751
136	0xbda9bb2a	-0.08287652
137	0xbd82428b	-0.06360348
138	0x3bf1c3f5	0.007378096
139	0xbe7dac44	-0.24772745
140	0xbcc772f7	-0.024346812
141	0x3d6d20b7	0.057892527
142	0x3d49c833	0.04926319
143	0xbd49ff6d	-0.04931586
144	0xbb5a0b33	-0.0033270835
145	0xbd9b8b08	-0.075948775
146	0xbdcac995	-0.0990173
147	0x3b8f7630	0.0043781027
148	0xbcd6c9cc	-0.026219271
149	0xbba12e20	-0.0049188286
150	0x3d5bf545	0.053700704
151	0x3d3e8766	0.046515845
152	0x3d207c63	0.039181124
153	0x3d23aee6	0.039961718
154	0x3dee908e	0.11648665
155	0xbcb9858c	-0.022646688
156	0x3d87b791	0.066268094
157	0xbddd0c55	-0.10793368
158	0x3d5eabe7	0.054363158
159	0x3e33df4a	0.17565647
160	0xbc7a6e15	-0.015285035
161	0x3decb4c1	0.115579136
162	0xbb04362d	-0.0020173893
163	0xbd4fe326	-0.050753735
164	0xbcabdc1f	-0.020978985
165	0xbd80b56e	-0.06284605
166	0xbca0ba96	-0.019620221
167	0xbca8c18a	-0.0206001
168	0x3db32d4a	0.087488726
169	0xbcc4c096	-0.024017613
170	0xbe177d92	-0.14793995
171	0x3e1f1c47	0.1553813
172	0xbd1c4ebe	-0.038161032
173	0x3c00ea1e	0.007868318
174	0xbd9a772b	-0.07542261
175	0x3d04f373	0.032458734
176	0xbcccf05f	-0.025016962
177	0xbc0b152e	-0.008488936
178	0xb9da42b2	-0.00041629892
179	0x3d289a51	0.041162793
180	0xbde82f88	-0.11337191
181	0xbc8f2e19	-0.017478036
182	0xbd6399e9	-0.055566702
183	0xbc842682	-0.016131643
184	0x3c807e54	0.015685238
185	0x3d24c0fd	0.04022311
186	0x3db2ab3e	0.08724068
187	0x3ced0a89	0.028935688
188	0x3ced28a9	0.028950052
189	0x3de2af59	0.11068601
190	0x3da48d26	0.080347344
191	0xbe0d0a32	-0.1377342
192	0x3c94b293	0.018151557
193	0xbdd7392b	-0.10508951
194	0x3cee637f	0.029100178
195	0x3d6f0c13	0.058361124
196	0x3d9720d3	0.073793076
197	0xbd15a5b9	-0.036535
198	0xbccaa700	-0.024737835
199	0xbe6a5e66	-0.22887573
200	0x3baa5fec	0.005199423
201	0xbd8942c0	-0.06702185
202	0x3c646212	0.013939397
203	0x3d057bda	0.032588817
204	0xbbfbcc34	-0.007684255
205	0xbd528705	-0.051398296
206	0xbdeef5c4	-0.1166797
207	0xbd2d0527	-0.04224124
208	0xbd9128ec	-0.07087883
209	0x3bc322af	0.0059550623
210	0xbd735415	-0.05940636
211	0x3dab4df4	0.08364478
212	0x3c0744ac	0.008256119
213	0xbd476f53	-0.04869015
214	0xbe2cacd1	-0.16862799
215	0xbdb91b9e	-0.09038471
216	0x3d64ee51	0.05589134
217	0xbe11cc59	-0.14238109
218	0x3b461aa7	0.0030228288
219	0xbdc31746	-0.095259234
220	0x3d246164	0.04013194
221	0xbd9bb737	-0.07603305
222	0x3d336f78	0.043807477
223	0x3d1e8cd5	0.038708527
224	0x3d966ffa	0.073455766
225	0x3c7f4283	0.0155798225
226	0x3df99d2a	0.1218818
227	0x3d013800	0.031547546
228	0x3e0d6cf0	0.13811088
229	0xbefd473e	-0.49468416
230	0x3d520958	0.051278442
231	0x3db43ce9	0.0880068
232	0x3c5c341d	0.013440159
233	0x3c8eefb3	0.017448282
234	0xbdd617b8	-0.10453743
235	0xbd10a7c8	-0.03531626
236	0x3cbb43a9	0.022859411
237	0xbd5a6547	-0.05331924
238	0xbdcc1c00	-0.09966278
239	0xbe053bb4	-0.13011056
240	0xbdae0fa8	-0.0849908
241	0x3d2de078	0.0424504
242	0xbb7214d4	-0.0036938684
243	0x3caac8e1	0.02084774
244	0x3da2f9f7	0.07957833
245	0xbd1ad950	-0.0378049
246	0x3d5514d5	0.05202182
247	0x3da1a7aa	0.078933075
248	0xbe0f6d5b	-0.1400656
249	0xbd1e0dac	-0.038587257
250	0x3d30c2bc	0.043154463
251	0x3db7a70f	0.08967411
252	0x3c9053a9	0.017618017
253	0x3d71d0e3	0.0590371
254	0x3d3bb4be	0.045826666
255	0x3d99aecb	0.07504042

net_container.4.bias f4 [128]
0	0xbd8f7e0b	-0.07006463
1	0xbd9db1c6	-0.07699923
2	0x3d31f83c	0.043449625
3	0xbe0af194	-0.13568717
4	0xbd34c590	-0.044133723
5	0xbd87e651	-0.06635726
6	0xbda92585	-0.082591094
7	0xbd77bcca	-0.060482778
8	0xbd903a0d	-0.07042322
9	0xbad8b46d	-0.0016533263
10	0x3dce9229	0.100864716
11	0xbd959341	-0.07303477
12	0xbd657f62	-0.056029685
13	0xbdf8487f	-0.121232025
14	0x3c21dbd0	0.009879068
15	0x3dc8a858	0.09797734
16	0xbdbb7b69	-0.09154398
17	0x3d523bd7	0.0513266
18	0x3d3631ef	0.044481214
19	0xbc108244	-0.00882012
20	0xbc82fc44	-0.01598943
21	0xbc31534d	-0.010823083
22	0xbe1471cf	-0.1449654
23	0x3c88a1ba	0.01667868
24	0xbcf902e6	-0.03039689
25	0xbdbf402d	-0.093384124
26	0x3ddc18b7	0.107469015
27	0x3d393435	0.045215804
28	0xbd2ed44f	-0.042682942
29	0x3d1b658c	0.03793864
30	0xbdc9c127	-0.09851294
31	0xbbfd4362	-0.00772898
32	0x3d12bbc7	0.03582361
33	0xbd449e2d	-0.04800241
34	0xbd957b6d	-0.07298932
35	0xbdb4a809	-0.08821113
36	0xbd32f0b1	-0.043686572
37	0xbc8800cf	-0.016601948
38	0x3d58a852	0.052894898
39	0x3da3b0da	0.07992716
40	0xbc962dd8	-0.018332407
41	0xbde62517	-0.11237543
42	0x3d66745a	0.056263305
43	0xbd3ff9b7	-0.046869006
44	0xbdda70db	-0.10666057
45	0x3d9361c0	0.07196379
46	0xbe040da0	-0.12895823
47	0x3c380d7e	0.011233686
48	0x3dd07bf4	0.10179892
49	0x3d3ffc47	0.04687145
50	0x3c9e6123	0.019333428
51	0xbd11b382	-0.035571583
52	0x3c2781a4	0.01022378
53	0xbce5a1f4	-0.028031327
54	0xbcd73377	-0.026269658
55	0x3d4e648f	0.05038887
56	0x3d9ad12f	0.0755943
57	0xbd84d0e5	-0.06485156
58	0xbd617e54	-0.055052117
59	0x3da0178e	0.07816993
60	0xbd57dffa	-0.052703835
61	0xbdbf4820	-0.093399286
62	0xbd3d3efc	-0.046202645
63	0xbc0b600e	-0.008506788
64	0xbd69c310	-0.05707079
65	0xbcbe51ec	-0.023232423
66	0xbddbd2ed	-0.1073359
67	0x3d98790b	0.07444962
68	0xbca2adf7	-0.019858344
69	0xbd466dc5	-0.048444528
70	0x3de68412	0.11255659
71	0xbd4ad14c	-0.049516007
72	0x3c887156	0.016655605
73	0x3d6786df	0.056525107
74	0xbda6aa24	-0.081379205
75	0x3d9be10e	0.07611285
76	0x3d04c66f	0.032415804
77	0x3d0b3807	0.03398898
78	0x3dba0fd3	0.090850495
79	0xbd3849c5	-0.044992227
80	0x3dcbd455	0.099526085
81	0x3d1088b6	0.035286628
82	0x3c191471	0.0093432525
83	0x3c63c620	0.013902217
84	0xbcb3d688	-0.021952882
85	0xbdd7342a	-0.105079964
86	0xbc6db316	-0.014508029
87	0xbd7a03a5	-0.061038632
88	0x3cf85e26	0.030318331
89	0xbcd7a4f3	-0.026323771
90	0xbd94bc41	-0.07262469
91	0xbd1f9932	-0.038964458
92	0xbd85216c	-0.06500515
93	0xbd35d680	-0.044394016
94	0x3d056660	0.032568336
95	0xbc5d4e35	-0.013507416
96	0xbd356954	-0.0442899
97	0xbdfb3a00	-0.12266922
98	0xbb53df8a	-0.0032329285
99	0x3c596d3c	0.013270672
100	0xbdf55795	-0.119795956
101	0xbd817858	-0.06321782
102	0xbdfb847d	-0.122811295
103	0x3c13f77e	0.009031175
104	0x3d1b63f5	0.037937123
105	0x3c3b1d2f	0.011420532
106	0x3d7e9a93	0.062159132
107	0xbd951a5c	-0.07280418
108	0xbdc5b030	-0.09652746
109	0x3c682074	0.014167894
110	0xbc13ca6b	-0.009020428
111	0x3c51d50f	0.012807145
112	0xbd8015cb	-0.06254157
113	0xbe065eec	-0.13122147
114	0x3da8538e	0.08219062
115	0x3dd193f7	0.102333
116	0x3d813c38	0.06310314
117	0x3c6e3f31	0.014541433
118	0xbd230248	-0.039797097
119	0x3dcb5276	0.099278376
120	0xbd38bc7e	-0.045101635
121	0x3c845a2e	0.016156282
122	0x3d8265c8	0.063670695
123	0xbd8f947d	-0.07010744
124	0xbc7f0c60	-0.015566915
125	0xbd8b33d8	-0.06796998
126	0x3d0416c2	0.032248266
127	0xbb620efb	-0.0034493792

policy_layer.weight f4 [19, 128]
0	0xbca45404	-0.020059593
1	0x3caa375a	0.020778347
2	0xbd2a32d3	-0.041552376
3	0x3c73d60d	0.014882577
4	0xbdb34b15	-0.08754555
5	0x3dcfa5ec	0.10139069
6	0x3d3a0887	0.04541829
7	0xbd4a2419	-0.04935083
8	0x3d060978	0.032723874
9	0x3d9970a5	0.07492188
10	0xbd49f1a2	-0.049302705
11	0x3d884171	0.06653107
12	0x3d57567c	0.052572712
13	0xbb9bebc1	-0.0047583287
14	0x3c9c30fc	0.019066326
15	0x3d1a5991	0.037683073
16	0xbcb0ec98	-0.021597192
17	0xbd07ec58	-0.03318438
18	0x3c91e2e9	0.017808395
19	0x3a237d00	0.0006236583
20	0x3d0c3798	0.034232706
21	0x3d4d5eb7	0.050139155
22	0x3d5f1b77	0.054469552
23	0xbd91d538	-0.071207464
24	0xba9e05a8	-0.0012056129
25	0x3a10907b	0.00055146933
26	0x3c76c552	0.015061693
27	0xbcd7adc0	-0.026327968
28	0x3d360db1	0.04444665
29	0x3d912f54	0.07089105
30	0xbc2eeca4	-0.010676537
31	0x3d55edab	0.05222861
32	0xbd3994e7	-0.04530802
33	0xbc88340e	-0.016626384
34	0x3d3bc445	0.045841474
35	0xbd676410	-0.05649191
36	0x3dd0dea2	0.10198714
37	0x3ced9a14	0.029004134
38	0xbcc02b2e	-0.02345809
39	0x3b7484ec	0.0037310673
40	0xbcd89dbd	-0.026442403
41	0x3d195130	0.037430942
42	0xbde071bc	-0.10959193
43	0x3d88d887	0.06681924
44	0xbd07d49d	-0.03316175
45	0xbd5a07a1	-0.05322993
46	0x3d7ce2ac	0.06173961
47	0x3caf97d6	0.021434706
48	0x3c3f363f	0.011670648
49	0x3c76c583	0.015061739
50	0xbd8c4e46	-0.06850867
51	0x3d04b010	0.03239447
52	0x3d110501	0.035405163
53	0x3d585148	0.05281189
54	0x3a517a6b	0.0007990959
55	0xbc2fa200	-0.010719776
56	0xbcbf1e7d	-0.023329968
57	0x3d84f22b	0.064915024
58	0x3ce3c7a5	0.027805159
59	0x3c9138ae	0.017727222
60	0x3c78dc92	0.015189307
61	0x3da03817	0.07823198
62	0x3bc3bb62	0.0059732655
63	0xbd4b2bb0	-0.04960221
64	0xbd1b7ebd	-0.037962664
65	0xbcaee016	-0.021347087
66	0xbd8b40ef	-0.067994945
67	0x3d8ed22a	0.06973679
68	0xbd0e85ff	-0.034795757
69	0xbd307c2e	-0.043087177
70	0xbd68e6ce	-0.056860738
71	0x3bd1880a	0.006394391
72	0x3cdd9dd5	0.0270528
73	0x3c23b55b	0.009991969
74	0xbc015f26	-0.00789622
75	0x3b90b0c3	0.004415603
76	0x3d4b1098	0.049576372
77	0xbc9631c7	-0.018334283
78	0x3ba29248	0.0049612857
79	0xbaa3d2e4	-0.0012498763
80	0xbcaef650	-0.021357685
81	0xbc8f9374	-0.017526366
82	0x3d683895	0.056694586
83	0xbd1f9dde	-0.038968913
84	0x3db1af50	0.08676016
85	0xbd29dd78	-0.041470975
86	0x3c663faa	0.014053265
87	0x3d00fc11	0.03149039
88	0xbcd660b2	-0.026169155
89	0x3d880e5c	0.06643364
90	0x3d6a7336	0.05723878
91	0xbc911236	-0.017708879
92	0xbceb505b	-0.02872484
93	0x3d473e7c	0.048643574
94	0xbd54166e	-0.051779203
95	0xbccb3791	-0.02480677
96	0x3d8c2294	0.06842533
97	0x3d73e970	0.059548795
98	0x3c2fcee4	0.010730479
99	0xbd13a10e	-0.036042266
100	0x3c4d4329	0.012528219
101	0x3cac24e1	0.021013679
102	0xbc40cdc5	-0.011767809
103	0xbc2d77dd	-0.01058766
104	0xbcde975f	-0.027171789
105	0xbce8c9ca	-0.028416533
106	0x3c8ca098	0.01716642
107	0x3d0f74d9	0.035023544
108	0xbbf8513d	-0.0075780437
109	0xbc98c16b	-0.018646916
110	0x3d30b6e4	0.043143168
111	0x3d496adb	0.04917417
112	0x3cc60983	0.024174457
113	0x3cab9dca	0.020949263
114	0x3a9651eb	0.0011468505
115	0xbbd9033d	-0.0066227005
116	0xbdc1ec29	-0.09468872
117	0x3d53d1d8	0.051713794
118	0xbd91844d	-0.071053125
119	0xbaf2abae	-0.0018514299
120	0xbd1643e5	-0.036685843
121	0xbd9cbf83	-0.076537155
122	0xbd320b69	-0.043467913
123	0xbc694a6c	-0.014238935
124	0x3b0b0449	0.002121227
125	0xbd1b0989	-0.03785089
126	0xbc4a23f5	-0.012337674
127	0xbcf6ffb5	-0.030151227
128	0xbd25e96f	-0.040505823
129	0x3d6032f8	0.054736108
130	0x3db0410f	0.08606159
131	0xbd5a6ce5	-0.053326506
132	0xbd356462	-0.044285186
133	0x3ce90a67	0.028447343
134	0xbcd7b382	-0.026330713
135	0xbd10e38d	-0.03537326
136	0xbd8722c1	-0.06598426
137	0x3d18e65a	0.037329055
138	0xbd84f21d	-0.06491492
139	0xbd58805c	-0.052856788
140	0xbd88c07c	-0.066773385
141	0xbdb3014d	-0.087404825
142	0x3cda6986	0.026661646
143	0xbd09013b	-0.03344844
144	0x3c7fddf9	0.015616887
145	0xbd173d0e	-0.03692346
146	0x3d9b0c05	0.07570652
147	0x3c5e4149	0.01356537
148	0x3cd219fe	0.02564716
149	0x3d18e59a	0.03732834
150	0x3b700fe0	0.0036630556
151	0x3d5ed2b9	0.05440018
152	0x3cb3fb00	0.021970272
153	0x3d5cf4b7	0.053944316
154	0x3d098b89	0.033580337
155	0x3c61edbb	0.0137895895
156	0x3cb893df	0.022531448
157	0xbd2b87c8	-0.041877538
158	0x3caaad40	0.020834565
159	0xbc9f20ec	-0.019424878
160	0x3bb35e0c	0.0054738577
161	0x3d2159fd	0.03939246
162	0xbc478633	-0.012177992
163	0xbd37d7d9	-0.044883583
164	0x3d382986	0.044961475
165	0xbb85d205	-0.004083874
166	0x3dca3e39	0.09875149
167	0x3d2636c4	0.040579572
168	0xbcc4cdfb	-0.024024
169	0xbca794b4	-0.02045665
170	0xbd33f7b5	-0.043937404
171	0xbd0dcf93	-0.034621786
172	0x3b9c1b26	0.0047639785
173	0x3da173c7	0.07883411
174	0xbd4b5928	-0.049645573
175	0x3d09d69f	0.033651944
176	0xbb052572	-0.0020316509
177	0x3cd7c2b6	0.026337963
178	0xbd4633c8	-0.048389226
179	0xbd6c4445	-0.057682294
180	0x3c75e08f	0.015007152
181	0x3cd7ef52	0.026359234
182	0x3c8ee6e1	0.017444076
183	0x3da6b77f	0.08140468
184	0xbd492d57	-0.049115505
185	0xbd26144f	-0.04054671
186	0xbd90b183	-0.07065108
187	0x3d65a38b	0.05606417
188	0xbda0641a	-0.07831593
189	0x3cd59e08	0.026076332
190	0xbd88ad8c	-0.066737264
191	0x3c87df4e	0.016585972
192	0x3d041d45	0.032254476
193	0xbc39bcc7	-0.011336512
194	0x3d01b3a0	0.031665444
195	0xbaf508d2	-0.0018694645
196	0x3d36b3f0	0.044605196
197	0x3d82f2c5	0.06393961
198	0xbd075430	-0.03303927
199	0xbd5ca47d	-0.053867806
200	0xbcbaa14b	-0.022781989
201	0xbc87449c	-0.016512208
202	0x3a048ae9	0.00050560996
203	0x3d5b516a	0.05354444
204	0xba1910f4	-0.0005839013
205	0x3d5e0ed4	0.05421336
206	0x3ccb355f	0.024805723
207	0xbdbbd5fe	-0.09171675
208	0xbc403ddd	-0.011733499
209	0x3d7ef325	0.0622436
210	0xbd25feb6	-0.040526114
211	0x3c59b8b2	0.013288664
212	0x3d95f701	0.07322503
213	0x3c32919c	0.010898974
214	0x3bf3220f	0.0074198316
215	0x3cd06a0f	0.025441198
216	0xbc683baa	-0.014174381
217	0x3c374632	0.011186169
218	0x3cf4280c	0.029804252
219	0xbc917e41	-0.017760398
220	0xbd68a5d9	-0.05679879
221	0xbd8934dd	-0.06699536
222	0xbb4fe4a8	-0.0031721983
223	0x3d8d8430	0.069099784
224	0x3c86e2f6	0.016465645
225	0x3b5822fb	0.0032979834
226	0xbccd5769	-0.025066094
227	0x3c649fef	0.013954147
228	0xbbbd93be	-0.0057854345
229	0x3d90f306	0.07077603
230	0xbc9c50f3	-0.019081568
231	0x3cd00bbb	0.025396219
232	0xbceb2876	-0.028705817
233	0x3cfe7ff9	0.031066881
234	0xbb09053f	-0.0020907668
235	0x3cf7d25d	0.030251676
236	0xbd7e4576	-0.06207796
237	0xbd006e9d	-0.03135549
238	0xbc7ac5f3	-0.015305984
239	0xbb8792ec	-0.0041373875
240	0xbcf6fcf2	-0.03014991
241	0xbd275d36	-0.040860377
242	0xbc0e17e6	-0.00867269
243	0x3ae76792	0.0017654768
244	0x3db197a2	0.086715
245	0x3bfabdab	0.0076520047
246	0xbda10f9b	-0.07864305
247	0xbc882de2	-0.016623441
248	0xbc1f09c5	-0.009706919
249	0x3c6293d1	0.0138291875
250	0x3c085a61	0.008322329
251	0x3d260df1	0.04054064
252	0x3d6e129b	0.058123212
253	0x3c1ecba0	0.009692103
254	0xbc8fe5cb	-0.017565629
255	0x3d1458dc	0.036217555

policy_layer.bias f4 [19]
0	0xbd37c31e	-0.044863813
1	0xbaaace77	-0.0013031502
2	0xbcf82035	-0.030288795
3	0xba36ba4a	-0.0006970508
4	0x3cb8ae30	0.022543997
5	0xbce2ae2c	-0.027670942
6	0xbd1d6bd9	-0.03843293
7	0x3c88614a	0.016647954
8	0xbd3154dc	-0.04329382
9	0x3d96d23c	0.07364318
10	0x3d04e44b	0.03244428
11	0x3d9a3f78	0.07531637
12	0x3d79f5b1	0.061025325
13	0x3cbe0655	0.023196379
14	0xbd3ac0b6	-0.04559394
15	0xbdfffbec	-0.12499222
16	0xbe1689f4	-0.14701062
17	0x3b72798c	0.0036998717
18	0xbd562f05	-0.052290935

value_layer.weight f4 [1, 128]
0	0xbbff034d	-0.007782376
1	0x3da6ea13	0.08150115
2	0xbd2c014f	-0.041993435
3	0x3d022b16	0.03177937
4	0xbd04714e	-0.03233462
5	0x3db7150d	0.08939562
6	0xbd5ace6a	-0.053419508
7	0x3d8dafb0	0.06918275
8	0xbc0afe0d	-0.008483422
9	0xbcf505cc	-0.02990999
10	0xbdb69a66	-0.08916168
11	0xbc33ee73	-0.010982144
12	0x3d2cce07	0.04218867
13	0x3ce85488	0.02836062
14	0xbcfcf5a2	-0.030878846
15	0xbd47a8a9	-0.04874483
16	0x3c39540f	0.011311545
17	0xbd95dd5e	-0.07317613
18	0x3d7c7535	0.061635215
19	0x3cecf3c3	0.028924828
20	0xbd7eacea	-0.062176622
21	0x3e281ec4	0.16417986
22	0x3d809a4a	0.06279428
23	0x3dc67f08	0.09692198
24	0xbd00adbd	-0.03141569
25	0x3de9c159	0.11413831
26	0xbd96536d	-0.07340131
27	0xbd88bb95	-0.066764034
28	0xba3370f7	-0.0006845141
29	0xbcea8464	-0.028627582
30	0x3e1179ce	0.14206621
31	0x3da17823	0.078842424
32	0xbd23b563	-0.039967906
33	0xbb1ce50b	-0.0023940231
34	0x3daf26d1	0.085523255
35	0x3d99172f	0.07475125
36	0xbbfdcb01	-0.007745147
37	0xbd4bf553	-0.049794506
38	0xbdb481c3	-0.088138126
39	0xbda3cefa	-0.07998462
40	0xbd2ed37e	-0.042682163
41	0x3dc646c5	0.09681467
42	0xbc9f564b	-0.019450327
43	0xbc531d3c	-0.012885388
44	0x3dbf628b	0.093449675
45	0xbd7d875e	-0.061896674
46	0x3dacd4d7	0.084390335
47	0xbd325c66	-0.04354515
48	0xbd9aa7b0	-0.07551515
49	0x3b921b9e	0.0044588586
50	0x3d89712c	0.06711039
51	0x3db5cd2a	0.088770226
52	0xbd8abfee	-0.06774889
53	0xbc7d2a95	-0.015452047
54	0xbcca19d1	-0.024670513
55	0xbdd2fcaf	-0.10302102
56	0xbbb5c209	-0.0055468124
57	0xbd875447	-0.066078715
58	0x3d6d30fa	0.057908036
59	0xb77e3f86	-1.515437e-05
60	0x3dd244d2	0.10267033
61	0x3dc9ffe4	0.098632604
62	0xbdc83a1c	-0.097767085
63	0xbd8d6c38	-0.06905407
64	0x3cc5c4d0	0.0241417
65	0x3d175ddb	0.036954742
66	0x3d7f5637	0.06233808
67	0xbc75ac42	-0.014994683
68	0xbd7eaef5	-0.06217857
69	0x3db1f9c1	0.08690215
70	0xbdb137ab	-0.08653196
71	0x3d6522ad	0.055941273
72	0xbbd85ed3	-0.006603101
73	0x3dea47a4	0.114394456
74	0x3da06050	0.0783087
75	0xbd3c857a	-0.04602573
76	0xbce3d2f8	-0.027810559
77	0x3d2334e5	0.039845366
78	0xbd091d8e	-0.03347545
79	0xbcdeec5d	-0.027212316
80	0xbc80e6bc	-0.015735023
81	0x3c7149f4	0.014727104
82	0xbd26da37	-0.04073545
83	0xbcd55e39	-0.026045905
84	0x3d42cd45	0.04755904
85	0x3d6f98fe	0.058495514
86	0xbd2c88e9	-0.042122755
87	0x3c11f6fe	0.008908985
88	0xbb384ea5	-0.0028123048
89	0xbc35cd79	-0.011096352
90	0x3da211e9	0.07913572
91	0x3b22301e	0.0024747918
92	0x3db7043a	0.08936353
93	0xbd66e81c	-0.0563737
94	0x3db4b741	0.088240154
95	0xbd879b95	-0.06621472
96	0x3c014e9a	0.007892275
97	0x3da867d6	0.0822293
98	0xbd59fa0b	-0.053216975
99	0x3c7eafc1	0.015544833
100	0x3cb900d7	0.022583408
101	0xbd78771b	-0.060660463
102	0xbce89994	-0.028393544
103	0xbd6f042a	-0.05835358
104	0xbc2b1401	-0.010441781
105	0xbcacf378	-0.021112189
106	0xbcb52180	-0.0221107
107	0x3db491c1	0.08816863
108	0xbde14c6d	-0.11000905
109	0x3e0f06e4	0.13967472
110	0xbcafc90e	-0.021458175
111	0x3dca6b15	0.098837055
112	0x3d3f9922	0.0467769
113	0x3dc4f4df	0.09617018
114	0xbd51ea85	-0.051249046
115	0xbdb385b1	-0.08765734
116	0xbd72e3fd	-0.059299458
117	0x3d33bd31	0.0438816
118	0x3dc90fca	0.09817465
119	0xbdbe99cb	-0.093066774
120	0x3c800c1e	0.015630778
121	0x3d3a625d	0.045503963
122	0x3cd12703	0.025531298
123	0x3d4878c7	0.048943307
124	0xbc966992	-0.018360887
125	0x3d9bac5b	0.076012336
126	0xbd85c3eb	-0.06531509
127	0x3ccd76c6	0.02508105

log_std_parameter f4 [19]
0	0xbf803c80	-1.0018463
1	0xbf83a0d7	-1.028346
2	0xbf8cc1e0	-1.0996666
3	0xbf673154	-0.90309644
4	0xbf70bc21	-0.9403706
5	0xbe94e001	-0.2907715
6	0xbe8634a3	-0.26212034
7	0xbf3c17fd	-0.73474103
8	0xbf8e2ce8	-1.1107454
9	0xbe8d9f45	-0.27660576
10	0xbea3fa23	-0.32026777
11	0xbf45fe3f	-0.77341074
12	0xbf4b5a5f	-0.7943477
13	0xbe81b2b0	-0.2533164
14	0xbe8fe249	-0.2810233
15	0xbe94dd4d	-0.2907509
16	0xbe8f0142	-0.27930647
17	0xbe8f9a8e	-0.28047603
18	0xbe975866	-0.2955963

net_container.0.weight f4 [128, 69]
0	0x3e03fed0	0.12890172
1	0xbecc3068	-0.3988068
2	0x3cc80707	0.024417413
3	0x3ce5fa28	0.028073385
4	0xbd415081	-0.047195915
5	0xbd49d928	-0.049279362
6	0xbc86e691	-0.016467365
7	0xbf4639f9	-0.7743221
8	0x3b9ee355	0.0048488774
9	0xbd4b046c	-0.049564764
10	0xbd7eda87	-0.062220123
11	0x3e44b1fe	0.19208524
12	0x3e7ef835	0.24899371
13	0xbdd5c509	-0.10437972
14	0xbedf5c2e	-0.43625015
15	0xbde5f6cf	-0.11228716
16	0x3ec04329	0.3755124
17	0x38fecf7c	0.00012150311
18	0x3e6be239	0.23035516
19	0x3d316c6b	0.043316286
20	0xbe4c4abe	-0.19950387
21	0x3e0fddf7	0.14049517
22	0x3e223667	0.15841065
23	0xbcd44ca9	-0.02591546
24	0xbe54b6e7	-0.20772897
25	0xbc7c47b9	-0.015397959
26	0xbedd1b8d	-0.43185082
27	0xbcb98b6d	-0.022649491
28	0x3e7ce02b	0.24694888
29	0x3ccec940	0.025242448
30	0xbd342aca	-0.04398612
31	0xbc3c3a6f	-0.011488541
32	0x3d00fdc6	0.031492017
33	0xbdb194a1	-0.08670927
34	0xbd53a6bf	-0.051672693
35	0x3cb3c901	0.021946432
36	0xbdd7726e	-0.105198726
37	0xbd2d148a	-0.042255916
38	0xbd618d30	-0.055066288
39	0x3d7f52bd	0.062334765
40	0xbdbeaace	-0.09309922
41	0xbdc3a0dc	-0.09552166
42	0x3db8cfd3	0.09024014
43	0x3cdd5c1b	0.027021458
44	0x3d27f667	0.041006472
45	0x3b2cfc3d	0.0026395463
46	0xbdc7f9b6	-0.097644255
47	0x3d18cb59	0.037303302
48	0xbd419f3f	-0.04727101
49	0x3d436dda	0.047712184
50	0xbb9ec360	-0.004845068
51	0x3cea40ec	0.02859541
52	0x3d8b8db5	0.06814138
53	0x3d5736b5	0.052542407
54	0xbc2afd66	-0.010436391
55	0xbdb4bd3f	-0.08825158
56	0x3cedbb7f	0.02902007
57	0xbcb4deb1	-0.022078844
58	0x3d9598cc	0.07304534
59	0x3e1343aa	0.1438128
60	0xbd891d6e	-0.066950664
61	0xbdccf76e	-0.10008131
62	0xbe79e98f	-0.24405502
63	0xbd3604f6	-0.044438325
64	0xbd83d50f	-0.06437122
65	0x3c86c663	0.01645202
66	0xbd2ee2a0	-0.042696595
67	0xbc415706	-0.011800533
68	0x3d9b1e8e	0.07574187
69	0xbe181640	-0.14852238
70	0x3bf1d907	0.007380608
71	0x3eba7e18	0.36424327
72	0xbe0cf8f0	-0.13766837
73	0xbe15b7b6	-0.14620861
74	0x3df6b8d7	0.12046974
75	0xbe9c85c8	-0.30570817
76	0x3e2ca349	0.16859163
77	0xbccee92c	-0.02525767
78	0x3e2d9597	0.16951595
79	0xbd28830b	-0.041140597
80	0x3dda5a8f	0.10661804
81	0xbe27f23a	-0.16400996
82	0xbeb800c3	-0.3593808
83	0xbe1ba25a	-0.15198651
84	0x3e4787a6	0.1948534
85	0x3d4d8ebe	0.050184958
86	0x3d00ba21	0.031427506
87	0x3e471e9a	0.19445267
88	0x3dbec00c	0.09313974
89	0xbcc1aed6	-0.023642939
90	0x3e640e5a	0.222711
91	0x3d461b3a	0.04836581
92	0x3d4d95c0	0.05019164
93	0x3ddd16f8	0.107953966
94	0x3ca64b36	0.020299535
95	0xbe87a0e9	-0.26489952
96	0x3cbd6c54	0.023122944
97	0x3e0e5007	0.13897716
98	0x3b590f8e	0.0033120844
99	0xbe5aba50	-0.21360135
100	0xbc282b79	-0.010264271
101	0x3d916e9b	0.071011744
102	0xbcebdaba	-0.02879082
103	0xbda7ab0d	-0.08186922
104	0xbd2e5ada	-0.04256711
105	0x3c38b9b1	0.011274741
106	0x3d2d1a3f	0.04226136
107	0x3ceff8b5	0.029293397
108	0x3d90ac21	0.07064081
109	0xbc99f477	-0.018793328
110	0xbe2784ad	-0.16359206
111	0xbd52709d	-0.051376928
112	0x3d11f8c0	0.035637617
113	0x3db04ca9	0.08608372
114	0x3ce315dc	0.027720384
115	0x3e48487e	0.19558904
116	0x3d80e3ed	0.062934734
117	0xbe3367a0	-0.17519999
118	0x3d1487d0	0.036262333
119	0x3ceec4ba	0.02914654
120	0xbe1bd710	-0.15218759
121	0x3d55e652	0.052221604
122	0x3ddd0471	0.10791863
123	0x3e00a1fd	0.12561794
124	0xbdadef42	-0.084929004
125	0xbd1c5243	-0.03816439
126	0x3b622a02	0.0034509902
127	0xbd552458	-0.052036613
128	0x3d0ca15c	0.03433357
129	0xbc91429a	-0.017731953
130	0x3d848982	0.0647154
131	0xbe937d86	-0.28806704
132	0xbd7ba920	-0.061440587
133	0xbe0166ce	-0.12636873
134	0xbe49004e	-0.19629022
135	0xbe1cee60	-0.15325308
136	0xbe599f39	-0.21252145
137	0x3c09abd9	0.008402788
138	0xbd8852dc	-0.06656429
139	0x3f0e053c	0.5547674
140	0xbe0abf6c	-0.13549584
141	0x3d344516	0.044011198
142	0xbad23465	-0.0016037343
143	0xbc2cff11	-0.010558859
144	0xbe9ae199	-0.30250242
145	0x3e9105d0	0.28324747
146	0x3dd8e61f	0.10590767
147	0x3e8a2149	0.2697852
148	0x3d2a0e7d	0.041517723
149	0xbd938542	-0.07203151
150	0xbda9fe39	-0.08300442
151	0x3dd04e46	0.101711795
152	0x3e564ceb	0.2092778
153	0xbd8a02f8	-0.067388475
154	0xbed6e0e3	-0.4196845
155	0xbcb25457	-0.021768732
156	0xbdbdd3a6	-0.09268884
157	0xbee33341	-0.4437504
158	0x3eb89e26	0.36058158
159	0xbd9304a4	-0.071786195
160	0x3e8f3a04	0.2797395
161	0x3c9c12ff	0.019052027
162	0x3e39066a	0.18068853
163	0xbd841f97	-0.06451338
164	0x3dbcd1ab	0.092196785
165	0x3d8b066f	0.067883365
166	0xbe0f9967	-0.14023362
167	0x3d63fd7a	0.055661656
168	0x3d767ab6	0.06017562
169	0x3c85c28f	0.016328124
170	0x3cff2759	0.031146692
171	0x3bdf8707	0.0068215164
172	0x3cb1bf60	0.0216977
173	0xbbc76ad1	-0.0060857316
174	0xbc9a9be1	-0.018873157
175	0x3b2bed16	0.0026233844
176	0xbd446d22	-0.04795564
177	0xbc70f3bf	-0.014706551
178	0x3cefc8f3	0.029270625
179	0x3c97f16b	0.018547734
180	0xbb9adda2	-0.0047261277
181	0x3d9f2d88	0.07772356
182	0x3c0705e1	0.008241148
183	0x3d6ac454	0.05731614
184	0xbe65774e	-0.22408792
185	0x3d2a3b04	0.041560188
186	0x3d13d06f	0.03608745
187	0xbdd7d9d8	-0.10539597
188	0xbdaf3d24	-0.085565835
189	0x3df1da85	0.118092574
190	0x3c68124f	0.014164521
191	0xbddb9eef	-0.107236736
192	0xbc206321	-0.009789259
193	0x3dbddb70	0.0927037
194	0xbd1005c6	-0.035161756
195	0x3daf4700	0.08558464
196	0x3dff712e	0.12472759
197	0x3cde97c1	0.027171971
198	0x3e13f54b	0.1444904
199	0xbe1dba1f	-0.15403031
200	0x3e87d1eb	0.26527342
201	0xbd6a8af7	-0.057261433
202	0x3d0313d7	0.032001343
203	0x3d7e3cb4	0.06206961
204	0xbdcf0c48	-0.10109764
205	0x3d0de17a	0.03463886
206	0xbd81a527	-0.063303284
207	0x3e142700	0.14468002
208	0x3e8a0240	0.26954842
209	0xbde3e939	-0.11128468
210	0xbdd48da2	-0.10378577
211	0xbdcf0693	-0.10108676
212	0x3cc1811f	0.02362114
213	0x3f49e94a	0.78871596
214	0xbe294328	-0.16529524
215	0x3ce8a616	0.028399508
216	0x3e849a43	0.25898942
217	0x3deee56c	0.116648525
218	0xbdcc81c7	-0.099856906
219	0x3e09f507	0.13472377
220	0xbd1e7330	-0.03868407
221	0x3f02e2b7	0.5112719
222	0x3ef6d64e	0.48210377
223	0xbe9f591c	-0.31122673
224	0xbe3cbf43	-0.18432336
225	0x3d02cfc7	0.031936433
226	0xbce70c45	-0.028204093
227	0x3f1ee66e	0.6207036
228	0x3d7b49d4	0.061349705
229	0x3e072267	0.13196717
230	0x3d32097e	0.043466084
231	0x3eb393c1	0.35073665
232	0xbbd05e01	-0.0063588624
233	0x3e5ed2fa	0.21760169
234	0xbd9e1d9d	-0.07720492
235	0xbe8f8d05	-0.28037277
236	0xbd3e3e54	-0.04644616
237	0xbc08c2e0	-0.008347243
238	0x3cbcd54a	0.023050923
239	0xbcc00d14	-0.023443736
240	0xbcc6ef47	-0.024284018
241	0x3d1a8a12	0.03772933
242	0xbcc1207c	-0.02357506
243	0x3db2d112	0.08731283
244	0x3d6052cb	0.054766458
245	0x3b733ecf	0.0037116294
246	0xbc38183b	-0.011236246
247	0xbcc565a8	-0.024096325
248	0xbcbe3b99	-0.023221778
249	0xbbdb6b02	-0.006696106
250	0xbbc01698	-0.0058620684
251	0x3c927209	0.017876642
252	0x3cd9df27	0.026595665
253	0xbae4c701	-0.0017454327
254	0x3d0a6fa3	0.03379787
255	0xbd24a0b8	-0.040192336
