humanoidprac/humanoidprac/scripts/skrl/logs/skrl/h1_flat/joint_experiment_ver3/2025-09-18_03-27-25_ppo_torch/checkpoints/agent_9600.pt (torch, 549922 bytes, 40 tensors)

log_std_parameter f4 [19]
-2.5955741 -2.6248858 -2.7911806 -1.5359428 -1.4740877 -0.69389784 -0.7305122 -1.59048
-2.0182726 -0.5977063 -0.536752 -1.2381873 -1.3007835 -0.6048092 -0.6410504 -0.5717565
-0.699423 -0.5976483 -0.58474535
00000000: e31d 26c0 21fe 27c0 b4a2 32c0 c699 c4bf
00000010: e8ae bcbf 4aa3 31bf d902 3bbf d994 cbbf
00000020: 612b 01c0 4803 19bf 9468 09bf ec7c 9ebf
00000030: 1380 a6bf c7d4 1abf e11b 24bf a25e 12bf
00000040: 630d 33bf 7bff 18bf dfb1 15bf

net_container.0.weight f4 [128, 69]
0.13915926 -0.55498165 -0.04334679 0.07104114 -0.03961814 -0.022932542 -0.040814072 -0.906841
0.029066993 -0.0039769816 -0.062220123 0.2754928 0.19259842 -0.23283614 -0.65260375 -0.34210452
0.44032988 -0.059942424 0.3955825 0.08047019 -0.15775661 0.3359337 0.21998136 -0.03700103
-0.24724506 0.051224004 -0.5702057 -0.013184667 0.2739426 -0.0182191 0.026913904 -0.0004479701
0.015526425 -0.09692913 -0.057513434 0.010576168 -0.06984499 -0.044584967 -0.05411045 0.026869087
-0.063804045 -0.035115387 0.07190908 0.044078168 0.0544902 0.009133008 -0.06798222 0.08817531
-0.0005394948 0.04920813 -0.024699219 -0.07864716 0.048594326 0.03086303 -0.0282698 -0.09150464
-0.0060793287 -0.015311125 0.08061335 0.14057934 -0.014236175 -0.04639386 -0.22474949 -0.013912806
-0.04097338 0.07694298 -0.024613267 0.08708694 0.028428324 -0.089533605 0.02622565 0.426917
-0.17447498 -0.25202024 0.15625307 -0.4031003 0.065462716 -0.032448594 0.2504704 -0.041140597
0.11733872 -0.25295416 -0.541059 -0.18318921 0.11685181 -0.0151250735 -0.071330495 0.34870985
0.087669164 0.01501994 0.28336567 0.0011531827 0.0890903 0.12811211 0.21717983 -0.39337015
0.014723798 0.14743719 -0.026539713 0.001213928 0.008135444 0.06434535 -0.02609429 -0.117278464
-0.0839917 0.008571642 0.032657325 -0.00778181 0.051565554 0.008676885 -0.16373813 -0.042325072
0.03850513 0.063326344 0.020912563 0.11076121 0.043217972 -0.12152405 0.036562994 0.050566554
-0.13825966 0.010372006 0.07897386 0.056326456 -0.090712264 -0.017392475 0.02291371 -0.07409203
0.043489043 0.016106796 0.121999905 -0.31791437 -0.05360515 -0.10554098 -0.1679524 -0.16185942
-0.1634585 0.027353795 -0.08101615 0.6247266 -0.25924733 -0.032174077 -0.017350445 -0.05133054
-0.287521 0.37767583 0.099944234 0.31357616 0.041517723 -0.094632536 -0.15575403 0.021031795
0.23697366 0.004985405 -0.40590146 -0.12248077 -0.113480926 -0.4550343 0.35930184 -0.11927361
0.31221032 0.0068438575 0.2009465 -0.2050339 0.24936707 0.04723947 -0.12972255 0.059909377
0.06065519 0.03168806 0.018240945 -0.00022024791 0.030926282 0.024592599 0.011059911 -0.04278346
-0.03256271 -0.020411914 0.0019427825 0.0485355 -0.019641219 0.05745506 0.004468418 0.046759676
-0.16663608 0.025505064 0.03835862 -0.036764987 -0.024374884 0.15065315 -0.023914525 -0.12988475
-0.048793137 0.062270448 -0.07823739 0.0905192 0.106945015 0.030772556 0.13723432 -0.21632318
0.32678354 -0.096121475 0.03936107 0.071000606 -0.0907687 -0.0019142953 -0.042446002 0.15178527
0.36766237 -0.14205344 -0.10002717 -0.13718028 0.046662804 0.7665762 -0.026923796 0.010989791
0.26911753 0.116648525 -0.08289896 0.26841363 0.14580242 0.75693846 0.6282026 -0.38063428
-0.18138197 -0.07613813 -0.060103197 0.5697883 0.05563814 0.14095302 0.06176585 0.37294686
-0.0066967816 0.36130208 -0.073075905 -0.28079766 -0.053622305 -0.06873733 0.026717382 -0.021956855
-0.04440733 0.018938072 -0.03817865 0.0539413 0.06582463 -0.007973029 -0.002351678 -0.019603707
-0.030743923 -0.004068072 -0.010354805 -0.009457874 0.03582251 0.026681636 -0.0029780215 -0.014734008
00000000: c47f 0e3e 4713 0ebf 678c 31bd 047e 913d
00000010: a146 22bd 07dd bbbc a82c 27bd bb26 68bf
00000020: e71d ee3c 5751 82bb 87da 7ebd 640d 8d3e
00000030: 8538 453e 996c 6ebe 0a11 27bf 5328 afbe
00000040: eb72 e13e 3086 75bd ca89 ca3e 8ecd a43d
00000050: f38a 21be 80ff ab3e cb42 613e 648e 17bd
00000060: cf2d 7dbe 43d0 513d 00f9 11bf 8004 58bc
00000070: 3442 8c3e 3940 95bc 8c7a dc3c 87dd eab9
00000080: 8c62 7e3c c882 c6bd 3593 6bbd aa47 2d3c
00000090: e40a 8fbd ba9e 36bd eba2 5dbd 8f1c dc3c
000000a0: b2ab 82bd 27d5 0fbd 1145 933d 4f8b 343d
000000b0: 1e31 5f3d 9da2 153c 433a 8bbd 4295 b43d
000000c0: e26c 0dba 778e 493d 0456 cabc c311 a1bd
000000d0: d80a 473d 77d4 fc3c 1196 e7bc c966 bbbd
000000e0: 1b35 c7bb 83db 7abc 9d18 a53d 08f4 0f3e
000000f0: d93e 69bc 7d07 3ebd bb24 66be 8af2 63bc
00000100: b4d3 27bd 4894 9d3d c3a1 c9bc a35a b23d
00000110: 84e2 e83c 655d b7bd 2dd7 d63c dd94 da3e
00000120: 92a9 32be cc08 81be ce00 203e 2a63 cebe
00000130: 5111 863d d1e8 04bd a83d 803e 0b83 28bd
00000140: 484f f03d 3583 81be d882 0abf f495 3bbe
00000150: 0050 ef3d 28cf 77bc b915 92bd 198a b23e
00000160: e48b b33d 3216 763c 4e15 913e 6426 973a
00000170: fa74 b63d d22f 033e 6464 5e3e d067 c9be
00000180: 163c 713c c6f9 163e d069 d9bc aa1c 9f3a
00000190: 864a 053c 7fc7 833d b1c3 d5bc b12f f0bd
000001a0: d703 acbd 1370 0c3c b0c3 053d 8efe febb
000001b0: 6736 533d 7e29 0e3c f8aa 27be 0e5d 2dbd
000001c0: 8eb7 1d3d 3eb1 813d d350 ab3c c6d6 e23d
000001d0: 5405 313d 9ae1 f8bd 14c3 153d e01e 4f3d
000001e0: f193 0dbe 59ef 293c 0cbd a13d 92b6 663d
000001f0: 5ac7 b9bd aa7a 8ebc 88b5 bb3c 90bd 97bd
00000200: 9121 323d 66f2 833c 16db f93d acc5 a2be
00000210: 1391 5bbd df25 d8bd b7fb 2bbe 7abe 25be
00000220: aa61 27be 1115 e03c cceb a5bd 15ee 1f3f
00000230: 11bc 84be f7c8 03bd 8522 8ebc f93f 52bd
00000240: f435 93be ba5e c13e 90af cc3d 0e8d a03e
00000250: 7d0e 2a3d b4ce c1bd fc7d 1fbe df4a ac3c
00000260: 39a9 723e 9c5c a33b 51d2 cfbe 33d7 fabd
00000270: b068 e8bd 41fa e8be 69f6 b73e b945 f4bd
00000280: 08da 9f3e 7042 e03b ebc4 4d3e 68f4 51be
00000290: 155a 7f3e 2d7e 413d fdd5 04be 8963 753d
000002a0: 9471 783d 57cb 013d 096e 953c 59f2 66b9
000002b0: 1d59 fd3c 6b76 c93c a134 353c b63d 2fbd
000002c0: 7a60 05bd e336 a7bc f7a4 fe3a 29cd 463d
000002d0: 9fe6 a0bc ff55 6b3d cf6b 923b 1387 3f3d
000002e0: a6a2 2abe ffef d03c ee1d 1d3d e296 16bd
000002f0: d6ad c7bc d244 1a3e 65e8 c3bc 8200 05be
00000300: 50db 47bd 4c0f 7f3d ed3a a0bd 2162 b93d
00000310: fd05 db3d ba16 fc3c 2787 0c3e d383 5dbe
00000320: 2c50 a73e 56db c4bd 1339 213d c468 913d
00000330: f1e4 b9bd 17e9 faba dcdb 2dbd 996d 1b3e
00000340: 3e3e bc3e 7576 11be 0bdb ccbd fd78 0cbe
00000350: 7f21 3f3d 563e 443f 4b8f dcbc 860e 343c
00000360: c6c9 893e 6ce5 ee3d eec6 a9bd 836d 893e
00000370: 3b4d 153e b8c6 413f e3d1 203f 7fe2 c2be
00000380: 32bc 39be 4fee 9bbd c52e 76bd a5dd 113f
00000390: d1e4 633d fd55 103e 30fe 7c3d e4f2 be3e
000003a0: ad70 dbbb 96fc b83e d2a8 95bd b6c4 8fbe
000003b0: 10a3 5bbd 28c6 8cbd 69de da3c ddde b3bc
000003c0: 76e4 35bd 0424 9b3c 3761 1cbd 8df1 5c3d
000003d0: 10cf 863d 4fa1 02bc 9c1e 1abb f497 a0bc
000003e0: aeda fbbc 764d 85bb 33a7 29bc 33f5 1abc
000003f0: a0ba 123d 7293 da3c e92a 43bb e966 71bc

net_container.0.bias f4 [128]
0.13524774 0.001615021 -0.0050549456 0.027066156 0.098842844 0.05787896 0.11168934 0.1383776
0.15737166 0.12794551 0.021466829 0.056151215 0.06608525 0.09523803 0.27560124 -0.10568038
0.18794711 -0.17267533 0.16458258 0.0899205 0.11078392 0.1161145 0.0050416063 0.20173971
0.10044966 0.12622023 0.0062808716 -0.061825715 -0.019623358 -0.07959032 0.053518213 0.043964464
0.1801656 0.090832986 6.1822466e-05 -0.09060865 0.09662514 0.04464274 0.10094864 0.018346716
-0.019840231 0.18125351 -0.12609659 0.037250366 0.1461629 -0.09160488 0.06766635 -0.061387513
0.23058549 0.09828395 -0.061720323 -0.058523975 -0.05421848 -0.07214568 0.06939541 0.057584167
0.1931439 0.06067425 0.102106035 0.13069467 -0.106525615 0.12166916 0.2349389 0.06969252
0.0100383265 0.19464575 0.1279745 0.06942473 0.06484491 0.1325019 0.05439854 -0.15906745
0.1719917 0.15566175 0.05649026 0.045333557 0.18997614 0.08280158 0.12685223 0.083323576
0.041245025 -0.017261438 0.15009089 0.08845998 0.09414037 0.1113314 0.15154676 0.25865713
0.02725697 0.12799665 0.038050093 0.032958627 0.1308249 -0.06311482 0.0047972533 0.08167186
0.011512196 0.00020152901 -0.1129586 -0.067122325 0.1679166 0.04887087 -0.037821196 0.037945278
0.07412913 0.15912607 0.08683791 -0.048751332 0.016303828 -0.10288057 -0.04897143 0.13142343
-0.033201113 -0.07334744 0.21911363 0.18439348 -0.05627336 0.09874214 0.030537585 -0.012905229
0.037817385 -0.04869107 0.21825507 -0.05001336 -0.036031026 -0.1705768 -0.0839412 0.06306534
00000000: 627e 0a3e 1daf d33a f5a3 a5bb d8b9 dd3c
00000010: 1e6e ca3d 7d12 6d3d 61bd e43d dcb2 0d3e
00000020: 0926 213e 2604 033e 34db af3c d1fe 653d
00000030: b457 873d 280c c33d 9b1b 8d3e f46e d8bd
00000040: 3575 403e cdd1 30be 5688 283e 3d28 b83d
00000050: aee2 e23d 70cd ed3d 0f34 a53b db94 4e3e
00000060: 8db8 cd3d e03f 013e c5cf cd3b f63c 7dbd
00000070: 2ac1 a0bc 4000 a3bd ea35 5b3d 1514 343d
00000080: 557d 383e a506 ba3d afa6 8138 0791 b9bd
00000090: 67e3 c53d 4edb 363d 29be ce3d da4b 963c
000000a0: fb87 a2bc 859a 393e 771f 01be d793 183d
000000b0: baab 153e 579b bbbd a894 8a3d 7971 7bbd
000000c0: 9a1e 6c3e 1849 c93d 73ce 7cbd d6b6 6fbd
000000d0: 3214 5ebd 1dc1 93bd 2e1f 8e3d 60dd 6b3d
000000e0: 84c7 453e 9085 783d f81c d13d d3d4 053e
000000f0: 1a2a dabd ae2d f93d d393 703e f4ba 8e3d
00000100: cb77 243c 3751 473e bf0b 033e 8e2e 8e3d
00000110: 68cd 843d 94ae 073e 01d1 5e3d 94e2 22be
00000120: 981e 303e cb65 1f3e 5562 673d aeaf 393d
00000130: 1b89 423e e093 a93d 8de5 013e 8da5 aa3d
00000140: 8bf0 283d dc67 8dbc 6db1 193e 822a b53d
00000150: abcc c03d b801 e43d 132f 1b3e b56e 843e
00000160: 024a df3c 8e11 033e 6ada 1b3d a0ff 063d
00000170: f6f6 053e 5842 81bd 4732 9d3b 9343 a73d
00000180: a69d 3c3c 8851 5339 d756 e7bd 6e77 89bd
00000190: 54f2 2b3e d22c 483d 66ea 1abd 826c 1b3d
000001a0: 03d1 973d f2f1 223e 13d8 b13d 7aaf 47bd
000001b0: 9b8f 853c 0cb3 d2bd 4496 48bd dd93 063e
000001c0: e4fd 07bd 2f37 96bd 535f 603e a5d1 3c3e
000001d0: e57e 66bd 5239 ca3d f529 fa3c 7470 53bc
000001e0: 67e6 1a3d 4a70 47bd 427e 5f3e cfda 4cbd
000001f0: 4595 13bd afab 2ebe 5de9 abbd 6728 813d

net_container.2.weight f4 [128, 128]
0.018379591 -0.09321075 0.02178964 -0.009500405 0.039085936 -0.015545508 0.048645474 -0.111976236
-0.00806357 0.14344214 -0.052664686 -0.052079044 0.12991959 -0.056786872 0.04173641 0.00032000864
-0.022846535 0.06809042 0.021478193 0.055459645 0.032241203 0.07270527 -0.020852638 -0.07699827
-0.13526675 -0.046453793 -0.072794646 0.07412828 0.024959294 0.054979514 -0.0033815438 0.054181043
-0.039887555 -0.07324171 -0.04335954 -0.031649332 -0.04777897 0.023335606 0.040942173 0.0625769
0.085171044 0.052339375 -0.11308029 -0.117662854 0.038782854 0.02223654 -0.08453868 0.0690277
0.11033779 0.04915911 0.06243372 0.039010383 -0.004123244 -0.08005453 -0.055208575 -0.039327934
-0.101117045 -0.09164314 0.08136067 0.03425373 0.047028925 0.040029112 0.09244534 -0.083477
-0.020358803 -0.0033650142 -0.028808892 -0.06363107 -0.029401064 0.034681942 0.06966745 0.049295727
0.097785845 -0.040753525 -0.1413916 0.0606976 0.026616385 -0.10318208 0.097948335 0.07392955
0.048242614 0.064465426 0.011100555 0.061204202 -0.114271164 0.09203343 -0.07794586 -0.06002855
0.096155755 -0.024997847 -0.02607299 -0.050699625 -0.0527912 0.011012235 -0.11826457 -0.038863573
0.11674551 0.0024895617 0.004084502 0.01947286 0.046174195 -0.0053522596 -0.056226384 -0.011187967
0.037221704 -0.034726486 -0.017330378 -0.024085129 0.05217655 0.020581119 -0.037032034 -0.05504641
0.03241701 0.011941189 -0.03690045 -0.083414786 -0.10095149 -0.09858042 0.035485942 0.039323963
-0.03344486 -0.058539852 -0.031083014 0.019982724 0.005051765 0.05570177 -0.0026000391 -0.11537233
0.022279799 0.05180941 -0.14390226 0.025726054 0.0629857 0.035196904 0.1414434 0.125675
-0.013494833 -0.03936223 -0.0240978 0.10333604 -0.08145011 0.06680629 -0.0061347405 0.0986543
0.0810021 0.012068683 -0.03304663 -0.055500124 -0.039112467 -0.054864064 0.0823826 -0.027057135
-0.005633216 -0.020717522 -0.10711903 0.115908906 -0.024237301 0.0020379839 0.037995398 -0.12573591
-0.037915036 -0.0057790303 -0.05804584 -0.04947543 0.06423336 0.039409187 -0.08018502 -0.06939107
0.11508421 0.0660193 -0.00065483496 0.1437784 -0.028893284 -0.026362788 0.039682575 -0.07518407
-0.012272589 -0.025067413 0.0046920027 -0.11785458 0.012339398 -0.023148434 0.007620751 -0.045694977
-0.068629056 0.0056235925 -0.06978081 0.06674649 -0.13899745 -0.012189959 -0.042091034 0.116553254
-0.10508121 -0.14728786 0.030665547 -0.075909555 -0.037462514 0.086680114 0.099163085 -0.060590193
0.03621442 0.12558217 -0.08425132 -0.113208435 -0.019466909 -0.018947283 0.03914845 0.0026545997
-0.022072319 -0.14045875 0.024862854 0.040489733 -0.10045175 0.06992742 0.08613363 -0.0023089966
-0.014121495 -0.10110374 -0.13431028 -0.12349075 0.030487953 0.10894291 -0.03111873 -0.035378125
0.0045146034 0.16967942 0.075671494 0.08272404 -0.01841421 -0.084904976 -0.057193898 0.09489618
-0.07097648 -0.045595452 -0.08958893 -0.131338 0.08508438 0.022592058 -0.054095075 -0.14744027
-0.11997127 0.07216596 0.0045254454 -0.0027614252 -0.027856486 0.056042764 -0.010361366 0.025715899
0.14069931 -0.0014511463 -0.16308612 -0.12432799 -0.041616928 -0.06314074 0.05542495 -0.11586706
00000000: cc90 963c 47e5 bebd 3080 b23c 96a7 1bbc
00000010: 9318 203d 96b2 7ebc 7a40 473d cc53 e5bd
00000020: 101d 04bc 7fe2 123e edb6 57bd d650 55bd
00000030: a409 053e 5a99 68bd ccf3 2a3d d5c6 a739
00000040: a828 bbbc fd72 8b3d 09f3 af3c a729 633d
00000050: 5a0f 043d 80e6 943d 27d3 aabc 45b1 9dbd
00000060: 5e83 0abe 5546 3ebd 5c15 95bd 91d0 973d
00000070: 6f77 cc3c 3332 613d e49c 5dbb f1ec 5d3d
00000080: 2261 23bd c0ff 95bd c699 31bd bba2 01bd
00000090: e2b3 43bd 502a bf3c fbb2 273d 5128 803d
000000a0: 286e ae3d d061 563d a496 e7bd 39f9 f0bd
000000b0: c5da 1e3d 6829 b63c 9e22 adbd 655e 8d3d
000000c0: c7f8 e13d 105b 493d 80ba 7f3d 5ac9 1f3d
000000d0: 471c 87bb a1f3 a3bd 6322 62bd 5416 21bd
000000e0: 7416 cfbd 66af bbbd 6ca0 a63d a44d 0c3d
000000f0: 67a1 403d 91f5 233d fb53 bd3d fdf5 aabd
00000100: 81c7 a6bc 9287 5cbb a000 ecbc 0251 82bd
00000110: 80da f0bc a70e 0e3d cfad 8e3d 51ea 493d
00000120: f243 c83d 2bed 26bd f6c8 10be 0c9e 783d
00000130: 9b0a da3c 2051 d3bd 2399 c83d 6068 973d
00000140: 0c9a 453d 7306 843d 1adf 353c 42b1 7a3d
00000150: 0007 eabd 067c bc3d 14a2 9fbd 7fe0 75bd
00000160: 4fed c43d 49c8 ccbc 0697 d5bc 69aa 4fbd
00000170: 963b 58bd a96c 343c b234 f2bd 692f 1fbd
00000180: 4518 ef3d ea27 233b 49d7 853b 8c85 9f3c
00000190: 2721 3d3d 0262 afbb a34d 66bd bc4d 37bc
000001a0: c975 183d 5c3d 0ebd 70f8 8dbc 2d4e c5bc
000001b0: 14b7 553d bc99 a83c e7ae 17bd 5878 61bd
000001c0: b3c7 043d faa4 433c ed24 17bd 5fd5 aabd
000001d0: a8bf cebd 88e4 c9bd b559 113d 2a12 213d
000001e0: 7afd 08bd 7cc7 6fbd cea1 febc cfb2 a33c
000001f0: 4789 a53b 8a27 643d 6b65 2abb 5448 ecbd
00000200: 2084 b63c 1b36 543d 1d5b 13be 72bf d23c
00000210: a6fe 803d a12a 103d 8ad6 103e f2b0 003e
00000220: 6f19 5dbc 4a3a 21bd c068 c5bc d9a1 d33d
00000230: 51cf a6bd bcd1 883d ef05 c9bb 440b ca3d
00000240: 6ee4 a53d babb 453c e75b 07bd 1954 63bd
00000250: 6534 20bd 24b9 60bd 35b8 a83d eda6 ddbc
00000260: d796 b8bb cbb7 a9bc 3961 dbbd a661 ed3d
00000270: 4e8d c6bc b28f 053b 10a1 1b3d eac0 00be
00000280: cc4c 1bbd 055e bdbb 7ac1 6dbd c0a6 4abd
00000290: c88c 833d 876b 213d 0b38 a4bd e81c 8ebd
000002a0: 45b1 eb3d 2035 873d 3ba9 2bba a53a 133e
000002b0: 9cb1 ecbc c6f6 d7bc 328a 223d 1bfa 99bd
000002c0: f812 49bc 2d5a cdbc 5fbf 993b be5d f1bd
000002d0: 302b 4a3c c9a1 bdbc 7eb7 f93b a82a 3bbd
000002e0: 648d 8cbd 1d46 b83b 3ee9 8ebd 62b2 883d
000002f0: 5955 0ebe 65b8 47bc a667 2cbd 79b3 ee3d
00000300: d134 d7bd a1d2 16be 5036 fb3c 7876 9bbd
00000310: 4b72 19bd 5885 b13d 0416 cb3d 6c2d 78bd
00000320: 9255 143d 9d98 003e f58b acbd d3d9 e7bd
00000330: 1179 9fbc 5537 9bbc 205a 203d cbf8 2d3b
00000340: 02d1 b4bc 6bd4 0fbe 2fad cb3c 90d8 253d
00000350: a6b9 cdbd 1b36 8f3d d466 b03d 8952 17bb
00000360: d85d 67bc 7a0f cfbd a288 09be b8e8 fcbd
00000370: dfc1 f93c 761d df3d b5ec febc a7e8 10bd
00000380: 3def 933b 71c0 2d3e a8f9 9a3d 396b a93d
00000390: 66d9 96bc a9e2 adbd 2644 6abd ee58 c23d
000003a0: 1e5c 91bd 4cc2 3abd 677a b7bd 787d 06be
000003b0: b840 ae3d fb12 b93c cc92 5dbd 95fa 16be
000003c0: 7fb3 f5bd bfcb 933d 304a 943b 07f9 34bb
000003d0: 4933 e4bc 198d 653d b8c2 29bc 26aa d23c
000003e0: 7b13 103e 6434 beba 0c00 27be ac9f febd
000003f0: 8376 2abd ef4f 81bd 4605 633d b64b edbd

net_container.2.bias f4 [128]
0.09807861 -0.12348726 -0.18159181 0.005750005 -0.12046528 -0.11940167 0.015094597 0.083485276
0.060084783 -0.12148253 0.12430729 -0.07529562 0.06408916 -0.091822535 0.050587878 0.014296318
-0.06821835 0.013472309 -0.062367734 0.0735917 0.1052636 -0.021881515 0.06496498 -0.04299486
-0.0050323275 0.020798124 0.053367335 -0.16262543 0.045154843 -0.084736414 -0.114382885 0.018501917
-0.06081422 -0.1094426 0.060760926 -0.06401362 -0.059249207 -0.024126085 0.00270414 -0.10540816
-0.14745475 -0.007302411 -0.07854332 0.018297924 0.011384059 0.11475353 0.038386334 0.057218324
0.047533963 -0.101258054 0.07426278 -0.06836029 -0.0153643945 0.070210375 -0.069765724 -0.033997722
0.09758476 -0.12622663 0.08290697 0.11729858 -0.1464215 -0.069402196 -0.14255226 0.05126463
-0.049231198 -0.0868848 0.08489294 0.021194087 -0.10296944 0.04977832 -0.099347815 -0.030229205
-0.008404715 0.062173847 -0.085989185 0.053726617 0.08717206 -0.09125019 -0.048518293 -0.010972008
-0.006018404 -0.0857648 0.063617595 -0.036106985 -0.1353142 0.027136935 0.034923986 0.09404725
0.06811935 -0.0791606 -0.09974052 0.033143435 -0.12404169 -0.0052240044 -0.09145693 0.059927814
-0.048518844 -0.009351393 -0.16296822 0.05387762 -0.1570357 -0.17749073 -0.0658634 -0.010336753
-0.0879768 -0.10091938 -0.033664905 0.0004842782 -0.11965435 -0.04229861 0.11620892 -0.016223582
-0.108145714 0.027620718 0.10008419 -0.045790937 0.08798893 -0.021105299 -0.071838856 -0.060050383
0.0759882 -0.15745889 0.06398444 -0.026793744 0.09420002 0.021376917 -0.010740593 -0.13507107
00000000: 70dd c83d e3e6 fcbd 34f3 39be 8a6a bc3b
00000010: 80b6 f6bd dd88 f4bd 544f 773c 54fa aa3d
00000020: 761b 763d d5cb f8bd d294 fe3d 9734 9abd
00000030: 2d41 833d 740d bcbd 3c35 4f3d 1b3b 6a3c
00000040: 10b6 8bbd f6ba 5c3c 4f75 7fbd 3fb7 963d
00000050: 7194 d73d dd40 b3bc 5c0c 853d 611b 30bd
00000060: 39e6 a4bb d460 aa3c b597 5a3d 4887 26be
00000070: 49f4 383d 498a adbd 9341 eabd 5591 973c
00000080: 5518 79bd 7123 e0bd 73e0 783d 9319 83bd
00000090: 4caf 72bd 11a4 c5bc f137 313b 3ce0 d7bd
000000a0: 61fe 16be 1049 efbb 52db a0bd 87e5 953c
000000b0: 3484 3a3c e603 eb3d fd3a 1d3d c35d 6a3d
000000c0: f9b2 423d 6260 cfbd 1617 983d 7b00 8cbd
000000d0: f1ba 7bbc 75ca 8f3d 55e1 8ebd 3241 0bbd
000000e0: 85da c73d 8e41 01be 21cb a93d 3d3a f03d
000000f0: 85ef 15be bd22 8ebd 38f9 11be dcfa 513d
00000100: a7a6 49bd a8f0 b1bd 5adc ad3d 399f ad3c
00000110: a4e1 d2bd 5ae4 4b3d de76 cbbd 3da3 f7bc
00000120: eeb3 09bc 01aa 7e3d 191b b0bd 7110 5c3d
00000130: 4487 b23d 61e1 babd 1ebb 46bd f0c3 33bc
00000140: 0836 c5bb 75a5 afbd f149 823d ebe4 13bd
00000150: ce8f 0abe 474e de3c 740c 0f3d d89b c03d
00000160: 2882 8b3d f41e a2bd c244 ccbd 69c1 073d
00000170: 9209 febd 202e abbb c54d bbbd de76 753d
00000180: b2bb 46bd 9636 19bc 24e1 26be c7ae 5c3d
00000190: f7cd 20be 21c0 35be 64e3 86bd 7c5b 29bc
000001a0: 2e2d b4bd d2ae cebd 36e4 09bd b8e6 fd39
000001b0: 570d f5bd 4f41 2dbd f1fe ed3d 51e7 84bc
000001c0: 807b ddbd d844 e23c f1f8 cc3d 478f 3bbd
000001d0: 8a33 b43d 05e5 acbc 4020 93bd 64f7 75bd
000001e0: b49f 9b3d e73c 21be 460a 833d 8e7e dbbc
000001f0: f1eb c03d a51e af3c 50f9 2fbc 1250 0abe

net_container.4.weight f4 [128, 128]
-0.050385207 0.10754446 -0.17908534 -0.04380215 0.01632902 -0.07596844 0.073210135 0.06705646
0.013936677 -0.042548798 -0.034082282 -0.03806452 0.074651375 -0.0364867 -0.055751305 -0.030498644
-0.05365454 -0.012467632 0.048792057 0.040493496 -0.13673462 -0.09721528 0.10668099 -0.0055734823
0.073918045 0.016134433 -0.014679212 -0.0045661638 0.063697174 0.10018213 -0.01211599 -0.010395401
0.024350513 -0.02145615 -0.06807816 -0.03638686 -0.062148448 -0.07220258 0.0140564125 -0.011821635
-0.024895277 0.07889943 0.061996855 -0.0643456 0.07320086 -0.006860622 -0.009149136 0.1261176
-0.035301227 -0.010489471 0.082914464 0.040845312 0.10576332 -0.039713066 0.031749126 -0.14024423
-0.0019826184 -0.04303791 -0.067036726 0.037827384 0.049337 -0.0009441692 0.0068408223 0.0495435
-0.05626318 -0.07966896 -0.06818688 -0.06403407 0.08648587 0.0396115 0.004918179 0.05511072
0.1282338 -0.030831698 -0.093845874 -0.03942098 0.007206935 -0.011066725 0.052146588 -0.031984784
0.023125155 0.051234752 -0.05591776 -0.06836687 0.050880164 0.10640885 0.018973941 0.057732005
-0.015857996 -0.0013745909 0.019334264 -0.065842256 0.04069538 0.056439847 -0.02070532 -0.12891829
-0.0213677 0.080066256 -0.05909404 0.04694201 0.047247745 0.051951308 0.016287807 0.0051865294
0.07521114 -0.0062015457 0.06832556 -0.033917602 -0.043788545 -0.061032575 0.021717863 0.06831685
-0.008993959 -0.0158097 0.046056807 0.060907662 -0.09350711 0.050958402 -0.013931739 -0.03886005
0.045324635 -0.090485394 -0.05160822 0.07592207 -0.042346876 -0.06343149 0.09675354 -0.021078657
0.07831576 -0.061668813 -0.10073067 0.07483038 0.14513981 -0.3089055 0.009885912 -0.09961727
-0.06706111 -0.051489923 0.041617434 -0.20517546 0.00612653 0.054846134 0.024026373 -0.043149117
0.015353306 -0.08158125 -0.05811814 0.0050401106 -0.010946124 0.014428407 0.02078954 0.036770076
0.05221329 0.056239262 0.12815405 -0.026157225 0.057706423 -0.09722404 0.068095125 0.2081354
-0.014208634 0.105517074 -0.029471783 -0.05319822 -0.015022592 -0.06426702 -0.001523484 -0.023175256
0.0947787 -0.02164293 -0.13763838 0.091936484 -0.03201807 -0.025557278 -0.09171266 -0.0025663178
-0.021895641 -0.0026703652 0.027539432 0.038509917 -0.1091597 -0.0059262193 -0.019779634 -0.023905983
-0.01905865 0.03045759 0.04708164 -0.009780064 0.039350856 0.10851561 0.07557309 -0.13446999
0.004887148 -0.12773521 0.11921496 0.06930067 0.06380044 -0.011061243 -0.023173107 -0.17599279
0.018811984 -0.12156868 -0.035029437 0.017209962 0.008809522 -0.029755013 -0.12177296 -0.03197319
-0.10231904 0.009910776 -0.033159833 0.08037806 -0.0021724317 -0.06333051 -0.1578182 -0.081855856
0.07009434 -0.1274177 0.014741171 -0.087372944 0.061762303 -0.077105455 0.06911011 0.014517916
0.06826455 0.0018670366 0.14345436 0.049333584 0.10056176 -0.49807167 0.06121759 0.055586856
-0.018824002 -0.002760272 -0.025952792 0.014654385 0.021176105 -0.040722687 -0.09319443 -0.09640177
-0.07650233 0.089950345 0.008755244 0.016384162 0.10470857 -0.024589617 0.061772916 0.08699982
-0.10082792 -0.056709427 0.026191581 0.10228523 0.056296915 0.0089931665 0.03569469 0.058489226
00000000: b860 4ebd 4540 dc3d 2662 37be e269 33bd
00000010: 70c4 853c 5795 9bbd 32ef 953d e654 893d
00000020: a956 643c a647 2ebd dd99 0bbd 8be9 1bbd
00000030: d2e2 983d 1473 15bd 7b5b 64bd 4bd8 f9bc
00000040: ddc4 5bbd 0a45 4cbc 2eda 473d 82dc 253d
00000050: 2904 0cbe ce18 c7bd 907b da3d c2a1 b6bb
00000060: 5862 973d 5c2c 843c 1481 70bc c29f 95bb
00000070: aa73 823d 4a2c cd3d 2582 46bc 7951 2abc
00000080: ba7a c73c cfc4 afbc 906c 8bbd 630a 15bd
00000090: 5f8f 7ebd f2de 93bd de4c 663c 88af 41bc
000000a0: 2ef1 cbbc 0696 a13d 6af0 7d3d a0c7 83bd
000000b0: 55ea 953d 12cf e0bb 42e6 15bc f924 013e
000000c0: 0598 10bd 08dc 2bbc 0fcf a93d 6a4d 273d
000000d0: 719a d83d 2baa 22bd 5f0b 023d 2f9c 0fbe
000000e0: d1ee 01bb 8548 30bd 8d4a 89bd e3f0 1a3d
000000f0: 9815 4a3d 1f82 77ba fa28 e03b 20ee 4a3d
00000100: 3874 66bd 7b29 a3bd 90a5 8bbd 4b24 83bd
00000110: 811f b13d ab3f 223d ad28 a13b c7bb 613d
00000120: b94f 033e c292 fcbc 4432 c0bd e577 21bd
00000130: 2728 ec3b 3551 35bc a997 553d 7a02 03bd
00000140: f770 bd3c 88db 513d 050a 65bd ee03 8cbd
00000150: b867 503d e2ec d93d 3d6f 9b3c 6578 6c3d
00000160: a1e8 81bc 9e2b b4ba e462 9e3c 4ed8 86bd
00000170: 33b0 263d 782d 673d 349e a9bc 2803 04be
00000180: 510b afbc c7f9 a33d 980c 72bd 4446 403d
00000190: da86 413d e5ca 543d 026e 853c c3f3 a93b
000001a0: 4c08 9a3d 5636 cbbb 45ee 8b3d 2fed 0abd
000001b0: 9e5b 33bd 4bfd 79bd a9e9 b13c b4e9 8b3d
000001c0: 665b 13bc 5883 81bc 10a6 3c3d 507a 793d
000001d0: a880 bfbd c2b9 503d f341 64bc b72b 1fbd
000001e0: 53a6 393d 6850 b9bd 2463 53bd 087d 9b3d
000001f0: eb73 2dbd 5ee8 81bd b826 c63d 26ad acbc
00000200: 0364 a03d 7098 7cbd e24b cebd ac40 993d
00000210: 889f 143e dd28 9ebe 85f8 213c 2404 ccbd
00000220: 5657 89bd 19e7 52bd 0b77 2a3d 8419 52be
00000230: 0fc1 c83b 57a6 603d f5d2 c43c 21bd 30bd
00000240: 6f8c 7b3c 1214 a7bd 490d 6ebd 8327 a53b
00000250: 5f57 33bc 2065 6c3c d34e aa3c 389c 163d
00000260: 9add 553d 245b 663d d13a 033e ad47 d6bc
00000270: 925d 6c3d 661d c7bd 7575 8b3d 7221 553e
00000280: 55cb 68bc 5619 d83d cf6e f1bc 60e6 59bd
00000290: 5121 76bc 6d9e 83bd a4af c7ba 09da bdbc
000002a0: 561b c23d 844c b1bc 13f1 0cbe 3249 bc3d
000002b0: 6125 03bd 7f5d d1bc d9d3 bbbd ab2f 28bb
000002c0: 7d5e b3bc 4b01 2fbb 609a e13c 93bc 1d3d
000002d0: 1f8f dfbd bb30 c2bb e608 a2bc 7bd6 c3bc
000002e0: e320 9cbc 3282 f93c aed8 403d 903c 20bc
000002f0: 5d2e 213d 6f3d de3d 10c6 9a3d 80b2 09be
00000300: 5e24 a03b 05cd 02be f926 f43d 82ed 8d3d
00000310: cea9 823d 373a 35bc 87d5 bdbc 7437 34be
00000320: 971b 9a3c 00f9 f8bd 077b 0fbd e8fb 8c3c
00000330: d055 103c c9c0 f3bc 1a64 f9bd 52f6 02bd
00000340: a58c d1bd cf60 223c 9bd2 07bd 419d a43d
00000350: 5b5f 0ebb 6db3 81bd 189b 21be 0ba4 a7bd
00000360: 9f8d 8f3d c979 02be f484 713c 96f0 b2bd
00000370: 78fa 7c3d 77e9 9dbd 9a89 8d3d 8edc 6d3c
00000380: 49ce 8b3d 5ab7 f43a b3e5 123e 0312 4a3d
00000390: 53f3 cd3d 4003 ffbe 4cbf 7a3d 0baf 633d
000003a0: cb34 9abc aee5 34bb f39a d4bc f218 703c
000003b0: 8379 ad3c d5cc 26bd b9dc bebd 4b6e c5bd
000003c0: 41ad 9cbd e337 b83d 2872 0f3c 1438 863c
000003d0: 7271 d63d 2a70 c9bc 9905 7d3d f62c b23d
000003e0: de7e cebd 2548 68bd ba8f d63c eb7a d13d
000003f0: 9897 663d 1358 133c 9834 123d 6692 6f3d

net_container.4.bias f4 [128]
-0.071183085 -0.0792967 0.0332144 -0.13937613 -0.05728094 -0.052395742 -0.09432031 -0.049383596
-0.073510714 0.0047367285 0.08339012 -0.07751518 -0.032328393 -0.12178735 0.00798074 0.08703082
-0.08885623 0.033273164 0.052500293 -0.019274516 -0.035716284 -0.004972322 -0.16603725 0.0252922
-0.03712657 -0.08352253 0.0836546 0.03290111 -0.047914043 0.033550154 -0.07418811 0.0001820562
0.020422496 -0.045390643 -0.05731992 -0.09687443 -0.040671345 -0.03213153 0.036010522 0.07607273
-0.020402923 -0.0983132 0.048301052 -0.04949479 -0.092949145 0.057429906 -0.11173641 0.006398268
0.07667886 0.036156967 0.024895683 -0.020276658 -0.01089448 -0.03932511 -0.03946052 0.04466838
0.074983016 -0.09423491 -0.048946347 0.07444637 -0.047782432 -0.07964703 -0.043417145 -0.0072626974
-0.06633221 -0.009552728 -0.123416 0.077742524 -0.03357531 -0.044714123 0.10217746 -0.04171
0.009385077 0.070728 -0.070085354 0.065279156 0.03109361 0.032367997 0.077746704 -0.050962456
0.09411198 0.027544497 0.0012977711 -0.00011174466 -0.027873818 -0.10096568 -0.023212515 -0.06411574
0.023665542 -0.023063509 -0.06382051 -0.036570538 -0.05564036 -0.055558257 0.056455668 -0.03239073
-0.04789063 -0.1148599 -0.016273193 0.00761794 -0.13217853 -0.087780416 -0.13760357 -0.0017384669
0.033682883 0.0025804017 0.06069221 -0.052726988 -0.14206643 0.048797183 -0.014227554 0.031092696
-0.053804763 -0.10913868 0.071898155 0.08474058 0.040797353 0.0028501155 -0.04165839 0.080165036
-0.04667733 0.020852724 0.06228038 -0.08004392 -0.01980077 -0.063972846 0.0227872 -0.017724086
00000000: 70c8 91bd 4f66 a2bd d30b 083d 9eb8 0ebe
00000010: 6b9f 6abd eb9c 56bd 022b c1bd 7446 4abd
00000020: c98c 96bd 8f36 9b3b 70c8 aa3d 47c0 9ebd
00000030: c76a 04bd a56b f9bd a6c1 023c 373d b23d
00000040: 41fa b5bd 7149 083d 8c0a 573d 97e5 9dbc
00000050: 3d4b 12bd dcee a2bb ab05 2abe 9631 cf3c
00000060: 0812 18bd dc0d abbd 1a53 ab3d 50c3 063d
00000070: 8441 44bd e36b 093d f0ef 97bd 57e6 3e39
00000080: 144d a73c 8aeb 39bd 4bc8 6abd 1a66 c6bd
00000090: ff96 26bd 5a9c 03bd c57f 133d 05cc 9b3d
000000a0: 0824 a7bc 6e58 c9bd 53d7 453d 0dbb 4abd
000000b0: 1f5c bebd 9f3b 6b3d 0fd6 e4bd 90a8 d13b
000000c0: ce09 9d3d 5419 143d 08f2 cb3c 3c1b a6bc
000000d0: c37e 32bc 5e13 21bd 5ba1 21bd 31f6 363d
000000e0: b290 993d 3cfe c0bd f77b 48bd 5777 983d
000000f0: 83b7 43bd fb1d a3bd 2dd6 31bd ecfb edbb
00000100: 2fd9 87bd 0c83 1cbc 87c1 fcbd 7937 9f3d
00000110: 4486 09bd 2826 37bd 6b42 d13d 1bd8 2abd
00000120: dec3 193c d7d9 903d e988 8fbd 14b1 853d
00000130: 07b8 fe3c 4e94 043d aa39 9f3d 02be 50bd
00000140: c8bd c03d ffa4 e13c f919 aa3a 7558 eab8
00000150: a257 e4bc 18c7 cebd 2c28 bebc 1d4f 83bd
00000160: 3dde c13c afef bcbc 54b4 82bd fdca 15bd
00000170: 25e7 63bd 0e91 63bd 0f3e 673d 24ac 04bd
00000180: f728 44bd ab3b ebbd 5c4f 85bc ea9f f93b
00000190: cf59 07be 38c6 b3bd f3e7 0cbe 45dd e3ba
000001a0: 10f7 093d f51b 293b 6598 783d 41f8 57bd
000001b0: dd79 11be 8edf 473d b01a 69bc 1cb6 fe3c
000001c0: 6262 5cbd 1a84 dfbd 573f 933d 788c ad3d
000001d0: 201b 273d 01c9 3a3b fda1 2abd 912d a43d
000001e0: ba30 3fbd 55d3 aa3c b619 7f3d 11ee a3bd
000001f0: 3935 a2bc 3204 83bd 39ac ba3c 1a32 91bc

policy_layer.weight f4 [19, 128]
-0.039528437 0.033553604 -0.023667429 0.014393838 -0.045433633 0.09690375 0.05171497 -0.041016184
0.016223159 0.059818048 -0.0442845 0.06550874 0.03213336 0.00356625 0.03158179 0.034978017
0.010651342 -0.01039003 0.0012988576 -0.01985122 0.030208418 0.047549266 0.03522925 -0.047303263
-0.0033745181 -0.008845026 0.010932983 -0.028627168 0.032562725 0.07197065 2.7640294e-06 0.034577947
-0.0662969 -0.0014383047 0.037463315 -0.034714345 0.090111226 0.034195714 -0.032838874 -0.008786806
-0.03915724 0.026831375 -0.10046933 0.0725726 -0.03805307 -0.058520287 0.051960852 0.0063271387
0.0010635579 0.0042261602 -0.051038343 0.03392848 0.040511403 0.015436155 -0.0249624 -0.008269854
0.0054527153 0.057636593 0.0086814035 0.001612769 0.031210968 0.058428627 0.017588375 -0.029943198
-0.035271168 -0.00882781 -0.06416775 0.035844 -0.046696067 -0.039386768 -0.03173535 0.01809785
0.00064623426 0.011678335 0.0122191 0.00489404 0.05477602 -0.021133583 -0.02172303 0.0030735321
-0.013412014 -0.0022302726 0.0566106 -0.018913716 0.07442896 -0.047941003 0.007146398 0.021916702
-0.026265137 0.06367832 0.031218762 -0.011933298 -0.022283088 0.03788047 -0.04572169 -0.021140926
0.034798313 0.06258328 0.017940648 -0.042452965 0.024672417 0.01793938 -0.019429484 -0.0047958926
-0.057582624 -0.035735082 0.0071746684 0.049638923 -0.0126240635 -0.013173375 0.026341436 0.048648205
0.015578848 0.029624831 -0.0034640157 -0.013395342 -0.107967146 0.030938232 -0.047323506 -0.0059940177
-0.033613574 -0.05513545 -0.055424947 -0.020598115 0.00437537 -0.02629606 -0.0055293334 -0.05316332
-0.041901022 0.036976352 0.081097215 -0.05358466 -0.035295613 0.019425431 -0.02434382 -0.024079014
-0.032304168 0.04439811 -0.07287198 -0.04782361 -0.051862624 -0.08102775 0.0110013345 -0.020599915
0.023725312 -0.03973798 0.066365495 0.006702592 0.02314201 0.028078645 -0.0041276976 0.040053405
0.024662895 0.03176734 0.026677534 -0.008129529 -0.015538132 -0.040478237 0.022574488 -0.022893596
-0.0024398756 0.025415758 -0.012031689 -0.05714896 0.053795077 0.00026726513 0.10246996 0.02888789
-0.0072204485 -0.03354454 -0.021784965 -0.027517166 0.0023833942 0.08032981 -0.04343518 0.031728737
-0.006554057 0.021464037 -0.04840425 -0.057598334 0.029319413 0.00727249 0.008829289 0.065271586
-0.04129602 -0.030968558 -0.03959879 0.020103246 -0.06628763 0.0073154788 -0.06396221 0.023039151
0.03140653 -0.0033585439 0.04171574 0.022036886 0.043808192 0.03716722 -0.032370254 -0.03332649
-0.023204047 -0.019831548 0.01249573 0.033520926 -0.0039490703 0.057806514 0.030453559 -0.08624711
-0.009810357 0.061041273 -0.04786975 0.0022835284 0.080549054 0.0028718067 -0.0019057017 0.008880568
-0.02297074 0.002160245 0.036926184 0.0002630755 -0.05217259 -0.05603396 0.004359237 0.07934826
0.03131513 -0.0033131677 -0.019811444 0.009388561 -0.03378111 0.06360987 -0.024819516 0.034547254
-0.012676543 0.01108394 0.0049407776 0.016816448 -0.06286906 -0.027634777 -0.018660257 -0.0009594189
-0.029948762 -0.018674664 -0.007427404 0.0013572472 0.10078153 -0.0027634692 -0.060535174 -0.009776471
-0.0066748443 0.018299486 0.01553983 0.050186317 0.057285484 0.009083926 -0.032825023 0.017019393
00000000: 92e8 21bd 816f 093d 32e2 c1bc 22d4 6b3c
00000010: 9e18 3abd 7975 c63d 14d3 533d 9600 28bd
00000020: 6ee6 843c c503 753d aa63 35bd 7229 863d
00000030: 459e 033d bfb7 693b e85b 013d 1c45 0f3d
00000040: f782 2e3c f23a 2abc 6e3e aa3a 079f a2bc
00000050: a577 f73c 05c3 423d 8c4c 103d 11c1 41bd
00000060: 0527 5dbb baea 10bc 4120 333c 8683 eabc
00000070: 7e60 053d 5965 933d aa7d 3936 9ba1 0d3d
00000080: abc6 87bd 7f85 bcba 2273 193d a130 0ebd
00000090: 3c8c b83d ce10 0c3d 0e82 06bd 89f6 0fbc
000000a0: 5863 20bd 79cd db3c ddc2 cdbd f1a0 943d
000000b0: 89dd 1bbd f8b2 6fbd e7d4 543d e353 cf3b
000000c0: 1567 8b3a 9a7b 8a3b 950d 51bd 97f8 0a3d
000000d0: 49ef 253d ede7 7c3c f27d ccbc 487e 07bc
000000e0: b1ac b23b 5914 6c3d 723c 0e3c 8c63 d33a
000000f0: 25ae ff3c db52 6f3d 7f15 903c 704b f5bc
00000100: 8078 10bd 85a2 10bc 626a 83bd 28d1 123d
00000110: 6044 3fbd 0554 21bd edfc 01bd f141 943c
00000120: 0c68 293a 7d56 3f3c 9f32 483c 2f5e a03b
00000130: d25c 603d 5620 adbc 7ff4 b1bc 506d 493b
00000140: 10be 5bbc c429 12bb 84e0 673d f0f0 9abc
00000150: 366e 983d c95d 44bd 552c ea3b a88a b33c
00000160: fc29 d7bc c769 823d 7dbe ff3c e183 43bc
00000170: 068b b6bc 8d28 1b3d ab46 3bbd bc2f adbc
00000180: ad88 0e3d aa2b 803d 44f8 923c 29e3 2dbd
00000190: cf1d ca3c 9bf5 923c 952a 9fbc dd26 9dbb
000001a0: c2db 6bbd f35e 12bd 7b19 eb3b 2f52 4b3d
000001b0: 29d5 4ebc 24d5 57bc ffc9 d73c 5743 473d
000001c0: 6d3e 7f3c c6af f23c 8a04 63bb 2378 5bbc
000001d0: e11d ddbd 2d72 fd3c 4bd6 41bd 7769 c4bb
000001e0: 63ae 09bd b6d5 61bd 4505 63bd 61bd a8bc
000001f0: 445f 8f3b d66a d7bc 692f b5bb c8c1 59bd
00000200: 68a0 2bbd 8474 173d 4c16 a63d 977b 5bbd
00000210: 2292 10bd 1522 9f3c b16c c7bc 5a41 c5bc
00000220: 6051 04bd cbda 353d e83d 95bd b1e2 43bd
00000230: e76d 54bd e1f1 a5bd f13e 343c 27c1 a8bc
00000240: 965b c23c 4bc4 22bd a2ea 873d 6ba1 db3b
00000250: 5094 bd3c 3005 e63c a341 87bb 0a0f 243d
00000260: d709 ca3c 781e 023d d88a da3c b731 05bc
00000270: a693 7ebc 82cc 25bd 22ee b83c 5a8b bbbc
00000280: 52e6 1fbb b534 d03c 9020 45bc 0715 6abd
00000290: 3a58 5c3d b81f 8c39 c5db d13d 4ca6 ec3c
000002a0: 8399 ecbb 0066 09bd 6276 b2bc ae6b e1bc
000002b0: b832 1c3b f583 a43d 16e9 31bd fef5 013d
000002c0: 6ac3 d6bb 59d5 af3c 8943 46bd 3bec 6bbd
000002d0: 442f f03c 114e ee3b b9a8 103c 1cad 853d
000002e0: 0426 29bd c6b1 fdbc 5732 22bd 90af a43c
000002f0: cfc1 87bd afb6 ef3b 9ffe 82bd 9abc bc3c
00000300: 22a4 003d 041b 5cbb 20de 2a3d b386 b43c
00000310: 3870 333d a83c 183d ac96 04bd 5c81 08bd
00000320: 6a16 bebc c575 a2bc e4ba 4c3c 3d4d 093d
00000330: 3467 81bb 86c6 6c3d be79 f93c 53a2 b0bd
00000340: 9fbb 20bc 6a06 7a3d 1213 44bd 40a7 153b
00000350: e7f6 a43d ec34 3c3b bdc8 f9ba cd7f 113c
00000360: 222d bcbc e692 0d3b e93f 173d 65ed 8939
00000370: edb2 55bd de83 65bd eed7 8e3b 5781 a23d
00000380: 4b44 003d bb21 59bb 9c4b a2bc 7bd2 193c
00000390: 105e 0abd e445 823d 4c52 cbbc 6c81 0d3d
000003a0: 46b1 4fbc 6a99 353c 3fe6 a13b a6c2 893c
000003b0: 7ec1 80bd 5462 e2bc 65dd 98bc 8381 7bba
000003c0: 1b57 f5bc 9cfb 98bc 9561 f3bb a9e5 b13a
000003d0: 8c66 ce3d 521b 35bb bbf3 77bd 7e2d 20bc
000003e0: a7b8 dabb cee8 953c c59a 7e3c 2b90 4d3d
000003f0: 2fa4 6a3d bfd4 143c 8873 06bd 416c 8b3c

policy_layer.bias f4 [19]
-0.04394859 -0.0034626592 -0.03615958 0.0033061528 0.01940276 -0.032780796 -0.026785363 0.011518286
-0.049571987 0.06697241 0.026492238 0.06287492 0.052541018 0.013057571 -0.042994693 -0.13232659
-0.15282312 0.0011243974 -0.055140883
00000000: 7003 34bd c8ed 62bb 111c 14bd 0aac 583b
00000010: 89f2 9e3c 2845 06bd fa6c dbbc 31b7 3c3c
00000020: ff0b 4bbd d528 893d 4006 d93c 91c4 803d
00000030: 4035 573d 6cef 553c 341b 30bd 9f80 07be
00000040: aa7d 1cbe 8460 933a 68db 61bd

value_layer.weight f4 [1, 128]
-0.0124681685 0.06756483 -0.076953 0.013920279 -0.03532276 0.13070785 -0.09537669 0.11304908
-0.04316018 -0.045051787 -0.09442333 -0.04144014 0.041136798 0.025072915 -0.068119206 -0.07577721
-0.024687683 -0.14159618 0.091636375 0.06489773 -0.11115781 0.20163672 0.029994797 0.12390334
-0.00020234208 0.12257792 -0.119160876 -0.106768675 0.036277212 -0.059758347 0.17690293 0.06884179
-0.072139695 -0.00378451 0.06871705 0.074938275 -0.014304906 -0.06877098 -0.13555837 -0.086656764
-0.038287885 0.080099374 -0.022103352 -0.052804336 0.085749626 -0.042032193 0.06379647 -0.07276523
-0.09773204 -0.013107006 0.10307254 0.13753933 -0.15998721 0.0014974824 -0.12690268 -0.18822396
0.010306241 -0.14377631 0.070972934 0.012631581 0.088191055 0.098983675 -0.2125827 -0.15691853
0.036307074 0.06817228 0.027509872 0.022285687 -0.09294967 0.06122025 -0.14387596 0.04358578
-0.03481628 0.16250817 0.06515185 -0.050308038 -0.010489654 0.044345837 -0.03680535 -0.040073775
-0.021565855 0.011365568 -0.05437292 -0.04684444 0.049099058 0.05374861 -0.08803679 0.018463084
-0.029299563 -0.012072259 0.12863016 0.015655223 0.12605348 -0.08501301 0.09088563 -0.10240822
-0.0013976488 0.07651831 -0.102138795 0.034455054 -0.009089843 -0.09286896 -0.06548571 -0.07784227
0.01892087 0.0045777904 0.001928492 0.0948517 -0.1646962 0.20453726 -0.06492954 0.15581796
0.07893183 0.10123714 -0.061989304 -0.09152625 -0.07918649 0.03925214 0.084551 -0.14334907
0.043681875 0.046134975 0.036698382 0.026565056 0.018495863 0.087619536 -0.080466494 0.020506568
00000000: 4a47 4cbc 6e5f 8a3d 8999 9dbd e211 643c
00000010: 99ae 10bd 47d8 053e db54 c3bd 4786 e73d
00000020: bbc8 30bd 3988 38bd 0561 c1bd 23bd 29bd
00000030: 0f7f 283d b765 cd3c 1582 8bbd 1531 9bbd
00000040: d33d cabc 97fe 10be daab bb3d 1ae9 843d
00000050: b5a6 e3bd db79 4e3e a6b7 f53c 09c1 fd3d
00000060: ca2b 54b9 220a fb3d 9e0a f4bd 89a9 dabd
00000070: 6a97 143d 2bc5 74bd 0b26 353e edfc 8c3d
00000080: fabd 93bd 8b05 78bb 86bb 8c3d 3d79 993d
00000090: 205f 6abc cdd7 8cbd d0cf 0abe 1a79 b1bd
000000a0: c2d3 1cbd 240b a43d 1712 b5bc 5c49 58bd
000000b0: 809d af3d f329 2cbd b9a7 823d f005 95bd
000000c0: bc27 c8bd c5be 56bc b217 d33d 1cd7 0c3e
000000d0: b0d3 23be 2c47 c43a c7f2 01be c8bd 40be
000000e0: 82db 283c 193a 13be 425a 913d b1f4 4e3c
000000f0: 839d b43d f4b7 ca3d 48af 59be 40af 20be
00000100: bab6 143d e99d 8b3d 625c e13c 7990 b63c
00000110: 665c bebd 16c2 7a3d 3854 13be 0187 323d
00000120: 849b 0ebd 8b68 263e 556e 853d cd0f 4ebd
00000130: ccdc 2bbc fba3 353d 35c1 16bd 6624 24bd
00000140: e0aa b0bc a636 3a3c 24b6 5ebd f5df 3fbd
00000150: 181c 493d 8127 5c3d a24c b4bd e53f 973c
00000160: a305 f0bc b9ca 45bc a0b7 033e 623f 803c
00000170: 2a14 013e 4d1b aebd 3f22 ba3d 67bb d1bd
00000180: 5031 b7ba a2b5 9c3d 252e d1bd be20 0d3d
00000190: 91ed 14bc 1532 bebd 5f1d 86bd c56b 9fbd
000001a0: f1ff 9a3c 4a01 963b 74c5 fc3a 9c41 c23d
000001b0: 1fa6 28be 3772 513e c7f9 84bd be8e 1f3e
000001c0: 03a7 a13d 6b55 cf3d 7fe8 7dbd 1d72 bbbd
000001d0: 872c a2bd dac6 203d 1329 ad3d 19ca 12be
000001e0: c4eb 323d 07f8 3c3d 0b51 163d f69e d93c
000001f0: a384 973c df71 b33d 9ecb a4bd 64fd a73c

log_std_parameter f4 [19]
-2.5955741 -2.6248858 -2.7911806 -1.5359428 -1.4740877 -0.69389784 -0.7305122 -1.59048
-2.0182726 -0.5977063 -0.536752 -1.2381873 -1.3007835 -0.6048092 -0.6410504 -0.5717565
-0.699423 -0.5976483 -0.58474535
00000000: e31d 26c0 21fe 27c0 b4a2 32c0 c699 c4bf
00000010: e8ae bcbf 4aa3 31bf d902 3bbf d994 cbbf
00000020: 612b 01c0 4803 19bf 9468 09bf ec7c 9ebf
00000030: 1380 a6bf c7d4 1abf e11b 24bf a25e 12bf
00000040: 630d 33bf 7bff 18bf dfb1 15bf

net_container.0.weight f4 [128, 69]
0.13915926 -0.55498165 -0.04334679 0.07104114 -0.03961814 -0.022932542 -0.040814072 -0.906841
0.029066993 -0.0039769816 -0.062220123 0.2754928 0.19259842 -0.23283614 -0.65260375 -0.34210452
0.44032988 -0.059942424 0.3955825 0.08047019 -0.15775661 0.3359337 0.21998136 -0.03700103
-0.24724506 0.051224004 -0.5702057 -0.013184667 0.2739426 -0.0182191 0.026913904 -0.0004479701
0.015526425 -0.09692913 -0.057513434 0.010576168 -0.06984499 -0.044584967 -0.05411045 0.026869087
-0.063804045 -0.035115387 0.07190908 0.044078168 0.0544902 0.009133008 -0.06798222 0.08817531
-0.0005394948 0.04920813 -0.024699219 -0.07864716 0.048594326 0.03086303 -0.0282698 -0.09150464
-0.0060793287 -0.015311125 0.08061335 0.14057934 -0.014236175 -0.04639386 -0.22474949 -0.013912806
-0.04097338 0.07694298 -0.024613267 0.08708694 0.028428324 -0.089533605 0.02622565 0.426917
-0.17447498 -0.25202024 0.15625307 -0.4031003 0.065462716 -0.032448594 0.2504704 -0.041140597
0.11733872 -0.25295416 -0.541059 -0.18318921 0.11685181 -0.0151250735 -0.071330495 0.34870985
0.087669164 0.01501994 0.28336567 0.0011531827 0.0890903 0.12811211 0.21717983 -0.39337015
0.014723798 0.14743719 -0.026539713 0.001213928 0.008135444 0.06434535 -0.02609429 -0.117278464
-0.0839917 0.008571642 0.032657325 -0.00778181 0.051565554 0.008676885 -0.16373813 -0.042325072
0.03850513 0.063326344 0.020912563 0.11076121 0.043217972 -0.12152405 0.036562994 0.050566554
-0.13825966 0.010372006 0.07897386 0.056326456 -0.090712264 -0.017392475 0.02291371 -0.07409203
0.043489043 0.016106796 0.121999905 -0.31791437 -0.05360515 -0.10554098 -0.1679524 -0.16185942
-0.1634585 0.027353795 -0.08101615 0.6247266 -0.25924733 -0.032174077 -0.017350445 -0.05133054
-0.287521 0.37767583 0.099944234 0.31357616 0.041517723 -0.094632536 -0.15575403 0.021031795
0.23697366 0.004985405 -0.40590146 -0.12248077 -0.113480926 -0.4550343 0.35930184 -0.11927361
0.31221032 0.0068438575 0.2009465 -0.2050339 0.24936707 0.04723947 -0.12972255 0.059909377
0.06065519 0.03168806 0.018240945 -0.00022024791 0.030926282 0.024592599 0.011059911 -0.04278346
-0.03256271 -0.020411914 0.0019427825 0.0485355 -0.019641219 0.05745506 0.004468418 0.046759676
-0.16663608 0.025505064 0.03835862 -0.036764987 -0.024374884 0.15065315 -0.023914525 -0.12988475
-0.048793137 0.062270448 -0.07823739 0.0905192 0.106945015 0.030772556 0.13723432 -0.21632318
0.32678354 -0.096121475 0.03936107 0.071000606 -0.0907687 -0.0019142953 -0.042446002 0.15178527
0.36766237 -0.14205344 -0.10002717 -0.13718028 0.046662804 0.7665762 -0.026923796 0.010989791
0.26911753 0.116648525 -0.08289896 0.26841363 0.14580242 0.75693846 0.6282026 -0.38063428
-0.18138197 -0.07613813 -0.060103197 0.5697883 0.05563814 0.14095302 0.06176585 0.37294686
-0.0066967816 0.36130208 -0.073075905 -0.28079766 -0.053622305 -0.06873733 0.026717382 -0.021956855
-0.04440733 0.018938072 -0.03817865 0.0539413 0.06582463 -0.007973029 -0.002351678 -0.019603707
-0.030743923 -0.004068072 -0.010354805 -0.009457874 0.03582251 0.026681636 -0.0029780215 -0.014734008
00000000: c47f 0e3e 4713 0ebf 678c 31bd 047e 913d
00000010: a146 22bd 07dd bbbc a82c 27bd bb26 68bf
00000020: e71d ee3c 5751 82bb 87da 7ebd 640d 8d3e
00000030: 8538 453e 996c 6ebe 0a11 27bf 5328 afbe
00000040: eb72 e13e 3086 75bd ca89 ca3e 8ecd a43d
00000050: f38a 21be 80ff ab3e cb42 613e 648e 17bd
00000060: cf2d 7dbe 43d0 513d 00f9 11bf 8004 58bc
00000070: 3442 8c3e 3940 95bc 8c7a dc3c 87dd eab9
00000080: 8c62 7e3c c882 c6bd 3593 6bbd aa47 2d3c
00000090: e40a 8fbd ba9e 36bd eba2 5dbd 8f1c dc3c
000000a0: b2ab 82bd 27d5 0fbd 1145 933d 4f8b 343d
000000b0: 1e31 5f3d 9da2 153c 433a 8bbd 4295 b43d
000000c0: e26c 0dba 778e 493d 0456 cabc c311 a1bd
000000d0: d80a 473d 77d4 fc3c 1196 e7bc c966 bbbd
000000e0: 1b35 c7bb 83db 7abc 9d18 a53d 08f4 0f3e
000000f0: d93e 69bc 7d07 3ebd bb24 66be 8af2 63bc
00000100: b4d3 27bd 4894 9d3d c3a1 c9bc a35a b23d
00000110: 84e2 e83c 655d b7bd 2dd7 d63c dd94 da3e
00000120: 92a9 32be cc08 81be ce00 203e 2a63 cebe
00000130: 5111 863d d1e8 04bd a83d 803e 0b83 28bd
00000140: 484f f03d 3583 81be d882 0abf f495 3bbe
00000150: 0050 ef3d 28cf 77bc b915 92bd 198a b23e
00000160: e48b b33d 3216 763c 4e15 913e 6426 973a
00000170: fa74 b63d d22f 033e 6464 5e3e d067 c9be
00000180: 163c 713c c6f9 163e d069 d9bc aa1c 9f3a
00000190: 864a 053c 7fc7 833d b1c3 d5bc b12f f0bd
000001a0: d703 acbd 1370 0c3c b0c3 053d 8efe febb
000001b0: 6736 533d 7e29 0e3c f8aa 27be 0e5d 2dbd
000001c0: 8eb7 1d3d 3eb1 813d d350 ab3c c6d6 e23d
000001d0: 5405 313d 9ae1 f8bd 14c3 153d e01e 4f3d
000001e0: f193 0dbe 59ef 293c 0cbd a13d 92b6 663d
000001f0: 5ac7 b9bd aa7a 8ebc 88b5 bb3c 90bd 97bd
00000200: 9121 323d 66f2 833c 16db f93d acc5 a2be
00000210: 1391 5bbd df25 d8bd b7fb 2bbe 7abe 25be
00000220: aa61 27be 1115 e03c cceb a5bd 15ee 1f3f
00000230: 11bc 84be f7c8 03bd 8522 8ebc f93f 52bd
00000240: f435 93be ba5e c13e 90af cc3d 0e8d a03e
00000250: 7d0e 2a3d b4ce c1bd fc7d 1fbe df4a ac3c
00000260: 39a9 723e 9c5c a33b 51d2 cfbe 33d7 fabd
00000270: b068 e8bd 41fa e8be 69f6 b73e b945 f4bd
00000280: 08da 9f3e 7042 e03b ebc4 4d3e 68f4 51be
00000290: 155a 7f3e 2d7e 413d fdd5 04be 8963 753d
000002a0: 9471 783d 57cb 013d 096e 953c 59f2 66b9
000002b0: 1d59 fd3c 6b76 c93c a134 353c b63d 2fbd
000002c0: 7a60 05bd e336 a7bc f7a4 fe3a 29cd 463d
000002d0: 9fe6 a0bc ff55 6b3d cf6b 923b 1387 3f3d
000002e0: a6a2 2abe ffef d03c ee1d 1d3d e296 16bd
000002f0: d6ad c7bc d244 1a3e 65e8 c3bc 8200 05be
00000300: 50db 47bd 4c0f 7f3d ed3a a0bd 2162 b93d
00000310: fd05 db3d ba16 fc3c 2787 0c3e d383 5dbe
00000320: 2c50 a73e 56db c4bd 1339 213d c468 913d
00000330: f1e4 b9bd 17e9 faba dcdb 2dbd 996d 1b3e
00000340: 3e3e bc3e 7576 11be 0bdb ccbd fd78 0cbe
00000350: 7f21 3f3d 563e 443f 4b8f dcbc 860e 343c
00000360: c6c9 893e 6ce5 ee3d eec6 a9bd 836d 893e
00000370: 3b4d 153e b8c6 413f e3d1 203f 7fe2 c2be
00000380: 32bc 39be 4fee 9bbd c52e 76bd a5dd 113f
00000390: d1e4 633d fd55 103e 30fe 7c3d e4f2 be3e
000003a0: ad70 dbbb 96fc b83e d2a8 95bd b6c4 8fbe
000003b0: 10a3 5bbd 28c6 8cbd 69de da3c ddde b3bc
000003c0: 76e4 35bd 0424 9b3c 3761 1cbd 8df1 5c3d
000003d0: 10cf 863d 4fa1 02bc 9c1e 1abb f497 a0bc
000003e0: aeda fbbc 764d 85bb 33a7 29bc 33f5 1abc
000003f0: a0ba 123d 7293 da3c e92a 43bb e966 71bc

net_container.0.bias f4 [128]
0.13524774 0.001615021 -0.0050549456 0.027066156 0.098842844 0.05787896 0.11168934 0.1383776
0.15737166 0.12794551 0.021466829 0.056151215 0.06608525 0.09523803 0.27560124 -0.10568038
0.18794711 -0.17267533 0.16458258 0.0899205 0.11078392 0.1161145 0.0050416063 0.20173971
0.10044966 0.12622023 0.0062808716 -0.061825715 -0.019623358 -0.07959032 0.053518213 0.043964464
0.1801656 0.090832986 6.1822466e-05 -0.09060865 0.09662514 0.04464274 0.10094864 0.018346716
-0.019840231 0.18125351 -0.12609659 0.037250366 0.1461629 -0.09160488 0.06766635 -0.061387513
0.23058549 0.09828395 -0.061720323 -0.058523975 -0.05421848 -0.07214568 0.06939541 0.057584167
0.1931439 0.06067425 0.102106035 0.13069467 -0.106525615 0.12166916 0.2349389 0.06969252
0.0100383265 0.19464575 0.1279745 0.06942473 0.06484491 0.1325019 0.05439854 -0.15906745
0.1719917 0.15566175 0.05649026 0.045333557 0.18997614 0.08280158 0.12685223 0.083323576
0.041245025 -0.017261438 0.15009089 0.08845998 0.09414037 0.1113314 0.15154676 0.25865713
0.02725697 0.12799665 0.038050093 0.032958627 0.1308249 -0.06311482 0.0047972533 0.08167186
0.011512196 0.00020152901 -0.1129586 -0.067122325 0.1679166 0.04887087 -0.037821196 0.037945278
0.07412913 0.15912607 0.08683791 -0.048751332 0.016303828 -0.10288057 -0.04897143 0.13142343
-0.033201113 -0.07334744 0.21911363 0.18439348 -0.05627336 0.09874214 0.030537585 -0.012905229
0.037817385 -0.04869107 0.21825507 -0.05001336 -0.036031026 -0.1705768 -0.0839412 0.06306534
00000000: 627e 0a3e 1daf d33a f5a3 a5bb d8b9 dd3c
00000010: 1e6e ca3d 7d12 6d3d 61bd e43d dcb2 0d3e
00000020: 0926 213e 2604 033e 34db af3c d1fe 653d
00000030: b457 873d 280c c33d 9b1b 8d3e f46e d8bd
00000040: 3575 403e cdd1 30be 5688 283e 3d28 b83d
00000050: aee2 e23d 70cd ed3d 0f34 a53b db94 4e3e
00000060: 8db8 cd3d e03f 013e c5cf cd3b f63c 7dbd
00000070: 2ac1 a0bc 4000 a3bd ea35 5b3d 1514 343d
00000080: 557d 383e a506 ba3d afa6 8138 0791 b9bd
00000090: 67e3 c53d 4edb 363d 29be ce3d da4b 963c
000000a0: fb87 a2bc 859a 393e 771f 01be d793 183d
000000b0: baab 153e 579b bbbd a894 8a3d 7971 7bbd
000000c0: 9a1e 6c3e 1849 c93d 73ce 7cbd d6b6 6fbd
000000d0: 3214 5ebd 1dc1 93bd 2e1f 8e3d 60dd 6b3d
000000e0: 84c7 453e 9085 783d f81c d13d d3d4 053e
000000f0: 1a2a dabd ae2d f93d d393 703e f4ba 8e3d
00000100: cb77 243c 3751 473e bf0b 033e 8e2e 8e3d
00000110: 68cd 843d 94ae 073e 01d1 5e3d 94e2 22be
00000120: 981e 303e cb65 1f3e 5562 673d aeaf 393d
00000130: 1b89 423e e093 a93d 8de5 013e 8da5 aa3d
00000140: 8bf0 283d dc67 8dbc 6db1 193e 822a b53d
00000150: abcc c03d b801 e43d 132f 1b3e b56e 843e
00000160: 024a df3c 8e11 033e 6ada 1b3d a0ff 063d
00000170: f6f6 053e 5842 81bd 4732 9d3b 9343 a73d
00000180: a69d 3c3c 8851 5339 d756 e7bd 6e77 89bd
00000190: 54f2 2b3e d22c 483d 66ea 1abd 826c 1b3d
000001a0: 03d1 973d f2f1 223e 13d8 b13d 7aaf 47bd
000001b0: 9b8f 853c 0cb3 d2bd 4496 48bd dd93 063e
000001c0: e4fd 07bd 2f37 96bd 535f 603e a5d1 3c3e
000001d0: e57e 66bd 5239 ca3d f529 fa3c 7470 53bc
000001e0: 67e6 1a3d 4a70 47bd 427e 5f3e cfda 4cbd
000001f0: 4595 13bd afab 2ebe 5de9 abbd 6728 813d
