humanoidprac/humanoidprac/scripts/skrl/logs/skrl/h1_flat/joint_experiment_ver3/2025-09-18_03-27-25_ppo_torch/checkpoints/agent_19200.pt (torch, 549970 bytes, 40 tensors)

log_std_parameter f4 [19]
00000000: c76e 49c0 51da 48c0 5c01 53c0 ab38 d9bf
00000010: 1947 dbbf 117b 58bf 7383 5cbf bc17 00c0
00000020: 05bc 14c0 4ced 2dbf fa21 22bf 1858 bbbf
00000030: c4ba c7bf 7b3a 27bf 620f 49bf 9e11 38bf
00000040: 5283 55bf 2380 3cbf ac97 24bf
-3.1473863 -3.138325 -3.296958 -1.6970419 -1.7131072 -0.84562784 -0.86138076 -2.0014486
-2.3239758 -0.6794021 -0.63333094 -1.4636259 -1.5603871 -0.6532361 -0.785391 -0.7190188
-0.83403504 -0.7363302 -0.6429393

net_container.0.weight f4 [128, 69]
00000000: fbb4 193e a8ce 1cbf a681 17bd e2c1 963d
00000010: 4ed7 4dbc 8943 cfbb 914d cfbc 30b9 6bbf
00000020: 4ac6 e63c 0d9c 05bc 87da 7ebd f2e2 993e
00000030: 4bdd 373e 8dbf 6cbe defd 2ebf cbf5 cfbe
00000040: ce3f eb3e 1734 6fbd 7110 c33e edcc 943d
00000050: 5726 29be 3a3f aa3e 8b73 7b3e 919e 0cbd
00000060: 98e7 81be 4c96 2b3d 71dd 13bf 21ae 9a3b
00000070: 720b 993e 139f c3bc 2ffd 303c 3c6e bf3b
00000080: 438d 003c 11b8 e3bd e5fb 52bd bec1 8f3c
00000090: a605 80bd 8e64 39bd 151d 32bd 91ff b53c
000000a0: b940 2fbd c97d 04bd 09d5 8d3d 0068 143d
000000b0: 7c14 6e3d f158 3d3b d49a 8abd 6ffe c63d
000000c0: b0e0 96bc 06aa 683d b684 77bc 8473 d6bd
000000d0: 50b9 003d 611a 003d 556e 6fbb 062d c9bd
000000e0: 5ee6 64bc 8e20 4abc 885c a03d 0ac4 f33d
000000f0: fb24 dfbc 0302 27bd 9a12 6cbe cecf 40bc
00000100: 468d 26bd a56f a63d b321 5dbd 2bb5 c23d
00000110: 2a7c 003d e827 b0bd 32ad 1f3c 4ba5 d83e
00000120: 0a06 3abe dbe0 85be 9dd6 3e3e e68c d4be
00000130: 543e a43d 73b4 0cbd 0052 863e 0b83 28bd
00000140: d499 d13d bbe8 95be 4fb6 06bf 994a 36be
00000150: bf91 ca3d 6143 69bc 668a 99bd a7f4 a53e
00000160: 5a00 aa3d f031 7e3c d945 8c3e 99a2 7dbc
00000170: f027 b83d 39a0 033e 98c3 603e 71bb cdbe
00000180: 6964 f8bb 6fbc 213e 9134 f5bc e744 abbb
00000190: 8bb7 bd3c db90 133d 0c55 b4bc c8e3 f3bd
000001a0: 68ad 95bd 9d2d 4c3a 1a1b 203d 0290 22bc
000001b0: c5bb 403d f21c e23c 8a5b 1cbe 1b04 2dbd
000001c0: 5b7b 173d 16b4 8a3d 47e7 a63c c7de ce3d
000001d0: bc53 413d 7ba0 c2bd 8674 363d 2f6b 883d
000001e0: 001f 18be 4e4b 6e3c 548a 9d3d 7d72 343d
000001f0: 166a a6bd 4746 b2bc 0506 da3c fab5 a1bd
00000200: 5ea8 113d 9a05 913c 7270 003e c2eb a3be
00000210: c69b 60bd a47d a2bd d53c 19be 698b 2abe
00000220: 1486 08be d31a b33c 1ff1 c6bd 914a 203f
00000230: ab5e 8dbe 3203 32bd 8f7e ddbc d44d 9abd
00000240: a1fb 8bbe 3062 c43e 3297 c93d 2607 a93e
00000250: 7d0e 2a3d 10f4 97bd ce1b 4abe 22eb c1bc
00000260: f30a 873e 3c2d 733d f9c1 ccbe a129 e7bd
00000270: 671a 8abd 424c f3be 762d bf3e cb7c e7bd
00000280: ef0b 873e 77f9 5f3c 4110 563e 3cf9 33be
00000290: 6f01 6c3e dcc7 cb3c ac85 0abe c12d 3c3d
000002a0: 4f81 823d 7a66 173d 261a 1cbc 0bfd 773a
000002b0: 57d5 bb3c cbca 813c 2623 8d3c dd09 84bd
000002c0: 4c0e 1abd 36c5 e3bc 68cc 1dbc d7ad 833d
000002d0: 6032 71bc d461 633d 14af 4b3c b81d 943d
000002e0: 573b 14be 1f79 903c 7e70 1b3d c50b 0cbd
000002f0: bae5 78bc bb9b 123e 71fe a3bc d88c 00be
00000300: 590a 8abd 93d2 993d 39f9 c8bd 000b a43d
00000310: 5b31 d73d 9243 db3c be10 ff3d 2870 64be
00000320: 8bac a73e 2864 a1bd 1165 163d 4d38 8e3d
00000330: 40fb 74bd 2701 a5bc 2bf3 1cbd 72a8 1c3e
00000340: 8c9f b83e 80f6 05be 6e03 ccbd ac75 20be
00000350: 4de5 673d 3fe8 423f 3419 4abd f8fc 163c
00000360: 4f0d 913e 6ce5 ee3d 1286 aebd 62e5 8f3e
00000370: 81de 523e 4ec8 4d3f c1d1 213f 3776 b6be
00000380: fd17 44be 00ed 91bd 8670 8cbd e39a 0f3f
00000390: a675 783d 1521 063e 2e4f 8c3d d952 c33e
000003a0: 7746 43bc 2211 b93e a98b 78bd 12c7 98be
000003b0: 58d7 28bd dfca 2ebd 649a 013d 0ad1 00bd
000003c0: 2291 32bd 6944 7e3c 4cd2 43bd ff8a 493d
000003d0: ed6c 863d 87a9 49bc dafd e3bb ce4b c8bc
000003e0: 7d00 cebc 411b 0d3a 7bbf 6cbc 2d4b eabb
000003f0: 70c0 fa3c 1c7f cd3c d98a 88bb ea76 24bc
0.15010445 -0.6125283 -0.036988877 0.07361199 -0.01256354 -0.0063251895 -0.025305541 -0.9207945
0.028170723 -0.008154881 -0.062220123 0.30055958 0.1795551 -0.23119946 -0.6835612 -0.40617213
0.45947117 -0.058399286 0.3809848 0.07265649 -0.16518532 0.33251363 0.24555795 -0.03433091
-0.25372005 0.04189138 -0.5775977 0.004720465 0.29891545 -0.023879563 0.010802551 0.0058419984
0.007846179 -0.11119092 -0.051509757 0.017548438 -0.06251077 -0.045261912 -0.043484766 0.02221659
-0.042786334 -0.03234652 0.06925399 0.036231995 0.058125004 0.0028892125 -0.06767812 0.09716498
-0.018417686 0.056802772 -0.015107324 -0.104712516 0.031426728 0.031275157 -0.003653427 -0.09823041
-0.013970939 -0.012336863 0.07830149 0.11902626 -0.027239313 -0.040773403 -0.23053971 -0.0117682945
-0.040662073 0.08126763 -0.053987216 0.09507211 0.031368412 -0.086013615 0.009745883 0.4231361
-0.18166366 -0.26148114 0.18636556 -0.41513747 0.08019701 -0.034351777 0.26234436 -0.041140597
0.102344185 -0.29279122 -0.5262193 -0.17801894 0.0989108 -0.014237256 -0.074971005 0.32413217
0.08300848 0.015514836 0.2739704 -0.015480661 0.089919925 0.12854089 0.21949613 -0.4018207
-0.007580329 0.15794538 -0.029932292 -0.0052267197 0.02315881 0.036026817 -0.02201321 -0.1190868
-0.07308465 0.00077887793 0.039088346 -0.009922029 0.04705407 0.027601693 -0.15269294 -0.042240243
0.036982875 0.0677263 0.020373954 0.10101085 0.047198996 -0.095032655 0.04454472 0.06661069
-0.14855576 0.014544321 0.076923996 0.044054497 -0.08125703 -0.021762026 0.026614198 -0.078960374
0.035560958 0.017702866 0.12542894 -0.32015806 -0.054836057 -0.0793412 -0.14964612 -0.16654743
-0.13332397 0.021863377 -0.09713959 0.6261378 -0.27611288 -0.04346008 -0.027037887 -0.07534376
-0.27340415 0.3835616 0.09843291 0.33013266 0.041517723 -0.07419598 -0.19737169 -0.02367169
0.2637554 0.05936931 -0.3999174 -0.11287237 -0.06743317 -0.47519118 0.3733937 -0.11303099
0.26376292 0.013670317 0.20904638 -0.17575544 0.23047422 0.024875574 -0.13527554 0.04594207
0.0637232 0.036962964 -0.009527719 0.00094600086 0.022928877 0.01584377 0.017228674 -0.06447194
-0.03761129 -0.027803998 -0.009631254 0.06429642 -0.014721483 0.055513218 0.012431879 0.07232231
-0.14475761 0.01763588 0.037949078 -0.03419091 -0.01519149 0.14317219 -0.020018788 -0.12553728
-0.06740255 0.07510867 -0.098131604 0.080099106 0.10507461 0.026765618 0.12454365 -0.22308409
0.32748827 -0.078804314 0.03671748 0.06944332 -0.059809923 -0.020142151 -0.03831784 0.15298632
0.36059225 -0.13082314 -0.09961592 -0.15669888 0.056615163 0.7613563 -0.04934044 0.009215586
0.28330466 0.116648525 -0.08521666 0.28104693 0.20592691 0.80383766 0.63210684 -0.35637066
-0.19149776 -0.07125282 -0.068574 0.56095713 0.060659073 0.13098557 0.0685104 0.38149145
-0.011918656 0.36145884 -0.060680065 -0.2983938 -0.041220993 -0.04267394 0.03164138 -0.031449355
-0.04359544 0.01551924 -0.047807977 0.049204823 0.06563745 -0.012308485 -0.0069577517 -0.024450209
-0.025146717 0.00053827843 -0.014449949 -0.007150075 0.03060934 0.025085025 -0.0041669426 -0.010038117

net_container.0.bias f4 [128]
00000000: be4f 0d3e fde3 043b 943d dabb 1205 d73c
00000010: 9703 d13d 7290 5b3d 6740 d93d c136 093e
00000020: 06b1 203e 7d36 073e e432 ae3c 8e33 723d
00000030: 762e 7b3d 75a0 d43d 742e 8f3e 785c ddbd
00000040: eb07 453e 5a9d 26be fbd1 253e ecca af3d
00000050: 2fd3 e73d 71d4 f33d 489e f63b aee9 533e
00000060: 2380 ca3d 774c 093e 08db 2c3b da06 83bd
00000070: 2e15 25bc a424 91bd 609e 3c3d 4841 2e3d
00000080: 406f 3b3e b9b1 b53d 6572 163c db56 a9bd
00000090: 07d8 c13d 53e1 1b3d ea57 dd3d 0d30 673c
000000a0: 71e6 35bc 309c 373e 429a f4bd cd4b 133d
000000b0: 21bd 173e db16 c3bd 1d4c 883d 2889 5abd
000000c0: 9358 673e 90a2 c23d 7d2f 84bd 8393 8cbd
000000d0: a61f 65bd ceab 90bd ef7a 8a3d 7baf 5a3d
000000e0: 03b0 473e 52c4 653d d18d c83d 4707 083e
000000f0: c866 d2bd 6312 fc3d d494 723e 8120 813d
00000100: c3d1 513b dda8 4f3e 16a6 043e 6ea4 933d
00000110: 1c0a 8d3d cc4a 0a3e 0e6f 5a3d a02c 20be
00000120: 1382 2e3e ee1d 173e 3eb5 5c3d 98a5 483d
00000130: 3f50 453e a721 a83d b4ae ee3d 2540 aa3d
00000140: ecda 313d 0347 d4bb ca6a 173e cf20 af3d
00000150: 886c c83d 1f2b e73d b51b 1b3e ea98 853e
00000160: f823 be3c 9faf 003e 150a 2b3d 883a 0f3d
00000170: 0fb9 023e 9b5a 8fbd aa70 433c 0e4a b13d
00000180: 19d8 e7b9 e872 51bb b8dd e1bd 2977 8dbd
00000190: 9f5d 273e f6ed 363d 1da5 16bd 5b84 1f3d
000001a0: ddc4 8d3d 931c 203e d89c b63d 8f21 3abd
000001b0: bc0b 973c 9aec ccbd 5f0d 3fbd f7d2 0a3e
000001c0: 8ec5 a7bc 123c 91bd f9fa 603e a676 373e
000001d0: cf31 54bd 34db c83d 4660 fd3c c472 a6bc
000001e0: 4ba2 0d3d 2a3c 4ebd abab 5a3e 62da 5fbd
000001f0: 739a 0bbd 5ab5 28be aee5 acbd 8cc0 713d
0.1379995 0.0020277493 -0.0066601727 0.026247535 0.10205763 0.05360455 0.10607987 0.13399793
0.15692529 0.1320438 0.0212645 0.059131198 0.061323605 0.10382167 0.27965128 -0.10808653
0.19241302 -0.16270962 0.16193382 0.08583626 0.11319577 0.11905754 0.007526193 0.2069461
0.098877214 0.13408075 0.002637567 -0.06397791 -0.01007585 -0.07087067 0.046049476 0.042542726
0.18304157 0.088717885 0.009182547 -0.082685195 0.09465032 0.038056683 0.10807784 0.014110577
-0.011102305 0.17930675 -0.11943485 0.03596096 0.1481824 -0.09525844 0.066551425 -0.05335346
0.22592382 0.095036626 -0.0645437 -0.06864073 -0.055938385 -0.07064019 0.06761729 0.053390007
0.19500737 0.05609543 0.09792674 0.13284026 -0.1027351 0.123081945 0.23689586 0.06305028
0.0032015897 0.2027926 0.12953982 0.07209097 0.06886694 0.13505095 0.053328566 -0.15642023
0.17041807 0.14757511 0.053883784 0.048986048 0.19268893 0.08209544 0.11654416 0.08313016
0.04342167 -0.006478192 0.1478683 0.085511796 0.09786326 0.112875216 0.15147288 0.26093227
0.02321051 0.12566994 0.04175766 0.03496793 0.12765907 -0.069997035 0.011928717 0.08656703
-0.0004422076 -0.0031959359 -0.110286176 -0.069074936 0.16344307 0.04466053 -0.036778558 0.038944583
0.06922314 0.156359 0.08916634 -0.04544216 0.018438213 -0.10006066 -0.04664361 0.13557039
-0.020479944 -0.07091536 0.21970738 0.17916355 -0.051805314 0.09807435 0.030929696 -0.020318396
0.034578603 -0.050350346 0.21354549 -0.054651625 -0.03408284 -0.1647543 -0.084422454 0.059021518

net_container.2.weight f4 [128, 128]
00000000: 4794 e33c 5c21 b0bd 7f6f 393c 8e0c 03bc
00000010: 83f9 2c3d 6364 3bbb 6267 533d 67b5 ddbd
00000020: a373 92bb 889d 173e e286 69bd a22b 3dbd
00000030: cd83 ec3d 80c0 61bd 76af 373d cb7f a33b
00000040: 6ae5 bfbc f236 933d a2bb 213d e026 753d
00000050: 144d 263d adc6 823d 26cc 83bc 046b 99bd
00000060: 5100 02be 085c 1bbd a391 aabd e465 c13d
00000070: a796 ed3c d2f9 613d 1a32 453c 3766 613d
00000080: 1f40 f9bc e6b7 93bd b984 08bd c2b6 f9bc
00000090: 16f9 1ebd 4613 1e3d ade3 583d 59f7 7e3d
000000a0: 84d0 b63d c22a 473d 1c14 e6bd 0e90 fdbd
000000b0: 4d61 013d 4436 1d3d 98ae 9dbd 0a6e 8d3d
000000c0: b08d e73d 9d6b 483d 459c 9c3d 0e6e 223d
000000d0: 109e 39bc 88ad 8abd dd96 75bd b551 33bd
000000e0: adb7 d1bd 5bcd c8bd a7e2 bd3d 9890 183d
000000f0: 19d0 383d 65bc 3f3d a640 ba3d 9a5e a2bd
00000100: febd 6cbc cbcb 01bc 1f73 09bd 73c7 6fbd
00000110: 9b03 a6bc 8a80 123d 8bbb 423d 81f3 263d
00000120: 6b0c d03d 2a3e 32bd ce59 11be 630a 153d
00000130: f272 8d3c f848 e0bd 87ed d33d 766c c43d
00000140: 2f4e 383d 5e90 833d 1e00 023d 6642 723d
00000150: b843 e5bd 481e cf3d 984e 94bd b33f 50bd
00000160: 3c04 b53d dfd2 f8bc 2b4d 1bbd b98c 4abd
00000170: 8d8c 41bd a47b 4f3c 5fae dfbd b5cd 08bd
00000180: 637a 0d3e 478d ac3c f380 ebbb 655a b23c
00000190: 58e0 513d 20cb b73b 83b9 81bd 5dd6 26bc
000001a0: a390 333d 427f 3bbd 953d 90bc 9150 debc
000001b0: efb7 733d b733 003d 8490 f1bc dcca 68bd
000001c0: df37 cf3c 70d1 843c 1a53 41bd 3d3b a1bd
000001d0: b692 c1bd 278a b8bd c482 1f3d 4a28 113d
000001e0: 9d80 2cbd 0cac 76bd 9f63 2bbd 21e9 663c
000001f0: f5e4 53bb d738 633d 76a1 533c d7ad ddbd
00000200: 2996 e23c 6b58 843d 1748 1cbe a2c4 073d
00000210: 69f2 743d 2863 2b3d 5cfb 193e 6364 023e
00000220: e764 60bc 4687 3cbd faf6 5bbd 69fa db3d
00000230: e717 cdbd 4454 7e3d 5365 a3bb 6bf6 a23d
00000240: f398 a53d b805 b93c 7b7b 1abd cf64 67bd
00000250: f3c8 41bd eda4 55bd 30db ba3d 716a aebc
00000260: b201 a73c 689c c2bc e747 e3bd ffe2 c83d
00000270: c746 a3bc d72c b93b ae88 0b3d fb8c 09be
00000280: 4497 f4bc 281f 9cbc 910c 52bd 6319 60bd
00000290: 1f93 863d 786e 0e3d 68c7 a0bd b980 99bd
000002a0: 1d7b ff3d af5c b33d b2cd 61bc fd87 1b3e
000002b0: b8c1 33bd 97c4 f8bc 41db 383d 1051 a1bd
000002c0: e23a 09bc dbc1 ddbc 8e8e 7dbc 3b20 e8bd
000002d0: cef0 083c 0a9e 58bb a986 393c b930 e7bc
000002e0: 0ed9 96bd 03e7 543c d10f 82bd 0c54 813d
000002f0: 4359 15be 5240 37bc e409 31bd eec0 123e
00000300: 9ffd edbd 8a25 19be 98cc 193d e203 b2bd
00000310: 40f7 2fbd 6a49 b73d 7c05 ca3d e78b 67bd
00000320: 4b16 db3c 1597 063e 6213 d1bd 57c6 edbd
00000330: ef26 c9bc 55d5 92bc ae19 2e3d c952 42bb
00000340: 7c6b 2bbd 05cd 0bbe 6a50 a33c 8a5d 533d
00000350: 4065 d1bd ed26 bc3d 2514 c03d a0cd 58bb
00000360: 7dd7 b8bc 8c1f e3bd ad25 07be e527 02be
00000370: 9d79 303d 4717 ce3d cbcf 16bd 3b26 d7bc
00000380: eb98 103c d517 3a3e 3ca8 8b3d ad5f 9b3d
00000390: 84cf c1bc f5df afbd 3799 6fbd 5da8 c33d
000003a0: 71ae 8dbd 3410 42bd 68aa adbd 102d 09be
000003b0: 334e a93d 9a03 cc3c 539b 4cbd 9e60 16be
000003c0: 5a2f f3bd e138 aa3d 20f7 df3b cfde fcbb
000003d0: fc49 21bd 794f 563d d108 27bb 42d9 4c3d
000003e0: 78ea 193e da42 23bd 3c10 24be cf1d fabd
000003f0: bb75 3bbd 0c84 72bd 2268 1e3d 309c bbbd
0.027780665 -0.08600113 0.011318087 -0.007998599 0.04223014 -0.002859377 0.051612265 -0.108256154
-0.0044693514 0.14806187 -0.0570134 -0.04618419 0.115485765 -0.055115223 0.044845067 0.0049895993
-0.023424823 0.07188214 0.03948558 0.059851527 0.04060085 0.06385551 -0.016088556 -0.07491115
-0.12695433 -0.037929565 -0.08328559 0.09443262 0.0290025 0.055169888 0.012035871 0.05502912
-0.030426083 -0.0721281 -0.0333297 -0.030482654 -0.038811766 0.0385926 0.052951504 0.062247608
0.0892649 0.04862476 -0.11234304 -0.12380992 0.031586934 0.03838183 -0.07699317 0.06905754
0.113063216 0.048930753 0.076469935 0.039655738 -0.011329189 -0.0677138 -0.059958328 -0.043779094
-0.102401115 -0.098047934 0.09271746 0.03724727 0.045120332 0.046810526 0.09094362 -0.079282
-0.014449595 -0.007922123 -0.033557054 -0.05853982 -0.020265391 0.035767116 0.047542136 0.040759567
0.101586185 -0.043516316 -0.14194414 0.03638686 0.017266724 -0.10951418 0.10348039 0.09591
0.044996437 0.0642402 0.031738393 0.059145354 -0.11194557 0.101131976 -0.07241553 -0.050842
0.08838698 -0.030373989 -0.03791539 -0.04945061 -0.04725318 0.012663756 -0.109219305 -0.033399303
0.13816218 0.02106346 -0.007187003 0.02177162 0.05123934 0.005608931 -0.06334212 -0.010182944
0.04383911 -0.04577566 -0.01760749 -0.027138026 0.059501585 0.03129932 -0.029487856 -0.056834087
0.025295196 0.016213149 -0.047198392 -0.07872627 -0.09451811 -0.090107255 0.038943067 0.035438813
-0.042114843 -0.06022267 -0.041843053 0.014093668 -0.0032332514 0.05547413 0.012916913 -0.10824173
0.027659493 0.06462177 -0.15261875 0.033146508 0.059801493 0.04184261 0.15037292 0.12733607
-0.013695932 -0.046027444 -0.053702332 0.10741121 -0.10014325 0.06209208 -0.004986444 0.07957157
0.080858134 0.022585735 -0.037715416 -0.056492623 -0.04731078 -0.05215924 0.09123838 -0.02129099
0.02038655 -0.023756221 -0.11097699 0.09808921 -0.01993121 0.0056510973 0.034065895 -0.13432686
-0.029857285 -0.019057825 -0.051281516 -0.05471171 0.0657103 0.03477332 -0.07850534 -0.07495255
0.12474654 0.08757912 -0.013781952 0.15188594 -0.043885916 -0.030367179 0.04513097 -0.078767896
-0.008375855 -0.027069977 -0.015475882 -0.113342725 0.008358194 -0.0033053183 0.011323609 -0.028221475
-0.07365619 0.012994531 -0.06350673 0.06314859 -0.14584832 -0.011184769 -0.043222323 0.1433141
-0.1162064 -0.14955726 0.03754863 -0.08692147 -0.042960405 0.089495495 0.09864327 -0.056529906
0.026744029 0.1314357 -0.10208775 -0.11610096 -0.024554698 -0.01792399 0.04250496 -0.0029651395
-0.041850552 -0.13652427 0.019935805 0.051602878 -0.1022439 0.09187112 0.09378842 -0.0033081546
-0.02256369 -0.110900015 -0.13197966 -0.12710531 0.04308473 0.100630336 -0.03681926 -0.026263347
0.008825521 0.18173154 0.068191975 0.07586608 -0.023658521 -0.08587638 -0.058495726 0.09553597
-0.06918038 -0.047378734 -0.08479768 -0.13396096 0.082668684 0.024904061 -0.049952816 -0.14685294
-0.11874266 0.0831163 0.0068348795 -0.0077169905 -0.039377198 0.052321885 -0.0025487433 0.05001188
0.15030849 -0.039858676 -0.16021818 -0.12212717 -0.045766573 -0.05920796 0.038673528 -0.0916065

net_container.2.bias f4 [128]
00000000: 88c3 cb3d 3294 01be 1266 39be db71 8e3b
00000010: 397e f8bd c3bf 0cbe 5c11 673c d510 a13d
00000020: 5590 7a3d 0ac5 f8bd 9302 fa3d f1bd 9cbd
00000030: e4b0 823d 43b1 b0bd 509a 473d 2749 813c
00000040: a5dc 91bd c69c 623c fa9e 8abd 51d2 8f3d
00000050: df99 d73d a9d6 05bd f067 873d c26d 30bd
00000060: 5594 09bc b919 9b3c 950f 5e3d b807 25be
00000070: 3603 403d cf48 b3bd 9593 e1bd 5e67 403c
00000080: 634e 88bd 4d0b debd c287 863d 553b 8bbd
00000090: dfe0 65bd 2926 eebc 7a3a 803b b3fb d2bd
000000a0: defa 1fbe 6e4e 27bc 3a41 95bd 5c2c aa3c
000000b0: 0235 433c f6b5 ed3d e0e3 3b3d f13b 593d
000000c0: 2d46 4f3d c209 dabd 04aa 8c3d 7b81 95bd
000000d0: ffd6 9abc 2804 7c3d 4631 9bbd 0d60 21bd
000000e0: 0abc c63d 1940 febd 4405 ab3d 5f28 f33d
000000f0: 7acd 19be 5c82 88bd b1a2 10be d820 533d
00000100: 866d 35bd 587a aebd a0f0 a43d 2871 b53c
00000110: 5f1b cabd ac43 493d dfc2 cabd 1f94 b4bc
00000120: a85e 02bc 9ab6 7b3d db02 acbd dcbd 513d
00000130: 9673 af3d b9f6 c5bd 7bc8 42bd 2878 88bc
00000140: 9dbe 13bb 9a50 adbd 4d48 813d d485 1abd
00000150: 0a7f 0cbe 1802 0d3d 0624 2b3d 5acc bf3d
00000160: 513b 773d 3228 a8bd 7356 d1bd 0855 013d
00000170: fe22 02be b708 d8bb a5d9 c5bd 4939 6d3d
00000180: 5aae 3abd 60ce fbbb 79a4 25be 17d3 733d
00000190: f9cd 16be 825e 5dbe 23ab 84bd 822a 39bc
000001a0: e7c5 b1bd 5892 c5bd ede9 1abd bde2 66bb
000001b0: 9f74 fabd 86c5 38bd 46bb eb3d 989a 92bc
000001c0: 6ef0 edbd 00d8 b43c 9a11 c63d 60d0 39bd
000001d0: f489 b23d e68d c6bc c107 8dbd 45bd 6ebd
000001e0: 47f1 9a3d c4d6 1ebe ab54 733d 0155 d9bc
000001f0: fe13 bd3d d435 c93c 69da 01bc fb01 0bbe
0.09949404 -0.12654188 -0.18105343 0.0043470687 -0.1213345 -0.13745026 0.01410326 0.078645386
0.061172802 -0.12146957 0.12207522 -0.07653416 0.063813955 -0.0862756 0.04873115 0.015781952
-0.07122163 0.013831323 -0.067686036 0.070225365 0.105273955 -0.03267542 0.066116214 -0.043073423
-0.0083971815 0.018933164 0.05421408 -0.16116226 0.046878062 -0.087541215 -0.11014477 0.011743395
-0.06655576 -0.10841999 0.065688625 -0.06798426 -0.056122657 -0.02907093 0.003913221 -0.10301914
-0.15623042 -0.01021157 -0.072878316 0.020773105 0.0119144935 0.11606972 0.045871615 0.05303568
0.050604034 -0.106463924 0.068683654 -0.07300087 -0.018901346 0.0615274 -0.075777575 -0.03939824
0.09703834 -0.124145694 0.08350614 0.118729346 -0.1501979 -0.06665489 -0.14124562 0.051544994
-0.044293903 -0.08519429 0.08053708 0.022148684 -0.09868502 0.049136803 -0.0990045 -0.022043286
-0.007957138 0.06145344 -0.08398982 0.051206455 0.08566968 -0.09666199 -0.047554474 -0.016658857
-0.0022544034 -0.08462639 0.063126184 -0.037725285 -0.13720337 0.034425825 0.0417824 0.09365149
0.060359303 -0.08210792 -0.10221567 0.031575233 -0.12708661 -0.0065928358 -0.09660653 0.05791596
-0.04557643 -0.007684514 -0.16176023 0.059527483 -0.1472701 -0.21618083 -0.06477954 -0.011301639
-0.08680325 -0.096470535 -0.037820745 -0.0035230361 -0.12229275 -0.045110248 0.11510329 -0.017895982
-0.11618124 0.022075653 0.09671326 -0.045364738 0.08717719 -0.024237584 -0.068862446 -0.05828597
0.07565551 -0.15511614 0.059406918 -0.02652979 0.09232329 0.0245618 -0.007925608 -0.13574974

net_container.4.weight f4 [128, 128]
00000000: 4926 70bd 66ec d93d 5f6a 3bbe 0fdf 2fbd
00000010: 64eb 5f3c 671c 99bd 141c 7a3d e004 8a3d
00000020: 0069 c03c 3e94 26bd 9a8e 0dbd 6018 08bd
00000030: 9f73 973d 5656 0dbd 08e7 2ebd 4c1c cdbc
00000040: 697d 70bd c3f9 6abc fbcb 3f3d d187 203d
00000050: f943 12be 6fb6 c2bd 652f ce3d 8190 60bc
00000060: d44f 9a3d ab04 bf3b 2ae1 64bc babf bcba
00000070: e248 853d f9c0 d73d 9e9a 7abc 96ec 90bc
00000080: a9d9 c63c f031 81bc cf17 8dbd 4782 23bd
00000090: 93c1 62bd 9809 a0bd 52ae 6a3c 51db 32bc
000000a0: f27d cabc 80fe a03d 8c6a 853d c1a0 7dbd
000000b0: 9c1c 9a3d 3502 0cbc c64e 76bc 2d6b f53d
000000c0: 22d4 3cbd cee5 0bbc 5cc6 a13d b05c 343d
000000d0: f9dc ce3d edc4 15bd 2c1e ba3c 55c4 11be
000000e0: 1a74 2dba 3968 28bd bcb4 8bbd 8065 363d
000000f0: 52a3 6f3d 96f7 9fbb ecab eb3b 56c8 303d
00000100: 0ee8 5ebd 74ee 9ebd c890 98bd 4588 88bd
00000110: 51eb b93d 541a 0c3d 57bd a33a b468 7a3d
00000120: 38f9 003e 2312 ddbc f32e b2bd dc62 0bbd
00000130: dfcf 4b3c 210a 83bc c76b 4c3d 340b e9bc
00000140: 096f 323d 9f4d 453d aec6 86bd 5560 8abd
00000150: 4abe 5c3d 46f9 da3d 24d2 843c b7fe 4a3d
00000160: 41ef 84b9 2d9a 093b 36b3 803c 339d 55bd
00000170: 1035 073d eb73 593d 6f8f a3bc 6fa5 f7bd
00000180: bb2f aebc 115e ae3d e421 77bd 36f4 3f3d
00000190: 1972 493d e324 543d 9f9f 673c d844 703c
000001a0: 3e87 813d 1373 8fbb 7b49 743d 09fc febc
000001b0: e666 0dbd d265 72bd a781 d73c 7f36 733d
000001c0: c1d6 9abb 0b74 adbc 2b96 113d 0648 673d
000001d0: 58b1 c0bd 8421 2e3d 48e4 7ebc 43df 4abd
000001e0: 15be 303d 39b0 b6bd 6c04 42bd d362 aa3d
000001f0: e9fd 6cbd a567 81bd b0c9 d43d a3a9 54bc
00000200: a018 af3d 8ed6 81bd bb0a cbbd 697e 963d
00000210: 2a4b 173e 2d72 9dbe ee6b f93b 8bde c8bd
00000220: 59ca 9abd a5e0 5ebd 96e2 393d 04c4 51be
00000230: f58a 6a3c 318b 5b3d 9e2d d23c 28a3 1dbd
00000240: 813d 3d3c 9ced 9cbd afe8 65bd 0dff f73b
00000250: 7821 89bb fdc7 363c a58d ea3c b6ab 323d
00000260: bd9b 4b3d b3f8 663d 11f7 013e d1d3 c6bc
00000270: 454a 513d bbab d8bd 5fa8 8a3d 633a 4e3e
00000280: f578 48bc d445 cc3d 1193 bcbc d108 0abd
00000290: 0cf0 a7bc 243c 34bd 73a6 31ba 1936 bebc
000002a0: f092 bd3d c262 a1bc 4b69 04be aca2 ba3d
000002b0: 39d6 28bd bf01 9cbc b070 c3bd 8475 48bc
000002c0: 7ddf b1bc eb65 b2ba fccd 113d 266c 1e3d
000002d0: b30f dbbd e125 3fbc a5c1 05bd 5da2 2fbc
000002e0: 3fc7 25bd 6cac 143d 047d 0d3d 6ae9 fbbc
000002f0: bfca 3c3d 84f8 d13d 1a86 983d eda9 10be
00000300: 58a3 7a39 c5b5 ffbd db3d da3d 23c2 713d
00000310: e6c7 7e3d 1037 5bbc 9f4d d0bc 76fd 3dbe
00000320: 1c6c 9c3c 4a2a f6bd 8b0d 4abd 0f33 013d
00000330: b692 a83b 6082 16bd cf8c eabd 60ad e7bc
00000340: 6694 cabd 366a fd3b acbf 03bc d8df a73d
00000350: 7fd8 84bb 5d42 7ebd be9c 23be c6a6 adbd
00000360: ce36 673d f525 f1bd f306 9e3c d445 a3bd
00000370: dbb3 783d 78f9 86bd b652 8b3d 5a81 ce3c
00000380: 46ba 843d fea4 2cbb bf56 163e 1ce2 2d3d
00000390: bc01 bf3d 8071 febe c937 573d 1804 843d
000003a0: d04b 82bc 35c3 a2bb d32f d7bc 7b9e a8ba
000003b0: c96a d33c 43b8 2abd 17cc bebd 0e2d 99bd
000003c0: c8b5 89bd 06b6 8e3d 18e5 513c 4d38 7e3c
000003d0: 678d ef3d df7f 01bd 3668 673d b4f3 8c3d
000003e0: 7ebb c4bd 4381 23bd 673c 8d3c ee3c d53d
000003f0: 2e6f 703d e853 1a3c 370a f03c e2ca 463d
-0.05863026 0.106407925 -0.18302296 -0.042937335 0.013666961 -0.074761204 0.061061934 0.06739211
0.023487568 -0.04066872 -0.034559824 -0.03322637 0.073951 -0.034506164 -0.042700797 -0.025037907
-0.05871335 -0.014341774 0.04682539 0.039192025 -0.14283742 -0.09507453 0.100676335 -0.013706327
0.07534757 0.005829414 -0.013969699 -0.0014400401 0.06508042 0.105348535 -0.015295653 -0.017690938
0.02427371 -0.015770882 -0.06889307 -0.039919164 -0.055360388 -0.0781433 0.014323788 -0.010916547
-0.024718259 0.07861042 0.06514463 -0.061920885 0.07524988 -0.008545448 -0.0150334295 0.11983333
-0.046100743 -0.008538676 0.07899162 0.044033706 0.10100741 -0.036564756 0.022719465 -0.14235051
-0.0006616727 -0.04111502 -0.06821582 0.04453039 0.058505364 -0.0048818095 0.0071921255 0.043159805
-0.054420523 -0.07760325 -0.0744949 -0.06666616 0.09078086 0.034204796 0.0012492341 0.06113501
0.1259507 -0.026986187 -0.08700361 -0.034029827 0.012439697 -0.01599604 0.049907472 -0.028447725
0.043562923 0.04816973 -0.06580864 -0.06756655 0.05389241 0.106920764 0.016213484 0.04955932
-0.0002535526 0.0020996437 0.015710454 -0.05215187 0.03300959 0.053089064 -0.019965855 -0.12092101
-0.021262994 0.085140355 -0.060335055 0.046863757 0.049181078 0.05179299 0.014137178 0.014664851
0.063246235 -0.0043777316 0.05964039 -0.03112604 -0.03452196 -0.059179135 0.02630694 0.059378143
-0.0047253077 -0.021173498 0.035543602 0.05646517 -0.09408826 0.04251243 -0.015557356 -0.049529325
0.043150026 -0.089203306 -0.0473675 0.083196305 -0.057859335 -0.06318597 0.10390031 -0.012979898
0.08549619 -0.06339751 -0.09914156 0.073483296 0.14774767 -0.30751172 0.007611743 -0.09808072
-0.07558126 -0.054413456 0.045382105 -0.2048493 0.0143153565 0.05359954 0.025656518 -0.038485676
0.011550308 -0.07662508 -0.056130107 0.007568246 -0.004184898 0.011156079 0.028631995 0.043620788
0.04970907 0.05638952 0.12691905 -0.024270924 0.05109622 -0.1057963 0.067703955 0.2013946
-0.01223587 0.09974256 -0.023019345 -0.033699814 -0.020500205 -0.044002667 -0.0006776817 -0.023219155
0.09256542 -0.019700412 -0.12930791 0.091130584 -0.041219924 -0.019043801 -0.09542978 -0.012235049
-0.021713013 -0.0013610696 0.035596833 0.038677357 -0.10696354 -0.011666746 -0.032655377 -0.010719863
-0.04047322 0.036297247 0.034543052 -0.030750949 0.04609179 0.10252479 0.07447453 -0.14127322
0.00023902708 -0.12485842 0.10656329 0.059023034 0.062202357 -0.013379827 -0.025427638 -0.18553719
0.01909452 -0.12019785 -0.04932932 0.031542834 0.0051444424 -0.03674543 -0.11452638 -0.028280914
-0.09891586 0.0077336086 -0.008041304 0.08196992 -0.0040541287 -0.062075008 -0.15977761 -0.08479075
0.05644875 -0.11774818 0.019290423 -0.07972303 0.0607184 -0.06590551 0.06802885 0.025208164
0.06480841 -0.002634346 0.14681529 0.042451963 0.09326503 -0.4969597 0.052543435 0.06446093
-0.01590529 -0.004967118 -0.026267922 -0.0012864614 0.025807755 -0.041679632 -0.09316271 -0.074792966
-0.06724125 0.06968312 0.012810968 0.015516353 0.11696892 -0.031616088 0.056495868 0.0688242
-0.09606074 -0.039918195 0.017240716 0.10412012 0.05869978 0.009419419 0.029301746 0.048533328

net_container.4.bias f4 [128]
00000000: 61ce 92bd 2525 a7bd 00be f63c 5797 0bbe
00000010: 8da6 74bd ff30 4fbd e764 cabd f21b 4fbd
00000020: add8 97bd 372b fa3b 7c8d b23d 4089 9bbd
00000030: dcee f1bc 087a ebbd 2caa 563c 2775 af3d
00000040: 139c b4bd ebf8 043d a12c 483d e928 b8bc
00000050: 7036 16bd 0dcd 9ebb 18c3 27be 20cb d73c
00000060: d06d 06bd dfa9 b4bd e1a6 9a3d 2665 fa3c
00000070: 2c48 3fbd 49a1 eb3c 911f 8ebd 40c3 c8b9
00000080: 9d33 603c 2df1 3bbd c702 75bd eab7 d5bd
00000090: a81a 2abd da8b 18bd b200 0e3d 4fcd 913d
000000a0: dbfd a0bc ebbc bbbd f1d0 473d 7676 4abd
000000b0: 46f2 b7bd 8b86 633d 9bae e6bd a62e f03b
000000c0: f9c5 9c3d 33b1 163d fdf8 c43c dfbc 8abc
000000d0: 4085 50bc 7730 2bbd 5ccc 39bd 485b 433d
000000e0: f2ab 953d ecf9 c2bd ca76 4cbd 139f 933d
000000f0: a1cb 2cbd 0856 9cbd 973b 29bd 8d82 b33a
00000100: 3fbb 8cbd 91e5 afbb 4f22 fdbd b9c2 9a3d
00000110: c54d 11bd a48c 47bd 4b1b c33d 48ee 06bd
00000120: 9376 183c 453d 913d 9eb6 8dbd c597 7a3d
00000130: a70e e73c bb76 0d3d 8d5f 9e3d 44ac 51bd
00000140: 7cc2 b63d e39c d43c 9f9f b739 318a d1ba
00000150: 0835 f0bc 10cb d6bd 39f8 e5bc e7dd 8cbd
00000160: 8811 c93c 1dba 96bc b9b8 85bd 1234 2dbd
00000170: 3bc0 71bd 9c2a 6bbd 8b1f 6c3d faa8 03bd
00000180: 3e51 36bd 1b8f e8bd 2138 82bc 779d b23b
00000190: 75fd 04be 625c b6bd 9635 0dbe 499d 8ebb
000001a0: f69d fb3c 9d98 53bb b8c1 773d b4ce 40bd
000001b0: c23e 1abe 3067 5a3d 3415 82bc 3509 063d
000001c0: b3ae 50bd 5f3a d7bd afaf 8f3d b613 a03d
000001d0: 3fee 1c3d b25f 22bb 6b59 4dbd f317 933d
000001e0: ab3c 41bd d405 a83c 390b 7d3d 24c1 a2bd
000001f0: bb8c b4bc 2c90 6fbd 79f0 ca3c 89ab b9bc
-0.0716827 -0.08161382 0.030119896 -0.1363195 -0.059729148 -0.050583836 -0.09882527 -0.05056376
-0.074143745 0.007634546 0.08718392 -0.07594538 -0.029532842 -0.11497885 0.013102096 0.08567267
-0.08818831 0.03246395 0.048870686 -0.022480445 -0.03667301 -0.0048462213 -0.16383016 0.026341975
-0.03281957 -0.08821463 0.07551361 0.03056581 -0.046699688 0.02876343 -0.069396146 -0.00038292445
0.013684181 -0.0458843 -0.0598171 -0.104354694 -0.041529328 -0.037242748 0.03466863 0.07119238
-0.019652298 -0.091668926 0.048783246 -0.04942938 -0.08981757 0.055548232 -0.11263772 0.0073297797
0.07654948 0.036790084 0.024044508 -0.016935764 -0.012727082 -0.041794267 -0.045360908 0.047694474
0.073081866 -0.09520325 -0.049917974 0.072080754 -0.042186383 -0.07633597 -0.041316595 0.0013695523
-0.06871652 -0.0053679426 -0.123600595 0.07556672 -0.035474557 -0.04871811 0.0952669 -0.032942086
0.009305614 0.07091764 -0.06919597 0.061179895 0.028205229 0.03453706 0.077330686 -0.051189676
0.08923814 0.025953716 0.00035023407 -0.0015986619 -0.029322162 -0.1048795 -0.028072463 -0.06878262
0.024544492 -0.018399293 -0.06529374 -0.042285986 -0.059021216 -0.057413682 0.05764727 -0.03214357
-0.044511072 -0.1135542 -0.015895905 0.0054509 -0.12987311 -0.089043394 -0.13789973 -0.004352246
0.03071497 -0.003228701 0.06048748 -0.047072127 -0.15063003 0.053321064 -0.015879251 0.032723624
-0.050947856 -0.1050918 0.07015931 0.078162596 0.038313147 -0.0024776277 -0.050134104 0.07182302
-0.047176998 0.020510592 0.06177828 -0.07946995 -0.022039762 -0.058487102 0.02477287 -0.022664802

policy_layer.weight f4 [19, 128]
00000000: d8e9 08bd 7687 163d ffcc bcbc b8a9 1d3c
00000010: 81dd 04bd 606b c83d 870e 573d 2688 1abd
00000020: bea2 683c 23d4 803d 9aa5 30bd 5fe7 813d
00000030: 197d e53c 8d6b 873b 6631 0a3d e916 0b3d
00000040: d7aa b23c ae6b 28bc 7841 a43b 9b17 99bc
00000050: de92 d43c 1e43 413d 4917 0b3d 0324 29bd
00000060: bebe 293a e994 9abb b19f fa3b 896b 14bd
00000070: 3840 0d3d 696d 963d a9cf c23a 162a e43c
00000080: e804 92bd 3200 b93a 2819 1c3d a054 c9bc
00000090: 99a1 b13d ffec 023d cf65 03bd f03f dcbb
000000a0: 44cc 13bd 1023 cf3c 2133 cdbd 6e41 9c3d
000000b0: 6929 1ebd c0bb 71bd 489b 503d 124e c13b
000000c0: a954 1c3b 4eae c03b 3668 50bd d08a 0e3d
000000d0: 5756 343d 96c2 8c3c 0385 0cbd 230b 50bc
000000e0: 1588 c23b c5af 663d b73f 603c 7413 dc3b
000000f0: 1fa2 163d a5a5 413d 5a84 b13c e853 02bd
00000100: 7363 09bd ca44 7bbb 94db 83bd 2fdd 073d
00000110: 1353 37bd ec6b 2ebd b949 f2bc c340 6c3c
00000120: 3844 f4ba 1514 573c fe8d 283c 91a2 863b
00000130: 8d86 703d 64cc 3dbc 492d cdbc ce81 e83b
00000140: 3599 6fbc 1d0a da3a b3fa 723d 00cc a9bc
00000150: a985 933d 3b1b 4ebd 76a2 b9ba 7ea8 763c
00000160: 56bc b1bc 36ed 713d 434b e93c 34ef 3abc
00000170: 9ae7 a7bc 854b 173d 8112 1abd beea adbc
00000180: d99f f73c 1328 853d 6330 9f3c b987 34bd
00000190: b70e 063d 393e 8e3c 99dd 8fbc 2d9b f2bb
000001a0: 1a0f 5bbd 28e1 1dbd 590a 673b a14f 4d3d
000001b0: cd0e 3bbc ce89 29bc 795c 0f3d b812 3e3d
000001c0: 33e9 6d3c c96e ff3c 3ea4 a23a 5d47 15bc
000001d0: 3e92 e2bd cc4b fa3c f7bb 37bd 552c a6bb
000001e0: 7d5e 09bd eab7 5bbd c068 60bd a7c0 83bc
000001f0: b02c 323c e954 d0bc ffc8 c8bb 3335 4fbd
00000200: 5b08 28bd 0839 103d fa3a 9f3d 6ad5 42bd
00000210: 53fb 02bd c43e 863c d617 b4bc e945 ccbc
00000220: 3841 c6bc b99c 2d3d cc07 9abd a9a6 2fbd
00000230: ce97 18bd ae1e a2bd cd5f 773c 680c 9abc
00000240: d3ae b43c 446a 20bd 68a8 893d 75d3 b03a
00000250: 9d43 b33c bc51 e23c fc3e 0cbc 0840 1f3d
00000260: 1290 d73c 8c9e c53c 689a e53c fd97 dfbb
00000270: 3c90 44bc cc11 32bd 5710 a33c 54bb 8bbc
00000280: fa6c bdba 9274 f73c d425 3fbc e057 2abd
00000290: 172f 653d 70b6 ae3b 5bb3 d03d 8af0 033d
000002a0: 016d a1bb 3501 febc 2a79 9abc 13f8 f8bc
000002b0: cbbf bc3b f5e2 a13d f5f4 32bd bc94 0a3d
000002c0: 0813 02bc fa2c 9e3c 3b1c 47bd 249e 65bd
000002d0: 74cb ea3c 70f3 4b3b f280 043b 42bd 7d3d
000002e0: 24e0 eebc 1cc9 ebbc acba 13bd 4c01 8c3c
000002f0: 9b9a 85bd fc17 6e3b fd50 7ebd 1bb9 ca3c
00000300: 123a e83c 8cac 563a 5a51 403d c2b3 e93c
00000310: 3f84 293d 6c20 073d 0edb eabc 95c7 e0bc
00000320: a149 d8bc 233a 9bbc d49e 3d3c 6549 123d
00000330: f1ef c5bb e9cf 733d 7fec 083d 251f b3bd
00000340: 680f 15bc f31a 333d e57e 2bbd 11f1 ea3b
00000350: b495 9c3d 0abc 1f3a 8854 8c3b b106 293c
00000360: 26fe b0bc 25ef 3d3a e234 0b3d c6ad a53b
00000370: 9b00 4fbd 7b79 50bd f185 883b 10fe 9a3d
00000380: c43d f63c daef 22ba 2466 81bc 043d ee3b
00000390: 5ec8 f6bc 46f6 803d 66d8 d5bc 3d60 163d
000003a0: 6a56 b9bb 1f06 293c e63e 1b3b 127d 983c
000003b0: d273 72bd 7f42 c8bc 7ee8 5bbc 493d 0aba
000003c0: d6a4 c8bc ece9 88bc 7b2f fbbb 14e7 d13b
000003d0: f797 d13d 9235 0a3b 3569 77bd 267c 23bc
000003e0: e10f 5dbb 46dc 4c3c 223a 383c e8b8 553d
000003f0: 7f0c 3f3d 00e7 143c bcc7 ffbc cdd8 a23c
-0.033426136 0.03675028 -0.023046969 0.009622984 -0.032437805 0.09786105 0.05250409 -0.037727498
0.014198957 0.06290462 -0.04312668 0.06342959 0.028013753 0.004132694 0.033738516 0.033957396
0.021809978 -0.010279579 0.0050126873 -0.018688014 0.025948938 0.04718315 0.033957753 -0.04129411
0.0006475261 -0.0047174585 0.007648431 -0.036235366 0.034485072 0.07345087 0.0014862913 0.0278521
-0.07129842 0.0014114438 0.03810993 -0.024576485 0.086734004 0.0319643 -0.032079514 -0.006721489
-0.036083475 0.025285274 -0.10019518 0.07629667 -0.03861371 -0.059016943 0.050929338 0.0058991993
0.0023854172 0.0058801537 -0.050880633 0.03480035 0.044027653 0.01718263 -0.034306537 -0.012697968
0.0059366324 0.05631997 0.013687066 0.006716186 0.036775704 0.04727711 0.021669555 -0.0318183
-0.033542108 -0.0038340562 -0.064383656 0.03316992 -0.04475696 -0.04258339 -0.02957617 0.014419737
-0.0018636053 0.0131273465 0.01028776 0.004108735 0.058722068 -0.011584375 -0.025046008 0.007095552
-0.01462393 0.0016635094 0.059321117 -0.020727158 0.07203228 -0.050318938 -0.0014162797 0.01505482
-0.02169625 0.059064113 0.02847827 -0.0114095695 -0.020496178 0.036937255 -0.037615303 -0.021230098
0.030227588 0.06501784 0.019432252 -0.044074748 0.032728877 0.017363654 -0.01756172 -0.0074037523
-0.0534812 -0.038544804 0.003525397 0.05012477 -0.011417103 -0.010347797 0.0350003 0.04640457
0.014520931 0.031180756 0.0012408567 -0.009111253 -0.1106305 0.03055372 -0.04485699 -0.0050712028
-0.033537377 -0.05364219 -0.054787397 -0.016083075 0.010874912 -0.025431113 -0.006127476 -0.050587844
-0.041023593 0.03521064 0.07774921 -0.04756681 -0.031977963 0.01638735 -0.021984022 -0.02493568
-0.02420102 0.04238579 -0.075210184 -0.04288355 -0.037254147 -0.07916008 0.015098524 -0.018804744
0.022056019 -0.039163843 0.06721574 0.0013490753 0.021882826 0.027626865 -0.0085599385 0.038879424
0.026313815 0.024123453 0.028027728 -0.0068235383 -0.011997279 -0.043474004 0.019905252 -0.017057098
-0.0014452033 0.030206952 -0.011666734 -0.04158771 0.05595311 0.005331807 0.10190459 0.032211818
-0.0049263244 -0.031006435 -0.018856604 -0.030391729 0.005760168 0.07904617 -0.04369064 0.03383325
-0.007939108 0.019308556 -0.048610907 -0.056059018 0.028661467 0.0031120442 0.002021846 0.06194807
-0.029159613 -0.02878242 -0.036066696 0.017090462 -0.06523629 0.0036330214 -0.062088955 0.024746468
0.028348003 0.00081891636 0.046952583 0.028528098 0.041385885 0.032989904 -0.028668907 -0.027438918
-0.026402296 -0.01894862 0.011573512 0.035714526 -0.006040566 0.05952445 0.033428665 -0.08746175
-0.009097911 0.043726873 -0.041869063 0.0071698506 0.07645741 0.00060933887 0.004282538 0.010316537
-0.021605562 0.0007245413 0.03398598 0.005056116 -0.050537687 -0.050897103 0.0041663577 0.0756799
0.030058749 -0.000621555 -0.015795775 0.007270457 -0.03012484 0.06296973 -0.026104163 0.036712874
-0.0056560533 0.010316401 0.0023688613 0.018614326 -0.059192486 -0.02444577 -0.01342213 -0.00052734144
-0.024492662 -0.016713105 -0.007665572 0.0064057205 0.10234063 0.002108906 -0.060403068 -0.00997833
-0.0033731388 0.012503689 0.011244329 0.052178293 0.046642777 0.009088278 -0.03122317 0.01987877

policy_layer.bias f4 [19]
00000000: 395c 2ebd 53ed 8bbb 8932 10bd f2ff 4a3b
00000010: 1eec 243c 5d5f 1cbd 0155 e5bc 235a 3a3c
00000020: 066d 51bd 5651 863d 6495 d53c 9352 603d
00000030: f9dc 4d3d 186c 223c dcbb 39bd d9f1 f9bd
00000040: e0ec 17be fc34 6fba 1bc8 20bd
-0.04256842 -0.0042702346 -0.035204444 0.003097531 0.01006606 -0.038176883 -0.027994635 0.011374029
-0.051129363 0.06558482 0.026072212 0.05476625 0.050259564 0.009913467 -0.045345172 -0.12204332
-0.14836454 -0.0009125022 -0.039253335

value_layer.weight f4 [1, 128]
00000000: a4e6 84bc 7768 9b3d b896 88bd 1e99 023b
00000010: 1e64 62bd cd35 123e d573 cabd 493f 023e
00000020: 19a2 31bd d1f7 86bd c5d2 debd 85b8 34bd
00000030: 37e9 6a3d a2fc 2b3d f7f7 95bd b2af 91bd
00000040: 7f01 e5bc 3879 18be e13e c23d 3236 963d
00000050: 62e2 dfbd 34ad 5d3e 4b9b 8b3c 2a7a 073e
00000060: 3a28 2d3c 7039 263e 64a3 07be 6054 07be
00000070: d63e 433d 24e0 3dbd f1fe 453e 92dd 923d
00000080: af6b b6bd 484c 4abc ce39 923d 7fc1 c83d
00000090: 38a1 2cbc 283b 83bd bee6 11be d3d8 b9bd
000000a0: efdf 11bd 628f 983d fd9a d6bc 2951 91bd
000000b0: d6b1 b93d 9d98 17bd 37d8 843d d13f 9ebd
000000c0: 7750 d0bd c9ed aebc dee8 fd3d 21d2 1d3e
000000d0: be74 34be 4bf3 583b 0633 08be db2b 4ebe
000000e0: 5b22 983c 3688 26be bcbd a03d 8109 933c
000000f0: 4487 a53d 75da de3d 9eac 70be 777c 3bbe
00000100: 9e37 733d b820 c03d ebe5 b93c 70f2 963d
00000110: b7f5 cabd d8f0 843d 2afe 07be d2f8 3f3d
00000120: 8b22 43bd ebc1 333e 23c2 813d e3e0 5ebd
00000130: 7cf8 983b 0e27 633d 602e 9fbc c74f 0ebd
00000140: abc8 b8bc 1930 933c 0cee 71bd d169 54bd
00000150: 5f60 8c3d 8375 823d 8fdd f8bd ce41 c43c
00000160: 241f dbbc 0c97 723b 10d0 033e 3fb8 393d
00000170: e042 103e 656a b6bd 5593 a43d 0792 cfbd
00000180: 97f4 493b 7fd6 a63d 603c e5bd c3b7 453d
00000190: ba49 213c f86a e3bd f804 87bd 1d5a 93bd
000001a0: fc8b 993c 08bb c23b 8017 1c3c 259e d63d
000001b0: 5d52 35be 8121 603e 5d09 aabd 00a8 2e3e
000001c0: 042c b13d 6688 f13d 51c7 8fbd bc01 abbd
000001d0: 30a5 93bd 11cb 453d dc2b c03d fa75 1dbe
000001e0: 6a78 083d 3d69 4e3d c7b0 2a3d fe12 1f3d
000001f0: bf1e 113b 6f63 d93d 21cf c2bd bc45 263d
-0.01622326 0.075882845 -0.06669372 0.001992769 -0.05527126 0.14278336 -0.098853745 0.12719454
-0.04336748 -0.06590236 -0.10880045 -0.044121284 0.057351317 0.041988976 -0.07322686 -0.07113589
-0.027954815 -0.14889991 0.094846494 0.07334556 -0.10931851 0.21648103 0.017041823 0.13230196
0.010568673 0.16232848 -0.13245922 -0.1321578 0.047667347 -0.046356335 0.19335534 0.071711674
-0.08907258 -0.012347288 0.071399316 0.098025315 -0.010536484 -0.064077675 -0.14248177 -0.09074559
-0.03561395 0.07449223 -0.026196951 -0.07095558 0.09067123 -0.037010778 0.06486552 -0.07727016
-0.101715975 -0.02135362 0.123979315 0.15412189 -0.17622659 0.0033103998 -0.13300714 -0.20133917
0.01857107 -0.16262898 0.07848689 0.017948868 0.080824405 0.10881511 -0.23503348 -0.18309198
0.059379213 0.093812406 0.022692641 0.0737046 -0.09910148 0.0649125 -0.1328055 0.046868153
-0.047640365 0.17554443 0.06335857 -0.054413687 0.0046682935 0.055457167 -0.019431293 -0.03474405
-0.022556623 0.01796727 -0.05906491 -0.051858727 0.06854319 0.0637007 -0.12151634 0.02395716
-0.026748247 0.00370163 0.12872338 0.045341726 0.14088011 -0.08907012 0.08035914 -0.101352744
0.0030815953 0.08146381 -0.11193156 0.048270952 0.009844238 -0.11104387 -0.065927446 -0.07194922
0.018743508 0.005942706 0.009527087 0.104793824 -0.177072 0.2188778 -0.08302567 0.17056274
0.086509734 0.11793594 -0.070204385 -0.0834994 -0.072092414 0.048289362 0.093833655 -0.15377036
0.03331796 0.05039333 0.041672494 0.03883647 0.002214357 0.106146686 -0.09512163 0.040593848

log_std_parameter f4 [19]
00000000: c76e 49c0 51da 48c0 5c01 53c0 ab38 d9bf
00000010: 1947 dbbf 117b 58bf 7383 5cbf bc17 00c0
00000020: 05bc 14c0 4ced 2dbf fa21 22bf 1858 bbbf
00000030: c4ba c7bf 7b3a 27bf 620f 49bf 9e11 38bf
00000040: 5283 55bf 2380 3cbf ac97 24bf
-3.1473863 -3.138325 -3.296958 -1.6970419 -1.7131072 -0.84562784 -0.86138076 -2.0014486
-2.3239758 -0.6794021 -0.63333094 -1.4636259 -1.5603871 -0.6532361 -0.785391 -0.7190188
-0.83403504 -0.7363302 -0.6429393

net_container.0.weight f4 [128, 69]
00000000: fbb4 193e a8ce 1cbf a681 17bd e2c1 963d
00000010: 4ed7 4dbc 8943 cfbb 914d cfbc 30b9 6bbf
00000020: 4ac6 e63c 0d9c 05bc 87da 7ebd f2e2 993e
00000030: 4bdd 373e 8dbf 6cbe defd 2ebf cbf5 cfbe
00000040: ce3f eb3e 1734 6fbd 7110 c33e edcc 943d
00000050: 5726 29be 3a3f aa3e 8b73 7b3e 919e 0cbd
00000060: 98e7 81be 4c96 2b3d 71dd 13bf 21ae 9a3b
00000070: 720b 993e 139f c3bc 2ffd 303c 3c6e bf3b
00000080: 438d 003c 11b8 e3bd e5fb 52bd bec1 8f3c
00000090: a605 80bd 8e64 39bd 151d 32bd 91ff b53c
000000a0: b940 2fbd c97d 04bd 09d5 8d3d 0068 143d
000000b0: 7c14 6e3d f158 3d3b d49a 8abd 6ffe c63d
000000c0: b0e0 96bc 06aa 683d b684 77bc 8473 d6bd
000000d0: 50b9 003d 611a 003d 556e 6fbb 062d c9bd
000000e0: 5ee6 64bc 8e20 4abc 885c a03d 0ac4 f33d
000000f0: fb24 dfbc 0302 27bd 9a12 6cbe cecf 40bc
00000100: 468d 26bd a56f a63d b321 5dbd 2bb5 c23d
00000110: 2a7c 003d e827 b0bd 32ad 1f3c 4ba5 d83e
00000120: 0a06 3abe dbe0 85be 9dd6 3e3e e68c d4be
00000130: 543e a43d 73b4 0cbd 0052 863e 0b83 28bd
00000140: d499 d13d bbe8 95be 4fb6 06bf 994a 36be
00000150: bf91 ca3d 6143 69bc 668a 99bd a7f4 a53e
00000160: 5a00 aa3d f031 7e3c d945 8c3e 99a2 7dbc
00000170: f027 b83d 39a0 033e 98c3 603e 71bb cdbe
00000180: 6964 f8bb 6fbc 213e 9134 f5bc e744 abbb
00000190: 8bb7 bd3c db90 133d 0c55 b4bc c8e3 f3bd
000001a0: 68ad 95bd 9d2d 4c3a 1a1b 203d 0290 22bc
000001b0: c5bb 403d f21c e23c 8a5b 1cbe 1b04 2dbd
000001c0: 5b7b 173d 16b4 8a3d 47e7 a63c c7de ce3d
000001d0: bc53 413d 7ba0 c2bd 8674 363d 2f6b 883d
000001e0: 001f 18be 4e4b 6e3c 548a 9d3d 7d72 343d
000001f0: 166a a6bd 4746 b2bc 0506 da3c fab5 a1bd
00000200: 5ea8 113d 9a05 913c 7270 003e c2eb a3be
00000210: c69b 60bd a47d a2bd d53c 19be 698b 2abe
00000220: 1486 08be d31a b33c 1ff1 c6bd 914a 203f
00000230: ab5e 8dbe 3203 32bd 8f7e ddbc d44d 9abd
00000240: a1fb 8bbe 3062 c43e 3297 c93d 2607 a93e
00000250: 7d0e 2a3d 10f4 97bd ce1b 4abe 22eb c1bc
00000260: f30a 873e 3c2d 733d f9c1 ccbe a129 e7bd
00000270: 671a 8abd 424c f3be 762d bf3e cb7c e7bd
00000280: ef0b 873e 77f9 5f3c 4110 563e 3cf9 33be
00000290: 6f01 6c3e dcc7 cb3c ac85 0abe c12d 3c3d
000002a0: 4f81 823d 7a66 173d 261a 1cbc 0bfd 773a
000002b0: 57d5 bb3c cbca 813c 2623 8d3c dd09 84bd
000002c0: 4c0e 1abd 36c5 e3bc 68cc 1dbc d7ad 833d
000002d0: 6032 71bc d461 633d 14af 4b3c b81d 943d
000002e0: 573b 14be 1f79 903c 7e70 1b3d c50b 0cbd
000002f0: bae5 78bc bb9b 123e 71fe a3bc d88c 00be
00000300: 590a 8abd 93d2 993d 39f9 c8bd 000b a43d
00000310: 5b31 d73d 9243 db3c be10 ff3d 2870 64be
00000320: 8bac a73e 2864 a1bd 1165 163d 4d38 8e3d
00000330: 40fb 74bd 2701 a5bc 2bf3 1cbd 72a8 1c3e
00000340: 8c9f b83e 80f6 05be 6e03 ccbd ac75 20be
00000350: 4de5 673d 3fe8 423f 3419 4abd f8fc 163c
00000360: 4f0d 913e 6ce5 ee3d 1286 aebd 62e5 8f3e
00000370: 81de 523e 4ec8 4d3f c1d1 213f 3776 b6be
00000380: fd17 44be 00ed 91bd 8670 8cbd e39a 0f3f
00000390: a675 783d 1521 063e 2e4f 8c3d d952 c33e
000003a0: 7746 43bc 2211 b93e a98b 78bd 12c7 98be
000003b0: 58d7 28bd dfca 2ebd 649a 013d 0ad1 00bd
000003c0: 2291 32bd 6944 7e3c 4cd2 43bd ff8a 493d
000003d0: ed6c 863d 87a9 49bc dafd e3bb ce4b c8bc
000003e0: 7d00 cebc 411b 0d3a 7bbf 6cbc 2d4b eabb
000003f0: 70c0 fa3c 1c7f cd3c d98a 88bb ea76 24bc
0.15010445 -0.6125283 -0.036988877 0.07361199 -0.01256354 -0.0063251895 -0.025305541 -0.9207945
0.028170723 -0.008154881 -0.062220123 0.30055958 0.1795551 -0.23119946 -0.6835612 -0.40617213
0.45947117 -0.058399286 0.3809848 0.07265649 -0.16518532 0.33251363 0.24555795 -0.03433091
-0.25372005 0.04189138 -0.5775977 0.004720465 0.29891545 -0.023879563 0.010802551 0.0058419984
0.007846179 -0.11119092 -0.051509757 0.017548438 -0.06251077 -0.045261912 -0.043484766 0.02221659
-0.042786334 -0.03234652 0.06925399 0.036231995 0.058125004 0.0028892125 -0.06767812 0.09716498
-0.018417686 0.056802772 -0.015107324 -0.104712516 0.031426728 0.031275157 -0.003653427 -0.09823041
-0.013970939 -0.012336863 0.07830149 0.11902626 -0.027239313 -0.040773403 -0.23053971 -0.0117682945
-0.040662073 0.08126763 -0.053987216 0.09507211 0.031368412 -0.086013615 0.009745883 0.4231361
-0.18166366 -0.26148114 0.18636556 -0.41513747 0.08019701 -0.034351777 0.26234436 -0.041140597
0.102344185 -0.29279122 -0.5262193 -0.17801894 0.0989108 -0.014237256 -0.074971005 0.32413217
0.08300848 0.015514836 0.2739704 -0.015480661 0.089919925 0.12854089 0.21949613 -0.4018207
-0.007580329 0.15794538 -0.029932292 -0.0052267197 0.02315881 0.036026817 -0.02201321 -0.1190868
-0.07308465 0.00077887793 0.039088346 -0.009922029 0.04705407 0.027601693 -0.15269294 -0.042240243
0.036982875 0.0677263 0.020373954 0.10101085 0.047198996 -0.095032655 0.04454472 0.06661069
-0.14855576 0.014544321 0.076923996 0.044054497 -0.08125703 -0.021762026 0.026614198 -0.078960374
0.035560958 0.017702866 0.12542894 -0.32015806 -0.054836057 -0.0793412 -0.14964612 -0.16654743
-0.13332397 0.021863377 -0.09713959 0.6261378 -0.27611288 -0.04346008 -0.027037887 -0.07534376
-0.27340415 0.3835616 0.09843291 0.33013266 0.041517723 -0.07419598 -0.19737169 -0.02367169
0.2637554 0.05936931 -0.3999174 -0.11287237 -0.06743317 -0.47519118 0.3733937 -0.11303099
0.26376292 0.013670317 0.20904638 -0.17575544 0.23047422 0.024875574 -0.13527554 0.04594207
0.0637232 0.036962964 -0.009527719 0.00094600086 0.022928877 0.01584377 0.017228674 -0.06447194
-0.03761129 -0.027803998 -0.009631254 0.06429642 -0.014721483 0.055513218 0.012431879 0.07232231
-0.14475761 0.01763588 0.037949078 -0.03419091 -0.01519149 0.14317219 -0.020018788 -0.12553728
-0.06740255 0.07510867 -0.098131604 0.080099106 0.10507461 0.026765618 0.12454365 -0.22308409
0.32748827 -0.078804314 0.03671748 0.06944332 -0.059809923 -0.020142151 -0.03831784 0.15298632
0.36059225 -0.13082314 -0.09961592 -0.15669888 0.056615163 0.7613563 -0.04934044 0.009215586
0.28330466 0.116648525 -0.08521666 0.28104693 0.20592691 0.80383766 0.63210684 -0.35637066
-0.19149776 -0.07125282 -0.068574 0.56095713 0.060659073 0.13098557 0.0685104 0.38149145
-0.011918656 0.36145884 -0.060680065 -0.2983938 -0.041220993 -0.04267394 0.03164138 -0.031449355
-0.04359544 0.01551924 -0.047807977 0.049204823 0.06563745 -0.012308485 -0.0069577517 -0.024450209
-0.025146717 0.00053827843 -0.014449949 -0.007150075 0.03060934 0.025085025 -0.0041669426 -0.010038117

net_container.0.bias f4 [128]
00000000: be4f 0d3e fde3 043b 943d dabb 1205 d73c
00000010: 9703 d13d 7290 5b3d 6740 d93d c136 093e
00000020: 06b1 203e 7d36 073e e432 ae3c 8e33 723d
00000030: 762e 7b3d 75a0 d43d 742e 8f3e 785c ddbd
00000040: eb07 453e 5a9d 26be fbd1 253e ecca af3d
00000050: 2fd3 e73d 71d4 f33d 489e f63b aee9 533e
00000060: 2380 ca3d 774c 093e 08db 2c3b da06 83bd
00000070: 2e15 25bc a424 91bd 609e 3c3d 4841 2e3d
00000080: 406f 3b3e b9b1 b53d 6572 163c db56 a9bd
00000090: 07d8 c13d 53e1 1b3d ea57 dd3d 0d30 673c
000000a0: 71e6 35bc 309c 373e 429a f4bd cd4b 133d
000000b0: 21bd 173e db16 c3bd 1d4c 883d 2889 5abd
000000c0: 9358 673e 90a2 c23d 7d2f 84bd 8393 8cbd
000000d0: a61f 65bd ceab 90bd ef7a 8a3d 7baf 5a3d
000000e0: 03b0 473e 52c4 653d d18d c83d 4707 083e
000000f0: c866 d2bd 6312 fc3d d494 723e 8120 813d
00000100: c3d1 513b dda8 4f3e 16a6 043e 6ea4 933d
00000110: 1c0a 8d3d cc4a 0a3e 0e6f 5a3d a02c 20be
00000120: 1382 2e3e ee1d 173e 3eb5 5c3d 98a5 483d
00000130: 3f50 453e a721 a83d b4ae ee3d 2540 aa3d
00000140: ecda 313d 0347 d4bb ca6a 173e cf20 af3d
00000150: 886c c83d 1f2b e73d b51b 1b3e ea98 853e
00000160: f823 be3c 9faf 003e 150a 2b3d 883a 0f3d
00000170: 0fb9 023e 9b5a 8fbd aa70 433c 0e4a b13d
00000180: 19d8 e7b9 e872 51bb b8dd e1bd 2977 8dbd
00000190: 9f5d 273e f6ed 363d 1da5 16bd 5b84 1f3d
000001a0: ddc4 8d3d 931c 203e d89c b63d 8f21 3abd
000001b0: bc0b 973c 9aec ccbd 5f0d 3fbd f7d2 0a3e
000001c0: 8ec5 a7bc 123c 91bd f9fa 603e a676 373e
000001d0: cf31 54bd 34db c83d 4660 fd3c c472 a6bc
000001e0: 4ba2 0d3d 2a3c 4ebd abab 5a3e 62da 5fbd
000001f0: 739a 0bbd 5ab5 28be aee5 acbd 8cc0 713d
0.1379995 0.0020277493 -0.0066601727 0.026247535 0.10205763 0.05360455 0.10607987 0.13399793
0.15692529 0.1320438 0.0212645 0.059131198 0.061323605 0.10382167 0.27965128 -0.10808653
0.19241302 -0.16270962 0.16193382 0.08583626 0.11319577 0.11905754 0.007526193 0.2069461
0.098877214 0.13408075 0.002637567 -0.06397791 -0.01007585 -0.07087067 0.046049476 0.042542726
0.18304157 0.088717885 0.009182547 -0.082685195 0.09465032 0.038056683 0.10807784 0.014110577
-0.011102305 0.17930675 -0.11943485 0.03596096 0.1481824 -0.09525844 0.066551425 -0.05335346
0.22592382 0.095036626 -0.0645437 -0.06864073 -0.055938385 -0.07064019 0.06761729 0.053390007
0.19500737 0.05609543 0.09792674 0.13284026 -0.1027351 0.123081945 0.23689586 0.06305028
0.0032015897 0.2027926 0.12953982 0.07209097 0.06886694 0.13505095 0.053328566 -0.15642023
0.17041807 0.14757511 0.053883784 0.048986048 0.19268893 0.08209544 0.11654416 0.08313016
0.04342167 -0.006478192 0.1478683 0.085511796 0.09786326 0.112875216 0.15147288 0.26093227
0.02321051 0.12566994 0.04175766 0.03496793 0.12765907 -0.069997035 0.011928717 0.08656703
-0.0004422076 -0.0031959359 -0.110286176 -0.069074936 0.16344307 0.04466053 -0.036778558 0.038944583
0.06922314 0.156359 0.08916634 -0.04544216 0.018438213 -0.10006066 -0.04664361 0.13557039
-0.020479944 -0.07091536 0.21970738 0.17916355 -0.051805314 0.09807435 0.030929696 -0.020318396
0.034578603 -0.050350346 0.21354549 -0.054651625 -0.03408284 -0.1647543 -0.084422454 0.059021518
