humanoidprac/humanoidprac/scripts/skrl/logs/skrl/h1_flat/joint_experiment_ver3/2025-09-18_03-27-25_ppo_torch/checkpoints/agent_24000.pt (torch, 549970 bytes, 40 tensors)

log_std_parameter f4 [19]
-3.2616541 -3.2534494 -3.4199717 -1.7938435 -1.7626241 -0.8885055 -0.9094044 -2.114553
-2.3989263 -0.7056955 -0.64722 -1.5307072 -1.6655803 -0.6910205 -0.8105966 -0.74117506
-0.88296664 -0.76650655 -0.66355383
00000000: f1be 50c0 8438 50c0 d1e0 5ac0 aa9c e5bf
00000010: ab9d e1bf 1975 63bf bace 68bf d654 07c0
00000020: 0288 19c0 76a8 34bf 36b0 25bf 37ee c3bf
00000030: bc31 d5bf b8e6 30bf 4283 4fbf a6bd 3dbf
00000040: 1a0a 62bf c639 44bf aade 29bf

net_container.0.weight f4 [128, 69]
0.14781389 -0.5954173 -0.007080629 0.07659914 -0.0073629646 -0.023035983 -0.02000999 -0.9295564
0.030279972 -0.009854709 -0.062220123 0.29530144 0.17871575 -0.2395125 -0.6978382 -0.4094622
0.46651682 -0.055572018 0.38463667 0.07274517 -0.16368584 0.33240476 0.25552556 -0.03888232
-0.2554949 0.041926607 -0.58173066 0.027006183 0.29569885 -0.009686692 0.007218018 0.0062138387
0.0014733413 -0.10980495 -0.053232152 0.02262227 -0.062039033 -0.044463877 -0.044288732 0.018099565
-0.051871832 -0.036981806 0.070052 0.032095943 0.048523366 0.010751163 -0.07149133 0.10050776
-0.030266332 0.059371606 -0.01987484 -0.11615703 0.038991183 0.042643122 -0.008872864 -0.09340926
-0.011505843 -0.013124794 0.08348461 0.11234231 -0.030502932 -0.042528536 -0.23033725 -0.016930357
-0.041752305 0.07037192 -0.054032866 0.07719273 0.013957014 -0.08466322 0.030167818 0.4176721
-0.17880303 -0.2736604 0.181523 -0.42196473 0.07938618 -0.038284216 0.27058047 -0.041140597
0.10710399 -0.29728156 -0.52076846 -0.16874494 0.120322645 -0.035898928 -0.07182928 0.3054467
0.08193754 0.014781282 0.27396008 -0.014271587 0.0932137 0.13326648 0.22693802 -0.42082477
-0.019151293 0.15608312 -0.025452582 0.003303014 0.034244295 0.034033705 -0.022132123 -0.11830501
-0.057245903 -0.004175148 0.03598178 -0.010272559 0.039194148 0.027768753 -0.15412061 -0.041370496
0.041595344 0.07531078 0.02220553 0.09611622 0.05019224 -0.09386948 0.053595398 0.07137038
-0.14720492 0.02272261 0.06499211 0.043759856 -0.07959844 -0.026154494 0.02686123 -0.08019272
0.020201562 0.019783553 0.12879667 -0.31686664 -0.043384753 -0.08533962 -0.15521626 -0.17631795
-0.12702426 0.023885703 -0.09543061 0.6200632 -0.286113 -0.037014544 -0.032034665 -0.08146954
-0.2621216 0.3939588 0.09393101 0.3383214 0.041517723 -0.067617856 -0.22107792 -0.026167512
0.27812725 0.06525738 -0.38489765 -0.11895663 -0.078138195 -0.48034972 0.37120083 -0.11187292
0.26315627 0.017911304 0.21788132 -0.16539358 0.21462373 -0.010798352 -0.14475009 0.051324766
0.0664364 0.035843663 -0.008113294 -0.002460956 0.026350396 0.0091918865 0.02514719 -0.06272292
-0.03637327 -0.019968769 -0.015328792 0.062057093 -0.02148623 0.0582908 0.012205943 0.06033082
-0.1461449 0.015154868 0.03452864 -0.034610637 -0.011824506 0.15652409 -0.033720855 -0.12726934
-0.06134265 0.076234184 -0.101338536 0.0844836 0.10174901 0.022109706 0.11729307 -0.22757673
0.33636168 -0.057906017 0.034393195 0.07513446 -0.059730973 -0.012952637 -0.025507595 0.15514903
0.35359138 -0.15010265 -0.0987993 -0.16187458 0.053699996 0.7539479 -0.04655359 0.009010405
0.28468814 0.116648525 -0.080494575 0.28133208 0.23004231 0.82573724 0.63663906 -0.36517844
-0.1922015 -0.081418745 -0.06860618 0.5596139 0.06457931 0.13627444 0.07249635 0.37877735
-0.015883029 0.36633983 -0.057434462 -0.28653154 -0.043180484 -0.04432777 0.03385323 -0.028658267
-0.04210658 0.017566262 -0.04359606 0.047752406 0.064589925 -0.013571844 -0.0074433116 -0.02012463
-0.02782988 0.001578034 -0.011195425 -0.00499519 0.027112909 0.02652649 -0.008003503 -0.008484207
00000000: 865c 173e 456d 18bf 9f04 e8bb 03e0 9c3d
00000010: 0645 f1bb f5b5 bcbc feeb a3bc 69f7 6dbf
00000020: b40d f83c a575 21bc 87da 7ebd c031 973e
00000030: 4301 373e c442 75be 86a5 32bf 08a5 d1be
00000040: 4bdb ee3e 7c9f 63bd 19ef c43e 6bfb 943d
00000050: 439d 27be f530 aa3e 3fd4 823e 1143 1fbd
00000060: 3ad0 82be 3cbb 2b3d 4dec 14bf 123c dd3c
00000070: d765 973e eeb4 1ebc 2085 ec3b 759d cb3b
00000080: 211d c13a 6be1 e0bd f509 5abd 5752 b93c
00000090: a41c 7ebd c11f 36bd 1a68 35bd 8a45 943c
000000a0: 8f77 54bd 3c7a 17bd 6c77 8f3d 0977 033d
000000b0: 70c0 463d a525 303c 0c6a 92bd 03d7 cd3d
000000c0: 19f1 f7bc a42f 733d 8fd0 a2bc bde3 edbd
000000d0: 38b5 1f3d 8eaa 2e3d 7d5f 11bc 5b4d bfbd
000000e0: 0183 3cbc 6009 57bc fbf9 aa3d ba13 e63d
000000f0: 49e1 f9bc 6732 2ebd 87dd 6bbe 88b1 8abc
00000100: 7704 2bbd 271f 903d 9151 5dbd 3917 9e3d
00000110: f6ab 643c e963 adbd 8022 f73c 1ed9 d53e
00000120: 2418 37be 371d 8cbe 2ae1 393e c30b d8be
00000130: 3995 a23d e9cf 1cbd 8689 8a3e 0b83 28bd
00000140: 5659 db3d 4a35 98be 1551 05bf 79cb 2cbe
00000150: b86b f63d c10a 13bd 3b1b 93bd 8363 9c3e
00000160: dece a73d 312d 723c 7f44 8c3e 60d3 69bc
00000170: d3e6 be3d 0277 083e 7162 683e 5876 d7be
00000180: 2ce3 9cbc 41d4 1f3e ef81 d0bc 6177 583b
00000190: bf43 0c3d ed66 0b3d 6d4e b5bc e649 f2bd
000001a0: ae7a 6abd aecf 88bb a261 133d 3c4e 28bc
000001b0: 0b8a 203d 4c7b e33c cbd1 1dbe 1c74 29bd
000001c0: e15f 2a3d 8a3c 9a3d 5fe8 b53c 95d8 c43d
000001d0: 6196 4d3d a43e c0bd d986 5b3d a22a 923d
000001e0: e3bc 16be c424 ba3c 951a 853d 893d 333d
000001f0: 8204 a3bd f341 d6bc 150c dc3c 153c a4bd
00000200: bf7d a53c 1e11 a23c 46e3 033e 583c a2be
00000210: 36b4 31bd 8ac6 aebd 03f1 1ebe b18c 34be
00000220: a612 02be f3ab c33c 2071 c3bd 76bc 1e3f
00000230: 677d 92be 909c 17bd c836 03bd 81d9 a6bd
00000240: cd34 86be f8b4 c93e e75e c03d 7638 ad3e
00000250: 7d0e 2a3d 3b7b 8abd 4062 62be 405d d6bc
00000260: b266 8e3e a9a5 853d 4e11 c5be 899f f3bd
00000270: eb06 a0bd 66f0 f5be 090e be3e a11d e5bd
00000280: 6bbc 863e baba 923c 481c 5f3e ef5c 29be
00000290: 53c6 5b3e 92eb 30bc 5e39 14be eb39 523d
000002a0: cf0f 883d ced0 123d 9fed 04bc fe47 21bb
000002b0: c9dc d73c 9199 163c 7b01 ce3c e074 80bd
000002c0: 23fc 14bd 8b95 a3bc 9d25 7bbc 942f 7e3d
000002d0: e403 b0bc 55c2 6e3d 70fb 473c 731d 773d
000002e0: 02a7 15be 204c 783c e76d 0d3d e2c3 0dbd
000002f0: 93bb 41bc da47 203e e11e 0abd e552 02be
00000300: 6e42 7bbd ab20 9c3d 948a cfbd bd05 ad3d
00000310: c961 d03d 6a1f b53c 5937 f03d e009 69be
00000320: 9937 ac3e dc2e 6dbd e1df 0c3d 19e0 993d
00000330: 77a8 74bd 4c37 54bc 4ef5 d0bc 63df 1e3e
00000340: ee09 b53e 82b4 19be 4a57 cabd 73c2 25be
00000350: 87f4 5b3d bb02 413f faae 3ebd 61a0 133c
00000360: a5c2 913e 6ce5 ee3d 57da a4bd c20a 903e
00000370: 3690 6b3e 8463 533f c7fa 223f abf8 babe
00000380: 78d0 44be dfbe a6bd 6681 8cbd db42 0f3f
00000390: 2842 843d 878b 0b3e f778 943d 1bef c13e
000003a0: 201d 82bc e590 bb3e 6640 6bbd 43b4 92be
000003b0: 05de 30bd 0991 35bd afa9 0a3d bec4 eabc
000003c0: f377 2cbd 1fe7 8f3c c891 32bd 0798 433d
000003d0: b947 843d 715c 5ebc 06e7 f3bb 68dc a4bc
000003e0: 7dfb e3bc 09d6 ce3a 046d 37bc b1ae a3bb
000003f0: e41b de3c 154e d93c 2021 03bc 5801 0bbc

net_container.0.bias f4 [128]
0.13668337 0.005855588 -0.003701349 0.025460146 0.10445278 0.051473897 0.10480812 0.13223423
0.15624137 0.1329406 0.020405728 0.059666425 0.06021773 0.10489895 0.27945957 -0.107603654
0.19110306 -0.16239287 0.15846515 0.08500189 0.11240202 0.1215313 0.0062952265 0.2091839
0.0986743 0.13628726 -0.000102633545 -0.06338116 -0.0076158047 -0.069632374 0.045886874 0.04175609
0.1832279 0.08716128 0.010203188 -0.079426445 0.09436934 0.03553144 0.108817786 0.016917782
-0.011065659 0.17884691 -0.11785199 0.034337353 0.14844169 -0.095559105 0.071813785 -0.05096133
0.22454068 0.094990194 -0.06465386 -0.06792316 -0.05457988 -0.06844135 0.066830784 0.051063154
0.19846083 0.05493921 0.09610771 0.13382234 -0.10055843 0.1257532 0.23844594 0.061476417
0.0014111487 0.20303448 0.13091515 0.0709851 0.068249434 0.13458748 0.051602665 -0.15685852
0.16947466 0.14555189 0.053588435 0.05124089 0.19115196 0.08463419 0.112020366 0.084209174
0.043262973 -0.004237052 0.15008385 0.0834062 0.09872362 0.11371414 0.150812 0.26069564
0.0216694 0.1272383 0.045193255 0.035673007 0.12760562 -0.07423655 0.012786677 0.08713319
-0.004813486 -0.004406552 -0.112315625 -0.0705053 0.16239855 0.043993942 -0.035940252 0.038804755
0.066463366 0.1541853 0.08766068 -0.044132438 0.020686166 -0.095464826 -0.045908067 0.13894802
-0.0143968295 -0.07056071 0.22065726 0.18002059 -0.049345784 0.09822719 0.033049542 -0.023812111
0.03360489 -0.04838092 0.21326755 -0.05659946 -0.03320373 -0.16253906 -0.083374664 0.058554906
00000000: baf6 0b3e 3be0 bf3b 5592 72bb cc91 d03c
00000010: 57eb d53d 4bd6 523d a4a5 d63d 6968 073e
00000020: bdfd 1f3e 9521 083e ea29 a73c c864 743d
00000030: dea6 763d 43d5 d63d 5315 8f3e 4e5f dcbd
00000040: 85b0 433e 514a 26be b044 223e 7915 ae3d
00000050: 0833 e63d 67e5 f83d 3048 ce3b 4e34 563e
00000060: c015 ca3d e38e 0b3e f73c d7b8 fbcd 81bd
00000070: 008e f9bb 6b9b 8ebd e0f3 3b3d 6f08 2b3d
00000080: 18a0 3b3e 9d81 b23d 462b 273c 55aa a2bd
00000090: b644 c13d 6a89 113d dcdb de3d 2997 8a3c
000000a0: bd4c 35bc a523 373e 625c f1bd 53a5 0c3d
000000b0: 1901 183e 7eb4 c3bd 1b13 933d d4bc 50bd
000000c0: feed 653e 388a c23d 3e69 84bd 4c1b 8bbd
000000d0: 278f 5fbd fa2a 8cbd 94de 883d 9927 513d
000000e0: 5139 4b3e f007 613d 1ed4 c43d b908 093e
000000f0: 94f1 cdbd 72c5 003e 2c2b 743e b2ce 7b3d
00000100: 4bf6 b83a 45e8 4f3e 9f0e 063e a360 913d
00000110: 5cc6 8b3d 4dd1 093e 515d 533d 859f 20be
00000120: c48a 2d3e 8e0b 153e 8c7f 5b3d f8e1 513d
00000130: 57bd 433e b154 ad3d ef6a e53d dc75 ac3d
00000140: 8434 313d f8d6 8abb 95af 193e dfd0 aa3d
00000150: 9c2f ca3d f6e2 e83d 766e 1a3e e679 853e
00000160: 0784 b13c c24a 023e 901c 393d dc1d 123d
00000170: 0cab 023e 5509 98bd 367f 513c e372 b23d
00000180: 72ba 9dbb d664 90bb bc05 e6bd 1565 90bd
00000190: ce4b 263e fe32 343d 1636 13bd bcf1 1e3d
000001a0: f21d 883d c0e2 1d3e 7187 b33d 37c4 34bd
000001b0: 0976 a93c 1083 c3bd 190a 3cbd 6448 0e3e
000001c0: aee0 6bbc 2282 90bd faf3 613e 5157 383e
000001d0: ce1e 4abd 562b c93d f55e 073d 9e11 c3bc
000001e0: 48a5 093d 122b 46bd cf62 5a3e d6d4 67bd
000001f0: a200 08bd a470 26be 56c0 aabd 45d7 6f3d

net_container.2.weight f4 [128, 128]
0.02818603 -0.08729696 0.012875002 -0.011430125 0.0505515 0.0017926035 0.045542248 -0.112316966
-0.0061072554 0.13848923 -0.053512096 -0.0493251 0.122863464 -0.061196774 0.045031626 0.0052298894
-0.024188202 0.08085033 0.037113555 0.057139214 0.035749543 0.06886117 -0.018419616 -0.07522798
-0.12978837 -0.03415519 -0.08148559 0.09019721 0.025298083 0.052375287 0.01369468 0.055971477
-0.025811663 -0.06827749 -0.033997655 -0.027954757 -0.042151596 0.035368785 0.049331807 0.06219807
0.08612038 0.0480936 -0.11601631 -0.12718724 0.035274725 0.02961547 -0.078881964 0.07204953
0.11041141 0.049261127 0.08050681 0.043316916 -0.008840391 -0.059127215 -0.06143442 -0.039690513
-0.100660816 -0.09522109 0.0957621 0.035549816 0.044079956 0.04046938 0.09683193 -0.06350059
-0.014460821 -0.005795207 -0.03286056 -0.064643085 -0.020510284 0.038604036 0.04524193 0.037328668
0.09892204 -0.052326906 -0.14243115 0.03762649 0.015625915 -0.11225957 0.10640059 0.091064855
0.035974216 0.06723331 0.027500201 0.066373795 -0.11060818 0.11269106 -0.06965098 -0.053154636
0.091068976 -0.023453886 -0.03383254 -0.04588752 -0.05573834 0.011738633 -0.11284935 -0.039373722
0.13264336 0.019251319 0.0017839493 0.02109027 0.04474366 0.0025063409 -0.05628793 -0.0069347434
0.0444763 -0.04510361 -0.018753894 -0.02198686 0.063909814 0.029372914 -0.030989615 -0.059513535
0.03303347 0.015675144 -0.043549992 -0.083364666 -0.09485619 -0.10251542 0.049179558 0.033572663
-0.03483543 -0.0546396 -0.037503567 0.0104571665 -0.0008122444 0.058193855 0.008715585 -0.1088883
0.026876891 0.07592398 -0.15842782 0.035134826 0.0631115 0.03781814 0.15079942 0.12808155
-0.012575447 -0.03399417 -0.056202233 0.10753039 -0.10599888 0.06183186 -0.004260915 0.07270394
0.081636414 0.026646394 -0.038381223 -0.056707982 -0.04941777 -0.052642796 0.09303559 -0.017265318
0.029895969 -0.026976168 -0.112638846 0.09510321 -0.02137784 0.0028850622 0.028790593 -0.1374901
-0.031939946 -0.019974532 -0.053005405 -0.05804137 0.064467 0.033543043 -0.080174774 -0.069918334
0.12922613 0.08558645 -0.009838379 0.15442686 -0.047332566 -0.027376758 0.067481786 -0.07449316
-0.007828884 -0.025505312 -0.0233186 -0.11587177 0.017002696 -0.0017828222 0.007501952 -0.03600708
-0.07382324 0.011927615 -0.063701674 0.060158234 -0.14844573 -0.015848162 -0.04655702 0.15640599
-0.11756447 -0.1470997 0.03766223 -0.087176934 -0.038697597 0.08607686 0.09573607 -0.05708319
0.029138716 0.1313654 -0.116427094 -0.11848712 -0.026697975 -0.016661413 0.043279808 0.0034540596
-0.038107637 -0.14786208 0.022458898 0.058203623 -0.10670741 0.1000191 0.083547406 -0.003526196
-0.02852283 -0.11055758 -0.13529232 -0.1334128 0.045454368 0.101476856 -0.042616796 -0.021535963
0.013136664 0.17701904 0.0753995 0.07368641 -0.01803541 -0.08192556 -0.059926137 0.096801616
-0.07216172 -0.045920987 -0.0919787 -0.13660032 0.0857258 0.032520115 -0.05444099 -0.1442388
-0.1146695 0.080377236 -0.0014947456 -0.0059854775 -0.040399376 0.054661788 -0.0020062972 0.05629744
0.15532401 -0.048712615 -0.16371788 -0.12747212 -0.04585053 -0.05759654 0.031376734 -0.09211986
00000000: 64e6 e63c c0c8 b2bd acf1 523c 6b45 3bbc
00000010: 170f 4f3d cbf5 ea3a 828a 3a3d 7006 e6bd
00000020: 5f1f c8bb 1fd0 0d3e 802f 5bbd 1e09 4abd
00000030: d79f fb3d 78a9 7abd 1573 383d 7e5f ab3b
00000040: 5626 c6bc dc94 a53d 6204 183d cf0a 6a3d
00000050: 1d6e 123d 1607 8d3d bce4 96bc 2111 9abd
00000060: 3ee7 04be 50e6 0bbd ebe1 a6bd 51b9 b83d
00000070: ed3d cf3c 7887 563d a75f 603c 5942 653d
00000080: fb72 d3bc 12d5 8bbd 2041 0bbd 6001 e5bc
00000090: 27a7 2cbd dcde 103d 2610 4a3d 67c3 7e3d
000000a0: e25f b03d cbfd 443d f699 edbd 5f3d 02be
000000b0: 3b7c 103d 249c f23c de8c a1bd b48e 933d
000000c0: 611f e23d 09c6 493d c1e0 a43d 146d 313d
000000d0: 4ad7 10bc 612f 72bd a9a2 7bbd 8592 22bd
000000e0: 4227 cebd 4603 c3bd eb1e c43d af9c 113d
000000f0: 2f8d 343d 38c3 253d d24f c63d 990c 82bd
00000100: 14ed 6cbc b8e5 bdbb cb98 06bd 9863 84bd
00000110: 2f05 a8bc 441f 1e3d 9a4f 393d f2e5 183d
00000120: a397 ca3d bd54 56bd 79d9 11be 3c1e 1a3d
00000130: eb01 803c 58e8 e5bd 8de8 d93d 3680 ba3d
00000140: b359 133d 9eb1 893d 1a48 e13c fcee 873d
00000150: 8b86 e2bd 92ca e63d 2ca5 8ebd adb8 59bd
00000160: 5f82 ba3d 5d22 c0bc fd93 0abd 8df4 3bbd
00000170: e34d 64bd 6553 403c 8f1d e7bd 5746 21bd
00000180: a9d3 073e f1b4 9d3c 68d3 e93a 80c5 ac3c
00000190: 2145 373d 6c41 243b 2c8e 66bd d83c e3bb
000001a0: c82c 363d 90be 38bd c4a1 99bc ca1d b4bc
000001b0: 26e3 823d 779f f03c efdd fdbc 77c4 73bd
000001c0: 1b4e 073d 2969 803c 7a61 32bd 18bb aabd
000001d0: f643 c2bd 9bf3 d1bd 8170 493d 7d83 093d
000001e0: 99af 0ebd c6cd 5fbd 579d 19bd 8954 2b3c
000001f0: cdec 54ba ae5c 6e3d d0cb 0e3c d400 dfbd
00000200: ed2c dc3c 087e 9b3d e73a 22be 89e9 0f3d
00000210: 9a40 813d 32e7 1a3d 2a6b 1a3e cf27 033e
00000220: 3f09 4ebc 793d 0bbd 5034 66bd e538 dc3d
00000230: f115 d9bd 6843 7d3d 259f 8bbb cee5 943d
00000240: fe30 a73d 8a49 da3c a135 1dbd a146 68bd
00000250: 4a6a 4abd f99f 57bd 7289 be3d ff6f 8dbc
00000260: 64e8 f43c 20fd dcbc 32af e6bd 79c5 c23d
00000270: 9420 afbc 5013 3d3b 40da eb3c 34ca 0cbe
00000280: 76d3 02bd a1a1 a3bc 321c 59bd cabc 6dbd
00000290: 4607 843d 6e64 093d ac32 a4bd 5831 8fbd
000002a0: db53 043e f347 af3d 2731 21bc 1322 1e3e
000002b0: cbdf 41bd 3945 e0bc e433 8a3d df8f 98bd
000002c0: b844 00bc 84f0 d0bc a606 bfbc 2e4e edbd
000002d0: 3d49 8b3c 96ad e9ba efd2 f53b 297c 13bd
000002e0: a430 97bd 0b6c 433c 0676 82bd 7b68 763d
000002f0: 2802 18be 01d4 81bc 93b2 3ebd e428 203e
00000300: a4c5 f0bd 4ea1 16be b643 1a3d d289 b2bd
00000310: 5f81 1ebd 1149 b03d 4611 c43d 10d0 69bd
00000320: 51b4 ee3c a784 063e 5471 eebd 60a9 f2bd
00000330: b6b5 dabc 847d 88bc 2b46 313d 815d 623b
00000340: c116 1cbd 2869 17be b9fb b73c ec66 6e3d
00000350: 6a89 dabd d0d6 cc3d e71a ab3d c017 67bb
00000360: b6a8 e9bc 036c e2bd 128a 0abe 5d9d 08be
00000370: 5c2e 3a3d 19d3 cf3d f38e 2ebd 306c b0bc
00000380: 2a3b 573c 7b44 353e 0e6b 9a3d e7e8 963d
00000390: ffbe 93bc 97c8 a7bd 1c75 75bd ed3f c63d
000003a0: 86c9 93bd a517 3cbd 545f bcbd f4e0 0bbe
000003b0: 0291 af3d d033 053d 84fd 5ebd 56b3 13be
000003c0: d8d7 eabd d29c a43d 57eb c3ba d321 c4bb
000003d0: d179 25bd 0ae5 5f3d 157c 03bb 2598 663d
000003e0: 420d 1f3e e186 47bd a9a5 27be 0d88 02be
000003f0: c4cd 3bbd 59ea 6bbd e484 003d 56a9 bcbd

net_container.2.bias f4 [128]
0.09931354 -0.12779486 -0.18069786 0.0052373293 -0.12203449 -0.14366156 0.0117350165 0.07753127
0.05917669 -0.12004809 0.1218003 -0.07934182 0.06093901 -0.082882725 0.048491497 0.016084414
-0.072061345 0.01084624 -0.06911396 0.07053584 0.10578334 -0.035661835 0.06752896 -0.043063216
-0.0071054148 0.018756505 0.0540438 -0.15745492 0.041600745 -0.086450815 -0.10918739 0.008069011
-0.06614255 -0.10796265 0.06592731 -0.068777554 -0.054996707 -0.026836913 0.0023913055 -0.10163946
-0.15364587 -0.01236125 -0.0735574 0.02102664 0.01189254 0.11609826 0.04665669 0.053561118
0.05145292 -0.10840735 0.068243 -0.07446765 -0.020495588 0.05950877 -0.077591255 -0.039901428
0.09674018 -0.1261507 0.083131805 0.11757205 -0.15297413 -0.0657136 -0.13925096 0.05222996
-0.042045586 -0.085593574 0.08003218 0.020864839 -0.096199505 0.048171107 -0.095046684 -0.020446584
-0.0053560934 0.060083535 -0.084793724 0.05138346 0.086127065 -0.09785726 -0.0466992 -0.01593172
-0.005229889 -0.085042246 0.06289978 -0.038445115 -0.1344588 0.036062792 0.04368516 0.09270759
0.059644777 -0.08506214 -0.10059074 0.031922206 -0.12454242 -0.007655411 -0.095363826 0.056476653
-0.04654683 -0.0076079797 -0.16122505 0.059624974 -0.14604974 -0.2190595 -0.062130302 -0.010487223
-0.085639805 -0.09566436 -0.03868228 -0.0037464248 -0.12447129 -0.045626406 0.116486736 -0.019489342
-0.117513575 0.020472797 0.094587564 -0.04373902 0.088882454 -0.023782589 -0.068739705 -0.058484
0.0759705 -0.15452148 0.058570113 -0.026937924 0.09066665 0.025228996 -0.007299985 -0.1327039
00000000: e664 cb3d a8dc 02be dc08 39be e79d ab3b
00000010: 38ed f9bd 041c 13be 3a44 403c b7c8 9e3d
00000020: 4263 723d c6db f5bd 7072 f93d f77d a2bd
00000030: 2f9b 793d 6bbe a9bd 059f 463d 76c3 833c
00000040: e694 93bd 6eb4 313c 9f8b 8dbd 1875 903d
00000050: f0a4 d83d 2512 12bd a04c 8a3d 0e63 30bd
00000060: 8ad4 e8bb 3ea7 993c 085d 5d3d dd3b 21be
00000070: 8b65 2a3d 200d b1bd a39d dfbd e333 043c
00000080: bf75 87bd 861b ddbd e604 873d 3fdb 8cbd
00000090: 3a44 61bd 16d9 dbbc 73b7 1c3b 5928 d0bd
000000a0: 5855 1dbe d786 4abc 43a5 96bd 0f40 ac3c
000000b0: eed8 423c edc4 ed3d 161b 3f3d e762 5b3d
000000c0: 4cc0 523d ac04 debd fcc2 8b3d 7f82 98bd
000000d0: 5de6 a7bc 78bf 733d 2ae8 9ebd ae6f 23bd
000000e0: b71f c63d a62d 01be 0241 aa3d 9dc9 f03d
000000f0: 40a5 1cbe da94 86bd ce97 0ebe 15ef 553d
00000100: fe37 2cbd af4b afbd e9e7 a33d bdec aa3c
00000110: 3f04 c5bd 114f 453d d6a7 c2bd 987f a7bc
00000120: 2b82 afbb 271a 763d 55a8 adbd 7777 523d
00000130: 6363 b03d 6369 c8bd a947 3fbd 3d83 82bc
00000140: 7d5f abbb a12a aebd 9ad1 803d a078 1dbd
00000150: 91af 09be 94b6 133d 36ef 323d 7add bd3d
00000160: 154e 743d 0f35 aebd 8502 cebd dcc0 023d
00000170: 1910 ffbd 3eda fabb 1c4e c3bd 1054 673d
00000180: e4a7 3ebd 5c4c f9bb 2e18 25be 5139 743d
00000190: 108e 15be 2251 60be 587c 7ebd 9ad2 2bbc
000001a0: ec63 afbd adeb c3bd 4f71 1ebd 9486 75bb
000001b0: ceea febd c1e2 3abd 9990 ee3d 1da8 9fbc
000001c0: f5aa f0bd 91b6 a73c 20b7 c13d b027 33bd
000001d0: 0108 b63d b4d3 c2bc 67c7 8cbd eb8c 6fbd
000001e0: 6c96 9b3d e13a 1ebe 37e7 6f3d ecac dcbc
000001f0: 70af b93d 0aad ce3c b634 efbb 88e3 07be

net_container.4.weight f4 [128, 128]
-0.059316102 0.10823072 -0.18048331 -0.043521903 0.010594218 -0.074407846 0.057729896 0.06852376
0.017641457 -0.041479312 -0.032668956 -0.031577542 0.074981175 -0.034526695 -0.034570675 -0.020396153
-0.056450892 -0.015092459 0.047683936 0.04164442 -0.14178133 -0.094461575 0.09944658 -0.015806936
0.07158132 0.0061529283 -0.013671917 -0.0008468668 0.05959898 0.10586759 -0.017217387 -0.0173761
0.024800513 -0.016706312 -0.068461105 -0.04227171 -0.053307593 -0.06923631 0.013724436 -0.012291148
-0.025183493 0.07933755 0.06614856 -0.06151982 0.06793004 -0.008995059 -0.01977972 0.12088688
-0.051674422 -0.007891236 0.081939325 0.045696054 0.10094179 -0.035255946 0.021432921 -0.14343578
0.0036907967 -0.04280395 -0.06629121 0.046594378 0.061526645 -0.0034860233 0.0073931986 0.042433877
-0.053358488 -0.07460266 -0.073405534 -0.06577282 0.09216392 0.03442317 0.0011212463 0.061272167
0.124438114 -0.02558845 -0.085974045 -0.03186873 0.012161508 -0.014020368 0.04733298 -0.028967481
0.037788544 0.047537625 -0.063815854 -0.06773431 0.05454036 0.108293615 0.015340005 0.047501065
0.0034601695 0.0037223427 0.014737063 -0.05455227 0.032225836 0.052780803 -0.019598233 -0.12405459
-0.02126533 0.0886986 -0.0588129 0.048337016 0.049720418 0.050770678 0.011461381 0.014119369
0.056437034 -0.0029786725 0.06566372 -0.027498255 -0.03442433 -0.05937561 0.02838543 0.060839124
-0.0014835787 -0.021980952 0.033857606 0.054974582 -0.09165743 0.04159832 -0.015395704 -0.05328855
0.040564977 -0.08734227 -0.045744717 0.079092674 -0.054668073 -0.06300877 0.10815911 -0.013556006
0.08545858 -0.06426478 -0.09938088 0.072758675 0.14784032 -0.3063151 0.0046016388 -0.10376879
-0.08120893 -0.055376798 0.04253522 -0.20326221 0.011150452 0.052717548 0.023934787 -0.025913518
0.016445158 -0.07719319 -0.058688354 0.007581818 0.0013928607 0.007739628 0.0289736 0.045614466
0.045746002 0.056103613 0.12666456 -0.024953308 0.049188327 -0.111645855 0.06304296 0.19742748
-0.012231972 0.100023426 -0.02612775 -0.04470145 -0.017511493 -0.043873724 -0.0027723694 -0.027454292
0.09081948 -0.016523242 -0.12869406 0.09768642 -0.049637396 -0.021203276 -0.09253297 -0.015706936
-0.026777437 0.0011198608 0.034984216 0.037980177 -0.11180022 -0.010390008 -0.03345231 -0.013202
-0.046187565 0.031945527 0.03442988 -0.03696405 0.048720755 0.10028127 0.07463573 -0.14026873
-0.0033041902 -0.120463304 0.101636045 0.062227037 0.05890425 -0.013132939 -0.029388351 -0.18410294
0.018338788 -0.122524805 -0.052316368 0.03400247 0.008567588 -0.030391589 -0.1152816 -0.028412707
-0.10142753 0.0033879867 -0.0049647703 0.082673624 -0.0047624493 -0.061959486 -0.1582673 -0.085551865
0.05970187 -0.116732195 0.021284435 -0.091080986 0.062053923 -0.06928012 0.067089885 0.023370864
0.06574475 -0.0061119823 0.1459406 0.04777982 0.089043535 -0.49719778 0.05532083 0.07016722
-0.0148005 -0.0045309486 -0.028606063 -0.0014478458 0.022183422 -0.040272314 -0.094225705 -0.072781146
-0.0653925 0.06780115 0.0039339517 0.013673877 0.12596546 -0.03324487 0.056958254 0.067931734
-0.09051769 -0.045834806 0.01701568 0.10246235 0.05269325 0.00933209 0.022477316 0.04743525
00000000: 71f5 72bd 11a8 dd3d 9ed0 38be 0644 32bd
00000010: 5f93 2d3c 2463 98bd 2f76 6c3d 2f56 8c3d
00000020: d184 903c 36e6 29bd e2cf 05bd 7457 01bd
00000030: bb8f 993d dd6b 0dbd fb99 0dbd d515 a7bc
00000040: 0d39 67bd 5c46 77bc 3b50 433d 5793 2a3d
00000050: 202f 11be 1275 c1bd a6aa cb3d 8c7d 81bc
00000060: 3a99 923d 819e c93b 2d00 60bc 4500 5eba
00000070: 0f1e 743d 1bd1 d83d 7a0b 8dbc 5358 8ebc
00000080: 722a cb3c addb 88bc 5635 8cbd 1a25 2dbd
00000090: 1059 5abd c4cb 8dbd 75dc 603c d060 49bc
000000a0: 9d4d cebc ba7b a23d e578 873d 35fc 7bbd
000000b0: e81e 8b3d 0360 13bc 1409 a2bc 8a93 f73d
000000c0: 8fa8 53bd 3e4a 01bc cecf a73d c92b 3b3d
000000d0: 92ba ce3d 8a68 10bd 1894 af3c d4e0 12be
000000e0: 4be1 713b 3253 2fbd b0c3 87bd bfd9 3e3d
000000f0: 5d03 7c3d c475 64bb a542 f23b 25cf 2d3d
00000100: 6e8e 5abd 48c9 98bd a455 96bd e6b3 86bd
00000110: 70c0 bc3d 4fff 0c3d c8f6 923a 86f8 7a3d
00000120: 69d9 fe3d de9e d1bc 2913 b0bd c988 02bd
00000130: 1041 473c b0b5 65bc 3ae0 413d 364d edbc
00000140: 29c8 1a3d d0b6 423d e3b1 82bd 49b8 8abd
00000150: b665 5f3d 0bc9 dd3d a554 7b3c 7a90 423d
00000160: 03c4 623b 8cf2 733b b973 713c 3372 5fbd
00000170: 3dff 033d af30 583d 798c a0bc 5510 febd
00000180: a134 aebc 9da7 b53d cce5 70bd 09fd 453d
00000190: a3a7 4b3d eaf4 4f3d 84c8 3b3c ed54 673c
000001a0: 852a 673d d535 43bb b37a 863d 0544 e1bc
000001b0: 8700 0dbd d733 73bd 9088 e83c 7232 793d
000001c0: a474 c2ba 6611 b4bc 46ae 0a3d 072d 613d
000001d0: e4b6 bbbd 0063 2a3d 433e 7cbc 1845 5abd
000001e0: 7627 263d 81e0 b2bd d05e 3bbd 57fb a13d
000001f0: a1eb 5fbd be0a 81bd 8682 dd3d 031a 5ebc
00000200: e804 af3d 419d 83bd 3488 cbbd 8002 953d
00000210: 7463 173e 55d5 9cbe 58c9 963b bb84 d4bd
00000220: de50 a6bd c8d2 62bd 6939 2e3d f823 50be
00000230: 63b0 363c 5bee 573d e312 c43c 9648 d4bc
00000240: ffb7 863c 7717 9ebd 3363 70bd e670 f83b
00000250: a690 b63a b59c fd3b 0b5a ed3c 3cd6 3a3d
00000260: 2960 3b3d e7cc 653d 5bb4 013e e16a ccbc
00000270: b379 493d 95a6 e4bd ab1c 813d 6e2a 4a3e
00000280: 9c68 48bc 15d9 cc3d dd09 d6bc de18 37bd
00000290: 4374 8fbc efb4 33bd a4b0 35bb d3e7 e0bc
000002a0: 90ff b93d c05b 87bc 60c8 03be d10f c83d
000002b0: 9550 4bbd 7eb2 adbc ed81 bdbd d5ab 80bc
000002c0: 5b5c dbbc 4bc8 923a 9c4b 0f3d 1a91 1b3d
000002d0: 84f7 e4bd da3a 2abc 4a05 09bd 344d 58bc
000002e0: 2c2f 3dbd 50d9 023d 5906 0d3d 9e67 17bd
000002f0: 6a8f 473d 4460 cd3d 9eda 983d 9ba2 0fbe
00000300: 1d8b 58bb 77b5 f6bd 8f26 d03d c7e1 7e3d
00000310: 9545 713d 8a2b 57bc d7bf f0bc 7b85 3cbe
00000320: 3a3b 963c 49ee fabd b049 56bd 2d46 0b3d
00000330: 125f 0c3c c8f7 f8bc c218 ecbd c4c1 e8bc
00000340: 3db9 cfbd fc08 5e3b 83af a2bb ca50 a93d
00000350: 520e 9cbb 3bc9 7dbd d310 22be d135 afbd
00000360: f389 743d 4a11 efbd b25c ae3c ab88 babd
00000370: 412c 7e3d bce2 8dbd 6c66 893d 4174 bf3c
00000380: 2fa5 863d 0647 c8bb 7471 153e c6b4 433d
00000390: 755c b63d b590 febe 1898 623d d5b3 8f3d
000003a0: cc7d 72bc 5a78 94bb 4357 eabc a5c5 bdba
000003b0: 02ba b53c 95f4 24bd 68f9 c0bd 480e 95bd
000003c0: 81ec 85bd 54db 8a3d 61e8 803b 6608 603c
000003d0: 17fd 003e c62b 08bd 0f4d 693d cb1f 8b3d
000003e0: 5761 b9bd 47bd 3bbd 7864 8b3c c8d7 d13d
000003f0: e1d4 573d 9fe5 183c 5922 b83c 774b 423d

net_container.4.bias f4 [128]
-0.071519 -0.08213287 0.028560244 -0.13442622 -0.05959649 -0.050198104 -0.10000238 -0.049333815
-0.074120276 0.006612041 0.08654203 -0.075811215 -0.029075013 -0.114134274 0.014147325 0.08368292
-0.087291874 0.031856894 0.046270423 -0.024234833 -0.036504436 -0.0040041837 -0.16247417 0.0281789
-0.031295814 -0.08809755 0.072044216 0.029626131 -0.04556226 0.027874006 -0.06847902 -0.0004760727
0.014427422 -0.04467504 -0.058673244 -0.106584184 -0.041386195 -0.037661523 0.034256686 0.06876473
-0.018625263 -0.088340715 0.04976562 -0.049895052 -0.08666681 0.05583078 -0.109392695 0.0071336003
0.07669412 0.03719577 0.025163244 -0.016277267 -0.01529497 -0.041303672 -0.046020124 0.046609323
0.07189715 -0.09470413 -0.051130004 0.07156051 -0.041822873 -0.07627872 -0.041310728 0.0018326434
-0.06822929 -0.004649469 -0.12417354 0.07441157 -0.036878992 -0.04840279 0.095915616 -0.03189699
0.0077287764 0.07094498 -0.07078695 0.060347382 0.028449073 0.034420438 0.07718499 -0.051103335
0.08736443 0.025566751 3.1688774e-05 -0.00094691996 -0.030144488 -0.103978135 -0.028195564 -0.069967315
0.025276942 -0.018521326 -0.06642681 -0.0416843 -0.059972726 -0.05807503 0.05883528 -0.032924894
-0.045062657 -0.113261126 -0.016226579 0.004414818 -0.13007496 -0.090942636 -0.13665661 -0.004244697
0.03290912 -0.0043541724 0.061806846 -0.047396146 -0.15027545 0.056042545 -0.017695611 0.033905163
-0.052115876 -0.104245126 0.06897143 0.080209106 0.036772467 -0.0025891499 -0.0546125 0.071178555
-0.046873275 0.0222952 0.061160546 -0.07996062 -0.02273853 -0.057599507 0.026025534 -0.02160243
00000000: 8e78 92bd 4735 a8bd 2cf7 e93c 07a7 09be
00000010: 731b 74bd 879c 4dbd 0cce ccbd 4112 4abd
00000020: 5fcc 97bd d2a9 d83b f33c b13d e942 9bbd
00000030: b92e eebc 3bbf e9bd 2fca 673c f361 ab3d
00000040: 15c6 b2bd 607c 023d 0e86 3d3d 2188 c6bc
00000050: ad85 15bd 8735 83bb a15f 26be 70d7 e63c
00000060: 0a30 00bd 7d6c b4bd eb8b 933d 80b2 f23c
00000070: 7e9f 3abd 0758 e43c ba3e 8cbd 6599 f9b9
00000080: fe60 6c3c 2dfd 36bd 5b53 70bd cf48 dabd
00000090: 9284 29bd f842 1abd bd50 0c3d 86d4 8c3d
000000a0: 0294 98bc faeb b4bd 09d7 4b3d c15e 4cbd
000000b0: 5e7e b1bd d1ae 643d 4709 e0bd fac0 e93b
000000c0: cf11 9d3d 975a 183d 2623 ce3c e757 85bc
000000d0: c197 7abc 0a2e 29bd 997f 3cbd 6be9 3e3d
000000e0: d03e 933d 3df4 c1bd b26d 51bd 518e 923d
000000f0: 764e 2bbd 0438 9cbd 7035 29bd 4f35 f03a
00000100: ccbb 8bbd 935a 98bb b24e febd 1865 983d
00000110: 6d0e 17bd 0142 46bd 686f c43d 6ba6 02bd
00000120: ad41 fd3b 9a4b 913d c0f8 90bd d12e 773d
00000130: 080e e93c 72fc 0c3d 2a13 9e3d bb51 51bd
00000140: 1fec b23d 5d71 d13c 90e9 0438 b93a 78ba
00000150: 93f1 f6bc 7df2 d4bd 62fa e6bc 064b 8fbd
00000160: 9711 cf3c 09ba 97bc c80a 88bd 28bd 2abd
00000170: f6a5 75bd 15e0 6dbd 43fd 703d 41dc 06bd
00000180: 9f93 38bd 73f5 e7bd 9aed 84bc 2daa 903b
00000190: 5f32 05be 2240 babd b6ef 0bbe 1917 8bbb
000001a0: b7cb 063d 72ad 8ebb 2d29 7d3d 7622 42bd
000001b0: cfe1 19be de8c 653d 63f6 90bc 24e0 0a3d
000001c0: 7577 55bd 787e d5bd e540 8d3d ac44 a43d
000001d0: ba9e 163d baae 29bb 5bb1 5fbd 10c6 913d
000001e0: 31fe 3fbd 6ca4 b63c 7b83 7a3d 65c2 a3bd
000001f0: 2746 babc 76ed 6bbd 8033 d53c 94f7 b0bc

policy_layer.weight f4 [19, 128]
-0.028761568 0.035249438 -0.022944482 0.009382854 -0.024105098 0.09662198 0.05118744 -0.0370886
0.0134047065 0.062453654 -0.044289235 0.06154108 0.025891716 0.0045290394 0.029925415 0.035389226
0.02051183 -0.011654344 0.005214234 -0.017199539 0.026077842 0.047144935 0.0328785 -0.04210636
-0.00049845 -0.0032475707 0.005878055 -0.03811881 0.033000533 0.07500903 0.001594767 0.02943826
-0.07207533 0.00043479167 0.03906726 -0.026828803 0.08628604 0.03047162 -0.032981362 -0.007501511
-0.03575822 0.024791732 -0.09915388 0.07531175 -0.03500835 -0.058100104 0.050623737 0.0055236258
0.0026734013 0.0061836997 -0.0508667 0.03417087 0.04172348 0.015632985 -0.03016218 -0.013119645
0.0022993325 0.055363223 0.011790751 0.004797626 0.039214287 0.043159768 0.018971631 -0.033521675
-0.033544183 -0.0031930767 -0.06774095 0.030473392 -0.04513608 -0.044442065 -0.03058567 0.01389797
0.00026527184 0.012992035 0.011104083 0.002743579 0.05458415 -0.011711406 -0.024126332 0.007855227
-0.014467774 0.0033175691 0.05912069 -0.021673216 0.070515215 -0.05029108 -0.0067777913 0.01718415
-0.022469174 0.05552083 0.028854147 -0.0076346677 -0.01966043 0.037740722 -0.035343483 -0.021054586
0.02837406 0.06476316 0.016987234 -0.043963198 0.032521036 0.01581761 -0.018384714 -0.0025747814
-0.053246975 -0.038459513 0.0030207054 0.04820381 -0.012927025 -0.00992054 0.036265813 0.045855686
0.017955786 0.028121982 0.00089171313 -0.008441024 -0.11099558 0.028972203 -0.04391488 -0.007213619
-0.034017116 -0.05490866 -0.054881748 -0.016100964 0.011673869 -0.02496059 -0.0064110756 -0.053430174
-0.041486207 0.034901794 0.076467454 -0.047377076 -0.024394946 0.0177095 -0.020467706 -0.024222584
-0.02189793 0.038639635 -0.07579571 -0.04448217 -0.035526905 -0.07920561 0.013710716 -0.01770675
0.018688008 -0.039031006 0.065294966 0.0009486396 0.02156797 0.028744373 -0.0076421886 0.037964746
0.02487662 0.01987152 0.02495225 -0.006725946 -0.011452213 -0.044423196 0.01970457 -0.013663294
-0.0031237444 0.030797979 -0.011575531 -0.035603594 0.0551268 0.0049689733 0.099940434 0.034191158
-0.005362739 -0.03028025 -0.018473066 -0.030273825 0.007462176 0.07872454 -0.04261323 0.034201615
-0.007509177 0.018618139 -0.04804315 -0.054525454 0.028662547 0.0017260719 0.0013774588 0.06271518
-0.029300068 -0.030435823 -0.03323881 0.018124972 -0.06527526 0.0030142427 -0.060294744 0.022147933
0.0282965 0.0032148166 0.04694915 0.029073475 0.038486607 0.030843558 -0.029964233 -0.026194321
-0.027193341 -0.01779626 0.010513964 0.034409046 -0.0076949755 0.058480997 0.031205118 -0.08650901
-0.012511771 0.03969583 -0.043325085 0.0058365525 0.07529526 -0.0001625422 0.0057309503 0.013647384
-0.02194817 -0.001899266 0.033003904 0.005236942 -0.049796905 -0.050138276 0.002253171 0.07544814
0.028614717 0.0006414311 -0.016107019 0.008030451 -0.028696641 0.061800003 -0.023553832 0.035417944
-0.0032964118 0.009111048 0.0035493784 0.016796483 -0.058739033 -0.02376802 -0.011704169 2.7836037e-05
-0.021118553 -0.02033368 -0.008687998 0.0044661844 0.101034544 0.0009996396 -0.057385173 -0.010749374
-0.0017346939 0.009911079 0.01291446 0.050888546 0.044581365 0.008398257 -0.030663656 0.018125614
00000000: 619d ebbc b761 103d 11f6 bbbc 8bba 193c
00000010: 0e78 c5bc bfe1 c53d eca9 513d 37ea 17bd
00000020: 6a9f 5b3c 67cf 7f3d a168 35bd 8012 7c3d
00000030: dd1a d43c 5668 943b 2526 f53c 4bf4 103d
00000040: 6d08 a83c ddf1 3ebc 2adc aa3b 0ce6 8cbc
00000050: 33a1 d53c 0c1b 413d 9bab 063d b877 2cbd
00000060: 6aaa 02ba 32d5 54bb b39c c03b 7822 1cbd
00000070: 912b 073d 569e 993d 8007 d13a 8128 f13c
00000080: 3b9c 93bd c0f4 e339 fe04 203d 14c8 dbbc
00000090: bcb6 b03d 9e9f f93c 7717 07bd 3ccf f5bb
000000a0: 3677 12bd 0818 cb3c 3011 cbbd 0c3d 9a3d
000000b0: ea64 0fbd 60fa 6dbd d65a 4f3d 88ff b43b
000000c0: 3b34 2f3b a2a0 ca3b 9a59 50bd c1f6 0b3d
000000d0: 3de6 2a3d bf10 803c ad16 f7bc c8f3 56bc
000000e0: 66b0 163b 8cc4 623d fe2d 413c 6735 9d3b
000000f0: 299f 203d 4cc8 303d 656a 9b3c 064e 09bd
00000100: a065 09bd f042 51bb c4bb 8abd 56a3 f93c
00000110: 9ce0 38bd e208 36bd cd8e fabc 50b4 633c
00000120: 2f14 8b39 8bdc 543c e6ed 353c 9ecd 333b
00000130: a193 5f3d 32e1 3fbc 96a4 c5bc 36b3 003c
00000140: 3e0a 6dbc 936b 593b 8928 723d 078c b1bc
00000150: 486a 903d 05fe 4dbd 3c18 debb c6c5 8c3c
00000160: 4611 b8bc cf69 633d 885f ec3c 3c2c fabb
00000170: e90e a1bc 0496 1a3d 54c4 10bd ab7a acbc
00000180: b770 e83c 8ca2 843d d028 8b3c c112 34bd
00000190: c734 053d ef93 813c 8a9b 96bc aabd 28bb
000001a0: 8019 5abd b987 1dbd 07f7 453b 5c71 453d
000001b0: dfcb 53bc c389 22bc 768b 143d 2cd3 3b3d
000001c0: 0318 933c 1260 e63c dbc1 693a 394c 0abc
000001d0: a751 e3bd 1d57 ed3c 17e0 33bd 3960 ecbb
000001e0: 8855 0bbd e7e7 60bd afcb 60bd 2be6 83bc
000001f0: c143 3f3c 277a ccbc 0014 d2bb 99d9 5abd
00000200: 71ed 29bd 2ff5 0e3d f89a 9c3d 770e 42bd
00000210: e9d7 c7bc 8313 913c e4ab a7bc 716e c6bc
00000220: 4a63 b3bc 9844 1e3d c83a 9bbd f032 36bd
00000230: a984 11bd 8d36 a2bd e9a2 603c bf0d 91bc
00000240: 9817 993c fade 1fbd 5eb9 853d 20ae 783a
00000250: 50af b03c 5279 eb3c 536b fabb ec80 1b3d
00000260: 0eca cb3c 99c9 a23c a968 cc3c 5365 dcbb
00000270: 10a2 3bbc 19f5 35bd 7a6b a13c 02dc 5fbc
00000280: bcb7 4cbb 0b4c fc3c 4ca7 3dbc 13d5 11bd
00000290: a4cc 613d c5d2 a23b 92ad cc3d 070c 0c3d
000002a0: eab9 afbb 490e f8bc d454 97bc d000 f8bc
000002b0: 4585 f43b 553a a13d 368b 2ebd fe16 0c3d
000002c0: 8b0f f6bb 1185 983c e5c8 44bd 1556 5fbd
000002d0: b8cd ea3c 5d3d e23a d98b b43a d170 803d
000002e0: b206 f0bc 8c54 f9bc 6b25 08bd d27a 943c
000002f0: 09af 85bd 9a8a 453b 9ff7 76bd 956f b53c
00000300: 10ce e73c acaf 523b c04d 403d 7f2b ee3c
00000310: 22a4 1d3d a1ab fc3c 8d77 f5bc 7995 d6bc
00000320: 92c4 debc 76c9 91bc c342 2c3c 80f0 0c3d
00000330: 2226 fcbb c589 6f3d e0a1 ff3c a32b b1bd
00000340: 2cfe 4cbc 1898 223d a575 31bd 8d40 bf3b
00000350: 6734 9a3d 1770 2ab9 b2ca bb3b 4799 5f3c
00000360: a6cc b3bc cbf0 f8ba 1a2f 073d a79a ab3b
00000370: d7f7 4bbd cb5d 4dbd f0a9 133b 8e84 9a3d
00000380: 6969 ea3c b625 283a def2 83bc 2792 033c
00000390: 3815 ebbc 0022 7d3d f7f3 c0bc 6812 113d
000003a0: 9d08 58bb 8146 153c b09c 683b c798 893c
000003b0: 5798 70bd 27b5 c2bc d8c2 3fbc 6f81 e937
000003c0: d100 adbc d192 a6bc 1b58 0ebc 1259 923b
000003d0: 33eb ce3d 5706 833a b70c 6bbd 241e 30bc
000003e0: ab5e e3ba 1462 223c 2c97 533c 8270 503d
000003f0: f39a 363d d898 093c 5932 fbbc 2b7c 943c

policy_layer.bias f4 [19]
-0.042958893 -0.0047220304 -0.034722067 0.0012932667 0.0069544455 -0.04077374 -0.028374985 0.010964098
-0.051052485 0.06643983 0.02571434 0.052145284 0.049784765 0.008384473 -0.046872605 -0.11598466
-0.14684696 0.004220399 -0.04158608
00000000: aaf5 2fbd 43bb 9abb ba38 0ebd d482 a93a
00000010: 1ee2 e33b 5d02 27bd a872 e8bc c3a2 333c
00000020: 691c 51bd 9b11 883d e1a6 d23c 4b96 553d
00000030: 1ceb 4b3d 075f 093c 7dfd 3fbd 5e89 edbd
00000040: 0d5f 16be 464b 8a3b 2a56 2abd

value_layer.weight f4 [1, 128]
-0.012635866 0.077296115 -0.06458648 0.0010724079 -0.07929552 0.15039557 -0.1031586 0.13357462
-0.04773571 -0.06562638 -0.11453549 -0.042682808 0.082454726 0.047697324 -0.07908037 -0.069527395
-0.032545723 -0.15306644 0.09849104 0.07133111 -0.11227307 0.22503306 0.019168356 0.1389591
0.014935081 0.18416966 -0.13365723 -0.14439666 0.0470814 -0.042132363 0.199333 0.071049005
-0.1130055 -0.008028997 0.07298838 0.09408811 -0.012720761 -0.060909774 -0.14735338 -0.09081243
-0.039882824 0.07174871 -0.03249077 -0.07531868 0.0893713 -0.03968782 0.0606601 -0.08163713
-0.105365954 -0.015367139 0.13012138 0.16318785 -0.1829364 -0.004779678 -0.11803288 -0.19986857
0.024101535 -0.16495064 0.07823472 0.017841252 0.07521014 0.11256106 -0.2322274 -0.18226618
0.060606178 0.10493203 0.022660278 0.0915622 -0.10416578 0.07076338 -0.130128 0.048994116
-0.047666874 0.18430965 0.05744358 -0.06059307 0.012911363 0.054479856 -0.02392109 -0.031924564
-0.032264993 0.013330077 -0.05669821 -0.050285656 0.06957436 0.06824371 -0.1274156 0.02171264
-0.028130788 0.012121488 0.13080327 0.045359746 0.1479287 -0.09190827 0.07998209 -0.10308461
0.004262005 0.08362654 -0.1184252 0.050023127 0.0152767375 -0.1208985 -0.071315415 -0.069409296
0.017019344 0.009667713 0.017250529 0.10679043 -0.1809727 0.22611952 -0.0888325 0.17595743
0.09651437 0.12720035 -0.07368817 -0.0835382 -0.07237365 0.04727253 0.09850783 -0.15489615
0.034606975 0.05836401 0.055630833 0.042277906 0.0015331351 0.11003945 -0.101374075 0.040592454
00000000: aa06 4fbc 6d4d 9e3d eb45 84bd 0a90 8c3a
00000010: b165 a2bd 4c01 1a3e d144 d3bd c9c7 083e
00000020: 8586 43bd 2067 86bd 9591 eabd 2bd4 2ebd
00000030: 06de a83d 455e 433d e4f4 a1bd 6164 8ebd
00000040: aa4e 05bd 73bd 1cbe acb5 c93d 0c16 923d
00000050: 6cef e5bd 116f 663e f506 9d3c 4b4b 0e3e
00000060: 45b2 743c f996 3c3e 71dd 08be b8dc 13be
00000070: 6dd8 403d fc92 2cbd f31d 4c3e 2482 913d
00000080: 6d6f e7bd 0e8c 03bc ef7a 953d 44b1 c03d
00000090: bd6a 50bc 877c 79bd cee3 16be defb b9bd
000000a0: 2c5c 23bd fdf0 923d 0b15 05bd ae40 9abd
000000b0: 4d08 b73d b28f 22bd ba76 783d 5e31 a7bd
000000c0: 1bca d7bd 74c6 7bbc 8a3e 053e b71a 273e
000000d0: ae53 3bbe d89e 9cbb 39bb f1bd 59aa 4cbe
000000e0: 9570 c53c d2e8 28be 8639 a03d d127 923c
000000f0: c607 9a3d 6a86 e63d 05cd 6dbe fca3 3abe
00000100: 2f3e 783d 9be6 d63d 0ca2 b93c f684 bb3d
00000110: de54 d5bd 64ec 903d 4640 05be 0eae 483d
00000120: 573e 43bd abbb 3c3e f649 6b3d 7030 78bd
00000130: 2e8a 533c 4526 5f3d 29f6 c3bc 55c3 02bd
00000140: 4c28 04bd 6566 5a3c 623c 68bd 55f8 4dbd
00000150: 017d 8e3d 5cc3 8b3d 3c79 02be b5de b13c
00000160: 8a72 e6bc 3599 463c 4bf1 053e 24cb 393d
00000170: 9f7a 173e 673a bcbd a6cd a33d 061e d3bd
00000180: 4aa8 8b3b 6444 ab3d e988 f2bd 0de5 4c3d
00000190: 484b 7a3c a299 f7bd d10d 92bd 7626 8ebd
000001a0: 276c 8b3c 5465 1e3c fb50 8d3c f1b4 da3d
000001b0: e850 39be e08b 673e d0ed b5bd 2f2e 343e
000001c0: 53a9 c53d cf40 023e d3e9 96bd 1316 abbd
000001d0: a338 94bd d7a0 413d 79be c93d 199d 1ebe
000001e0: 0bc0 0d3d 1a0f 6f3d 28dd 633d 992b 2d3d
000001f0: 7af3 c83a 5d5c e13d 369d cfbd 4644 263d

log_std_parameter f4 [19]
-3.2616541 -3.2534494 -3.4199717 -1.7938435 -1.7626241 -0.8885055 -0.9094044 -2.114553
-2.3989263 -0.7056955 -0.64722 -1.5307072 -1.6655803 -0.6910205 -0.8105966 -0.74117506
-0.88296664 -0.76650655 -0.66355383
00000000: f1be 50c0 8438 50c0 d1e0 5ac0 aa9c e5bf
00000010: ab9d e1bf 1975 63bf bace 68bf d654 07c0
00000020: 0288 19c0 76a8 34bf 36b0 25bf 37ee c3bf
00000030: bc31 d5bf b8e6 30bf 4283 4fbf a6bd 3dbf
00000040: 1a0a 62bf c639 44bf aade 29bf

net_container.0.weight f4 [128, 69]
0.14781389 -0.5954173 -0.007080629 0.07659914 -0.0073629646 -0.023035983 -0.02000999 -0.9295564
0.030279972 -0.009854709 -0.062220123 0.29530144 0.17871575 -0.2395125 -0.6978382 -0.4094622
0.46651682 -0.055572018 0.38463667 0.07274517 -0.16368584 0.33240476 0.25552556 -0.03888232
-0.2554949 0.041926607 -0.58173066 0.027006183 0.29569885 -0.009686692 0.007218018 0.0062138387
0.0014733413 -0.10980495 -0.053232152 0.02262227 -0.062039033 -0.044463877 -0.044288732 0.018099565
-0.051871832 -0.036981806 0.070052 0.032095943 0.048523366 0.010751163 -0.07149133 0.10050776
-0.030266332 0.059371606 -0.01987484 -0.11615703 0.038991183 0.042643122 -0.008872864 -0.09340926
-0.011505843 -0.013124794 0.08348461 0.11234231 -0.030502932 -0.042528536 -0.23033725 -0.016930357
-0.041752305 0.07037192 -0.054032866 0.07719273 0.013957014 -0.08466322 0.030167818 0.4176721
-0.17880303 -0.2736604 0.181523 -0.42196473 0.07938618 -0.038284216 0.27058047 -0.041140597
0.10710399 -0.29728156 -0.52076846 -0.16874494 0.120322645 -0.035898928 -0.07182928 0.3054467
0.08193754 0.014781282 0.27396008 -0.014271587 0.0932137 0.13326648 0.22693802 -0.42082477
-0.019151293 0.15608312 -0.025452582 0.003303014 0.034244295 0.034033705 -0.022132123 -0.11830501
-0.057245903 -0.004175148 0.03598178 -0.010272559 0.039194148 0.027768753 -0.15412061 -0.041370496
0.041595344 0.07531078 0.02220553 0.09611622 0.05019224 -0.09386948 0.053595398 0.07137038
-0.14720492 0.02272261 0.06499211 0.043759856 -0.07959844 -0.026154494 0.02686123 -0.08019272
0.020201562 0.019783553 0.12879667 -0.31686664 -0.043384753 -0.08533962 -0.15521626 -0.17631795
-0.12702426 0.023885703 -0.09543061 0.6200632 -0.286113 -0.037014544 -0.032034665 -0.08146954
-0.2621216 0.3939588 0.09393101 0.3383214 0.041517723 -0.067617856 -0.22107792 -0.026167512
0.27812725 0.06525738 -0.38489765 -0.11895663 -0.078138195 -0.48034972 0.37120083 -0.11187292
0.26315627 0.017911304 0.21788132 -0.16539358 0.21462373 -0.010798352 -0.14475009 0.051324766
0.0664364 0.035843663 -0.008113294 -0.002460956 0.026350396 0.0091918865 0.02514719 -0.06272292
-0.03637327 -0.019968769 -0.015328792 0.062057093 -0.02148623 0.0582908 0.012205943 0.06033082
-0.1461449 0.015154868 0.03452864 -0.034610637 -0.011824506 0.15652409 -0.033720855 -0.12726934
-0.06134265 0.076234184 -0.101338536 0.0844836 0.10174901 0.022109706 0.11729307 -0.22757673
0.33636168 -0.057906017 0.034393195 0.07513446 -0.059730973 -0.012952637 -0.025507595 0.15514903
0.35359138 -0.15010265 -0.0987993 -0.16187458 0.053699996 0.7539479 -0.04655359 0.009010405
0.28468814 0.116648525 -0.080494575 0.28133208 0.23004231 0.82573724 0.63663906 -0.36517844
-0.1922015 -0.081418745 -0.06860618 0.5596139 0.06457931 0.13627444 0.07249635 0.37877735
-0.015883029 0.36633983 -0.057434462 -0.28653154 -0.043180484 -0.04432777 0.03385323 -0.028658267
-0.04210658 0.017566262 -0.04359606 0.047752406 0.064589925 -0.013571844 -0.0074433116 -0.02012463
-0.02782988 0.001578034 -0.011195425 -0.00499519 0.027112909 0.02652649 -0.008003503 -0.008484207
00000000: 865c 173e 456d 18bf 9f04 e8bb 03e0 9c3d
00000010: 0645 f1bb f5b5 bcbc feeb a3bc 69f7 6dbf
00000020: b40d f83c a575 21bc 87da 7ebd c031 973e
00000030: 4301 373e c442 75be 86a5 32bf 08a5 d1be
00000040: 4bdb ee3e 7c9f 63bd 19ef c43e 6bfb 943d
00000050: 439d 27be f530 aa3e 3fd4 823e 1143 1fbd
00000060: 3ad0 82be 3cbb 2b3d 4dec 14bf 123c dd3c
00000070: d765 973e eeb4 1ebc 2085 ec3b 759d cb3b
00000080: 211d c13a 6be1 e0bd f509 5abd 5752 b93c
00000090: a41c 7ebd c11f 36bd 1a68 35bd 8a45 943c
000000a0: 8f77 54bd 3c7a 17bd 6c77 8f3d 0977 033d
000000b0: 70c0 463d a525 303c 0c6a 92bd 03d7 cd3d
000000c0: 19f1 f7bc a42f 733d 8fd0 a2bc bde3 edbd
000000d0: 38b5 1f3d 8eaa 2e3d 7d5f 11bc 5b4d bfbd
000000e0: 0183 3cbc 6009 57bc fbf9 aa3d ba13 e63d
000000f0: 49e1 f9bc 6732 2ebd 87dd 6bbe 88b1 8abc
00000100: 7704 2bbd 271f 903d 9151 5dbd 3917 9e3d
00000110: f6ab 643c e963 adbd 8022 f73c 1ed9 d53e
00000120: 2418 37be 371d 8cbe 2ae1 393e c30b d8be
00000130: 3995 a23d e9cf 1cbd 8689 8a3e 0b83 28bd
00000140: 5659 db3d 4a35 98be 1551 05bf 79cb 2cbe
00000150: b86b f63d c10a 13bd 3b1b 93bd 8363 9c3e
00000160: dece a73d 312d 723c 7f44 8c3e 60d3 69bc
00000170: d3e6 be3d 0277 083e 7162 683e 5876 d7be
00000180: 2ce3 9cbc 41d4 1f3e ef81 d0bc 6177 583b
00000190: bf43 0c3d ed66 0b3d 6d4e b5bc e649 f2bd
000001a0: ae7a 6abd aecf 88bb a261 133d 3c4e 28bc
000001b0: 0b8a 203d 4c7b e33c cbd1 1dbe 1c74 29bd
000001c0: e15f 2a3d 8a3c 9a3d 5fe8 b53c 95d8 c43d
000001d0: 6196 4d3d a43e c0bd d986 5b3d a22a 923d
000001e0: e3bc 16be c424 ba3c 951a 853d 893d 333d
000001f0: 8204 a3bd f341 d6bc 150c dc3c 153c a4bd
00000200: bf7d a53c 1e11 a23c 46e3 033e 583c a2be
00000210: 36b4 31bd 8ac6 aebd 03f1 1ebe b18c 34be
00000220: a612 02be f3ab c33c 2071 c3bd 76bc 1e3f
00000230: 677d 92be 909c 17bd c836 03bd 81d9 a6bd
00000240: cd34 86be f8b4 c93e e75e c03d 7638 ad3e
00000250: 7d0e 2a3d 3b7b 8abd 4062 62be 405d d6bc
00000260: b266 8e3e a9a5 853d 4e11 c5be 899f f3bd
00000270: eb06 a0bd 66f0 f5be 090e be3e a11d e5bd
00000280: 6bbc 863e baba 923c 481c 5f3e ef5c 29be
00000290: 53c6 5b3e 92eb 30bc 5e39 14be eb39 523d
000002a0: cf0f 883d ced0 123d 9fed 04bc fe47 21bb
000002b0: c9dc d73c 9199 163c 7b01 ce3c e074 80bd
000002c0: 23fc 14bd 8b95 a3bc 9d25 7bbc 942f 7e3d
000002d0: e403 b0bc 55c2 6e3d 70fb 473c 731d 773d
000002e0: 02a7 15be 204c 783c e76d 0d3d e2c3 0dbd
000002f0: 93bb 41bc da47 203e e11e 0abd e552 02be
00000300: 6e42 7bbd ab20 9c3d 948a cfbd bd05 ad3d
00000310: c961 d03d 6a1f b53c 5937 f03d e009 69be
00000320: 9937 ac3e dc2e 6dbd e1df 0c3d 19e0 993d
00000330: 77a8 74bd 4c37 54bc 4ef5 d0bc 63df 1e3e
00000340: ee09 b53e 82b4 19be 4a57 cabd 73c2 25be
00000350: 87f4 5b3d bb02 413f faae 3ebd 61a0 133c
00000360: a5c2 913e 6ce5 ee3d 57da a4bd c20a 903e
00000370: 3690 6b3e 8463 533f c7fa 223f abf8 babe
00000380: 78d0 44be dfbe a6bd 6681 8cbd db42 0f3f
00000390: 2842 843d 878b 0b3e f778 943d 1bef c13e
000003a0: 201d 82bc e590 bb3e 6640 6bbd 43b4 92be
000003b0: 05de 30bd 0991 35bd afa9 0a3d bec4 eabc
000003c0: f377 2cbd 1fe7 8f3c c891 32bd 0798 433d
000003d0: b947 843d 715c 5ebc 06e7 f3bb 68dc a4bc
000003e0: 7dfb e3bc 09d6 ce3a 046d 37bc b1ae a3bb
000003f0: e41b de3c 154e d93c 2021 03bc 5801 0bbc

net_container.0.bias f4 [128]
0.13668337 0.005855588 -0.003701349 0.025460146 0.10445278 0.051473897 0.10480812 0.13223423
0.15624137 0.1329406 0.020405728 0.059666425 0.06021773 0.10489895 0.27945957 -0.107603654
0.19110306 -0.16239287 0.15846515 0.08500189 0.11240202 0.1215313 0.0062952265 0.2091839
0.0986743 0.13628726 -0.000102633545 -0.06338116 -0.0076158047 -0.069632374 0.045886874 0.04175609
0.1832279 0.08716128 0.010203188 -0.079426445 0.09436934 0.03553144 0.108817786 0.016917782
-0.011065659 0.17884691 -0.11785199 0.034337353 0.14844169 -0.095559105 0.071813785 -0.05096133
0.22454068 0.094990194 -0.06465386 -0.06792316 -0.05457988 -0.06844135 0.066830784 0.051063154
0.19846083 0.05493921 0.09610771 0.13382234 -0.10055843 0.1257532 0.23844594 0.061476417
0.0014111487 0.20303448 0.13091515 0.0709851 0.068249434 0.13458748 0.051602665 -0.15685852
0.16947466 0.14555189 0.053588435 0.05124089 0.19115196 0.08463419 0.112020366 0.084209174
0.043262973 -0.004237052 0.15008385 0.0834062 0.09872362 0.11371414 0.150812 0.26069564
0.0216694 0.1272383 0.045193255 0.035673007 0.12760562 -0.07423655 0.012786677 0.08713319
-0.004813486 -0.004406552 -0.112315625 -0.0705053 0.16239855 0.043993942 -0.035940252 0.038804755
0.066463366 0.1541853 0.08766068 -0.044132438 0.020686166 -0.095464826 -0.045908067 0.13894802
-0.0143968295 -0.07056071 0.22065726 0.18002059 -0.049345784 0.09822719 0.033049542 -0.023812111
0.03360489 -0.04838092 0.21326755 -0.05659946 -0.03320373 -0.16253906 -0.083374664 0.058554906
00000000: baf6 0b3e 3be0 bf3b 5592 72bb cc91 d03c
00000010: 57eb d53d 4bd6 523d a4a5 d63d 6968 073e
00000020: bdfd 1f3e 9521 083e ea29 a73c c864 743d
00000030: dea6 763d 43d5 d63d 5315 8f3e 4e5f dcbd
00000040: 85b0 433e 514a 26be b044 223e 7915 ae3d
00000050: 0833 e63d 67e5 f83d 3048 ce3b 4e34 563e
00000060: c015 ca3d e38e 0b3e f73c d7b8 fbcd 81bd
00000070: 008e f9bb 6b9b 8ebd e0f3 3b3d 6f08 2b3d
00000080: 18a0 3b3e 9d81 b23d 462b 273c 55aa a2bd
00000090: b644 c13d 6a89 113d dcdb de3d 2997 8a3c
000000a0: bd4c 35bc a523 373e 625c f1bd 53a5 0c3d
000000b0: 1901 183e 7eb4 c3bd 1b13 933d d4bc 50bd
000000c0: feed 653e 388a c23d 3e69 84bd 4c1b 8bbd
000000d0: 278f 5fbd fa2a 8cbd 94de 883d 9927 513d
000000e0: 5139 4b3e f007 613d 1ed4 c43d b908 093e
000000f0: 94f1 cdbd 72c5 003e 2c2b 743e b2ce 7b3d
00000100: 4bf6 b83a 45e8 4f3e 9f0e 063e a360 913d
00000110: 5cc6 8b3d 4dd1 093e 515d 533d 859f 20be
00000120: c48a 2d3e 8e0b 153e 8c7f 5b3d f8e1 513d
00000130: 57bd 433e b154 ad3d ef6a e53d dc75 ac3d
00000140: 8434 313d f8d6 8abb 95af 193e dfd0 aa3d
00000150: 9c2f ca3d f6e2 e83d 766e 1a3e e679 853e
00000160: 0784 b13c c24a 023e 901c 393d dc1d 123d
00000170: 0cab 023e 5509 98bd 367f 513c e372 b23d
00000180: 72ba 9dbb d664 90bb bc05 e6bd 1565 90bd
00000190: ce4b 263e fe32 343d 1636 13bd bcf1 1e3d
000001a0: f21d 883d c0e2 1d3e 7187 b33d 37c4 34bd
000001b0: 0976 a93c 1083 c3bd 190a 3cbd 6448 0e3e
000001c0: aee0 6bbc 2282 90bd faf3 613e 5157 383e
000001d0: ce1e 4abd 562b c93d f55e 073d 9e11 c3bc
000001e0: 48a5 093d 122b 46bd cf62 5a3e d6d4 67bd
000001f0: a200 08bd a470 26be 56c0 aabd 45d7 6f3d
