humanoidprac/humanoidprac/scripts/skrl/logs/skrl/h1_flat/joint_experiment_ver3/2025-09-18_05-14-26_ppo_torch/checkpoints/agent_14400.pt (torch, 549970 bytes, 40 tensors)

log_std_parameter f4 [19]
-2.8928702 -2.9371917 -3.0943844 -1.6524748 -1.6678752 -0.7107769 -0.7192149 -2.1261547
-2.1301239 -0.6078563 -0.6034493 -1.3064884 -1.3755472 -0.6519306 -0.6784428 -0.65928745
-0.7660122 -0.6659772 -0.6405052
00000000: c924 39c0 f3fa 3bc0 650a 46c0 4b84 d3bf
00000010: ef7c d5bf 7af5 35bf 781e 38bf eb12 08c0
00000020: f353 08c0 789c 1bbf a77b 1abf 033b a7bf
00000030: ee11 b0bf ece4 26bf 6dae 2dbf 10c7 28bf
00000040: 6019 44bf 7b7d 2abf 26f8 23bf

net_container.0.weight f4 [128, 69]
-0.04859076 0.079633676 0.018663805 -0.2598049 -0.11681117 -0.0051574884 -0.18631423 -0.025742996
0.042172857 0.14787385 -0.062220123 -0.0050527244 0.3429307 0.041241754 0.5698847 0.045957774
0.3226653 -0.11126974 0.15053809 -0.238603 -0.24352589 0.024443947 0.083118044 -0.17364629
-0.18700194 0.16989078 -0.19304258 0.031019254 0.18034554 0.0775491 -0.07183651 -0.026234066
0.015718449 -0.01738356 -0.035923515 0.07631575 -0.062089507 -0.06052089 -0.10059222 0.033560175
-0.052140698 -0.013093461 0.06745774 0.039536193 0.0010878723 0.0044309245 -0.083094105 0.05285203
-0.062058188 0.0030550447 0.028651284 0.17463526 0.12965293 -0.05158603 -0.046800487 -0.08019416
0.054412544 0.053284388 -0.08846774 0.032315418 -0.05047695 -0.08171457 0.015965413 -0.07021795
-0.023281464 0.13529769 0.0027271847 -0.0648763 0.026957694 0.054351132 0.347516 0.4009454
0.0053320397 -0.094132476 0.12611562 -0.0023200552 0.21101695 0.07608238 0.052098643 -0.041140597
-0.26429164 0.26967603 0.22678442 0.39648423 0.025048299 0.098097466 -0.13595319 0.17677858
0.1714528 -0.49192822 0.063636 -0.0875204 -0.066896245 0.105122015 0.10395022 -0.28739026
0.24866447 0.2257955 0.07583402 -0.35266933 -0.02238381 0.05102419 -0.08514785 -0.06665516
-0.0338648 -0.016576547 0.008233325 0.11400163 0.005424241 0.09225068 0.016969861 -0.10694826
0.12913509 -0.0048649367 0.09297584 0.13535413 0.061114326 -0.028897049 0.067278445 0.17371015
0.042276908 -0.004111963 0.10097594 0.20029676 -0.027689742 0.0016674519 0.19544335 -0.045031533
0.009600717 -0.06813778 -0.023895161 -0.08092523 -0.18943572 -0.054286942 -0.20850907 -0.1565938
-0.13963258 0.07942965 -0.14400697 -0.14794348 0.012192601 0.06549435 0.017671969 -0.0049142013
-0.09909146 -0.15770598 0.11135497 0.41294813 0.041517723 -0.093230344 -0.13209678 -0.063703716
-0.40134794 0.010601403 -0.1400901 0.21712264 0.18410407 -0.22934575 0.25265127 -0.21753547
-0.0667552 0.08531938 0.0626714 -0.103920825 0.11212279 -0.149288 -0.19670387 -0.05429644
-0.15932913 0.0019374071 -0.011032482 0.019860059 0.03279492 -0.0303722 0.025306894 -0.012957706
-0.014452597 0.039955817 -0.078147106 -0.0014284314 -0.04089289 0.026243642 0.047545895 0.024403473
-0.07055579 -0.026895931 -0.011193107 -0.04569527 -0.09639701 0.103633024 0.017516412 -0.19083738
-0.04498534 0.10665442 -0.029440036 -0.10219216 0.1759284 0.0149265 0.061909117 -0.1373207
0.18742645 0.01730668 -0.05717932 0.094134204 -0.031882387 0.037187487 0.011634975 0.35802668
0.19521704 -0.13363326 -0.075559035 -0.004251062 -0.052600026 1.3062395 -0.5987971 0.034289107
0.2829418 0.116648525 -0.12071332 0.12907818 -0.08554585 0.3542658 0.59030974 -0.23465699
-0.06177141 0.034191214 0.5826545 0.18096817 -0.11326932 0.086508766 0.17973958 0.28888258
-0.10080897 0.168438 -0.16520761 -0.049324907 0.19217642 0.04913059 0.018112643 0.0068033882
-0.028561585 0.028112628 -0.016030885 0.066773176 0.014295204 -0.017305585 -0.018991293 0.0038109648
0.014310272 -0.022300499 -0.0028178983 0.037612192 0.049916413 0.030370243 0.03146503 -0.030403523
00000000: 1b07 47bd fb16 a33d d6e4 983c 2605 85be
00000010: b23a efbd 2600 a9bb 28c9 3ebe fae2 d2bc
00000020: 72bd 2c3d 3e6c 173e 87da 7ebd 5391 a5bb
00000030: 9d94 af3e 1ded 283d f7e3 113f 383e 3c3d
00000040: 6334 a53e 64e1 e3bd a826 1a3e 5854 74be
00000050: da5e 79be ac3e c83c cb39 aa3d 55d0 31be
00000060: 707d 3fbe d9f7 2d3e f4ac 45be 171c fe3c
00000070: 80ac 383e 10d2 9e3d 051f 93bd d3e8 d6bc
00000080: fac3 803c f867 8ebc 8924 13bd 6f4b 9c3d
00000090: 9151 7ebd c1e4 77bd 4b03 cebd 6576 093d
000000a0: 7c91 55bd f585 56bc 4927 8a3d b4f0 213d
000000b0: f096 8e3a 4a31 913b 3e2d aabd 5f7b 583d
000000c0: ba30 7ebd 2537 483b 19b6 ea3c 96d3 323e
000000d0: bdc3 043e df4b 53bd deb1 3fbd d63c a4bd
000000e0: b0df 5e3d bb40 5a3d 932e b5bd 2c5d 043d
000000f0: ebc0 4ebd f859 a7bd e6c9 823c 6ece 8fbd
00000100: c5b8 bebc 7a8b 0a3e 91ba 323b dedd 84bd
00000110: 62d6 dc3c 4b9f 5e3d 9eed b13e b748 cd3e
00000120: 64b8 ae3b 87c8 c0bd 7424 013e 110c 18bb
00000130: d414 583e 14d1 9b3d 6365 553d 0b83 28bd
00000140: 3c51 87be fa12 8a3e 2d3a 683e fbff ca3e
00000150: 1732 cd3c 53e7 c83d 5037 0bbe 7205 353e
00000160: 5391 2f3e 04de fbbe 9753 823d e53d b3bd
00000170: e600 89bd 364a d73d dae3 d43d d124 93be
00000180: e6a1 7e3e f036 673e de4e 9b3d 1391 b4be
00000190: 405e b7bc befe 503d ff61 aebd 8082 88bd
000001a0: d1b5 0abd 8acb 87bc 11e5 063c b079 e93d
000001b0: d5bd b13b eded bc3d 6104 8b3c b007 dbbd
000001c0: fd3b 043e 0c6a 9fbb 1e6a be3d 469a 0a3e
000001d0: 0453 7a3d 81b9 ecbc 48c9 893d 13e1 313e
000001e0: 8d2a 2d3d a5bd 86bb 79cc ce3d 981a 4d3e
000001f0: 99d5 e2bc 678e da3a 4d22 483e fc72 38bd
00000200: 534c 1d3c d28b 8bbd c9bf c3bc 21bc a5bd
00000210: 70fb 41be fc5b 5ebd 6783 55be 205a 20be
00000220: d8fb 0ebe 03ac a23d 9076 13be 7f7e 17be
00000230: 7ac3 473c e721 863d cec4 903c 4f07 a1bb
00000240: 77f0 cabd ad7d 21be 130e e43d f06d d33e
00000250: 7d0e 2a3d 8def bebd 6144 07be 1877 82bd
00000260: 7a7d cdbe 82b1 2d3c c773 0fbe 6655 5e3e
00000270: c785 3c3e 9dd9 6abe 825b 813e 9ec1 5ebe
00000280: f3b6 88bd edbb ae3d dd59 803d 71d4 d4bd
00000290: a2a0 e53d f4de 18be bd6c 49be f265 5ebd
000002a0: 2d27 23be 98f0 fd3a 95c1 34bc 90b1 a23c
000002b0: f753 063d 1fcf f8bc 6750 cf3c 8f4c 54bc
000002c0: 96ca 6cbc b6a8 233d 970b a0bd 343a bbba
000002d0: 4e7f 27bd e8fc d63c 7cbf 423d cbe9 c73c
000002e0: 8e7f 90bd db54 dcbc 4b63 37bc f72a 3bbd
000002f0: cc6b c5bd 8d3d d43d 947e 8f3c e06a 43be
00000300: 8c42 38bd a26d da3d 3b2c f1bc 204a d1bd
00000310: 9326 343e 478e 743c 6a94 7d3d cc9d 0cbe
00000320: b8ec 3f3e bdc6 8d3c dd34 6abd 6fc9 c03d
00000330: 1b97 02bd e851 183d 9fa0 3e3c 464f b73e
00000340: fae6 473e 28d7 08be b2be 9abd 7e4c 8bbb
00000350: 2073 57bd db32 a73f c44a 19bf bc72 0c3d
00000360: bfdd 903e 6ce5 ee3d 8c38 f7bd 122d 043e
00000370: aa32 afbd 5462 b53e 8a1e 173f ec49 70be
00000380: 0504 7dbd 160c 0c3d d828 153f b84f 393e
00000390: bff9 e7bd 822b b13d a70d 383e 6be8 933e
000003a0: ef74 cebd 037b 2c3e 2f2c 29be ea08 4abd
000003b0: e5c9 443e 283d 493d f760 943c f5ee de3b
000003c0: fcf9 e9bc 744c e63c 3453 83bc 60c0 883d
000003d0: 6e36 6a3c 71c4 8dbc a193 9bbc 61c1 793b
000003e0: a275 6a3c 89af b6bc 7dac 38bb 3e0f 1a3d
000003f0: 2775 4c3d 04cb f83c 7ae1 003d cf10 f9bc

net_container.0.bias f4 [128]
0.19366746 -0.096209146 -0.022375803 0.070777126 0.14177372 0.06809155 0.14884502 0.21354821
0.15969256 0.22035103 0.07492303 -0.02214714 0.14365213 0.03307364 0.20633297 -0.00843993
0.14729738 -0.18096979 0.21702853 0.06504023 -0.04357607 0.116816 -0.045393117 0.13272913
0.110678226 0.04079852 0.09233569 -0.062892914 -0.004549342 -0.117938235 0.06339602 0.041586258
0.18869363 0.10104824 -0.06628963 -0.16891438 0.08767912 0.048264083 0.08189543 0.080466494
-0.08852922 0.16514944 -0.15219429 -0.13363059 0.117713295 -0.035814792 0.11557761 -0.04450944
0.20759849 0.098829746 -0.035111375 0.0448847 -0.05416016 -0.17325594 0.014532763 0.021480087
0.23088415 0.10510298 0.11939455 0.13143161 -0.057647597 0.10009421 0.27404937 0.06851137
0.078100465 0.21256702 0.094672844 0.062358547 0.03851287 0.12233359 0.0016003749 -0.17360504
0.21234433 0.25667107 0.06635153 0.02376695 0.13015792 0.04403758 0.20292194 0.19235893
-0.01371347 0.01406571 0.15371732 0.10061772 0.108366944 0.11925315 0.2045322 0.23936072
0.012759626 0.18807305 -0.03403923 0.0016145303 0.12901437 -0.055899385 -0.02099242 -0.043951377
0.06906695 0.0074208775 -0.14584471 -0.069932535 0.18733248 0.062051523 -0.052150887 0.07222308
0.08051587 0.16124152 0.067967 -0.043632783 0.018111913 -0.048379816 -0.098701 0.0960122
-0.063024424 0.08195602 0.17373495 0.15916827 -0.06298741 0.16761278 -0.004325608 -0.077221
0.038753908 -0.024752073 0.15678903 -0.11511536 0.12182031 -0.1462863 -0.0940211 0.1662125
00000000: c350 463e 4d09 c5bd 764d b7bc 99f3 903d
00000010: 212d 113e 9573 8b3d d46a 183e 62ac 5a3e
00000020: 7286 233e b3a3 613e 3f71 993d eb6d b5bc
00000030: 8b19 133e 3a78 073d f348 533e a247 0abc
00000040: 20d5 163e 2550 39be ba3c 5e3e d033 853d
00000050: d27c 32bd 3a3d ef3d 22ee 39bd 25ea 073e
00000060: 44ab e23d 591c 273d 7f1a bd3d 00ce 80bd
00000070: a612 95bb 9a89 f1bd c6d5 813d 5a56 2a3d
00000080: e738 413e 61f2 ce3d dcc2 87bd e4f7 2cbe
00000090: 1c91 b33d 8fb0 453d cbb8 a73d 9ecb a43d
000000a0: cf4e b5bd ef1c 293e d2d8 1bbe 75d6 08be
000000b0: ab13 f13d 88b2 12bd f4b3 ec3d 884f 36bd
000000c0: b394 543e 4067 ca3d f2d0 0fbd 05d9 373d
000000d0: 0bd7 5dbd 016a 31be d31a 6e3c 02f7 af3c
000000e0: e56c 6c3e 3b40 d73d 2185 f43d 0296 063e
000000f0: e31f 6cbd 31fe cc3d 3350 8c3e b04f 8c3d
00000100: 23f3 9f3d 2bab 593e d6e3 c13d ad6b 7f3d
00000110: acbf 1d3d 098a fa3d acc3 d13a 85c5 31be
00000120: cb70 593e 646a 833e 50e3 873d e8b2 c23c
00000130: 1e48 053e c060 343d c5ca 4f3e bdf9 443e
00000140: 76ae 60bc dd73 663c 1368 1d3e aa10 ce3d
00000150: 7def dd3d ff3a f43d e470 513e fa1a 753e
00000160: c00d 513c 3996 403e b86c 0bbd a69e d33a
00000170: 581c 043e c1f6 64bd 4cf8 abbc 5c06 34bd
00000180: f972 8d3d d52a f33b 5158 15be ca38 8fbd
00000190: 16d4 3f3e bd29 7e3d 2b9c 55bd b2e9 933d
000001a0: 81e5 a43d 7f1c 253e 4832 8b3d 4ab8 32bd
000001b0: 6f5f 943c ea29 46bd c023 cabd 0ba2 c43d
000001c0: f312 81bd 8fd8 a73d 93e7 313e 02fd 223e
000001d0: 8bff 80bd afa2 2b3e d4bd 8dbb 0b26 9ebd
000001e0: 6bbc 1e3d dcc4 cabc 4e8d 203e 9ac1 ebbd
000001f0: ed7c f93d 13cc 15be 228e c0bd 9c33 2a3e

net_container.2.weight f4 [128, 128]
0.0015480698 -0.09292072 0.033608634 -0.067847274 0.08791699 -0.06310345 0.11333126 -0.04844299
-0.03402634 0.10568657 -0.006124929 -0.044640962 0.15294369 -0.066238634 0.019062994 0.004558331
-0.051639404 0.15185514 -0.026844244 0.10953297 0.011087055 -0.013944877 -0.02539749 -0.0879236
-0.11929367 -0.063728645 -0.07631617 0.049568657 0.041696604 -0.006065949 -0.012199994 0.018956214
-0.046694804 -0.21304455 -0.034907877 0.022595972 -0.009933326 0.016467033 0.03869343 0.0057998616
0.06936839 0.080433086 -0.07273289 -0.039324023 0.011891024 -0.049897723 -0.05680248 0.10065731
0.090352915 0.02706955 0.015390983 0.030663952 -0.045031533 -0.11598179 -0.06651478 -0.036112726
-0.09470628 -0.02071161 0.03019378 0.048935883 0.050705787 0.023080964 0.033542022 -0.14888415
-0.024936713 -0.049887408 0.0077725053 -0.1412356 -0.049632933 -0.034674417 0.02910138 -0.031055763
0.025695585 -0.073865026 -0.13305919 0.117054984 -0.09121095 -0.14962496 0.09991008 0.06190901
0.09539032 0.006498864 0.024470076 -0.04307091 -0.15189107 0.053029515 -0.08726955 -0.09684107
0.03810179 -0.047455046 -0.11722338 -0.13101627 -0.032337908 0.067158006 -0.07085318 -0.04800741
0.03724962 0.09079385 0.016488483 -0.027887898 0.05157435 0.017726166 -0.07436639 -0.047782287
0.022289399 -0.008524979 -0.037305273 0.0119009735 0.019210305 0.028795175 -0.09661043 -0.09905459
0.017091908 0.024989013 -0.06132006 -0.10081576 -0.08676729 -0.12773901 -0.03342421 0.04211774
-0.09035198 -0.0016139471 -0.08498751 0.064232536 0.04155177 -0.0040992717 -0.03327591 -0.14718817
0.03732591 -0.0030339179 -0.12941676 -0.20991966 0.13539386 -0.1135061 0.08611809 0.094435364
0.064136714 -0.0071010385 -0.036202278 0.061542142 -0.054599077 0.007587412 -0.047792587 0.06422457
-0.019769195 0.00036163066 0.068140574 -0.11603845 -0.2578838 0.0060439003 0.06391806 -0.028492074
0.027191797 0.041288093 -0.056236055 0.051423423 0.08036465 0.0047903447 0.00290744 -0.08353874
-0.08565667 -0.09165917 -0.006544933 0.012224539 0.041965067 0.02145518 -0.1790738 -0.018162876
0.0634641 0.03924896 -0.064967744 0.11742285 -0.0615739 0.033550296 0.10840401 0.052027594
-0.101556204 -0.0016369973 -0.018926939 -0.068829425 0.02906549 -0.026065478 0.103680134 0.06952995
-0.037686955 0.06371412 -0.11642184 0.05038518 -0.07845252 -0.008286237 0.0116792405 0.17548715
-0.08999286 -0.07487122 -0.008362419 -0.15509413 -0.062816806 0.0049294843 0.14209558 -0.073672645
0.027723016 0.13622607 -0.05950207 -0.015211805 -0.07216049 0.04901023 0.14144674 0.037097692
-0.03190488 -0.14529115 -0.022810483 -0.16475925 -0.11203148 -0.06334968 0.081436634 -0.07634469
-0.0641258 -0.008707546 0.014585184 -0.0076902853 0.10902981 0.106458835 -0.035493944 -0.074914925
-0.053081755 0.11774519 0.011304594 0.03875381 0.06347078 -0.12452313 0.036486275 -0.008400119
-0.036512006 0.010259483 -0.06933613 -0.067779 0.0430909 0.07338712 -0.06355093 -0.02621737
-0.07510882 0.053203225 -0.040390417 0.022830622 -0.07051883 0.08207221 0.066333264 -0.0054024123
-0.016439134 -0.012474728 -0.03465448 -0.0520866 0.12559451 0.044586416 -0.009132972 0.035964627
00000000: 9ae8 ca3a 384d bebd 35a9 093d 83f3 8abd
00000010: d30d b43d 623c 81bd 381a e83d 286c 46bd
00000020: 345f 0bbd 3372 d83d a1b3 c8bb 71d9 36bd
00000030: 459d 1c3e 1fa8 87bd ff29 9c3c 0d5e 953b
00000040: d783 53bd ea7f 1b3e 76e8 dbbc d252 e03d
00000050: 7ba6 353c 0e79 64bc 660e d0bc 4a11 b4bd
00000060: 3d50 f4bd 2a84 82bd a74b 9cbd 8108 4b3d
00000070: 0fca 2a3d dec4 c6bb 7ce2 47bc 104a 9b3c
00000080: 0d43 3fbd 5a28 5abe 90fb 0ebd 301b b93c
00000090: 64bf 22bc dfe5 863c 017d 1e3d c40c be3b
000000a0: 0411 8e3d 1aba a43d fbf4 94bd 3a12 21bd
000000b0: 92d2 423c 8e61 4cbd b8a9 68bd 6b25 ce3d
000000c0: f30a b93d f6c0 dd3c 762a 7c3c f832 fb3c
000000d0: fc72 38bd dc87 edbd e738 88bd f0ea 13bd
000000e0: 5ef5 c1bd 65ab a9bc f258 f73c fe70 483d
000000f0: dfb0 4f3d 4a14 bd3c 5c63 093d 1675 18be
00000100: 1448 ccbc bd56 4cbd 80b0 fe3b 11a0 10be
00000110: e74b 4bbd c306 0ebd 0466 ee3c a868 febc
00000120: 8c7f d23c 8c46 97bd ab40 08be 86ba ef3d
00000130: cecc babd 4937 19be a89d cc3d 4d94 7d3d
00000140: 005c c33d 6cf4 d43b 7875 c83c 1f6b 30bd
00000150: 5589 1bbe 7a35 593d 61ba b2bd 9c54 c6bd
00000160: 9f10 1c3d 3960 42bd d012 f0bd 2129 06be
00000170: c174 04bd 238a 893d 791b 91bd 6ba3 44bd
00000180: 0f93 183d 20f2 b93d db12 873c 2975 e4bc
00000190: a03f 533d 7736 913c 684d 98bd 5cb7 43bd
000001a0: 4298 b63c 5bac 0bbc 6acd 18bd 4dfc 423c
000001b0: ee5e 9d3c dce3 eb3c b0db c5bd 22dd cabd
000001c0: 5404 8c3c c2b5 cc3c be2a 7bbd 7e78 cebd
000001d0: 0db3 b1bd 04ce 02be d3e7 08bd a783 2c3d
000001e0: 750a b9bd 148b d3ba ef0d aebd 598c 833d
000001f0: 3032 2a3d 2f53 86bb 524c 08bd 7fb8 16be
00000200: 0ee3 183d b2d4 46bb d485 04be 2ef5 56be
00000210: b0a4 0a3e e375 e8bd ae5e b03d 5467 c13d
00000220: 1c5a 833d d4af e8bb d748 14bd 9d13 7c3d
00000230: 48a3 5fbd d39f f83b 29c2 43bd 2c88 833d
00000240: 02f3 a1bc 3f99 bd39 498d 8b3d 91a5 edbd
00000250: 5809 84be e90b c63b 79e7 823d 3668 e9bc
00000260: 55c1 de3c b41d 293d c757 66bd 5ea1 523d
00000270: 3996 a43d 53f8 9c3b c08a 3e3b 5c16 abbd
00000280: c46c afbd ceb7 bbbd e176 d6bb 6f49 483c
00000290: 90e3 2b3d c6c2 af3c 1f5f 37be 50ca 94bc
000002a0: 77f9 813d 84c3 203d cf0d 85bd 647b f03d
000002b0: ea34 7cbd 096c 093d ec02 de3d e31a 553d
000002c0: b3fc cfbd 8490 d6ba ab0c 9bbc 71f6 8cbd
000002d0: c01a ee3c 4587 d5bc 4056 d43d b865 8e3d
000002e0: a35d 1abd 8c7c 823d 936e eebd b160 4e3d
000002f0: b7ab a0bd ffc2 07bc 495a 3f3c e7b2 333e
00000300: 2d4e b8bd 1556 99bd 8702 09bc ffd0 1ebe
00000310: 19a6 80bd 8387 a13b 8181 113e afe1 96bd
00000320: 611b e33c d97e 0b3e 71b8 73bd ef3a 79bc
00000330: e1c8 93bd f3be 483d 6ad7 103e c0f3 173d
00000340: b1ae 02bd 34c7 14be 0ddd babc a6b6 28be
00000350: c370 e5bd 7abd 81bd 40c8 a63d 9b5a 9cbd
00000360: 6354 83bd 18aa 0ebc b2f6 6e3c cafe fbbb
00000370: 054b df3d 1707 da3d 1962 11bd ff6c 99bd
00000380: 416c 59bd 6424 f13d e736 393c 51bc 1e3d
00000390: f8fc 813d fc05 ffbd a272 153d a7a0 09bc
000003a0: 9d8d 15bd 6417 283c 1a00 8ebd b7cf 8abd
000003b0: 1580 303d fd4b 963d fd26 82bd cfc5 d6bc
000003c0: a7d2 99bd a0eb 593d 6c70 25bd 4907 bb3c
000003d0: 2d6c 90bd 7a15 a83d bcd9 873d b806 b1bb
000003e0: 5dab 86bc cd62 4cbc dbf1 0dbd c258 55bd
000003f0: d99b 003e 3fa0 363d 76a2 15bc a54f 133d

net_container.2.bias f4 [128]
0.08491674 -0.12363082 -0.16134484 -0.029589836 -0.085503384 0.056315277 0.056410972 0.07305294
0.05050383 -0.129029 0.12688933 -0.052661058 0.059232593 -0.07493543 0.008774522 0.024840735
-0.09888721 0.06886241 -0.018251222 0.047018975 0.10219425 -0.03046755 0.026466811 -0.050894417
-0.009004698 -0.013101349 0.050318338 -0.15095137 0.029395465 -0.06147436 -0.12677056 0.011308213
0.06646793 -0.11912728 0.015536261 -0.101448536 -0.049435586 -0.0066516055 0.033849973 -0.122917436
-0.14264506 0.01221622 -0.09201683 0.032953426 0.010844826 0.10418615 0.026261553 0.050493892
0.02549929 -0.095368944 0.088328786 -0.07025323 -0.0006083666 0.07603212 -0.049685072 -0.04428985
0.079182155 -0.09476859 0.068616204 0.11238699 -0.11756281 -0.062683895 -0.14463618 0.032978244
-0.022785943 -0.06373844 0.093407914 0.00985438 -0.085891455 0.034326088 -0.082790084 -0.100224055
-0.016770327 0.03677708 -0.07012443 0.032640584 0.081588976 -0.05429631 -0.054438893 -0.02517881
-0.036303367 -0.106855534 0.05993676 -0.052354556 -0.12748538 -0.016442217 -0.12921987 0.1180061
0.0360594 -0.056219954 -0.09918148 0.06632721 -0.09307376 0.016277371 -0.11647562 0.06332293
-0.04561534 0.023256889 -0.09326199 0.011083438 -0.15012272 -0.16466959 -0.061770845 0.004960286
-0.10391884 -0.106775 -0.036774117 0.0020501495 -0.099967085 -0.061620306 0.10783311 0.005819718
-0.13163747 0.07910353 0.10483829 -0.0033638815 0.07947357 0.0028453476 -0.08383893 -0.053299244
0.09380491 -0.14454922 0.061634 -0.015536746 0.13470219 -0.04123094 -0.053300727 -0.12438129
00000000: d4e8 ad3d 2832 fdbd 9537 25be 6266 f2bc
00000010: 661c afbd d9aa 663d 310f 673d c89c 953d
00000020: 1bdd 4e3d 2e20 04be 47ef 013e 1fb3 57bd
00000030: e09d 723d bf77 99bd 03c3 0f3c cc7e cb3c
00000040: 6185 cabd bc07 8d3d 9683 95bc f896 403d
00000050: 384b d13d 1597 f9bc edd0 d83c aa76 50bd
00000060: 7188 13bc 0aa7 56bc 9a1a 4e3d ff92 1abe
00000070: c2ce f03c 8acc 7bbd 24d0 01be 1546 393c
00000080: 5720 883d 01f9 f3bd cd8b 7e3c 40c4 cfbd
00000090: f87c 4abd b6f5 d9bb 45a6 0a3d 23bc fbbd
000000a0: 8c11 12be 8a26 483c 5273 bcbd 2cfa 063d
000000b0: 7fae 313c 8c5f d53d 7822 d73c afd2 4e3d
000000c0: e3e3 d03c cb50 c3bd b9e5 b43d ede0 8fbd
000000d0: cb7a 1fba bab6 9b3d 9382 4bbd 4669 35bd
000000e0: 412a a23d 0916 c2bd a786 8c3d 262b e63d
000000f0: c5c4 f0bd 6a60 80bd 821b 14be 3214 073d
00000100: 96a9 babc 4d89 82bd a64c bf3d 4474 213c
00000110: dce7 afbd 8399 0c3d d98d a9bd 4542 cdbd
00000120: ed61 89bc 90a3 163d 669d 8fbd 22b2 053d
00000130: 1f18 a73d cf65 5ebd 51fb 5ebd cb43 cebc
00000140: d7b2 14bd 13d7 dabd 4080 753d bb71 56bd
00000150: 878b 02be d4b1 86bc 3752 04be 2fad f13d
00000160: 05b3 133d e546 66bd a91f cbbd 8fd6 873d
00000170: 759d bebd 1f58 853c c58a eebd 74af 813d
00000180: 27d7 3abd 3b85 be3c 2400 bfbd 4f97 353c
00000190: c5b9 19be 259f 28be 6d03 7dbd e589 a23b
000001a0: 67d3 d4bd daac dabd 75a0 16bd cd5b 063b
000001b0: 8bbb ccbd 9365 7cbd 9bd7 dc3d 55b3 be3b
000001c0: f9cb 06be 0801 a23d 75b5 d63d 9174 5cbb
000001d0: 0ac3 a23d 0379 3a3b bfb3 abbd 4f50 5abd
000001e0: ca1c c03d b604 14be ef73 7c3d d68d 7ebc
000001f0: 5fef 093e c6e1 28bd dd51 5abd 9ebb febd

net_container.4.weight f4 [128, 128]
0.004328833 0.08813068 -0.10872571 -0.0473085 0.051007424 -0.09865264 -0.02009804 0.014044695
-0.017722756 -0.063547045 -0.06471572 -0.017325982 0.10486402 -0.046509698 -0.042678796 0.007922523
0.011627271 -0.045759704 0.017346276 0.038106456 -0.09436131 -0.1583538 0.09028539 -0.10727151
-0.019738501 0.07777772 -0.0018281149 -0.00083560694 0.00053266925 0.089220695 0.012976519 0.081745364
0.009342201 0.0014181662 -0.015446385 -0.08159069 0.0077331946 -0.052305397 0.036180787 -0.025812978
-0.005997177 -0.053477045 -0.011124933 -0.0032609468 0.02233879 0.026618725 -0.043779016 0.08631381
0.004069172 -0.0019584638 0.08793266 -0.01731722 0.08974314 -0.068632595 0.042865835 -0.035537835
0.04537002 -0.12419481 0.004769918 -0.006118598 0.01595314 0.017830208 -0.002926992 -0.015469088
-0.05402634 -0.06602631 -0.067684725 -0.06763951 0.01391724 0.051449697 -0.012427192 0.063084185
0.11638156 -0.061604705 -0.098132014 -0.046938572 0.082481906 0.11942973 0.07159482 -0.06662611
0.07887753 0.04190588 0.021671543 -0.06765305 0.04080255 0.07031497 -0.058110997 0.018074408
0.02183843 0.051814165 0.013370233 -0.04844841 0.05608797 0.023977479 -0.030963672 -0.0594695
-0.03038371 0.06731125 0.0047434485 0.08230466 0.046830714 0.07038726 0.024826791 0.0060770432
0.020942232 0.045297474 0.06920258 -0.035108488 -0.09125531 -0.08063701 -0.031145375 0.08550435
-0.11464727 -0.003907084 0.025572836 0.038502518 -0.049294643 0.022507481 -0.0663037 -0.03769685
-0.004175187 -0.06723462 -0.04763713 0.0568748 -0.068325974 -0.025328975 0.048683103 -0.017450048
0.10887642 -0.06362426 -0.060775 0.05392206 0.055344414 -0.05889552 -0.12162859 -0.023370773
-0.08737033 -0.04861907 0.123681456 0.013609512 -0.0024260439 0.065650366 0.08661093 -0.18351018
0.03795089 -0.11873816 0.017858235 0.06071184 0.008326566 -0.0155725265 0.103655495 0.021873524
0.13245152 0.02953273 0.05183756 -0.045535255 0.0786326 0.045686368 0.038292285 0.053675365
0.06467721 0.098176174 -0.035613555 0.036200646 -0.0971356 -0.13382609 0.00028525325 -0.027323423
0.06277345 -0.057150267 -0.077661544 0.0140677 -0.009629433 0.09776816 -0.20660837 0.09288244
-0.12519634 -0.035020027 0.017047966 0.111553505 -0.08248626 0.047937047 0.038140643 -0.038858294
0.040242642 0.054104775 0.030578563 -0.10555187 0.030072497 0.0818833 0.082292706 -0.023015862
-0.024778934 -0.0906225 0.024511475 0.009046371 0.05102851 -0.015798481 -0.033338137 -0.1286157
0.16281658 0.037371844 0.10239956 0.082318306 -0.07743082 -0.08803538 -0.14584853 -0.081113786
-0.043048825 0.0024814464 0.0060202647 0.028003972 0.0059378548 0.061933234 -0.16355012 -0.023894798
0.12293133 -0.20637557 -0.0016568007 0.02529491 -0.03255317 -0.027386338 0.0908635 0.064631134
0.06359633 -0.0929423 -0.004569165 0.021640098 0.059359882 -0.12166608 0.06092916 0.09471386
0.05065805 -0.074190244 -0.055046912 0.0059158225 0.037503764 -0.13023528 0.036459945 -0.13875476
0.060050502 0.074434645 0.088529065 0.034133475 0.014239047 -0.038033098 0.05940153 0.087693825
-0.09666589 -0.075616054 0.033310816 0.14032379 0.11267179 -0.020275647 0.055058435 0.08795604
00000000: e2d8 8d3b dc7d b43d 96ab debd 8fc6 41bd
00000010: 29ed 503d 650a cabd a5a4 a4bc b81b 663c
00000020: 502f 91bc f424 82bd ad89 84bd 38ef 8dbc
00000030: f3c2 d63d f480 3ebd f6cf 2ebd 78cd 013c
00000040: 4f80 3e3c 876e 3bbd c719 8e3c 8415 1c3d
00000050: 8140 c1bd 8027 22be 8ce7 b83d 2ab1 dbbd
00000060: a3b2 a1bc ed49 9f3d 5b9d efba a20c 5bba
00000070: d4a2 0b3a 57b9 b63d 779b 543c 1d6a a73d
00000080: 0810 193c c3e1 b93a d612 7dbc 0519 a7bd
00000090: bd66 fd3b 2f3e 56bd 4e32 143d bd75 d3bc
000000a0: f883 c4bb bf0a 5bbd 5a45 36bc 9cb5 55bb
000000b0: d7ff b63c 830f da3c a051 33bd 4bc5 b03d
000000c0: b056 853b 9259 00bb 0a16 b43d d8dc 8dbc
000000d0: 40cb b73d 3f8f 8cbd 1694 2f3d 1f90 11bd
000000e0: ead5 393d d959 febd f94c 9c3b 857e c8bb
000000f0: 29b0 823c a810 923c c7d2 3fbb 0f72 7dbc
00000100: b94a 5dbd cd38 87bd 4a9e 8abd 9586 8abd
00000110: 2305 643c ebbc 523d 6c9b 4bbc 4832 813d
00000120: 7559 ee3d 3755 7cbd 70f9 c8bd a942 40bd
00000130: 46ec a83d 9397 f43d 4ea0 923d 4573 88bd
00000140: 8b8a a13d 80a5 2b3d 8588 b13c af8d 8abd
00000150: 9320 273d 4c01 903d cc05 6ebd c810 943c
00000160: 82e6 b23c 173b 543d d20e 5b3c d771 46bd
00000170: 80bc 653d 6b6c c43c 87a7 fdbc 4a96 73bd
00000180: 42e7 f8bc 7bda 893d ee6e 9b3b 588f a83d
00000190: 90d1 3f3d 3227 903d 8e61 cb3c ef21 c73b
000001a0: 0b8f ab3c d889 393d 15ba 8d3d ebcd 0fbd
000001b0: 10e4 babd 0425 a5bd 9624 ffbc e81c af3d
000001c0: 30cc eabd ff06 80bb 207e d13c d1b4 1d3d
000001d0: 2ee9 49bd 9c61 b83c 3cca 87bd 0368 1abd
000001e0: 02d0 88bb 4eb2 89bd 271f 43bd 8df5 683d
000001f0: 7dee 8bbd b67e cfbc ef67 473d 67f3 8ebc
00000200: 9afa de3d 704d 82bd 35ef 78bd 61dd 5c3d
00000210: d3b0 623d 6e3c 71bd 6918 f9bd 1074 bfbc
00000220: 37ef b2bd ca24 47bd b44c fd3d 6efa 5e3c
00000230: 43fe 1ebb b373 863d 1261 b13d 18ea 3bbe
00000240: 6472 1b3d fe2c f3bd 6f4b 923c faac 783d
00000250: 266c 083c e923 7fbc 5549 d43d 1b30 b33c
00000260: 5fa1 073e a0ee f13c 9f53 543d 2d83 3abd
00000270: 210a a13d a121 3b3d 5fd8 1c3d b3da 5b3d
00000280: 7c75 843d 9710 c93d 85df 11bd 2147 143d
00000290: 08ef c6bd b509 09be 0b8e 9539 5fd5 dfbc
000002a0: 5e8f 803d 6616 6abd 040d 9fbd 367c 663c
000002b0: c5c4 1dbc ac3a c83d 2591 53be 2639 be3d
000002c0: 7833 00be 2971 0fbd 2da8 8b3c 2a76 e43d
000002d0: 8eee a8bd a359 443d 5d39 1c3d e029 1fbd
000002e0: 78d5 243d f89c 5d3d e57f fa3c 942b d8bd
000002f0: 995a f63c 6eb2 a73d 1489 a83d c38b bcbc
00000300: 31fd cabc 4a98 b9bd 4acc c83c 3b37 143c
00000310: 4503 513d d16b 81bc 928d 08bd d6b3 03be
00000320: 64b9 263e 3813 193d dcb6 d13d 8096 a83d
00000330: 0d94 9ebd e54b b4bd 5159 15be fc1e a6bd
00000340: f753 30bd c39f 223b a445 c53b 9668 e53c
00000350: 5692 c23b b4ad 7d3d af79 27be 06bf c3bc
00000360: 6cc3 fb3d 1e54 53be 0229 d9ba 4537 cf3c
00000370: 7956 05bd 5059 e0bc a516 ba3d 545d 843d
00000380: cb3e 823d 8858 bebd efb8 95bb 9346 b13c
00000390: 5923 733d 112c f9bd db90 793d 57f9 c13d
000003a0: d17e 4f3d 0ef1 97bd df78 61bd 84d9 c13b
000003b0: 8c9d 193d 665c 05be 0657 153d ba15 0ebe
000003c0: 84f7 753d 3171 983d ba4e b53d 8bcf 0b3d
000003d0: e44a 693c 98c8 1bbd 054f 733d d298 b33d
000003e0: c4f8 c5bd 97dc 9abd ec70 083d 0ab1 0f3e
000003f0: 78c0 e63d 1d19 a6bc f484 613d 4c22 b43d

net_container.4.bias f4 [128]
-0.065263234 -0.07569419 0.06346949 -0.12756246 -0.04924541 -0.12006169 -0.03542986 -0.08433765
-0.07690245 -0.011524659 0.10224407 -0.07097173 -0.046062876 -0.09766371 0.028757734 0.09717075
-0.08125996 0.04741681 0.04476853 -0.009029181 -0.02654315 -0.0121994335 -0.16336049 0.015706042
-0.021726288 -0.10354307 0.109290294 0.038474377 -0.054635823 0.047330778 -0.13436551 -0.0023683421
0.0644502 -0.03508318 -0.07686866 -0.08507856 -0.034216005 -0.0004450003 0.03891797 0.094146036
-0.024499523 -0.10502189 0.05885018 -0.052136946 -0.120851874 0.05762494 -0.11572314 0.015734347
0.08561877 0.041935544 0.0081320945 -0.049698766 -0.0037663665 -0.031809334 -0.027091634 0.045674063
0.097561784 -0.052015558 -0.053648904 0.08860285 -0.066918075 -0.07802128 -0.0103445845 -0.019251935
-0.021189675 -0.033360686 -0.1314432 0.03514345 -0.040072218 -0.040869877 0.107354715 -0.011344168
-0.0026898715 0.041891553 -0.07263341 0.07770125 0.015245385 0.044208 0.09533044 -0.048943333
0.08569813 -0.012097973 -0.0010724727 0.057626195 -0.02968743 -0.116506256 -0.019465115 -0.062445026
0.021433972 0.0031726253 -0.08421914 -0.073347054 -0.045458775 -0.052570123 0.03050026 -0.02253146
-0.03776626 -0.105395555 0.021442754 -0.0033377062 -0.14048539 -0.06838537 -0.1469447 0.02197041
0.0202549 -0.0027831558 0.05340912 -0.047166027 -0.08405073 0.02462392 -0.02209051 0.013473447
-0.14646795 -0.08773098 0.077573605 0.098996036 0.05918612 0.016376453 0.003173876 0.093145266
-0.061395094 0.027430436 0.024005715 -0.056845896 -0.020986097 -0.05807911 0.05835451 -0.009332405
00000000: bba8 85bd 8e05 9bbd 4bfc 813d bc9f 02be
00000010: 8eb5 49bd e7e2 f5bd e71e 11bd 38b9 acbd
00000020: 087f 9dbd ecd1 3cbc 5765 d13d a059 91bd
00000030: 6dac 3cbd e903 c8bd 5795 eb3c 7501 c73d
00000040: 9f6b a6bd 2138 423d 355f 373d 21ef 13bc
00000050: 0571 d9bc 22e0 47bc f947 27be f5a9 803c
00000060: 54fb b1bc 640e d4bd 97d3 df3d 4f97 1d3d
00000070: d0c9 5fbd ebdd 413d 1d97 09be 3036 1bbb
00000080: 77fe 833d 61b3 0fbd 516d 9dbd ab3d aebd
00000090: 1526 0cbd ee4e e9b9 7368 1f3d a3cf c03d
000000a0: 39b3 c8bc b715 d7bd e30c 713d 8d8d 55bd
000000b0: 3081 f7bd 2108 6c3d 4100 edbd 51e5 803c
000000c0: e558 af3d 9bc4 2b3d 7a3c 053c ef90 4bbd
000000d0: 25d5 76bb 814a 02bd 46ef ddbc ba14 3b3d
000000e0: 79ce c73d 440e 55bd f4be 5bbd 6975 b53d
000000f0: 580c 89bd 9fc9 9fbd 557c 29bc 3cb6 9dbc
00000100: f895 adbc 37a5 08bd 0c99 06be 94f2 0f3d
00000110: c422 24bd 2c67 27bd cadc db3d e4dc 39bc
00000120: 8e48 30bb 7a96 2b3d d3c0 94bd d521 9f3d
00000130: c7c7 793c 7313 353d 9b3c c33d ce78 48bd
00000140: 8082 af3d 9436 46bc 3692 8cba 7209 6c3d
00000150: 0e33 f3bc d59a eebd 4e75 9fbc 5bc6 7fbd
00000160: 4c96 af3c d2eb 4f3b 167b acbd fb36 96bd
00000170: fb32 3abd c553 57bd aedb f93c e593 b8bc
00000180: cbb0 1abd a0d9 d7bd b7a8 af3c 6bbd 5abb
00000190: 67db 0fbe a10d 8cbd ac78 16be 4afb b33c
000001a0: 9bed a53c 9b65 36bb 85c3 5a3d 2a31 41bd
000001b0: ca22 acbd 1ab8 c93c 28f7 b4bc bcbf 5c3c
000001c0: b2fb 15be 4dac b3bd e9de 9e3d 6fbe ca3d
000001d0: 256d 723d e927 863c ce00 503b f2c2 be3d
000001e0: 6c79 7bbd cbb5 e03c a2a7 c43c 3ed7 68bd
000001f0: 09eb abbc 5ce4 6dbd 2405 6f3d f2e6 18bc

policy_layer.weight f4 [19, 128]
-0.041262377 -0.0026566668 -0.06570294 0.04100255 -0.060718454 0.08038125 -0.02203273 -0.044691
0.0006175451 0.0671562 -0.04728015 0.0098468475 0.031963594 0.020655764 0.002147185 0.03636238
-0.019097386 -0.03402391 0.022850055 0.00022650225 -0.0115130115 0.022011483 0.072797865 -0.07884724
0.010716076 -0.020677684 -0.033491053 0.015787154 0.032609794 -0.0056696706 -0.06296333 0.02238276
-0.0047232006 0.01671705 0.035985876 -0.029796328 0.08497335 0.016778456 -0.019429415 0.023945881
-0.039729517 0.0015165474 -0.11497829 0.054658704 -0.03234729 -0.09151904 0.040731274 0.028028816
0.0042622783 0.0077094273 -0.050326042 0.018331518 0.019193335 -0.016504973 0.013491667 0.006787429
-0.009233415 0.022528583 0.0093528805 0.014603764 0.052605823 0.07407584 0.019097967 -0.038749244
0.016684081 0.0042493716 -0.045685567 0.022666717 -0.036404412 -0.01647656 -0.053410348 0.052095175
0.0752258 -0.022206215 0.03742469 -0.032691713 0.038479157 -0.024744203 -0.01513061 0.00063663884
-0.026918896 0.0052785394 0.02564332 -0.03229212 0.07762682 -0.02045126 0.0038184398 0.04685069
-0.005036378 0.0543296 0.05311035 -0.059430268 -0.030752208 0.04535275 -0.025061756 0.0077577867
0.04704629 0.05574515 0.0115072355 -0.06366696 0.019774437 0.003272087 0.0013697129 -0.029153751
-0.02942483 -0.02160471 0.043028396 0.013518702 -0.018443897 -0.012232133 0.06443159 -0.016488483
0.046277918 0.036406692 -0.010574415 0.009614309 -0.05919121 0.017757684 -0.044976097 0.019365285
-0.03277577 -0.075653695 -0.0056965505 -0.0052317767 -0.025344767 -0.071560316 0.031203197 -0.036144484
-0.037146978 -0.0018210196 0.06736924 -0.05180647 -0.025382133 0.043839484 0.019969434 -0.036353935
0.0075304275 0.02611159 -0.035073962 -0.030312613 -0.043513004 -0.07509405 0.027621277 -0.046011996
0.06632832 -0.036148213 0.039099734 0.0015586747 0.037082035 0.071780905 -0.0044153673 0.090763725
0.0077218004 0.061524194 0.058000516 -0.017857969 0.002172863 -0.002632864 0.0065495647 -0.030264532
-0.008123178 0.018735781 -0.0016439408 -0.017184844 0.050849162 -0.021657676 0.042187348 -0.0066543333
0.0021032528 -0.0035222224 -0.0010569106 -0.05073975 0.026178747 0.068889365 -0.03131927 0.014787494
-0.026720006 0.015622237 -0.053160205 -0.03715216 0.023797428 0.012470523 -0.010247374 0.025161305
-0.018886901 -0.008355284 -0.052199963 0.045497723 -0.08327238 0.017430985 -0.022567859 0.02864796
-0.027109047 -0.055418234 0.046295974 0.0142131895 0.05033427 0.07069073 -0.04257854 -0.06756835
-0.06604642 -0.028629297 -0.0053786747 -0.0009907421 0.011239203 0.016037827 -0.003047763 -0.0805531
0.0014989257 0.035586916 -0.03856607 0.0056912955 0.03416134 0.006316625 0.022854123 -0.008551452
-0.020738728 0.009286562 0.006993697 -0.007943543 -0.027987696 -0.12625518 -0.0011902654 0.056906734
-0.0011861486 -0.01717578 -0.01736987 0.029118726 0.0108048655 0.048298374 0.05028768 0.036308695
1.935111e-07 0.015827622 -0.005323119 0.016872065 -0.049645074 -0.030467276 -0.018103385 -0.017123323
-0.059659064 -0.03935337 -0.0032999218 -0.00897933 0.07276354 0.0025221112 -0.06416042 -0.024363117
-0.02390538 -0.0022887313 0.028356919 0.04781043 0.038990133 -0.0052836626 0.011597095 0.062290486
00000000: bd02 29bd 791b 2ebb 438f 86bd 4af2 273d
00000010: eab3 78bd ed9e a43d fc7d b4bc e90d 37bd
00000020: c0e2 213a 3189 893d d5a8 41bd ac54 213c
00000030: 42ec 023d 4736 a93c c9b7 0c3b b8f0 143d
00000040: 1f72 9cbc a85c 0bbd 0a30 bb3c 3c81 6d39
00000050: 12a1 3cbc 6d51 b43c 0c17 953d a97a a1bd
00000060: 7b92 2f3c 3f64 a9bc ea2d 09bd 1054 813c
00000070: d991 053d a5c8 b9bb ebf2 80bd 0d5c b73c
00000080: 14c5 9abb 32f2 883c ed65 133d 6e17 f4bc
00000090: 8206 ae3d f972 893c 702a 9fbc 272a c43c
000000a0: 6bbb 22bd e3c6 c63a bd79 ebbd cee1 5f3d
000000b0: 987e 04bd 566e bbbd d6d5 263d b09c e53c
000000c0: 95aa 8b3b 5d9f fc3b ae22 4ebd fb2b 963c
000000d0: 573b 9d3c 7035 87bc 270c 5d3c 1569 de3b
000000e0: c047 17bc dd8d b83c d33c 193c a044 6f3c
000000f0: 3479 573d 13b5 973d 5773 9c3c 87b7 1ebd
00000100: 0ead 883c 503e 8b3b ca20 3bbd 8daf b93c
00000110: cb1c 15bd daf9 86bc cfc4 5abd c061 553d
00000120: fc0f 9a3d cfe9 b5bc a24a 193d bfe7 05bd
00000130: 529c 1d3d 5bb4 cabc 61e6 77bc 1ce4 263a
00000140: 0485 dcbc 99f7 ac3b f111 d23c be44 04bd
00000150: cffa 9e3d 6789 a7bc ca3e 7a3b 82e6 3f3d
00000160: 3308 a5bb b788 5e3d 3d8a 593d 276d 73bd
00000170: 0eec fbbc cec3 393d 504e cdbc 0835 fe3b
00000180: 9cb3 403d 0755 643d d888 3c3c d363 82bd
00000190: 00fe a13c 8370 563b f087 b33a d9d3 eebc
000001a0: 570c f1bc 5cfc b0bc 8b3e 303d 8c7d 5d3c
000001b0: a817 97bc 4969 48bc b6f4 833d db12 87bc
000001c0: ea8d 3d3d 2f1f 153d 5040 2dbc 5685 1d3c
000001d0: 7b72 72bd 9078 913c db38 38bd f2a3 9e3c
000001e0: e33f 06bd 53f0 9abd 21aa babb 536f abbb
000001f0: d49f cfbc 378e 92bd d99d ff3c 3d0c 14bd
00000200: 6e27 18bd 47af eeba e2f8 893d 0533 54bd
00000210: 31ee cfbc 0891 333d f096 a33c dde7 14bd
00000220: cec1 f63b f9e7 d53c b7a9 0fbd 2852 f8bc
00000230: b13a 32bd e9ca 99bd 0446 e23c 1377 3cbd
00000240: 24d7 873d 2610 14bd 0b27 203d 724c cc3a
00000250: 55e3 173d de01 933d c9ae 90bb 55e2 b93d
00000260: 2807 fd3b cb00 7c3d f391 6d3d e04a 92bc
00000270: 9866 0e3b 218c 2cbb bb9d d63b 53ed f7bc
00000280: 1417 05bc c87b 993c 8079 d7ba 3bc7 8cbc
00000290: 3647 503d 706b b1bc a4cc 2c3d 980c dabb
000002a0: bad6 093b 16d5 66bb 0988 8aba 7cd4 4fbd
000002b0: d074 d63c de15 8d3d a348 00bd 3f47 723c
000002c0: eae3 dabc 69f4 7f3c 84be 59bd dd2c 18bd
000002d0: d3f2 c23c 2a51 4c3c 9ae4 27bc 151f ce3c
000002e0: b4b8 9abc 9ae4 08bc a1cf 55bd d25b 3a3d
000002f0: b68a aabd 6dcb 8e3c 3be0 b8bc 20af ea3c
00000300: cb13 debc 3bfe 62bd d9a0 3d3d 70de 683c
00000310: 4f2b 4e3d 4dc6 903d d666 2ebd 4661 8abd
00000320: 5843 87bd fd87 eabc 983f b0bb cadb 81ba
00000330: a224 383c c361 833c fabc 47bb 06f9 a4bd
00000340: 9a77 c43a 96c3 113d 75f7 1dbd 0c7e ba3b
00000350: c3ec 0b3d b1fb ce3b 9238 bb3c 641b 0cbc
00000360: 44e4 a9bc aa26 183c 622b e53b a225 02bc
00000370: 7446 e5bc 0a49 01be ae02 9cba 0917 693d
00000380: 8b78 9bba 39b4 8cbc 424b 8ebc 658a ee3c
00000390: e406 313c 84d4 453d 74fa 4d3d 6db8 143d
000003a0: edc7 4f34 eea8 813c 8f6d aebb 4937 8a3c
000003b0: a258 4bbd 8296 f9bc 8d4d 94bc 3646 8cbc
000003c0: 105d 74bd 0031 21bd 8043 58bb 0a1e 13bc
000003d0: 0d05 953d 014a 253b 8a66 83bd 2995 c7bc
000003e0: 37d5 c3bc 8afe 15bb c54c e83c dfd4 433d
000003f0: 1eb4 1f3d 9322 adbb be01 3e3c 4f24 7f3d

policy_layer.bias f4 [19]
-0.046380986 -0.013177233 -0.02033539 -0.00021849913 0.011366846 0.0013298 -0.055623922 0.04052711
-0.055267528 0.05344511 0.029409641 0.06976981 0.057943318 0.01484018 -0.054719836 -0.13072602
-0.16719057 0.032299183 -0.0746844
00000000: fdf9 3dbd 52e5 57bc 6796 a6bc ea1c 65b9
00000010: 023c 3a3c af4c ae3a e9d5 63bd c1ff 253d
00000020: 3460 62bd 42e9 5a3d 7dec f03c 79e3 8e3d
00000030: f955 6d3d 3a24 733c e821 60bd 0bdd 05be
00000040: 0134 2bbe 264c 043d 22f4 98bd

value_layer.weight f4 [1, 128]
-0.0020251148 0.055927787 -0.035907235 0.047852375 -0.05422397 0.04582333 -0.014225046 0.11655824
-0.04900342 -0.08713429 -0.08921516 -0.012202735 0.10648739 0.10103616 -0.115381956 -0.06410897
0.033929206 -0.16193485 0.12956108 0.05203539 -0.03932501 0.24303365 0.03582503 0.1761132
-0.025696319 0.09490327 -0.07225962 -0.14014634 0.05804588 -0.050853934 0.17474641 0.15670292
-0.02715348 0.065114 0.07602599 0.03898152 -0.0516994 0.014564885 -0.09791417 -0.16695556
0.017299326 0.16141318 -0.017169246 -0.06881684 0.10366612 -0.09094027 0.11465333 -0.040656682
-0.10152448 0.0010215896 0.06588519 0.16160166 -0.13480435 -0.09551969 -0.024303365 -0.028810069
-0.020433092 -0.027119223 0.06904209 -0.013095512 0.100553825 0.15585987 -0.2901646 -0.09064085
-0.19239993 0.0113765905 0.010497745 -0.08304709 -0.0854229 0.16455862 -0.19059616 0.033935983
-0.114469625 0.101577066 0.0928028 -0.16043332 -0.003463829 0.050423827 -0.046122316 0.01534639
-0.005346901 -0.03652631 -0.10702379 0.1345554 0.044354536 0.09205097 -0.017813392 -0.06418304
-0.0006728743 0.014523205 0.059035994 -0.08661412 0.18425709 -0.0689576 0.14672868 -0.10577559
-0.08900698 0.105014734 -0.09715156 0.058365736 0.0078757 -0.1283996 0.009672041 0.016839467
0.03187575 -0.04219626 -0.09114045 0.15451084 -0.028106948 0.24737173 -0.03890758 0.13106109
0.009206219 0.2193372 -0.042789113 -0.06478871 -0.045654796 0.052215975 0.22097015 -0.117951855
0.01286254 0.062273398 0.006449296 0.16342336 -0.013810693 0.12686583 -0.16843271 0.016217567
00000000: cab7 04bb 8914 653d 7713 13bd da00 443d
00000010: f419 5ebd 3eb1 3b3d 2b10 69bc 16b6 ee3d
00000020: cfb7 48bd 7673 b2bd 70b6 b6bd fbed 47bc
00000030: 1016 da3d 0cec ce3d 604d ecbd 904b 83bd
00000040: 5af9 0a3d 40d2 25be a9ab 043e 1023 553d
00000050: 4313 21bd d0dd 783e 44bd 123d 0557 343e
00000060: 1681 d2bc a55c c23d dafc 93bd 8682 0fbe
00000070: 84c1 6d3d 374c 50bd b9f0 323e bb76 203e
00000080: fa70 debc 7d5a 853d 84b3 9b3d 16ab 1f3d
00000090: c0c2 53bd 8ea1 6e3c 3987 c8bd 66f6 2abe
000000a0: 51b7 8d3c 7f49 253e 85a6 8cbc d8ef 8cbd
000000b0: e74e d43d e43e babd 5dcf ea3d 9f87 26bd
000000c0: 11ec cfbd dce6 853a d1ee 863d e87a 253e
000000d0: 270a 0abe d49f c3bd da17 c7bc 1803 ecbc
000000e0: 4d63 a7bc 2229 debc f065 8d3d 8f8e 56bc
000000f0: 2aef cd3d bb99 1f3e 7490 94be e9a1 b9bd
00000100: 7d04 45be e164 3a3c bcfe 2b3c 9814 aabd
00000110: 34f2 aebd 0e82 283e a42b 43be 7500 0b3d
00000120: 0d6f eabd a307 d03d 650f be3d a248 24be
00000130: 6801 63bb 3789 4e3d c1ea 3cbd 6d6f 7b3c
00000140: 0e35 afbb 9d9c 15bd 4a2f dbbd e4c8 093e
00000150: 1aad 353d 3885 bc3d 64ed 91bc 6672 83bd
00000160: d463 30ba bdf2 6d3c bacf 713d be62 b1bd
00000170: e4ad 3c3e a439 8dbd 0b40 163e dfa0 d8bd
00000180: 4b49 b6bd f711 d73d 66f7 c6bd e910 6f3d
00000190: 1409 013c 2f7b 03be 7b77 1e3c ecf2 893c
000001a0: 2590 023d fcd5 2cbd d8a7 babd 1738 1e3e
000001b0: 8b40 e6bc 044f 7d3e 8e5d 1fbd e134 063e
000001c0: aed5 163c ee99 603e a343 2fbd f1af 84bd
000001d0: 8600 3bbd 6be0 553d 0046 623e be90 f1bd
000001e0: 67bd 523c 6412 7f3d 9e54 d33b 7458 273e
000001f0: 3f46 62bc 1ee9 013e a079 2cbe b4da 843c

log_std_parameter f4 [19]
-2.8928702 -2.9371917 -3.0943844 -1.6524748 -1.6678752 -0.7107769 -0.7192149 -2.1261547
-2.1301239 -0.6078563 -0.6034493 -1.3064884 -1.3755472 -0.6519306 -0.6784428 -0.65928745
-0.7660122 -0.6659772 -0.6405052
00000000: c924 39c0 f3fa 3bc0 650a 46c0 4b84 d3bf
00000010: ef7c d5bf 7af5 35bf 781e 38bf eb12 08c0
00000020: f353 08c0 789c 1bbf a77b 1abf 033b a7bf
00000030: ee11 b0bf ece4 26bf 6dae 2dbf 10c7 28bf
00000040: 6019 44bf 7b7d 2abf 26f8 23bf

net_container.0.weight f4 [128, 69]
-0.04859076 0.079633676 0.018663805 -0.2598049 -0.11681117 -0.0051574884 -0.18631423 -0.025742996
0.042172857 0.14787385 -0.062220123 -0.0050527244 0.3429307 0.041241754 0.5698847 0.045957774
0.3226653 -0.11126974 0.15053809 -0.238603 -0.24352589 0.024443947 0.083118044 -0.17364629
-0.18700194 0.16989078 -0.19304258 0.031019254 0.18034554 0.0775491 -0.07183651 -0.026234066
0.015718449 -0.01738356 -0.035923515 0.07631575 -0.062089507 -0.06052089 -0.10059222 0.033560175
-0.052140698 -0.013093461 0.06745774 0.039536193 0.0010878723 0.0044309245 -0.083094105 0.05285203
-0.062058188 0.0030550447 0.028651284 0.17463526 0.12965293 -0.05158603 -0.046800487 -0.08019416
0.054412544 0.053284388 -0.08846774 0.032315418 -0.05047695 -0.08171457 0.015965413 -0.07021795
-0.023281464 0.13529769 0.0027271847 -0.0648763 0.026957694 0.054351132 0.347516 0.4009454
0.0053320397 -0.094132476 0.12611562 -0.0023200552 0.21101695 0.07608238 0.052098643 -0.041140597
-0.26429164 0.26967603 0.22678442 0.39648423 0.025048299 0.098097466 -0.13595319 0.17677858
0.1714528 -0.49192822 0.063636 -0.0875204 -0.066896245 0.105122015 0.10395022 -0.28739026
0.24866447 0.2257955 0.07583402 -0.35266933 -0.02238381 0.05102419 -0.08514785 -0.06665516
-0.0338648 -0.016576547 0.008233325 0.11400163 0.005424241 0.09225068 0.016969861 -0.10694826
0.12913509 -0.0048649367 0.09297584 0.13535413 0.061114326 -0.028897049 0.067278445 0.17371015
0.042276908 -0.004111963 0.10097594 0.20029676 -0.027689742 0.0016674519 0.19544335 -0.045031533
0.009600717 -0.06813778 -0.023895161 -0.08092523 -0.18943572 -0.054286942 -0.20850907 -0.1565938
-0.13963258 0.07942965 -0.14400697 -0.14794348 0.012192601 0.06549435 0.017671969 -0.0049142013
-0.09909146 -0.15770598 0.11135497 0.41294813 0.041517723 -0.093230344 -0.13209678 -0.063703716
-0.40134794 0.010601403 -0.1400901 0.21712264 0.18410407 -0.22934575 0.25265127 -0.21753547
-0.0667552 0.08531938 0.0626714 -0.103920825 0.11212279 -0.149288 -0.19670387 -0.05429644
-0.15932913 0.0019374071 -0.011032482 0.019860059 0.03279492 -0.0303722 0.025306894 -0.012957706
-0.014452597 0.039955817 -0.078147106 -0.0014284314 -0.04089289 0.026243642 0.047545895 0.024403473
-0.07055579 -0.026895931 -0.011193107 -0.04569527 -0.09639701 0.103633024 0.017516412 -0.19083738
-0.04498534 0.10665442 -0.029440036 -0.10219216 0.1759284 0.0149265 0.061909117 -0.1373207
0.18742645 0.01730668 -0.05717932 0.094134204 -0.031882387 0.037187487 0.011634975 0.35802668
0.19521704 -0.13363326 -0.075559035 -0.004251062 -0.052600026 1.3062395 -0.5987971 0.034289107
0.2829418 0.116648525 -0.12071332 0.12907818 -0.08554585 0.3542658 0.59030974 -0.23465699
-0.06177141 0.034191214 0.5826545 0.18096817 -0.11326932 0.086508766 0.17973958 0.28888258
-0.10080897 0.168438 -0.16520761 -0.049324907 0.19217642 0.04913059 0.018112643 0.0068033882
-0.028561585 0.028112628 -0.016030885 0.066773176 0.014295204 -0.017305585 -0.018991293 0.0038109648
0.014310272 -0.022300499 -0.0028178983 0.037612192 0.049916413 0.030370243 0.03146503 -0.030403523
00000000: 1b07 47bd fb16 a33d d6e4 983c 2605 85be
00000010: b23a efbd 2600 a9bb 28c9 3ebe fae2 d2bc
00000020: 72bd 2c3d 3e6c 173e 87da 7ebd 5391 a5bb
00000030: 9d94 af3e 1ded 283d f7e3 113f 383e 3c3d
00000040: 6334 a53e 64e1 e3bd a826 1a3e 5854 74be
00000050: da5e 79be ac3e c83c cb39 aa3d 55d0 31be
00000060: 707d 3fbe d9f7 2d3e f4ac 45be 171c fe3c
00000070: 80ac 383e 10d2 9e3d 051f 93bd d3e8 d6bc
00000080: fac3 803c f867 8ebc 8924 13bd 6f4b 9c3d
00000090: 9151 7ebd c1e4 77bd 4b03 cebd 6576 093d
000000a0: 7c91 55bd f585 56bc 4927 8a3d b4f0 213d
000000b0: f096 8e3a 4a31 913b 3e2d aabd 5f7b 583d
000000c0: ba30 7ebd 2537 483b 19b6 ea3c 96d3 323e
000000d0: bdc3 043e df4b 53bd deb1 3fbd d63c a4bd
000000e0: b0df 5e3d bb40 5a3d 932e b5bd 2c5d 043d
000000f0: ebc0 4ebd f859 a7bd e6c9 823c 6ece 8fbd
00000100: c5b8 bebc 7a8b 0a3e 91ba 323b dedd 84bd
00000110: 62d6 dc3c 4b9f 5e3d 9eed b13e b748 cd3e
00000120: 64b8 ae3b 87c8 c0bd 7424 013e 110c 18bb
00000130: d414 583e 14d1 9b3d 6365 553d 0b83 28bd
00000140: 3c51 87be fa12 8a3e 2d3a 683e fbff ca3e
00000150: 1732 cd3c 53e7 c83d 5037 0bbe 7205 353e
00000160: 5391 2f3e 04de fbbe 9753 823d e53d b3bd
00000170: e600 89bd 364a d73d dae3 d43d d124 93be
00000180: e6a1 7e3e f036 673e de4e 9b3d 1391 b4be
00000190: 405e b7bc befe 503d ff61 aebd 8082 88bd
000001a0: d1b5 0abd 8acb 87bc 11e5 063c b079 e93d
000001b0: d5bd b13b eded bc3d 6104 8b3c b007 dbbd
000001c0: fd3b 043e 0c6a 9fbb 1e6a be3d 469a 0a3e
000001d0: 0453 7a3d 81b9 ecbc 48c9 893d 13e1 313e
000001e0: 8d2a 2d3d a5bd 86bb 79cc ce3d 981a 4d3e
000001f0: 99d5 e2bc 678e da3a 4d22 483e fc72 38bd
00000200: 534c 1d3c d28b 8bbd c9bf c3bc 21bc a5bd
00000210: 70fb 41be fc5b 5ebd 6783 55be 205a 20be
00000220: d8fb 0ebe 03ac a23d 9076 13be 7f7e 17be
00000230: 7ac3 473c e721 863d cec4 903c 4f07 a1bb
00000240: 77f0 cabd ad7d 21be 130e e43d f06d d33e
00000250: 7d0e 2a3d 8def bebd 6144 07be 1877 82bd
00000260: 7a7d cdbe 82b1 2d3c c773 0fbe 6655 5e3e
00000270: c785 3c3e 9dd9 6abe 825b 813e 9ec1 5ebe
00000280: f3b6 88bd edbb ae3d dd59 803d 71d4 d4bd
00000290: a2a0 e53d f4de 18be bd6c 49be f265 5ebd
000002a0: 2d27 23be 98f0 fd3a 95c1 34bc 90b1 a23c
000002b0: f753 063d 1fcf f8bc 6750 cf3c 8f4c 54bc
000002c0: 96ca 6cbc b6a8 233d 970b a0bd 343a bbba
000002d0: 4e7f 27bd e8fc d63c 7cbf 423d cbe9 c73c
000002e0: 8e7f 90bd db54 dcbc 4b63 37bc f72a 3bbd
000002f0: cc6b c5bd 8d3d d43d 947e 8f3c e06a 43be
00000300: 8c42 38bd a26d da3d 3b2c f1bc 204a d1bd
00000310: 9326 343e 478e 743c 6a94 7d3d cc9d 0cbe
00000320: b8ec 3f3e bdc6 8d3c dd34 6abd 6fc9 c03d
00000330: 1b97 02bd e851 183d 9fa0 3e3c 464f b73e
00000340: fae6 473e 28d7 08be b2be 9abd 7e4c 8bbb
00000350: 2073 57bd db32 a73f c44a 19bf bc72 0c3d
00000360: bfdd 903e 6ce5 ee3d 8c38 f7bd 122d 043e
00000370: aa32 afbd 5462 b53e 8a1e 173f ec49 70be
00000380: 0504 7dbd 160c 0c3d d828 153f b84f 393e
00000390: bff9 e7bd 822b b13d a70d 383e 6be8 933e
000003a0: ef74 cebd 037b 2c3e 2f2c 29be ea08 4abd
000003b0: e5c9 443e 283d 493d f760 943c f5ee de3b
000003c0: fcf9 e9bc 744c e63c 3453 83bc 60c0 883d
000003d0: 6e36 6a3c 71c4 8dbc a193 9bbc 61c1 793b
000003e0: a275 6a3c 89af b6bc 7dac 38bb 3e0f 1a3d
000003f0: 2775 4c3d 04cb f83c 7ae1 003d cf10 f9bc

net_container.0.bias f4 [128]
0.19366746 -0.096209146 -0.022375803 0.070777126 0.14177372 0.06809155 0.14884502 0.21354821
0.15969256 0.22035103 0.07492303 -0.02214714 0.14365213 0.03307364 0.20633297 -0.00843993
0.14729738 -0.18096979 0.21702853 0.06504023 -0.04357607 0.116816 -0.045393117 0.13272913
0.110678226 0.04079852 0.09233569 -0.062892914 -0.004549342 -0.117938235 0.06339602 0.041586258
0.18869363 0.10104824 -0.06628963 -0.16891438 0.08767912 0.048264083 0.08189543 0.080466494
-0.08852922 0.16514944 -0.15219429 -0.13363059 0.117713295 -0.035814792 0.11557761 -0.04450944
0.20759849 0.098829746 -0.035111375 0.0448847 -0.05416016 -0.17325594 0.014532763 0.021480087
0.23088415 0.10510298 0.11939455 0.13143161 -0.057647597 0.10009421 0.27404937 0.06851137
0.078100465 0.21256702 0.094672844 0.062358547 0.03851287 0.12233359 0.0016003749 -0.17360504
0.21234433 0.25667107 0.06635153 0.02376695 0.13015792 0.04403758 0.20292194 0.19235893
-0.01371347 0.01406571 0.15371732 0.10061772 0.108366944 0.11925315 0.2045322 0.23936072
0.012759626 0.18807305 -0.03403923 0.0016145303 0.12901437 -0.055899385 -0.02099242 -0.043951377
0.06906695 0.0074208775 -0.14584471 -0.069932535 0.18733248 0.062051523 -0.052150887 0.07222308
0.08051587 0.16124152 0.067967 -0.043632783 0.018111913 -0.048379816 -0.098701 0.0960122
-0.063024424 0.08195602 0.17373495 0.15916827 -0.06298741 0.16761278 -0.004325608 -0.077221
0.038753908 -0.024752073 0.15678903 -0.11511536 0.12182031 -0.1462863 -0.0940211 0.1662125
00000000: c350 463e 4d09 c5bd 764d b7bc 99f3 903d
00000010: 212d 113e 9573 8b3d d46a 183e 62ac 5a3e
00000020: 7286 233e b3a3 613e 3f71 993d eb6d b5bc
00000030: 8b19 133e 3a78 073d f348 533e a247 0abc
00000040: 20d5 163e 2550 39be ba3c 5e3e d033 853d
00000050: d27c 32bd 3a3d ef3d 22ee 39bd 25ea 073e
00000060: 44ab e23d 591c 273d 7f1a bd3d 00ce 80bd
00000070: a612 95bb 9a89 f1bd c6d5 813d 5a56 2a3d
00000080: e738 413e 61f2 ce3d dcc2 87bd e4f7 2cbe
00000090: 1c91 b33d 8fb0 453d cbb8 a73d 9ecb a43d
000000a0: cf4e b5bd ef1c 293e d2d8 1bbe 75d6 08be
000000b0: ab13 f13d 88b2 12bd f4b3 ec3d 884f 36bd
000000c0: b394 543e 4067 ca3d f2d0 0fbd 05d9 373d
000000d0: 0bd7 5dbd 016a 31be d31a 6e3c 02f7 af3c
000000e0: e56c 6c3e 3b40 d73d 2185 f43d 0296 063e
000000f0: e31f 6cbd 31fe cc3d 3350 8c3e b04f 8c3d
00000100: 23f3 9f3d 2bab 593e d6e3 c13d ad6b 7f3d
00000110: acbf 1d3d 098a fa3d acc3 d13a 85c5 31be
00000120: cb70 593e 646a 833e 50e3 873d e8b2 c23c
00000130: 1e48 053e c060 343d c5ca 4f3e bdf9 443e
00000140: 76ae 60bc dd73 663c 1368 1d3e aa10 ce3d
00000150: 7def dd3d ff3a f43d e470 513e fa1a 753e
00000160: c00d 513c 3996 403e b86c 0bbd a69e d33a
00000170: 581c 043e c1f6 64bd 4cf8 abbc 5c06 34bd
00000180: f972 8d3d d52a f33b 5158 15be ca38 8fbd
00000190: 16d4 3f3e bd29 7e3d 2b9c 55bd b2e9 933d
000001a0: 81e5 a43d 7f1c 253e 4832 8b3d 4ab8 32bd
000001b0: 6f5f 943c ea29 46bd c023 cabd 0ba2 c43d
000001c0: f312 81bd 8fd8 a73d 93e7 313e 02fd 223e
000001d0: 8bff 80bd afa2 2b3e d4bd 8dbb 0b26 9ebd
000001e0: 6bbc 1e3d dcc4 cabc 4e8d 203e 9ac1 ebbd
000001f0: ed7c f93d 13cc 15be 228e c0bd 9c33 2a3e
