humanoidprac/humanoidprac/scripts/skrl/logs/skrl/h1_flat/joint_experiment_ver3/2025-09-18_04-21-17_ppo_torch/checkpoints/agent_16800.pt (torch, 549970 bytes, 40 tensors)

log_std_parameter f4 [19]
0	0xc0465b96	-3.09934
1	0xc04816ed	-3.1263993
2	0xc051d4c3	-3.278611
3	0xbfe2b1c2	-1.7710497
4	0xbfd75f1d	-1.6825901
5	0xbf499a39	-0.7875095
6	0xbf2baab3	-0.6705734
7	0xc010e3c7	-2.2639024
8	0xc0122222	-2.2833333
9	0xbf46d9d9	-0.7767616
10	0xbf3b2cd8	-0.731153
11	0xbfbbb22b	-1.4663748
12	0xbfc2fee0	-1.5234032
13	0xbf309660	-0.68979454
14	0xbf1f5a1e	-0.6224688
15	0xbf3a0060	-0.7265682
16	0xbf4603ad	-0.7734936
17	0xbf3f09e6	-0.7462448
18	0xbf2922a9	-0.6606851

net_container.0.weight f4 [128, 69]
0	0xbe9dd9c3	-0.30830202
1	0xbc5993e1	-0.013279886
2	0xbcdfd579	-0.027323471
3	0xbd9dde83	-0.07708456
4	0x3bd0a82d	0.0063677044
5	0x3d0aceda	0.033888675
6	0xbe72ee4b	-0.23723714
7	0xbebe9d22	-0.37229258
8	0x3dfe09c2	0.12404205
9	0xbd873b0d	-0.0660306
10	0xbd7eda87	-0.062220123
11	0x3e2bb522	0.16768315
12	0x3d950ecb	0.07278212
13	0xbe3b7f6a	-0.18310323
14	0x3e136d7f	0.14397238
15	0xbeb8770b	-0.36028323
16	0x3e8894fc	0.26676166
17	0xbe428038	-0.18994224
18	0x3dfdbad6	0.12389152
19	0xbd83ea53	-0.06441178
20	0xbe9fead9	-0.31233862
21	0x3e399349	0.18122591
22	0x3d8c01b9	0.06836266
23	0xbeb21f17	-0.34789345
24	0xbeb777d3	-0.35833606
25	0xbe896105	-0.26831833
26	0xbdfc9823	-0.12333705
27	0x3e140271	0.14454056
28	0x3e9dc102	0.30811316
29	0x3cab5174	0.020912863
30	0x3df8bd4b	0.1214548
31	0xbb992cc3	-0.0046745255
32	0x3c16ba56	0.009199699
33	0xbd0d59a4	-0.034509316
34	0xbe18b56c	-0.14912957
35	0x3ca9c966	0.020725917
36	0x3c13d01d	0.009021786
37	0xbc6e0907	-0.0145285195
38	0xbe0cebae	-0.1376178
39	0x3d86a08f	0.06573593
40	0x3d0ecc81	0.034863
41	0x3c66215d	0.01404604
42	0x3d5a4f5d	0.053298343
43	0x3b9c3797	0.004767369
44	0x3d697f69	0.057006273
45	0xbc8670e3	-0.01641125
46	0xbddbd724	-0.10734394
47	0x3dcd094c	0.10011539
48	0xbd0cf719	-0.03441534
49	0xbd3ec9c6	-0.046579145
50	0xbc7d8c4e	-0.015475346
51	0x3bd9e4e6	0.0066496013
52	0x3e62a359	0.22132625
53	0x3bb272f6	0.0054458333
54	0x3cda221b	0.02662759
55	0x3c6b7739	0.014371687
56	0x3d55a092	0.052155085
57	0xbe12d4ba	-0.14338961
58	0xbde56518	-0.11200923
59	0x3d30c9f9	0.043161366
60	0xbd222f05	-0.039595623
61	0xbe9531d1	-0.2913957
62	0xbd33b1a2	-0.043870576
63	0xbdd63ad8	-0.10460442
64	0xbcaa9a90	-0.020825654
65	0x3d9b13aa	0.0757211
66	0xbd422e2b	-0.04740731
67	0x3d1cd476	0.038288556
68	0x3d7bb1c1	0.061448816
69	0x3920c2f0	0.00015331409
70	0xbc36316c	-0.0111201815
71	0x3e389aa0	0.18027735
72	0xbe240d62	-0.1602073
73	0xbe528a1d	-0.20560499
74	0x3d825789	0.06364352
75	0xbdd10056	-0.10205142
76	0x3e5cbf41	0.21557333
77	0x3cfcb6c5	0.03084887
78	0x3dc86016	0.09783952
79	0xbd28830b	-0.041140597
80	0xbeab569e	-0.3346452
81	0x3db5b86b	0.088730656
82	0x3e895206	0.2682039
83	0x3eff8cb5	0.49912038
84	0x3d434bab	0.047679584
85	0x3e307635	0.17232592
86	0x3ea29d8b	0.3176082
87	0x3ec145d6	0.37748593
88	0x3f079595	0.5296262
89	0xbf0ab430	-0.54181194
90	0x3f0e8785	0.55675536
91	0xbe17a218	-0.14807928
92	0xbb1d5d56	-0.0024011931
93	0x3e4e9180	0.20172691
94	0xbe7eb916	-0.24875292
95	0xbe077554	-0.13228351
96	0x3cd8c2a0	0.026459992
97	0x3e90a00d	0.2824711
98	0x3e2830b8	0.16424835
99	0xbe593c6f	-0.2121446
100	0xba9d9769	-0.0012023273
101	0x3df95bd8	0.12175721
102	0xbdd8aed8	-0.10580224
103	0x3d9942ea	0.07483466
104	0xbd6ea29b	-0.05826054
105	0xbd07bcac	-0.033138916
106	0x3c971104	0.01844073
107	0x3d0692cc	0.03285484
108	0x3d5047e6	0.050849818
109	0x3c8e30b2	0.017357204
110	0x3cfc14cc	0.030771635
111	0xbd299887	-0.041405227
112	0x3d062446	0.032749437
113	0x3ba9871f	0.0051735784
114	0xbd262880	-0.040565968
115	0x3c643a69	0.013929942
116	0x3d19a0f8	0.037507027
117	0x3cb0ef6f	0.021598546
118	0x3d007e8b	0.03137068
119	0xbd9182d5	-0.07105032
120	0xbda7b0ca	-0.08188017
121	0x3da30ff4	0.07962027
122	0x3e0256a1	0.12728359
123	0x3dc9be42	0.09850742
124	0x3c381b8c	0.011237036
125	0xbd95bee6	-0.073118016
126	0xbda4e640	-0.08051729
127	0xbe313b25	-0.17307718
128	0xb9b793fb	-0.00035014734
129	0x3dc7cd8b	0.09756001
130	0x3d2999ca	0.04140643
131	0xbe0bd4c7	-0.13655387
132	0x3d9dd55d	0.077067114
133	0xbe31da32	-0.17368391
134	0xbdfe0918	-0.12404078
135	0xbde44c29	-0.11147339
136	0xbe0adf39	-0.13561715
137	0xbd5b5b99	-0.05355415
138	0xbe038ea0	-0.12847376
139	0x3e432b2e	0.1905944
140	0x3db0c071	0.08630455
141	0xbd9d2c28	-0.07674438
142	0xbd8031ce	-0.062594995
143	0xbd959347	-0.073034815
144	0xbee2e1aa	-0.44312793
145	0x3f12eff4	0.5739739
146	0x3e257af7	0.16160189
147	0x3ec195ee	0.378097
148	0x3d2a0e7d	0.041517723
149	0x3e670635	0.22560962
150	0xbed0e878	-0.4080236
151	0xbef6040c	-0.48049963
152	0xbe5223c7	-0.2052146
153	0xbdad69fd	-0.08467481
154	0xbe906379	-0.28200892
155	0xbe0573a4	-0.13032395
156	0x3e673db2	0.22582129
157	0xbec4cd0f	-0.38437697
158	0x3e9d0122	0.30664927
159	0xbd8f0826	-0.06983976
160	0x3d8ffa38	0.07030147
161	0x3d22078b	0.039557975
162	0x3d336105	0.043793697
163	0xbd6a703d	-0.057235945
164	0x3dee8cde	0.11647962
165	0xbe01d1e4	-0.12677723
166	0xbd173ec4	-0.036925092
167	0x3dea184e	0.11430417
168	0x3e1d5b29	0.15366806
169	0xbbde8fe0	-0.0067920536
170	0xbb5daabb	-0.0033823687
171	0x3b07b28c	0.0020705787
172	0xbc456d73	-0.0120500205
173	0xbc962a6f	-0.01833078
174	0xbce6b356	-0.028161686
175	0xb99db4b0	-0.00030079996
176	0xbd12c1a7	-0.035829213
177	0x3c29b892	0.010358946
178	0xbc6e6cd7	-0.014552317
179	0xbca6eca2	-0.020376507
180	0x3bd05a73	0.0063584386
181	0x3b446345	0.0029966396
182	0xbc31c2ce	-0.010849668
183	0x3cb525b0	0.022112697
184	0xbccd5f74	-0.02506993
185	0x3d51b9d8	0.051202625
186	0xbc53ecbd	-0.012934861
187	0xbcb2ca26	-0.021824908
188	0xbe1fdabc	-0.15610784
189	0xbd1d9eca	-0.03848151
190	0xbdc723bc	-0.09723613
191	0x3d126b2f	0.03574675
192	0x3dac20f7	0.08404725
193	0x3de58db4	0.11208668
194	0x3d3d89b8	0.046273917
195	0xbdfdf3c5	-0.12400011
196	0xbd552b54	-0.052043274
197	0x395fdfac	0.00021350262
198	0x3caa8438	0.020815
199	0xbe4fd453	-0.20295839
200	0x3df143db	0.117805205
201	0x3b98514d	0.0046483637
202	0xbb573459	-0.0032837598
203	0x3e16b937	0.14719091
204	0xbd71ac9b	-0.0590025
205	0x3d6c3b28	0.057673603
206	0x3d35c315	0.044375498
207	0x3edf2287	0.4358103
208	0xbd3ab2b2	-0.045580573
209	0xbe1e19c2	-0.15439513
210	0xbe02b792	-0.12765339
211	0xb8064004	-3.200771e-05
212	0xbdad5c42	-0.084648624
213	0x3f96d489	1.178361
214	0xbe9bfb3a	-0.30465108
215	0xbdf63f08	-0.12023741
216	0x3ecaaff2	0.3958736
217	0x3deee56c	0.116648525
218	0xbd8e2c18	-0.06942004
219	0x3e9818c9	0.2970641
220	0xbcdc2de3	-0.02687735
221	0x3e521e56	0.20519385
222	0x3f17df18	0.5932479
223	0xbedaa7b0	-0.4270606
224	0xbdefcdca	-0.11709173
225	0xbded7ad5	-0.11595694
226	0x3f0fafc7	0.5612759
227	0x3ed174d1	0.40909436
228	0x3e203fea	0.15649381
229	0xbd70b522	-0.05876649
230	0x3e83fc9d	0.25778666
231	0x3eb70834	0.35748446
232	0x3d790b5c	0.06080185
233	0xbdc71cf5	-0.0972232
234	0xbe8c7d58	-0.2743938
235	0xbe8a6989	-0.27033642
236	0x3ccb7029	0.024833756
237	0x3d682655	0.05667718
238	0xbc3e84aa	-0.011628309
239	0xbcb50380	-0.022096395
240	0xbd1e2836	-0.038612567
241	0xbc7ab2be	-0.0153014045
242	0xbcb6a373	-0.022294736
243	0x3d4ddf49	0.05026177
244	0x3d8efb2c	0.06981501
245	0x3b9a89e6	0.004716146
246	0xbc857195	-0.016289512
247	0x3d2a757b	0.041615944
248	0x3d0b2a07	0.033975627
249	0x3c3ed296	0.011646887
250	0x3b1cd00b	0.0023927714
251	0x3d1091c9	0.03529528
252	0x3ce51aa8	0.027966812
253	0x3d7d8286	0.061892055
254	0x3ce3b14b	0.0277945
255	0xba440d78	-0.00074788136

net_container.0.bias f4 [128]
0	0x3da5e141	0.080996044
1	0xbd5be7d7	-0.053687897
2	0xbc9a67a4	-0.018848248
3	0x3cf69705	0.030101309
4	0x3db4e401	0.08832551
5	0x3cd5ea0a	0.026112575
6	0x3e022818	0.12710607
7	0x3e0accd8	0.13554704
8	0x3d968beb	0.07350906
9	0x3dcd040d	0.10010538
10	0xbc9a0e39	-0.01880561
11	0xbb861600	-0.004091978
12	0x3d598c16	0.053112112
13	0x3d3fc2d2	0.046816655
14	0x3e67693e	0.2259874
15	0xbe1e11c9	-0.15436472
16	0x3dcb351e	0.09922241
17	0xbda0252c	-0.0781959
18	0x3dff9bf0	0.124809146
19	0x3d282f9c	0.04106103
20	0x3dea1eb0	0.114316344
21	0x3d2437f7	0.040092435
22	0xbcac856d	-0.021059716
23	0x3dfc6061	0.1232307
24	0x3d9a409f	0.07531857
25	0x3da61788	0.08109957
26	0xbd5b41dd	-0.05352961
27	0xbd9b2e7c	-0.075772256
28	0xbd731bbd	-0.059352625
29	0x3d16cb66	0.03681507
30	0xbdab9f6a	-0.08380015
31	0x3d2efe51	0.042723004
32	0x3e763368	0.24043047
33	0x3de87bc7	0.11351734
34	0x3dbd293a	0.09236379
35	0xbddbed0f	-0.10738575
36	0x3d892501	0.06696511
37	0x3cfce000	0.03086853
38	0x3db84ea9	0.08999378
39	0xbb9a8b08	-0.004716281
40	0xbd4e2ca3	-0.050335538
41	0x3e35c8e8	0.17752421
42	0xbdab8585	-0.08375076
43	0x3ca02055	0.019546667
44	0x3e25cdb7	0.16191755
45	0xbdddcf40	-0.108305454
46	0x3d3c18e2	0.045922168
47	0x3d225a19	0.039636705
48	0x3e53effa	0.20697013
49	0x3d95da9d	0.07317088
50	0xbc9eeaf3	-0.019399142
51	0x3cebe4cb	0.02879562
52	0xbd8e6e73	-0.0695466
53	0xbd1916a5	-0.03737511
54	0xbb6952e0	-0.0035602376
55	0x3d279ccf	0.04092103
56	0x3e33538b	0.17512338
57	0x3d85c473	0.0653161
58	0x3e022cc5	0.1271239
59	0x3e1fe67c	0.15615267
60	0xbd63a940	-0.05558133
61	0x3d8decc2	0.069299236
62	0x3e15d1f4	0.14630872
63	0x3d6a7439	0.057239745
64	0x3d814447	0.06311851
65	0x3e3f9998	0.18710935
66	0x3cd0e909	0.025501745
67	0x3d82e719	0.06391735
68	0x3d83df35	0.06439058
69	0x3e292968	0.16519701
70	0x3ddfc6ea	0.10926612
71	0xbe0402d1	-0.128917
72	0x3e23fe2e	0.1601493
73	0x3dda82be	0.10669468
74	0x3d1dccd8	0.038525432
75	0x3d7ec993	0.062203955
76	0x3e1d48f1	0.15359856
77	0xbd3415f7	-0.04396626
78	0x3e4d4eed	0.20049639
79	0x3d55eb11	0.05222613
80	0x3c96e596	0.018420022
81	0x3c8011cc	0.015633486
82	0x3e3318d6	0.17489943
83	0x3d2e8910	0.04261118
84	0x3d859f40	0.06524515
85	0x3e012241	0.12610723
86	0x3dfe410b	0.1241475
87	0x3e2b6489	0.1673757
88	0xbd2a63ca	-0.041599073
89	0x3e6d0323	0.23145728
90	0x3ce0e7fd	0.02745437
91	0xbd2c86e4	-0.04212083
92	0x3d88bf58	0.06677121
93	0xbca98490	-0.020693094
94	0x3d5cdade	0.053919666
95	0xbdf32283	-0.11871817
96	0x3daf0e11	0.08547605
97	0x3bd37cd4	0.0064540897
98	0xbdb33954	-0.08751169
99	0x3d064ede	0.032790057
100	0x3de53500	0.111917496
101	0xbcfda46a	-0.030962188
102	0xbd1d5e79	-0.038420174
103	0x3d3abf31	0.04559249
104	0x3c1a2fe2	0.00941083
105	0x3ddba019	0.107238956
106	0x3d1890a4	0.037247315
107	0xbd53d8b5	-0.05172034
108	0x3d281d92	0.041043825
109	0xbe127b5d	-0.14304872
110	0xbd362f83	-0.044478904
111	0x3d7d3267	0.061815646
112	0xbcd5c5fb	-0.026095381
113	0xbdcd4678	-0.100232065
114	0x3e02c1e9	0.12769283
115	0x3e0f71a5	0.14008196
116	0xbdef42c1	-0.11682654
117	0x3dd87d96	0.105708286
118	0x3d1c0210	0.038087904
119	0xbd1f6f33	-0.038924407
120	0x3c0854e0	0.008321017
121	0xbd5bb7c5	-0.053642053
122	0x3de5e883	0.11225989
123	0xbd1bd7fa	-0.03804777
124	0x3d670476	0.05640074
125	0xbd8840ea	-0.066530064
126	0xbd9c1c33	-0.07622566
127	0x3e172b0b	0.14762513

net_container.2.weight f4 [128, 128]
0	0x3b3e829e	0.0029069553
1	0xbe04e56c	-0.12978142
2	0x3d81098d	0.0630065
3	0xbd2c53ce	-0.04207211
4	0x3c058a66	0.008150673
5	0x3c19e29d	0.009392408
6	0x3db06dbf	0.086146824
7	0xbd8e7512	-0.06955923
8	0xbba860ef	-0.0051385085
9	0x3cb37658	0.021907017
10	0xbd671ca1	-0.056423787
11	0xbe4f5f41	-0.2025118
12	0x3dc53417	0.09629076
13	0xbd9d1527	-0.0767005
14	0x3e028166	0.12744674
15	0x3c24b0de	0.010051934
16	0xbd389b14	-0.04506977
17	0x3d7974e2	0.060902484
18	0xbd69b3a6	-0.05705609
19	0x3e017c43	0.12645058
20	0xbc93ca49	-0.018040793
21	0x3dd1982d	0.10234103
22	0xbd3a8538	-0.045537204
23	0xbdc7f5b1	-0.09763659
24	0xbe104685	-0.14089401
25	0xbb82ba45	-0.00398949
26	0xbd822afd	-0.063558556
27	0x3da20733	0.079115294
28	0x3d2fa2db	0.04287992
29	0x3c5ca2c8	0.013466544
30	0xbb1a143a	-0.002351059
31	0x3d338775	0.043830354
32	0xbd285cad	-0.041104008
33	0xbe3d0a96	-0.1846107
34	0xbdd475ba	-0.10374017
35	0x3dc6357d	0.09678171
36	0x3b59d126	0.0033236234
37	0x3d7ee51b	0.06223021
38	0x3db91686	0.09037499
39	0x3c3a4ba3	0.011370572
40	0xba047705	-0.00050531357
41	0x3daf5625	0.08561353
42	0xbdd8b1c6	-0.105807826
43	0xbddbb171	-0.10727204
44	0xbbc16027	-0.005901355
45	0x3dd7b01a	0.105316356
46	0xbdb1ebe0	-0.08687568
47	0x3da2e43e	0.0795369
48	0x3d07c5a8	0.033147484
49	0x3da238b6	0.07920973
50	0xbcbd123c	-0.023079984
51	0x3d48090e	0.04883676
52	0xbda9e76b	-0.082960926
53	0x3ce49890	0.027904779
54	0x3ba38fab	0.004991492
55	0x3a1992cf	0.0005858363
56	0xbe04b3da	-0.12959233
57	0xbd9d5f3f	-0.076841824
58	0x3ddf26e7	0.10896092
59	0x3d80a6ca	0.062818125
60	0x3d353afb	0.0442457
61	0xbbab1f3c	-0.0052222293
62	0x3d13ef82	0.036117084
63	0x3b963c50	0.0045848265
64	0xbc082276	-0.008308997
65	0xbd94d3f0	-0.07266986
66	0xbd1c66b2	-0.038183875
67	0xbd6d6e41	-0.057966474
68	0xbcd971b7	-0.026543481
69	0x3b4fe29b	0.003172076
70	0x3d49f4d9	0.04930577
71	0x3b9c029c	0.0047610532
72	0x3d070f24	0.032973424
73	0xbd8f045a	-0.06983252
74	0xbe397d94	-0.1811431
75	0x3e06cd43	0.13164239
76	0xbc6990de	-0.01425573
77	0xbd74c06c	-0.05975382
78	0xbc93d0b5	-0.018043855
79	0xbcece7ee	-0.028919186
80	0x3d82bac7	0.06383281
81	0x3d80bbd9	0.06285829
82	0x3d0d3d21	0.034482125
83	0x3d62a86e	0.05533641
84	0xbe12f914	-0.14352828
85	0x3d8ad2a9	0.067784615
86	0xbe40ab1d	-0.18815275
87	0xbe2114f9	-0.15730657
88	0x3dd83931	0.105577834
89	0xbc350524	-0.011048589
90	0xbd629c53	-0.055324864
91	0xbcb41e69	-0.021987157
92	0xbd49142d	-0.049091507
93	0x3d3a867c	0.04553841
94	0xbdc3e157	-0.095644645
95	0xbdf34519	-0.11878414
96	0xbb520548	-0.0032046605
97	0x3b9036a5	0.0044010454
98	0x3d83710d	0.06418047
99	0x3c564f03	0.013080361
100	0x3d144f79	0.036208604
101	0x3c0e5209	0.008686551
102	0xbd4950d1	-0.04914934
103	0xbd231a64	-0.03982009
104	0x3d98d373	0.07462206
105	0xbb7b7134	-0.0038367035
106	0x3d7d9778	0.06191203
107	0xbd9c0e8d	-0.07619963
108	0x3e1af8de	0.15133998
109	0x3c981aba	0.018567432
110	0xbb78c20f	-0.0037957465
111	0xbd58838b	-0.052859824
112	0xbb0a6f0e	-0.0021123323
113	0xbc1a0fbe	-0.009403167
114	0xbd0605d9	-0.03272042
115	0xbe09daf4	-0.1346243
116	0xbc963d31	-0.018339725
117	0xbddd6a49	-0.10811288
118	0x3d2cd17f	0.04219198
119	0x3dd0d178	0.10196203
120	0xbc5c45aa	-0.013444344
121	0xbca63a43	-0.020291453
122	0xbe179f34	-0.14806825
123	0x3d179998	0.037011713
124	0x3d5d03d3	0.053958725
125	0x3d995a0e	0.0748788
126	0xbab0fcc9	-0.001350307
127	0xbdfe5fb4	-0.12420598
128	0x3d3c9289	0.046038184
129	0x3dadfbfb	0.08495327
130	0xbe75281e	-0.23941085
131	0xbd95a358	-0.07306546
132	0x3d59aef8	0.05314538
133	0xbcfbadc8	-0.030722514
134	0x3d97120d	0.0737649
135	0x3dbf20b4	0.093324095
136	0xbd46aaa9	-0.048502598
137	0xbde5aabe	-0.11214207
138	0xbdb7672f	-0.089552276
139	0x3d90452a	0.07044442
140	0xbe80f6f6	-0.25188416
141	0x3dae32ef	0.085058086
142	0x3ce0cac5	0.027440438
143	0x3c978e8b	0.018500587
144	0x3d3d2598	0.04617843
145	0x3c0c254e	0.008553816
146	0x3e0ca1bd	0.13733573
147	0xbd8a88c7	-0.067643695
148	0xbd8c14d0	-0.06839907
149	0xbc3873db	-0.011258091
150	0x3d7948ec	0.06086056
151	0xbdbc21d4	-0.0918614
152	0x3c2b6b1f	0.010462551
153	0xbc717be3	-0.01473901
154	0xbca56f0f	-0.020194558
155	0x3d685109	0.056717906
156	0xbd44fe31	-0.04809398
157	0x3ce82a6c	0.02834054
158	0x3d3013fd	0.042987812
159	0xbd5e0bdf	-0.05421054
160	0xbc3be3d5	-0.011467894
161	0x3cdd6fad	0.02703079
162	0xbd9d77ce	-0.076888666
163	0x3c8e46af	0.017367689
164	0x3d837089	0.06417949
165	0xbc81f536	-0.015863996
166	0xbde719e4	-0.11284235
167	0xbdae7f75	-0.08520404
168	0x3cf20bbb	0.02954661
169	0xbd921c50	-0.071343064
170	0xbd1903a8	-0.037357002
171	0x3d9e94e4	0.077432424
172	0xbd45ed30	-0.048321903
173	0xbce9d64a	-0.028544564
174	0x3d1e2421	0.038608674
175	0x3ca01d70	0.019545287
176	0xbdd5617b	-0.104189835
177	0xbd5de0fa	-0.054169632
178	0xbcddfcf8	-0.027098164
179	0xbe20d161	-0.15704872
180	0x3d20d2fd	0.039263714
181	0x3d20f765	0.039298434
182	0x3d3c82d4	0.046023205
183	0xbd7d2f83	-0.06181289
184	0xbddb3430	-0.10703313
185	0xbd9c2bd7	-0.07625549
186	0xbd37e277	-0.044893708
187	0x3dc51e0e	0.09624873
188	0xbe69ae1b	-0.22820322
189	0xbdda52c2	-0.10660316
190	0xbd949cc2	-0.07256462
191	0x3d50d823	0.050987374
192	0xbe2fa09a	-0.17151108
193	0xbdf8c0b7	-0.121461324
194	0xbced2f1a	-0.028953124
195	0xbdf11414	-0.11771408
196	0xbd33b63d	-0.043874968
197	0x3be7b3b7	0.007070984
198	0x3ddb98d0	0.10722506
199	0xbd92cef7	-0.07168382
200	0xbd0ebbdc	-0.034847125
201	0x3d710244	0.05884005
202	0xbe427107	-0.18988429
203	0xbce1d361	-0.027566614
204	0x3cad5ebd	0.021163339
205	0xbc9db1b1	-0.019249769
206	0x3d6d83b6	0.057986937
207	0xbd80af27	-0.06283408
208	0xbb81faad	-0.0039666505
209	0xbdb8c7c1	-0.09022475
210	0x3bccc9c5	0.0062496387
211	0xbda0d08f	-0.078522794
212	0xbe574aaf	-0.21024583
213	0x3d0b9c24	0.034084454
214	0x3d64e246	0.055879854
215	0xbd6a8683	-0.057257187
216	0xbcc5d25c	-0.024148159
217	0xbcd64624	-0.026156493
218	0xbdb5e1d0	-0.08880961
219	0xbd060044	-0.032715097
220	0x3b1684c6	0.0022967323
221	0x3da9bca0	0.082879305
222	0xbd11ad72	-0.0355658
223	0xbe08378a	-0.13302436
224	0xbce60cd9	-0.028082298
225	0xbcc0bb8a	-0.023526926
226	0x3d457aa1	0.04821265
227	0xbb83d251	-0.0040228744
228	0xbce546a5	-0.027987788
229	0xbe194bc2	-0.14970306
230	0xbd9e1a53	-0.07719865
231	0x3da44ae3	0.08022096
232	0xbbed6536	-0.0072447313
233	0x3d6c440b	0.05768208
234	0xbd1aa2ab	-0.03775279
235	0xbe03210e	-0.12805578
236	0x3cbf610f	0.02336171
237	0xbc49f95f	-0.012327521
238	0x3c1b0a11	0.009462849
239	0xbda2e5dd	-0.07953999
240	0xbd5dbc47	-0.054134633
241	0xbc028692	-0.007966654
242	0x3c25f791	0.010129825
243	0x3d0e8aa2	0.03480018
244	0xbd4556bb	-0.048178416
245	0x3d4ee492	0.05051095
246	0xbc9709aa	-0.018437225
247	0x3d9e7e00	0.07738876
248	0x3dd76ec6	0.10519175
249	0xbcb4b268	-0.022057727
250	0xbdc4025e	-0.09570764
251	0xbd239c93	-0.039944243
252	0xbbba551a	-0.0056864144
253	0x3de99cfe	0.11406897
254	0x3cb02154	0.021500267
255	0xbd013711	-0.031546656

net_container.2.bias f4 [128]
0	0x3d9c56d9	0.076337524
1	0xbe194a6f	-0.149698
2	0xbe05198a	-0.12998024
3	0xbc848a16	-0.016179126
4	0xbdd705e3	-0.1049917
5	0x3d0679e4	0.032831088
6	0x3d8466d7	0.06464928
7	0x3db6d275	0.0892686
8	0x3b7e6ebc	0.0038823327
9	0xbe0466c8	-0.12929833
10	0x3debf1dd	0.11520741
11	0xbe889dc4	-0.26682866
12	0x3dbc0af4	0.09181777
13	0xbdb6dc8c	-0.08928785
14	0x3b311278	0.0027019065
15	0x3b880a59	0.004151624
16	0xbd353f34	-0.04424973
17	0xbd14022e	-0.03613489
18	0xbd444ca5	-0.047924656
19	0x3c45c7ff	0.012071609
20	0x3db05eaa	0.08611806
21	0x3b0861a4	0.0020810151
22	0x3d3006dc	0.04297529
23	0x3ca18624	0.019717284
24	0xbd1bd819	-0.038047884
25	0xbb40f585	-0.0029443216
26	0x3d9b36ba	0.07578798
27	0xbe0bfeca	-0.13671413
28	0xbbea2432	-0.007145428
29	0xbe9ac8c5	-0.302313
30	0xbdd089a5	-0.101825036
31	0xbd0afd31	-0.03393287
32	0xbc8da3cd	-0.01729002
33	0xbdccc2f7	-0.09998124
34	0x3d192407	0.037387874
35	0xbdc0ee10	-0.09420407
36	0xbca4af2e	-0.020103063
37	0xbc849c93	-0.016187942
38	0x3d89adc8	0.06722599
39	0xbde4cdc0	-0.11172056
40	0xbe0b1bb2	-0.13584784
41	0xbd5c4ecb	-0.05378608
42	0xbd9f6c2d	-0.07784305
43	0x3ce3584b	0.027752062
44	0x3da818f5	0.08207885
45	0x3dba5b4c	0.09099445
46	0x3ca6dd3a	0.02036916
47	0x3d0e9f76	0.034820043
48	0x3d115293	0.03547914
49	0xbdecbce3	-0.11559465
50	0x3d467e78	0.048460454
51	0xbda5f71c	-0.08103773
52	0xbc1f76ec	-0.009732943
53	0x3d3b104f	0.04566985
54	0xbdcd1c02	-0.10015108
55	0xbd8977fb	-0.067123376
56	0x3dd8fa50	0.10594618
57	0xbd9ecf89	-0.07754428
58	0x3d821528	0.063516915
59	0x3dbac489	0.09119517
60	0xbe494607	-0.1965562
61	0xbdafc284	-0.08582023
62	0xbe0f6b02	-0.14005664
63	0x3d438643	0.047735464
64	0xbcfb907c	-0.030708544
65	0xbdbecdce	-0.09316598
66	0x3d4ef548	0.050526887
67	0xbd6244b9	-0.05524132
68	0xbd92b954	-0.07164255
69	0x3d918728	0.07105857
70	0xbe029576	-0.12752327
71	0xbc87f3ca	-0.01659574
72	0xbd9aac0b	-0.07552346
73	0x3afc5bee	0.0019253471
74	0xbdea621b	-0.114444934
75	0xbb6f641b	-0.0036528173
76	0x3dd8995b	0.10576125
77	0xbda6617f	-0.08124065
78	0xbd4943be	-0.04913687
79	0xbcfd289a	-0.03090315
80	0x3c2adfd1	0.010429339
81	0xbdb9beee	-0.0906962
82	0x3d3ab4d5	0.04558261
83	0xbd520a0a	-0.051279105
84	0xbdd395cc	-0.10331306
85	0xbc59050e	-0.013245834
86	0x3c4d4ea9	0.012530961
87	0x3db01744	0.085981876
88	0x3d9c80da	0.07641764
89	0xbda8d32c	-0.08243403
90	0xbd46c16a	-0.048524298
91	0x3b0a052d	0.0021060214
92	0xbdd351e6	-0.10318355
93	0xbc755e0d	-0.014976037
94	0xbe4c18f6	-0.19931397
95	0x3d370495	0.044682104
96	0xbd9044f0	-0.07044399
97	0x3be54d7d	0.0069977627
98	0xbdd5961f	-0.10429024
99	0x3cb8b8c6	0.022549044
100	0xbe334c68	-0.17509615
101	0xb950b1bb	-0.00019902636
102	0xbd47f826	-0.048820637
103	0xbc63d01f	-0.0139046
104	0xbd97979f	-0.07401966
105	0xbe38b7a3	-0.18038802
106	0xbd368faa	-0.044570602
107	0xbd1221a1	-0.035676602
108	0xbdeac44b	-0.11463221
109	0xbda2ffdc	-0.079589576
110	0x3db0d74e	0.08634816
111	0x3c1c73d9	0.009549105
112	0xbe509d00	-0.20372391
113	0x3d6cee64	0.057844535
114	0x3dab138b	0.08353337
115	0xbcfe3cf5	-0.031034926
116	0x3dd6fba7	0.104972176
117	0xbcf5b67c	-0.029994242
118	0xbdc23aa6	-0.094838426
119	0xbd705c3b	-0.058681708
120	0x3d446199	0.04794464
121	0xbe0e2bc9	-0.1388389
122	0x3df3a779	0.11897177
123	0xbd786de1	-0.060651664
124	0x3de82837	0.113357954
125	0xbcbd85d7	-0.023135109
126	0xbe000839	-0.12503137
127	0xbe105194	-0.1409362

net_container.4.weight f4 [128, 128]
0	0x3c1fe099	0.009758138
1	0x3e04f4d4	0.1298402
2	0xbdb0eb48	-0.08638626
3	0xbd7bcfa7	-0.06147733
4	0x3c561454	0.01306637
5	0xbd019f33	-0.031645965
6	0x3d40021a	0.046877004
7	0x3d94e85d	0.07270882
8	0xbd9ef734	-0.07761994
9	0xbd3c424e	-0.04596167
10	0xbdc3e17c	-0.09564492
11	0xbd94ebeb	-0.0727156
12	0x3d8f06a4	0.069836885
13	0x3b1f4d86	0.0024307682
14	0x3c96300e	0.018333461
15	0xbd8aae13	-0.06771483
16	0xbdaed15c	-0.08536026
17	0xbc83f385	-0.01610733
18	0xbd54efc5	-0.051986475
19	0xbbeb853a	-0.0071875127
20	0xbdcebb63	-0.10094335
21	0xbde7551f	-0.112955324
22	0x3da08c14	0.07839218
23	0xbc58fa12	-0.013243215
24	0xbd7f76d7	-0.062369194
25	0x3d97565d	0.07389519
26	0x3dccd823	0.10002162
27	0x3baa02a4	0.005188303
28	0x3d89505d	0.06704781
29	0x3e02ac40	0.1276102
30	0xbc918521	-0.017763676
31	0x3d82536f	0.0636357
32	0xbd9a3452	-0.075295106
33	0xbd437744	-0.047721162
34	0x3d07f4a6	0.0331923
35	0xbd7d397f	-0.06182241
36	0xba603cde	-0.0008553992
37	0x3c79d249	0.01524789
38	0x3d24e50c	0.0402575
39	0xbc747b10	-0.0149219185
40	0xbcc57afa	-0.024106491
41	0x3cb625bd	0.022234792
42	0x3d3297bc	0.043601736
43	0x3de24d01	0.110498436
44	0xbcfbb019	-0.030723618
45	0xbcb80409	-0.022462862
46	0x3d13eb2a	0.03611294
47	0x3dd04e71	0.101712115
48	0xbc822096	-0.015884679
49	0xbd825c56	-0.06365268
50	0x3d111dff	0.035428997
51	0x3da4cf48	0.08047348
52	0x3d812d29	0.06307442
53	0xbd65ff63	-0.05615176
54	0x3d3362a0	0.043795228
55	0xbd132239	-0.03592131
56	0xbcd16b64	-0.025563903
57	0xbd81d16d	-0.06338773
58	0x3cacc5db	0.021090439
59	0x3d25a7e4	0.040443316
60	0x3dc41991	0.09575189
61	0x3b6e9fc5	0.0036411148
62	0xbbdb77cc	-0.0066976305
63	0xbbe32724	-0.006932156
64	0xbd0fa229	-0.035066757
65	0xbd6e2f18	-0.05815038
66	0xbdae0d0a	-0.08498581
67	0xbe1152d5	-0.14191754
68	0x3e1340da	0.14380208
69	0x3d75928c	0.05995421
70	0xbc88b111	-0.016685994
71	0x3dcc5a9a	0.099782184
72	0x3da0f383	0.07858946
73	0xbddc6bea	-0.107627705
74	0xbb9606cb	-0.0045784465
75	0xbdc6622d	-0.09686694
76	0x3d0f361a	0.034963705
77	0x3d5aca18	0.053415388
78	0x3dacf0dc	0.08444378
79	0xbd2acbc6	-0.04169824
80	0x3d8d3caa	0.068963364
81	0x3d1b3490	0.037891924
82	0xbe0754f7	-0.13216005
83	0xbd5c3b5a	-0.05376754
84	0x3c825a82	0.015912298
85	0x3dd30928	0.10304481
86	0xbd33305c	-0.04374729
87	0x3801a727	3.091167e-05
88	0x3ca7a541	0.020464541
89	0xbb640549	-0.003479319
90	0x3cec18cd	0.02882042
91	0xbdc906bc	-0.098157376
92	0x3dc5b63b	0.09653898
93	0xbbd8af07	-0.0066126618
94	0x3c44451e	0.011979369
95	0xbdfa108e	-0.12210189
96	0xbd2a0b42	-0.041514643
97	0x3dd2b446	0.10288291
98	0xbdd47145	-0.10373167
99	0x3d40ee39	0.047102187
100	0x3e06fbea	0.13182035
101	0xbd3baf0e	-0.045821242
102	0x3d6f0356	0.05835279
103	0xbb663042	-0.0035123979
104	0x3d5e671e	0.05429756
105	0x3dce9166	0.10086326
106	0xbc306492	-0.010766165
107	0xbd351c97	-0.04421672
108	0xbd01e677	-0.03171393
109	0xbe28930c	-0.16462344
110	0xbdd3a39c	-0.103339404
111	0x3db7331c	0.08945295
112	0xbd8408dc	-0.06447002
113	0xbc8c818d	-0.017151618
114	0xbba85a34	-0.005137706
115	0x3c6c398d	0.014418018
116	0xbd6197ac	-0.055076286
117	0x3d91f816	0.07127397
118	0xbd8e04a1	-0.06934477
119	0xbc846b97	-0.016164584
120	0xbd3ffc72	-0.04687161
121	0xbd93604f	-0.07196104
122	0xbc8714ff	-0.016489504
123	0x3db99ac5	0.09062723
124	0xbce6865c	-0.02814024
125	0x3dc7bd0c	0.09752855
126	0x3e09c3e2	0.1345363
127	0x3cb5458c	0.02212789
128	0x3d1c2bc2	0.03812767
129	0xbd6ec87e	-0.058296673
130	0xbdb8ca3c	-0.09022948
131	0x3dd44e54	0.103665024
132	0x3dd4738a	0.103736
133	0xbdd72efa	-0.10507007
134	0x3cb100fa	0.021606911
135	0xbd236ede	-0.039900653
136	0xbd8d8fca	-0.06912191
137	0xbd7bec18	-0.061504453
138	0x3da49f07	0.080381446
139	0xbe312543	-0.1729937
140	0xbc3b2110	-0.011421457
141	0x3daa3405	0.08310703
142	0x3e002585	0.12514313
143	0xbdfdb86e	-0.12388693
144	0xbd26e016	-0.04074105
145	0xbd7dbc53	-0.061947178
146	0xbdc48f80	-0.09597683
147	0xbcfe5e01	-0.031050684
148	0xba54afd3	-0.0008113358
149	0xbdb3e3a4	-0.087836534
150	0x3d214acc	0.039377972
151	0x3c87e2dc	0.016587667
152	0x3d639f41	0.0555718
153	0xbc43d6ac	-0.011953037
154	0xba043ca8	-0.0005044439
155	0xbc6b7d07	-0.014373071
156	0x3d2e500b	0.042556804
157	0xbe6f92a2	-0.2339578
158	0x3d3153ec	0.043292925
159	0x3e2d65cc	0.16933364
160	0xbb43fc1d	-0.002990491
161	0x3e19697c	0.14981645
162	0x3d604561	0.054753665
163	0x3df54613	0.11976256
164	0xbd984f75	-0.0743703
165	0xbc5d9d69	-0.013526299
166	0xbd682592	-0.056676455
167	0xbd445315	-0.047930796
168	0x3d95ac80	0.073082924
169	0xbcdc1b0b	-0.026868364
170	0xbd960014	-0.07324234
171	0x3e5d602e	0.21618721
172	0xbd3ffd5e	-0.04687249
173	0x3ccf80f1	0.025330039
174	0xbd71bbf8	-0.05901715
175	0xbde2b2e9	-0.11069281
176	0xbd6fe239	-0.058565352
177	0xbd5f17ff	-0.054466244
178	0x3aa80466	0.0012818694
179	0x3dcaf1d6	0.09909408
180	0xbdf7fa59	-0.12108297
181	0xbc95d572	-0.018290255
182	0xbe1f7301	-0.15571214
183	0xbd4bfed1	-0.04980356
184	0x3d33a089	0.04385427
185	0x3d0b7ccc	0.034054562
186	0x3e0fd705	0.14046867
187	0xbc9cddf0	-0.019148797
188	0x3d3472d6	0.04405483
189	0x3db910bf	0.09036397
190	0x3d9c0e4e	0.07619916
191	0xbdb0948a	-0.086220816
192	0x3c2a0404	0.010376934
193	0xbe03e971	-0.1288202
194	0x3d619568	0.055074126
195	0xbbc6a329	-0.0060619307
196	0x3d94d232	0.07266654
197	0xbd1c31a3	-0.038133275
198	0x3c7130d8	0.014721118
199	0xbd2bf97a	-0.041985966
200	0x3d33ec4e	0.04392653
201	0xbda33968	-0.07969934
202	0x3db8f667	0.090313725
203	0x3e291aeb	0.16514175
204	0x3b468b58	0.0030295458
205	0x3d1e781d	0.038688768
206	0xbe0abf8b	-0.1354963
207	0x3bb9835c	0.005661411
208	0xbd898884	-0.067154914
209	0xbb96495c	-0.004586382
210	0xbe15b57c	-0.14620012
211	0x3d9b6963	0.0758846
212	0xbc8741ca	-0.016510863
213	0xbd063ed0	-0.032774746
214	0xbe1d9c0b	-0.15391557
215	0xbdf918cc	-0.12162933
216	0x3cae0c43	0.021246081
217	0xbe060e0b	-0.13091294
218	0x3d04eea6	0.032454155
219	0x3c5d0ca0	0.01349178
220	0x3d21a04e	0.03945952
221	0xbddc0281	-0.10742665
222	0x3db9e8cf	0.09077608
223	0x3d6771e1	0.056505088
224	0x3dafa6d9	0.085767455
225	0x3d7be207	0.061494853
226	0x3da7ee6f	0.081997745
227	0x3d155489	0.036457572
228	0x3e4c1455	0.19929631
229	0xbe8a4510	-0.27005816
230	0x3d978589	0.07398517
231	0x3db01589	0.085978575
232	0xbd31e4cd	-0.043431092
233	0x3d8d6ac2	0.06905128
234	0xbdf6fc41	-0.12059832
235	0x3c2a6071	0.01039897
236	0xbb9b0df9	-0.0047318903
237	0xbe0db1bb	-0.1383733
238	0xbdf7799f	-0.12083744
239	0x3d09d404	0.03364946
240	0xbc1710bd	-0.009220299
241	0xbc859ad6	-0.016309183
242	0xbd1bb224	-0.038011685
243	0xbc2865ee	-0.010278208
244	0x3d23a459	0.039951656
245	0xbce69257	-0.028145952
246	0x3df786ff	0.12086295
247	0x3df0ed98	0.117640674
248	0xbd00fde4	-0.03149213
249	0xbd888894	-0.06666675
250	0xbd29598a	-0.041345157
251	0x3da94c5d	0.08266518
252	0xbdadc953	-0.08485665
253	0x3d53cdc6	0.051709913
254	0x3d342ebc	0.043989882
255	0x3de120aa	0.10992558

net_container.4.bias f4 [128]
0	0xbdc252a2	-0.09488417
1	0xbdca703c	-0.09884688
2	0x3e301ead	0.17199202
3	0xbdfdfd31	-0.12401808
4	0xbdb94a2f	-0.090473525
5	0xbd8592c8	-0.06522137
6	0xbe0f96bb	-0.14022343
7	0xbe0ebfd0	-0.13940358
8	0xbddfefd5	-0.10934416
9	0x3c924046	0.017852914
10	0x3d871be2	0.06597115
11	0xbdecaeec	-0.11556801
12	0xbd40a409	-0.047031436
13	0xbddc71cc	-0.107638925
14	0x3d62c632	0.055364795
15	0x3dabb8b9	0.083848424
16	0xbdb459f7	-0.08806222
17	0x3c62b521	0.01383713
18	0x3dbcf2d7	0.092260055
19	0xba80957d	-0.0009810176
20	0xbd8abd7d	-0.06774423
21	0xbd9beb78	-0.076132715
22	0xbddb270c	-0.10700807
23	0x3ba19f91	0.004932352
24	0xbcd199cb	-0.02558603
25	0xbd36a7d9	-0.044593666
26	0x3d978a19	0.07399387
27	0x3d14a1b6	0.036287032
28	0xbda8e709	-0.082471915
29	0x3b845465	0.004038381
30	0xbdb048c8	-0.08607632
31	0x3cf90f01	0.030402662
32	0xbc4a66ff	-0.012353658
33	0x3c81ea37	0.015858753
34	0xbd1b8846	-0.037971757
35	0xbdf35144	-0.118807346
36	0xbd51ebf2	-0.051250406
37	0xbcaa9e57	-0.020827455
38	0x3ac53b50	0.0015047584
39	0x3d2f4886	0.042793773
40	0xbd569634	-0.05238934
41	0xbd847eea	-0.064695194
42	0x3d2b2b3a	0.04178927
43	0xbd902f99	-0.070403285
44	0xbdddbad3	-0.108266495
45	0x3d02f034	0.031967357
46	0xbdc3fecf	-0.09570085
47	0x3daf5ff0	0.085632205
48	0x3d0a8666	0.03381958
49	0x3d3d9da8	0.04629293
50	0x3cf61c93	0.030042922
51	0xbdfef701	-0.12449456
52	0xbd51c79b	-0.05121575
53	0xbda2676c	-0.079298824
54	0xbd15f9ce	-0.036615185
55	0x3c401d5a	0.011725748
56	0x3dced15f	0.10098528
57	0xbdcfd60f	-0.1014825
58	0xbd09fb93	-0.033687185
59	0x3da215a8	0.07914287
60	0xbca26ede	-0.019828256
61	0xbd14cda1	-0.036328916
62	0xbd8388d2	-0.06422581
63	0xbd012eb1	-0.03153867
64	0xbc6b9630	-0.014379069
65	0x3cbe62a3	0.023240393
66	0xbdfdceec	-0.12392983
67	0x3dca590e	0.09880267
68	0xbd5fa1e8	-0.054597765
69	0x3b88e891	0.0041781147
70	0x3d8d1fb2	0.06890811
71	0x3d9db836	0.07701151
72	0xbcdd7fa0	-0.027038395
73	0x3d682584	0.056676403
74	0xbd2d2c02	-0.042278297
75	0x3c77c201	0.015121938
76	0x3caadec3	0.020858174
77	0x3d17d6e7	0.03707018
78	0x3b7e0e68	0.003876591
79	0xbd9fa621	-0.077953584
80	0x3dbf8cd0	0.0935303
81	0xbba4e1c2	-0.0050317952
82	0xbcc0256d	-0.023455346
83	0x3d8c4110	0.06848347
84	0xbd3bb1b2	-0.04582376
85	0xbd7aa221	-0.061189774
86	0xbd1e937f	-0.038714882
87	0xbdb7df02	-0.08978082
88	0x3d286f18	0.041121572
89	0xbd9d41e2	-0.07678582
90	0xbdfe0e62	-0.12405087
91	0xbc6436dd	-0.013929096
92	0x3b87ca01	0.004143954
93	0xbd9e37e5	-0.07725505
94	0x3d84abaa	0.06478055
95	0xbd70ceca	-0.05879096
96	0xbd8b1ed7	-0.067929916
97	0xbdb9118c	-0.0903655
98	0x3caacc24	0.020849295
99	0x3d3fcd9b	0.04682694
100	0xbd9ecaaa	-0.07753499
101	0xbdff7a3d	-0.12474487
102	0xbe2260f2	-0.15857294
103	0x3d54df5a	0.051970817
104	0xbd052f62	-0.03251589
105	0xbd20b4cc	-0.03923492
106	0x3d05d87a	0.03267715
107	0xbcf71a07	-0.030163778
108	0xbde8d195	-0.113680996
109	0xbcd29a03	-0.025708204
110	0xbd1e1a0f	-0.03859907
111	0x3c39753e	0.011319457
112	0xbdab9613	-0.08378234
113	0xbe04f7c6	-0.12985143
114	0x3dcdd543	0.10050442
115	0x3d4eea9b	0.050516706
116	0x3cb64795	0.02225093
117	0x3d8ece78	0.069729745
118	0xbd1667ce	-0.03672009
119	0x3dc4098f	0.09572136
120	0xbd9ed1ef	-0.077548854
121	0x3d1f9d38	0.038968295
122	0x3d7265e2	0.059179194
123	0xbd1fef9c	-0.03904687
124	0xbd2c51d5	-0.04207023
125	0xbd3e15db	-0.04640756
126	0x3a3a8d74	0.0007116415
127	0xbc21b40b	-0.009869586

policy_layer.weight f4 [19, 128]
0	0xbcc62fc2	-0.024192695
1	0x3d572d56	0.05253347
2	0xbcd8b833	-0.02645502
3	0x3bd38d6a	0.006456067
4	0xbd34ec8f	-0.044170912
5	0x3c58c6e0	0.013231009
6	0x3d71285d	0.058876384
7	0xbdad797c	-0.08470437
8	0xbd6b66f9	-0.05747125
9	0x3d72bedc	0.05926405
10	0xbcda1e4d	-0.026625777
11	0x3d1a10af	0.037613567
12	0x3d1de797	0.03855094
13	0x3bfa2196	0.0076333983
14	0x3d00aed1	0.031416718
15	0x3ceefb74	0.029172637
16	0xbc3d8f4e	-0.011569811
17	0xbce91157	-0.028450651
18	0x3d0bb33a	0.03410647
19	0x3c37f384	0.011227492
20	0x3cf73417	0.030176206
21	0x3c1041bb	0.008804734
22	0x3d1d5ec6	0.03842046
23	0xbda1efb7	-0.0790705
24	0xbbaff053	-0.005369225
25	0xbcadfbfb	-0.021238318
26	0xbd3931f1	-0.045213643
27	0x3c601dfa	0.013679022
28	0x3d72fad2	0.059321232
29	0x3d6a9615	0.057272036
30	0xbd09b10f	-0.03361612
31	0x3c6eea1f	0.014582186
32	0xbd88e177	-0.06683629
33	0xbc841072	-0.016121123
34	0x3d0e542f	0.034748252
35	0xbd39e3bf	-0.04538321
36	0x3d2dda72	0.042444654
37	0x3c9f9ca2	0.019483868
38	0xbd3d2003	-0.046173107
39	0xbc67e347	-0.014153308
40	0xbcd2ceb6	-0.025733333
41	0x3ce73355	0.02822272
42	0xbdcc0691	-0.0996219
43	0x3d87fe4f	0.066403024
44	0xbda08a6a	-0.078389004
45	0xbe02b756	-0.1276525
46	0x3d73a5d1	0.059484307
47	0x3c2acb7b	0.01042449
48	0xbc253d2f	-0.010085388
49	0x3b3b9366	0.0028621792
50	0xbd371de3	-0.044706237
51	0xbc63ec25	-0.013911282
52	0x3cb50b94	0.022100247
53	0x3c577514	0.013150472
54	0xbd214856	-0.039375626
55	0x3c535cca	0.012900541
56	0xbb2849fa	-0.002567886
57	0x3dc16077	0.09442227
58	0x3cda40ca	0.026642222
59	0x3c05d0de	0.008167474
60	0x3d5ed5aa	0.054402985
61	0x3d265a0e	0.040613227
62	0x3cad3cdf	0.02114719
63	0xbd8fbeb9	-0.07018799
64	0xbb724957	-0.0036969983
65	0x3a8b63d6	0.0010634612
66	0xbd3e12c2	-0.046404608
67	0x3cb6c5e7	0.022311164
68	0xbcca9bd7	-0.024732513
69	0xba3bbe99	-0.0007161885
70	0xbd93d7a8	-0.072188675
71	0x3d4cc89b	0.049996
72	0x3bba0206	0.0056765107
73	0xbda56336	-0.080755636
74	0x3b102c0d	0.0021998913
75	0x3bf1dc93	0.007381031
76	0x3d27fc85	0.041012306
77	0xbcba37e4	-0.022731729
78	0x3a552948	0.00081314566
79	0x3c0d1651	0.008611278
80	0x3c1c0142	0.009521784
81	0x3ca0ee84	0.019644983
82	0x3cf3909a	0.029732037
83	0xbc283735	-0.010267069
84	0x3db77085	0.08957008
85	0xbd17df6d	-0.03707831
86	0x3d2b358c	0.041799113
87	0x3cb2f7aa	0.021846611
88	0x3b33c724	0.002743193
89	0x3d8ae86c	0.06782612
90	0x3bdaae16	0.0066735847
91	0xbc27863c	-0.010224875
92	0xbc6d60e5	-0.0144884335
93	0x3d0ac6ad	0.03388088
94	0xbd21cb37	-0.03950044
95	0xbba62136	-0.005069877
96	0x3cce2399	0.025163459
97	0x3d4b2b22	0.04960168
98	0xbc459279	-0.012058848
99	0xbb92839d	-0.004471256
100	0xbc1fbb14	-0.009749193
101	0x3b395ac0	0.002828285
102	0xbc78d705	-0.015187983
103	0x3c63f54b	0.013913463
104	0xbd43b89d	-0.047783483
105	0xbc0a44ab	-0.008439223
106	0x3d27aa55	0.040933926
107	0x3bb6ba32	0.0055763954
108	0xbcc23faf	-0.023712007
109	0xbce3785a	-0.027767349
110	0xbc5405f6	-0.012940874
111	0x3d335633	0.043783378
112	0xbcdc4f3c	-0.02689325
113	0x3d243129	0.040085945
114	0xbc4dcc33	-0.012560892
115	0xbbd7169e	-0.0065639755
116	0xbd79f797	-0.061027136
117	0x3d1d6f1d	0.038436044
118	0xbd21fef7	-0.039549794
119	0xbc2bff18	-0.010497831
120	0xbc31ab40	-0.010844052
121	0xbd6d39d8	-0.057916492
122	0x3ca917f7	0.02064131
123	0xbc5269b2	-0.012842583
124	0xbca678c9	-0.020321267
125	0xbcd2be3e	-0.02572548
126	0x3c166a54	0.009180624
127	0xbd0406bf	-0.032232996
128	0xbd2aa46f	-0.041660722
129	0xbc9b0b1c	-0.018926196
130	0x3cd7aecd	0.026328469
131	0xbd6b0359	-0.05737624
132	0xbd49835c	-0.04919754
133	0x3dd5d158	0.1044032
134	0xbcf82975	-0.030293206
135	0xbd5afaba	-0.053461768
136	0xbc026293	-0.007958072
137	0x3c826a51	0.015919836
138	0xbd5ddcc0	-0.0541656
139	0xbd071abe	-0.032984488
140	0xbd80b064	-0.06283644
141	0xbd23393f	-0.039849516
142	0x3d046a56	0.032327972
143	0x3a282f6d	0.00064157584
144	0xbc107659	-0.008817279
145	0xbc25153d	-0.010075864
146	0x3d62a816	0.05533608
147	0xbd168af2	-0.036753602
148	0x3c7acd1a	0.015307689
149	0x3c8bead3	0.017079746
150	0xbc817345	-0.015802035
151	0x3d27c846	0.04096248
152	0xbcf03829	-0.029323654
153	0x3c1f53f4	0.009724606
154	0x3d56b8a7	0.052422192
155	0x3c8fd2a8	0.017556503
156	0x3c52aa97	0.012858055
157	0xbd04d048	-0.032425195
158	0x3cad971b	0.021190217
159	0xbd2a7de5	-0.04162397
160	0xbced5e21	-0.028975548
161	0x3c08edfa	0.008357519
162	0xbc22ff7a	-0.009948606
163	0xbd26e87d	-0.04074906
164	0x3d557977	0.05211779
165	0x3d3ff242	0.046861894
166	0x3dca4c81	0.09877873
167	0x3d440a1a	0.047861196
168	0x3b504f9c	0.0031785732
169	0xbcefab17	-0.029256387
170	0x3c09e677	0.0084167635
171	0xbcbb220b	-0.022843381
172	0x3d33a08e	0.04385429
173	0x3e136acd	0.1439621
174	0xbaf715e5	-0.001885113
175	0x3b34826e	0.0027543562
176	0x38c0e83d	9.198531e-05
177	0x3d061d86	0.032743
178	0xbd71d889	-0.059044395
179	0xbc7a5bed	-0.015280706
180	0x3cacead6	0.021108072
181	0x3c7ea1ce	0.015541507
182	0x3c43f6a0	0.011960655
183	0x3d8ac9fa	0.06776805
184	0xbc0b8fe6	-0.008518195
185	0xbcbf7bf0	-0.023374528
186	0xbd3ae5c7	-0.04562929
187	0x3d9a3bb6	0.0753092
188	0xbda5df5e	-0.080992445
189	0x3c7594bd	0.014989075
190	0xbceece3c	-0.029151075
191	0x3cd2164b	0.025645396
192	0x3d1c5d45	0.038174886
193	0xbc9864a6	-0.01860268
194	0x3ce764f9	0.02824639
195	0x3c9b179f	0.018932162
196	0x3bae6c7f	0.0053229923
197	0x3d37d6fe	0.044882767
198	0xbcecb61f	-0.028895436
199	0xbd1d410e	-0.03839212
200	0xbce98c28	-0.028509215
201	0xbccc9492	-0.024973188
202	0x3c39a729	0.011331358
203	0x3cddb66a	0.02706452
204	0x3b2adca9	0.0026071465
205	0x3baf9e3c	0.005359439
206	0x3b4a1ada	0.0030838759
207	0xbd9a4edd	-0.07534573
208	0xbc012ff3	-0.007884967
209	0x3d6aa8d2	0.057289906
210	0xbba04794	-0.0048913453
211	0x3c5a11a4	0.01330987
212	0xbba918f0	-0.0051604435
213	0x3c637919	0.013883852
214	0xbc9622d9	-0.018327164
215	0x3cc3db18	0.023908183
216	0xbc1b38df	-0.009474008
217	0xbd0c6617	-0.034277048
218	0xbbf38ba4	-0.007432418
219	0xbcf13358	-0.029443428
220	0xbd5617d2	-0.05226881
221	0xbba119fe	-0.0049164286
222	0xbb1e975a	-0.00241991
223	0x3c1a24a1	0.009408147
224	0x3cb22a1c	0.021748595
225	0x3bc457fa	0.005991933
226	0x3c076a10	0.008265033
227	0x3c48d709	0.0122583
228	0x3cd5f92e	0.026119795
229	0x3d613c19	0.054988954
230	0xbaaf8b75	-0.0013393002
231	0xbd1f96bb	-0.038962107
232	0x3c6b60ef	0.0143663725
233	0x3cc467a6	0.023975205
234	0xbbfb36b9	-0.0076664356
235	0x3d6b9752	0.057517357
236	0xbd3b0588	-0.045659572
237	0x3b216d53	0.0024631813
238	0x3c7651bd	0.015034136
239	0xbd63bf45	-0.05560233
240	0x3b8c4e8f	0.004281826
241	0xbcba6f78	-0.02275823
242	0x3cc47911	0.02398351
243	0xbc8f4b99	-0.017492102
244	0x3d7412f4	0.059588388
245	0xbcb527f1	-0.022113772
246	0xbd20bf5e	-0.039245002
247	0xbd48cd70	-0.049024045
248	0x3b962200	0.00458169
249	0x3c9c3fda	0.019073416
250	0xbcb59d3c	-0.022169702
251	0x3d2982f2	0.041384645
252	0x3cfaace1	0.030600013
253	0x3bf57188	0.0074903406
254	0xb8bed73e	-9.099998e-05
255	0x3ca2e61d	0.019885117

policy_layer.bias f4 [19]
0	0xbd30ba5e	-0.043146484
1	0xbc079cd3	-0.008277136
2	0xbd51295a	-0.051064827
3	0x3bc66860	0.006054923
4	0xbc924b46	-0.017858159
5	0xbca27529	-0.019831257
6	0xbd49a878	-0.04923293
7	0x3cc046f1	0.023471327
8	0xbcbeb36e	-0.023278918
9	0x3dbc4822	0.09193446
10	0x3d259327	0.04042354
11	0x3d9193e5	0.07108287
12	0x3d652f42	0.05595327
13	0x3d3f05ac	0.04663627
14	0xbcadcc13	-0.021215474
15	0xbe22d86c	-0.15902871
16	0xbe1156c7	-0.14193259
17	0x3c011107	0.007877595
18	0xbd7f59be	-0.062341444

value_layer.weight f4 [1, 128]
0	0xbe034981	-0.12821008
1	0xbd18a86f	-0.037270006
2	0x3e3f0a8e	0.1865637
3	0xbac8b7da	-0.0015313581
4	0xbdeaab02	-0.114583984
5	0xbbc95e6a	-0.0061452882
6	0xbbd016da	-0.0063503804
7	0xbcf3c346	-0.0297562
8	0xbd05eab0	-0.03269452
9	0x3e15b5bd	0.14620109
10	0xbe0307f9	-0.1279601
11	0xbdb03e23	-0.08605602
12	0xbc53405b	-0.0128937615
13	0x3d7b48ff	0.06134891
14	0x3e0ac533	0.13551788
15	0xbe00e394	-0.12586814
16	0x3c332408	0.0109338835
17	0xbdb9e65c	-0.09077141
18	0x3e0789d7	0.13236175
19	0x3dc4c835	0.09608499
20	0xbdfec279	-0.124394365
21	0x3d559510	0.05214411
22	0x3d509609	0.050924335
23	0x3d959ac5	0.073049106
24	0xbd01ef39	-0.03172228
25	0x3e2c88b6	0.16849026
26	0xbd39d53d	-0.045369375
27	0x3d0f6e1f	0.03501713
28	0xbde133fe	-0.10996245
29	0xbd6906d8	-0.056891292
30	0x3e1e0464	0.15431362
31	0x3d96741e	0.07346366
32	0xbc66d594	-0.014089007
33	0x3e04634d	0.12928505
34	0x3dd0e001	0.10198975
35	0x3d4e7353	0.05040295
36	0xbde72a75	-0.11287395
37	0xbd95c1b8	-0.073123395
38	0xbdac9d5c	-0.084284514
39	0xbe0f1a8f	-0.13974975
40	0xbd490ec8	-0.049086362
41	0x3e1e43b0	0.15455508
42	0xbd0d4b50	-0.03449565
43	0xbe0e75f5	-0.13912185
44	0x3d70f765	0.058829684
45	0xbd677d39	-0.056515906
46	0x3db2760d	0.08713923
47	0x3e2a4272	0.1662691
48	0xbdd14c19	-0.102195926
49	0xbc2d5810	-0.010580078
50	0x3da75f5a	0.08172484
51	0xbdf5dfee	-0.12005602
52	0xbe32b001	-0.17449953
53	0xbe0721db	-0.13196509
54	0xbcc3538a	-0.023843545
55	0xbe1b0896	-0.15139994
56	0x3daf6989	0.08565051
57	0xbe0907ca	-0.13381878
58	0x3df91d6b	0.12163814
59	0x3d220bc2	0.039561994
60	0x3d22a84e	0.03971129
61	0x3dcbf76d	0.09959302
62	0xbddc8cef	-0.107690684
63	0xbd983505	-0.07431988
64	0x3e0a8509	0.13527311
65	0x3df73bb9	0.12071938
66	0x3d53ada8	0.051679283
67	0x3d334c20	0.04377377
68	0xbcfdce00	-0.030982018
69	0x3e2a0f52	0.16607407
70	0xbe1c7c40	-0.15281773
71	0x3e49b06f	0.1969621
72	0xbd4a31b5	-0.04936381
73	0xbd9e1969	-0.0771969
74	0x3e28da0d	0.1648943
75	0xbe30b983	-0.17258267
76	0xb91c3fa2	-0.00014901024
77	0x3b52c93a	0.0032163397
78	0xbe081f71	-0.13293244
79	0xbdce4647	-0.10071998
80	0xbd3811aa	-0.04493872
81	0xbd1a7b09	-0.03771499
82	0x3c564b0a	0.013079414
83	0x3cad03e2	0.021120016
84	0x3c9b9c2c	0.018995367
85	0x3df9a307	0.12189298
86	0xbd715fe0	-0.058929324
87	0xbc4afabb	-0.01238888
88	0x3dae2316	0.08502786
89	0xbe2458fd	-0.16049571
90	0xbd7b15e6	-0.06130018
91	0xbcd9bb09	-0.026578443
92	0x3dfc5b78	0.12322134
93	0xbe158660	-0.14602041
94	0x3e0e04b8	0.13868988
95	0xbddc4fbc	-0.107573956
96	0xbda828d7	-0.082109146
97	0x3deae70f	0.11469852
98	0x3d1a3dea	0.037656702
99	0x3de47618	0.11155337
100	0x3daa4216	0.08313386
101	0xbe17b51b	-0.1481518
102	0xbd9cd691	-0.07658113
103	0x3dc85a0e	0.097828016
104	0xbe51ff88	-0.20507634
105	0xbe1ae593	-0.15126638
106	0xbda742a5	-0.08167008
107	0x3db3d83f	0.0878148
108	0xbd820795	-0.063491024
109	0x3df1112a	0.11770852
110	0xbc9eedf0	-0.019400567
111	0x3dce0532	0.10059585
112	0x3d639f12	0.055571623
113	0x3d917176	0.07101719
114	0x3cceba69	0.025235372
115	0xbe19a667	-0.15004884
116	0xbc85baeb	-0.016324481
117	0x3dc45206	0.09585957
118	0x3d9cfc70	0.07665336
119	0xbd050bba	-0.032481886
120	0x3c2dbc6e	0.010604007
121	0x3d311421	0.043232087
122	0x3dad26be	0.08454655
123	0x3d846ff2	0.064666644
124	0xbda68986	-0.08131699
125	0x3dbb5563	0.091471456
126	0xbd7dcc22	-0.061962254
127	0x3db00aee	0.08595835

log_std_parameter f4 [19]
0	0xc0465b96	-3.09934
1	0xc04816ed	-3.1263993
2	0xc051d4c3	-3.278611
3	0xbfe2b1c2	-1.7710497
4	0xbfd75f1d	-1.6825901
5	0xbf499a39	-0.7875095
6	0xbf2baab3	-0.6705734
7	0xc010e3c7	-2.2639024
8	0xc0122222	-2.2833333
9	0xbf46d9d9	-0.7767616
10	0xbf3b2cd8	-0.731153
11	0xbfbbb22b	-1.4663748
12	0xbfc2fee0	-1.5234032
13	0xbf309660	-0.68979454
14	0xbf1f5a1e	-0.6224688
15	0xbf3a0060	-0.7265682
16	0xbf4603ad	-0.7734936
17	0xbf3f09e6	-0.7462448
18	0xbf2922a9	-0.6606851

net_container.0.weight f4 [128, 69]
0	0xbe9dd9c3	-0.30830202
1	0xbc5993e1	-0.013279886
2	0xbcdfd579	-0.027323471
3	0xbd9dde83	-0.07708456
4	0x3bd0a82d	0.0063677044
5	0x3d0aceda	0.033888675
6	0xbe72ee4b	-0.23723714
7	0xbebe9d22	-0.37229258
8	0x3dfe09c2	0.12404205
9	0xbd873b0d	-0.0660306
10	0xbd7eda87	-0.062220123
11	0x3e2bb522	0.16768315
12	0x3d950ecb	0.07278212
13	0xbe3b7f6a	-0.18310323
14	0x3e136d7f	0.14397238
15	0xbeb8770b	-0.36028323
16	0x3e8894fc	0.26676166
17	0xbe428038	-0.18994224
18	0x3dfdbad6	0.12389152
19	0xbd83ea53	-0.06441178
20	0xbe9fead9	-0.31233862
21	0x3e399349	0.18122591
22	0x3d8c01b9	0.06836266
23	0xbeb21f17	-0.34789345
24	0xbeb777d3	-0.35833606
25	0xbe896105	-0.26831833
26	0xbdfc9823	-0.12333705
27	0x3e140271	0.14454056
28	0x3e9dc102	0.30811316
29	0x3cab5174	0.020912863
30	0x3df8bd4b	0.1214548
31	0xbb992cc3	-0.0046745255
32	0x3c16ba56	0.009199699
33	0xbd0d59a4	-0.034509316
34	0xbe18b56c	-0.14912957
35	0x3ca9c966	0.020725917
36	0x3c13d01d	0.009021786
37	0xbc6e0907	-0.0145285195
38	0xbe0cebae	-0.1376178
39	0x3d86a08f	0.06573593
40	0x3d0ecc81	0.034863
41	0x3c66215d	0.01404604
42	0x3d5a4f5d	0.053298343
43	0x3b9c3797	0.004767369
44	0x3d697f69	0.057006273
45	0xbc8670e3	-0.01641125
46	0xbddbd724	-0.10734394
47	0x3dcd094c	0.10011539
48	0xbd0cf719	-0.03441534
49	0xbd3ec9c6	-0.046579145
50	0xbc7d8c4e	-0.015475346
51	0x3bd9e4e6	0.0066496013
52	0x3e62a359	0.22132625
53	0x3bb272f6	0.0054458333
54	0x3cda221b	0.02662759
55	0x3c6b7739	0.014371687
56	0x3d55a092	0.052155085
57	0xbe12d4ba	-0.14338961
58	0xbde56518	-0.11200923
59	0x3d30c9f9	0.043161366
60	0xbd222f05	-0.039595623
61	0xbe9531d1	-0.2913957
62	0xbd33b1a2	-0.043870576
63	0xbdd63ad8	-0.10460442
64	0xbcaa9a90	-0.020825654
65	0x3d9b13aa	0.0757211
66	0xbd422e2b	-0.04740731
67	0x3d1cd476	0.038288556
68	0x3d7bb1c1	0.061448816
69	0x3920c2f0	0.00015331409
70	0xbc36316c	-0.0111201815
71	0x3e389aa0	0.18027735
72	0xbe240d62	-0.1602073
73	0xbe528a1d	-0.20560499
74	0x3d825789	0.06364352
75	0xbdd10056	-0.10205142
76	0x3e5cbf41	0.21557333
77	0x3cfcb6c5	0.03084887
78	0x3dc86016	0.09783952
79	0xbd28830b	-0.041140597
80	0xbeab569e	-0.3346452
81	0x3db5b86b	0.088730656
82	0x3e895206	0.2682039
83	0x3eff8cb5	0.49912038
84	0x3d434bab	0.047679584
85	0x3e307635	0.17232592
86	0x3ea29d8b	0.3176082
87	0x3ec145d6	0.37748593
88	0x3f079595	0.5296262
89	0xbf0ab430	-0.54181194
90	0x3f0e8785	0.55675536
91	0xbe17a218	-0.14807928
92	0xbb1d5d56	-0.0024011931
93	0x3e4e9180	0.20172691
94	0xbe7eb916	-0.24875292
95	0xbe077554	-0.13228351
96	0x3cd8c2a0	0.026459992
97	0x3e90a00d	0.2824711
98	0x3e2830b8	0.16424835
99	0xbe593c6f	-0.2121446
100	0xba9d9769	-0.0012023273
101	0x3df95bd8	0.12175721
102	0xbdd8aed8	-0.10580224
103	0x3d9942ea	0.07483466
104	0xbd6ea29b	-0.05826054
105	0xbd07bcac	-0.033138916
106	0x3c971104	0.01844073
107	0x3d0692cc	0.03285484
108	0x3d5047e6	0.050849818
109	0x3c8e30b2	0.017357204
110	0x3cfc14cc	0.030771635
111	0xbd299887	-0.041405227
112	0x3d062446	0.032749437
113	0x3ba9871f	0.0051735784
114	0xbd262880	-0.040565968
115	0x3c643a69	0.013929942
116	0x3d19a0f8	0.037507027
117	0x3cb0ef6f	0.021598546
118	0x3d007e8b	0.03137068
119	0xbd9182d5	-0.07105032
120	0xbda7b0ca	-0.08188017
121	0x3da30ff4	0.07962027
122	0x3e0256a1	0.12728359
123	0x3dc9be42	0.09850742
124	0x3c381b8c	0.011237036
125	0xbd95bee6	-0.073118016
126	0xbda4e640	-0.08051729
127	0xbe313b25	-0.17307718
128	0xb9b793fb	-0.00035014734
129	0x3dc7cd8b	0.09756001
130	0x3d2999ca	0.04140643
131	0xbe0bd4c7	-0.13655387
132	0x3d9dd55d	0.077067114
133	0xbe31da32	-0.17368391
134	0xbdfe0918	-0.12404078
135	0xbde44c29	-0.11147339
136	0xbe0adf39	-0.13561715
137	0xbd5b5b99	-0.05355415
138	0xbe038ea0	-0.12847376
139	0x3e432b2e	0.1905944
140	0x3db0c071	0.08630455
141	0xbd9d2c28	-0.07674438
142	0xbd8031ce	-0.062594995
143	0xbd959347	-0.073034815
144	0xbee2e1aa	-0.44312793
145	0x3f12eff4	0.5739739
146	0x3e257af7	0.16160189
147	0x3ec195ee	0.378097
148	0x3d2a0e7d	0.041517723
149	0x3e670635	0.22560962
150	0xbed0e878	-0.4080236
151	0xbef6040c	-0.48049963
152	0xbe5223c7	-0.2052146
153	0xbdad69fd	-0.08467481
154	0xbe906379	-0.28200892
155	0xbe0573a4	-0.13032395
156	0x3e673db2	0.22582129
157	0xbec4cd0f	-0.38437697
158	0x3e9d0122	0.30664927
159	0xbd8f0826	-0.06983976
160	0x3d8ffa38	0.07030147
161	0x3d22078b	0.039557975
162	0x3d336105	0.043793697
163	0xbd6a703d	-0.057235945
164	0x3dee8cde	0.11647962
165	0xbe01d1e4	-0.12677723
166	0xbd173ec4	-0.036925092
167	0x3dea184e	0.11430417
168	0x3e1d5b29	0.15366806
169	0xbbde8fe0	-0.0067920536
170	0xbb5daabb	-0.0033823687
171	0x3b07b28c	0.0020705787
172	0xbc456d73	-0.0120500205
173	0xbc962a6f	-0.01833078
174	0xbce6b356	-0.028161686
175	0xb99db4b0	-0.00030079996
176	0xbd12c1a7	-0.035829213
177	0x3c29b892	0.010358946
178	0xbc6e6cd7	-0.014552317
179	0xbca6eca2	-0.020376507
180	0x3bd05a73	0.0063584386
181	0x3b446345	0.0029966396
182	0xbc31c2ce	-0.010849668
183	0x3cb525b0	0.022112697
184	0xbccd5f74	-0.02506993
185	0x3d51b9d8	0.051202625
186	0xbc53ecbd	-0.012934861
187	0xbcb2ca26	-0.021824908
188	0xbe1fdabc	-0.15610784
189	0xbd1d9eca	-0.03848151
190	0xbdc723bc	-0.09723613
191	0x3d126b2f	0.03574675
192	0x3dac20f7	0.08404725
193	0x3de58db4	0.11208668
194	0x3d3d89b8	0.046273917
195	0xbdfdf3c5	-0.12400011
196	0xbd552b54	-0.052043274
197	0x395fdfac	0.00021350262
198	0x3caa8438	0.020815
199	0xbe4fd453	-0.20295839
200	0x3df143db	0.117805205
201	0x3b98514d	0.0046483637
202	0xbb573459	-0.0032837598
203	0x3e16b937	0.14719091
204	0xbd71ac9b	-0.0590025
205	0x3d6c3b28	0.057673603
206	0x3d35c315	0.044375498
207	0x3edf2287	0.4358103
208	0xbd3ab2b2	-0.045580573
209	0xbe1e19c2	-0.15439513
210	0xbe02b792	-0.12765339
211	0xb8064004	-3.200771e-05
212	0xbdad5c42	-0.084648624
213	0x3f96d489	1.178361
214	0xbe9bfb3a	-0.30465108
215	0xbdf63f08	-0.12023741
216	0x3ecaaff2	0.3958736
217	0x3deee56c	0.116648525
218	0xbd8e2c18	-0.06942004
219	0x3e9818c9	0.2970641
220	0xbcdc2de3	-0.02687735
221	0x3e521e56	0.20519385
222	0x3f17df18	0.5932479
223	0xbedaa7b0	-0.4270606
224	0xbdefcdca	-0.11709173
225	0xbded7ad5	-0.11595694
226	0x3f0fafc7	0.5612759
227	0x3ed174d1	0.40909436
228	0x3e203fea	0.15649381
229	0xbd70b522	-0.05876649
230	0x3e83fc9d	0.25778666
231	0x3eb70834	0.35748446
232	0x3d790b5c	0.06080185
233	0xbdc71cf5	-0.0972232
234	0xbe8c7d58	-0.2743938
235	0xbe8a6989	-0.27033642
236	0x3ccb7029	0.024833756
237	0x3d682655	0.05667718
238	0xbc3e84aa	-0.011628309
239	0xbcb50380	-0.022096395
240	0xbd1e2836	-0.038612567
241	0xbc7ab2be	-0.0153014045
242	0xbcb6a373	-0.022294736
243	0x3d4ddf49	0.05026177
244	0x3d8efb2c	0.06981501
245	0x3b9a89e6	0.004716146
246	0xbc857195	-0.016289512
247	0x3d2a757b	0.041615944
248	0x3d0b2a07	0.033975627
249	0x3c3ed296	0.011646887
250	0x3b1cd00b	0.0023927714
251	0x3d1091c9	0.03529528
252	0x3ce51aa8	0.027966812
253	0x3d7d8286	0.061892055
254	0x3ce3b14b	0.0277945
255	0xba440d78	-0.00074788136
