humanoidprac/humanoidprac/scripts/skrl/logs/skrl/h1_flat/joint_experiment_ver3/2025-09-18_04-21-17_ppo_torch/checkpoints/agent_19200.pt (torch, 549970 bytes, 40 tensors)

log_std_parameter f4 [19]
-3.2012582 -3.1997147 -3.336952 -1.7968107 -1.7154864 -0.818369 -0.6916433 -2.318372
-2.3512397 -0.7798721 -0.75330836 -1.5041801 -1.5703098 -0.7202122 -0.64151776 -0.7626812
-0.78932565 -0.75567544 -0.68372077
00000000: 6ae1 4cc0 20c8 4cc0 9f90 55c0 e5fd e5bf
00000010: 0f95 dbbf a180 51bf 890f 31bf 3560 14c0
00000020: b67a 16c0 b3a5 47bf d1d8 40bf f988 c0bf
00000030: e9ff c8bf d45f 38bf 823a 24bf 133f 43bf
00000040: 3f11 4abf f273 41bf 5308 2fbf

net_container.0.weight f4 [128, 69]
-0.30652645 -0.02174134 -0.039992385 -0.068544984 -0.001999482 0.0149431825 -0.23208413 -0.36579555
0.12407754 -0.06562225 -0.062220123 0.18475787 0.05787229 -0.19522527 0.13660531 -0.36669254
0.2608574 -0.18735841 0.12052523 -0.06284967 -0.31623536 0.17841771 0.0667626 -0.34188136
-0.36097276 -0.2617383 -0.121425845 0.13045995 0.31779978 0.02245426 0.12018666 -0.010642855
0.0099182585 -0.034676164 -0.14527133 0.01192955 0.013182633 -0.0036167803 -0.13962625 0.06811139
0.04232915 0.010004102 0.056697287 0.004209793 0.049622446 -0.019791374 -0.1014345 0.11012283
-0.043939624 -0.039523076 -0.016161256 -0.003557613 0.22438651 -0.0044323746 0.02637814 0.016588265
0.055863053 -0.14644016 -0.108827695 0.049927633 -0.033440374 -0.28727067 -0.043865725 -0.11618333
-0.026393183 0.07103469 -0.05164465 0.03501515 0.05587086 0.0008759296 -0.004066951 0.19005482
-0.15839022 -0.18872765 0.06831352 -0.09778584 0.2201715 0.029434752 0.10231599 -0.041140597
-0.34763286 0.089501396 0.29451326 0.4985278 0.045947134 0.16509429 0.32198018 0.3852915
0.5296204 -0.54366195 0.55250615 -0.14340886 0.0031988828 0.20411947 -0.24155428 -0.13391513
0.034093667 0.28531843 0.16792686 -0.21527337 -0.0056502265 0.11237533 -0.11063246 0.076014414
-0.053793903 -0.036331438 0.018225778 0.03331659 0.05120813 0.014764653 0.029911218 -0.041896887
0.02990569 -0.0011506716 -0.04023591 0.013478704 0.03767255 0.024368785 0.022359569 -0.066702046
-0.069206886 0.07275408 0.12319165 0.104365125 0.009747926 -0.076316334 -0.08135582 -0.17572792
-0.0033388438 0.09768325 0.039435953 -0.1385526 0.07259445 -0.17461836 -0.12069525 -0.10790445
-0.13530222 -0.053248085 -0.12779 0.18814051 0.08702994 -0.07912313 -0.06169633 -0.08524968
-0.44293472 0.57543075 0.16088074 0.38106415 0.041517723 0.24365678 -0.4262442 -0.484682
-0.21346192 -0.09132836 -0.27917254 -0.13490517 0.21733074 -0.38462526 0.30588573 -0.06854131
0.06861504 0.039924674 0.046373513 -0.05685432 0.11732246 -0.14552258 -0.04095937 0.11652837
0.14316484 -0.010763022 -0.0026948897 0.002787664 -0.012113735 -0.019758405 -0.02968864 -0.0021702088
-0.037098132 0.011814427 -0.012697057 -0.014447836 0.00811511 0.00150755 -0.009807867 0.023514673
-0.026431542 0.052414514 -0.01691383 -0.022944193 -0.1542693 -0.04813161 -0.099999346 0.030693471
0.0763751 0.111158304 0.047109686 -0.12067331 -0.05320125 0.00090472796 0.024939245 -0.20459269
0.12077442 0.0031886832 -0.0012545921 0.1425061 -0.059848167 0.05677627 0.04153689 0.434311
-0.044014975 -0.15667634 -0.12777585 0.006593169 -0.08606799 1.1688253 -0.3040452 -0.12059478
0.40090877 0.116648525 -0.07653186 0.31018633 -0.032196283 0.212955 0.59533614 -0.4286903
-0.11896723 -0.11150061 0.5624091 0.4118687 0.1562495 -0.05521981 0.25542262 0.3591446
0.0555269 -0.09936136 -0.26190996 -0.27491343 0.040032763 0.051592592 -0.0070506446 -0.026336215
-0.037916362 -0.016764298 -0.016475063 0.04994998 0.066390224 0.00465555 -0.014665384 0.036689084
0.035054415 0.011033239 0.0027907593 0.028795945 0.029836236 0.059154097 0.02757238 -0.00282264
00000000: 09f1 9cbe e51a b2bc 0ecf 23bd 5061 8cbd
00000010: be09 03bb 40d4 743c 76a7 6dbe 8e49 bbbe
00000020: 5e1c fe3d f564 86bd 87da 7ebd 2b31 3d3e
00000030: 7f0b 6d3d 22e9 47be 43e2 0b3e 20bf bbbe
00000040: 1a8f 853e e2da 3fbe efd5 f63d 54b7 80bd
00000050: 9ae9 a1be 22b3 363e d4ba 883d 130b afbe
00000060: 6cd1 b8be 9002 86be 1dae f8bd 4b97 053e
00000070: a7b6 a23e fff1 b73c 6c24 f63d 5f5f 2ebc
00000080: 3180 223c 9808 0ebd 02c2 14be 2974 433c
00000090: f8fb 573c 8107 6dbb 2ffa 0ebe fc7d 8b3d
000000a0: 5561 2d3d 3fe8 233c 6a3b 683d 4ef2 893b
000000b0: e840 4b3d 8521 a2bc e4bc cfbd 1488 e13d
000000c0: 09fa 33bd f3e2 21bd 9c64 84bc d726 69bb
000000d0: 94c5 653e 743d 91bb f816 d83c 1de4 873c
000000e0: a8d0 643d 69f4 15be 0ee1 debd eb80 4c3d
000000f0: c6f8 08bd 2415 93be 8cac 33bd 87f1 edbd
00000100: 8436 d8bc a37a 913d 5789 53bd 0c6c 0f3d
00000110: d8d8 643d a49e 653a 0f44 85bb bb9d 423e
00000120: 0c31 22be d241 41be f5e7 8b3d f143 c8bd
00000130: a374 613e 2621 f13c 0c8b d13d 0b83 28bd
00000140: effc b1be 824c b73d 71ca 963e 093f ff3e
00000150: 1033 3c3d 7a0e 293e 96da a43e ed44 c53e
00000160: 3495 073f 6e2d 0bbf 0b71 0d3f c6d9 12be
00000170: 59a4 513b b204 513e 015a 77be 0c21 09be
00000180: cda5 0b3d 4215 923e 05f5 2b3e 9f70 5cbe
00000190: 8925 b9bb 0925 e63d 4593 e2bd 72ad 9b3d
000001a0: ff56 5cbd 46d0 14bd 3a4e 953c fa76 083d
000001b0: 9ebf 513d 71e7 713c 5f08 f53c 129c 2bbd
000001c0: c7fc f43c 22d2 96ba 69ce 24bd c8d5 5c3c
000001d0: 884e 1a3d 0ca1 c73c 6a2b b73c 159b 88bd
000001e0: 57bc 8dbd 1700 953d e74b fc3d 62bd d53d
000001f0: c4b5 1f3c bd4b 9cbd e19d a6bd 05f2 33be
00000200: 81d0 5abb 280e c83d 9887 213d bce0 0dbe
00000210: 66ac 943d 28cf 32be 122f f7bd 02fd dcbd
00000220: aa8c 0abe aa1a 5abd 62db 02be e8a7 403e
00000230: c13c b23d 4f0b a2bd 4ab5 7cbd 6297 aebd
00000240: 57c8 e2be 6e4f 133f ecbd 243e d71a c33e
00000250: 7d0e 2a3d 2a81 793e ae3c dabe 3d28 f8be
00000260: c395 5abe 5d0a bbbd b4ef 8ebe 9524 0abe
00000270: f38b 5e3e 9aed c4be 0e9d 9c3e 635f 8cbd
00000280: 0b86 8c3d 0e88 233d 27f2 3d3d 13e0 68bd
00000290: c246 f03d df03 15be 03c5 27bd 6da6 ee3d
000002a0: ce99 123e 6357 30bc bf9c 30bb 3eb1 363b
000002b0: b078 46bc 61dc a1bc 9735 f3bc 103a 0ebb
000002c0: 36f4 17bd 4c91 413c 5107 50bc 9eb6 6cbc
000002d0: 3df5 043c fc98 c53a 2db1 20bc d8a1 c03c
000002e0: f686 d8bc 9ab0 563d df8e 8abc 76f5 bbbc
000002f0: c5f8 1dbe a725 45bd 75cc ccbd e070 fb3c
00000300: 8c6a 9c3d f7a6 e33d 16f6 403d 9123 f7bd
00000310: 8ee9 59bd 442b 6d3a 634d cc3c bf80 51be
00000320: 9458 f73d 3af9 503b 2071 a4ba 1eed 113e
00000330: 5a23 75bd 3c8e 683d 9622 2a3d 035e de3e
00000340: 0c49 34bd c36f 20be acd7 02be 830b d83b
00000350: 6a44 b0bd 119c 953f d0ab 9bbe 65fa f6bd
00000360: ea43 cd3e 6ce5 ee3d bcbc 9cbd bed0 9e3e
00000370: 40e0 03bd e010 5a3e f367 183f 4c7d dbbe
00000380: 17a5 f3bd 6f5a e4bd 0bfa 0f3f 74e0 d23e
00000390: deff 1f3e 2b2e 62bd c1c6 823e cde1 b73e
000003a0: 2d70 633d f87d cbbd 1019 86be 74c1 8cbe
000003b0: 65f9 233d c152 533d 1809 e7bb 0cbf d7bc
000003c0: 304e 1bbd 4855 89bc b6f6 86bc 5a98 4c3d
000003d0: 99f7 873d 958d 983b 1447 70bc 4b47 163d
000003e0: 3895 0f3d c2c4 343c 2ce5 363b 79e5 eb3c
000003f0: 1f6b f43c 914b 723d 79df e13c 0afc 38bb

net_container.0.bias f4 [128]
0.0808918 -0.052669123 -0.018417496 0.029603899 0.08724165 0.02473833 0.12587814 0.13468522
0.07296293 0.09817999 -0.018646918 -0.0043787216 0.053272948 0.04867296 0.22455177 -0.15249003
0.09778168 -0.07664385 0.12161718 0.04054997 0.11468494 0.038785607 -0.021436041 0.12302408
0.074765176 0.08099418 -0.05352657 -0.07924643 -0.057494786 0.03739344 -0.083612725 0.04243655
0.24040742 0.11290683 0.09300737 -0.104448356 0.06831239 0.030143777 0.08742416 -0.0064240918
-0.052070636 0.17625338 -0.08283743 0.020079136 0.16126692 -0.111886166 0.046573848 0.041544065
0.20589359 0.0750994 -0.021974042 0.026352908 -0.06943891 -0.03462475 -0.0025151817 0.03891953
0.17723046 0.066371225 0.12630863 0.15643066 -0.05560245 0.06891837 0.14435308 0.05842711
0.061260674 0.18650506 0.0242547 0.063417524 0.0611833 0.16754094 0.10845698 -0.13138877
0.15838468 0.1057489 0.03652747 0.06483341 0.15410325 -0.046663515 0.20050547 0.052630253
0.02154628 0.016466312 0.1748764 0.039569516 0.064147465 0.12527354 0.12228432 0.16911426
-0.041855965 0.2330216 0.027516302 -0.04507771 0.06496927 -0.01588945 0.052401155 -0.116662875
0.08621846 0.0058470415 -0.087685004 0.03316889 0.11087769 -0.036794852 -0.036344007 0.045124117
0.007740485 0.10690401 0.03768422 -0.050959274 0.040095173 -0.14170739 -0.042895038 0.061300535
-0.027123354 -0.10008563 0.12647049 0.13850729 -0.11706555 0.106287114 0.03920235 -0.040691484
0.007388133 -0.055553015 0.10974965 -0.039756685 0.056110162 -0.065700725 -0.07670502 0.15138794
00000000: 9aaa a53d 94bb 57bd 4ae0 96bc e083 f23c
00000010: c0ab b23d 0aa8 ca3c 33e6 003e ecea 093e
00000020: 976d 953d 9712 c93d 6cc1 98bc 617b 8fbb
00000030: bc34 5a3d 4c5d 473d e6f0 653e 5926 1cbe
00000040: c341 c83d 73f7 9cbd 6e12 f93d ba17 263d
00000050: f0df ea3d a8dd 1e3d a39a afbc 0df4 fb3d
00000060: 7c1e 993d 47e0 a53d ad3e 5bbd f44b a2bd
00000070: a77f 6bbd dd29 193d 263d abbd f3d1 2d3d
00000080: 5d2d 763e b23b e73d a67a be3d 05e9 d5bd
00000090: 5ee7 8b3d 15f0 f63c 700b b33d 3081 d2bb
000000a0: 0548 55bd c47b 343e aca6 a9bd 007d a43c
000000b0: 2823 253e 9324 e5bd 38c4 3e3d 1c2a 2a3d
000000c0: c5d5 523e b7cd 993d e802 b4bc 0ee2 d73c
000000d0: fd35 8ebd afd2 0dbd bfd5 24bb 166a 1f3d
000000e0: e77b 353e a3ed 873d 0d57 013e 5c2f 203e
000000f0: 65bf 63bd 1325 8d3d 4bd1 133e 4451 6f3d
00000100: 79ec 7a3d 2ffb 3e3e cbb1 c63c 0ce1 813d
00000110: 579b 7a3d da8f 2b3e b11e de3d c78a 06be
00000120: 982f 223e e192 d83d d49d 153d 61c7 843d
00000130: 3ecd 1d3e 3e22 3fbd 4e51 4d3e d292 573d
00000140: d381 b03c 5ce4 863c cd12 333e a513 223d
00000150: bf5f 833d b547 003e 3470 fa3d 4a2c 2d3e
00000160: 2971 2bbd 379d 6e3e de69 e13c 68a3 38bd
00000170: 9c0e 853d 982a 82bc 98a2 563d f2ec eebd
00000180: 4e93 b03d 8a98 bf3b 3294 b3bd 1adc 073d
00000190: d813 e33d 33b6 16bd 74dd 14bd 11d4 383d
000001a0: e5a3 fd3b 7df0 da3d c55a 1a3d acba 50bd
000001b0: d63a 243d be1b 11be b5b2 2fbd 4516 7b3d
000001c0: cc31 debc b2f9 ccbd 7b81 013e dbd4 0d3e
000001d0: 10c0 efbd 0fad d93d a592 203d 1dac 26bd
000001e0: 2718 f23b 8f8b 63bd 6dc4 e03d e8d7 22bd
000001f0: c5d3 653d 1a8e 86bd 8617 9dbd 7105 1b3e

net_container.2.weight f4 [128, 128]
0.0018233698 -0.13228971 0.06101887 -0.043218344 0.009935044 0.01080557 0.088864245 -0.07298564
0.00018192737 0.021138549 -0.057166595 -0.20256008 0.08945992 -0.080429554 0.12745152 0.010185081
-0.044535898 0.0574318 -0.05943262 0.12613814 -0.020156853 0.10272342 -0.03774828 -0.09878444
-0.13965136 -0.0036802632 -0.061251294 0.07842897 0.0371368 0.012533191 0.0005619008 0.044311613
-0.038879953 -0.18743157 -0.104934014 0.1004467 -0.0015289384 0.06402706 0.09032593 0.0113443
-0.0013455105 0.07973098 -0.10780381 -0.10862351 -0.0058428436 0.10445355 -0.086450666 0.0803675
0.03541133 0.0833857 -0.023743752 0.047112025 -0.08487955 0.026351301 0.0049152435 0.00033122257
-0.12693094 -0.079753906 0.11062632 0.06227461 0.04288476 -0.0046474775 0.039866783 0.0038036604
-0.0059133107 -0.07189777 -0.03336574 -0.055995792 -0.027354615 0.0018899223 0.05207966 0.00565357
0.031575263 -0.076437004 -0.17961831 0.1376759 -0.016743192 -0.05809237 -0.017199336 -0.031229526
0.058268815 0.06572614 0.03412853 0.055430062 -0.14317632 0.069633774 -0.18785402 -0.15555204
0.09791878 -0.008024106 -0.061049968 -0.020905674 -0.049072545 0.044255126 -0.09821206 -0.117715254
-0.0016292004 0.0020648043 0.06439279 0.015329655 0.035767265 0.00805275 -0.049162272 -0.039474055
0.07483913 0.0014214776 0.066002645 -0.07594564 0.15290184 0.022032877 -0.008096715 -0.05654477
-0.002690996 -0.015020552 -0.033502053 -0.13527928 -0.019194817 -0.104146846 0.04529629 0.10412469
-0.012702134 -0.01989106 -0.14054286 0.03490264 0.053736497 0.07457526 0.0010321238 -0.122247666
0.041070893 0.07858953 -0.24724026 -0.07388317 0.053897686 -0.030016098 0.077979326 0.09132603
-0.05103713 -0.110779695 -0.08971153 0.067937225 -0.25006703 0.078814305 0.030110585 0.021054149
0.046265706 0.013036009 0.13738321 -0.068097554 -0.07237124 -0.01102675 0.058117997 -0.08556619
0.014946422 -0.01754175 -0.022412544 0.064770594 -0.052780062 0.027005507 0.040422935 -0.057154696
-0.007332812 0.03198901 -0.07763641 0.016593251 0.065461166 -0.015025615 -0.109013066 -0.08861172
0.03917436 -0.07051129 -0.047697417 0.07950818 -0.04598691 -0.034006536 0.03741289 0.018793404
-0.103415154 -0.04978275 -0.021897782 -0.16046652 0.042311992 0.03662096 0.05044362 -0.058445178
-0.10742929 -0.08026037 -0.04461671 0.097504295 -0.23003933 -0.10569842 -0.07607642 0.04556856
-0.17111321 -0.12134903 -0.02724787 -0.124147385 -0.04424271 0.008972453 0.11284203 -0.0738192
-0.03191885 0.055957858 -0.19408824 -0.03375525 0.014405526 -0.022903886 0.05990001 -0.059974242
-0.0022870717 -0.08742127 0.0020493574 -0.07412934 -0.21248472 0.029573193 0.060019676 -0.059159458
-0.019919902 -0.03224072 -0.08973393 -0.034497064 0.001497784 0.08903769 -0.0357391 -0.13585669
-0.02786519 -0.025267003 0.048359863 -0.010977384 -0.020069925 -0.15120316 -0.07673339 0.08101412
-0.007833134 0.050631635 -0.039829113 -0.13049252 0.01846042 -0.0069093574 0.010050218 -0.07897899
-0.047754105 -0.010355164 0.006801893 0.03705585 -0.044987928 0.052794136 -0.02015614 0.07380814
0.10964542 -0.018486759 -0.097675934 -0.03502678 -0.0073458385 0.11626264 0.011467158 -0.035625868
00000000: 23fe ee3a f476 07be ecee 793d b805 31bd
00000010: 98c6 223c d809 313c 75fe b53d 7f79 95bd
00000020: c2c3 3e39 c02a ad3c 8527 6abd e96b 4fbe
00000030: c336 b73d 40b8 a4bd a782 023e 53df 263c
00000040: 466b 36bd 9b3d 6b3d 9e6f 73bd 5b2a 013e
00000050: fc1f a5bc a860 d23d f19d 1abd 7f4f cabd
00000060: c400 0fbe 9230 71bb a3e2 7abd 5e9f a03d
00000070: c21c 183d 0358 4d3c 864c 133a 1880 353d
00000080: 9640 1fbd 10ee 3fbe a5e7 d6bd 00b7 cd3d
00000090: a966 c8ba 9f20 833d cdfc b83d 71dd 393c
000000a0: d75b b0ba ff49 a33d 3ec8 dcbd 0176 debd
000000b0: 5375 bfbb beeb d53d 0c0d b1bd b797 a43d
000000c0: 790b 113d 1fc6 aa3d 4282 c2bc 8af8 403d
000000d0: 54d5 adbd afde d73c 0d10 a13b f1a7 ad39
000000e0: 2ffa 01be 0456 a3bd 0d90 e23d a913 7f3d
000000f0: eea7 2f3d de49 98bb 5a4b 233d d546 793b
00000100: 72c4 c1bb 233f 93bd 84aa 08bd d85b 65bd
00000110: c916 e0bc 45b7 f73a 7b51 553d 9541 b93b
00000120: 1055 013d 018b 9cbd dded 37be e9fa 0c3e
00000130: 0529 89bc 44f2 6dbd 9fe5 8cbc 10d5 ffbc
00000140: 48ab 6e3d 6d9b 863d 5cca 0b3d a20a 633d
00000150: d09c 12be 279c 8e3d ce5c 40be 0949 1fbe
00000160: a489 c83d 8a77 03bc 880f 7abd 6042 abbc
00000170: 4b00 49bd dd44 353d 6823 c9bd b214 f1bd
00000180: e58a d5ba ab51 073b 5ee0 833d 3c29 7b3c
00000190: b280 123d aeef 033c 615e 49bd 8caf 21bd
000001a0: 4245 993d e050 ba3a 652c 873d 6389 9bbd
000001b0: 4d92 1c3e 4b7e b43c 16a8 04bc 7d9b 67bd
000001c0: 6c5b 30bb c318 76bc 7339 09bd a786 0abe
000001d0: 733e 9dbc f14a d5bd 9a88 393d 533f d53d
000001e0: 9d1c 50bc 94f2 a2bc 78ea 0fbe 12f6 0e3d
000001f0: cd1a 5c3d eaba 983d 5448 873a fc5c fabd
00000200: f439 283d 8cf3 a03d 8d2c 7dbe 0f50 97bd
00000210: d2c3 5c3d 52e4 f5bc a0b3 9f3d 2409 bb3d
00000220: 4f0c 51bd 77e0 e2bd aeba b7bd ac22 8b3d
00000230: c908 80be 6569 a13d 79aa f63c c079 ac3c
00000240: 1c81 3d3d fc94 553c 2fae 0c3e bb76 8bbd
00000250: 5f37 94bd 8ba9 34bc 230d 6e3d 543d afbd
00000260: d6e1 743c b7b3 8fbc 839a b7bc 72a6 843d
00000270: e82f 58bd a73a dd3c 8592 253d 0b1b 6abd
00000280: 1648 f0bb e806 033d d7ff 9ebd 92ee 873c
00000290: 8110 863d ff2d 76bc 3e42 dfbd 107a b5bd
000002a0: 4b75 203d 3968 90bd 5e5e 43bd 2fd5 a23d
000002b0: c55c 3cbd 704a 0bbd 423e 193d a0f4 993c
000002c0: 53cb d3bd ffe8 4bbd fa62 b3bc 5651 24be
000002d0: 574f 2d3d dcff 153d f89d 4e3d 3664 6fbd
000002e0: e303 dcbd 8d5f a4bd 03c0 36bd 55b0 c73d
000002f0: 6e8f 6bbe 6a78 d8bd f4cd 9bbd 19a6 3a3d
00000300: 4d38 2fbe d785 f8bd ed36 dfbc fc40 febd
00000310: d837 35bd 3201 133c b919 e73d 852e 97bd
00000320: 57bd 02bd 1134 653d 11bf 46be f242 0abd
00000330: 2805 6c3c eea0 bbbc b659 753d 8da7 75bd
00000340: b2e2 15bb ec09 b3bd 834e 063b 20d1 97bd
00000350: 9895 59be 7b43 f23c 31d7 753d 3051 72bd
00000360: 102f a3bc d80e 04bd 6cc6 b7bd cb4c 0dbd
00000370: 4b51 c43a 6459 b63d 2a63 12bd 041e 0bbe
00000380: 8a45 e4bc bffc cebc fe14 463d 7cda 33bc
00000390: af69 a4bc 00d5 1abe 6526 9dbd bbea a53d
000003a0: 8c56 00bc 1e63 4f3d da23 23bd d59f 05be
000003b0: 4f3a 973c e467 e2bb aba9 243c bdbf a1bd
000003c0: cf99 43bd b5a8 29bc 6ae2 de3b e0c7 173d
000003d0: 4345 38bd aa3e 583d 7d1e a5bc b928 973d
000003e0: c78d e03d 8b71 97bc 520a c8bd 3e78 0fbd
000003f0: 5cb5 f0bb 1b1b ee3d bfe0 3b3c 6eec 11bd

net_container.2.bias f4 [128]
0.07624221 -0.14925183 -0.13095692 -0.016010597 -0.10506194 0.030766927 0.06465871 0.08767627
0.0029953804 -0.12860006 0.11579526 -0.27185264 0.09279725 -0.0907678 0.0027987754 0.0032276239
-0.04557294 -0.0373046 -0.04840838 0.011210853 0.08718255 0.0005580707 0.042598277 0.0188522
-0.037363663 -0.0032101593 0.077817276 -0.13543884 -0.00881292 -0.307569 -0.10230243 -0.03506381
-0.014968283 -0.10010296 0.038471792 -0.09532483 -0.021418152 -0.015876023 0.066416375 -0.112685986
-0.13507147 -0.054729752 -0.07757116 0.029909631 0.08076469 0.0938264 0.022265216 0.033530872
0.034293346 -0.11565506 0.047144234 -0.082603365 -0.009641949 0.04454737 -0.09762665 -0.06857298
0.10645259 -0.08099511 0.060332444 0.0912003 -0.1974535 -0.084720045 -0.13654976 0.047228098
-0.029808966 -0.09451763 0.050788015 -0.05566623 -0.07044507 0.068664216 -0.12591633 -0.017268457
-0.07520147 0.0011262611 -0.113520935 -0.0041251774 0.10732094 -0.08003683 -0.05195994 -0.032078553
0.009408721 -0.09007074 0.04608137 -0.053792816 -0.103143334 -0.010920519 0.012624842 0.08521307
0.076822035 -0.08168585 -0.049938332 0.003604097 -0.10396905 -0.0145947365 -0.19375432 0.050362844
-0.07116312 0.005467016 -0.10527927 0.021512419 -0.17382427 0.0004260753 -0.04976508 -0.015074755
-0.075462 -0.17911814 -0.044052847 -0.032719202 -0.115093455 -0.0790083 0.08646704 0.014963602
-0.20539111 0.056208726 0.08299742 -0.03260601 0.10248973 -0.0307793 -0.095324956 -0.059501916
0.04714829 -0.1387955 0.11868954 -0.06125668 0.111145444 -0.02197002 -0.12604526 -0.1398411
00000000: e024 9c3d 79d5 18be 9219 06be a828 83bc
00000010: b72a d7bd ec0a fc3c c96b 843d 9e8f b33d
00000020: 254e 443b bcaf 03be 1126 ed3d 4530 8bbe
00000030: 7c0c be3d 78e4 b9bd a96b 373b 8b86 533b
00000040: b1aa 3abd b5cc 18bd de47 46bd baad 373c
00000050: c48c b23d 7e4b 123a 887b 2e3d ee6f 9a3c
00000060: a40a 19bd 8961 52bb aa5e 9f3d 7bb0 0abe
00000070: 1164 10bc af79 9dbe f083 d1bd 129f 0fbd
00000080: 873d 75bc c802 cdbd 9994 1d3d aa39 c3bd
00000090: 1f75 afbc 6f0e 82bc 4f05 883d e9c7 e6bd
000000a0: 2d50 0abe 4e2c 60bd a1dd 9ebd 0b05 f53c
000000b0: f567 a53d 0e28 c03d 8b65 b63c ab57 093d
000000c0: 2e77 0c3d 8fdc ecbd 501a 413d f42b a9bd
000000d0: 44f9 1dbc 4e77 363d 7bf0 c7bd fe6f 8cbd
000000e0: d103 da3d c4e0 a5bd 271f 773d 39c7 ba3d
000000f0: 4031 4abe b481 adbd b3d3 0bbe 4072 413d
00000100: ef31 f4bc 7692 c1bd 1807 503d 4602 64bd
00000110: 8145 90bd d39f 8c3d 36f0 00be 9476 8dbc
00000120: 3a03 9abd 0d9f 933a aa7d e8bd 7f2c 87bb
00000130: 15cb db3d 59ea a3bd f2d3 54bd cd64 03bd
00000140: 0927 1a3c 0277 b8bd d2bf 3c3d db55 5cbd
00000150: d03c d3bd faeb 32bc 6dd8 4e3c 3184 ae3d
00000160: df54 9d3d e94a a7bd 238c 4cbd b732 6c3b
00000170: baed d4bd c31e 6fbc 8867 46be 4549 4e3d
00000180: f8bd 91bd a724 b33b a89c d7bd d03a b03c
00000190: fdfe 31be dc62 df39 78d6 4bbd 1bfc 76bc
000001a0: d28b 9abd bf6a 37be c270 34bd 9204 06bd
000001b0: 1eb6 ebbd 1bcf a1bd a215 b13d e529 753c
000001c0: 0c52 52be 1f3b 663d 8dfa a93d e18d 05bd
000001d0: 23e6 d13d df24 fcbc bb39 c3bd 48b8 73bd
000001e0: 911e 413d 6820 0ebe 8013 f33d 49e8 7abd
000001f0: 39a0 e33d 79fa b3bc 0212 01be 8132 0fbe

net_container.4.weight f4 [128, 128]
0.016531894 0.12934391 -0.08212735 -0.056994155 0.014309448 -0.030059818 0.04410352 0.07877369
-0.080149546 -0.04657813 -0.092789665 -0.07488976 0.073900245 0.004221327 0.01697859 -0.06498467
-0.08511018 -0.016750986 -0.051952753 -0.010577976 -0.10418398 -0.12107922 0.0738559 -0.013426469
-0.0649137 0.0773434 0.10431806 0.008449607 0.063354865 0.12655456 -0.011245637 0.067101836
-0.07744175 -0.045676947 0.034384288 -0.062331725 -0.005797533 0.010009521 0.039379336 -0.017468955
-0.022413187 0.019287726 0.04376396 0.11422623 -0.033388734 -0.02671364 0.032383967 0.10539237
-0.017082086 -0.07038279 0.035807293 0.079001926 0.06230469 -0.0639409 0.046308044 -0.03520416
-0.021258438 -0.067586415 0.02003064 0.040469006 0.0959174 0.0029850479 -0.0072822864 -0.009282099
-0.035389986 -0.0609402 -0.08632663 -0.13971469 0.14977954 0.06388992 -0.017719688 0.09878925
0.07508353 -0.107773446 -0.006809113 -0.09372644 0.035701595 0.052651092 0.08698459 -0.04042767
0.07088076 0.037526663 -0.13079236 -0.054544162 0.01964476 0.1060558 -0.041215934 0.0026688352
0.017928146 -0.005821034 0.033744037 -0.10089902 0.09513176 -0.005577981 0.010021301 -0.13117398
-0.042382892 0.099492505 -0.09898047 0.050814204 0.13288759 -0.05545847 0.0579018 -0.0045290766
0.053332914 0.10036623 -0.005649659 -0.044571776 -0.030148141 -0.16474456 -0.113673516 0.08585266
-0.07352161 -0.017444147 -0.003997833 0.015971394 -0.04992269 0.07250496 -0.066517144 -0.013804651
-0.048354372 -0.07043817 -0.018040126 0.092338085 -0.028454587 0.09974135 0.13025819 0.024701362
0.039702136 -0.057008933 -0.09656652 0.1008699 0.10335272 -0.10458726 0.021535935 -0.044040583
-0.070086844 -0.058627717 0.08493683 -0.17292511 -0.008084678 0.07909921 0.11839949 -0.12497805
-0.038380075 -0.062533684 -0.10151579 -0.026848719 -0.0012048265 -0.08625629 0.032440122 0.0154900225
0.057298344 -0.011314314 -0.00012054099 -0.012455297 0.04856238 -0.23414497 0.04891245 0.1747177
-0.0058593163 0.15131581 0.06321097 0.11932092 -0.075952515 -0.012926304 -0.055354223 -0.0472223
0.07591692 -0.024295693 -0.07631247 0.2181955 -0.050550837 0.02278619 -0.06129069 -0.108260736
-0.058681324 -0.054598894 0.0033890507 0.09949266 -0.12787192 -0.019952208 -0.1535464 -0.04921102
0.040061772 0.028635921 0.1412089 -0.022006923 0.045394734 0.09002233 0.07755264 -0.08393483
0.004093591 -0.12704794 0.055800024 -0.008870115 0.074433304 -0.04320933 0.015524413 -0.03559133
0.044323176 -0.08135962 0.09377857 0.16960561 0.0027935593 0.040053185 -0.1329614 0.002369806
-0.06264797 -0.0070540244 -0.14389317 0.07205945 -0.013871007 -0.033874907 -0.14993764 -0.12101849
0.021725269 -0.13094407 0.03147 0.0133948065 0.035284337 -0.103766404 0.09087014 0.04544287
0.08637157 0.061680797 0.08359813 0.036340937 0.19913264 -0.2698597 0.073589794 0.08940461
-0.04155195 0.073069036 -0.11770588 0.011098922 -0.005439508 -0.13285387 -0.12626138 0.024865795
-0.012248351 -0.013404767 -0.037070516 -0.01032238 0.039596215 -0.026528478 0.1259484 0.1088905
-0.032344036 -0.06874643 -0.037028316 0.08427264 -0.08061189 0.051770832 0.044857502 0.11651367
00000000: e56d 873c bb72 043e 6232 a8bd b472 69bd
00000010: 2d72 6a3c 0240 f6bc e5a5 343d 1a54 a13d
00000020: 7225 a4bd b6c8 3ebd 8208 bebd cd5f 99bd
00000030: 0359 973d 0f53 8a3b af16 8b3c af16 85bd
00000040: 3f4e aebd 5d39 89bc 69cc 54bd 3f4f 2dbc
00000050: 695e d5bd 62f8 f7bd c341 973d b1fa 5bbc
00000060: 79f1 84bd 3766 9e3d b5a4 d53d 3870 0a3c
00000070: 32c0 813d 8597 013e 9f3f 38bc b06c 893d
00000080: c899 9ebd c017 3bbd 8ad6 0c3d 8d4f 7fbd
00000090: 3bf9 bdbb f9fe 233c 3a4c 213d 0e1b 8fbc
000000a0: dc9b b7bc 4b01 9e3c d741 333d 71ef e93d
000000b0: a0c2 08bd 90d6 dabc 0da5 043d f4d7 d73d
000000c0: bbef 8bbc da24 90bd abaa 123d c3cb a13d
000000d0: 3433 7f3d 72f3 82bd 81ad 3d3d 3d32 10bd
000000e0: 2d26 aebc bf6a 8abd 4c17 a43c d4c2 253d
000000f0: 5870 c43d cba0 433b 3fa0 eebb f213 18bc
00000100: 17f5 10bd 6e9c 79bd 04cc b0bd 5e11 0fbe
00000110: cf5f 193e b8d8 823d e128 91bc 0552 ca3d
00000120: 65c5 993d 53b8 dcbd fb1e dfbb a6f3 bfbd
00000130: d63b 123d aca8 573d fa24 b23d 7c97 25bd
00000140: ef29 913d 8fb5 193d 6fee 05be b369 5fbd
00000150: 0cee a03c c933 d93d 0ad2 28bd a0e7 2e3b
00000160: 0cde 923c 5fbe bebb 3037 0a3d 25a4 cebd
00000170: 71d4 c23d 7fc7 b6bb 6230 243c 7952 06be
00000180: af99 2dbd bac2 cb3d 46b6 cabd 8e22 503d
00000190: af13 083e 6c28 63bd 702a 6d3d a668 94bb
000001a0: 9d73 5a3d cf8c cd3d c620 b9bb e590 36bd
000001b0: 3cf9 f6bc ccb2 28be a9cd e8bd 85d3 af3d
000001c0: 7f92 96bd 07e7 8ebc 4100 83bb 71d6 823c
000001d0: bc7b 4cbd 7b7d 943d 243a 88bd e72c 62bc
000001e0: 3c0f 46bd e341 90bd e3c8 93bc c01b bd3d
000001f0: 9819 e9bc 3145 cc3d 6762 053e 835a ca3c
00000200: b59e 223d 3382 69bd abc4 c5bd e194 ce3d
00000210: 97aa d33d d831 d6bd 216c b03c e663 34bd
00000220: b189 8fbd 9e23 70bd 5cf3 ad3d 4813 31be
00000230: 9975 04bc c4fe a13d 6f7b f23d 7ef4 ffbd
00000240: 6d34 1dbd a911 80bd 83e7 cfbd d8f1 dbbc
00000250: 45eb 9dba 23a7 b0bd efdf 043d ddc9 7d3c
00000260: abb1 6a3d ac5f 39bc f4ca fcb8 4d11 4cbc
00000270: 59e9 463d b3c3 6fbe 6c58 483d 32e9 323e
00000280: 82ff bfbb 88f2 1a3e c174 813d 875e f43d
00000290: fe8c 9bbd d9c8 53bc 1cbb 62bd 2c6c 41bd
000002a0: 557a 9b3d c307 c7bc b649 9cbd a46e 5f3e
000002b0: 650e 4fbd 1baa ba3c f20b 7bbd ceb7 ddbd
000002c0: d45b 70bd 17a3 5fbd d61a 5e3b cfc2 cb3d
000002d0: dbf0 02be d072 a3bc 443b 1dbe 7f91 49bd
000002e0: d017 243d e195 ea3c 1199 103e dd47 b4bc
000002f0: d4ef 393d a15d b83d ebd3 9e3d 06e6 abbd
00000300: 8823 863b db18 02be 918e 643d f553 11bc
00000310: 7d70 983d 44fc 30bd 1c5a 7e3c 37c8 11bd
00000320: 388c 353d df9f a6bd fb0e c03d 18ad 2d3e
00000330: 2614 373b cf0e 243d 0927 08be bf4e 1b3b
00000340: 944d 80bd 7225 e7bb bb58 13be e893 933d
00000350: 3843 63bc 6ac0 0abd 4189 19be 8bd8 f7bd
00000360: 31f9 b13c 3416 06be b0e6 003d e475 5b3c
00000370: 4f86 103d 7b83 d4bd 201a ba3d 4e22 3a3d
00000380: 94e3 b03d 01a5 7c3d 7f35 ab3d 3cda 143d
00000390: 6de9 4b3e 0d2b 8abe 3fb6 963d c419 b73d
000003a0: 6132 2abd 38a5 953d c80f f1bd 41d8 353c
000003b0: e63d b2bb d80a 08be aa4a 01be 5ab3 cb3c
000003c0: 4fad 48bc ab9f 5bbc 41d7 17bd 331f 29bc
000003d0: a42f 223d 4052 d9bc 9ef8 003e fc01 df3d
000003e0: 2e7b 04bd eeca 8cbd 01ab 17bd 2297 ac3d
000003f0: d917 a5bd a70d 543d 80bc 373d b89e ee3d

net_container.4.bias f4 [128]
-0.09401863 -0.09883764 0.17034006 -0.12682638 -0.09056309 -0.063705266 -0.1393166 -0.13893144
-0.109859936 0.016660385 0.06469891 -0.11401768 -0.04843363 -0.10902576 0.055579986 0.082026616
-0.08940405 0.011840206 0.092462905 -0.003254504 -0.06604146 -0.07474029 -0.108271666 0.006561306
-0.0252222 -0.04718252 0.074804015 0.035177074 -0.081005774 0.0037843916 -0.085925944 0.030884996
-0.013541418 0.014038611 -0.038712464 -0.11825733 -0.05343021 -0.021146063 0.0018941542 0.04298601
-0.05194302 -0.06537911 0.041763484 -0.06859132 -0.11089915 0.032088347 -0.09703165 0.08457984
0.035065137 0.045811515 0.030796424 -0.12507588 -0.050766457 -0.07819478 -0.036701564 0.011031368
0.09865635 -0.10041984 -0.035250798 0.07800424 -0.020272061 -0.037229687 -0.062353086 -0.030549265
-0.013890292 0.023185635 -0.1251216 0.0972355 -0.056100573 0.004157106 0.069368094 0.076465145
-0.030828804 0.05605268 -0.042345177 0.014728638 0.019808615 0.037136614 0.0056554303 -0.07894311
0.09488438 -0.005475016 -0.024175705 0.07183222 -0.043768957 -0.06167829 -0.040133126 -0.09106083
0.038059603 -0.077459246 -0.124617815 -0.013589233 0.0022881348 -0.07742031 0.0643534 -0.058775123
-0.06879638 -0.091516405 0.019729882 0.04586432 -0.07575025 -0.12295252 -0.15754366 0.050981756
-0.032902714 -0.040097103 0.03309004 -0.02936296 -0.113342814 -0.026032774 -0.038474545 0.0117146475
-0.0864368 -0.13031138 0.09905985 0.051666554 0.022233106 0.06933372 -0.032722678 0.09552264
-0.07968966 0.03944465 0.05797582 -0.039457366 -0.042753868 -0.04493842 0.001568565 -0.009669253
00000000: d78c c0bd 636b cabd a06d 2e3e c6de 01be
00000010: 2479 b9bd e877 82bd 03a9 0ebe 0b44 0ebe
00000020: 3ffe e0bd 5c7b 883c dd80 843d 1a82 e9bd
00000030: 5862 46bd e648 dfbd d7a7 633d 92fd a73d
00000040: 7819 b7bd 6cfd 413c 315d bd3d 8449 55bb
00000050: bf40 87bd 7011 99bd 89bd ddbd 3900 d73b
00000060: ca9e cebc 7542 41bd d932 993d d615 103d
00000070: 5be6 a5bd 8e03 783b f1f9 afbd 8802 fd3c
00000080: d3dc 5dbc 3402 663c f690 1ebd e630 f2bd
00000090: a3d9 5abd 823a adbc 4545 f83a 1912 303d
000000a0: 34c2 54bd 7ce5 85bd 3010 2b3d 9b79 8cbd
000000b0: 181f e3bd 126f 033d 88b8 c6bd 3238 ad3d
000000c0: 76a0 0f3d dba4 3b3d c848 fc3c e413 00be
000000d0: 7df0 4fbd 9624 a0bd 6154 16bd e9bc 343c
000000e0: 570c ca3d eba8 cdbd 2463 10bd b0c0 9f3d
000000f0: 9811 a6bc 287e 18bd f365 7fbd 7442 fabc
00000100: 1b94 63bc cdef bd3c e01f 00be 6823 c73d
00000110: b7c9 65bd 5538 883b dc10 8e3d c299 9c3d
00000120: b08c fcbc 7f97 653d 2372 2dbd 6350 713c
00000130: ad45 a23c 901c 183d 3051 b93b edac a1bd
00000140: be52 c23d c367 b3bb 210c c6bc c51c 933d
00000150: 1447 33bd 60a2 7cbd a262 24bd 1a7e babd
00000160: 63e4 1b3d f4a2 9ebd a037 ffbd 60a5 5ebc
00000170: 88f4 153b 8a8e 9ebd b7cb 833d 2fbe 70bd
00000180: 1ee5 8cbd f46c bbbd 90a0 a13c 3adc 3b3d
00000190: f222 9bbd 88ce fbbd 2053 21be 3fd2 503d
000001a0: ffc4 06bd dc3c 24bd 6c89 073d 978a f0bc
000001b0: 4720 e8bd af42 d5bc 7c97 1dbd cbee 3f3c
000001c0: c705 b1bd 5970 05be e4df ca3d 4fa0 533d
000001d0: 3422 b63c d6fe 8d3d 3708 06bd 60a1 c33d
000001e0: 5534 a3bd b790 213d 0e78 6d3d 0c9e 21bd
000001f0: ae1e 2fbd 5911 38bd 4f98 cd3a c96b 1ebc

policy_layer.weight f4 [19, 128]
-0.024037873 0.04984752 -0.026271228 0.008138002 -0.043832194 0.014478155 0.05908456 -0.086763665
-0.058171283 0.06072431 -0.026064236 0.038478892 0.03819483 0.007869128 0.030142713 0.03054037
-0.006963486 -0.02737994 0.033467434 0.011814744 0.030077465 0.007578813 0.03686039 -0.07977716
-0.005274704 -0.020219048 -0.046570808 0.0104723815 0.05814254 0.058614217 -0.035606146 0.014415504
-0.06755853 -0.016222369 0.0355354 -0.046315152 0.043694973 0.019055352 -0.04991067 -0.013499286
-0.025020331 0.02843505 -0.09751546 0.0654418 -0.077910304 -0.12942913 0.06023889 0.010310676
-0.00915958 0.002339508 -0.043710086 -0.014379367 0.022479003 0.013514446 -0.037791178 0.012768014
-0.0032748578 0.09389495 0.026880298 0.009493617 0.05525921 0.04079477 0.021419637 -0.070168346
-0.004806205 0.000825171 -0.048628654 0.021662347 -0.023404159 -0.0018305928 -0.07178714 0.049723417
0.006173193 -0.07758886 0.0012408532 0.0075500445 0.03644631 -0.021730581 0.0014934147 0.009342571
0.0056735366 0.01970388 0.029988265 -0.010177294 0.08978183 -0.036688432 0.039780114 0.020052493
0.0038727745 0.06810502 0.0064038406 -0.010706668 -0.014353037 0.03235046 -0.03879215 -0.00389928
0.021992771 0.05303126 -0.012303688 -0.004495373 -0.011034128 0.0047583864 -0.017178474 0.014141074
-0.048532918 -0.007881452 0.04101166 0.007367854 -0.025073515 -0.026447987 -0.011401184 0.045612812
-0.029382085 0.04190909 -0.013850216 -0.0063352236 -0.06352672 0.038378544 -0.04094437 -0.010723523
-0.011332292 -0.058161013 0.018926641 -0.014393472 -0.019682826 -0.02651141 0.008401134 -0.031707287
-0.040251855 -0.019984659 0.026354697 -0.055671543 -0.048139732 0.10342646 -0.03073441 -0.054147355
-0.009676824 0.015713587 -0.05221194 -0.032743778 -0.06277387 -0.039016437 0.031866115 -0.0018324709
-0.010566346 -0.009765758 0.05563834 -0.032694273 0.014013279 0.017559571 -0.015391323 0.041513447
-0.028666744 0.012058117 0.052930027 0.009650594 0.010529007 -0.031138955 0.021940522 -0.042507987
-0.028249852 0.007417841 -0.008075919 -0.043074813 0.050348118 0.04656921 0.09837768 0.04742705
0.0031876415 -0.024575274 0.008662693 -0.022263922 0.043647807 0.14344686 -0.0015662045 0.006052733
0.0002053336 0.032743633 -0.059275463 -0.014602684 0.019375276 0.014514666 0.011873619 0.06760154
-0.004983283 -0.024434658 -0.044965096 0.07522194 -0.081610054 0.013753549 -0.027877828 0.025332972
0.03684815 -0.016939765 0.027244858 0.020128654 0.0056528524 0.045092013 -0.02889251 -0.037918832
-0.027201451 -0.02382355 0.01215306 0.027488627 0.0009741111 0.003876815 0.0028061797 -0.074792944
-0.004488277 0.055789348 -0.00597571 0.013076523 -0.004470925 0.014053327 -0.018933248 0.023543406
-0.0117242 -0.034802847 -0.008880431 -0.029700276 -0.05148283 -0.0075943423 -0.0015604192 0.009084969
0.021633806 0.008202852 0.0055838553 0.01047039 0.02583344 0.054654423 -0.0012599961 -0.03845387
0.013572676 0.022745501 -0.0064775627 0.059219625 -0.045171123 0.0033254337 0.017362487 -0.0530459
0.0059301057 -0.02103143 0.022115111 -0.017727882 0.055792138 -0.020873291 -0.038678598 -0.049232516
0.0024212298 0.018557832 -0.020913448 0.041391153 0.029412007 0.00425618 -0.003064647 0.02008345
00000000: 13eb c4bc ea2c 4c3d c236 d7bc 4155 053c
00000010: 6389 33bd c935 6d3c a702 723d 26b1 b1bd
00000020: 0345 6ebd 0eba 783d aa84 d5bc 0b9c 1d3d
00000030: 2f72 1c3d 84ed 003c daed f63c cc2f fa3c
00000040: f42d e4bb e54b e0bc 2615 093d a192 413c
00000050: 0465 f63c b157 f83b ecfa 163d 3562 a3bd
00000060: 6dd7 acbb 6ba2 a5bc 08c1 3ebd 5a94 2b3c
00000070: df26 6e3d 7615 703d c0d7 11bd 022f 6c3c
00000080: 205c 8abd c6e4 84bc 918d 113d f5b4 3dbd
00000090: 80f9 323d f819 9c3c 216f 4cbd 1c2c 5dbc
000000a0: 70f7 ccbc 9ff0 e83c 2fb6 c7bd 5a06 863d
000000b0: 708f 9fbd 1289 04be 0ebd 763d 1cee 283c
000000c0: 1012 16bc 6e52 193b 5909 33bd 7097 6bbc
000000d0: e325 b83c b26b 5d3c ecca 1abd ef30 513c
000000e0: ff9e 56bb ff4b c03d 1234 dc3c 1e8b 1b3c
000000f0: 7b57 623d 6b18 273d 3c78 af3c 6cb4 8fbd
00000100: 5f7d 9dbb 4a50 583a d72e 47bd 3c75 b13c
00000110: 14ba bfbc 80f0 efba 2305 93bd c8aa 4b3d
00000120: 7f48 ca3b e9e6 9ebd 20a4 a23a 5d66 f73b
00000130: ba48 153d 5504 b2bc afbe c33a 9511 193c
00000140: 13e9 b93b 086a a13c f3a9 f53c aabe 26bc
00000150: 89df b73d 9c46 16bd 79f0 223d 2045 a43c
00000160: 60ce 7d3b a57a 8b3d 4fd7 d13b 056b 2fbc
00000170: 0029 6bbc ea81 043d 84e4 1ebd 108b 7fbb
00000180: 2f2a b43c 4e37 593d 6895 49bc ec4d 93bb
00000190: 7dc8 34bc 3dec 9b3b dfb9 8cbc f7af 673c
000001a0: 74ca 46bd 3521 01bc d8fb 273d 0a6e f13b
000001b0: f966 cdbc 73a9 d8bc 08cc 3abc 80d4 3a3d
000001c0: b3b2 f0bc dea8 2b3d 04ec 62bc b597 cfbb
000001d0: 4c1a 82bd d232 1d3d 49b5 27bd b7b1 2fbc
000001e0: 14ab 39bc 3e3a 6ebd 0b0c 9b3c 99d2 6bbc
000001f0: e13d a1bc 752e d9bc e9a4 093c 80df 01bd
00000200: 21df 24bd deb6 a3bc cee5 d73c d807 64bd
00000210: 2b2e 45bd 40d1 d33d bbc6 fbbc 9ec9 5dbd
00000220: 8b8b 1ebc c8b9 803c 30dc 55bd 571e 06bd
00000230: 968f 80bd b3cf 1fbd 0b86 023d 852f f0ba
00000240: 781e 2dbc 8f00 20bc 07e5 633d 6eea 05bd
00000250: f497 653c 17d9 8f3c e32b 7cbc 010a 2a3d
00000260: 85d6 eabc 698f 453c 28cd 583d 861d 1e3c
00000270: db81 2c3c 1f17 ffbc 9cbc b33c db1c 2ebd
00000280: 3c6c e7bc 5c11 f33b dc50 04bc 376f 30bd
00000290: d439 4e3d 5bbf 3e3d 3d7a c93d de42 423d
000002a0: c0e7 503b 1652 c9bc f8ed 0d3c d462 b6bc
000002b0: 0bc8 323d bce3 123e 1a49 cdba 0156 c63b
000002c0: d24e 5739 301e 063d d4ca 72bd 1940 6fbc
000002d0: e6b8 9e3c ecce 6d3c 9189 423c ad72 8a3d
000002e0: cf4a a3bb 312b c8bc 522d 38bd f60d 9a3d
000002f0: 2c23 a7bd 9156 613c 0b60 e4bc 1887 cf3c
00000300: 16ee 163d 43c5 8abc 9c30 df3c d9e4 a43c
00000310: 903b b93b 67b2 383d fcaf ecbc c750 1bbd
00000320: 94d5 debc 9b29 c3bc a11d 473c d42f e13c
00000330: 7d5b 7f3a 2a12 7e3b e2e7 373b 0b2d 99bd
00000340: 6512 93bb 5f83 643d e4cf c3bb ea3e 563c
00000350: d680 92bb ed3f 663c e619 9bbc 1ade c03c
00000360: dc16 40bc 6e8d 0ebd 3a7f 11bc fe4d f3bc
00000370: a9df 52bd f6d9 f8bb fb86 ccba 1fd9 143c
00000380: 6139 b13c 4165 063c c6f8 b63b 008c 2b3c
00000390: a6a0 d33c 51dd 5f3d 7426 a5ba ce81 1dbd
000003a0: ee5f 5e3c c654 ba3c bc41 d4bb 4790 723d
000003b0: 5b05 39bd 85ef 593b c63b 8e3c a846 59bd
000003c0: 5551 c23b 1b4a acbc c02a b53c 103a 91bc
000003d0: 4c86 643d 77fe aabc 736d 1ebd 09a8 49bd
000003e0: 7fad 1e3b 9806 983c ae52 abbc c589 293d
000003f0: 73f1 f03c 6d77 8b3b 3fd8 48bb 0c86 a43c

policy_layer.bias f4 [19]
-0.043323968 -0.007957687 -0.050318588 0.0040110596 -0.02151692 -0.01973026 -0.044540588 0.023748158
-0.024958238 0.09112781 0.042242482 0.07021857 0.057669636 0.050604105 -0.021865217 -0.15662836
-0.13961834 0.0072338097 -0.06357976
00000000: 7974 31bd f560 02bc dd1a 4ebd 356f 833b
00000010: 4044 b0bc 5ba1 a1bc 3170 36bd 7f8b c23c
00000020: 3875 ccbc 38a1 ba3d 7406 2d3d c1ce 8f3d
00000030: ff36 6c3d 4046 4f3d af1e b3bc 2f63 20be
00000040: 1cf8 0ebe 9809 ed3b 1b36 82bd

value_layer.weight f4 [1, 128]
-0.1438179 -0.045599822 0.1846431 -0.004183566 -0.11781996 -0.009753648 -0.011720119 -0.027952379
-0.03136872 0.14455578 -0.12747277 -0.079875 -0.012602905 0.055288352 0.13353842 -0.12899373
0.0064931135 -0.088572875 0.13146779 0.09736899 -0.119272225 0.049167294 0.042599685 0.06583173
-0.03139001 0.17018627 -0.04759686 0.028381832 -0.11088914 -0.056024205 0.15130934 0.07389161
-0.0033907872 0.1265288 0.10542448 0.061685286 -0.110369824 -0.07661472 -0.08042079 -0.13932347
-0.04976962 0.16295055 -0.03468485 -0.13993944 0.06355972 -0.050346944 0.089443356 0.1672025
-0.097671725 -0.0047437013 0.07775242 -0.1275833 -0.18110368 -0.12820491 -0.027056854 -0.14853808
0.0898623 -0.13000889 0.11934078 0.038316898 0.046398096 0.100935675 -0.10982175 -0.07120476
0.13448177 0.11960328 0.046813045 0.0432875 -0.027063059 0.16743615 -0.15402336 0.1962824
-0.04601207 -0.07810758 0.15892169 -0.17510141 -0.008719446 0.005310308 -0.13256384 -0.09990503
-0.029572386 -0.03310272 0.019593418 0.026190722 0.009300565 0.11957036 -0.070925385 -0.007785328
0.10741242 -0.16129196 -0.054220393 -0.030130573 0.12186398 -0.14547089 0.13445891 -0.10569367
-0.099625334 0.117037006 0.038012918 0.11214821 0.081212044 -0.14917284 -0.07636852 0.09498676
-0.2168536 -0.15239838 -0.08030668 0.09053465 -0.06375984 0.1200118 -0.01738079 0.10525861
0.05942894 0.0732512 0.021314552 -0.14815134 -0.021751624 0.08712243 0.07931875 -0.03070166
0.010960797 0.036741227 0.081485614 0.06524316 -0.08017257 0.09044504 -0.063910566 0.08252807
00000000: 0045 13be e1c6 3abd 1513 3d3e 4c16 89bb
00000010: 974b f1bd c4cd 1fbc be05 40bc 63fc e4bc
00000020: 7d7c 00bd 6e06 143e 3988 02be 8195 a3bd
00000030: 6a7c 4ebc 0a76 623d 4cbe 083e ef16 04be
00000040: 2fc4 d43b b265 b5bd 7e9f 063e 6569 c73d
00000050: ff44 f4bd a563 493d 027d 2e3d c9d2 863d
00000060: d092 00bd 4f45 2e3e edf4 42bd 0481 e83c
00000070: d819 e3bd a379 65bd d6f0 1a3e 7c54 973d
00000080: f837 5ebb c490 013e cae8 d73d b6a9 7c3d
00000090: 9309 e2bd 2ee8 9cbd a8b3 a4bd d0aa 0ebe
000000a0: 3bdb 4bbd 82dc 263e b411 0ebd 494c 0fbe
000000b0: 992b 823d 9938 4ebd 142e b73d 2237 2b3e
000000c0: 1d08 c8bd 0d71 9bbb a93c 9f3d 32a5 02be
000000d0: 3e73 39be 2648 03be 56a6 ddbc 5e1a 18be
000000e0: ba09 b83d 0d21 05be f068 f43d 2ef2 1c3d
000000f0: ee0b 3e3d 5db7 ce3d 3aea e0bd cdd3 91bd
00000100: 97b5 093e 91f2 f43d 09bf 3f3d 3c4e 313d
00000110: 59b3 ddbc 6274 2b3e 4db8 1dbe 41fe 483e
00000120: 2777 3cbd def6 9fbd 5ebc 223e c94d 33be
00000130: 02dc 0ebc 1802 ae3b d1be 07be 029b ccbd
00000140: ca41 f2bc b896 07bd 6082 a03c ed8d d63c
00000150: 6661 183c 4ee1 f43d 5441 91bd 111c ffbb
00000160: 0bfb db3d b829 25be 3416 5ebd 64d4 f6bc
00000170: d393 f93d 52f6 14be 99af 093e ec75 d8bd
00000180: 5e08 ccbd 19b1 ef3d 6fb3 1b3d f6ad e53d
00000190: 8052 a63d c4c0 18be 1967 9cbd 6b88 c23d
000001a0: df0e 5ebe 520e 1cbe d477 a4bd 3b6a b93d
000001b0: 8594 82bd bfc8 f53d 2962 8ebc d391 d73d
000001c0: c36b 733d ba04 963d db9b ae3c fcb4 17be
000001d0: 7630 b2bc 3f6d b23d de71 a23d 0c82 fbbc
000001e0: ea94 333c f87d 163d eee1 a63d 359e 853d
000001f0: 8431 a4bd 403b b93d 8be3 82bd 7a04 a93d

log_std_parameter f4 [19]
-3.2012582 -3.1997147 -3.336952 -1.7968107 -1.7154864 -0.818369 -0.6916433 -2.318372
-2.3512397 -0.7798721 -0.75330836 -1.5041801 -1.5703098 -0.7202122 -0.64151776 -0.7626812
-0.78932565 -0.75567544 -0.68372077
00000000: 6ae1 4cc0 20c8 4cc0 9f90 55c0 e5fd e5bf
00000010: 0f95 dbbf a180 51bf 890f 31bf 3560 14c0
00000020: b67a 16c0 b3a5 47bf d1d8 40bf f988 c0bf
00000030: e9ff c8bf d45f 38bf 823a 24bf 133f 43bf
00000040: 3f11 4abf f273 41bf 5308 2fbf

net_container.0.weight f4 [128, 69]
-0.30652645 -0.02174134 -0.039992385 -0.068544984 -0.001999482 0.0149431825 -0.23208413 -0.36579555
0.12407754 -0.06562225 -0.062220123 0.18475787 0.05787229 -0.19522527 0.13660531 -0.36669254
0.2608574 -0.18735841 0.12052523 -0.06284967 -0.31623536 0.17841771 0.0667626 -0.34188136
-0.36097276 -0.2617383 -0.121425845 0.13045995 0.31779978 0.02245426 0.12018666 -0.010642855
0.0099182585 -0.034676164 -0.14527133 0.01192955 0.013182633 -0.0036167803 -0.13962625 0.06811139
0.04232915 0.010004102 0.056697287 0.004209793 0.049622446 -0.019791374 -0.1014345 0.11012283
-0.043939624 -0.039523076 -0.016161256 -0.003557613 0.22438651 -0.0044323746 0.02637814 0.016588265
0.055863053 -0.14644016 -0.108827695 0.049927633 -0.033440374 -0.28727067 -0.043865725 -0.11618333
-0.026393183 0.07103469 -0.05164465 0.03501515 0.05587086 0.0008759296 -0.004066951 0.19005482
-0.15839022 -0.18872765 0.06831352 -0.09778584 0.2201715 0.029434752 0.10231599 -0.041140597
-0.34763286 0.089501396 0.29451326 0.4985278 0.045947134 0.16509429 0.32198018 0.3852915
0.5296204 -0.54366195 0.55250615 -0.14340886 0.0031988828 0.20411947 -0.24155428 -0.13391513
0.034093667 0.28531843 0.16792686 -0.21527337 -0.0056502265 0.11237533 -0.11063246 0.076014414
-0.053793903 -0.036331438 0.018225778 0.03331659 0.05120813 0.014764653 0.029911218 -0.041896887
0.02990569 -0.0011506716 -0.04023591 0.013478704 0.03767255 0.024368785 0.022359569 -0.066702046
-0.069206886 0.07275408 0.12319165 0.104365125 0.009747926 -0.076316334 -0.08135582 -0.17572792
-0.0033388438 0.09768325 0.039435953 -0.1385526 0.07259445 -0.17461836 -0.12069525 -0.10790445
-0.13530222 -0.053248085 -0.12779 0.18814051 0.08702994 -0.07912313 -0.06169633 -0.08524968
-0.44293472 0.57543075 0.16088074 0.38106415 0.041517723 0.24365678 -0.4262442 -0.484682
-0.21346192 -0.09132836 -0.27917254 -0.13490517 0.21733074 -0.38462526 0.30588573 -0.06854131
0.06861504 0.039924674 0.046373513 -0.05685432 0.11732246 -0.14552258 -0.04095937 0.11652837
0.14316484 -0.010763022 -0.0026948897 0.002787664 -0.012113735 -0.019758405 -0.02968864 -0.0021702088
-0.037098132 0.011814427 -0.012697057 -0.014447836 0.00811511 0.00150755 -0.009807867 0.023514673
-0.026431542 0.052414514 -0.01691383 -0.022944193 -0.1542693 -0.04813161 -0.099999346 0.030693471
0.0763751 0.111158304 0.047109686 -0.12067331 -0.05320125 0.00090472796 0.024939245 -0.20459269
0.12077442 0.0031886832 -0.0012545921 0.1425061 -0.059848167 0.05677627 0.04153689 0.434311
-0.044014975 -0.15667634 -0.12777585 0.006593169 -0.08606799 1.1688253 -0.3040452 -0.12059478
0.40090877 0.116648525 -0.07653186 0.31018633 -0.032196283 0.212955 0.59533614 -0.4286903
-0.11896723 -0.11150061 0.5624091 0.4118687 0.1562495 -0.05521981 0.25542262 0.3591446
0.0555269 -0.09936136 -0.26190996 -0.27491343 0.040032763 0.051592592 -0.0070506446 -0.026336215
-0.037916362 -0.016764298 -0.016475063 0.04994998 0.066390224 0.00465555 -0.014665384 0.036689084
0.035054415 0.011033239 0.0027907593 0.028795945 0.029836236 0.059154097 0.02757238 -0.00282264
00000000: 09f1 9cbe e51a b2bc 0ecf 23bd 5061 8cbd
00000010: be09 03bb 40d4 743c 76a7 6dbe 8e49 bbbe
00000020: 5e1c fe3d f564 86bd 87da 7ebd 2b31 3d3e
00000030: 7f0b 6d3d 22e9 47be 43e2 0b3e 20bf bbbe
00000040: 1a8f 853e e2da 3fbe efd5 f63d 54b7 80bd
00000050: 9ae9 a1be 22b3 363e d4ba 883d 130b afbe
00000060: 6cd1 b8be 9002 86be 1dae f8bd 4b97 053e
00000070: a7b6 a23e fff1 b73c 6c24 f63d 5f5f 2ebc
00000080: 3180 223c 9808 0ebd 02c2 14be 2974 433c
00000090: f8fb 573c 8107 6dbb 2ffa 0ebe fc7d 8b3d
000000a0: 5561 2d3d 3fe8 233c 6a3b 683d 4ef2 893b
000000b0: e840 4b3d 8521 a2bc e4bc cfbd 1488 e13d
000000c0: 09fa 33bd f3e2 21bd 9c64 84bc d726 69bb
000000d0: 94c5 653e 743d 91bb f816 d83c 1de4 873c
000000e0: a8d0 643d 69f4 15be 0ee1 debd eb80 4c3d
000000f0: c6f8 08bd 2415 93be 8cac 33bd 87f1 edbd
00000100: 8436 d8bc a37a 913d 5789 53bd 0c6c 0f3d
00000110: d8d8 643d a49e 653a 0f44 85bb bb9d 423e
00000120: 0c31 22be d241 41be f5e7 8b3d f143 c8bd
00000130: a374 613e 2621 f13c 0c8b d13d 0b83 28bd
00000140: effc b1be 824c b73d 71ca 963e 093f ff3e
00000150: 1033 3c3d 7a0e 293e 96da a43e ed44 c53e
00000160: 3495 073f 6e2d 0bbf 0b71 0d3f c6d9 12be
00000170: 59a4 513b b204 513e 015a 77be 0c21 09be
00000180: cda5 0b3d 4215 923e 05f5 2b3e 9f70 5cbe
00000190: 8925 b9bb 0925 e63d 4593 e2bd 72ad 9b3d
000001a0: ff56 5cbd 46d0 14bd 3a4e 953c fa76 083d
000001b0: 9ebf 513d 71e7 713c 5f08 f53c 129c 2bbd
000001c0: c7fc f43c 22d2 96ba 69ce 24bd c8d5 5c3c
000001d0: 884e 1a3d 0ca1 c73c 6a2b b73c 159b 88bd
000001e0: 57bc 8dbd 1700 953d e74b fc3d 62bd d53d
000001f0: c4b5 1f3c bd4b 9cbd e19d a6bd 05f2 33be
00000200: 81d0 5abb 280e c83d 9887 213d bce0 0dbe
00000210: 66ac 943d 28cf 32be 122f f7bd 02fd dcbd
00000220: aa8c 0abe aa1a 5abd 62db 02be e8a7 403e
00000230: c13c b23d 4f0b a2bd 4ab5 7cbd 6297 aebd
00000240: 57c8 e2be 6e4f 133f ecbd 243e d71a c33e
00000250: 7d0e 2a3d 2a81 793e ae3c dabe 3d28 f8be
00000260: c395 5abe 5d0a bbbd b4ef 8ebe 9524 0abe
00000270: f38b 5e3e 9aed c4be 0e9d 9c3e 635f 8cbd
00000280: 0b86 8c3d 0e88 233d 27f2 3d3d 13e0 68bd
00000290: c246 f03d df03 15be 03c5 27bd 6da6 ee3d
000002a0: ce99 123e 6357 30bc bf9c 30bb 3eb1 363b
000002b0: b078 46bc 61dc a1bc 9735 f3bc 103a 0ebb
000002c0: 36f4 17bd 4c91 413c 5107 50bc 9eb6 6cbc
000002d0: 3df5 043c fc98 c53a 2db1 20bc d8a1 c03c
000002e0: f686 d8bc 9ab0 563d df8e 8abc 76f5 bbbc
000002f0: c5f8 1dbe a725 45bd 75cc ccbd e070 fb3c
00000300: 8c6a 9c3d f7a6 e33d 16f6 403d 9123 f7bd
00000310: 8ee9 59bd 442b 6d3a 634d cc3c bf80 51be
00000320: 9458 f73d 3af9 503b 2071 a4ba 1eed 113e
00000330: 5a23 75bd 3c8e 683d 9622 2a3d 035e de3e
00000340: 0c49 34bd c36f 20be acd7 02be 830b d83b
00000350: 6a44 b0bd 119c 953f d0ab 9bbe 65fa f6bd
00000360: ea43 cd3e 6ce5 ee3d bcbc 9cbd bed0 9e3e
00000370: 40e0 03bd e010 5a3e f367 183f 4c7d dbbe
00000380: 17a5 f3bd 6f5a e4bd 0bfa 0f3f 74e0 d23e
00000390: deff 1f3e 2b2e 62bd c1c6 823e cde1 b73e
000003a0: 2d70 633d f87d cbbd 1019 86be 74c1 8cbe
000003b0: 65f9 233d c152 533d 1809 e7bb 0cbf d7bc
000003c0: 304e 1bbd 4855 89bc b6f6 86bc 5a98 4c3d
000003d0: 99f7 873d 958d 983b 1447 70bc 4b47 163d
000003e0: 3895 0f3d c2c4 343c 2ce5 363b 79e5 eb3c
000003f0: 1f6b f43c 914b 723d 79df e13c 0afc 38bb

net_container.0.bias f4 [128]
0.0808918 -0.052669123 -0.018417496 0.029603899 0.08724165 0.02473833 0.12587814 0.13468522
0.07296293 0.09817999 -0.018646918 -0.0043787216 0.053272948 0.04867296 0.22455177 -0.15249003
0.09778168 -0.07664385 0.12161718 0.04054997 0.11468494 0.038785607 -0.021436041 0.12302408
0.074765176 0.08099418 -0.05352657 -0.07924643 -0.057494786 0.03739344 -0.083612725 0.04243655
0.24040742 0.11290683 0.09300737 -0.104448356 0.06831239 0.030143777 0.08742416 -0.0064240918
-0.052070636 0.17625338 -0.08283743 0.020079136 0.16126692 -0.111886166 0.046573848 0.041544065
0.20589359 0.0750994 -0.021974042 0.026352908 -0.06943891 -0.03462475 -0.0025151817 0.03891953
0.17723046 0.066371225 0.12630863 0.15643066 -0.05560245 0.06891837 0.14435308 0.05842711
0.061260674 0.18650506 0.0242547 0.063417524 0.0611833 0.16754094 0.10845698 -0.13138877
0.15838468 0.1057489 0.03652747 0.06483341 0.15410325 -0.046663515 0.20050547 0.052630253
0.02154628 0.016466312 0.1748764 0.039569516 0.064147465 0.12527354 0.12228432 0.16911426
-0.041855965 0.2330216 0.027516302 -0.04507771 0.06496927 -0.01588945 0.052401155 -0.116662875
0.08621846 0.0058470415 -0.087685004 0.03316889 0.11087769 -0.036794852 -0.036344007 0.045124117
0.007740485 0.10690401 0.03768422 -0.050959274 0.040095173 -0.14170739 -0.042895038 0.061300535
-0.027123354 -0.10008563 0.12647049 0.13850729 -0.11706555 0.106287114 0.03920235 -0.040691484
0.007388133 -0.055553015 0.10974965 -0.039756685 0.056110162 -0.065700725 -0.07670502 0.15138794
00000000: 9aaa a53d 94bb 57bd 4ae0 96bc e083 f23c
00000010: c0ab b23d 0aa8 ca3c 33e6 003e ecea 093e
00000020: 976d 953d 9712 c93d 6cc1 98bc 617b 8fbb
00000030: bc34 5a3d 4c5d 473d e6f0 653e 5926 1cbe
00000040: c341 c83d 73f7 9cbd 6e12 f93d ba17 263d
00000050: f0df ea3d a8dd 1e3d a39a afbc 0df4 fb3d
00000060: 7c1e 993d 47e0 a53d ad3e 5bbd f44b a2bd
00000070: a77f 6bbd dd29 193d 263d abbd f3d1 2d3d
00000080: 5d2d 763e b23b e73d a67a be3d 05e9 d5bd
00000090: 5ee7 8b3d 15f0 f63c 700b b33d 3081 d2bb
000000a0: 0548 55bd c47b 343e aca6 a9bd 007d a43c
000000b0: 2823 253e 9324 e5bd 38c4 3e3d 1c2a 2a3d
000000c0: c5d5 523e b7cd 993d e802 b4bc 0ee2 d73c
000000d0: fd35 8ebd afd2 0dbd bfd5 24bb 166a 1f3d
000000e0: e77b 353e a3ed 873d 0d57 013e 5c2f 203e
000000f0: 65bf 63bd 1325 8d3d 4bd1 133e 4451 6f3d
00000100: 79ec 7a3d 2ffb 3e3e cbb1 c63c 0ce1 813d
00000110: 579b 7a3d da8f 2b3e b11e de3d c78a 06be
00000120: 982f 223e e192 d83d d49d 153d 61c7 843d
00000130: 3ecd 1d3e 3e22 3fbd 4e51 4d3e d292 573d
00000140: d381 b03c 5ce4 863c cd12 333e a513 223d
00000150: bf5f 833d b547 003e 3470 fa3d 4a2c 2d3e
00000160: 2971 2bbd 379d 6e3e de69 e13c 68a3 38bd
00000170: 9c0e 853d 982a 82bc 98a2 563d f2ec eebd
00000180: 4e93 b03d 8a98 bf3b 3294 b3bd 1adc 073d
00000190: d813 e33d 33b6 16bd 74dd 14bd 11d4 383d
000001a0: e5a3 fd3b 7df0 da3d c55a 1a3d acba 50bd
000001b0: d63a 243d be1b 11be b5b2 2fbd 4516 7b3d
000001c0: cc31 debc b2f9 ccbd 7b81 013e dbd4 0d3e
000001d0: 10c0 efbd 0fad d93d a592 203d 1dac 26bd
000001e0: 2718 f23b 8f8b 63bd 6dc4 e03d e8d7 22bd
000001f0: c5d3 653d 1a8e 86bd 8617 9dbd 7105 1b3e
