humanoidprac/humanoidprac/scripts/skrl/logs/skrl/h1_flat/joint_experiment_ver3/2025-09-18_02-51-51_ppo_torch/checkpoints/agent_9600.pt (torch, 549922 bytes, 40 tensors)

log_std_parameter f4 [19]
00000000: 413c 22c0 e6b9 28c0 889e 34c0 329f c7bf
00000010: 4059 cbbf f23d 2cbf 0be9 25bf e47e 03c0
00000020: 3ccd 00c0 9b99 2bbf 8669 26bf e2d7 acbf
00000030: 54fa a9bf 81d4 38bf 742f 0fbf e9eb 16bf
00000040: fd4a 3bbf 6704 14bf 8819 24bf
-2.5349276 -2.6363463 -2.822176 -1.5595458 -1.5886612 -0.6728202 -0.6480872 -2.0546198
-2.0125265 -0.6703126 -0.65004766 -1.3503382 -1.3279519 -0.72199255 -0.5593178 -0.5895372
-0.731613 -0.5781922 -0.6410146

net_container.0.weight f4 [128, 69]
00000000: 5a47 73be e32f bdbe 0ec6 aa3e b216 a0bd
00000010: b594 9c3d bc49 553c ce08 c63c 147f c5be
00000020: 83ab af3d 3460 3dbd 87da 7ebd c592 a03d
00000030: 34a8 ea3d 8e59 58be d8d4 643e cee3 45bc
00000040: 8400 b83e add0 3dbe 8f9f c03d 74ce 3ebe
00000050: 7123 773e 240e b5bb 765d 80bd 7179 c7be
00000060: 6b74 babe 5afe 6a3e 6576 77be da7c b83e
00000070: 3903 813e 2b5e 4c3e 802d bbbd d59a 92bd
00000080: 75f4 de3c 0277 85bd 5c75 c0bd 286d 7abb
00000090: 5566 a8bc 4e1c 02be f7c8 a3bd bfd5 abbc
000000a0: fd94 053e eeb0 9dbc 118b e83d 0872 2b3c
000000b0: 1cba 113e e45b 473d 39ca e0bd 1b29 813c
000000c0: 90a3 9cbd 68b7 393c f8ec 03be 0790 b03d
000000d0: d09c f23d e739 613d 0b98 9cba 1297 9bbd
000000e0: e2c6 583d eba3 483d 7589 473d 1a08 063e
000000f0: 10c5 58be cf2c 99bd 9b7c 4ebe 6c96 26bd
00000100: c495 273c c606 1c3b ad43 9e3c ecf4 61bd
00000110: a0a7 343d a0d3 113e 2746 443e 785d 013f
00000120: eb48 a0b9 b299 97be ce1f f13d 6c53 a63c
00000130: 8bc3 83bd 5025 8e3d 5de2 a7bd 0b83 28bd
00000140: b97b c8bd 7b6f e6bd 724e bf3e 70c0 9e3e
00000150: ccad 2bbd 0b7e a83e 80ae 84be 8f99 113f
00000160: a691 123e 06cc 6cbd 7250 4c3e de24 473e
00000170: d693 93bd ed8d 343e 7944 48bd cfa2 7dbe
00000180: 28db 193d d6a6 443e dd43 933e 1c95 1ebf
00000190: f321 82bc 44cf b93b 03ab 0c3c c241 cbbd
000001a0: b39b 70bc cfa5 1abd 1070 8d3c 65fa c43d
000001b0: 3f1f 3b3d 8912 153e 084e 1c3d bc11 30bd
000001c0: b86e 31bc 0a3c 223d dda6 eebd f427 203d
000001d0: d170 a3bd 5810 9ebd 0e70 223b 2488 003e
000001e0: b3d8 1a3d 7e73 413e fb10 253e 1d6f e33c
000001f0: ced1 013d e093 be3d b9a6 163e 9f30 77be
00000200: 001e e83d b8ad 6abd 1857 0c3e 3b75 a2be
00000210: 4d55 f5bd fa51 66be 9617 d3bd d688 c3bd
00000220: 764d 4abd bd2e c73d 6d72 0e3c 0ce8 043f
00000230: 80f5 693e 7ddc 0b3e 7b01 9bbd 7cd4 bcbd
00000240: c1d7 77bd 1cd2 9c3e 1572 4b3e 905b 933e
00000250: 7d0e 2a3d ee2d 803e e47c 41be d2e7 1ebf
00000260: 66b0 fdbe 8986 95be 0a58 25bd 46ae bfbd
00000270: f74e 2fbc ab72 323e 7483 b23d 5cc1 82bd
00000280: 33bd 323d 83a6 3a3d ad98 773d 9421 153f
00000290: 30d4 9fbe 1769 bdbd c392 19bd 7621 8a3e
000002a0: cba8 69bb 0e5c 37bd 5fae 1b3c 29e5 623d
000002b0: 55b7 733d a1b7 bcbd 2d4d dc3c 6cac 9abc
000002c0: f7fd b2bd 71f5 5c3c c8bc 16bd e25c 633c
000002d0: 00f8 1fbc 16b1 443c 6270 0bbc 5da9 ab3d
000002e0: 48b7 e7bd c218 1c3d 3a80 a93c 75b1 66bd
000002f0: 4b11 8abe 0ae2 1abd ff38 d8bd 4126 afbc
00000300: 9601 14bc 6ee2 4b3d 7d4c 033d bfe2 e4bd
00000310: 6f20 403d 997c aa3d 11ba cc3c fb79 c8bd
00000320: 8d1d 813d dd70 95bc 78a5 92bd 5f25 3a3d
00000330: 6c4d 2a3c a16d 803d 8200 323d 589b b03e
00000340: 6edb b9bd 53f7 8fbe 1e73 d9bd f773 93bd
00000350: 5c48 2abd 0b91 9e3f 2d7e 15bf a4ed 6a3a
00000360: e477 343e 6ce5 ee3d 36d1 213d ab88 283e
00000370: 3653 91be a04a 6b3d f047 1b3f 2e68 02be
00000380: f151 843d 9b20 92bd ecb3 4f3f 9891 063f
00000390: 0a05 a0bc bc88 e63b b001 a63e 527c 443e
000003a0: 8da9 f0bc 874e 6bbd a9de 83be cbd0 8dbd
000003b0: ac57 1b3e f8ab 1ebe 9452 6ebc bf41 26bb
000003c0: a044 34bd 9e31 e8b9 f72e 15bd f19c 5d3d
000003d0: 8134 523d ae81 023c 9fbb c5bb 9132 88bc
000003e0: 5930 c9ba 2911 c7bc b200 a0bc 7c7d d03d
000003f0: 38c4 2e3d 28ae 3e3d 4b3a c5bb 859c 68bd
-0.23757687 -0.36950597 0.3335423 -0.07816829 0.07645551 0.013018068 0.02417412 -0.38573515
0.08577635 -0.046234325 -0.062220123 0.07840494 0.114578635 -0.21127912 0.22346818 -0.012078239
0.35937893 -0.18536635 0.094054334 -0.18633443 0.24134614 -0.0055253673 -0.06267826 -0.3895984
-0.36416945 0.2294859 -0.24166258 0.36032754 0.2519777 0.19957797 -0.09139538 -0.07158438
0.027216176 -0.065168396 -0.093973845 -0.0038212035 -0.020556608 -0.1270611 -0.079973154 -0.020975946
0.13045116 -0.019249406 0.1135465 0.010464199 0.14231151 0.048671618 -0.10976071 0.01576667
-0.076483846 0.011335231 -0.12883365 0.08621221 0.11846316 0.05498686 -0.0011947168 -0.07597174
0.052924044 0.04898445 0.048715074 0.13089028 -0.21168923 -0.0747925 -0.2016472 -0.040670797
0.010228578 0.0023807748 0.01931938 -0.055165216 0.044105172 0.14240885 0.19167386 0.50533247
-0.00030571906 -0.29609448 0.117736444 0.02030345 -0.06433781 0.069407105 -0.08197472 -0.041140597
-0.09789223 -0.11251732 0.37364537 0.31006193 -0.041913792 0.32908663 -0.25914383 0.56874937
0.14313373 -0.05781176 0.19952562 0.19447657 -0.07205932 0.17632265 -0.048893426 -0.24769138
0.03756252 0.19204268 0.28762713 -0.6194627 -0.015885329 0.00567046 0.008585694 -0.09924652
-0.014685559 -0.037755784 0.01726535 0.096180715 0.045684095 0.14557852 0.038160354 -0.042985663
-0.01082962 0.03960804 -0.116529204 0.039100602 -0.079805024 -0.07717961 0.0024786028 0.12551934
0.037804317 0.18891713 0.16119759 0.027762944 0.031694226 0.09305549 0.14712037 -0.24139641
0.11333847 -0.057294577 0.13705099 -0.31730065 -0.119791605 -0.22492209 -0.10307233 -0.09547584
-0.04939028 0.097257115 0.008694273 0.51916575 0.22847557 0.13658328 -0.07568642 -0.09220216
-0.060508493 0.3062905 0.19867738 0.28780794 0.041517723 0.25035042 -0.18895298 -0.6207248
-0.49548644 -0.29204205 -0.040367164 -0.09359412 -0.010699979 0.17426555 0.08716479 -0.063845366
0.043637466 0.045568954 0.060448337 0.5825436 -0.31216574 -0.0924856 -0.03749348 0.26978654
-0.0035653587 -0.044765525 0.0095020225 0.055394325 0.05950101 -0.09214712 0.026892269 -0.018881045
-0.08739846 0.013486252 -0.03680113 0.013877125 -0.009763718 0.012005111 -0.008510681 0.08381913
-0.11314255 0.03810955 0.020691026 -0.05632158 -0.26966318 -0.037813224 -0.10557746 -0.021380546
-0.009033581 0.049776487 0.032055367 -0.11176061 0.04690593 0.08324546 0.024991067 -0.09788891
0.063044645 -0.018242294 -0.07160467 0.045445796 0.010394435 0.0627091 0.043457516 0.34493518
-0.09075056 -0.2811838 -0.1061766 -0.07199853 -0.041572914 1.2388014 -0.58395654 0.0008961803
0.1762386 0.116648525 0.03950616 0.16458385 -0.28383797 0.057444215 0.6065664 -0.12735054
0.064609416 -0.07135125 0.81133914 0.5256591 -0.019533653 0.007035343 0.32423162 0.1918805
-0.029377723 -0.057447936 -0.25755814 -0.0692459 0.15170163 -0.15495288 -0.014546055 -0.0025368778
-0.04401076 -0.00044287456 -0.036421742 0.05410475 0.051319603 0.007965488 -0.006034329 -0.016625674
-0.0015349492 -0.024300175 -0.019531582 0.10180184 0.042667598 0.046552807 -0.006018912 -0.056789894

net_container.0.bias f4 [128]
00000000: aed7 b53d ff1a ebbd cc76 86bd 1394 56bd
00000010: 77eb c33d 5b61 e13c c0e0 0f3e 3662 bc3d
00000020: 8e88 123e 71ae 103e e5fc 903d 579e e23c
00000030: 2667 183d 5185 9abd a507 c43d 5496 32be
00000040: 1254 bd3d c524 0dbe 2142 323e be4f d63c
00000050: f722 853d de35 703d 42b7 f3bd 909b d63d
00000060: 91c0 bb3c 1579 a43d 0850 d9bc 3bad cfbd
00000070: 3d46 33bc ae36 f8bd 86e5 d1bd 1c75 683d
00000080: 3d0b 123e c347 de37 5543 d9bc a21c 85bd
00000090: 6704 0b3e 025c 283d 9581 c93d 45ef b7bc
000000a0: d746 dfbd 7783 ef3d cc0e fdbd ec20 49bd
000000b0: 7187 3d3e 7661 06be fa7a a73d d7c9 babd
000000c0: 7807 223e 4b8c 673d d464 69bd 7b70 30bc
000000d0: 5280 c1bd 0f8c b0bd 73d9 dabc baa9 6e3b
000000e0: 8b26 613d 8c20 6b3d 2ff7 be3d 94ea 793d
000000f0: e473 aebd 7c2e 2f3d d483 ee3d 63ed 88bd
00000100: 0e84 093d d496 253e 3aa5 bf3c 0b24 ffbc
00000110: 8ae7 893d 596e 1d3d 2cb0 423b 4365 32be
00000120: f7df 1e3e 28f4 fb3d 1d4e ec3c 133c 113e
00000130: b78b fc3d 1c52 a4bc 0896 063e c880 c33d
00000140: de18 c8bc 8615 5d3d eac1 483e d06d a23d
00000150: 3061 8e3d be61 d23d 7744 d93d 0ca9 263e
00000160: 8309 553d 4c85 403e ac7a 98bd c23e b7bc
00000170: b6be 443d 8aee dd3b 2ea0 5e3d 7fb0 79bd
00000180: e0a9 c43d 95ab ba3b 6ce7 b0bd 9a86 a2bc
00000190: 99d3 4f3d a92a 0a3d 5b0c d6bd 5eb0 763a
000001a0: 9d0b 043d ab86 be3d c7b5 fc3c 2cdb 57bd
000001b0: fabf 8cbd 9b35 3fbe ff90 20bd a2ce 1bba
000001c0: ec57 debd 3549 ddbd ebe8 323e 6840 263e
000001d0: d3ab 93bd e42b d13d 8e9d 513c 643e 86bd
000001e0: d805 153b adaa c2bd edb9 273e 713d c7bd
000001f0: 7f95 823d 236e 16be 0a22 80bd be23 083d
0.08879028 -0.114797585 -0.065656275 -0.05238731 0.09566396 0.027512243 0.14050579 0.0919842
0.14309904 0.14129044 0.07079486 0.027663393 0.037207745 -0.07544959 0.095717706 -0.17440158
0.09244551 -0.13783558 0.17408039 0.02616107 0.0650081 0.05864512 -0.11900188 0.1047889
0.022918971 0.08030907 -0.02652742 -0.10140463 -0.010942039 -0.12119804 -0.10248856 0.05675231
0.142621 2.6497879e-05 -0.026521364 -0.06499602 0.13575898 0.04110337 0.09839169 -0.02245296
-0.109021835 0.11694997 -0.12356338 -0.049103662 0.18508698 -0.13123116 0.08177753 -0.09120529
0.15823162 0.05653028 -0.056980923 -0.010769005 -0.09448303 -0.08620464 -0.026715016 0.0036417083
0.054968398 0.057404086 0.0932449 0.061014727 -0.08518198 0.04276894 0.11646238 -0.06685903
0.033573203 0.16170818 0.023394216 -0.031145116 0.06733616 0.038435314 0.0029707057 -0.17421441
0.15515123 0.123024285 0.028845841 0.14183073 0.12331336 -0.020058684 0.1314317 0.095460474
-0.02442592 0.053975604 0.19605222 0.07931101 0.06952131 0.10272549 0.10608762 0.16275424
0.052011024 0.18800849 -0.07445273 -0.022368792 0.04803344 0.006772821 0.054351978 -0.060959335
0.096027136 0.0056967237 -0.0863789 -0.019839574 0.050738905 0.03373209 -0.10451575 0.0009410436
0.032237638 0.093030296 0.030848397 -0.052699253 -0.06872554 -0.18672793 -0.03920078 -0.00059435715
-0.108566135 -0.10804979 0.17471664 0.16235507 -0.07210507 0.102134496 0.012793912 -0.06554869
0.002273908 -0.0950521 0.16379519 -0.09728516 0.0637617 -0.14690451 -0.062564924 0.03323721

net_container.2.weight f4 [128, 128]
00000000: 0fa9 f6bc 92f3 1cbe aeea a33d b290 e0bc
00000010: 730e 813d f573 443d ac80 803d 9620 04be
00000020: 178f f3bb a7e6 213d 9f11 323b 8372 90bd
00000030: 2a44 3c3d a9ef edbc 5d62 1a3d 7b6d 6e3d
00000040: ba98 21bd 3556 923d b754 2fbd 9b16 c03d
00000050: 73eb 65bd 0c66 223d 13ee f5bc 012f 86bd
00000060: 57e5 55bd c3b8 1e3c 896f 10be d385 963d
00000070: a085 9b3c 7849 57bd a85b 9e3b 8aaf a33d
00000080: 0381 bcbd 73f2 42bd fa75 e5bc 5a4b 9f3d
00000090: 4253 d5bc 4125 323d e474 a23d 7328 8f3d
000000a0: 588c ac3d 73fc 253d 0f13 d8bd 089f c3bd
000000b0: f92f c4bc 9c88 8f3d ca67 22be 51b5 a43d
000000c0: e2bb 883b d73d 083e a45e 413d 0cfb 963d
000000d0: 0c68 f0bc ec13 0cbe bae6 a93c 1f39 e03b
000000e0: 5665 80bd 0aeb a3bd ee48 613d 7acb da3c
000000f0: 35ae 143e de13 bcba 9d63 f8bb c90a 003b
00000100: cfae 443d a467 c1bd 8f77 5cbc 960c a1bd
00000110: ac37 2cbd 9664 a4bb c90c 103d 6f79 b3bb
00000120: 336a a73c 53a7 0ebe c532 abbd 136f 9b3d
00000130: ba6e 8dbc 31dd c43b 451b a03d aaf0 fabb
00000140: c0ae e93d 8aa3 b83b 1f97 bbbd 51f8 003e
00000150: 9394 fdbd e615 8d3d 0ed5 51bd 5d5b efbd
00000160: b5d9 d93d d168 a7bc f5b3 11be 2d5b 6bbd
00000170: d02e 54bd 5c15 483d 1896 66be d67e b5bd
00000180: 2281 30bd 58ed 393d bdee 3b3d ae0b 77bd
00000190: 0203 51bc f581 77bc a727 2bbe e319 a338
000001a0: 02a3 a13d 86c6 24bd 6e83 02bb 89ad 9cbd
000001b0: f8c1 b03d 0113 ac3d 1e2e 2c3c 042a a5bd
000001c0: 8d3d d9bb a82a 033c 43c6 ddbd 272a 98bd
000001d0: cab4 e1bd f865 07be a852 1f3c c854 233e
000001e0: 4419 ddbc c826 713c fe47 94bd 367f 7a3d
000001f0: b1ff b93b 5424 1f3d 8c56 30bd 8502 febb
00000200: d15e 233d 284c e33c 954f c2bd dcfd debd
00000210: 6c94 0e3c 9880 2cbc 80a7 933d 1326 8d3d
00000220: 1157 95bb 5144 06bd 004d 05bd 21d1 553d
00000230: 7114 0fbe 5ef8 2e3d 2474 a9bd ee9d 4c3d
00000240: e752 b4bc 6274 a4bd 4c3b 8a3d 8aa9 cbbd
00000250: 2e28 f2bd e2b2 bdbd 467b f93c 2327 a4bd
00000260: 9293 dbbb 84c2 633c 66bd 4abd 849c 023d
00000270: ab3e 163c 2b84 68bd 8ca6 f63c 2ceb 25bd
00000280: 0dde 1dbd 88ae 803c 6537 e9bc 263e 9bbd
00000290: 654c 3dbc b650 a7bd 1369 09be d990 80bd
000002a0: 8abc 123e ea50 a83d 61d0 fdbc 096c 8b3d
000002b0: 446c e7bc 4db5 063e 27ed bebc 6a59 183d
000002c0: dad9 dabd 4c9f 2ebd d7ec c2bd 6f4f 06be
000002d0: 7716 333c 0630 3cbd 798c 90bd 743b a7bd
000002e0: 9d01 b6bb e8c2 30bc ab0b ebbd f96d 933d
000002f0: ebbd 0cbe ac81 23bc e0a5 cfbc a8ad 263d
00000300: 44b9 eabd 262d b3bd 581b 34bd 39f3 e8bd
00000310: 2015 29bd 1e91 943d a180 a93d 60b1 f0bd
00000320: d45c 0cbc 07bf 813d 0a46 81bd b815 21bd
00000330: 22ea 5dbd 0a84 c4b9 e25d b63b 802c 09bd
00000340: 7387 1cbe 9274 0abe 8854 b2bd 0a83 85bd
00000350: 8bda c1bd 8ce5 803b c97e a03c cea4 1cbd
00000360: e6c4 45bd ed81 99bd 6edb 343c 9dd3 4fbd
00000370: e9c9 0a3d b2bc d43c 192a aebc b44d 7abd
00000380: 5570 c93c 2fd4 f23d 9e12 0a3e 5304 c03d
00000390: 262c 1ebc 9a7c eabd 5125 59bd d93f 86bc
000003a0: b1e5 57bd 5b87 80bd f249 11be d2e4 10bd
000003b0: 1d55 4b3c 7d36 2e3b 03ba 113d 80e0 bb3b
000003c0: e595 a7bd 1ab4 a23d 5e87 bbbd 0cf0 023b
000003d0: 40c7 62bd fd5b a43c bf58 1e3c b1b9 163d
000003e0: 9d60 453d ae60 a2bd b4bb 88bd c2d1 8fbd
000003f0: deaf 7fbc df13 5d3d 8048 7f3c 0085 9a3b
-0.03010991 -0.1532729 0.08003746 -0.027412746 0.06301584 0.047962148 0.06274542 -0.12903056
-0.007432829 0.039526608 0.0027171148 -0.070530914 0.045963444 -0.029044943 0.037691463 0.058209877
-0.039452292 0.07145349 -0.0428054 0.09379312 -0.056132745 0.0396481 -0.03002075 -0.06551934
-0.05222067 0.009687605 -0.14105047 0.07349744 0.018984616 -0.0525603 0.0048327036 0.07992466
-0.092042945 -0.0475945 -0.028010357 0.07778044 -0.026040677 0.04349256 0.07932451 0.06990137
0.08425206 0.040523957 -0.1055051 -0.09551817 -0.023948656 0.07008478 -0.15859905 0.08042396
0.004172788 0.1330484 0.047209397 0.07372102 -0.029346488 -0.13679475 0.020739902 0.006842747
-0.06269328 -0.080038145 0.05500119 0.026708353 0.1451958 -0.0014349183 -0.007580234 0.0019537678
0.048018273 -0.09443596 -0.013456239 -0.07863729 -0.04204528 -0.0050168736 0.035168443 -0.0054771225
0.020436382 -0.13931017 -0.08359293 0.07589545 -0.017264713 0.0060078134 0.07817701 -0.007658084
0.11410284 0.0056347298 -0.091596834 0.12594725 -0.12381854 0.068889424 -0.051228575 -0.11687348
0.106372274 -0.020435723 -0.14228804 -0.05746 -0.051802456 0.048848495 -0.22518194 -0.08862083
-0.0430919 0.045392364 0.045881975 -0.060313873 -0.012757065 -0.015106668 -0.16714345 7.7772675e-05
0.078924194 -0.04022839 -0.0019914764 -0.07650287 0.086307466 0.08402062 0.010509042 -0.080646545
-0.006629652 0.0080057755 -0.10828831 -0.07429915 -0.11020811 -0.13222492 0.009724297 0.1595031
-0.026989587 0.014718719 -0.07240294 0.061156474 0.0056762327 0.038853005 -0.043051288 -0.007751765
0.039885346 0.027746275 -0.09487835 -0.108882636 0.008702379 -0.010528706 0.072096825 0.06892028
-0.0045574983 -0.032779995 -0.032544136 0.052201394 -0.13972642 0.04271733 -0.08274105 0.0499553
-0.022012187 -0.08030011 0.06749591 -0.099444464 -0.1182407 -0.09262635 0.03045429 -0.08015277
-0.0067009414 0.013901357 -0.04949703 0.031887546 0.009170215 -0.05676667 0.030108713 -0.04050748
-0.038541842 0.015708223 -0.028468797 -0.07580213 -0.011553858 -0.08169691 -0.13418989 -0.062776275
0.14329734 0.08218558 -0.030983152 0.068077154 -0.028249867 0.13155098 -0.023306442 0.037194647
-0.10686083 -0.042632386 -0.0951783 -0.13116239 0.010930649 -0.045944236 -0.07058043 -0.08165637
-0.0055543915 -0.010788657 -0.11476835 0.0719871 -0.13744323 -0.009979647 -0.02534765 0.040692955
-0.11461118 -0.08748846 -0.04397139 -0.11374516 -0.041279912 0.072542414 0.08276487 -0.117525816
-0.008567054 0.06335264 -0.06312187 -0.039327353 -0.054178365 -0.0003748241 0.005565391 -0.033489704
-0.15286045 -0.1352103 -0.08707529 -0.06519134 -0.09465512 0.003933614 0.019591706 -0.038243107
-0.04828348 -0.074954845 0.011038644 -0.05073892 0.033883963 0.025968883 -0.021260308 -0.06110926
0.024589697 0.11856877 0.13483664 0.09375825 -0.0096540805 -0.11449547 -0.053014103 -0.016387867
-0.052709285 -0.06275817 -0.14188364 -0.03537447 0.012410429 0.002658277 0.035577785 0.0057335496
-0.08182887 0.07944508 -0.091566786 0.0019979505 -0.0553658 0.020063395 0.009664713 0.036798183
0.04818784 -0.079285964 -0.066764265 -0.0702243 -0.015605895 0.05397403 0.01558125 0.004715562

net_container.2.bias f4 [128]
00000000: f1bf 2c3d e9c3 3bbe ac81 92be 6a4a be3c
00000010: ab7b 16be 3c8f 953d 3496 a43d cae0 c03d
00000020: 9f0c 9b3d f9fd febd 4b7f 353e b517 0dbe
00000030: 62e5 3c3e 881c b1bd efab 403d eb2c 60be
00000040: ce7f afbd 5b0f 79bc 797a f0bd a1cf 5e3d
00000050: 7421 183e 7038 99bc 281e adbc 5cc8 fabd
00000060: 7b54 05bd cb85 de3c 8f2c 293d bdfd 02be
00000070: e621 1a3d 4f8e 8dbd e78d d1bd d6a3 04bd
00000080: 89ad 04bd 978d f4bd 961a 073d 0aec 6abd
00000090: 2af0 d7bd 1ece 463d 5cc2 563c 80c4 d8bd
000000a0: 6b21 0bbe dbe8 24bd 362a e5bd 984a c73c
000000b0: 2c87 c83c 398d 993d d78f 88bc 66d8 8d3d
000000c0: 1696 e93c c88f d2bd c9a0 a33d d803 d1bd
000000d0: 28fc f23a ff1e f43d 9b60 d2bd 1e32 91bd
000000e0: a4d1 b93d ba89 ddbd 3dc9 b4bc f664 d83d
000000f0: 7156 09be 7147 a4bd 48cd 14be 1e43 a43c
00000100: fa52 6dbd 9e66 aabd 7ece ae3d 8fec 153d
00000110: d092 a1bd b01c 4a3d 467e 94bd cfc5 01be
00000120: 3eb3 95bd c4e7 ccbc 9bb0 22bd 72f9 45bc
00000130: 4bc2 b73d 30bf 8bbd 3b2e 0fbd 2b3d d63b
00000140: be01 56bc 53db 8bbd 9fa4 493d 60a3 ccbd
00000150: e529 e5bd ba76 60bc 803b 003d 273f 043e
00000160: 64bb 883d d956 cebd 7bac 20be 675e c33d
00000170: 9894 0abe e3ff 87bc a5d2 1cbe e3ef 7b3d
00000180: 2880 bcbc 3268 51bb 049a 8abe 1b32 62bc
00000190: 8eb3 4dbe 61a2 163c 7d1b 33bd 021c c83c
000001a0: 0300 0abe 6029 9fbd fa2c a03c baca b3bd
000001b0: 326c 20be 63a9 81bd 9dab b13d c87a 16bd
000001c0: 0b05 8abe ca14 273d 47ab fd3d c63b 31bd
000001d0: d483 da3d 85a4 2d3d e688 abbd a745 7abd
000001e0: f7f3 573d 469f 40be 5aa5 913d c80c da3c
000001f0: e425 233e 6f97 fbbc efc3 0ebb 0a82 12be
0.042175237 -0.18336453 -0.28614557 0.023228843 -0.14695613 0.073027104 0.080364615 0.09417875
0.07570767 -0.12450785 0.1772434 -0.13778575 0.18446878 -0.0864802 0.04703897 -0.21892135
-0.08569299 -0.015201415 -0.1174211 0.05439723 0.14856511 -0.01870367 -0.021132544 -0.12245247
-0.03255127 0.027163407 0.04130226 -0.12792106 0.037629984 -0.06911909 -0.10232144 -0.03238281
-0.03239206 -0.119410686 0.03298434 -0.05735401 -0.105438545 0.048536412 0.013107862 -0.105843544
-0.13586967 -0.04026113 -0.11189692 0.024327561 0.024478517 0.07497639 -0.01667015 0.0692604
0.02851395 -0.1028133 0.07989652 -0.10205811 0.0018538283 0.119199745 -0.10272332 -0.07089637
0.09073189 -0.10817285 -0.022068614 0.10566132 -0.13411881 -0.08021439 -0.14531434 0.020051535
-0.05794046 -0.08320354 0.08535479 0.036602553 -0.078893304 0.049343765 -0.07250647 -0.12673114
-0.07309578 -0.025012858 -0.039719205 -0.012083398 0.08972605 -0.068235755 -0.0349562 0.0065380535
-0.013061939 -0.06828942 0.04922926 -0.09992099 -0.111896314 -0.013700182 0.031306744 0.12914716
0.06676367 -0.100751586 -0.15690796 0.0953949 -0.13533247 -0.016601508 -0.1531473 0.06150807
-0.023010328 -0.0031952974 -0.2707063 -0.013805891 -0.20088026 0.009193988 -0.043727387 0.024427418
-0.13476567 -0.077715635 0.019552696 -0.087789014 -0.15666273 -0.06331136 0.08675311 -0.036738187
-0.26956972 0.04079131 0.12386184 -0.043269895 0.106696755 0.042393226 -0.08375721 -0.061101582
0.052722897 -0.18810758 0.071116164 0.026617423 0.15932423 -0.030711858 -0.0021784266 -0.14307418

net_container.4.weight f4 [128, 128]
00000000: 2bdb 31bd 1559 183e 0986 18be 4db5 9dbd
00000010: 249b 0bbd cdc6 17bd cc33 bc3c 9275 5d3d
00000020: 2cfe 6ebd b5c9 a9bc 6934 36bd bd5a 7c3d
00000030: 39ec d33d 8a03 aabc 1fec d8bc f9fc 38bc
00000040: 2e59 2fbd 5209 bf3a f2b8 bf3a 34eb 993d
00000050: 3b1f 19be db4c f7bd 842d 6b3d e912 d0bd
00000060: 2a61 13bb 128d 7a3d d505 1b3c 33f7 ec3c
00000070: b233 0a3d 45c0 b43d 7c17 4ebb a0fe 053e
00000080: 03be 21bd d296 16bb b2ee eebc 327a 55bd
00000090: abcb 82bc 4bae 29bd b927 e43c 049a 463b
000000a0: 5f25 16bc d73f a5ba d81f 8b3c c252 083c
000000b0: 4b00 bcbd ba8c c53c 8556 bfbc d8a0 ab3d
000000c0: f188 553d c383 7bbb dd78 9d3d dd51 b8bc
000000d0: d01d 073e d6cd 12be 94f3 0c3a 0f83 c5ba
000000e0: d624 023d 3699 2bbd 86b7 793d 02c9 2b3c
000000f0: 9bdf 5e3c 23a6 1d3d e683 f63c c819 15bd
00000100: b0ac 87bd ff69 cdbd 6dd4 91bd 6af7 65bd
00000110: e70f 5c3d 41cc ae3c 0376 06bd 73b2 033e
00000120: 2b89 c93d 7b01 0cbe 5142 06be e975 16bd
00000130: 82c2 eabc 0fb0 7d3d 30c7 ac3d bd23 97bc
00000140: 9729 793d 8376 403d cf32 83bd 4fb5 aebc
00000150: 773a 8f3d be9d 813d d647 453d 3f35 c23c
00000160: a077 a03c 7595 30bc 1c33 b03b a245 14bd
00000170: 1ea3 1d3e 2f84 0abd 1745 e33a 6e66 51bd
00000180: 7802 45bc 7f1f 693d 91d4 2a3d 6ee3 223d
00000190: 4236 1c3d e32b a23c f520 a03d 6480 0e3c
000001a0: aefe 123d 5955 413b dfdb 5e3d 61b8 4a3d
000001b0: dccc 2abd 1723 75bd a577 f0bb 084a 093d
000001c0: 7d83 4e3d 2d3a b93d e96b 34bb 58dc b93d
000001d0: 7807 a7bd 3df0 5d3c d00e 85bd aa70 46bc
000001e0: 5a38 e53a 4d38 b0bb b690 3ebd e30a a43c
000001f0: 7cd1 6c3d 5adc c43c 7dc6 db3c 6191 573c
00000200: 6571 d33d d738 d3bd e5b6 a83c e0cc 383c
00000210: 2df6 df3d 4533 74bd bdd3 c3bc fdb3 cbbd
00000220: 4725 efbc b7b5 eabd e47b f83d a50c 6d3c
00000230: d42b e73d 42e2 173d c6d8 ba3d 99e4 cdbd
00000240: 39d4 113c caa0 72bd e55e 303b 4487 7f3d
00000250: c1ba 8c3d 5542 ce3c daa4 233e b2d0 893d
00000260: bf99 b43d 98a1 763d 04d4 873d a229 66bc
00000270: 766d f83d 8cbd 2c3d b0ff a23c 0326 613d
00000280: 65bd b63d 82b9 d23d 2c2b 763d 2b5c aa3d
00000290: 459d e83c a6ab 60bd a140 b8bb 0ded 4abd
000002a0: 61e3 8d3d b7df aebd 139a 06bd a4e5 823d
000002b0: d8e3 b6bd 0d4e 4e3d 1f8f d7bd 3dd8 053d
000002c0: 24bc 6fbd 1757 e8bd c6e5 e93c 66f5 313d
000002d0: b2f0 25bd 28ea 563d f2a2 d13b 56d1 7ebd
000002e0: 5554 db3a 3ab6 9c3c 5cae a13b b292 c93c
000002f0: 2df4 b93c db1d 8c3d 40bf 833d c8d3 0dbd
00000300: e700 7dbd 0b35 78bd b2e1 043e cc20 973d
00000310: a6d6 ea3c 5c2a 90bc 7ef4 cbbc aafd adbc
00000320: f754 c53d 0016 1fbc a1bb 803d 4c60 953d
00000330: 718d 723c 90e3 f5bc d388 67bd fd53 36bc
00000340: 8984 60bd 543c 873b 25e7 003d 0d29 663c
00000350: cc03 9ebc 9b0d 503c e02c 96bd 67bf c13c
00000360: ba77 d23d d301 6ebd 37aa b1bc 1751 6c3d
00000370: 7b8c e53b 1ecf d7bd 467d 8cbc 3b9a b63d
00000380: afdf 603d 512e 8abc d858 763d ff47 9ebb
00000390: 391e 2b3d d12e 2bbd d497 133d 237d ba3d
000003a0: 2192 943d 4a32 24bd 9e4a d6bc b2ed 133d
000003b0: 983f 8dbc 112e 8abc c181 83bb 17af a0bb
000003c0: 0866 78bc 8d2e 6e3d 3f2b 933d 1969 e3bc
000003d0: 2dd9 9b3d 1fff 2ebd 75c2 e53d d863 853d
000003e0: 759c 0b3d fe43 e3bd 9dfd 2d3d 2fa2 8d3d
000003f0: 633e 3a3d 0e6b 08bd 53a5 383c 77c6 213d
-0.043421905 0.14877732 -0.1489488 -0.07700596 -0.0340835 -0.037054826 0.022973917 0.054067202
-0.058347866 -0.020726064 -0.044483576 0.061609972 0.1034779 -0.02075364 -0.026479779 -0.011290782
-0.042809658 0.0014574921 0.0014627262 0.075155646 -0.1495332 -0.12075206 0.057416454 -0.10159857
-0.0022488334 0.06116969 0.00946184 0.028926468 0.033740707 0.08825735 -0.0031447103 0.13085413
-0.03948785 -0.002297808 -0.029166553 -0.052118488 -0.015966257 -0.041425984 0.027850972 0.0030304203
-0.009164183 -0.0012607527 0.016982958 0.008320512 -0.091797434 0.024114955 -0.023356685 0.08380288
0.05213255 -0.0038378097 0.076890685 -0.022499973 0.13194966 -0.14336333 0.0005376872 -0.0015068966
0.03177341 -0.04189416 0.060966037 0.010484936 0.013603116 0.03848852 0.030092191 -0.03640154
-0.066247344 -0.10029983 -0.07120595 -0.056144156 0.053726103 0.02133763 -0.03282739 0.12861042
0.09840616 -0.1367244 -0.13111235 -0.03673354 -0.028657202 0.06193548 0.084364295 -0.018449659
0.06083068 0.04698802 -0.06406175 -0.021326689 0.06993573 0.06328915 0.04816421 0.02370703
0.019588292 -0.010777821 0.0053771865 -0.03619922 0.15394256 -0.033817466 0.0017339316 -0.051123075
-0.012024514 0.056914803 0.041706625 0.039767675 0.03813768 0.019796317 0.07818786 0.008697603
0.035887413 0.0029500334 0.054408904 0.049492244 -0.041699275 -0.059847917 -0.0073384815 0.033517867
0.050418366 0.09044299 -0.002753014 0.0907523 -0.081557214 0.013546047 -0.06496966 -0.012111822
0.0017488108 -0.0053778053 -0.046524726 0.020024722 0.057816967 0.024030853 0.026828045 0.01315722
0.10324363 -0.10313576 0.020595023 0.011279315 0.10935626 -0.059619207 -0.023904676 -0.099464394
-0.02919258 -0.114604406 0.12133005 0.014468347 0.112876564 0.03708101 0.091233775 -0.10053367
0.0089006955 -0.05923537 0.002691203 0.06238486 0.06871558 0.025178114 0.15980855 0.067292586
0.08818387 0.0602127 0.06632236 -0.014048012 0.12130253 0.042172953 0.019897312 0.05496789
0.08922843 0.10289289 0.060099766 0.08318361 0.028395304 -0.054851197 -0.0056229387 -0.049542475
0.06928135 -0.08538764 -0.03286178 0.06391457 -0.089301765 0.050367404 -0.10525345 0.032676924
-0.058529034 -0.11344736 0.028551947 0.04344692 -0.040512748 0.052469403 0.0063975984 -0.062211357
0.0016733507 0.019129861 0.0049341153 0.024606083 0.02269944 0.06841632 0.064329624 -0.0346258
-0.06176844 -0.06059746 0.12976721 0.073793024 0.028666805 -0.017598324 -0.024896856 -0.02123912
0.096353464 -0.009709835 0.062857874 0.07293758 0.01480423 -0.030015737 -0.05652697 -0.011128423
-0.054813895 0.0041270647 0.031470437 0.014047873 -0.01928892 0.012698556 -0.07332778 0.023650838
0.10276742 -0.05810721 -0.02168761 0.05769452 0.007005272 -0.10537551 -0.017149579 0.08916136
0.05490082 -0.016867789 0.06014332 -0.00483036 0.04177687 -0.041792694 0.036033466 0.09105899
0.072544344 -0.040087022 -0.026158627 0.036115356 -0.017242238 -0.01686767 -0.0040132706 -0.004903685
-0.015161045 0.058149863 0.07185983 -0.027760075 0.07609782 -0.04272377 0.1121873 0.06513184
0.034084756 -0.11096953 0.042478193 0.069157 0.045469653 -0.03330522 0.011269885 0.03949591

net_container.4.bias f4 [128]
00000000: 67a7 febd d336 26bd c0ca e53d 07a5 bebd
00000010: 5074 e3bd 8fe3 e4bd 7d21 08bd 941e 18be
00000020: ae0e 83bd 4d03 bb3c 5912 553d aee4 06be
00000030: 5f56 b5bd 57d6 e1bd eb58 09b9 4d78 9a3d
00000040: 834b 39be c8aa cbbc a2e2 083e fd9a 43bc
00000050: 07be 30bd 9220 743d 5bdf cfbd cd3c b03c
00000060: d899 c5bd 9840 bbbc fa8d dd3d 4724 953d
00000070: fc00 d1bd 9dc1 f43c fc64 8cbd 8315 853d
00000080: 2a72 283d 0a9d b0bd cd1d 00bd 283b c2bd
00000090: 75e2 90bd b1ea c73a e7db 223a b324 553d
000000a0: 2650 08bd 7885 83bd ab5e 013d 8241 50bd
000000b0: 3264 91bd 063b 3d3d cd5e b6bd 3a7b c73d
000000c0: 51df 5b3d 353a a33d 1218 8f3d a1ca fbbc
000000d0: 6fb7 24bd 5d4f 9abd 81f6 813d 7765 983c
000000e0: 22de 043e 93e9 b9bd 1de8 963c 98d0 603d
000000f0: feee 6fbd e6ff da3b b16f a6bd 6d29 64bd
00000100: 4ff4 18be 8122 57bd 5be5 b4bd adf9 883d
00000110: 4803 42bd a485 a23c e950 df3d 1e63 08bd
00000120: 26da a4bc dedb fd3d 06ce 09bc fe1f bf3c
00000130: 30d1 ea3c edb3 933c 6d2d 883d 593a 75bd
00000140: d298 bdbb b1f4 1abd 1ef6 9dbc 3abc f1bc
00000150: a3bc b73c 5961 80bd e908 23bc 1944 e5bd
00000160: 9858 233d e69f b8bd f925 aabd 2c51 d3bd
00000170: aa88 b6bc 7973 b7bd dfcc 773d 4812 d0bc
00000180: fcca 49bc 2c96 63bd 90e5 28bd 26cc e33c
00000190: 338b cdbd 6d78 dcbd 81f4 46be 910f c53d
000001a0: 222c 3bbd 4602 e2bc cdc5 933d 660f b7bb
000001b0: 9e03 0ebe 77b1 4fbd 5294 6d3c 7145 293e
000001c0: fefc 52bc 4554 f9bd 5002 d63d a59e b03d
000001d0: f751 423d 43d0 d33c e081 9abc e31b c63d
000001e0: cd74 2b3c 3e21 7a3d 75f6 003c 85cf f0bc
000001f0: 4be8 06be 4559 02bd f873 9e3c 07fe 27bc
-0.12434273 -0.04057963 0.11220312 -0.0930882 -0.11106169 -0.11176216 -0.033235062 -0.14855415
-0.06399284 0.022828722 0.05201945 -0.13173172 -0.088543646 -0.1102721 -0.00013098463 0.07542477
-0.18095212 -0.024861708 0.13367704 -0.011938808 -0.043149974 0.059601374 -0.101500235 0.021513367
-0.09648484 -0.02285795 0.108180955 0.0728231 -0.10205266 0.029877478 -0.06855199 0.06498244
0.0411245 -0.08623703 -0.03127842 -0.094839394 -0.07074443 0.0015252439 0.00062125776 0.052036952
-0.03327956 -0.064219415 0.031584423 -0.050843723 -0.07099189 0.046198867 -0.089048006 0.097403005
0.053679768 0.079700865 0.06987013 -0.03073627 -0.040214 -0.075346686 0.06345845 0.01860307
0.12975362 -0.09077754 0.018421227 0.05488643 -0.05857753 0.0066833375 -0.08126772 -0.05570357
-0.14936946 -0.05252314 -0.088328086 0.06688247 -0.04736641 0.019839115 0.10904104 -0.03329765
-0.020123553 0.12395452 -0.008410936 0.023330685 0.028664201 0.018030131 0.06649289 -0.059870098
-0.00578604 -0.037831012 -0.019282397 -0.029508699 0.022428816 -0.062685676 -0.009950855 -0.11194629
0.03987941 -0.09014873 -0.08308024 -0.10318217 -0.022281963 -0.089575715 0.060498115 -0.025399342
-0.012316462 -0.055563137 -0.041234553 0.027807306 -0.10036316 -0.10765157 -0.19429208 0.0962211
-0.045696385 -0.027588975 0.07215462 -0.0055865524 -0.13868567 -0.050706353 0.014500694 0.16530396
-0.012877701 -0.12174276 0.1044966 0.08624009 0.04744145 0.025856143 -0.018860757 0.09673288
0.010464859 0.06106686 0.00787126 -0.029395828 -0.1317455 -0.031823415 0.019342408 -0.010253436

policy_layer.weight f4 [19, 128]
00000000: ce22 73bd f852 17bd 6a9a b2bc eb1e d8bc
00000010: 77b3 57bd ba90 713d 4186 ad3c 7f92 f9bd
00000020: 7252 8a3d bd54 943c 9875 ccbc c178 a3bc
00000030: d326 773d 0eb2 1c3d c0a9 2c3d 8227 4d3c
00000040: d85a 46bc f416 f0bc fc77 5a3d b3c8 3c3c
00000050: d8cf 453d 2fd6 81bc 2819 7a3d fc53 a3bd
00000060: 26cd 733d 89bb 54ba f989 2fbc d067 b8bb
00000070: 3f00 8a3d 90cf b73d fdce 95bc c6fa d23c
00000080: 34c3 94bd 0191 35bc 50be 8c3d a37e 56bd
00000090: 967d 663d c759 adbb f030 3fbd 8b73 ebbb
000000a0: 867d ff3c 7e6c d03c 9f64 f8bd cd60 8d3d
000000b0: 2d38 40bd 6cba bdbd 5c36 363d 29ac d03c
000000c0: 6a8e 903c f78c 8dbd 4e32 1ebd 51a7 6f3d
000000d0: 4bea 763c 6a83 b03d 7c78 e1ba 304a 1b3d
000000e0: 0fc2 9cbc 100e 353d e6c1 ac3c fb46 b33b
000000f0: b97a 793d f18d 533d e224 e3bb 5197 a5bd
00000100: be79 bc3c 9917 39bc 8c5b 88bc 0002 203d
00000110: 403b 9fbc 2861 23bc c585 8ebd da65 2f3d
00000120: 26aa 593b e6a9 a7bc a323 8c3c 5de5 653d
00000130: 794d 533d 9e31 36bd 8124 f23b c824 b93c
00000140: 5daf 5abd a9de 763b 8a91 cf3d 4660 a4bc
00000150: 4ea9 893d f70e 04bd 2012 823d 15cc a4ba
00000160: fea3 0cbc 4f3b 613d 5949 623d a7ee cd3b
00000170: 39f3 84bd ed3c 8e3d f0e0 78bd c75d c6bc
00000180: 8295 1fbb 9cf8 443d 17c6 57bc 8074 7bbd
00000190: 9bf6 f73b 4482 e23c 564f 19bd 425e 13ba
000001a0: eafa 9b3c db75 6cbd 452f 4b3d e5ce 0a3d
000001b0: 2b41 6ebd 4e8c 47bd 9dd1 163d b2c1 6c3d
000001c0: 5e27 cb3c b764 ec3c 2d3d 37bd 6167 03bd
000001d0: 8474 babd 7176 ef3c cd63 59bd 79ce 34bc
000001e0: 959a 95bb 0132 e5bc 54f7 31bc 5a31 76bc
000001f0: d64e a73c 6587 3fbd ec8b 9bbd 37a9 87bd
00000200: 2e3b cabb 5a56 103d bd64 173d 1d43 85bd
00000210: bfc2 b1bd ac2b 733d ba8d 2f3d 179e 413d
00000220: 41b1 593d c029 683b dc44 84bd 77a0 9abc
00000230: 098a 73bd a824 bfbd 9939 56bc 29b8 a4bc
00000240: 1e63 c0bc 7c82 40bd 406f 7f3b 65eb a7bc
00000250: f87d c33c 5b61 bf3c 33c1 1ebc a252 e53c
00000260: 1149 443b bb93 e33c 5322 2c3d 9cfe a53b
00000270: 392c e03b 5740 1fbd c133 a63b ecb9 ecbb
00000280: 74c5 2d3c 5a38 613d 616a 0abb 8d5d 26bd
00000290: 8b57 683d a182 4b3d 32ad 8c3d 91f1 153c
000002a0: 4543 38bd b820 d4bc 2eb3 13bb 9125 1abd
000002b0: 4e8f cc3c 07b5 d93d ff92 01bd c076 48bb
000002c0: d3fe b3bb 9643 03bd 49dd 3ebd a87c dbbc
000002d0: 595a d6bb 9148 9b3d 55dc 6abc 667d 5e3d
000002e0: 5a45 46bc 2902 03bb dcda 93bd da9e 883d
000002f0: fb78 b9bd c38f e93c 6fcd bcbc b25c 9a3d
00000300: 6aba 263d 76a5 1abd 5fe4 323c 8e22 e6bb
00000310: 57fe 313d 6d15 2f3d b716 48bd 5bf1 7ebd
00000320: 5b08 8fbd e842 45bd 6a08 1dbc d9f1 25bd
00000330: fe2f 05bc 216c b83d 07b8 c33a 8694 52bd
00000340: d9dc 733c 5520 323d b170 1bbd 5f09 c43c
00000350: 8c23 243d 2053 b63c 4bc9 17bc c167 323c
00000360: 1e3b 7d3b d6d0 2e3b 082f 383b 8914 2ebd
00000370: fda2 273c 06f6 64bc d7fb 563a 70b6 4b3d
00000380: cb94 a63c d189 e23c c009 413d 77fd 87bb
00000390: 746b c03c 149d 2e3d 79bb 1d3c e42a 093c
000003a0: 52b5 6dbd f732 6c3c d570 99bc 36e0 00bc
000003b0: a68c 25bc 1c9b 60bc e4df 29bc 61a7 4fbc
000003c0: 64a8 9cbc 2aa9 1cbd 84b7 903c 20eb 283c
000003d0: ac36 773d d6ac 963a 10e6 09bc 8190 81bc
000003e0: 6c36 063d 7b2e 873c 939e b03c b637 353d
000003f0: 9691 963b 1fbe fcbb 327b 943c ab8f 523d
-0.059359364 -0.03694436 -0.021802146 -0.02638193 -0.052661385 0.058975913 0.021182181 -0.12186145
0.067540064 0.018106813 -0.024958417 -0.01995504 0.06033976 0.038255744 0.042154074 0.012521626
-0.01210662 -0.02930782 0.053337082 0.01152246 0.04829392 -0.015849201 0.061059147 -0.07975003
0.059521817 -0.0008115103 -0.010714048 -0.00562761 0.06738328 0.08975136 -0.018287176 0.025754344
-0.072637945 -0.011081935 0.06872237 -0.052366864 0.05627211 -0.0052902433 -0.04667753 -0.0071854047
0.031187784 0.025442358 -0.12128567 0.06903229 -0.046928573 -0.09264073 0.044485435 0.025472717
0.017646033 -0.069116525 -0.038622193 0.058509175 0.015070508 0.08618815 -0.0017202045 0.037912548
-0.019135503 0.044202864 0.021088552 0.005471108 0.060908053 0.051649038 -0.006931887 -0.08085502
0.02300727 -0.01129713 -0.016645215 0.039064407 -0.019437432 -0.009971894 -0.06959108 0.042821743
0.0033212989 -0.020466756 0.017106837 0.05612694 0.051587556 -0.044480912 0.0073896055 0.022600546
-0.053389896 0.0037669337 0.10135181 -0.020065438 0.067217454 -0.032240834 0.06351113 -0.0012573028
-0.008584021 0.0549882 0.05524573 0.006284553 -0.064917035 0.069452144 -0.060761392 -0.024214638
-0.0024350588 0.048088655 -0.013169787 -0.0613904 0.0075672395 0.027650006 -0.037429176 -0.00056216505
0.019040544 -0.057729583 0.049605627 0.033888716 -0.058167618 -0.04871779 0.036820997 0.05780191
0.024799045 0.028856618 -0.044736076 -0.03208101 -0.09104255 0.029231282 -0.053073693 -0.011035555
-0.0045655468 -0.027977945 -0.01086219 -0.015026415 0.020423334 -0.04675998 -0.07595047 -0.06624072
-0.0061716055 0.0352386 0.036961306 -0.065069415 -0.08679723 0.05936782 0.04285977 0.047269907
0.053147558 0.0035425276 -0.064584464 -0.018875344 -0.059457812 -0.093331635 -0.013075256 -0.020107346
-0.023484763 -0.04699944 0.0038976222 -0.020497987 0.023863778 0.023361852 -0.009689617 0.027993504
0.0029950778 0.027780404 0.04202492 0.005065752 0.0068412093 -0.03887972 0.0050720875 -0.007224312
0.0106061585 0.05498538 -0.0021120536 -0.04061656 0.056724112 0.049685124 0.06868972 0.009151832
-0.04498603 -0.025894508 -0.002253722 -0.037633482 0.024970677 0.10630231 -0.031634327 -0.0030588359
-0.005493024 -0.032046877 -0.046597753 -0.02679284 -0.006541532 0.075822 -0.014334758 0.054318808
-0.012101496 -0.0019990301 -0.072194785 0.066709235 -0.09056278 0.028510934 -0.023047177 0.075372115
0.040705122 -0.037755452 0.010918706 -0.007023162 0.043455448 0.042745043 -0.048849788 -0.062241893
-0.069840156 -0.04815951 -0.009584526 -0.040513847 -0.008129118 0.09004999 0.0014932164 -0.051411174
0.014884197 0.043487865 -0.037949268 0.02393025 0.040072963 0.022256434 -0.009264301 0.010888995
0.0038639973 0.002667477 0.0028104205 -0.042500053 0.0102317305 -0.013974672 0.0008200979 0.049734533
0.020334622 0.027653607 0.04712844 -0.0041500884 0.023488738 0.04263027 0.0096272165 0.008372042
-0.05803425 0.014416448 -0.01873056 -0.007865956 -0.010104334 -0.013708856 -0.010368321 -0.012674184
-0.019123264 -0.038247265 0.017665632 0.010309964 0.060354874 0.0011495601 -0.008416668 -0.015815975
0.032766744 0.016501656 0.02155999 0.044242583 0.004594992 -0.007713094 0.01812515 0.051406544

policy_layer.bias f4 [19]
00000000: bb95 00bd 0672 53bc 655c 883c 9364 10bc
00000010: f0c9 113c ce9b 0abd dcb2 dabc 7354 3c3c
00000020: 4463 54bd 3dbc c43d b354 cb3c ff93 a83d
00000030: ef09 943d d6be 173d 263b febc 8ab9 1cbe
00000040: 3ff7 10be c0a3 123d 9980 85bd
-0.031392794 -0.012905603 0.01664562 -0.008813041 0.008898243 -0.033839993 -0.026696615 0.011494744
-0.05185248 0.09606216 0.024820661 0.08231353 0.07228457 0.03704723 -0.031034064 -0.15305153
-0.14156817 0.035800695 -0.06518669

value_layer.weight f4 [1, 128]
00000000: d491 59bd 8588 27bb 107b 113e da42 763d
00000010: a2a6 cbbd 8fab 46bc 814a af3a 62f1 a3bd
00000020: 352f 393d 7379 823d 34ce d7bd 9061 dcbc
00000030: 1588 fabb bae3 283d 5859 abbc 064c 6abd
00000040: 1246 8dbd fea5 f3bd e56c e53d 134f 36bb
00000050: 4804 85bd b1ad f83d a7f1 8d3d db4f 703d
00000060: 7e8b 16be 4dd1 0e3e 9362 3fbc bd2b d23d
00000070: ca29 adbd df52 20bd 02f1 d63d 7a10 073e
00000080: 5796 28bc 3e40 c0bc 6eb2 783d 81a8 6f3c
00000090: 0873 b4bc f9a9 63bd f24d e4bd e0c2 a7bd
000000a0: 9b3e 05bd 7fc2 bb3d ef9e 5e3b f6f4 f9bc
000000b0: 5888 b93d 61b1 0abc 0c15 d43d ba45 1d3e
000000c0: 54fd e4bd 2e31 3d3c ae5c 873d db9f ef3c
000000d0: b896 dabd a3aa babd 6ebf 133e 7807 b1bd
000000e0: 1b2e f93d bde7 1dbe f6df da3d f5cc 2b3d
000000f0: 80b3 7e3d 13f6 0f3e 51af 04be 315c 8fbd
00000100: 36a7 0cbe 3b4c e9bc cbe5 173d 5bdc 983c
00000110: 3299 87bd 3ddb eb3d a8a1 b63d bf6b 1fbd
00000120: 08dc 95bd bde2 343e f419 b83d 3ef4 84bd
00000130: 7106 20bc 1798 e73c a73a 31bc af4d 88bd
00000140: d013 24be c910 a3bd 8b06 1ebd 2f06 8f3a
00000150: 12aa 8c3d 1f7b 773d 6570 0dbd 349f edbd
00000160: 1743 9e3d 1d9f 2ebe b8ed b4bb 2e1a 07be
00000170: 632e 883d cbb8 2fbd 8386 9a3d 5ee9 3fbd
00000180: 7fbc f03c a9e7 903d 8856 fcbd 947f 4f3d
00000190: a962 513c 656c 9fbd 049c 8ebc a824 233e
000001a0: df0e 6abd aa78 f9bd 39ae 4a3d f96b de3d
000001b0: 3aad f0bd a7e1 3a3d 79de 563d 162b 343e
000001c0: 71cb 083e 322c 983d 7b98 bd3d 6ef0 82bd
000001d0: 92e4 d63c 8e5e 053c a211 9b3d 6168 f0bb
000001e0: 0930 d93d 01f3 ad3c 884e d1bc e06e a53d
000001f0: d4a8 25be af6c 7c3d acea 53bd d446 353d
-0.05311759 -0.002556355 0.14207101 0.06012235 -0.09943892 -0.012125864 0.0013373644 -0.080050245
0.045211036 0.06370821 -0.10537377 -0.02690199 -0.007645617 0.041232802 -0.020916626 -0.057201408
-0.068981305 -0.11896895 0.112024106 -0.0027818128 -0.06494957 0.12142504 0.06930857 0.058669906
-0.1470165 0.1394703 -0.011681217 0.10262249 -0.08455236 -0.039141532 0.10495187 0.13189879
-0.01028975 -0.023468133 0.06071704 0.014627577 -0.022027507 -0.05558202 -0.111476794 -0.08191466
-0.03253041 0.091679566 0.0033969244 -0.030512314 0.09059209 -0.008465142 0.10355577 0.1535863
-0.11181131 0.01154737 0.06609474 0.02925103 -0.106732786 -0.091145776 0.14428493 -0.08644003
0.12166997 -0.15420432 0.106872484 0.04194351 0.062182903 0.14058714 -0.12957503 -0.07000006
-0.13735661 -0.028478732 0.037084382 0.018659761 -0.066210166 0.11516426 0.08917552 -0.038921114
-0.07317358 0.17664619 0.08989325 -0.06491898 -0.009767161 0.028270764 -0.010817206 -0.06655442
-0.16023183 -0.07962186 -0.03858046 0.0010911877 0.06868376 0.06042015 -0.034531016 -0.11602631
0.0772764 -0.17052884 -0.0055215023 -0.1319358 0.066494726 -0.04290084 0.07545187 -0.046853416
0.029386757 0.07075436 -0.12321192 0.050658777 0.01277987 -0.077843465 -0.017408378 0.15931952
-0.05714309 -0.12181218 0.049482558 0.10860438 -0.1175179 0.045625355 0.05245826 0.17594561
0.13358857 0.074303046 0.09257599 -0.063935146 0.026232038 0.008140219 0.075717226 -0.0073366617
0.10604865 0.021234037 -0.025550142 0.08077788 -0.16177684 0.061627086 -0.051737472 0.044257

log_std_parameter f4 [19]
00000000: 413c 22c0 e6b9 28c0 889e 34c0 329f c7bf
00000010: 4059 cbbf f23d 2cbf 0be9 25bf e47e 03c0
00000020: 3ccd 00c0 9b99 2bbf 8669 26bf e2d7 acbf
00000030: 54fa a9bf 81d4 38bf 742f 0fbf e9eb 16bf
00000040: fd4a 3bbf 6704 14bf 8819 24bf
-2.5349276 -2.6363463 -2.822176 -1.5595458 -1.5886612 -0.6728202 -0.6480872 -2.0546198
-2.0125265 -0.6703126 -0.65004766 -1.3503382 -1.3279519 -0.72199255 -0.5593178 -0.5895372
-0.731613 -0.5781922 -0.6410146

net_container.0.weight f4 [128, 69]
00000000: 5a47 73be e32f bdbe 0ec6 aa3e b216 a0bd
00000010: b594 9c3d bc49 553c ce08 c63c 147f c5be
00000020: 83ab af3d 3460 3dbd 87da 7ebd c592 a03d
00000030: 34a8 ea3d 8e59 58be d8d4 643e cee3 45bc
00000040: 8400 b83e add0 3dbe 8f9f c03d 74ce 3ebe
00000050: 7123 773e 240e b5bb 765d 80bd 7179 c7be
00000060: 6b74 babe 5afe 6a3e 6576 77be da7c b83e
00000070: 3903 813e 2b5e 4c3e 802d bbbd d59a 92bd
00000080: 75f4 de3c 0277 85bd 5c75 c0bd 286d 7abb
00000090: 5566 a8bc 4e1c 02be f7c8 a3bd bfd5 abbc
000000a0: fd94 053e eeb0 9dbc 118b e83d 0872 2b3c
000000b0: 1cba 113e e45b 473d 39ca e0bd 1b29 813c
000000c0: 90a3 9cbd 68b7 393c f8ec 03be 0790 b03d
000000d0: d09c f23d e739 613d 0b98 9cba 1297 9bbd
000000e0: e2c6 583d eba3 483d 7589 473d 1a08 063e
000000f0: 10c5 58be cf2c 99bd 9b7c 4ebe 6c96 26bd
00000100: c495 273c c606 1c3b ad43 9e3c ecf4 61bd
00000110: a0a7 343d a0d3 113e 2746 443e 785d 013f
00000120: eb48 a0b9 b299 97be ce1f f13d 6c53 a63c
00000130: 8bc3 83bd 5025 8e3d 5de2 a7bd 0b83 28bd
00000140: b97b c8bd 7b6f e6bd 724e bf3e 70c0 9e3e
00000150: ccad 2bbd 0b7e a83e 80ae 84be 8f99 113f
00000160: a691 123e 06cc 6cbd 7250 4c3e de24 473e
00000170: d693 93bd ed8d 343e 7944 48bd cfa2 7dbe
00000180: 28db 193d d6a6 443e dd43 933e 1c95 1ebf
00000190: f321 82bc 44cf b93b 03ab 0c3c c241 cbbd
000001a0: b39b 70bc cfa5 1abd 1070 8d3c 65fa c43d
000001b0: 3f1f 3b3d 8912 153e 084e 1c3d bc11 30bd
000001c0: b86e 31bc 0a3c 223d dda6 eebd f427 203d
000001d0: d170 a3bd 5810 9ebd 0e70 223b 2488 003e
000001e0: b3d8 1a3d 7e73 413e fb10 253e 1d6f e33c
000001f0: ced1 013d e093 be3d b9a6 163e 9f30 77be
00000200: 001e e83d b8ad 6abd 1857 0c3e 3b75 a2be
00000210: 4d55 f5bd fa51 66be 9617 d3bd d688 c3bd
00000220: 764d 4abd bd2e c73d 6d72 0e3c 0ce8 043f
00000230: 80f5 693e 7ddc 0b3e 7b01 9bbd 7cd4 bcbd
00000240: c1d7 77bd 1cd2 9c3e 1572 4b3e 905b 933e
00000250: 7d0e 2a3d ee2d 803e e47c 41be d2e7 1ebf
00000260: 66b0 fdbe 8986 95be 0a58 25bd 46ae bfbd
00000270: f74e 2fbc ab72 323e 7483 b23d 5cc1 82bd
00000280: 33bd 323d 83a6 3a3d ad98 773d 9421 153f
00000290: 30d4 9fbe 1769 bdbd c392 19bd 7621 8a3e
000002a0: cba8 69bb 0e5c 37bd 5fae 1b3c 29e5 623d
000002b0: 55b7 733d a1b7 bcbd 2d4d dc3c 6cac 9abc
000002c0: f7fd b2bd 71f5 5c3c c8bc 16bd e25c 633c
000002d0: 00f8 1fbc 16b1 443c 6270 0bbc 5da9 ab3d
000002e0: 48b7 e7bd c218 1c3d 3a80 a93c 75b1 66bd
000002f0: 4b11 8abe 0ae2 1abd ff38 d8bd 4126 afbc
00000300: 9601 14bc 6ee2 4b3d 7d4c 033d bfe2 e4bd
00000310: 6f20 403d 997c aa3d 11ba cc3c fb79 c8bd
00000320: 8d1d 813d dd70 95bc 78a5 92bd 5f25 3a3d
00000330: 6c4d 2a3c a16d 803d 8200 323d 589b b03e
00000340: 6edb b9bd 53f7 8fbe 1e73 d9bd f773 93bd
00000350: 5c48 2abd 0b91 9e3f 2d7e 15bf a4ed 6a3a
00000360: e477 343e 6ce5 ee3d 36d1 213d ab88 283e
00000370: 3653 91be a04a 6b3d f047 1b3f 2e68 02be
00000380: f151 843d 9b20 92bd ecb3 4f3f 9891 063f
00000390: 0a05 a0bc bc88 e63b b001 a63e 527c 443e
000003a0: 8da9 f0bc 874e 6bbd a9de 83be cbd0 8dbd
000003b0: ac57 1b3e f8ab 1ebe 9452 6ebc bf41 26bb
000003c0: a044 34bd 9e31 e8b9 f72e 15bd f19c 5d3d
000003d0: 8134 523d ae81 023c 9fbb c5bb 9132 88bc
000003e0: 5930 c9ba 2911 c7bc b200 a0bc 7c7d d03d
000003f0: 38c4 2e3d 28ae 3e3d 4b3a c5bb 859c 68bd
-0.23757687 -0.36950597 0.3335423 -0.07816829 0.07645551 0.013018068 0.02417412 -0.38573515
0.08577635 -0.046234325 -0.062220123 0.07840494 0.114578635 -0.21127912 0.22346818 -0.012078239
0.35937893 -0.18536635 0.094054334 -0.18633443 0.24134614 -0.0055253673 -0.06267826 -0.3895984
-0.36416945 0.2294859 -0.24166258 0.36032754 0.2519777 0.19957797 -0.09139538 -0.07158438
0.027216176 -0.065168396 -0.093973845 -0.0038212035 -0.020556608 -0.1270611 -0.079973154 -0.020975946
0.13045116 -0.019249406 0.1135465 0.010464199 0.14231151 0.048671618 -0.10976071 0.01576667
-0.076483846 0.011335231 -0.12883365 0.08621221 0.11846316 0.05498686 -0.0011947168 -0.07597174
0.052924044 0.04898445 0.048715074 0.13089028 -0.21168923 -0.0747925 -0.2016472 -0.040670797
0.010228578 0.0023807748 0.01931938 -0.055165216 0.044105172 0.14240885 0.19167386 0.50533247
-0.00030571906 -0.29609448 0.117736444 0.02030345 -0.06433781 0.069407105 -0.08197472 -0.041140597
-0.09789223 -0.11251732 0.37364537 0.31006193 -0.041913792 0.32908663 -0.25914383 0.56874937
0.14313373 -0.05781176 0.19952562 0.19447657 -0.07205932 0.17632265 -0.048893426 -0.24769138
0.03756252 0.19204268 0.28762713 -0.6194627 -0.015885329 0.00567046 0.008585694 -0.09924652
-0.014685559 -0.037755784 0.01726535 0.096180715 0.045684095 0.14557852 0.038160354 -0.042985663
-0.01082962 0.03960804 -0.116529204 0.039100602 -0.079805024 -0.07717961 0.0024786028 0.12551934
0.037804317 0.18891713 0.16119759 0.027762944 0.031694226 0.09305549 0.14712037 -0.24139641
0.11333847 -0.057294577 0.13705099 -0.31730065 -0.119791605 -0.22492209 -0.10307233 -0.09547584
-0.04939028 0.097257115 0.008694273 0.51916575 0.22847557 0.13658328 -0.07568642 -0.09220216
-0.060508493 0.3062905 0.19867738 0.28780794 0.041517723 0.25035042 -0.18895298 -0.6207248
-0.49548644 -0.29204205 -0.040367164 -0.09359412 -0.010699979 0.17426555 0.08716479 -0.063845366
0.043637466 0.045568954 0.060448337 0.5825436 -0.31216574 -0.0924856 -0.03749348 0.26978654
-0.0035653587 -0.044765525 0.0095020225 0.055394325 0.05950101 -0.09214712 0.026892269 -0.018881045
-0.08739846 0.013486252 -0.03680113 0.013877125 -0.009763718 0.012005111 -0.008510681 0.08381913
-0.11314255 0.03810955 0.020691026 -0.05632158 -0.26966318 -0.037813224 -0.10557746 -0.021380546
-0.009033581 0.049776487 0.032055367 -0.11176061 0.04690593 0.08324546 0.024991067 -0.09788891
0.063044645 -0.018242294 -0.07160467 0.045445796 0.010394435 0.0627091 0.043457516 0.34493518
-0.09075056 -0.2811838 -0.1061766 -0.07199853 -0.041572914 1.2388014 -0.58395654 0.0008961803
0.1762386 0.116648525 0.03950616 0.16458385 -0.28383797 0.057444215 0.6065664 -0.12735054
0.064609416 -0.07135125 0.81133914 0.5256591 -0.019533653 0.007035343 0.32423162 0.1918805
-0.029377723 -0.057447936 -0.25755814 -0.0692459 0.15170163 -0.15495288 -0.014546055 -0.0025368778
-0.04401076 -0.00044287456 -0.036421742 0.05410475 0.051319603 0.007965488 -0.006034329 -0.016625674
-0.0015349492 -0.024300175 -0.019531582 0.10180184 0.042667598 0.046552807 -0.006018912 -0.056789894

net_container.0.bias f4 [128]
00000000: aed7 b53d ff1a ebbd cc76 86bd 1394 56bd
00000010: 77eb c33d 5b61 e13c c0e0 0f3e 3662 bc3d
00000020: 8e88 123e 71ae 103e e5fc 903d 579e e23c
00000030: 2667 183d 5185 9abd a507 c43d 5496 32be
00000040: 1254 bd3d c524 0dbe 2142 323e be4f d63c
00000050: f722 853d de35 703d 42b7 f3bd 909b d63d
00000060: 91c0 bb3c 1579 a43d 0850 d9bc 3bad cfbd
00000070: 3d46 33bc ae36 f8bd 86e5 d1bd 1c75 683d
00000080: 3d0b 123e c347 de37 5543 d9bc a21c 85bd
00000090: 6704 0b3e 025c 283d 9581 c93d 45ef b7bc
000000a0: d746 dfbd 7783 ef3d cc0e fdbd ec20 49bd
000000b0: 7187 3d3e 7661 06be fa7a a73d d7c9 babd
000000c0: 7807 223e 4b8c 673d d464 69bd 7b70 30bc
000000d0: 5280 c1bd 0f8c b0bd 73d9 dabc baa9 6e3b
000000e0: 8b26 613d 8c20 6b3d 2ff7 be3d 94ea 793d
000000f0: e473 aebd 7c2e 2f3d d483 ee3d 63ed 88bd
00000100: 0e84 093d d496 253e 3aa5 bf3c 0b24 ffbc
00000110: 8ae7 893d 596e 1d3d 2cb0 423b 4365 32be
00000120: f7df 1e3e 28f4 fb3d 1d4e ec3c 133c 113e
00000130: b78b fc3d 1c52 a4bc 0896 063e c880 c33d
00000140: de18 c8bc 8615 5d3d eac1 483e d06d a23d
00000150: 3061 8e3d be61 d23d 7744 d93d 0ca9 263e
00000160: 8309 553d 4c85 403e ac7a 98bd c23e b7bc
00000170: b6be 443d 8aee dd3b 2ea0 5e3d 7fb0 79bd
00000180: e0a9 c43d 95ab ba3b 6ce7 b0bd 9a86 a2bc
00000190: 99d3 4f3d a92a 0a3d 5b0c d6bd 5eb0 763a
000001a0: 9d0b 043d ab86 be3d c7b5 fc3c 2cdb 57bd
000001b0: fabf 8cbd 9b35 3fbe ff90 20bd a2ce 1bba
000001c0: ec57 debd 3549 ddbd ebe8 323e 6840 263e
000001d0: d3ab 93bd e42b d13d 8e9d 513c 643e 86bd
000001e0: d805 153b adaa c2bd edb9 273e 713d c7bd
000001f0: 7f95 823d 236e 16be 0a22 80bd be23 083d
0.08879028 -0.114797585 -0.065656275 -0.05238731 0.09566396 0.027512243 0.14050579 0.0919842
0.14309904 0.14129044 0.07079486 0.027663393 0.037207745 -0.07544959 0.095717706 -0.17440158
0.09244551 -0.13783558 0.17408039 0.02616107 0.0650081 0.05864512 -0.11900188 0.1047889
0.022918971 0.08030907 -0.02652742 -0.10140463 -0.010942039 -0.12119804 -0.10248856 0.05675231
0.142621 2.6497879e-05 -0.026521364 -0.06499602 0.13575898 0.04110337 0.09839169 -0.02245296
-0.109021835 0.11694997 -0.12356338 -0.049103662 0.18508698 -0.13123116 0.08177753 -0.09120529
0.15823162 0.05653028 -0.056980923 -0.010769005 -0.09448303 -0.08620464 -0.026715016 0.0036417083
0.054968398 0.057404086 0.0932449 0.061014727 -0.08518198 0.04276894 0.11646238 -0.06685903
0.033573203 0.16170818 0.023394216 -0.031145116 0.06733616 0.038435314 0.0029707057 -0.17421441
0.15515123 0.123024285 0.028845841 0.14183073 0.12331336 -0.020058684 0.1314317 0.095460474
-0.02442592 0.053975604 0.19605222 0.07931101 0.06952131 0.10272549 0.10608762 0.16275424
0.052011024 0.18800849 -0.07445273 -0.022368792 0.04803344 0.006772821 0.054351978 -0.060959335
0.096027136 0.0056967237 -0.0863789 -0.019839574 0.050738905 0.03373209 -0.10451575 0.0009410436
0.032237638 0.093030296 0.030848397 -0.052699253 -0.06872554 -0.18672793 -0.03920078 -0.00059435715
-0.108566135 -0.10804979 0.17471664 0.16235507 -0.07210507 0.102134496 0.012793912 -0.06554869
0.002273908 -0.0950521 0.16379519 -0.09728516 0.0637617 -0.14690451 -0.062564924 0.03323721
