humanoidprac/humanoidprac/scripts/skrl/logs/skrl/h1_flat/joint_experiment_ver3/2025-09-18_07-19-35_ppo_torch/checkpoints/agent_7200.pt (torch, 549922 bytes, 40 tensors)

log_std_parameter f4 [19]
00000000: 2399 17c0 e56f 16c0 e599 21c0 040d b6bf
00000010: cf6f b9bf 2d6f 29bf 68b5 1cbf 771f f1bf
00000020: 1bee ecbf c07d 1dbf 3a2f 19bf 57d2 a2bf
00000030: 904d 9dbf 50ac 12bf c637 29bf b03c 27bf
00000040: 86f0 22bf 10d6 1bbf b976 1ebf
-2.3687217 -2.3505795 -2.525018 -1.4222722 -1.4487246 -0.66185266 -0.61214304 -1.8837727
-1.8510164 -0.61520004 -0.59837687 -1.2720441 -1.2289295 -0.5729418 -0.6610073 -0.65326977
-0.6364826 -0.6087351 -0.61899906

net_container.0.weight f4 [128, 69]
00000000: e7a0 59bd 1c0f ffbd e407 3f3e 9f07 babd
00000010: b017 13be d44c 69bc 1115 65be fedb d6be
00000020: b47b 553d 0798 e8bc 87da 7ebd 8443 953e
00000030: 53af 5cbe f150 a0be 6cbf c5bd 9d2f 01bf
00000040: 22d2 0a3f 4e93 6abc 9f7c 5cbe 6dbb 4a3e
00000050: b2c5 e2be 1daf 013f c62e a83a 6e35 cebd
00000060: a2cd 93be a404 b03c f444 52be 48d4 0bbe
00000070: c78d d73e d3d7 36be 10fd 1dbe 4652 583c
00000080: 6eea 0fbc e441 85bd b088 a3bd f44d fc3c
00000090: 557f dc3c 7d8f 4dbc 46cd 49bd 7367 a83d
000000a0: 37aa d13c 33cc e6bd 97db a83c 70b1 273d
000000b0: e0f9 143e 860f b23b d094 8dbd 9446 5d3d
000000c0: 1c8c 88bc cfd5 dcbd d653 b93c b92c 5ebc
000000d0: d7ba 113d b16b b03c f2b9 4bbd dea1 44bc
000000e0: cb04 e53d 4992 a3bd 2db9 5cbb 54b7 f63d
000000f0: afb6 93bd d82c 15bd 0670 e3bd 9b3e d3bd
00000100: cf29 46be 1871 543d 5ff0 8a3c 9c12 753c
00000110: a410 5cbc f466 73bd 9e4b 86be f77a d03c
00000120: eb77 69bd c98b 5abe f70c 133e 8c93 52be
00000130: 2734 aebd 440c 343d ccff 693e 0b83 28bd
00000140: c20d 79be 8ca8 9a3d 871f 133e b32c a73e
00000150: 9ae9 263f 7edc cd3e 3e5a ad3d db55 c43d
00000160: 128c 0b3e a193 073e e437 693d 2d66 a9bd
00000170: 4f21 8f3d 0488 0f3e c696 b43e f342 d5be
00000180: 1182 443e a1c7 843e dff8 88bd 1393 a9bc
00000190: 712d 5cbd 4a4c 9a3d 5ffb 493b 79d9 1cbd
000001a0: 60f2 3fbd cb2c e6bc 586d ac3c c9da 8a3c
000001b0: c23f a93d 8c64 b23d 109c a5bc 19c4 58bd
000001c0: d2a5 663d 872d 413d ebf2 d43c dbab 0e3e
000001d0: 6535 d73c 380d 993d c8a3 f33a e7cd 423d
000001e0: b534 ddbd 18cd ee3d 9c6c 4c3e 3366 8f3d
000001f0: 2ab0 263d e8fd 0c3c 8f45 0e3e 0c97 e0bd
00000200: 6c51 7c3d 5ab0 59bc 199b 6e3e b64f dabd
00000210: b2c6 b9bc a322 26be a325 16be faef 17be
00000220: fe32 88bd 5200 c6bd a757 9cbd 9a55 983e
00000230: 727a 0cbd e590 1ebd 51eb 5dbc c54d 9cbd
00000240: bbd3 6fbe 2876 0a3f 9578 403e 6b42 873e
00000250: 7d0e 2a3d 37ea 37be 48b0 4abe 1625 4ebe
00000260: 47ae 00bf 1917 1c3e f88a f3bd 5a58 663e
00000270: 7c2b 233e 0276 99be 761d 3e3c ece7 afbe
00000280: 5c31 6e3e 796e 0cbd 105d a03d 90a1 4ebe
00000290: f433 4cbf 3465 e43d d823 c8bd 2b6c 12be
000002a0: 05e4 be3e 3944 8d3d e715 0f3d 6889 363c
000002b0: 41b5 033e 08e1 8e3c 30bc 073c 84d6 363d
000002c0: 5bea a6bd 21df efbc eaa9 873d 7fda a5bd
000002d0: 3631 52bc bfdc 1cbc b614 943c 925e 253d
000002e0: 460c 68bd fd58 0dbd 766d 6d3d bab4 47bd
000002f0: 9676 463c 2dee 8e3c 1511 8cbd b95f 6f3e
00000300: 0cb6 b4bc a0ff 163e 9905 8ebd 4a16 adbd
00000310: 1dbd d63d 3358 cf3d a7b8 1f3d d03e 81be
00000320: dd76 81bc de70 62bd 82d2 d6bd 83b6 53bc
00000330: dbda b03d e254 8d3c aa69 69bc d8a1 a43e
00000340: e25c b33c bc83 b5be dd92 c4bd 4e78 7b3d
00000350: a646 97bb d3c1 a83f aba4 dcbe 0b0c b7bd
00000360: cf9e babc 6ce5 ee3d 0a27 5bbd c5a9 f83e
00000370: 9ef6 fabd 2679 4d3e fb1e 0f3f b1a1 02be
00000380: 02ed 2cbd ff9c 063e 3d02 163f 4fc4 9b3e
00000390: 0465 263e f3b7 983d 9e9a 9d3e a30c 0f3e
000003a0: f0f3 983e 9bd1 8e3e f873 00bf fb00 dabd
000003b0: 34dc 27be b263 0dbe 190c b53b 165c f1bc
000003c0: 9a70 ffbc 5134 973c 3f34 78bd 388c 9f3d
000003d0: c307 5e3d 8070 4c3a a46e e8bc 9cf8 8ebd
000003e0: a534 3fbd f380 653c 4aa8 5bbb 755c 973d
000003f0: 4cbd 123c 4254 08bc 392b 8f3d 30a6 28bd
-0.053131964 -0.12454054 0.18655354 -0.09083485 -0.14364505 -0.014239509 -0.22371317 -0.41964716
0.052119926 -0.028392805 -0.062220123 0.29153073 -0.21551256 -0.31311753 -0.096556515 -0.5046328
0.5422689 -0.014317347 -0.21531914 0.1979806 -0.44291455 0.50657827 0.0012831322 -0.10068785
-0.28867823 0.021486588 -0.20534116 -0.13655198 0.42100355 -0.17855768 -0.15428567 0.013203209
-0.00878392 -0.06506708 -0.079850554 0.03079889 0.026916185 -0.012546417 -0.04926803 0.082228564
0.02559386 -0.11269417 0.020612521 0.040940702 0.14548445 0.0054339794 -0.06913149 0.054022387
-0.016668372 -0.10782968 0.022622984 -0.013560467 0.035578575 0.021535726 -0.04973788 -0.012001483
0.11182555 -0.07986886 -0.003367971 0.12046686 -0.072125785 -0.03641972 -0.11105351 -0.103146754
-0.19351886 0.051865667 0.016960321 0.01495805 -0.013431702 -0.059424356 -0.26229566 0.02544926
-0.05699913 -0.21342386 0.14360414 -0.20564097 -0.08506041 0.04395701 0.22851485 -0.041140597
-0.24321654 0.07551679 0.14367495 0.3265129 0.652002 0.40207285 0.08464478 0.09586688
0.13627651 0.1323991 0.056938067 -0.082714416 0.06988775 0.1401673 0.3527128 -0.4165264
0.19190241 0.25933555 -0.066880934 -0.020700013 -0.053754274 0.07534082 0.0030819995 -0.038293336
-0.046862006 -0.02809753 0.021048233 0.016950028 0.08264114 0.08710584 -0.020216018 -0.05292139
0.056310482 0.04716256 0.025994739 0.13932745 0.026270578 0.074732244 0.0018588239 0.047559645
-0.10801069 0.11660212 0.19963306 0.07001915 0.040695347 0.008605458 0.13893722 -0.1096631
0.061601087 -0.013286674 0.23301353 -0.10659735 -0.022677753 -0.1622415 -0.14662795 -0.14837638
-0.06650351 -0.0966803 -0.07633906 0.2975281 -0.03429646 -0.0387124 -0.013544873 -0.07632021
-0.23420613 0.5408654 0.18795998 0.2641786 0.041517723 -0.1796044 -0.19793808 -0.20131335
-0.50265926 0.15243186 -0.118917406 0.22494641 0.15934557 -0.29972845 0.011603704 -0.3435663
0.23261017 -0.034285042 0.0783025 -0.20178819 -0.79766774 0.111521155 -0.09772462 -0.14299075
0.3728334 0.06897778 0.034932997 0.011141159 0.12862112 0.017441288 0.0082846135 0.04463817
-0.081501685 -0.0292812 0.066242054 -0.080983154 -0.012829116 -0.009574114 0.018076282 0.040373392
-0.05665233 -0.034508694 0.05796572 -0.04875634 0.012113234 0.017447555 -0.06839196 0.23376359
-0.022059463 0.1474595 -0.069346614 -0.08451517 0.10485289 0.101242445 0.038994458 -0.25243235
-0.015803749 -0.05528342 -0.1048937 -0.012921932 0.08635493 0.01725239 -0.014246384 0.32154727
0.021894876 -0.35452068 -0.095983244 0.06139403 -0.0046165762 1.318415 -0.43094382 -0.08937844
-0.022780804 0.116648525 -0.053504027 0.48567024 -0.1225407 0.20065746 0.5590665 -0.12756993
-0.042218216 0.13145827 0.58597165 0.3042321 0.16249472 0.074569605 0.30782026 0.13969664
0.2987361 0.2789429 -0.50176954 -0.10644718 -0.16392595 -0.13807562 0.005525124 -0.029462855
-0.031181622 0.018457564 -0.0605967 0.077904165 0.05420662 0.0007798746 -0.02837307 -0.06981012
-0.046681065 0.014007795 -0.0033517056 0.07390682 0.008956265 -0.00832087 0.06990666 -0.041174114

net_container.0.bias f4 [128]
00000000: 8cc4 123e 77a0 8dbd 3537 4dbd ecfd 043a
00000010: 8976 a33d 7a3e 873c b12e e23d d2a4 a93d
00000020: c23a be3d 5039 8b3d 1ccf 6a3c ffb8 15bd
00000030: 3e21 033d 3762 9bbc 0e6d 453e 0f64 09be
00000040: 2144 b63d aded 13be a3d9 463e 6673 a73d
00000050: 2da8 5e3d 909d 413c 4d64 6cbd 0a1c ca3d
00000060: 83fd a23d b0c2 e93d f03f cbbb 59e0 f1bd
00000070: 0455 99bd aeb9 d1bd dbe4 253c c772 4fbd
00000080: bc44 5b3e 5cc3 123d 1f02 b1bd 9b11 83bd
00000090: ea66 253d 8318 ce3c 2e9e 873d 71dd 76bd
000000a0: f18e 3ebd 51e8 dd3d 6766 c3bd c573 eabd
000000b0: dd38 123d bfad 26be 470e 933d 60d1 7bbd
000000c0: 669d 363e b22c 4e3d 5877 1abe 78a7 abba
000000d0: 74cc 92bd 0bd3 86bd 3173 32bd c03c 2f3e
000000e0: 65da 9c3d 47c3 893d a888 df3d ad6c 333e
000000f0: a145 8abd 4df0 913c dc47 0b3e 5bbd dfbb
00000100: 52b3 443d 722b 3b3e 5fd2 a93d 8138 ef3c
00000110: bcd3 a63d 26c0 8e3d e682 9a3d 29ce 00be
00000120: 44b7 f93d 26f6 8d3d 3ddc 2f3d 27c4 f13c
00000130: 1c6c 3e3e a88c 86bc ada3 653e 9a8d 4bbb
00000140: 7675 6fbd 06f6 e53b e5f2 3d3e 7c17 b83c
00000150: 8534 e83d 4c86 083e 37be f53d 4ae5 863e
00000160: 37ac dbbc ba9e 223e e5a5 a43b 1058 a8bd
00000170: 585e a6bb fd0c a7bd b972 cf3a 4577 85bc
00000180: 8db8 2e3d 94bb e3bd ab2a f6bd fe14 cabd
00000190: b031 0d3e 38b1 b8b9 0e33 f1bd 8582 c5ba
000001a0: a996 6e3b 87f8 e23d d828 563d abc4 9ebd
000001b0: 24e4 7dbd ecc8 17be 91fe d5bc f715 0e3d
000001c0: 4ae3 87bd dfa3 94bd 1df8 793e ca92 223e
000001d0: ac30 b5bd f2d1 d03d 0f62 b4bc 1cd9 91bd
000001e0: 07b7 0e3c f824 d3bd f323 283e 1de2 5abd
000001f0: 1715 483d d6b8 b1bd 889c 6dbd f9a2 a63d
0.14332789 -0.06915372 -0.050101478 0.00050732377 0.07981593 0.016509283 0.11044062 0.0828339
0.09288551 0.06798041 0.014331605 -0.03655338 0.032014124 -0.01896773 0.19279882 -0.13417076
0.08899713 -0.14446135 0.1941896 0.081763074 0.054359604 0.011817351 -0.05771284 0.09868629
0.0795851 0.11414087 -0.0062026903 -0.11810369 -0.074869186 -0.10240494 0.010125364 -0.05064657
0.21412939 0.03583084 -0.08642983 -0.06399842 0.04038135 0.025158172 0.06621967 -0.060269777
-0.04652304 0.108353265 -0.09541016 -0.114478625 0.03569876 -0.16277216 0.071804576 -0.061478972
0.1783348 0.050335594 -0.15084589 -0.0013096174 -0.071679026 -0.06583222 -0.043566886 0.17113018
0.07658843 0.06726699 0.10914737 0.17521925 -0.06751562 0.01781478 0.13601631 -0.006827993
0.048022576 0.18278292 0.08292078 0.029201748 0.08145854 0.06970243 0.07544498 -0.12578644
0.12193158 0.06931715 0.042934645 0.029512478 0.18595928 -0.016424492 0.22425719 -0.0031059743
-0.05846163 0.0070178537 0.18549688 0.022472136 0.11338142 0.1333248 0.11999171 0.2634681
-0.026815517 0.15880862 0.005024659 -0.082199216 -0.0050771646 -0.08156774 0.0015827037 -0.016292224
0.04265647 -0.11119762 -0.12019857 -0.09867285 0.13788486 -0.00035227253 -0.11777316 -0.0015068805
0.0036405718 0.11082559 0.052285045 -0.07752355 -0.06198515 -0.1482274 -0.026122363 0.034688916
-0.06635149 -0.072578184 0.24411054 0.15876308 -0.08847174 0.10196294 -0.022019414 -0.071214885
0.008710629 -0.103097856 0.16419964 -0.053438295 0.048848238 -0.08677833 -0.058010608 0.08136553

net_container.2.weight f4 [128, 128]
00000000: df26 c8bc 52d3 c8bd 03c5 483d 8360 21be
00000010: dc2f 9f3c a645 c9bb 3fd2 2abc 1613 99bd
00000020: 10bb 57bd d770 873d 05f3 003c ddee ccbd
00000030: 322c 163e 82d1 c9bd 6714 393d 2860 713d
00000040: 6833 1abe 77cf 193d 2710 09bb 313f 033e
00000050: 2c8a f7bd 21c7 453d 3efd bebc 56dc c9bd
00000060: dc5c 84bd 64ef 82bd 83dc e8bd 2873 b33d
00000070: 77f8 13bc f65c d5bc 14fe 53bc f5db 953d
00000080: 91f3 c7bd 0719 3bbe 9103 0bbe e68b 363d
00000090: 2fa7 31bd 560a 853d 84e4 ac3d 59d7 733d
000000a0: a48e ac3d dc37 a63c 345d 29be a06b 9fbd
000000b0: 49a0 893b 3da3 df3c c435 d2bd 8647 e13c
000000c0: e708 023d a4a2 c13d 8999 b13d df3e 193e
000000d0: e049 acbd 00a0 9bbd 9530 5dbc 09c2 0b3b
000000e0: 5e22 bfbd 27b4 053a 3338 3e3c 3330 96bc
000000f0: 8b18 003e f8ea 593b 838c 943d 2248 a8bd
00000100: fd1a 9b3c 9dec a7bd e55f 6abd f1e4 92bd
00000110: 40c9 34bd e0c7 a03b 4599 473d 0abe 453b
00000120: e71e 5e3d 6925 99bb 5df9 32bd 2ac9 783d
00000130: a557 6f3c 8bb8 95bd c1ff 453d 5f12 993d
00000140: 50eb 1b3e 785e 963d 5bfe a0bc 204c 703d
00000150: 1cab e0bd c14b b53c 5864 cabd d3f1 39be
00000160: 158f 943d 7c2a dabc 7fb9 64bd 945c 8a3c
00000170: ef96 27bd 3ee0 2c3d 4da9 94bd 1c09 04bd
00000180: d0ed 923d b309 1d3e e0f2 793d add2 ae3c
00000190: 155b 663d f2c9 5c3d 479a cabd 02ff a4bd
000001a0: 5617 ab3d 3a41 b6bb 4de8 b7bd d6bd dbbc
000001b0: 5f6d 6b3d bbe8 78bd ba5b e6bc 1044 1abc
000001c0: 85ea 9d3c a19d 823c 928c adbd 1cb7 8abd
000001d0: 171a 9bbd e6a8 14be ec94 763d 0fc1 063d
000001e0: 6a78 01bd 9d06 f33b 291c a4bd ca34 b23d
000001f0: 3fd7 fc3d 38a1 bc3c d01d 233d 3fcb e2bd
00000200: b560 4f3d e66b f2bc 40f7 c0bd d466 86bc
00000210: f833 233d 307b 233c 86f3 063e 340e 153e
00000220: 2a87 843d 769b 17be 0eb0 32bd 394d 5e3d
00000230: bf65 93be 395d b33d 8f9c c5bd f797 85bd
00000240: f616 dc3d 5aae 3fbc f3ba 2c3c 1632 cebd
00000250: ab62 5bbc a226 14be 27c9 e53d a7d5 e8bb
00000260: 2457 67bd 18ab 023d 1ded 66bc 78d9 b7bc
00000270: 3480 00bd ceed 033c 02fe 6c3d 509d 32be
00000280: 0a6e 1a3d e5f6 0d3d 522e 333c 932f d3bd
00000290: 9ff0 6c3d d322 2fbd 1c48 f7bd 4d56 d7bd
000002a0: 803d 343d 03ca fc3c c013 20bd 9e9e b53d
000002b0: 4ed6 0cbd ab22 ba3d c685 6c3d 5cc7 b43c
000002c0: 9d5c 88bc 2d01 ccbd 0552 29bd dc8f 96be
000002d0: 6ed9 b8bc d4a9 443d 18c2 8b3d c316 8abe
000002e0: 0f2d 85bd ddf2 15be 786f c1bc 8518 bf3d
000002f0: ff09 77be c7de 81bd 9100 cbbd 4858 e33d
00000300: be51 04be 0637 f6bc 721a 95bc 9e99 d8bd
00000310: dab8 a1bd 6ae4 193d e9f9 2f3d 597d 693b
00000320: 9b80 9dbd 1790 963d a40d 6cbe c380 e93c
00000330: ea2b 95bb 9beb 01be 8662 223d 758b 5bbd
00000340: 5ac7 eabc a03a 18be 7756 85bd 4d7c f6bc
00000350: d747 18be 6051 55be 1138 ad3d b4ad 9dbd
00000360: f636 51bc b7ef 22bd bc50 8bbd 1472 4d3d
00000370: ca40 063c c787 ed3c b93c 55bd 5dde 93bc
00000380: 3f6a 76bd 2bf4 bebc 8cdf 3e3c 5a61 da3c
00000390: ca32 e6bd 9c41 65be 7f25 08bc 6277 133e
000003a0: f7ad 0abd 43e4 b33c 3f3a 39bd 96be 8bbd
000003b0: 090c 293a 5b81 793a 31ff d7bc 33fc 48be
000003c0: 1ed2 33be c0db b53b adf7 403d 5b9f 7cbd
000003d0: 4ef8 91bd e8e7 1f3d a195 3e3e a010 b93d
000003e0: 2250 dd3d 00c0 1fbd a07f 0fbe 7d2e a4bd
000003f0: ddec 40be 6c8a 5a3d c0d7 8c3a 700b edbc
-0.024432598 -0.09805931 0.04901601 -0.15759473 0.019432 -0.006142336 -0.010426103 -0.074743435
-0.05266863 0.06613319 0.00787044 -0.10006497 0.14665297 -0.098544136 0.045185473 0.058929592
-0.15058672 0.03755137 -0.0020914169 0.12817074 -0.12086901 0.048285607 -0.023314115 -0.09856479
-0.06463024 -0.063933164 -0.11370184 0.08762199 -0.009031407 -0.026045304 -0.012938995 0.07317344
-0.097632535 -0.18271266 -0.13575579 0.04456701 -0.04337233 0.06496112 0.084420234 0.059531543
0.08425644 0.020290308 -0.1653946 -0.077842 0.0042000157 0.027299518 -0.10264161 0.027499925
0.03174677 0.09454849 0.08671863 0.1496539 -0.08412528 -0.07598877 -0.013500352 0.002132537
-0.09332727 0.0005100392 0.011610079 -0.01833353 0.12509362 0.0033251625 0.07253363 -0.08216883
0.018933767 -0.08199427 -0.05722036 -0.07172573 -0.04413724 0.0049066395 0.048730154 0.0030173087
0.05422869 -0.004673649 -0.043694843 0.06073872 0.014608298 -0.073105894 0.04833961 0.07474207
0.15226483 0.07342237 -0.019652536 0.05866635 -0.109701365 0.022130849 -0.0988242 -0.18158655
0.07253853 -0.026631586 -0.055840965 0.016889848 -0.040915426 0.04220604 -0.07258854 -0.03223525
0.071742654 0.15335731 0.06102264 0.021340692 0.056239206 0.053903528 -0.09892707 -0.080564514
0.0835406 -0.005561975 -0.08979855 -0.02682392 0.05747735 -0.060768824 -0.02811991 -0.009415641
0.019276867 0.015944304 -0.08474077 -0.067732066 -0.075733356 -0.14517555 0.060200617 0.03289896
-0.031608976 0.00741656 -0.080131836 0.08701475 0.123457424 0.023026094 0.039823353 -0.11073922
0.050629336 -0.029592466 -0.09422159 -0.016406454 0.039844483 0.009978101 0.13178834 0.145562
0.06471093 -0.14805397 -0.04362493 0.054272864 -0.28788564 0.08758015 -0.09649002 -0.065231256
0.10746567 -0.0116992835 0.010542619 -0.10068147 -0.0133902235 -0.14467862 0.112200074 -0.0071055475
-0.05647959 0.03190145 -0.014094618 -0.022442564 -0.031372264 0.0080523025 0.05785943 -0.17442822
0.037702598 0.034659285 0.010936337 -0.103118084 0.05784666 -0.04275782 -0.12074301 -0.105145074
0.044003963 0.030858045 -0.039081335 0.088681445 -0.034384064 0.09088644 0.057744764 0.022067718
-0.016645724 -0.09961162 -0.041337986 -0.2940663 -0.022564616 0.048013523 0.0682413 -0.2697049
-0.06502735 -0.14643426 -0.023612723 0.093308486 -0.24124907 -0.063413195 -0.099122174 0.11100823
-0.12921807 -0.030055534 -0.018201087 -0.10576175 -0.07896586 0.03757135 0.042962942 0.0035627692
-0.07690545 0.07351702 -0.23052078 0.028503781 -0.004552354 -0.12687533 0.03964474 -0.053599793
-0.028659511 -0.14866114 -0.065106325 -0.030088568 -0.14871155 -0.20831823 0.084579594 -0.07699147
-0.012769451 -0.03977939 -0.06802508 0.05015762 0.008194158 0.028995408 -0.052059863 -0.018050367
-0.060159918 -0.023309788 0.011649977 0.026657749 -0.11240156 -0.22388309 -0.008309721 0.1440101
-0.033857312 0.02195943 -0.045221563 -0.06823461 0.0006448632 0.00095178717 -0.026366802 -0.19627456
-0.17560622 0.005549878 0.047111202 -0.06167541 -0.071274385 0.039039522 0.18611766 0.09036374
0.108063 -0.039001465 -0.14013529 -0.080166794 -0.18840356 0.053354666 0.0010745451 -0.028936118

net_container.2.bias f4 [128]
00000000: f8fc 8fbb 6fba efbd d2b5 81be b790 8d3d
00000010: 9ba2 73be 8d65 1bbb f98a c93d 723a 2a3e
00000020: b124 1e3e 9aae e5bd d0e3 393e 30ab 2ebe
00000030: 4769 0e3c d843 acbd 8fcb 6e3d d213 b4bc
00000040: 6282 a7bd 6648 8ebd 349f 9dbd 0998 d33c
00000050: 7346 3f3e fbab dabd 3eed c8bb 163d b1bd
00000060: 977b 8cbd 12d5 a83c fb1b 383d f1a2 1fbe
00000070: 7206 4f3d 5e94 e9bd 42b4 c5bd e4ec 6cbd
00000080: cf81 89bb 1bc3 bfbd 5572 a13d 1ccf 86bd
00000090: c2c3 c2bd b6ae 183d f109 48bd 0d2f bdbd
000000a0: 8cc9 20be f4a1 dabd b70e 3dbe cc6b 91bb
000000b0: 6cd5 44bd 1cd8 ad3d 90db bc3d 16e3 20bc
000000c0: bedb 5e3d 4529 11be cd13 b03d 51dc 13be
000000d0: 0fde 73bc 0c9a 043d 3100 22be 329f f9bc
000000e0: 1331 1b3e f1de 79be 42a9 153d ff49 0e3e
000000f0: bd58 4fbe 106d 01be db42 0fbe 2eac a73d
00000100: 06d8 94bd b9e7 78be 3c85 fe3d 3075 403c
00000110: 4e0f e6bd a54e a43c a561 9fbd aed8 e1bd
00000120: f74e 0abd 8e01 58bd c4d0 83bd c56f c1bd
00000130: 6d8a 773d 5cc8 debd 7be8 c2bd 9297 81bd
00000140: 6817 55bd 5c9b 9dbd 61f1 743c 4a08 40bd
00000150: 4af0 e2bd c971 03bd e47b 7f3c a339 2c3e
00000160: 7b4e b93c dcd7 8abc 7f19 bbbd 9933 a53d
00000170: f320 17be 2ba4 7dbd b733 14be ae95 ab3c
00000180: 931b e3bc 0e54 893d 6bbf 43be 4933 f43d
00000190: fb5b 20be eee5 edbd b9b6 7dbd c090 23be
000001a0: 0c9a bfbd 1c56 e5bd 696b 95bd d619 9bbd
000001b0: 70bd 59be 2e0d 45bd e044 8b3d 18bb 3d3e
000001c0: ce81 97be a211 343d f71b 853d 97b1 11be
000001d0: 86a6 9d3d 4c71 003d d04d 2abe 349c 2cbd
000001e0: f3e1 de3d 769e 49be c7ad 923d c24a 9a3b
000001f0: 6764 263e 56a7 debc 3282 1ebe 7b87 26be
-0.00439417 -0.11705481 -0.2533403 0.06912368 -0.23792498 -0.0023711652 0.0984096 0.16623858
0.15443684 -0.11214943 0.1815331 -0.1705749 0.008692092 -0.08411378 0.058299597 -0.021982107
-0.081791654 -0.06947403 -0.07696381 0.025829332 0.18679218 -0.10677334 -0.006131797 -0.08654229
-0.068595104 0.020609412 0.04494856 -0.15589501 0.050543256 -0.11405252 -0.09653522 -0.057843104
-0.0041963826 -0.09363385 0.07883135 -0.06582472 -0.09509994 0.037275992 -0.048837606 -0.0923749
-0.15701884 -0.10675421 -0.18462645 -0.004437899 -0.048055097 0.08488485 0.09221566 -0.0098197665
0.05440878 -0.141759 0.08597527 -0.14439513 -0.014884486 0.032373473 -0.15820386 -0.030471418
0.15155439 -0.24401452 0.03653837 0.13895415 -0.20248695 -0.1263926 -0.13990347 0.081871375
-0.07267766 -0.24307145 0.12427756 0.01174669 -0.11233388 0.020057032 -0.07782296 -0.110276565
-0.033766713 -0.052735858 -0.06436303 -0.094451465 0.060434747 -0.10878059 -0.095169984 -0.06327738
-0.052024275 -0.07695648 0.014950127 -0.046882905 -0.11080988 -0.032090936 0.015593503 0.16818862
0.02262043 -0.016948633 -0.09135722 0.08066482 -0.14758663 -0.06192414 -0.14472853 0.020945396
-0.02772311 0.06705485 -0.19115989 0.11923844 -0.15660088 -0.11616121 -0.061941836 -0.15973186
-0.09355554 -0.11198065 -0.072958775 -0.07573287 -0.21263671 -0.048108272 0.06800246 0.18528402
-0.2959122 0.04396213 0.064994745 -0.14227901 0.076977775 0.03135805 -0.16631246 -0.042141154
0.1088294 -0.19689354 0.07162052 0.004708619 0.16249238 -0.027179401 -0.15479353 -0.16262619

net_container.4.weight f4 [128, 128]
00000000: c03f 6dbd b54b 273e d0e9 a6bc 4241 3dbd
00000010: c1a4 9d3d a1a1 33bd a9c3 183d ab53 053d
00000020: 9c1d 57bd c8d3 0bbd 87a0 35bd 2c27 0dbb
00000030: 5d8a 043d 195c 5cbc 077c d73b a591 09bd
00000040: c96e c8bc 6cdd d0bc ec35 f3bc e66c d83d
00000050: b3ba 02be 8d83 cabd 93b3 4f3d 5209 8dbd
00000060: 2349 c1bc 291c cd3d 9139 253c e901 52bc
00000070: 0ae4 d63d d7df 693d 3f17 8bbc 4cdf 9a3d
00000080: e4aa c6bd 25ba e33b e8e8 cbbc b6f1 0abe
00000090: 0992 98bd 7b75 3ebd f3a6 3d3c 43d0 9fbc
000000a0: 8e2d 05bd 09bd 7a3c 20fd 8c3c f41c 023c
000000b0: 7820 5f3c f9a8 a8ba 29dc c5bb 6dc0 ff3d
000000c0: 84ba c2bb a893 463c 6c96 b63d 451c 27bd
000000d0: ac17 d23d 8dcb a8bb 652b 5b3d 16b5 bbbd
000000e0: 344d 803a 77be 84bd 67df 383d 05c7 403d
000000f0: e93a d2bb bbfe 183d f930 42bc bcbe 15bd
00000100: 781e 67bd f179 19bd 9700 cabd 065b 68bd
00000110: 8871 bf3d 4feb 3f3c 5ab9 323b 7843 c53d
00000120: 72db fb3d 6209 c3bd 8eff 0cbe a6f4 cabd
00000130: 86b8 7b3d f843 723c f996 c63d 08bf 15bd
00000140: ed14 a8bc f41f f23c ea1c 12bc c9e0 71bd
00000150: faf0 953d 2fbb 25bb a076 cebc 6b8b ea3c
00000160: 6117 bebb 3323 3b38 7526 84bc d111 37be
00000170: 983d b73d dd17 603d 4a2e 89bd a8c2 ebbd
00000180: dca1 7e3b ce05 8b3d eb37 34bd b58f eb3c
00000190: da4d d33d 3a34 cabb 4003 d13c 61b1 613c
000001a0: c713 8e3d 83da 823c 0e62 9e3d 0de0 8f3c
000001b0: f99b 1ebd cfdb b3bd f187 d3bc 3700 663c
000001c0: 5a34 0dbe e604 013d 5567 57bc f599 843d
000001d0: 0d14 67bd 6b2a 083d 849b b8bd c6a9 cfbc
000001e0: 5fb8 02be e366 23bd 090b a5bc 0b0a 7f3d
000001f0: 3671 3d3c 373f 62ba abae 333e 39ee 443c
00000200: 3c38 c93d 59c1 6cbd 3e6b 55bc ff52 323d
00000210: e2e0 b23d 318d 8bbc 5a68 573d 4e18 8dbd
00000220: b2ac dcbd 2921 82bd 79b6 713d 4057 a8bc
00000230: b6b5 283d 1ac9 183d 33d3 de3d 875b c3bd
00000240: 2e7f e7bc 8eed 61bd 1547 03bd 515f 993c
00000250: a819 f43c 03b1 003d 3aac 063d 62b9 bf3d
00000260: f722 853d f677 253d c55d 003d 56ec 7bbd
00000270: 5715 553d 0a4d 8ebb 3e24 773d 38c8 cd3d
00000280: df7e 7d3d 7cff ec3d 700e 8b3c fcce 2ebc
00000290: e76b 993d 0c2a 81bd 980c f3bb 11a4 cebc
000002a0: 119f d13c 3a73 5ebd 248e 98bd fa80 a23c
000002b0: ba59 6bbd 08b9 a13d 3542 d9bd ee16 523d
000002c0: 5cab a4bd 90ce d8bd 7980 0c3d 0253 023e
000002d0: 5f56 63bd 5b1f 303d 2300 9cbc 98e6 b3bd
000002e0: eb28 8b3d 1dfb d43c f937 cc3c 5dff 033c
000002f0: 6f24 9d3d c11a c03d 52fe 813d ca47 68bd
00000300: 7cfc b2bc 1272 b63c f412 9b3d 101f 913d
00000310: bf35 803d e0bc 11bd 1506 03bd ae96 98bd
00000320: eac0 6a3d c4be 6c3c 557a a43d deb0 d33d
00000330: 6f71 0cb8 6dee 55bd 097d cbbd e023 5ebd
00000340: 0cff 8dbd c755 92b9 d038 00bd 46c3 f83c
00000350: 4da1 9a3c 94ff 8a3d 4fd1 f3bc 9502 323c
00000360: 38d3 2f3d 3221 85bd 0350 d5ba 493e c8bd
00000370: 62d6 953d 8bc8 2f3c 8f93 d63c afba d83c
00000380: 4005 403d 9211 43bd 63e3 bcbc 51e1 0c3d
00000390: 427a ec3d 7c1b 6cbd 1e5b 3cbd dca6 a13d
000003a0: 587f f33c a8bf 973b b48e c3bb 948f 693d
000003b0: f25b 5d3d f471 99bd 10c8 0abd 5ef3 e6bd
000003c0: ef7f d53c 562f b53d bcc9 2d3d 111a 6abc
000003d0: f8b9 5b3d 7fb2 d4bc 5865 b03d 2902 2a3d
000003e0: 7e1e 193b ecb6 d0bc ac7f d53d 348b a03d
000003f0: 0584 7f3d 8e81 b93c 4088 aebc 80b1 ad3d
-0.057922125 0.16337474 -0.020375162 -0.046204813 0.0769744 -0.043855313 0.03729597 0.032550495
-0.052518472 -0.034137517 -0.044342544 -0.002153824 0.032358516 -0.013449692 0.0065760645 -0.033586163
-0.024466889 -0.025496207 -0.029688798 0.10567646 -0.12766533 -0.098883726 0.050708365 -0.06886543
-0.023594445 0.10015137 0.010084526 -0.012817838 0.10492714 0.057098236 -0.016978858 0.07562122
-0.097005635 0.0069496804 -0.024891332 -0.13568768 -0.07449729 -0.046498757 0.011575448 -0.019508487
-0.032514147 0.015303859 0.017210543 0.007941473 0.013618581 -0.0012867741 -0.006038208 0.12487874
-0.0059426446 0.012120165 0.089154094 -0.040798444 0.10258421 -0.0051512183 0.05350818 -0.09165399
0.0009788633 -0.06481641 0.045134928 0.0470648 -0.006415714 0.037352305 -0.011852496 -0.03655885
-0.05642554 -0.037469808 -0.09863394 -0.05672743 0.09347826 0.011713817 0.0027271123 0.09632009
0.12297715 -0.09523274 -0.13769361 -0.09909944 0.061455272 0.014786713 0.096967645 -0.036559135
-0.02051779 0.029556252 -0.008918026 -0.059052262 0.07321353 -0.0025288572 -0.02520305 0.028630933
-0.005801127 4.4617056e-05 -0.016131619 -0.1787789 0.08947295 0.054710258 -0.06698282 -0.11511737
0.00388538 0.067882165 -0.04399864 0.028755048 0.103175834 -0.0061707767 0.025514245 0.013775201
0.06937366 0.015973335 0.07733546 0.01756289 -0.038722966 -0.087821595 -0.025821658 0.014038137
-0.13789502 0.031498812 -0.013147195 0.064746775 -0.056415606 0.033243578 -0.09014037 -0.025349509
-0.12765644 -0.039893042 -0.020146864 0.062265437 0.011562636 -0.00086306356 0.175471 0.012019687
0.09825179 -0.05780158 -0.013026057 0.043536182 0.08734299 -0.017035099 0.05258975 -0.068894014
-0.107751265 -0.06353981 0.05901191 -0.020549417 0.041188918 0.03730116 0.10880127 -0.09538942
-0.028258886 -0.05515819 -0.03205021 0.018722208 0.02979739 0.03141881 0.03287909 0.09361531
0.0650081 0.040397607 0.031339426 -0.061504684 0.052022304 -0.00434268 0.060337298 0.10047954
0.06188857 0.11572167 0.016974658 -0.010669466 0.07491284 -0.06306848 -0.007417273 -0.025224717
0.025588544 -0.054309107 -0.07448986 0.019836891 -0.057458617 0.0789662 -0.10608331 0.0512914
-0.08040497 -0.10586274 0.03430221 0.12726977 -0.05550229 0.042998653 -0.019043034 -0.08784217
0.06794914 0.025998646 0.024929034 0.008056489 0.07672965 0.09380103 0.06347336 -0.05670909
-0.02184891 0.02227119 0.075719744 0.07086003 0.06260251 -0.035580516 -0.031988222 -0.07450615
0.057312883 0.014449779 0.080311455 0.10336469 -3.3484244e-05 -0.052229334 -0.09935958 -0.05423343
-0.06933412 -0.000279112 -0.03130418 0.030366551 0.018875742 0.06787029 -0.029762892 0.010864873
0.042926043 -0.06500472 -0.0016274456 -0.09777505 0.07316281 0.0107289655 0.026193408 0.026456205
0.046880007 -0.04762418 -0.023057645 0.034394566 0.11546756 -0.0576434 -0.045985334 0.07893154
0.029723808 0.0046310015 -0.0059679393 0.057021692 0.054042764 -0.07492438 -0.0338822 -0.11276887
0.02606198 0.08846919 0.042428717 -0.014288441 0.05364415 -0.02596402 0.0861308 0.041505966
0.0023364122 -0.025477849 0.10424742 0.07839051 0.062381763 0.022644784 -0.021305203 0.08481121

net_container.4.bias f4 [128]
00000000: 272a a8bd 2305 d9bd 597c 263e a06b e5bd
00000010: 5a95 e9bd f985 d8bd e6d6 a4bd 3554 b1bd
00000020: 8fec 22be 1ea5 8cbd 6666 263d 18a6 d2bd
00000030: 4c3c 95bc dbd2 aabd 5ca3 363d 6261 d53c
00000040: d866 05be 5741 fe3b 4986 e43d d64e dd3c
00000050: aaab b8bc cb5d 063e a62e 04be 922c adba
00000060: 96dc b8bc 65ca f0bc ce23 d83d 6196 fd3b
00000070: a65d d8bd cdb0 b33d 7b07 fbbc 3ef6 623d
00000080: 947d 38bd 199f 93bc 8d0d a6bc ff36 8ebd
00000090: 33c2 d0bd e64b f8bc 7b44 b8ba 6d64 173d
000000a0: 23cc 9cbd 2c8d 4ebd aac8 703d f2f8 69bd
000000b0: c785 2ebd 1c90 5a3d 34dd 49bd 92eb da3c
000000c0: 2d3b 3b3c 48ad 3e3c 4f2c 8b3d e2f4 dbbd
000000d0: 8fc0 31bd 0b9d 9cbd 58e1 d5bd 6fc5 103d
000000e0: ce2b 083e 7705 c5bd 4979 3ebd dbe0 c43d
000000f0: 2101 af3b 5166 17bc f393 e0bd d67a 103c
00000100: f4e1 aa3c cdd4 dcbc b3b5 a5bd 24ff 9c3d
00000110: e033 63bd 2be4 3bbb bcbe 5a3d 1daf 42bd
00000120: 9f19 8f3d 5e23 e93c 1ead 4cbb 94a5 3b3d
00000130: ab7b c23c 49d3 513d 52e5 3f3d f684 04bd
00000140: 4b04 b23d 49e9 aabd 6397 1dbc 9f1d 55bd
00000150: 83c7 7abc 1e9c 71bd ce58 80bb 6b6f 4abd
00000160: 968e 9f3d 6f9b 85bd e870 d3bd 013c 07be
00000170: 9bd6 a5bd cf3c bfbd 2d71 743d 66f0 b6bd
00000180: 9d4c 1abd f2c8 55bd b564 693d 07d9 c7bd
00000190: c6ab f2bd 4128 07be 8374 65be 5f5d 053e
000001a0: 12f7 83bd 14ef 4abc e786 d43d 8db2 5bbc
000001b0: 4960 21be 096b fc3c 5753 e2ba dc03 783d
000001c0: 55f1 c73c cf9b 9bbd de71 0a3e 4d72 573d
000001d0: f2f6 603d b8f9 863d 61ba 15bc caaa 703d
000001e0: 9a65 483d 55d8 823d 17a8 c33c 88ed e6bc
000001f0: 687e c43c d6f8 57bc 24cf c4bc c95e 623c
-0.08211165 -0.10596683 0.16258372 -0.112021685 -0.1140544 -0.10572428 -0.08048801 -0.08658639
-0.15910552 -0.06867431 0.040625 -0.10285586 -0.018217228 -0.08340999 0.044589385 0.026047412
-0.13027513 0.007759254 0.11158425 0.027015131 -0.022542793 0.13121717 -0.1290842 -0.0013212136
-0.022566121 -0.029393384 0.10553704 0.007738874 -0.10564737 0.087739564 -0.030643215 0.055410616
-0.045041636 -0.0180202 -0.020270133 -0.069440834 -0.101932906 -0.030309629 -0.0014058495 0.036961008
-0.076561235 -0.0504276 0.05878512 -0.05712218 -0.04260805 0.05336009 -0.04928322 0.026723657
0.011427683 0.011637993 0.067955606 -0.10740067 -0.04339653 -0.07647141 -0.104433715 0.035344537
0.1329796 -0.09620183 -0.046502385 0.096132 0.0053407107 -0.009240703 -0.10965719 0.008818349
0.020859696 -0.02695694 -0.08091297 0.07665852 -0.055469394 -0.0028669934 0.053404555 -0.047530282
0.06987309 0.028459247 -0.0031231116 0.045812204 0.02374061 0.051226888 0.046849556 -0.032353364
0.08692225 -0.08345277 -0.009618613 -0.052030202 -0.015306356 -0.058986776 -0.0039168363 -0.049422663
0.07790868 -0.06523787 -0.103242695 -0.13206483 -0.08097573 -0.0933777 0.059678245 -0.08932571
-0.03767072 -0.05219359 0.056980807 -0.097581916 -0.118491694 -0.1319895 -0.22407727 0.130239
-0.06443609 -0.012386102 0.10377293 -0.013409269 -0.15759386 0.030812757 -0.0017267269 0.060550556
0.024407068 -0.075980775 0.1352 0.05259924 0.054923005 0.06590599 -0.0091386745 0.058756627
0.04892502 0.06388918 0.023883862 -0.028189436 0.023986056 -0.013181886 -0.024024554 0.013816544

policy_layer.weight f4 [19, 128]
00000000: 0a5a c83c ed2a 553d f690 7cbc 62c3 c43c
00000010: f275 0cbd c599 123d de12 2f3d c06c 00bd
00000020: 1853 0f3d d858 613d cd25 59bc d472 453d
00000030: e16b 333d 0715 843d ecd4 13bb bb68 293d
00000040: c3d2 98bb b73c 10bc 116a 433c c46f 40bc
00000050: 150d 323d de0f 843c 5079 8d3d 23ed efbd
00000060: 3759 023c b583 d7bc 8e22 70bc 6e50 c2bc
00000070: dfde 9b3d 9e39 9bb9 70b6 e5bc 482d d538
00000080: 2af4 9fbd 0455 a1bc 4bc9 863c 539a 5fbd
00000090: adac 9b3d b8b4 98bc 248c 36bd a7eb 4d3d
000000a0: e225 c5bc b41f 343c 7ff9 39bd f4a7 803d
000000b0: 8cc4 57bd 6606 40bd d652 203d 851a d03c
000000c0: 1533 bd3b fc77 113c e6cc 7abd a5ae 023d
000000d0: a71c 0b3d a2af ff3b 85ed f9bc 6ce3 2b39
000000e0: 36c8 f8bb 44b2 9fbb 5057 043d c4c3 553b
000000f0: 319a 383d 04ac 323d 522f b03a 79b6 c2bd
00000100: ebeb ce3b 6f44 46bc 7ed0 a7bd 9cdc 193d
00000110: 55fb 13bc e1eb 1ebd cabf 85bd 2f1a 013d
00000120: 46b0 d7bb cacc 21bc 1e33 0c39 9277 203c
00000130: 9336 2e3d 9107 fcbc 6bef c93c 6c3b b0bc
00000140: afc9 993c 4e86 7fbb ea93 8f3d d467 54bc
00000150: 6ea0 9d3d 484a 58bd ed25 1f3d 53b7 523d
00000160: 5e68 16bc 0387 463d f03c 183d 5792 62bd
00000170: 87c6 22bd a50c 323d 075f 6cbd eea7 d13b
00000180: e532 0a3d cc03 1a3d aa73 c43c 7182 80bd
00000190: a5cd 653d 78c8 1a3c 2620 1a3c 07f5 c139
000001a0: 429f 2b3c e962 32bd de42 813d 5a3b 053d
000001b0: b56a 21bd be7c 9cbc e25c 743b f6a5 193d
000001c0: 3329 ef3b 407f b43b 4dbc 263d 1453 33bc
000001d0: 412e c7bc d658 6d3c dd5e 24bd 5255 4b3b
000001e0: e3d8 ddbb 3e14 7abd c891 2239 b3b7 01bd
000001f0: cc1d a33c a853 e9bc c78f 243d a9ca 03bd
00000200: 7d04 41bd 7c1d c43c 3140 373d 051f a1bd
00000210: 9946 7abd 6195 3a3c 3f3d 37bc 764b fb3c
00000220: 1579 10bd 3188 f53b f92a 8ebd c563 6b3c
00000230: 1d90 68bd dd45 d3bd e39f 3c3d 8bec e5bc
00000240: 3b62 593c 11c7 ccbc 3e86 1f3d f5cb 613c
00000250: ca2c b03b 4eaf 60bc 7783 e2bc ddc5 a13d
00000260: a3d9 453c 4414 683d 2684 823d 56d9 943d
00000270: e538 62bc 9e32 18bc 9f71 d83c 0ee7 8bbc
00000280: a8c1 4bbc 6614 593c 8826 343c 5425 87bd
00000290: 56ab 653d 8616 e4bc 4d34 9f3d cbea c93c
000002a0: f77b ad3c 367f 23bc f585 70bc a371 9bbc
000002b0: c5a1 a93c 9867 843d a777 d4bc d1fe 353b
000002c0: 3a84 0bbc 07a8 89bc bcc5 28bd aae4 32bd
000002d0: 577f 4b3c fe78 eb3c 2fb3 69bb 7209 e53c
000002e0: f73a 19bd 14c3 16bd cd43 78bd 6ee3 803d
000002f0: b5dd 8dbd a99a d83c 2386 f9bc 523b 193d
00000300: fcb6 04bd b6a6 4bbd 8e31 973c ac10 883c
00000310: 13c2 4f3d 5cf2 793d 0d59 b1bc 13dd 95bc
00000320: 698e 13bd 6bdd 8dbd 0058 0d3d af65 7f3d
00000330: 5195 9e3c 135d d83c 1374 9a3c 18cb 0bbd
00000340: fe95 dbbc 9eb8 a03d f1c0 6fbc 7b7d 8a3d
00000350: 6caf 523d 2406 fc3c d103 0139 593b 0a3d
00000360: 2526 49bc 27d7 2d3d 11c3 71bc d9a3 08bd
00000370: a13b 00bd ffa8 9bbc dd06 523b ed38 a63d
00000380: 1629 f63b 041c ba3b 5481 63bc 104f c2bc
00000390: 699c fabc 83e2 8b3d e10a 843b 8519 6e3d
000003a0: 64d3 49bb f7b3 143d 1ac8 2fbc 826e ca3b
000003b0: 88f5 a8bd 2c30 0dbc 4479 9b3a a921 10bd
000003c0: 27fb 85bc 93f1 4bbd b4ce 93bb cfd1 bc3c
000003d0: bf98 6a3d 3bdf 1e3c 62ae 05bd 6efd 80bc
000003e0: f9cb f33b 79a3 a33b 097f 14bd 84b4 e03c
000003f0: 45e1 f9bc 6112 1ebc 50aa 14bc c88c 2c3c
0.024456996 0.05204289 -0.015415421 0.024018947 -0.03429217 0.035791177 0.042742603 -0.031353712
0.034991354 0.05501637 -0.013253641 0.04820521 0.043804053 0.06449323 -0.0022557331 0.041359644
-0.0046637966 -0.008803538 0.011927144 -0.011745397 0.043469507 0.016120847 0.06907904 -0.11715152
0.007955841 -0.02630792 -0.014656676 -0.023719992 0.07610869 -0.00029606832 -0.028041095 0.00010165066
-0.078102425 -0.019693859 0.016453406 -0.054590534 0.07601295 -0.01864086 -0.044567242 0.050273564
-0.024065915 0.010993887 -0.045403954 0.062820345 -0.052677676 -0.046881102 0.0391415 0.02540327
0.0057739117 0.008878704 -0.061230563 0.031904835 0.033962872 0.0078029195 -0.030508766 0.00016392552
-0.0075922264 -0.004873546 0.03230983 0.0032617906 0.045068923 0.043621078 0.0013441837 -0.0950746
0.0063147447 -0.012101277 -0.081940636 0.037563905 -0.00903209 -0.03879917 -0.065307215 0.03151911
-0.0065822927 -0.009875486 0.00013370483 0.009794133 0.042532515 -0.030765327 0.024650296 -0.02151271
0.018772928 -0.0038989964 0.07010634 -0.012964208 0.07696615 -0.052805215 0.03885453 0.051444363
-0.0091801565 0.0484686 0.03716749 -0.05531534 -0.03974011 0.04346909 -0.057707813 0.0063981926
0.033739943 0.037601277 0.023980934 -0.0627488 0.05610432 0.00944721 0.009407079 0.00036994388
0.010474982 -0.04355136 0.06311582 0.032527305 -0.039408404 -0.01910245 0.0037286808 0.03751179
0.0072986125 0.0055083334 0.04070692 -0.0109451 -0.024314048 0.014486512 -0.04012953 0.0031026197
-0.0067702397 -0.06105446 0.00015503832 -0.03166933 0.01991167 -0.028482273 0.04017618 -0.032175694
-0.04712342 0.02393984 0.044738952 -0.07867245 -0.061102483 0.011388154 -0.011184036 0.030675631
-0.035271723 0.007493042 -0.0694179 0.014367049 -0.056778062 -0.1031606 0.046050917 -0.028066894
0.013268049 -0.024997266 0.038946383 0.013781537 0.005376433 -0.013713671 -0.027650578 0.078990676
0.012075814 0.05665995 0.063728616 0.07268016 -0.01380751 -0.009289412 0.026421366 -0.017077949
-0.012436308 0.013249492 0.010995515 -0.06598917 0.0560716 -0.027842771 0.077736475 0.02464809
0.021177275 -0.00997906 -0.014680375 -0.018975085 0.02070702 0.064650714 -0.025935961 0.002777029
-0.008515412 -0.016803754 -0.0412042 -0.043675102 0.012420497 0.028744217 -0.003565978 0.027958605
-0.03740975 -0.036807135 -0.060611535 0.06293379 -0.06927053 0.026440935 -0.03045947 0.037410088
-0.03240107 -0.049719535 0.018456247 0.016609512 0.050722193 0.061022148 -0.021648908 -0.018293893
-0.036024485 -0.06926998 0.03450775 0.062352832 0.019358309 0.026411569 0.018854177 -0.034129232
-0.02680492 0.07847713 -0.014633403 0.06762215 0.051436827 0.030764647 0.0001230382 0.033748005
-0.012277161 0.042441513 -0.01475598 -0.033359382 -0.031306867 -0.019001482 0.0032047548 0.081163265
0.007512222 0.0056796093 -0.013885815 -0.02371934 -0.03059216 0.06830313 0.004029617 0.058129806
-0.0030796165 0.03630444 -0.01072886 0.0061777243 -0.08249956 -0.008617442 0.0011861701 -0.03518835
-0.01635511 -0.04979093 -0.004510725 0.023049263 0.057274576 0.009696777 -0.032637008 -0.015745845
0.007440087 0.0049938527 -0.036253963 0.027429827 -0.030502925 -0.009647937 -0.009073809 0.010531612

policy_layer.bias f4 [19]
00000000: df11 c9bc 974d a0bc 7876 7fbc bdc5 133c
00000010: 9c66 a33c 208f 4abb 77a0 39bd 246b b03c
00000020: 11bf 42bd e08e b53d 5075 193d 10c3 543d
00000030: c31a 173d 252b 3d3d 750c 0cbd f5d9 07be
00000040: 391c 17be 6a4a 78ba bb4a 6cbd
-0.024544654 -0.019568248 -0.01559221 0.009019312 0.019946389 -0.0030908063 -0.045319047 0.021535464
-0.047545496 0.08865142 0.037465394 0.05194384 0.036890756 0.046183724 -0.034191567 -0.13266738
-0.1475686 -0.0009471538 -0.057688456

value_layer.weight f4 [1, 128]
00000000: 15d4 e5bc 01a9 4cbd 0279 2a3e 632e d13b
00000010: 1fcb bebd fa50 44bd 156f 36bd e74c b4bc
00000020: dd58 1abe 99ad 8abd 4eed a5bd 1726 e4bc
00000030: a285 743c 248c 023d a79b 863d fc4f b0bd
00000040: 2646 03bd b853 24bd 445a b83d b175 163b
00000050: cf4a 13bd d3a6 793e e093 5b3c ddd9 7d3d
00000060: 74f6 983c bdbb d43d df5e 643c c5bd 1bbd
00000070: 7b5f 81bd e0c9 303d 8f8d 0d3e d548 bf3d
00000080: 85ad bfbc 7ee9 bc3c fb17 ad3d fc71 973c
00000090: 6374 02be a91b 23bd 83de a7bd c3ac 74bd
000000a0: 9f8b b3bd 6b89 b93d f2fd 633c c34d 90bc
000000b0: f9eb c13d cffd 613c 7a19 c03d 1e72 283d
000000c0: 53f0 c0bd db2f 9a3c f09e 953d e826 92bc
000000d0: 9fe9 50bd 5d7d 8fbd 95a2 cbbd 5b73 28bd
000000e0: 5774 ca3d b62c ffbd e0a9 9d3c 4120 6a3d
000000f0: 5901 ae3d 6a72 cc3d c072 08be 64fa 78bc
00000100: 5069 d53d 2884 32bc ef2e ee3c efe0 803b
00000110: 2184 b3bc 4d71 bc3d 20e3 a6bd 8b28 70bd
00000120: 4e6d 213d 21d3 4c3d d979 9f3d 0747 3bbd
00000130: 23ad 233c fc3a ff3c bedd 41bb 2b5e d1bc
00000140: 5b50 9abc 3357 96bd 8321 563c f8af 133c
00000150: 24ad ad3c f844 453d ea3d 083d c531 70bb
00000160: 3fc4 b43d 99c0 04be db7a 5fbd db47 13be
00000170: 1631 323c 43b5 8abd 3c9e ae3d 7b4c e6bd
00000180: f08a 8cbd ebaf a73d c6c2 4e3d 6c9b 8f3b
00000190: 1dbe a2bc 110d bdbd ba2b f7bd 8723 223e
000001a0: b801 9bbd a829 2fbd 5565 9e3d 8032 a33d
000001b0: 1d44 0cbe 322f de3d ede5 83bb 6445 d43d
000001c0: e04d 033e e0d4 913d 137a e03d b6fd 2abd
000001d0: 2f50 b6bc 0246 423d 816e a53d e5d0 a9bd
000001e0: f8be 333e 0ca7 e53c 9b77 cebc 9df5 753d
000001f0: 8c71 a73d 0af5 443d f2f0 a7bd 5551 a33d
-0.02805523 -0.049965862 0.16647723 0.0063837036 -0.09316086 -0.047928788 -0.04453953 -0.022009326
-0.15072961 -0.067713924 -0.08101903 -0.027850194 0.014924439 0.03187193 0.06572657 -0.08609006
-0.03204932 -0.040118903 0.09001592 0.0022958333 -0.035960015 0.24380045 0.013401955 0.06197535
0.018672206 0.10387371 0.013938635 -0.038022775 -0.063170396 0.043161273 0.13823532 0.093400635
-0.02339817 0.023060557 0.084518395 0.01848697 -0.1273971 -0.0398213 -0.081967376 -0.05973507
-0.08766865 0.090594135 0.013915526 -0.017615205 0.09468836 0.013793423 0.09379859 0.041124456
-0.09420838 0.018821647 0.073057055 -0.017840818 -0.05100405 -0.07006333 -0.099431194 -0.041125637
0.09885471 -0.124597 0.019246042 0.057159666 0.08496351 0.0998276 -0.13325024 -0.0151964165
0.104204774 -0.010895766 0.029075114 0.003933064 -0.02191359 0.09201298 -0.081487894 -0.058632415
0.03941088 0.050006036 0.077869125 -0.045722034 0.0099900095 0.031156056 -0.0029581632 -0.025557598
-0.018837145 -0.07340851 0.013069513 0.009014122 0.021200724 0.048161477 0.03326217 -0.0036650759
0.088264935 -0.12964095 -0.054560523 -0.1438288 0.010875961 -0.06772854 0.085262746 -0.11245056
-0.06862438 0.081878506 0.05047872 0.0043825414 -0.019866044 -0.09231008 -0.12068887 0.15833865
-0.07568687 -0.042764336 0.07734171 0.079686165 -0.13697858 0.108488455 -0.004025212 0.10364798
0.12822676 0.07120681 0.10960784 -0.041745864 -0.022255031 0.047430046 0.080777176 -0.082917966
0.17553318 0.028033756 -0.025203517 0.06004869 0.08175954 0.04808525 -0.082002535 0.07974497

log_std_parameter f4 [19]
00000000: 2399 17c0 e56f 16c0 e599 21c0 040d b6bf
00000010: cf6f b9bf 2d6f 29bf 68b5 1cbf 771f f1bf
00000020: 1bee ecbf c07d 1dbf 3a2f 19bf 57d2 a2bf
00000030: 904d 9dbf 50ac 12bf c637 29bf b03c 27bf
00000040: 86f0 22bf 10d6 1bbf b976 1ebf
-2.3687217 -2.3505795 -2.525018 -1.4222722 -1.4487246 -0.66185266 -0.61214304 -1.8837727
-1.8510164 -0.61520004 -0.59837687 -1.2720441 -1.2289295 -0.5729418 -0.6610073 -0.65326977
-0.6364826 -0.6087351 -0.61899906

net_container.0.weight f4 [128, 69]
00000000: e7a0 59bd 1c0f ffbd e407 3f3e 9f07 babd
00000010: b017 13be d44c 69bc 1115 65be fedb d6be
00000020: b47b 553d 0798 e8bc 87da 7ebd 8443 953e
00000030: 53af 5cbe f150 a0be 6cbf c5bd 9d2f 01bf
00000040: 22d2 0a3f 4e93 6abc 9f7c 5cbe 6dbb 4a3e
00000050: b2c5 e2be 1daf 013f c62e a83a 6e35 cebd
00000060: a2cd 93be a404 b03c f444 52be 48d4 0bbe
00000070: c78d d73e d3d7 36be 10fd 1dbe 4652 583c
00000080: 6eea 0fbc e441 85bd b088 a3bd f44d fc3c
00000090: 557f dc3c 7d8f 4dbc 46cd 49bd 7367 a83d
000000a0: 37aa d13c 33cc e6bd 97db a83c 70b1 273d
000000b0: e0f9 143e 860f b23b d094 8dbd 9446 5d3d
000000c0: 1c8c 88bc cfd5 dcbd d653 b93c b92c 5ebc
000000d0: d7ba 113d b16b b03c f2b9 4bbd dea1 44bc
000000e0: cb04 e53d 4992 a3bd 2db9 5cbb 54b7 f63d
000000f0: afb6 93bd d82c 15bd 0670 e3bd 9b3e d3bd
00000100: cf29 46be 1871 543d 5ff0 8a3c 9c12 753c
00000110: a410 5cbc f466 73bd 9e4b 86be f77a d03c
00000120: eb77 69bd c98b 5abe f70c 133e 8c93 52be
00000130: 2734 aebd 440c 343d ccff 693e 0b83 28bd
00000140: c20d 79be 8ca8 9a3d 871f 133e b32c a73e
00000150: 9ae9 263f 7edc cd3e 3e5a ad3d db55 c43d
00000160: 128c 0b3e a193 073e e437 693d 2d66 a9bd
00000170: 4f21 8f3d 0488 0f3e c696 b43e f342 d5be
00000180: 1182 443e a1c7 843e dff8 88bd 1393 a9bc
00000190: 712d 5cbd 4a4c 9a3d 5ffb 493b 79d9 1cbd
000001a0: 60f2 3fbd cb2c e6bc 586d ac3c c9da 8a3c
000001b0: c23f a93d 8c64 b23d 109c a5bc 19c4 58bd
000001c0: d2a5 663d 872d 413d ebf2 d43c dbab 0e3e
000001d0: 6535 d73c 380d 993d c8a3 f33a e7cd 423d
000001e0: b534 ddbd 18cd ee3d 9c6c 4c3e 3366 8f3d
000001f0: 2ab0 263d e8fd 0c3c 8f45 0e3e 0c97 e0bd
00000200: 6c51 7c3d 5ab0 59bc 199b 6e3e b64f dabd
00000210: b2c6 b9bc a322 26be a325 16be faef 17be
00000220: fe32 88bd 5200 c6bd a757 9cbd 9a55 983e
00000230: 727a 0cbd e590 1ebd 51eb 5dbc c54d 9cbd
00000240: bbd3 6fbe 2876 0a3f 9578 403e 6b42 873e
00000250: 7d0e 2a3d 37ea 37be 48b0 4abe 1625 4ebe
00000260: 47ae 00bf 1917 1c3e f88a f3bd 5a58 663e
00000270: 7c2b 233e 0276 99be 761d 3e3c ece7 afbe
00000280: 5c31 6e3e 796e 0cbd 105d a03d 90a1 4ebe
00000290: f433 4cbf 3465 e43d d823 c8bd 2b6c 12be
000002a0: 05e4 be3e 3944 8d3d e715 0f3d 6889 363c
000002b0: 41b5 033e 08e1 8e3c 30bc 073c 84d6 363d
000002c0: 5bea a6bd 21df efbc eaa9 873d 7fda a5bd
000002d0: 3631 52bc bfdc 1cbc b614 943c 925e 253d
000002e0: 460c 68bd fd58 0dbd 766d 6d3d bab4 47bd
000002f0: 9676 463c 2dee 8e3c 1511 8cbd b95f 6f3e
00000300: 0cb6 b4bc a0ff 163e 9905 8ebd 4a16 adbd
00000310: 1dbd d63d 3358 cf3d a7b8 1f3d d03e 81be
00000320: dd76 81bc de70 62bd 82d2 d6bd 83b6 53bc
00000330: dbda b03d e254 8d3c aa69 69bc d8a1 a43e
00000340: e25c b33c bc83 b5be dd92 c4bd 4e78 7b3d
00000350: a646 97bb d3c1 a83f aba4 dcbe 0b0c b7bd
00000360: cf9e babc 6ce5 ee3d 0a27 5bbd c5a9 f83e
00000370: 9ef6 fabd 2679 4d3e fb1e 0f3f b1a1 02be
00000380: 02ed 2cbd ff9c 063e 3d02 163f 4fc4 9b3e
00000390: 0465 263e f3b7 983d 9e9a 9d3e a30c 0f3e
000003a0: f0f3 983e 9bd1 8e3e f873 00bf fb00 dabd
000003b0: 34dc 27be b263 0dbe 190c b53b 165c f1bc
000003c0: 9a70 ffbc 5134 973c 3f34 78bd 388c 9f3d
000003d0: c307 5e3d 8070 4c3a a46e e8bc 9cf8 8ebd
000003e0: a534 3fbd f380 653c 4aa8 5bbb 755c 973d
000003f0: 4cbd 123c 4254 08bc 392b 8f3d 30a6 28bd
-0.053131964 -0.12454054 0.18655354 -0.09083485 -0.14364505 -0.014239509 -0.22371317 -0.41964716
0.052119926 -0.028392805 -0.062220123 0.29153073 -0.21551256 -0.31311753 -0.096556515 -0.5046328
0.5422689 -0.014317347 -0.21531914 0.1979806 -0.44291455 0.50657827 0.0012831322 -0.10068785
-0.28867823 0.021486588 -0.20534116 -0.13655198 0.42100355 -0.17855768 -0.15428567 0.013203209
-0.00878392 -0.06506708 -0.079850554 0.03079889 0.026916185 -0.012546417 -0.04926803 0.082228564
0.02559386 -0.11269417 0.020612521 0.040940702 0.14548445 0.0054339794 -0.06913149 0.054022387
-0.016668372 -0.10782968 0.022622984 -0.013560467 0.035578575 0.021535726 -0.04973788 -0.012001483
0.11182555 -0.07986886 -0.003367971 0.12046686 -0.072125785 -0.03641972 -0.11105351 -0.103146754
-0.19351886 0.051865667 0.016960321 0.01495805 -0.013431702 -0.059424356 -0.26229566 0.02544926
-0.05699913 -0.21342386 0.14360414 -0.20564097 -0.08506041 0.04395701 0.22851485 -0.041140597
-0.24321654 0.07551679 0.14367495 0.3265129 0.652002 0.40207285 0.08464478 0.09586688
0.13627651 0.1323991 0.056938067 -0.082714416 0.06988775 0.1401673 0.3527128 -0.4165264
0.19190241 0.25933555 -0.066880934 -0.020700013 -0.053754274 0.07534082 0.0030819995 -0.038293336
-0.046862006 -0.02809753 0.021048233 0.016950028 0.08264114 0.08710584 -0.020216018 -0.05292139
0.056310482 0.04716256 0.025994739 0.13932745 0.026270578 0.074732244 0.0018588239 0.047559645
-0.10801069 0.11660212 0.19963306 0.07001915 0.040695347 0.008605458 0.13893722 -0.1096631
0.061601087 -0.013286674 0.23301353 -0.10659735 -0.022677753 -0.1622415 -0.14662795 -0.14837638
-0.06650351 -0.0966803 -0.07633906 0.2975281 -0.03429646 -0.0387124 -0.013544873 -0.07632021
-0.23420613 0.5408654 0.18795998 0.2641786 0.041517723 -0.1796044 -0.19793808 -0.20131335
-0.50265926 0.15243186 -0.118917406 0.22494641 0.15934557 -0.29972845 0.011603704 -0.3435663
0.23261017 -0.034285042 0.0783025 -0.20178819 -0.79766774 0.111521155 -0.09772462 -0.14299075
0.3728334 0.06897778 0.034932997 0.011141159 0.12862112 0.017441288 0.0082846135 0.04463817
-0.081501685 -0.0292812 0.066242054 -0.080983154 -0.012829116 -0.009574114 0.018076282 0.040373392
-0.05665233 -0.034508694 0.05796572 -0.04875634 0.012113234 0.017447555 -0.06839196 0.23376359
-0.022059463 0.1474595 -0.069346614 -0.08451517 0.10485289 0.101242445 0.038994458 -0.25243235
-0.015803749 -0.05528342 -0.1048937 -0.012921932 0.08635493 0.01725239 -0.014246384 0.32154727
0.021894876 -0.35452068 -0.095983244 0.06139403 -0.0046165762 1.318415 -0.43094382 -0.08937844
-0.022780804 0.116648525 -0.053504027 0.48567024 -0.1225407 0.20065746 0.5590665 -0.12756993
-0.042218216 0.13145827 0.58597165 0.3042321 0.16249472 0.074569605 0.30782026 0.13969664
0.2987361 0.2789429 -0.50176954 -0.10644718 -0.16392595 -0.13807562 0.005525124 -0.029462855
-0.031181622 0.018457564 -0.0605967 0.077904165 0.05420662 0.0007798746 -0.02837307 -0.06981012
-0.046681065 0.014007795 -0.0033517056 0.07390682 0.008956265 -0.00832087 0.06990666 -0.041174114

net_container.0.bias f4 [128]
00000000: 8cc4 123e 77a0 8dbd 3537 4dbd ecfd 043a
00000010: 8976 a33d 7a3e 873c b12e e23d d2a4 a93d
00000020: c23a be3d 5039 8b3d 1ccf 6a3c ffb8 15bd
00000030: 3e21 033d 3762 9bbc 0e6d 453e 0f64 09be
00000040: 2144 b63d aded 13be a3d9 463e 6673 a73d
00000050: 2da8 5e3d 909d 413c 4d64 6cbd 0a1c ca3d
00000060: 83fd a23d b0c2 e93d f03f cbbb 59e0 f1bd
00000070: 0455 99bd aeb9 d1bd dbe4 253c c772 4fbd
00000080: bc44 5b3e 5cc3 123d 1f02 b1bd 9b11 83bd
00000090: ea66 253d 8318 ce3c 2e9e 873d 71dd 76bd
000000a0: f18e 3ebd 51e8 dd3d 6766 c3bd c573 eabd
000000b0: dd38 123d bfad 26be 470e 933d 60d1 7bbd
000000c0: 669d 363e b22c 4e3d 5877 1abe 78a7 abba
000000d0: 74cc 92bd 0bd3 86bd 3173 32bd c03c 2f3e
000000e0: 65da 9c3d 47c3 893d a888 df3d ad6c 333e
000000f0: a145 8abd 4df0 913c dc47 0b3e 5bbd dfbb
00000100: 52b3 443d 722b 3b3e 5fd2 a93d 8138 ef3c
00000110: bcd3 a63d 26c0 8e3d e682 9a3d 29ce 00be
00000120: 44b7 f93d 26f6 8d3d 3ddc 2f3d 27c4 f13c
00000130: 1c6c 3e3e a88c 86bc ada3 653e 9a8d 4bbb
00000140: 7675 6fbd 06f6 e53b e5f2 3d3e 7c17 b83c
00000150: 8534 e83d 4c86 083e 37be f53d 4ae5 863e
00000160: 37ac dbbc ba9e 223e e5a5 a43b 1058 a8bd
00000170: 585e a6bb fd0c a7bd b972 cf3a 4577 85bc
00000180: 8db8 2e3d 94bb e3bd ab2a f6bd fe14 cabd
00000190: b031 0d3e 38b1 b8b9 0e33 f1bd 8582 c5ba
000001a0: a996 6e3b 87f8 e23d d828 563d abc4 9ebd
000001b0: 24e4 7dbd ecc8 17be 91fe d5bc f715 0e3d
000001c0: 4ae3 87bd dfa3 94bd 1df8 793e ca92 223e
000001d0: ac30 b5bd f2d1 d03d 0f62 b4bc 1cd9 91bd
000001e0: 07b7 0e3c f824 d3bd f323 283e 1de2 5abd
000001f0: 1715 483d d6b8 b1bd 889c 6dbd f9a2 a63d
0.14332789 -0.06915372 -0.050101478 0.00050732377 0.07981593 0.016509283 0.11044062 0.0828339
0.09288551 0.06798041 0.014331605 -0.03655338 0.032014124 -0.01896773 0.19279882 -0.13417076
0.08899713 -0.14446135 0.1941896 0.081763074 0.054359604 0.011817351 -0.05771284 0.09868629
0.0795851 0.11414087 -0.0062026903 -0.11810369 -0.074869186 -0.10240494 0.010125364 -0.05064657
0.21412939 0.03583084 -0.08642983 -0.06399842 0.04038135 0.025158172 0.06621967 -0.060269777
-0.04652304 0.108353265 -0.09541016 -0.114478625 0.03569876 -0.16277216 0.071804576 -0.061478972
0.1783348 0.050335594 -0.15084589 -0.0013096174 -0.071679026 -0.06583222 -0.043566886 0.17113018
0.07658843 0.06726699 0.10914737 0.17521925 -0.06751562 0.01781478 0.13601631 -0.006827993
0.048022576 0.18278292 0.08292078 0.029201748 0.08145854 0.06970243 0.07544498 -0.12578644
0.12193158 0.06931715 0.042934645 0.029512478 0.18595928 -0.016424492 0.22425719 -0.0031059743
-0.05846163 0.0070178537 0.18549688 0.022472136 0.11338142 0.1333248 0.11999171 0.2634681
-0.026815517 0.15880862 0.005024659 -0.082199216 -0.0050771646 -0.08156774 0.0015827037 -0.016292224
0.04265647 -0.11119762 -0.12019857 -0.09867285 0.13788486 -0.00035227253 -0.11777316 -0.0015068805
0.0036405718 0.11082559 0.052285045 -0.07752355 -0.06198515 -0.1482274 -0.026122363 0.034688916
-0.06635149 -0.072578184 0.24411054 0.15876308 -0.08847174 0.10196294 -0.022019414 -0.071214885
0.008710629 -0.103097856 0.16419964 -0.053438295 0.048848238 -0.08677833 -0.058010608 0.08136553
