humanoidprac/humanoidprac/scripts/skrl/logs/skrl/h1_flat/joint_experiment_ver3/2025-09-18_03-45-13_ppo_torch/checkpoints/agent_21600.pt (torch, 549970 bytes, 40 tensors)

log_std_parameter f4 [19]
-3.1023316 -3.087688 -3.292978 -1.6112947 -1.7962261 -0.82810134 -0.81677085 -2.5106876
-2.259327 -0.82648236 -0.8006263 -1.7602245 -1.7930775 -0.8093503 -0.68191475 -0.8159026
-0.8833156 -0.77122 -0.7726056
00000000: 9a8c 46c0 ae9c 45c0 27c0 52c0 e83e cebf
00000010: bdea e5bf 73fe 53bf e517 51bf 1baf 20c0
00000020: d098 10c0 5994 53bf d8f5 4cbf 094f e1bf
00000030: 9083 e5bf 9531 4fbf f791 2ebf fede 50bf
00000040: f920 62bf ad6e 45bf 7bc9 45bf

net_container.0.weight f4 [128, 69]
-0.23386142 0.047810335 -0.0969492 -0.23057866 -0.108732484 0.009590804 -0.4057587 0.10734603
0.027132267 0.087558 -0.062220123 0.27570122 -0.18550801 0.0019465832 0.2397716 -0.18105265
0.1750933 -0.3967284 0.02328024 -0.42278624 -0.37522465 -0.01745195 0.028740076 -0.41084945
-0.22302116 -0.13059731 -0.059308928 0.11086416 0.2786373 0.2102227 -0.098530605 -0.008678255
0.038465604 -0.029466588 -0.058143683 0.0139314085 -0.025641032 0.010329057 -0.054509714 0.0072248983
-0.0074994857 -0.012330709 0.018445851 0.019695709 -0.0017025104 -0.008024994 -0.12029647 0.01171123
0.007622257 0.072399326 -0.13166797 0.15782294 0.07679298 0.04597968 -0.1307169 -0.050710887
0.020204928 -0.023972401 -0.09857158 0.16666625 -0.029955596 -0.15503985 0.002035656 -0.13182163
0.01092756 -0.028030148 0.06567131 -0.06431638 0.051505815 -0.20388325 0.40044567 0.29505605
-0.08061047 -0.023096183 0.16802976 -0.16445272 0.17183162 0.03138111 0.009775108 -0.041140597
-0.13406657 0.23253089 0.24461444 0.7535708 0.22704591 -0.19773719 -0.22548352 -0.017631892
0.05657422 -0.32599214 0.04740962 0.10965144 -0.23007771 -0.020180622 -0.23311272 -0.17886369
0.32548362 0.27237245 0.30195656 0.1672932 -0.042843617 0.07075801 -0.030293029 -0.010809475
-0.03416386 -0.12918644 0.04737996 0.072390914 0.06343417 0.039755497 -0.10639416 -0.02966495
0.12172725 0.019847535 0.005922916 0.04727071 -0.00724782 -0.09977906 -0.01300557 0.06175306
0.012781245 0.016621452 0.173267 0.066890374 0.036113407 -0.10225741 -0.02960896 0.1130138
0.11608232 -0.014159959 0.066289976 -0.060654294 -0.09024047 -0.025493504 -0.012010563 -0.0830326
-0.02163254 0.011548937 -0.045547552 -0.15915717 -0.006590977 0.1198727 0.039423354 -0.027148852
-0.2855461 -0.2878712 0.2087671 0.36596885 0.041517723 -0.14942454 -0.17038107 -0.22402968
-0.2608727 -0.23981935 0.14161082 -0.03686603 0.21300523 -0.38387683 0.22514142 -0.22028731
-0.07244883 0.022782333 0.010804087 -0.15186393 0.08236434 -0.004830064 0.08263318 0.09788327
0.32007658 0.004205904 0.006311353 -0.0044551985 0.008269981 -0.08731137 -0.018078491 -0.012711975
-0.014330768 -0.011035156 -0.015318099 0.025194297 -0.056418046 0.07146885 0.020369075 0.04517308
0.039401453 0.07098 -0.03423352 -0.033168245 -0.10035102 -0.021229478 -0.04639572 -0.062499993
-0.019291904 0.16932939 -0.06514616 -0.043255176 0.15732959 -0.061710365 0.1377605 -0.102367766
0.073018104 -0.019593067 -0.014237313 -0.03079381 -0.013619461 0.106384344 0.02619051 0.1601836
0.21046583 0.1645844 -0.09830151 0.15138812 -0.047531907 1.2515111 -0.51680505 0.078322515
0.36986405 0.116648525 -0.0794237 0.4379718 -0.16353267 0.14334866 0.5017921 -0.35993955
-0.38296613 -0.04997607 0.7840812 0.2654719 0.14847602 0.15594113 0.18230292 0.22727185
0.03233645 0.0791796 -0.22458866 -0.008248969 0.18598782 -0.025726028 -0.027427953 -0.01241981
-0.03792642 0.0019782563 -0.023287958 0.05556136 -0.01525339 -0.004290581 -0.01050298 -0.04249153
0.0044833943 -0.0065977233 0.021402545 -0.005939264 -0.007635345 0.005141431 0.001803214 -0.045361526
00000000: 5e79 6fbe c5d4 433d 4d8d c6bd d01c 6cbe
00000010: 23af debd bf22 1d3c 9bbf cfbe 3cd8 db3d
00000020: 7d44 de3c 9c51 b33d 87da 7ebd b628 8d3e
00000030: d0f5 3dbe 7e24 ff3a b086 753e de65 39be
00000040: a84b 333e fc1f cbbe 34b6 be3c 7077 d8be
00000050: 721d c0be 64f7 8ebc 4f70 eb3c dc5a d2be
00000060: a95f 64be 4dbb 05be ebed 72bd c00c e33d
00000070: 8ca9 8e3e 9f44 573e 6aca c9bd 3d2f 0ebc
00000080: 1c8e 1d3d ea63 f1bc 1228 6ebd 9040 643c
00000090: 240d d2bc 353b 293c 9445 5fbd d7be ec3b
000000a0: 3fbe f5bb be06 4abc c11b 973c e558 a13c
000000b0: c526 dfba 447b 03bc ff5d f6bd 75e0 3f3c
000000c0: 20c4 f93b 1946 943d f8d3 06be 569c 213e
000000d0: a345 9d3d 3055 3c3d a7da 05be 38b6 4fbd
000000e0: ce84 a53c c561 c4bc e6df c9bd 8faa 2a3e
000000f0: 7065 f5bc c4c2 1ebe a468 053b 40fc 06be
00000100: 8209 333c 7b9f e5bc ae7e 863d 4eb8 83bd
00000110: c3f7 523d c5c6 50be 3707 cd3e 9611 973e
00000120: 1a17 a5bd 3534 bdbc fe0f 2c3e 4b66 28be
00000130: a1f4 2f3e 7b89 003d c627 203c 0b83 28bd
00000140: bf48 09be 941c 6e3e 357c 7a3e 04ea 403f
00000150: b97e 683e 9e7b 4abe 27e5 66be c270 90bc
00000160: 5fba 673d 71e8 a6be 9730 423d ef90 e03d
00000170: 7e99 6bbe d551 a5bc 1ab5 6ebe 0b28 37be
00000180: caa5 a63e 6774 8b3e 0d9a 9a3e e94e 2b3e
00000190: ca7c 2fbd 93e9 903d 1629 f8bc 391a 31bc
000001a0: 67ef 0bbd 7349 04be 7d11 423d b041 943d
000001b0: c6e9 813d a9d6 223d 2ee5 d9bd e903 f3bc
000001c0: 234c f93d 4c97 a23c 0515 c23b ef9e 413d
000001d0: 1f7f edbb f758 ccbd 5015 55bc c7f0 7c3d
000001e0: 6d68 513c b629 883c e86c 313e d2fd 883d
000001f0: a7eb 133d 556c d1bd 7d8e f2bc c773 e73d
00000200: 91bc ed3d 2cff 67bc 0ac3 873d a370 78bd
00000210: ffcf b8bd c1d7 d0bc f4c7 44bc ff0c aabd
00000220: b936 b1bc c137 3d3c 1290 3abd 19fa 22be
00000230: 1ff9 d7bb d17f f53d 627a 213d 4567 debc
00000240: 1933 92be db63 93be 0bc7 553e 4560 bb3e
00000250: 7d0e 2a3d bf02 19be 6078 2ebe 0968 65be
00000260: 1b91 85be 3493 75be 6d02 113e d600 17bd
00000270: 0b1e 5a3e 818b c4be 798b 663e ff92 61be
00000280: 0d60 94bd 04a2 ba3c a003 313c 3882 1bbe
00000290: a3ae a83d 8345 9ebb 963b a93d 0677 c83d
000002a0: 14e1 a33e aed1 893b 77cf ce3b eafc 91bb
000002b0: d07e 073c 4ed0 b2bd 5819 94bc e345 50bc
000002c0: 99cb 6abc cdcc 34bc c4f8 7abc 4564 ce3c
000002d0: 9c16 67bd 435e 923d 0cdd a63c 6807 393d
000002e0: 6b63 213d f65d 913d 7338 0cbd 6ddb 07bd
000002f0: d684 cdbd 71e9 adbc 7009 3ebd feff 7fbd
00000300: 0e0a 9ebc af64 2d3e 5a6b 85bd 572c 31bd
00000310: 021b 213e 02c4 7cbd 1711 0d3e 31a6 d1bd
00000320: 848a 953d a481 a0bc 9e43 69bc 4d43 fcbc
00000330: 2924 5fbc 09e0 d93d 7b8d d63c 2b07 243e
00000340: 5b84 573e d088 283e 4d52 c9bd 7d05 1b3e
00000350: d1b0 42bd 8431 a03f 564d 04bf 8e67 a03d
00000360: d25e bd3e 6ce5 ee3d e5a8 a2bd d73d e03e
00000370: 1c75 27be fec9 123e 7275 003f ff49 b8be
00000380: 2314 c4be b5b3 4cbd 8cb9 483f efeb 873e
00000390: 190a 183e 08af 1f3e 9ead 3a3e f4b9 683e
000003a0: 3a73 043d ea28 a23d 92fa 65be af26 07bc
000003b0: 9773 3e3e 64bf d2bc 96b0 e0bc 757c 4bbc
000003c0: bc58 1bbd a2a5 013b 63c6 bebc 4f94 633d
000003d0: 5be9 79bc 0198 8cbb b114 2cbc 990b 2ebd
000003e0: 70e9 923b b731 d8bb 6454 af3c 289e c2bb
000003f0: eb31 fabb 7379 a83b d259 ec3a 02cd 39bd

net_container.0.bias f4 [128]
0.20580128 -0.057071306 0.017903805 0.029436598 0.07682819 0.058986362 0.16236122 0.1474237
0.20722586 0.23443559 0.034257956 -0.009258464 0.023999011 -0.01811014 0.2779952 -0.17015107
0.17627455 -0.10411888 0.25984028 0.038285516 0.03368597 0.15513477 0.031584896 0.1494757
0.09756165 0.1611017 0.015138578 -0.05322269 0.04668746 -0.105574235 0.09070445 0.102545545
0.23569408 0.059584267 -0.01911276 -0.19058868 0.08049118 0.045081027 0.07149041 0.008793769
-0.0009233406 0.2546788 -0.098862946 -0.11524203 0.12539968 -0.027624996 0.10532534 -0.05197285
0.16967042 0.05667439 0.006652702 0.03811899 -0.06842833 -0.15004118 0.031617492 0.07619079
0.17240909 0.08422625 0.13037041 0.17079976 -0.0221123 0.08225571 0.19998093 0.048452817
0.06447219 0.2394242 0.08582199 0.10194659 0.07926001 0.089494616 0.08661728 -0.16075787
0.16909699 0.19868833 0.05972558 0.0608944 0.17307967 0.13413784 0.28502005 0.089439586
-0.02930258 -0.005816418 0.17924242 0.13546571 0.05265291 0.13192932 0.2410215 0.26459777
0.072909944 0.26091066 0.050176296 0.060655043 0.04422771 -0.036695126 0.118765034 0.016236281
0.063557014 -0.057106826 -0.06534288 0.043927472 0.1965177 0.049487945 -0.042222466 0.042534065
0.05397295 0.26477638 0.08017228 -0.088889256 -0.039195094 -0.04853448 -0.00831988 0.018063076
-0.11031947 -0.0844063 0.20441014 0.16929828 -0.10324163 0.12559672 0.06042644 -0.07894575
0.038342055 -0.06517299 0.25928935 -0.04222646 -0.054641757 -0.17886625 -0.11066421 0.15088177
00000000: 92bd 523e 9ac3 69bd 00ab 923c 0525 f13c
00000010: 1958 9d3d af9b 713d 0542 263e 3df6 163e
00000020: 0433 543e e20f 703e 1252 0c3d d0b0 17bc
00000030: 9399 c43c b75b 94bc 6355 8e3e 153c 2ebe
00000040: 5181 343e 483c d5bd c909 853e 46d1 1c3d
00000050: 4dfa 093d a6db 1e3e 2a5f 013d 2810 193e
00000060: 67ce c73d d8f7 243e cc07 783c 0900 5abd
00000070: 5a3b 3f3d 4e37 d8bd 41c3 b93d 6603 d23d
00000080: ca59 713e a20e 743d 5d92 9cbc ae29 43be
00000090: 8fd8 a43d e2a6 383d 9069 923d be13 103c
000000a0: 570c 72ba 4265 823e a878 cabd 0304 ecbd
000000b0: c668 003e d14d e2bc d0b4 d73d 7ce1 54bd
000000c0: 15be 2d3e 6823 683d e9fe d93b a822 1c3d
000000d0: 2724 8cbd 65a4 19be 5881 013d eb09 9c3d
000000e0: 028c 303e d07e ac3d d27f 053e 22e6 2e3e
000000f0: db24 b5bc af75 a83d cdc7 4c3e 7676 463d
00000100: ff09 843d 9e2b 753e 71c3 af3d 60c9 d03d
00000110: 1253 a23d f448 b73d 6764 b13d b69d 24be
00000120: c327 2d3e f474 4b3e cfa2 743d 686c 793d
00000130: cc3b 313e 6e5b 093e 26ee 913e 1a2c b73d
00000140: f70b f0bc a797 bebb 538b 373e 86b7 0a3e
00000150: 94aa 573d 7b18 073e 57ce 763e 5c79 873e
00000160: cf51 953d 1596 853e a985 4d3d 6c71 783d
00000170: 1e28 353d a14d 16bd 153b f33d f301 853c
00000180: 2e2a 823d d9e8 69bd 7dd2 85bd 4bed 333d
00000190: f03b 493e dfb3 4a3d 77f1 2cbd 3338 2e3d
000001a0: bd12 5d3d c590 873e 5d31 a43d 920b b6bd
000001b0: 098b 20bd 17cc 46bd 1b50 08bc 04f9 933c
000001c0: 2def e1bd 36dd acbd e450 513e 875c 2d3e
000001d0: 5970 d3bd 6d9c 003e b781 773d 4fae a1bd
000001e0: 8f0c 1d3d 6b79 85bd 93c1 843e a7f5 2cbd
000001f0: 09d0 5fbd b728 37be eba3 e2bd c080 1a3e

net_container.2.weight f4 [128, 128]
0.020243948 -0.12582134 0.040000033 0.0001798856 0.017279724 0.04024609 0.07590687 -0.10762755
-0.023443013 0.035713665 -0.033774678 -0.1336841 -0.00933533 0.0010565419 0.04041918 -0.013778106
0.004220155 0.027970541 -0.08713632 0.055977937 -0.025273584 0.06766048 -0.09547618 -0.116094135
-0.1292049 -0.15501791 -0.102948874 0.05293788 0.044717815 -0.0069558336 -0.08687637 -0.052022368
-0.060730785 -0.09468237 -0.098516256 -0.071579486 -0.015107266 -0.014929371 0.08448406 0.11545495
0.031460438 0.035372943 -0.18044621 -0.07503794 -0.014002236 0.05937815 -0.15940385 0.02511289
0.12233111 0.07344025 0.03491331 -0.08989786 0.007522467 -0.06602951 -0.083736524 -0.14727055
-0.08032739 -0.123256154 0.13276654 0.032135274 -0.017372651 0.018940702 -0.04193741 -0.05396615
-0.08273826 -0.11555964 -0.008502757 -0.13967605 -0.060731214 0.07193433 0.066908926 0.02195834
0.032434437 -0.14507522 -0.13438636 0.08470066 -0.048037164 -0.11370286 -0.0024600676 0.061013397
0.086406305 0.05714993 -0.05665096 -0.020306513 -0.19587685 0.082526185 -0.090411425 -0.028437562
-0.020677535 -0.07100639 -0.14970997 -0.1042996 -0.1024662 -0.0061444994 -0.010597843 -0.012918764
0.011529211 -0.05847946 -0.011783697 -0.10103786 -0.0005901548 0.0028686295 -0.07529428 -0.034350332
-0.0047424496 -0.1649273 -0.070433654 -0.033119936 0.095455885 -0.028623296 0.008175638 -0.14313298
0.061476808 -0.06130091 -0.08779356 -0.122630976 -0.08434468 -0.055593904 -0.03650696 0.041738875
-0.020689897 0.0403199 -0.040843464 0.0121451765 -0.034084033 0.08867677 0.0018789239 -0.049218632
0.016012084 -0.03815956 -0.09727994 -0.0929096 0.0671593 -0.07377106 0.0054781158 0.069978476
-0.0023568536 0.007819077 -0.008686219 0.064506605 -0.054864813 -0.023737682 -0.07227008 -0.041341744
0.022623878 -0.039664347 0.006032129 0.027323896 -0.045119524 -0.14270343 0.10999315 -0.14158532
-0.16010721 0.08290844 -0.10982452 0.043928295 -0.04392906 0.022905713 0.03800758 -0.042185124
-0.018862389 -0.050829858 -0.0029671984 -0.07914262 0.086636916 0.011094545 -0.1401837 -0.12284698
0.059546154 -0.037827894 0.00971761 0.12549411 -0.049436685 0.10469846 -0.015657404 0.04024688
-0.057443958 0.039320428 0.02440715 -0.11615998 -0.04688499 -0.13897763 -0.0024235449 0.002790108
-0.07367113 0.028279396 -0.114367805 0.07230124 -0.08668702 0.029503606 -0.045569543 0.042447347
-0.024903804 -0.0804596 -0.10180403 -0.077238575 -0.05864645 -0.053017903 0.031090764 -0.040150132
0.00018652165 0.017045716 -0.13074267 -0.07058619 -0.008279395 -0.035842266 0.08583447 0.02899627
-0.01404271 -0.12535761 -0.032477878 -0.006262873 -0.1175083 -0.050750136 0.030495368 -0.015670646
0.026785986 -0.03484013 -0.040412527 -0.07878061 0.027972577 0.0050719036 -0.07199918 -0.04472256
-0.0053435033 0.2538376 0.03967208 0.024299925 0.01743022 -0.09062134 -0.0061126105 0.04069679
-0.043039985 -0.026771752 -0.0424509 -0.07540339 0.07419017 -0.07909531 0.043750994 -0.034098033
-0.10215224 -0.008781898 -0.010136114 0.090077326 -0.118601725 0.05183612 0.03577511 0.016473114
0.051383633 -0.053832352 -0.23079877 -0.07194797 -0.009309264 0.025093634 0.1964897 -0.03641869
00000000: a3d6 a53c 4fd7 00be 13d7 233d ac9f 3c39
00000010: 358e 8d3c 16d9 243d 1075 9b3d d56b dcbd
00000020: 900b c0bc 7e48 123d 5157 0abd 7ce4 08be
00000030: 36f3 18bc aa7b 8a3a 958e 253d 91bd 61bc
00000040: 3a49 8a3b 7a22 e53c 8774 b2bd 1f49 653d
00000050: 8c0a cfbc 9491 8a3d 0489 c3bd c3c2 edbd
00000060: 4a4e 04be 04bd 1ebe dcd6 d2bd 64d5 583d
00000070: 072a 373d c3ed e3bb 3dec b1bd 6815 55bd
00000080: d8c0 78bd d5e8 c1bd e4c2 c9bd 4498 92bd
00000090: 7784 77bc 529a 74bc fb05 ad3d a573 ec3d
000000a0: a9dc 003d 38e3 103d e4c6 38be 7ead 99bd
000000b0: a269 65bc 8136 733d c33a 23be 8cb9 cd3c
000000c0: bc88 fa3d d767 963d 4201 0f3d 5f1c b8bd
000000d0: 077f f63b 7b3a 87bd 0e7e abbd 17ce 16be
000000e0: b082 a4bd b96d fcbd f4f3 073e 47a0 033d
000000f0: 1751 8ebc 8829 9b3c 90c6 2bbd 9c0b 5dbd
00000100: ad72 a9bd 88aa ecbd 264f 0bbc 3d07 0fbe
00000110: 4bc1 78bd 4e52 933d 8c07 893d fae1 b33c
00000120: f9d9 043d 998e 14be 949c 09be 8a77 ad3d
00000130: 9ec2 44bd 0cdd e8bd 1639 21bb 2fe9 793d
00000140: caf5 b03d 0c16 6a3d d60a 68bd d859 a6bc
00000150: f193 48be 7d03 a93d a029 b9bd e4f5 e8bc
00000160: ef63 a9bc cc6b 91bd 924d 19be 079b d5bd
00000170: cdd9 d1bd cc57 c9bb 93a2 2dbc 39a9 53bc
00000180: 04e5 3c3c 2988 6fbd 6810 41bc f0ec cebd
00000190: 9eb4 1aba 9eff 3b3b e333 9abd efb2 0cbd
000001a0: 8d66 9bbb b4e2 28be 853f 90bd c5a8 07bd
000001b0: 607e c33d 677b eabc 1cf3 053c 7491 12be
000001c0: 1bcf 7b3d aa16 7bbd 1ccd b3bd f325 fbbd
000001d0: e7bc acbd 6fb6 63bd 5288 15bd 62f6 2a3d
000001e0: dc7d a9bc 7b26 253d 7a4b 27bd 90fc 463c
000001f0: b39b 0bbd 2b9c b53d 3946 f63a 7a99 49bd
00000200: c62b 833c 334d 1cbd b53a c7bd 6347 bebd
00000210: d18a 893d 4815 97bd c481 b33b e050 8f3d
00000220: 7175 1abb 961b 003c a550 0ebc 0a1c 843d
00000230: edb9 60bd 8775 c2bc 5602 94bd f655 29bd
00000240: b655 b93c 1577 22bd 2aa9 c53b 5dd6 df3c
00000250: 40cf 38bd d920 12be 1744 e13d befb 10be
00000260: 25f3 23be e6cb a93d aeeb e0bd 28ee 333d
00000270: f5ee 33bd c3a4 bb3c d6ad 1b3d 4fca 2cbd
00000280: 4c85 9abc f832 50bd 5475 42bb 8715 a2bd
00000290: b26e b13d e5c5 353c 518c 0fbe 3397 fbbd
000002a0: abe6 733d 6cf1 1abd 9c36 1f3c 8781 003e
000002b0: 1f7e 4abd 256c d63d f543 80bc ead9 243d
000002c0: 5b4a 6bbd 750e 213d 81f1 c73c 49e5 edbd
000002d0: 7a0a 40bd 2750 0ebe 56d4 1ebb 3fda 363b
000002e0: e4e0 96bd 31aa e73c ab39 eabd ac12 943d
000002f0: f788 b1bd 8cb1 f13c 21a7 3abd 45dd 2d3d
00000300: 1003 ccbc 01c8 a4bd a27e d0bd 422f 9ebd
00000310: 4337 70bd 4d29 59bd 0fb2 fe3c 7774 24bd
00000320: 0695 4339 75a3 8b3c 68e1 05be 7e8f 90bd
00000330: 4da6 07bc 57cf 12bd fcc9 af3d 9689 ed3c
00000340: 6513 66bc bf5d 00be 8607 05bd c938 cdbb
00000350: 31a8 f0bd 60df 4fbd 6cd1 f93c ba5f 80bc
00000360: 496e db3c 86b4 0ebd 9b87 25bd ba57 a1bd
00000370: bf26 e53c 3632 a63b 4e74 93bd 012f 37bd
00000380: 8e18 afbb 00f7 813e 317f 223d a310 c73c
00000390: d2c9 8e3c ae97 b9bd 4b4c c8bb adb1 263d
000003a0: b24a 30bd 6f50 dbbc ffe0 2dbd 186d 9abd
000003b0: 04f1 973d b9fc a1bd 3e34 333d 61aa 0bbd
000003c0: 3235 d1bd f3e1 0fbc f211 26bc 767a b83d
000003d0: 76e5 f2bd 1d52 543d ec88 123d a0f2 863c
000003e0: a577 523d 507f 5cbd 8356 6cbe 7559 93bd
000003f0: e285 18bc 2a91 cd3c 9934 493e c42b 15bd

net_container.2.bias f4 [128]
0.0672317 -0.15252241 -0.13666603 -0.03952155 -0.07294628 0.003720944 0.0053160093 0.10336922
0.050269265 -0.15355542 0.112243325 -0.18361385 0.010393794 -0.110922985 0.028995622 0.06181778
-0.11403516 0.011638461 -0.03735838 0.025839413 0.08043207 -0.041206118 0.023615735 -0.021263514
-0.0066314884 0.013992259 0.018843463 -0.18403816 0.04967889 -0.06695889 -0.15190795 -0.0046353554
0.031676702 -0.13058434 0.037791718 -0.09464639 -0.03540787 0.018355587 0.04654829 -0.12605606
-0.16922905 0.012042235 -0.054221425 0.033257894 0.0050297147 0.116987824 0.039528362 0.049895
0.017239878 -0.09609865 0.06510332 -0.018087307 -0.0041145314 0.071901865 -0.028254824 -0.047846146
0.07454245 -0.124203995 0.053957038 0.1385051 -0.13040593 -0.046941824 -0.15925853 0.034146592
-0.018849878 -0.06908373 0.06516785 -0.013268303 -0.1115256 0.04255803 -0.11405171 -0.12695388
-0.028282218 0.02934075 -0.12425116 -0.018078469 0.08012932 -0.073553234 -0.07666806 -0.008122508
-0.033213727 -0.12808149 0.051897567 -0.02962426 -0.17815907 -0.14490762 0.051208697 0.12457651
0.047137234 -0.10882805 -0.1101222 -0.07408511 -0.086573176 0.005949976 -0.13723934 0.06436596
-0.069898896 0.03281699 -0.15273613 0.0099758515 -0.13283296 -0.08010343 -0.077016994 -0.05618995
-0.123923026 -0.12142291 -0.035657935 -0.0364583 -0.13031003 -0.07727409 0.15428562 -0.014987926
-0.13957046 0.03317208 0.05740645 -0.021048501 0.04968843 -0.028373674 -0.12508886 -0.07676292
0.109139554 -0.13242978 0.077084586 -0.04880045 0.08811171 -0.0786656 -0.028297756 -0.1302807
00000000: c6b0 893d d62e 1cbe 2ef2 0bbe 59e1 21bd
00000010: dc64 95bd 15db 733b eb31 ae3b 3eb3 d33d
00000020: 25e7 4d3d a23d 1dbe d4df e53d 4505 3cbe
00000030: bb4a 2a3c 972b e3bd 3a88 ed3c a434 7d3d
00000040: 448b e9bd 3eaf 3e3c 1a05 19bd 2dad d33c
00000050: 92b9 a43d bfc7 28bd c975 c13c d230 aebc
00000060: f54c d9bb ca3f 653c 9b5d 9a3c 8074 3cbe
00000070: 177c 4b3d be21 89bd c28d 1bbe 2ee4 97bb
00000080: 6ebf 013d e7b7 05be 7dcb 1a3d f7d5 c1bd
00000090: d807 11bd 755e 963c 6ba9 3e3d d714 01be
000000a0: 614a 2dbe cb4c 453c 4917 5ebd 6e39 083d
000000b0: 4ed0 a43b 5097 ef3d 7ee8 213d b35e 4c3d
000000c0: a53a 8d3c 5ecf c4bd e454 853d d52b 94bc
000000d0: 31d3 86bb 4941 933d a976 e7bc 52fa 43bd
000000e0: b6a9 983d aa5e febd 0e02 5d3d 48d4 0d3e
000000f0: 2289 05be 1246 40bd ab14 23be 4cdd 0b3d
00000100: 0f6b 9abc c57b 8dbd b976 853d 4c63 59bc
00000110: 8967 e4bd 5451 2e3d f193 e9bd 3300 02be
00000120: 1cb0 e7bc 035c f03c 6477 febd 4c19 94bc
00000130: d71a a43d 14a3 96bd 2504 9dbd 4514 05bc
00000140: 1e0b 08bd cb27 03be 8b92 543d 93ae f2bc
00000150: 556f 36be aa62 14be 36c0 513d f821 ff3d
00000160: f912 413d 3ee1 debd bf87 e1bd efb9 97bd
00000170: 474d b1bd 04f8 c23b 7888 0cbe 4dd2 833d
00000180: 2727 8fbd 1c6b 063d dc66 1cbe c171 233c
00000190: 5d05 08be 440d a4bd 16bb 9dbd 6f27 66bd
000001a0: 5bcb fdbd 93ac f8bd 0e0e 12bd 4c55 15bd
000001b0: fe6f 05be e141 9ebd 0dfd 1d3e eb8f 75bc
000001c0: 8feb 0ebe 72df 073d 0723 6b3d e86d acbc
000001d0: 1886 4b3d e86f e8bc 4b17 00be e135 9dbd
000001e0: 8f84 df3d ac9b 07be 86de 9d3d fbe2 47bd
000001f0: ea73 b43d 6e1b a1bd b2d0 e7bc 4e68 05be

net_container.4.weight f4 [128, 128]
-0.028205633 0.10597484 -0.038661826 -0.025026444 -0.0015917047 -0.0045444667 0.027404392 0.058312308
-0.0049513653 -0.086871505 -0.015172246 0.05837202 0.12246335 -0.045602877 -0.00607177 0.016619494
-0.041965023 -0.040398072 0.032617796 0.050285067 -0.06706355 -0.05958457 0.13251331 -0.124664456
-0.0036062754 0.06831156 0.0112718 -0.00396123 0.10776865 0.100763336 -0.0036639983 0.035422143
0.031776484 -0.0025328144 -0.06996963 -0.01740247 -0.015320893 -0.020727279 0.03329272 -0.011873356
-0.016417451 -0.015083573 0.08968322 -0.017359555 0.0044350475 0.054455213 -0.112496816 -0.010968891
-0.05231062 -0.0059568635 0.042610247 0.009261029 0.02401718 -0.058524493 0.0589588 -0.0446918
0.08260493 -0.01307412 0.056667347 -0.012604994 0.03656589 0.015172565 -0.0125463735 -0.034067545
-0.08509051 -0.118997574 -0.060975302 -0.07478683 0.018078532 0.05166408 -0.01298664 0.035968564
0.11320208 0.010255144 -0.026840758 -0.016671471 0.008849842 0.04695323 0.082376584 -0.067504495
0.024520528 0.04892356 0.004601296 -0.043662596 0.039963193 0.041919794 -0.0046883426 0.006114823
0.058486167 0.074062675 0.051258713 0.05190077 0.050229866 0.023653734 0.016256427 -0.031825013
-0.016310353 0.086674064 0.10995318 0.10861573 0.015388481 0.038962483 0.03756824 0.09465017
0.041686293 -0.020573001 0.04195314 0.050893653 -0.045977842 -0.09250836 0.0157537 0.12178218
0.072489165 -0.06107545 0.02465652 0.042587932 -0.03786902 0.0708018 -0.027422866 -0.036380984
0.10062792 -0.07322519 0.04605607 0.077996194 0.055318207 0.0020379038 0.08719632 -0.00012265859
0.046954736 -0.058658604 -0.08132204 0.058138654 0.033068128 -0.0018115491 -0.050078135 -0.050196197
-0.032287385 -0.079044305 0.15271015 -0.052893247 0.05764229 0.042011064 0.11650795 -0.029559823
-0.004049685 -0.081741095 -0.022306874 0.052849084 0.12019681 0.03853365 0.10564595 -0.02897985
0.09617966 0.041635845 0.079381116 -0.03730077 0.12724608 -0.06604335 0.039620128 0.06790986
0.070808135 0.091284275 -0.019812012 0.028052978 -0.026638342 -0.0041472185 0.009960688 -0.038570616
0.03723009 -0.11574426 -0.04876116 0.035134714 -0.048654106 0.043030314 -0.17556638 0.021775477
-0.0024976095 -0.064194135 0.080177516 0.03605529 -0.1237765 0.031016191 -0.0660049 -0.06600473
0.068671405 0.0061598336 0.025913551 -0.06979886 0.053049464 0.08846029 0.07276853 -0.04071846
-0.1326498 -0.096696556 0.0117333885 0.06261034 0.0056183077 5.6184144e-05 -0.026580144 -0.03387968
0.09945136 0.046147883 0.03451736 0.07230562 -0.045240045 0.0100352755 -0.1090358 -0.114350736
-0.10299501 -0.010691209 -0.007085781 0.066823356 0.004073402 0.0066000284 -0.10384302 0.011214044
0.061098974 0.0071453764 -0.047179915 -0.048379313 0.020544989 -0.0248032 0.044563647 0.03797654
0.06436489 -0.031596113 0.029971074 0.043099187 0.05006517 -0.06006553 0.024841987 0.05499562
0.013248523 -0.021034492 -0.0033816635 0.017164586 0.074565366 -0.042862177 -0.06984869 0.05126
-0.012549588 0.08525267 0.073540285 0.049133908 0.074534774 -0.044951186 0.09516051 0.058670048
-0.027735565 -0.02292361 0.054845802 0.10458826 -0.014376074 -0.049537096 -0.016255686 0.048194602
00000000: 800f e7bc 5609 d93d dd5b 1ebd 4204 cdbc
00000010: bfa0 d0ba c0e9 94bb 2d7f e03c e3d8 6e3d
00000020: 103f a2bb b0e9 b1bd 0395 78bc 8017 6f3d
00000030: 11ce fa3d 15ca 3abd b3f5 c6bb 9b25 883c
00000040: 84e3 2bbd 7378 25bd 3d9a 053d b7f7 4d3d
00000050: 9d58 89bd f30e 74bd 92b1 073e 1450 ffbd
00000060: 4357 6cbb eee6 8b3d 5bad 383c 35cd 81bb
00000070: cfb5 dc3d 025d ce3d b11f 70bb cf16 113d
00000080: 0f28 023d 93fd 25bb 3d4c 8fbd a08f 8ebc
00000090: 7c04 7bbc 41cc a9bc f25d 083d 7788 42bc
000000a0: e47d 86bc 1721 77bc d6ab b73d a035 8ebc
000000b0: e053 913b 6e0c 5f3d bb64 e6bd ddb6 33bc
000000c0: a943 56bd cb31 c3bb 1588 2e3d 92bb 173c
000000d0: adbf c43c 61b7 6fbd c87e 713d c00e 37bd
000000e0: c62c a93d d534 56bc 051c 683d 2d85 4ebc
000000f0: 1dc6 153d 5a96 783c 4e8f 4dbc 698a 0bbd
00000100: ef43 aebd 00b5 f3bd 3dc1 79bd d629 99bd
00000110: 6e19 943c b79d 533d ebc5 54bc c653 133d
00000120: 7ed6 e73d 3105 283c 26e1 dbbc 9c92 88bc
00000130: edfe 103c 0852 403d 0eb5 a83d cc3f 8abd
00000140: 46df c83c 1264 483d 78c6 963b 8dd7 32bd
00000150: 72b0 233d 17b4 2b3d aba0 99bb da5e c83b
00000160: 318f 6f3d 2cae 973d a8f4 513d e795 543d
00000170: d5bd 4d3d 7ac5 c13c 332c 853c f25a 02bd
00000180: 4a9d 85bc 2c82 b13d 222f e13d ed71 de3d
00000190: f81f 7c3c 2097 1f3d 28e1 193d f3d7 c13d
000001a0: 3fbf 2a3d b688 a8bc 0ed7 2b3d dd75 503d
000001b0: 4353 3cbd 0675 bdbd e70d 813c f068 f93d
000001c0: 3375 943d 402a 7abd 78fc c93c af70 2e3d
000001d0: 8c1c 1bbd 8900 913d eba5 e0bc 3a04 15bd
000001e0: 0316 ce3d 17f7 95bd 4aa5 3c3d 78bc 9f3d
000001f0: 5895 623d 5a8e 053b fc93 b23d ea9d 00b9
00000200: 9c53 403d 0144 70bd 2b8c a6bd cc22 6e3d
00000210: 7272 073d 8071 edba bb1e 4dbd 879a 4dbd
00000220: c73f 04bd fbe1 a1bd 0d60 1c3e 97a6 58bd
00000230: 521a 6c3d cb13 2c3d b89b ee3d 7127 f2bc
00000240: 38b3 84bb e067 a7bd e8bc b6bc 4878 583d
00000250: bf29 f63d 76d5 1d3d e75c d83d 2667 edbc
00000260: d7f9 c43d 598a 2a3d 9192 a23d b1c8 18bd
00000270: cc4c 023e bc41 87bd b748 223d 5314 8b3d
00000280: db03 913d 40f3 ba3d cd4c a2bc 5ccf e53c
00000290: a738 dabc 64e5 87bb 2732 233c 39fc 1dbd
000002a0: 947e 183d 540b edbd c8b9 47bd 6be9 0f3d
000002b0: 8749 47bd 8e40 303d acc7 33be 7c62 b23c
000002c0: efae 23bb 3778 83bd 1c34 a43d b6ae 133d
000002d0: 897e fdbd ab15 fe3c 942d 87bd 7d2d 87bd
000002e0: 98a3 8c3d 6ed8 c93b a848 d43c b4f2 8ebd
000002f0: 654a 593d ab2a b53d ab07 953d 66c8 26bd
00000300: 59d5 07be d808 c6bd 663d 403c da39 803d
00000310: c819 b83b 44a7 6b38 9abe d9bc 6bc5 0abd
00000320: 28ad cb3d 9005 3d3d 1362 0d3d f814 943d
00000330: a04d 39bd ff6a 243c 294e dfbd b830 eabd
00000340: 0cef d2bd 2e2a 2fbc d72f e8bb afda 883d
00000350: 2c7a 853b 0d45 d83b a6ab d4bd 1cbb 373c
00000360: eb42 7a3d c323 ea3b ba3f 41bd 6329 46bd
00000370: f74d a83c 1530 cbbc 5f88 363d 4a8d 1b3d
00000380: bdd1 833d ed6a 01bd e685 f53c c688 303d
00000390: 2311 4d3d 4607 76bd 6c81 cb3c 1643 613d
000003a0: 5510 593c 8750 acbc e69e 5dbb bf9c 8c3c
000003b0: bab5 983d 4090 2fbd d40c 8fbd 01f6 513d
000003c0: ca9c 4dbc f498 ae3d 4a9c 963d a340 493d
000003d0: b0a5 983d bc1e 38bd 83e3 c23d 0150 703d
000003e0: b235 e3bc 4bca bbbc fea5 603d 5f32 d63d
000003f0: a089 6bbc 69e7 4abd a52a 85bc b467 453d

net_container.4.bias f4 [128]
-0.067106895 -0.062135484 0.082088955 -0.14630465 -0.04698859 -0.10329361 -0.0327604 -0.07856955
-0.0862752 0.010125728 0.10253358 -0.05246383 -0.02776537 -0.13195 0.015496935 0.11001872
-0.07668409 0.07104542 0.0694502 -0.042751238 -0.044049993 -0.07777565 -0.1635973 0.005003786
0.0025887229 -0.12798278 0.09841769 0.04297676 -0.050394263 0.047107458 -0.13804978 -0.013026426
0.056792445 -0.04014042 -0.10587225 -0.083669014 -0.019187784 -0.027816279 0.06256875 0.09848558
-0.045588717 -0.09675806 0.06797071 -0.051001154 -0.10392189 0.07909381 -0.1090887 0.029525228
0.090262555 0.023891212 -0.0040935357 -0.10421702 0.030036747 -0.039071664 -0.042314097 0.05987087
0.07753921 -0.06808577 -0.07373012 0.09580175 -0.06662688 -0.1031718 -0.023387618 0.005239393
-0.066020004 -0.022378953 -0.1236733 0.05078235 -0.045906544 -0.022317857 0.08609342 -0.036724366
0.015885202 0.013764952 -0.12131557 0.11025156 0.0196082 -0.0059549497 0.09319053 -0.051827814
0.08650465 0.0032724268 0.02570282 0.037233148 -0.022731263 -0.13183117 -0.010210041 -0.035403866
0.026729887 0.002291547 -0.045622926 -0.022718897 -0.13429928 -0.055872995 0.0028071762 -0.011006807
-0.05083175 -0.14634153 0.025388619 -0.013984605 -0.14757267 -0.0487331 -0.14775838 0.021107744
0.025525862 -0.01413477 0.070171654 -0.08563079 -0.08915821 0.068937145 -8.341422e-06 -0.023669837
-0.09595812 -0.17690612 0.06933607 0.0784854 0.074258596 0.0016464263 0.021649497 0.07475156
-0.055161104 0.041924946 0.04172617 -0.09276241 -0.02443344 -0.05740234 0.040780332 -0.011427478
00000000: 576f 89bd c781 7ebd 411e a83d e3d0 15be
00000010: 1c77 40bd 9a8b d3bd c52f 06bd 12e9 a0bd
00000020: 0db1 b0bd 62e6 253c 20fd d13d 50e4 56bd
00000030: 3474 e3bc e71d 07be dbe6 7d3c 7f51 e13d
00000040: 8c0c 9dbd 4380 913d e83b 8e3d ec1b 2fbd
00000050: c46d 34bd d748 9fbd 0d86 27be cdf6 a33b
00000060: 90a7 293b eb0d 03be 378f c93d 6608 303d
00000070: 376a 4ebd c0f3 403d ec5c 0dbe ca6c 55bc
00000080: 329f 683d 486a 24bd 8dd3 d8bd a95a abbd
00000090: b32f 9dbc f7de e3bc 0b24 803d cfb2 c93d
000000a0: 3cbb 3abd 1729 c6bd 3a34 8b3d 96e6 50bd
000000b0: 00d5 d4bd effb a13d e569 dfbd e4de f13c
000000c0: 93db b83d 81b7 c33c 1123 86bb bc6f d5bd
000000d0: a00f f63c 9c09 20bd 8c51 2dbd 283b 753d
000000e0: e1cc 9e3d 8d70 8bbd d1ff 96bd b533 c43d
000000f0: ac73 88bd bd4b d3bd 6497 bfbc 37af ab3b
00000100: 7f35 87bd 1154 b7bc 6d48 fdbd 2701 503d
00000110: 8008 3cbd f0d3 b6bc bf51 b03d 4a6c 16bd
00000120: af21 823c 6586 613c 4c74 f8bd 92cb e13d
00000130: 60a1 a03c bd21 c3bb adda be3d 6749 54bd
00000140: 5a29 b13d 3676 563b b88e d23c c981 183d
00000150: ea36 babc c0fe 06be 0448 27bc a503 11bd
00000160: a3f8 da3c c72d 163b 1bdf 3abd fb1c babc
00000170: c085 09be 15db 64bd 9af8 373b e555 34bc
00000180: f434 50bd 8eda 15be cbfb cf3c af1f 65bc
00000190: 4a1d 17be 5c9c 47bd f94d 17be 26ea ac3c
000001a0: 9d1b d13c 8695 67bc 28b6 8f3d 325f afbd
000001b0: 9498 b6bd eb2e 8d3d 22f2 0bb7 3fe7 c1bc
000001c0: b185 c4bd e126 35be 1200 8e3d f4bc a03d
000001d0: e414 983d e6cc d73a 495a b13c 5917 993d
000001e0: 9cf0 61bd 7eb9 2b3d 0fe9 2a3d 38fa bdbd
000001f0: a328 c8bc b71e 6bbd 4709 273d 513a 3bbc

policy_layer.weight f4 [19, 128]
0.03016352 0.027180372 -0.025891751 -0.017952636 -0.066921584 0.11422112 0.030688792 -0.01977943
-0.021463439 0.08618604 -0.050587896 0.030339992 0.027579926 0.06625844 -0.02065027 0.061367776
-0.031339563 -0.028698634 0.048539665 -0.0010720362 -0.0034565069 -0.041701097 0.032784812 -0.08784826
-0.049933124 -0.037451707 -0.019311026 0.024295602 0.038418747 0.0673689 -0.026063751 0.017553454
-0.013330289 -0.03677336 0.03987487 0.0075155078 0.05581257 0.07360661 -0.010129215 0.0069714114
0.00086115807 0.023091312 -0.057254888 0.064908005 -0.045389157 -0.029238394 0.015648637 0.014002706
-0.0037454162 -0.006573624 -0.08299363 0.05975501 0.048080307 -0.0124561265 0.01811528 0.013647114
0.0055415616 0.029417094 0.018759353 0.029414672 0.057701245 0.060916428 0.053185295 -0.0049892883
-0.0049920464 -0.044057913 -0.052038975 0.020151244 -0.050242182 -0.026873484 -0.039463703 0.015919082
0.035776343 -0.01714069 0.014082147 0.02351984 0.055180278 -0.044223394 0.012404725 -0.0059010405
0.00041265387 -1.0746267e-05 0.045366332 -0.060838364 0.012679888 -0.055430595 0.009651915 -0.002930047
0.00456879 0.014723607 0.041248024 -0.029495312 -0.04046989 0.08679226 -0.058094986 0.0105992425
0.06474838 0.03587103 -0.008353384 -0.0649796 0.049748734 -0.00250136 -0.030532844 -0.06345313
-0.0768642 -0.011931463 0.017227188 0.013955194 -0.0068090763 0.009885938 0.064847246 -0.0052804006
-0.014417572 0.039527036 0.030828983 -0.017113168 -0.045915775 0.048641264 -0.024442159 -0.009568466
-0.025199736 -0.07740518 -0.02648236 -0.04175068 -0.0163886 -0.05579331 -0.01067797 -0.048427656
-0.0030566207 0.06014961 0.0779113 -0.098210454 -0.020770375 0.03329106 0.030163927 -0.015967447
-0.03336222 0.008593461 -0.0377176 -0.01055883 -0.063452594 -0.09363381 0.026910884 -0.015577642
-0.014309113 -0.06024288 0.055423412 -0.049472652 0.020243427 0.060378186 0.005706834 0.10671902
-0.018654866 0.03532026 0.035906423 -0.017291274 0.012967479 -0.01769371 -0.002089678 -0.055335574
0.012521116 0.010143772 -0.013740906 -0.059582207 0.03986831 -0.004554118 -0.0037819797 -0.0031263258
-0.02997832 -0.05805532 -0.013811111 -0.04689186 0.01766712 0.047282875 -0.029381655 0.025185315
-0.006724077 0.013158202 -0.037671193 -0.0025136056 0.0011910698 -0.0047274376 -0.011998541 0.07140437
-0.021442162 0.016994955 -0.045094065 0.05891446 -0.1026148 -0.004326501 -0.052239142 -0.018018931
-0.029973531 -0.0038474088 0.069477275 -0.008186288 0.029364537 0.07596666 -0.033698738 -0.08021395
-0.04466141 -0.037037652 -0.062279116 0.008669022 -0.009142229 0.006784897 0.022319008 -0.103512555
0.008211943 0.03742628 -0.0040062554 0.014473247 0.021205464 -0.0046998966 0.024229584 0.018141886
-0.005024414 -0.05960372 0.04112444 -0.053742178 0.0067996406 -0.052517377 -0.0132109905 0.036243547
0.019780489 -0.0010685109 -0.039344564 0.015251411 0.045461357 0.042826846 -0.0012420976 0.006693491
0.055388782 0.032670524 0.016859818 0.026333643 -0.113891765 -0.0011871192 -0.007920211 -0.017881373
-0.0405566 -0.07045349 0.008061925 0.007365946 0.052032184 -0.00018297254 -0.002679378 -0.036760107
0.008674444 0.039875016 0.018525438 0.038259603 0.022080118 -0.007954224 -0.047812793 0.07053944
00000000: 7c19 f73c 5fa9 de3c f01a d4bc 6811 93bc
00000010: 2f0e 89bd c3ec e93d 1067 fb3c 7908 a2bc
00000020: 18d4 afbc 4e82 b03d 4135 4fbd 938b f83c
00000030: 4cef e13c 81b2 873d c12a a9bc c75c 7b3d
00000040: ea5d 00bd 6619 ebbc 87d1 463d 9183 8cba
00000050: 9086 62bb c5ce 2abd 5e49 063d cae9 b3bd
00000060: ad86 4cbd f666 19bd 2832 9ebc 9207 c73c
00000070: fa5c 1d3d b5f8 893d a683 d5bc 43cc 8f3c
00000080: 4967 5abc aa9f 16bd d553 233d a644 f63b
00000090: b99b 643d 10bf 963d 02f5 25bc 7070 e43b
000000a0: 57bf 613a fe29 bd3c 1a84 6abd 7dee 843d
000000b0: fbe9 39bd 5b85 efbc 9231 803c 9b6b 653c
000000c0: a875 75bb 8e67 d7bb 90f8 a9bd abc1 743d
000000d0: dbef 443d c814 4cbc 7f66 943c 2598 5f3c
000000e0: fd95 b53b 1efc f03c 37ad 993c 0af7 f03c
000000f0: 2458 6c3d 8183 793d d3d8 593d 2f7d a3bb
00000100: 5294 a3bb 1276 34bd d226 55bd 3914 a53c
00000110: bfca 4dbd c825 dcbc b1a4 21bd bc68 823c
00000120: 378a 123d a26a 8cbc ceb8 663c aeac c03c
00000130: b704 623d 9723 35bd 303d 4b3c 845d c1bb
00000140: 7759 d839 de4a 34b7 0cd2 393d a631 79bd
00000150: 4ebf 4f3c 310b 63bd 1123 1e3c 0806 40bb
00000160: cab5 953b 493b 713c b0f3 283d 27a0 f1bc
00000170: c1c3 25bd 24c0 b13d 02f5 6dbd 72a8 2d3c
00000180: cc9a 843d 80ed 123d a2dc 08bc 0614 85bd
00000190: 54c5 4b3d dbed 23bb 0420 fabc b7f3 81bd
000001a0: fa6a 9dbd 2f7c 43bc 0820 8d3c 53a4 643c
000001b0: ac1e dfbb a1f8 213c a2ce 843d 3607 adbb
000001c0: ae37 6cbc 1ae7 213d 108d fc3c ea30 8cbc
000001d0: 2e12 3cbd 103c 473d ec3a c8bc 0ec5 1cbc
000001e0: ad6f cebc 9b86 9ebd 89f1 d8bc c302 2bbd
000001f0: 6341 86bc 8787 64bd a7f2 2ebc 145c 46bd
00000200: 9651 48bb 705f 763d f68f 9f3d 9022 c9bd
00000210: a226 aabc 355c 083d 571a f73c 2ace 82bc
00000220: d3a6 08bd 96cb 0c3c c57d 1abd f1fe 2cbc
00000230: 6ff3 81bd 15c3 bfbd 3774 dc3c 5e39 7fbc
00000240: c570 6abc 3dc1 76bd a903 633d d6a3 4abd
00000250: 8bd5 a53c 1e4f 773d 6500 bb3b 808f da3d
00000260: 17d2 98bc faab 103d 9d12 133d 6ea6 8dbc
00000270: 8d75 543c 66f2 90bc fbf2 08bb 8ea7 62bd
00000280: 5e25 4d3c 1032 263c 8921 61bc 790c 74bd
00000290: f44c 233d b63a 95bb 17db 77bb 0be3 4cbb
000002a0: 1895 f5bc 6acb 6dbd 0048 62bc ae11 40bd
000002b0: a3ba 903c b0ab 413d ccb1 f0bc 6f51 ce3c
000002c0: a555 dcbb 8095 573c 1c4d 1abd 4ebb 24bb
000002d0: ac1d 9c3a 9fe8 9abb 8795 44bc 743c 923d
000002e0: 79a7 afbc 0139 8b3c 8eb4 38bd 4a50 713d
000002f0: b527 d2bd 52c5 8dbb b6f8 55bd 709c 93bc
00000300: 0d8b f5bc cf24 7cbb 1a4a 8e3d c81f 06bc
00000310: e68d f03c 6994 9b3d b007 0abd 3647 a4bd
00000320: e2ee 36bd cbb4 17bd 6318 7fbd 8308 0e3c
00000330: 4ac9 15bc d753 de3b 5ad6 b63c 64fe d3bd
00000340: 638b 063c 4d4c 193d e846 83bb 3321 6d3c
00000350: 15b7 ad3c 9701 9abb 1f7d c63c 4b9e 943c
00000360: d7a3 a4bb 0823 74bd 1a72 283d c220 5cbd
00000370: 85cf de3b 761c 57bd e972 58bc 1d74 143d
00000380: b10a a23c 470d 8cba c427 21bd 0ee1 793c
00000390: b035 3a3d 346b 2f3d e1cd a2ba 1255 db3b
000003a0: 59df 623d 87d1 053d 9a1d 8a3c a7b9 d73c
000003b0: 1640 e9bd 1c99 9bba c6c3 01bc f57b 92bc
000003c0: ad1e 26bd eb49 90bd 2a16 043c 095e f13b
000003d0: b31f 553d 51dc 3fb9 8198 2fbb c491 16bd
000003e0: 411f 0e3c fc53 233d a9c2 973c 1ab6 1c3d
000003f0: 5de1 b43c 6f52 02bc 59d7 43bd fb76 903d

policy_layer.bias f4 [19]
-0.02375615 0.011338796 0.0027912636 0.015831161 0.027921168 -0.010532891 -0.038035166 0.03802417
-0.04907698 0.14097129 0.03135074 0.040359642 0.044774976 -0.0013765598 -0.029536283 -0.0055539794
-0.1433897 0.009315511 -0.02435098
00000000: 429c c2bc 5bc6 393c a2ed 363b 5ab0 813c
00000010: efba e43c 2692 2cbc c3ca 1bbd 3bbf 1b3d
00000020: f204 49bd c75a 103e a269 003d 2750 253d
00000030: f765 373d af6d b4ba 13f6 f1bc 28fe b5bb
00000040: c0d4 12be 16a0 183c b57b c7bc

value_layer.weight f4 [1, 128]
0.060865156 0.0020293146 -0.26834804 -0.004546773 -0.028388355 0.052096684 0.06829899 0.075464934
0.003466494 0.0485915 -0.09962566 0.06751363 0.23592877 0.025467105 0.07753832 -0.19855587
0.055364948 -0.15324865 0.1618155 -0.01361496 -0.079317056 -0.0013642344 0.03906163 0.16516536
-0.115105286 0.15213034 -0.054700244 -0.031321365 -0.14379506 0.018730296 0.078486316 0.06966853
-0.007859077 0.10085318 0.1113143 0.07916223 -0.0445296 0.019374756 -0.19327661 -0.38366964
0.045030374 0.017794244 0.011120664 -0.050039746 0.11776722 -0.11466692 0.15916006 0.082167335
-0.029947 -0.0039342316 0.1273683 -0.06523167 -0.18100162 -0.10301532 -0.03730695 -0.12728034
0.117319375 -0.093456976 0.062533505 -0.025570346 0.13972081 0.115624756 -0.086903 0.0019459071
-0.030955052 0.09582439 0.05808971 -0.040714346 -0.03317779 0.23541649 -0.1600405 -0.015603511
-0.045348685 -0.06196215 0.06705237 0.038007434 0.00306915 -0.02835552 0.031311538 -0.015569666
-0.10039264 -0.029176397 0.056997124 -0.11739062 0.08724992 0.07725067 -0.09138733 -0.04833468
0.1427724 0.0075596855 0.033572383 0.067549855 0.044410337 -0.05336894 0.1043577 -0.12206619
-0.031129837 0.13983622 -0.007321977 -0.045734223 -0.048298206 -0.2211578 0.0068902713 -0.02089501
0.00021499948 -0.13951881 -0.028426714 0.1373158 0.008923402 0.27317777 0.031294756 0.13460772
0.15414593 0.13141023 -0.094804324 -0.3158817 -0.12208579 -0.036632087 0.25396964 -0.07948469
-0.039494917 0.0850147 -0.056194197 0.122977 -0.082331985 0.1457537 -0.051740464 0.04645853
00000000: be4d 793d 40fe 043b ea64 89be 19fd 94bb
00000010: b28e e8bc 5563 553d 57e0 8b3d 5c8d 9a3d
00000020: 1e2e 633b e107 473d 8a08 ccbd 9644 8a3d
00000030: 5097 713e 64a0 d03c 69cc 9e3d 3b52 4bbe
00000040: 5bc6 623d 37ed 1cbe f6b2 253e 4811 5fbc
00000050: fb70 a2bd 1cd0 b2ba 16ff 1f3d 1c21 293e
00000060: 52bc ebbd 0ec8 1b3e 5d0d 60bd d54a 00bd
00000070: 033f 13be 4770 993c 6fbd a03d 60ae 8e3d
00000080: 5cc3 00bc 1d8c ce3d c0f8 e33d cf1f a23d
00000090: ab64 36bd cfb7 9e3c 4eea 45be 5970 c4be
000000a0: c571 383d 3cc5 913c 7233 363c 7af6 4cbd
000000b0: f12f f13d 7dd6 eabd dbfa 223e 5947 a83d
000000c0: 6953 f5bc baea 80bb d66c 023e 2f98 85bd
000000d0: 7d58 39be b2f9 d2bd 2ccf 18bd c755 02be
000000e0: 2445 f03d 5f66 bfbd 9111 803d e778 d1bc
000000f0: f912 0f3e accc ec3d 33fa b1bd cf0d ff3a
00000100: 7395 fdbc 943f c43d 7aef 6d3d 16c4 26bd
00000110: 6fe5 07bd 0511 713e a8e1 23be dea5 7fbc
00000120: 8bbf 39bd 06cc 7dbd c152 893d afad 1b3d
00000130: cb23 493b d649 e8bc 8740 003d ea17 7fbc
00000140: a89a cdbd 5703 efbc d175 693d 7e6a f0bd
00000150: 16b0 b23d 9935 9e3d 4829 bbbd 96fa 45bd
00000160: ee32 123e 3db7 f73b 3283 093d 9457 8a3d
00000170: 9de7 353d 6499 5abd 7db9 d53d d7fd f9bd
00000180: 0004 ffbc 3a31 0f3e 32ed efbb cf53 3bbd
00000190: 57d4 45bd 3177 62be c9c7 e13b 032c abbc
000001a0: 7c71 6139 05de 0ebe 24df e8bc 839c 0c3e
000001b0: 7633 123c f5dd 8b3e ee2e 003d 9bd6 093e
000001c0: 6ed8 1d3e 6790 063e c528 c2bd 3fbb a1be
000001d0: 1d08 fabd 870b 16bd 4f08 823e dfc8 a2bd
000001e0: 6cc5 21bd 301c ae3d e32b 66bd 5edb fb3d
000001f0: ac9d a8bd 7540 153e cfed 53bd 4d4b 3e3d

log_std_parameter f4 [19]
-3.1023316 -3.087688 -3.292978 -1.6112947 -1.7962261 -0.82810134 -0.81677085 -2.5106876
-2.259327 -0.82648236 -0.8006263 -1.7602245 -1.7930775 -0.8093503 -0.68191475 -0.8159026
-0.8833156 -0.77122 -0.7726056
00000000: 9a8c 46c0 ae9c 45c0 27c0 52c0 e83e cebf
00000010: bdea e5bf 73fe 53bf e517 51bf 1baf 20c0
00000020: d098 10c0 5994 53bf d8f5 4cbf 094f e1bf
00000030: 9083 e5bf 9531 4fbf f791 2ebf fede 50bf
00000040: f920 62bf ad6e 45bf 7bc9 45bf

net_container.0.weight f4 [128, 69]
-0.23386142 0.047810335 -0.0969492 -0.23057866 -0.108732484 0.009590804 -0.4057587 0.10734603
0.027132267 0.087558 -0.062220123 0.27570122 -0.18550801 0.0019465832 0.2397716 -0.18105265
0.1750933 -0.3967284 0.02328024 -0.42278624 -0.37522465 -0.01745195 0.028740076 -0.41084945
-0.22302116 -0.13059731 -0.059308928 0.11086416 0.2786373 0.2102227 -0.098530605 -0.008678255
0.038465604 -0.029466588 -0.058143683 0.0139314085 -0.025641032 0.010329057 -0.054509714 0.0072248983
-0.0074994857 -0.012330709 0.018445851 0.019695709 -0.0017025104 -0.008024994 -0.12029647 0.01171123
0.007622257 0.072399326 -0.13166797 0.15782294 0.07679298 0.04597968 -0.1307169 -0.050710887
0.020204928 -0.023972401 -0.09857158 0.16666625 -0.029955596 -0.15503985 0.002035656 -0.13182163
0.01092756 -0.028030148 0.06567131 -0.06431638 0.051505815 -0.20388325 0.40044567 0.29505605
-0.08061047 -0.023096183 0.16802976 -0.16445272 0.17183162 0.03138111 0.009775108 -0.041140597
-0.13406657 0.23253089 0.24461444 0.7535708 0.22704591 -0.19773719 -0.22548352 -0.017631892
0.05657422 -0.32599214 0.04740962 0.10965144 -0.23007771 -0.020180622 -0.23311272 -0.17886369
0.32548362 0.27237245 0.30195656 0.1672932 -0.042843617 0.07075801 -0.030293029 -0.010809475
-0.03416386 -0.12918644 0.04737996 0.072390914 0.06343417 0.039755497 -0.10639416 -0.02966495
0.12172725 0.019847535 0.005922916 0.04727071 -0.00724782 -0.09977906 -0.01300557 0.06175306
0.012781245 0.016621452 0.173267 0.066890374 0.036113407 -0.10225741 -0.02960896 0.1130138
0.11608232 -0.014159959 0.066289976 -0.060654294 -0.09024047 -0.025493504 -0.012010563 -0.0830326
-0.02163254 0.011548937 -0.045547552 -0.15915717 -0.006590977 0.1198727 0.039423354 -0.027148852
-0.2855461 -0.2878712 0.2087671 0.36596885 0.041517723 -0.14942454 -0.17038107 -0.22402968
-0.2608727 -0.23981935 0.14161082 -0.03686603 0.21300523 -0.38387683 0.22514142 -0.22028731
-0.07244883 0.022782333 0.010804087 -0.15186393 0.08236434 -0.004830064 0.08263318 0.09788327
0.32007658 0.004205904 0.006311353 -0.0044551985 0.008269981 -0.08731137 -0.018078491 -0.012711975
-0.014330768 -0.011035156 -0.015318099 0.025194297 -0.056418046 0.07146885 0.020369075 0.04517308
0.039401453 0.07098 -0.03423352 -0.033168245 -0.10035102 -0.021229478 -0.04639572 -0.062499993
-0.019291904 0.16932939 -0.06514616 -0.043255176 0.15732959 -0.061710365 0.1377605 -0.102367766
0.073018104 -0.019593067 -0.014237313 -0.03079381 -0.013619461 0.106384344 0.02619051 0.1601836
0.21046583 0.1645844 -0.09830151 0.15138812 -0.047531907 1.2515111 -0.51680505 0.078322515
0.36986405 0.116648525 -0.0794237 0.4379718 -0.16353267 0.14334866 0.5017921 -0.35993955
-0.38296613 -0.04997607 0.7840812 0.2654719 0.14847602 0.15594113 0.18230292 0.22727185
0.03233645 0.0791796 -0.22458866 -0.008248969 0.18598782 -0.025726028 -0.027427953 -0.01241981
-0.03792642 0.0019782563 -0.023287958 0.05556136 -0.01525339 -0.004290581 -0.01050298 -0.04249153
0.0044833943 -0.0065977233 0.021402545 -0.005939264 -0.007635345 0.005141431 0.001803214 -0.045361526
00000000: 5e79 6fbe c5d4 433d 4d8d c6bd d01c 6cbe
00000010: 23af debd bf22 1d3c 9bbf cfbe 3cd8 db3d
00000020: 7d44 de3c 9c51 b33d 87da 7ebd b628 8d3e
00000030: d0f5 3dbe 7e24 ff3a b086 753e de65 39be
00000040: a84b 333e fc1f cbbe 34b6 be3c 7077 d8be
00000050: 721d c0be 64f7 8ebc 4f70 eb3c dc5a d2be
00000060: a95f 64be 4dbb 05be ebed 72bd c00c e33d
00000070: 8ca9 8e3e 9f44 573e 6aca c9bd 3d2f 0ebc
00000080: 1c8e 1d3d ea63 f1bc 1228 6ebd 9040 643c
00000090: 240d d2bc 353b 293c 9445 5fbd d7be ec3b
000000a0: 3fbe f5bb be06 4abc c11b 973c e558 a13c
000000b0: c526 dfba 447b 03bc ff5d f6bd 75e0 3f3c
000000c0: 20c4 f93b 1946 943d f8d3 06be 569c 213e
000000d0: a345 9d3d 3055 3c3d a7da 05be 38b6 4fbd
000000e0: ce84 a53c c561 c4bc e6df c9bd 8faa 2a3e
000000f0: 7065 f5bc c4c2 1ebe a468 053b 40fc 06be
00000100: 8209 333c 7b9f e5bc ae7e 863d 4eb8 83bd
00000110: c3f7 523d c5c6 50be 3707 cd3e 9611 973e
00000120: 1a17 a5bd 3534 bdbc fe0f 2c3e 4b66 28be
00000130: a1f4 2f3e 7b89 003d c627 203c 0b83 28bd
00000140: bf48 09be 941c 6e3e 357c 7a3e 04ea 403f
00000150: b97e 683e 9e7b 4abe 27e5 66be c270 90bc
00000160: 5fba 673d 71e8 a6be 9730 423d ef90 e03d
00000170: 7e99 6bbe d551 a5bc 1ab5 6ebe 0b28 37be
00000180: caa5 a63e 6774 8b3e 0d9a 9a3e e94e 2b3e
00000190: ca7c 2fbd 93e9 903d 1629 f8bc 391a 31bc
000001a0: 67ef 0bbd 7349 04be 7d11 423d b041 943d
000001b0: c6e9 813d a9d6 223d 2ee5 d9bd e903 f3bc
000001c0: 234c f93d 4c97 a23c 0515 c23b ef9e 413d
000001d0: 1f7f edbb f758 ccbd 5015 55bc c7f0 7c3d
000001e0: 6d68 513c b629 883c e86c 313e d2fd 883d
000001f0: a7eb 133d 556c d1bd 7d8e f2bc c773 e73d
00000200: 91bc ed3d 2cff 67bc 0ac3 873d a370 78bd
00000210: ffcf b8bd c1d7 d0bc f4c7 44bc ff0c aabd
00000220: b936 b1bc c137 3d3c 1290 3abd 19fa 22be
00000230: 1ff9 d7bb d17f f53d 627a 213d 4567 debc
00000240: 1933 92be db63 93be 0bc7 553e 4560 bb3e
00000250: 7d0e 2a3d bf02 19be 6078 2ebe 0968 65be
00000260: 1b91 85be 3493 75be 6d02 113e d600 17bd
00000270: 0b1e 5a3e 818b c4be 798b 663e ff92 61be
00000280: 0d60 94bd 04a2 ba3c a003 313c 3882 1bbe
00000290: a3ae a83d 8345 9ebb 963b a93d 0677 c83d
000002a0: 14e1 a33e aed1 893b 77cf ce3b eafc 91bb
000002b0: d07e 073c 4ed0 b2bd 5819 94bc e345 50bc
000002c0: 99cb 6abc cdcc 34bc c4f8 7abc 4564 ce3c
000002d0: 9c16 67bd 435e 923d 0cdd a63c 6807 393d
000002e0: 6b63 213d f65d 913d 7338 0cbd 6ddb 07bd
000002f0: d684 cdbd 71e9 adbc 7009 3ebd feff 7fbd
00000300: 0e0a 9ebc af64 2d3e 5a6b 85bd 572c 31bd
00000310: 021b 213e 02c4 7cbd 1711 0d3e 31a6 d1bd
00000320: 848a 953d a481 a0bc 9e43 69bc 4d43 fcbc
00000330: 2924 5fbc 09e0 d93d 7b8d d63c 2b07 243e
00000340: 5b84 573e d088 283e 4d52 c9bd 7d05 1b3e
00000350: d1b0 42bd 8431 a03f 564d 04bf 8e67 a03d
00000360: d25e bd3e 6ce5 ee3d e5a8 a2bd d73d e03e
00000370: 1c75 27be fec9 123e 7275 003f ff49 b8be
00000380: 2314 c4be b5b3 4cbd 8cb9 483f efeb 873e
00000390: 190a 183e 08af 1f3e 9ead 3a3e f4b9 683e
000003a0: 3a73 043d ea28 a23d 92fa 65be af26 07bc
000003b0: 9773 3e3e 64bf d2bc 96b0 e0bc 757c 4bbc
000003c0: bc58 1bbd a2a5 013b 63c6 bebc 4f94 633d
000003d0: 5be9 79bc 0198 8cbb b114 2cbc 990b 2ebd
000003e0: 70e9 923b b731 d8bb 6454 af3c 289e c2bb
000003f0: eb31 fabb 7379 a83b d259 ec3a 02cd 39bd

net_container.0.bias f4 [128]
0.20580128 -0.057071306 0.017903805 0.029436598 0.07682819 0.058986362 0.16236122 0.1474237
0.20722586 0.23443559 0.034257956 -0.009258464 0.023999011 -0.01811014 0.2779952 -0.17015107
0.17627455 -0.10411888 0.25984028 0.038285516 0.03368597 0.15513477 0.031584896 0.1494757
0.09756165 0.1611017 0.015138578 -0.05322269 0.04668746 -0.105574235 0.09070445 0.102545545
0.23569408 0.059584267 -0.01911276 -0.19058868 0.08049118 0.045081027 0.07149041 0.008793769
-0.0009233406 0.2546788 -0.098862946 -0.11524203 0.12539968 -0.027624996 0.10532534 -0.05197285
0.16967042 0.05667439 0.006652702 0.03811899 -0.06842833 -0.15004118 0.031617492 0.07619079
0.17240909 0.08422625 0.13037041 0.17079976 -0.0221123 0.08225571 0.19998093 0.048452817
0.06447219 0.2394242 0.08582199 0.10194659 0.07926001 0.089494616 0.08661728 -0.16075787
0.16909699 0.19868833 0.05972558 0.0608944 0.17307967 0.13413784 0.28502005 0.089439586
-0.02930258 -0.005816418 0.17924242 0.13546571 0.05265291 0.13192932 0.2410215 0.26459777
0.072909944 0.26091066 0.050176296 0.060655043 0.04422771 -0.036695126 0.118765034 0.016236281
0.063557014 -0.057106826 -0.06534288 0.043927472 0.1965177 0.049487945 -0.042222466 0.042534065
0.05397295 0.26477638 0.08017228 -0.088889256 -0.039195094 -0.04853448 -0.00831988 0.018063076
-0.11031947 -0.0844063 0.20441014 0.16929828 -0.10324163 0.12559672 0.06042644 -0.07894575
0.038342055 -0.06517299 0.25928935 -0.04222646 -0.054641757 -0.17886625 -0.11066421 0.15088177
00000000: 92bd 523e 9ac3 69bd 00ab 923c 0525 f13c
00000010: 1958 9d3d af9b 713d 0542 263e 3df6 163e
00000020: 0433 543e e20f 703e 1252 0c3d d0b0 17bc
00000030: 9399 c43c b75b 94bc 6355 8e3e 153c 2ebe
00000040: 5181 343e 483c d5bd c909 853e 46d1 1c3d
00000050: 4dfa 093d a6db 1e3e 2a5f 013d 2810 193e
00000060: 67ce c73d d8f7 243e cc07 783c 0900 5abd
00000070: 5a3b 3f3d 4e37 d8bd 41c3 b93d 6603 d23d
00000080: ca59 713e a20e 743d 5d92 9cbc ae29 43be
00000090: 8fd8 a43d e2a6 383d 9069 923d be13 103c
000000a0: 570c 72ba 4265 823e a878 cabd 0304 ecbd
000000b0: c668 003e d14d e2bc d0b4 d73d 7ce1 54bd
000000c0: 15be 2d3e 6823 683d e9fe d93b a822 1c3d
000000d0: 2724 8cbd 65a4 19be 5881 013d eb09 9c3d
000000e0: 028c 303e d07e ac3d d27f 053e 22e6 2e3e
000000f0: db24 b5bc af75 a83d cdc7 4c3e 7676 463d
00000100: ff09 843d 9e2b 753e 71c3 af3d 60c9 d03d
00000110: 1253 a23d f448 b73d 6764 b13d b69d 24be
00000120: c327 2d3e f474 4b3e cfa2 743d 686c 793d
00000130: cc3b 313e 6e5b 093e 26ee 913e 1a2c b73d
00000140: f70b f0bc a797 bebb 538b 373e 86b7 0a3e
00000150: 94aa 573d 7b18 073e 57ce 763e 5c79 873e
00000160: cf51 953d 1596 853e a985 4d3d 6c71 783d
00000170: 1e28 353d a14d 16bd 153b f33d f301 853c
00000180: 2e2a 823d d9e8 69bd 7dd2 85bd 4bed 333d
00000190: f03b 493e dfb3 4a3d 77f1 2cbd 3338 2e3d
000001a0: bd12 5d3d c590 873e 5d31 a43d 920b b6bd
000001b0: 098b 20bd 17cc 46bd 1b50 08bc 04f9 933c
000001c0: 2def e1bd 36dd acbd e450 513e 875c 2d3e
000001d0: 5970 d3bd 6d9c 003e b781 773d 4fae a1bd
000001e0: 8f0c 1d3d 6b79 85bd 93c1 843e a7f5 2cbd
000001f0: 09d0 5fbd b728 37be eba3 e2bd c080 1a3e
