humanoidprac/humanoidprac/scripts/skrl/logs/skrl/h1_flat/joint_experiment_ver3/2025-09-18_07-37-15_ppo_torch/checkpoints/agent_24000.pt (torch, 549970 bytes, 40 tensors)

log_std_parameter f4 [19]
0	0xc04cf44a	-3.2024102
1	0xc0539f2c	-3.30659
2	0xc058a4fc	-3.3850698
3	0xbfe1ae7b	-1.7631372
4	0xbfe64513	-1.798983
5	0xbf510f9b	-0.8166444
6	0xbf6cb70f	-0.92466825
7	0xc01c6178	-2.443449
8	0xc0191691	-2.3920023
9	0xbf252163	-0.6450407
10	0xbf59340d	-0.8484505
11	0xbfc7d0c3	-1.5610584
12	0xbfc42077	-1.5322407
13	0xbf38191a	-0.719133
14	0xbf402db3	-0.7506973
15	0xbf59dc22	-0.8510152
16	0xbf45eaaa	-0.77311194
17	0xbf31a0f2	-0.6938621
18	0xbf433317	-0.7624983

net_container.0.weight f4 [128, 69]
0	0xbea10ae7	-0.3145363
1	0x3d8871ff	0.06662368
2	0xbdc2e862	-0.0951698
3	0xbe428801	-0.18997194
4	0xbd456a72	-0.048197217
5	0x3d0cd4c8	0.03438261
6	0xbef069d7	-0.4695575
7	0x3e254a20	0.16141558
8	0x3d95587d	0.072922684
9	0xbd4ba97a	-0.049722172
10	0xbd7eda87	-0.062220123
11	0x3eafdfd9	0.3435047
12	0xbd722574	-0.05911775
13	0xbe0870e6	-0.13324317
14	0x3e3253e7	0.17414819
15	0xbe652e23	-0.22380881
16	0x3eb3fb92	0.3515287
17	0xbd63d750	-0.05562526
18	0x3da0a39b	0.07843705
19	0xbf186282	-0.5952531
20	0xbcd6d019	-0.026222276
21	0xbdec2635	-0.11530725
22	0x3e67ec1d	0.22648664
23	0xbebd85f0	-0.3701625
24	0xbe97e41f	-0.2966623
25	0xbd9652dc	-0.07340023
26	0xbdf192a7	-0.1179555
27	0x3e50861a	0.20363656
28	0x3e7744de	0.24147364
29	0x3e7f9f9f	0.24963234
30	0xbebb88b9	-0.3662775
31	0xbc51ffa6	-0.012817299
32	0xbc026e33	-0.007960844
33	0xbce3be92	-0.027800832
34	0xbdfe33ad	-0.124122
35	0x3e0f3f4a	0.13988987
36	0xbd679575	-0.056539018
37	0xbd37b5f3	-0.044851255
38	0xbdcca80f	-0.09992992
39	0x3c37dc87	0.011222011
40	0x3d815d28	0.06316596
41	0x3d0b9167	0.034074213
42	0x3c8afd24	0.01696641
43	0x3ceea163	0.02912969
44	0x3d088ab8	0.033335418
45	0x3c66326a	0.014050106
46	0xbde3da23	-0.11125591
47	0x3da42aab	0.08015951
48	0xbd37983c	-0.044822916
49	0xbca3967b	-0.019969216
50	0xbe1c9d36	-0.15294346
51	0x3d5603a9	0.052249584
52	0x3d77b1ad	0.06047218
53	0x3d4f57e5	0.050620932
54	0xbc787f82	-0.015167119
55	0xbd09432b	-0.033511322
56	0x3c2c9b1b	0.010535027
57	0xbd792d16	-0.060834013
58	0x3d949260	0.07254481
59	0x3ddbe9c0	0.10737944
60	0x3d70240f	0.05862814
61	0xbe0b7b13	-0.13621168
62	0xbd148d23	-0.03626741
63	0xbcfb6906	-0.030689728
64	0x3c0bb4cd	0.008526993
65	0x3db7a3aa	0.08966763
66	0xbd505673	-0.050863694
67	0x3d10846c	0.035282537
68	0x3d38f36a	0.045154013
69	0x3d4367af	0.047706302
70	0xbe605342	-0.2190676
71	0x3dd93db8	0.10607475
72	0xbd99acbe	-0.07503651
73	0xbe31172d	-0.17293997
74	0x3e0e5969	0.13901295
75	0xbd9dac0b	-0.0769883
76	0xbea26e48	-0.31724763
77	0x3c8eb345	0.017419467
78	0x3e37a73c	0.17934889
79	0xbd28830b	-0.041140597
80	0x3ec5f530	0.38663626
81	0xbee26088	-0.44214272
82	0xbeb8f8fe	-0.36127466
83	0xbea68935	-0.32526556
84	0x3d0c4fb7	0.03425571
85	0x3dabd6d4	0.083905846
86	0x3e863948	0.26215577
87	0x3cedbc4e	0.029020455
88	0x3f0f77f7	0.56042427
89	0xbe82b6ad	-0.25529996
90	0xbc90d332	-0.01767883
91	0x3d11964e	0.035543732
92	0x3d4498b3	0.047997188
93	0x3d30157c	0.04298924
94	0x3e6f7a35	0.23386462
95	0xbebf50a8	-0.37366223
96	0xbe866f64	-0.2625686
97	0x3ebb251e	0.36551756
98	0x3ec24806	0.37945575
99	0xbeda5bcb	-0.42648157
100	0x3c879259	0.016549276
101	0x3db2d20e	0.08731471
102	0xbdb3c419	-0.08777637
103	0x3cbf26bb	0.023333898
104	0xbd6d1abd	-0.057886828
105	0xbd189ad9	-0.03725705
106	0xbd80ae08	-0.06283194
107	0x3d6a06bf	0.05713534
108	0xbd1f63c4	-0.038913503
109	0x3db711e6	0.08938961
110	0xbd5a2923	-0.053261887
111	0xbd4a3fc4	-0.049377218
112	0x3e102082	0.14074901
113	0x3d1a8ab8	0.03772995
114	0x3da5b5f4	0.080913454
115	0xbd39d372	-0.045367666
116	0x3cbdd24c	0.023171566
117	0x3d78b6ff	0.060721394
118	0x3e004ef5	0.1253012
119	0x3c9b76aa	0.018977482
120	0xbe5925a1	-0.2120576
121	0xbd282392	-0.041049547
122	0x3e164aa1	0.14676906
123	0x3cbad7f6	0.022808056
124	0xbe2f9b6c	-0.17149132
125	0xbdd0097a	-0.101580575
126	0xbe215643	-0.15755562
127	0x3dd18692	0.102307454
128	0x3e344fa0	0.176085
129	0x3e014f46	0.12627897
130	0x3e259a37	0.1617211
131	0xbd0db62d	-0.034597564
132	0xbe1dbf51	-0.15405013
133	0xbcdbda75	-0.026837567
134	0xbdc44053	-0.09582581
135	0xbe0e32a9	-0.13886513
136	0xbdac1f94	-0.084044605
137	0x3dad5b60	0.08464694
138	0xbe9e7288	-0.30946755
139	0x3f2724c3	0.6529047
140	0xbe51fd65	-0.20506819
141	0x3db2cbd1	0.08730281
142	0xbde60cb8	-0.11232895
143	0xbdb7a676	-0.08967297
144	0xbf108af2	-0.56462014
145	0x3e261d89	0.16222204
146	0x3e3f83e6	0.18702659
147	0x3ecd9450	0.40152216
148	0x3d2a0e7d	0.041517723
149	0x3dcdfa78	0.10057539
150	0xbe8d4daf	-0.2759833
151	0xbe6071ec	-0.21918458
152	0xbd0efb8f	-0.034907874
153	0xbdae10e3	-0.08499315
154	0xbde466b5	-0.11152402
155	0xbd2f1c8f	-0.042751845
156	0x3e2adcc6	0.16685781
157	0xbed8b63a	-0.42326528
158	0x3e22f28b	0.15912835
159	0xba410d49	-0.00073643454
160	0x3e40fe69	0.1884705
161	0x3d89a58e	0.0672103
162	0x3d4d690b	0.050149005
163	0x3e9e98ed	0.30976048
164	0x3c950811	0.018192323
165	0x3dc23c0a	0.09484108
166	0x3e66ed5c	0.22551483
167	0x3b4ab8ce	0.0030932906
168	0x3e829e71	0.25511506
169	0xbbf98733	-0.007614994
170	0xbbb869b2	-0.0056278342
171	0x3cd8b63a	0.02645408
172	0x3d9a8eef	0.07546794
173	0xbd11eede	-0.035628192
174	0x3ce61b62	0.028089229
175	0x3d67b112	0.05656535
176	0xbd9a2e94	-0.07528415
177	0xbbf3b6a6	-0.007437545
178	0xbc98365a	-0.018580604
179	0xbcb040a0	-0.02151519
180	0x3ad886b9	0.0016519643
181	0x3d261722	0.040549405
182	0x3c13b37e	0.009014962
183	0x3da9b210	0.08285916
184	0xbd7a1f01	-0.061064724
185	0xbcb9e727	-0.02269323
186	0xbd22548c	-0.03963141
187	0xbd54c0d2	-0.0519417
188	0xbe196d79	-0.14983167
189	0x3d8c60d2	0.068544045
190	0xbba16bce	-0.0049261814
191	0xbdbeeb9f	-0.09322285
192	0x3c74e470	0.014947042
193	0x3d8f8ddf	0.07009482
194	0xbba02ed4	-0.004888395
195	0x3d496a7a	0.04917381
196	0x3d2b303d	0.04179405
197	0xbc216664	-0.009851072
198	0x3e4ba6eb	0.19887893
199	0xbcfef8c2	-0.031124476
200	0x3e44c5b0	0.19216037
201	0x3d280c80	0.041027546
202	0xbd3e7312	-0.04649646
203	0x3dec5cd6	0.115411445
204	0x3d742ddd	0.05961405
205	0x3d090f0b	0.03346161
206	0x3b0ee9b3	0.0021806776
207	0x3e8adbd9	0.27120855
208	0xbe81942d	-0.25308362
209	0xbed1cd34	-0.4097687
210	0xbe25d342	-0.1619387
211	0x3cecc1bf	0.02890098
212	0xbd1edf46	-0.03878715
213	0x3f901b0f	1.1258258
214	0xbf870533	-1.0548462
215	0xbe0b2d42	-0.13591483
216	0x3e8cf079	0.27527216
217	0x3deee56c	0.116648525
218	0xbdc05311	-0.09390844
219	0x3dce4855	0.1007239
220	0xbec66e71	-0.38756135
221	0x3e684a59	0.22684611
222	0x3f460973	0.7735817
223	0xbea8f139	-0.32996538
224	0xbbf55fcc	-0.0074882265
225	0x3d991660	0.07474971
226	0x3f34101c	0.7033708
227	0x3e2f6768	0.1712929
228	0xbc4f4b83	-0.012652281
229	0xbd9e6578	-0.077341974
230	0x3ea5b818	0.32367015
231	0x3ec2942b	0.38003668
232	0xbd8e1e3a	-0.06939359
233	0xbe12c859	-0.14334239
234	0xbe914b49	-0.2837775
235	0xbe1483c4	-0.1450339
236	0x3d11f2bd	0.035631884
237	0xbdb91cba	-0.09038682
238	0xbbc54ba1	-0.0060209786
239	0xb8043e3f	-3.1529224e-05
240	0xbcc456dc	-0.023967199
241	0x3b894369	0.004188944
242	0xbc79100e	-0.015201582
243	0x3daabba6	0.08336572
244	0x3d5eb3b5	0.0543706
245	0xbbee08ba	-0.007264224
246	0xbc63d17f	-0.013904928
247	0xbd32d081	-0.043655876
248	0x3c655472	0.013997184
249	0xbd0846f9	-0.03327081
250	0xbbc6d3eb	-0.006067743
251	0x3d1112ef	0.035418447
252	0xbc1f2d40	-0.009715378
253	0x3d88ef6a	0.066862896
254	0x3ce05221	0.027382912
255	0xbd26357a	-0.040578343

net_container.0.bias f4 [128]
0	0x3e046e95	0.12932809
1	0xbd6613f0	-0.056171358
2	0x3ca8bc49	0.020597594
3	0x3cfcdd81	0.03086734
4	0x3da75f9b	0.08172532
5	0x3d09109b	0.0334631
6	0x3e0043e6	0.12525901
7	0x3db93743	0.090437435
8	0x3e29b922	0.16574529
9	0x3d980fdb	0.07424899
10	0x3ba3cd4a	0.0049988376
11	0x3b77a354	0.003778656
12	0x3d9914c8	0.07474667
13	0xbc45da0a	-0.01207591
14	0x3e484f6b	0.19561546
15	0xbe0be589	-0.1366178
16	0x3dd30fbf	0.10305738
17	0xbe019cb3	-0.12657432
18	0x3e373bdd	0.1789393
19	0x3d9b839f	0.07593464
20	0x3e1ea07a	0.15490904
21	0x3ca396a1	0.019969286
22	0xbd64f765	-0.055899996
23	0x3deff932	0.11717452
24	0x3da1e49f	0.07904934
25	0x3d3c8ae7	0.046030905
26	0xbd8046f9	-0.06263537
27	0xbd670439	-0.05640051
28	0xbd815df6	-0.0631675
29	0xbd4d5f0a	-0.050139464
30	0xbdba86d1	-0.091077454
31	0x3d43ba28	0.047784954
32	0x3e2b0c4f	0.16703914
33	0x3d7061b7	0.058686938
34	0x3d3adcbf	0.045620676
35	0xbd4a2a51	-0.049356762
36	0x3dca6b1b	0.0988371
37	0xbcc71072	-0.024299834
38	0x3d848064	0.06469801
39	0x3cfc16da	0.030772615
40	0xbe193a44	-0.14963633
41	0x3e1daa6a	0.15397039
42	0xbdd64d37	-0.10463946
43	0xbcea0ddf	-0.028571067
44	0x3ddc0fd5	0.10745207
45	0xbdbdd15e	-0.09268449
46	0x3e0ea9be	0.13931939
47	0x3c924634	0.017855741
48	0x3e137998	0.14401853
49	0x3db4e865	0.08833388
50	0xbcaa0c5c	-0.020757847
51	0x3d2fb418	0.04289636
52	0xbc9cc8e7	-0.019138766
53	0xbd886fb5	-0.066619314
54	0xbcae71aa	-0.021294434
55	0x3d1603e7	0.036624815
56	0x3e02b409	0.1276399
57	0x3dd9c90c	0.1063405
58	0x3dbc1803	0.09184267
59	0x3df6e1b1	0.12054766
60	0xbda27704	-0.07932857
61	0x3d8fd098	0.07022208
62	0x3e58f537	0.21187292
63	0x3b710e35	0.003678215
64	0x3d273883	0.04082538
65	0x3e2d84ff	0.16945265
66	0x3d77f5d2	0.060537167
67	0x3cf0675c	0.02934616
68	0x3d8e66a7	0.06953173
69	0x3db37853	0.087631844
70	0x3dc09454	0.09403291
71	0xbdfb5cde	-0.122735724
72	0x3e142921	0.14468814
73	0x3d6184cb	0.055058282
74	0x3d12660f	0.035741862
75	0x3d760ea5	0.06007256
76	0x3e3c88a2	0.18411496
77	0x39e1bf9b	0.000430581
78	0x3e5a3a4e	0.21311304
79	0x3cd6fb31	0.026242824
80	0xbcdb616b	-0.026779851
81	0xbd61cb47	-0.0551255
82	0x3e586aaa	0.21134439
83	0x3d6b0259	0.057375286
84	0x3d71080b	0.05884556
85	0x3da53b26	0.08067922
86	0x3dbfe99b	0.093707286
87	0x3e1b244d	0.15150566
88	0xbb4bbc74	-0.0031087669
89	0x3e2483e3	0.16065936
90	0xbcc1d704	-0.023662098
91	0xbb9997ca	-0.004687284
92	0x3daf687e	0.08564852
93	0xbc9d3243	-0.019189006
94	0x3d11417f	0.035462853
95	0xbcf41cda	-0.029798914
96	0x3cf13f62	0.029449169
97	0xbb9530b3	-0.0045529245
98	0xbd95ee4c	-0.07320842
99	0xbb24785b	-0.0025096152
100	0x3dee2ffc	0.11630246
101	0x3d74c263	0.059755694
102	0xbde6fd41	-0.11278773
103	0x3d664fd8	0.05622849
104	0x3c2ebc60	0.010665029
105	0x3d8c06a5	0.06837205
106	0x3caf7c59	0.021421598
107	0xbd6534dd	-0.055958617
108	0xbd8249a5	-0.06361703
109	0xbe280f2d	-0.16412039
110	0xbc429439	-0.011876159
111	0x3cda22bb	0.026627889
112	0xbce14ac8	-0.027501479
113	0xbda21fec	-0.07916245
114	0x3e15d225	0.14630945
115	0x3e3181c2	0.17334655
116	0xbdb4f4dd	-0.088357665
117	0x3dc903b1	0.09815157
118	0x3c9e9567	0.01935835
119	0xbdd2f00f	-0.10299694
120	0x3cc28dda	0.02374928
121	0xbda1dd58	-0.07903546
122	0x3e2f68ca	0.17129818
123	0xbd62d01a	-0.055374242
124	0x3dc18eb4	0.094510466
125	0xbd889513	-0.06669059
126	0xbd497fff	-0.049194332
127	0x3ddbe1b0	0.10736406

net_container.2.weight f4 [128, 128]
0	0xbd47f99f	-0.04882204
1	0xbdcd1729	-0.10014183
2	0x3d01ad87	0.03165963
3	0xbdf81a8d	-0.12114439
4	0xbcd97e68	-0.026549533
5	0x3d39c8d7	0.04535755
6	0x3d83fb68	0.06444436
7	0xbe15cae9	-0.14628185
8	0xbd45d889	-0.048302207
9	0x3d795164	0.060868636
10	0xbd033c8d	-0.032040168
11	0xbd552f6c	-0.05204718
12	0x3e10e83e	0.14151093
13	0xbde6364a	-0.112408236
14	0x3d5b65b7	0.0535638
15	0x3c3d7388	0.011563189
16	0xbdbd31e0	-0.092380285
17	0x3a31eae0	0.0006787013
18	0xbbd54b47	-0.006509218
19	0x3df11cff	0.11773109
20	0xbdba5f66	-0.09100227
21	0x3ced8e0c	0.028998397
22	0x3d504bac	0.050853416
23	0xbe14025a	-0.14454022
24	0x3d1c7721	0.038199548
25	0xbd4b52e2	-0.04963959
26	0xbd0464e8	-0.032322794
27	0x3ccf9fd9	0.025344776
28	0x399a3894	0.00029415323
29	0xbd4036ff	-0.04692745
30	0xbd601705	-0.054709453
31	0x3c2ce1be	0.010551868
32	0xbdf2aca7	-0.11849337
33	0xbbd20506	-0.0064092902
34	0xbe0aadec	-0.13542908
35	0x3d8fa90c	0.07014665
36	0xb7b838a4	-2.1960885e-05
37	0x3d9dff21	0.077146776
38	0x3dc7b82c	0.09751925
39	0xbb7ae0eb	-0.0038281034
40	0x3d59083a	0.05298636
41	0x3db05918	0.08610743
42	0xbdf90990	-0.12160027
43	0xbdca2893	-0.0987102
44	0x3c5dccef	0.0135376295
45	0x3ddd889f	0.10817074
46	0xbdf210b0	-0.11819589
47	0x3d4b930f	0.049700793
48	0x3cfb983f	0.030712245
49	0x3d4a6e5d	0.049421657
50	0xbd2281d0	-0.03967458
51	0x3d215418	0.03938684
52	0xbdaad586	-0.083415076
53	0xbd9e2e99	-0.077237315
54	0xbd2048dc	-0.039131984
55	0x3cb526a6	0.022113156
56	0xbe214cec	-0.15752
57	0xbdb8e8c5	-0.09028772
58	0x3d0bd2d6	0.034136616
59	0x3d03ec6d	0.032207895
60	0x3d32c39f	0.04364359
61	0x3d82e5b4	0.06391469
62	0x3bf2669d	0.0073974864
63	0x3c246309	0.010033377
64	0xbd6b7671	-0.057486
65	0xbd5e13d0	-0.054218113
66	0xbc727b88	-0.01479996
67	0xbd94a919	-0.07258815
68	0xbd5d66ae	-0.054053
69	0x3c85624a	0.01628222
70	0x3cf18112	0.02948049
71	0x3ab1be2d	0.0013560705
72	0x3d4d4b73	0.050120782
73	0xbdb02b9f	-0.0860207
74	0xbdd5acf6	-0.1043338
75	0x3d782ec4	0.060591474
76	0xbd902f40	-0.07040262
77	0xbc3162bd	-0.010826764
78	0x3d4f73c9	0.05064753
79	0x3db1744d	0.08664761
80	0x3dff2ade	0.12459348
81	0x3d470287	0.048586395
82	0xba9fcdd9	-0.0012192085
83	0x3dea61cf	0.11444437
84	0xbdb9b174	-0.090670496
85	0x3d3d6456	0.046238266
86	0xbd018cc4	-0.031628385
87	0xbe174911	-0.14773966
88	0x3d723da1	0.059140805
89	0xbd513375	-0.051074464
90	0xbdd62fca	-0.10458334
91	0xbe2fd117	-0.17169605
92	0xbd8b0e99	-0.06789894
93	0x3c974e84	0.018470056
94	0xbe529a2f	-0.20566629
95	0xbe02d8de	-0.12778041
96	0x3dd5d1d1	0.1044041
97	0x3d5569f1	0.052102987
98	0x3c12ff65	0.008972024
99	0x3cc48137	0.023987396
100	0x3d6c41d8	0.05767998
101	0x3c877582	0.016535524
102	0xbd72e26c	-0.059297964
103	0x3c9cdcc5	0.01914824
104	0x3d56bd94	0.05242689
105	0xbd54b187	-0.051927116
106	0xbda5224c	-0.08063182
107	0x3ccd5353	0.025064146
108	0x3e038c35	0.12846453
109	0x3d3dc5cc	0.046331212
110	0xbb64b350	-0.0034896918
111	0xbd59391b	-0.053032976
112	0x3d1bc468	0.038029104
113	0xbd4f37b3	-0.05059023
114	0xbddb4c98	-0.107079685
115	0xbd2ad6bc	-0.041708693
116	0xbd8a3bfe	-0.06749724
117	0xbdcdf0c1	-0.10055686
118	0x3ced302b	0.028953632
119	0x3ded9289	0.11600215
120	0x3ca46e9a	0.02007227
121	0x3c64700e	0.013942732
122	0xbca20949	-0.019779818
123	0xbc9ae71c	-0.01890903
124	0x3e0e7172	0.13910463
125	0x3db2ccaa	0.08730443
126	0xbb0fff7d	-0.0021972351
127	0xbe28786b	-0.16452186
128	0xbacd2ed6	-0.0015654217
129	0x3d08c7b8	0.03339359
130	0xbde25369	-0.110510655
131	0xbbd44477	-0.006477888
132	0x3e429e49	0.19005693
133	0x3d565072	0.052322812
134	0x3de6b622	0.11265208
135	0x3d5984f0	0.053105295
136	0x3d05e1c6	0.032686017
137	0xbc7c503c	-0.015399989
138	0x3baa7f74	0.005203182
139	0x3db6535b	0.089026175
140	0xbde966e4	-0.11396578
141	0x3ca9210a	0.020645637
142	0xbd75255c	-0.05985008
143	0xbcd9578b	-0.026531002
144	0x3ddbedda	0.10738726
145	0xbc156e2f	-0.009120508
146	0x3d43a16d	0.04776137
147	0xbd10f537	-0.035390105
148	0xbcb2785e	-0.021785911
149	0xbd94c107	-0.072633795
150	0xbc3b2a24	-0.011423621
151	0xbd36b90f	-0.04461008
152	0xbd6e54f4	-0.058186486
153	0x3d791807	0.06081393
154	0xbdc09a3c	-0.09404418
155	0x3db4bbce	0.088248834
156	0x3d4ba07a	0.04971359
157	0x3c57ee98	0.013179444
158	0x3d531e31	0.051542465
159	0xbdceb382	-0.10092832
160	0xbcc3f4d6	-0.023920458
161	0xbdfb8bc2	-0.12282516
162	0xbc176484	-0.009240273
163	0xbce79087	-0.028267158
164	0xbd1ba37f	-0.03799772
165	0xbd1c054a	-0.03809098
166	0xbdaa0a05	-0.08302692
167	0xbd907c31	-0.07054938
168	0x3c98d4a0	0.018656075
169	0xbd7b5349	-0.061358724
170	0x3ce7b9c9	0.028286831
171	0x3e217f10	0.15771127
172	0x3d511739	0.051047537
173	0x3d441e0c	0.047880217
174	0x3d204ecd	0.03913765
175	0xbd0ebf30	-0.0348503
176	0xbd7448ec	-0.059639856
177	0xbde08597	-0.1096298
178	0xbc87ae01	-0.016562464
179	0xbdc54886	-0.096329734
180	0xbdd4b82e	-0.10386692
181	0xbe029534	-0.12752229
182	0x3c07e6ce	0.008294774
183	0xbdb71150	-0.08938849
184	0xbd16a134	-0.03677483
185	0xbe128560	-0.14308691
186	0xbd344d92	-0.04401929
187	0x3d0941aa	0.033509888
188	0xbe153eb1	-0.14574696
189	0xbd899cf4	-0.067193896
190	0xbd02bb91	-0.03191716
191	0x3d55a341	0.052157644
192	0xbd9dcff7	-0.07705682
193	0xbd290732	-0.041266628
194	0xbd6386a6	-0.055548333
195	0xbc7ae486	-0.015313273
196	0x3c5ce3c8	0.013482042
197	0x3d90d3cc	0.07071647
198	0x3d9a0245	0.07519964
199	0xbd9e74ec	-0.07737145
200	0xbc92828f	-0.01788452
201	0x3c2b7537	0.010464958
202	0xbdf6cd86	-0.12050919
203	0x3c653c8d	0.013991487
204	0x3d1af198	0.037828058
205	0xbde68b36	-0.11257021
206	0x3d12c736	0.035834514
207	0xba833096	-0.0010008987
208	0xbde2b47f	-0.11069583
209	0xbd7f0da9	-0.062268887
210	0xbc76be5d	-0.015060035
211	0xbd46cb9b	-0.048534017
212	0xbcf6afe4	-0.030113168
213	0xbb9d28c2	-0.0047961185
214	0x3dc58646	0.09644751
215	0xbdf23f50	-0.11828482
216	0x3ca71590	0.020396024
217	0xbdbda747	-0.09260421
218	0xbc698c4c	-0.014254641
219	0xbe279fbc	-0.16369528
220	0x3d2e3060	0.042526603
221	0x3be1e097	0.0068932283
222	0x3d1ed860	0.03878057
223	0xbdab678d	-0.0836936
224	0xbd4a4d1f	-0.049389955
225	0x3d2fc86b	0.042915743
226	0x3d8856c2	0.06657173
227	0x3d5d577a	0.054038502
228	0xbd7ff683	-0.06249095
229	0xbd7baa06	-0.061441444
230	0x3d9f1259	0.077671714
231	0x3d2fcf23	0.04292215
232	0xbde125df	-0.109935515
233	0xbcae4904	-0.021275051
234	0xbd22ca3d	-0.03974365
235	0xbd2c8a35	-0.042123992
236	0x3d97e064	0.07415846
237	0x3d1ba51d	0.03799926
238	0xbcdd4f41	-0.02701533
239	0x3d8f41ec	0.069949955
240	0xbda1861b	-0.07886907
241	0x3c95f660	0.018305957
242	0xbcb14f7d	-0.021644348
243	0xbc7f6bad	-0.015589637
244	0xbd6eaae9	-0.05826846
245	0x3d1da7de	0.03849017
246	0x3d399381	0.045306686
247	0x3d6c1db0	0.0576455
248	0x3d646001	0.05575562
249	0xbd439d23	-0.04775728
250	0xbdb470c6	-0.08810572
251	0xbde2d23b	-0.110752545
252	0xbd5e4096	-0.054260813
253	0xbd66aaf1	-0.056315366
254	0xbd126081	-0.035736565
255	0x3d0b4da3	0.034009587

net_container.2.bias f4 [128]
0	0x3d925867	0.07145768
1	0xbe0ed5c2	-0.1394873
2	0xbe76ce7d	-0.24102207
3	0xbcda1a4d	-0.02662387
4	0xbe12716a	-0.14301077
5	0x3dce6302	0.10077478
6	0xbc3b63d6	-0.011437377
7	0x3d797052	0.060898133
8	0x3d0ea326	0.03482356
9	0xbdf9c19f	-0.121951334
10	0x3e02a997	0.12760006
11	0xbe63d844	-0.22250468
12	0x3d09ad21	0.033612374
13	0xbd85b573	-0.06528749
14	0x3d2be3d3	0.041965317
15	0x3cc9726c	0.024590693
16	0xbd83c02c	-0.06433138
17	0x3d290b40	0.041270494
18	0xbd1596f0	-0.0365209
19	0xbb828aa0	-0.0039838105
20	0x3db17ee3	0.0866678
21	0xbd82b6b6	-0.063825056
22	0x3ddc133e	0.10745858
23	0xbd9a2e26	-0.07528333
24	0xbd5143e5	-0.05109014
25	0x3cba7063	0.022758668
26	0x3d7ef448	0.062244684
27	0xbe088840	-0.13333225
28	0x3ca6bf5b	0.020354917
29	0xbd8154ac	-0.06314978
30	0xbdc5833f	-0.09644174
31	0xbcd787e4	-0.026309915
32	0xbd8060d3	-0.06268468
33	0xbe05737c	-0.13032335
34	0x3cda8ff1	0.026679965
35	0xbdc8e1e0	-0.09808707
36	0xbc566a91	-0.013086931
37	0xb8c64fff	-9.456276e-05
38	0x3d58696a	0.052834906
39	0xbdca7d79	-0.09887213
40	0xbe077be6	-0.13230857
41	0xbd7cee62	-0.061750777
42	0xbdd14754	-0.10218683
43	0x3cb67d22	0.022276465
44	0x3c859d71	0.016310425
45	0x3dc39cb6	0.095513746
46	0x3d2e9658	0.042623848
47	0x3d69b213	0.05705459
48	0x3d3976b8	0.045279235
49	0xbdda59be	-0.10661648
50	0x3dc9a2eb	0.09845527
51	0xbe2a1959	-0.16611232
52	0xbd332f68	-0.043746382
53	0x3d1ec4e4	0.03876199
54	0xbd769ec6	-0.060210012
55	0xbd237dc2	-0.039914854
56	0x3dbb0883	0.09132483
57	0xbde26d5a	-0.110560134
58	0x3caac67a	0.020846594
59	0x3db5fce0	0.08886123
60	0xbe58d251	-0.2117398
61	0xbda368be	-0.07978962
62	0xbde78505	-0.11304668
63	0xbd44be5a	-0.048033096
64	0xbce3af3e	-0.027793523
65	0xbde74ad3	-0.112935685
66	0x3d611615	0.0549527
67	0xbcd9c94d	-0.026585246
68	0xbdf4196a	-0.1191891
69	0x3d8627c7	0.06550556
70	0xbd9f8dd0	-0.077907205
71	0xbdb7aaf4	-0.089681536
72	0x3bf0f873	0.007353836
73	0x3c22333b	0.00989991
74	0xbda6a11c	-0.08136198
75	0xbb1905d6	-0.0023349426
76	0x3d2d6f36	0.042342387
77	0xbda08bdd	-0.07839177
78	0xbce66b5e	-0.028127369
79	0xbd016a94	-0.03159578
80	0xbd505a6f	-0.050867494
81	0xbd8e6ebf	-0.06954717
82	0x3d35083e	0.044197313
83	0xbdb4acb3	-0.08822002
84	0xbdf739d3	-0.12071576
85	0xbd17863b	-0.036993247
86	0x3d199728	0.03749767
87	0x3df34854	0.1187903
88	0x3d017aba	0.03161118
89	0xbd077f1e	-0.033080213
90	0xbdc49b57	-0.09599941
91	0x3dce94b5	0.10086957
92	0xbdcd6eb1	-0.10030878
93	0x3cd3ae8b	0.025840065
94	0xbe464878	-0.19363582
95	0x3d4a2271	0.049349252
96	0xbcfd839a	-0.030946542
97	0x3d2dd1b1	0.042436305
98	0xbdc43b7c	-0.09581658
99	0x3d6419bb	0.0556886
100	0xbe4a861e	-0.19777724
101	0xbca79ddd	-0.020461017
102	0xbd40948b	-0.04701666
103	0xbd25e42a	-0.040500797
104	0xbd86306e	-0.06552206
105	0xbd5f51ce	-0.054521374
106	0x3c870411	0.016481431
107	0xbd169938	-0.036767215
108	0xbdf45cf0	-0.11931789
109	0xbd8a6059	-0.06756658
110	0x3db2a52e	0.08722912
111	0x3c9c4ace	0.019078638
112	0xbe30f3e6	-0.1728054
113	0x3cc1d30e	0.023660209
114	0x3dced90e	0.10099994
115	0xbc850d0e	-0.016241577
116	0x3db3ed8a	0.08785541
117	0x3aebd0af	0.001799127
118	0xbd7b54ce	-0.061360173
119	0xbd2db855	-0.04241212
120	0x3c4b414f	0.0124057075
121	0xbe430bb3	-0.19047432
122	0x3d13f42a	0.036121525
123	0xbaf04904	-0.0018332307
124	0x3d7255fc	0.059164032
125	0xbd972e7c	-0.07381913
126	0xbd96ba1e	-0.07359718
127	0xbe21bbf2	-0.15794352

net_container.4.weight f4 [128, 128]
0	0xbd64c59d	-0.05585252
1	0x3df29cee	0.11846338
2	0xbddd3f7f	-0.108031265
3	0x3cb5e92a	0.022205908
4	0x3c72e019	0.014823937
5	0xbdc2466d	-0.09486089
6	0x3d351493	0.044209074
7	0x3db90ff0	0.09036243
8	0x3cef770a	0.029231567
9	0xbd7adda2	-0.06124652
10	0xbc3ce9f1	-0.011530385
11	0x3aca7aba	0.0015447952
12	0x3e0e00cb	0.1386749
13	0xbd10d2e0	-0.035357356
14	0x3c109443	0.008824411
15	0xbdcdb28e	-0.10043822
16	0xbd00243a	-0.03128455
17	0xbd7ec263	-0.0621971
18	0xbc3ea378	-0.011635654
19	0x3d781f52	0.060576744
20	0xbdad16ec	-0.084516376
21	0xbd6dc306	-0.058047317
22	0x3d43796d	0.047723223
23	0xbc354b2a	-0.011065284
24	0xbd03fd5d	-0.032224048
25	0x3dafda25	0.0858653
26	0xbd23e504	-0.04001333
27	0x3cfe4578	0.031038985
28	0x3d438075	0.047729928
29	0x3de98b9c	0.114035815
30	0x3c35f1e7	0.011105037
31	0x3ddbb6d6	0.107282326
32	0xbbe6a594	-0.0070387814
33	0xb959d13f	-0.00020772683
34	0xbc4974be	-0.0122959
35	0xbe12bd6a	-0.14330068
36	0xbd0fd045	-0.03511073
37	0xbd67ad8b	-0.056561988
38	0xbcc112d6	-0.023568552
39	0x3ba1729f	0.004926994
40	0xbd175f79	-0.036956284
41	0x3d402846	0.046913408
42	0xbd3a9e60	-0.045561194
43	0xbc99e1b3	-0.01878438
44	0xbd85efbf	-0.065398686
45	0x3cb0cf00	0.02158308
46	0x3d3bc09a	0.045837976
47	0x3d348421	0.04407132
48	0x3b76e969	0.0037675744
49	0xbcf8beb3	-0.03036437
50	0x3dc29c7a	0.09502502
51	0x3d1f22e5	0.038851637
52	0x3e26483b	0.16238491
53	0xbc32b1aa	-0.010906616
54	0x3d43292c	0.047646686
55	0x3d4d5ea8	0.0501391
56	0x3be76f32	0.007062816
57	0x3b8eee69	0.004361917
58	0x3e03404e	0.12817499
59	0x3d04d5d0	0.03243047
60	0x3d769cf5	0.06020828
61	0x3ca08b81	0.01959777
62	0xbcb04aae	-0.021519985
63	0x3be5d00c	0.0070133265
64	0xbd1b7729	-0.037955437
65	0xbdabb795	-0.08384625
66	0xbdb6194f	-0.08891546
67	0xbcbf7b58	-0.023374245
68	0x3d6b66c5	0.057471056
69	0x3da76b50	0.08174765
70	0x3d121f68	0.035674483
71	0x3e1cc6d9	0.1531023
72	0x3dd1222c	0.10211596
73	0xbd87dbb9	-0.06633706
74	0xbced2bab	-0.028951487
75	0xbcda7f89	-0.026672142
76	0xbd189dca	-0.037259854
77	0x3d9da0eb	0.07696708
78	0x3e064d39	0.13115396
79	0x3cc56552	0.024096165
80	0x3bf85f5b	0.0075797266
81	0x3d5c6518	0.053807348
82	0xbd862c0e	-0.065513715
83	0xbd5cee98	-0.05393848
84	0x3c2145e4	0.009843323
85	0x3cd54365	0.026033113
86	0xbd0d9a40	-0.034570932
87	0x3d729fee	0.059234552
88	0xbc50e298	-0.012749337
89	0x3de8e02b	0.11370882
90	0x3d837ad4	0.06419912
91	0xbdacabdf	-0.08431219
92	0x3da0510c	0.078279585
93	0x3b4cc26a	0.003124381
94	0xbd2d7d47	-0.042355802
95	0xbd81f168	-0.06344873
96	0xbc44cd57	-0.012011847
97	0x3db42206	0.08795552
98	0xbdf97e30	-0.121822715
99	0x3d9ec3d2	0.077521935
100	0x3ded12ec	0.11575875
101	0xbd0362a1	-0.03207648
102	0x3d7f5091	0.062332693
103	0x3d45212b	0.048127335
104	0x3db16546	0.086618945
105	0x3d24796f	0.04015487
106	0x3d16cc0f	0.0368157
107	0x3d284990	0.04108578
108	0xbd30997d	-0.043115128
109	0xbd978dbf	-0.07400083
110	0xbd36e51a	-0.044652082
111	0xbcd58fa2	-0.026069466
112	0xbd55cd93	-0.052198004
113	0x3d2d7e66	0.04235687
114	0x3b607cb6	0.003425402
115	0x3d0335ca	0.03203372
116	0xbdabbc88	-0.08385569
117	0x3cd9d9b6	0.02659307
118	0xbdd2866e	-0.10279547
119	0xbd8a8715	-0.06764046
120	0x3da0e08f	0.07855331
121	0xbdd1cd4f	-0.10244238
122	0xbc11aef9	-0.008891814
123	0x3dbe98c6	0.09306483
124	0xbd042abd	-0.03226732
125	0x3d81bf8b	0.06335362
126	0x3d77595f	0.060387965
127	0xbcdba783	-0.026813274
128	0x3e09dfda	0.13464299
129	0xbd81670e	-0.06318484
130	0xbcb93741	-0.022609355
131	0x3bd86b4e	0.0066045886
132	0x3dade3d1	0.08490718
133	0xbc3dcb59	-0.011584126
134	0xbd9eedea	-0.07760222
135	0xbe1f3ad2	-0.15549782
136	0xbd3bef0c	-0.04588227
137	0xbd5d5b04	-0.054041877
138	0x3c844f80	0.01615119
139	0xbea3f181	-0.3202019
140	0xbbbf93c7	-0.005846474
141	0x3d95bfa1	0.07311941
142	0x3dd8a8d1	0.10579074
143	0xbe36a99e	-0.17838141
144	0xbc58bb5b	-0.013228263
145	0xbe2f2a7d	-0.17106052
146	0xbdc5edbb	-0.09664484
147	0x3d435f28	0.04769817
148	0x3cc30614	0.02380661
149	0xbc91a716	-0.017779868
150	0x3d20c9c0	0.039254904
151	0x3c0fcbaf	0.008776589
152	0x3d092855	0.03348573
153	0x3ca083c4	0.01959408
154	0x3dc18b1f	0.09450363
155	0x3c8c03fe	0.017091747
156	0x3cf72933	0.030171013
157	0xbe1f45d1	-0.15553977
158	0x3d647837	0.05577871
159	0x3de8c5fa	0.11365886
160	0x3d26d257	0.04072794
161	0x3e17328c	0.14765376
162	0x3c93e6d8	0.01805441
163	0x3c63e5d6	0.013909778
164	0xbcce0a75	-0.02515147
165	0xbc6607ee	-0.0140399765
166	0xbd0267fb	-0.031837445
167	0x3aee4ccf	0.001818085
168	0x3e0816a0	0.13289881
169	0x3d4a82e7	0.049441244
170	0xbdf1aa92	-0.11800112
171	0x3d3f6fc4	0.046737447
172	0xbd08ab76	-0.033366643
173	0x3d7ffa67	0.06249466
174	0x3c4a8212	0.012360113
175	0x3d029b41	0.031886343
176	0xbd9a4ade	-0.07533811
177	0xbcc868ae	-0.024463978
178	0x3d1cab15	0.038249094
179	0xbd2671d9	-0.040635917
180	0x3ba70aed	0.005097738
181	0x3d9651df	0.073398344
182	0xbd2e7fab	-0.042602222
183	0x3cbe3f92	0.023223672
184	0x39a82e7b	0.00032078088
185	0xbd3bf22e	-0.045885257
186	0x3e4349c0	0.19071102
187	0x3cb45a06	0.022015583
188	0x3d52664c	0.05136709
189	0x3e0eff67	0.13964616
190	0x3e063a44	0.13108164
191	0xbda69d8c	-0.081355184
192	0xbd2c5329	-0.042071495
193	0xbdc42f2a	-0.09579308
194	0x3ddf3690	0.10899079
195	0x3df4d062	0.11953808
196	0x3dcf80fe	0.10132025
197	0xbd2525a9	-0.04031912
198	0xbca82046	-0.020523202
199	0x3b1c81a0	0.0023880973
200	0x3dc97db5	0.0983843
201	0xbd5368a4	-0.051613465
202	0x3dc70e8e	0.09719573
203	0x3d700d23	0.05860628
204	0x3d12444b	0.03570966
205	0x3c592492	0.013253348
206	0xbda4411b	-0.080202304
207	0xbd62bd65	-0.055356402
208	0xbd52fa39	-0.051508162
209	0x3c98f3f0	0.018671006
210	0xbcda3e94	-0.026641168
211	0x3dabf9c2	0.08397247
212	0x3cafea53	0.02147404
213	0xbbaef1fd	-0.005338906
214	0xbcba59f2	-0.022747967
215	0x3b38c8f8	0.0028195959
216	0x3cf33ccf	0.029692082
217	0xbd858e76	-0.06521313
218	0x3d5a2077	0.053253617
219	0x3d31b4b9	0.04338524
220	0x3ca41e5f	0.020034013
221	0xbdb18286	-0.086674735
222	0x3da08766	0.07838325
223	0x3cdbf6a9	0.026851015
224	0x3d85ef99	0.0653984
225	0xbb6130f6	-0.0034361458
226	0x3d12c194	0.03582914
227	0x3cce88b3	0.025211668
228	0x3d9cd897	0.07658499
229	0xbe09b8a1	-0.13449337
230	0x3d1408a6	0.03614106
231	0x3dd74cc2	0.10512687
232	0xbc8d79f3	-0.017270064
233	0x3c35785d	0.01107606
234	0xbe055bae	-0.13023254
235	0xbd33aab3	-0.043863963
236	0xb9b53a8d	-0.00034566634
237	0xbd9fcc20	-0.07802606
238	0xbd08cb2a	-0.033396877
239	0xbd586fdd	-0.052841056
240	0xbdb27630	-0.08713949
241	0x3d8d9d4f	0.0691477
242	0x3ca171ce	0.019707587
243	0x3d0a7a67	0.03380814
244	0x3dd7d216	0.105381176
245	0xbccc242c	-0.024919592
246	0x3d9f232e	0.07770382
247	0x3deb391d	0.11485503
248	0xbd488488	-0.048954517
249	0xbbcfb91b	-0.006339205
250	0x3cfd0869	0.0308878
251	0x3d49b83b	0.04924796
252	0xbd8d76a7	-0.06907397
253	0x3c5b6d5d	0.013392773
254	0x3d0641c7	0.032777574
255	0x3d4e2c48	0.0503352

net_container.4.bias f4 [128]
0	0xbdb2ddd1	-0.08733714
1	0xbda0b7a7	-0.07847529
2	0x3d0bfeef	0.03417867
3	0xbe08e3ff	-0.13368224
4	0xbdc477e6	-0.09593181
5	0xbd85a776	-0.06526081
6	0xbd5d6e53	-0.05406029
7	0xbda32c8a	-0.079674795
8	0xbcd8b7e0	-0.026454866
9	0xbc3f8674	-0.011689771
10	0x3d4d1214	0.05006607
11	0xbdf8974e	-0.12138234
12	0xbe018e38	-0.12651908
13	0xbde3ed2f	-0.111292236
14	0x3d288560	0.04114282
15	0x3d3dddb4	0.04635401
16	0xbe041158	-0.12897241
17	0xbd18d2a6	-0.037310265
18	0x3d83f719	0.064436145
19	0x3bff9415	0.007799635
20	0xbd341255	-0.043962795
21	0x3c99a504	0.018755443
22	0xbdf86ccb	-0.121301256
23	0x3d6868af	0.05674046
24	0xbd3c3f80	-0.045958996
25	0xbd6f1c55	-0.05837663
26	0x3d9aa8a7	0.07551699
27	0x3cc2fb23	0.023801392
28	0xbd8e3a09	-0.06944663
29	0xbb1b0d2a	-0.002365897
30	0xbd97769c	-0.0739567
31	0x3d35be9b	0.04437123
32	0x3d9f29c1	0.07771636
33	0xbc4d8221	-0.012543232
34	0xbd3cef0a	-0.046126403
35	0xbdd4e638	-0.10395473
36	0xbdc28a60	-0.09499049
37	0xbd1a2add	-0.037638534
38	0x3bf33342	0.007421882
39	0x3d46a946	0.048501275
40	0xbcd8e4fb	-0.026476374
41	0xbd7d6108	-0.061860114
42	0x3cd6b16d	0.02620765
43	0xbda1033e	-0.078619465
44	0xbde530dc	-0.1119096
45	0x3c5d358c	0.013501536
46	0xbd9c525f	-0.076328985
47	0x3d22f263	0.03978194
48	0x3d30d1e1	0.043168906
49	0x3d0ce9e9	0.03440276
50	0x3d876c8b	0.066125
51	0xbcb89baf	-0.022535173
52	0xbd54ba48	-0.051935464
53	0xbdb299ae	-0.08720718
54	0xbd22a362	-0.039706595
55	0x3b6f293a	0.0036493079
56	0x3daca43b	0.08429762
57	0xbd7fe1aa	-0.06247107
58	0xbc16d681	-0.009206415
59	0x3d564add	0.05231749
60	0xbd02cf87	-0.031936195
61	0xbd164891	-0.0366903
62	0xbe001990	-0.12509751
63	0xbd0d21ac	-0.03445594
64	0xbcc78a31	-0.024357887
65	0xbc959ed5	-0.018264214
66	0xbdf1d5f8	-0.118083894
67	0x3d912256	0.07086627
68	0xbd946af6	-0.07246964
69	0xbcd683e9	-0.026185947
70	0x3dd80245	0.10547308
71	0x3cb2229d	0.02174502
72	0xbd025969	-0.03182355
73	0x3dca8126	0.09887914
74	0xbd3ce730	-0.046118915
75	0x3cdac490	0.026705056
76	0x3d1306ff	0.035895344
77	0x3c637e7f	0.0138851395
78	0x3d8ecc55	0.06972567
79	0xbd8d5c1d	-0.06902335
80	0x3dbaacaa	0.09114964
81	0x3cad7cc0	0.02117765
82	0xbc2d746b	-0.010586838
83	0xbcaa5268	-0.020791247
84	0xbb3d2fc4	-0.0028867582
85	0xbd730a8d	-0.059336234
86	0xbd40540d	-0.046955157
87	0xbd0b0956	-0.03394445
88	0xbbbdfc76	-0.005797918
89	0x3c5492c8	0.0129744485
90	0xbe025b45	-0.12730129
91	0xbd89a7f3	-0.06721487
92	0xbcc178f5	-0.023617247
93	0xbd93b47c	-0.07212159
94	0x3d2d91a5	0.042375226
95	0xbd698a1e	-0.057016484
96	0xbc4ddd86	-0.012565022
97	0xbdc27d47	-0.09496551
98	0xbd8a88b5	-0.06764356
99	0xbd392a18	-0.04520616
100	0xbe0fb7a4	-0.14034897
101	0xbdf2b8a6	-0.11851625
102	0xbe2d79a5	-0.16940935
103	0x3d8903f4	0.06690207
104	0xbc9a81ee	-0.018860783
105	0xbbab3da0	-0.005225852
106	0x3d182b44	0.037150636
107	0xbd15787d	-0.03649186
108	0xbd0eac3f	-0.034832235
109	0xbd23639c	-0.039889917
110	0xbd2f475b	-0.04279266
111	0x3d833f4e	0.06408559
112	0xbd089484	-0.03334476
113	0xbdaf4362	-0.08557774
114	0x3dd4b2fe	0.103857026
115	0x3d7a7fd4	0.061157063
116	0x3c8cd776	0.017192584
117	0x3d631e2a	0.05544869
118	0x3d842636	0.06452601
119	0x3da68e7b	0.08132645
120	0x3ce61ed4	0.028090872
121	0x3d0c1c05	0.03420641
122	0x3c4a3056	0.012340626
123	0xbcd32c35	-0.025777915
124	0x3b3824f2	0.0028098193
125	0xbd899e79	-0.067196794
126	0x3d116dd8	0.035505146
127	0x3d5caaf0	0.053873956

policy_layer.weight f4 [19, 128]
0	0xbc6e0f03	-0.014529946
1	0x3c792872	0.015207397
2	0xbc070f15	-0.008243342
3	0x3d34373e	0.043997996
4	0xbd69f849	-0.05712155
5	0x3d4d3621	0.05010045
6	0x3d1a24db	0.037632804
7	0xbd4811b7	-0.04884502
8	0xbc80ac0d	-0.01570704
9	0x3d18d52a	0.037312664
10	0xbd18268b	-0.037146132
11	0x3ade353a	0.0016953119
12	0x3d2a16fc	0.041525826
13	0x3c185956	0.009298643
14	0xbbef52df	-0.00730358
15	0x3d028235	0.031862456
16	0x3c1a5ecf	0.009422018
17	0xbd10799d	-0.03527223
18	0x3cb4216c	0.021988593
19	0x3c8da730	0.017291635
20	0x3c2fd9b4	0.010733057
21	0xbc04db6d	-0.008108956
22	0x3d2fa855	0.042885143
23	0xbdbf4773	-0.093398
24	0x3be7f80d	0.0070791305
25	0x3b1dec4c	0.0024097143
26	0x3cb4b6fe	0.022059914
27	0x3c38af9e	0.011272339
28	0x3c88cda6	0.016699623
29	0xbc890f23	-0.01673085
30	0xbd372071	-0.044708673
31	0xbb21d0f7	-0.0024691203
32	0xbc31d3e9	-0.010853746
33	0x3c3059c2	0.010763587
34	0x3d43fd44	0.047848955
35	0xbd1ec0da	-0.038758136
36	0x3cd8c3c5	0.026460538
37	0x3ceb468e	0.028720167
38	0xbd30a063	-0.043121707
39	0x3c5b8dc6	0.013400501
40	0x3c585861	0.013204665
41	0x3c946965	0.018116662
42	0xbdaaf00a	-0.08346565
43	0x3d24443b	0.040104132
44	0xbd6b0f52	-0.057387657
45	0xbda2a7d6	-0.079421684
46	0x3ccb794a	0.024838109
47	0x3ab7d5ed	0.0014025547
48	0xbae0d97e	-0.0017154661
49	0x3cf2e823	0.029651707
50	0xbd6a0220	-0.057130933
51	0x3c4e0aff	0.012575864
52	0x3cb52113	0.022110498
53	0x3d918ee1	0.0710733
54	0x3be90fb6	0.0071124686
55	0xbd0a82b0	-0.03381604
56	0x3cb2a20d	0.021805787
57	0x3cafc217	0.021454854
58	0x3d190d89	0.037366424
59	0xbc2557e0	-0.010091752
60	0x3cdb4b3f	0.026769279
61	0x3d965384	0.07340148
62	0x3c70eb76	0.014704576
63	0xbdb0079f	-0.085952036
64	0xbc91e899	-0.017811107
65	0xbceaefa2	-0.028678719
66	0xbd0f5206	-0.034990333
67	0x3ce25cc4	0.027632125
68	0xbcbde428	-0.023180082
69	0xbd4be076	-0.04977461
70	0xbd95cc82	-0.073143974
71	0x3c8b344c	0.01699271
72	0x3c13e040	0.009025633
73	0x3b366fcb	0.002783763
74	0xbd022ffe	-0.03178405
75	0xbc8f3877	-0.01748298
76	0x3d0d3eb3	0.034483623
77	0xbd42610a	-0.047455825
78	0x3cfbe3b0	0.030748218
79	0x3cc352c6	0.02384318
80	0xbc6ca0e6	-0.014442658
81	0x3bd874f3	0.0066057383
82	0x3dca598a	0.098803595
83	0xbce215ae	-0.027598228
84	0x3d89f126	0.067354485
85	0xbd4d12c9	-0.050066743
86	0x3c97278d	0.018451476
87	0x3d935eba	0.07195802
88	0x3caedeb6	0.021346431
89	0x3d971b98	0.0737831
90	0x3da488fd	0.08033941
91	0x3c89725d	0.016778165
92	0x3b1c7f69	0.0023879653
93	0x3dae26b5	0.085034765
94	0xbd65833f	-0.05603337
95	0xbd044c83	-0.03229953
96	0x3c305438	0.010762267
97	0x3bcd148b	0.0062585524
98	0xbc8b79f2	-0.017025921
99	0xbce39ad1	-0.027783783
100	0x3c8e92e8	0.017404035
101	0x3c05aa44	0.00815827
102	0xbc192828	-0.009347953
103	0x3cd5f6b9	0.026118623
104	0x3c9ee481	0.019396069
105	0xbd7fae63	-0.062422168
106	0x3d420cc5	0.04737546
107	0x3cc43d67	0.02395506
108	0xbca5c0f1	-0.020233603
109	0xbd25cbb9	-0.04047749
110	0x3d386814	0.04502113
111	0x3d10535b	0.035235744
112	0xbbae7ede	-0.0053251823
113	0x3caa7de5	0.020811984
114	0x3bb2ba2f	0.0054543237
115	0xbc958b75	-0.018254975
116	0xbd9946d6	-0.07484214
117	0x3c8841fd	0.016633028
118	0xbd6cc974	-0.05780931
119	0xba615a92	-0.0008596565
120	0x3d838956	0.06422679
121	0xbd907beb	-0.070548855
122	0xbc9573d7	-0.018243713
123	0xbc28d8ef	-0.010305627
124	0x3c09859f	0.008393674
125	0xbdae2474	-0.08503047
126	0xbcdbc4a5	-0.026827166
127	0xbd24fa36	-0.040277682
128	0xbd1ee1ca	-0.038789548
129	0x3c927e87	0.017882599
130	0x3d44cff3	0.04804988
131	0xbddf9012	-0.10916151
132	0xbd1cacf5	-0.038250882
133	0x3ce6aa28	0.028157309
134	0xbb1478d5	-0.002265503
135	0xbcd1121c	-0.02552133
136	0xbbe15bf3	-0.0068774163
137	0x3d50823a	0.050905444
138	0xbd52663e	-0.051367037
139	0xbc224c79	-0.009905928
140	0xbd28f832	-0.041252322
141	0xbdacd943	-0.08439877
142	0x3c3d3282	0.0115476865
143	0xbc7452b2	-0.014912294
144	0xbbf4819f	-0.007461741
145	0x3c0dcdee	0.0086550545
146	0x3d488fe0	0.048965335
147	0xbcb5d97f	-0.022198437
148	0xbaf525ee	-0.001870332
149	0xbbb9c9ab	-0.0056697926
150	0xbc03f638	-0.008054309
151	0x3cd865d6	0.026415747
152	0x3d251365	0.0403017
153	0x3d8a3ea1	0.06750227
154	0x3c22d13d	0.009937582
155	0xbab34f62	-0.0013680274
156	0x3d1da02f	0.03848284
157	0xbd03d2ff	-0.032183643
158	0x3cae7aba	0.021298755
159	0xbc8a12b0	-0.016854614
160	0xbc0314b0	-0.008000538
161	0x3cf9b1fd	0.03048038
162	0xbca2f756	-0.01989333
163	0xbd884a67	-0.06654816
164	0xbcf16d45	-0.02947105
165	0x3c68a109	0.01419855
166	0x3db04b68	0.086081326
167	0x3c2f5be7	0.010703064
168	0xbce2827f	-0.027650116
169	0xbc8cb5d4	-0.017176546
170	0x3bce2ad6	0.0062917275
171	0x3b5070c4	0.0031805495
172	0x3cd53a09	0.02602865
173	0x3d930b56	0.071798965
174	0xbc8c741e	-0.017145213
175	0xbcc27881	-0.023739101
176	0xbc05315b	-0.008129443
177	0xbc56a05c	-0.013099756
178	0xbd6cf2d9	-0.057848785
179	0xbcce9170	-0.025215834
180	0x3c956cdb	0.018240383
181	0x3c8ea4fe	0.017412659
182	0xbbd0f98f	-0.006377406
183	0x3d3bde5a	0.045866348
184	0xbd5c85be	-0.053838484
185	0xbd8edbc3	-0.0697551
186	0xbd865491	-0.065590985
187	0x3d304819	0.043037508
188	0xbd894711	-0.06703008
189	0x3c840ff9	0.016120898
190	0x3d27c5f3	0.040960263
191	0x3d8f6e5b	0.070034705
192	0x3b5e5481	0.003392488
193	0xbd314d56	-0.043286644
194	0x3d10b867	0.03533211
195	0xbce27b8b	-0.0276468
196	0x3d652717	0.055945482
197	0x3d527e75	0.05139013
198	0xbd0d56a5	-0.03450646
199	0xbd733305	-0.059374828
200	0xbb6fd058	-0.0036592688
201	0xbd0fc833	-0.035103034
202	0x3d11cdf6	0.03559681
203	0x3d216031	0.039398376
204	0x3c551912	0.0130064655
205	0x3d8da30c	0.06915864
206	0x3b9d6a84	0.0048039574
207	0xbdb55c8c	-0.088555425
208	0xbd11d7ea	-0.035606302
209	0x3dcbc50e	0.099496946
210	0xbcdfbfca	-0.027313132
211	0x3d258c8b	0.040417235
212	0x3d1661bc	0.0367143
213	0x3b1aae6e	0.0023602503
214	0x3c2c4e10	0.010516658
215	0x3a981230	0.00116021
216	0xbd23e15c	-0.04000984
217	0xbc9bc105	-0.019012937
218	0xbc7fbd5a	-0.01560911
219	0xbd781025	-0.06056227
220	0xbd83e189	-0.06439502
221	0xbd34eb46	-0.044169687
222	0x3bd75685	0.006571593
223	0x3d3a8d6d	0.04554503
224	0x3abd0bf1	0.0014423114
225	0x3ca15163	0.019692129
226	0xbc4a2dd9	-0.0123400325
227	0x3c11281e	0.008859662
228	0x3c60f7fe	0.013731001
229	0x3da7176c	0.08158764
230	0x3c27ebdd	0.010249105
231	0xbc015c83	-0.007895592
232	0xbd12fb0d	-0.035883952
233	0x3cc903a0	0.024537861
234	0x3ca5c0ea	0.02023359
235	0x3cd231a9	0.025658445
236	0xbd4ce1ea	-0.050020136
237	0x39d52e1b	0.00040660877
238	0x3cf8e41d	0.03038221
239	0xbd2e21dd	-0.042512763
240	0xbc708cd8	-0.014682017
241	0xbd681d8d	-0.056668807
242	0x3c9139f6	0.017727833
243	0x3bc3d177	0.005975898
244	0x3d7b07ab	0.06128661
245	0xbcb41db6	-0.021986824
246	0xbd63e936	-0.05564233
247	0xbbf59559	-0.0074946103
248	0x3ce21438	0.027597532
249	0xbc0d078d	-0.008607757
250	0x3bc02066	0.005863237
251	0x3ce7b875	0.028286198
252	0x3d6527bb	0.055946093
253	0x3c9b08bb	0.018925061
254	0x3cbe6325	0.023240635
255	0x3ca8583c	0.020549886

policy_layer.bias f4 [19]
0	0xbd222a76	-0.039591275
1	0xbcb68c2c	-0.022283636
2	0xbd0b82ec	-0.034060404
3	0xbbeb0c0b	-0.0071730665
4	0x3c7cdd29	0.015433588
5	0xbcc144bc	-0.023592345
6	0xbd23034a	-0.03979806
7	0x3c89786b	0.016781053
8	0xbd36c5d7	-0.04462227
9	0x3daac5a0	0.08338475
10	0x3cc3f42e	0.023920145
11	0x3dbf9d11	0.0935613
12	0x3d75f608	0.060049087
13	0x3d0a29bd	0.03373121
14	0xbb360fe9	-0.002778048
15	0xbe0eadbd	-0.13933463
16	0xbddbfd82	-0.10741712
17	0x3cba5851	0.02274719
18	0xbd777e2e	-0.06042307

value_layer.weight f4 [1, 128]
0	0xbb5be9b8	-0.0033556055
1	0x3d894eff	0.067045204
2	0xbc735ff8	-0.014854424
3	0xba9eae80	-0.0012106448
4	0xbdb6df74	-0.08929339
5	0x3de9ab74	0.11409655
6	0x3d0d0961	0.034432773
7	0x3da43421	0.08017755
8	0xbbfb3a30	-0.0076668486
9	0x3c291145	0.010319059
10	0xbe0761ef	-0.13220952
11	0xbdb5e79a	-0.08882065
12	0xbcad5e66	-0.021163177
13	0x3d213555	0.039357502
14	0x3caa3c31	0.020780655
15	0xbdca3e1f	-0.0987513
16	0x3c805e07	0.015669836
17	0xbe1fbec3	-0.15600114
18	0x3d61cf77	0.055129495
19	0x3dbf65ff	0.09345626
20	0xbe0ec1b4	-0.1394108
21	0x3dd87c24	0.10570553
22	0xbca8034f	-0.02050939
23	0x3e12b826	0.1432806
24	0xbcf9c938	-0.030491456
25	0x3e1ee9b7	0.15518843
26	0xbe30b847	-0.17257796
27	0x3c815aab	0.015790304
28	0x3ced3171	0.02895424
29	0xbdddacd8	-0.10823983
30	0x3e220bfa	0.15824881
31	0x3dc48903	0.095964454
32	0xbac71a13	-0.0015190266
33	0x3d3883a0	0.045047402
34	0x3dd1aa31	0.102375396
35	0x3d48f312	0.049059935
36	0xbe2ceb3a	-0.16886607
37	0xbddbb9c5	-0.10728792
38	0xbdc51c15	-0.09624497
39	0xbe264424	-0.16236931
40	0x3cacb16f	0.0210807
41	0x3dd1adb6	0.10238211
42	0xbd1838e0	-0.037163615
43	0xbcddc697	-0.027072234
44	0x3d668f77	0.056289162
45	0xbdee0de3	-0.116237424
46	0x3dc05a4d	0.093922235
47	0x3df54538	0.11976093
48	0xbdf30621	-0.11866403
49	0x3d260fad	0.040542293
50	0x3df6db48	0.12053543
51	0x3dc19424	0.09452084
52	0xbe099b8d	-0.13438244
53	0xbdcc4449	-0.09973962
54	0xbcf1e9d3	-0.029530441
55	0xbdf8aa7f	-0.121418945
56	0xbcd0b7db	-0.025478294
57	0xbd1079ce	-0.035272412
58	0x3dbe6e77	0.09298413
59	0x3c64f679	0.013974779
60	0x3d89fcbd	0.06737659
61	0x3e0f69d2	0.14005211
62	0xbe41f312	-0.1894038
63	0x3bc0f022	0.005888001
64	0xbc4f5a4c	-0.012655806
65	0x3cb4524e	0.022011902
66	0xbc6f3231	-0.014599369
67	0x3d8002ea	0.06250556
68	0xbd9903a5	-0.07471398
69	0x3d1f9a68	0.038965613
70	0xbd1eb6cf	-0.03874856
71	0xbd17a486	-0.037022136
72	0xbd5c0eeb	-0.053725164
73	0x3d8c6ef1	0.06857098
74	0x3da154d3	0.07877507
75	0xbded63c6	-0.11591296
76	0x3d7f770f	0.062369402
77	0x3b9a6657	0.004711907
78	0xbd5d85fc	-0.054082856
79	0xbdc777a3	-0.09739616
80	0x3c949790	0.018138677
81	0x3c3f09bc	0.011660036
82	0xbb00c0b1	-0.0019646103
83	0xbd7f5466	-0.062336348
84	0x3d9cfc1a	0.07665272
85	0x3e0ec753	0.13943224
86	0xbe0bcd39	-0.13652505
87	0x3d3d3317	0.0461913
88	0xbd3f5630	-0.046713054
89	0x3d7eddf7	0.0622234
90	0xbe1c103d	-0.1524057
91	0xbe0fe4de	-0.1405215
92	0x3db014d6	0.08597724
93	0xbd8f7b92	-0.07005991
94	0x3de45baf	0.111503
95	0xbe141cc7	-0.14464103
96	0xbdbf73b3	-0.0934824
97	0x3d9be99e	0.07612918
98	0xbe254e76	-0.16143212
99	0xbd46f29b	-0.04857121
100	0x3b1227c1	0.0022301527
101	0xbe474288	-0.19458973
102	0xbe0b9466	-0.13630828
103	0x3d6dcd77	0.058057275
104	0xbcfd67d3	-0.030933296
105	0xbc5d53b3	-0.013508725
106	0x3d5bfcf1	0.05370802
107	0x3db6fd2f	0.0893501
108	0x3ca1d12c	0.019753061
109	0x3dc48a61	0.09596706
110	0xbd0b0ff1	-0.03395075
111	0x3df8ebad	0.121543266
112	0x3dc5518f	0.09634697
113	0x3e304baa	0.17216364
114	0x3dd64b81	0.1046362
115	0xbe0c1bf1	-0.13682534
116	0x3d53e376	0.051730596
117	0x3db7af58	0.08968991
118	0x3e2dfb8d	0.1699049
119	0xbd869af6	-0.06572525
120	0x3e51dd98	0.20494688
121	0x3dabb031	0.08383215
122	0xbdcd0b7d	-0.10011957
123	0x3dd9cf08	0.10635191
124	0x3d19ea92	0.03757722
125	0x3d412977	0.047158685
126	0xbd890f2d	-0.06692348
127	0x3df2495e	0.118304

log_std_parameter f4 [19]
0	0xc04cf44a	-3.2024102
1	0xc0539f2c	-3.30659
2	0xc058a4fc	-3.3850698
3	0xbfe1ae7b	-1.7631372
4	0xbfe64513	-1.798983
5	0xbf510f9b	-0.8166444
6	0xbf6cb70f	-0.92466825
7	0xc01c6178	-2.443449
8	0xc0191691	-2.3920023
9	0xbf252163	-0.6450407
10	0xbf59340d	-0.8484505
11	0xbfc7d0c3	-1.5610584
12	0xbfc42077	-1.5322407
13	0xbf38191a	-0.719133
14	0xbf402db3	-0.7506973
15	0xbf59dc22	-0.8510152
16	0xbf45eaaa	-0.77311194
17	0xbf31a0f2	-0.6938621
18	0xbf433317	-0.7624983

net_container.0.weight f4 [128, 69]
0	0xbea10ae7	-0.3145363
1	0x3d8871ff	0.06662368
2	0xbdc2e862	-0.0951698
3	0xbe428801	-0.18997194
4	0xbd456a72	-0.048197217
5	0x3d0cd4c8	0.03438261
6	0xbef069d7	-0.4695575
7	0x3e254a20	0.16141558
8	0x3d95587d	0.072922684
9	0xbd4ba97a	-0.049722172
10	0xbd7eda87	-0.062220123
11	0x3eafdfd9	0.3435047
12	0xbd722574	-0.05911775
13	0xbe0870e6	-0.13324317
14	0x3e3253e7	0.17414819
15	0xbe652e23	-0.22380881
16	0x3eb3fb92	0.3515287
17	0xbd63d750	-0.05562526
18	0x3da0a39b	0.07843705
19	0xbf186282	-0.5952531
20	0xbcd6d019	-0.026222276
21	0xbdec2635	-0.11530725
22	0x3e67ec1d	0.22648664
23	0xbebd85f0	-0.3701625
24	0xbe97e41f	-0.2966623
25	0xbd9652dc	-0.07340023
26	0xbdf192a7	-0.1179555
27	0x3e50861a	0.20363656
28	0x3e7744de	0.24147364
29	0x3e7f9f9f	0.24963234
30	0xbebb88b9	-0.3662775
31	0xbc51ffa6	-0.012817299
32	0xbc026e33	-0.007960844
33	0xbce3be92	-0.027800832
34	0xbdfe33ad	-0.124122
35	0x3e0f3f4a	0.13988987
36	0xbd679575	-0.056539018
37	0xbd37b5f3	-0.044851255
38	0xbdcca80f	-0.09992992
39	0x3c37dc87	0.011222011
40	0x3d815d28	0.06316596
41	0x3d0b9167	0.034074213
42	0x3c8afd24	0.01696641
43	0x3ceea163	0.02912969
44	0x3d088ab8	0.033335418
45	0x3c66326a	0.014050106
46	0xbde3da23	-0.11125591
47	0x3da42aab	0.08015951
48	0xbd37983c	-0.044822916
49	0xbca3967b	-0.019969216
50	0xbe1c9d36	-0.15294346
51	0x3d5603a9	0.052249584
52	0x3d77b1ad	0.06047218
53	0x3d4f57e5	0.050620932
54	0xbc787f82	-0.015167119
55	0xbd09432b	-0.033511322
56	0x3c2c9b1b	0.010535027
57	0xbd792d16	-0.060834013
58	0x3d949260	0.07254481
59	0x3ddbe9c0	0.10737944
60	0x3d70240f	0.05862814
61	0xbe0b7b13	-0.13621168
62	0xbd148d23	-0.03626741
63	0xbcfb6906	-0.030689728
64	0x3c0bb4cd	0.008526993
65	0x3db7a3aa	0.08966763
66	0xbd505673	-0.050863694
67	0x3d10846c	0.035282537
68	0x3d38f36a	0.045154013
69	0x3d4367af	0.047706302
70	0xbe605342	-0.2190676
71	0x3dd93db8	0.10607475
72	0xbd99acbe	-0.07503651
73	0xbe31172d	-0.17293997
74	0x3e0e5969	0.13901295
75	0xbd9dac0b	-0.0769883
76	0xbea26e48	-0.31724763
77	0x3c8eb345	0.017419467
78	0x3e37a73c	0.17934889
79	0xbd28830b	-0.041140597
80	0x3ec5f530	0.38663626
81	0xbee26088	-0.44214272
82	0xbeb8f8fe	-0.36127466
83	0xbea68935	-0.32526556
84	0x3d0c4fb7	0.03425571
85	0x3dabd6d4	0.083905846
86	0x3e863948	0.26215577
87	0x3cedbc4e	0.029020455
88	0x3f0f77f7	0.56042427
89	0xbe82b6ad	-0.25529996
90	0xbc90d332	-0.01767883
91	0x3d11964e	0.035543732
92	0x3d4498b3	0.047997188
93	0x3d30157c	0.04298924
94	0x3e6f7a35	0.23386462
95	0xbebf50a8	-0.37366223
96	0xbe866f64	-0.2625686
97	0x3ebb251e	0.36551756
98	0x3ec24806	0.37945575
99	0xbeda5bcb	-0.42648157
100	0x3c879259	0.016549276
101	0x3db2d20e	0.08731471
102	0xbdb3c419	-0.08777637
103	0x3cbf26bb	0.023333898
104	0xbd6d1abd	-0.057886828
105	0xbd189ad9	-0.03725705
106	0xbd80ae08	-0.06283194
107	0x3d6a06bf	0.05713534
108	0xbd1f63c4	-0.038913503
109	0x3db711e6	0.08938961
110	0xbd5a2923	-0.053261887
111	0xbd4a3fc4	-0.049377218
112	0x3e102082	0.14074901
113	0x3d1a8ab8	0.03772995
114	0x3da5b5f4	0.080913454
115	0xbd39d372	-0.045367666
116	0x3cbdd24c	0.023171566
117	0x3d78b6ff	0.060721394
118	0x3e004ef5	0.1253012
119	0x3c9b76aa	0.018977482
120	0xbe5925a1	-0.2120576
121	0xbd282392	-0.041049547
122	0x3e164aa1	0.14676906
123	0x3cbad7f6	0.022808056
124	0xbe2f9b6c	-0.17149132
125	0xbdd0097a	-0.101580575
126	0xbe215643	-0.15755562
127	0x3dd18692	0.102307454
128	0x3e344fa0	0.176085
129	0x3e014f46	0.12627897
130	0x3e259a37	0.1617211
131	0xbd0db62d	-0.034597564
132	0xbe1dbf51	-0.15405013
133	0xbcdbda75	-0.026837567
134	0xbdc44053	-0.09582581
135	0xbe0e32a9	-0.13886513
136	0xbdac1f94	-0.084044605
137	0x3dad5b60	0.08464694
138	0xbe9e7288	-0.30946755
139	0x3f2724c3	0.6529047
140	0xbe51fd65	-0.20506819
141	0x3db2cbd1	0.08730281
142	0xbde60cb8	-0.11232895
143	0xbdb7a676	-0.08967297
144	0xbf108af2	-0.56462014
145	0x3e261d89	0.16222204
146	0x3e3f83e6	0.18702659
147	0x3ecd9450	0.40152216
148	0x3d2a0e7d	0.041517723
149	0x3dcdfa78	0.10057539
150	0xbe8d4daf	-0.2759833
151	0xbe6071ec	-0.21918458
152	0xbd0efb8f	-0.034907874
153	0xbdae10e3	-0.08499315
154	0xbde466b5	-0.11152402
155	0xbd2f1c8f	-0.042751845
156	0x3e2adcc6	0.16685781
157	0xbed8b63a	-0.42326528
158	0x3e22f28b	0.15912835
159	0xba410d49	-0.00073643454
160	0x3e40fe69	0.1884705
161	0x3d89a58e	0.0672103
162	0x3d4d690b	0.050149005
163	0x3e9e98ed	0.30976048
164	0x3c950811	0.018192323
165	0x3dc23c0a	0.09484108
166	0x3e66ed5c	0.22551483
167	0x3b4ab8ce	0.0030932906
168	0x3e829e71	0.25511506
169	0xbbf98733	-0.007614994
170	0xbbb869b2	-0.0056278342
171	0x3cd8b63a	0.02645408
172	0x3d9a8eef	0.07546794
173	0xbd11eede	-0.035628192
174	0x3ce61b62	0.028089229
175	0x3d67b112	0.05656535
176	0xbd9a2e94	-0.07528415
177	0xbbf3b6a6	-0.007437545
178	0xbc98365a	-0.018580604
179	0xbcb040a0	-0.02151519
180	0x3ad886b9	0.0016519643
181	0x3d261722	0.040549405
182	0x3c13b37e	0.009014962
183	0x3da9b210	0.08285916
184	0xbd7a1f01	-0.061064724
185	0xbcb9e727	-0.02269323
186	0xbd22548c	-0.03963141
187	0xbd54c0d2	-0.0519417
188	0xbe196d79	-0.14983167
189	0x3d8c60d2	0.068544045
190	0xbba16bce	-0.0049261814
191	0xbdbeeb9f	-0.09322285
192	0x3c74e470	0.014947042
193	0x3d8f8ddf	0.07009482
194	0xbba02ed4	-0.004888395
195	0x3d496a7a	0.04917381
196	0x3d2b303d	0.04179405
197	0xbc216664	-0.009851072
198	0x3e4ba6eb	0.19887893
199	0xbcfef8c2	-0.031124476
200	0x3e44c5b0	0.19216037
201	0x3d280c80	0.041027546
202	0xbd3e7312	-0.04649646
203	0x3dec5cd6	0.115411445
204	0x3d742ddd	0.05961405
205	0x3d090f0b	0.03346161
206	0x3b0ee9b3	0.0021806776
207	0x3e8adbd9	0.27120855
208	0xbe81942d	-0.25308362
209	0xbed1cd34	-0.4097687
210	0xbe25d342	-0.1619387
211	0x3cecc1bf	0.02890098
212	0xbd1edf46	-0.03878715
213	0x3f901b0f	1.1258258
214	0xbf870533	-1.0548462
215	0xbe0b2d42	-0.13591483
216	0x3e8cf079	0.27527216
217	0x3deee56c	0.116648525
218	0xbdc05311	-0.09390844
219	0x3dce4855	0.1007239
220	0xbec66e71	-0.38756135
221	0x3e684a59	0.22684611
222	0x3f460973	0.7735817
223	0xbea8f139	-0.32996538
224	0xbbf55fcc	-0.0074882265
225	0x3d991660	0.07474971
226	0x3f34101c	0.7033708
227	0x3e2f6768	0.1712929
228	0xbc4f4b83	-0.012652281
229	0xbd9e6578	-0.077341974
230	0x3ea5b818	0.32367015
231	0x3ec2942b	0.38003668
232	0xbd8e1e3a	-0.06939359
233	0xbe12c859	-0.14334239
234	0xbe914b49	-0.2837775
235	0xbe1483c4	-0.1450339
236	0x3d11f2bd	0.035631884
237	0xbdb91cba	-0.09038682
238	0xbbc54ba1	-0.0060209786
239	0xb8043e3f	-3.1529224e-05
240	0xbcc456dc	-0.023967199
241	0x3b894369	0.004188944
242	0xbc79100e	-0.015201582
243	0x3daabba6	0.08336572
244	0x3d5eb3b5	0.0543706
245	0xbbee08ba	-0.007264224
246	0xbc63d17f	-0.013904928
247	0xbd32d081	-0.043655876
248	0x3c655472	0.013997184
249	0xbd0846f9	-0.03327081
250	0xbbc6d3eb	-0.006067743
251	0x3d1112ef	0.035418447
252	0xbc1f2d40	-0.009715378
253	0x3d88ef6a	0.066862896
254	0x3ce05221	0.027382912
255	0xbd26357a	-0.040578343
