humanoidprac/humanoidprac/scripts/skrl/logs/skrl/h1_flat/joint_experiment_ver3/2025-09-18_07-37-15_ppo_torch/checkpoints/best_agent.pt (torch, 730594 bytes, 40 tensors)

log_std_parameter f4 [19]
-3.159314 -3.2575305 -3.336899 -1.7523082 -1.7875386 -0.7931377 -0.9112457 -2.402526
-2.3390179 -0.6454546 -0.8254694 -1.5316855 -1.5031359 -0.7001508 -0.715419 -0.8122333
-0.7724439 -0.6691248 -0.72969455
00000000: 3332 4ac0 617b 50c0 c18f 55c0 a34b e0bf
00000010: 11ce e4bf 130b 4bbf 6647 69bf fcc2 19c0
00000020: 78b2 15c0 833c 25bf f651 53bf 450e c4bf
00000030: c266 c0bf 153d 33bf b325 37bf 86ee 4fbf
00000040: e2be 45bf c34b 2bbf 43cd 3abf

net_container.0.weight f4 [128, 69]
-0.31611797 0.06374605 -0.09095757 -0.18764551 -0.04230311 0.03888078 -0.4679748 0.17002808
0.07358495 -0.049630217 -0.062220123 0.3369887 -0.060839523 -0.12927087 0.17183194 -0.22163361
0.34783942 -0.05187483 0.07542357 -0.59645605 -0.02608017 -0.11163203 0.2224063 -0.36877388
-0.29754087 -0.08048735 -0.11948888 0.1966609 0.2427265 0.2528216 -0.36982965 -0.016725238
-0.008130167 -0.032540496 -0.12245383 0.14517762 -0.051258225 -0.0531176 -0.09898303 0.008284219
0.06693176 0.03319706 0.018608661 0.031650662 0.028493322 0.01658008 -0.11406252 0.07442715
-0.045097973 -0.02010892 -0.16185474 0.054952987 0.05587522 0.058317073 -0.023252828 -0.027634736
0.002934327 -0.061181102 0.07053426 0.11242912 0.06349869 -0.1411023 -0.03654044 -0.03131701
0.016038101 0.09130018 -0.051786903 0.03825473 0.049893264 0.048850622 -0.21482891 0.11384605
-0.07242087 -0.16681464 0.13663584 -0.07434952 -0.31554458 0.017539997 0.17771201 -0.041140597
0.3722495 -0.437962 -0.36203486 -0.32483798 0.034932245 0.086112 0.26784748 0.03196228
0.5606495 -0.25645697 -0.014557699 0.03868765 0.04599815 0.041882977 0.23528922 -0.37788394
-0.25614253 0.36842623 0.37085125 -0.44345263 0.017033346 0.0911606 -0.092062995 0.02600771
-0.06196483 -0.033965416 -0.069672 0.059364934 -0.03856518 0.08665649 -0.059802514 -0.05051282
0.13867186 0.02992618 0.0785494 -0.041344386 0.020449584 0.058134317 0.12617174 0.022781642
-0.21543838 -0.041211836 0.14936887 0.024890585 -0.16754866 -0.10208441 -0.1616105 0.10139153
0.17390364 0.12355601 0.15380758 -0.035235446 -0.16665296 -0.032301277 -0.0922513 -0.13649195
-0.09055645 0.0899672 -0.30857664 0.66042805 -0.20401195 0.09023071 -0.1050552 -0.091829985
-0.5653788 0.16775446 0.18553977 0.40209568 0.041517723 0.10237568 -0.27299768 -0.22064774
-0.03131995 -0.08431764 -0.09966435 -0.03529023 0.16566277 -0.42126593 0.15839733 0.0020579784
0.19380918 0.06741916 0.050449092 0.3088775 0.018605964 0.09385855 0.22241887 -0.013480243
0.26235998 -0.0037486716 -0.0011235503 0.030863319 0.076464124 -0.036666106 0.03001497 0.0593059
-0.0775356 -0.0066381013 -0.017251424 -0.023291243 0.0048091975 0.044272777 0.004877642 0.08075618
-0.06641811 -0.026108121 -0.03904454 -0.048126675 -0.15118147 0.07000751 0.0019016231 -0.09316696
0.016399391 0.07809394 -0.0007988867 0.04891014 0.0431361 -0.009754253 0.20156626 -0.029218948
0.19405763 0.041056097 -0.039938796 0.11549341 0.060156208 0.036698084 0.0020332218 0.2726667
-0.24621052 -0.41531637 -0.16125466 0.03195936 -0.041108686 1.1353872 -1.0540813 -0.13699761
0.2700824 0.116648525 -0.09859636 0.08921423 -0.39213997 0.2235663 0.7713732 -0.31226745
-0.018645266 0.08462757 0.7023732 0.16870886 -0.011390371 -0.07943156 0.31998542 0.3781863
-0.064014815 -0.14767767 -0.27484503 -0.14152433 0.026825288 -0.09440817 -0.011770329 0.0053316485
-0.020388637 0.0021745434 -0.022174438 0.08473903 0.05989559 -0.005902623 -0.009196524 -0.046121173
0.015180647 -0.029358398 -0.0069881813 0.03967009 -0.0077311536 0.07404228 0.026556006 -0.037480928
00000000: 37da a1be 4a8d 823d f647 babd 2526 40be
00000010: 0746 2dbd 7441 1f3d 659a efbe d71b 2e3e
00000020: b5b3 963d 0e49 4bbd 87da 7ebd c889 ac3e
00000030: dd32 79bd 955f 04be b6f4 2f3e ecf3 62be
00000040: 0218 b23e b47a 54bd ac77 9a3d 58b1 18bf
00000050: 15a6 d5bc 559f e4bd 7abe 633e eecf bcbe
00000060: 4757 98be 8dd6 a4bd 96b6 f4bd 7a61 493e
00000070: 4c8d 783e d571 813e 505a bdbe 5e03 89bc
00000080: 6434 05bc 2f49 05bd 13c9 fabd 71a9 143e
00000090: 25f4 51bd d791 59bd 9db7 cabd 88ba 073c
000000a0: 8513 893d a4f9 073d 3171 983c 20a4 013d
000000b0: d46a e93c f3d2 873c 9c99 e9bd 436d 983d
000000c0: a7b8 38bd 76bb a4bc 40bd 25be 6216 613d
000000d0: 6add 643d e2dd 6e3d b77c bebc 3e62 e2bc
000000e0: d74d 403b 0999 7abd 4474 903d 3d41 e63d
000000f0: 9a0b 823d 1f7d 10be 6eab 15bd 4446 00bd
00000100: 5662 833c 97fb ba3d 811e 54bd feb0 1c3d
00000110: e15c 4c3d 9717 483d 1cfc 5bbe 1e28 e93d
00000120: 6551 94bd 75d1 2abe 44ea 0b3e 9044 98bd
00000130: 0f8f a1be 0ab0 8f3c 23fa 353e 0b83 28bd
00000140: 7d97 be3e 8e3c e0be a25c b9be 2a51 a6be
00000150: 1d15 0f3d 7d5b b03d 4e23 893e e1ea 023d
00000160: ba86 0f3f 544e 83be 6a83 6ebc f176 1e3d
00000170: 8e68 3c3d 7c8d 2b3d a8ef 703e 017a c1be
00000180: 1d25 83be 5da2 bc3e 37e0 bd3e 390c e3be
00000190: 8489 8b3c 69b2 ba3d 868b bcbd 1f0e d53c
000001a0: d5ce 7dbd 521f 0bbd 32b0 8ebd a528 733d
000001b0: 86f6 1dbd f578 b13d 7bf3 74bd 88e6 4ebd
000001c0: ffff 0d3e c027 f53c 82de a03d bb58 29bd
000001d0: e385 a73c 401e 6e3d 2a33 013e 91a0 ba3c
000001e0: e19b 5cbe becd 28bd 27f4 183e 57e7 cb3c
000001f0: e091 2bbe a211 d1bd 397d 25be 5da6 cf3d
00000200: cc13 323e ef0a fd3d bc7f 1d3e 0b53 10bd
00000210: 13a7 2abe 584e 04bd 40ee bcbd 8cc4 0bbe
00000220: a975 b9bd b940 b83d c2fd 9dbe d011 293f
00000230: 82e8 50be e1ca b83d 2e27 d7bd 5c11 bcbd
00000240: aabc 10bf d3c7 2b3e 23fe 3d3e 7cdf cd3e
00000250: 7d0e 2a3d 57aa d13d 5ac6 8bbe 7bf1 61be
00000260: 5949 00bd baae acbd d31c ccbd 7d8c 10bd
00000270: 80a3 293e 2bb0 d7be e932 223e 26df 063b
00000280: ea75 463e 0e13 8a3d b5a3 4e3d 3125 9e3e
00000290: 896b 983c e938 c03d c6c1 633e 3ddc 5cbc
000002a0: 0c54 863e 46ac 75bb 1844 93ba 12d5 fc3c
000002b0: 3999 9c3d 332f 16bd f4e1 f53c beea 723d
000002c0: fcca 9ebd 6e84 d9bb dc52 8dbc 47cd bebc
000002d0: 7996 9d3b 5f57 353d a0d4 9f3b 7f63 a53d
000002e0: 3806 88bd b3e0 d5bc 2bed 1fbd 7a20 45bd
000002f0: 51cf 1abe 1960 8f3d e23f f93a 52ce bebd
00000300: 0458 863c b7ef 9f3d 616c 51ba 0056 483d
00000310: 7baf 303d 4dd0 1fbc 6367 4e3e 935c efbc
00000320: 0bb7 463e 702a 283d dd96 23bd cf87 ec3d
00000330: 5b66 763d bb50 163d cd3f 053b f89a 8b3e
00000340: 9c1e 7cbe 59a4 d4be f11f 25be d1e7 023d
00000350: 9561 28bd 5e54 913f 23ec 86bf 1a49 0cbe
00000360: 3e48 8a3e 6ce5 ee3d e3ec c9bd f3b5 b63d
00000370: 92c6 c8be 90ee 643e b778 453f 85e1 9fbe
00000380: f5bd 98bc 3851 ad3d bbce 333f 04c2 2c3e
00000390: ae9e 3abc 04ad a2bd 21d5 a33e a2a1 c13e
000003a0: 331a 83bd d138 17be 7db8 8cbe c1eb 10be
000003b0: b5c0 db3c 1259 c1bd 57d8 40bc 1cb5 ae3b
000003c0: 1206 a7bc c982 0e3b 2ba7 b5bc a88b ad3d
000003d0: 1455 753d ca6a c1bb 04ad 16bc 8ee9 3cbd
000003e0: 40b8 783c 0681 f0bc 1dfd e4bb 1b7d 223d
000003f0: 9e55 fdbb 7ba3 973d fb8b d93c 9a85 19bd

net_container.0.bias f4 [128]
0.12872683 -0.056128718 0.021820765 0.031872462 0.08100671 0.03426996 0.12448348 0.090248466
0.1657619 0.07257309 0.0076347813 0.0041396543 0.07377163 -0.011674397 0.19505516 -0.13629788
0.10399275 -0.12805471 0.17924574 0.07602629 0.15585665 0.0198616 -0.055142753 0.11680255
0.07865317 0.04576496 -0.060808875 -0.057023324 -0.06527303 -0.050130207 -0.090898745 0.048570056
0.16674027 0.059019644 0.044907354 -0.049721573 0.09824822 -0.02407959 0.06503353 0.030863227
-0.15108004 0.15433133 -0.10450985 -0.029585233 0.10711999 -0.09257665 0.13787568 0.016463801
0.1433499 0.090138264 -0.021448659 0.042238988 -0.019686615 -0.06652676 -0.021905959 0.03511543
0.12707977 0.10466332 0.09164929 0.12115207 -0.07746598 0.069186755 0.21172178 0.0026318657
0.040408593 0.1680549 0.059787083 0.02936111 0.07096579 0.08903076 0.09373076 -0.1246959
0.14487359 0.05450658 0.03589875 0.058751598 0.18550575 -9.877785e-05 0.21279694 0.025385173
-0.02399341 -0.05481654 0.21090907 0.05807476 0.058388907 0.08112572 0.0929628 0.15164164
-0.0039945855 0.15956497 -0.024606297 -0.00494092 0.08381681 -0.018775778 0.03765015 -0.031134484
0.027577309 -0.0046175434 -0.07168294 -0.00012821553 0.11616858 0.05842975 -0.11261662 0.057498585
0.0081505915 0.06843442 0.021712007 -0.0550361 -0.06489388 -0.16218725 -0.012934417 0.027593488
-0.027275799 -0.08258061 0.14702605 0.17578165 -0.08848745 0.09606361 0.019449856 -0.10194391
0.026037637 -0.07720768 0.17024417 -0.05539524 0.09332584 -0.06764961 -0.04792029 0.1062203
00000000: f7d0 033e 3ae7 65bd 76c1 b23c b38c 023d
00000010: d9e6 a53d a85e 0c3d 32f1 fe3d 30d4 b83d
00000020: 7dbd 293e 33a1 943d 302d fa3b f0a5 873b
00000030: 9515 973d f845 3fbc 8abc 473e ac91 0bbe
00000040: 27fa d43d c620 03be 328c 373e acb3 9b3d
00000050: e398 1f3e cbb4 a23c 5edd 61bd 2d36 ef3d
00000060: ea14 a13d 0a74 3b3d ba12 79bd 4a91 69bd
00000070: dead 85bd 5555 4dbd 1f29 babd 65f1 463d
00000080: f6bd 2a3e 95be 713d c6f0 373d d9a8 4bbd
00000090: 5d36 c93d 8f42 c5bc 4d30 853d e1d4 fc3c
000000a0: bab4 1abe 0809 1e3e 4309 d6bd bb5c f2bc
000000b0: ba61 db3d d498 bdbd 482f 0d3e 18df 863c
000000c0: 51ca 123e 699a b83d 19b5 afbc ca02 2d3d
000000d0: d345 a1bc 2f3f 88bd 2074 b3bc 32d5 0f3d
000000e0: 3321 023e b959 d63d 9fb2 bb3d 941e f83d
000000f0: 7ca6 9ebd c9b1 8d3d 98cd 583e 617b 2c3b
00000100: 7b83 253d 9516 2c3e 4de3 743d b686 f03c
00000110: 8356 913d c255 b63d eaf5 bf3d 9060 ffbd
00000120: be59 143e 4b42 5f3d 910a 133d 84a5 703d
00000130: 38f5 3d3e f426 cfb8 71e7 593e 91f4 cf3c
00000140: d48d c4bc 4f87 60bd 8cf8 573e cddf 6d3d
00000150: 3529 6f3d 3e25 a63d 4863 be3d f247 1b3e
00000160: 03e5 82bb 0065 233e 2593 c9bc 71e7 a1bb
00000170: 26a8 ab3d a9cf 99bc 0b37 1a3d bf0d ffbc
00000180: cfe9 e13c c34e 97bb 81ce 92bd 9871 06b9
00000190: cbe9 ed3d 0954 6f3d 8ba3 e6bd a383 6b3d
000001a0: 0f8a 053c 5827 8c3d 61dd b13c 896d 61bd
000001b0: 15e7 84bd 6a14 26be e1ea 53bc bd0b e23c
000001c0: 7f71 dfbc 0620 a9bd ff8d 163e 1b00 343e
000001d0: e838 b5bd ffbc c43d 4e55 9f3c f8c7 d0bd
000001e0: e24c d53c 0f1f 9ebd 7d54 2e3e 1fe6 62bd
000001f0: 9e21 bf3d e18b 8abd 1148 44bd 078a d93d

net_container.2.weight f4 [128, 128]
-0.049736846 -0.1009336 0.032094713 -0.1197604 -0.025773304 0.04535096 0.060405467 -0.14370981
-0.050781824 0.061267786 -0.03018165 -0.05549231 0.13448955 -0.115155436 0.052721225 0.0092709195
-0.08464591 0.004059777 -0.0051601334 0.115228504 -0.09051972 0.031421103 0.045510832 -0.13951436
0.03743372 -0.050133012 -0.0298605 0.030598605 -0.00019359186 -0.050094865 -0.053477284 0.018001655
-0.11480915 -0.006670327 -0.13563801 0.071286075 -0.00053174124 0.07743812 0.095836364 -0.004664176
0.05422846 0.08327095 -0.121540345 -0.09706832 0.014062812 0.107411616 -0.119376026 0.046454493
0.02783624 0.04668869 -0.03879335 0.038779948 -0.084146 -0.07484776 -0.03532378 0.022717765
-0.15790874 -0.09257741 0.031219302 0.03256265 0.045291204 0.06052196 0.006022176 0.009559648
-0.055920463 -0.050842274 -0.018406993 -0.072892405 -0.051926192 0.015545825 0.026672542 0.0023891
0.046013102 -0.08776925 -0.10154924 0.07080007 -0.07164756 -0.009543759 0.050199836 0.0822794
0.12537731 0.05058476 -2.7353219e-05 0.11950924 -0.092778005 0.043611046 -0.032739725 -0.15426241
0.050730746 -0.05074241 -0.10471558 -0.17851727 -0.068830185 0.016706325 -0.20692883 -0.13238169
0.102422126 0.04930704 0.008632251 0.020843798 0.053571593 0.020100787 -0.05757889 0.01961014
0.053894695 -0.055179104 -0.08105352 0.02359269 0.12778473 0.05257113 -0.008488004 -0.055833813
0.035495974 -0.048959512 -0.11325041 -0.037516534 -0.06618421 -0.09968138 0.028597388 0.11707319
0.024921091 0.016263809 -0.01900426 -0.019581353 0.13775186 0.08617819 -0.0023495667 -0.16580047
0.00034185717 0.032319095 -0.11002014 -0.006397626 0.19196416 0.053375896 0.113754064 0.059602633
0.031911075 -0.013487457 0.0032577934 0.08323053 -0.111393414 0.026733158 -0.060700074 -0.030514915
0.10536682 -0.009702914 0.049420007 -0.03576862 -0.02367139 -0.07144439 -0.0069845086 -0.043506935
-0.058434386 0.065465614 -0.09672104 0.08469407 0.049666565 0.014353829 0.049057797 -0.104246676
-0.02708262 -0.12967509 -0.012432063 -0.026787097 -0.038314212 -0.03880316 -0.08448202 -0.07005462
0.017275872 -0.05521594 0.030894816 0.15601741 0.047879733 0.052228633 0.03519384 -0.031911332
-0.0610843 -0.11282083 -0.014215408 -0.09213666 -0.09909646 -0.123079896 0.005677892 -0.086909086
-0.0334943 -0.14146188 -0.039838172 0.03255812 -0.14774835 -0.06823126 -0.0308695 0.057291783
-0.07629843 -0.044598576 -0.05625916 -0.011512412 0.011224993 0.0697934 0.07467017 -0.07797156
-0.019060912 0.009652162 -0.11847835 0.0125705395 0.038580578 -0.11118876 0.03878599 -0.0032096168
-0.11012767 -0.068369456 -0.015108923 -0.044315424 -0.022798186 -0.005356734 0.09825163 -0.11137376
0.018756215 -0.08404684 -0.01585695 -0.15573072 0.044005778 0.006834302 0.038554247 -0.0821744
-0.05084603 0.046838805 0.0692949 0.05713833 -0.06091527 -0.061459582 0.07576115 0.046199847
-0.10886333 -0.020328226 -0.042636562 -0.039816253 0.07631775 0.037034757 -0.029401466 0.06449269
-0.08058855 0.01924876 -0.018942924 -0.01496577 -0.06186607 0.032743774 0.045774374 0.059136752
0.057559215 -0.049055003 -0.09040281 -0.11091143 -0.05729483 -0.06266811 -0.03660261 0.032274004
00000000: ddb8 4bbd 46b6 cebd bf75 033d f144 f5bd
00000010: 8922 d3bc eec1 393d b96b 773d aa28 13be
00000020: 9a00 50bd eef3 7a3d 823f f7bc e84b 63bd
00000030: a1b7 093e 9dd6 ebbd 36f2 573d 0ee5 173c
00000040: d65a adbd e107 853b 5616 a9bb ecfc eb3d
00000050: 6762 b9bd 6ab3 003d 9169 3a3d dadc 0ebe
00000060: 1a54 193d 4658 4dbd 029e f4bc eda9 fa3c
00000070: ebfe 4ab9 4630 4dbd ff0a 5bbd 3578 933c
00000080: 0f21 ebbd c292 dabb b1e4 0abe 6ffe 913d
00000090: 8d64 0bba e197 9e3d db45 c43d f2d5 98bb
000000a0: a91e 5e3d f689 aa3d 25ea f8bd c1cb c6bd
000000b0: b567 663c 9ffa db3d 6b7b f4bd 1147 3e3d
000000c0: d408 e43c a43c 3f3d c7e5 1ebd b9d7 1e3d
000000d0: bd54 acbd c849 99bd abaf 10bd 9b1a ba3c
000000e0: d4b2 21be 3a99 bdbd 9fbf ff3c 6a60 053d
000000f0: 4583 393d e0e5 773d ac55 c53b 12a0 1c3c
00000100: db0c 65bd fd3f 50bd 43ca 96bc 9d48 95bd
00000110: 8fb0 54bd eab3 7e3c 6080 da3c 7292 1c3b
00000120: 3c78 3c3d 5dc0 b3bd 0cf9 cfbd a1ff 903d
00000130: f5bb 92bd 6d5d 1cbc 589e 4d3d 1a82 a83d
00000140: e962 003e f731 4f3d 9774 e5b7 43c1 f43d
00000150: 6502 bebd 7fa1 323d 171a 06bd f7f6 1dbe
00000160: 0bcb 4f3d 46d7 4fbd 1f75 d6bd 3bcd 36be
00000170: d7f6 8cbd b4db 883c 27e5 53be 118f 07be
00000180: b1c2 d13d 2ef6 493d 496e 0d3c 9dc0 aa3c
00000190: e36d 5b3d 68aa a43c d8d7 6bbd 72a5 a03c
000001a0: afc0 5c3d 7c03 62bd 63ff a5bd 7545 c13c
000001b0: 00da 023e d354 573d 4511 0bbc ffb1 64bd
000001c0: 3a64 113d c589 48bd d5ef e7bd f0aa 19bd
000001d0: 968b 87bd c025 ccbd 1245 ea3c 12c4 ef3d
000001e0: 5127 cc3c ae3b 853c d2ae 9bbc 1369 a0bc
000001f0: d30e 0d3e 317e b03d 30fb 19bb 99c7 29be
00000200: 4b3b b339 0761 043d 3d52 e1bd 2da3 d1bb
00000210: 4192 443e afa0 5a3d e4f7 e83d e421 743d
00000220: 30b5 023d 7ffa 5cbc b480 553b c574 aa3d
00000230: 3b22 e4bd 7fff da3c a4a0 78bd 6afa f9bc
00000240: 8fca d73d f9f8 1ebc a26c 4a3d 1e82 12bd
00000250: 81ea c1bc 7051 92bd 4ede e4bb 5434 32bd
00000260: e558 6fbd d612 863d ae15 c6bd 1674 ad3d
00000270: 2b6f 4b3d 532c 6b3c d4f0 483d 487f d5bd
00000280: 5fdc ddbc 8cc9 04be daaf 4bbc 9d70 dbbc
00000290: 5def 1cbd 10f0 1ebd e904 adbd cc78 8fbd
000002a0: 2186 8d3c 1c2a 62bd 2017 fd3c 07c3 1f3e
000002b0: 8a1d 443d b1ed 553d 6a27 103d 75b5 02bd
000002c0: 8833 7abd 9b0e e7bd bee7 68bc 25b2 bcbd
000002d0: 16f3 cabd 5011 fcbd 9c0d ba3b 64fd b1bd
000002e0: 5231 09bd 62db 10be 5a2d 23bd aa5b 053d
000002f0: 584b 17be d5bc 8bbd 09e2 fcbc caaa 6a3d
00000300: 5a42 9cbd ffac 36bd 0170 66bd 8e9e 3cbc
00000310: 08e9 373c d8ef 8e3d adec 983d 8eaf 9fbd
00000320: a125 9cbc 1a24 1e3c c7a4 f2bd aaf4 4d3c
00000330: ab06 1e3d efb6 e3bd 0fde 1e3d 6f58 52bb
00000340: 9e8a e1bd 4905 8cbd 6b8b 77bc 1784 35bd
00000350: 43c3 babc 8b87 afbb 2738 c93d ed17 e4bd
00000360: a2a6 993c c020 acbd 6fe6 81bc e077 1fbe
00000370: 673f 343d 48f2 df3b 0feb 1d3d 0d4b a8bd
00000380: ed43 50bd 0cda 3f3d 7cea 8d3d e209 6a3d
00000390: 4a82 79bd 0bbd 7bbd a928 9b3d 0d3c 3d3d
000003a0: bdf3 debd 6187 a6bc ada3 2ebd 5e16 23bd
000003b0: 7b4c 9c3d c2b1 173d 58db f0bc be14 843d
000003c0: 9c0b a5bd 93af 9d3c 312e 9bbc fd32 75bc
000003d0: 4767 7dbd 561e 063d e97d 3b3d 6139 723d
000003e0: 36c3 6b3d e6ed 48bd 1c25 b9bd 8825 e3bd
000003f0: fcad 6abd 2358 80bd 9eec 15bd bf31 043d

net_container.2.bias f4 [128]
0.07042393 -0.14030948 -0.23949592 -0.028088743 -0.14418885 0.09934836 -0.010366609 0.060871024
0.03255682 -0.12216806 0.12719046 -0.22486772 0.033598173 -0.065371305 0.04176013 0.025130251
-0.06487667 0.03981965 -0.03599169 -0.0038962595 0.08696014 -0.06456212 0.105397455 -0.07475333
-0.049957212 0.023039471 0.062580526 -0.13191248 0.019897403 -0.06338308 -0.09701502 -0.028086033
-0.06233296 -0.12894204 0.025241964 -0.098480225 -0.011609956 -0.0011495556 0.053537186 -0.09893618
-0.1318525 -0.06280536 -0.10164462 0.021929715 0.016664775 0.09443773 0.043334853 0.057273824
0.04659866 -0.10533263 0.09833752 -0.1634289 -0.042567268 0.03888478 -0.057956964 -0.040467065
0.091277555 -0.11066153 0.020141859 0.09013971 -0.21136756 -0.08079975 -0.11217219 -0.046786886
-0.026544482 -0.11136867 0.05528375 -0.025294034 -0.1182693 0.06578246 -0.078245685 -0.08909225
0.005863856 0.0108027235 -0.082039475 -0.0023134667 0.042767532 -0.0789159 -0.029556185 -0.030122189
-0.050122436 -0.069619685 0.045503665 -0.08669105 -0.119212635 -0.035838544 0.037517015 0.11815324
0.03223878 -0.03321982 -0.09674077 0.100481555 -0.10065249 0.025054445 -0.19470578 0.049171
-0.031724315 0.041815337 -0.0952113 0.054909617 -0.19887002 -0.018969255 -0.04759744 -0.04033006
-0.06603047 -0.055178937 0.017527113 -0.037652474 -0.12036888 -0.06725984 0.087330416 0.021150077
-0.17357427 0.022433046 0.10188979 -0.017329918 0.088720076 -0.00013051511 -0.061491787 -0.041690875
0.013833843 -0.19181708 0.037069324 -0.0009845648 0.06209777 -0.07226539 -0.07465175 -0.15809761
00000000: 6c3a 903d 4aad 0fbe 6b3e 75be 5d1a e6bc
00000010: 3ea6 13be 2777 cb3d b6d8 29bc e553 793d
00000020: 4d5a 053d 3f33 fabd 373e 023e b943 66be
00000030: 3d9e 093d 64e1 85bd ac0c 2b3d f5dd cd3c
00000040: 0fde 84bd ee19 233d 066c 13bd 6358 7fbb
00000050: 2818 b23d 2539 84bd 9fda d73d 4618 99bd
00000060: ef9f 4cbd 46bd bc3c 382a 803d 1114 07be
00000070: e1ff a23c fdce 81bd d0af c6bd ae14 e6bc
00000080: d950 7fbd 6209 04be 3cc8 ce3c 00b0 c9bd
00000090: af37 3ebc afac 96ba cf49 5b3d 0d9f cabd
000000a0: 5704 07be 19a0 80bd 0e2b d0bd f2a5 b33c
000000b0: 9184 883c 9268 c13d e37f 313d f597 6a3d
000000c0: 3dde 3e3d a2b8 d7bd 2f65 c93d e859 27be
000000d0: 045b 2ebd a645 1f3d 4864 6dbd cbc0 25bd
000000e0: baef ba3d 83a2 e2bd 8a00 a53c 2b9b b83d
000000f0: bd70 58be 577a a5bd 88ba e5bd 9ba3 3fbd
00000100: d073 d9bc 4215 e4bd 3771 623d 6f35 cfbc
00000110: 2d37 f2bd f4b8 863d 463f a0bd ff75 b6bd
00000120: 9725 c03b e8fd 303c 5004 a8bd 889d 17bb
00000130: 022d 2f3d a99e a1bd d01f f2bc cfc2 f6bc
00000140: 2f4d 4dbd c494 8ebd 0d62 3a3d 148b b1bd
00000150: c125 f4bd 70cb 12bd 71ab 193d 53fa f13d
00000160: d00c 043d 8211 08bd 0620 c6bd 46c9 cd3d
00000170: e522 cebd fb3e cd3c f460 47be 8867 493d
00000180: 5bf1 01bd 8f46 2b3d 24fe c2bd e8e8 603d
00000190: 95a4 4bbe 6965 9bbc 89f5 42bd 2231 25bd
000001a0: fc3a 87bd 4f03 62bd 0595 8f3c 7b39 1abd
000001b0: f683 f6bd 87bf 89bd 4ada b23d ed42 ad3c
000001c0: 74bd 31be 82c5 b73c 98ab d03d 79f7 8dbc
000001d0: dfb2 b53d e2da 08b9 d0de 7bbd 0dc4 2abd
000001e0: 58a7 623c b26b 44be 01d6 173d 830c 81ba
000001f0: 3b5a 7e3d e0ff 93bd 04e3 98bd 57e4 21be

net_container.4.weight f4 [128, 128]
-0.056867216 0.1186981 -0.10786621 0.020902375 0.012660137 -0.096320674 0.043450635 0.09313393
0.02970716 -0.06083551 -0.013231503 0.0016655318 0.13817026 -0.03412198 0.008974643 -0.09618831
-0.03036878 -0.0643691 -0.015471761 0.05828461 -0.09170019 -0.0630528 0.04442179 -0.009194405
-0.031392954 0.08460489 -0.0398957 0.028161231 0.052428734 0.11451355 0.010435441 0.10400574
-0.0062679974 0.002267423 -0.01617027 -0.14434822 -0.037520632 -0.05571316 -0.026313879 0.008641193
-0.038280163 0.045819197 -0.04564595 -0.021169504 -0.059324145 0.025620231 0.04913736 0.044813212
0.001088128 -0.027311347 0.09676696 0.039032508 0.16218907 -0.0066491673 0.04392436 0.051536355
0.0154033955 -0.0023120893 0.12844463 0.0348227 0.06097133 0.018731605 -0.020133602 0.007162251
-0.03629009 -0.08631788 -0.09107067 -0.024534155 0.055686988 0.082587704 0.037457794 0.15088804
0.10258211 -0.06250968 -0.029167125 -0.023315785 -0.041244503 0.07702935 0.12929323 0.0231817
0.0039905384 0.05425662 -0.0662745 -0.05413948 0.013265884 0.026695795 -0.036763404 0.057532623
-0.01206451 0.11395868 0.06269029 -0.08129849 0.07690006 0.0026000983 -0.041120835 -0.07060375
-0.014378392 0.08779935 -0.123593405 0.078147024 0.11618293 -0.031000858 0.060558002 0.048884623
0.085875005 0.041911498 0.036229108 0.04024388 -0.042800877 -0.07917438 -0.044051655 -0.020945812
-0.054915912 0.035002444 0.0029039546 0.039027218 -0.08179954 0.027943432 -0.10052004 -0.065894835
0.07870239 -0.101682775 -0.010993657 0.09753002 -0.030564005 0.060281407 0.06274816 -0.021159623
0.13218759 -0.06353633 -0.023484645 0.0067611896 0.086373895 -0.012176281 -0.08196733 -0.15487447
-0.038781423 -0.057737976 0.014813361 -0.32078022 -0.0076111625 0.07037696 0.105563246 -0.18044677
-0.013464903 -0.16254118 -0.09843303 0.047869515 0.028986719 -0.018164374 0.035439998 0.007349768
0.03810038 0.019746887 0.09866923 0.01917933 0.02674855 -0.15635255 0.051964458 0.11478183
0.039441083 0.14468959 0.024439208 0.010999922 -0.022560347 -0.014449968 -0.026386276 -0.002662452
0.13399397 0.04893152 -0.11725132 0.04774485 -0.03548682 0.06305217 0.008772478 0.029439436
-0.075867765 -0.02322349 0.033249967 -0.03942103 0.0004011567 0.06646945 -0.040637776 0.017659161
-0.0032106817 -0.045413513 0.18724799 0.020221086 0.05119179 0.1357394 0.13072541 -0.08134321
-0.043999474 -0.0929825 0.10938401 0.11808229 0.10099734 -0.04116302 -0.02154322 0.0054218145
0.100518145 -0.05329509 0.09599881 0.05775211 0.032721125 0.015202259 -0.07103549 -0.058331456
-0.052963767 0.017660944 -0.029272292 0.082026415 0.022590654 -0.0073000416 -0.023100082 0.00047966826
0.030373678 -0.06595815 0.050743792 0.044968598 0.019566672 -0.08991088 0.077585325 0.029784113
0.06753517 0.0015731473 0.034794383 0.023743505 0.07783011 -0.13329001 0.035314284 0.105903514
-0.021628305 0.0064976774 -0.1324331 -0.04542033 -0.0005865001 -0.07592902 -0.032801125 -0.054526743
-0.08966326 0.07097352 0.013335968 0.031372774 0.10527824 -0.023480834 0.07702186 0.11314932
-0.04836117 -0.008066213 0.03386455 0.04691293 -0.06732217 0.01672512 0.030894654 0.055110138
00000000: 99ed 68bd fd17 f33d f6e8 dcbd 753b ab3c
00000010: 776c 4f3c c643 c5bd 4bf9 313d 00bd be3d
00000020: 6e5c f33c a82e 79bd f2c8 58bc f94d da3a
00000030: 817c 0d3e 7dc3 0bbd 620a 133c 60fe c4bd
00000040: f3c7 f8bc f2d3 83bd 457d 7dbc d8bb 6e3d
00000050: 4fcd bbbd d421 81bd 9ff3 353d 21a4 16bc
00000060: e695 00bd 5445 ad3d ac69 23bd 62b2 e63c
00000070: 83bf 563d 1586 ea3d 69f9 2a3c f600 d53d
00000080: c663 cdbb 0c99 143b 8477 84bc 05d0 13be
00000090: 3caf 19bd 7c33 64bd 3490 d7bc ca93 0d3c
000000a0: a9cb 1cbd e9ac 3b3d 3ff7 3abd ab6b adbc
000000b0: e0fd 72bd 85e1 d13c 4244 493d 0f8e 373d
000000c0: 849f 8e3a 0cbc dfbc c22d c63d 8de0 1f3d
000000d0: e414 263e 42e1 d9bb 08ea 333d c917 533d
000000e0: 865e 7c3c 6c86 17bb fd86 033e 3fa2 0e3d
000000f0: 13bd 793d 0673 993c 39ef a4bc 51b1 ea3b
00000100: eba4 14bd 6ec7 b0bd 4283 babd dafb c8bc
00000110: 0a18 643d be23 a93d 586d 193d 6582 1a3e
00000120: 9216 d23d 1305 80bd e5ef eebc bf00 bfbc
00000130: ffef 28bd 90c1 9d3d 7265 043e 8ce7 bd3c
00000140: 10c3 823b 313c 5e3d edba 87bd 5cc1 5dbd
00000150: 2659 593c 24b1 da3c 3995 16bd 54a7 6b3d
00000160: 39aa 45bc 2b63 e93d c463 803d d37f a6bd
00000170: c77d 9d3d 6966 2a3b 526e 28bd b398 90bd
00000180: 5993 6bbc 25d0 b33d 8a1e fdbd 8c0b a03d
00000190: 51f1 ed3d 83f5 fdbc ab0b 783d 3e3b 483d
000001a0: 3cdf af3d 64ab 2b3d f964 143d c4d6 243d
000001b0: f94f 2fbd 2d26 a2bd 826f 34bd 8d96 abbc
000001c0: 82ef 60bd b95e 0f3d 4650 3e3b 01db 1f3d
000001d0: 8486 a7bd a0e9 e43c 73dd cdbd dff3 86bd
000001e0: b82e a13d 0f3f d0bd bd1e 34bc d2bd c73d
000001f0: 5d61 fabc a3e9 763d 1b82 803d f256 adbc
00000200: 2f5c 073e 561f 82bd df62 c0bc f88c dd3b
00000210: cce4 b03d 067f 47bc 7dde a7bd 6a97 1ebe
00000220: 45d9 1ebd a87e 6cbd bdb3 723c 4e3d a4be
00000230: 0f67 f9bb cc21 903d 8b31 d83d 0ac7 38be
00000240: e69b 5cbc 3271 26be 4297 c9bd d312 443d
00000250: 8e75 ed3c 74cd 94bc 8829 113d 53d6 f03b
00000260: 250f 1c3d 39c4 a13c 1813 ca3d f81d 9d3c
00000270: c61f db3c e21a 20be afd8 543d bc12 eb3d
00000280: f98c 213d 8229 143e bc34 c83c 0439 343c
00000290: 7ad0 b8bc 8fbf 6cbc 0828 d8bc 887c 2ebb
000002a0: b735 093e 6b6c 483d 7621 f0bd 1b90 433d
000002b0: a15a 11bd 7f21 813d 71ba 0f3c f92a f13c
000002c0: 8f60 9bbd 303f bebc 1e31 083d f277 21bd
000002d0: 5752 d239 2321 883d cc73 26bd f2a9 903c
000002e0: 4d6a 52bb 8503 3abd f0bd 3f3e b1a6 a53c
000002f0: 7bae 513d 45ff 0a3e e2dc 053e 4597 a6bd
00000300: cb38 34bd 9c6d bebd b904 e03d 21d5 f13d
00000310: b2d7 ce3d 8e9a 28bd 687b b0bc 7aa9 b13b
00000320: 75dc cd3d f44b 5abd 069b c43d 7a8d 6c3d
00000330: 9606 063d e512 793c 0e7b 91bd f7ec 6ebd
00000340: 89f0 58bd afad 903c 72cc efbc 77fd a73d
00000350: 0910 b93c 3035 efbb 623c bdbc fc7b fb39
00000360: 38d2 f83c 1115 87bd b9d8 4f3d fe30 383d
00000370: 494a a03c 3223 b8bd 0ee5 9e3d d0fd f33c
00000380: e14f 8a3d 1032 ce3a 8e84 0e3d bd81 c23c
00000390: 6565 9f3d 2d7d 08be b6a5 103d f1e3 d83d
000003a0: d82d b1bc 78ea d43b 8b9c 07be ab0a 3abd
000003b0: 5bbf 19ba ad80 9bbd 795a 06bd 6f57 5fbd
000003c0: 5fa1 b7bd 915a 913d 1b7f 5a3c bd80 003d
000003d0: 1e9c d73d e15a c0bc a3bd 9d3d d5ba e73d
000003e0: 5d16 46bd 2628 04bc 8eb5 0a3d c627 403d
000003f0: 35e0 89bd 1e03 893c c916 fd3c 2bbb 613d

net_container.4.bias f4 [128]
-0.08776454 -0.078409314 0.034629673 -0.1342037 -0.09604996 -0.06557013 -0.05384523 -0.08093183
-0.026229948 -0.011865941 0.05160739 -0.120492235 -0.12413198 -0.11090534 0.042822525 0.04936082
-0.1293747 -0.037723426 0.06402011 0.008213381 -0.043495685 0.017047133 -0.12103887 0.056114614
-0.046058606 -0.05826701 0.07326856 0.023953177 -0.06741732 -0.002376756 -0.07396077 0.04454967
0.07741498 -0.011433156 -0.04627431 -0.103696235 -0.09551332 -0.03593723 0.0074534365 0.04953186
-0.027556857 -0.063181125 0.026141634 -0.07855929 -0.11271414 0.01510527 -0.07716723 0.037552763
0.0450721 0.034164026 0.066184476 -0.023236288 -0.050139874 -0.08586371 -0.037526075 0.0049072686
0.084008016 -0.06312013 -0.009716215 0.05199488 -0.0319327 -0.036512032 -0.12252877 -0.03465549
-0.024969071 -0.019909807 -0.11776601 0.07019058 -0.07363673 -0.025948893 0.105880976 0.022068545
-0.032215685 0.098579325 -0.043787222 0.027552908 0.03466644 0.01525139 0.07070576 -0.06851773
0.090256974 0.021380851 -0.009237282 -0.019951474 -0.0011195915 -0.059740808 -0.046626337 -0.03266159
-0.005876188 0.012039451 -0.12821116 -0.06717287 -0.024301656 -0.07107915 0.041976903 -0.05916292
-0.011692615 -0.09566691 -0.067458905 -0.04437017 -0.1391928 -0.11706078 -0.16887939 0.066490136
-0.0201695 -0.0042969096 0.038020693 -0.037677906 -0.033971097 -0.041690398 -0.043848783 0.06347033
-0.03593244 -0.08584774 0.103731215 0.06123097 0.016286355 0.054436512 0.06382683 0.080319405
0.028124152 0.034480326 0.012628553 -0.026881905 0.0026757016 -0.067496255 0.03534788 0.0532639
00000000: e5bd b3bd 1095 a0bd d8d7 0d3d b26c 09be
00000010: d7b5 c4bd a249 86bd d18c 5cbd 96bf a5bd
00000020: 30e0 d6bc 5d69 42bc 4562 533d a2c4 f6bd
00000030: e838 febd 5722 e3bd ac66 2f3d 922e 4a3d
00000040: cd7a 04be e183 1abd fa1c 833d 6b91 063c
00000050: 8828 32bd 6ea6 8b3c 3ae3 f7bd 70d8 653d
00000060: f3a7 3cbd 63a9 6ebd d40d 963d 7439 c43c
00000070: 1812 8abd 59c3 1bbb bf78 97bd b779 363d
00000080: bf8b 9e3d 2252 3bbc 228a 3dbd b15e d4bd
00000090: 7d9c c3bd eb32 13bd f53b f43b ebe1 4a3d
000000a0: ebbe e1bc 1b65 81bd fb26 d63c b1e3 a0bd
000000b0: acd6 e6bd 187c 773c da09 9ebd edd0 193d
000000c0: 869d 383d 94ef 0b3d ba8b 873d 075a bebc
000000d0: 785f 4dbd 50d9 afbd f1b4 19bd 27cd a03b
000000e0: 650c ac3d 2045 81bd c230 1fbc 95f8 543d
000000f0: ddcb 02bd a48d 15bd 5df0 fabd eaf2 0dbd
00000100: f08b ccbc e419 a3bc 4e2f f1bd 14c0 8f3d
00000110: dbce 96bd c692 d4bc 20d8 d83d 18c9 b43c
00000120: 98f4 03bd f5e3 c93d 3b5a 33bd a3b6 e13c
00000130: 66fe 0d3d f7e0 793c 2ece 903d 0653 8cbd
00000140: a6d8 b83d e526 af3c f857 17bc 4671 a3bc
00000150: 42bf 92ba c7b2 74bd 42fb 3ebd 29c8 05bd
00000160: 0a8d c0bb 1e41 453c c949 03be ee91 89bd
00000170: 4414 c7bc f291 91bd f9ef 2b3d d154 72bd
00000180: 6292 3fbc 03ed c3bd e527 8abd 7fbd 35bd
00000190: 8f88 0ebe 90bd efbd b8ee 2cbe fb2b 883d
000001a0: 823a a5bc 17cd 8cbb 96bb 1b3d 2654 1abd
000001b0: 4725 0bbd 8dc3 2abd c89a 33bd bbfc 813d
000001c0: e52d 13bd f1d0 afbd 0871 d43d 53cd 7a3d
000001d0: f66a 853c d2f8 5e3d a4b7 823d 807e a43d
000001e0: 9f64 e63c 3e3b 0d3d fee7 4e3c 7137 dcbc
000001f0: d35a 2f3b 7a3b 8abd f0c8 103d 3f2b 5a3d

policy_layer.weight f4 [19, 128]
-0.013911456 0.01640806 -0.007826729 0.0431822 -0.05720794 0.051418677 0.038451567 -0.048853386
-0.01579012 0.03687076 -0.03868306 0.0020834457 0.041662283 0.010496855 -0.006385213 0.03198219
0.011090541 -0.03491164 0.023085084 0.016802218 0.0100186765 -0.009143359 0.043926373 -0.094268106
0.011931239 0.0035711294 0.022111064 0.011788958 0.018542178 -0.015886186 -0.04412562 -0.00094372133
-0.01203161 0.0136983795 0.049349718 -0.038114432 0.026826268 0.024780981 -0.042880237 0.012707397
0.013823569 0.019321427 -0.08338016 0.041425083 -0.05685309 -0.07939131 0.026343344 -0.0008293633
-0.0015396303 0.029653076 -0.05851732 0.012010917 0.021887487 0.07155326 0.007045648 -0.034376897
0.020157974 0.022602279 0.037667498 -0.008487619 0.026361411 0.07352666 0.014131364 -0.085002914
-0.01574585 -0.027862687 -0.035657365 0.02546551 -0.02368935 -0.049847923 -0.072961815 0.015602713
0.0067476965 0.001855773 -0.032750707 -0.017214082 0.034244344 -0.04685003 0.031323142 0.02458138
-0.015521389 0.0068117203 0.09922356 -0.028068116 0.06802602 -0.04917376 0.016919322 0.07184111
0.02039052 0.07411548 0.08152651 0.016649943 0.0036482643 0.085056886 -0.057695154 -0.032314375
0.009355517 0.004768663 -0.016923403 -0.025354935 0.017238684 0.007419706 -0.0105430465 0.025030753
0.019496191 -0.06153191 0.048919223 0.024395986 -0.02057659 -0.040037837 0.043861385 0.035316132
-0.006004733 0.020962773 0.008348368 -0.018841816 -0.07570597 0.016745847 -0.05805395 -0.00064564415
0.06447437 -0.0699153 -0.018676521 -0.009604531 0.009401629 -0.08677123 -0.02584912 -0.039592516
-0.039309222 0.017874658 0.04864602 -0.1086841 -0.038355302 0.02938087 -0.00082963624 -0.027750872
-0.009735042 0.051899012 -0.05119502 -0.009896246 -0.041639954 -0.08333957 0.010280152 -0.014744851
-0.010353344 0.008079689 0.05038773 -0.019822966 -0.0032422366 -0.0049343593 -0.008934559 0.027846834
0.03663826 0.06745385 0.008989342 -0.0014659994 0.039061137 -0.03272906 0.022267103 -0.0158901
-0.008177137 0.031165749 -0.018631585 -0.06641029 -0.030148407 0.013297791 0.08639573 0.010326434
-0.026666189 -0.016168544 0.0068432973 0.0037484874 0.0262747 0.0718416 -0.018079571 -0.022878895
-0.00793044 -0.013667721 -0.057665564 -0.02412848 0.017050965 0.017282097 -0.0061977534 0.04507048
-0.051843546 -0.069315426 -0.066886574 0.04311045 -0.0656953 0.01706252 0.040551964 0.07086243
0.0035260217 -0.042092532 0.035865143 -0.028929736 0.05537387 0.050987337 -0.0356395 -0.059619475
-0.0018511509 -0.03480753 0.034824945 0.038942806 0.011456304 0.068896666 0.0041105025 -0.089263
-0.035386134 0.10008184 -0.026840048 0.041476395 0.037210193 0.003102104 0.008611391 0.000832652
-0.04049848 -0.018642422 -0.016820563 -0.061978023 -0.06325045 -0.044498928 0.0071873874 0.044927515
0.0001737254 0.019321889 -0.012813874 0.007444486 0.014142765 0.080549605 0.010556202 -0.006696048
-0.036101215 0.02437726 0.02078713 0.025152871 -0.0507587 0.000411559 0.03075798 -0.043438878
-0.016648348 -0.055943225 0.018176025 0.0052433237 0.06144434 -0.021640977 -0.054802965 -0.007870689
0.028157048 -0.007260651 0.005148247 0.028645007 0.056930825 0.019371076 0.023093611 0.021112232
00000000: e0ec 63bc 326a 863c ae3b 00bc d2df 303d
00000010: df52 6abd 649c 523d 647f 1d3d 7d1a 48bd
00000020: 485a 81bc cb05 173d 2172 1ebd 6b8a 083b
00000030: 12a6 2a3d 00fb 2b3c 0d3b d1bb c2ff 023d
00000040: 1ab5 353c 82ff 0ebd ee1c bd3c cea4 893c
00000050: 6025 243c 07ce 15bc 24ec 333d a30f c1bd
00000060: 3e7b 433c 9c09 6a3b 4322 b53c 7926 413c
00000070: c4e5 973c bf23 82bc 11bd 34bd 1164 77ba
00000080: 3b20 45bc 2b6f 603c ee22 4a3d e11d 1cbd
00000090: c3c2 db3c 7c01 cb3c 30a3 2fbd b032 503c
000000a0: 407c 623c f847 9e3c 38c3 aabd 59ad 293d
000000b0: c9de 68bd e997 a2bd ffcd d73c a169 59ba
000000c0: 6ccd c9ba 02eb f23c dbaf 6fbd 70c9 443c
000000d0: 634d b33c 848a 923d 2edf e63b cace 0cbd
000000e0: 5622 a53c 6a28 b93c 3c49 1a3d a80f 0bbc
000000f0: e3f3 d73c 2595 963d 3d87 673c 0216 aebd
00000100: 71fd 80bc 4a40 e4bc 750d 12bd 0c9d d03c
00000110: 2b10 c2bc 562d 4cbd 016d 95bd 86a2 7f3c
00000120: c81b dd3b 693d f33a 9b25 06bd 8c04 8dbc
00000130: cc43 0c3d d1e5 3fbd b24c 003d e45e c93c
00000140: 6d4d 7ebc da34 df3b b935 cb3d 1bef e5bc
00000150: 3a51 8b3d 6d6a 49bd 649a 8a3c 6f21 933d
00000160: 050a a73c dbc9 973d 5ff7 a63d 7665 883c
00000170: b817 6f3b 4e32 ae3d c151 6cbd 145c 04bd
00000180: e247 193c 7242 9c3b f3a2 8abc 27b5 cfbc
00000190: 2438 8d3c 0121 f33b bebc 2cbc 4b0d cd3c
000001a0: 7ab6 9f3c e208 7cbd 865f 483d 17da c73c
000001b0: 3d90 a8bc b7fe 23bd ffa7 333d a6a7 103d
000001c0: 5ac3 c4bb 1fba ab3c 98c7 083c 275a 9abc
000001d0: bb0b 9bbd 962e 893c fbc9 6dbd 7240 29ba
000001e0: 230b 843d c12f 8fbd 81ff 98bc 535c 1dbc
000001f0: 4a09 1a3c 1db5 b1bd 89c1 d3bc c32b 22bd
00000200: b502 21bd e06d 923c 0d41 473d c595 debd
00000210: 731a 1dbd 26b0 f03c f27b 59ba cc55 e3bc
00000220: ba7f 1fbc 0f94 543d dfb1 51bd dd23 22bc
00000230: a88e 2abd f0ad aabd 156e 283c 6394 71bc
00000240: 12a1 29bc ac60 043c 5d63 4e3d c663 a2bc
00000250: b47b 54bb 68b0 a1bb 4262 12bc 0b1f e43c
00000260: 0012 163d 3e25 8a3d 0848 133c c726 c0ba
00000270: 92fe 1f3d e80e 06bd 8069 b63c f42b 82bc
00000280: 66f9 05bc 504f ff3c 44a1 98bc 1e02 88bd
00000290: cbf9 f6bc fade 593c 3ff0 b03d 3430 293c
000002a0: 0d73 dabc e573 84bc bd3d e03b 2fa9 753b
000002b0: 0a3e d73c b021 933d 9c1b 94bc 856c bbbc
000002c0: adee 01bc 94ee 5fbc ba32 6cbd 17a9 c5bc
000002d0: 77ae 8b3c 2f93 8d3c 8616 cbbb d39b 383d
000002e0: e659 54bd 3ff5 8dbd d4fb 88bd 9594 303d
000002f0: 428b 86bd b3c6 8b3c d119 263d 5220 913d
00000300: d414 673b 3869 2cbd 54e7 123d 0efe ecbc
00000310: b6cf 623d 19d8 503d b9fa 11bd 8d33 74bd
00000320: 51a2 f2ba 5792 0ebd 9aa4 0e3d 7e82 1f3d
00000330: 39b3 3b3c b219 8d3d 65b1 863b 85cf b6bd
00000340: 0df1 10bd b5f7 cc3d a9df dbbc 27e3 293d
00000350: b769 183d ab4c 4b3b cb16 0d3c 5446 5a3a
00000360: bce1 25bd feb7 98bc 47cb 89bc abdc 7dbd
00000370: 7489 81bd 8244 36bd 2d84 eb3b ea05 383d
00000380: 0f2a 3639 f048 9e3c 48f1 51bc e0f0 f33b
00000390: 0eb7 673c 31f7 a43d ecf3 2c3c 866a dbbb
000003a0: dede 13bd d2b2 c73c c549 aa3c 650d ce3c
000003b0: 5be8 4fbd 84c6 d739 29f8 fb3c f7ec 31bd
000003c0: 1e62 88bc b924 65bd e3e5 943c 30d0 ab3b
000003d0: 0fad 7b3d 6b48 b1bc 1379 60bd 10f4 00bc
000003e0: 9ca9 e63c c1ea edbb a0b2 a83b efa8 ea3c
000003f0: 4c30 693d 17b0 9e3c d02e bd3c 8ff3 ac3c

policy_layer.bias f4 [19]
-0.039363973 -0.022145994 -0.033807375 -0.0081565175 0.014891403 -0.0240404 -0.037872806 0.018002525
-0.044706233 0.07936272 0.024877835 0.09344822 0.061538167 0.034166746 -0.0063977316 -0.14322495
-0.11026498 0.020507935 -0.05911238
00000000: 1e3c 21bd 846b b5bc 9a79 0abd eaa2 05bc
00000010: 12fb 733c 5ff0 c4bc 8420 1bbd 087a 933c
00000020: e21d 37bd ec88 a23d 9acc cb3c c861 bf3d
00000030: 720f 7c3d 6ef2 0b3d 10a4 d1bb 90a9 12be
00000040: 9bd2 e1bd 4200 a83c d31f 72bd

value_layer.weight f4 [1, 128]
-0.0042126453 0.068081826 -0.014021066 -0.0066186576 -0.08598145 0.10695843 0.03331899 0.08441674
-0.01525905 0.007650553 -0.12655598 -0.0867797 -0.01994335 0.037129853 0.021125885 -0.096905656
0.009151647 -0.15039827 0.0574865 0.090934016 -0.12536903 0.10388834 -0.016913963 0.14076325
-0.035929482 0.15306908 -0.16956665 0.017410178 0.02869765 -0.1055926 0.16510826 0.097774155
-0.0040642717 0.032130275 0.10549647 0.049543265 -0.16357708 -0.10383587 -0.0910384 -0.15962644
0.028772114 0.0980259 -0.03866881 -0.023921935 0.06083436 -0.11650189 0.0941253 0.11048586
-0.117890045 0.03327289 0.11829369 0.09392007 -0.1277255 -0.09667199 -0.028329678 -0.1232921
-0.017386844 -0.03738679 0.090714835 0.014142787 0.073481336 0.13717797 -0.18429987 0.0037565704
-0.022434246 0.019210871 -0.013458626 0.05027308 -0.07572461 0.039720364 -0.041291323 -0.047017537
-0.049295887 0.06860369 0.07754202 -0.113238916 0.05778989 0.0049827644 -0.058718465 -0.09965853
0.013159179 0.011298939 -0.0030822668 -0.059181828 0.07823499 0.14583772 -0.13264674 0.042898625
-0.048757624 0.056216612 -0.14826448 -0.14178042 0.085822776 -0.06501717 0.10325366 -0.14298788
-0.08817402 0.079071924 -0.15766852 -0.041986518 0.00014207546 -0.18879816 -0.13334508 0.061253496
-0.033298347 -0.014720893 0.055429824 0.08820606 0.022822678 0.09695669 -0.037946183 0.12187733
0.09009592 0.16913126 0.08653122 -0.13288939 0.05469786 0.08796135 0.16434191 -0.064567566
0.201412 0.084434755 -0.101090856 0.10441658 0.040305678 0.046823934 -0.06656006 0.11749952
00000000: 3b0a 8abb 7c6e 8b3d 9db8 65bc 53e1 d8bb
00000010: 0b17 b0bd 050d db3d 7e79 083d afe2 ac3d
00000020: 1801 7abc 7db1 fa3b e497 01be 8eb9 b1bd
00000030: 3d60 a3bc 7915 183d 3110 ad3c 7976 c6bd
00000040: caf0 153c 0102 1abe f776 6b3d 9d3b ba3d
00000050: bd60 00be 69c3 d43d 278f 8abc 3e24 103e
00000060: cb2a 13bd 24be 1c3e e1a2 2dbe ca9f 8e3c
00000070: 5617 eb3c ef40 d8bd 2412 293e d13d c83d
00000080: 952d 85bb 099b 033d 890e d83d e1ed 4a3d
00000090: c080 27be e7a7 d4bd 5772 babd 1d75 23be
000000a0: 7fb3 eb3c cec1 c83d 3063 1ebd eff7 c3bc
000000b0: 732d 793d 8b98 eebd c4c4 c03d 6946 e23d
000000c0: 5670 f1bd 2749 083d f643 f23d 2a59 c03d
000000d0: 79ca 02be f7fb c5bd a413 e8bc 9280 fcbd
000000e0: db6e 8ebc e422 19bd b3c8 b93d 26b7 673c
000000f0: 627d 963d 6278 0c3e 1bb9 3cbe cb30 763b
00000100: 06c8 b7bc 1e60 9d3c 9281 5cbc 25eb 4d3d
00000110: 8115 9bbd d2b1 223d 1721 29bd 7695 40bd
00000120: 7cea 49bd 1780 8c3d 5ace 9e3d cee9 e7bd
00000130: 17b5 6c3d 7546 a33b c682 70bd c519 ccbd
00000140: 9999 573c 2f1f 393c dbff 49bb a568 72bd
00000150: ab39 a03d 7c56 153e 8cd4 07be 78b6 2f3d
00000160: 13b6 47bd 6443 663d a5d2 17be e32e 11be
00000170: dac3 af3d b927 85bd a876 d33d 6a6b 12be
00000180: 9594 b4bd 76f0 a13d db73 21be 0efa 2bbd
00000190: 17fa 1439 4e54 41be 9d8b 08be f2e4 7a3d
000001a0: d963 08bd e72f 71bc 620a 633d 61a5 b43d
000001b0: a0f6 ba3c 3b91 c63d 756d 1bbd d29a f93d
000001c0: 3684 b83d bf30 2d3e 4837 b13d 2814 08be
000001d0: dd0a 603d 1525 b43d 3f49 283e 003c 84bd
000001e0: f33e 4e3e 21ec ac3d b908 cfbd 5cd8 d53d
000001f0: 9117 253d 74ca 3f3d a450 88bd 97a3 f03d

log_std_parameter f4 [19]
-3.159314 -3.2575305 -3.336899 -1.7523082 -1.7875386 -0.7931377 -0.9112457 -2.402526
-2.3390179 -0.6454546 -0.8254694 -1.5316855 -1.5031359 -0.7001508 -0.715419 -0.8122333
-0.7724439 -0.6691248 -0.72969455
00000000: 3332 4ac0 617b 50c0 c18f 55c0 a34b e0bf
00000010: 11ce e4bf 130b 4bbf 6647 69bf fcc2 19c0
00000020: 78b2 15c0 833c 25bf f651 53bf 450e c4bf
00000030: c266 c0bf 153d 33bf b325 37bf 86ee 4fbf
00000040: e2be 45bf c34b 2bbf 43cd 3abf

net_container.0.weight f4 [128, 69]
-0.31611797 0.06374605 -0.09095757 -0.18764551 -0.04230311 0.03888078 -0.4679748 0.17002808
0.07358495 -0.049630217 -0.062220123 0.3369887 -0.060839523 -0.12927087 0.17183194 -0.22163361
0.34783942 -0.05187483 0.07542357 -0.59645605 -0.02608017 -0.11163203 0.2224063 -0.36877388
-0.29754087 -0.08048735 -0.11948888 0.1966609 0.2427265 0.2528216 -0.36982965 -0.016725238
-0.008130167 -0.032540496 -0.12245383 0.14517762 -0.051258225 -0.0531176 -0.09898303 0.008284219
0.06693176 0.03319706 0.018608661 0.031650662 0.028493322 0.01658008 -0.11406252 0.07442715
-0.045097973 -0.02010892 -0.16185474 0.054952987 0.05587522 0.058317073 -0.023252828 -0.027634736
0.002934327 -0.061181102 0.07053426 0.11242912 0.06349869 -0.1411023 -0.03654044 -0.03131701
0.016038101 0.09130018 -0.051786903 0.03825473 0.049893264 0.048850622 -0.21482891 0.11384605
-0.07242087 -0.16681464 0.13663584 -0.07434952 -0.31554458 0.017539997 0.17771201 -0.041140597
0.3722495 -0.437962 -0.36203486 -0.32483798 0.034932245 0.086112 0.26784748 0.03196228
0.5606495 -0.25645697 -0.014557699 0.03868765 0.04599815 0.041882977 0.23528922 -0.37788394
-0.25614253 0.36842623 0.37085125 -0.44345263 0.017033346 0.0911606 -0.092062995 0.02600771
-0.06196483 -0.033965416 -0.069672 0.059364934 -0.03856518 0.08665649 -0.059802514 -0.05051282
0.13867186 0.02992618 0.0785494 -0.041344386 0.020449584 0.058134317 0.12617174 0.022781642
-0.21543838 -0.041211836 0.14936887 0.024890585 -0.16754866 -0.10208441 -0.1616105 0.10139153
0.17390364 0.12355601 0.15380758 -0.035235446 -0.16665296 -0.032301277 -0.0922513 -0.13649195
-0.09055645 0.0899672 -0.30857664 0.66042805 -0.20401195 0.09023071 -0.1050552 -0.091829985
-0.5653788 0.16775446 0.18553977 0.40209568 0.041517723 0.10237568 -0.27299768 -0.22064774
-0.03131995 -0.08431764 -0.09966435 -0.03529023 0.16566277 -0.42126593 0.15839733 0.0020579784
0.19380918 0.06741916 0.050449092 0.3088775 0.018605964 0.09385855 0.22241887 -0.013480243
0.26235998 -0.0037486716 -0.0011235503 0.030863319 0.076464124 -0.036666106 0.03001497 0.0593059
-0.0775356 -0.0066381013 -0.017251424 -0.023291243 0.0048091975 0.044272777 0.004877642 0.08075618
-0.06641811 -0.026108121 -0.03904454 -0.048126675 -0.15118147 0.07000751 0.0019016231 -0.09316696
0.016399391 0.07809394 -0.0007988867 0.04891014 0.0431361 -0.009754253 0.20156626 -0.029218948
0.19405763 0.041056097 -0.039938796 0.11549341 0.060156208 0.036698084 0.0020332218 0.2726667
-0.24621052 -0.41531637 -0.16125466 0.03195936 -0.041108686 1.1353872 -1.0540813 -0.13699761
0.2700824 0.116648525 -0.09859636 0.08921423 -0.39213997 0.2235663 0.7713732 -0.31226745
-0.018645266 0.08462757 0.7023732 0.16870886 -0.011390371 -0.07943156 0.31998542 0.3781863
-0.064014815 -0.14767767 -0.27484503 -0.14152433 0.026825288 -0.09440817 -0.011770329 0.0053316485
-0.020388637 0.0021745434 -0.022174438 0.08473903 0.05989559 -0.005902623 -0.009196524 -0.046121173
0.015180647 -0.029358398 -0.0069881813 0.03967009 -0.0077311536 0.07404228 0.026556006 -0.037480928
00000000: 37da a1be 4a8d 823d f647 babd 2526 40be
00000010: 0746 2dbd 7441 1f3d 659a efbe d71b 2e3e
00000020: b5b3 963d 0e49 4bbd 87da 7ebd c889 ac3e
00000030: dd32 79bd 955f 04be b6f4 2f3e ecf3 62be
00000040: 0218 b23e b47a 54bd ac77 9a3d 58b1 18bf
00000050: 15a6 d5bc 559f e4bd 7abe 633e eecf bcbe
00000060: 4757 98be 8dd6 a4bd 96b6 f4bd 7a61 493e
00000070: 4c8d 783e d571 813e 505a bdbe 5e03 89bc
00000080: 6434 05bc 2f49 05bd 13c9 fabd 71a9 143e
00000090: 25f4 51bd d791 59bd 9db7 cabd 88ba 073c
000000a0: 8513 893d a4f9 073d 3171 983c 20a4 013d
000000b0: d46a e93c f3d2 873c 9c99 e9bd 436d 983d
000000c0: a7b8 38bd 76bb a4bc 40bd 25be 6216 613d
000000d0: 6add 643d e2dd 6e3d b77c bebc 3e62 e2bc
000000e0: d74d 403b 0999 7abd 4474 903d 3d41 e63d
000000f0: 9a0b 823d 1f7d 10be 6eab 15bd 4446 00bd
00000100: 5662 833c 97fb ba3d 811e 54bd feb0 1c3d
00000110: e15c 4c3d 9717 483d 1cfc 5bbe 1e28 e93d
00000120: 6551 94bd 75d1 2abe 44ea 0b3e 9044 98bd
00000130: 0f8f a1be 0ab0 8f3c 23fa 353e 0b83 28bd
00000140: 7d97 be3e 8e3c e0be a25c b9be 2a51 a6be
00000150: 1d15 0f3d 7d5b b03d 4e23 893e e1ea 023d
00000160: ba86 0f3f 544e 83be 6a83 6ebc f176 1e3d
00000170: 8e68 3c3d 7c8d 2b3d a8ef 703e 017a c1be
00000180: 1d25 83be 5da2 bc3e 37e0 bd3e 390c e3be
00000190: 8489 8b3c 69b2 ba3d 868b bcbd 1f0e d53c
000001a0: d5ce 7dbd 521f 0bbd 32b0 8ebd a528 733d
000001b0: 86f6 1dbd f578 b13d 7bf3 74bd 88e6 4ebd
000001c0: ffff 0d3e c027 f53c 82de a03d bb58 29bd
000001d0: e385 a73c 401e 6e3d 2a33 013e 91a0 ba3c
000001e0: e19b 5cbe becd 28bd 27f4 183e 57e7 cb3c
000001f0: e091 2bbe a211 d1bd 397d 25be 5da6 cf3d
00000200: cc13 323e ef0a fd3d bc7f 1d3e 0b53 10bd
00000210: 13a7 2abe 584e 04bd 40ee bcbd 8cc4 0bbe
00000220: a975 b9bd b940 b83d c2fd 9dbe d011 293f
00000230: 82e8 50be e1ca b83d 2e27 d7bd 5c11 bcbd
00000240: aabc 10bf d3c7 2b3e 23fe 3d3e 7cdf cd3e
00000250: 7d0e 2a3d 57aa d13d 5ac6 8bbe 7bf1 61be
00000260: 5949 00bd baae acbd d31c ccbd 7d8c 10bd
00000270: 80a3 293e 2bb0 d7be e932 223e 26df 063b
00000280: ea75 463e 0e13 8a3d b5a3 4e3d 3125 9e3e
00000290: 896b 983c e938 c03d c6c1 633e 3ddc 5cbc
000002a0: 0c54 863e 46ac 75bb 1844 93ba 12d5 fc3c
000002b0: 3999 9c3d 332f 16bd f4e1 f53c beea 723d
000002c0: fcca 9ebd 6e84 d9bb dc52 8dbc 47cd bebc
000002d0: 7996 9d3b 5f57 353d a0d4 9f3b 7f63 a53d
000002e0: 3806 88bd b3e0 d5bc 2bed 1fbd 7a20 45bd
000002f0: 51cf 1abe 1960 8f3d e23f f93a 52ce bebd
00000300: 0458 863c b7ef 9f3d 616c 51ba 0056 483d
00000310: 7baf 303d 4dd0 1fbc 6367 4e3e 935c efbc
00000320: 0bb7 463e 702a 283d dd96 23bd cf87 ec3d
00000330: 5b66 763d bb50 163d cd3f 053b f89a 8b3e
00000340: 9c1e 7cbe 59a4 d4be f11f 25be d1e7 023d
00000350: 9561 28bd 5e54 913f 23ec 86bf 1a49 0cbe
00000360: 3e48 8a3e 6ce5 ee3d e3ec c9bd f3b5 b63d
00000370: 92c6 c8be 90ee 643e b778 453f 85e1 9fbe
00000380: f5bd 98bc 3851 ad3d bbce 333f 04c2 2c3e
00000390: ae9e 3abc 04ad a2bd 21d5 a33e a2a1 c13e
000003a0: 331a 83bd d138 17be 7db8 8cbe c1eb 10be
000003b0: b5c0 db3c 1259 c1bd 57d8 40bc 1cb5 ae3b
000003c0: 1206 a7bc c982 0e3b 2ba7 b5bc a88b ad3d
000003d0: 1455 753d ca6a c1bb 04ad 16bc 8ee9 3cbd
000003e0: 40b8 783c 0681 f0bc 1dfd e4bb 1b7d 223d
000003f0: 9e55 fdbb 7ba3 973d fb8b d93c 9a85 19bd

net_container.0.bias f4 [128]
0.12872683 -0.056128718 0.021820765 0.031872462 0.08100671 0.03426996 0.12448348 0.090248466
0.1657619 0.07257309 0.0076347813 0.0041396543 0.07377163 -0.011674397 0.19505516 -0.13629788
0.10399275 -0.12805471 0.17924574 0.07602629 0.15585665 0.0198616 -0.055142753 0.11680255
0.07865317 0.04576496 -0.060808875 -0.057023324 -0.06527303 -0.050130207 -0.090898745 0.048570056
0.16674027 0.059019644 0.044907354 -0.049721573 0.09824822 -0.02407959 0.06503353 0.030863227
-0.15108004 0.15433133 -0.10450985 -0.029585233 0.10711999 -0.09257665 0.13787568 0.016463801
0.1433499 0.090138264 -0.021448659 0.042238988 -0.019686615 -0.06652676 -0.021905959 0.03511543
0.12707977 0.10466332 0.09164929 0.12115207 -0.07746598 0.069186755 0.21172178 0.0026318657
0.040408593 0.1680549 0.059787083 0.02936111 0.07096579 0.08903076 0.09373076 -0.1246959
0.14487359 0.05450658 0.03589875 0.058751598 0.18550575 -9.877785e-05 0.21279694 0.025385173
-0.02399341 -0.05481654 0.21090907 0.05807476 0.058388907 0.08112572 0.0929628 0.15164164
-0.0039945855 0.15956497 -0.024606297 -0.00494092 0.08381681 -0.018775778 0.03765015 -0.031134484
0.027577309 -0.0046175434 -0.07168294 -0.00012821553 0.11616858 0.05842975 -0.11261662 0.057498585
0.0081505915 0.06843442 0.021712007 -0.0550361 -0.06489388 -0.16218725 -0.012934417 0.027593488
-0.027275799 -0.08258061 0.14702605 0.17578165 -0.08848745 0.09606361 0.019449856 -0.10194391
0.026037637 -0.07720768 0.17024417 -0.05539524 0.09332584 -0.06764961 -0.04792029 0.1062203
00000000: f7d0 033e 3ae7 65bd 76c1 b23c b38c 023d
00000010: d9e6 a53d a85e 0c3d 32f1 fe3d 30d4 b83d
00000020: 7dbd 293e 33a1 943d 302d fa3b f0a5 873b
00000030: 9515 973d f845 3fbc 8abc 473e ac91 0bbe
00000040: 27fa d43d c620 03be 328c 373e acb3 9b3d
00000050: e398 1f3e cbb4 a23c 5edd 61bd 2d36 ef3d
00000060: ea14 a13d 0a74 3b3d ba12 79bd 4a91 69bd
00000070: dead 85bd 5555 4dbd 1f29 babd 65f1 463d
00000080: f6bd 2a3e 95be 713d c6f0 373d d9a8 4bbd
00000090: 5d36 c93d 8f42 c5bc 4d30 853d e1d4 fc3c
000000a0: bab4 1abe 0809 1e3e 4309 d6bd bb5c f2bc
000000b0: ba61 db3d d498 bdbd 482f 0d3e 18df 863c
000000c0: 51ca 123e 699a b83d 19b5 afbc ca02 2d3d
000000d0: d345 a1bc 2f3f 88bd 2074 b3bc 32d5 0f3d
000000e0: 3321 023e b959 d63d 9fb2 bb3d 941e f83d
000000f0: 7ca6 9ebd c9b1 8d3d 98cd 583e 617b 2c3b
00000100: 7b83 253d 9516 2c3e 4de3 743d b686 f03c
00000110: 8356 913d c255 b63d eaf5 bf3d 9060 ffbd
00000120: be59 143e 4b42 5f3d 910a 133d 84a5 703d
00000130: 38f5 3d3e f426 cfb8 71e7 593e 91f4 cf3c
00000140: d48d c4bc 4f87 60bd 8cf8 573e cddf 6d3d
00000150: 3529 6f3d 3e25 a63d 4863 be3d f247 1b3e
00000160: 03e5 82bb 0065 233e 2593 c9bc 71e7 a1bb
00000170: 26a8 ab3d a9cf 99bc 0b37 1a3d bf0d ffbc
00000180: cfe9 e13c c34e 97bb 81ce 92bd 9871 06b9
00000190: cbe9 ed3d 0954 6f3d 8ba3 e6bd a383 6b3d
000001a0: 0f8a 053c 5827 8c3d 61dd b13c 896d 61bd
000001b0: 15e7 84bd 6a14 26be e1ea 53bc bd0b e23c
000001c0: 7f71 dfbc 0620 a9bd ff8d 163e 1b00 343e
000001d0: e838 b5bd ffbc c43d 4e55 9f3c f8c7 d0bd
000001e0: e24c d53c 0f1f 9ebd 7d54 2e3e 1fe6 62bd
000001f0: 9e21 bf3d e18b 8abd 1148 44bd 078a d93d
