humanoidprac/humanoidprac/scripts/skrl/logs/skrl/h1_flat/joint_experiment_ver3/2025-09-18_06-44-00_ppo_torch/checkpoints/agent_7200.pt (torch, 549922 bytes, 40 tensors)

log_std_parameter f4 [19]
00000000: acf9 14c0 7aca 13c0 0e36 20c0 507d b3bf
00000010: f6b6 b4bf f051 10bf 55b2 16bf 8cfb edbf
00000020: 55c8 ebbf 00cd 17bf 064e 0dbf 322b 9abf
00000030: bba4 92bf d29d 02bf 14c3 10bf d5ed 0bbf
00000040: 484c 04bf da49 0fbf c32a 0cbf
-2.3277388 -2.3092332 -2.5032992 -1.4022617 -1.4118335 -0.56375027 -0.58865863 -1.8592391
-1.8420511 -0.5929718 -0.5519718 -1.2044432 -1.1456522 -0.51022065 -0.56547666 -0.5465978
-0.51678896 -0.55972064 -0.5475275

net_container.0.weight f4 [128, 69]
00000000: db53 70be 3187 8cbe d52d f6bd c665 16be
00000010: 5d43 943c fcaa 3a3b 1534 95be f637 d0bd
00000020: e94f 953d 48b6 45be 87da 7ebd 26fb 653e
00000030: 155e 523d ebb0 5dbe b331 503d cfe7 1cbe
00000040: 386f 09bd 440a 1bbe 2d2b 6abe 3b70 11bf
00000050: be04 e4be acf1 ce3d b8a3 863e a30a 40be
00000060: dd67 d0be 439d 18be ec32 d5be 3e7b 8ebc
00000070: 6af1 573e 4401 a03e cf27 58bd b986 bfbd
00000080: 06e9 9d3c c90e 08bd 67f9 a4bd 379c 0b3d
00000090: 681b 49bb c961 4fbd bc5f 01bd af77 0d3c
000000a0: af38 55bd ef41 1a3a 33ce 103d 1557 263c
000000b0: 6b97 503c bebd 373d a80d a0bd e316 1d3d
000000c0: afd2 10bd 44ed 4a3c ca4c c7bd 9d79 003b
000000d0: 7aa3 0a3e e2fc bf3c 0db5 9fbd 8c09 30bd
000000e0: eb5f e03d 81ee 1e3e c592 afbd 7d92 743d
000000f0: 7350 e83d 7e91 533c 4739 2dbe 3a5b d3bd
00000100: 8453 d2bd 428c c63d c335 883d 42f1 14bc
00000110: 7976 ea3d 66e8 8dbd 61ec 1a3c 6642 3d3e
00000120: 1ff4 c03c bb1a 30be 72b5 b4bc 2415 bebd
00000130: d1f9 8c3d 53f9 a93d 7927 04bc 0b83 28bd
00000140: 6063 ac39 e65c 39be 6f5c 85be ffbf 99be
00000150: 7aac 2abe 5594 093e d8c8 36be 58ac f5bd
00000160: 4f99 ae3e 47b8 ccbe 9f5d 0f3f 0132 90be
00000170: 1569 a9bd fdef e73b 62eb abbd ef69 86be
00000180: ae52 593d 81c9 353e f0db 113e a2f3 6c3e
00000190: 9196 d83d df69 4d3e 6274 80bd a238 b6bd
000001a0: c28f 7abd 9674 0fbd 2d83 29bd 017d 1e3d
000001b0: ad4b 1c3e a7dd 773e c746 01bd 159f b4bd
000001c0: 6030 1b3d 8256 ae3d 1aac 083e b1ec 723d
000001d0: e6c9 86bc f6bd e0bd ceb0 3bbd 6448 cf3d
000001e0: 60d1 aabd 9102 9d3d 31e2 6abd f258 303e
000001f0: 8203 d3bd 8d1a e8bc a76a c7bd ed9e 17bc
00000200: f575 1d3d f769 0b3d 2b9b 093e 6a57 c1bd
00000210: 77bf 2b3c 4813 b7bd 13be 2fbe 2dfc 973c
00000220: 1db5 30be becf 81bd 60f8 21be f5fc cdbd
00000230: 9aa9 b8bd eb37 633b d54b 0fbd 2128 76bd
00000240: 8d5d 8cbe e3f2 923e 950f 6c3e b0bc 8d3e
00000250: 7d0e 2a3d 8475 823d 1a52 333e 4eda 39be
00000260: fd7a f0be 9d7b 8cbe ccaa d8bd a803 e63c
00000270: a074 913c c343 c9bd 9020 5d3e dedb af3d
00000280: f051 813d 7e7a 82bb 06be 46bd 0f19 89be
00000290: 0989 57be 25f6 2b3d 424b b83c 92b7 6ebd
000002a0: 9431 223e 91ba a03c dcb1 01bc f4b1 983c
000002b0: b8b9 0c3e 2c4f 84bd 51a4 633d ab28 773d
000002c0: eabe c5bd dd36 383b cb3e 06bd cbc1 19be
000002d0: 1e61 543c 2e02 693d 2f3b 053d 1338 ee3d
000002e0: 5424 67bd 165d 7a3d 09fd 3d3d 5d1f ee39
000002f0: 7d76 afbd 94ba d9bd fccf 563d 4644 86bd
00000300: bf81 4a3e ddd0 1b3d a1dd 2fbe 9d30 72bd
00000310: 2476 203e f8ff 953d 77e5 80bb 6765 34be
00000320: 42af b93d 31df 27bb 1ee9 88bc 3d78 53bd
00000330: cdad b8bc ea54 d93d 67ff 10bd 2cbd b63e
00000340: 9348 e53e 6d0f 11be 5758 8dbe 633e fb3d
00000350: 69e5 6439 54bb 953f 2eb0 babe 15b6 fdbd
00000360: 1a94 933d 6ce5 ee3d 1ec2 05bd 2663 be3e
00000370: b7a5 8fbd a00a c73e efc9 113f fe35 44be
00000380: 0a9d 39be 3e1b 9cbc 1a73 4e3f 0b33 113e
00000390: cc75 8dbc b93e 03be bb49 353e 71ea 843e
000003a0: d6c7 3f3e 97a9 0b3d 6cdb a6be 568e f2bd
000003b0: 82b9 24be fa0d 3ebe f3b3 e0bb 752c 8a3b
000003c0: f372 0fbd cf6b 333c be1a 66bd ad68 483c
000003d0: c18a 7abb 5a55 a83c a069 20bc 4c42 753d
000003e0: e4d2 703c 6194 aabc dabc c13c c04f 9a3c
000003f0: 2081 3b3d 9b10 b2bc b75b 783d e784 9cbd
-0.23469488 -0.27446893 -0.120204605 -0.14687261 0.018098528 0.0028483262 -0.29141298 -0.10166924
0.07290632 -0.19307816 -0.062220123 0.22459087 0.051359255 -0.2164952 0.050828647 -0.15322803
-0.033553332 -0.15140635 -0.22868033 -0.56811875 -0.44534868 0.10104689 0.26296782 -0.18754058
-0.4070424 -0.1490374 -0.41640413 -0.01739275 0.21088186 0.31250966 -0.05277234 -0.09351868
0.019276153 -0.033217225 -0.08055382 0.034084525 -0.0030686501 -0.050630365 -0.03158544 0.008634492
-0.05205601 0.00058844587 0.035352897 0.010152598 0.012731413 0.044858687 -0.07815105 0.038351905
-0.035357174 0.01238567 -0.09731443 0.0019603737 0.13538924 0.023436014 -0.077982046 -0.042977855
0.10955795 0.1552067 -0.08572916 0.059710015 0.113434695 0.012913106 -0.16916381 -0.103201345
-0.102698356 0.09694721 0.06650879 -0.0090907235 0.11448378 -0.06929092 0.009455771 0.1848236
0.023553906 -0.17197697 -0.022059176 -0.09281376 0.06883586 0.08299508 -0.008066052 -0.041140597
0.00032880437 -0.18101844 -0.26047084 -0.30029294 -0.16667357 0.1343549 -0.17850053 -0.119957626
0.3410134 -0.39984342 0.5600223 -0.2816315 -0.08271996 0.0070781694 -0.08394505 -0.26252696
0.053057365 0.17752649 0.14244056 0.23139814 0.10575593 0.20059918 -0.06272198 -0.088975206
-0.061172254 -0.035023294 -0.041384865 0.03869343 0.15263243 0.24205647 -0.03156164 -0.08819405
0.03788793 0.08512594 0.13346902 0.059307758 -0.016453695 -0.10973732 -0.04582291 0.10121229
-0.08340716 0.07666505 -0.05734462 0.1722143 -0.103034034 -0.028332973 -0.09737139 -0.009254199
0.03844257 0.034036603 0.13438098 -0.09440501 0.0104826605 -0.089392245 -0.17162351 0.018552864
-0.17256589 -0.06338452 -0.15817404 -0.10058013 -0.09016724 0.003467078 -0.03498443 -0.060096864
-0.27415124 0.28700933 0.23052819 0.2768302 0.041517723 0.063700706 0.17511788 -0.18149683
-0.46968833 -0.2743806 -0.10579452 0.028077915 0.017755806 -0.09827378 0.21594453 0.08586858
0.063144565 -0.0039818874 -0.048521064 -0.2677693 -0.21048369 0.04198279 0.022496823 -0.058280535
0.15839225 0.019620212 -0.00791594 0.018639542 0.13742721 -0.06460413 0.055576626 0.06034152
-0.096555546 0.0028108873 -0.032774728 -0.15015332 0.012962608 0.056886844 0.032527145 0.11631789
-0.05643113 0.06112393 0.04638389 0.00045418265 -0.08567522 -0.1063129 0.052444443 -0.06555991
0.19776057 0.038040984 -0.17174388 -0.059128392 0.15670067 0.07324213 -0.0039336043 -0.17616807
0.09066631 -0.002561521 -0.016712721 -0.05162834 -0.022543812 0.10611899 -0.03539982 0.35691202
0.44781932 -0.1416604 -0.2760646 0.12267759 0.00021829236 1.1697793 -0.3646254 -0.12388245
0.072059825 0.116648525 -0.032655828 0.3718502 -0.070140295 0.38875294 0.5694875 -0.19161221
-0.18126312 -0.019055959 0.8064438 0.14179628 -0.017268084 -0.12816896 0.17703907 0.25960115
0.18728575 0.03409728 -0.3258928 -0.11843555 -0.1608639 -0.18560019 -0.006857389 0.0042167255
-0.035021733 0.010950997 -0.056177847 0.012231988 -0.0038229676 0.020548511 -0.009790808 0.05987768
0.014698718 -0.020822706 0.023649622 0.018836856 0.04577744 -0.021736434 0.06063434 -0.076425366

net_container.0.bias f4 [128]
00000000: bf3a c73d 9b30 f3bd 432c 79bd ff34 cc3c
00000010: 47cc eb3d c97e 6b3d 6d53 0f3e 9885 613e
00000020: bdf0 7b3d 5f6e 313e 298c 2d3c 59e5 b8ba
00000030: d92b 913d fcf3 07be 38bc 503e a7bf 0bbe
00000040: ec32 823d 8ef7 49be acf1 103e 9717 283d
00000050: ff77 613d f323 8e3d 6a41 a0bd e98b c73d
00000060: c86f bb3d 7251 a33d d687 8abd 7d34 4abd
00000070: af38 34bd a99f 92bd 5101 72bd d4a3 7abb
00000080: f317 303e 4083 793d 3e39 ea3c 04c9 e7bc
00000090: 5775 133e 1d68 b23b d7b9 b23d 3071 e73d
000000a0: 5d47 cdbd 499c 9b3d 7ebf 0abe 259d 75bd
000000b0: b934 c13d 455c f8bd 128d 253e bc22 98bd
000000c0: 8229 353e 7e28 9d3d 10a6 8bbc fd86 8b3b
000000d0: f6ce bebd afc5 00be 8774 b3bc 2e8d 553d
000000e0: ed28 fe3d dbe8 d53d b675 0b3e d4c2 9f3d
000000f0: 1529 17be 41b3 e93d 6474 163e ce13 6abc
00000100: f60d 363d 5a80 393e 3848 b93d 87ae 6dbd
00000110: 3503 1b3c e95e e03d 8cc5 3a3d 9ebc 4cbe
00000120: f674 443e 8d87 a83d c89d 603d 9132 963d
00000130: 35cf 253e 510a 14bd 6dbd 493e 003a b03d
00000140: 661e 80bd 22fe 23bd f6bb 6b3e fd2c 713d
00000150: 6148 c4bc 9ef3 363e 3485 cd3d fcf9 113e
00000160: 9347 e23c 58eb 743e 9cd3 1bbc b7cf bbbd
00000170: 7e00 743d 1823 a63d ba49 453d b599 b8bc
00000180: 5db2 7b3d 89d1 0abc fff8 c8bd 53d0 9fbb
00000190: ebb7 073e 074c 053d ea75 05be ef8a 043d
000001a0: 1c4a 493c b20b ce3d 8552 22bd 707d 95bd
000001b0: 86d5 b93c cf6a 12be c7d4 003d 7248 13bd
000001c0: f5e3 11be d58d d8bd deef 333e 6bb7 293e
000001d0: b560 e8bd 0124 113e b420 0bbc 2292 4bbd
000001e0: 6b70 5a3d a1c7 0cbe 4833 2f3e d2d6 88bd
000001f0: 8d8f 963d 9e77 24be 4ce1 9dbd e8bd ff3d
0.09728002 -0.11874505 -0.060833227 0.024927614 0.11513572 0.05749396 0.13996668 0.22023618
0.061508883 0.1732726 0.010592499 -0.0014106437 0.070884414 -0.13276666 0.203843 -0.13647328
0.06357369 -0.19723341 0.1415469 0.041038122 0.055046078 0.069404505 -0.07824977 0.097434826
0.0915218 0.07974519 -0.0676419 -0.049366463 -0.04399937 -0.07159359 -0.059083287 -0.0038244622
0.17196636 0.060916185 0.028591748 -0.028294094 0.1440023 0.00544454 0.087268524 0.11300886
-0.10023377 0.075981684 -0.13549611 -0.059964318 0.09433884 -0.12126974 0.16167095 -0.074285
0.17691615 0.07673739 -0.017046958 0.004258035 -0.093168184 -0.1257541 -0.02190615 0.052136593
0.1241015 0.10444804 0.13619122 0.078008324 -0.14761765 0.11411143 0.14692837 -0.014286948
0.044446908 0.18115368 0.09046978 -0.05802777 0.009461214 0.10955603 0.04559855 -0.19993827
0.19185242 0.08228979 0.054837972 0.073338635 0.16192324 -0.03614265 0.19701166 0.086048126
-0.06255798 -0.04003728 0.2302092 0.058880795 -0.023960294 0.1786637 0.10035172 0.14255518
0.02762202 0.23917902 -0.009510901 -0.09170478 0.059570782 0.08112162 0.048166014 -0.02253423
0.061449397 -0.008472809 -0.09813117 -0.004877129 0.13253753 0.03254321 -0.13033262 0.03235906
0.012285735 0.100608245 -0.039629478 -0.07299316 0.022684824 -0.14298557 0.03145292 -0.03595776
-0.14247115 -0.10573927 0.17571971 0.16573875 -0.113465704 0.1417389 -0.008491684 -0.04969991
0.053329866 -0.13748027 0.17109406 -0.06681599 0.07351599 -0.16061255 -0.077089876 0.124873936

net_container.2.weight f4 [128, 128]
00000000: 9de4 0cbd 7818 0dbe 9cd7 593c 545c f9bb
00000010: 6d83 58bd dbad 0d3d cb14 503c 23b9 06be
00000020: 2770 973b da4e e43d 00f9 0d3c 15f3 30bc
00000030: 1371 2b3e 3503 2bbd e49e 0fba 8d1a 9c3d
00000040: 61d4 77bd 1b4f c13d 7761 7a3d fad8 1f3e
00000050: 16c2 57bd 61d3 9b3d f932 09be 54f0 85bd
00000060: 5482 d73c b385 c8bd 14a2 e0bd eb15 9d3d
00000070: 6dd7 63bd 888e 74bd 1885 793c 906a fb3c
00000080: 16d4 0ebe acb8 6cbd 729f c5bd 8e9d 6f3c
00000090: 6596 9fbd 02dc 573b 5ca6 c83d 3319 f23b
000000a0: 7b9a 523d 3fde 573d 81d3 3fbd 01a4 79bd
000000b0: 3569 9e3c 0090 ac3d e612 f4bd d52c 8a3d
000000c0: c901 a23d ac72 51bc 1606 8a3d de91 753d
000000d0: 5ce9 67bd 43a4 e6bd ca75 e6bd 70d2 c53c
000000e0: 5b7d 32be bf43 35bd 1f3f fabb 7d08 753d
000000f0: 3194 1c3e 2bac 313d 9667 823c 7af7 53bc
00000100: 978b c63b 7c6e 65bd 6065 31bc b490 9cbd
00000110: 1e01 b43c 5a41 0b3d f417 9a3d 293e 173d
00000120: 466f b83d e71f c1bd 0e09 03bd 6b09 813d
00000130: 1270 a93b 1c0f 7239 7673 ae3c fa80 1b3d
00000140: 59ae b83d 6cfd 4f3d d28f 8b3c 1569 6e3d
00000150: 91a5 dcbd a0a6 433d 3dab a0bd 8d95 f8bd
00000160: cbec 6c3d 90fc 4fbd cf31 d3bd e455 05be
00000170: 30a6 d8bc 2962 1dba cc42 d7bd 7e5a dbbd
00000180: 0b45 283e fff6 193e 2aed c03d 52b6 843d
00000190: 84ca ab3d e97a 153d 0ab2 34be b93a 83bc
000001a0: 3fd2 bf3c 7999 0dbd 85a4 ecbd d79f 1ebd
000001b0: 1b60 a13d 7232 7c3d 8428 2ebd 05be c4bd
000001c0: 361d 613d ce03 39bd 9ff8 82bd 2aad 3dbd
000001d0: c209 5ebd cf02 e6bd 4c5a 313d efaf 6fbc
000001e0: c2c2 acbd 26e5 adbc ab62 b8bd 9d53 8c3d
000001f0: 6c68 193c 6a70 a03d 689b a53c 15de 3ebe
00000200: 2520 853a 9eb2 c73b 9e7e 5cbd 9a54 39be
00000210: e952 ba3d ee8e 223d dec8 1e3e eb6f cbba
00000220: df22 3e3d 2b54 03be 45f0 f53d 3ef9 18bc
00000230: fc0b a2be 153d a13d a1d4 273b 5ace a03d
00000240: 2f4f 793c 5824 23bd 6198 623c 2dde cebd
00000250: 0f28 ecbd 1c29 7abd abea c23c 20b1 31bd
00000260: 3c49 1dbb bb71 9a3d c2ee 39be f64b 573d
00000270: e047 5f3d bc0e 623d 85b5 00bb 7934 80bd
00000280: 02cb c4bc b192 75bb 9c4a 98bc 0599 55bd
00000290: 767a 923d 452d 5ebd a6a7 24be 981c 4fbd
000002a0: 8616 b53d 1b94 e1bc 1f28 963c c28c 4d3e
000002b0: e91c f9bd 37af b53d bab0 9f3d c6fd 79bd
000002c0: 492d 0cbe c7de 8abd 7b47 d4bc dee5 75be
000002d0: 5eff f63c c5e6 0fbe 23cb a73d f0ea 12be
000002e0: cf99 97bd 2851 bbbc 3fd2 acbc 2926 813d
000002f0: 0e1f 79be 5cec bebd 6975 8ebd 4bc2 363e
00000300: 1de4 53bd b7ff 07be 3522 c8bd c83c e8bd
00000310: 5bcc 5dbe f9b0 0a3e bb62 a73d f6ef d03c
00000320: a67b b5bd 94cd c53d 3898 44be d174 ccbd
00000330: f4b1 64bd 7d5e f5bd 9a95 2b3d ec36 483c
00000340: 3579 c8bd 5e2b b1be 444e 8cbd 5817 92bc
00000350: 50f8 13be 185d 22bd dbe0 8c3c 8150 fabc
00000360: a8d5 95bd 5255 aabd 7a1b 08bd 6779 553c
00000370: acb0 ff3d 5798 743c cafd 333d 172f b6bd
00000380: 7d5f ab3c 1877 1cbd e0cb f63d 0042 0cbe
00000390: 4dd1 82bd f02f c8bd 22b4 fdbc 6c0d 0f3c
000003a0: 5037 b7bc 795b e83d 3353 85bd ea83 f13c
000003b0: fd4a 483c 4400 25bc bd3b bd3c 591b fdbc
000003c0: 506f 22be ef92 fb3d 90d1 d3bd 2efb 313c
000003d0: 02be a5bd bbd1 223d ebc2 c9bc 643e 183e
000003e0: 0a21 233d 38a6 893d 92ba 35bd 2ba3 8cbe
000003f0: 29da 7dbd 9f8f 05bd 1304 22bd 553c d33d
-0.03439771 -0.13778865 0.013296034 -0.0076098833 -0.052859712 0.03458963 0.01270027 -0.13156562
0.004621524 0.11147852 0.008665323 -0.010800143 0.16742353 -0.041751105 -0.00054786936 0.07622252
-0.060505275 0.09438916 0.061128106 0.15610114 -0.05267533 0.07608677 -0.13398351 -0.065399796
0.026307262 -0.09791126 -0.10968414 0.07670196 -0.055625368 -0.05970624 0.015229486 0.030690461
-0.13948092 -0.057793304 -0.096495524 0.014624966 -0.07792357 0.0032937531 0.097973555 0.007388258
0.051416855 0.052702185 -0.046832565 -0.060947422 0.019337276 0.08425903 -0.11917667 0.06746832
0.07910497 -0.012783688 0.06739442 0.059953563 -0.056619033 -0.11261799 -0.11252935 0.024148196
-0.17430632 -0.04425406 -0.007636919 0.05982255 0.15290906 0.043377083 0.015918534 -0.012937421
0.006059121 -0.05601357 -0.010827392 -0.076447874 0.021973189 0.03399787 0.075241 0.036924515
0.09005599 -0.09429913 -0.031991057 0.063006245 0.0051708305 0.00023084547 0.02129529 0.0379648
0.09017629 0.05077879 0.017036352 0.058205683 -0.10773767 0.047766328 -0.07845161 -0.121378995
0.05784301 -0.05077797 -0.103122346 -0.13021046 -0.026446432 -0.0006003702 -0.10510787 -0.107106194
0.16432588 0.15035628 0.094202355 0.06480087 0.08388236 0.03649417 -0.17646042 -0.016019212
0.023415683 -0.03457019 -0.11554817 -0.038726654 0.07879659 0.061571546 -0.042519107 -0.09606556
0.0549595 -0.045169644 -0.06395077 -0.04630772 -0.054208525 -0.112310044 0.043299004 -0.014629348
-0.084355846 -0.02122743 -0.090031944 0.068518855 0.009363275 0.07833941 0.020215705 -0.18639405
0.0010156675 0.006094291 -0.05383169 -0.18098679 0.09097845 0.03968709 0.15506312 -0.0015521025
0.046419974 -0.12825076 0.120087184 -0.009336768 -0.31649768 0.078729786 0.0025608914 0.078518584
0.015216633 -0.039829582 0.013830275 -0.101009704 -0.11531078 -0.06107436 0.023793539 -0.04338181
-0.002399995 0.075412236 -0.18157485 0.052562676 0.054511905 0.055189833 -0.0019639444 -0.06260008
-0.024022583 -0.0037471468 -0.018590264 -0.052147884 0.07152264 -0.05424239 -0.16079578 -0.05056438
0.08842187 -0.027536443 0.018329678 0.20073226 -0.12163717 0.0887131 0.0779738 -0.061033033
-0.1368915 -0.06780773 -0.02591299 -0.24013469 0.030151065 -0.14052875 0.08193042 -0.14347434
-0.074023835 -0.022865847 -0.021096347 0.063061066 -0.24328253 -0.09322426 -0.06955988 0.17847554
-0.051731218 -0.13281141 -0.097721495 -0.11339718 -0.21659987 0.13544072 0.08173128 0.025505047
-0.08861475 0.096583515 -0.19198692 -0.099832185 -0.05583377 -0.11980913 0.041890718 0.012220126
-0.097887434 -0.346034 -0.068508655 -0.017833397 -0.14450192 -0.039639562 0.017197063 -0.030555965
-0.07316142 -0.08317055 -0.03322933 0.013029433 0.12484869 0.014928899 0.043943204 -0.088957004
0.020919556 -0.038199514 0.12050605 -0.13697052 -0.06387577 -0.09774768 -0.030969683 0.008731227
-0.022365242 0.11345572 -0.065100096 0.029481847 0.01222491 -0.010070864 0.023099774 -0.03089683
-0.15862775 0.12283885 -0.10342705 0.010863109 -0.08092882 0.039750796 -0.024629077 0.1486755
0.03982643 0.06721157 -0.04436738 -0.27468237 -0.061975632 -0.03260767 -0.039554667 0.10314242

net_container.2.bias f4 [128]
00000000: 901c a63d ee76 19be aa83 56be da1d edbc
00000010: 7fbb dbbd 4ac7 523d 6315 23bc 3ec4 ab3d
00000020: 4352 2e3d 062e 22be 884d f73d cbd6 00be
00000030: fb22 a23d 8bef d8bd 42ce 5539 186f e8bd
00000040: 561c bcbd 4223 38bd 16d7 2cbc 2d08 9f3c
00000050: 30e0 c33d 352a 133c 93a2 3c3d 7a09 aebd
00000060: b9b0 dabc e7c2 ca3c fa02 d53d f0dd 25be
00000070: f5af b23d 6e22 17be 99f6 0bbe ed47 bc3c
00000080: f84b ae3c 4ab5 dfbd 3810 323c 2c61 0dbe
00000090: 0f4d 7ebd 76f9 43bd 4c66 163e 59cd f3bd
000000a0: 84ff 1dbe 39bc b83c ab05 04be fc45 b83c
000000b0: 6972 f43d fc4b 193d a54d fd3c 5fd2 43bb
000000c0: 87af 6b3d f889 08be b3ce 7e3d 0063 20be
000000d0: c54a 86bc 06d2 973d 7420 81bd cea8 3bbd
000000e0: 4931 8c3d b445 07be 8eec 8f3d d84b d73d
000000f0: 5490 35be db3a acbd 20f7 07be 4b13 393d
00000100: eba4 3ebd 7c86 3abe 2858 c93d ef9f 52bc
00000110: 5515 e3bd 9b0e ab3d 1fb0 03be ce7f 95bd
00000120: 7f21 13bd eb71 b63d 1807 02be 461f 92bb
00000130: a7c4 1a3e 887e abbd 30a4 1fbb 3c89 07bc
00000140: 836d d93b a777 b3bd 0781 b23d d781 7bbd
00000150: 8bc3 11be 8b8a d2bc 55dd a93d 896d a43d
00000160: 4e7b c33d c308 5fbd 4b1c 71bd 5394 da3d
00000170: d161 07be d5a7 17bd 7c4c 40be 1360 553d
00000180: 653a 5abd 3072 30bc 4160 5fbe 059d 373d
00000190: 4f7c 40be ef05 fa3c f9b4 9abd 355d 32bd
000001a0: dd7c 0ebb e40f 57be 1855 8abc 5cad 27bd
000001b0: 01e4 01be fac0 1ebd a378 7d3e b739 69bb
000001c0: 57fe 51be 766b ec3d c701 d33d d56d fcbb
000001d0: e4b3 dc3d 07ea 03bd 0368 e7bd dd58 aebd
000001e0: 3793 38bd 7059 1fbe 57f2 d03d 58bb 30bd
000001f0: dee4 323d 69ef 6bbd 173f c2bd 7d38 20be
0.081109166 -0.14986774 -0.20948663 -0.028944898 -0.107291214 0.051459588 -0.009953829 0.083870396
0.04255892 -0.15837869 0.12075335 -0.12581937 0.07916828 -0.10592564 0.000203901 -0.113493145
-0.09185092 -0.0449555 -0.010549327 0.019413078 0.09564245 0.008982231 0.04605348 -0.08497901
-0.026695596 0.02475114 0.10400958 -0.16197944 0.087249674 -0.14759228 -0.13668288 0.022983516
0.02127646 -0.1092325 0.010868125 -0.138066 -0.062085208 -0.047845326 0.1468746 -0.11904401
-0.15429503 0.022550689 -0.12892787 0.022494309 0.119358845 0.03742598 0.030920813 -0.002988003
0.057540443 -0.13333881 0.062208842 -0.15662766 -0.016393075 0.07413106 -0.06305018 -0.04581528
0.06845338 -0.13210183 0.07027541 0.10512513 -0.17730838 -0.08409663 -0.13277864 0.045184415
-0.046543997 -0.18215364 0.098312676 -0.012855514 -0.11088053 0.08352395 -0.12860154 -0.072997674
-0.035920616 0.08908447 -0.12698019 -0.0044592945 0.1511408 -0.08373743 -0.0024359338 -0.008272465
0.0066353693 -0.08763056 0.08716016 -0.06140312 -0.1423475 -0.025700828 0.08294169 0.08028705
0.09545003 -0.054451715 -0.058864873 0.10672822 -0.13220908 -0.03702529 -0.18779176 0.052093577
-0.053278346 -0.010769412 -0.21814062 0.04482748 -0.1879742 0.030520407 -0.07554049 -0.04354592
-0.0021741905 -0.21002156 -0.016886279 -0.040936813 -0.12684633 -0.038758256 0.2475305 -0.003558738
-0.20507179 0.11543934 0.103030734 -0.0077035227 0.10776499 -0.032205608 -0.112991355 -0.08513043
-0.04506227 -0.15561461 0.10202473 -0.043147415 0.043675296 -0.057601366 -0.0948469 -0.15646549

net_container.4.weight f4 [128, 128]
00000000: f8cc 36bd 33d2 e13d 2f5b a4bd 3f9c 2abd
00000010: 6524 513d cc47 43bd f51e b93d 8195 a73d
00000020: ab4b 92bd ccb1 7dbd a061 b4bd 02ff 7a3c
00000030: e74a 323e b067 38bb 338a 943c c9c1 5bbd
00000040: 0e83 47bd 2c0a 97bd bb9b ffbc 9cea a43a
00000050: cab5 fcbd 2f0f d4bd feea aa3d 76f8 eabd
00000060: b6c7 5abc d9b0 503d 2ca4 3f3d 8450 9b3c
00000070: 986f 0a3d f9b8 5f3d 17f9 823c b408 773d
00000080: 92e2 803c 15a0 813c 7e6a 16be 8080 8fbd
00000090: 6529 c0bd 9398 54bd ed8e f53b 2ad0 4f3c
000000a0: ccf9 8b3b 5d68 14bc 5140 433d 893c 2c3d
000000b0: 5d49 593d 3ac3 923b 3f70 233d 40fa c03d
000000c0: 0121 aabc 442b b2bd c3bd 7a3d 2c8f cd3d
000000d0: 02be b03d eef8 2f3b 5e77 353d 96ba 4dbd
000000e0: a844 743d adbd f33b 77f9 9d3d ba80 fa3c
000000f0: 10a9 573d c25c 063d 307c bd3c 798b 41bd
00000100: 2c6c 23bd 949f 403b fe78 debd 7c4d 96bd
00000110: 33d1 6d3d 66bf 293d 8220 913c 22e7 9f3d
00000120: d4af 083e e874 72bd da8c ecbd f29e a3bd
00000130: cf4e 093d c5d4 d83d a8d6 ad3c 05fd f3bc
00000140: cf13 933c 1a77 613d e82c 1b3c 41f8 05bd
00000150: 035b 6d3d 28c5 153d 0f56 55bd 825d dc3c
00000160: ae03 153c 9aec 603d 0104 633c 0c81 36bd
00000170: b0e5 b73d 3244 f83c 01e6 eb3c 2152 bfbd
00000180: 6866 3dbd 5c7c 033e e612 9ebc f058 d33d
00000190: f9e0 1c3e 9f57 adbd 8eef 953d d970 a83c
000001a0: 3568 aa3c 446c 603d f068 1a3d ca27 4f3b
000001b0: 88e3 b33b 7fe6 c5bd 8347 0b3c f05e 533d
000001c0: 6c10 a5bd db30 583b 71cf f83b 9504 8f3d
000001d0: b458 78bd 117f 623d e2e3 a1bd 9682 723c
000001e0: ba62 ac3d 2a5e b9bd 6e7c b4bc e15d a53d
000001f0: 96d9 59bd 819c 1f3d f294 b73d 20b2 cc3b
00000200: 8013 1a3e 4be5 d0bd d978 8ebd 79bf 293d
00000210: b4fa bb3d ea0d b8bd 3b0f 02bd 3d23 02be
00000220: 7bb2 9fbd 6d88 c0bd 1021 af3d a653 cebd
00000230: 456f 933c 35ff 453d d3ff d53d 9c58 f5bd
00000240: 6f92 acbc 077e a9bd e10d 54bd f814 89bd
00000250: a0d0 5dbc a7d6 bcbc 5d10 8d3d 0542 f03d
00000260: 67d3 523d 7aae 0f3d 79b7 e13d b37b 3ebd
00000270: b756 8a3d 7de2 8dbd 2936 eb3c 052c c43d
00000280: e19b ebbc 1b84 d33d ee9d 2c3c c75c 6b3d
00000290: a644 5c3d 7c8c 96bc f896 5d3a 7b3c 26bd
000002a0: b717 343d 6bd7 fcbc 5f9f 10be e3c1 8c3d
000002b0: a9a9 80bc eabc 913d 838c d1bd 64b9 e03d
000002c0: 15f9 68bd c09f d6bd 6a52 5b3d d75e 85bd
000002d0: 00f0 eabd 81a2 e73d 1611 16bd c487 00be
000002e0: 1625 df3c 789d a1bd 2402 c4bb d70a dcbd
000002f0: 3a00 223d ec15 8c3d 0f86 953d 4c88 b9bd
00000300: 9ece aebd 5eb1 6abd 2a13 893d 5686 e03c
00000310: 1439 6c3c cdbe 593c b38f 3abd 3a64 d0bb
00000320: 1fa6 033e 9782 39bd 2448 4f3d 9364 6c3d
00000330: 3d14 17bd a044 aebc a946 e6bd 6768 7bbd
00000340: 7dcf 91bd 3515 a8bc 95c8 fbbc 0430 223d
00000350: cfae 9a3b ebc1 063c 2aec 90bd 34a2 83bd
00000360: bcc4 3a3d 4042 01bd 8855 c3bb dd1a c83c
00000370: 8dfc 4f3c 552e 8ebc 6313 483d e57a 093d
00000380: 9cc8 7c3d ada0 21bd f0f2 ea3d 4dc8 163c
00000390: d24c 9c3d ebee c0bd 1144 1d3d b531 8f3d
000003a0: 37c8 3bbc 68bf 9ebc 5fac 75bd 4240 08be
000003b0: c056 873c a6f7 a0bd 7740 f7bc 8624 a2bd
000003c0: 7c01 82ba 9ba1 ae3c c162 4c3d df95 a83c
000003d0: b85b 5e3d 7635 72bd f0c1 983d a6f2 8a3d
000003e0: 01b8 0f3c 5f4f 3b3b c995 9e3d 50fa c03d
000003f0: ef66 003e da0f 98bc 9368 02bb 6964 ed3c
-0.044629067 0.110264204 -0.080252044 -0.041652914 0.0510601 -0.047675893 0.09039108 0.081828125
-0.07143339 -0.06193714 -0.08807683 0.015319588 0.17411385 -0.0028137974 0.018132305 -0.053651605
-0.048708968 -0.07374987 -0.031202188 0.0012582126 -0.12339361 -0.103544585 0.083456025 -0.114731714
-0.013353279 0.050949905 0.046787426 0.018959291 0.03379783 0.054619763 0.015987916 0.060311034
0.015733037 0.015823403 -0.14689061 -0.07006931 -0.093828954 -0.05190332 0.0074938447 0.0126839075
0.0042717215 -0.009058085 0.04766876 0.04204992 0.05304848 0.004478839 0.039901968 0.094227314
-0.02076769 -0.086996585 0.061216127 0.100370735 0.08629991 0.0026851255 0.04430329 -0.05022677
0.05963579 0.0074383826 0.07713597 0.03057896 0.052651465 0.032803304 0.023130506 -0.047252152
-0.039898083 0.002939199 -0.10862921 -0.07338998 0.058060836 0.041442297 0.017715696 0.07807757
0.13348323 -0.05919352 -0.11550303 -0.07989301 0.033522423 0.105874576 0.02122052 -0.029783735
0.017953781 0.055045225 0.009471156 -0.032707456 0.057948124 0.036564976 -0.052084025 0.026900057
0.009095116 0.05491314 0.013855935 -0.044556662 0.08979356 0.030305956 0.028796198 -0.09341837
-0.04624024 0.12840408 -0.01929612 0.10319698 0.15320195 -0.08463978 0.07321082 0.020561622
0.020801643 0.05479075 0.037697732 0.003160941 0.0054897703 -0.09663104 0.008500936 0.05160421
-0.08059773 0.0032988105 0.0075930883 0.06983296 -0.06063147 0.05529696 -0.07904793 0.014801642
0.08417268 -0.090511635 -0.022031989 0.080745466 -0.05318602 0.038967613 0.08963956 0.00624682
0.15046501 -0.10199984 -0.069566436 0.04144237 0.09178677 -0.08987029 -0.031752806 -0.12708755
-0.07797714 -0.09401021 0.08551228 -0.100745484 0.017997393 0.048339088 0.10449185 -0.119797915
-0.021065919 -0.08275991 -0.05177105 -0.066934526 -0.01353851 -0.023051573 0.06887887 0.11731342
0.05147114 0.035078503 0.11021323 -0.046504688 0.06754821 -0.06927965 0.028712349 0.095787086
-0.028760852 0.103279315 0.0105357 0.057461526 0.053776406 -0.018377535 0.0008452977 -0.040585022
0.04396793 -0.030864438 -0.14123295 0.068729185 -0.0157059 0.071161106 -0.102318786 0.109728605
-0.056878168 -0.10479689 0.053545393 -0.0651223 -0.114715576 0.11310292 -0.03663739 -0.1255179
0.027239364 -0.07891363 -0.0059817005 -0.10744255 0.039550997 0.06840119 0.0730096 -0.090592
-0.08535503 -0.057298057 0.066931084 0.027407806 0.014417905 0.013290119 -0.0455472 -0.006359604
0.12856339 -0.045290556 0.050605908 0.057713103 -0.036884535 -0.021272957 -0.11243946 -0.061378863
-0.071196534 -0.020517925 -0.030735293 0.039596573 0.004720546 0.008224945 -0.07076295 -0.06427422
0.045597777 -0.03155732 -0.005961124 0.024426872 0.01269449 -0.017356077 0.048846614 0.033564467
0.061714754 -0.039459873 0.11472118 0.009203029 0.0763184 -0.0942057 0.03839499 0.06991903
-0.011461309 -0.019378379 -0.05997884 -0.13305762 0.016520858 -0.07859735 -0.030182106 -0.079171225
-0.0009918655 0.021317294 0.049898867 0.020579277 0.05428669 -0.059133016 0.07458866 0.06784563
0.008771897 0.0028581244 0.07743413 0.09422743 0.12539266 -0.018562246 -0.0019898757 0.028978543

net_container.4.bias f4 [128]
00000000: a1f5 dabd d6f8 6abd d202 8a3d 3fc5 d7bd
00000010: 31f2 aebd 77af 90bd fdae 9ebd ac76 21be
00000020: dab2 81bd 0850 e6bc 69e5 a63d cf6a 51bd
00000030: dec3 9bbd 1b5e 08be 04ad 22bc 5497 a73d
00000040: 767f d6bd 1890 cf3a df28 b43d f4fc b73c
00000050: ee82 f3bc 6a80 85bd 997b 25be b5dc 8fbc
00000060: fad7 f9bb 7c39 cabd 5e62 c83d 6e37 1e3c
00000070: 6336 a5bd 94a3 863c ad80 d0bd 48c1 eb3c
00000080: 303a b33c b3b5 0dbd ba82 7abd a2d6 c7bd
00000090: 198d 4fbd ac92 a8bc 4084 fe3c 004f 363d
000000a0: a681 24bd 4a5d 90bd 4c17 263d 3ca6 59bd
000000b0: 9a3d f4bd 0417 5e3d 0e73 ccbd 0f01 703c
000000c0: e99e 853d 70f0 4c3d d72c 8cbb e8df b3bd
000000d0: 9c10 b1bc 6543 c3bc 1433 10bd d1c2 4a3c
000000e0: 9514 413d 823d 72bd 471c 7abd f3bc 993d
000000f0: c0f6 49bd 8eb1 67bd 192a 9bbd 5a1c f0bc
00000100: 9b87 9fbd 3fbe 4f3b cf4b cbbd 021f 803d
00000110: 29e4 3fbd 0d13 57bd 6129 8b3d 3bba c63d
00000120: fe56 d9bb 688b 903d e483 e0bd 8f18 893d
00000130: bc93 7f3c b762 2b3d f34e 9f3d 8751 19bd
00000140: ba0a a23d cfc3 0d3c bf93 9fba f828 933c
00000150: 238f 06b8 7b9d c2bd 3e97 0dbd 43ad 89bd
00000160: 55e7 483c d2f7 9abc 7980 0ebd 347c a2bd
00000170: 5299 48bd c029 adbd 10a0 db3c ac6c 30bd
00000180: 07a8 2bbc 0297 9cbd 8934 9d3c b5ac fc3c
00000190: 2284 f7bd 8c1c 98bd fa3b 24be ac11 0b3d
000001a0: 21cd c33b 0a9c d2b9 df63 453d 7a8d 06bd
000001b0: b582 66bd 0dde 0cbd 0e21 c0bc 278b fc3c
000001c0: cd8c c5bd 7c1e 10be 36d6 bb3d 916b 7e3d
000001d0: f8db 9e3c 5973 793d e975 c7bc a5f6 9e3d
000001e0: 2050 c3bd 45b9 123d 4bba 433d 9e59 43bd
000001f0: 1d13 343d 6742 70bd 3df3 9a3c 0c29 be3c
-0.10691381 -0.057366215 0.06738819 -0.105356686 -0.08542288 -0.07064717 -0.0774822 -0.15767926
-0.06332941 -0.028114334 0.08149225 -0.05112725 -0.07605718 -0.13317148 -0.009928945 0.081831604
-0.1047353 0.001583579 0.08796858 0.022459485 -0.029725518 -0.06518634 -0.1616043 -0.017561296
-0.0076246234 -0.098742455 0.09784387 0.00965677 -0.08067014 0.016435422 -0.10180793 0.028778687
0.021878332 -0.03459711 -0.061159827 -0.09757735 -0.05067167 -0.020577751 0.031068921 0.044508934
-0.040162705 -0.070490435 0.04054956 -0.05313705 -0.11925812 0.05422117 -0.099828824 0.01464869
0.0652445 0.050033987 -0.0042778063 -0.08782941 -0.021614365 -0.023835847 -0.035204962 0.012375549
0.04713877 -0.05914069 -0.061062124 0.07506742 -0.049307585 -0.056565814 -0.07576389 -0.029310394
-0.077895366 0.003169909 -0.09926569 0.06255914 -0.04684845 -0.052508403 0.06795002 0.097034894
-0.0066326847 0.0705784 -0.10962656 0.06694137 0.015599187 0.04184219 0.0777873 -0.037431266
0.07912202 0.008652641 -0.0012174769 0.017963871 -3.2081396e-05 -0.09502693 -0.034568064 -0.067225
0.012262185 -0.018916998 -0.03479049 -0.07933846 -0.048974343 -0.08455229 0.026809722 -0.043072388
-0.010477073 -0.0764599 0.01919009 0.030844072 -0.12085749 -0.0742732 -0.16038504 0.0339524
0.005975381 -0.0004017058 0.048190948 -0.032849766 -0.056276996 -0.03439145 -0.023453262 0.030828072
-0.09645996 -0.14074129 0.09171717 0.062114302 0.019391999 0.06090102 -0.024348216 0.077618875
-0.09536767 0.035821218 0.047785085 -0.047692887 0.04396354 -0.058657076 0.018914813 0.023212932

policy_layer.weight f4 [19, 128]
00000000: f7ab bdbb e642 453b f6b5 293c 0adf 45b8
00000010: fda3 2abd bde6 323d fb13 273d d84f ff3c
00000020: 9f80 f6bb 9537 9e3d b4c5 dabc fa92 c43a
00000030: 280c 7d3d 1f21 8ebc 5cea 553d be5d 313d
00000040: 2a4c dc3b 3c1c cbbc 359a 393d 39c1 733c
00000050: 09e1 183d 059a fdbc ab2d 593d cbe1 a0bd
00000060: a6b7 fa3b 3796 c6bc b337 1f3c 8baa e03b
00000070: c508 2b3d 78f8 373d e762 c2bc c2fb 453d
00000080: b169 a8bd 7d72 ccbc 021b 523d 7a9b 40bd
00000090: b8d5 f53c c2e9 113d d01a 31bd f71a 033d
000000a0: 05ad 03bd ad24 433d da47 6cbd 1935 993d
000000b0: 8fd5 3cbd c8e4 5bbd ea98 b93c 2fe4 a83c
000000c0: 9531 023d b680 18bd a1ef 72bd fa6e 953c
000000d0: c0cf bd3c 9452 463d bb3d 83bc 5d91 6a3c
000000e0: ea1b 07bd ec39 923d a8a6 213c ffbf f13c
000000f0: f06f 023d 5daf a13d d90d 13bc ab80 24bc
00000100: 8dce 6d3d 9f76 d4bc 8bdc a9bd 36e3 633d
00000110: 8cc0 2ebd 815e d6bc 21a0 81bd 54db 95bb
00000120: bd46 0e3d f816 f1bc 46ad 2a3d 161a 8bbb
00000130: 477a 593d 98b7 4dbd 7241 c03c e913 0fbd
00000140: 091d e5bc 5b8d 193d 9231 8a3d 3de3 8fbd
00000150: 9119 a33d 3bef c1bc 2ab0 283d 0bcb 263c
00000160: 58e2 cabc 3d81 cf3c 22f9 db3c ded0 8c3b
00000170: d90a 12bd f812 513d 53c8 25bd 1348 b0bc
00000180: 7654 9a3d 3b30 893d 8ebe 903c aaa3 0cbd
00000190: abab 18bd f98c ab3c 1ef0 033d ec01 5fbc
000001a0: 763a 89bc 5ef6 0ebd 8651 de3c a08a 0c3d
000001b0: 19db 97bc 59c1 36bd 2af6 393d a42b 333d
000001c0: 4a65 db3c fe7d e53c 6c3a 133d 1827 1bbc
000001d0: f057 5bbd f426 e93c 07a4 23bd f35e 48bc
000001e0: bce7 c1ba b21f 75bd c348 e4bc e53e 3bbc
000001f0: 2929 44bc 912a 3bbd 55ce d13c 65cc edbc
00000200: 8dba 86bd 4cf1 a73d 7ec4 343d a81f 42bd
00000210: 4624 1dbd 8e5d 5c3d 77b0 ff3c 61c5 bcbc
00000220: e545 2abd 043e 413d 29db 84bd 8860 e2bc
00000230: d79e 7abd 5e92 35bd 4974 16bd 8889 89bc
00000240: a945 d8bc 4220 c3bc bf9a 7b3d d6dd 81bc
00000250: 51bd c0ba 78fe 9c3d b657 253c 1cba 943d
00000260: 7a1b 093d 5432 893d efc8 613d dc63 9b3c
00000270: 406d 3239 7d74 bf3c d16b 223c 25fa a5bc
00000280: ba9a d13c 072e ce3c 5a7d 2ebc 2bda 84bd
00000290: 3bd2 2c3d ee45 1cbd 0697 503d e680 2dbb
000002a0: 8509 38bd e369 c1bc daff b7bb a3fb fdbc
000002b0: 688b bf3c c777 a03d 3e51 8bbc 789f afbc
000002c0: fd20 2cbc 8bef a23c 494d 6cbd d336 5ebd
000002d0: 37a3 2c3c f95f 283b 1e08 9ab8 8892 703d
000002e0: b0f5 8abd a1fe 35bd 85f7 4abd f368 2f3d
000002f0: c591 9ebd 6e46 053d 7869 16bd 87af bdbc
00000300: 5717 5fbc dcb0 23bd 0cbb 083d 5c71 3ebd
00000310: 54f4 fe3c 7cfe 3f3d ec00 65bc d945 01bd
00000320: d126 2abb 32d6 34bc 7c2c 853c 2e64 203d
00000330: 79db 523b daaa 383d b136 4ebc cad6 c8bd
00000340: 947d b33c a3b1 043c f152 28bd 1272 583c
00000350: 26a6 0e3d 6c2d a03b 0ef1 6ebc 6e79 773d
00000360: f994 2cbc a096 b9bb 115e 403d e3e6 81bd
00000370: b941 33bd 10fd b3bd cdff 18b8 c2ff 433d
00000380: 663b b0bc 4cc9 19bb d000 f5bc 1e9f 9a3c
00000390: 08e0 683d 71ba 4a3d 4edb dd3b 46c1 91bc
000003a0: 95c2 bc3c c033 a93b 89b9 c73b 09d3 013d
000003b0: 926b a3bc 1786 a2bb 3574 aebb 646d 7c3c
000003c0: 679e a8bd 1f98 babc 4b9b 2eba 94a5 50b9
000003d0: 66e9 543d 25a9 cf3a 1754 4bbd adcf f1bc
000003e0: a6fa cabc 0d7c f63b db6e 57bc 9226 7d3d
000003f0: d7cc 733b 1f18 d73c 9a8a 84bd 1aae d53b
-0.005788322 0.003009969 0.010358324 -4.717618e-05 -0.041660298 0.04367708 0.04079054 0.031166002
-0.007522657 0.07725445 -0.0267056 0.0014997416 0.06177917 -0.017349778 0.052225456 0.04330229
0.0067229467 -0.024793737 0.04531308 0.014877611 0.037323985 -0.030957231 0.053022068 -0.078555666
0.007651287 -0.02424155 0.00971787 0.006856268 0.04175641 0.044914693 -0.023728801 0.048335798
-0.08223284 -0.024956936 0.051295288 -0.047023274 0.030009136 0.03562332 -0.04323846 0.032008138
-0.032147426 0.0476424 -0.05768571 0.07480831 -0.046102103 -0.05368498 0.022655923 0.020616619
0.031785566 -0.037232123 -0.05931056 0.018241394 0.023170352 0.048418596 -0.016020646 0.014316884
-0.032985605 0.07139954 0.009866394 0.029510496 0.031845033 0.07894776 -0.0089754695 -0.010040442
0.05805831 -0.02593547 -0.08294018 0.055636607 -0.042664096 -0.02616811 -0.0632937 -0.004573265
0.03473543 -0.029429898 0.041669153 -0.004245053 0.05309513 -0.050223917 0.023468707 -0.034931097
-0.027967947 0.037488323 0.06747736 -0.07025764 0.07963861 -0.023673644 0.04118363 0.010180245
-0.024766132 0.02533018 0.026852194 0.00429736 -0.035654876 0.05104348 -0.040474247 -0.021518743
0.07535641 0.06698652 0.017668989 -0.03433577 -0.03727309 0.020941244 0.032211415 -0.013611298
-0.01675151 -0.034902923 0.027138483 0.03431189 -0.018537091 -0.044617984 0.045400776 0.04374279
0.026781697 0.02801418 0.035944387 -0.00946977 -0.05355066 0.028460957 -0.03995135 -0.012229669
-0.0014793794 -0.05984468 -0.027866727 -0.011428569 -0.011972704 -0.04569489 0.025611082 -0.029028127
-0.065785505 0.082003206 0.044132702 -0.04739347 -0.03836467 0.05380016 0.031212075 -0.023043336
-0.041570563 0.047178283 -0.06487114 -0.02763392 -0.061186638 -0.04432904 -0.036731992 -0.016789213
-0.026400404 -0.023819093 0.061426874 -0.01585285 -0.0014704858 0.076657236 0.010091713 0.0726206
0.03347347 0.066990525 0.055123266 0.018968515 0.00017016102 0.023370976 0.009913401 -0.02026088
0.025586475 0.025168432 -0.010650003 -0.06486925 0.04219268 -0.038152628 0.050925277 -0.0026474535
-0.044930954 -0.023610061 -0.0056152167 -0.031003779 0.023381904 0.07835346 -0.017006513 -0.021438345
-0.010505912 0.019889614 -0.057690892 -0.054251503 0.01053696 0.002569197 -7.344804e-05 0.058733493
-0.067851424 -0.044432286 -0.04955246 0.042824697 -0.07742647 0.03253787 -0.036721677 -0.023154987
-0.0136164045 -0.039963588 0.033381507 -0.046494827 0.031122364 0.046873555 -0.013977271 -0.031560753
-0.0025963078 -0.011037396 0.016256563 0.03915804 0.0032174273 0.04508481 -0.012586282 -0.09806593
0.021910466 0.0080989925 -0.041094724 0.01321079 0.03482642 0.004888227 -0.014583839 0.06041854
-0.010533565 -0.005663708 0.04696471 -0.06342866 -0.04376385 -0.08788502 -3.6477857e-05 0.04785133
-0.021512698 -0.002346593 -0.029907614 0.018874701 0.056854278 0.04949421 0.006770528 -0.017792355
0.023042003 0.00516364 0.0060951156 0.0316954 -0.019948754 -0.0049598324 -0.0053239116 0.01540694
-0.08233338 -0.022777615 -0.00066607137 -0.00019898108 0.0519804 0.0015843256 -0.04964074 -0.029517973
-0.024777722 0.007522112 -0.013148989 0.06180436 0.0037200951 0.026256619 -0.06471749 0.0065209987

policy_layer.bias f4 [19]
00000000: dbbc 11bd 17c0 49b7 1691 aabc 44e0 a8bc
00000010: 8eee b03c 2a7a 2bbd 8fcf 29bd 4713 843c
00000020: b2ec d9bc 1303 ea3d 14d7 5d3c d817 a63d
00000030: cc91 573d 2445 9e3c e8e9 c5bc 6b79 0bbe
00000040: b2e9 14be 49f1 823c 03af 7bbd
-0.035580497 -1.2025258e-05 -0.020821135 -0.02061475 0.021598127 -0.04186455 -0.04145771 0.016122473
-0.026602123 0.114263676 0.013540048 0.081100166 0.052629277 0.019320078 -0.024159387 -0.13620536
-0.14542273 0.015984194 -0.0614462

value_layer.weight f4 [1, 128]
00000000: f022 a0bd 39c7 543c 858d 8b3d a983 f5bc
00000010: 1d29 e3bd 5f90 8e3d b2fe 0f3d c066 e23b
00000020: b1b1 24bc 9e4a efbc 57bc c9bd c373 10bd
00000030: d86d 173c 6f4c 703d 075e bb3b c029 88bd
00000040: 8483 a03c 559a ecbd cbc3 c63d c9c2 ae3d
00000050: 5659 b4bd f686 003c 0d84 823c d408 813d
00000060: f7ff 3dbd 3b46 b53d 4c1d c6bd 825e c3bd
00000070: 0245 e9bc 10d5 b53b 247f f63d 7a53 dd3d
00000080: 17c9 55bd c4fb dd3c 8dd8 993d 5d05 4b3d
00000090: 7a79 78bd 34a5 9abd 7a0e b5bd a985 1bbe
000000a0: d941 bcbd 7997 be3d d914 143c ea22 ed3a
000000b0: 9d61 913d 3e9d d2bd 8069 d83d 93bd 5a3c
000000c0: 1828 eebd ce2c 123c 9fa5 1e3d f893 fd3b
000000d0: b3e0 2fbe b21f 18bd 58a8 2abd 6b17 b4bd
000000e0: 4c55 89bd 09dc bfbc e84c 333d 4877 2fbb
000000f0: 22bf bd3d 4d04 e83d 575a 16be 6246 bbbd
00000100: 7063 3ebd f1e0 a83d ba7b 543d a51d b8bd
00000110: 1f40 dfbd c604 883d 8c72 ebbd c97d ce3e
00000120: e67f afbc b2df 193d 4ae6 113d 437f dfbd
00000130: 697a eabc 115a 123c 127e 37bd a1c1 84bd
00000140: 8d6e b4bd fd64 90bd c9c7 92bc 9fc2 57bd
00000150: 4a98 273d 3ded 613d f7d2 55bd 4a4b be3c
00000160: 6d08 dfbc 638d 8dbd 2b61 0e3e 75ea 10bd
00000170: c866 133d 59a6 abbd bbaf 9d3d f8da dbbd
00000180: a7a3 abbc de05 a43d d93d 01bd 63a7 993d
00000190: f029 903c c856 f2bd 48cd 79bd 91c3 75bd
000001a0: cf58 04be aba5 9cbd cf81 b63c a4f7 cb3d
000001b0: 86be 12bd 198e 833d 75f5 353d cb6d b33d
000001c0: ca24 c53b be81 b23d f4a0 4a3d fca9 03be
000001d0: bf98 a9bd fe6d 653d c4a8 b83d d3db 02be
000001e0: 0272 edbd 935d 693d cfb1 64bd 2ac6 643d
000001f0: 7df4 8a3d 1dc5 e03d 7685 0ebe 3852 4d3d
-0.07819164 0.0129869515 0.06814102 -0.029970007 -0.11091826 0.0696113 0.035155006 0.0069092214
-0.010052131 -0.029210385 -0.09850376 -0.03526665 0.009242497 0.058666643 0.005717996 -0.06648588
0.019593962 -0.11552874 0.09705313 0.08533246 -0.08806102 0.007844677 0.015932107 0.06300512
-0.046386685 0.08851286 -0.09673557 -0.0953951 -0.028475288 0.0055490807 0.12035969 0.108069375
-0.052193727 0.02709759 0.07512007 0.04956566 -0.060662724 -0.07551041 -0.08840652 -0.15187706
-0.09192247 0.09306235 0.009038174 0.001809207 0.070986964 -0.10283898 0.105669975 0.013350862
-0.11628741 0.008921815 0.038732167 0.0077385865 -0.1717556 -0.037139602 -0.04166445 -0.08793529
-0.06705722 -0.02342035 0.043774515 -0.0026773978 0.09264971 0.11328945 -0.146829 -0.09144284
-0.04648155 0.08246029 0.051875807 -0.08990029 -0.10900902 0.066415355 -0.114964575 0.4033034
-0.021423291 0.037566848 0.03562001 -0.10912945 -0.028622823 0.008932606 -0.044797964 -0.06482244
-0.088101484 -0.07050512 -0.01791753 -0.05267584 0.04091672 0.05515789 -0.052203145 0.02322926
-0.027225697 -0.06911733 0.13904254 -0.035379846 0.03598669 -0.08381338 0.076995336 -0.10735124
-0.020952059 0.080089316 -0.031553123 0.075026296 0.017598122 -0.118329585 -0.060986787 -0.06000096
-0.12924503 -0.07648786 0.022278694 0.09959343 -0.03582623 0.06423587 0.04442354 0.08761176
0.0060163485 0.087161526 0.049469903 -0.12857813 -0.08281087 0.0560131 0.090165645 -0.12779169
-0.11594011 0.056974005 -0.055833634 0.055853046 0.06784914 0.109750964 -0.13918099 0.050127238

log_std_parameter f4 [19]
00000000: acf9 14c0 7aca 13c0 0e36 20c0 507d b3bf
00000010: f6b6 b4bf f051 10bf 55b2 16bf 8cfb edbf
00000020: 55c8 ebbf 00cd 17bf 064e 0dbf 322b 9abf
00000030: bba4 92bf d29d 02bf 14c3 10bf d5ed 0bbf
00000040: 484c 04bf da49 0fbf c32a 0cbf
-2.3277388 -2.3092332 -2.5032992 -1.4022617 -1.4118335 -0.56375027 -0.58865863 -1.8592391
-1.8420511 -0.5929718 -0.5519718 -1.2044432 -1.1456522 -0.51022065 -0.56547666 -0.5465978
-0.51678896 -0.55972064 -0.5475275

net_container.0.weight f4 [128, 69]
00000000: db53 70be 3187 8cbe d52d f6bd c665 16be
00000010: 5d43 943c fcaa 3a3b 1534 95be f637 d0bd
00000020: e94f 953d 48b6 45be 87da 7ebd 26fb 653e
00000030: 155e 523d ebb0 5dbe b331 503d cfe7 1cbe
00000040: 386f 09bd 440a 1bbe 2d2b 6abe 3b70 11bf
00000050: be04 e4be acf1 ce3d b8a3 863e a30a 40be
00000060: dd67 d0be 439d 18be ec32 d5be 3e7b 8ebc
00000070: 6af1 573e 4401 a03e cf27 58bd b986 bfbd
00000080: 06e9 9d3c c90e 08bd 67f9 a4bd 379c 0b3d
00000090: 681b 49bb c961 4fbd bc5f 01bd af77 0d3c
000000a0: af38 55bd ef41 1a3a 33ce 103d 1557 263c
000000b0: 6b97 503c bebd 373d a80d a0bd e316 1d3d
000000c0: afd2 10bd 44ed 4a3c ca4c c7bd 9d79 003b
000000d0: 7aa3 0a3e e2fc bf3c 0db5 9fbd 8c09 30bd
000000e0: eb5f e03d 81ee 1e3e c592 afbd 7d92 743d
000000f0: 7350 e83d 7e91 533c 4739 2dbe 3a5b d3bd
00000100: 8453 d2bd 428c c63d c335 883d 42f1 14bc
00000110: 7976 ea3d 66e8 8dbd 61ec 1a3c 6642 3d3e
00000120: 1ff4 c03c bb1a 30be 72b5 b4bc 2415 bebd
00000130: d1f9 8c3d 53f9 a93d 7927 04bc 0b83 28bd
00000140: 6063 ac39 e65c 39be 6f5c 85be ffbf 99be
00000150: 7aac 2abe 5594 093e d8c8 36be 58ac f5bd
00000160: 4f99 ae3e 47b8 ccbe 9f5d 0f3f 0132 90be
00000170: 1569 a9bd fdef e73b 62eb abbd ef69 86be
00000180: ae52 593d 81c9 353e f0db 113e a2f3 6c3e
00000190: 9196 d83d df69 4d3e 6274 80bd a238 b6bd
000001a0: c28f 7abd 9674 0fbd 2d83 29bd 017d 1e3d
000001b0: ad4b 1c3e a7dd 773e c746 01bd 159f b4bd
000001c0: 6030 1b3d 8256 ae3d 1aac 083e b1ec 723d
000001d0: e6c9 86bc f6bd e0bd ceb0 3bbd 6448 cf3d
000001e0: 60d1 aabd 9102 9d3d 31e2 6abd f258 303e
000001f0: 8203 d3bd 8d1a e8bc a76a c7bd ed9e 17bc
00000200: f575 1d3d f769 0b3d 2b9b 093e 6a57 c1bd
00000210: 77bf 2b3c 4813 b7bd 13be 2fbe 2dfc 973c
00000220: 1db5 30be becf 81bd 60f8 21be f5fc cdbd
00000230: 9aa9 b8bd eb37 633b d54b 0fbd 2128 76bd
00000240: 8d5d 8cbe e3f2 923e 950f 6c3e b0bc 8d3e
00000250: 7d0e 2a3d 8475 823d 1a52 333e 4eda 39be
00000260: fd7a f0be 9d7b 8cbe ccaa d8bd a803 e63c
00000270: a074 913c c343 c9bd 9020 5d3e dedb af3d
00000280: f051 813d 7e7a 82bb 06be 46bd 0f19 89be
00000290: 0989 57be 25f6 2b3d 424b b83c 92b7 6ebd
000002a0: 9431 223e 91ba a03c dcb1 01bc f4b1 983c
000002b0: b8b9 0c3e 2c4f 84bd 51a4 633d ab28 773d
000002c0: eabe c5bd dd36 383b cb3e 06bd cbc1 19be
000002d0: 1e61 543c 2e02 693d 2f3b 053d 1338 ee3d
000002e0: 5424 67bd 165d 7a3d 09fd 3d3d 5d1f ee39
000002f0: 7d76 afbd 94ba d9bd fccf 563d 4644 86bd
00000300: bf81 4a3e ddd0 1b3d a1dd 2fbe 9d30 72bd
00000310: 2476 203e f8ff 953d 77e5 80bb 6765 34be
00000320: 42af b93d 31df 27bb 1ee9 88bc 3d78 53bd
00000330: cdad b8bc ea54 d93d 67ff 10bd 2cbd b63e
00000340: 9348 e53e 6d0f 11be 5758 8dbe 633e fb3d
00000350: 69e5 6439 54bb 953f 2eb0 babe 15b6 fdbd
00000360: 1a94 933d 6ce5 ee3d 1ec2 05bd 2663 be3e
00000370: b7a5 8fbd a00a c73e efc9 113f fe35 44be
00000380: 0a9d 39be 3e1b 9cbc 1a73 4e3f 0b33 113e
00000390: cc75 8dbc b93e 03be bb49 353e 71ea 843e
000003a0: d6c7 3f3e 97a9 0b3d 6cdb a6be 568e f2bd
000003b0: 82b9 24be fa0d 3ebe f3b3 e0bb 752c 8a3b
000003c0: f372 0fbd cf6b 333c be1a 66bd ad68 483c
000003d0: c18a 7abb 5a55 a83c a069 20bc 4c42 753d
000003e0: e4d2 703c 6194 aabc dabc c13c c04f 9a3c
000003f0: 2081 3b3d 9b10 b2bc b75b 783d e784 9cbd
-0.23469488 -0.27446893 -0.120204605 -0.14687261 0.018098528 0.0028483262 -0.29141298 -0.10166924
0.07290632 -0.19307816 -0.062220123 0.22459087 0.051359255 -0.2164952 0.050828647 -0.15322803
-0.033553332 -0.15140635 -0.22868033 -0.56811875 -0.44534868 0.10104689 0.26296782 -0.18754058
-0.4070424 -0.1490374 -0.41640413 -0.01739275 0.21088186 0.31250966 -0.05277234 -0.09351868
0.019276153 -0.033217225 -0.08055382 0.034084525 -0.0030686501 -0.050630365 -0.03158544 0.008634492
-0.05205601 0.00058844587 0.035352897 0.010152598 0.012731413 0.044858687 -0.07815105 0.038351905
-0.035357174 0.01238567 -0.09731443 0.0019603737 0.13538924 0.023436014 -0.077982046 -0.042977855
0.10955795 0.1552067 -0.08572916 0.059710015 0.113434695 0.012913106 -0.16916381 -0.103201345
-0.102698356 0.09694721 0.06650879 -0.0090907235 0.11448378 -0.06929092 0.009455771 0.1848236
0.023553906 -0.17197697 -0.022059176 -0.09281376 0.06883586 0.08299508 -0.008066052 -0.041140597
0.00032880437 -0.18101844 -0.26047084 -0.30029294 -0.16667357 0.1343549 -0.17850053 -0.119957626
0.3410134 -0.39984342 0.5600223 -0.2816315 -0.08271996 0.0070781694 -0.08394505 -0.26252696
0.053057365 0.17752649 0.14244056 0.23139814 0.10575593 0.20059918 -0.06272198 -0.088975206
-0.061172254 -0.035023294 -0.041384865 0.03869343 0.15263243 0.24205647 -0.03156164 -0.08819405
0.03788793 0.08512594 0.13346902 0.059307758 -0.016453695 -0.10973732 -0.04582291 0.10121229
-0.08340716 0.07666505 -0.05734462 0.1722143 -0.103034034 -0.028332973 -0.09737139 -0.009254199
0.03844257 0.034036603 0.13438098 -0.09440501 0.0104826605 -0.089392245 -0.17162351 0.018552864
-0.17256589 -0.06338452 -0.15817404 -0.10058013 -0.09016724 0.003467078 -0.03498443 -0.060096864
-0.27415124 0.28700933 0.23052819 0.2768302 0.041517723 0.063700706 0.17511788 -0.18149683
-0.46968833 -0.2743806 -0.10579452 0.028077915 0.017755806 -0.09827378 0.21594453 0.08586858
0.063144565 -0.0039818874 -0.048521064 -0.2677693 -0.21048369 0.04198279 0.022496823 -0.058280535
0.15839225 0.019620212 -0.00791594 0.018639542 0.13742721 -0.06460413 0.055576626 0.06034152
-0.096555546 0.0028108873 -0.032774728 -0.15015332 0.012962608 0.056886844 0.032527145 0.11631789
-0.05643113 0.06112393 0.04638389 0.00045418265 -0.08567522 -0.1063129 0.052444443 -0.06555991
0.19776057 0.038040984 -0.17174388 -0.059128392 0.15670067 0.07324213 -0.0039336043 -0.17616807
0.09066631 -0.002561521 -0.016712721 -0.05162834 -0.022543812 0.10611899 -0.03539982 0.35691202
0.44781932 -0.1416604 -0.2760646 0.12267759 0.00021829236 1.1697793 -0.3646254 -0.12388245
0.072059825 0.116648525 -0.032655828 0.3718502 -0.070140295 0.38875294 0.5694875 -0.19161221
-0.18126312 -0.019055959 0.8064438 0.14179628 -0.017268084 -0.12816896 0.17703907 0.25960115
0.18728575 0.03409728 -0.3258928 -0.11843555 -0.1608639 -0.18560019 -0.006857389 0.0042167255
-0.035021733 0.010950997 -0.056177847 0.012231988 -0.0038229676 0.020548511 -0.009790808 0.05987768
0.014698718 -0.020822706 0.023649622 0.018836856 0.04577744 -0.021736434 0.06063434 -0.076425366

net_container.0.bias f4 [128]
00000000: bf3a c73d 9b30 f3bd 432c 79bd ff34 cc3c
00000010: 47cc eb3d c97e 6b3d 6d53 0f3e 9885 613e
00000020: bdf0 7b3d 5f6e 313e 298c 2d3c 59e5 b8ba
00000030: d92b 913d fcf3 07be 38bc 503e a7bf 0bbe
00000040: ec32 823d 8ef7 49be acf1 103e 9717 283d
00000050: ff77 613d f323 8e3d 6a41 a0bd e98b c73d
00000060: c86f bb3d 7251 a33d d687 8abd 7d34 4abd
00000070: af38 34bd a99f 92bd 5101 72bd d4a3 7abb
00000080: f317 303e 4083 793d 3e39 ea3c 04c9 e7bc
00000090: 5775 133e 1d68 b23b d7b9 b23d 3071 e73d
000000a0: 5d47 cdbd 499c 9b3d 7ebf 0abe 259d 75bd
000000b0: b934 c13d 455c f8bd 128d 253e bc22 98bd
000000c0: 8229 353e 7e28 9d3d 10a6 8bbc fd86 8b3b
000000d0: f6ce bebd afc5 00be 8774 b3bc 2e8d 553d
000000e0: ed28 fe3d dbe8 d53d b675 0b3e d4c2 9f3d
000000f0: 1529 17be 41b3 e93d 6474 163e ce13 6abc
00000100: f60d 363d 5a80 393e 3848 b93d 87ae 6dbd
00000110: 3503 1b3c e95e e03d 8cc5 3a3d 9ebc 4cbe
00000120: f674 443e 8d87 a83d c89d 603d 9132 963d
00000130: 35cf 253e 510a 14bd 6dbd 493e 003a b03d
00000140: 661e 80bd 22fe 23bd f6bb 6b3e fd2c 713d
00000150: 6148 c4bc 9ef3 363e 3485 cd3d fcf9 113e
00000160: 9347 e23c 58eb 743e 9cd3 1bbc b7cf bbbd
00000170: 7e00 743d 1823 a63d ba49 453d b599 b8bc
00000180: 5db2 7b3d 89d1 0abc fff8 c8bd 53d0 9fbb
00000190: ebb7 073e 074c 053d ea75 05be ef8a 043d
000001a0: 1c4a 493c b20b ce3d 8552 22bd 707d 95bd
000001b0: 86d5 b93c cf6a 12be c7d4 003d 7248 13bd
000001c0: f5e3 11be d58d d8bd deef 333e 6bb7 293e
000001d0: b560 e8bd 0124 113e b420 0bbc 2292 4bbd
000001e0: 6b70 5a3d a1c7 0cbe 4833 2f3e d2d6 88bd
000001f0: 8d8f 963d 9e77 24be 4ce1 9dbd e8bd ff3d
0.09728002 -0.11874505 -0.060833227 0.024927614 0.11513572 0.05749396 0.13996668 0.22023618
0.061508883 0.1732726 0.010592499 -0.0014106437 0.070884414 -0.13276666 0.203843 -0.13647328
0.06357369 -0.19723341 0.1415469 0.041038122 0.055046078 0.069404505 -0.07824977 0.097434826
0.0915218 0.07974519 -0.0676419 -0.049366463 -0.04399937 -0.07159359 -0.059083287 -0.0038244622
0.17196636 0.060916185 0.028591748 -0.028294094 0.1440023 0.00544454 0.087268524 0.11300886
-0.10023377 0.075981684 -0.13549611 -0.059964318 0.09433884 -0.12126974 0.16167095 -0.074285
0.17691615 0.07673739 -0.017046958 0.004258035 -0.093168184 -0.1257541 -0.02190615 0.052136593
0.1241015 0.10444804 0.13619122 0.078008324 -0.14761765 0.11411143 0.14692837 -0.014286948
0.044446908 0.18115368 0.09046978 -0.05802777 0.009461214 0.10955603 0.04559855 -0.19993827
0.19185242 0.08228979 0.054837972 0.073338635 0.16192324 -0.03614265 0.19701166 0.086048126
-0.06255798 -0.04003728 0.2302092 0.058880795 -0.023960294 0.1786637 0.10035172 0.14255518
0.02762202 0.23917902 -0.009510901 -0.09170478 0.059570782 0.08112162 0.048166014 -0.02253423
0.061449397 -0.008472809 -0.09813117 -0.004877129 0.13253753 0.03254321 -0.13033262 0.03235906
0.012285735 0.100608245 -0.039629478 -0.07299316 0.022684824 -0.14298557 0.03145292 -0.03595776
-0.14247115 -0.10573927 0.17571971 0.16573875 -0.113465704 0.1417389 -0.008491684 -0.04969991
0.053329866 -0.13748027 0.17109406 -0.06681599 0.07351599 -0.16061255 -0.077089876 0.124873936
