humanoidprac/humanoidprac/scripts/skrl/logs/skrl/h1_flat/joint_experiment_ver3/2025-09-18_06-44-00_ppo_torch/checkpoints/agent_4800.pt (torch, 549922 bytes, 40 tensors)

log_std_parameter f4 [19]
000000 26 00 f3 bf c4 7e f0 bf ee c0 04 c0 78 7c 9f bf
       -1.898442 -1.8788686 -2.0742755 -1.245986
000010 c4 99 a2 bf 28 38 e9 be 25 80 fd be e9 7c cf bf
       -1.2703176 -0.45550656 -0.4951183 -1.6209995
000020 3e c9 cf bf ad cf 06 bf c1 ef e5 be 1c 29 8f bf
       -1.6233289 -0.5266064 -0.4490948 -1.118442
000030 6c fa 83 bf 8a 2b d5 be c7 90 f5 be 49 24 ee be
       -1.0310798 -0.4163478 -0.4796202 -0.46512058
000040 c0 ec dd be 54 25 f6 be c5 03 e6 be
       -0.43344688 -0.48075354 -0.4492475

net_container.0.weight f4 [128, 69]
000000 e7 25 74 be 58 bc 86 be 7c 1b 00 be ce 6e 2d be
       -0.23842584 -0.2631557 -0.12510484 -0.169368
000010 ea 49 57 3c cc de 17 bc 0e 6e 9f be 5c 70 8d bd
       0.013140181 -0.0092694275 -0.31138653 -0.069061965
000020 0f b2 7e 3d bc bf 3a be 87 da 7e bd 4f 68 56 3e
       0.06218153 -0.18237203 -0.062220123 0.20938228
000030 00 35 5a 3d e9 82 60 be 72 63 56 3d 0d 1a d5 bd
       0.0532732 -0.21924938 0.052340932 -0.104053594
000040 24 d4 f8 bc 27 39 24 be 10 f7 5b be af ea 11 bf
       -0.030374594 -0.16037427 -0.21480966 -0.56998724
000050 09 de e2 be f0 3a 1c 3e 4f 54 5f 3e b4 61 3e be
       -0.44310024 0.15256858 0.21809505 -0.18591958
000060 63 18 cc be 02 8e 27 be 9a 1f cf be ad 0a 88 bc
       -0.39862356 -0.16362765 -0.40453798 -0.016606653
000070 58 f0 4b 3e 89 7d 93 3e 13 05 76 bd 0b 58 91 bd
       0.19915903 0.28806713 -0.060063433 -0.07096871
000080 8e d1 9a 3b 3c ca f5 bc 1e 84 b5 bd 71 4a 3f 3d
       0.004724688 -0.03000366 -0.0886309 0.046701852
000090 3a 39 3c bc cc f7 83 bd 6f 9e 1b bd 79 37 96 3c
       -0.011488253 -0.06443748 -0.03799289 0.018336998
0000a0 47 26 89 bd 2f 41 cf 3a e3 88 1e 3d 8b f0 64 3c
       -0.06696754 0.0015812273 0.038704764 0.013973366
0000b0 80 fd a0 3c f9 3e fa 3c d6 cf 86 bd 4e 7d 2a 3d
       0.019652128 0.030547606 -0.0658261 0.041623406
0000c0 e4 fd 2c bd 48 fa af 3c f9 e8 ab bd 4b 50 61 bc
       -0.042234316 0.021481648 -0.083940454 -0.0137520535
0000d0 49 86 17 3e f0 92 03 3d e7 7e 9b bd 28 c8 55 bd
       0.1479732 0.032122552 -0.07592564 -0.052192837
0000e0 30 cd b5 3d 20 3b 16 3e 3c b8 aa bd 55 14 97 3d
       0.08877027 0.14670992 -0.08335921 0.07376925
0000f0 eb f9 01 3e 7b 0a e3 3b fd 2d 2f be 68 5c bf bd
       0.12692992 0.0069287396 -0.17107387 -0.09343797
000100 47 fe e1 bd 4b 91 a6 3d c9 01 3f 3d 38 48 3c bd
       -0.11034828 0.08133181 0.04663256 -0.04596731
000110 ef 18 11 3e 36 b3 8e bd 46 08 84 3c 46 a6 58 3e
       0.14169668 -0.069677755 0.016117226 0.21157178
000120 de 18 ee 3b 54 e5 30 be c6 47 2d bc 85 08 39 bd
       0.007266148 -0.17274982 -0.010576194 -0.04517414
000130 ec cf 9c 3d 42 d1 ac 3d de d7 2d bc 0b 83 28 bd
       0.076568455 0.0843835 -0.010610549 -0.041140597
000140 3a c8 84 bb fc f1 31 be 82 5f 78 be 0c 85 8d be
       -0.004052189 -0.17377466 -0.24255183 -0.2764057
000150 6a 06 36 be ff a4 f8 3d 81 35 40 be d4 c1 0f be
       -0.17775884 0.121408455 -0.1877041 -0.14038783
000160 f2 dc ab 3e 00 25 cd be 01 dc 01 3f 4b a3 82 be
       0.33567005 -0.4006729 0.50726324 -0.25515208
000170 c9 57 a6 bd c6 15 03 bb 48 6b 8f bd e7 a2 73 be
       -0.081222124 -0.0020001992 -0.07002884 -0.23792611
000180 8b 79 85 3d eb e6 35 3e fc d1 0f 3e 70 ec 48 3e
       0.06517323 0.1776387 0.14044946 0.19621444
000190 a7 0a b0 3d 5b 4c 48 3e 0f 0c 58 bd 93 35 cf bd
       0.08595782 0.19560377 -0.052745875 -0.1011764
0001a0 6c 12 c9 bc cd b2 30 bd 84 bc 3e bd 68 02 43 3d
       -0.024544917 -0.043139268 -0.0465665 0.047609717
0001b0 0b 12 17 3e c9 d9 78 3e 4c 15 1b bd d1 d6 e8 bd
       0.14752977 0.24301828 -0.037862107 -0.11369098
0001c0 10 bc 0e 3d f6 6e a3 3d 36 9f 06 3e d0 fb 1d 3d
       0.03484732 0.079801485 0.13146672 0.038570225
0001d0 64 1a 63 3c 3b 70 04 be 80 58 e8 bc 1e 0b ce 3d
       0.0138612725 -0.12933438 -0.028362513 0.10060714
0001e0 21 06 b1 bd 10 d4 bb 3d 2c 81 cd bc be e7 06 3e
       -0.08643747 0.09171307 -0.025086008 0.1317434
0001f0 4c bc f1 bd 52 ca d1 bc aa 53 bc bd 15 a8 54 bc
       -0.11803493 -0.02560917 -0.09195645 -0.012979527
000200 5e b6 30 3d 2c a3 35 3d 05 ac 0c 3e 68 7e c0 bd
       0.04314267 0.044345066 0.13737495 -0.0939911
000210 17 bb b2 3c f3 05 92 bd 20 2a 2f be 81 61 c9 3c
       0.021817727 -0.07130041 -0.17105913 0.024582626
000220 0f 9b 3d be 19 e5 4a bd 82 10 22 be 9f bd e4 bd
       -0.18516181 -0.04953489 -0.1582661 -0.1116898
000230 b0 2c ba bd b6 28 5a bc 33 93 de bb 3e cb 81 bd
       -0.09090555 -0.01331537 -0.00679245 -0.063375935
000240 4e f2 97 be dc 76 82 3e bc 4f 67 3e 3b d1 89 3e
       -0.2967705 0.25481308 0.2258901 0.26917443
000250 7d 0e 2a 3d fa ea a9 3d 70 38 5a 3e 49 8e 2a be
       0.041517723 0.08296771 0.21310592 -0.1665584
000260 77 77 d4 be c6 d2 74 be b5 b7 df bd da 95 6e 3c
       -0.41497394 -0.23908529 -0.10923711 0.014562095
000270 d9 81 0e 3d 05 bd de bd 81 ce 6a 3e 6e 08 7b 3d
       0.0347918 -0.10875896 0.22930337 0.061287336
000280 9d b8 56 3d 57 f7 9f bb 81 d8 61 bd ff d3 6c be
       0.052422155 -0.00488178 -0.055138115 -0.23127745
000290 1b d1 75 be d0 4b 79 3d c6 fa 4e 3c 4b ef 64 bd
       -0.24005549 0.060863316 0.012633031 -0.05589227
0002a0 af a4 2d 3e 45 17 d1 3c 13 6d 35 bc 15 fe 04 3d
       0.16957353 0.025523791 -0.011073369 0.032468874
0002b0 67 65 1f 3e ae e2 8a bd 11 47 02 3d d2 f6 94 3d
       0.15566026 -0.06781517 0.031806055 0.0727364
0002c0 ad ee e3 bd d4 5d 95 3b a6 90 cf ba be cd 06 be
       -0.11129508 0.0045583043 -0.0015835955 -0.13164422
0002d0 af 4f 8e 3c d0 1f 6c 3d 9d 7c dc 3c c1 a5 ea 3d
       0.01737198 0.057647526 0.026914889 0.11457396
0002e0 35 a8 4d bd 0e d0 65 3d 72 0f 4c 3d e5 ee f6 3c
       -0.050209243 0.05610662 0.049819417 0.03014321
0002f0 22 8e 81 bd 36 17 de bd af 68 6b 3d 38 9f 8d bd
       -0.06325938 -0.10844271 0.05747288 -0.06915134
000300 5b e0 49 3e 65 e2 18 3d 38 89 22 be a6 9d 90 bd
       0.19714491 0.03732528 -0.15872657 -0.07061319
000310 b7 10 25 3e 7a d7 c6 3d e5 e1 4a bc 42 a8 2c be
       0.16119657 0.09709068 -0.012382959 -0.1686106
000320 f9 1d a5 3d 66 2c 32 bb d2 1d 32 bd df 6c 74 bd
       0.080623575 -0.0027187108 -0.04348547 -0.05967414
000330 da 3a fb bb cd 1a f9 3d f9 5a 4c 3b e5 78 bb 3e
       -0.0076669278 0.12163315 0.0031182154 0.36615673
000340 cb d7 e2 3e 51 9f f2 bd 26 be 85 be 00 ab d2 3d
       0.44305262 -0.118467934 -0.26121634 0.10286522
000350 5d 46 06 bb a8 4b 97 3f f4 25 bc be 3b 51 e6 bd
       -0.0020488717 1.1819963 -0.36747706 -0.11245962
000360 09 0b 9f 3d 6c e5 ee 3d 5b 6d 09 bd e7 8b 9b 3e
       0.07765777 0.116648525 -0.033551555 0.30380175
000370 fd ab b2 bd 66 8a ca 3e 2c 0d 0c 3f 22 eb 2b be
       -0.087242104 0.39558715 0.547076 -0.16788915
000380 e8 2e 67 be 9b aa 89 bc 15 17 4e 3f 93 21 19 3e
       -0.22576487 -0.016804984 0.8050397 0.14954214
000390 d9 0a 39 bc 67 fb af bd 29 24 3d 3e 1b c7 87 3e
       -0.01129409 -0.08592873 0.18470825 0.26519093
0003a0 31 86 2f 3e 95 2b 85 3c bf 53 ae be e2 5f 0d be
       0.17141034 0.016256133 -0.34048268 -0.13806108
0003b0 75 8d 0d be 15 26 5c be 11 01 04 bc e6 a1 25 3b
       -0.13823493 -0.21498902 -0.008056895 0.00252735
0003c0 3d dc 0e bd 05 7f d9 3a 71 5c 5d bd b3 d3 f8 3c
       -0.034878004 0.0016593641 -0.054043237 0.030374384
0003d0 1b 0b 36 ba 2d ce 93 3c 53 c1 2e bc 71 69 37 3d
       -0.0006944404 0.018042648 -0.010666209 0.04477829
0003e0 43 bd 41 3c 0f 1b c5 bc b3 2f b6 3c a3 f8 9a 3c
       0.011824909 -0.024060754 0.022239542 0.018917387
0003f0 42 2b 49 3d 4e ea 85 bc db eb 56 3d a2 b8 a4 bd
       0.04911352 -0.016347077 0.052471023 -0.080430284

net_container.0.bias f4 [128]
000000 c4 36 df 3d 0d 66 f5 bd 22 7b 64 bd 5f 21 65 3c
       0.108991176 -0.11982355 -0.05578149 0.013985007
000010 5a 6e e0 3d 44 91 42 3d 11 ce 10 3e eb 0e 65 3e
       0.10958548 0.047501817 0.14141108 0.22368972
000020 54 8d 5f 3d bd 3d 31 3e 5b 60 3e 3c 29 9b bd ba
       0.05457814 0.17308708 0.011619653 -0.0014465797
000030 c0 b9 90 3d c9 9c 09 be c5 03 4a 3e fb 46 08 be
       0.07066679 -0.13438715 0.19728 -0.13308327
000040 1d db 6a 3d 69 dd 49 be 05 12 10 3e a9 eb 10 3d
       0.05733787 -0.19713368 0.14069374 0.035380993
000050 87 af 43 3d d8 25 9b 3d 28 be 92 bd 46 e5 d0 3d
       0.047774818 0.075755775 -0.07165176 0.101999804
000060 e8 66 c0 3d 27 97 9a 3d f7 cb 8c bd 1f 21 6b bd
       0.09394628 0.07548361 -0.06874841 -0.057404634
000070 09 54 3b bd 02 40 9b bd 4b 07 78 bd 37 58 81 bb
       -0.04573444 -0.07580568 -0.06055383 -0.0039472836
000080 0d 59 25 3e 4d d0 5a 3d 47 f3 af 3c 4a 69 fd bc
       0.16147251 0.053421307 0.021478308 -0.030933995
000090 0d 6d 0a 3e f2 b5 61 3c 6f 99 9d 3d 22 f1 e0 3d
       0.13518162 0.013776289 0.07695281 0.109834924
0000a0 71 13 cf bd 00 5f b4 3d 26 8b 0d be f9 3d 8b bd
       -0.1011113 0.08807182 -0.13822612 -0.0679893
0000b0 b3 66 b3 3d 05 3f ef bd f1 33 1a 3e 95 e3 97 bd
       0.08759823 -0.11681942 0.15058877 -0.07416455
0000c0 12 56 2d 3e 26 6e 94 3d f1 a2 af bc 51 44 0d 3c
       0.16927364 0.07247572 -0.021440001 0.008622245
0000d0 cb c8 be bd 05 fd f3 bd 13 58 8a bc f5 93 7b 3d
       -0.09315642 -0.11913494 -0.0168877 0.0614204
0000e0 3f 6c 02 3e 66 bd ec 3d 26 57 05 3e 4e 44 8f 3d
       0.12736605 0.115595624 0.13021526 0.0699545
0000f0 fd 00 0e be 79 63 d9 3d 31 2d 1c 3e e6 00 31 bc
       -0.13867564 0.10614676 0.15251614 -0.010803437
000100 c1 f4 40 3d 35 cc 37 3e bf f3 a7 3d 38 cc 70 bd
       0.047108416 0.17948993 0.08200788 -0.05878851
000110 49 87 86 3c d1 9c c8 3d 23 31 4c 3d f3 33 4b be
       0.01642193 0.09795535 0.049851548 -0.19844036
000120 f0 84 43 3e b5 fb a7 3d 95 95 72 3d a3 04 91 3d
       0.1909368 0.08202306 0.059224684 0.070809625
000130 79 47 1e 3e 37 5e cb bc a2 07 5a 3e 43 0e aa 3d
       0.15456952 -0.024825199 0.21291974 0.083035015
000140 69 38 61 bd 0a 1d 2b bd 92 21 67 3e 4f fc 82 3d
       -0.054985438 -0.04177574 0.225714 0.0639578
000150 da 8b dd bc 07 1b 2d 3e 9d aa dc 3d 34 4f 0b 3e
       -0.027044225 0.16904841 0.107747294 0.13604432
000160 25 de b7 3c 4b 72 70 3e 65 f0 3c bc e7 c1 c2 bd
       0.022444794 0.234811 -0.011531924 -0.0950964
000170 ba 0c 78 3d 9e 33 8f 3d 3e 4d 34 3d 3c 00 90 bc
       0.060559012 0.06992267 0.044018976 -0.017578237
000180 0a 87 82 3d b6 76 07 bc 9f 33 d6 bd 0f 0e d0 3b
       0.06373413 -0.008268049 -0.10459065 0.006349332
000190 06 e7 14 3e cd 61 e6 3c 7e 8e f4 bd de 69 bd 3c
       0.14541253 0.028122807 -0.11941241 0.02312177
0001a0 3b 0f 6e 3c a6 1e d1 3d 17 f3 39 bd 4e 25 9d bd
       0.014529998 0.10210924 -0.045397844 -0.07673131
0001b0 64 58 86 3c e6 3f 08 be 41 05 e0 3c 69 e4 f5 bc
       0.01639957 -0.13305625 0.027346255 -0.030016141
0001c0 cd d3 0d be fb 16 d2 bd 57 43 2b 3e 46 93 22 3e
       -0.13850327 -0.102582894 0.16724907 0.15876493
0001d0 d5 8a df bd 00 22 11 3e 76 0f 8b 3a 45 02 4b bd
       -0.10915152 0.14173126 0.0010609466 -0.04956271
0001e0 25 e4 38 3d 57 33 0b be 8d f0 35 3e 93 fe 83 bd
       0.04513945 -0.13593803 0.17767544 -0.064450406
0001f0 9f 2e a9 3d 42 57 18 be a1 64 a4 bd aa 49 f7 3d
       0.082608454 -0.14877036 -0.08027006 0.12074597

net_container.2.weight f4 [128, 128]
000000 2e a3 c5 bc f1 18 07 be 28 f9 a2 3c 4f d0 19 bc
       -0.024125662 -0.13193108 0.019894198 -0.009388044
000010 9e 8b 63 bd ff c3 1e 3d b3 57 98 3b 2e 96 0d be
       -0.05555307 0.038761135 0.0046491264 -0.1382682
000020 88 69 b5 3b ee 5f c8 3d 79 96 4e 3c b1 59 b6 bc
       0.005536262 0.09783922 0.012609118 -0.022259565
000030 8e 8e 22 3e d4 d7 2b bd a0 a9 a6 3c 49 19 94 3d
       0.15874693 -0.041953877 0.020344555 0.07231385
000040 d7 b9 aa bd 67 f3 c2 3d e1 37 3d 3d 0b 38 1b 3e
       -0.083362274 0.095190816 0.04619587 0.15158097
000050 ab 45 4f bd 66 55 9f 3d 2c df 07 be 38 f9 b1 bd
       -0.05060355 0.0777996 -0.13268727 -0.08690113
000060 3c d5 e1 3c 33 01 ae bd e2 4a e9 bd 25 fd 67 3d
       0.027567498 -0.084963225 -0.11391236 0.0566379
000070 80 87 1e bd 81 43 72 bd 6b 5f 69 3b df 35 08 3d
       -0.03870344 -0.059146408 0.0035609852 0.0332545
000080 b3 2f 08 be ce f7 5e bd 13 45 c4 bd ed 5d 18 3c
       -0.13299446 -0.054435544 -0.09583487 0.009299737
000090 0d 89 8a bd d2 b3 4c 3b 02 83 c6 3d 94 c2 8c 3c
       -0.067644216 0.003123511 0.096929565 0.017182626
0000a0 61 dc 24 3d 6c 42 6b 3d 72 8a 3e bd e1 68 87 bd
       0.040249232 0.05743639 -0.04651875 -0.06611801
0000b0 ea 5b 83 3c 15 21 be 3d 88 d3 f7 bd 64 d0 7c 3d
       0.016035039 0.09283654 -0.12100893 0.061722174
0000c0 91 63 a5 3d 4d cc bc bc 18 fd 85 3d 2d d0 88 3d
       0.080756314 -0.023046637 0.065424144 0.066803314
0000d0 da 20 a0 bd bf bc ea bd 96 7a e6 bd 78 32 8d 3c
       -0.07818766 -0.11461782 -0.1125385 0.01723598
0000e0 4f 0f 30 be cb e3 2d bd f6 90 d9 ba a8 ea 69 3d
       -0.1719334 -0.04245357 -0.0016598988 0.05710855
0000f0 74 78 1c 3e 8c d7 33 3d 3c 86 d7 3c f3 35 30 3c
       0.15280324 0.043906733 0.026309125 0.01075505
000100 c1 4a a3 3c 9e ae 88 bd 25 55 5a bc 39 59 a6 bd
       0.019933106 -0.066739306 -0.013325964 -0.081224866
000110 79 42 d9 3c ae d4 2c 3d c7 68 9f 3d 50 70 16 3d
       0.026520954 0.042195015 0.077836566 0.036728203
000120 ec 2d ab 3d 9f 6e d2 bd 19 f6 e9 bc 50 0b 60 3d
       0.08358368 -0.102750055 -0.028559731 0.05469829
000130 f8 ad 37 bb 84 89 56 3b f3 48 8a 3c 97 21 36 3d
       -0.0028027277 0.0032735774 0.016880488 0.044465628
000140 4f b8 db 3d 85 56 3d 3d a4 76 63 3c df bb b5 3d
       0.107285134 0.04622509 0.013883267 0.08873724
000150 f6 5c dc bd 1c a7 75 3d 19 7c a4 bd d7 1b e8 bd
       -0.107599184 0.05997382 -0.08031482 -0.11333435
000160 7b 43 97 3d 45 fe 53 bd 60 37 de bd 4f 87 ed bd
       0.07385918 -0.051756162 -0.10850406 -0.11598074
000170 d8 20 f8 bc e4 cf ce bb 4f be d0 bd a2 3a c9 bd
       -0.030289099 -0.0063114036 -0.101925485 -0.098256364
000180 6d 9a 0e 3e 82 3c 18 3e 6d 6e b0 3d 5a b5 80 3d
       0.13926096 0.14866832 0.08614812 0.0628459
000190 4a 7d b0 3d 9c 55 12 3d e2 a0 28 be 94 4c 7e bc
       0.08617647 0.035726175 -0.16467622 -0.015521187
0001a0 02 5c d0 3c a8 2a 1e bd f5 81 c3 bd dc 3b 03 bd
       0.025434498 -0.0386149 -0.09546272 -0.03203951
0001b0 e4 0d aa 3d 54 93 77 3d 97 f6 23 bd 19 12 c5 bd
       0.08303431 0.060443237 -0.04003009 -0.096225925
0001c0 43 40 46 3d a8 7d 34 bd 06 7d 8d bd 6e 63 80 bd
       0.04840113 -0.044065148 -0.06908612 -0.06268965
0001d0 39 73 43 bd 10 e4 ed bd 6c 72 21 3d ac 1f cf bb
       -0.047717307 -0.11615765 0.03941576 -0.0063209143
0001e0 c1 78 a9 bd 9c 23 8b bc 15 32 b4 bd 5b 53 78 3d
       -0.08274985 -0.016984753 -0.08798615 0.06062637
0001f0 a0 e6 6a 39 8f 12 89 3d 22 ec bc 3c 8b f1 37 be
       0.00022401894 0.06692993 0.023061816 -0.17963235
000200 9f fc 6c 3c c8 c3 49 3c d8 f8 69 bd b6 cd 3a be
       0.014464526 0.012314744 -0.05712208 -0.18242535
000210 3f 3e b2 3d 8c 74 08 3d ee 71 21 3e a1 98 62 3c
       0.08703279 0.033314273 0.15766117 0.013830335
000220 14 f2 f6 3c 2f ee 05 be a5 d8 ea 3d 6c ee 05 3c
       0.030144729 -0.13079141 0.11467103 0.00817452
000230 45 f2 a4 be 97 85 a1 3d 27 e6 93 bb 9d 0c a7 3d
       -0.32216087 0.07886808 -0.0045135203 0.08156703
000240 ba 33 8f 3c bc c8 2c bd 9e ee b4 3c 75 7c d7 bd
       0.01748072 -0.042183623 0.022086438 -0.10521785
000250 9a 6b da bd 83 f7 82 bd 64 79 32 3d d2 ad 00 bd
       -0.106650546 -0.06394865 0.0435728 -0.031415768
000260 e5 6c b9 bc 10 72 93 3d db be 3a be 57 b5 41 3d
       -0.022634933 0.0719949 -0.18236868 0.04729208
000270 87 dd 32 3d 05 1e 49 3d 34 58 02 3c d6 a5 83 bd
       0.043668296 0.049100894 0.0079556 -0.06428115
000280 76 ec fd bc c6 c2 f6 bb 43 e1 26 bc e2 64 30 bd
       -0.030996542 -0.007530543 -0.0101855425 -0.04306496
000290 12 2e 79 3d a9 fc 4f bd 33 02 32 be f8 e5 4c bd
       0.06083495 -0.050778065 -0.17383651 -0.050024003
0002a0 5b f2 aa 3d cc 93 f2 bc 07 3a ad 3c af 74 50 3e
       0.08347007 -0.02961149 0.021145834 0.20357011
0002b0 38 68 f1 bd 48 40 94 3d a6 fc 8c 3d 63 fd 34 bd
       -0.11787456 0.07238823 0.06884126 -0.04418696
0002c0 2b 66 11 be ba 43 98 bd 16 29 81 bc 68 89 6c be
       -0.1419913 -0.07434793 -0.015766662 -0.23099291
0002d0 39 fd 3a 3d 09 84 0f be cb 77 bb 3d 27 a0 0a be
       0.04565165 -0.14015211 0.09153708 -0.13537656
0002e0 d0 e6 6f bd 70 cf a2 bc 96 d3 ff bc 01 ee 98 3d
       -0.05856973 -0.019874305 -0.031228822 0.07467271
0002f0 f2 76 74 be a6 0e c3 bd 2b af 78 bd d1 37 1a 3e
       -0.23873499 -0.09524278 -0.06071393 0.15060355
000300 c0 bd 4d bd e1 29 04 be 2d 42 c6 bd 42 dc ca bd
       -0.050229788 -0.129066 -0.09680591 -0.09905292
000310 d0 8f 5b be 32 01 04 3e dd 87 af 3d 8e 07 d2 3c
       -0.21441579 0.12891081 0.08570836 0.025638368
000320 be 7c ac bd 15 1b d6 3d b8 5c 32 be 3e b6 d4 bd
       -0.0842223 0.10454384 -0.17418182 -0.103863224
000330 d6 91 82 bd 00 0b ee bd 43 c6 3f 3d da 85 61 3c
       -0.06375472 -0.11623192 0.046819936 0.013764823
000340 b2 09 d3 bd 2a 15 aa be 67 34 90 bd 7a 60 77 bc
       -0.103045836 -0.33219272 -0.07041245 -0.015098685
000350 17 2d 12 be 8d 04 19 bd 1c d9 f2 3c 79 4a 96 bc
       -0.14275013 -0.037357856 0.029644541 -0.018346058
000360 77 d1 8d bd 6b 82 da bd 94 be ec bc ec 84 58 3c
       -0.06924718 -0.106694065 -0.028899468 0.013215285
000370 46 19 02 3e c3 a2 03 3c bc 27 13 3d bb 02 c0 bd
       0.12704954 0.008034411 0.035926566 -0.09375521
000380 85 41 64 3c 48 95 d9 bc 6b 3b b7 3d ca 62 f0 bd
       0.013931637 -0.02656044 0.0894688 -0.117375925
000390 69 4c 79 bd e3 f0 f0 bd f3 81 d1 bc 84 e7 13 3c
       -0.060863886 -0.117646955 -0.02557466 0.009027366
0003a0 b9 4f 09 bd fe b8 c0 3d e1 07 8c bd 1e 83 0f 3d
       -0.033523295 0.094102845 -0.0683744 0.035037152
0003b0 af 5d 45 3c 8e 32 c8 bc ad af f7 3c 8c 3c 01 bd
       0.012046262 -0.024438169 0.030235136 -0.031551883
0003c0 1e c0 20 be 78 61 08 3e e4 20 bb bd 23 37 82 3c
       -0.15698287 0.13318431 -0.09137133 0.015895432
0003d0 04 7a 92 bd 71 03 08 3d 15 1b 81 bc a3 7f 07 3e
       -0.07152179 0.033206407 -0.015759984 0.13232283
0003e0 de 44 d9 3c 63 16 70 3d 36 c4 b5 bc 49 19 80 be
       0.026522096 0.0586151 -0.022188287 -0.2501929
0003f0 12 69 38 bd dd d5 17 bd 54 ec ee bc 84 5d d8 3d
       -0.045022078 -0.03706919 -0.029165424 0.10564712

net_container.2.bias f4 [128]
000000 64 04 a1 3d 4a 3e 1b be 05 1f 51 be c1 5d df bc
       0.078621656 -0.1516048 -0.2042199 -0.027266385
000010 5c 67 e5 bd c2 a7 58 3d c9 87 21 bb 2d 5b a9 3d
       -0.11201355 0.05289436 -0.0024647585 0.082693435
000020 bf b5 19 3d 63 9c 1c be ff c7 f2 3d 3b 68 e1 bd
       0.037526842 -0.15294032 0.118545525 -0.110062085
000030 4e c7 a4 3d b6 f1 d1 bd 1b 8b 5c ba 54 36 cf bd
       0.08045827 -0.10251181 -0.00084130623 -0.10117784
000040 c5 b4 b6 bd 84 eb 28 bd 68 86 44 bc 4b a8 93 3c
       -0.08921198 -0.04124023 -0.011994936 0.018024584
000050 d3 39 ba 3d 73 ef 0c 3c 8c dc 42 3d ab e7 ab bd
       0.0909306 0.008602011 0.04757361 -0.083937965
000060 15 36 aa bc 13 b6 d7 3c e8 15 c7 3d 69 f6 24 be
       -0.020777741 0.026331937 0.09720975 -0.16109623
000070 40 77 ae 3d 26 71 17 be 10 a3 09 be f1 c8 9b 3c
       0.08518839 -0.14789256 -0.1344111 0.019016715
000080 d0 0e bb 3c ad e3 e5 bd ea f5 54 3c d8 1d 0b be
       0.022834212 -0.11225066 0.012998084 -0.13585603
000090 cf 70 82 bd 6e 1c 26 bd 7b 20 0e 3e a7 7e f7 bd
       -0.06369173 -0.040554456 0.13879578 -0.12084704
0000a0 01 4b 1d be e4 b6 66 3c 10 f6 ef bd a9 5d c9 3c
       -0.15360643 0.01408169 -0.117168546 0.024580793
0000b0 5a 04 e1 3d 6e 6d 1e 3d fe a4 0d 3d 12 97 9f 3b
       0.10987158 0.03867858 0.034581177 0.004870304
0000c0 63 41 61 3d 8d d4 02 be 00 be 83 3d 22 15 20 be
       0.054994 -0.12776394 0.06432724 -0.15633062
0000d0 95 34 37 bc 9b 05 8e 3d f5 f8 79 bd 9e e0 35 bd
       -0.01118197 0.06934663 -0.06102844 -0.044403665
0000e0 e8 45 85 3d b2 ec 03 be 19 7f 89 3d f0 7e d7 3d
       0.06507474 -0.12883261 0.06713695 0.10522258
0000f0 94 78 33 be 77 5c a8 bd c2 a6 0e be 33 54 4b 3d
       -0.17526466 -0.08220761 -0.139308 0.049640846
000100 8a 3d 33 bd d0 48 23 be 5a 3f c9 3d e6 ca 45 bc
       -0.04375986 -0.15945745 0.098265365 -0.012072301
000110 f0 7b de bd 52 c6 a6 3d bd 9c ff bd 77 90 9d bd
       -0.10863483 0.08143295 -0.12481067 -0.0769357
000120 73 f3 fd bc 80 3f b4 3d ac 85 fb bd e6 72 a1 3a
       -0.030999875 0.08801174 -0.12281355 0.0012317568
000130 7c 33 1b 3e e2 5b b0 bd 8b 95 8c bb 77 91 9e bb
       0.15156358 -0.08611275 -0.004290288 -0.004839118
000140 eb 53 0b 3c 06 35 b4 bd f9 17 ad 3d 4f 82 68 bd
       0.008503894 -0.08799176 0.08451838 -0.056764897
000150 c2 24 15 be a4 97 08 bd 92 de ad 3d 90 40 a2 3d
       -0.14564803 -0.03334774 0.084897175 0.079224706
000160 14 6a c1 3d b4 e2 58 bd 0a 23 78 bd fa d8 d5 3d
       0.09444061 -0.052950576 -0.06058029 0.104417756
000170 97 fc 06 be 45 f4 0d bd 50 5f 39 be e7 cf 50 3d
       -0.13182293 -0.03465678 -0.18102765 0.05097952
000180 86 44 4b bd 36 bf fb bb ab e8 5c be 4b c1 36 3d
       -0.049625896 -0.007682706 -0.21573131 0.044617932
000190 57 65 40 be 58 82 f1 3c f3 f8 95 bd c5 84 1c bd
       -0.18788658 0.029481098 -0.07322874 -0.038212556
0001a0 83 52 d1 bb 1f 94 4a be 48 22 99 bc ab 07 2f bd
       -0.00638801 -0.19783066 -0.018693104 -0.042731922
0001b0 a0 12 ff bd 4c 54 2c bd e6 13 78 3e 0a 0e d2 bb
       -0.12454724 -0.04207258 0.2422634 -0.006410365
0001c0 bf e3 4d be 21 c7 e1 3d 01 ad cf 3d 15 7e ad bb
       -0.2010641 0.11024309 0.1014042 -0.005294571
0001d0 25 63 db 3d 30 50 03 bd ed 11 e2 bd 5e 3d ac bd
       0.1071227 -0.032058895 -0.11038575 -0.08410142
0001e0 19 d0 8d bc 79 8b 1e be f6 cd cf 3d 61 30 36 bd
       -0.017311143 -0.15482892 0.10146706 -0.04447973
0001f0 3d e4 2a 3d e1 a2 49 bd 91 7a bc bd 2e bb 19 be
       0.04172157 -0.0492276 -0.09203065 -0.1501281

net_container.4.weight f4 [128, 128]
000000 49 34 13 bd 8e 52 e7 3d c9 3e 9f bd 7e c7 5e bd
       -0.035938535 0.11295043 -0.07775647 -0.05438947
000010 85 93 1c 3d e3 7b 2d bd 32 71 c4 3d 5d 68 96 3d
       0.038226623 -0.042354476 0.09591903 0.073441245
000020 f9 70 9c bd 03 d5 86 bd 7a aa cd bd cc 59 8c 3c
       -0.07638735 -0.065835975 -0.100422814 0.017132662
000030 08 f8 28 3e 70 d6 84 39 1f b8 89 3c 79 0b 5e bd
       0.16500866 0.0002533677 0.016811429 -0.05421016
000040 de 35 66 bd 05 55 97 bd 53 a6 de bc 11 b0 ad ba
       -0.056203716 -0.07389263 -0.027178919 -0.0013251324
000050 13 c1 03 be 0b 83 d2 bd a4 cb a1 3d 8a 5b 04 be
       -0.1286662 -0.10278901 0.079001695 -0.12925544
000060 e0 41 0d bc 0c bd 31 3d 0c cd 18 3d 3c 78 0e 3c
       -0.008621663 0.04339318 0.037304923 0.008695658
000070 e4 46 0b 3d 16 4d 60 3d b9 29 ac 3c d1 cb 73 3d
       0.034003153 0.054761015 0.021015989 0.059520546
000080 3f 9e 82 3c 83 31 76 3c e9 a2 0f be 72 61 96 bd
       0.015944598 0.015026453 -0.14026989 -0.07342805
000090 40 ef b3 bd b0 cd 43 bd 17 b0 1d 3c 1c 50 14 3b
       -0.08785868 -0.04780358 0.009624503 0.0022630757
0000a0 4a 03 6a bc 34 9f e3 bb fe b6 59 3d 1b 1c 28 3d
       -0.014283011 -0.0069464687 0.05315303 0.04104243
0000b0 d7 b7 81 3d 00 8b 7d 3b 31 09 2d 3d 96 de c4 3d
       0.06333893 0.0038687587 0.042245094 0.096127674
0000c0 f5 e5 b7 bc 6f c1 bc bd b9 0e 83 3d e0 85 d1 3d
       -0.02244852 -0.09216582 0.063992925 0.10230613
0000d0 84 9d d0 3d bb cb 88 bb 83 c7 35 3d 98 0e 50 bd
       0.10186294 -0.004174677 0.044379722 -0.050795168
0000e0 37 5d 6e 3d 3a c1 17 3c 93 ec 9a 3d 5d 92 94 3c
       0.058194365 0.009262377 0.07564654 0.018136198
0000f0 10 31 5a 3d ed 3e e7 3c 61 da aa 3c 82 20 2e bd
       0.053269446 0.028228248 0.020856084 -0.04251147
000100 3b 0b 0e bd ac 0c 70 3b 72 39 df bd 78 47 94 bd
       -0.03467868 0.0036628647 -0.10899629 -0.07240194
000110 ca 8c 7c 3d f1 1c 30 3d 77 e4 66 3c 0b d1 a8 3d
       0.061657704 0.04299635 0.014092556 0.08242997
000120 c6 50 03 3e 04 6c 6e bd 82 50 d4 bd 20 03 b9 bd
       0.12823781 -0.05820848 -0.10366918 -0.09033799
000130 2b 63 14 3d 6b 97 e6 3d 3c bf e2 3c 10 1b 27 bd
       0.036227386 0.112593494 0.027679078 -0.040797293
000140 ed 74 81 3c 29 e0 4e 3d 07 48 0d bb 78 14 38 bd
       0.015802825 0.050506745 -0.0021557824 -0.044941396
000150 ef 40 6b 3d a3 6c 0b 3d e0 38 49 bd d3 16 dd 3c
       0.057434972 0.03403915 -0.049126506 0.026988422
000160 aa db b5 3a 46 bf 4b 3d 4b 0b 71 3c b3 0c 54 bd
       0.0013874669 0.04974296 0.014712165 -0.051769923
000170 9c e2 ba 3d ed ed dd 3c 8f fd 0a 3d e7 f1 d4 bd
       0.091252536 0.02709099 0.03393322 -0.10397702
000180 1a d2 41 bd 91 3c fa 3d 6d f5 f3 bc 09 67 de 3d
       -0.04731951 0.122185834 -0.029780114 0.10859496
000190 24 e1 13 3e ec 31 a9 bd 68 a5 96 3d e6 15 e1 3c
       0.14441353 -0.08261475 0.073557675 0.027476262
0001a0 c5 84 cd 3c 08 c1 5a 3d 3d de 0e 3d 6c 31 04 3c
       0.025087724 0.053406745 0.03487991 0.008068424
0001b0 d7 81 a1 3b 18 10 c5 bd 70 b0 eb 3b ae b1 83 3d
       0.004928808 -0.0962221 0.007192664 0.06430374
0001c0 d0 c7 a3 bd b7 c3 66 3b 75 9d 8e 3c b7 ef 90 3d
       -0.079970956 0.003521187 0.017409066 0.07076972
0001d0 ff 3f 9b bd 52 0c 57 3d 9d b7 88 bd 15 1b 8b 3b
       -0.07580566 0.052501984 -0.066756465 0.004245172
0001e0 d9 5f a1 3d ae e4 ab bd 2c c5 b4 bc 16 4f 8e 3d
       0.078796096 -0.083932266 -0.022066675 0.06948678
0001f0 26 f8 6a bd a4 19 37 3d 92 c1 af 3d 8d 10 27 3c
       -0.05736556 0.044702187 0.085818425 0.010196817
000200 77 c1 15 3e 4c 3c c4 bd ef 94 8b bd 22 f1 20 3d
       0.14624582 -0.09581813 -0.06815516 0.039292462
000210 59 f8 c6 3d 83 8c bc bd cf 2c 07 bd 34 a0 04 be
       0.09715337 -0.09206488 -0.033001717 -0.12951738
000220 99 12 9f bd 26 39 b5 bd fb 33 9b 3d f0 91 c8 bd
       -0.07767219 -0.08848791 0.07578274 -0.0979346
000230 ab 59 98 3c 40 bf 48 3d 53 2c da 3d c3 64 f1 bd
       0.018597445 0.049010515 0.106529854 -0.11786797
000240 40 f0 ab bc 85 88 a4 bd 50 20 60 bd 3f 29 84 bd
       -0.020988584 -0.080338515 -0.054718316 -0.064531796
000250 e0 16 75 bc a3 ad c9 bc 7e 7a 80 3d 19 e6 f7 3d
       -0.014959067 -0.02461893 0.062733635 0.121044345
000260 0e 3a 4c 3d 0d a6 03 3d 07 7b e9 3d 2b fb 38 bd
       0.049860053 0.03214078 0.11400419 -0.045161407
000270 0c fd 94 3d 9d fd 94 bd 66 ca 32 3d 53 a4 b0 3d
       0.07274827 -0.072749354 0.043650053 0.08625092
000280 75 e1 c3 bc 63 25 d3 3d 0a 19 8c 3c f5 4a 6e 3d
       -0.023911217 0.10309865 0.017101783 0.058176953
000290 85 52 64 3d 4b 64 74 bc 2d b3 51 ba d4 62 32 bd
       0.05574276 -0.01491649 -0.00079994166 -0.04355128
0002a0 09 14 4e 3d 87 65 9e bc 44 8f 09 be 90 f6 79 3d
       0.050312076 -0.019335521 -0.13433558 0.061026156
0002b0 5e c1 50 bc 5c ea 97 3d 13 99 bc bd a3 e0 c6 3d
       -0.012741415 0.074177474 -0.09208884 0.09710815
0002c0 3f 55 7e bd 48 bf e0 bd 1a 9b 59 3d 0f e5 6b bd
       -0.062093016 -0.10973984 0.053126432 -0.057591494
0002d0 c9 a8 ce bd 85 ab d1 3d cd f4 f7 bc 37 d6 e8 bd
       -0.10090787 0.10237793 -0.030268097 -0.11368983
0002e0 e5 11 e3 3c 3e e2 99 bd 24 10 a8 bb 8f 53 cd bd
       0.027718494 -0.075138554 -0.0051288772 -0.10025703
0002f0 5d c1 2d 3d 1a fb 8d 3d 87 5d 99 3d c1 38 b7 bd
       0.042420734 0.069326594 0.07488542 -0.08946372
000300 c7 79 b9 bd f4 96 66 bd 7d 78 84 3d d1 be ed 3c
       -0.0905643 -0.056296304 0.06468294 0.029021652
000310 ba 3b 9e 3c 92 f0 73 3c 58 72 33 bd f3 21 9b bb
       0.01931559 0.014888899 -0.04381022 -0.0047342717
000320 52 be 05 3e f8 84 40 bd 75 90 92 3d fd 53 87 3d
       0.13060883 -0.04700181 0.07156459 0.06607816
000330 f8 bf c4 bc 4a 7d 8b bc ca 93 c7 bd 54 25 75 bd
       -0.02401732 -0.017027516 -0.097449854 -0.059850052
000340 ee d9 9a bd e0 4e 95 bc 9c 1f 7c bc 08 e1 c4 3c
       -0.07561098 -0.018226087 -0.015388396 0.024033085
000350 7c 9a a6 3b db b5 bd 3b e9 da 97 bd e3 5f 57 bd
       0.005084334 0.005789501 -0.07414801 -0.05258168
000360 70 0a 4a 3d 85 42 1b bd 21 99 91 bb 9b ab b6 3c
       0.04932636 -0.037905235 -0.004443303 0.022298625
000370 d0 87 fb 3c 9f 55 ae bc 98 42 44 3d 5c d0 19 3d
       0.030704409 -0.021281062 0.04791507 0.037552223
000380 6d 60 80 3d b5 40 36 bd 32 8c ea 3d b3 2e fc 3b
       0.06268392 -0.044495303 0.114525214 0.0076959967
000390 60 85 8b 3d 7f e4 bc bd 70 e5 0b 3d 94 31 93 3d
       0.06812549 -0.0922327 0.034154356 0.07187191
0003a0 81 67 45 bc 89 b0 96 bc ad c6 70 bd 70 ed 04 be
       -0.012048603 -0.018394725 -0.058783222 -0.129812
0003b0 93 6b 71 3c 73 50 a6 bd 5f dd f7 bc ca 20 9f bd
       0.01473512 -0.08120813 -0.030256925 -0.07769926
0003c0 a1 30 12 bb 6c 2d c5 3c 73 e0 4e 3d e6 7f b2 3c
       -0.0022306817 0.02406951 0.05050702 0.021789502
0003d0 42 0f 65 3d 93 4b 6c bd fc 1f 87 3d c3 28 99 3d
       0.055922754 -0.05768926 0.065978974 0.07478478
0003e0 15 a9 54 3c 2b aa 00 bc d5 5d 94 3d 73 ef ad 3d
       0.012979765 -0.007853071 0.072444595 0.08492937
0003f0 b7 4c fc 3d 28 ee 04 bc 86 cb 7d bb 34 23 0f 3d
       0.1231932 -0.0081134215 -0.0038726046 0.03494568

net_container.4.bias f4 [128]
000000 4f 58 d6 bd 4f a7 6e bd 39 71 8e 3d ce de ce bd
       -0.10466062 -0.058265027 0.06955189 -0.1010109
000010 72 57 a1 bd 2e b3 97 bd b9 61 a1 bd 5c 9f 1d be
       -0.07878007 -0.07407223 -0.07879967 -0.15392822
000020 b1 27 6e bd ee 76 e3 bc f6 3a aa 3d 52 9d 56 bd
       -0.05814332 -0.027766671 0.08312027 -0.052396126
000030 de 8a 94 bd 3c fa 09 be 4b 5d a0 bb 78 ec b5 3d
       -0.07253049 -0.13474363 -0.004893934 0.088829935
000040 9d 5a d6 bd 4b 03 ef 3b 43 a3 af 3d f1 d3 9a 3c
       -0.10466502 0.0072940937 0.085760616 0.01889989
000050 eb 4a e6 bc be 99 80 bd 65 62 29 be 26 02 86 bc
       -0.028111896 -0.06279324 -0.16541441 -0.016358446
000060 2a fd 93 bb 64 1d cf bd e5 01 ce 3d 26 c9 7d 3c
       -0.0045162635 -0.10113028 0.10058955 0.015489852
000070 a9 04 97 bd ac f7 98 3c ec f3 d3 bd 19 cc e5 3c
       -0.07373936 0.018672787 -0.10349259 0.028051423
000080 a4 06 e8 3c b8 3a 09 bd 98 cd 7f bd e1 5e d2 bd
       0.028323479 -0.033503264 -0.06245193 -0.10272003
000090 e4 b7 43 bd 07 5f 92 bc e4 e1 0d 3d 06 e0 58 3d
       -0.047782794 -0.017867578 0.034639254 0.05294802
0000a0 e0 e9 17 bd e5 b5 98 bd ba 4a 14 3d 00 1e 45 bd
       -0.037088275 -0.07456569 0.036204077 -0.048124313
0000b0 05 a4 f3 bd 96 00 59 3d a3 c6 dd bd b6 fd 5c 3c
       -0.118965186 0.052979074 -0.108289026 0.013488224
0000c0 17 1a 95 3d 95 04 51 3d b2 49 a7 bb b8 2c aa bd
       0.07280367 0.05102976 -0.0051052207 -0.08309311
0000d0 64 f0 9e bc f8 32 ad bc 11 11 11 bd 45 5d 82 3c
       -0.019401737 -0.021142468 -0.035416666 0.015913615
0000e0 d3 e8 39 3d 81 6f 67 bd bb f0 81 bd c8 77 9c 3d
       0.045388054 -0.056502823 -0.06344744 0.07640034
0000f0 c3 18 61 bd 2a 3f 75 bd ab 9f 8c bd df 8b d6 bc
       -0.054955255 -0.05987469 -0.06866392 -0.026189743
000100 ac 77 99 bd bc b0 13 3b 90 08 ca bd 8d f8 8a 3d
       -0.07493529 0.0022535762 -0.098649144 0.067856885
000110 a9 fd 4e bd 56 78 60 bd 02 39 92 3d 0a fa b5 3d
       -0.050534878 -0.05480226 0.071397796 0.08885582
000120 bd 70 0e bc 7a 89 8c 3d c5 07 c7 bd 09 ff 8a 3d
       -0.008693871 0.06862159 -0.09718279 0.06786925
000130 8e ba 78 3c 5d 61 1f 3d e1 c2 9f 3d 92 e6 0b bd
       0.015181197 0.038911212 0.07800842 -0.034155436
000140 5c b5 a7 3d 7a f4 25 3c 81 4c a6 39 08 0b 8f 3c
       0.081888884 0.010129089 0.00031718987 0.017461315
000150 42 60 23 3b ff 31 c1 bd 4f 63 0f bd 83 c8 8a bd
       0.00249292 -0.09433364 -0.035006817 -0.06776526
000160 16 cf 83 3c f9 3a 5c bc ea e5 24 bd c1 e4 9d bd
       0.016089957 -0.013441795 -0.040258326 -0.07709647
000170 f6 b7 4a bd 9a 4d a6 bd 10 e2 c3 3c ae c1 21 bd
       -0.049491845 -0.0812027 0.023911506 -0.039491348
000180 12 20 0a bc d3 e1 a7 bd 57 1a b7 3c 48 dc ef 3c
       -0.008430498 -0.081973694 0.022351427 0.029279843
000190 96 ca fa bd cc e3 8e bd 28 cb 1c be b6 5a 0f 3d
       -0.122456715 -0.069770426 -0.15311873 0.034998618
0001a0 55 b7 53 3c f9 bf 3b 3b bb 19 42 3d 1e 7a 11 bd
       0.012922128 0.002864836 0.04738782 -0.03551685
0001b0 ac 5f 67 bd 31 aa e0 bc 36 a4 d8 bc 4b 80 cb 3c
       -0.056487724 -0.027424904 -0.02644549 0.024841448
0001c0 f7 52 c0 bd 4f 1c 10 be 4f d4 b1 3d 29 55 8d 3d
       -0.09390824 -0.14073299 0.08683073 0.06901009
0001d0 9a 32 a8 3c ff 13 65 3d 8f aa d8 bc 44 28 af 3d
       0.020531941 0.055927273 -0.026448516 0.08552602
0001e0 3e 95 c0 bd 09 69 02 3d 6a 81 46 3d 7c 53 4b bd
       -0.09403466 0.03183845 0.048463263 -0.049640164
0001f0 92 d5 27 3d 27 1a 7c bd ed 0d be 3c 2b e6 bd 3c
       0.04097516 -0.06154838 0.0232 0.023181042

policy_layer.weight f4 [19, 128]
000000 97 65 88 bc b2 32 86 3b 69 39 26 3c 6c 0b 22 bb
       -0.016650004 0.004095399 0.010145524 -0.0024726046
000010 89 60 35 bd 01 84 3f 3d 2f b1 1c 3d bc 30 07 3d
       -0.044281516 0.046756748 0.038254913 0.03300546
000020 18 17 38 bc 88 9d ac 3d 98 62 e0 bc 81 25 6f ba
       -0.011235975 0.08428484 -0.027390763 -0.0009122715
000030 7f 3f 89 3d 92 5d 98 bc 72 50 51 3d af a9 36 3d
       0.06701564 -0.018599305 0.05110211 0.044595417
000040 ce de 20 bb ac 71 c9 bc cc 19 3c 3d a8 ae 81 3c
       -0.0024546864 -0.024590336 0.04592304 0.015830353
000050 e2 74 1a 3d c1 d2 0a bd 3e 0e 73 3d 9a fb ae bd
       0.037709124 -0.033892397 0.059339754 -0.08544083
000060 ef 4d 51 3b e1 74 9d bc a1 da 88 3c 46 9c 3a 3c
       0.0031937321 -0.019220771 0.016705813 0.011389798
000070 41 9b 2a 3d 37 b5 64 3d 93 6b bd bc 97 48 46 3d
       0.041651968 0.055836882 -0.023122584 0.04840907
000080 11 ed 9f bd e9 3f d3 bc 22 5d 57 3d aa 54 51 bd
       -0.07808889 -0.02578731 0.052579053 -0.051106133
000090 77 65 2f 3d ab 16 11 3d d3 51 20 bd 8f 5b 0f 3d
       0.042821374 0.03542201 -0.039140534 0.034999426
0000a0 17 1e 02 bd e0 b1 40 3d 42 de 78 bd 8d 96 99 3d
       -0.031766977 0.047044635 -0.060758837 0.074994184
0000b0 66 f1 35 bd 7a 56 43 bd 4d a5 c9 3c b8 6b d2 3c
       -0.04441967 -0.047689892 0.024614954 0.02568613
0000c0 89 0b 00 3d d0 ab 11 bd 49 e9 75 bd 61 86 a0 3c
       0.031261 -0.035564244 -0.06003693 0.019595327
0000d0 b5 b6 dd 3c ef 20 44 3d ab 7e b2 bc f0 a3 94 3c
       0.02706466 0.04788297 -0.021788916 0.018144578
0000e0 06 ce 11 bd 7c b2 96 3d 11 0f 2e 3c 7e 1d 0c 3d
       -0.03559687 0.07358262 0.010623709 0.034207813
0000f0 c3 4c d6 3c 94 f4 a1 3d 2a 23 fe bb 25 4c 52 bc
       0.02615965 0.07907978 -0.0077556567 -0.012835537
000100 87 d4 70 3d 3f 83 d9 bc 54 ec 9d bd d7 35 77 3d
       0.058796432 -0.02655184 -0.07711092 0.06035408
000110 80 a8 2a bd ee 7d e6 bc ae 71 79 bd 60 33 b0 bb
       -0.0416646 -0.02813622 -0.06089943 -0.005377218
000120 5a a2 26 3d d0 fc f8 bc ce de 37 3d 31 84 ab bb
       0.040682174 -0.030393988 0.044890217 -0.0052342643
000130 3b d8 75 3d 49 19 3b bd fb 4d 04 3d fb f2 11 bd
       0.060020667 -0.04567841 0.03230093 -0.035632115
000140 be 99 ba bc 5c d9 0f 3d 5e b1 8c 3d 38 51 81 bd
       -0.022778388 0.0351194 0.068697676 -0.06314319
000150 e4 62 a0 3d f8 0c e7 bc 3a 0d 48 3d 27 d2 e0 3b
       0.07831362 -0.028204426 0.04884074 0.0068609896
000160 82 c8 ee bc 43 e1 dd 3c 4b 56 be 3c 08 12 dc ba
       -0.029148344 0.027084952 0.023234507 -0.0016790042
000170 34 8a 18 bd 0a 1e 41 3d 86 80 2f bd 21 27 9e bc
       -0.037241176 0.047147788 -0.04284718 -0.019305767
000180 84 93 93 3d bc 58 88 3d e0 ef 7f 3c 70 d2 02 bd
       0.07205871 0.0665755 0.0156211555 -0.03193897
000190 5c e5 08 bd fc 14 e3 3c a1 2a 01 3d 39 e4 55 bc
       -0.03342186 0.027719967 0.031534795 -0.013054901
0001a0 e4 40 8c bc d8 2e 1e bd f1 f1 ee 3c be 0e 06 3d
       -0.017120786 -0.038618892 0.029168101 0.032728903
0001b0 f2 49 80 bc 10 81 21 bd e7 ed 53 3d 92 8b 2c 3d
       -0.01566026 -0.039429724 0.051740553 0.042125292
0001c0 98 89 ef 3c 22 56 e4 3c 2c e1 1b 3d 5c 00 34 bc
       0.029240415 0.027873103 0.038056538 -0.010986414
0001d0 25 78 5e bd d7 d9 16 3d 22 7b 2b bd 17 44 4a bc
       -0.054313798 0.036828842 -0.041865475 -0.012345335
0001e0 91 cf 8e 3b ab 0f 84 bd 6d 20 08 bd 36 b4 40 bc
       0.00435824 -0.06448301 -0.03323405 -0.011761716
0001f0 91 63 a6 bc a5 0b 47 bd 7c f6 ce 3c 17 4f 0b bd
       -0.020311149 -0.04859509 0.025264017 -0.034010973
000200 f0 db 99 bd 3c 8f b0 3d 80 6a 3e 3d 4e 43 4a bd
       -0.07512653 0.0862107 0.046488285 -0.049380593
000210 68 19 29 bd df a8 74 3d ac b6 04 3d 0f 11 97 bc
       -0.041283995 0.05973136 0.032400772 -0.018440751
000220 63 97 4a bd 52 57 46 3d f6 07 91 bd 3b 31 1f bd
       -0.04946078 0.04842312 -0.070815966 -0.03886531
000230 2a 54 86 bd 75 87 70 bd d9 f8 1e bd 5c b6 79 bc
       -0.06559022 -0.058722932 -0.03881154 -0.015241232
000240 16 51 d2 bc 2a 67 dd bc d2 0f 78 3d 8d d3 cb bb
       -0.02567343 -0.027026732 0.060561962 -0.006220287
000250 11 4e 77 bb 22 0c aa 3d 4a e5 31 3c e5 c6 98 3d
       -0.003773574 0.083030954 0.010857889 0.07459811
000260 f8 e1 13 3d ee 89 87 3d 18 b7 6a 3d ca f7 99 3c
       0.036104172 0.06618105 0.057303518 0.018794913
000270 75 23 70 3b 0b 5a c2 3c 61 2a 3f 3c 89 5d 95 bc
       0.0036642228 0.023724576 0.011667819 -0.018233078
000280 0f 2b c9 3c bc b8 e0 3c de 89 6a bc 0e a4 89 bd
       0.024556665 0.027431838 -0.014315097 -0.06720744
000290 e0 43 2c 3d d6 fe 1f bd 10 13 61 3d 87 e6 1d bb
       0.04205692 -0.03906139 0.05494982 -0.0024093704
0002a0 9e 6b 54 bd fd ce fd bc fb c2 35 bb 03 f3 0b bd
       -0.051860444 -0.030982489 -0.0027734626 -0.0341673
0002b0 76 ec b1 3c f2 94 a1 3d 3f 48 cf bc 96 19 d6 bc
       0.021719199 0.07889737 -0.025303004 -0.026135247
0002c0 36 df 27 bc b0 ec 98 3c 61 f8 74 bd 05 b7 69 bd
       -0.010246089 0.018667549 -0.059807185 -0.057059307
0002d0 37 bd 52 3c d0 ff dd 3b e3 33 75 3b 0a bc 7f 3d
       0.012862495 0.00677488 0.003741496 0.062435187
0002e0 13 fd 9d bd d5 22 4a bd 57 89 78 bd ee 77 56 3d
       -0.07714286 -0.049349625 -0.060677852 0.052360468
0002f0 25 b9 a0 bd fa 28 11 3d a4 ff 30 bd 66 e0 e0 bc
       -0.078478135 0.03543947 -0.043212548 -0.027450752
000300 e2 b6 e8 bb f1 37 4a bd 38 c7 f2 3c 36 00 43 bd
       -0.0071018795 -0.049369756 0.02963601 -0.047607623
000310 76 db 06 3d ca 0d 4d 3d c4 4d 96 bc 28 8c f9 bc
       0.032924138 0.05006198 -0.018347628 -0.03046234
000320 3d bb aa bb 2a ed 0b bc 47 57 3c 3c 40 e1 24 3d
       -0.005210309 -0.008540431 0.011495418 0.040253878
000330 e2 5f c5 3b ac 8b 41 3d 26 c5 60 bc 19 d9 cf bd
       0.006023393 0.047252342 -0.013718879 -0.1014883
000340 30 48 98 3c 89 6c 69 3c c1 cb 27 bd 1d eb 30 3c
       0.01858911 0.014247068 -0.0409658 0.010798243
000350 db 41 0d 3d 23 54 ba 3b 5f 73 86 bc 11 86 90 3d
       0.034486633 0.0056862994 -0.016412435 0.07056821
000360 42 be 01 bc 59 82 d2 bb 90 32 5e 3d 77 cb 83 bd
       -0.007918896 -0.00642423 0.05424744 -0.06435292
000370 95 79 39 bd 8f 7c bb bd 13 1f 82 bb 35 9d 56 3d
       -0.045281965 -0.09154617 -0.0039709895 0.052396018
000380 ee 3f 3a bc bd d7 5c bb 75 3b 15 bd bc 1e 8b 3c
       -0.011367781 -0.0033697926 -0.036433656 0.016982429
000390 da eb 80 3d b6 9d 69 3d 5d bc e0 3b 34 a4 54 bc
       0.06294985 0.05703517 0.006858392 -0.012978602
0003a0 9e 09 f6 3c 5d c1 03 ba c0 9f 45 3c d8 0a 02 3d
       0.030033883 -0.0005026067 0.012062013 0.031748623
0003b0 84 8f 16 bd ab 90 81 bb 4f e3 28 bb e4 2a 65 3c
       -0.03675796 -0.0039540133 -0.0025770252 0.013987277
0003c0 6a be b1 bd 11 1a d3 bc 89 38 c1 b9 12 1c 59 3b
       -0.08678897 -0.025769265 -0.0003685395 0.0033128303
0003d0 08 a3 5b 3d c6 8b 1b 3b 28 d8 53 bd 88 0d e1 bc
       0.053622276 0.0023734435 -0.051719815 -0.027472273
0003e0 ee 0c e3 bc bf 77 5e 3c fa 41 50 bc e6 76 88 3d
       -0.027716126 0.013578354 -0.012711043 0.06663303
0003f0 35 61 05 3c fd 0a f5 3c 1d 67 86 bd 25 51 06 3c
       0.008140852 0.029912466 -0.06562636 0.008198057

policy_layer.bias f4 [19]
000000 4d 5d 0c bd b7 5d f2 38 7c f0 b0 bc 71 83 ab bc
       -0.034268666 0.00011556915 -0.021599047 -0.0209367
000010 fe 81 9b 3c 42 c8 2b bd 05 73 37 bd 11 e6 95 3c
       0.018982884 -0.041939028 -0.044787426 0.01829818
000020 6b af c4 bc 1c 7c da 3d 59 72 ab 3c d4 7a a9 3d
       -0.024009427 0.10668203 0.020928549 0.08275381
000030 3d a8 4a 3d 64 39 a9 3c 9a 3f c2 bc 4e d8 07 be
       0.04947685 0.020657249 -0.023711968 -0.13266107
000040 cb 8d 18 be 9f db 92 3c fb 8c 68 bd
       -0.1489784 0.01792699 -0.056775074

value_layer.weight f4 [1, 128]
000000 b1 f9 91 bd 32 6e 30 3c a3 28 80 3d 05 8d cb bc
       -0.07127703 0.01076846 0.06257751 -0.024847517
000010 69 2e cf bd 16 dd 5e 3d 54 6a fa 3c 09 85 97 bb
       -0.10116274 0.054410063 0.03056828 -0.0046240133
000020 af a2 2a bc f2 b8 00 bd ae 34 c3 bd 4b e4 f9 bc
       -0.010414763 -0.031426378 -0.09531532 -0.030504366
000030 4d e2 23 3c 09 15 45 3d 73 7f 93 39 2d 76 85 bd
       0.010002685 0.048115764 0.00028132982 -0.06516681
000040 ba 49 a8 3c dd e8 db bd 39 8e b7 3d b5 4e 8c 3d
       0.020542968 -0.107377745 0.08962674 0.0685095
000050 d8 74 a0 bd 66 e0 2c ba 9e 57 45 3c 3b 8f 57 3d
       -0.07834786 -0.0006594717 0.012044815 0.05262683
000060 a4 ff 65 bd 99 8d c3 3d d1 35 b2 bd 53 49 bb bd
       -0.056152 0.09548492 -0.08701671 -0.09144845
000070 59 71 cf bc e0 01 97 bc 49 7d f7 3d 71 ff ce 3d
       -0.025322603 -0.018433511 0.12084443 0.10107315
000080 6c 94 58 bd 3d 2b 65 3c 8d 6f a3 3d 3b a8 47 3d
       -0.05287592 0.01398736 0.07980261 0.04874442
000090 07 0d 71 bd 21 68 96 bd 29 ce ac bd 52 98 12 be
       -0.058850314 -0.0734408 -0.084377594 -0.14315918
0000a0 f1 72 c4 bd da 12 b8 3d 99 89 35 3b b0 4a c8 b8
       -0.09592236 0.08987971 0.0027700423 -9.550655e-05
0000b0 9c 8f 90 3d 48 2f bc bd a6 1f c6 3d 4c de ab 3b
       0.07058641 -0.09188706 0.09674005 0.0052450057
0000c0 8c f6 d9 bd fc 1a 53 3c c2 08 30 3d 08 8f 79 3b
       -0.10642728 0.012884852 0.042977102 0.0038079638
0000d0 88 48 21 be f0 4e 1b bd c6 16 20 bd 93 c8 a1 bd
       -0.15750325 -0.037917078 -0.03908422 -0.078995846
0000e0 5f 82 9d bd ce 16 b6 bc c1 5d 23 3d c0 b6 3e bc
       -0.07690882 -0.022227671 0.039884333 -0.011640251
0000f0 c3 30 c5 3d cb 6e da 3d a3 1f 0b be bd 15 a6 bd
       0.09628441 0.10665663 -0.13586287 -0.08109615
000100 ce 3b 44 bd b2 31 9b 3d 24 51 6c 3d 21 38 b5 bd
       -0.047908597 0.07577838 0.05769457 -0.08848596
000110 f1 94 d2 bd 3d 29 86 3d 00 ab d8 bd e3 e7 c9 3e
       -0.102823146 0.06550834 -0.10579491 0.39434728
000120 8e 42 9a bc 15 27 0e 3d a5 d1 20 3d 83 4e bc bd
       -0.018830564 0.03470524 0.039262433 -0.091946624
000130 d7 65 f6 bc 38 81 44 3c a6 1b 2f bd c5 dd 67 bd
       -0.030077858 0.011993699 -0.042750977 -0.05660798
000140 63 a7 7b bd 11 5b 83 bd 1b 4a 3a bc 78 ac 41 bd
       -0.06143893 -0.06413854 -0.011370207 -0.04728362
000150 9a 4b 2c 3d fa 62 5d 3d df c7 37 bd 88 e7 50 3c
       0.042064287 0.05404947 -0.044868346 0.012750514
000160 0b b3 f3 bc 24 ee 82 bd 8b 75 02 3e 97 ef 40 bd
       -0.02974846 -0.06393078 0.12740152 -0.04710349
000170 42 17 ed 3c dc 93 98 bd 85 92 a4 3d 30 52 c5 bd
       0.028941754 -0.07450077 0.08035759 -0.09634817
000180 4f 3a 9e bc 5a 02 a9 3d 98 55 10 bd 00 83 8a 3d
       -0.019314913 0.08252402 -0.03523788 0.067632675
000190 7b 5f 4d 3c 2a ee e2 bd a9 eb 63 bd e9 78 58 bd
       0.012534971 -0.110805824 -0.055644665 -0.052849684
0001a0 27 b2 01 be 9e d6 ab bd 99 ed 10 3c c1 0f c5 3d
       -0.12665616 -0.08390544 0.00884571 0.096221454
0001b0 54 0b ea bc b0 8e 90 3d a7 b6 11 3d 27 8c 9b 3d
       -0.028569855 0.070584655 0.03557458 0.07595091
0001c0 bd e8 19 3b be 30 ac 3d 92 46 31 3d ae 1e f0 bd
       0.002348467 0.08407734 0.04328019 -0.11724602
0001d0 fe 3d b1 bd 4b 94 58 3d f7 f1 af 3d f7 8b f8 bd
       -0.08654402 0.0528758 0.08591073 -0.12136071
0001e0 8b 5e b4 bd 1e 2a 5b 3d 46 cb 64 bd c9 92 60 3d
       -0.08807095 0.053506963 -0.05585792 0.054827485
0001f0 76 32 55 3d fd a1 bb 3d d5 23 00 be 99 33 54 3d
       0.052050076 0.09161756 -0.12513669 0.05180702

log_std_parameter f4 [19]
000000 26 00 f3 bf c4 7e f0 bf ee c0 04 c0 78 7c 9f bf
       -1.898442 -1.8788686 -2.0742755 -1.245986
000010 c4 99 a2 bf 28 38 e9 be 25 80 fd be e9 7c cf bf
       -1.2703176 -0.45550656 -0.4951183 -1.6209995
000020 3e c9 cf bf ad cf 06 bf c1 ef e5 be 1c 29 8f bf
       -1.6233289 -0.5266064 -0.4490948 -1.118442
000030 6c fa 83 bf 8a 2b d5 be c7 90 f5 be 49 24 ee be
       -1.0310798 -0.4163478 -0.4796202 -0.46512058
000040 c0 ec dd be 54 25 f6 be c5 03 e6 be
       -0.43344688 -0.48075354 -0.4492475
