humanoidprac/humanoidprac/scripts/skrl/logs/skrl/h1_flat/joint_experiment_ver3/2025-09-18_04-56-36_ppo_torch/checkpoints/agent_14400.pt (torch, 549970 bytes, 40 tensors)

log_std_parameter f4 [19]
000000 60 d5 3e c0 08 ad 38 c0 28 da 47 c0 b5 86 df bf
       -2.9817734 -2.885561 -3.1226902 -1.7462984
000010 e5 21 e2 bf cf ac 53 bf d8 28 52 bf 0a d7 0a c0
       -1.7666594 -0.8268556 -0.8209357 -2.169375
000020 3b 8f 10 c0 11 e2 2f bf 99 f6 41 bf 65 06 c0 bf
       -2.258742 -0.68704325 -0.75766903 -1.5001951
000030 27 f3 be bf 7b 3f 3e bf 51 f1 2e bf 64 fa 3e bf
       -1.4917954 -0.74315614 -0.6833697 -0.74600816
000040 bc ea 48 bf 33 91 40 bf 57 89 3e bf
       -0.78483176 -0.75221556 -0.74428314

net_container.0.weight f4 [128, 69]
000000 84 ff 1f bd 34 a3 29 be cc d2 d9 bd 75 d6 b1 bd
       -0.039062038 -0.16566163 -0.106359094 -0.086834826
000010 21 05 87 3a 5f 20 e5 bd 18 27 1c be 7c c0 fa be
       0.0010301211 -0.11187815 -0.15249288 -0.4897498
000020 d4 14 46 3d 90 15 65 bd 87 da 7e bd 16 a9 9f 3e
       0.048359707 -0.055928767 -0.062220123 0.3118369
000030 47 92 17 be fa 58 4c be 99 4f 01 bf d4 94 d8 bd
       -0.14801894 -0.19955817 -0.5051208 -0.10575262
000040 50 dd 00 3f 25 11 49 be 38 2a 6e 3d 32 e7 b9 be
       0.50337696 -0.19635446 0.05814573 -0.363092
000050 24 68 9a bd 61 91 e6 be fe 97 b4 3d 09 0b 91 be
       -0.075393945 -0.4503279 0.08818053 -0.28328732
000060 67 06 1f be 82 ed 36 bc 43 38 d9 be fa fb 7b 3e
       -0.15529786 -0.011165025 -0.42425737 0.2460784
000070 a3 3d 36 3e 33 f7 24 be da 76 3a be 2a 87 84 bd
       0.1779695 -0.16109924 -0.18209401 -0.06471093
000080 53 fe d5 3c 11 0a 9c bc af 00 db bd 90 42 1c 3d
       0.026122248 -0.019047769 -0.1069349 0.038149416
000090 fb a4 b7 bb 09 89 29 bd e9 e4 25 bd cc c8 4b 3d
       -0.005604384 -0.041390453 -0.04050151 0.04975204
0000a0 94 60 32 3d 1a 04 1c 3e 9c 73 ac 3d 4c 4f e1 3c
       0.043549135 0.1523594 0.08420488 0.027503632
0000b0 06 ed 1d 3d d8 9d c7 3d 3d 26 cb bd f9 0d 9e 3d
       0.03855612 0.09746903 -0.09919403 0.07717509
0000c0 96 ae 87 bd 05 30 6f 3d 87 57 d1 bd 01 c3 77 bd
       -0.066250965 0.058395404 -0.10221773 -0.060488705
0000d0 52 67 17 3e c0 ad a4 bd 27 66 10 be c4 8a 39 be
       0.14785507 -0.08040953 -0.14101468 -0.18119341
0000e0 4a 7b b8 bd af 88 1d 3e 31 c7 2f 3e b8 50 38 3e
       -0.090078905 0.15384172 0.17165829 0.17999542
0000f0 c9 d3 74 bc 83 fa 0a bd 1c f2 a1 3b f3 e0 aa bd
       -0.014943072 -0.033930313 0.0049421918 -0.08343687
000100 36 ea 4d bd 38 c6 c8 bd 1a a1 08 3d a5 12 d6 bd
       -0.05027219 -0.09803432 0.033356763 -0.10452775
000110 e9 6c a9 3d 0b c3 60 3e 97 90 c8 3c 1b 2a 1b 3f
       0.08272726 0.21949403 0.024483008 0.6061112
000120 fb 55 e9 bd 3b 37 75 bd 14 52 97 3d 18 12 3e 3e
       -0.113933526 -0.059867125 0.07388702 0.1856159
000130 05 d0 5c bd 11 0d 99 3d 94 47 25 be 0b 83 28 bd
       -0.05390932 0.07473195 -0.16140586 -0.041140597
000140 75 10 4b 3e 9e ab 88 bd d8 f1 42 be 8f d6 b1 3d
       0.19830497 -0.066733584 -0.19037569 0.08683502
000150 2d 0f fa 3d 1c 77 2f 3e 03 16 a4 bd c8 15 65 bc
       0.12209926 0.1713528 -0.08012011 -0.013982244
000160 23 3c 83 3e b1 51 ad bd 56 29 8a 3d ba 4f 93 3c
       0.25631818 -0.08462847 0.067461655 0.017982353
000170 42 21 ea bd 70 ed 5a bc e1 78 82 3e f4 62 4a be
       -0.11432125 -0.013362274 0.25482848 -0.1976431
000180 e9 1e a0 bd 2f 78 a5 3e b5 a8 18 3e 66 9d 0a be
       -0.07818396 0.32318255 0.14908107 -0.13536605
000190 22 94 45 3d 5d 02 67 3d 52 91 5c bc c9 3c 2f bd
       0.048236974 0.05639874 -0.013462381 -0.04278258
0001a0 15 3c bf bc ee a5 c9 bc c2 ee 30 bb ca fe 68 3d
       -0.023344079 -0.024615254 -0.002699778 0.05688361
0001b0 7c 48 a8 bb 1c 19 b3 3d 0b e0 38 bd 3d 9f 66 bd
       -0.005135594 0.087450236 -0.04513554 -0.056304205
0001c0 88 d7 c6 3d 65 f3 d2 3d a8 0b 72 3d 3a c5 1e bb
       0.09709078 0.1030033 0.059093148 -0.0024226443
0001d0 f0 d0 01 3c e3 64 d2 bd b1 67 36 bd 62 ab 38 3e
       0.00792335 -0.10273149 -0.04453248 0.18034127
0001e0 76 14 fd bb 48 53 a7 bd 02 ac ce 3d 5e e0 e4 bd
       -0.0077233864 -0.081701815 0.10091402 -0.11175607
0001f0 98 95 2e be 6d 39 23 be c4 03 ab 3d 19 d0 63 bd
       -0.17049253 -0.15939875 0.083503276 -0.05561838
000200 d9 f5 1b bd 7e 6d cf bd 60 90 b8 3c f3 2d fe bc
       -0.038076255 -0.10128306 0.02252978 -0.03102777
000210 76 a4 d7 bd 71 66 d8 3c e2 6d 09 be 19 57 38 be
       -0.10529415 0.026416035 -0.13420823 -0.18001975
000220 bc 2f 66 be b7 b1 1c 3d 09 dc dd be 1b 52 1f 3e
       -0.22479147 0.03825542 -0.43331936 0.15558665
000230 48 49 21 be bc ee 2a 3d d0 ef 2f be c2 7f 4c bd
       -0.15750611 0.04173158 -0.17181325 -0.049926527
000240 b3 c3 4d bf 5e d0 69 3f 1b e5 29 3e 33 2d a0 3e
       -0.8037674 0.9133357 0.16591303 0.31284484
000250 7d 0e 2a 3d e9 14 be 3d fd 40 c6 be 8f 02 15 be
       0.041517723 0.09281332 -0.38721457 -0.14551757
000260 c6 70 93 bd fb 33 32 be 4a 92 1b be fe 13 24 3c
       -0.07199244 -0.17402641 -0.15192524 0.010014532
000270 e5 24 fa 3d 26 16 69 bf f7 66 41 3e 8f a3 59 3d
       0.12214068 -0.9104942 0.18886934 0.053134497
000280 8d 39 d6 3d 8c 5b 80 bd d0 a4 99 3d 1b 3f 06 3d
       0.10460196 -0.06267461 0.075021386 0.032775026
000290 01 65 11 3d 7e 00 4e 3e 93 5c 4d be df 40 53 bd
       0.035496715 0.20117375 -0.20054846 -0.051575538
0002a0 af ce ca 3d 5f d2 ff 3b 51 69 54 bc e9 9f 33 3c
       0.09902703 0.0078070606 -0.0129645625 0.0109634185
0002b0 95 1c 7f 3d fe b0 35 bd cc cf 82 3c 6c a2 48 3d
       0.062283117 -0.044358246 0.015968226 0.048983023
0002c0 db 4e 86 bd 86 3f 8a 3c e5 df e7 bc 87 d3 58 bd
       -0.06558009 0.016875993 -0.028305003 -0.052936103
0002d0 d5 16 a6 3b 9b 09 d7 bc eb d5 a8 bb 80 30 05 3d
       0.0050686398 -0.026249697 -0.005152454 0.032516956
0002e0 25 55 ff bc 9a 71 a5 bc a3 24 4a bc 25 6c 57 bb
       -0.03116853 -0.020195771 -0.012337836 -0.0032870856
0002f0 99 73 e9 bd f6 ec 44 bd 99 48 a6 bd 1c b3 d2 3b
       -0.11399002 -0.048077546 -0.08119316 0.006430043
000300 53 0e 83 3d 7d da a5 3d ac f0 34 bc fd 1a 95 bd
       0.063992165 0.08098314 -0.011043709 -0.07280538
000310 ec b6 83 bd 6d ef 8f 3d b1 45 9f bb 46 0f 32 be
       -0.06431374 0.07028089 -0.004860603 -0.17388639
000320 4e dc 0a 3c 9b 94 d9 bc 00 f5 2c bd 00 08 be 3c
       0.008475376 -0.026560118 -0.042225838 0.023197174
000330 86 a4 a4 bb b3 9a 17 bc 7e 90 a1 bc 51 b4 60 3e
       -0.0050244955 -0.009253192 -0.01972222 0.21943785
000340 96 1a ab b9 7a aa 66 bd cb 3b 9a bd 32 1b f6 bb
       -0.0003263547 -0.056314923 -0.07530936 -0.007510566
000350 a4 71 fa bc b4 6d a0 3f af 2d 52 bf 85 f4 f5 3a
       -0.030571766 1.2533479 -0.8210096 0.0018764889
000360 9d 18 a6 3e 6c e5 ee 3d 01 e4 da bd 6c 4f e1 3e
       0.32440653 0.116648525 -0.106880195 0.44005907
000370 01 e9 16 bc 4d be eb 3e 58 3b 45 3f 10 4d 46 3d
       -0.009210826 0.46043625 0.77043676 0.048413336
000380 7d c2 57 3d 3d af 20 3e 39 99 33 3f 25 3e 95 3e
       0.052675713 0.15691848 0.70155674 0.29148975
000390 8a 99 68 be 3e e5 c1 bd 98 0c 03 3e 5c 40 bb 3e
       -0.2271482 -0.094675526 0.12797773 0.3657254
0003a0 ea 7b 5c 3c 0f 01 12 bd 84 da 8d bd d0 0d 92 be
       0.013457278 -0.03564554 -0.06926444 -0.28526163
0003b0 48 4e 65 3d 81 46 ee be 13 9d 1f 3c bc 95 f9 bc
       0.055982858 -0.46538165 0.009742039 -0.030466907
0003c0 6c 5f 58 bd af cd d2 3c 2c cb 19 bd a5 05 85 3c
       -0.052825376 0.025732843 -0.037547275 0.016238043
0003d0 4b a7 80 3d 1a 6f ab bc 82 00 f8 bb 16 ed bc bb
       0.062819086 -0.020927 -0.00756842 -0.0057655675
0003e0 a7 66 7d bd 02 6f e7 3c 6d d8 bf 3c 5c ff 80 3d
       -0.061865475 0.028251175 0.02341863 0.06298706
0003f0 44 00 b5 3c b8 89 73 3d 87 48 ff 3c 6c 37 32 3b
       0.022094853 0.05945751 0.031162513 0.0027193679

net_container.0.bias f4 [128]
000000 03 24 04 3e 4b 47 0e be 80 6b c2 bc 89 32 37 3c
       0.12904362 -0.13894384 -0.0237329 0.011181482
000010 3c fe ff 3d ec 35 71 3d 6b c1 a7 3d c1 f4 a7 3d
       0.12499663 0.058889315 0.081911884 0.0820098
000020 59 2c 36 3e 73 01 05 3e 64 25 f4 bb c6 3b 63 bc
       0.17790355 0.12988834 -0.0074507464 -0.013869232
000030 9d 5a 57 3c 74 e0 3b 3c 85 05 34 3e ce e9 39 be
       0.0131441625 0.011467088 0.1758023 -0.18155596
000040 18 c0 1c 3e 65 77 08 be e5 fb 3c 3e 45 88 64 3d
       0.15307653 -0.13326795 0.18455465 0.05579402
000050 4d f2 cd 3d 3e 85 87 3d 90 cd fb bc 83 cc 3d 3e
       0.10055981 0.06617211 -0.030737668 0.18535046
000060 fb 0e c7 3d cb 3e 9c 3c 69 c3 97 bd 3d 71 e1 bd
       0.09719654 0.01907291 -0.074103184 -0.110079266
000070 a5 39 31 bd 42 98 53 bd fe bd 30 bc c1 88 31 3c
       -0.043267865 -0.051658876 -0.010787485 0.010835827
000080 46 6d 35 3e ac 94 18 bb 8d 5f fd bb 7e 54 2c be
       0.17717466 -0.0023281975 -0.007732338 -0.16829106
000090 16 58 72 3d 94 96 ee 3c 08 a7 a2 3d 5f e3 2e 3d
       0.059166037 0.029124536 0.07942015 0.042697307
0000a0 26 67 df bc 3d 7f 20 3e 5d 7e b6 bd 89 47 bc bd
       -0.027270865 0.15673538 -0.08910821 -0.09193332
0000b0 00 f7 fc 3d a5 f9 e2 bd 63 46 0b 3d 6b a3 d3 bc
       0.12351799 -0.11082772 0.034002673 -0.02583476
0000c0 5a fc 66 3e ea bc 8d 3d 1b 83 61 bd f0 1a 3d 3d
       0.22557202 0.06920798 -0.055056673 0.046168268
0000d0 b9 57 fc bd 92 e8 1d bd ad c8 b2 bc 45 f6 54 bc
       -0.12321419 -0.038551874 -0.021824205 -0.012998168
0000e0 9a 49 38 3e 94 26 6f 3d 02 59 ec 3d 59 ce d1 3d
       0.17996827 0.0583864 0.115404144 0.10244436
0000f0 60 4e 5f bd fd 69 54 bb c5 b0 0e 3e fa f1 e9 3d
       -0.054518104 -0.0032411807 0.1393462 0.114231065
000100 92 cc a1 3c c7 aa 04 3e 27 98 92 3d e1 f0 4d 3d
       0.019750867 0.12955771 0.07157927 0.05027855
000110 c5 15 02 3e 11 90 66 bc 54 f4 aa 3d 39 86 1b be
       0.12703617 -0.014072434 0.08347383 -0.1518792
000120 c6 46 02 3e c2 c0 01 3e 92 eb 28 3d 09 a6 80 3d
       0.1272231 0.12671188 0.041240282 0.06281669
000130 7d fb 67 3e 0f 3d 32 3d 8f 55 95 3e 81 8b 73 3d
       0.22654529 0.04351526 0.2916684 0.059459213
000140 89 ce 04 3d 0e 09 26 bd e0 5a 61 3e dc 11 b1 3d
       0.03242353 -0.04053598 0.22007322 0.086459845
000150 46 86 c1 3c 20 17 79 3d 6b 41 0f 3e 8b 31 59 3e
       0.023623597 0.06081307 0.13989799 0.21210305
000160 41 07 77 bc 34 c3 1c 3e 8d 3a da bd 99 0f 13 3d
       -0.015077413 0.15308839 -0.10655699 0.035903547
000170 34 c5 c2 3d ce db cf bc c4 5f 37 3d 76 a0 a6 3c
       0.0951027 -0.025373366 0.044769064 0.020340186
000180 89 c0 ed 3c ea bf 0b be 2a c4 b1 bd 93 6a 35 bb
       0.029022472 -0.13647428 -0.086799935 -0.0027681931
000190 19 7f 01 3e 2c 03 40 3d bd b5 80 bd f8 d2 b5 3c
       0.1264614 0.046878025 -0.06284664 0.022195324
0001a0 97 e5 9d 3b 49 bc 04 3d 2d 4c 92 3d e1 8f a7 bd
       0.004818629 0.032406125 0.071434356 -0.081817396
0001b0 cb 26 15 ba a0 9e ae bd b9 0c 6f bd e7 e4 c1 bc
       -0.00056896795 -0.08526349 -0.058361743 -0.02366872
0001c0 f8 ba 33 3d 5b 03 cd bd 99 0e 20 3e 41 b2 2a 3e
       0.04387948 -0.10010406 0.15630569 0.16669561
0001d0 b8 d2 fc bd c7 d8 db 3d f3 0f 54 3d f0 75 35 bd
       -0.12344879 0.10734706 0.051773023 -0.044301927
0001e0 f6 4f eb 3c 39 c5 00 be a9 56 0a 3e 25 8d d5 bd
       0.028724652 -0.12575234 0.1350962 -0.10427312
0001f0 21 33 13 3c 00 eb 27 be 1a 9f 97 bd 8f 77 af 3c
       0.008984358 -0.16398239 -0.07403393 0.021419315

net_container.2.weight f4 [128, 128]
000000 0e a4 d8 b9 43 61 49 bd e8 e3 ef 3d d7 96 95 bc
       -0.0004132096 -0.04916502 0.117133915 -0.018260403
000010 62 9f 16 3d 12 29 c9 bc 7b b9 7f bc d4 8c ac bd
       0.036773093 -0.024555717 -0.015608187 -0.08425298
000020 e9 80 26 bd ca 26 34 ba ac 17 38 bd 54 93 2d be
       -0.040650282 -0.0006872235 -0.04494445 -0.16950732
000030 c5 18 cd 3d 3b 62 70 bd 3b e4 26 3d 2f 12 c5 3d
       0.1001449 -0.05868743 0.040745 0.09622609
000040 68 a2 dd bd 77 65 80 3d c1 c8 67 3d 18 94 b7 3d
       -0.10821992 0.06269353 0.05658794 0.089637935
000050 24 68 b7 bd 9f e9 cf 3d 56 e1 83 3c 2f 6d 4c bd
       -0.0895541 0.101519816 0.01609866 -0.049908813
000060 42 7d 14 3c aa 68 0c be 53 da c9 bd da 32 2c 3d
       0.009063067 -0.13711801 -0.09856095 0.042040683
000070 5c 4b a5 bd 35 71 a9 bd 9e b8 13 bd 38 32 55 3d
       -0.08071014 -0.08273546 -0.036064737 0.052049845
000080 c6 5a cc bd c1 a1 28 be 00 9f a8 bd 12 0b 80 3d
       -0.09978251 -0.16467954 -0.08233452 0.062521115
000090 a0 19 ad bd 99 fe cf 3c 42 63 50 3d 56 79 81 3d
       -0.08452153 0.025389956 0.05087591 0.06321971
0000a0 11 5c 42 3d c1 0e e8 3d a0 cd 27 be 02 22 14 be
       0.047451083 0.11330939 -0.16387033 -0.14466098
0000b0 bb b5 7a bc 36 bc bb bc 04 81 fe bd c7 ad 58 3d
       -0.015302117 -0.022916894 -0.124269515 0.052900102
0000c0 2e 31 8f 3c 2d 26 10 3d 86 6c cb bb 44 af 35 3d
       0.017479505 0.035192657 -0.0062080054 0.0443566
0000d0 2c 19 a9 bc 58 52 e2 bd 9e 35 60 3d b1 ed 8a 3d
       -0.020641886 -0.11050862 0.054738633 0.06783617
0000e0 f0 0d 14 be 0c 75 51 bd a4 2c ea 3c 35 c2 9e 3d
       -0.14458442 -0.051137015 0.02858574 0.07751886
0000f0 2f fb 27 3e 2d 1a b8 3a 6b ef b4 3d e1 d9 ff 3d
       0.16404413 0.0014045887 0.08834728 0.12492729
000100 03 98 2c bc e2 09 05 be 0e ad fb bc 70 f4 1e be
       -0.010534289 -0.12992051 -0.030722167 -0.15522933
000110 15 4f bc bc 89 af 34 3c 92 74 3c 3d 53 87 a2 3d
       -0.022986928 0.011028179 0.046009608 0.07935967
000120 7b 72 ac 3d 33 d2 4b 3a fe af 08 bd 56 9a ae 3b
       0.08420273 0.00077751576 -0.033370964 0.005328457
000130 a0 1d d6 bd 1b f0 07 3d 26 71 a9 3d 48 f0 0e 3d
       -0.10454869 0.033187967 0.082735345 0.03489712
000140 45 04 fa 3d 4a 73 3b 3d 0f 3d 62 bd dc 61 06 3e
       0.122078456 0.045764245 -0.05523401 0.13123268
000150 44 a5 93 bd db fb 74 3d cf b6 b4 bd 1c ed 78 bd
       -0.07209256 0.0598105 -0.088239305 -0.060773
000160 aa e5 60 3d 7a c7 3c bd ed 1e 24 be 59 c5 ac bd
       0.054906525 -0.046088673 -0.16027422 -0.084360786
000170 14 28 9a bd 11 c8 9b 3d ee 36 19 be 31 2f cb 3c
       -0.075271755 0.07606519 -0.1496236 0.024802776
000180 cc e4 cc bb b7 56 d7 3d 59 8b 12 bd a2 85 d4 3c
       -0.0062528607 0.105145864 -0.035777424 0.025942627
000190 f1 bc fc bb ce 57 36 3c c6 36 eb bd f9 53 a9 bd
       -0.0077129533 0.011129333 -0.114850566 -0.0826797
0001a0 55 7f 96 3d 0d 84 23 be 69 3d 55 bd 61 5a 98 bc
       0.073485054 -0.15968342 -0.05206052 -0.018597784
0001b0 ba c5 ae bc 76 d2 ec 3d cf 58 1c bc e1 35 cf bd
       -0.021334518 0.1156358 -0.009542658 -0.101176985
0001c0 c8 bc 74 3d c7 92 2f 3b f2 5b a8 bd b4 37 9a bd
       0.05975035 0.0026790367 -0.08220662 -0.07530156
0001d0 dd 5c bc bd 7a 1d c2 bd c0 3e f3 3a 14 0e 25 3d
       -0.091974 -0.094782785 0.001855813 0.04029663
0001e0 bf 4c 09 be 84 48 28 bd 4a 0a 29 bd be 10 02 3d
       -0.13408183 -0.04108478 -0.041269578 0.031754248
0001f0 95 b8 84 3d 6f ab 2e 3d 5b 53 2e bd ae 16 a8 bd
       0.06480519 0.04264396 -0.042559963 -0.08207451
000200 3b be d3 3c b3 44 8a 3d 70 4d 84 be 0f 11 09 be
       0.025847545 0.067513846 -0.2584033 -0.13385414
000210 e8 7a 9b 3d 48 63 23 bd 1d 58 45 3d 97 49 dd 3d
       0.07591802 -0.039889604 0.048179734 0.10805052
000220 a3 ed 5d 3d 55 dc 93 3c 56 71 c2 3c 43 f8 31 3e
       0.054181706 0.018049398 0.023735683 0.1737986
000230 e5 7b 42 be 2c a3 38 3e 73 f2 ab 3b 74 12 66 bd
       -0.18992575 0.18030995 0.005247408 -0.056169942
000240 2c 8e a1 3d 5a 33 a0 3d 21 ff ef 3d 86 6b fe bd
       0.07888445 0.078222945 0.11718584 -0.12422852
000250 25 f0 e2 3d 92 2f 24 bd 20 e4 81 3d fd 07 bb bc
       0.1108096 -0.04008443 0.063423395 -0.022830958
000260 ac 94 95 be 8a 81 10 3e 6d dd 1e bd cb a3 ba 3d
       -0.2921499 0.14111915 -0.038785387 0.09113272
000270 55 c5 9a 3c 3e a3 7b 3d ba ef 33 3d a2 e6 04 bd
       0.018892923 0.061434977 0.043929793 -0.03244651
000280 46 f0 0c 3e 6a 55 82 bc 17 0b 86 3c 95 76 a7 bd
       0.13763532 -0.01590987 0.01636271 -0.081769146
000290 11 88 12 3d 0a dc 08 3d c3 be 06 be b2 c4 a5 bd
       0.035774294 0.03341297 -0.13158707 -0.08094157
0002a0 c8 5f d7 3d 78 30 52 bc 60 c1 da 3c 7c fa c7 3c
       0.10516316 -0.012828939 0.026703537 0.024411432
0002b0 ae b6 13 bb 3c e1 6d 3b 00 1e bd 3c 3f 7b 7b bd
       -0.0022539306 0.003629758 0.023085594 -0.061396834
0002c0 28 ce d9 3c 55 6a 84 bd d6 fd f3 3d a3 c5 46 be
       0.02658756 -0.06465594 0.1191365 -0.1941133
0002d0 7f 84 23 bd 19 81 e9 bd f1 41 00 3e de c9 e0 bc
       -0.03992128 -0.114015765 0.12525155 -0.027440008
0002e0 a6 73 da 3d 62 a4 44 bd 58 6a d6 bd 75 e6 90 3d
       0.106665894 -0.04800833 -0.10469502 0.07075206
0002f0 44 8c 1c 3c 2a 0b b3 bc 51 66 38 3d 0b 18 67 3b
       0.009554926 -0.02185591 0.04501945 0.0035262133
000300 f6 b8 3d bd b4 99 01 bd c6 ab cb bd d3 8b 9b 3d
       -0.04631897 -0.031640723 -0.099448726 0.07595029
000310 d5 18 07 bb 6d ce 07 bd 90 19 6c 3d 33 8f 67 3d
       -0.0020614166 -0.033155847 0.057641566 0.05653305
000320 7d 67 8f bd 00 49 c5 3d 37 17 00 be 79 3f 47 bc
       -0.07002161 0.09633064 -0.12508856 -0.012161129
000330 c2 d2 5e 3d 48 c0 14 bc 78 04 1b 3e e5 a3 9c bd
       0.054400213 -0.009079047 0.15138423 -0.07648448
000340 3b a2 7d bd aa 97 3d 3d 83 b3 41 bd d3 5e 57 bd
       -0.061922293 0.046287216 -0.047290336 -0.052580666
000350 8f a8 38 bd a7 be 61 3d ee 3e 21 3b 4d 8b 08 3d
       -0.045082625 0.05511346 0.002460416 0.033335973
000360 b4 10 b8 3c 98 9a 40 3d f1 8e 9f bd 96 81 fa bc
       0.022468902 0.047022432 -0.07790936 -0.03057937
000370 24 60 48 3d ba 0c e3 bc 86 87 bc bc c8 cd a6 bb
       0.04891981 -0.02771603 -0.023013841 -0.005090449
000380 82 79 05 bd 7a 4e 8b 3d 89 d3 d4 3b 21 d0 22 bd
       -0.032586582 0.068020776 0.0064949435 -0.03974927
000390 75 8e ee bd 58 12 3f be ac 15 bd 3c bb 2d e4 3d
       -0.11648265 -0.18659341 0.023081623 0.11141535
0003a0 2f 6a d1 bd 93 8a 3c bd b9 bb 77 bd d5 63 3b bd
       -0.10225331 -0.046030592 -0.06048176 -0.045749504
0003b0 a0 4a a9 3d 74 e8 38 bd f0 e8 49 3c 54 25 37 bd
       0.08266187 -0.04514356 0.012323603 -0.044713333
0003c0 db 27 9e bc 15 40 1c 3e 29 09 45 3d 0e 77 07 bd
       -0.019306114 0.1525882 0.04810444 -0.033072524
0003d0 a9 d5 df bc d9 30 07 3d de da b3 3d 31 8b be 3d
       -0.02732356 0.03300557 0.0878198 0.093038924
0003e0 b4 35 82 bc fd d1 76 bc 13 7f 51 bd a1 fb 1a be
       -0.015894748 -0.015064714 -0.051146578 -0.15135051
0003f0 d5 57 8d 3c 62 6f ef 3a e1 ca 62 3d da 87 66 3d
       0.017253796 0.0018267448 0.05536926 0.056281902

net_container.2.bias f4 [128]
000000 67 3e 3c 3d 03 cc 39 be 8f 5e 33 be 78 8d a7 bb
       0.04595795 -0.1814423 -0.1751654 -0.0051133
000010 22 34 c0 bd 2c 61 86 3c bd bf 77 3d 32 06 0e 3e
       -0.093849435 0.016403757 0.06048559 0.13869551
000020 38 ea a5 3c db 65 e0 bd 0d f1 0c 3e 75 d0 51 be
       0.020253286 -0.109569274 0.13763829 -0.20489676
000030 52 66 86 3c 37 c6 82 bd bc c2 26 3d dd c4 41 bc
       0.016406212 -0.06385463 0.040713057 -0.011826721
000040 fd e5 d7 bd 46 3d 83 3c fd 46 f0 ba e6 54 78 3c
       -0.10541914 0.016020428 -0.0018331703 0.01515696
000050 84 d1 57 3e 4f 76 1f bc 61 27 81 bc 4a e6 e7 3d
       0.21076018 -0.009732797 -0.015765848 0.11323221
000060 ed 24 9b ba 10 4e c5 3c 99 5d df 3c ce ed 10 be
       -0.0011836566 0.024085075 0.02726631 -0.14153215
000070 09 b8 09 3d 0e 65 c7 bd 13 44 d3 bd ea b9 8c 3d
       0.033622775 -0.097360715 -0.103157185 0.06871398
000080 24 3b f8 bd 45 6e b1 bd af 1f eb 3c 86 fe 08 be
       -0.12120655 -0.0866361 0.028701631 -0.13378343
000090 1a 17 55 be e4 60 59 bd fb 95 47 bc a6 35 c3 bd
       -0.20809594 -0.053070918 -0.012181754 -0.09531717
0000a0 7d e6 d3 bd 52 61 5e bd b1 9f ed bd fb 95 c7 bc
       -0.103466965 -0.05429203 -0.11602724 -0.024363508
0000b0 9f a9 af ba fe 3e 89 3d 45 53 37 3d 0d 10 fc 3c
       -0.0013401991 0.06701468 0.044757146 0.030769372
0000c0 fa 10 4b 3d 00 b8 c8 bd 36 c4 af 3d a2 ad 08 be
       0.049576737 -0.0980072 0.08582346 -0.13347486
0000d0 6f df e5 3b 28 9c 8f 3d 90 95 d9 bd 18 5a bf bc
       0.0070151608 0.07012206 -0.1062423 -0.02335839
0000e0 08 55 b2 3d 0c b0 1b be e5 53 9a 3d d9 4c 51 3e
       0.08707625 -0.15203875 0.07535533 0.20439471
0000f0 ec 99 49 be 08 7f f3 bd 37 e2 11 be 63 82 3c 3d
       -0.19687623 -0.11889464 -0.1424645 0.046022784
000100 cf 03 ce bb df 63 e9 bd 2e e7 8f 3d 9b f0 9b ba
       -0.006287075 -0.11396002 0.07026516 -0.0011897268
000110 89 8b c7 bd b5 a7 8f 3d 75 c5 9d bd 0b 6d 3c bd
       -0.09743411 0.070144095 -0.077036776 -0.04600243
000120 66 78 36 bd c1 91 c0 3c 5a 62 ab bd 22 f5 29 3d
       -0.044548415 0.023507 -0.083683684 0.041493542
000130 77 00 a2 3d fa be aa bd 60 52 80 bd 21 50 81 bc
       0.07910245 -0.08337207 -0.06265712 -0.015785279
000140 d7 41 92 bd d3 d0 a9 bd ae dc 07 3e 6c c0 97 bd
       -0.07141464 -0.08291783 0.13267776 -0.074097484
000150 11 9b f6 bd b7 ef 53 bd d0 cd 18 3d a1 37 31 3e
       -0.12041295 -0.05174228 0.037305653 0.17306377
000160 19 f0 84 3d 7e 69 e4 bd ab b7 47 be f2 6b bf 3d
       0.064911075 -0.111529335 -0.19503658 0.09346761
000170 ff fd 11 be ea 94 f4 bc dd d8 18 be d7 3e 38 3d
       -0.14257048 -0.029856164 -0.14926477 0.044981804
000180 95 80 1c bd d5 cf 92 3c 71 be 32 be 73 21 a3 3d
       -0.038208563 0.017921368 -0.1745546 0.07965364
000190 e0 b8 67 be d0 21 0e be b6 aa 52 bd b3 42 08 bd
       -0.22629118 -0.13880086 -0.051432334 -0.033266734
0001a0 b2 3a b7 bd 4c 43 0c be be 60 33 3d 34 4d a1 bd
       -0.08946742 -0.13697547 0.043793432 -0.078760535
0001b0 af 32 30 be e1 df 2a bd d8 03 c0 3d 34 05 aa bd
       -0.17206834 -0.041717414 0.09375733 -0.08301774
0001c0 1d 80 4d be ae 83 9b 3c 58 3a 07 3e 24 cf 75 bc
       -0.20068403 0.018983688 0.1320585 -0.015002999
0001d0 30 a8 24 3e c9 3c 7d bc 31 d2 c2 bd fe f8 36 bd
       0.16079783 -0.015456387 -0.09512747 -0.04467105
0001e0 83 4c 2a 3d 10 72 3c be 41 b2 01 3e f5 5e a8 bd
       0.041576874 -0.18402886 0.12665655 -0.082212366
0001f0 92 90 b7 3d 30 74 95 bc ff d7 ea bd 75 7a 14 be
       0.089631215 -0.01824388 -0.11466979 -0.14499839

net_container.4.weight f4 [128, 128]
000000 f3 7e 4e bd 13 6e 14 3e 05 fb 83 bd 3e d9 83 bc
       -0.050414037 0.14495115 -0.064443626 -0.0160948
000010 06 3f bc 3d 49 52 90 bc 7f e9 0f 3d 49 a0 13 3d
       0.09191708 -0.017617362 0.03513479 0.03604153
000020 07 72 b5 bb af db 63 bd f2 ee be bd 13 96 d3 3c
       -0.0055372748 -0.05562943 -0.09322919 0.025828397
000030 00 ce 83 3d a2 8b 7e 3c 0e 88 6c bb 03 a8 a5 bd
       0.06435776 0.015536221 -0.0036091837 -0.08088686
000040 19 ef bd bb 6a 5b 8b bd 56 ec 92 3c cf 29 14 3d
       -0.005796325 -0.06804545 0.01793496 0.036172684
000050 e9 14 21 be d6 0c a7 bd 7c f5 b4 3d 56 1b 51 bc
       -0.15730633 -0.08156745 0.08835885 -0.012762865
000060 70 3c 75 3b 74 83 75 3d a1 4d 24 bd 5c 32 6c bd
       0.0037420057 0.059939817 -0.040113095 -0.057665214
000070 0d 76 16 3c b8 5a fa 3c 3f 2b 02 3d 0b 89 3f 3d
       0.009183419 0.030560836 0.031779524 0.046761554
000080 75 39 85 3d 1d d1 a8 3c d2 f7 72 bd 71 4b df bd
       0.065051 0.020607525 -0.05931837 -0.10903061
000090 9c 88 c6 3b 8e 01 ef bc a1 2f 8a 3d 69 2c fe 3b
       0.0060587656 -0.029175546 0.06747366 0.007756759
0000a0 f4 b6 83 bd e5 19 2c 3d 9a 1d 21 3d d6 96 16 3d
       -0.0643138 0.042016882 0.03933487 0.036764942
0000b0 5b c7 09 bd a9 80 1d bd a0 1b 0b 3c fc 39 8a 3d
       -0.033637386 -0.038452778 0.008490473 0.06749341
0000c0 d6 41 03 be 82 66 99 bd ca f6 31 3d 58 3e 1f 3d
       -0.12818083 -0.07490255 0.043448247 0.038877815
0000d0 a2 cc 1e 3e 98 59 68 bd 0c 68 5b 3c a2 2b 19 bb
       0.15507749 -0.05672607 0.013391506 -0.0023371954
0000e0 05 a0 e7 3a 36 d7 09 3c 20 c6 19 bd 2d 1b 00 3d
       0.0017671591 0.008413127 -0.037542462 0.031275917
0000f0 54 d8 ea 3c a7 4b 37 3d a2 a1 2f 3d ac 35 7b bd
       0.028667606 0.044749882 0.042878754 -0.061330482
000100 09 ec 77 bc c0 3c 8a bc 8b a9 cc bd a8 a2 ab bd
       -0.015131959 -0.016874671 -0.09993275 -0.083806336
000110 a7 95 7b 3d 4f 55 fb 3d 9e 86 d6 bc d0 32 db 3c
       0.061422016 0.12272131 -0.026187237 0.026757628
000120 d0 4b fa 3d ed e1 87 bd ef a3 1f be da 54 0d be
       0.12221491 -0.06634889 -0.1558988 -0.138019
000130 e8 0a 83 3d 6b bb 20 3d ce 8d b8 3d 16 57 78 bc
       0.063985646 0.039241236 0.09011422 -0.015157482
000140 f9 65 80 3c 54 2d 58 3d e8 e3 a5 bc 16 40 c7 bc
       0.015673624 0.052777603 -0.020250276 -0.02432255
000150 0c ac 55 3d 92 79 60 3d 8a 12 de bc d3 a0 e6 3c
       0.05216603 0.05480344 -0.02710845 0.028152859
000160 e2 1c 72 3c 7c 72 2b bd 0d b8 41 3e e1 36 7a 3b
       0.014777394 -0.041857228 0.18917866 0.0038179683
000170 0f 7d 44 3e 51 2f 1c 3c 8a c5 60 bd c6 90 c6 bd
       0.19188331 0.0095327655 -0.054875888 -0.09695582
000180 d0 1d 52 3c 8e 47 d0 3d 81 e6 8c bc f0 10 40 3d
       0.012824491 0.10169898 -0.017199757 0.046891153
000190 e8 fa 1a 3e 89 9d c2 3d b9 97 56 3d f7 f1 0e 3d
       0.15134776 0.09502704 0.052390788 0.034898724
0001a0 b1 31 5f 3d f0 db f2 3d 93 8c 1b 3d 0d 55 4b 3d
       0.05449075 0.11858356 0.03797586 0.049641658
0001b0 04 dc 1b bc 00 64 cf bd a3 b1 51 bc 44 11 0c 3e
       -0.009512905 -0.10126495 -0.0127987 0.13678461
0001c0 ca f8 a8 bd c2 e4 79 bc 37 1c 2d 3c cb 28 a6 3d
       -0.08250578 -0.015252294 0.010565809 0.081132494
0001d0 56 0a d5 bd 11 a6 2c 3d 46 1a bd bc b1 72 db 3c
       -0.10402362 0.04215056 -0.023083817 0.026788088
0001e0 01 8d 49 3d 85 3f e8 bc 5b 34 5f bd d2 03 76 3d
       0.049206737 -0.028350601 -0.05449329 0.060062237
0001f0 80 ba 8c bd 3d 10 a7 3c 2d 53 4b 3d 00 d0 0b 3d
       -0.068715096 0.020393485 0.04963987 0.03413391
000200 48 ca 14 3e b2 68 55 bd bc 70 fb bb 69 28 dd 3d
       0.14530289 -0.0521018 -0.007673351 0.10798723
000210 75 5e b5 3d e2 25 60 bd 87 92 91 3b 6c 33 08 be
       0.08855907 -0.054723628 0.0044425162 -0.13300866
000220 a0 0c 3f 3c 78 1b b5 3c ce 01 4e 3d 0f 4b 4f be
       0.011660725 0.022107825 0.05029469 -0.20243476
000230 38 b7 0c 3d 06 a6 ce 3d 69 f2 8a 3d ec 75 09 bd
       0.03435442 0.1009026 0.06784517 -0.033559725
000240 f3 9d bb 3c d1 ec a6 bd aa 92 01 be 59 22 e0 bb
       0.022902464 -0.08150638 -0.12653604 -0.006840032
000250 4a 77 bf bb 4c b1 02 be 9f ff 01 3c 18 84 62 bd
       -0.005843078 -0.12762946 0.00793448 -0.055301756
000260 fc 41 61 3d d0 ea 12 3d 25 0b 89 bc 22 b2 d1 bc
       0.05499457 0.035868466 -0.016728947 -0.025597636
000270 c2 35 13 3d 12 b4 94 be fc 62 4d 3d 80 82 fa 3d
       0.03593994 -0.29043633 0.050143227 0.12231922
000280 7b 6f 31 3d 5c 1c d8 3d e4 fd e0 3d e8 c7 d1 3a
       0.043319207 0.10552284 0.10985926 0.0016005011
000290 39 be 12 bd 72 bc 08 be 9e be 6a bb f5 11 09 3c
       -0.03582594 -0.13353136 -0.0035819183 0.008366098
0002a0 b7 ee d8 3d 3c 0a 1c be 6e e1 59 bd c2 44 1b 3e
       0.10592406 -0.15238279 -0.053193502 0.15162948
0002b0 56 3b 1b be ea b9 b2 3d ef 75 7f bb 0c 21 87 3d
       -0.15159354 0.087268665 -0.0038980206 0.065981
0002c0 4b 8d 81 bd 02 76 98 bd 42 5f 16 3c 51 a3 43 3c
       -0.063257776 -0.07444383 0.009177985 0.011940793
0002d0 b2 b4 89 be 9b 27 1f 3d d9 13 00 be e9 9c 2d bd
       -0.26895672 0.03885613 -0.12507571 -0.04238597
0002e0 e7 d3 08 bb 87 26 36 ba ae 73 f8 3c 75 0f c7 3a
       -0.0020878257 -0.000694849 0.030328598 0.0015187102
0002f0 b5 c3 29 3c 1f a6 a9 3d ae 82 b3 3d 10 31 b4 bc
       0.010361602 0.08283638 0.087651595 -0.021996051
000300 5e 44 61 bd a1 0f 24 be 59 76 2c bb 97 32 0c 3d
       -0.05499684 -0.16021587 -0.0026315658 0.034227934
000310 fc 02 88 3d c1 ca 57 bd 4a 2f 24 3c 33 cc 70 3c
       0.06641194 -0.052683596 0.01002104 0.014697122
000320 ce 42 16 3c 57 a9 1b bd 0d 7b bb 3d 20 9c a7 bc
       0.009171201 -0.038003292 0.091543294 -0.020460188
000330 43 b3 48 bc 05 0e f1 3b 72 9c ae bd b0 c2 57 bd
       -0.012249771 0.0073564076 -0.08525933 -0.052675903
000340 1c 87 09 bc 1a 56 8d 3c 8b 52 78 bd 86 6a 5e 3d
       -0.008394029 0.01725297 -0.060625594 0.054300807
000350 21 5d 88 3d 13 93 cd bc 40 a2 34 be ec de 7a bd
       0.06658388 -0.025094545 -0.17640018 -0.06124775
000360 67 d8 ad 3d 9e 58 6b bc 78 d7 b6 3d 4b 3b b1 3d
       0.08488541 -0.01436439 0.08927816 0.08653887
000370 ac 4d 70 3d 65 09 7e bd 2e 8b a0 bc 9d a5 63 3d
       0.058667824 -0.062020678 -0.019597616 0.055577863
000380 b3 a2 bb 3d 5a 6f 21 bc 80 de 70 bb 16 ee 80 3d
       0.09161892 -0.009853208 -0.0036753714 0.06295411
000390 b4 00 13 3e bb 78 8d be 00 b7 c2 3d 3f 7c b2 3d
       0.14355737 -0.27631173 0.09507561 0.08715104
0003a0 7f c1 eb 3c 94 27 9b bd 22 25 1d be 26 7c 83 3d
       0.02877879 -0.07575908 -0.15346196 0.06420164
0003b0 ed 0d 64 bb 64 81 8e bd 5c 06 21 be b9 3a e1 bd
       -0.003479834 -0.06958273 -0.15725082 -0.109975286
0003c0 9c 5a 30 3c b3 0a 53 3d aa b4 0e bd 00 d6 e1 bc
       0.01076379 0.051523875 -0.034840263 -0.027567863
0003d0 f4 e0 57 3d 1d 37 f8 bc a4 a6 03 3e b2 93 cc 3d
       0.052704766 -0.030299718 0.12856537 0.09989108
0003e0 e7 e7 03 be 91 02 f8 3c 22 9b fe 3c b7 ee 74 3c
       -0.12881432 0.030274661 0.031079832 0.014949492
0003f0 62 ab df 3c 5a eb 85 bc fa 62 d2 3d 8f a4 90 3d
       0.027303401 -0.016347576 0.102727845 0.07062637

net_container.4.bias f4 [128]
000000 fc d6 1d be 4f 3c d8 bd 2b 41 ed 3d d6 b4 d3 bd
       -0.15414041 -0.10558378 0.115846954 -0.10337226
000010 51 c1 d3 bd 9b 27 e3 bd c5 b4 ab bd 7a 02 bf bc
       -0.103396066 -0.110915385 -0.083840884 -0.02331661
000020 0f b1 c1 bd 7b f6 54 bd e7 4a 7c 3d 79 33 0d be
       -0.09457599 -0.051992875 0.06159487 -0.13789167
000030 d9 bc 06 bd 8d 96 17 be 31 72 63 bd 1c e3 58 3d
       -0.032894943 -0.14803524 -0.055528823 0.052950963
000040 e1 58 7b bd c2 6f ee bc 3e 09 91 3d c3 c7 8d bb
       -0.06136406 -0.029106025 0.07081841 -0.004326792
000050 94 a2 8f bd fa 98 07 3d f6 8f e0 bd ec 5b bb 3d
       -0.07013431 0.033104874 -0.10964958 0.09148392
000060 83 64 a1 bc 01 92 45 bd eb 53 a5 3d ff 89 77 3c
       -0.019701248 -0.048234943 0.08072647 0.015108584
000070 90 9d 5a bc bf a6 17 3c 9b 3b df bd 4b e0 49 3d
       -0.01334323 0.009256064 -0.10900041 0.049286168
000080 31 80 d7 3a fe 57 8a bd a8 45 0a bd 8e d8 f4 bd
       0.0016441402 -0.067550644 -0.033757836 -0.11955367
000090 8c 61 99 bd 75 92 03 bc 4c 10 c6 bc a6 02 2f 3d
       -0.07489309 -0.008030524 -0.024177693 0.042727135
0000a0 96 ba 15 bd 0f 94 76 bd 99 d6 11 3d b5 79 b3 bd
       -0.036554895 -0.060199793 0.035605047 -0.08763448
0000b0 1e af c0 bd 78 6c 61 3c d1 ee 94 bd 39 6b b7 bc
       -0.09408401 0.013758771 -0.07272113 -0.022389995
0000c0 4a 98 df 3b 2e 2c 8a 3c f3 93 e9 3c ca e9 f1 bd
       0.006823574 0.01686677 0.02851293 -0.1181217
0000d0 6a 2b 4d bd a5 03 a7 bd 6e d6 e5 bc 74 0a 35 3d
       -0.05009023 -0.08154992 -0.02805635 0.044199422
0000e0 b1 a4 af 3d 57 c0 25 be c5 52 c7 bc d4 e6 78 3d
       0.08576334 -0.16186653 -0.02433146 0.06076701
0000f0 3b f6 49 bd e0 ea c0 bc 16 46 a6 bd 47 aa 4f bd
       -0.04930709 -0.023549497 -0.081188366 -0.0506995
000100 91 14 bb bd 03 c0 ac bc 60 19 af bd ba 36 2d 3d
       -0.09134782 -0.021087652 -0.08549762 0.04228852
000110 af 91 56 bd ac 53 57 ba fa c6 86 3d d0 d7 19 3d
       -0.05238503 -0.0008214067 0.065809205 0.03755933
000120 9c af 95 bc a8 17 28 3e a6 18 04 bd 3f 99 08 3c
       -0.018272214 0.16415274 -0.03225007 0.008337318
000130 13 43 56 3d 9c 04 c9 3c 21 43 a4 3d eb 3f 86 bd
       0.05231006 0.02453833 0.08020616 -0.0655516
000140 36 9e 07 3e 00 34 40 bc 5c 74 92 bd 16 2a 4a 3d
       0.13243946 -0.011731148 -0.071511 0.049356543
000150 6a 91 10 3c 1f d6 ae bd a5 31 ec bc 73 81 28 3b
       0.008823732 -0.08536934 -0.028832266 0.0025711923
000160 32 72 e4 3d f8 be ac bd d3 5b c8 bd b5 59 8a bc
       0.111545935 -0.08434862 -0.09783139 -0.016888479
000170 cc 91 23 bd 1a 0a 3b bd d8 a1 a3 3d 2d 1b b0 bd
       -0.039933965 -0.04566393 0.079898536 -0.08598933
000180 21 8e a7 bd fa 13 ad bd da 66 b3 bd f7 1a fb 3c
       -0.08181406 -0.08451076 -0.08759852 0.030652506
000190 c0 1b fd bd b3 7d ff bd f0 03 41 be 52 b2 48 3d
       -0.123588085 -0.12475147 -0.18849158 0.048998185
0001a0 31 29 3c bd 5c 08 41 bd 54 41 2c 3d 8b fd de bc
       -0.04593772 -0.047127113 0.04205449 -0.027220508
0001b0 79 1e 03 be 02 59 9d 3b 24 10 eb bc b1 ff 83 3c
       -0.12804593 0.0048018703 -0.02869422 0.016113134
0001c0 9c ce ef bd 42 fe f9 bd 9f d4 0d 3e a6 f5 2f 3d
       -0.117093295 -0.12206699 0.1385064 0.042958878
0001d0 9e 53 87 3c 22 c8 3b 3d 60 c3 5a bc 0b d0 84 3d
       0.016519364 0.04584516 -0.013352245 0.064849935
0001e0 0f 26 d5 bc e1 39 a4 3c ad b8 b2 bc 3b 5f 16 bd
       -0.026019124 0.02004713 -0.021816576 -0.036711913
0001f0 e7 5d 22 bd 34 06 4e bd 64 ca 0a 3e ed 3a b3 3c
       -0.039640334 -0.050298885 0.13553768 0.021878684

policy_layer.weight f4 [19, 128]
000000 8b 11 a5 3b a7 19 31 3d 1e 93 49 bc 16 ef 1d 3c
       0.0050374917 0.043237355 -0.012303142 0.009639522
000010 82 ba 9a bd 79 57 8f 3d 25 34 37 3d 49 15 ea 3b
       -0.07555105 0.06999106 0.044727463 0.0071436507
000020 91 50 a8 3b 7f 44 55 3d 31 bb b5 bb 30 59 36 bc
       0.0051365574 0.052067276 -0.0055459966 -0.011129662
000030 98 a7 98 3c 7a dc 3f 3b 47 16 d6 3b 01 6b b5 3c
       0.018634602 0.0029275701 0.0065334174 0.02214575
000040 55 26 d1 bc 26 1c f1 bb 1f d1 47 3d 72 2a 5d 3c
       -0.025530973 -0.007358092 0.048783418 0.013498889
000050 35 df 8e 3a 67 a3 d1 3c 55 eb 48 3d 6b a7 79 bd
       0.0010900261 0.025590612 0.049052555 -0.060950678
000060 ea 5c 93 bc 61 b7 b6 3b 5a cc 1f bd b0 5f c4 bc
       -0.01798864 0.0055760597 -0.039013244 -0.023971409
000070 1c 5d ca 3c bc 02 84 3d dd 67 cf bc 1e 85 47 3c
       0.024702601 0.06445834 -0.02531808 0.012177734
000080 a2 f6 5a bc f7 8b 91 bc de 89 d7 3c 3c a0 27 bd
       -0.013364466 -0.017766936 0.026310857 -0.040924296
000090 80 85 52 3d 2d 6c 93 3d ab ca 2e bd b5 c7 96 bc
       0.051396847 0.07198367 -0.042673748 -0.018405775
0000a0 f2 f9 2a bc 07 24 da 3c 08 d1 2d bd 6e f5 73 3d
       -0.010435568 0.026628507 -0.042435676 0.059560232
0000b0 42 1e 64 bd 76 21 85 bd 6e 44 31 3c e0 b9 1b 3c
       -0.05569292 -0.06500523 0.010819538 0.009504765
0000c0 b3 24 3b 3c 7b 8a c2 bb ce 23 3c bd e5 69 e0 3c
       0.011422324 -0.0059369183 -0.045932584 0.027394244
0000d0 d4 70 7f 3b 23 ae 57 3c f6 55 16 bc c2 9c 0b 3d
       0.0038977163 0.013164076 -0.009175768 0.034085043
0000e0 ac 14 b8 bc be 0c 3d 3d b2 5f 88 3c f2 5f 03 3c
       -0.022470795 0.04615473 0.016647194 0.008018481
0000f0 41 e1 52 3c 16 58 7c 3d 71 d8 ef 3c a5 56 26 bd
       0.0128710875 0.061607443 0.029278012 -0.040609974
000100 d2 19 06 3c ec e8 49 bd 4c 7e 2a bc 4b 0f 34 3d
       0.008184867 -0.049294397 -0.010406088 0.043959897
000110 b0 97 33 bd 30 c1 1a bd d0 40 87 bd 02 d5 28 3d
       -0.043845832 -0.037781894 -0.06604159 0.041218765
000120 6d 7a d4 3d 75 31 c5 3c fa 8f 36 3b 46 6c 86 bc
       0.10374913 0.024071435 0.0027856813 -0.01640905
000130 e4 ea 46 3d 3c 61 d1 bc 83 43 52 3c b3 57 f6 ba
       0.048563853 -0.02555906 0.012833479 -0.0018794447
000140 d9 dd 0d bd 90 f2 6e bd 05 cf be 3d 00 ed 98 bd
       -0.0346354 -0.058336794 0.093168296 -0.07467079
000150 4c 4a 9a 3c 61 bc a7 39 a7 f7 4c 3d 03 86 20 3d
       0.018834256 0.00031993075 0.050040867 0.039190304
000160 58 9f e0 bb f6 30 23 3d 09 86 75 3d 70 bc f5 bc
       -0.0068549328 0.039841615 0.05994228 -0.02999708
000170 9a 03 21 bd 7e fb ae 3d 5f 2c 8a bd be aa 88 bc
       -0.039310075 0.08544062 -0.06746744 -0.016682979
000180 12 f0 8c bc 6c 2f e8 3c 88 15 d6 3b 2b a0 ee bc
       -0.017204318 0.028342925 0.0065333284 -0.029129108
000190 bf b1 0c 3d 1e ac f5 3b 26 ad 1b bd 1d 1d 20 bd
       0.0343492 0.0074973246 -0.038006924 -0.039090265
0001a0 ed a9 a2 3c 64 49 3e bd b0 0a 3f 3d 0f 6d 4a bc
       0.019856418 -0.04645671 0.04664105 -0.012355103
0001b0 fc 61 a8 bc 66 3d 28 bc 54 0c 2f 3d 14 21 9e 3c
       -0.020554535 -0.010268545 0.042736366 0.019302882
0001c0 e9 a0 61 bc 4d 23 08 3c cf cf 03 3c 96 d2 0b 3c
       -0.013771274 0.008309198 0.008045151 0.008534094
0001d0 72 fe 94 bd f0 4d 0d 3c 75 36 51 bd cd 5a 76 3b
       -0.07275094 0.008624539 -0.051077325 0.0037590743
0001e0 50 7f 12 bc c4 4a 92 bd de 0a a5 bd 1b c1 b5 bc
       -0.0089414865 -0.07143167 -0.080587134 -0.022186806
0001f0 1c 04 03 3a 5a 3f 4f bd ed ba 7c bb 06 0b 4f bd
       0.0004997866 -0.050597526 -0.0038563565 -0.050547622
000200 f6 a4 70 bd b3 61 ac 3c 5d c3 f9 3c 07 c2 44 bd
       -0.05875107 0.02104268 0.030488664 -0.0480366
000210 43 34 7b bb 68 e4 75 3d ea 56 12 bb 32 ba 23 bd
       -0.003833071 0.06003228 -0.0022329637 -0.03997249
000220 cc 07 1b bd 15 9c 8b 3b 33 02 44 bd cb 71 d8 bb
       -0.037849233 0.00426055 -0.04785366 -0.006605362
000230 76 15 25 bd 45 15 79 bd 17 9a 70 3d 8d ca d2 bc
       -0.04030367 -0.0608113 0.0587407 -0.02573135
000240 b6 90 b7 bb f0 c8 2f bc 63 c4 4f 3d 07 ef d7 3a
       -0.0056019677 -0.01072906 0.0507244 0.0016474434
000250 1c b4 42 3c fa 7a db 3c c3 89 56 bc d6 6c 64 3d
       0.011883762 0.026792038 -0.013094368 0.055767857
000260 d6 53 1c 3d 30 ea a8 3c 52 86 b7 3d ad 81 c6 3b
       0.03816589 0.020619482 0.089611664 0.006057939
000270 7a 08 3e 3d 0a 33 71 3c 93 a6 e1 3c ab 35 43 bc
       0.046394803 0.014721641 0.02754525 -0.011914651
000280 85 16 6e 3c c4 b8 84 ba 91 3a ab bb 3f 58 5e bd
       0.014531736 -0.0010125865 -0.0052254875 -0.054283377
000290 b7 c2 b3 3d 21 ef 88 bb ab 4f b6 3d 9c 07 5a 3d
       0.08777373 -0.004178897 0.08901914 0.053229913
0002a0 12 09 14 3c cd 53 98 bc 77 c3 a5 bb c7 f5 40 bb
       0.009035366 -0.018594647 -0.0050587016 -0.002944337
0002b0 8a 18 5e 3c 21 44 7b 3d 64 0f 86 bc b5 0e 9a 3c
       0.013555655 0.06134427 -0.01636476 0.018805841
0002c0 61 04 18 bc 67 37 7d bc c4 47 85 bd 4d 0e 95 bc
       -0.009278388 -0.0154551035 -0.06507829 -0.018195296
0002d0 46 d4 04 3d 98 cb 53 3c eb 96 2c bc 2c ba 6f 3d
       0.032429002 0.0129269585 -0.0105340285 0.058527157
0002e0 7c 1e 42 bd 02 e4 8e bd ba 78 9d bd 88 de 7d 3d
       -0.047392353 -0.06977083 -0.076890424 0.0619798
0002f0 bf f9 99 bd 78 e5 97 3c dd a1 17 bd 9e 2e 56 3c
       -0.075183384 0.018542036 -0.0370196 0.013072638
000300 7d 38 db bc ef 8a 0f bd 73 72 d2 3c 7d b8 1e bd
       -0.026760334 -0.035044607 0.02568934 -0.03875016
000310 6e f1 83 3d a5 36 30 3d 5b 0e 26 bd 97 39 85 bd
       0.064425334 0.043020863 -0.040541034 -0.06505125
000320 52 19 14 bc 66 13 ed bb 2b b8 f1 bb 7d cc 6d 3c
       -0.00903924 -0.0072349785 -0.007376691 0.014514086
000330 b5 59 59 bc 57 84 be 3c a6 5c bc 3b bf a3 c0 bc
       -0.013266017 0.023256464 0.0057483492 -0.02351558
000340 ce 2e 93 bc 42 3c a4 3d de d8 4a bc f7 0d 14 3d
       -0.017966654 0.08019306 -0.012380807 0.03614613
000350 dd 31 81 3d 2e 1f d2 bc b2 1e ab 3b 5e 05 95 bb
       0.06308339 -0.025649633 0.005222165 -0.004547759
000360 e8 ea af bc bc c3 15 3b 96 f3 af bc d4 fc 13 bd
       -0.021474317 0.0022852262 -0.021478456 -0.036129788
000370 fa bd ea bc f2 e3 0a bd 2e 42 5f 3c bd 3f 5e 3c
       -0.028655041 -0.03390879 0.013626618 0.013565001
000380 c7 6d dc bb 1e 1e 98 3c 89 b6 19 bd 72 de cc 3b
       -0.0067269537 0.018569048 -0.037527595 0.0062521035
000390 f4 c1 c5 3b 18 e7 ef 3c 5a 3f 92 3c 6d d1 db bb
       0.006035084 0.029284999 0.017852474 -0.006708315
0003a0 e4 6f 87 3c 2f 9c 55 3d a8 bf b8 bb 6b de 81 3d
       0.016532846 0.0521509 -0.0056380816 0.06341251
0003b0 2f 74 a5 bc b5 50 17 bc fe 2a 61 bd 48 fa f1 3a
       -0.020197002 -0.009235551 -0.05497264 0.001846143
0003c0 5f a3 88 3c 04 06 1b bd b2 10 a4 3c c1 f8 19 bb
       0.016679464 -0.037847534 0.020027492 -0.0023494216
0003d0 bb 41 ba 3d f6 6d 41 39 e8 1f 10 bd af c9 06 bd
       0.09094568 0.00018446878 -0.03518668 -0.032907184
0003e0 64 5b f1 bb 04 ec 03 3b f6 63 35 3d 18 73 90 3d
       -0.007365631 0.002012969 0.044284783 0.070532024
0003f0 f7 af 09 3d af e8 3d 3b 0b 0d c3 bc 7f e4 7f 3c
       0.03361508 0.0028977802 -0.02380993 0.015618443

policy_layer.bias f4 [19]
000000 6b 3c af bc 55 d9 14 bc 81 d2 dc 3a dd 53 46 3c
       -0.021391114 -0.009085019 0.0016847403 0.0121049555
000010 49 69 73 3b 18 2d eb 3b af f4 b9 bc d3 e7 1a 3c
       0.0037141612 0.0071770065 -0.022699682 0.009454685
000020 18 06 3d bd 8b 29 b3 3d 0b 12 5a 3c f5 78 9e 3d
       -0.04614839 0.08748158 0.013309966 0.077379145
000030 c0 59 53 3d 56 9a 03 3d 52 1e 35 bd 56 98 31 be
       0.051599264 0.032129608 -0.04421837 -0.17343268
000040 dd fb 1d be 6b e3 61 3d 69 be 3d bd
       -0.1542811 0.055148523 -0.046324167

value_layer.weight f4 [1, 128]
000000 b0 1b 21 be bd 09 8f bc c9 f6 c3 3d ce 0f 46 bc
       -0.15733218 -0.017460698 0.09568555 -0.012088729
000010 42 80 a7 bd 0f 99 cb b7 98 06 5b bd 98 75 03 3e
       -0.0817876 -2.427076e-05 -0.053473085 0.12837827
000020 0d 16 c0 bd df d7 aa bd 30 83 b4 bd 8c db 03 be
       -0.09379206 -0.083419554 -0.088140845 -0.12876719
000030 df c4 01 3e 2d 83 8a 3c d8 1c 7f bd 84 b6 94 bd
       0.12672757 0.016908253 -0.062283367 -0.072613746
000040 8b 46 51 3d 6d 7e c8 bd 39 2c 80 3b 61 ea 07 bc
       0.051092666 -0.09789739 0.0039115218 -0.008295626
000050 dc db db bd bd 4e f0 3d 10 53 de 3c e8 37 fa 3d
       -0.10735294 0.11733768 0.027139217 0.122176945
000060 e6 8b 02 bc e3 73 b4 3d e6 aa 78 bd d0 ba d0 bc
       -0.007967925 0.08811166 -0.060709856 -0.025479704
000070 f5 9c 06 3e ac 51 4a bd 3f c4 14 3e 1f 40 6f 3d
       0.13145812 -0.049394295 0.14527987 0.05841076
000080 14 41 3d bd ee 9b c4 bc 64 e6 a2 3d 2c 86 b9 3c
       -0.04620464 -0.024000134 0.079541 0.022646986
000090 b9 90 34 be 20 2e 8f bc 10 54 12 be c5 17 dc bd
       -0.17633332 -0.017478049 -0.1428988 -0.10746721
0000a0 e6 92 4d 3b f3 ef d1 3d eb 34 0c bd a9 d8 22 bd
       0.0031368076 0.10250845 -0.034230154 -0.039757404
0000b0 bf de 8d 3d 7f 7a ff bd 5c b3 01 3e df 18 24 bd
       0.06927251 -0.12474536 0.12666076 -0.04006278
0000c0 73 d7 0d be 7e 52 3b bd ca ec 5c 3d 98 5e 8d bd
       -0.13851719 -0.045732968 0.053936757 -0.06902808
0000d0 b5 c4 f8 bd 62 f4 a1 bd 7e e2 1a be 68 5a 3f bd
       -0.12146894 -0.079079404 -0.15125462 -0.046717077
0000e0 ef c9 de 3d 25 aa 22 be 98 73 0d 3d 1f 52 9d 3b
       0.108783595 -0.15885217 0.034534067 0.0048010494
0000f0 0c a8 4d 3d 9d 51 f0 3d 89 3f 96 bd 36 87 04 be
       0.05020909 0.117343165 -0.07336337 -0.12942204
000100 d1 e5 1c be 96 fa 77 bc c1 02 21 3d e6 0f ac bc
       -0.15322043 -0.015135428 0.039309267 -0.021003675
000110 a5 7b 9d bd ec 66 ba 3d bc 33 ef bd 3e d3 ff 3d
       -0.07689599 0.09101662 -0.116797894 0.12491463
000120 13 a2 96 bd 4f 29 32 3e 3f df a6 3d 40 5e 28 be
       -0.07355132 0.1739857 0.081480496 -0.16442204
000130 d5 8b 16 3d ce e7 64 3c 2b 93 1e bd f4 00 3f bd
       0.036754448 0.013971282 -0.03871457 -0.04663177
000140 f3 85 a1 3d 51 d8 ff 3c 2f 75 8f bd 7f 84 ab 39
       0.07886877 0.031231077 -0.07004773 0.0003271438
000150 4f b5 4b 3d 90 d3 be 3a 3d 9a d8 bc bf 1c 82 3d
       0.049733456 0.00145589 -0.026440734 0.06353139
000160 7f ab dd 3d 2d 0c bb bd 3e 1e 10 bd 3b 1a ef 3c
       0.10823726 -0.09133182 -0.03518509 0.029187312
000170 cb 4d 9c 3c d6 d9 b6 bc 17 e4 90 3d c8 42 41 be
       0.019080063 -0.02232067 0.07074755 -0.18873131
000180 41 89 76 bd e8 24 a9 3d 2d ed c7 bd af 2a 59 3d
       -0.06018949 0.082589924 -0.097620346 0.053019222
000190 6d 40 ff bd 68 d5 e6 bd 27 67 f4 bd 4a 75 9e 3d
       -0.1246346 -0.11271173 -0.11933737 0.07737215
0001a0 11 7f 85 bd d8 ea 03 be a3 d5 43 bd 94 57 6d 3d
       -0.065183766 -0.12882555 -0.04781116 0.05794485
0001b0 da 80 12 be a8 f0 a6 3c 34 1a 78 bd 86 8c f6 3c
       -0.14306965 0.020378426 -0.060571864 0.030096304
0001c0 4b ca f3 bd fb 5f 57 3d 76 0d a9 3d cc e9 02 be
       -0.11903819 0.05258177 0.082545206 -0.12784499
0001d0 95 a8 30 bd 30 5b ad 3d 1f 47 b8 3d c2 1b e0 bd
       -0.043129522 0.08464658 0.0899794 -0.109427944
0001e0 be 2e 45 3d 8b ba 0f 3d 58 29 a4 bd b0 cc 8e 3c
       0.04814028 0.03509001 -0.08015698 0.017431587
0001f0 32 d2 9a bd 95 69 75 3d 97 5f ef 3d 46 e9 ca 3c
       -0.07559623 0.059915144 0.11688154 0.024769437

log_std_parameter f4 [19]
000000 60 d5 3e c0 08 ad 38 c0 28 da 47 c0 b5 86 df bf
       -2.9817734 -2.885561 -3.1226902 -1.7462984
000010 e5 21 e2 bf cf ac 53 bf d8 28 52 bf 0a d7 0a c0
       -1.7666594 -0.8268556 -0.8209357 -2.169375
000020 3b 8f 10 c0 11 e2 2f bf 99 f6 41 bf 65 06 c0 bf
       -2.258742 -0.68704325 -0.75766903 -1.5001951
000030 27 f3 be bf 7b 3f 3e bf 51 f1 2e bf 64 fa 3e bf
       -1.4917954 -0.74315614 -0.6833697 -0.74600816
000040 bc ea 48 bf 33 91 40 bf 57 89 3e bf
       -0.78483176 -0.75221556 -0.74428314
