humanoidprac/humanoidprac/scripts/skrl/logs/skrl/h1_flat/joint_experiment_ver3/2025-09-18_04-56-36_ppo_torch/checkpoints/agent_7200.pt (torch, 549922 bytes, 40 tensors)

log_std_parameter f4 [19]
-2.3011672 -2.2710605 -2.49929 -1.4276568 -1.4915731 -0.6105042 -0.59413147 -1.7663956
-1.868414 -0.5349004 -0.6177734 -1.2484282 -1.1736931 -0.59610957 -0.5279635 -0.636362
-0.6056989 -0.58796734 -0.5886026
00000000: 5346 13c0 0e59 11c0 5ef4 1fc0 75bd b6bf
00000010: deeb bebf 014a 1cbf 0019 18bf 4019 e2bf
00000020: 3128 efbf 3cef 08bf 6626 1ebf 7fcc 9fbf
00000030: 933b 96bf a39a 18bf 9e28 07bf 9fe8 22bf
00000040: 150f 1bbf 0785 16bf a9ae 16bf

net_container.0.weight f4 [128, 69]
-0.03501044 -0.15936694 -0.072618045 -0.08505656 0.002256847 -0.10210767 -0.14695413 -0.4551332
0.03658598 -0.034083072 -0.062220123 0.28054315 -0.13799235 -0.18843631 -0.5148239 -0.057872776
0.4927155 -0.21218398 0.025520863 -0.3701453 -0.09809029 -0.43326387 0.083907194 -0.27298114
-0.14331079 -0.058639027 -0.4314973 0.24350128 0.1826302 -0.14683637 -0.15919921 -0.08682755
0.0049751885 -0.018703533 -0.104556456 0.05069002 -0.006862695 -0.043789074 -0.044473734 0.03750824
0.05654183 0.17340466 0.091655366 0.03194494 0.048753742 0.09775949 -0.099978596 0.08318444
-0.07978467 0.062252074 -0.118097045 -0.05627748 0.140822 -0.038503386 -0.15305798 -0.17980707
-0.069502145 0.15652955 0.17382574 0.22495186 -0.039657995 -0.0278873 0.0003518584 -0.05219528
-0.06892733 -0.094783865 0.03375948 -0.10584667 0.09170059 0.22080582 0.043651186 0.52828103
-0.09888418 -0.066124424 0.08227144 0.19824113 -0.08010419 0.071011335 -0.14196338 -0.041140597
0.22533354 -0.055611998 -0.20380293 0.07143487 0.13895434 0.17260791 -0.07419109 -0.059285972
0.2403015 -0.07576752 0.038916215 0.05233437 -0.10407523 -0.03474445 0.24327974 -0.23244737
-0.043206826 0.29137617 0.15766643 -0.13323939 0.028158845 0.10527603 -0.005437188 -0.062510274
-0.036592685 -0.013465355 0.008866368 0.0468743 -0.01414664 0.06327378 -0.04616514 -0.06556997
0.101658024 0.102373704 0.09964716 0.010103786 0.025526835 -0.12947312 -0.027117198 0.19394717
-0.03257097 -0.10117785 0.13147615 -0.098482504 -0.17340566 -0.16671164 0.0706162 -0.049202863
-0.065134846 -0.094505005 0.01995677 -0.05271327 -0.13190958 0.009887797 -0.097149506 -0.16864422
-0.21998696 0.030054659 -0.43372875 0.16914056 -0.13413022 0.035467397 -0.1610824 -0.05243725
-0.7947202 0.93532985 0.16230509 0.303214 0.041517723 0.060390662 -0.3169125 -0.1238032
-0.06362446 -0.17726277 -0.16575967 0.026482027 0.12643252 -0.9140357 0.17516237 0.036169004
0.10807842 -0.05582312 0.07293237 -0.006293439 0.052736286 0.17069134 -0.18883051 -0.07509821
0.11561695 0.019044796 -0.007424936 0.015094654 0.07282486 -0.050985187 0.021645907 0.05575912
-0.06684855 0.018027132 -0.019675894 -0.06013856 0.0074716075 -0.024477752 0.0012685071 0.02686553
-0.03888445 -0.012458817 -0.011912132 -0.011463584 -0.11537638 -0.02694875 -0.072676376 -0.019871706
0.06677549 0.07905789 -0.018779326 -0.070799895 -0.065998144 0.08298645 0.0043188515 -0.16871685
0.012829535 -0.014525417 -0.031135421 0.02188141 0.0028471558 -0.015940174 -0.009869167 0.22502825
-0.013568839 -0.04303794 -0.07132509 -0.0265083 -0.033269178 1.2498649 -0.8453615 0.01422615
0.31380987 0.116648525 -0.09528014 0.37740985 -0.011211065 0.44051185 0.733005 0.018847648
0.03965994 0.20147112 0.71039456 0.29414594 -0.22645868 -0.08199766 0.1266055 0.36908355
0.046268646 0.010536479 -0.10526618 -0.28317448 0.04172668 -0.42928082 -0.0007248514 -0.024745824
-0.05168927 0.022308398 -0.03914322 0.0118657 0.057419457 -0.012730871 -0.007300045 -0.00546104
-0.059839096 0.026066719 0.021462914 0.05488021 0.018387038 0.060603943 0.025538666 -0.013327763
00000000: 1b67 0fbd 1631 23be c5b8 94bd 2232 aebd
00000010: 9ce7 133b d31d d1bd 257b 16be 3807 e9be
00000020: 2edb 153d b19a 0bbd 87da 7ebd 5aa3 8f3e
00000030: de4d 0dbe 73f5 40be 80cb 03bf 010c 6dbd
00000040: 3545 fc3e c246 59be 2111 d13c af83 bdbe
00000050: 90e3 c8bd c3d4 ddbe 89d7 ab3d 2fc4 8bbe
00000060: 10c0 12be 7a2f 70bd 37ed dcbe 6658 793e
00000070: 6903 3b3e 465c 16be 1e05 23be a4d2 b1bd
00000080: e806 a33b 2738 99bc b221 d6bd 57a0 4f3d
00000090: 75e0 e0bb 2c5c 33bd 172a 36bd 3ea2 193d
000000a0: 6898 673d fe90 313e cfb5 bb3d b3d8 023d
000000b0: 01b2 473d 2136 c83d 94c1 ccbd 9b5c aa3d
000000c0: 2566 a3bd 08fc 7e3d dddc f1bd 3783 66bd
000000d0: a433 103e bab5 1dbd 3bbb 1cbe 581f 38be
000000e0: 2457 8ebd 4849 203e 60ff 313e c859 663e
000000f0: 6c70 22bd e873 e4bc a379 b839 b8ca 55bd
00000100: c629 8dbd 0b1e c2bd 6147 0a3d 24c6 d8bd
00000110: 85cd bb3d ec1a 623e 96cb 323d 6d3d 073f
00000120: ca83 cabd 3e6c 87bd ee7d a83d b9ff 4a3e
00000130: aa0d a4bd 646e 913d d95e 11be 0b83 28bd
00000140: d6bd 663e 68c9 63bd b7b1 50be 724c 923d
00000150: 0c4a 0e3e 21c0 303e 80f1 97bd d9d5 72bd
00000160: 9911 763e 002c 9bbd 9c66 1f3d 905c 563d
00000170: 6525 d5bd 3250 0ebd 531e 793e af06 6ebe
00000180: a4f9 30bd 422f 953e 4f73 213e e86f 08be
00000190: 61ad e63c f69a d73d 702a b2bb 6305 80bd
000001a0: 36e2 15bd cb9d 5cbc 3e44 113c 44ff 3f3d
000001b0: 4fc7 67bc af95 813d a817 3dbd 8c49 86bd
000001c0: 1532 d03d 4ea9 d13d cf13 cc3d 5a8a 253c
000001d0: a71d d13c 9a94 04be e324 debc 169a 463e
000001e0: 2369 05bd 5536 cfbd afa1 063e 32b1 c9bd
000001f0: 4191 31be 75b6 2abe 3a9f 903d f188 49bd
00000200: 6b65 85bd d78b c1bd 617c a33c dfe9 57bd
00000210: 4e13 07be 6d00 223c 52f6 c6bd 12b1 2cbe
00000220: 4344 61be 3035 f63c b211 debe 2f33 2d3e
00000230: 6f59 09be 4346 113d c9f2 24be 71c8 56bd
00000240: c872 4bbf c771 6f3f 4e33 263e de3e 9b3e
00000250: 7d0e 2a3d 335c 773d 5b42 a2be 888c fdbd
00000260: 8a4d 82bd 5f84 35be e7bc 29be d6f0 d83c
00000270: 8777 013e 3efe 69bf c45d 333e f325 143d
00000280: 3858 dd3d c9a6 64bd 915d 953d 3139 cebb
00000290: 0102 583d b6c9 2e3e c95c 41be 17cd 99bd
000002a0: 94c8 ec3d d503 9c3c e14c f3bb 914f 773c
000002b0: 3325 953d d8d5 50bd c252 b13c ad63 643d
000002c0: e5e7 88bd a3ad 933c 572f a1bc da53 76bd
000002d0: 63d4 f43b 9185 c8bc 0944 a63a 1a15 dc3c
000002e0: 4d45 1fbd 1120 4cbc 1a2b 43bc c2d1 3bbc
000002f0: 744a ecbd a0c3 dcbc 5ad7 94bd fdc9 a2bc
00000300: 97c1 883d 1ae9 a13d 1ad7 99bc 89ff 90bd
00000310: 092a 87bd cdf4 a93d 2785 8d3b 1cc4 2cbe
00000320: f832 523c 04fc 6dbc b60f ffbc a540 b33c
00000330: 5997 3a3b f894 82bc 49b2 21bc ce6d 663e
00000340: d64f 5ebc 8d48 30bd e412 92bd ef27 d9bc
00000350: 4345 08bd 93fb 9f3f 9c69 58bf cc14 693c
00000360: b0ab a03e 6ce5 ee3d 3c22 c3bd dd3b c13e
00000370: 9dae 37bc c58a e13e 37a6 3b3f 6266 9a3c
00000380: 7672 223d 724e 4e3e 6bdc 353f 4c9a 963e
00000390: c9e4 67be 64ee a7bd dfa4 013e 85f8 bc3e
000003a0: 3184 3d3d 32a1 2c3c cc95 d7bd 3ffc 90be
000003b0: 98e9 2a3d b2ca dbbe f403 3eba c1b7 cabc
000003c0: 21b8 53bd 1ac0 b63c a454 20bd 5a68 423c
000003d0: aa30 6b3d 2595 50bc 3735 efbb 86f2 b2bb
000003e0: d719 75bd df89 d53c fed2 af3c 12ca 603d
000003f0: 6aa0 963c d73b 783d 7736 d13c b15c 5abc

net_container.0.bias f4 [128]
0.1410699 -0.13473897 -0.019792156 -0.0005623743 0.12827815 0.05237664 0.08859355 0.09145343
0.1695333 0.13949952 0.011377897 -0.020849988 0.02207574 0.0029189482 0.17423318 -0.16999553
0.14141008 -0.14538985 0.19035292 0.04789848 0.09192492 0.06962453 -0.03260066 0.18749033
0.1011066 0.027486313 -0.058636215 -0.104915254 -0.04324204 -0.05785934 -0.009528342 0.01897374
0.17508261 0.010593935 -0.020626774 -0.17284702 0.06406784 0.04033194 0.07931336 0.049775135
-0.027278781 0.15750727 -0.09232722 -0.09971921 0.11797743 -0.104401805 0.040520992 -0.02861807
0.21610036 0.06992661 -0.049425863 0.058980513 -0.109381095 -0.04147261 -0.011502432 0.0044917325
0.1876139 0.064688556 0.11341819 0.0940262 -0.057937257 -0.0024662858 0.15754586 0.12006861
0.022305315 0.13450219 0.06073128 0.04474507 0.1276711 -0.01714668 0.08841773 -0.1514287
0.14161547 0.13847028 0.039072238 0.054771986 0.22764005 0.043382455 0.30426803 0.06274595
0.042750154 -0.038456257 0.2106145 0.07742743 0.023452098 0.061469186 0.13631667 0.20220868
-0.010335877 0.15900266 -0.09714246 0.037553735 0.113029726 -0.034170717 0.046084106 0.023407863
0.026000645 -0.12438464 -0.08504901 -0.0011544288 0.14261068 0.046183936 -0.06094442 0.028200338
0.008040661 0.03969748 0.067057766 -0.07947217 -0.006116791 -0.09894711 -0.06538904 -0.02436522
0.026766427 -0.07431663 0.1568715 0.16555326 -0.1221291 0.1195483 0.053029366 -0.041603647
0.032481033 -0.123795584 0.13640864 -0.098016396 0.021528017 -0.15722872 -0.077451184 0.021552691
00000000: a174 103e 03f9 09be 2923 a2bc 4d6c 13ba
00000010: 595b 033e e388 563d 8970 b53d f04b bb3d
00000020: 239a 2d3e f6d8 0e3e 5c6a 3a3c 98cd aabc
00000030: 2fd8 b43c d34b 3f3b 2f6a 323e 4f13 2ebe
00000040: cecd 103e 14e1 14be e0eb 423e 3231 443d
00000050: 2243 bc3d 4e97 8e3d 4588 05bd 77fd 3f3e
00000060: fa10 cf3d fa2a e13c 872c 70bd cfdd d6bd
00000070: 911e 31bd eafd 6cbd c31c 1cbc d16e 9b3c
00000080: db48 333e 2f92 2d3c 7bf9 a8bc cffe 30be
00000090: 0036 833d 1b33 253d 0b6f a23d 03e1 4b3d
000000a0: c077 dfbc 9649 213e 0e16 bdbd 9639 ccbd
000000b0: 279e f13d 9dd0 d5bd 57f9 253d 7170 eabc
000000c0: 6a49 5d3e af35 8f3d c672 4abd 8d95 713d
000000d0: 3203 e0bd 2fdf 29bd b274 3cbc 622f 933b
000000e0: dc1d 403e 6f7b 843d cc47 e83d cf90 c03d
000000f0: 9e4f 6dbd 69a1 21bb b453 213e 88e6 f53d
00000100: a3b9 b63c f1ba 093e 5dc1 783d 9b46 373d
00000110: 36bc 023e 3277 8cbc 5b14 b53d 2010 1bbe
00000120: a503 113e 27cb 0d3e 360a 203d 9758 603d
00000130: 791a 693e cdb1 313d 05c9 9b3e f380 803d
00000140: c91a 2f3d 4f84 1dbd 54ab 573e 4692 9e3d
00000150: 9d1e c03c 1dc7 7b3d 9996 0b3e cb0f 4f3e
00000160: cf57 29bc 98d1 223e a0f2 c6bd f2d1 193d
00000170: 217c e73d 98f6 0bbd b0c2 3c3d d9c1 bf3c
00000180: 4eff d43c 60bd febd 2d2e aebd 3450 97ba
00000190: 8908 123e 5e2b 3d3d dba0 79bd 6504 e73c
000001a0: fabc 033c d399 223d 9555 893d 4ec2 a2bd
000001b0: 5d6f c8bb c8a4 cabd b0ea 85bd 9299 c7bc
000001c0: 4445 db3c 5133 98bd eca2 203e cb86 293e
000001d0: d21e fabd bdd5 f43d 5235 593d 9668 2abd
000001e0: d50a 053d 8a88 fdbd b5ae 0b3e d2bc c8bd
000001f0: 865b b03c 9100 21be ba9e 9ebd 458f b03c

net_container.2.weight f4 [128, 128]
-0.007283314 -0.033732023 0.09456066 -0.03402883 0.031542547 -0.033331554 -0.008636601 -0.07861722
-0.040576257 0.0013683004 -0.058666196 -0.13717817 0.10251181 -0.07773444 0.028375745 0.1119261
-0.10256802 0.057338778 0.08920615 0.102676265 -0.09426347 0.07581063 0.00137277 -0.08651314
-0.001570343 -0.11932664 -0.08970264 0.07759845 -0.08904502 -0.0793641 -0.008185227 0.07773333
-0.107693896 -0.14055751 -0.065940656 0.06892421 -0.087547384 0.017778445 0.04736145 0.052494284
0.044929195 0.101688616 -0.1477345 -0.13553056 -0.01655784 -0.026264545 -0.1241516 0.074919745
0.038151033 0.058574986 0.009061475 0.010970837 -0.017788807 -0.11547069 0.049200796 0.067764595
-0.16496451 -0.06055542 0.022045664 0.075640604 0.15754054 0.019890804 0.073527195 0.095584325
-0.013044648 -0.11336506 -0.028037854 -0.14733082 -0.022183882 0.023741756 0.022720706 0.08012067
0.0979653 -0.009046826 -0.036591206 0.0019836295 -0.12237189 0.019719593 0.076463364 0.016374107
0.10131966 0.057181437 -0.05810514 0.12484985 -0.08678201 0.05383089 -0.06460851 -0.07868614
0.08101825 -0.034695107 -0.15096182 -0.07165185 -0.08826422 0.07872024 -0.14447613 -0.020569708
0.018125925 0.10694464 -0.034142073 0.016519856 0.005113548 0.0018535802 -0.11583474 -0.089957096
0.07541536 -0.15823895 -0.044241752 -0.01690322 0.015076282 0.105531655 -0.009739732 -0.105245285
0.06255582 0.0045861597 -0.08805738 -0.08183473 -0.09453509 -0.08901017 0.024870798 0.046774797
-0.14278488 -0.035760652 -0.039640192 0.010407643 0.0737164 0.057360172 -0.047492426 -0.0709018
0.055769835 0.052571956 -0.21852194 -0.16388279 0.09265373 -0.05051331 0.06425273 0.0929936
0.05285165 0.008625177 0.037976038 0.13727349 -0.17298043 0.12775473 0.019298976 -0.017393138
0.06281146 0.044029813 0.11045965 -0.12866071 0.059812132 -0.04899111 0.05857203 -0.010203204
-0.25093722 0.1349162 -0.039285842 0.10351391 0.005238894 0.04653388 0.044728596 -0.030720774
0.12431571 -0.019554794 -0.0025765568 -0.0951503 0.03570698 0.035026353 -0.1300573 -0.07081256
0.10486241 0.0040700114 0.024074832 0.020996341 -0.014153162 -0.0004649004 0.042324 -0.049403608
0.02017331 -0.04572216 0.11745005 -0.19707523 -0.045250572 -0.11812116 0.11142005 -0.025365353
0.09695099 -0.03636163 -0.08140538 0.07171524 -0.0056582494 -0.028634867 0.046275858 -0.0036822427
-0.046781946 -0.037232112 -0.09571732 0.07052537 -0.020901894 -0.03520333 0.057487164 0.046735127
-0.047216203 0.100952685 -0.11944785 -0.013146272 0.035182018 -0.009543166 0.14286055 -0.0484539
-0.045895044 0.037440386 -0.04809499 -0.057131134 -0.054312613 0.046728004 0.00016019362 0.01720661
0.033918932 0.056567132 -0.09466126 -0.035977118 0.06648976 -0.04509154 -0.044841304 -0.01589937
-0.051426318 0.07026758 0.008771782 -0.0100997975 -0.065165296 -0.1824686 0.011095081 0.09446228
-0.0977115 -0.040021233 -0.03355169 -0.05718865 0.062460292 -0.072142236 0.017656464 -0.057295073
-0.029842237 0.13671039 0.037352934 -0.0008936015 -0.048536044 0.043109316 0.09239009 0.08007498
-0.02018223 -0.014069076 -0.05570002 -0.15008336 0.023259452 0.010617184 0.03534815 0.045213457
00000000: dea8 eebb 972a 0abd 05a9 c13d d061 0bbd
00000010: c232 013d ab86 08bd 8880 0dbc 1102 a1bd
00000020: 4a33 26bd 8b58 b33a f74b 70bd 6f78 0cbe
00000030: b6f1 d13d 3c33 9fbd 4074 e83c 8339 e53d
00000040: 2f0f d2bd 11dc 6a3d b7b1 b63d ef47 d23d
00000050: 350d c1bd 9b42 9b3d 85ee b33a cd2d b1bd
00000060: f8d3 cdba 8761 f4bd 05b6 b7bd f0eb 9e3d
00000070: 3c5d b6bd a589 a2bd 551b 06bc a732 9f3d
00000080: 9e8e dcbd 4fee 0fbe e50b 87bd 2328 8d3d
00000090: 0b4c b3bd 1aa4 913c 14fe 413d 3f04 573d
000000a0: ad07 383d 1f42 d03d b647 17be 86c8 0abe
000000b0: 4fa4 87bc be28 d7bc 3243 febd 866f 993d
000000c0: 4244 1c3d 53ec 6f3d 9576 143c 07bf 333c
000000d0: d5b9 91bc e67b ecbd c686 493d 2ac8 8a3d
000000e0: 75ec 28be f608 78bd 1c99 b43c 76e9 9a3d
000000f0: 4f52 213e 0af2 a23c 6d95 963d b7c1 c33d
00000100: 38b9 55bc f12b e8bd a4af e5bc e4dd 16be
00000110: f9ba b5bc 127e c23c c620 ba3c 4e16 a43d
00000120: 08a2 c83d 2339 14bc a9e0 15bd c8ff 013b
00000130: 1d9e fabd fc8a a13c d398 9c3d fe22 863c
00000140: af80 cf3d 1537 6a3d a8ff 6dbd 47b1 ff3d
00000150: c4ba b1bd c87d 5c3d 7751 84bd 3326 a1bd
00000160: e5ec a53d 751c 0ebd bc95 1abe 35be 92bd
00000170: dfc3 b4bd 1438 a13d 8df1 13be ce81 a8bc
00000180: d27c 943c cb05 db3d 8fd8 0bbd a654 873c
00000190: 8d8f a73b d5f3 f23a c43a edbd 6d3b b8bd
000001a0: 5e73 9a3d 6409 22be d736 35bd 9f78 8abc
000001b0: 8302 773c fb20 d83d 6693 1fbc d78a d7bd
000001c0: 441d 803d 7f47 963b 6d57 b4bd f898 a7bd
000001d0: 9d9b c1bd f74a b6bd d8bd cb3c ee96 3f3d
000001e0: 3336 12be c379 12bd c15d 22bd d284 2a3c
000001f0: a0f8 963d 80f2 6a3d 6b87 42bd f734 91bd
00000200: e96e 643d b155 573d 37c4 5fbe e4d0 27be
00000210: 3dc1 bd3d 0be7 4ebd ef96 833d 6e73 be3d
00000220: f97a 583d 9d50 0d3c c38c 1b3d 6c91 0c3e
00000230: c821 31be 23d2 023e e318 9e3c 0e7c 8ebc
00000240: 4ba3 803d 9b58 343d ab38 e23d a2bf 03be
00000250: 91fd 743d e7aa 48bd 3ae9 6f3d 572b 27bc
00000260: d87a 80be 7927 0a3e 31ea 20bd 1aff d33d
00000270: 07ab ab3b 4f9a 3e3d 5535 373d 22aa fbbc
00000280: 3c99 fe3d 6031 a0bc 73db 28bb 29de c2bd
00000290: 7b41 123d cb77 0f3d be2d 05be 2d06 91bd
000002a0: 1ac2 d63d bb5d 853b 9538 c53c 8500 ac3c
000002b0: aae2 67bc e0bd f3b9 ee5b 2d3d 705b 4abd
000002c0: 7f42 a53c 2947 3bbd a789 f03d 17ce 49be
000002d0: aa58 39bd 82e9 f1bd 3230 e43d 00cb cfbc
000002e0: 3e8e c63d efef 14bd ddb7 a6bd 71df 923d
000002f0: d668 b9bb ab93 eabc c18b 3d3d c851 71bb
00000300: 6d9e 3fbd b380 18bd 7107 c4bd 9b6f 903d
00000310: 733a abbc 5e31 10bd a977 6b3d 556d 3f3d
00000320: c765 41bd 48c0 ce3d 13a1 f4bd 7663 57bc
00000330: 051b 103d f05a 1cbc 094a 123e 9977 46bd
00000340: 71fc 3bbd 175b 193d 41ff 44bd 5602 6abd
00000350: e776 5ebd dd65 3f3d a6f9 2739 e0f4 8c3c
00000360: 94ee 0a3d f0b2 673d c3dd c1bd be5c 13bd
00000370: c92b 883d e8b1 38bd 84ab 37bd 653f 82bc
00000380: 67a4 52bd 73e8 8f3d 85b7 0f3c 9f79 25bc
00000390: 6275 85bd 0cd9 3abe 25c8 353c 7175 c13d
000003a0: f81c c8bd 4eed 23bd 7f6d 09bd a53e 6abd
000003b0: 5dd6 7f3d 4fbf 93bd 4aa4 903c 3dae 6abd
000003c0: b577 f4bc cffd 0b3e 64ff 183d 9540 6aba
000003d0: bbcd 46bd 6593 303d 0437 bd3d 5afe a33d
000003e0: 3455 a5bc fb81 66bc b425 64bd 74af 19be
000003f0: 9b8a be3c b3f3 2d3c 39c9 103d bf31 393d

net_container.2.bias f4 [128]
0.038595747 -0.16995586 -0.17845756 -0.008457083 -0.09394646 0.01819291 0.06423896 0.13092268
0.016234566 -0.118964955 0.12972718 -0.18555179 0.02002094 -0.06437807 0.041144613 -0.010107774
-0.11208848 0.019700404 0.00069836836 0.017453758 0.2052848 -0.007305616 -0.015568891 0.114522405
-0.0023903924 0.01926816 0.026123071 -0.13910866 0.032766145 -0.09603448 -0.10757249 0.06539523
-0.09873955 -0.09682137 0.023574622 -0.12922981 -0.18547384 -0.051677812 -0.012149076 -0.10374699
-0.1140424 -0.061103657 -0.11802637 -0.023100544 -0.0048371614 0.061093014 0.039477974 0.026471546
0.03708017 -0.09194875 0.08366612 -0.1253188 0.009523704 0.07484017 -0.10477884 -0.022046195
0.08552999 -0.14947428 0.06628231 0.19088626 -0.19323775 -0.108631425 -0.13821955 0.039832316
-0.009508832 -0.100770324 0.06400375 -0.005680241 -0.09775199 0.06807206 -0.08314582 -0.043034866
-0.047302295 0.029861903 -0.08519744 0.043937773 0.08045941 -0.08277228 -0.057595897 -0.015702097
-0.07199558 -0.08575653 0.12605688 -0.068001874 -0.122231856 -0.058606155 0.028638272 0.16843346
0.05973445 -0.10763398 -0.18346022 0.07743004 -0.14322037 -0.031731315 -0.1458815 0.04293666
-0.038065366 0.020961184 -0.1733051 0.08307883 -0.21913564 -0.12633629 -0.053155623 -0.028737644
-0.08865983 -0.12924145 0.044943035 -0.07286889 -0.1658901 -0.041674607 0.095867164 -0.07535217
-0.19693962 0.015537365 0.13644518 -0.01604198 0.151927 -0.016267577 -0.096618846 -0.049507946
0.04159798 -0.18240823 0.12147404 -0.08387803 0.09159091 -0.02067485 -0.10568986 -0.13860036
00000000: 9316 1e3d e908 2ebe 94bd 36be 948f 0abc
00000010: 0067 c0bd 4c09 953c b78f 833d 9810 063e
00000020: 5afe 843c e6a3 f3bd 34d7 043e 4a01 3ebe
00000030: f402 a43c a6d8 83bd 4187 283d 149b 25bc
00000040: a58e e5bd be62 a13c b512 373a 2ffb 8e3c
00000050: 2e36 523e f363 efbb a914 7fbc b98a ea3d
00000060: 21a8 1cbb 43d8 9d3c 0d00 d63c 8072 0ebe
00000070: cb35 063d baad c4bd f74e dcbd efed 853d
00000080: f637 cabd 484a c6bd 911f c13c d254 04be
00000090: dbec 3dbe 1dac 53bd eb0c 47bc 4d79 d4bd
000000a0: 108f e9bd d447 7abd cfb7 f1bd 5a3d bdbc
000000b0: 0d81 9ebb ab3c 7a3d a8b3 213d dbda d83c
000000c0: 60e1 173d a04f bcbd 2559 ab3d 9253 00be
000000d0: 4f09 1c3c ce45 993d 4a96 d6bd 399a b4bc
000000e0: 592a af3d c90f 19be 05bf 873d b077 433e
000000f0: 1ee0 45be 277a debd 6d89 0dbe 3627 233d
00000100: efca 1bbc ac60 cebd 6614 833d 5121 babb
00000110: 3232 c8bd 5d69 8b3d 5b48 aabd 5445 30bd
00000120: 0dc0 41bd f3a0 f43c ff7b aebd 18f8 333d
00000130: e7c7 a43d 8384 a9bd ade9 6bbd afa1 80bc
00000140: 6b72 93bd 1fa1 afbd 0e15 013e 9144 8bbd
00000150: b254 fabd 020d 70bd cf9a ea3c d279 2c3e
00000160: 1cac 743d 346f dcbd ffdc 3bbe a493 9e3d
00000170: 5ca8 12be b2f8 01bd f661 15be 5ade 2f3d
00000180: 6eea 1bbd cab6 ab3c e476 31be 3c25 aa3d
00000190: 1865 60be 4d5e 01be b6b9 59bd 356b ebbc
000001a0: 4993 b5bd df57 04be 3016 383d 493c 95bd
000001b0: 18df 29be feb2 2abd 0156 c43d 3d52 9abd
000001c0: 8aaa 49be 6f90 7e3c 49b8 0b3e 786a 83bc
000001d0: c092 1b3e 9543 85bc 1ae0 c5bd d8c8 4abd
000001e0: a562 2a3d 39c9 3abe 62c7 f83d 3fc8 abbd
000001f0: 0494 bb3d 4e5e a9bc ed73 d8bd 41ed 0dbe

net_container.4.weight f4 [128, 128]
-0.047175504 0.12967029 -0.058946747 -0.029317467 0.07311337 -0.041407425 0.031702325 0.015920376
-0.009446997 -0.06020891 -0.08123327 0.026490156 0.076800495 -0.007330788 -0.015305229 -0.059142012
-0.023562435 -0.039624427 0.0142671615 0.03835475 -0.1541647 -0.08732834 0.09460077 -0.026238587
0.008009354 0.043600418 -0.017294018 -0.042678684 0.03010472 0.032449674 0.022433938 0.05115966
0.059337776 0.01785746 -0.06309203 -0.09430354 0.008889349 -0.02075672 0.045262586 -0.006745262
-0.07248584 0.044951584 0.0389506 0.030013192 -0.023853347 -0.020419454 -0.02315701 0.08780673
-0.13068858 -0.065218784 0.044788975 0.057059735 0.15783148 -0.07253655 0.020185221 -0.016035825
-0.0001219283 -0.026057305 -0.022063622 0.023022993 0.024065832 0.029555317 0.026803583 -0.04919509
-0.04686285 0.0058937813 -0.07316524 -0.091206856 0.052697968 0.09142121 -0.01735617 0.03332733
0.11967952 -0.08265651 -0.15873918 -0.12667875 0.06865928 0.041999303 0.10064892 -0.017014978
0.03071944 0.051827807 -0.01658257 -0.042160857 0.036393233 0.029506931 -0.037232004 0.03604149
0.02694147 -0.053996705 0.15814058 -0.0020621559 0.15828967 -0.007745632 -0.06978249 -0.08675679
-0.004705875 0.09610907 -0.011026455 0.030110067 0.12864389 0.09347701 0.042826224 0.024902228
0.051209252 0.08754253 0.039547477 0.052160926 -0.0223103 -0.09621423 -0.00860036 0.12604243
-0.08628674 -0.021371305 0.009216209 0.06342095 -0.1073385 0.059688326 -0.033096883 0.011940702
0.04686017 -0.039767083 -0.050079208 0.06808349 -0.04988616 0.009071947 0.053578697 0.024865728
0.14839964 -0.04869529 7.3709925e-05 0.11068916 0.08540101 -0.03799175 -0.015838133 -0.12713459
0.032958675 -0.018625561 0.03674968 -0.20055524 0.039863855 0.09917433 0.07830002 -0.058373634
0.017021647 -0.096005075 -0.12479904 -0.0015386816 -0.0028308646 -0.10311872 0.012383991 -0.05310837
0.07675624 0.033037852 -0.004270216 -0.015764935 0.032498598 -0.28346255 0.048351225 0.12036298
0.047107827 0.111974046 0.09974105 0.002480692 -0.034232907 -0.11479137 0.004363193 0.0033544817
0.09694106 -0.16359268 -0.03998689 0.18224628 -0.14961734 0.0954039 -0.0316553 0.062362302
-0.06817993 -0.049993165 0.0068891593 -0.0022165272 -0.26870364 0.04216399 -0.12952414 -0.03223974
0.0010996485 0.020344598 0.025709135 -0.0059529366 0.0020498086 0.080360554 0.09276751 -0.03143818
-0.049511887 -0.16024965 0.0045704413 0.052420415 0.062752366 -0.0526782 -0.0018133807 0.008282864
0.019168368 -0.028869588 0.10396567 -0.031793382 -0.009894079 -0.0020661298 -0.09691443 -0.04565697
-0.012301211 0.022357032 -0.075278744 0.06956674 0.045388673 -0.013030876 -0.18112819 -0.059576638
0.09198 -0.025374915 0.10681036 0.09201494 0.06933161 -0.060516596 -0.005251989 0.057410646
0.09260768 -0.0014886607 -0.0086327195 0.06741869 0.14606075 -0.26795682 0.10570516 0.10136599
0.031596072 -0.07762604 -0.17691559 0.049756173 -0.0037837843 -0.08206611 -0.15201062 -0.09456172
0.011390793 0.044931557 -0.033103053 -0.017283008 0.056684554 -0.03489218 0.11902954 0.11457856
-0.124820426 0.02603301 0.03609987 0.020453459 0.010907419 -0.011928283 0.113811985 0.06589503
00000000: 1a3b 41bd 4ac8 043e 2572 71bd 2f2b f0bc
00000010: 76bc 953d d59a 29bd 4cda 013d 736b 823c
00000020: 94c7 1abc 9e9d 76bd a15d a6bd e201 d93c
00000030: 9449 9d3d 1b37 f0bb c9c2 7abc e53e 72bd
00000040: 0206 c1bc 394d 22bd d0c0 693c df19 1d3d
00000050: 5add 1dbe 33d9 b2bd 0cbe c13d 4ef2 d6bc
00000060: aa39 033c 5a96 323d 2fac 8dbc d8cf 2ebd
00000070: 2c9e f63c f3e9 043d 61c7 b73c cb8c 513d
00000080: 2b0c 733d cf49 923c 6536 81bd 3722 c1bd
00000090: a2a4 113c ff09 aabc 4365 393d 5c07 ddbb
000000a0: 7573 94bd 271f 383d aa8a 1f3d 3ade f53c
000000b0: 1868 c3bc b346 a7bc c5b3 bdbc 04d4 b33d
000000c0: 3ad3 05be 6d91 85bd a574 373d 78b7 693d
000000d0: 939e 213e 0b8e 94bd 7a5b a53c 905d 83bc
000000e0: c2b3 ffb8 2176 d5bc c5be b4bc b79a bc3c
000000f0: b525 c53c fe1d f23c 3093 db3c ca80 49bd
00000100: 43f3 3fbd 9f20 c13b a8d7 95bd a9ca babd
00000110: d3d9 573d 0b3b bb3d 872e 8ebc 3d82 083d
00000120: 891a f53d d147 a9bd 868c 22be 13b8 01be
00000130: 3d9d 8c3d 7607 2c3d 0521 ce3d ff62 8bbc
00000140: 56a7 fb3c 6549 543d 2bd8 87bc ddb0 2cbd
00000150: 1211 153d 85b8 f13c 9680 18bd 3ea0 133d
00000160: 5cb4 dc3c a62b 5dbd 9bef 213e 3c25 07bb
00000170: b016 223e 12cf fdbb 1fea 8ebd 8bad b1bd
00000180: be33 9abb d5d4 c43d 4ea8 34bc 63a9 f63c
00000190: 39bb 033e e070 bf3d 8d6a 2f3d c2ff cb3c
000001a0: cbc0 513d 7f49 b33d 89fc 213d b2a6 553d
000001b0: 17c4 b6bc f70b c5bd 86e8 0cbc 4411 013e
000001c0: 1ab7 b0bd e012 afbc 95ff 163c d8e2 813d
000001d0: 4ad4 dbbd bf7b 743d 9990 07bd efa2 433c
000001e0: 73f0 3f3d cfe2 22bd db1f 4dbd 5b6f 8b3d
000001f0: 6e55 4cbd 81a2 143c 5675 5b3d 36b3 cb3c
00000200: 13f6 173e b674 47bd b794 9a38 00b1 e23d
00000210: bae6 ae3d 3d9d 1bbd f9be 81bc 922f 02be
00000220: adff 063d a294 98bc d586 163d 5a5e 4dbe
00000230: 4848 233d e91b cb3d c35b a03d 3119 6fbd
00000240: fb70 8b3c 4f9e c4bd a496 ffbd 96ad c9ba
00000250: 0786 39bb e82f d3bd 39e6 4a3c 2a88 59bd
00000260: 6032 9d3d b352 073d 2bed 8bbb 7725 81bc
00000270: 401d 053d 0122 91be ef0b 463d de80 f63d
00000280: 23f4 403d a652 e53d 0945 cc3d 1b93 223b
00000290: ce37 0cbd bd17 ebbd 1ef9 8e3b ddd6 5b3b
000002a0: 0989 c63d d784 27be 4bc9 23bd c59e 3a3e
000002b0: 4a35 19be 1f63 c33d fda8 01bd 9d6f 7f3d
000002c0: eba1 8bbd a2c5 4cbd 75be e13b 2843 11bb
000002d0: 8693 89be 26b4 2c3d faa1 04be d10d 04bd
000002e0: 1522 903a b7a9 a63c f79b d23c da10 c3bb
000002f0: 1556 063b 1394 a43d e4fc bd3d 52c5 00bd
00000300: facc 4abd 7c18 24be a4c3 953b cab6 563d
00000310: 5084 803d 19c5 57bd f6ae edba d9b4 073c
00000320: fb06 9d3c ea7f ecbc f4eb d43d c739 02bd
00000330: c61a 22bc e867 07bb 137b c6bd ce02 3bbd
00000340: 058b 49bc 1826 b73c be2b 9abd 0279 8e3d
00000350: 79e9 393d 757f 55bc ab79 39be a206 74bd
00000360: 0360 bc3d 0edf cfbc 64bf da3d 5472 bc3d
00000370: bbfd 8d3d 40e0 77bd e018 acbb 6d27 6b3d
00000380: 18a9 bd3d 2a1f c3ba 4070 0dbc cf12 8a3d
00000390: f390 153e a331 89be f27b d83d f998 cf3d
000003a0: e26a 013d 67fa 9ebd 5c29 35be 21cd 4b3d
000003b0: 5ef9 77bb 4712 a8bd aca8 1bbe 93a9 c1bd
000003c0: 73a0 3a3c 270a 383d 1197 07bd 1895 8dbc
000003d0: 102e 683d 1aeb 0ebd c2c5 f33d 2aa8 ea3d
000003e0: daa1 ffbd 2e43 d53c 75dd 133d 038e a73c
000003f0: 08b5 323c d86e 43bc 4216 e93d f9f3 863d

net_container.4.bias f4 [128]
-0.15051064 -0.10757585 0.11591381 -0.10098011 -0.09538924 -0.11232811 -0.08397754 -0.028567526
-0.087405585 -0.049992584 0.06372366 -0.13274847 -0.03741821 -0.14663528 -0.051488556 0.05348764
-0.059635006 -0.02201408 0.06910288 -0.005352397 -0.061313055 0.029192979 -0.11636703 0.089176156
-0.024706967 -0.04795388 0.0823546 0.016573092 -0.016103573 0.012617837 -0.103308864 0.049487974
0.007990735 -0.07045866 -0.031890903 -0.1168206 -0.06750138 -0.009851544 -0.014978485 0.05392468
-0.03822502 -0.06916194 0.04001632 -0.08782915 -0.089080416 0.021500016 -0.079984926 -0.013227147
0.019907342 0.015564066 0.030590756 -0.11954302 -0.04687748 -0.07294157 -0.03145016 0.04312489
0.08291744 -0.16051185 -0.025628284 0.055908028 -0.049167126 -0.024453808 -0.070759006 -0.04437066
-0.08191859 -0.022211809 -0.087307125 0.04371366 -0.052292474 -0.0019438289 0.069630116 0.031655017
-0.01607831 0.15560922 -0.030533526 0.020264106 0.05140332 0.029968908 0.08008608 -0.075039
0.12893753 -0.008693849 -0.07065645 0.050530676 0.004796297 -0.08586196 -0.03130864 0.0012194791
0.1006708 -0.07648888 -0.09861726 -0.021313883 -0.041858174 -0.04385344 0.08100269 -0.07371761
-0.084348045 -0.08808144 -0.07853448 0.032100208 -0.12711847 -0.11433601 -0.18188415 0.04968174
-0.040770076 -0.04512681 0.0451112 -0.02637532 -0.12339895 0.00016641441 -0.026027296 0.022370506
-0.11620591 -0.11818257 0.13956703 0.04974883 0.020389108 0.04449332 -0.013753913 0.06414093
-0.025314542 0.022314752 -0.016747164 -0.039097987 -0.03574118 -0.050102964 0.13274568 0.021769771
00000000: 761f 1abe ba50 dcbd 3864 ed3d a9ce cebd
00000010: 6f5b c3bd 480c e6bd 6bfc abbd 7206 eabc
00000020: b301 b3bd 06c5 4cbd 8d81 823d 37ef 07be
00000030: d643 19bd 8f27 16be aae5 52bd db15 5b3d
00000040: d643 74bd df56 b4bc d085 8d3d 2963 afbb
00000050: 6623 7bbd 1d26 ef3c d651 eebd fda1 b63d
00000060: 4466 cabc 4a6b 44bd 87a9 a83d 4bc4 873c
00000070: a4eb 83bc 0bbb 4e3c 9993 d3bd e7b3 4a3d
00000080: 92eb 023c a14c 90bd 09a0 02bd a43f efbd
00000090: 2a3e 8abd 5f68 21bc 5268 75bc 20e0 5c3d
000000a0: d791 1cbd c6a4 8dbd 27e8 233d c5df b3bd
000000b0: cb6f b6bd cd20 b03c 23cf a3bd adb6 58bc
000000c0: b914 a33c 6d00 7f3c 7799 fa3c f9d2 f4bd
000000d0: 9a02 40bd 6462 95bd e2d1 00bd baa3 303d
000000e0: 9ed0 a93d 385d 24be 68f2 d1bc d1ff 643d
000000f0: 7863 49bd 5a53 c8bc 19ea 90bd 02be 35bd
00000100: efc4 a7bd 8af5 b5bc 14ce b2bd 180d 333d
00000110: a230 56bd 13c8 feba 3c9a 8e3d b1a8 013d
00000120: a9b6 83bc 0658 1f3e 7221 fabc e900 a63c
00000130: 4a8c 523d 5b81 f53c 2c04 a43d 0cae 99bd
00000140: 3308 043e a570 0ebc 54b4 90bd 41f9 4e3d
00000150: 412a 9d3b 65d8 afbd 7d3d 00bd eed6 9f3a
00000160: 7e2c ce3d 34a6 9cbd d9f7 c9bd 749a aebc
00000170: 7a73 2bbd aa9f 33bd bde4 a53d 42f9 96bd
00000180: abbe acbd 0b64 b4bd afd6 a0bd 827b 033d
00000190: 582b 02be ff28 eabd d73f 3abe 157f 4b3d
000001a0: 86fe 26bd e4d6 38bd 86c6 383d 0e11 d8bc
000001b0: 97b8 fcbd 877f 2e39 3237 d5bc 5a42 b73c
000001c0: 5dfd edbd b409 f2bd a9ea 0e3e 6ec5 4b3d
000001d0: 0f07 a73c a13e 363d 1858 61bc 525c 833d
000001e0: 7160 cfbc 6dcd b63c 5931 89bc 3625 20bd
000001f0: 5865 12bd c438 4dbd 7cee 073e 8556 b23c

policy_layer.weight f4 [19, 128]
0.0055598565 0.052562144 -0.01686656 0.00855258 -0.0804285 0.07411554 0.04059184 0.008430163
0.0033528619 0.051423553 -0.01430845 -0.014459639 0.014916783 -0.0025254588 0.014841114 0.019252516
-0.021549203 -0.008177801 0.0525602 0.016293623 0.0022331628 0.024524894 0.050351113 -0.064245015
-0.021126837 -0.0015302274 -0.033434115 -0.020423954 0.02386782 0.062573366 -0.024809323 0.0077477423
-0.01301706 -0.0211597 0.027517151 -0.0462682 0.05866452 0.07915614 -0.04337597 -0.019091552
-0.012762972 0.015348142 -0.049313504 0.063889936 -0.05135296 -0.06350473 0.01760634 0.0032066535
0.011328811 -0.008124388 -0.057157826 0.03247378 0.0021390093 0.014977949 -0.011153406 0.039190553
-0.039988942 0.04813594 0.02026881 0.012475781 0.0105590345 0.06627517 0.028799498 -0.04693336
0.008956779 -0.054016013 -0.018511202 0.043439277 -0.04633797 -0.037605975 -0.067621335 0.042550158
0.10500266 0.023236608 0.0055156928 -0.021479128 0.05164208 -0.027110336 0.0138199 -0.0032599652
-0.04190078 -0.056732617 0.08938377 -0.07197881 0.024006182 -0.007955153 0.05465954 0.041012164
-0.008299704 0.04011044 0.05799183 -0.030947153 -0.043896314 0.080777176 -0.06443118 -0.020699957
-0.024999179 0.026822722 0.0058627487 -0.027363144 0.029950332 0.0068704765 -0.03937804 -0.051540736
0.024408516 -0.043252774 0.04719792 -0.0054146624 -0.020012205 -0.012087059 0.042078767 0.020720182
-0.014598987 0.008172922 0.0052619567 0.009498927 -0.0689286 0.009803452 -0.061650015 0.0031148223
-0.011974139 -0.08266184 -0.08326002 -0.025142146 0.0013030777 -0.04666947 0.00033223577 -0.048871323
-0.06330492 0.02956082 0.03481456 -0.042049106 -0.004323454 0.05402761 0.0011996478 -0.043047044
-0.05197552 0.003710852 -0.05862374 -0.010927983 -0.048977114 -0.065542355 0.059259005 -0.027197273
-0.008360156 -0.011138719 0.053021125 0.0074105104 0.010065248 0.032084484 -0.0131882895 0.061158195
0.020768574 0.027100215 0.09347457 0.0053064 0.051149536 0.015468975 0.028734569 -0.014249772
0.02095497 0.0009215194 -0.0020889787 -0.05308263 0.10138283 -0.0066395616 0.08811408 0.053110816
0.005806601 -0.016690716 -0.007302448 -0.002344301 0.012609235 0.06035927 -0.014708352 0.018059451
-0.012832397 -0.008701207 -0.071304515 -0.010844281 0.030849235 0.0129140215 -0.0098812515 0.064928316
-0.048751976 -0.07150082 -0.08684618 0.06463446 -0.08002778 0.011418369 -0.042359065 0.012643072
-0.016170222 -0.028993808 0.021045938 -0.029795049 0.064134665 0.051040787 -0.043008447 -0.059996407
-0.009770773 -0.0065286793 -0.011133889 0.019220784 -0.019298097 0.029025666 0.002804075 -0.021886686
-0.016128281 0.07167028 -0.0058725458 0.03664832 0.06924792 -0.017593719 0.0059597427 -0.008775185
-0.017077005 0.00037748937 -0.018483175 -0.04026934 -0.0177157 -0.037083708 0.014796412 0.010948066
-0.0115076 0.023361534 -0.039129004 0.009572278 -0.0029447053 0.028375078 0.016498938 -0.0035405
0.010243515 0.04841994 -0.008586815 0.069345586 -0.019694356 -0.01659289 -0.06067986 0.0053872997
0.013281664 -0.043264695 0.013512396 -0.002870429 0.09757134 -0.015314409 -0.035774745 -0.0321024
-0.0063996464 0.0039734417 0.03957909 0.07275434 0.034918472 0.0076677655 -0.022940952 0.01868671
00000000: 752f b63b 674b 573d bd2b 8abc 1f20 0c3c
00000010: b3b7 a4bd e3c9 973d a143 263d ab1e 0a3c
00000020: b0bb 5b3b 81a1 523d fd6d 6abc 1fe8 6cbc
00000030: 8665 743c 2b82 25bb 2528 733c 74b7 9d3c
00000040: f487 b0bc 2ffc 05bc 5d49 573d 347a 853c
00000050: 415a 123b 6ee8 c83c f83c 4e3d e492 83bd
00000060: 3012 adbc e991 c8ba 36f2 08bd 2350 a7bc
00000070: 7286 c33c 7726 803d ec3c cbbc c6e0 fd3b
00000080: 8245 55bc 1b57 adbc a66b e13c b983 3dbd
00000090: 354a 703d 9d1c a23d 00ab 31bd e365 9cbc
000000a0: c91b 51bc c676 7b3c f5fc 49bd bad8 823d
000000b0: 7b57 52bd c50e 82bd 2c3b 903c b826 523b
000000c0: 7a9c 393c 271c 05bc 531e 6abd 3a03 053d
000000d0: 9f2e 0c3b 1266 753c c7bc 36bc 4686 203d
000000e0: 72cb 23bd 312a 453d c70a a63c 3867 4c3c
000000f0: cdff 2c3c 47bb 873d edec eb3c 323d 40bd
00000100: 74bf 123c e53f 5dbd cea4 97bc 62ed 313d
00000110: e2cc 3dbd b908 1abd 0e7d 8abd 1349 2e3d
00000120: a20b d73d b35a be3c fcbc b43b fff4 afbc
00000130: a586 533d 7f16 debc dd6c 623c 24a5 55bb
00000140: 27a0 2bbd 7660 68bd d70e b73d a069 93bd
00000150: 9da8 c43c 5456 02bc afe2 5f3d 5ffc 273d
00000160: 7bfb 07bc d84a 243d d788 6d3d e284 fdbc
00000170: 9fcc 33bd 816e a53d 7ff4 83bd f592 a9bc
00000180: 14cb ccbc 53bb db3c 4d1c c03b ac28 e0bc
00000190: 665a f53c bc21 e13b de4a 21bd 611c 53bd
000001a0: 5ef4 c73c d229 31bd 9b52 413d 7b6d b1bb
000001b0: a3f0 a3bc cd08 46bc c95a 2c3d 5fbd a93c
000001c0: 9730 6fbc b8e7 053c 7e6c ac3b 63a1 1b3c
000001d0: 702a 8dbd a89e 203c ba84 7cbd 0c22 4c3b
000001e0: 2e2f 44bc 9c4a a9bd 3b84 aabd e7f6 cdbc
000001f0: 08cc aa3a 7c28 3fbd ee2f ae39 4c2d 48bd
00000200: 03a6 81bd 8829 f23c b699 0e3d af3b 2cbd
00000210: c3ab 8dbb 0e4c 5d3d 803d 9d3a 1952 30bd
00000220: 48e4 54bd c431 733b 721f 70bd 480b 33bc
00000230: 3a9c 48bd 123b 86bd 92b9 723d d1cc debc
00000240: 09f9 08bc 2c7f 36bc ae2c 593d ded3 f23b
00000250: b6e8 243c 056b 033d b213 58bc 0481 7a3d
00000260: db22 aa3c 4501 de3c 986f bf3d 4fe1 ad3b
00000270: 2d82 513d 9571 7d3c c264 eb3c e077 69bc
00000280: c2a9 ab3c 1f92 713a 3fe7 08bb 2c6d 59bd
00000290: cda1 cf3d ae90 d9bb 2875 b43d ba8a 593d
000002a0: 4d45 be3b f8ba 88bc 6049 efbb d8a2 19bb
000002b0: f796 4e3c 483b 773d 4dfb 70bc 6af1 933c
000002c0: f93e 52bc 828f 0ebc 1a08 92bd 36ac 31bc
000002d0: 89b7 fc3c 5595 533c f9e4 21bc 23f9 843d
000002e0: 27b0 47bd 066f 92bd 69dc b1bd 125f 843d
000002f0: 9be5 a3bd 1c14 3b3c b380 2dbd e324 4f3c
00000300: 6a77 84bc 6c84 edbc 8868 ac3c bf14 f4bc
00000310: 0959 833d 2510 513d a029 30bd cbbe 75bd
00000320: 9815 20bc 88ee d5bb ea6a 36bc e874 9d3c
00000330: 0b17 9ebc 3cc7 ed3c 92c4 373b b54b b3bc
00000340: 751f 84bc dec7 923d 7c6e c0bb 8c1c 163d
00000350: dad1 8d3d b420 90bc f249 c33b cbc5 0fbc
00000360: 13e5 8bbc c4e9 c539 076a 97bc 77f1 24bd
00000370: 8420 91bc 16e5 17bd a66c 723c 845f 333c
00000380: 5f8a 3cbc b060 bf3c bc45 20bd 0bd5 1c3c
00000390: f5fb 40bb da72 e83c c828 873c bc07 68bb
000003a0: 6ad4 273c fd53 463d b6af 0cbc 0f05 8e3d
000003b0: 0f56 a1bc d0ed 87bc 728b 78bd f287 b03b
000003c0: 569b 593c 5236 31bd 1963 5d3c cf1d 3cbb
000003d0: 7cd3 c73d 49e9 7abc 8a88 12bd ce7d 03bd
000003e0: 20b4 d1bb a533 823b af1d 223d 3a00 953d
000003f0: ac06 0f3d e141 fb3b aaee bbbc df14 993c

policy_layer.bias f4 [19]
-0.02240371 -0.0075196675 0.0030240836 0.0151125705 0.0039439523 -0.0029045136 -0.027030354 0.0124706235
-0.045144588 0.086724065 0.023344828 0.0755316 0.051505014 0.03934008 -0.031545393 -0.17276
-0.1552267 0.04158244 -0.046878055
00000000: fc87 b7bc 8b67 f6bb b42f 463b b79a 773c
00000010: 453c 813b a759 3ebb c36e ddbc 9651 4c3c
00000020: 88e9 38bd 639c b13d a73d bf3c 50b0 9a3d
00000030: ecf6 523d 1023 213d be35 01bd ffe7 30be
00000040: bff3 1ebe 5952 2a3d 3403 40bd

value_layer.weight f4 [1, 128]
-0.13270096 -0.018220102 0.082127556 -0.010884327 -0.07564077 0.00064933114 -0.0630223 0.11707729
-0.06824719 -0.0738998 -0.06948237 -0.10548334 0.058101512 0.01719147 -0.028349612 -0.07026925
0.055641126 -0.08739136 0.024254147 0.009428466 -0.09333498 0.10664235 0.017404512 0.110176496
-0.0005373541 0.08818695 -0.055140875 -0.013228441 0.095737375 -0.049543615 0.1079411 0.08851905
-0.038248446 -0.020638702 0.077818654 0.027944624 -0.14040373 -0.028388262 -0.12348167 -0.10445727
0.0054181144 0.07834353 -0.02044431 -0.028304312 0.058202386 -0.109093845 0.1053161 -0.045522872
-0.12311556 -0.03781971 0.060114298 -0.040790673 -0.10046139 -0.06724846 -0.07142665 -0.057385355
0.06336116 -0.13603896 0.030315159 0.008273089 0.06144573 0.098484844 -0.062841035 -0.10550201
-0.106190585 -0.022603376 0.051874742 -0.029430332 -0.04743676 0.085922934 -0.10484572 0.121963054
-0.06379626 0.15514097 0.06347595 -0.12881112 0.039282627 0.00868704 -0.016329931 -0.036924973
0.07009551 0.03824833 -0.057369675 0.005507545 0.04198108 0.01647835 0.0027444048 0.079524994
0.08437104 -0.08157889 -0.029836932 0.033475555 0.02176459 -0.023453137 0.08143859 -0.13630736
-0.037943624 0.08367835 -0.09229643 0.05109987 -0.058857463 -0.08813302 -0.10823473 0.06806836
-0.052624717 -0.10382012 -0.037593514 0.063494764 -0.120494686 0.057858255 -0.04761044 0.04239654
-0.09308156 0.062387396 0.075961754 -0.11552132 -0.04332577 0.06433071 0.08270991 -0.11123393
0.03916753 0.037756592 -0.073752426 0.036541816 -0.06831728 0.058135793 0.09380718 0.038030375
00000000: c3e2 07be 5342 95bc 7e32 a83d 2d54 32bc
00000010: 8ce9 9abd e037 2a3a d611 81bd 38c6 ef3d
00000020: 2fc5 8bbd c758 97bd c64c 8ebd a607 d8bd
00000030: dafb 6d3d 20d5 8c3c 723d e8bc 53e9 8fbd
00000040: f3e7 633d 3efa b2bd a2b0 c63c da79 1a3c
00000050: 6926 bfbd 4e67 da3d e893 8e3c 37a4 e13d
00000060: 39dd 0cba 5c9b b43d 66db 61bd 1abc 58bc
00000070: f511 c43d 3fee 4abd 3910 dd3d 7a49 b53d
00000080: 67aa 1cbd 7f12 a9bc 635f 9f3d 20ec e43c
00000090: ffc5 0fbe 808e e8bc f5e3 fcbd b1ed d5bd
000000a0: 708a b13b 9372 a03d d37a a7bc 72de e7bc
000000b0: a065 6e3d 986c dfbd f8af d73d 3176 3abd
000000c0: 0324 fcbd d7e8 1abd 693a 763d 1f14 27bd
000000d0: b4be cdbd 90b9 89bd 2348 92bd e80c 6bbd
000000e0: 7fc3 813d cc4d 0bbe 7f57 f83c da8b 073c
000000f0: 85ae 7b3d 6cb2 c93d cdb2 80bd 7011 d8bd
00000100: 737a d9bd b72a b9bc 9c7a 543d e117 f1bc
00000110: 0c4d 42bd 5df8 af3d 5ab9 d6bd c4c7 f93d
00000120: 9da7 82bd 46dd 1e3e aeff 813d 10e7 03be
00000130: d2e6 203d 1654 0e3c 59c6 85bc a43e 17bd
00000140: 3c8e 8f3d 48aa 1c3d 77fc 6abd a378 b43b
00000150: 5af4 2b3d 9bfd 863c 79db 333b 00de a23d
00000160: b9ca ac3d d512 a7bd 956c f4bc aa1d 093d
00000170: a74b b23c cb20 c0bc 47c9 a63d 2894 0bbe
00000180: c66a 1bbd 8e5f ab3d e905 bdbd 194e 513d
00000190: 8614 71bd 167f b4bd 2caa ddbd 6d67 8b3d
000001a0: 048d 57bd a59f d4bd a8fb 19bd 8b09 823d
000001b0: ebc5 f6bd c7fc 6c3d 2a03 43bd ffa7 2d3d
000001c0: 8ca1 bebd ed89 7f3d d691 9b3d 7196 ecbd
000001d0: 5d76 31bd d2bf 833d d063 a93d 9dce e3bd
000001e0: 226e 203d a8a6 1a3d 830b 97bd dfac 153d
000001f0: eee9 8bbd cc1f 6e3d fb1d c03d bdc5 1b3d

log_std_parameter f4 [19]
-2.3011672 -2.2710605 -2.49929 -1.4276568 -1.4915731 -0.6105042 -0.59413147 -1.7663956
-1.868414 -0.5349004 -0.6177734 -1.2484282 -1.1736931 -0.59610957 -0.5279635 -0.636362
-0.6056989 -0.58796734 -0.5886026
00000000: 5346 13c0 0e59 11c0 5ef4 1fc0 75bd b6bf
00000010: deeb bebf 014a 1cbf 0019 18bf 4019 e2bf
00000020: 3128 efbf 3cef 08bf 6626 1ebf 7fcc 9fbf
00000030: 933b 96bf a39a 18bf 9e28 07bf 9fe8 22bf
00000040: 150f 1bbf 0785 16bf a9ae 16bf

net_container.0.weight f4 [128, 69]
-0.03501044 -0.15936694 -0.072618045 -0.08505656 0.002256847 -0.10210767 -0.14695413 -0.4551332
0.03658598 -0.034083072 -0.062220123 0.28054315 -0.13799235 -0.18843631 -0.5148239 -0.057872776
0.4927155 -0.21218398 0.025520863 -0.3701453 -0.09809029 -0.43326387 0.083907194 -0.27298114
-0.14331079 -0.058639027 -0.4314973 0.24350128 0.1826302 -0.14683637 -0.15919921 -0.08682755
0.0049751885 -0.018703533 -0.104556456 0.05069002 -0.006862695 -0.043789074 -0.044473734 0.03750824
0.05654183 0.17340466 0.091655366 0.03194494 0.048753742 0.09775949 -0.099978596 0.08318444
-0.07978467 0.062252074 -0.118097045 -0.05627748 0.140822 -0.038503386 -0.15305798 -0.17980707
-0.069502145 0.15652955 0.17382574 0.22495186 -0.039657995 -0.0278873 0.0003518584 -0.05219528
-0.06892733 -0.094783865 0.03375948 -0.10584667 0.09170059 0.22080582 0.043651186 0.52828103
-0.09888418 -0.066124424 0.08227144 0.19824113 -0.08010419 0.071011335 -0.14196338 -0.041140597
0.22533354 -0.055611998 -0.20380293 0.07143487 0.13895434 0.17260791 -0.07419109 -0.059285972
0.2403015 -0.07576752 0.038916215 0.05233437 -0.10407523 -0.03474445 0.24327974 -0.23244737
-0.043206826 0.29137617 0.15766643 -0.13323939 0.028158845 0.10527603 -0.005437188 -0.062510274
-0.036592685 -0.013465355 0.008866368 0.0468743 -0.01414664 0.06327378 -0.04616514 -0.06556997
0.101658024 0.102373704 0.09964716 0.010103786 0.025526835 -0.12947312 -0.027117198 0.19394717
-0.03257097 -0.10117785 0.13147615 -0.098482504 -0.17340566 -0.16671164 0.0706162 -0.049202863
-0.065134846 -0.094505005 0.01995677 -0.05271327 -0.13190958 0.009887797 -0.097149506 -0.16864422
-0.21998696 0.030054659 -0.43372875 0.16914056 -0.13413022 0.035467397 -0.1610824 -0.05243725
-0.7947202 0.93532985 0.16230509 0.303214 0.041517723 0.060390662 -0.3169125 -0.1238032
-0.06362446 -0.17726277 -0.16575967 0.026482027 0.12643252 -0.9140357 0.17516237 0.036169004
0.10807842 -0.05582312 0.07293237 -0.006293439 0.052736286 0.17069134 -0.18883051 -0.07509821
0.11561695 0.019044796 -0.007424936 0.015094654 0.07282486 -0.050985187 0.021645907 0.05575912
-0.06684855 0.018027132 -0.019675894 -0.06013856 0.0074716075 -0.024477752 0.0012685071 0.02686553
-0.03888445 -0.012458817 -0.011912132 -0.011463584 -0.11537638 -0.02694875 -0.072676376 -0.019871706
0.06677549 0.07905789 -0.018779326 -0.070799895 -0.065998144 0.08298645 0.0043188515 -0.16871685
0.012829535 -0.014525417 -0.031135421 0.02188141 0.0028471558 -0.015940174 -0.009869167 0.22502825
-0.013568839 -0.04303794 -0.07132509 -0.0265083 -0.033269178 1.2498649 -0.8453615 0.01422615
0.31380987 0.116648525 -0.09528014 0.37740985 -0.011211065 0.44051185 0.733005 0.018847648
0.03965994 0.20147112 0.71039456 0.29414594 -0.22645868 -0.08199766 0.1266055 0.36908355
0.046268646 0.010536479 -0.10526618 -0.28317448 0.04172668 -0.42928082 -0.0007248514 -0.024745824
-0.05168927 0.022308398 -0.03914322 0.0118657 0.057419457 -0.012730871 -0.007300045 -0.00546104
-0.059839096 0.026066719 0.021462914 0.05488021 0.018387038 0.060603943 0.025538666 -0.013327763
00000000: 1b67 0fbd 1631 23be c5b8 94bd 2232 aebd
00000010: 9ce7 133b d31d d1bd 257b 16be 3807 e9be
00000020: 2edb 153d b19a 0bbd 87da 7ebd 5aa3 8f3e
00000030: de4d 0dbe 73f5 40be 80cb 03bf 010c 6dbd
00000040: 3545 fc3e c246 59be 2111 d13c af83 bdbe
00000050: 90e3 c8bd c3d4 ddbe 89d7 ab3d 2fc4 8bbe
00000060: 10c0 12be 7a2f 70bd 37ed dcbe 6658 793e
00000070: 6903 3b3e 465c 16be 1e05 23be a4d2 b1bd
00000080: e806 a33b 2738 99bc b221 d6bd 57a0 4f3d
00000090: 75e0 e0bb 2c5c 33bd 172a 36bd 3ea2 193d
000000a0: 6898 673d fe90 313e cfb5 bb3d b3d8 023d
000000b0: 01b2 473d 2136 c83d 94c1 ccbd 9b5c aa3d
000000c0: 2566 a3bd 08fc 7e3d dddc f1bd 3783 66bd
000000d0: a433 103e bab5 1dbd 3bbb 1cbe 581f 38be
000000e0: 2457 8ebd 4849 203e 60ff 313e c859 663e
000000f0: 6c70 22bd e873 e4bc a379 b839 b8ca 55bd
00000100: c629 8dbd 0b1e c2bd 6147 0a3d 24c6 d8bd
00000110: 85cd bb3d ec1a 623e 96cb 323d 6d3d 073f
00000120: ca83 cabd 3e6c 87bd ee7d a83d b9ff 4a3e
00000130: aa0d a4bd 646e 913d d95e 11be 0b83 28bd
00000140: d6bd 663e 68c9 63bd b7b1 50be 724c 923d
00000150: 0c4a 0e3e 21c0 303e 80f1 97bd d9d5 72bd
00000160: 9911 763e 002c 9bbd 9c66 1f3d 905c 563d
00000170: 6525 d5bd 3250 0ebd 531e 793e af06 6ebe
00000180: a4f9 30bd 422f 953e 4f73 213e e86f 08be
00000190: 61ad e63c f69a d73d 702a b2bb 6305 80bd
000001a0: 36e2 15bd cb9d 5cbc 3e44 113c 44ff 3f3d
000001b0: 4fc7 67bc af95 813d a817 3dbd 8c49 86bd
000001c0: 1532 d03d 4ea9 d13d cf13 cc3d 5a8a 253c
000001d0: a71d d13c 9a94 04be e324 debc 169a 463e
000001e0: 2369 05bd 5536 cfbd afa1 063e 32b1 c9bd
000001f0: 4191 31be 75b6 2abe 3a9f 903d f188 49bd
00000200: 6b65 85bd d78b c1bd 617c a33c dfe9 57bd
00000210: 4e13 07be 6d00 223c 52f6 c6bd 12b1 2cbe
00000220: 4344 61be 3035 f63c b211 debe 2f33 2d3e
00000230: 6f59 09be 4346 113d c9f2 24be 71c8 56bd
00000240: c872 4bbf c771 6f3f 4e33 263e de3e 9b3e
00000250: 7d0e 2a3d 335c 773d 5b42 a2be 888c fdbd
00000260: 8a4d 82bd 5f84 35be e7bc 29be d6f0 d83c
00000270: 8777 013e 3efe 69bf c45d 333e f325 143d
00000280: 3858 dd3d c9a6 64bd 915d 953d 3139 cebb
00000290: 0102 583d b6c9 2e3e c95c 41be 17cd 99bd
000002a0: 94c8 ec3d d503 9c3c e14c f3bb 914f 773c
000002b0: 3325 953d d8d5 50bd c252 b13c ad63 643d
000002c0: e5e7 88bd a3ad 933c 572f a1bc da53 76bd
000002d0: 63d4 f43b 9185 c8bc 0944 a63a 1a15 dc3c
000002e0: 4d45 1fbd 1120 4cbc 1a2b 43bc c2d1 3bbc
000002f0: 744a ecbd a0c3 dcbc 5ad7 94bd fdc9 a2bc
00000300: 97c1 883d 1ae9 a13d 1ad7 99bc 89ff 90bd
00000310: 092a 87bd cdf4 a93d 2785 8d3b 1cc4 2cbe
00000320: f832 523c 04fc 6dbc b60f ffbc a540 b33c
00000330: 5997 3a3b f894 82bc 49b2 21bc ce6d 663e
00000340: d64f 5ebc 8d48 30bd e412 92bd ef27 d9bc
00000350: 4345 08bd 93fb 9f3f 9c69 58bf cc14 693c
00000360: b0ab a03e 6ce5 ee3d 3c22 c3bd dd3b c13e
00000370: 9dae 37bc c58a e13e 37a6 3b3f 6266 9a3c
00000380: 7672 223d 724e 4e3e 6bdc 353f 4c9a 963e
00000390: c9e4 67be 64ee a7bd dfa4 013e 85f8 bc3e
000003a0: 3184 3d3d 32a1 2c3c cc95 d7bd 3ffc 90be
000003b0: 98e9 2a3d b2ca dbbe f403 3eba c1b7 cabc
000003c0: 21b8 53bd 1ac0 b63c a454 20bd 5a68 423c
000003d0: aa30 6b3d 2595 50bc 3735 efbb 86f2 b2bb
000003e0: d719 75bd df89 d53c fed2 af3c 12ca 603d
000003f0: 6aa0 963c d73b 783d 7736 d13c b15c 5abc

net_container.0.bias f4 [128]
0.1410699 -0.13473897 -0.019792156 -0.0005623743 0.12827815 0.05237664 0.08859355 0.09145343
0.1695333 0.13949952 0.011377897 -0.020849988 0.02207574 0.0029189482 0.17423318 -0.16999553
0.14141008 -0.14538985 0.19035292 0.04789848 0.09192492 0.06962453 -0.03260066 0.18749033
0.1011066 0.027486313 -0.058636215 -0.104915254 -0.04324204 -0.05785934 -0.009528342 0.01897374
0.17508261 0.010593935 -0.020626774 -0.17284702 0.06406784 0.04033194 0.07931336 0.049775135
-0.027278781 0.15750727 -0.09232722 -0.09971921 0.11797743 -0.104401805 0.040520992 -0.02861807
0.21610036 0.06992661 -0.049425863 0.058980513 -0.109381095 -0.04147261 -0.011502432 0.0044917325
0.1876139 0.064688556 0.11341819 0.0940262 -0.057937257 -0.0024662858 0.15754586 0.12006861
0.022305315 0.13450219 0.06073128 0.04474507 0.1276711 -0.01714668 0.08841773 -0.1514287
0.14161547 0.13847028 0.039072238 0.054771986 0.22764005 0.043382455 0.30426803 0.06274595
0.042750154 -0.038456257 0.2106145 0.07742743 0.023452098 0.061469186 0.13631667 0.20220868
-0.010335877 0.15900266 -0.09714246 0.037553735 0.113029726 -0.034170717 0.046084106 0.023407863
0.026000645 -0.12438464 -0.08504901 -0.0011544288 0.14261068 0.046183936 -0.06094442 0.028200338
0.008040661 0.03969748 0.067057766 -0.07947217 -0.006116791 -0.09894711 -0.06538904 -0.02436522
0.026766427 -0.07431663 0.1568715 0.16555326 -0.1221291 0.1195483 0.053029366 -0.041603647
0.032481033 -0.123795584 0.13640864 -0.098016396 0.021528017 -0.15722872 -0.077451184 0.021552691
00000000: a174 103e 03f9 09be 2923 a2bc 4d6c 13ba
00000010: 595b 033e e388 563d 8970 b53d f04b bb3d
00000020: 239a 2d3e f6d8 0e3e 5c6a 3a3c 98cd aabc
00000030: 2fd8 b43c d34b 3f3b 2f6a 323e 4f13 2ebe
00000040: cecd 103e 14e1 14be e0eb 423e 3231 443d
00000050: 2243 bc3d 4e97 8e3d 4588 05bd 77fd 3f3e
00000060: fa10 cf3d fa2a e13c 872c 70bd cfdd d6bd
00000070: 911e 31bd eafd 6cbd c31c 1cbc d16e 9b3c
00000080: db48 333e 2f92 2d3c 7bf9 a8bc cffe 30be
00000090: 0036 833d 1b33 253d 0b6f a23d 03e1 4b3d
000000a0: c077 dfbc 9649 213e 0e16 bdbd 9639 ccbd
000000b0: 279e f13d 9dd0 d5bd 57f9 253d 7170 eabc
000000c0: 6a49 5d3e af35 8f3d c672 4abd 8d95 713d
000000d0: 3203 e0bd 2fdf 29bd b274 3cbc 622f 933b
000000e0: dc1d 403e 6f7b 843d cc47 e83d cf90 c03d
000000f0: 9e4f 6dbd 69a1 21bb b453 213e 88e6 f53d
00000100: a3b9 b63c f1ba 093e 5dc1 783d 9b46 373d
00000110: 36bc 023e 3277 8cbc 5b14 b53d 2010 1bbe
00000120: a503 113e 27cb 0d3e 360a 203d 9758 603d
00000130: 791a 693e cdb1 313d 05c9 9b3e f380 803d
00000140: c91a 2f3d 4f84 1dbd 54ab 573e 4692 9e3d
00000150: 9d1e c03c 1dc7 7b3d 9996 0b3e cb0f 4f3e
00000160: cf57 29bc 98d1 223e a0f2 c6bd f2d1 193d
00000170: 217c e73d 98f6 0bbd b0c2 3c3d d9c1 bf3c
00000180: 4eff d43c 60bd febd 2d2e aebd 3450 97ba
00000190: 8908 123e 5e2b 3d3d dba0 79bd 6504 e73c
000001a0: fabc 033c d399 223d 9555 893d 4ec2 a2bd
000001b0: 5d6f c8bb c8a4 cabd b0ea 85bd 9299 c7bc
000001c0: 4445 db3c 5133 98bd eca2 203e cb86 293e
000001d0: d21e fabd bdd5 f43d 5235 593d 9668 2abd
000001e0: d50a 053d 8a88 fdbd b5ae 0b3e d2bc c8bd
000001f0: 865b b03c 9100 21be ba9e 9ebd 458f b03c
