humanoidprac/humanoidprac/scripts/skrl/logs/skrl/h1_flat/joint_experiment_ver3/2025-09-18_04-56-36_ppo_torch/checkpoints/best_agent.pt (torch, 730594 bytes, 40 tensors)

log_std_parameter f4 [19]
-3.3469539 -3.2212906 -3.4546735 -1.9229975 -1.926852 -0.9387036 -0.90557796 -2.3860204
-2.4898498 -0.7220995 -0.82243824 -1.6296227 -1.642024 -0.8148285 -0.7826638 -0.8470329
-0.8952432 -0.8051688 -0.86207694
00000000: 7e34 56c0 a029 4ec0 5f19 5dc0 c824 f6bf
00000010: 16a3 f6bf e14e 70bf f5d3 67bf 8fb4 18c0
00000020: b359 1fc0 83db 38bf 508b 52bf 7a97 d0bf
00000030: d82d d2bf 9a98 50bf a85c 48bf 26d7 58bf
00000040: a92e 65bf 8b1f 4ebf 13b1 5cbf

net_container.0.weight f4 [128, 69]
-0.042202946 -0.17546982 -0.073065855 -0.09167576 -0.022541225 -0.08834095 -0.14185753 -0.48322964
0.054630294 -0.05971385 -0.062220123 0.39719033 -0.14169133 -0.2141472 -0.48074865 -0.10812135
0.5255852 -0.20790838 0.07252722 -0.35745573 -0.063477665 -0.42597282 0.08378131 -0.29211116
-0.16495162 0.024708075 -0.42627484 0.235105 0.1818213 -0.13446856 -0.23686367 -0.07661259
0.01636049 -0.038219843 -0.08449176 0.0141746765 0.0024240313 -0.022852056 -0.028577423 0.050403237
0.037735682 0.1457747 0.07451361 0.030324554 0.040561855 0.09891712 -0.08611875 0.06623002
-0.04853148 0.058319815 -0.06075159 -0.075102 0.11643174 -0.087301105 -0.13970827 -0.1626537
-0.07099347 0.17356037 0.17286877 0.21487898 -0.013862869 -0.02850445 -0.004803278 -0.062069107
-0.062165674 -0.086566836 0.029982978 -0.08530663 0.08992452 0.21584159 0.014104607 0.64287084
-0.12843102 -0.06466461 0.09932642 0.18819092 -0.041796885 0.07682252 -0.16650179 -0.041140597
0.21018021 -0.11631945 -0.17612171 0.086519025 0.09828248 0.15604575 -0.071476355 0.00067230826
0.25984356 -0.08629873 0.05243953 0.02334115 -0.117459506 -0.0088011725 0.23549035 -0.2102638
-0.11883845 0.32545477 0.16070536 -0.17093903 0.06078202 0.058998417 -0.029628806 -0.031716786
-0.017550256 -0.012664015 -0.0028357639 0.04390542 0.0014959495 0.07414 -0.051792506 -0.06962154
0.100666866 0.11036907 0.057730112 -0.0010958649 0.006150027 -0.10947008 -0.03590276 0.14289981
-0.008627905 -0.07849481 0.1073453 -0.10060348 -0.15039177 -0.14325339 0.08565594 -0.056084264
-0.042007543 -0.102769434 0.009010512 -0.009468311 -0.1020788 0.006626928 -0.12464218 -0.16337268
-0.24881768 0.036646225 -0.4338501 0.1531484 -0.1566028 0.047761142 -0.16896854 -0.036167428
-0.7977857 0.90988517 0.16814159 0.32074255 0.041517723 0.1178999 -0.39894804 -0.16066954
-0.116886005 -0.17960402 -0.15713912 0.014496987 0.117353305 -0.90862805 0.19224355 0.04174603
0.09378511 -0.06572408 0.0826383 0.048105303 0.037305117 0.22504054 -0.17565124 -0.03649533
0.10113918 0.007174487 0.0010819959 0.012327956 0.05691045 -0.040289804 0.011149445 0.050505772
-0.061954517 0.010881509 -0.01691641 -0.052568004 0.005740306 -0.027222106 -0.0062096706 0.031168219
-0.02648489 -0.010608955 -0.019198442 -0.011229533 -0.10202173 -0.04541322 -0.100820914 -0.0013286
0.059440397 0.06650124 -0.0059590447 -0.07260244 -0.05862561 0.08066261 -0.0016352771 -0.17693968
0.0047654957 -0.022905659 -0.048442442 0.017699977 -0.012020002 -0.003216328 -0.009675514 0.21702771
0.009251446 -0.061539724 -0.06377176 0.0034058776 -0.021863874 1.2377362 -0.8206081 -0.0040071122
0.334027 0.116648525 -0.1531165 0.5007118 -0.027353343 0.46750805 0.7945893 0.057674937
0.053025182 0.15506814 0.7020955 0.29458526 -0.20904084 -0.09293678 0.12770286 0.3653266
0.021355402 -0.030300492 -0.06337461 -0.32188147 0.041956056 -0.45781252 -0.0010281707 -0.031939067
-0.049158443 0.030106919 -0.03495806 0.017802594 0.06446386 -0.01610746 -0.0099463845 0.0021462296
-0.051424697 0.028813142 0.0250802 0.046305828 0.021669473 0.061030496 0.032440238 -0.0002844747
00000000: ffdc 2cbd 5cae 33be 8da3 95bd 80c0 bbbd
00000010: 60a8 b8bc 1aec b4bd 1a43 11be e069 f7be
00000020: 04c4 5f3d 8396 74bd 87da 7ebd 885c cb3e
00000030: 8817 11be 6749 5bbe b024 f6be ba6e ddbd
00000040: c08c 063f efe5 54be 2789 943d 7004 b7be
00000050: 9400 82bd 1c19 dabe 8995 ab3d 988f 95be
00000060: 14e9 28be 9768 ca3c b240 dabe 5dbf 703e
00000070: 5d2f 3a3e 20b2 09be 648c 72be 10e7 9cbd
00000080: 6f06 863c 698c 1cbd 040a adbd e73c 683c
00000090: 7fdc 1e3b 3c34 bbbc 331b eabc a073 4e3d
000000a0: bb90 1a3d f745 153e 979a 983d 336b f83c
000000b0: 3024 263d 0f95 ca3d 075f b0bd 9ba3 873d
000000c0: f2c8 46bd c2e0 6e3d a9d6 78bd 14cf 99bd
000000d0: c473 ee3d ecca b2bd af0f 0fbe b18e 26be
000000e0: 0665 91bd cfb9 313e 8304 313e 3c09 5c3e
000000f0: 1621 63bc 2a82 e9bc d164 9dbb 2d3c 7ebd
00000100: 6fa1 7ebd f449 b1bd dd9e f53c 3eb5 aebd
00000110: 592a b83d 9405 5d3e 0217 673c 2f93 243f
00000120: 6c83 03be e16e 84bd a66b cb3d 1fb5 403e
00000130: 3633 2bbd 2055 9d3d 727f 2abe 0b83 28bd
00000140: 7b39 573e e438 eebd 4059 34be e330 b13d
00000150: 5348 c93d 75ca 1f3e 3262 92bd d83d 303a
00000160: 370a 853e 63bd b0bd d5ca 563d f035 bf3c
00000170: 9c8e f0bd cb32 10bc 6224 713e 654f 57be
00000180: 9361 f3bd 02a2 a63e f28f 243e a40a 2fbe
00000190: 91f6 783d 53a8 713d 1cb8 f2bc 76e9 01bd
000001a0: 8ec5 8fbc bb7c 4fbc 39d8 39bb 2bd6 333d
000001b0: bc13 c43a b6d6 973d 6124 54bd bd95 8ebd
000001c0: 6e2a ce3d 2e09 e23d 6976 6c3d 20a3 8fba
000001d0: 2a86 c93b d931 e0bd c60e 13bd 5454 123e
000001e0: 0e5c 0dbc e3c1 a0bd dad7 db3d 3309 cebd
000001f0: 4d00 1abe 04b1 12be 626c af3d 9db8 65bd
00000200: 1a10 2cbd c878 d2bd d4a0 133c fa20 1bbc
00000210: b10e d1bd b426 d93b 6644 ffbd 2b4b 27be
00000220: 10ca 7ebe 5a1a 163d 9a21 debe efd2 1c3e
00000230: 7c5c 20be 30a1 433d 1706 2dbe 4c24 14bd
00000240: af3b 4cbf 3cee 683f 4f2d 2c3e 5e38 a43e
00000250: 7d0e 2a3d 8175 f13d eb42 ccbe 8e86 24be
00000260: ee61 efbd 1eea 37be 14e9 20be c584 6d3c
00000270: ee56 f03d d99b 68bf 7edb 443e e3fd 2a3d
00000280: 6812 c03d 599a 86bd 453e a93d 110a 453d
00000290: 40cd 183d 0771 663e ebdd 33be 217c 15bd
000002a0: 0f22 cf3d f617 eb3b c2d1 8d3a 32fb 493c
000002b0: ef1a 693d ec06 25bd 29ac 363c 24df 4e3d
000002c0: 05c4 7dbd 5b48 323c 4894 8abc 8c51 57bd
000002d0: 2d19 bc3b e500 dfbc 7e7a cbbb 7e54 ff3c
000002e0: d7f6 d8bc 2fd1 2dbc 0d46 9dbc 13fc 37bc
000002f0: c5f0 d0bd 3603 3abd 327b cebd 6b24 aeba
00000300: c677 733d cd31 883d 1744 c3bb 97b0 94bd
00000310: 6821 70bd 7032 a53d cb56 d6ba ad2f 35be
00000320: e027 9c3b a6a4 bbbc 956b 46bd 8bff 903c
00000330: 8bef 44bc 08c9 52bb 0c86 1ebc 833c 5e3e
00000340: 6193 173c 1411 7cbd c59a 82bd 2535 5f3b
00000350: de1b b3bc 246e 9e3f 5f13 52bf 184e 83bb
00000360: 9605 ab3e 6ce5 ee3d 92ca 1cbe a62e 003f
00000370: 1e14 e0bc 375d ef3e 346a 4b3f 8e3c 6c3d
00000380: ef30 593d 2fca 1e3e 88bc 333f e1d3 963e
00000390: cd0e 56be a355 bebd 8ac4 023e 170c bb3e
000003a0: 86f1 ae3c bd38 f8bc 8cca 81bd a6cd a4be
000003b0: 1dda 2b3d 6766 eabe afc3 86ba 8ad2 02bd
000003c0: 5d5a 49bd c9a2 f63c 2f30 0fbd bfd6 913c
000003d0: a105 843d cbf3 83bc 29f6 22bc c2a7 0c3b
000003e0: b4a2 52bd 8a09 ec3c fe74 cd3c 2eab 3d3d
000003f0: 2e84 b13c 1dfb 793d 0ee0 043d 8c25 95b9

net_container.0.bias f4 [128]
0.12258641 -0.14120062 -0.026163008 0.01639055 0.123239 0.05933163 0.07629051 0.07794463
0.17798662 0.12369751 -0.01559147 -0.009466134 0.0049690036 0.013295276 0.17526329 -0.18352784
0.15813342 -0.12927236 0.17729937 0.058756184 0.10518143 0.062755704 -0.029191237 0.18474819
0.093733445 0.014477086 -0.08001272 -0.11339235 -0.04351823 -0.048475593 -0.016283117 0.008732204
0.17730984 -0.006774642 -0.00063328573 -0.1645684 0.05720336 0.025618766 0.08141985 0.03992215
-0.02914023 0.15441822 -0.08453948 -0.0966733 0.123289876 -0.1146828 0.032349855 -0.0258441
0.22976021 0.06667546 -0.054870907 0.04019664 -0.12936185 -0.039774682 -0.026277697 -0.024490293
0.1806178 0.052010685 0.11303368 0.102724776 -0.055350553 -0.006547588 0.13514505 0.11149161
0.018261079 0.1308528 0.080387175 0.055926196 0.12631086 -0.013361061 0.08012874 -0.15246007
0.124009624 0.122242495 0.042303458 0.06590096 0.23371446 0.04446497 0.28308797 0.057850346
0.025508491 -0.042013466 0.22668532 0.087187156 0.025893634 0.059457134 0.13882576 0.2154774
-0.014941757 0.14895679 -0.1087394 0.031356826 0.09061834 -0.023694117 0.04612704 0.02362484
0.030745698 -0.14687765 -0.08525895 -0.0028245857 0.11923799 0.047536213 -0.067772284 0.020218242
-0.004571452 0.020487 0.07244573 -0.08456283 0.0011970939 -0.08615539 -0.06229251 -0.022049885
0.058914162 -0.110642776 0.16025406 0.16357847 -0.120310776 0.0995529 0.048865333 -0.047421325
0.023412896 -0.12796828 0.13190228 -0.10220656 0.00065392064 -0.16296266 -0.07410859 0.018907843
00000000: 950e fb3d e596 10be ce53 d6bc 7a45 863c
00000010: bb64 fc3d b905 733d 333e 9c3d 6fa1 9f3d
00000020: 2042 363e 1f55 fd3d 5d73 7fbc d817 1bbc
00000030: 06d3 a23b 6ed4 593c 3878 333e b9ee 3bbe
00000040: baed 213e f95f 04be f78d 353e 53aa 703d
00000050: 5d69 d73d 1086 803d 7622 efbc a12e 3d3e
00000060: 52f7 bf3d 4d31 6d3c b5dd a3bd 403a e8bd
00000070: 2c40 32bd 588e 46bd 2c64 85bc 8511 0f3c
00000080: b690 353e d1fd ddbb 1603 26ba 9e84 28be
00000090: 124e 6a3d 72de d13c 73bf a63d 6985 233d
000000a0: 7eb7 eebc cf1f 1e3e 0923 adbd a7fc c5bd
000000b0: 677f fc3d d1de eabd 4881 043d 02b7 d3bc
000000c0: 4346 6b3e 258d 883d 51c0 60bd 3ba5 243d
000000d0: 6f77 04be c7ea 22bd 5344 d7bc de9f c8bc
000000e0: dff3 383e 2809 553d 347e e73d 5e61 d23d
000000f0: 43b7 62bd 268d d6bb 7763 0a3e b755 e43d
00000100: 4298 953c 47fe 053e 08a2 a43d de12 653d
00000110: a257 013e 5ae8 5abc 891a a43d 7e1e 1cbe
00000120: c2f8 fd3d 465a fa3d 6446 2d3d 15f7 863d
00000130: d852 6f3e e620 363d e8f0 903e 7cf4 6c3d
00000140: 2ff7 d03c 5016 2cbd 3220 683e 2e8f b23d
00000150: e31e d43c 5389 733d 5728 0e3e 1ca6 5c3e
00000160: 45ce 74bc 2188 183e c3b2 debd 0470 003d
00000170: 1c96 b93d 2a1a c2bc b5ef 3c3d e188 c13c
00000180: 67de fb3c 1867 16be 3f9c aebd af1c 39bb
00000190: 0c33 f43d 55b5 423d 32cc 8abd baa0 a53c
000001a0: 1ecc 95bb 5ad4 a73c 6d5e 943d 472f adbd
000001b0: cee7 9c3a 3d72 b0bd 6e26 7fbd f6a1 b4bc
000001c0: fa4f 713d ae98 e2bd a419 243e 1d81 273e
000001d0: 7f65 f6bd 64e2 cb3d 0427 483d dd3c 42bd
000001e0: 67cc bf3c 1e0a 03be 6411 073e ac51 d1bd
000001f0: df6b 2b3a afdf 26be 3fc6 97bd 9fe4 9a3c

net_container.2.weight f4 [128, 128]
-0.019074896 -0.052299444 0.09261341 -0.020089524 0.047283765 -0.02709402 -0.024791492 -0.08681792
-0.037643492 -0.00780519 -0.03218909 -0.16243482 0.08727263 -0.05281671 0.048527174 0.09891717
-0.1085573 0.05584404 0.06495118 0.09472112 -0.08711383 0.09485126 0.02384093 -0.038381286
-0.0027479162 -0.13943745 -0.100223854 0.033394665 -0.09078259 -0.06775657 -0.024972348 0.06110092
-0.09436207 -0.1534053 -0.087107785 0.04368292 -0.08736493 0.011891265 0.05663141 0.066700704
0.05585657 0.09515309 -0.15276177 -0.14157407 -0.024861611 -0.02622958 -0.12367946 0.048465513
0.028979132 0.021024179 -0.0015098656 0.036945015 -0.02291253 -0.10870207 0.03573678 0.069844544
-0.14818443 -0.055865284 0.033016365 0.07859672 0.15777467 -0.00043021337 0.086723156 0.13181299
-0.011379651 -0.13719188 -0.038404103 -0.14593725 -0.007397287 -0.013412791 0.04944305 0.08141929
0.077374466 -0.011188756 -0.033899453 -0.0012835179 -0.10254595 0.018443702 0.07900269 0.04045842
0.12716854 0.053572465 -0.049261436 0.14125998 -0.06696674 0.061876953 -0.103238314 -0.058727317
0.05641422 -0.077959955 -0.17241368 -0.07868814 -0.078648046 0.08008324 -0.15296064 0.01485939
-0.0007014005 0.10822067 -0.030110957 0.033848632 -0.017109698 0.015677528 -0.10748542 -0.077244066
0.06623371 -0.16690728 -0.05644593 -0.00665014 -0.019717913 0.11596992 -0.01813438 -0.09673825
0.058271926 -0.0035466468 -0.07740661 -0.059984446 -0.0872579 -0.09313074 -0.0013797228 0.03355067
-0.1340029 -0.048626453 -0.051629703 0.029324977 0.06559874 0.020843513 -0.03563701 -0.07982236
0.042042583 0.05357608 -0.2859988 -0.13715269 0.082463846 -0.049483914 0.04805849 0.11110125
0.048856918 0.03304495 0.015200159 0.17960359 -0.21132345 0.18399534 0.010043292 -0.078493744
0.08923523 0.071761094 0.1024301 -0.14567901 0.09286097 -0.04651762 0.06209425 -0.021527773
-0.29766026 0.14209808 -0.06363295 0.08182502 0.011650039 0.062506825 0.05291827 -0.037021592
0.12852857 -0.038776122 0.013222843 -0.0826037 0.006301698 0.041818984 -0.14100462 -0.09237507
0.09274196 -0.02091258 0.03208268 0.009944135 -0.007797087 -0.001658428 0.0065950565 -0.05244966
0.025154868 -0.08203041 0.10520897 -0.20928559 -0.030067423 -0.12705976 0.114978604 -0.030447328
0.12607805 -0.056862134 -0.11353808 0.066254124 0.010341018 -0.0241202 0.06806981 0.0014620168
-0.070497595 -0.022823647 -0.099865556 0.07203173 0.010859031 -0.049619056 0.071155466 0.058466353
-0.07199346 0.114267975 -0.11086662 -0.02728335 0.069680415 -0.007838195 0.14847603 -0.10007405
-0.06535936 0.042247105 -0.05029889 -0.06553372 -0.04781449 0.047657553 0.02077916 0.036395267
-0.0032197484 0.033377394 -0.06556601 -0.029861873 0.06492276 -0.06327815 -0.01906646 -5.610176e-05
-0.017067486 0.06636514 0.015030009 -0.07227824 -0.14015763 -0.2100787 0.011769506 0.1138532
-0.095619574 -0.034283508 -0.07015166 -0.043742564 0.079872735 -0.043310367 0.020559365 -0.049713742
-0.004712531 0.15556966 0.057815373 -0.03610826 -0.015018547 0.03662668 0.10131525 0.10156607
-0.030222503 -0.010269787 -0.050036103 -0.15949641 -0.0038616674 0.020377824 0.029831262 0.048964478
00000000: f542 9cbc f137 56bd 19ac bd3d c992 a4bc
00000010: 9fac 413d 47f4 ddbc 8717 cbbc 98cd b1bd
00000020: 1030 1abd aec2 ffbb b5d8 03bd 5055 26be
00000030: febb b23d 5656 58bd 6ec4 463d 1695 ca3d
00000040: 4a53 debd b8bc 643d 2005 853d 26fd c13d
00000050: bc68 b2bd 6141 c23d 0e4e c33c b235 1dbd
00000060: 6216 34bb b1c8 0ebe 2a42 cdbd d8c8 083d
00000070: 39ec b9bd f5c3 8abd cf92 ccbc f544 7a3d
00000080: e740 c1bd 4716 1dbe 9165 b2bd ddec 323d
00000090: 62ec b2bd 95d3 423c 56f6 673d 619a 883d
000000a0: dcc9 643d a0df c23d 956d 1cbe cbf8 10be
000000b0: 94aa cbbc 6bdf d6bc a84b fdbd c683 463d
000000c0: a565 ed3c e63a ac3c afe6 c5ba a853 173d
000000d0: 0fb3 bbbc 319f debd bb60 123d a80a 8f3d
000000e0: a9bd 17be ffd2 64bd 2b3c 073d 51f7 a03d
000000f0: af8f 213e 438e e1b9 e99b b13d fcf9 063e
00000100: b771 3abc 077c 0cbe 9f4d 1dbd 9370 15be
00000110: f164 f2bb 53c1 5bbc cc84 4a3d 28bf a63d
00000120: 8176 9e3d 0b51 37bc 27da 0abd b73b a8ba
00000130: 9c03 d2bd 3f17 973c 2acc a13d bab7 253d
00000140: 7838 023e cd6e 5b3d 5cc6 49bd 75a6 103e
00000150: dc25 89bd b072 7d3d 9c6e d3bd 0e8c 70bd
00000160: 9912 673d 78a9 9fbd 368d 30be 3f27 a1bd
00000170: 3a12 a1bd af02 a43d b7a1 1cbe cd74 733c
00000180: 31de 37ba cca2 dd3d 41ab f6bc dda4 0a3d
00000190: a329 8cbc 296e 803c 5121 dcbd 2332 9ebd
000001a0: 8aa5 873d bee9 2abe d933 67bd 6be9 d9bb
000001b0: 7687 a1bc a381 ed3d 8d8e 94bc b41e c6bd
000001c0: 8bae 6e3d dc6e 68bb 5b87 9ebd 40b2 75bd
000001d0: 45b4 b2bd 54bb bebd d1d7 b4ba 6d6c 093d
000001e0: 0e38 09be 882c 47bd ab79 53bd ef3a f03c
000001f0: a258 863d 04c0 aa3c 1df8 11bd e879 a3bd
00000200: d834 2c3d 9772 5b3d 6f6e 92be c171 0cbe
00000210: cee2 a83d a5af 4abd fbd8 443d 0d89 e33d
00000220: 311e 483d 245a 073d 160a 793c 01ea 373e
00000230: 2d65 58be 4669 3c3e 9f8c 243c 54c1 a0bd
00000240: f6c0 b63d 7bf7 923d dfc6 d13d e12c 15be
00000250: e42d be3d 4389 3ebd 8a56 7e3d 035b b0bc
00000260: ed66 98be 2982 113e fe51 82bd e093 a73d
00000270: cedf 3e3c 9403 803d d4c0 583d f4a3 17bd
00000280: fe9c 033e b6d3 1ebd a0a4 583c 212c a9bd
00000290: 797e ce3b 624a 2b3d 8463 10be 242f bdbd
000002a0: 7fef bd3d dc50 abbc 2169 033d baec 223c
000002b0: b57e ffbb 9c5f d9ba 581b d83b 74d5 56bd
000002c0: 9511 ce3c 8fff a7bd cd77 d73d f64e 56be
000002d0: f54f f6bc f41b 02be e779 eb3d ad6c f9bc
000002e0: 9b1a 013e 45e8 68bd a786 e8bd 3eb0 873d
000002f0: 606d 293c ba97 c5bc 2f68 8b3d 25a1 bf3a
00000300: 0b61 90bd a8f8 babc 5086 ccbd 5f85 933d
00000310: 14ea 313c 5a3d 4bbd f5b9 913d 6a7a 6f3d
00000320: 4f71 93bd 5405 ea3d 0a0e e3bd 5581 dfbc
00000330: 9bb4 8e3d c66b 00bc 1a0a 183e a0f3 ccbd
00000340: 21db 85bd 4d0b 2d3d 3506 4ebd 8b36 86bd
00000350: 20d9 43bd 9134 433d 0f39 aa3c 3413 153d
00000360: 6a02 53bb bcb6 083d 7947 86bd e3a0 f4bc
00000370: 39f6 843d fa97 81bd 4431 9cbc ce4e 6bb8
00000380: 1dd1 8bbc 72ea 873d 6d40 763c 9d06 94bd
00000390: 7b85 0fbe df1e 57be e3d4 403c de2b e93d
000003a0: 32d4 c3bd dd6c 0cbd acab 8fbd 672b 33bd
000003b0: 5194 a33d 3666 31bd 1d6c a83c a3a0 4bbd
000003c0: 936b 9abb a74d 1f3e d0cf 6c3d 41e6 13bd
000003d0: 5a10 76bc dc05 163d 5f7e cf3d df01 d03d
000003e0: 2f95 f7bc 9c42 28bc a8f2 4cbd 0753 23be
000003f0: 0714 7dbb 65ef a63c b160 f43c fa8e 483d

net_container.2.bias f4 [128]
0.046145443 -0.18279044 -0.17435203 -0.006336434 -0.092417166 0.019812688 0.052233983 0.13991188
0.01773655 -0.11228628 0.13892043 -0.22009765 0.015803304 -0.05944806 0.040757895 -0.016423028
-0.10198999 0.014894689 -0.01159462 0.017752422 0.2153304 -0.011748792 -0.01620665 0.11047564
-0.0011908907 0.025716612 0.026976978 -0.14227776 0.03224489 -0.093979746 -0.10203897 0.070847854
-0.13735981 -0.08629408 0.027200745 -0.13153644 -0.22313552 -0.05661524 -0.012711905 -0.09298195
-0.09565274 -0.05386799 -0.112895966 -0.020341588 0.00041211178 0.070560135 0.045640156 0.028999282
0.057504807 -0.09394169 0.087095566 -0.13788602 0.0038949642 0.07002033 -0.10922056 -0.022490282
0.08782141 -0.15104114 0.076525666 0.20451865 -0.20280959 -0.11937891 -0.14543787 0.050263032
-0.0039619277 -0.11999899 0.06790112 0.0034856554 -0.09421487 0.0703259 -0.07141609 -0.047345817
-0.041563746 0.02909466 -0.081577726 0.039801728 0.07982787 -0.08422259 -0.06447054 -0.016200086
-0.07761643 -0.08315766 0.13140397 -0.077124245 -0.12218545 -0.049584057 0.042815 0.17262906
0.066231914 -0.11047965 -0.20169961 0.09716454 -0.14400925 -0.027285943 -0.14219315 0.055451103
-0.041004907 0.012088087 -0.17766793 0.07958423 -0.22618386 -0.1495271 -0.04537952 -0.03431801
-0.09183155 -0.13883483 0.041838296 -0.0824629 -0.17304327 -0.041059185 0.09690779 -0.08325771
-0.20302686 0.016703393 0.13127841 -0.014440263 0.16469696 -0.016295616 -0.09461176 -0.041655388
0.042014502 -0.182536 0.12422007 -0.08136446 0.08582702 -0.016736219 -0.111217946 -0.14621021
00000000: 0103 3d3d 6b2d 3bbe 5789 32be dca1 cfbb
00000010: 3645 bdbd 384e a23c 4df3 553d 0f45 0f3e
00000020: 3e4c 913c 59f6 e5bd 2841 0e3e 4761 61be
00000030: ee75 813c cf7f 73bd c0f1 263d 9689 86bc
00000040: 21e0 d0bd db08 743c 5cf7 3dbc 876d 913c
00000050: 937f 5c3e 017e 40bc cfc3 84bc 0d41 e23d
00000060: a917 9cba a5ab d23c d3fe dc3c 43b1 11be
00000070: 3813 043d 7478 c0bd cff9 d0bd ae18 913d
00000080: 0da8 0cbe f3ba b0bd 19d4 de3c 7db1 06be
00000090: a37d 64be 62e5 67bd 9845 50bc 526d bebd
000000a0: 95e5 c3bd aea4 5cbd 0036 e7bd 67a3 a6bc
000000b0: b510 d839 d581 903d 2cf1 3a3d e78f ed3c
000000c0: 298a 6b3d 8064 c0bd 295f b23d fe31 0dbe
000000d0: a842 7f3b d266 8f3d 07af dfbd 8a3d b8bc
000000e0: b6db b33d 87aa 1abe 7db9 9c3d 566d 513e
000000f0: 51ad 4fbe ee7c f4bd aaed 14be 9ce0 4d3d
00000100: 0fd3 81bb 08c2 f5bd be0f 8b3d 986f 643b
00000110: baf3 c0bd 0707 903d 9942 92bd b0ed 41bd
00000120: bf3e 2abd ed57 ee3c 3912 a7bd 2307 233d
00000130: cb7c a33d e57c acbd 2109 84bd 0bb6 84bc
00000140: 5df5 9ebd 904e aabd c38e 063e 51f3 9dbd
00000150: 5d3c fabd a718 4bbd c85e 2f3d acc5 303e
00000160: 99a4 873d 2843 e2bd 588a 4ebe 34fe c63d
00000170: 2977 13be c586 dfbc 159b 11be b220 633d
00000180: c3f4 27bd 1d0d 463c 95ee 35be 0ffd a23d
00000190: be9c 67be a21d 19be e0df 39bd 0b91 0cbd
000001a0: 2e12 bcbd b82a 0ebe a25e 2b3d 4fe2 a8bd
000001b0: 4132 31be ad2d 28bd 9777 c63d 0583 aabd
000001c0: 46e6 4fbe 8ed5 883c d96d 063e da96 6cbc
000001d0: 52a6 283e 627e 85bc cfc3 c1bd d79e 2abd
000001e0: 6617 2c3d b8ea 3abe 1867 fe3d 69a2 a6bd
000001f0: 14c6 af3d 651a 89bc 3cc6 e3bd 21b8 15be

net_container.4.weight f4 [128, 128]
-0.050083477 0.14967483 -0.05922866 -0.015431628 0.101397716 -0.019343741 0.047687147 0.035770334
-0.0037436734 -0.030672615 -0.085889846 0.026952088 0.054474853 0.019700363 0.003412757 -0.073502995
-0.002030786 -0.06692704 0.009787352 0.034886688 -0.15617533 -0.060421363 0.08063383 -0.019033112
0.0079698535 0.06433077 -0.047199592 -0.053388733 0.008839356 0.030956473 0.038748156 0.044769283
0.06751367 0.040689725 -0.04429381 -0.115517005 0.0052185333 -0.027318697 0.06914009 0.022793718
-0.044245668 0.04464426 0.043159895 0.046361007 -0.028028855 -0.032139044 0.013211495 0.06682336
-0.119232126 -0.06289976 0.035389446 0.030160975 0.15771835 -0.05431076 0.0101893535 0.0009250401
6.995391e-05 0.027369551 -0.047498625 0.03462452 0.030412711 0.049647346 0.06543127 -0.068616904
-0.02877275 -0.018465482 -0.105882265 -0.07670892 0.06218127 0.13415395 -0.018016547 0.02699854
0.117689066 -0.069123104 -0.1388022 -0.13881555 0.065350704 0.03804935 0.09290934 -0.015450957
0.029082319 0.060614247 -0.004575448 -0.020295043 0.07282209 0.05465511 -0.024209928 0.030415902
0.015521772 -0.039961558 0.19432698 0.004444552 0.19564459 0.009898672 -0.047990605 -0.09986319
0.028688425 0.09478733 -0.028662702 0.04207544 0.17275645 0.09682343 0.07645387 0.04032473
0.041490164 0.13100837 0.030826384 0.0553582 -0.010653384 -0.10385411 -0.012576882 0.13368115
-0.07889716 -0.005551842 0.005228993 0.07979771 -0.103545204 0.054203004 -0.028508332 0.03823147
0.05024652 -0.022177782 -0.05325346 0.068647444 -0.062155608 0.013715056 0.05252316 0.047607075
0.13331823 -0.046199717 -0.011961658 0.10951885 0.11004409 -0.05489258 0.03392313 -0.13625386
0.0078026345 0.025847334 0.022797756 -0.20463829 0.017319577 0.12515941 0.06351901 -0.020778643
0.041220967 -0.09438405 -0.14665915 -0.015264216 -0.0008301686 -0.12923937 0.0042562066 -0.05194514
0.074321516 0.048202246 -0.035530023 -0.036075007 0.022730267 -0.30913892 0.047885545 0.12187307
0.04057033 0.099204764 0.1062305 -0.004623005 -0.037863575 -0.1314624 0.015610222 0.011082528
0.09966222 -0.15706198 -0.05721449 0.15353216 -0.15330917 0.07713852 0.009072501 0.05714218
-0.05161522 -0.08977556 0.0037093866 0.042846728 -0.2684328 0.051159076 -0.13389474 -0.05739322
-0.0057156854 0.006080908 0.023023384 0.017273638 0.0072220676 0.09576037 0.097179174 -0.04026379
-0.041506194 -0.1626809 -0.009961025 0.029345542 0.060803305 -0.03770555 0.010307996 0.0027210333
-0.0030043954 -0.031256612 0.0866495 -0.035557013 -0.0121051585 0.0044719563 -0.09927346 -0.04560461
-0.0006079278 0.013877551 -0.05953826 0.06971224 0.068196654 -0.013937735 -0.16815306 -0.06453884
0.07279041 -0.015493545 0.10340002 0.08956227 0.08130216 -0.054237176 -0.01800896 0.046004128
0.098333254 -0.01213922 -0.0051461635 0.07940376 0.16175604 -0.28036657 0.10156333 0.086341225
0.03503709 -0.044050638 -0.14701842 0.062544316 -0.003840494 -0.08764103 -0.17073737 -0.10640551
-0.0032072181 0.04909304 -0.032464795 -0.038598206 0.06020002 -0.0256457 0.15948763 0.11684541
-0.13096435 0.02552245 0.020512184 0.022075739 0.036535505 -0.00014212822 0.10694936 0.08378231
00000000: 5524 4dbd 5c44 193e c099 72bd f0d4 7cbc
00000010: 9ba9 cf3d c476 9ebc 9953 433d ea83 123d
00000020: 6b58 75bb 2345 fbbc 04e7 afbd a0ca dc3c
00000030: 0621 5f3d a862 a13c 90a8 5f3b bd88 96bd
00000040: ef16 05bb 0b11 89bd 215b 203c 58e5 0e3d
00000050: 6dec 1fbe 647c 77bd 5923 a53d 54eb 9bbc
00000060: fd93 023c dabf 833d 5c54 41bd 25ae 5abd
00000070: f2d2 103c 6e98 fd3c 63b6 1e3d ff5f 373d
00000080: 9b44 8a3d 45aa 263d 6d6d 35bd 2e94 ecbd
00000090: 3b00 ab3b 76cb dfbc 5299 8d3d e4b9 ba3c
000000a0: f23a 35bd e6dc 363d 6ec8 303d 0ae5 3d3d
000000b0: c59c e5bc 3ba4 03bd 0775 583c b0da 883d
000000c0: f92f f4bd 97d1 80bd 86f4 103d 2614 f73c
000000d0: eb80 213e f674 5ebd 3ff1 263c 647e 723a
000000e0: 38b4 9238 1c36 e03c eb8d 42bd 71d2 0d3d
000000f0: 1424 f93c 045b 4b3d d400 863d 0587 8cbd
00000100: d5b4 ebbc ec44 97bc cdd8 d8bd 9119 9dbd
00000110: cab1 7e3d a75f 093e 7097 93bc 0b2c dd3c
00000120: f706 f13d 6a90 8dbd 2a22 0ebe aa25 0ebe
00000130: 97d6 853d a3d9 1b3d 4147 be3d 0326 7dbc
00000140: 0b3e ee3c a546 783d a4ed 95bb ca41 a6bc
00000150: bf23 953d 09de 5f3d e653 c6bc c52a f93c
00000160: 084f 7e3c bbae 23bd a7fd 463e 9ba3 913b
00000170: 0e57 483e 0a2e 223c cc91 44bd 1285 ccbd
00000180: fd03 eb3c dc1f c23d 0bce eabc 4c57 2c3d
00000190: 11e7 303e 5d4b c63d d993 9c3d 8b2b 253d
000001a0: 97f1 293d 0f27 063e 9d87 fc3c 48bf 623d
000001b0: 888b 2ebc 77b1 d4bd 440f 4ebc b6e3 083e
000001c0: d694 a1bd 3aec b5bb f957 ab3b fb6c a33d
000001d0: 820f d4bd f803 5e3d 4e8a e9bc 9a98 1c3d
000001e0: 4ccf 4d3d 2eae b5bc 4d20 5abd 0897 8c3d
000001f0: e196 7ebd 1db5 603c 8622 573d a3ff 423d
00000200: 9384 083e ea3b 3dbd d4fa 43bc 6b4b e03d
00000210: cc5e e13d 0bd7 60bd fbf2 0a3d 2286 0bbe
00000220: 3ead ff3b cabd d33c 5cc2 ba3c b38c 51be
00000230: c9e1 8d3c ca29 003e 4116 823d f937 aabc
00000240: 51d7 283d 6d4c c1bd d12d 16be c316 7abc
00000250: ac9f 59ba 5357 04be a677 8b3b 6dc4 54bd
00000260: e135 983d b86f 453d ee87 11bd 63c3 13bd
00000270: d334 ba3c 7547 9ebe a223 443d 9798 f93d
00000280: 132d 263d de2b cb3d 608f d93d 947c 97bb
00000290: d616 1bbd 149e 06be 04c2 7f3c 7e93 353c
000002a0: b51b cc3d dbd4 20be be59 6abd 8937 1d3e
000002b0: 14fd 1cbe cdfa 9d3d d4a4 143c eb0d 6a3d
000002c0: 7b6a 53bd 40dc b7bd 2e19 733b 0d80 2f3d
000002d0: 0670 89be 2e8c 513d b41b 09be 2715 6bbd
000002e0: a54a bbbb 5a42 c73b 899b bc3c 7281 8d3c
000002f0: 18a7 ec3b 031e c43d e005 c73d a5eb 24bd
00000300: 6602 2abd d295 26be 9133 23bc 1066 f03c
00000310: e30c 793d 2371 1abd dee2 283c 5d53 323b
00000320: 64e5 44bb ef06 00bd 4b75 b13d 3ba4 11bd
00000330: b754 46bc 7d89 923b e24f cbbd e6cb 3abd
00000340: 585d 1fba ab5e 633c 64de 73bd 4ac5 8e3d
00000350: b0aa 8b3d 195b 64bc 5130 2cbe f02c 84bd
00000360: 2313 953d a3d8 7dbc 64c3 d33d 6c6c b73d
00000370: bf81 a63d cd27 5ebd 8787 93bc d36e 3c3d
00000380: f262 c93d 94e3 46bc 26a1 a8bb 709e a23d
00000390: 60a3 253e 358c 8fbe 6f00 d03d abd3 b03d
000003a0: 0d83 0f3d 716e 34bd ff8b 16be 3c17 803d
000003b0: ccb0 7bbb 247d b3bd c7d5 2ebe 22eb d9bd
000003c0: 3130 52bb c915 493d cef9 04bd 2719 1ebd
000003d0: 4c94 763d ee16 d2bc ba50 233e a54c ef3d
000003e0: 851b 06be 7514 d13c 2b09 a83c 2ed8 b43c
000003f0: 41a6 153d 4108 15b9 4408 db3d 0f96 ab3d

net_container.4.bias f4 [128]
-0.15632114 -0.10343415 0.11639582 -0.10214203 -0.10418471 -0.11447059 -0.08271009 -0.021118887
-0.094219424 -0.055097062 0.053954948 -0.13800998 -0.030997073 -0.14960979 -0.058793582 0.049331583
-0.06253973 -0.038529098 0.06905277 -0.0045100204 -0.07091936 0.034232173 -0.109704815 0.09160169
-0.020693699 -0.045687534 0.08195875 0.013028217 -0.008417651 0.0095852725 -0.11242545 0.048506673
-0.0007993678 -0.068853766 -0.033696603 -0.115422726 -0.074562296 -0.009285509 -0.02491637 0.033929177
-0.031389143 -0.059537586 0.034355223 -0.089703314 -0.09192609 0.0143749425 -0.06776158 -0.021107944
-0.0008912476 0.016547583 0.029110825 -0.11263415 -0.05479378 -0.086143695 -0.03321383 0.043338515
0.08695431 -0.16077018 -0.020690057 0.058883887 -0.048276614 -0.025566364 -0.08344998 -0.056317836
-0.0936725 -0.018875245 -0.086075954 0.04543808 -0.0562303 0.0006929906 0.062552035 0.035665687
-0.020499079 0.17026357 -0.028473927 0.0015935028 0.052685384 0.015853032 0.08118906 -0.0666702
0.13300407 -0.015912445 -0.07259843 0.048139453 0.010844133 -0.08640016 -0.028466076 0.003118618
0.11596621 -0.08377989 -0.099988356 -0.019132689 -0.039927397 -0.045230135 0.07955058 -0.095888086
-0.08047161 -0.087358035 -0.09099664 0.030231629 -0.12721662 -0.12934709 -0.19429912 0.046620388
-0.04566038 -0.04907134 0.04374443 -0.028292809 -0.13270655 0.011427767 -0.02558 0.014107596
-0.1225822 -0.1262118 0.13758191 0.046834257 0.018034706 0.047756746 -0.015017925 0.06531856
-0.02383318 0.019130344 -0.02245867 -0.037819315 -0.04279694 -0.049008623 0.13725173 0.022349019
00000000: a612 20be 49d5 d3bd ef60 ee3d d72f d1bd
00000010: cb5e d5bd 8f6f eabd e863 a9bd 8401 adbc
00000020: 1df6 c0bd 75ad 61bd ddff 5c3d 7d52 0dbe
00000030: 93ed fdbc 4f33 19be 8ad1 70bd ea0f 4a3d
00000040: d414 80bd b0d0 1dbd 8a6b 8d3d cbc8 93bb
00000050: 2b3e 91bd 0937 0c3d ebac e0bd ab99 bb3d
00000060: d585 a9bc da22 3bbd fdd9 a73d 4d74 553c
00000070: 30ea 09bc 8c0b 1d3c 503f e6bd efae 463d
00000080: aa8c 51ba 3403 8dbd 7305 0abd c062 ecbd
00000090: 1eb4 98bd 3f22 18bc 6a1d ccbc 52f9 0a3d
000000a0: e791 00bd afdd 73bd 10b8 0c3d 5fb6 b7bd
000000b0: bf43 bcbd e184 6b3c 95c6 8abd 91ea acbc
000000c0: 9da2 69ba cc8e 873c d379 ee3c bcac e6bd
000000d0: 716f 60bd 1b6c b0bd 3a0b 08bd ba83 313d
000000e0: 1a15 b23d f0a0 24be 327e a9bc 3b30 713d
000000f0: b3bd 45bd 8d70 d1bc d3e7 aabd 88ad 66bd
00000100: 5ed7 bfbd 42a0 9abc 9748 b0bd 481d 3a3d
00000110: be51 66bd d0a9 353a 481b 803d 2f16 123d
00000120: afed a7bc 9359 2e3e 2742 e9bc 15dd d03a
00000130: a1cc 573d 38de 813c 7346 a63d 638a 88bd
00000140: 3832 083e d15a 82bc 7cae 94bd e02d 453d
00000150: 97ab 313c 91f2 b0bd b031 e9bc ba61 4c3b
00000160: b17f ed3d ca94 abbd b2c6 ccbd 28bc 9cbc
00000170: e98a 23bd 3c43 39bd 6aeb a23d f960 c4bd
00000180: 4dce a4bd c5e8 b2bd 725c babd 52a8 f73c
00000190: 1345 02be 9073 04be 59f6 46be 05f5 3e3d
000001a0: 6106 3bbd 08ff 48bd 5c2d 333d 52c6 e7bc
000001b0: 3ae4 07be 873b 3b3c 268d d1bc 8c23 673c
000001c0: 600c fbbd ab3d 01be 46e2 0c3e 47d5 3f3d
000001d0: 85bd 933c 949c 433d be0d 76bc bdc5 853d
000001e0: cd3d c3bc 3db7 9c3c 3ffb b7bc 6de8 1abd
000001f0: d84b 2fbd 44bd 48bd b88b 0c3e 4a15 b73c

policy_layer.weight f4 [19, 128]
0.0069413707 0.046305202 -0.011384824 0.0114433775 -0.075624265 0.06632208 0.04785749 0.008406883
0.0029900563 0.05060445 -0.0030895171 -0.011894184 0.01751848 0.00522812 0.0021418587 0.024536883
-0.020373233 -0.0074787885 0.04769025 0.017574618 0.00034339228 0.025936456 0.04830096 -0.057893652
-0.019836806 0.0018154624 -0.040473986 -0.022028077 0.017941419 0.06294116 -0.027706476 0.013892908
-0.015419794 -0.016759254 0.025127094 -0.03816615 0.05219358 0.06693152 -0.04323068 -0.018888444
-0.012316564 0.026121136 -0.03824279 0.058705408 -0.05472979 -0.06734385 0.0033588847 0.010206495
0.010365006 -0.0052411538 -0.044364598 0.020099033 0.0036862753 0.009417831 -0.0062277447 0.034455396
-0.023495154 0.047872186 0.012446365 0.006387619 0.011430479 0.058987513 0.028936839 -0.03965546
0.0045184945 -0.048706 -0.0063308803 0.044229906 -0.04092176 -0.037429184 -0.06478957 0.04161563
0.104468845 0.024882426 -0.00011797487 -0.014728642 0.049536 -0.025642633 0.011836322 -0.0020262175
-0.03159946 -0.05892758 0.09120452 -0.074441336 0.017146405 -0.00091813825 0.043594126 0.03893027
-0.006458507 0.037957862 0.060512286 -0.029587394 -0.0453424 0.08653058 -0.06606907 -0.015359907
-0.006378404 0.031203441 0.00592933 -0.029570494 0.032784622 0.006986057 -0.036859527 -0.030517496
0.018033424 -0.042119186 0.046418004 -0.015511972 -0.017711086 -0.006839902 0.040813234 0.021769634
-0.013810951 0.010011188 0.010164082 0.008856141 -0.07575649 0.007076043 -0.048378427 0.0026612047
-0.009025767 -0.06522439 -0.08015286 -0.022316637 0.0009948402 -0.05069672 -0.009481341 -0.05232921
-0.054435853 0.022570523 0.029551752 -0.04664342 -0.0037992126 0.06003491 -9.449874e-05 -0.037739113
-0.03568987 0.0038981389 -0.046698045 -0.004754348 -0.04057501 -0.061664876 0.05492152 -0.024193011
-0.009637983 -0.011631077 0.05063806 -0.0011794481 0.011070414 0.026131684 -0.011061397 0.05459008
0.035219096 0.016785478 0.091089614 0.0014120605 0.033864196 0.015191952 0.023275476 -0.01610474
0.014603861 -0.002765891 -0.009673421 -0.052003995 0.08635395 -0.002639189 0.09055299 0.05033543
0.016389217 -0.0234193 0.00041600695 -0.0029764483 0.01181996 0.060098197 -0.019701986 0.017201012
-0.009621915 -0.017214239 -0.06445588 -0.020452568 0.031896275 0.011266558 -0.006805827 0.056350842
-0.03704578 -0.06848657 -0.07424048 0.060783707 -0.07525883 0.015324171 -0.036114957 0.012926079
-0.021455405 -0.03220095 0.022520745 -0.038529728 0.06323026 0.042562205 -0.04077861 -0.06487532
-0.0125970235 -0.008087285 -0.004983576 0.013572367 -0.009231111 0.020893024 0.008695511 -0.024167916
-0.018526569 0.08189553 -0.016047705 0.039166767 0.06311612 -0.020399626 0.0029429216 -0.0076404945
-0.020868901 0.0026818856 -0.019547926 -0.038430057 -0.031059371 -0.034875482 0.011211275 0.012989555
-0.0037507163 0.017849857 -0.03814564 0.011078752 0.0029420494 0.028741447 0.017574064 -0.0071834107
0.01617025 0.055334713 -0.006790921 0.06796593 -0.018120077 -0.0063551674 -0.05596113 -0.00049194193
0.01771693 -0.03884868 0.022580057 -0.0011914741 0.09015428 -0.004090101 -0.03464277 -0.028311193
-0.009983318 0.0041048173 0.04450864 0.067121364 0.03311603 0.00026795577 -0.022453804 0.014655061
00000000: 7074 e33b 86aa 3d3d 6a87 3abc 017d 3b3c
00000010: e5e0 9abd dfd3 873d 3706 443d 06bd 093c
00000020: d2f4 433b 9d46 4f3d 7f79 4abb d3df 42bc
00000030: ea82 8f3c a650 ab3b 6d5e 0c3b 9301 c93c
00000040: c4e5 a6bc a010 f5bb da56 433d a5f8 8f3c
00000050: 5509 b439 b178 d43c 3ad7 453d e521 6dbd
00000060: cc80 a2bc cff4 ed3a 0dc8 25bd 3a74 b4bc
00000070: e2f9 923c 4be7 803d b1f8 e2bc 149f 633c
00000080: 4ea3 7cbc b44a 89bc 56d7 cd3c 1c54 1cbd
00000090: efc8 553d 6513 893d a712 31bd f0bb 9abc
000000a0: 6acb 49bc fefb d53c 79a4 1cbd 1575 703d
000000b0: 582c 60bd 93eb 89bd bc20 5c3b 2539 273c
000000c0: fcd1 293c fcbd abbb a7b7 35bd baa6 a43c
000000d0: 7095 713b 3f4d 1a3c 1c12 ccbb 1a21 0d3d
000000e0: e978 c0bc a015 443d d7eb 4b3c 3b4f d13b
000000f0: e746 3b3c e49c 713d f30c ed3c c36d 22bd
00000100: e10f 943b f17f 47bd 4673 cfbb 6b2a 353d
00000110: 939d 27bd 584f 19bd 65b0 84bd 2775 2a3d
00000120: c3f3 d53d 3bd6 cb3c 4769 f7b8 6750 71bc
00000130: 43e6 4a3d 8010 d2bc 22ed 413c 4aca 04bb
00000140: 6f6e 01bd 0c5e 71bd 6fc9 ba3d b374 98bd
00000150: 9e76 8c3c 37af 70ba c18f 323d 5975 1f3d
00000160: e2a1 d3bb b479 1b3d bbdb 773d 4361 f2bc
00000170: f4b8 39bd f236 b13d 384f 87bd 1fa8 7bbc
00000180: ee01 d1bb 5c9e ff3c d34a c23b d23d f2bc
00000190: 2b49 063d 4beb e43b 04fa 16bd d4ff f9bc
000001a0: d5ba 933c 2b85 2cbd ce20 3e3d ed25 7ebc
000001b0: d716 91bc 4221 e0bb c72b 273d 3b56 b23c
000001c0: 5447 62bc f705 243c 4087 263c 5919 113c
000001d0: 3826 9bbd 27de e73b 7528 46bd 9b67 2e3b
000001e0: d0e0 13bc 5d94 85bd 2f27 a4bd 61d1 b6bc
000001f0: 4c65 823a 5da7 4fbd a057 1bbc 2757 56bd
00000200: 21f8 5ebd d1e5 b83c 8416 f23c 2c0d 3fbd
00000210: 36fc 78bb 2ae7 753d a02d c6b8 5494 1abd
00000220: 8b2f 12bd eb77 7f3b 7346 3fbd 5dca 9bbb
00000230: fb31 26bd 4f94 7cbd 63f5 603d 6c30 c6bc
00000240: a1e8 1dbc 4690 3ebc db69 4f3d b697 9aba
00000250: af60 353c 1d12 d63c dd3a 35bc d999 5f3d
00000260: e641 103d b381 893c 318d ba3d e314 b93a
00000270: 2fb5 0a3d aae7 783c 36ac be3c 16ee 83bc
00000280: 0845 6f3c f343 35bb 457d 1ebc 2402 55bd
00000290: 57da b03d 3ef6 2cbb d973 b93d 862c 4e3d
000002a0: ae42 863c d5d9 bfbc 821b da39 8410 43bb
000002b0: 81a8 413c 8729 763d 0f66 a1bc 23e9 8c3c
000002c0: 3da5 1dbc e004 8dbc 7201 84bd 258c a7bc
000002d0: aba5 023d 5f97 383c 6a03 dfbb 24d0 663d
000002e0: 51bd 17bd b042 8cbd 650b 98bd 56f8 783d
000002f0: 4d21 9abd 3b12 7b3c 47ed 13bd e8c7 533c
00000300: 3fc3 afbc 25e5 03bd 6d7d b83c 59d1 1dbd
00000310: de7e 813d b555 2e3d 7907 27bd 5add 84bd
00000320: bf63 4ebc 8880 04bc 444d a3bb a25e 5e3c
00000330: 163e 17bc d927 ab3c 9e77 0e3c cbfb c5bc
00000340: 08c5 97bc d8b8 a73d 7a76 83bc 556d 203d
00000350: 0643 813d 1e1d a7bc 08de 403b 1d5d fabb
00000360: 42f5 aabc 93c2 2f3b f922 a0bc d668 1dbd
00000370: 3970 febc 98d9 0ebd 7faf 373c 24d2 543c
00000380: 94ce 75bb dd39 923c 9a3e 1cbd a783 353c
00000390: 66cf 403b 2f73 eb3c 7cf7 8f3c d162 ebbb
000003a0: 7977 843c a7a6 623d 6086 debb b931 8b3d
000003b0: 8e70 94bc 023f d0bb 7f37 65bd aaf5 00ba
000003c0: 1823 913c cb1f 1fbd d0f9 b83c 3d2b 9cba
000003d0: cfa2 b83d 4106 86bb 94e5 0dbd e0ec e7bc
000003e0: 1291 23bc b481 863b b14e 363d ed76 893d
000003f0: ada4 073d 6a7c 8c39 0af1 b7bc c81b 703c

policy_layer.bias f4 [19]
-0.020564212 -0.009628752 0.002496655 0.00865807 0.0037307804 0.0032918798 -0.025869345 0.0052672853
-0.04823247 0.09224633 0.01707325 0.072751075 0.051497944 0.019191712 -0.042575516 -0.17133665
-0.15574391 0.053878263 -0.041386317
00000000: 4776 a8bc eac1 1dbc ec9e 233b 94da 0d3c
00000010: 1c80 743b 94bc 573b f3eb d3bc 3199 ac3b
00000020: 698f 45bd a5eb bc3d 33dd 8b3c 84fe 943d
00000030: 82ef 523d f037 9d3c aa63 2ebd e072 2fbe
00000040: 557b 1fbe 74af 5c3d b384 29bd

value_layer.weight f4 [1, 128]
-0.16892038 -0.050272744 0.10570609 0.0070422594 -0.08532522 0.00040102127 -0.053004652 0.14042753
-0.102388166 -0.08727083 -0.09528674 -0.144601 0.12884218 0.016964879 -0.066308044 -0.07611574
0.041151434 -0.09977684 0.007959409 -0.024278978 -0.113171026 0.12282277 0.028451554 0.12720288
-0.0015738874 0.07961099 -0.05505016 -0.030089963 0.17643714 -0.04871564 0.16088907 0.04670183
-0.051428966 -0.028978268 0.09108467 0.017867407 -0.20636943 -0.0067174337 -0.1527817 -0.11309794
0.032981783 0.109389044 -0.035230204 -0.03310158 0.06659552 -0.1300632 0.115847886 -0.035829335
-0.14856455 -0.03751895 0.04387133 -0.084839135 -0.13007823 -0.07963357 -0.2076043 -0.044641048
0.11679705 -0.15806282 0.04369778 -0.0029984491 0.044085424 0.10942334 -0.077603236 -0.14850435
-0.1710921 -0.005056995 0.03192466 0.0021195442 -0.07706563 0.08594747 -0.12539865 0.120384544
-0.07276086 0.18217467 0.06458823 -0.17975955 0.04810748 0.02045767 -0.039725628 -0.041497607
0.08228441 0.053191274 -0.063432015 0.01822277 0.046991523 -0.012354754 -0.009133688 0.07379906
0.11517287 -0.0947281 -0.04246731 0.013729047 0.044999223 -0.030756438 0.06435868 -0.21161719
-0.0025028693 0.0829704 -0.10586403 0.07384169 -0.17644572 -0.12145795 -0.121024944 0.08236036
-0.070248865 -0.13075116 -0.04683004 0.032955587 -0.17647542 0.013953779 -0.06383475 0.029613478
-0.14556113 0.05304036 0.097279966 -0.13660339 -0.032538313 0.08537971 0.103170946 -0.1019676
0.036828686 0.020998923 -0.08519191 0.0010220156 -0.08395218 0.05188219 0.14271277 0.019347126
00000000: 77f9 2cbe cbea 4dbd 6f7c d83d c1c2 e63b
00000010: fdbe aebd 2a40 d239 681b 59bd 3ccc 0f3e
00000020: e3b0 d1bd 0dbb b2bd b225 c3bd 4912 14be
00000030: 34ef 033e eef9 8a3c 83cc 87bd 92e2 9bbd
00000040: 688e 283d cd57 ccbd 2e68 023c b5e4 c6bc
00000050: 36c6 e7bd 818a fb3d 3c13 e93c 7941 023e
00000060: e64a ceba 160b a33d 477c 61bd 3a7f f6bc
00000070: f0ab 343e 0d8a 47bd 1bc0 243e 6b4a 3f3d
00000080: 2ea7 52bd d563 edbc 998a ba3d ab5e 923c
00000090: 8252 53be eb1d dcbb ce72 1cbe e59f e7bd
000000a0: e817 073d 5d07 e03d 8c4d 10bd 8695 07bd
000000b0: 3b63 883d 4a2f 05be a841 ed3d c8c1 12bd
000000c0: 4e21 18be 78ad 19bd 6cb2 333d 24c0 adbd
000000d0: 3a33 05be ed16 a3bd 3996 54be 88d9 36bd
000000e0: 4b33 ef3d 38db 21be 72fc 323d a181 44bb
000000f0: eb92 343d 5819 e03d 72ee 9ebd 8611 18be
00000100: c432 2fbe 26b5 a5bb 6fc3 023d 0de8 0a3b
00000110: 96d4 9dbd 3a05 b03d 8168 00be 2c8c f63d
00000120: a503 95bd ff8b 3a3e d546 843d e312 38be
00000130: 590c 453d d896 a73c 57b7 22bd 65f9 29bd
00000140: bb84 a83d 18df 593d a5e8 81bd eb47 953c
00000150: 2f7a 403d 986b 4abc 77a5 15bc f623 973d
00000160: c1df eb3d ce00 c2bd 34f2 2dbd ccef 603c
00000170: 1b51 383d edf4 fbbc 7cce 833d 2db2 58be
00000180: 2e07 24bb 63ec a93d 3ecf d8bd 503a 973d
00000190: 30ae 34be f2be f8bd eddb f7bd 8cac a83d
000001a0: a3de 8fbd a2e3 05be dbd0 3fbd 70fc 063d
000001b0: f9b5 34be 649e 643c cbbb 82bd f797 f23c
000001c0: fa0d 15be d940 593d b83a c73d c2e1 0bbe
000001d0: e546 05bd 8fdb ae3d 4a4b d33d 64d4 d0bd
000001e0: add9 163d ef05 ac3c 1979 aebd 27f5 853a
000001f0: 1fef abbd 6b82 543d 4c23 123e dd7d 9e3c

log_std_parameter f4 [19]
-3.3469539 -3.2212906 -3.4546735 -1.9229975 -1.926852 -0.9387036 -0.90557796 -2.3860204
-2.4898498 -0.7220995 -0.82243824 -1.6296227 -1.642024 -0.8148285 -0.7826638 -0.8470329
-0.8952432 -0.8051688 -0.86207694
00000000: 7e34 56c0 a029 4ec0 5f19 5dc0 c824 f6bf
00000010: 16a3 f6bf e14e 70bf f5d3 67bf 8fb4 18c0
00000020: b359 1fc0 83db 38bf 508b 52bf 7a97 d0bf
00000030: d82d d2bf 9a98 50bf a85c 48bf 26d7 58bf
00000040: a92e 65bf 8b1f 4ebf 13b1 5cbf

net_container.0.weight f4 [128, 69]
-0.042202946 -0.17546982 -0.073065855 -0.09167576 -0.022541225 -0.08834095 -0.14185753 -0.48322964
0.054630294 -0.05971385 -0.062220123 0.39719033 -0.14169133 -0.2141472 -0.48074865 -0.10812135
0.5255852 -0.20790838 0.07252722 -0.35745573 -0.063477665 -0.42597282 0.08378131 -0.29211116
-0.16495162 0.024708075 -0.42627484 0.235105 0.1818213 -0.13446856 -0.23686367 -0.07661259
0.01636049 -0.038219843 -0.08449176 0.0141746765 0.0024240313 -0.022852056 -0.028577423 0.050403237
0.037735682 0.1457747 0.07451361 0.030324554 0.040561855 0.09891712 -0.08611875 0.06623002
-0.04853148 0.058319815 -0.06075159 -0.075102 0.11643174 -0.087301105 -0.13970827 -0.1626537
-0.07099347 0.17356037 0.17286877 0.21487898 -0.013862869 -0.02850445 -0.004803278 -0.062069107
-0.062165674 -0.086566836 0.029982978 -0.08530663 0.08992452 0.21584159 0.014104607 0.64287084
-0.12843102 -0.06466461 0.09932642 0.18819092 -0.041796885 0.07682252 -0.16650179 -0.041140597
0.21018021 -0.11631945 -0.17612171 0.086519025 0.09828248 0.15604575 -0.071476355 0.00067230826
0.25984356 -0.08629873 0.05243953 0.02334115 -0.117459506 -0.0088011725 0.23549035 -0.2102638
-0.11883845 0.32545477 0.16070536 -0.17093903 0.06078202 0.058998417 -0.029628806 -0.031716786
-0.017550256 -0.012664015 -0.0028357639 0.04390542 0.0014959495 0.07414 -0.051792506 -0.06962154
0.100666866 0.11036907 0.057730112 -0.0010958649 0.006150027 -0.10947008 -0.03590276 0.14289981
-0.008627905 -0.07849481 0.1073453 -0.10060348 -0.15039177 -0.14325339 0.08565594 -0.056084264
-0.042007543 -0.102769434 0.009010512 -0.009468311 -0.1020788 0.006626928 -0.12464218 -0.16337268
-0.24881768 0.036646225 -0.4338501 0.1531484 -0.1566028 0.047761142 -0.16896854 -0.036167428
-0.7977857 0.90988517 0.16814159 0.32074255 0.041517723 0.1178999 -0.39894804 -0.16066954
-0.116886005 -0.17960402 -0.15713912 0.014496987 0.117353305 -0.90862805 0.19224355 0.04174603
0.09378511 -0.06572408 0.0826383 0.048105303 0.037305117 0.22504054 -0.17565124 -0.03649533
0.10113918 0.007174487 0.0010819959 0.012327956 0.05691045 -0.040289804 0.011149445 0.050505772
-0.061954517 0.010881509 -0.01691641 -0.052568004 0.005740306 -0.027222106 -0.0062096706 0.031168219
-0.02648489 -0.010608955 -0.019198442 -0.011229533 -0.10202173 -0.04541322 -0.100820914 -0.0013286
0.059440397 0.06650124 -0.0059590447 -0.07260244 -0.05862561 0.08066261 -0.0016352771 -0.17693968
0.0047654957 -0.022905659 -0.048442442 0.017699977 -0.012020002 -0.003216328 -0.009675514 0.21702771
0.009251446 -0.061539724 -0.06377176 0.0034058776 -0.021863874 1.2377362 -0.8206081 -0.0040071122
0.334027 0.116648525 -0.1531165 0.5007118 -0.027353343 0.46750805 0.7945893 0.057674937
0.053025182 0.15506814 0.7020955 0.29458526 -0.20904084 -0.09293678 0.12770286 0.3653266
0.021355402 -0.030300492 -0.06337461 -0.32188147 0.041956056 -0.45781252 -0.0010281707 -0.031939067
-0.049158443 0.030106919 -0.03495806 0.017802594 0.06446386 -0.01610746 -0.0099463845 0.0021462296
-0.051424697 0.028813142 0.0250802 0.046305828 0.021669473 0.061030496 0.032440238 -0.0002844747
00000000: ffdc 2cbd 5cae 33be 8da3 95bd 80c0 bbbd
00000010: 60a8 b8bc 1aec b4bd 1a43 11be e069 f7be
00000020: 04c4 5f3d 8396 74bd 87da 7ebd 885c cb3e
00000030: 8817 11be 6749 5bbe b024 f6be ba6e ddbd
00000040: c08c 063f efe5 54be 2789 943d 7004 b7be
00000050: 9400 82bd 1c19 dabe 8995 ab3d 988f 95be
00000060: 14e9 28be 9768 ca3c b240 dabe 5dbf 703e
00000070: 5d2f 3a3e 20b2 09be 648c 72be 10e7 9cbd
00000080: 6f06 863c 698c 1cbd 040a adbd e73c 683c
00000090: 7fdc 1e3b 3c34 bbbc 331b eabc a073 4e3d
000000a0: bb90 1a3d f745 153e 979a 983d 336b f83c
000000b0: 3024 263d 0f95 ca3d 075f b0bd 9ba3 873d
000000c0: f2c8 46bd c2e0 6e3d a9d6 78bd 14cf 99bd
000000d0: c473 ee3d ecca b2bd af0f 0fbe b18e 26be
000000e0: 0665 91bd cfb9 313e 8304 313e 3c09 5c3e
000000f0: 1621 63bc 2a82 e9bc d164 9dbb 2d3c 7ebd
00000100: 6fa1 7ebd f449 b1bd dd9e f53c 3eb5 aebd
00000110: 592a b83d 9405 5d3e 0217 673c 2f93 243f
00000120: 6c83 03be e16e 84bd a66b cb3d 1fb5 403e
00000130: 3633 2bbd 2055 9d3d 727f 2abe 0b83 28bd
00000140: 7b39 573e e438 eebd 4059 34be e330 b13d
00000150: 5348 c93d 75ca 1f3e 3262 92bd d83d 303a
00000160: 370a 853e 63bd b0bd d5ca 563d f035 bf3c
00000170: 9c8e f0bd cb32 10bc 6224 713e 654f 57be
00000180: 9361 f3bd 02a2 a63e f28f 243e a40a 2fbe
00000190: 91f6 783d 53a8 713d 1cb8 f2bc 76e9 01bd
000001a0: 8ec5 8fbc bb7c 4fbc 39d8 39bb 2bd6 333d
000001b0: bc13 c43a b6d6 973d 6124 54bd bd95 8ebd
000001c0: 6e2a ce3d 2e09 e23d 6976 6c3d 20a3 8fba
000001d0: 2a86 c93b d931 e0bd c60e 13bd 5454 123e
000001e0: 0e5c 0dbc e3c1 a0bd dad7 db3d 3309 cebd
000001f0: 4d00 1abe 04b1 12be 626c af3d 9db8 65bd
00000200: 1a10 2cbd c878 d2bd d4a0 133c fa20 1bbc
00000210: b10e d1bd b426 d93b 6644 ffbd 2b4b 27be
00000220: 10ca 7ebe 5a1a 163d 9a21 debe efd2 1c3e
00000230: 7c5c 20be 30a1 433d 1706 2dbe 4c24 14bd
00000240: af3b 4cbf 3cee 683f 4f2d 2c3e 5e38 a43e
00000250: 7d0e 2a3d 8175 f13d eb42 ccbe 8e86 24be
00000260: ee61 efbd 1eea 37be 14e9 20be c584 6d3c
00000270: ee56 f03d d99b 68bf 7edb 443e e3fd 2a3d
00000280: 6812 c03d 599a 86bd 453e a93d 110a 453d
00000290: 40cd 183d 0771 663e ebdd 33be 217c 15bd
000002a0: 0f22 cf3d f617 eb3b c2d1 8d3a 32fb 493c
000002b0: ef1a 693d ec06 25bd 29ac 363c 24df 4e3d
000002c0: 05c4 7dbd 5b48 323c 4894 8abc 8c51 57bd
000002d0: 2d19 bc3b e500 dfbc 7e7a cbbb 7e54 ff3c
000002e0: d7f6 d8bc 2fd1 2dbc 0d46 9dbc 13fc 37bc
000002f0: c5f0 d0bd 3603 3abd 327b cebd 6b24 aeba
00000300: c677 733d cd31 883d 1744 c3bb 97b0 94bd
00000310: 6821 70bd 7032 a53d cb56 d6ba ad2f 35be
00000320: e027 9c3b a6a4 bbbc 956b 46bd 8bff 903c
00000330: 8bef 44bc 08c9 52bb 0c86 1ebc 833c 5e3e
00000340: 6193 173c 1411 7cbd c59a 82bd 2535 5f3b
00000350: de1b b3bc 246e 9e3f 5f13 52bf 184e 83bb
00000360: 9605 ab3e 6ce5 ee3d 92ca 1cbe a62e 003f
00000370: 1e14 e0bc 375d ef3e 346a 4b3f 8e3c 6c3d
00000380: ef30 593d 2fca 1e3e 88bc 333f e1d3 963e
00000390: cd0e 56be a355 bebd 8ac4 023e 170c bb3e
000003a0: 86f1 ae3c bd38 f8bc 8cca 81bd a6cd a4be
000003b0: 1dda 2b3d 6766 eabe afc3 86ba 8ad2 02bd
000003c0: 5d5a 49bd c9a2 f63c 2f30 0fbd bfd6 913c
000003d0: a105 843d cbf3 83bc 29f6 22bc c2a7 0c3b
000003e0: b4a2 52bd 8a09 ec3c fe74 cd3c 2eab 3d3d
000003f0: 2e84 b13c 1dfb 793d 0ee0 043d 8c25 95b9

net_container.0.bias f4 [128]
0.12258641 -0.14120062 -0.026163008 0.01639055 0.123239 0.05933163 0.07629051 0.07794463
0.17798662 0.12369751 -0.01559147 -0.009466134 0.0049690036 0.013295276 0.17526329 -0.18352784
0.15813342 -0.12927236 0.17729937 0.058756184 0.10518143 0.062755704 -0.029191237 0.18474819
0.093733445 0.014477086 -0.08001272 -0.11339235 -0.04351823 -0.048475593 -0.016283117 0.008732204
0.17730984 -0.006774642 -0.00063328573 -0.1645684 0.05720336 0.025618766 0.08141985 0.03992215
-0.02914023 0.15441822 -0.08453948 -0.0966733 0.123289876 -0.1146828 0.032349855 -0.0258441
0.22976021 0.06667546 -0.054870907 0.04019664 -0.12936185 -0.039774682 -0.026277697 -0.024490293
0.1806178 0.052010685 0.11303368 0.102724776 -0.055350553 -0.006547588 0.13514505 0.11149161
0.018261079 0.1308528 0.080387175 0.055926196 0.12631086 -0.013361061 0.08012874 -0.15246007
0.124009624 0.122242495 0.042303458 0.06590096 0.23371446 0.04446497 0.28308797 0.057850346
0.025508491 -0.042013466 0.22668532 0.087187156 0.025893634 0.059457134 0.13882576 0.2154774
-0.014941757 0.14895679 -0.1087394 0.031356826 0.09061834 -0.023694117 0.04612704 0.02362484
0.030745698 -0.14687765 -0.08525895 -0.0028245857 0.11923799 0.047536213 -0.067772284 0.020218242
-0.004571452 0.020487 0.07244573 -0.08456283 0.0011970939 -0.08615539 -0.06229251 -0.022049885
0.058914162 -0.110642776 0.16025406 0.16357847 -0.120310776 0.0995529 0.048865333 -0.047421325
0.023412896 -0.12796828 0.13190228 -0.10220656 0.00065392064 -0.16296266 -0.07410859 0.018907843
00000000: 950e fb3d e596 10be ce53 d6bc 7a45 863c
00000010: bb64 fc3d b905 733d 333e 9c3d 6fa1 9f3d
00000020: 2042 363e 1f55 fd3d 5d73 7fbc d817 1bbc
00000030: 06d3 a23b 6ed4 593c 3878 333e b9ee 3bbe
00000040: baed 213e f95f 04be f78d 353e 53aa 703d
00000050: 5d69 d73d 1086 803d 7622 efbc a12e 3d3e
00000060: 52f7 bf3d 4d31 6d3c b5dd a3bd 403a e8bd
00000070: 2c40 32bd 588e 46bd 2c64 85bc 8511 0f3c
00000080: b690 353e d1fd ddbb 1603 26ba 9e84 28be
00000090: 124e 6a3d 72de d13c 73bf a63d 6985 233d
000000a0: 7eb7 eebc cf1f 1e3e 0923 adbd a7fc c5bd
000000b0: 677f fc3d d1de eabd 4881 043d 02b7 d3bc
000000c0: 4346 6b3e 258d 883d 51c0 60bd 3ba5 243d
000000d0: 6f77 04be c7ea 22bd 5344 d7bc de9f c8bc
000000e0: dff3 383e 2809 553d 347e e73d 5e61 d23d
000000f0: 43b7 62bd 268d d6bb 7763 0a3e b755 e43d
00000100: 4298 953c 47fe 053e 08a2 a43d de12 653d
00000110: a257 013e 5ae8 5abc 891a a43d 7e1e 1cbe
00000120: c2f8 fd3d 465a fa3d 6446 2d3d 15f7 863d
00000130: d852 6f3e e620 363d e8f0 903e 7cf4 6c3d
00000140: 2ff7 d03c 5016 2cbd 3220 683e 2e8f b23d
00000150: e31e d43c 5389 733d 5728 0e3e 1ca6 5c3e
00000160: 45ce 74bc 2188 183e c3b2 debd 0470 003d
00000170: 1c96 b93d 2a1a c2bc b5ef 3c3d e188 c13c
00000180: 67de fb3c 1867 16be 3f9c aebd af1c 39bb
00000190: 0c33 f43d 55b5 423d 32cc 8abd baa0 a53c
000001a0: 1ecc 95bb 5ad4 a73c 6d5e 943d 472f adbd
000001b0: cee7 9c3a 3d72 b0bd 6e26 7fbd f6a1 b4bc
000001c0: fa4f 713d ae98 e2bd a419 243e 1d81 273e
000001d0: 7f65 f6bd 64e2 cb3d 0427 483d dd3c 42bd
000001e0: 67cc bf3c 1e0a 03be 6411 073e ac51 d1bd
000001f0: df6b 2b3a afdf 26be 3fc6 97bd 9fe4 9a3c
