humanoidprac/humanoidprac/scripts/skrl/logs/skrl/h1_flat/joint_experiment_ver3/2025-09-18_06-26-10_ppo_torch/checkpoints/agent_7200.pt (torch, 549922 bytes, 40 tensors)

log_std_parameter f4 [19]
00000000: 021d 15c0 2260 19c0 3316 23c0 35e3 bebf
00000010: 245a bfbf 212a 20bf bcda 24bf d23a eabf
00000020: 8096 ebbf 05b7 15bf 33b6 01bf aac7 97bf
00000030: a8e1 97bf 46f7 08bf 9bd8 27bf ccc5 1fbf
00000040: b223 06bf 0d71 11bf 302b 1bbf
-2.3298955 -2.3964925 -2.54823 -1.4913088 -1.4949384 -0.62564284 -0.6439626 -1.82992
-1.8405304 -0.5848239 -0.5066864 -1.1857808 -1.186574 -0.5350231 -0.6556489 -0.6241119
-0.52398217 -0.56813127 -0.60612774

net_container.0.weight f4 [128, 69]
00000000: a05d c9bd 9345 67be 0aa7 5f3e 04bb 89bc
00000010: dd54 a13d c8f4 3abd 8f2f 8f3c fe59 13bf
00000020: 6aeb 003e b22e 0ebe 87da 7ebd 25fa 2fbb
00000030: b0a9 603e 5138 5fbe 5298 a6be 215e debd
00000040: 96a6 ed3e 3f1a 60be 9dfc 7e3e 0f6a 01bf
00000050: c401 6fbc aab7 74bc 66f0 7a3d 7658 efbe
00000060: 4a63 eabe 5e45 9dbc e481 5abe 75ef 553e
00000070: b4b2 613e fdc8 6fbe ecde c43d e21c bfbd
00000080: f967 c0bc 0ba3 88bd 88fa a9bc 6a8c b439
00000090: a2e8 803d ef97 f0bd 66c6 e2bd 2d4a a13d
000000a0: bfee 8a3d 6033 b0bc 5b5e f83d f639 753b
000000b0: c535 8f3d 983a 803d b1eb 59be ac55 ef3d
000000c0: 31fc 4e3c 89f8 08bc 0cfe 683c 7946 3abd
000000d0: 7dfc 253e e3cb af3d 0943 6cbe 940f 09be
000000e0: 928b 0dbe 2018 763d 0608 1dbd 05a8 4c3e
000000f0: 3e9e 84bd 41ad e0bc 8e7a 3fbe 5780 debd
00000100: aa70 563d 4ee8 993b 289e 9bbc 95bf 803c
00000110: b7fb a43d 45e5 a43d 7171 983d a0ab 2a3f
00000120: 5003 babd 5a44 80be 2456 393e 9a76 88be
00000130: cb8f 53bd 6967 953d e08f ec3d 0b83 28bd
00000140: 7769 1b3e e205 4ebe 39bd 653d decd 173f
00000150: dfe1 f03d 74fd 373e 8feb 3c3e 4ec6 eabe
00000160: 6e18 a73c a93a e33e 90b2 2d3e 6bfa 953d
00000170: bc1c 21bd b5c6 d33d e3dc 003e 32da a83d
00000180: cb85 d93d f320 1c3e aa79 4bbe c1bd e7bd
00000190: de97 e9bc a423 f33d 5e28 6ebd 7416 02be
000001a0: bc65 3d3d 1b80 4fbd 039a 81bc b8d7 a03d
000001b0: 3d3a ea3c 9ac4 4c3d 6135 7c3d 4a1c a8bc
000001c0: c531 f33b 31bd f93c 538e b13d 6477 fc3d
000001d0: 429c a03c f2e2 99bd 286a 07bc efae 353c
000001e0: 79d1 6a3c 4d0f f93d 14b5 b83d 8268 373e
000001f0: 07b3 cabb d584 e7bd b7d4 2c3d 0146 03be
00000200: 36d7 7dbd a8cc 2fbd 63a7 ad3d dd96 ccbd
00000210: 8421 adbd 3c2a 9fbd 4e6f 10be ba9f 4fbd
00000220: 0499 33be 5295 b9bc 0e42 29be 72d6 1fbe
00000230: ba17 22be bbab 5a3d fcf6 51bc cc91 b1bc
00000240: f05d d8be 904b b0be 5505 583e 01d4 343e
00000250: 7d0e 2a3d 33b5 653d 0637 67be fba9 f0bd
00000260: 39c1 79be 468a d03d 9e48 2cbe 8b93 c3bc
00000270: fec6 27be 06df 20bf 07b6 663c 05db aebe
00000280: 9fef d0bc 9233 b43d c1eb 4e3e dd65 4fbe
00000290: 02f8 a93d e48e 68bb a1db 36be 3098 a4bd
000002a0: 43b0 2c3e 4148 fb3c 7cd1 033c 46c3 b43c
000002b0: 4639 003e d186 e3bc 8730 b03b 8cde 753d
000002c0: d40b d3bd 5e6d 8d3d 6cfb c43c b493 fcbb
000002d0: c5ad ea3c 0f70 913c 356c d73d 1b19 a33d
000002e0: 6be3 5abd d8c0 1fbe cda9 5e3d 8a06 45bc
000002f0: 89c4 a4bd 1afc 6cbd 20cc c0bc e3d1 3dbc
00000300: 089d 0a3d 15af b13d a7f5 ad3c 4188 39be
00000310: 9b29 583e d5db ec3d c7cc b0bd f9b3 973d
00000320: 36b7 803d c791 4dbc f393 07bd 0918 8c3d
00000330: 0848 a93c 5f65 153e 4b96 553c 8b22 2f3e
00000340: dbde dc3c f1e7 993d 2994 87bd 6f75 363d
00000350: deaa 89bd 4c18 953f 20d1 a53d 0d65 1bbd
00000360: e633 cdbd 6ce5 ee3d 48de 04be 343a b9bd
00000370: eb1e 04bf 360a debd c6fe e23e 4e44 fabe
00000380: e0ba c6bd 89d0 18bd a620 203f 7de6 a83e
00000390: 694e 9dbd 4f38 e23c 40f2 123e bcea 983e
000003a0: 224e 8e3e e2d3 0fbe 54c2 91bd 1e28 04be
000003b0: c296 9dbe 9e24 d63d a671 eb3c 41e4 a53a
000003c0: 7ad8 9fbc 26e6 87bc 559f f5bc 3cc3 a23d
000003d0: 787b df3c cc01 ca3b a522 5cbb fb5a 9fbd
000003e0: e8e2 8dbc 51dc 2b3b 88d0 f838 79ab 9d3d
000003f0: edac 993d 5e94 463d 9cc3 953c 6dc6 97bd
-0.09832311 -0.22585134 0.21841064 -0.016812809 0.078775145 -0.045643598 0.017478732 -0.5755919
0.12589803 -0.13885 -0.062220123 -0.0026851979 0.2193973 -0.21798827 -0.32538086 -0.108577974
0.46416157 -0.21885012 0.24901052 -0.5055246 -0.014587823 -0.014936367 0.061264418 -0.46747178
-0.45778877 -0.019198116 -0.21338612 0.20892127 0.22040826 -0.23416515 0.096128315 -0.09331681
-0.023487078 -0.06671723 -0.020749345 0.00034436892 0.06294371 -0.11747729 -0.11072998 0.07875476
0.067838185 -0.021508873 0.12127372 0.003741858 0.069926776 0.06261176 -0.21281315 0.116862625
0.012633369 -0.008360037 0.014220726 -0.045477364 0.16209598 0.0858381 -0.23072447 -0.13384849
-0.13822773 0.0600816 -0.03833773 0.1998597 -0.06475495 -0.027426364 -0.18699095 -0.10864323
0.05235354 0.0046968823 -0.018996313 0.015716353 0.08055823 0.08051542 0.07443512 0.6666813
-0.09082663 -0.25052148 0.18099266 -0.26652986 -0.051650804 0.072951145 0.115508795 -0.041140597
0.1517695 -0.20119432 0.05608866 0.59298503 0.117618315 0.17967778 0.18449233 -0.4585442
0.020397391 0.44380692 0.16962647 0.07323154 -0.039334044 0.10340635 0.12584262 0.082447425
0.10621222 0.15246944 -0.1987063 -0.113154896 -0.028514799 0.11872032 -0.058143966 -0.12703878
0.0462396 -0.05065928 -0.015820509 0.07853645 0.028592223 0.04999218 0.061574344 -0.020521302
0.0074217045 0.030485721 0.08669724 0.123274595 0.01960576 -0.075139895 -0.008265056 0.011089071
0.014332169 0.121611215 0.09018913 0.1791096 -0.0061858925 -0.113046326 0.04219505 -0.12819673
-0.06197282 -0.042919785 0.08479192 -0.099897124 -0.08453658 -0.077717274 -0.1410496 -0.050689436
-0.1753884 -0.02265421 -0.16529104 -0.15609148 -0.15829363 0.05338643 -0.012815233 -0.021675967
-0.4225917 -0.3443265 0.21095784 0.17658998 0.041517723 0.05608101 -0.22579584 -0.11751171
-0.24390115 0.101826236 -0.16824576 -0.023874065 -0.16384503 -0.62840307 0.014081485 -0.34151474
-0.025504885 0.08798899 0.2020712 -0.20253702 0.08299257 -0.003548556 -0.1785722 -0.0803684
0.16864114 0.030674102 0.00804555 0.02206577 0.12521848 -0.027774246 0.0053768787 0.06002669
-0.103049904 0.06905626 0.024045669 -0.0077080373 0.028647313 0.017753629 0.10518686 0.07963773
-0.05343954 -0.15600908 0.054361153 -0.012025485 -0.080452986 -0.05785761 -0.023534834 -0.011585685
0.033841163 0.08675972 0.0212353 -0.18118383 0.21109621 0.11565367 -0.08632808 0.07407374
0.06284945 -0.012546963 -0.03310008 0.06840522 0.02066423 0.14589451 0.013036321 0.17103021
0.026961735 0.075149424 -0.06620056 0.044545587 -0.067220435 1.164804 0.08096528 -0.037938166
-0.100196645 0.116648525 -0.12975419 -0.090443045 -0.5160968 -0.10841791 0.44335002 -0.48880237
-0.09703612 -0.03730825 0.6254982 0.3298835 -0.07680971 0.02761474 0.14350224 0.29866588
0.27793986 -0.1404567 -0.07117143 -0.12905928 -0.30779082 0.10456203 0.028740715 0.0012656526
-0.019512404 -0.016589236 -0.029983202 0.07947394 0.027280554 0.006164765 -0.0033589986 -0.07781025
-0.017320111 0.0026223848 0.000118644035 0.076987214 0.07503686 0.048481338 0.01828175 -0.074108936

net_container.0.bias f4 [128]
00000000: f6a5 3e3d 35a5 ddbd c2ed b4bd df59 f5b9
00000010: 8319 a13d 3a09 543d f038 0c3e 3f1f 183e
00000020: bff4 d83d af0f 0b3e c16d 043c 7a41 d43b
00000030: 4847 803d fde1 cabd 81fc 723e a5ab 4dbe
00000040: 82b0 d13d fcf8 31be 9f46 f53d d4da 163d
00000050: a7ad a43d 5291 973d 12a3 48bd ae0c 683d
00000060: d505 753d 6ad1 633d 7a05 9bbc 99bb 9cbd
00000070: d945 76bc 73e0 ecbc 30a5 3dbd 593a 643c
00000080: 9ba4 303e c537 343d 2bb4 a2bd bb1f 88bd
00000090: 8b8c 8a3d 0c47 023d 191b 383d 00f2 b4bc
000000a0: 5e5a e7bd 44bd fe3d ebea 23be e2a4 bbbd
000000b0: d491 a83d 5cdb 06be 2718 923c 7771 b0bd
000000c0: 0d1b 433e 2511 b23c 76c6 5ebb 9f74 b03c
000000d0: 803b 71bd 7f08 9fbd 412d 60bc 0b4c 1e3d
000000e0: be5e 683e 6f8c 473d d82a 9e3d 65c6 be3d
000000f0: 5a16 0dbe 8bde 813d 347d 1f3e e756 f93c
00000100: 6436 b93c 5bc9 0d3e 58fe 833d f2ea 5c3b
00000110: d84f a13c 8b60 653d 48d8 e03c a02e c8bd
00000120: ca8f 193e 7235 e53d 4fb5 483d baff 7f3d
00000130: a102 2d3e 47cf a739 27ed 203e f55b 033d
00000140: 4e6b bf3c 6891 37bd 14f6 713e bdad 2c3d
00000150: 4c66 1f3d b39b 1d3e e5c5 ae3d 5d5b 353e
00000160: 9554 51bc c4d3 433e e099 0abd a596 c6bc
00000170: 4edc a13d 6565 5cbd 902a 083c f60d 0ebd
00000180: 3cc5 5b3d 5210 10bd 1e93 f8bd 1f59 5cbd
00000190: e9a5 f13d 7af4 453c 7909 a9bd 9c75 573b
000001a0: 2baf f93c 33a6 8a3d fcbc b7bc abed 8dbd
000001b0: cf82 31bc 0c66 76bd 2a73 01bd 9334 083b
000001c0: 8d5b 71bd 01c1 efbd d255 453e 48ad 053e
000001d0: 7856 eabd bc2f 263e 10d8 093d 681b dbbd
000001e0: 0144 ae3c de04 0cbe 7527 253e 320f 48bd
000001f0: 5673 953d 971f 2ebe 67db e8bd 7750 163e
0.04654499 -0.10822526 -0.08834411 -0.00046797 0.07866194 0.05176661 0.13693595 0.1485567
0.105935566 0.13580202 0.008082808 0.006477532 0.06263596 -0.09906385 0.23729135 -0.20085008
0.10238744 -0.17380136 0.119763605 0.036829785 0.08040934 0.074007645 -0.04898364 0.056652717
0.059820015 0.055619635 -0.01892351 -0.07652969 -0.015031301 -0.02891562 -0.046300113 0.013929927
0.17250292 0.0439985 -0.079445206 -0.06646677 0.06765088 0.031806037 0.044947717 -0.02208805
-0.11296533 0.12438443 -0.16007583 -0.09162308 0.082309395 -0.13169616 0.017833782 -0.08615392
0.19053288 0.02173669 -0.0033992804 0.021539984 -0.058894634 -0.077652924 -0.013682664 0.03864674
0.22692391 0.048717912 0.077230155 0.093151845 -0.13778058 0.06341275 0.15575105 0.030436946
0.022608943 0.13846342 0.064449966 0.0033709374 0.019691393 0.056000274 0.027446881 -0.09774518
0.14996257 0.111918345 0.049001034 0.06249974 0.16895534 0.00032007156 0.15715466 0.03207012
0.023366597 -0.044816405 0.23629028 0.042157877 0.038915917 0.15391426 0.08533839 0.17710634
-0.012776514 0.19123751 -0.033838153 -0.024241755 0.07903348 -0.053807635 0.008310929 -0.034681283
0.053654894 -0.035171814 -0.121374354 -0.05379593 0.11799223 0.012082214 -0.0825376 0.0032876497
0.030479034 0.06769981 -0.022428982 -0.06930097 -0.01083441 -0.060155913 -0.03160397 0.002078329
-0.0589252 -0.117067344 0.19271019 0.13054383 -0.11442274 0.16229147 0.03365332 -0.10698587
0.021272661 -0.13673732 0.16128333 -0.048842616 0.07297389 -0.17004238 -0.11369973 0.14679132

net_container.2.weight f4 [128, 128]
00000000: 03be d23c d3e5 e2bd 012f 5e3d 16b8 9fbb
00000010: 8339 153d 1754 aa3c 1af3 083d 8a45 f8bd
00000020: 2a08 30bd 8a47 1d3d f65d ee3c 4625 20be
00000030: 1efa fb3d a068 31bd 7416 863d 5c7f 8dbc
00000040: 568d 34bd 29e6 4f3c 7127 c73c ce11 ae3d
00000050: 40f6 47bd c97c 8c3c 77c7 c1bd 36ba 31bd
00000060: 9a7d 15bd 3067 cf3b 08e8 acbd edde 943d
00000070: d49a c7bc d1b3 5fbd 6cdf 57bd b3e4 1e3a
00000080: d95f a2bd 6fc1 5abd e443 ddbd b876 443d
00000090: d518 8ebd c30e 273d 4424 413d e899 c436
000000a0: 89d4 5b3d c052 c93d 2cd0 cd3b d25a fcbd
000000b0: 0c40 13bd dd98 d13d 20c2 bcbd ec6b c53c
000000c0: 0b7b 803d a825 84bb baea a33c 3c3b 9a3d
000000d0: b716 6abd 1d7b 04be 2766 64bd 1cc7 e8bc
000000e0: 2de7 3cbe 34d2 30bd 9d85 be3c d02e 0e3d
000000f0: 3a4f 853c 0bdc 8e3d 79fc c73d 0105 15be
00000100: 6fdf a8bd 3ddf 38bd 345e a1bb c3de f0bd
00000110: 8c11 26bc ec53 13bd f740 10bd b97a bbbc
00000120: e330 a53d 0b1c 14bd da49 99bd ed90 bc3c
00000130: 554f ebbd ecdf eebd b166 593d e5b9 4b3d
00000140: 8534 7b3d 70cd 323c 11ce 8abb f53e 7a3d
00000150: c384 e3bd d616 943c ca99 91bd bfa0 cbbd
00000160: 21c9 e5bb 7c38 33bd e302 e7bd 6a09 98bd
00000170: 8d80 90bd 8db5 c3bb ddb1 e5bd 6c9e 9cbd
00000180: c825 bd3d 773a b93d 40b5 253d cd38 2a3d
00000190: 59a1 633d e67b 013d 44d3 afbd 8890 3bbb
000001a0: 8a75 343d 0120 51bd 3d95 1c3d 32b7 e8bc
000001b0: 1cb8 763d de70 9b3c 8c9f a0bd e86c 81bd
000001c0: 4724 87bb 9e00 28bd b5f3 76bd db62 97bd
000001d0: dd95 a0bc 6fcc 15be ad25 4cbc 42b6 d83c
000001e0: 1be0 9b3c b52d d23a c5e1 c0bd 8f90 8c3c
000001f0: e001 e03c 2aec 263d 01ba 80bd a295 83bd
00000200: ceea 1f3d 6b05 953b c52f 11be 8899 53be
00000210: 6b35 bc3d 2e18 bebd 841e 6d3d 8343 ca3d
00000220: b0d8 d13d 7ee9 10bd 1093 333d 20a6 da3d
00000230: ea79 54bd 6ea5 743c 8b38 8abd 5a23 9f3d
00000240: 3190 d53b d10b 9bbd 68a3 5b3d 08a4 4ebd
00000250: 41de 0dbe 5b7d 81bc f90b c73c b901 a23c
00000260: 5f54 74bd 72a1 90bc 2991 35bd 1cef e33d
00000270: 91ea d13c dfd2 99bd bba7 e53d 6e97 a9bd
00000280: 1b36 fcbd 53a4 3bbd e99b 68bd 6eac 86bd
00000290: 7592 043e 7d47 9b3c 9115 15be 0240 dcbd
000002a0: abe5 5d3d 24d3 90bc 5164 a4bc 6a9d d83d
000002b0: 00e8 7e3c 967d b33b 07c3 5c3d 052e 0e3d
000002c0: 75bf 80bd db74 ee3c 14bf 85bc 9575 edbd
000002d0: 6e98 293d a9d9 9dbd 88a0 1abd 4334 fa3c
000002e0: 1104 fbbc 9825 4c3c 73d8 95bc cbe5 523d
000002f0: c12d 9dbd 9e96 e439 ff63 dbbd a9ab 093e
00000300: 595e d43c a6b8 8fbd 78d3 3cbd 81e4 71bd
00000310: 0b7a 59bd 42b6 83bc 50d3 853d 5de8 d8bd
00000320: 1bda a93c e654 a33d eb4c fcbd c4a9 cfbc
00000330: 2cf2 d93c d671 c23b 9029 ae3d 536f 27bd
00000340: 4899 01be 2bf5 7ebb 2ee7 85bd 271c ddbd
00000350: 37e1 04be 5010 13bc ddc7 c73d f0c1 edbd
00000360: 90b5 2b3d 6bdc e43c a7ae 543c 9e99 e3bd
00000370: deb3 923d 56c0 bd3d 1917 e2bc 0920 f2bd
00000380: 6a4a 2f3d 5234 f63b c5fa ed3d ca1a 31bd
00000390: a8ae 1b3c fd07 b0bd cc9d f13d f604 573d
000003a0: 7a8f da3c 203d ac3b d544 01be ffcb 74bd
000003b0: 5e79 973d b4c5 4cbd 31b2 febc 458b 37bd
000003c0: e173 d6bc 90e5 f8bc 2934 513d b479 8f3b
000003d0: 843a 7cbd 74ce 603d 37d6 083d 0df4 bc3d
000003e0: ef94 02bd 4b03 4ebd 1f0c 68bd fea5 18bd
000003f0: 37d6 3a3b f6f8 5d3e 6a57 933d 1b75 f13c
0.02572537 -0.11078992 0.054244045 -0.0048742397 0.0364318 0.02079205 0.033434965 -0.121226385
-0.042976536 0.038398303 0.029097538 -0.15639219 0.123035654 -0.04331267 0.06547251 -0.017272644
-0.0440801 0.012689152 0.0243108 0.0849949 -0.048818827 0.017149346 -0.09461873 -0.043390475
-0.036496736 0.0063294396 -0.08442694 0.07269082 -0.02436582 -0.054614846 -0.052703306 0.00060613005
-0.07928438 -0.05340713 -0.10803965 0.04796478 -0.0693833 0.040785562 0.047153726 5.8591722e-06
0.053669486 0.098302364 0.0062809195 -0.1232201 -0.03594975 0.102342345 -0.09216714 0.024099313
0.062734686 -0.0040328093 0.020009387 0.07530829 -0.05715057 -0.12937589 -0.055761483 -0.028415255
-0.18447562 -0.043169215 0.023257071 0.034712613 0.01627313 0.069755636 0.09764952 -0.1455269
-0.082457416 -0.04513477 -0.00492456 -0.117612384 -0.010136019 -0.035968706 -0.035218205 -0.022885667
0.08065965 -0.036159556 -0.07484789 0.023018325 -0.11489741 -0.116638035 0.05307645 0.04973783
0.061329383 0.010913238 -0.004235991 0.061095197 -0.11109307 0.018077295 -0.07109411 -0.09942769
-0.007012502 -0.04375504 -0.112798475 -0.074236706 -0.07055769 -0.0059725703 -0.11215565 -0.07647404
0.09235722 0.090443544 0.040456057 0.041558076 0.055573795 0.0316123 -0.085852176 -0.0028620083
0.044057406 -0.051055912 0.038228262 -0.028407667 0.060234174 0.018974718 -0.07842931 -0.063196
-0.0041241976 -0.041016214 -0.06029101 -0.07391902 -0.01960271 -0.14628766 -0.0124601545 0.026454095
0.01902776 0.001603535 -0.09418062 0.017158775 0.027344644 0.040752567 -0.062854774 -0.064250246
0.039042287 0.004547765 -0.14178379 -0.20664036 0.09189876 -0.09281956 0.05789043 0.09876158
0.10246408 -0.035378926 0.04384142 0.10676217 -0.05187408 0.01493202 -0.06749066 0.07770415
0.006517433 -0.07570613 0.053622633 -0.0504494 -0.13854314 -0.015806844 0.024297701 0.019776212
-0.059650775 -0.017655108 -0.04432789 0.11129591 0.025624545 -0.075109236 0.11213633 -0.08280836
-0.12315007 -0.04581101 -0.056789313 -0.06575857 0.12946494 0.018954987 -0.14559008 -0.10754396
0.054174107 -0.017678805 -0.020067366 0.10576899 0.015558243 0.0054776175 0.05389693 0.034711856
-0.062865175 0.029108455 -0.016326465 -0.115946926 0.041405134 -0.07707531 -0.03775075 0.030542498
-0.030641587 0.012460135 -0.018291688 0.05148868 -0.076747425 0.00043599767 -0.10712432 0.1344439
0.025923895 -0.07017641 -0.04610011 -0.05905581 -0.053094905 -0.016078118 0.06534445 -0.10591195
0.020733884 0.079751775 -0.123193584 -0.025349505 0.026604734 0.0059339805 0.08504021 -0.04087765
-0.12656128 -0.0038903456 -0.06538235 -0.10796385 -0.12976538 -0.008976057 0.09754918 -0.11609256
0.0419212 0.027937135 0.0129810935 -0.111132845 0.07163213 0.09265201 -0.027598904 -0.118225165
0.042795576 0.0075135613 0.11620096 -0.04323844 0.0095020905 -0.08595274 0.117976755 0.052494965
0.026679743 0.00525631 -0.12623914 -0.05976486 0.07396196 -0.049993232 -0.031090828 -0.044810552
-0.026178302 -0.030382901 0.051075134 0.004378522 -0.061579242 0.05488439 0.033407416 0.092262365
-0.031880315 -0.05029611 -0.056652185 -0.037267677 0.002850903 0.21677002 0.07194407 0.029474786

net_container.2.bias f4 [128]
00000000: f0e2 c83d 9f00 4abe 6801 a3be de18 4f3d
00000010: 5406 18be 46a4 3a3d 9bb9 89bc 8473 993d
00000020: 7e3b 283d 58b5 fabd f80f 613e 0e1f 9fbc
00000030: 5768 e73c 3639 bbbd 0c41 993d f0f6 c5bd
00000040: 75f1 3cbd 3250 56bd c675 0ebe d7a5 803d
00000050: 86d2 c83d e68b 03bd 3c96 8b3d 55af 6bbd
00000060: cc35 8dbc 4ba2 683d f36b 9d3d 481d 12be
00000070: 8fc8 d43c 5c61 3bbe 3597 d1bd 8404 493c
00000080: b905 403d a064 e0bd c156 1e3c 70ff 91bd
00000090: fcd7 fcbd bf57 8cbb 6114 78bb 853a cabd
000000a0: d2a3 04be f007 02bd de27 15be 1de4 a9bc
000000b0: 64a0 653d 6e2f b73d 0894 c13c 75ec 9e3a
000000c0: 6961 753d b192 ebbd 0e8c b73d 72ba a4bd
000000d0: c473 71bb d6dc 143e 461a aebd 9a6d 70bd
000000e0: 4293 813d 3210 efbd e658 433d 0db7 493e
000000f0: e910 43be 5249 b0bd 0087 0cbe 1699 543d
00000100: 7ee6 5dbd 1923 24be dfc1 293e 1df2 063c
00000110: 8acb bbbd 6bfe 273d 600a bcbd 2aff 14be
00000120: 8d6c 1cbd 2b7a dab9 607b 39bd 2546 64bd
00000130: 476a 033e 146c c3bd 9314 e3bc 3549 81bc
00000140: 6ed1 bcbd 3164 5fbd 16f4 393c 094e 73bd
00000150: 5b36 f8bd d3fb 47bd 621c 193c 7e60 433e
00000160: 2a9a 223e fdf9 02be 86d4 03be 91a3 1fbc
00000170: 35f5 51be d5fa 04bd c6b2 00be 5403 833d
00000180: ff39 4a3c c237 c53b e80e 8dbe 30de bb3d
00000190: ca59 3abe 3975 15bd 9068 a9bd ae81 a3bb
000001a0: ae17 38bd c72b 3ebe 81b5 703c 3b05 67bd
000001b0: 79b4 07be e82c 25bd a689 1d3e 5b9a c1bd
000001c0: 4990 9abe f883 053d a118 093e 6bd7 f4bd
000001d0: 536a 493e baa0 35bb 05bc d4bc 3d34 89bd
000001e0: e7c2 233c 19a1 48be e5e2 8f3d 4be3 d7bc
000001f0: 5165 b83c cf4d f63c 1f20 92bd 1b04 14be
0.0980891 -0.197268 -0.3183701 0.050560825 -0.14846164 0.04556682 -0.016812136 0.07492736
0.04107236 -0.1224162 0.21978748 -0.019423988 0.028247995 -0.091417715 0.0748311 -0.0966624
-0.04612871 -0.052322574 -0.13912115 0.062816314 0.09805779 -0.03211584 0.06815764 -0.057540257
-0.017237566 0.0567954 0.07686605 -0.14268982 0.02597454 -0.18298858 -0.102339186 0.012269143
0.046880458 -0.10956693 0.009664238 -0.07128799 -0.12345883 -0.004282921 -0.0037853944 -0.09874443
-0.12953117 -0.03174585 -0.1456599 -0.020738656 0.056061164 0.08944593 0.023630157 0.0012124913
0.05990735 -0.115025885 0.0896226 -0.08043374 -0.0036842683 0.14537367 -0.08501105 -0.058698274
0.06326915 -0.11673011 0.047692202 0.19698735 -0.1904942 -0.08607735 -0.13723373 0.051903807
-0.054174893 -0.16029014 0.16577862 0.008236435 -0.09169681 0.041014116 -0.091816664 -0.14550462
-0.03818946 -0.00041671222 -0.045283675 -0.055730958 0.1283351 -0.09542099 -0.027719771 -0.015781978
-0.09219633 -0.05453891 0.0113496985 -0.059400592 -0.121197425 -0.048824143 0.009345146 0.19079778
0.15879121 -0.12790675 -0.1287404 -0.009743587 -0.20503695 -0.032465775 -0.12568197 0.06397119
0.012342929 0.0060186097 -0.27550435 0.09173238 -0.18198314 -0.036488745 -0.08271897 -0.0049898243
-0.044944458 -0.18571387 0.014691711 -0.056401473 -0.13252439 -0.04032603 0.1538454 -0.09453269
-0.30188206 0.03259656 0.13388301 -0.1195515 0.19669466 -0.0027714209 -0.025968561 -0.06699417
0.009995199 -0.19592704 0.070256986 -0.026353499 0.022509249 0.030066399 -0.07135033 -0.14454691

net_container.4.weight f4 [128, 128]
00000000: a601 d8bd 13bb 133e a644 08bd c68f 18bd
00000010: 0979 1c3d 0759 25be 1165 083e 1ad7 373d
00000020: ca19 76bd 41b9 f6bc 6f4f 0bbe b631 14bd
00000030: 0005 e83d ad20 ac3c 1835 ddba 3aab af3c
00000040: 61fa e2bc 4841 d4bc ae74 a1ba a389 c0ba
00000050: b273 bebd 953e c7bd 3bcc ef3c f728 debd
00000060: 389f 9bbc 8b72 5d3d 7120 b0bc d7f2 3c3c
00000070: 5905 a33c 5b31 c53d 97db f63c 9c40 283d
00000080: 51f0 25bd f4eb 623c fa7d 9a3c 1902 b4bd
00000090: d3a3 243c a18a a53c ae1e d43c fbd6 b93c
000000a0: 68c0 20bd 638c 4d3c 5274 423d 57e6 21bd
000000b0: 92e8 ccbd 9b18 89bb 41b3 623d daf5 a23d
000000c0: 544f cbbd 0ec2 63bb 51e8 223c c8f4 853d
000000d0: 8bb1 bd3d 0369 523b f2cf b43c 6e55 213a
000000e0: 8355 2b3d 7dc4 68bd 2ddf 3d3d cac4 e5bd
000000f0: 5710 9d3d 439d fb3c 3307 c73c 6d1d a5bc
00000100: ab24 17bc 73b3 f93b 1c2c b9bd 50f1 d7bc
00000110: 03bf 833d e4d4 353c 02aa a03c e884 283e
00000120: 8963 e53d ef91 9b3d 9e3f 82bd 4e49 cbbd
00000130: a368 2ebd 6087 453d b7dd 9f3d 3bdc 70bd
00000140: dfcf 4e3d b33f 3f3d f4fb 83bd c334 2ebd
00000150: b460 753d 8988 493d 08c1 d0bc 31eb f9bd
00000160: 1e09 643c e66a 07bb c839 993d c290 84bd
00000170: 2e5d 283e af1b d73c 99c5 a2bd 93e8 13be
00000180: 5026 04bd 54ce 733d 08b4 a53b 985f 4d3d
00000190: 3da9 d33d 739f 523d 5118 473d f3d5 333d
000001a0: 6343 86bd cf4c db3d f57d fa3d 7b6a 8fbc
000001b0: 250d cb3b f186 1dbe 5af4 92bd 3bc3 a03b
000001c0: c45b b23c 2894 e23d ff81 d9bc 792f b53d
000001d0: aad9 bdbd c852 8a3b 6ade ebbc 04ee 0abc
000001e0: 51ce 8e3d f27c 5dbd cb00 023c 6ab6 8b3c
000001f0: 1604 3a3c b214 2abc 318b bc3d 5352 103d
00000200: 0b14 bc3d c0a3 c5bd 412a 29bd 8cd5 ae3c
00000210: 0484 9d3d 6e34 a03b 92f0 e1bd e11c 12bd
00000220: ac3e 0fbe 2cf3 febd f749 cf3d 6629 26bd
00000230: c743 a23d 6119 273d 3153 e83d a6e2 d3bd
00000240: b110 97bc f57a 0cbd 1bc6 61ba 8413 1d3d
00000250: 7a1c 133d 92c5 28bb 0ccc 513a 190f 1e3d
00000260: 7ca9 3e3d 99b8 753c dc99 b93d 4545 b7bd
00000270: c00c e53c d855 86bd 0b80 18bc 3b5c f93d
00000280: 272d b23d b429 b03d 10c1 cfbc 3dff 2d3d
00000290: e912 213d a3e7 85bc ae7a abba 521f 48bd
000002a0: cb4b 003d 2111 38bd 746a a9bd cfc5 6c3d
000002b0: 2d64 a8bd 76b1 5e3d 573f 16be 2759 503c
000002c0: b3b3 b2bd 48dd 8bbd d24e 8b3c c551 2a3d
000002d0: a39c 3cbd 560d b23d 3d9c 63bd f21c 7bbd
000002e0: 4835 753d 43f6 c53c 166b a73d 629e 043d
000002f0: 2b9c 2e3d 2e91 2d3d 3c1e 2a3d 4165 bfbd
00000300: 7047 cabc a437 34bc 6868 5e3d 66af 193d
00000310: 46f0 1b3d fcd1 78bc abaa 94bd 3f87 89bd
00000320: 8fb4 e43d 1446 d53c eaa1 6d3d e21c d13d
00000330: a01e 203d 651e 99bd 8f61 a5bd 93f3 b6bc
00000340: a8da 6fbd 1fee 69bc 5a27 abbb a207 273d
00000350: c4ec 4abd 8ca7 92bc 01a2 ddbd 1837 073d
00000360: ec59 823d 842b fcbd 4a24 83bd 3385 193c
00000370: fe51 3fbd e6ce 63bd 33b8 38bd 1478 8f3d
00000380: 6322 913c 9863 00bd bd06 c93c ee6a 733c
00000390: f819 203d 1813 a53a 2ef8 733c a6e7 883d
000003a0: 8a39 c53c bf40 b3bd 49a2 abbc fead 82bc
000003b0: 35c9 883c 62c1 47bd b239 0cbc 993f 89bd
000003c0: 3d09 7dbd d1f1 643d 002f 603d 2cd0 873b
000003d0: a6a2 903d bb5e 48bd 351d 983c 548e 7b3d
000003e0: 17d7 29bd 8424 79bd fc13 cb3d a824 903d
000003f0: dabb 803d 05ef d2bc 4ee3 ed3b 08e4 ba3c
-0.105471894 0.14426832 -0.033268593 -0.037246488 0.038201366 -0.16147242 0.13319804 0.04488287
-0.060083188 -0.030117633 -0.1360452 -0.03618022 0.11329079 0.021011675 -0.0016876785 0.021443952
-0.02770728 -0.025910035 -0.0012318098 -0.0014689456 -0.09299411 -0.097287335 0.02927219 -0.10847657
-0.01899682 0.054064315 -0.021499844 0.011532507 0.01990001 0.096285544 0.030134005 0.04107724
-0.040512387 0.013850201 0.018858898 -0.087894626 0.010048824 0.020207705 0.025893535 0.022685518
-0.039245993 0.012545678 0.047474213 -0.03952631 -0.10005297 -0.0041838414 0.05534673 0.07957049
-0.0992724 -0.0034753117 0.009943084 0.06540829 0.09262379 0.003210605 0.022071812 0.00061543926
0.041829597 -0.05682801 0.046355415 -0.11219175 0.07669132 0.030714637 0.024295425 -0.020155633
-0.009225051 0.007620269 -0.09041616 -0.026360184 0.06432917 0.01109812 0.019612316 0.1645695
0.112006254 0.07596194 -0.0635979 -0.09926091 -0.042580258 0.048224807 0.078059606 -0.05880378
0.05049121 0.046691608 -0.064445406 -0.042530786 0.059906676 0.049202476 -0.02548267 -0.12203062
0.013918189 -0.0020663082 0.07481724 -0.06472923 0.16441795 0.026258318 -0.07947845 -0.14444189
-0.0322631 0.05952294 0.005056862 0.050139993 0.10335014 0.051421594 0.048607174 0.04390521
-0.06555822 0.107080095 0.12231056 -0.017506829 0.0061966353 -0.15383507 -0.071755126 0.004906086
0.021772273 0.11063415 -0.026551245 0.08846945 -0.09270032 0.004221294 -0.028792579 -0.008479599
0.069729455 -0.054074235 0.007934759 0.017054755 0.011353513 -0.010380911 0.09206236 0.03523476
0.091835104 -0.096503735 -0.041300062 0.021342061 0.076911956 0.0048890626 -0.11032213 -0.035672072
-0.13988751 -0.12448725 0.101215295 -0.040566824 0.07923084 0.040795688 0.113439925 -0.10345964
-0.018440576 -0.03429695 -0.0008612589 0.03834869 0.03591583 -0.0025752527 0.00080031226 0.038588617
0.04654835 0.014997625 0.090625495 -0.08948759 0.027960181 -0.06559342 -0.009307872 0.12175795
0.087000184 0.08601704 -0.025360614 0.042479742 0.039324675 -0.016345805 -0.0013082826 -0.048857994
0.03132228 -0.04493821 -0.082722574 0.057805832 -0.08222232 0.05436846 -0.146726 0.012716568
-0.08725681 -0.068293154 0.017005358 0.041581888 -0.046047818 0.0869395 -0.055568922 -0.0613069
0.059865266 0.024165278 0.08174722 0.032377608 0.042629402 0.042374782 0.04153274 -0.093454845
-0.024692267 -0.010999594 0.05429879 0.03752079 0.03807094 -0.015186783 -0.07259115 -0.06715249
0.11167251 0.026034392 0.05801574 0.10210587 0.039091706 -0.074765004 -0.080752485 -0.022332942
-0.058558136 -0.014277964 -0.005223197 0.040778764 -0.049542204 -0.017902158 -0.108219154 0.033011526
0.063648075 -0.123129874 -0.06403406 0.009370136 -0.046709053 -0.055617236 -0.04509754 0.07005325
0.017716592 -0.03134498 0.024539346 0.014857037 0.039087266 0.0012594191 0.014890714 0.066848084
0.024075288 -0.08752584 -0.020951407 -0.015952107 0.016697505 -0.04876841 -0.0085586775 -0.067015834
-0.06177639 0.055894677 0.054732323 0.004144689 0.07062273 -0.048918467 0.018568614 0.06141503
-0.04146489 -0.06082584 0.09915921 0.070382416 0.0628583 -0.025748739 0.007259763 0.022813812

net_container.4.bias f4 [128]
00000000: 1c00 1ebe 2bcf ffbb 7bfd d8bc 29be 25be
00000010: b88d d1bd 0068 d3bd 592c 20be 2123 dfbd
00000020: 194b 30ba 20a6 8e3c b8cf 563d da9e 11be
00000030: 8edd 38bd 36da bdbd 43ab 79bc 0f72 cb3d
00000040: 43ea ebbd 6cda 873b 3fea be3d 4658 94bb
00000050: ac6f 15bd 36f4 aa3d 9538 09be 8dfb 163b
00000060: 552c d1bc 1f13 62bd 20a7 f43d fa41 fcb9
00000070: 5acf e4bd 6351 bf3b ea7d bcbd 5d26 143d
00000080: c128 56bc 73e1 98bd 72bd 83bd 55f5 debd
00000090: 7449 a6bd 60be 8f3d 716a beba 86db 263d
000000a0: edc2 00bc 9033 8bbd 5c68 d93c 894e a3bd
000000b0: 7de5 afbd 9dfc ef3c f9ce b9bd 0b03 293c
000000c0: e0d7 f13c bd9f d33c 7907 023d 605a a9bd
000000d0: ba8d 59bd 1435 b2bd 87ad 80bc ee76 fc3c
000000e0: 9b37 b73d 5ce5 c8bd c43c d7bc becb 1e3d
000000f0: e52b b7bb 508b e3bc 84b4 9dbd a19d 84bd
00000100: 0320 f9bd 4ee3 73bc 47cb c0bd 8287 7a3d
00000110: 2e46 a0bd 4201 0bbc aaa2 cb3d 9e05 e0bb
00000120: cad9 3dbd 3b77 193e 3340 03bd f55b 463d
00000130: f33c 153c 7b42 633d 1035 2e3d 1045 8abd
00000140: ef18 363d f97e 00bc bb3b 69bd f026 0cbd
00000150: 8806 af3c 368e 97bd 8117 5fbd 9c8c 01be
00000160: e69e a43d 5b8c 64bd 7da2 783c e8ed f6bc
00000170: 242f 0ebd 9293 77bd 426c 803d 7a5c 2cbd
00000180: 97e0 32bd a904 acbd d70a e5bb 122f b3bc
00000190: 813b 01be 85e4 d5bd d00d 21be 7cca 403d
000001a0: 9917 023e cf7b 35bc c7bf 033d 15b5 72bc
000001b0: bdf0 05be f6cb c9ba 69d0 c6bc fd60 703d
000001c0: 9fd3 cfbd 717d dfbd 3f3a 013e 5709 ab3d
000001d0: c37e 0c3d 5457 703d f421 53bc acfc ce3d
000001e0: 8da9 383a a88f 5a3d fe7e 0b3c a44d 95bc
000001f0: d375 2bbd 8746 48bd a042 9dbc 1a04 68bc
-0.15429729 -0.007806679 -0.026488056 -0.16185822 -0.10232109 -0.10322571 -0.15641917 -0.10895372
-0.00067250576 0.017413199 0.05244419 -0.14220753 -0.045133166 -0.09270136 -0.015238586 0.09933864
-0.11519291 0.004145911 0.09322023 -0.0045271246 -0.03648345 0.08347361 -0.1340049 0.002303812
-0.025533834 -0.055194017 0.11945939 -0.00048114342 -0.11172362 0.0058385595 -0.09203704 0.0361694
-0.01307124 -0.07464876 -0.06432618 -0.10886637 -0.08119479 0.07018733 -0.0014527572 0.040736698
-0.007858974 -0.06796944 0.02653902 -0.07973964 -0.08588693 0.02929526 -0.0907268 0.010315667
0.029521883 0.025833005 0.031745408 -0.08269191 -0.053113677 -0.0870153 -0.015707744 0.030818429
0.08946153 -0.09809372 -0.026274092 0.038768522 -0.0055899494 -0.02777639 -0.07700446 -0.06475378
-0.12164309 -0.014885737 -0.09413772 0.061164387 -0.07825886 -0.008484187 0.09943135 -0.006836607
-0.046350278 0.14986889 -0.032043647 0.04842754 0.00910877 0.055483323 0.042531073 -0.06751454
0.044457372 -0.007842773 -0.05694173 -0.03421682 0.021365419 -0.074001715 -0.054465774 -0.12651294
0.0803812 -0.055797916 0.015175459 -0.03014274 -0.034712926 -0.06044347 0.062706485 -0.04208038
-0.043671217 -0.08399326 -0.0069898176 -0.02187303 -0.12620355 -0.10443977 -0.15727925 0.047068104
0.12704314 -0.011076882 0.032165315 -0.014813681 -0.13080116 -0.0015395868 -0.0242693 0.058686245
-0.101477854 -0.10912598 0.12619875 0.08351391 0.034300577 0.058677033 -0.012886513 0.10106787
0.0007044308 0.053359658 0.008514164 -0.018225498 -0.041860413 -0.048895385 -0.019196808 -0.014161134

policy_layer.weight f4 [19, 128]
00000000: f746 6c3d 97b9 69bc 31e8 fbbb c947 713c
00000010: 2072 5ebd fdfa a73d 9963 923c 0c1c eebc
00000020: 93d5 0bbb 19ba 123d 4322 c9bc ab3b c73c
00000030: fb99 153d 1c3f 70ba e645 80bc 7073 ff3b
00000040: a0d3 1e3c b3ad 46bd 7b4a 2d3d 16b3 6b3c
00000050: 7728 98bb 6813 413b fe60 bf3d 5d50 a6bd
00000060: 36d6 e9bc c641 9cbc 61b2 be3c 5813 3038
00000070: 08c6 af3d 7241 313d bee3 19bd f6f8 313c
00000080: 7da4 82bd 05c6 87ba 69d8 3b3d b9ed 20bd
00000090: 8cb2 113d cbba bc3d f87e a0bb ef3e 5cbb
000000a0: 833a c4bb 0b2a 1d3d a33a 84bd b46f 653d
000000b0: 9e71 afbc 6473 40bd e9eb 693d d2c1 a4bb
000000c0: 5d7d 883c 82f3 393d 4613 fbbc 124a db3c
000000d0: 3d47 fc3c 27a5 8a3c fb8c 413c c36d ba3c
000000e0: 8a3a c2bb ed94 38bc 3cce a93c cff9 333d
000000f0: 36d5 873c 8347 863d 2528 423b d4dc 09bc
00000100: 28da 0f3c f905 c93b 06a5 26bd 7840 373d
00000110: 2a0a e2bc 4c8e e9bc d5ec ff3a cd6d 803c
00000120: 421e 143d 51f5 63bc 1148 9a3c 7946 f0bb
00000130: 4bf2 143d 994a 4fbc b038 063d d9a5 da3c
00000140: 863f 2cbd 78bd 48bd 138e 4d3d 7fc7 5cbd
00000150: 07a5 8d3d 8c01 2fbd ff45 143d 84a3 2f3d
00000160: ec58 94bc c01a a73d 9799 343d 5d66 6ebc
00000170: 7d3a 58bd 570c 7e3d db49 3bbd 0d2e 81bd
00000180: 8e5c 4f3d 99c9 603d a019 8cbc 30a6 6a3a
00000190: a074 ef3c 5d91 d53c f829 e3bc 2942 50bd
000001a0: 3b43 2539 03e3 65bc f07c 2e3d a763 183d
000001b0: 6b78 ecbc d443 f0bc 9586 583d d31c a33c
000001c0: 5cfe 1c3c 3038 753c 8d56 1f3d 023d 793c
000001d0: 4e6d 4ebd 037b 343d 7161 26bd 5ed8 a3bc
000001e0: 599b 64b9 ae78 54bd 8b89 adbc a8d9 8ebc
000001f0: 9f23 84bd d2d6 dabc b0c0 f7bc fca7 e3bc
00000200: 0276 3cbd c9dd 133d 529e 873d 620f 17bd
00000210: 9735 3bbd bcb8 a03d a284 3fbc 9a1b 78bc
00000220: 38e6 b0bb 450f 383d 6854 79bd 6cb1 e33c
00000230: ea4f 9bbc 9242 54bd 2c23 733c 50e2 8cbc
00000240: 5751 973c 352d e8bb 51b5 213d 4ceb f0bc
00000250: 47d0 893c 4430 92bc 3064 e7bc 3601 8c3d
00000260: 13ac a6bc 34ef 023d e0c5 a13c c9b4 113d
00000270: edde cdbc 6bac 4fbc 8ad2 e33c cc5f 12bc
00000280: d0eb bd3c 5047 763c d8ab 553c d572 38bd
00000290: 4ca3 9a3c 5ae7 fa3a 93c5 2a3d 1819 3dbc
000002a0: 5035 18bd ee4b c3bc 0e77 c03b ea73 aabb
000002b0: f448 003d 7574 6e3d 558c 2ebd af28 5cbb
000002c0: fd77 6db9 fae3 973c 109b 16bd c596 3ebd
000002d0: cdba 2e3c c3e3 c93c 8492 9b3c 7dfc 363d
000002e0: 0979 10bd 2c29 843b e52e a3bd 8eab a83d
000002f0: 43f2 74bd 3861 b73c bd24 6ebd fe9c 55bc
00000300: 1b94 adbb 6fd7 66bd 3587 f13c bfc1 d2bc
00000310: 8633 1b3d 2c4e 803d 242b 93bd 1668 85bd
00000320: 7cc2 d6bc a34e 6fbd 5674 643c fe88 ac3a
00000330: ca54 003c 6692 de3b 8bb6 293d 7697 aabd
00000340: b6bc d93b ad7c 933d e570 6fbb 844b a23d
00000350: 3dcb 52bb 41cd d53c bdfb 2dbc 9eca 4d3c
00000360: a215 32bb 7a3b 32bc 200f 15bd 2b16 00bd
00000370: 22ce 26bd 935b 13bd 2f3c a53c b2d5 803d
00000380: 83fc 793c 6980 e13b 112c 23bd 78c8 01bd
00000390: 5b94 99bb ee99 2d3d 34bb fd3c 83a3 153d
000003a0: 6333 6c3c 4aed c0bb 58cd 2f3b 7d14 023d
000003b0: 81df c2bd 09fa e43b d1a2 12bd 6889 06bd
000003c0: e201 80bd 6b5c 1dbd 2e68 5abc baf5 653c
000003d0: 1038 9a3d 94e0 9abc f6f9 98bc 20b9 2ebd
000003e0: 268e 093c e40d 053c 5c84 0c3d 5e4a e63c
000003f0: 5915 3e3d 2bfb 79bc b452 4cbd 12c2 db3c
0.057684865 -0.0142654395 -0.0076875915 0.014726588 -0.054308057 0.08202169 0.017869757 -0.029066108
-0.0021337017 0.035822008 -0.02455247 0.024320444 0.0365238 -0.00091646775 -0.01565833 0.0077957436
0.00969401 -0.048505496 0.04230736 0.014385959 -0.0046434957 0.002946103 0.09344672 -0.08120797
-0.028544527 -0.019074332 0.023278417 4.1979685e-05 0.08582693 0.043275304 -0.037570707 0.01086258
-0.0637903 -0.0010358697 0.04586068 -0.03928921 0.035570666 0.092153154 -0.0048979484 -0.0033606847
-0.0059884205 0.038370173 -0.064564966 0.05601473 -0.021416482 -0.046985045 0.057109747 -0.005027988
0.01666134 0.045398243 -0.030648839 0.026768718 0.030795688 0.016924454 0.0118133975 0.022757417
-0.0059273886 -0.011265975 0.020728223 0.043939408 0.01658116 0.065566085 0.0029625979 -0.008414466
0.00878004 0.006134745 -0.040684722 0.044739217 -0.027592737 -0.028510235 0.0019525538 0.015677357
0.03616167 -0.013913468 0.018833192 -0.0073326197 0.03636388 -0.012652063 0.032768905 0.02669041
-0.04205277 -0.049008816 0.05018432 -0.05390119 0.06916242 -0.042726085 0.036199566 0.04288055
-0.018108808 0.08159399 0.044091787 -0.0145507725 -0.052790154 0.062023487 -0.04572473 -0.063076116
0.050625376 0.05487976 -0.017102063 0.00089511555 0.029230416 0.026070291 -0.027729973 -0.050844345
0.00015760672 -0.014031175 0.04259962 0.03720441 -0.028866014 -0.029329218 0.052862722 0.019911205
0.009582128 0.014967009 0.0389009 0.015212299 -0.05039721 0.044062626 -0.04062027 -0.020000633
-0.00021801646 -0.0518729 -0.02118375 -0.017437771 -0.06452107 -0.026713762 -0.030243248 -0.027790062
-0.04601098 0.036100183 0.06621994 -0.036879905 -0.045705404 0.07847735 -0.011689337 -0.0151432995
-0.005398538 0.044936437 -0.06087151 0.027794562 -0.018959004 -0.0518213 0.014839929 -0.017197758
0.018471403 -0.007085467 0.039479557 -0.029409073 0.016822947 -0.01784528 -0.028246015 0.068361685
-0.020345723 0.031966403 0.019747674 0.0355728 -0.025130713 -0.012675385 0.027810354 -0.008933973
0.023183733 0.015031651 0.013041459 -0.045031387 0.018876694 0.0019142434 0.041692328 -0.011541627
-0.037160218 -0.023839917 0.0058735674 -0.0052018063 0.031319574 0.05821653 -0.0426143 -0.0033593585
-0.0002264678 0.018541325 -0.036768973 -0.046530504 0.010664654 0.024644738 0.018990763 0.044674385
-0.035271678 0.0040332284 -0.07967929 0.082358465 -0.05980135 0.022385225 -0.058140505 -0.013037918
-0.0052971966 -0.056357797 0.029483417 -0.025727151 0.037890933 0.0626491 -0.07185963 -0.065139934
-0.026215784 -0.058424603 0.013943752 0.0013163385 0.007832715 0.0067923544 0.041433852 -0.0832967
0.0066448105 0.072015144 -0.0036535796 0.0792456 -0.0032164596 0.02609885 -0.010619101 0.012560515
-0.0027173539 -0.010878438 -0.036391377 -0.03127114 -0.040723927 -0.035976004 0.0201703 0.06290759
0.015257957 0.0068817628 -0.039836947 -0.031685323 -0.004686875 0.042383127 0.030973054 0.03653289
0.014416548 -0.005887662 0.0026825275 0.03175782 -0.09515286 0.0069878143 -0.035799805 -0.032845885
-0.06250359 -0.038418215 -0.013330502 0.014035637 0.07530224 -0.018905915 -0.018673878 -0.042657018
0.008395707 0.008120988 0.034305915 0.028111633 0.046407077 -0.015257637 -0.04988356 0.026825938

policy_layer.bias f4 [19]
00000000: cb16 5fbd c13d bfbc 2543 79bc e25c 913a
00000010: 2428 8b3b caca 04bb 0e64 0ebd 439e 973c
00000020: 521d 70bd 219e 933d d220 353c b93a 923d
00000030: daf6 763d 61db c73c aca6 b3bc e03d 42be
00000040: 5ae2 fdbd ef98 c939 b694 95bd
-0.054465096 -0.023344876 -0.015213762 0.0011090303 0.0042467285 -0.0020262473 -0.03476339 0.018508082
-0.058621712 0.07207895 0.011055188 0.07140107 0.06029401 0.0243966 -0.021930061 -0.18968916
-0.12396689 0.00038451652 -0.07303755

value_layer.weight f4 [1, 128]
00000000: 8770 0bbe 42d3 583d c80a d6bd 222c 0b3c
00000010: 3e50 d4bd dda2 df3c c9e0 12be a971 223c
00000020: f2cd 9c3d be57 6a3d 2cc5 c9bd 8d09 a6bd
00000030: 10d3 6f3d c19a 233d 90ef 8dbc a93e c8bc
00000040: c37a 08bd 4924 65bd 4c5c c23d 3068 1cbc
00000050: ec84 f1bd e92c 4d3e 67a7 623c f92d e63c
00000060: a35c 50bd a4b3 cd3d 6907 843c 7eb9 b7bd
00000070: 53a1 b8bc f02a 43bd d26b ec3d 16b2 b23d
00000080: 783b 05bd 36f5 27bd c6c2 4c3d 4c88 e13c
00000090: 51b9 39be 1916 893d 5379 0cbe 014b d7bd
000000a0: 6584 273c a714 b73d eff8 0dbb 0744 4fbc
000000b0: 942a bc3d d0b0 c9bd 75c0 903d 9486 eb3c
000000c0: ce3d e5bd 327f 343d 12ca 2a3d 85cd 3ebc
000000d0: 389b f2bd 10d3 adbd 412a 0dbd 8e5d 4dbd
000000e0: 3c00 863d a607 aabd 3c40 2c3d 1952 dc3b
000000f0: ccd5 c73d c2b7 d83d 66fb 01be def0 b7bd
00000100: b7a8 ebbd 65b7 0c3d 4ca7 1e3d 12f9 07bd
00000110: 0d7a c2bd b6f9 bb3d f5af 4fbd 7ca1 173d
00000120: a810 10bc d8d4 2b3e f143 a03d 2490 f8bd
00000130: 50b8 7bbc 9f50 293d 331b 2fbd 777f 1ebd
00000140: 82cb b9bd 9070 63bd 4420 12be 487c a13a
00000150: d0fd 253d 95a0 1f3d 7954 d8bc 2268 71bd
00000160: a07d af3d 7df2 73bd ac48 1e3e 6633 dabc
00000170: f867 693d 9bf2 b0bb 0f0e 893d eb9a a7bd
00000180: c56f 373c bcec 943d 87fc f3bc e7c8 013c
00000190: 43e8 89bc 1fd1 debd f1d3 97bd 014c 393d
000001a0: aee6 063e 5438 82bd 7b42 2a3c 3631 ae3d
000001b0: 97a4 e1bd bbc0 cd3d 461c 3abc 908f 8a3d
000001c0: 3782 15be 70fc c43d 23a7 a63d bfba a1bd
000001d0: ccae 55bd a62f 213d b40e a63d 80fd 0abd
000001e0: 3fa0 e03d 9ca7 153d f9e0 70bc 5801 883d
000001f0: 6bb3 bcbc cb1b a83c 714e 1cbe 3e4c 22bc
-0.13617145 0.052935846 -0.10451275 0.008494409 -0.103668675 0.027299339 -0.14343561 0.009914794
0.076564685 0.057212584 -0.09852061 -0.081072904 0.058550894 0.039942507 -0.017326146 -0.024443941
-0.0333202 -0.055942807 0.094902605 -0.009546325 -0.11792931 0.20036663 0.013833857 0.028098093
-0.050869595 0.10044029 0.016116815 -0.08970927 -0.022537863 -0.04764837 0.115440026 0.087253734
-0.032527417 -0.041005336 0.049990438 0.027530812 -0.18137099 0.06693668 -0.13718157 -0.10512353
0.010224436 0.08939486 -0.0021663269 -0.012650496 0.09187809 -0.098481774 0.07067958 0.028750695
-0.11193429 0.044066615 0.041696616 -0.011645679 -0.11846012 -0.084875226 -0.034464125 -0.05013805
0.065430135 -0.0830224 0.042053446 0.006723654 0.097575754 0.10581924 -0.12693557 -0.08981489
-0.11506789 0.034354586 0.038733765 -0.033196516 -0.094959356 0.09178488 -0.050704915 0.037019238
-0.008793034 0.16780412 0.07825459 -0.12136868 -0.015363768 0.041336652 -0.04275055 -0.03869578
-0.09072019 -0.05552727 -0.14270121 0.0012320364 0.040525258 0.038971502 -0.026407467 -0.0589372
0.08568883 -0.059557427 0.1545741 -0.026635837 0.056983918 -0.0054000146 0.066921346 -0.08183845
0.0111960815 0.07271716 -0.0297835 0.007921434 -0.016834384 -0.108797304 -0.074134715 0.0452385
0.13173935 -0.063584 0.010391827 0.0850548 -0.11017721 0.10046526 -0.01135928 0.067656636
-0.14600454 0.09618461 0.081373475 -0.07896947 -0.052168652 0.03935208 0.08108273 -0.033933163
0.109680645 0.036536798 -0.014702075 0.06640881 -0.023034772 0.020521065 -0.15264298 -0.009905873

log_std_parameter f4 [19]
00000000: 021d 15c0 2260 19c0 3316 23c0 35e3 bebf
00000010: 245a bfbf 212a 20bf bcda 24bf d23a eabf
00000020: 8096 ebbf 05b7 15bf 33b6 01bf aac7 97bf
00000030: a8e1 97bf 46f7 08bf 9bd8 27bf ccc5 1fbf
00000040: b223 06bf 0d71 11bf 302b 1bbf
-2.3298955 -2.3964925 -2.54823 -1.4913088 -1.4949384 -0.62564284 -0.6439626 -1.82992
-1.8405304 -0.5848239 -0.5066864 -1.1857808 -1.186574 -0.5350231 -0.6556489 -0.6241119
-0.52398217 -0.56813127 -0.60612774

net_container.0.weight f4 [128, 69]
00000000: a05d c9bd 9345 67be 0aa7 5f3e 04bb 89bc
00000010: dd54 a13d c8f4 3abd 8f2f 8f3c fe59 13bf
00000020: 6aeb 003e b22e 0ebe 87da 7ebd 25fa 2fbb
00000030: b0a9 603e 5138 5fbe 5298 a6be 215e debd
00000040: 96a6 ed3e 3f1a 60be 9dfc 7e3e 0f6a 01bf
00000050: c401 6fbc aab7 74bc 66f0 7a3d 7658 efbe
00000060: 4a63 eabe 5e45 9dbc e481 5abe 75ef 553e
00000070: b4b2 613e fdc8 6fbe ecde c43d e21c bfbd
00000080: f967 c0bc 0ba3 88bd 88fa a9bc 6a8c b439
00000090: a2e8 803d ef97 f0bd 66c6 e2bd 2d4a a13d
000000a0: bfee 8a3d 6033 b0bc 5b5e f83d f639 753b
000000b0: c535 8f3d 983a 803d b1eb 59be ac55 ef3d
000000c0: 31fc 4e3c 89f8 08bc 0cfe 683c 7946 3abd
000000d0: 7dfc 253e e3cb af3d 0943 6cbe 940f 09be
000000e0: 928b 0dbe 2018 763d 0608 1dbd 05a8 4c3e
000000f0: 3e9e 84bd 41ad e0bc 8e7a 3fbe 5780 debd
00000100: aa70 563d 4ee8 993b 289e 9bbc 95bf 803c
00000110: b7fb a43d 45e5 a43d 7171 983d a0ab 2a3f
00000120: 5003 babd 5a44 80be 2456 393e 9a76 88be
00000130: cb8f 53bd 6967 953d e08f ec3d 0b83 28bd
00000140: 7769 1b3e e205 4ebe 39bd 653d decd 173f
00000150: dfe1 f03d 74fd 373e 8feb 3c3e 4ec6 eabe
00000160: 6e18 a73c a93a e33e 90b2 2d3e 6bfa 953d
00000170: bc1c 21bd b5c6 d33d e3dc 003e 32da a83d
00000180: cb85 d93d f320 1c3e aa79 4bbe c1bd e7bd
00000190: de97 e9bc a423 f33d 5e28 6ebd 7416 02be
000001a0: bc65 3d3d 1b80 4fbd 039a 81bc b8d7 a03d
000001b0: 3d3a ea3c 9ac4 4c3d 6135 7c3d 4a1c a8bc
000001c0: c531 f33b 31bd f93c 538e b13d 6477 fc3d
000001d0: 429c a03c f2e2 99bd 286a 07bc efae 353c
000001e0: 79d1 6a3c 4d0f f93d 14b5 b83d 8268 373e
000001f0: 07b3 cabb d584 e7bd b7d4 2c3d 0146 03be
00000200: 36d7 7dbd a8cc 2fbd 63a7 ad3d dd96 ccbd
00000210: 8421 adbd 3c2a 9fbd 4e6f 10be ba9f 4fbd
00000220: 0499 33be 5295 b9bc 0e42 29be 72d6 1fbe
00000230: ba17 22be bbab 5a3d fcf6 51bc cc91 b1bc
00000240: f05d d8be 904b b0be 5505 583e 01d4 343e
00000250: 7d0e 2a3d 33b5 653d 0637 67be fba9 f0bd
00000260: 39c1 79be 468a d03d 9e48 2cbe 8b93 c3bc
00000270: fec6 27be 06df 20bf 07b6 663c 05db aebe
00000280: 9fef d0bc 9233 b43d c1eb 4e3e dd65 4fbe
00000290: 02f8 a93d e48e 68bb a1db 36be 3098 a4bd
000002a0: 43b0 2c3e 4148 fb3c 7cd1 033c 46c3 b43c
000002b0: 4639 003e d186 e3bc 8730 b03b 8cde 753d
000002c0: d40b d3bd 5e6d 8d3d 6cfb c43c b493 fcbb
000002d0: c5ad ea3c 0f70 913c 356c d73d 1b19 a33d
000002e0: 6be3 5abd d8c0 1fbe cda9 5e3d 8a06 45bc
000002f0: 89c4 a4bd 1afc 6cbd 20cc c0bc e3d1 3dbc
00000300: 089d 0a3d 15af b13d a7f5 ad3c 4188 39be
00000310: 9b29 583e d5db ec3d c7cc b0bd f9b3 973d
00000320: 36b7 803d c791 4dbc f393 07bd 0918 8c3d
00000330: 0848 a93c 5f65 153e 4b96 553c 8b22 2f3e
00000340: dbde dc3c f1e7 993d 2994 87bd 6f75 363d
00000350: deaa 89bd 4c18 953f 20d1 a53d 0d65 1bbd
00000360: e633 cdbd 6ce5 ee3d 48de 04be 343a b9bd
00000370: eb1e 04bf 360a debd c6fe e23e 4e44 fabe
00000380: e0ba c6bd 89d0 18bd a620 203f 7de6 a83e
00000390: 694e 9dbd 4f38 e23c 40f2 123e bcea 983e
000003a0: 224e 8e3e e2d3 0fbe 54c2 91bd 1e28 04be
000003b0: c296 9dbe 9e24 d63d a671 eb3c 41e4 a53a
000003c0: 7ad8 9fbc 26e6 87bc 559f f5bc 3cc3 a23d
000003d0: 787b df3c cc01 ca3b a522 5cbb fb5a 9fbd
000003e0: e8e2 8dbc 51dc 2b3b 88d0 f838 79ab 9d3d
000003f0: edac 993d 5e94 463d 9cc3 953c 6dc6 97bd
-0.09832311 -0.22585134 0.21841064 -0.016812809 0.078775145 -0.045643598 0.017478732 -0.5755919
0.12589803 -0.13885 -0.062220123 -0.0026851979 0.2193973 -0.21798827 -0.32538086 -0.108577974
0.46416157 -0.21885012 0.24901052 -0.5055246 -0.014587823 -0.014936367 0.061264418 -0.46747178
-0.45778877 -0.019198116 -0.21338612 0.20892127 0.22040826 -0.23416515 0.096128315 -0.09331681
-0.023487078 -0.06671723 -0.020749345 0.00034436892 0.06294371 -0.11747729 -0.11072998 0.07875476
0.067838185 -0.021508873 0.12127372 0.003741858 0.069926776 0.06261176 -0.21281315 0.116862625
0.012633369 -0.008360037 0.014220726 -0.045477364 0.16209598 0.0858381 -0.23072447 -0.13384849
-0.13822773 0.0600816 -0.03833773 0.1998597 -0.06475495 -0.027426364 -0.18699095 -0.10864323
0.05235354 0.0046968823 -0.018996313 0.015716353 0.08055823 0.08051542 0.07443512 0.6666813
-0.09082663 -0.25052148 0.18099266 -0.26652986 -0.051650804 0.072951145 0.115508795 -0.041140597
0.1517695 -0.20119432 0.05608866 0.59298503 0.117618315 0.17967778 0.18449233 -0.4585442
0.020397391 0.44380692 0.16962647 0.07323154 -0.039334044 0.10340635 0.12584262 0.082447425
0.10621222 0.15246944 -0.1987063 -0.113154896 -0.028514799 0.11872032 -0.058143966 -0.12703878
0.0462396 -0.05065928 -0.015820509 0.07853645 0.028592223 0.04999218 0.061574344 -0.020521302
0.0074217045 0.030485721 0.08669724 0.123274595 0.01960576 -0.075139895 -0.008265056 0.011089071
0.014332169 0.121611215 0.09018913 0.1791096 -0.0061858925 -0.113046326 0.04219505 -0.12819673
-0.06197282 -0.042919785 0.08479192 -0.099897124 -0.08453658 -0.077717274 -0.1410496 -0.050689436
-0.1753884 -0.02265421 -0.16529104 -0.15609148 -0.15829363 0.05338643 -0.012815233 -0.021675967
-0.4225917 -0.3443265 0.21095784 0.17658998 0.041517723 0.05608101 -0.22579584 -0.11751171
-0.24390115 0.101826236 -0.16824576 -0.023874065 -0.16384503 -0.62840307 0.014081485 -0.34151474
-0.025504885 0.08798899 0.2020712 -0.20253702 0.08299257 -0.003548556 -0.1785722 -0.0803684
0.16864114 0.030674102 0.00804555 0.02206577 0.12521848 -0.027774246 0.0053768787 0.06002669
-0.103049904 0.06905626 0.024045669 -0.0077080373 0.028647313 0.017753629 0.10518686 0.07963773
-0.05343954 -0.15600908 0.054361153 -0.012025485 -0.080452986 -0.05785761 -0.023534834 -0.011585685
0.033841163 0.08675972 0.0212353 -0.18118383 0.21109621 0.11565367 -0.08632808 0.07407374
0.06284945 -0.012546963 -0.03310008 0.06840522 0.02066423 0.14589451 0.013036321 0.17103021
0.026961735 0.075149424 -0.06620056 0.044545587 -0.067220435 1.164804 0.08096528 -0.037938166
-0.100196645 0.116648525 -0.12975419 -0.090443045 -0.5160968 -0.10841791 0.44335002 -0.48880237
-0.09703612 -0.03730825 0.6254982 0.3298835 -0.07680971 0.02761474 0.14350224 0.29866588
0.27793986 -0.1404567 -0.07117143 -0.12905928 -0.30779082 0.10456203 0.028740715 0.0012656526
-0.019512404 -0.016589236 -0.029983202 0.07947394 0.027280554 0.006164765 -0.0033589986 -0.07781025
-0.017320111 0.0026223848 0.000118644035 0.076987214 0.07503686 0.048481338 0.01828175 -0.074108936

net_container.0.bias f4 [128]
00000000: f6a5 3e3d 35a5 ddbd c2ed b4bd df59 f5b9
00000010: 8319 a13d 3a09 543d f038 0c3e 3f1f 183e
00000020: bff4 d83d af0f 0b3e c16d 043c 7a41 d43b
00000030: 4847 803d fde1 cabd 81fc 723e a5ab 4dbe
00000040: 82b0 d13d fcf8 31be 9f46 f53d d4da 163d
00000050: a7ad a43d 5291 973d 12a3 48bd ae0c 683d
00000060: d505 753d 6ad1 633d 7a05 9bbc 99bb 9cbd
00000070: d945 76bc 73e0 ecbc 30a5 3dbd 593a 643c
00000080: 9ba4 303e c537 343d 2bb4 a2bd bb1f 88bd
00000090: 8b8c 8a3d 0c47 023d 191b 383d 00f2 b4bc
000000a0: 5e5a e7bd 44bd fe3d ebea 23be e2a4 bbbd
000000b0: d491 a83d 5cdb 06be 2718 923c 7771 b0bd
000000c0: 0d1b 433e 2511 b23c 76c6 5ebb 9f74 b03c
000000d0: 803b 71bd 7f08 9fbd 412d 60bc 0b4c 1e3d
000000e0: be5e 683e 6f8c 473d d82a 9e3d 65c6 be3d
000000f0: 5a16 0dbe 8bde 813d 347d 1f3e e756 f93c
00000100: 6436 b93c 5bc9 0d3e 58fe 833d f2ea 5c3b
00000110: d84f a13c 8b60 653d 48d8 e03c a02e c8bd
00000120: ca8f 193e 7235 e53d 4fb5 483d baff 7f3d
00000130: a102 2d3e 47cf a739 27ed 203e f55b 033d
00000140: 4e6b bf3c 6891 37bd 14f6 713e bdad 2c3d
00000150: 4c66 1f3d b39b 1d3e e5c5 ae3d 5d5b 353e
00000160: 9554 51bc c4d3 433e e099 0abd a596 c6bc
00000170: 4edc a13d 6565 5cbd 902a 083c f60d 0ebd
00000180: 3cc5 5b3d 5210 10bd 1e93 f8bd 1f59 5cbd
00000190: e9a5 f13d 7af4 453c 7909 a9bd 9c75 573b
000001a0: 2baf f93c 33a6 8a3d fcbc b7bc abed 8dbd
000001b0: cf82 31bc 0c66 76bd 2a73 01bd 9334 083b
000001c0: 8d5b 71bd 01c1 efbd d255 453e 48ad 053e
000001d0: 7856 eabd bc2f 263e 10d8 093d 681b dbbd
000001e0: 0144 ae3c de04 0cbe 7527 253e 320f 48bd
000001f0: 5673 953d 971f 2ebe 67db e8bd 7750 163e
0.04654499 -0.10822526 -0.08834411 -0.00046797 0.07866194 0.05176661 0.13693595 0.1485567
0.105935566 0.13580202 0.008082808 0.006477532 0.06263596 -0.09906385 0.23729135 -0.20085008
0.10238744 -0.17380136 0.119763605 0.036829785 0.08040934 0.074007645 -0.04898364 0.056652717
0.059820015 0.055619635 -0.01892351 -0.07652969 -0.015031301 -0.02891562 -0.046300113 0.013929927
0.17250292 0.0439985 -0.079445206 -0.06646677 0.06765088 0.031806037 0.044947717 -0.02208805
-0.11296533 0.12438443 -0.16007583 -0.09162308 0.082309395 -0.13169616 0.017833782 -0.08615392
0.19053288 0.02173669 -0.0033992804 0.021539984 -0.058894634 -0.077652924 -0.013682664 0.03864674
0.22692391 0.048717912 0.077230155 0.093151845 -0.13778058 0.06341275 0.15575105 0.030436946
0.022608943 0.13846342 0.064449966 0.0033709374 0.019691393 0.056000274 0.027446881 -0.09774518
0.14996257 0.111918345 0.049001034 0.06249974 0.16895534 0.00032007156 0.15715466 0.03207012
0.023366597 -0.044816405 0.23629028 0.042157877 0.038915917 0.15391426 0.08533839 0.17710634
-0.012776514 0.19123751 -0.033838153 -0.024241755 0.07903348 -0.053807635 0.008310929 -0.034681283
0.053654894 -0.035171814 -0.121374354 -0.05379593 0.11799223 0.012082214 -0.0825376 0.0032876497
0.030479034 0.06769981 -0.022428982 -0.06930097 -0.01083441 -0.060155913 -0.03160397 0.002078329
-0.0589252 -0.117067344 0.19271019 0.13054383 -0.11442274 0.16229147 0.03365332 -0.10698587
0.021272661 -0.13673732 0.16128333 -0.048842616 0.07297389 -0.17004238 -0.11369973 0.14679132
