humanoidprac/humanoidprac/scripts/skrl/logs/skrl/h1_flat/joint_experiment_ver3/2025-09-18_06-26-10_ppo_torch/checkpoints/agent_2400.pt (torch, 549922 bytes, 40 tensors)

log_std_parameter f4 [19]
-1.0270468 -1.0658013 -1.0553848 -0.9409922 -0.9125851 -0.30021703 -0.29596952 -1.1034496
-1.1749027 -0.29576474 -0.28074104 -0.7875991 -0.7658539 -0.261987 -0.2970086 -0.32164842
-0.22133864 -0.2935159 -0.26277465
00000000: 4576 83bf 2d6c 88bf d916 87bf dde4 70bf
00000010: 2d9f 69bf 0cb6 99be 5189 97be d63d 8dbf
00000020: 3663 96bf 7a6e 97be 4abd 8fbe 18a0 49bf
00000030: 000f 44bf 2923 86be 8311 98be 1aaf a4be
00000040: 99a6 62be b747 96be 668a 86be

net_container.0.weight f4 [128, 69]
-0.09428982 -0.25022292 0.15347996 -0.029164497 0.016623927 -0.024515511 0.015473729 -0.5718367
0.11072233 -0.11924453 -0.062220123 -0.00652316 0.19770357 -0.27733535 -0.29715985 -0.124829784
0.44045603 -0.21774337 0.22723553 -0.5381711 -0.029412393 -0.001127427 0.027808568 -0.45276335
-0.41954252 -0.10207437 -0.22630933 0.23977353 0.16967988 -0.14732623 0.012203861 -0.10142256
-0.03455993 -0.062546924 -0.09378203 -0.028209096 0.05420286 -0.1619487 -0.107855715 0.079963505
0.079811275 0.024888266 0.13835837 -0.028591579 0.08813459 0.05580274 -0.19113383 0.13705723
-0.008286896 0.019154917 -0.04762462 -0.04377212 0.18856624 0.03326049 -0.21937543 -0.1479996
-0.16794838 0.040761966 -0.013986883 0.2069288 -0.040115964 -0.031385373 -0.1789037 -0.12604402
0.042048175 0.02250621 -0.038846184 -0.013681761 0.09439349 0.076414205 0.07143424 0.5946189
-0.041016083 -0.22384095 0.17031233 -0.23962311 -0.0747307 0.06730014 0.09828048 -0.041140597
0.16673866 -0.27781898 -0.064609475 0.49443156 0.11477297 0.073363885 0.2379484 -0.35764405
0.0022591937 0.42542213 0.19670294 0.039697535 -0.02631307 0.10773817 0.21758287 0.094203286
0.0989676 0.15468608 -0.26096144 -0.06712997 -0.0159715 0.103083044 -0.045360733 -0.15963794
0.0641828 -0.04587824 0.01868105 0.08401273 0.037633248 0.040587936 0.087818176 -0.021745218
0.026831988 -0.007348445 0.075499594 0.16739957 0.05095501 -0.10377968 -0.03185209 0.025742725
-0.029641066 0.11980447 0.13512339 0.24684614 0.017696144 -0.116549216 0.024098411 -0.13818598
-0.0212936 -0.0487972 0.12106019 -0.1423842 -0.05870363 -0.1348676 -0.13283736 -0.07123979
-0.17080854 -0.022330293 -0.15961449 -0.054112423 -0.1357989 0.027455844 -0.00374304 -0.043331485
-0.4297273 -0.22892506 0.20119658 0.16517287 0.041517723 -0.018467302 -0.1454669 0.0317734
-0.14655891 0.18055315 -0.09734074 -0.061190404 -0.10557811 -0.6026302 -0.003297282 -0.31305942
-0.061507314 0.08647927 0.21308084 -0.120611735 0.0273711 -0.009062932 -0.18037194 -0.07410822
0.09558737 0.027167792 0.016441898 0.024296165 0.11830369 -0.044482537 -0.0021057345 0.042521235
-0.10114338 0.047871385 -0.0046024853 -0.013585909 0.023284225 0.02725937 0.14187835 0.06520683
-0.09465023 -0.15840058 0.07652804 -0.032155707 -0.06493014 -0.030064363 -0.03835413 -0.00198843
0.011073612 0.05496242 0.010473182 -0.13351564 0.18278271 0.101647206 -0.077841446 0.05369021
0.09782703 -0.005162905 -0.03875479 0.09308903 0.0075040516 0.15490153 -0.017221177 0.18083459
0.058909297 0.02218205 -0.06861313 0.0294963 -0.052959617 1.1355735 0.060276262 -0.016894821
-0.074041605 0.116648525 -0.15451089 -0.024706474 -0.33207363 -0.005643318 0.41742554 -0.35237947
-0.11048594 -0.120589405 0.64794856 0.3527326 -0.077494375 0.0373877 0.13722566 0.29350036
0.29456615 -0.03697303 -0.07340533 -0.146406 -0.23595718 0.086210266 0.02597637 -0.004621906
-0.03110671 -0.022049272 -0.015152388 0.08926594 0.0074141463 0.013417895 -0.017254243 -0.07209588
-0.012544993 0.0023310415 0.011728856 0.09856552 0.11557029 0.04332198 -0.0034266927 -0.091283016
00000000: 051b c1bd 381d 80be da29 1d3e 62ea eebc
00000010: e72e 883c c1d4 c8bc 8685 7d3c e463 12bf
00000020: 64c2 e23d 7a36 f4bd 87da 7ebd 3bc0 d5bb
00000030: ce72 4a3e e6fe 8dbe 5625 98be c2a6 ffbd
00000040: 7483 e13e 1ef8 5ebe 6eb0 683e 95c5 09bf
00000050: 42f2 f0bc 2cc6 93ba cbce e33c 99d0 e7be
00000060: 47ce d6be 5e0c d1bd a2bd 67be 3187 753e
00000070: 90c0 2d3e b0dc 16be b4f2 473c a2b6 cfbd
00000080: b78e 0dbd 9a18 80bd cb10 c0bd c316 e7bc
00000090: d103 5e3d e1d5 25be 75e3 dcbd e8c3 a33d
000000a0: 1874 a33d 7ae2 cb3c d1ad 0d3e e338 eabc
000000b0: e87f b43d 6a91 643d 96b8 43be bb58 0c3e
000000c0: c3c5 07bc c6ea 9c3c 0912 43bd 654a 33bd
000000d0: 8217 413e 273c 083d f4a3 60be 358d 17be
000000e0: a9fa 2bbe 05f6 263d 3d29 65bc 25e5 533e
000000f0: a350 24bd f38d 00bd 8832 37be af11 01be
00000100: b53a 2c3d f15e b83c 2d1d 1fbd 7729 60bc
00000110: 6051 c13d 0d7f 9c3d 1d4c 923d f238 183f
00000120: 7b00 28bd 9036 65be 5b66 2e3e c35f 75be
00000130: 690c 99bd a8d4 893d 4747 c93d 0b83 28bd
00000140: 8abd 2a3e 4a3e 8ebe f951 84bd 2226 fd3e
00000150: 170e eb3d ce3f 963d bfa8 733e 1f1d b7be
00000160: fb0e 143b eed0 d93e 7f6c 493e e299 223d
00000170: 828e d7bc d4a5 dc3d 0bce 5e3e a7ed c03d
00000180: 86af ca3d 0766 1e3e bd9c 85be 707b 89bd
00000190: aad6 82bc 341d d33d 2dcc 39bd 2178 23be
000001a0: 4672 833d d2ea 3bbd 0009 993c de0e ac3d
000001b0: 5225 1a3d 893f 263d 04da b33d 0723 b2bc
000001c0: c2ce db3c 39cb f0bb 889f 9a3d cb6a 2b3e
000001d0: 33b6 503d 718a d4bd 5677 02bd 68e2 d23c
000001e0: d2d1 f2bc 0c5c f53d c95d 0a3e 3cc5 7c3e
000001f0: 81f7 903c 5bb1 eebd 086a c53c a080 0dbe
00000200: ea6f aebc 93df 47bd 68ee f73d 2acd 11be
00000210: 3873 70bd bb1a 0abe 8406 08be 2be6 91bd
00000220: 6fe8 2ebe 05ee b6bc fb71 23be fda4 5dbd
00000230: de0e 0bbe 14eb e03c ca4d 75bb 5b7c 31bd
00000240: 3705 dcbe 556b 6abe 7a06 4e3e 1423 293e
00000250: 7d0e 2a3d bd48 97bc 46f5 14be d324 023d
00000260: 8a13 16be ede2 383e 955a c7bd caa2 7abd
00000270: 5639 d8bd f945 1abf 3617 58bb 5349 a0be
00000280: 18ef 7bbd 0b1c b13d dd31 5a3e 4903 f7bd
00000290: 5b39 e03c b17c 14bc 6cb3 38be 0dc6 97bd
000002a0: 50c3 c33d fd8e de3c 29b1 863c c008 c73c
000002b0: 3449 f23d 5233 36bd 5d00 0abb bf2a 2e3d
000002c0: 4324 cfbd c914 443d 72d0 96bb 6f97 5ebc
000002d0: 8fbe be3c 0b4f df3c 8f48 113e 298b 853d
000002e0: fbd7 c1bd c333 22be bcba 9c3d b4b5 03bd
000002f0: 18fa 84bd 8a49 f6bc 3819 1dbd 5250 02bb
00000300: 186e 353c 4620 613d b697 2b3c 53b8 08be
00000310: 642b 3b3e 692c d03d 566b 9fbd 44ea 5b3d
00000320: 8a59 c83d 962d a9bb 58bd 1ebd 76a5 be3d
00000330: 8ce4 f53b 829e 1e3e 6d13 8dbc b42c 393e
00000340: e04a 713d 21b7 b53c 0a85 8cbd 39a2 f13c
00000350: 2fec 58bd 795a 913f 3ee4 763d 0267 8abc
00000360: 20a3 97bd 6ce5 ee3d 1a38 1ebe 3b65 cabc
00000370: 8e05 aabe 95eb b8bb cdb8 d53e 156b b4be
00000380: 7446 e2bd 94f7 f6bd f5df 253f 5e99 b43e
00000390: 5fb5 9ebd d823 193d e284 0c3e ae45 963e
000003a0: 60d1 963e 0871 17bd 8955 96bd 74eb 15be
000003b0: c29e 71be 028f b03d 65cc d43c 5c73 97bb
000003c0: 80d3 febc ada0 b4bc b941 78bc 10d1 b63d
000003d0: 5ef2 f23b bbd6 5b3c c558 8dbc 01a7 93bd
000003e0: 8489 4dbc 63c4 183b 632a 403c b8dc c93d
000003f0: 1eb0 ec3d 6372 313d 5d92 60bb 97f2 babd

net_container.0.bias f4 [128]
0.06352639 -0.1030005 -0.07955208 -0.02588036 0.07780226 0.032292705 0.14038014 0.16620998
0.09754209 0.14614679 0.019182926 -0.0031966353 0.059905093 -0.10669503 0.22403912 -0.16798086
0.08472375 -0.17085007 0.12984991 0.03249811 0.06450774 0.09945205 -0.03388742 0.06921092
0.068600774 0.05359403 -0.009313016 -0.089355715 -0.02535682 -0.038342644 -0.039231673 -0.00023973196
0.16133446 0.05317222 -0.09247406 -0.076547846 0.0611053 0.040120326 0.042714164 -0.0069195516
-0.10278112 0.13046634 -0.16458483 -0.0882394 0.074704245 -0.1309413 0.019081663 -0.07904741
0.16901924 0.023879787 -0.02759058 0.029940663 -0.055825774 -0.065222576 -0.011649562 0.042009078
0.21961935 0.059031025 0.074155286 0.06919799 -0.12497461 0.061399292 0.17707476 0.0392021
0.0368896 0.14695674 0.045775212 -0.0035826156 0.02340742 0.0533047 0.042728636 -0.11072549
0.14881468 0.1145159 0.04736741 0.052156873 0.15726188 0.015409186 0.17677191 0.042793967
0.009309794 -0.039123766 0.20694008 0.053125095 0.02539593 0.1561092 0.11216145 0.15940115
-0.009400102 0.18456721 -0.025399705 -0.02426652 0.09950435 -0.05191916 0.02232196 -0.027046077
0.04972382 -0.030447138 -0.12018058 -0.041578244 0.12949242 0.022278704 -0.06838761 -0.0040206206
0.04045098 0.0777793 -0.031173421 -0.06365991 -0.012450249 -0.059333563 -0.033925343 0.007765258
-0.07569455 -0.10590594 0.18365829 0.13247004 -0.10658194 0.15566674 0.04361064 -0.075034834
0.016330251 -0.1203893 0.18017103 -0.04360605 0.080445275 -0.16930151 -0.11046291 0.13794366
00000000: 201a 823d edf1 d2bd 33ec a2bd 0c03 d4bc
00000010: cb56 9f3d 5b45 043d d0bf 0f3e f332 2a3e
00000020: 26c4 c73d 81a7 153e 8325 9d3c a47e 51bb
00000030: 0b5f 753d ed82 dabd 836a 653e 2d03 2cbe
00000040: a583 ad3d 52f3 2ebe 60f7 043e bd1c 053d
00000050: a21c 843d 84ad cb3d 89cd 0abd 74be 8d3d
00000060: 907e 8c3d 6a85 5b3d 9f95 18bc 2100 b7bd
00000070: 1bb9 cfbc 2d0d 1dbd 64b1 20bd 8f60 7bb9
00000080: dc34 253e 1dcb 593d 0a63 bdbd 1ec5 9cbd
00000090: 8d49 7a3d 3655 243d 0cf5 2e3d 68bd e2bb
000000a0: e87e d2bd f898 053e ed88 28be dcb6 b4bd
000000b0: 8afe 983d 7a15 06be 2651 9c3c 9ce3 a1bd
000000c0: 6113 2d3e 8b9f c33c a405 e2bc 1f46 f53c
000000d0: 91a9 64bd 6a93 85bd cedd 3ebc b611 2c3d
000000e0: e5e3 603e 84ca 713d bade 973d adb7 8d3d
000000f0: b0f2 ffbd d37d 7b3d 1653 353e 6292 203d
00000100: 8d19 173d d47b 163e ca7e 3b3d 51ca 6abb
00000110: ebc0 bf3c 0756 5a3d 3904 2f3d 0cc4 e2bd
00000120: e062 183e 5087 ea3d 5404 423d 72a2 553d
00000130: 4209 213e cf76 7c3c b203 353e ba48 2f3d
00000140: 1b88 183c 3e40 20bd 1ae8 533e b399 593d
00000150: 200b d03c 17db 1f3e e7b4 e53d 0e3a 233e
00000160: e302 1abc 30ff 3c3e 0b13 d0bc 95ca c6bc
00000170: f0c8 cb3d 2fa9 54bd 8bdc b63c bc8f ddbc
00000180: 34ab 4b3d 476c f9bc 3c21 f6bd f34d 2abd
00000190: a999 043e d481 b63c ce0e 8cbd 69bf 83bb
000001a0: edaf 253d c14a 9f3d 675f ffbc 2060 82bd
000001b0: 21fc 4bbc c007 73bd 4df5 0abd b573 fe3b
000001c0: bf05 9bbd 37e5 d8bd eb10 3c3e 3aa6 073e
000001d0: a247 dabd 1a67 1f3e 12a1 323d ddab 99bd
000001e0: 05c7 853c aa8e f6bd c17e 383e 429c 32bd
000001f0: 7ec0 a43d 605d 2dbe 613a e2bd 1a41 0d3e

net_container.2.weight f4 [128, 128]
0.04218345 -0.13236234 0.043721374 -0.0135977715 0.03516911 0.0076109287 0.033581488 -0.11884032
-0.013473048 0.05655774 0.009682744 -0.1451611 0.0743236 -0.028981896 0.060610138 -0.037300266
-0.042808015 0.0061408007 0.021808881 0.08621564 -0.028199477 -0.004077996 -0.07942682 -0.021808377
-0.030578816 -0.054690532 -0.0818464 0.055950906 -0.0012018809 -0.017463444 -0.03282731 -0.032043446
-0.114440165 -0.062227488 -0.09976933 0.046186924 -0.042649716 0.029805332 0.037670117 -0.0007504565
0.059097964 0.08567313 -0.017239256 -0.12867677 0.00830608 0.08847904 -0.10676818 0.041537937
0.06900725 0.028159747 0.03632328 0.026855122 -0.047167543 -0.120479085 -0.04555732 -0.01653724
-0.17304972 -0.079381086 0.04679678 0.02498399 -0.019478086 0.06624963 0.06838417 -0.10790491
-0.099365935 -0.07674565 -0.019841468 -0.09265654 -0.026290545 -0.006569969 -0.0116102975 -0.022214266
0.070653185 -0.048775103 -0.1115487 0.039672125 -0.061276127 -0.09701648 0.06481399 0.05660956
0.0840515 0.00599639 -0.014054684 0.049944308 -0.08397097 0.012370465 -0.07638295 -0.10437296
0.023988655 -0.026625369 -0.105519556 -0.07446791 -0.036933895 0.018709768 -0.10052871 -0.077625565
0.09016663 0.055366356 0.049420986 0.01949745 0.07724778 -0.0043401225 -0.09926976 0.002922119
0.056000836 -0.06680913 0.041404225 -0.02453955 0.06777242 0.020395402 -0.06740445 -0.07713746
0.020055655 -0.05625626 -0.06235226 -0.06603542 -0.08991265 -0.117849134 -0.015613253 0.043666493
-0.021300523 -0.0240932 -0.05971411 0.00881285 0.039814904 0.052458283 -0.059177406 -0.06844638
0.059901673 0.04061823 -0.12909244 -0.21233708 0.11882577 -0.08294354 0.0632668 0.09043004
0.0974142 -0.022690123 0.046110526 0.099176094 -0.062023103 0.001327882 -0.10206669 0.06888563
0.0040830853 -0.09411348 0.024131423 -0.048817582 -0.14090128 -0.019230736 0.032202195 -0.00252416
-0.11359601 -0.042866524 -0.052122198 0.10398905 0.062307812 -0.05610448 0.08465448 -0.07755623
-0.11346145 -0.0427278 -0.017498957 -0.048047394 0.07254729 0.049195223 -0.16219239 -0.07786199
0.07359199 -0.02420055 0.020299016 0.09463388 0.021346593 0.0052555264 0.050099205 0.05076793
-0.054914337 0.041702684 0.0075576054 -0.0999503 0.024819048 -0.08977232 -0.033820365 0.051269963
-0.0009649615 0.07210498 -0.07709768 0.038542844 -0.06618899 -0.027539302 -0.06465603 0.11865081
0.03386486 -0.037751406 -0.023452515 -0.0570992 -0.026831787 -0.022812089 0.021174228 -0.09872989
0.04150959 0.0972185 -0.118053794 -0.0683403 0.051759236 -0.0307277 0.08874617 0.018670572
-0.07274741 -0.0163399 -0.07984432 -0.12677348 -0.13887003 0.0014023083 0.14619312 -0.106501736
0.07037522 0.00065839285 0.03395552 -0.13196154 0.08130379 0.06813506 -0.058606777 -0.1337127
0.031484343 0.06592835 0.10839527 0.007253512 0.028505694 -0.078408256 0.10127174 0.022515306
0.040375024 -0.0142810615 -0.09552739 -0.08566833 0.09263087 -0.048535813 -0.028792115 -0.050273433
0.005492423 0.0060305474 0.027648203 0.042157352 -0.036359023 0.08488473 0.014750547 0.07915229
-0.02419293 -0.05860839 -0.09443987 -0.04727276 0.035668634 0.20727943 0.0675402 0.031855915
00000000: 8ec8 2c3d fe89 07be 2f15 333d 30c9 5ebc
00000010: 7c0d 103d 1965 f93b be8c 093d 8e62 f3bd
00000020: 0fbe 5cbc 17a9 673d 5fa4 1e3c 1da5 14be
00000030: f936 983d 716b edbc 5642 783d 2ac8 18bd
00000040: 7557 2fbd c538 c93b 8aa8 b23c d391 b03d
00000050: 9702 e7bc b6a0 85bb 87aa a2bd 7ba7 b2bc
00000060: 6d80 fabc 2e03 60bd 169f a7bd c72c 653d
00000070: 6e88 9dba 7f0f 8fbc ee75 06bd fd3f 03bd
00000080: 9b5f eabd 40e2 7ebd dd53 ccbd 802e 3d3d
00000090: 78b1 2ebd 502a f43c fb4b 1a3d 48ba 44ba
000000a0: b510 723d 6575 af3d 5739 8dbc d8c3 03be
000000b0: 3916 083c 8034 b53d 47a9 dabd af23 2a3d
000000c0: ac53 8d3d 45af e63c b8c7 143d 46ff db3c
000000d0: c132 41bd bdbd f6bd 509a 3abd 1b79 87bc
000000e0: f233 31be 8d92 a2bd fbad 3f3d 39ab cc3c
000000f0: 8290 9fbc e3ad 873d 000d 8c3d 40fd dcbd
00000100: 5e80 cbbd d32c 9dbd 938a a2bc b6c2 bdbd
00000110: 455f d7bc e548 d7bb 1e39 3ebc b1fa b5bc
00000120: 9eb2 903d 67c8 47bd a573 e4bd 3d7f 223d
00000130: adfc 7abd 94b0 c6bd 32bd 843d 6ddf 673d
00000140: 3123 ac3d 5d7d c43b 9e45 66bc 6792 4c3d
00000150: f9f8 abbd 7ead 4a3c aa6e 9cbd 7ec1 d5bd
00000160: db83 c43c 721d dabc a31a d8bd a282 98bd
00000170: ff47 17bd 3a45 993c ffe1 cdbd 27fa 9ebd
00000180: 48a9 b83d d5c7 623d a96d 4a3d 1eb9 9f3c
00000190: 1634 9e3d 9637 8ebb f24d cbbd 0681 3f3b
000001a0: 2261 653d 3ad3 88bd 7a97 293d 2b07 c9bc
000001b0: 44cc 8a3d 4214 a73c 580b 8abd 3ffa 9dbd
000001c0: c24b a43c f76c 66bd 1565 7fbd 943d 87bd
000001d0: 2024 b8bd e35a f1bd bbce 7fbc a3db 323d
000001e0: 6f7e aebc 1a5f c5bc c896 74bd c663 103c
000001f0: f414 233d 7fde 563d 0264 72bd 9e2d 8cbd
00000200: 755b 753d 4d5f 263d cf30 04be e46e 59be
00000210: ed5a f33d 4dde a9bd 0692 813d 6333 b93d
00000220: 1981 c73d a3e0 b9bc 64de 3c3d d61c cb3d
00000230: f00b 7ebd 540c ae3a 5708 d1bd e913 8d3d
00000240: 67cb 853b 91be c0bd 43af c53c f2f4 47bd
00000250: 6d48 10be c789 9dbc 73e6 033d 616c 25bb
00000260: 06a5 e8bd cf94 2fbd 167e 55bd 36f8 d43d
00000270: 7a36 7f3d d0cd 65bd 545f ad3d cdd5 9ebd
00000280: 7a5e e8bd 5803 2fbd f959 8fbc 58cd 44bd
00000290: ac93 943d ee80 493d c315 26be 1b76 9fbd
000002a0: 66b7 963d 3b40 c6bc 1f4a a63c 68cf c13d
000002b0: 0ddf ae3c 8d36 ac3b d334 4d3d 08f2 4f3d
000002c0: dbed 60bd 6fd0 2a3d caa5 f73b beb2 ccbd
000002d0: 5151 cb3c 8dda b7bd 3987 0abd 7400 523d
000002e0: 78f5 7cba c7ab 933d 63e5 9dbd 1adf 1d3d
000002f0: 188e 87bd 1a9a e1bc 616a 84bd 32ff f23d
00000300: e1b5 0a3d 38a1 1abd 7d1f c0bc dae0 69bd
00000310: 56ce dbbc 6be0 babc 9375 ad3c e632 cabd
00000320: f605 2a3d 7e1a c73d 30c6 f1bd 00f6 8bbd
00000330: 7e01 543d a8b8 fbbc 8dc0 b53d 07f3 983c
00000340: 98fc 94bd 41db 85bc 6b85 a3bd e8d0 01be
00000350: f233 0ebe a9cd b73a a6b3 153e 951d dabd
00000360: e220 903d ff97 2c3a f114 0b3d ed20 07be
00000370: 9a82 a63d 658a 8b3d a90d 70bd fbeb 08be
00000380: baf5 003d 7105 873d 57fe dd3d deae ed3b
00000390: c684 e93c 8294 a0bd 8f67 cf3d 0572 b83c
000003a0: 4860 253d 1dfb 69bc dda3 c3bd e172 afbd
000003b0: 41b5 bd3d 7dcd 46bd 71dd ebbc 84eb 4dbd
000003c0: c9f9 b33b e69b c53b 7c7e e23c 30ad 2c3d
000003d0: 33ed 14bd 0cd8 ad3d 47ac 713c 991a a23d
000003e0: 4030 c6bc 5a0f 70bd b169 c1bd 15a1 41bd
000003f0: 4619 123d 0f41 543e 8452 8a3d 597b 023d

net_container.2.bias f4 [128]
0.07334815 -0.17186326 -0.28281435 0.030421898 -0.14920478 0.028726798 -0.0051348708 0.06422097
0.042765234 -0.12827042 0.17787814 -0.034669682 0.031092916 -0.08198024 0.07128186 -0.07480552
-0.046608932 -0.046948016 -0.09910179 0.060624346 0.07298656 -0.027198859 0.061287254 -0.05724493
-0.020825705 0.04915572 0.069773786 -0.14667556 0.03419001 -0.15748231 -0.113366716 -0.0038811183
0.039394382 -0.11280994 0.022201227 -0.076166615 -0.10974804 -0.013289452 -0.008611809 -0.11028838
-0.1418511 -0.03252833 -0.120125405 -0.024365762 0.040362384 0.07888872 0.040077206 0.00968713
0.044411324 -0.11769279 0.07552972 -0.07083682 -0.0022229878 0.14149436 -0.07654625 -0.053875174
0.05051396 -0.108996086 0.0441435 0.16424255 -0.18592301 -0.0815312 -0.1391045 0.045916945
-0.04940987 -0.13182299 0.1357411 0.015820798 -0.0898855 0.034828734 -0.098296985 -0.11452697
-0.037584335 0.0023343249 -0.049012344 -0.039250728 0.10420059 -0.09394447 -0.016775323 -0.024603203
-0.080091655 -0.07561644 0.01955684 -0.062277045 -0.12977712 -0.052947816 0.009604202 0.1454769
0.13212456 -0.11457926 -0.12425096 -0.01576661 -0.16552266 -0.030413138 -0.11553844 0.053596634
-0.008265118 -0.0013399108 -0.22586739 0.08202176 -0.17001827 -0.02920638 -0.07645087 -0.02194079
-0.04604615 -0.18152435 0.005738238 -0.057248652 -0.11666989 -0.039628737 0.12371709 -0.08235067
-0.23663035 0.037820637 0.107836455 -0.10720077 0.16325164 -0.012553833 -0.03808893 -0.06878041
0.049682938 -0.16627416 0.06386367 -0.034642924 0.01709231 0.044704158 -0.053272117 -0.13573113
00000000: 8e37 963d ecfc 2fbe 0bcd 90be 5837 f93c
00000010: 23c9 18be 7654 eb3c 6b42 a8bb 4986 833d
00000020: 992a 2f3d 5259 03be b025 363e cc01 0ebd
00000030: 92b6 fe3c 42e5 a7bd 39fc 913d a333 99bd
00000040: 02e9 3ebd 904c 40bd e1f5 cabd 3c51 783d
00000050: fa79 953d 24d0 debc 5808 7b3d a979 6abd
00000060: ab9a aabc 8257 493d 8fe5 8e3d 1e32 16be
00000070: d30a 0c3d 0b43 21be cf2c e8bd 5c5a 7ebb
00000080: 015c 213d e608 e7bd 59df b53c 3efd 9bbd
00000090: 95c3 e0bd 00bc 59bc 8c18 0dbc e0de e1bd
000000a0: 6a41 11be 6d3c 05bd 4f04 f6bd b59a c7bc
000000b0: 0753 253d 6990 a13d ff27 243d c5b6 1e3c
000000c0: a6e8 353d eb08 f1bd 53af 9a3d e512 91bd
000000d0: 8caf 11bb e6e3 103e 48c4 9cbd 37ac 5cbd
000000e0: bae7 4e3d 5739 dfbd d1cf 343d 332f 283e
000000f0: 9a62 3ebe d4f9 a6bd 6971 0ebe 6813 3c3d
00000100: 0162 4abd 9bfc 06be b7ff 0a3e 9e9a 813c
00000110: e415 b8bd 93a8 0e3d ee4f c9bd 1e8d eabd
00000120: 08f2 19bd 79fb 183b 2bc1 48bd 5fc5 20bd
00000130: 1e67 d53d f565 c0bd 676c 89bc a88c c9bc
00000140: 1807 a4bd cbdc 9abd ab35 a03c 3716 7fbd
00000150: 4be4 04be cfdf 58bd f15a 1d3c e5f7 143e
00000160: a94b 073e 88a8 eabd 4a77 febd fa28 81bc
00000170: c67e 29be f924 f9bc 6b9f ecbd 2588 5b3d
00000180: 6b6a 07bc f29f afba c849 67be 06fb a73d
00000190: 4519 2ebe 3842 efbc 4692 9cbd 2cbd b3bc
000001a0: e39a 3cbd 85e1 39be d407 bc3b 907d 6abd
000001b0: a0f0 eebd be51 22bd 635f fd3d 78a7 a8bd
000001c0: 3a4f 72be d0e9 1a3d 5cd9 dc3d 148c dbbd
000001d0: 702b 273e 98ae 4dbc 2303 1cbd bedc 8cbd
000001e0: 5680 4b3d c643 2abe f5ca 823d bde5 0dbd
000001f0: 2c05 8c3c b51b 373d dd33 5abd 1afd 0abe

net_container.4.weight f4 [128, 128]
-0.10344733 0.12279579 -0.03685472 -0.031246994 0.037084542 -0.15710501 0.07599405 0.06516585
-0.07105296 -0.040267415 -0.10592351 0.0010794691 0.115488276 -0.016011322 -0.03359109 0.008833806
0.0021204299 -0.026950145 -0.0044660685 0.004831926 -0.070978746 -0.112086125 0.051946517 -0.113299675
-0.0052020713 0.055309843 -0.021514481 0.010800275 0.025272574 0.0925435 0.019174023 0.031108424
-0.0055821002 0.0077366 -0.0006238809 -0.11141497 0.029411443 0.009446992 0.045132045 0.0053574257
-0.04624968 -0.004489836 0.04246233 -0.040285356 -0.0854733 0.011601836 -0.0063296845 0.1072282
-0.081518315 0.0041483734 0.04311696 0.046928473 0.053864334 -0.0076594846 0.053896733 0.0066632926
0.06909334 -0.012059028 0.04279178 -0.0809568 0.100733764 0.009296971 0.014451939 -0.039600655
-0.007204696 0.012340358 -0.08774073 -0.03528745 0.06690474 0.0467095 -0.0012000063 0.11789026
0.12939948 0.050085478 -0.07529872 -0.08043524 -0.0076444917 0.054506272 0.05073226 -0.03349314
0.017455753 0.057046257 -0.06741743 -0.02743844 0.048848223 0.043170597 -0.024700781 -0.045935135
0.009932931 -0.04281582 0.06739924 -0.065631144 0.10600196 0.01550651 -0.07917241 -0.13835166
-0.018771812 0.065918125 -0.034858473 0.037562612 0.11058381 0.09013864 0.02472398 0.062332794
-0.012190242 0.06839428 0.11731362 -0.0021251931 -0.011930227 -0.14556867 -0.00799962 0.080428295
0.013387758 0.0695213 0.030782484 0.058333106 -0.11456312 0.011202663 -0.020872595 -0.014302773
0.03813501 -0.0782999 -0.013363912 0.03585041 -0.020144988 -0.030370645 0.045654606 0.035324637
0.11287535 -0.096786626 -0.051350117 0.04160793 0.07738707 -0.03885715 -0.097558506 -0.05205388
-0.11441449 -0.110066384 0.07271677 -0.06502994 0.032559887 0.030120816 0.12885705 -0.10985836
-0.006260013 -0.03289548 -0.01745086 0.022778256 0.05242985 -0.0017023865 0.023959856 0.049906842
0.04795828 0.025399191 0.10616914 -0.06583383 0.022807777 -0.06914992 0.019315494 0.0996329
0.0760793 0.08086088 -0.034958985 0.06853034 0.031838916 -0.026124809 -0.0013064086 -0.05253512
0.034639895 -0.041980106 -0.104978696 0.044538878 -0.07336559 0.07403916 -0.12724519 0.008500628
-0.081305794 -0.1035062 0.029602332 0.03730754 -0.03649999 0.07604113 -0.09719947 -0.038736098
0.03813186 -0.005768028 0.057308327 0.00980887 0.025063043 0.05726349 0.0473822 -0.05194681
-0.04725536 -0.018469919 0.061839115 0.038076553 0.023368841 -0.009291062 -0.060033184 -0.078586556
0.07926014 0.022770308 0.030042838 0.06446491 0.024942381 -0.075223446 -0.07662989 -0.033876285
-0.074941434 -0.021724347 -0.018886942 0.04567138 -0.036156945 -0.01933753 -0.11277636 0.022372937
0.05767495 -0.11245896 -0.039618578 0.010250876 -0.025291324 -0.042897157 -0.03053772 0.07967058
0.03350154 -0.02720434 0.026922876 0.005182775 0.050283432 -0.051381007 0.021657748 0.06776336
0.02506562 -0.061340097 -0.048156403 -0.012201652 0.03080601 -0.052384336 -0.03755453 -0.09649241
-0.06884925 0.03832192 0.037482496 0.014750945 0.0687839 -0.046531122 0.03915763 0.05120524
-0.05347571 -0.04243688 0.058360133 0.07209827 0.06483726 -0.0032935196 -0.001349333 0.031176087
00000000: 32dc d3bd 5c7c fb3d faf4 16bd b2f9 ffbc
00000010: f6e5 173d 23e0 20be c5a2 9b3d ac75 853d
00000020: 3784 91bd 72ef 24bd 6dee d8bd f97c 8d3a
00000030: 1e85 ec3d 2d2a 83bc d096 09bd abbb 103c
00000040: e9f6 0a3b 8dc6 dcbc 1958 92bb 2255 9e3b
00000050: 4e5d 91bd 698d e5bd dfc5 543d a909 e8bd
00000060: 2376 aabb 938c 623d 233f b0bc a3f3 303c
00000070: 6e08 cf3c 7287 bd3d d712 9d3c 18d7 fe3c
00000080: 0dea b6bb 4e83 fd3b f08b 23ba 882d e4bd
00000090: 44f0 f03c 8ec7 1a3c 61dc 383d 588d af3b
000000a0: 4e70 3dbd 791f 93bb fbec 2d3d 4202 25bd
000000b0: a00c afbd a115 3e3c 3e69 cfbb 759a db3d
000000c0: 13f3 a6bd 14ef 873b 699b 303d 1238 403d
000000d0: d9a0 5c3d 6afc fabb d2c2 5c3d c057 da3b
000000e0: cf80 8d3d 3b93 45bc 6f46 2f3d aecc a5bd
000000f0: 814d ce3d 5352 183c d3c7 6c3c 4c34 22bd
00000100: 5f15 ecbb 372f 4a3c 69b1 b3bd 9389 10bd
00000110: 5a05 893d 7652 3f3d 8849 9dba 7370 f13d
00000120: 4c81 043e 6e26 4d3d 3736 9abd 3bbb a4bd
00000130: a57e fabb f841 5f3d a1cc 4f3d 1a30 09bd
00000140: 5eff 8e3c 56a9 693d 2612 8abd 94c6 e0bc
00000150: 1315 483d a7d3 303d 4b59 cabc 7b26 3cbd
00000160: bbbd 223c a45f 2fbd 9d08 8a3d 9f69 86bd
00000170: 8e17 d93d 040f 7e3c 2525 a2bd 0fac 0dbe
00000180: 58c7 99bc 1500 873d c2c7 0ebd 41db 193d
00000190: c479 e23d 9b9a b83d f289 ca3c ac50 7f3d
000001a0: 95b9 47bc 4d12 8c3d 2042 f03d d346 0bbb
000001b0: 0077 43bc f40f 15be d710 03bc 97b7 a43d
000001c0: 5458 5b3c 2f61 8e3d 8c2b fc3c b2ee 6e3d
000001d0: 12a0 eabd 608b 373c 01fd aabc 2e56 6abc
000001e0: 7533 1c3d b35b a0bd 4ff4 5abc e1d7 123d
000001f0: 1a07 a5bc dccb f8bc 5300 3b3d 91b0 103d
00000200: 312b e73d 1138 c6bd 8054 52bd 146d 2a3d
00000210: 1d7d 9e3d ad28 1fbd c1cc c7bd 7336 55bd
00000220: 2552 eabd 7c6a e1bd 88ec 943d 6b2e 85bd
00000230: 845d 053d eebf f63c 1af3 033e 6bfd e0bd
00000240: cc20 cdbb 69bd 06bd 1bf5 8ebc 7799 ba3c
00000250: afc0 563d 9d22 dfba 7647 c43c 1e6b 4c3d
00000260: e76f 443d f711 d03c 356f d93d e3d3 86bd
00000270: 60d7 ba3c 799e 8dbd 873b 9e3c 550c cc3d
00000280: 77cf 9b3d 649a a53d 2731 0fbd a359 8c3d
00000290: 8669 023d b203 d6bc cc3b abba 112f 57bd
000002a0: 90e2 0d3d 55f3 2bbd 12ff d6bd 666e 363d
000002b0: b340 96bd d8a1 973d 904c 02be 3846 0b3c
000002c0: a783 a6bd 0ffb d3bd 9780 f23c cbcf 183d
000002d0: 0381 15bd 74bb 9b3d 8410 c7bd bea9 1ebd
000002e0: 2730 1c3d ba01 bdbb 23bc 6a3d 62b5 203c
000002f0: 0351 cd3c 1f8d 6a3d d613 423d 2ec6 54bd
00000300: d68e 41bd 3a4e 97bc 034b 7d3d 29f6 1b3d
00000310: 0370 bf3c 8a39 18bc 5be5 75bd fdf1 a0bd
00000320: 2453 a23d cc88 ba3c 661c f63c 2e06 843d
00000330: f753 cc3c c00e 9abd 22f0 9cbd dcc1 0abd
00000340: e57a 99bd 42f7 b1bc cab8 9abc ea11 3b3d
00000350: 4e19 14bd bd69 9ebc 4bf7 e6bd 7347 b73c
00000360: 923c 6c3d e250 e6bd 1747 22bd 4af3 273c
00000370: c02f cfbc eeb4 2fbd 3e2a fabc 542a a33d
00000380: e938 093d a3db debc 5d8d dc3c 45d4 a93b
00000390: 00f6 4d3d e474 52bd 976b b13c 84c7 8a3d
000003a0: 6a56 cd3c c13f 7bbd a63f 45bd 70e9 47bc
000003b0: e35c fc3c f590 56bd c7d2 19bd d09d c5bd
000003c0: d600 8dbd 72f7 1c3d 3f87 193d f3ad 713c
000003d0: 93de 8c3d 6b97 3ebd c063 203d 96bc 513d
000003e0: 5909 5bbd 4bd2 2dbd 090b 6f3d 42a8 933d
000003f0: 66c9 843d 17d8 57bb 1adc b0ba fe64 ff3c

net_container.4.bias f4 [128]
-0.13053481 -0.017361498 -0.000761403 -0.15983649 -0.08194559 -0.10836028 -0.1255029 -0.10708308
-0.027678506 0.017105186 0.08039582 -0.11719885 -0.0486346 -0.104580574 -0.017549928 0.09219184
-0.10701089 0.021946244 0.08124685 -0.0010589762 -0.022654006 0.06670798 -0.1449857 0.015037445
-0.022012763 -0.065633774 0.11717131 0.017293068 -0.10265042 0.014931575 -0.09465618 0.023345953
0.0016455398 -0.068355575 -0.08254132 -0.11087622 -0.050480876 0.05653904 0.027854789 0.06582221
-0.0132107055 -0.08396356 0.031770077 -0.07323172 -0.098866135 0.043734 -0.11434238 0.003826376
0.055316877 0.024494838 0.015053076 -0.08642304 -0.026977262 -0.06803303 -0.022143539 0.031061798
0.08455206 -0.09149331 -0.039148472 0.047376156 -0.026503572 -0.04912666 -0.04966784 -0.042046215
-0.08854703 -0.017895192 -0.089768894 0.06198631 -0.061826948 -0.025770424 0.103329934 -0.015220766
-0.0352534 0.13223496 -0.050127875 0.06401357 0.011672305 0.042878598 0.06361066 -0.0659778
0.0668666 0.0041135997 -0.031407718 -0.02101786 0.015792627 -0.08328751 -0.039546784 -0.10160314
0.056003105 -0.0395619 -0.012105097 -0.024621056 -0.037563723 -0.05668967 0.0475895 -0.024822004
-0.038335953 -0.106567085 0.008460465 -0.021514298 -0.115265116 -0.08494826 -0.14093086 0.04529136
0.086324275 0.005062551 0.032875396 -0.036904782 -0.106149085 -0.017314667 -0.027102284 0.043340538
-0.080360435 -0.114335135 0.10339563 0.09054614 0.04235355 0.053296015 -0.034150474 0.10303171
-0.018657701 0.042756986 0.020160165 -0.0268486 -0.021626543 -0.050612416 0.019542903 -0.018134933
00000000: ebaa 05be b339 8ebc e498 47ba 2dac 23be
00000010: 17d3 a7bd ffeb ddbd d583 00be 604e dbbd
00000020: 09be e2bc 2d20 8c3c 90a6 a43d f305 f0bd
00000030: 1335 47bd 572e d6bd dec4 8fbc 13cf bc3d
00000040: 8728 dbbd 9cc8 b33c c064 a63d 58cd 8aba
00000050: e594 b9bc 329e 883d 2277 14be 9e5f 763c
00000060: 1c54 b4bc 006b 86bd 83f7 ef3d 31aa 8d3c
00000070: 623a d2bd 91a3 743c 19db c1bd 0340 bf3c
00000080: 27af d73a 02fe 8bbd 6c0b a9bd 1213 e3bd
00000090: 09c5 4ebd 7b95 673d ba2f e43c cbcd 863d
000000a0: b771 58bc 16f5 abbd 5721 023d 83fa 95bd
000000b0: 547a cabd 6c22 333d 562c eabd f0c3 7a3b
000000c0: f393 623d 66a9 c83c 2da1 763c 90fe b0bd
000000d0: 6bff dcbc e754 8bbd 5e66 b5bc 5075 fe3c
000000e0: a129 ad3d d860 bbbd 265a 20bd 800d 423d
000000f0: 051e d9bc 0939 49bd 8170 4bbd a738 2cbd
00000100: 2558 b5bd f098 92bc c1d8 b7bd 5be5 7d3d
00000110: 413e 7dbd 7f1c d3bc a59e d33d 8560 79bc
00000120: df65 10bd 9a68 073e e352 4dbd 8c19 833d
00000130: 323d 3f3c 78a1 2f3d 4e46 823d 5e1f 87bd
00000140: 5bf1 883d 60cb 863b 61a5 00bd a62d acbc
00000150: 8a5f 813c a492 aabd cffb 21bd 4f15 d0bd
00000160: 8363 653d a90b 22bd 7554 46bc 19b2 c9bc
00000170: 6bdc 19bd 6d33 68bd 35ed 423d 8457 cbbc
00000180: 2906 1dbd d83f dabd c39d 0a3c c13e b0bc
00000190: 1e10 ecbd 5af9 adbd 2e50 10be 6f83 393d
000001a0: c8ca b03d c1e3 a53b 5aa8 063d 7829 17bd
000001b0: b164 d9bd 7dd7 8dbc 9c05 debc d985 313d
000001c0: 0394 a4bd 8a28 eabd 17c1 d33d 4170 b93d
000001d0: eb7a 2d3d ec4c 5a3d 5ee1 0bbd 4a02 d33d
000001e0: 09d8 98bc f321 2f3d ee26 a53c 98f1 dbbc
000001f0: 262a b1bc f74e 4fbd 7018 a03c b68f 94bc

policy_layer.weight f4 [19, 128]
0.067886606 0.005467651 -0.013971658 0.026579978 -0.053458992 0.07757071 0.017145015 -0.032356687
-0.006074611 0.030765597 -0.026393257 0.034011047 0.030950297 -0.008750623 0.0022943157 0.022085875
0.00343665 -0.034967247 0.040198512 0.015434047 0.005782404 0.00013164594 0.0897132 -0.09757532
-0.025361419 -0.002286904 0.034647543 0.012889591 0.086617924 0.047382336 -0.03211156 0.026369188
-0.06209152 0.0036723502 0.03981977 -0.046843212 0.05746669 0.068585195 -0.008585625 0.0006201708
-0.006871154 0.034312915 -0.07320512 0.044710506 -0.020519588 -0.028841667 0.08179402 0.03214829
0.02141657 0.035206873 -0.03778455 0.01747116 0.033241745 0.031961266 0.032070246 0.026511414
-0.04520351 -0.0110804895 0.015081943 0.051831286 0.014350468 0.08642875 0.004500254 0.007625122
0.006104438 -0.0002607856 -0.050129164 0.024389878 -0.031415872 -0.038943466 -0.01593351 0.04287254
0.039364308 -0.008329485 0.019605096 -0.0061046067 0.059161644 -0.011338177 0.040876925 0.015493429
-0.045057442 -0.02525222 0.052527558 -0.03365358 0.07105949 -0.05343887 0.04597525 0.032235313
-0.024162447 0.07908904 0.038710006 -0.029827444 -0.033432014 0.05926375 -0.064211115 -0.051478636
0.06252448 0.06639077 -0.029580053 -0.031391606 0.014470104 0.03187958 -0.017429136 -0.030891297
-0.015837364 -0.028834272 0.05386299 0.04945457 -0.021795006 -0.03264185 0.04379164 0.032754272
-0.015504713 0.010111071 0.045000043 0.016091352 -0.036989726 0.043377757 -0.04056678 -0.027370049
-0.0023685049 -0.091366395 0.00044346292 -0.037583683 -0.047443237 -0.035573136 -0.030117393 -0.022983434
-0.05316223 0.060446262 0.06405507 -0.045090664 -0.04767292 0.071167655 -0.0089846235 -0.05563945
-0.01882393 0.06272947 -0.073221564 0.036230583 -0.056279283 -0.071879104 0.010444157 -0.02631732
0.030282766 -0.0136942975 0.052236166 -0.021248529 0.012869598 -0.0015994547 -0.003764543 0.06163131
-0.0024270306 0.049306728 0.023059124 0.017718816 0.010874807 -0.03726629 0.026177675 -0.009574087
0.046940457 0.020413851 0.0034293241 -0.046736766 0.04416174 0.008930001 0.03716308 -0.011468329
-0.03931007 -0.017563496 -0.021485873 -0.0042922543 0.02158654 0.055434156 -0.045130435 -0.013946169
-0.007117684 0.014011755 -0.031247927 -0.0338752 0.010592255 0.013358673 0.027439049 0.057810616
-0.02849282 -0.023253195 -0.0842788 0.093494035 -0.07651474 0.04172949 -0.058639385 -0.016337993
-0.008363685 -0.030906579 0.026430061 -0.0046681897 0.035744242 0.064399146 -0.06531177 -0.05752532
-0.043464094 -0.05308488 0.0129458625 -0.0087213665 -0.023964947 0.036618028 0.036451664 -0.068502486
-0.01475019 0.07772387 0.0019965891 0.04705387 -0.0037274552 0.021833843 0.00084123015 0.005699778
8.672707e-05 -0.0040154424 -0.029112874 -0.0373705 -0.05034961 -0.028071875 0.0026344808 0.040760875
0.018042307 0.011970699 -0.05346883 -0.026061872 0.027432933 0.065747604 0.011440614 0.05039198
0.013075274 -0.002497582 0.021942835 0.039509036 -0.10394226 -0.00531187 -0.014859525 -0.026898785
-0.018365929 -0.04516751 0.0039226357 0.0034922822 0.08258257 -0.0003968553 -0.05372117 -0.050513454
0.028268768 0.012773276 0.022684552 0.03674259 0.036531158 -0.008545587 -0.05446057 0.027986703
00000000: 2208 8b3d fb29 b33b 62e9 64bc 41be d93c
00000010: d1f7 5abd 64dd 9e3d b473 8c3c 7288 04bd
00000020: 880d c7bb 2208 fc3c ac36 d8bc 2b4f 0b3d
00000030: 7a8b fd3c c65e 0fbc 3b5c 163b 70ed b43c
00000040: 6b39 613b d139 0fbd 32a7 243d 16df 7c3c
00000050: 527a bd3b 700a 0a39 8ebb b73d 92d5 c7bd
00000060: c0c2 cfbc e2df 15bb 95ea 0d3d dd2e 533c
00000070: bd64 b13d fb13 423d 6987 03bd 3204 d83c
00000080: ad53 7ebd d0ab 703b 0e1a 233d abde 3fbd
00000090: 3162 6b3d 6576 8c3d b9aa 0cbc f592 223a
000000a0: 6b27 e1bb b38b 0c3d 91ec 95bd 5d22 373d
000000b0: b218 a8bc 5c45 ecbc a083 a73d edad 033d
000000c0: cd71 af3c 1535 103d f9c3 1abd ae1f 8f3c
000000d0: 7f28 083d d1e9 023d 175c 033d 772e d93c
000000e0: 5127 39bd f18a 35bc 411a 773c 0b4d 543d
000000f0: 3a1e 6b3c 8e01 b13d de76 933b 29dc f93b
00000100: bd07 c83b 0dba 88b9 3d54 4dbd 48cd c73c
00000110: eead 00bd 2f83 1fbd fe86 82bc 1e9b 2f3d
00000120: 783c 213d 6478 08bc de9a a03c 2709 c8bb
00000130: 7b53 723d c3c3 39bc 906e 273d 27d8 7d3c
00000140: 278e 38bd bedd cebc 2327 573d 56d8 09bd
00000150: a387 913d b7e2 5abd 8b50 3c3d 2d09 043d
00000160: 53f0 c5bc 6ff9 a13d 628e 1e3d af58 f4bc
00000170: 02f0 08bd 8cbe 723d 1e81 83bd 43db 52bd
00000180: d60c 803d e2f7 873d de51 f2bc 7c94 00bd
00000190: 0414 6d3c 2a94 023d 8cc7 8ebc bf0f fdbc
000001a0: 5cbd 81bc da35 ecbc 709f 5c3d e090 4a3d
000001b0: 718b b2bc 76b3 05bd dd5e 333d 5829 063d
000001c0: 7b07 7ebc e8a8 253c f751 383d 03d2 833c
000001d0: 8a82 17bd e0ac 313d 5a29 26bd 2737 e0bc
000001e0: eb38 1bbb 4e1e bbbd 9680 e839 59f1 19bd
000001f0: d753 42bd 23b5 11bd c0b8 f6bc c147 bcbc
00000200: a3c0 59bd 8096 773d 4e2f 833d fdb0 38bd
00000210: ae44 43bd 59c0 913d 3e34 13bc 31e6 63bd
00000220: a434 9abc 4f78 803d 30f5 95bd 8566 143d
00000230: 1b85 66bd 5a35 93bd f81d 2b3c 6c97 d7bc
00000240: 9013 f83c 0c5e 60bc 97f5 553d 6511 aebc
00000250: 02db 523c cba4 d1ba 8db6 76bb 1d71 7c3d
00000260: d10e 1fbb daf5 493d 7de6 bc3c 0d27 913c
00000270: 3f2c 323c 8aa4 18bd 9072 d63c a2dc 1cbc
00000280: a344 403d f33a a73c 83be 603b 0d6f 3fbd
00000290: f1e2 343d 244f 123c 5038 183d a8e5 3bbc
000002a0: 9903 21bd 52e1 8fbc 2403 b0bc 0aa6 8cbb
000002b0: 41d6 b03c ed0e 633d b1da 38bd 797e 64bc
000002c0: 763b e9bb 8f91 653c a7fb ffbc b9c0 0abd
000002d0: 238b 2d3c 56de 5a3c dbc7 e03c d3ca 6c3d
000002e0: c669 e9bc 7c7d bebc 5d9a acbd cd79 bf3d
000002f0: c3b3 9cbd 8bec 2a3d da2f 70bd 41d7 85bc
00000300: d607 09bc cb2f fdbc db83 d83c 9df7 98bb
00000310: 8e68 123d b3e3 833d 2dc2 85bd ac9f 6bbd
00000320: 6807 32bd 886f 59bd e21a 543c 10e4 0ebc
00000330: 2352 c4bc c9fc 153d 574e 153d 084b 8cbd
00000340: c8aa 71bc b12d 9f3d 35d9 023b 8fbb 403d
00000350: 5248 74bb e3dc b23c 0086 5c3a 34c5 ba3b
00000360: 3ee1 b538 f993 83bb 1f7e eebc cf11 19bd
00000370: 653b 4ebd fdf6 e5bc 41a7 2c3b e0f4 263d
00000380: 76cd 933c c020 443c 2202 5bbd b57f d5bc
00000390: 08bb e03c aea6 863d 6a71 3b3c d267 4e3d
000003a0: ad39 563c 79ae 23bb 76c1 b33c 3ad4 213d
000003b0: aedf d4bd 320f aebb 5d75 73bc d75a dcbc
000003c0: 2574 96bc 9101 39bd 7489 803b c6de 643b
000003d0: 0d21 a93d 0411 d0b9 bb0a 5cbd 32e7 4ebd
000003e0: e793 e73c 0147 513c f4d4 b93c 667f 163d
000003f0: b2a1 153d ca02 0cbc 0c12 5fbd 5f44 e53c

policy_layer.bias f4 [19]
-0.056971937 -0.016967062 -0.010527401 0.0005156585 0.00016993667 -0.012995024 -0.028641382 0.029584788
-0.045460068 0.07796193 0.022052346 0.07695628 0.05705031 0.02756812 -0.017400293 -0.17774549
-0.122139424 0.001552834 -0.069572754
00000000: 685b 69bd 82fe 8abc 1f7b 2cbc 422d 073a
00000010: 0731 3239 15e9 54bc 55a1 eabc cc5b f23c
00000020: 5634 3abd 81aa 9f3d 1fa7 b43c 419b 9d3d
00000030: 96ad 693d 8ad6 e13c 0f8b 8ebc ea02 36be
00000040: 3c24 fabd 7688 cb3a 297c 8ebd

value_layer.weight f4 [1, 128]
-0.08915236 0.039056435 -0.071924664 0.0054249098 -0.068247706 0.027586479 -0.085767366 0.0070584104
0.041765947 0.014630681 -0.08238971 -0.060967125 0.04715235 0.030565366 -0.016462458 -0.011888015
-0.025649298 -0.04878784 0.069027685 0.008890916 -0.07248594 0.17613035 0.02022639 0.04433381
-0.032399733 0.106788136 -0.0055936375 -0.07243141 -0.014381295 -0.035318244 0.12432627 0.08683332
-0.057219908 -0.025681596 0.0533986 0.04731209 -0.06964755 0.05895566 -0.10236931 -0.07722406
0.005822527 0.090639986 -0.021892358 -0.01734232 0.0939855 -0.08727276 0.08690798 -0.00698767
-0.07651323 0.012233034 0.042112544 -0.0037651202 -0.07475338 -0.057120655 -0.020648733 -0.060923047
0.024772862 -0.05034481 0.050380457 -0.0052824276 0.08662901 0.099260785 -0.06992995 -0.05043367
-0.08290392 0.00863711 0.058048896 -0.006082974 -0.06326996 0.082561746 -0.05114422 0.033053134
-0.02065923 0.1439199 0.07760147 -0.059641995 -0.025180964 0.031813286 -0.024622863 -0.028085351
-0.05289442 -0.0055783517 -0.091519244 -0.023211975 0.04424956 0.054525625 -0.031928204 -0.038692743
0.040403493 -0.03332165 0.11738615 0.0010544892 0.050856702 0.006803264 0.08080141 -0.06515391
0.0078941835 0.08210394 -0.018549722 0.0027905696 -0.0009273201 -0.06949961 -0.03589354 0.020352347
0.07085717 -0.06831948 -0.018679198 0.08490127 -0.07097565 0.09349392 -0.020280622 0.061578035
-0.064201035 0.0875241 0.0397445 -0.06581904 -0.049597986 0.051144093 0.07730339 -0.06507032
0.066681735 0.039334454 -0.03491993 0.06497803 -0.016768403 0.03902969 -0.10021289 0.008354704
00000000: 8395 b6bd a4f9 1f3d 3d4d 93bd 71c3 b13b
00000010: 74c5 8bbd 0afd e13c cda6 afbd 3d4a e73b
00000020: c512 2b3d 86b5 6f3c f0bb a8bd aab8 79bd
00000030: d322 413d 3864 fa3c 47dc 86bc f3c5 42bc
00000040: 7a1e d2bc c2d5 47bd 635e 8d3d 34ab 113c
00000050: 8273 94bd 845b 343e d0b1 a53c 5f97 353d
00000060: 95b5 04bd bdb3 da3d d54a b7bb eb56 94bd
00000070: 869f 6bbc dda9 10bd c59e fe3d abd5 b13d
00000080: 6c5f 6abd 3662 d2bc 7eb8 5a3d 52ca 413d
00000090: 60a3 8ebd 7d7b 713d 00a7 d1bd a627 9ebd
000000a0: e6ca be3b 75a1 b93d 9a57 b3bc 7b11 8ebc
000000b0: 787b c03d 10bc b2bd d0fc b13d d3f8 e4bb
000000c0: f8b2 9cbd 106d 483c 347e 2c3d 3cc0 76bb
000000d0: 4d18 99bd 59f7 69bd 8827 a9bc 728a 79bd
000000e0: 75f0 ca3c 5c36 4ebd bd5b 4e3d 3718 adbb
000000f0: 8d6a b13d 3d49 cb3d 6f37 8fbd 8993 4ebd
00000100: 88c9 a9bd aa82 0d3c aec4 6d3d af53 c7bb
00000110: ae93 81bd 2216 a93d 9a7c 51bd b962 073d
00000120: 8c3d a9bc bd5f 133e 85ed 9e3d 2a4b 74bd
00000130: 4f48 cebc a64e 023d e3b5 c9bc 4013 e6bc
00000140: d2a7 58bd 9bca b6bb 716e bbbd 0a27 bebc
00000150: 073f 353d 4356 5f3d 26c7 02bd 487c 1ebd
00000160: 227e 253d 487c 08bd 2668 f03d c936 8a3a
00000170: 1e4f 503d eaed de3b 367b a53d 6a6f 85bd
00000180: 9b56 013c 1c26 a83d 96f5 97bc fde1 363b
00000190: 6617 73ba d055 8ebd 1b05 13bd f7b9 a63c
000001a0: 901d 913d 15eb 8bbd 1e05 99bc b8e0 ad3d
000001b0: ae5b 91bd be79 bf3d 8c23 a6bc 4039 7c3d
000001c0: d57b 83bd d63f b33d 21cb 223d 22cc 86bd
000001d0: 4227 4bbd 787c 513d 3d51 9e3d 9743 85bd
000001e0: 6f90 883d 2a1d 213d 3308 0fbd 3413 853d
000001f0: e45d 89bc 99dd 1f3d 6a3c cdbd 2be2 083c

log_std_parameter f4 [19]
-1.0270468 -1.0658013 -1.0553848 -0.9409922 -0.9125851 -0.30021703 -0.29596952 -1.1034496
-1.1749027 -0.29576474 -0.28074104 -0.7875991 -0.7658539 -0.261987 -0.2970086 -0.32164842
-0.22133864 -0.2935159 -0.26277465
00000000: 4576 83bf 2d6c 88bf d916 87bf dde4 70bf
00000010: 2d9f 69bf 0cb6 99be 5189 97be d63d 8dbf
00000020: 3663 96bf 7a6e 97be 4abd 8fbe 18a0 49bf
00000030: 000f 44bf 2923 86be 8311 98be 1aaf a4be
00000040: 99a6 62be b747 96be 668a 86be

net_container.0.weight f4 [128, 69]
-0.09428982 -0.25022292 0.15347996 -0.029164497 0.016623927 -0.024515511 0.015473729 -0.5718367
0.11072233 -0.11924453 -0.062220123 -0.00652316 0.19770357 -0.27733535 -0.29715985 -0.124829784
0.44045603 -0.21774337 0.22723553 -0.5381711 -0.029412393 -0.001127427 0.027808568 -0.45276335
-0.41954252 -0.10207437 -0.22630933 0.23977353 0.16967988 -0.14732623 0.012203861 -0.10142256
-0.03455993 -0.062546924 -0.09378203 -0.028209096 0.05420286 -0.1619487 -0.107855715 0.079963505
0.079811275 0.024888266 0.13835837 -0.028591579 0.08813459 0.05580274 -0.19113383 0.13705723
-0.008286896 0.019154917 -0.04762462 -0.04377212 0.18856624 0.03326049 -0.21937543 -0.1479996
-0.16794838 0.040761966 -0.013986883 0.2069288 -0.040115964 -0.031385373 -0.1789037 -0.12604402
0.042048175 0.02250621 -0.038846184 -0.013681761 0.09439349 0.076414205 0.07143424 0.5946189
-0.041016083 -0.22384095 0.17031233 -0.23962311 -0.0747307 0.06730014 0.09828048 -0.041140597
0.16673866 -0.27781898 -0.064609475 0.49443156 0.11477297 0.073363885 0.2379484 -0.35764405
0.0022591937 0.42542213 0.19670294 0.039697535 -0.02631307 0.10773817 0.21758287 0.094203286
0.0989676 0.15468608 -0.26096144 -0.06712997 -0.0159715 0.103083044 -0.045360733 -0.15963794
0.0641828 -0.04587824 0.01868105 0.08401273 0.037633248 0.040587936 0.087818176 -0.021745218
0.026831988 -0.007348445 0.075499594 0.16739957 0.05095501 -0.10377968 -0.03185209 0.025742725
-0.029641066 0.11980447 0.13512339 0.24684614 0.017696144 -0.116549216 0.024098411 -0.13818598
-0.0212936 -0.0487972 0.12106019 -0.1423842 -0.05870363 -0.1348676 -0.13283736 -0.07123979
-0.17080854 -0.022330293 -0.15961449 -0.054112423 -0.1357989 0.027455844 -0.00374304 -0.043331485
-0.4297273 -0.22892506 0.20119658 0.16517287 0.041517723 -0.018467302 -0.1454669 0.0317734
-0.14655891 0.18055315 -0.09734074 -0.061190404 -0.10557811 -0.6026302 -0.003297282 -0.31305942
-0.061507314 0.08647927 0.21308084 -0.120611735 0.0273711 -0.009062932 -0.18037194 -0.07410822
0.09558737 0.027167792 0.016441898 0.024296165 0.11830369 -0.044482537 -0.0021057345 0.042521235
-0.10114338 0.047871385 -0.0046024853 -0.013585909 0.023284225 0.02725937 0.14187835 0.06520683
-0.09465023 -0.15840058 0.07652804 -0.032155707 -0.06493014 -0.030064363 -0.03835413 -0.00198843
0.011073612 0.05496242 0.010473182 -0.13351564 0.18278271 0.101647206 -0.077841446 0.05369021
0.09782703 -0.005162905 -0.03875479 0.09308903 0.0075040516 0.15490153 -0.017221177 0.18083459
0.058909297 0.02218205 -0.06861313 0.0294963 -0.052959617 1.1355735 0.060276262 -0.016894821
-0.074041605 0.116648525 -0.15451089 -0.024706474 -0.33207363 -0.005643318 0.41742554 -0.35237947
-0.11048594 -0.120589405 0.64794856 0.3527326 -0.077494375 0.0373877 0.13722566 0.29350036
0.29456615 -0.03697303 -0.07340533 -0.146406 -0.23595718 0.086210266 0.02597637 -0.004621906
-0.03110671 -0.022049272 -0.015152388 0.08926594 0.0074141463 0.013417895 -0.017254243 -0.07209588
-0.012544993 0.0023310415 0.011728856 0.09856552 0.11557029 0.04332198 -0.0034266927 -0.091283016
00000000: 051b c1bd 381d 80be da29 1d3e 62ea eebc
00000010: e72e 883c c1d4 c8bc 8685 7d3c e463 12bf
00000020: 64c2 e23d 7a36 f4bd 87da 7ebd 3bc0 d5bb
00000030: ce72 4a3e e6fe 8dbe 5625 98be c2a6 ffbd
00000040: 7483 e13e 1ef8 5ebe 6eb0 683e 95c5 09bf
00000050: 42f2 f0bc 2cc6 93ba cbce e33c 99d0 e7be
00000060: 47ce d6be 5e0c d1bd a2bd 67be 3187 753e
00000070: 90c0 2d3e b0dc 16be b4f2 473c a2b6 cfbd
00000080: b78e 0dbd 9a18 80bd cb10 c0bd c316 e7bc
00000090: d103 5e3d e1d5 25be 75e3 dcbd e8c3 a33d
000000a0: 1874 a33d 7ae2 cb3c d1ad 0d3e e338 eabc
000000b0: e87f b43d 6a91 643d 96b8 43be bb58 0c3e
000000c0: c3c5 07bc c6ea 9c3c 0912 43bd 654a 33bd
000000d0: 8217 413e 273c 083d f4a3 60be 358d 17be
000000e0: a9fa 2bbe 05f6 263d 3d29 65bc 25e5 533e
000000f0: a350 24bd f38d 00bd 8832 37be af11 01be
00000100: b53a 2c3d f15e b83c 2d1d 1fbd 7729 60bc
00000110: 6051 c13d 0d7f 9c3d 1d4c 923d f238 183f
00000120: 7b00 28bd 9036 65be 5b66 2e3e c35f 75be
00000130: 690c 99bd a8d4 893d 4747 c93d 0b83 28bd
00000140: 8abd 2a3e 4a3e 8ebe f951 84bd 2226 fd3e
00000150: 170e eb3d ce3f 963d bfa8 733e 1f1d b7be
00000160: fb0e 143b eed0 d93e 7f6c 493e e299 223d
00000170: 828e d7bc d4a5 dc3d 0bce 5e3e a7ed c03d
00000180: 86af ca3d 0766 1e3e bd9c 85be 707b 89bd
00000190: aad6 82bc 341d d33d 2dcc 39bd 2178 23be
000001a0: 4672 833d d2ea 3bbd 0009 993c de0e ac3d
000001b0: 5225 1a3d 893f 263d 04da b33d 0723 b2bc
000001c0: c2ce db3c 39cb f0bb 889f 9a3d cb6a 2b3e
000001d0: 33b6 503d 718a d4bd 5677 02bd 68e2 d23c
000001e0: d2d1 f2bc 0c5c f53d c95d 0a3e 3cc5 7c3e
000001f0: 81f7 903c 5bb1 eebd 086a c53c a080 0dbe
00000200: ea6f aebc 93df 47bd 68ee f73d 2acd 11be
00000210: 3873 70bd bb1a 0abe 8406 08be 2be6 91bd
00000220: 6fe8 2ebe 05ee b6bc fb71 23be fda4 5dbd
00000230: de0e 0bbe 14eb e03c ca4d 75bb 5b7c 31bd
00000240: 3705 dcbe 556b 6abe 7a06 4e3e 1423 293e
00000250: 7d0e 2a3d bd48 97bc 46f5 14be d324 023d
00000260: 8a13 16be ede2 383e 955a c7bd caa2 7abd
00000270: 5639 d8bd f945 1abf 3617 58bb 5349 a0be
00000280: 18ef 7bbd 0b1c b13d dd31 5a3e 4903 f7bd
00000290: 5b39 e03c b17c 14bc 6cb3 38be 0dc6 97bd
000002a0: 50c3 c33d fd8e de3c 29b1 863c c008 c73c
000002b0: 3449 f23d 5233 36bd 5d00 0abb bf2a 2e3d
000002c0: 4324 cfbd c914 443d 72d0 96bb 6f97 5ebc
000002d0: 8fbe be3c 0b4f df3c 8f48 113e 298b 853d
000002e0: fbd7 c1bd c333 22be bcba 9c3d b4b5 03bd
000002f0: 18fa 84bd 8a49 f6bc 3819 1dbd 5250 02bb
00000300: 186e 353c 4620 613d b697 2b3c 53b8 08be
00000310: 642b 3b3e 692c d03d 566b 9fbd 44ea 5b3d
00000320: 8a59 c83d 962d a9bb 58bd 1ebd 76a5 be3d
00000330: 8ce4 f53b 829e 1e3e 6d13 8dbc b42c 393e
00000340: e04a 713d 21b7 b53c 0a85 8cbd 39a2 f13c
00000350: 2fec 58bd 795a 913f 3ee4 763d 0267 8abc
00000360: 20a3 97bd 6ce5 ee3d 1a38 1ebe 3b65 cabc
00000370: 8e05 aabe 95eb b8bb cdb8 d53e 156b b4be
00000380: 7446 e2bd 94f7 f6bd f5df 253f 5e99 b43e
00000390: 5fb5 9ebd d823 193d e284 0c3e ae45 963e
000003a0: 60d1 963e 0871 17bd 8955 96bd 74eb 15be
000003b0: c29e 71be 028f b03d 65cc d43c 5c73 97bb
000003c0: 80d3 febc ada0 b4bc b941 78bc 10d1 b63d
000003d0: 5ef2 f23b bbd6 5b3c c558 8dbc 01a7 93bd
000003e0: 8489 4dbc 63c4 183b 632a 403c b8dc c93d
000003f0: 1eb0 ec3d 6372 313d 5d92 60bb 97f2 babd

net_container.0.bias f4 [128]
0.06352639 -0.1030005 -0.07955208 -0.02588036 0.07780226 0.032292705 0.14038014 0.16620998
0.09754209 0.14614679 0.019182926 -0.0031966353 0.059905093 -0.10669503 0.22403912 -0.16798086
0.08472375 -0.17085007 0.12984991 0.03249811 0.06450774 0.09945205 -0.03388742 0.06921092
0.068600774 0.05359403 -0.009313016 -0.089355715 -0.02535682 -0.038342644 -0.039231673 -0.00023973196
0.16133446 0.05317222 -0.09247406 -0.076547846 0.0611053 0.040120326 0.042714164 -0.0069195516
-0.10278112 0.13046634 -0.16458483 -0.0882394 0.074704245 -0.1309413 0.019081663 -0.07904741
0.16901924 0.023879787 -0.02759058 0.029940663 -0.055825774 -0.065222576 -0.011649562 0.042009078
0.21961935 0.059031025 0.074155286 0.06919799 -0.12497461 0.061399292 0.17707476 0.0392021
0.0368896 0.14695674 0.045775212 -0.0035826156 0.02340742 0.0533047 0.042728636 -0.11072549
0.14881468 0.1145159 0.04736741 0.052156873 0.15726188 0.015409186 0.17677191 0.042793967
0.009309794 -0.039123766 0.20694008 0.053125095 0.02539593 0.1561092 0.11216145 0.15940115
-0.009400102 0.18456721 -0.025399705 -0.02426652 0.09950435 -0.05191916 0.02232196 -0.027046077
0.04972382 -0.030447138 -0.12018058 -0.041578244 0.12949242 0.022278704 -0.06838761 -0.0040206206
0.04045098 0.0777793 -0.031173421 -0.06365991 -0.012450249 -0.059333563 -0.033925343 0.007765258
-0.07569455 -0.10590594 0.18365829 0.13247004 -0.10658194 0.15566674 0.04361064 -0.075034834
0.016330251 -0.1203893 0.18017103 -0.04360605 0.080445275 -0.16930151 -0.11046291 0.13794366
00000000: 201a 823d edf1 d2bd 33ec a2bd 0c03 d4bc
00000010: cb56 9f3d 5b45 043d d0bf 0f3e f332 2a3e
00000020: 26c4 c73d 81a7 153e 8325 9d3c a47e 51bb
00000030: 0b5f 753d ed82 dabd 836a 653e 2d03 2cbe
00000040: a583 ad3d 52f3 2ebe 60f7 043e bd1c 053d
00000050: a21c 843d 84ad cb3d 89cd 0abd 74be 8d3d
00000060: 907e 8c3d 6a85 5b3d 9f95 18bc 2100 b7bd
00000070: 1bb9 cfbc 2d0d 1dbd 64b1 20bd 8f60 7bb9
00000080: dc34 253e 1dcb 593d 0a63 bdbd 1ec5 9cbd
00000090: 8d49 7a3d 3655 243d 0cf5 2e3d 68bd e2bb
000000a0: e87e d2bd f898 053e ed88 28be dcb6 b4bd
000000b0: 8afe 983d 7a15 06be 2651 9c3c 9ce3 a1bd
000000c0: 6113 2d3e 8b9f c33c a405 e2bc 1f46 f53c
000000d0: 91a9 64bd 6a93 85bd cedd 3ebc b611 2c3d
000000e0: e5e3 603e 84ca 713d bade 973d adb7 8d3d
000000f0: b0f2 ffbd d37d 7b3d 1653 353e 6292 203d
00000100: 8d19 173d d47b 163e ca7e 3b3d 51ca 6abb
00000110: ebc0 bf3c 0756 5a3d 3904 2f3d 0cc4 e2bd
00000120: e062 183e 5087 ea3d 5404 423d 72a2 553d
00000130: 4209 213e cf76 7c3c b203 353e ba48 2f3d
00000140: 1b88 183c 3e40 20bd 1ae8 533e b399 593d
00000150: 200b d03c 17db 1f3e e7b4 e53d 0e3a 233e
00000160: e302 1abc 30ff 3c3e 0b13 d0bc 95ca c6bc
00000170: f0c8 cb3d 2fa9 54bd 8bdc b63c bc8f ddbc
00000180: 34ab 4b3d 476c f9bc 3c21 f6bd f34d 2abd
00000190: a999 043e d481 b63c ce0e 8cbd 69bf 83bb
000001a0: edaf 253d c14a 9f3d 675f ffbc 2060 82bd
000001b0: 21fc 4bbc c007 73bd 4df5 0abd b573 fe3b
000001c0: bf05 9bbd 37e5 d8bd eb10 3c3e 3aa6 073e
000001d0: a247 dabd 1a67 1f3e 12a1 323d ddab 99bd
000001e0: 05c7 853c aa8e f6bd c17e 383e 429c 32bd
000001f0: 7ec0 a43d 605d 2dbe 613a e2bd 1a41 0d3e
