humanoidprac/humanoidprac/scripts/skrl/logs/skrl/h1_flat/joint_experiment_ver3/2025-09-18_06-26-10_ppo_torch/checkpoints/agent_12000.pt (torch, 549970 bytes, 40 tensors)

log_std_parameter f4 [19]
-2.8484752 -2.8728023 -3.0271664 -1.6722814 -1.6642431 -0.7507967 -0.77710253 -2.1038306
-2.0976505 -0.62943923 -0.5726833 -1.3126363 -1.3668911 -0.6056184 -0.746487 -0.7560679
-0.6324297 -0.6856782 -0.73849064
00000000: 6b4d 36c0 fedb 37c0 18bd 41c0 510d d6bf
00000010: eb05 d5bf 3634 40bf 31f0 46bf 29a5 06c0
00000020: e83f 06c0 ee22 21bf 5f9b 12bf 7704 a8bf
00000030: 4af6 aebf cf09 1bbf c619 3fbf aa8d 41bf
00000040: eae6 21bf 9b88 2fbf b90d 3dbf

net_container.0.weight f4 [128, 69]
-0.11273061 -0.20646079 0.23092496 -0.016856147 0.094969004 -0.038531307 0.029221762 -0.5993659
0.13301465 -0.14360799 -0.062220123 0.0025564872 0.22875407 -0.2046842 -0.3324171 -0.1512003
0.40833828 -0.20872506 0.22985049 -0.49713454 -0.014760518 -0.024259508 0.06625835 -0.47093284
-0.47680175 -0.038105227 -0.23856993 0.1967996 0.20906624 -0.24595007 0.14102232 -0.10050203
0.0015672669 -0.04671595 -0.00975033 -0.009961173 0.054133333 -0.112372 -0.11720289 0.07959435
0.067307584 -0.017783878 0.117485285 0.005904633 0.084855504 0.051625315 -0.20489 0.11126701
0.016822228 -0.018294387 0.02542212 -0.02906152 0.14140774 0.07545992 -0.2485111 -0.1606471
-0.11705507 0.06523333 -0.033758353 0.19062991 -0.07381908 -0.014301872 -0.187602 -0.11198803
0.045100838 0.013613025 -0.021223163 0.034437545 0.062381078 0.09243444 0.06438803 0.68555593
-0.10133372 -0.2471682 0.20819904 -0.2730174 -0.042315464 0.068954036 0.12891045 -0.041140597
0.18857086 -0.15618977 0.081741124 0.65138656 0.11621271 0.1818147 0.18042043 -0.4346357
0.010305508 0.4467083 0.17923574 0.10707493 -0.028903255 0.10994844 0.08628486 0.111761786
0.106693625 0.13975725 -0.17631756 -0.11475479 -0.034382764 0.10440132 -0.075622514 -0.13078938
0.03449161 -0.054853074 -0.020992374 0.06577182 0.019728413 0.024638453 0.043352373 -0.020107176
0.014113661 0.025017953 0.07576483 0.13226889 0.03146815 -0.0666572 -0.0032363536 0.005700533
0.041062582 0.13601251 0.099851325 0.15440348 -0.01417591 -0.0947537 0.03365722 -0.13071708
-0.0652259 -0.018620593 0.055913523 -0.07513009 -0.083676465 -0.06393081 -0.16034865 -0.02749243
-0.17698531 -0.014530348 -0.1639833 -0.16195376 -0.15517111 0.07046329 -0.0155327385 -0.022256983
-0.40909135 -0.37734953 0.21309273 0.18215953 0.041517723 0.045627516 -0.24317944 -0.13319229
-0.27458268 0.07114935 -0.14429402 -0.0420407 -0.19662301 -0.6290939 0.011009478 -0.33549616
-0.018998057 0.08689791 0.20900445 -0.21682324 0.09492058 -0.013317253 -0.17754714 -0.13621524
0.16457002 0.019861402 0.00779829 0.03020792 0.13159136 -0.02499148 0.002384174 0.05503032
-0.095381945 0.072730854 0.015774371 -0.013148121 0.024752704 0.014932456 0.09434804 0.0699563
-0.0511592 -0.14494541 0.05941559 -0.0076342053 -0.07395979 -0.05447063 -0.04757298 -0.0149311945
0.048420034 0.09446585 0.017092586 -0.18411256 0.21391931 0.108452454 -0.08003453 0.09249759
0.050530657 -0.020863337 -0.046954937 0.07668204 0.024398115 0.14904892 0.0112221595 0.17072707
0.02804386 0.08098837 -0.042835124 0.044927668 -0.04751805 1.1654977 0.10327849 -0.0425138
-0.1047665 0.116648525 -0.14037684 -0.09533085 -0.591755 -0.10676014 0.42930162 -0.45235953
-0.06702897 -0.020948136 0.6250948 0.3300111 -0.09676038 0.019195173 0.14185904 0.3050109
0.2967818 -0.13826907 -0.07046569 -0.077563986 -0.3309089 0.10561631 0.018051418 -0.00069453585
-0.027157947 -0.01809265 -0.024661206 0.070625596 0.023189664 0.0040322808 -0.011123408 -0.057360254
-0.013977574 -0.0039422363 0.002269173 0.07497078 0.073686235 0.057869185 0.014545163 -0.082807675
00000000: 4edf e6bd 756a 53be 9877 6c3e e715 8abc
00000010: 1c7f c23d 01d3 1dbd 7a62 ef3c 0b70 19bf
00000020: fe34 083e f90d 13be 87da 7ebd bd8a 273b
00000030: 823e 6a3e bc98 51be 9332 aabe 40d4 1abe
00000040: b711 d13e 06bc 55be ed5d 6b3e 6b88 febe
00000050: 1ad6 71bc e0bb c6bc 75b2 873d 1c1e f1be
00000060: 5c1f f4be 3a14 1cbd ad4b 74be d685 493e
00000070: 7615 563e 56da 7bbe 2868 103e 02d4 cdbd
00000080: c06c cd3a 3959 3fbd d9bf 1fbc 3034 23bc
00000090: eaba 5d3d 4b23 e6bd 1208 f0bd 5d02 a33d
000000a0: 8fd8 893d 7faf 91bc 209c f03d a77b c13b
000000b0: b9c8 ad3d 1175 533d afce 51be f5df e33d
000000c0: c5ce 893c 1cde 95bc 0d42 d03c 6d12 eebc
000000d0: 31cd 103e bb8a 9a3d b279 7ebe ac80 24be
000000e0: 92ba efbd 0d99 853d 3346 0abd 7d34 433e
000000f0: 752e 97bd 6652 6abc bd1a 40be fb59 e5bd
00000100: a8bb 383d 2a09 5f3c 33dc adbc 620e 0d3d
00000110: 4d83 7f3d 454e bd3d dfdd 833d 9880 2f3f
00000120: 0e88 cfbd a919 7dbe 2132 553e f0c8 8bbe
00000130: fb52 2dbd c637 8d3d 1a01 043e 0b83 28bd
00000140: b818 413e 36f0 1fbe e467 a73d 45c1 263f
00000150: ee00 ee3d a22d 3a3e 22c0 383e 9288 debe
00000160: 6fd8 283c f3b6 e43e 9389 373e 1a4a db3d
00000170: 85c6 ecbc a62c e13d 1eb6 b03d 5de3 e43d
00000180: 3082 da3d 861c 0f3e 978c 34be 8f04 ebbd
00000190: f1d4 0cbd 5cd0 d53d fadf 9abd a7ed 05be
000001a0: 1347 0d3d 9ead 60bd 33f8 abbc 60b3 863d
000001b0: 7b9d a13c 95d6 c93c 4292 313d ceb7 a4bc
000001c0: fc3c 673c 73f2 cc3c 972a 9b3d 7f71 073e
000001d0: bfe4 003d 9283 88bd 0119 54bb 89cb ba3b
000001e0: 3d31 283d dd46 0b3e da7e cc3d f21b 1e3e
000001f0: 1342 68bc 3a0e c2bd 27dc 093d b3da 05be
00000200: 2895 85bd 378a 98bc 9405 653d cedd 99bd
00000210: 915e abbd 28ee 82bd 7032 24be ce37 e1bc
00000220: a33b 35be b210 6ebc 3deb 27be 35d7 25be
00000230: 2de5 1ebe 0f4f 903d 077d 7ebc 4754 b6bc
00000240: 6c74 d1be f533 c1be fb34 5a3e 0788 3a3e
00000250: 7d0e 2a3d ebe3 3a3d 0804 79be 8f63 08be
00000260: 1a96 8cbe c0b6 913d d0c1 13be de32 2cbd
00000270: 8b57 49be 4c0c 21bf 1961 343c 27c6 abbe
00000280: d0a1 9bbc 88f7 b13d 4305 563e e906 5ebe
00000290: b965 c23d 9c30 5abc ebce 35be 027c 0bbe
000002a0: 0b85 283e 61b4 a23c cc88 ff3b 9a76 f73c
000002b0: e3bf 063e efba ccbc cd3f 1c3b 7967 613d
000002c0: 9c57 c3bd eaf3 943d 4139 813c 376b 57bc
000002d0: 2fc6 ca3c 43a7 743c 8c39 c13d 4045 8f3d
000002e0: 4f8c 51bd 926c 14be c35d 733d 5b28 fabb
000002f0: 3b78 97bd 981c 5fbd e3db 42bd f8a1 74bc
00000300: 1654 463d 5077 c13d c005 8c3c 0188 3cbe
00000310: aa0d 5b3e 521c de3d 25e9 a3bd 606f bd3d
00000320: 3cf9 4e3d 97e9 aabc d253 40bd 790b 9d3d
00000330: 8ede c73c 48a0 183e 26dd 373c 14d3 2e3e
00000340: 3dbc e53c 3bdd a53d e273 2fbd 1306 383d
00000350: 49a2 42bd 072f 953f ac83 d33d f322 2ebd
00000360: d28f d6bd 6ce5 ee3d f2be 0fbe d23c c3bd
00000370: 417d 17bf 0fa5 dabd 6ccd db3e ab9b e7be
00000380: 7c46 89bd 6d9b abbc 3606 203f 37f7 a83e
00000390: 4e2a c6bd 323f 9d3c 7f43 113e 642a 9c3e
000003a0: c9f3 973e 6896 0dbe 5150 90bd ded9 9ebd
000003b0: e46c a9be 5d4d d83d 91e0 933c 8311 36ba
000003c0: 587a debc 0a37 94bc 4c06 cabc 27a4 903d
000003d0: 40f8 bd3c 3921 843b f43e 36bc 96f2 6abd
000003e0: 3202 65bc e02d 81bb 68b6 143b 488a 993d
000003f0: cfe8 963d 3d08 6d3d d64e 6e3c 1297 a9bd

net_container.0.bias f4 [128]
0.03917731 -0.10453242 -0.0908103 0.006315089 0.081334494 0.056496136 0.13118592 0.14309059
0.11252288 0.12765099 -0.002338755 0.009142438 0.06139192 -0.09397718 0.23858556 -0.20924851
0.10862909 -0.171658 0.12263158 0.035947282 0.088081576 0.06832234 -0.054456554 0.060667112
0.05404783 0.049401153 -0.02250903 -0.073467776 -0.010469551 -0.024333125 -0.04747538 0.0070224567
0.17910458 0.040477987 -0.07510241 -0.066687524 0.069601014 0.027628738 0.042422675 -0.027897876
-0.11594431 0.117899984 -0.15848175 -0.094305 0.08895729 -0.13597196 0.01900771 -0.08217847
0.19478047 0.022799851 -0.008401537 0.023263622 -0.05202424 -0.08051851 -0.014697165 0.036039397
0.2303398 0.046173118 0.07927207 0.101703584 -0.14339037 0.06705665 0.14501035 0.0299447
0.018961975 0.14781216 0.06735198 0.0054089976 0.017656654 0.0516071 0.01880366 -0.09258815
0.14587048 0.10652065 0.045688488 0.06646608 0.17273277 -0.0058111874 0.15036397 0.030802839
0.022323163 -0.04141524 0.2436513 0.038138434 0.04608693 0.1643192 0.08333536 0.18045795
-0.008772402 0.19530109 -0.032160316 -0.022091614 0.075396344 -0.05392069 0.0065574204 -0.03627123
0.052922335 -0.040532608 -0.12004396 -0.059440393 0.11370249 0.012054758 -0.08342856 0.0045558414
0.033034906 0.057610482 -0.01801212 -0.07409612 -0.006244477 -0.060475092 -0.02626882 0.00021185844
-0.04831045 -0.11816585 0.19682845 0.12879089 -0.1153941 0.1630993 0.031319786 -0.111390516
0.021956507 -0.14323604 0.15242939 -0.04957271 0.07639837 -0.166563 -0.11203547 0.15734419
00000000: 6378 203d 1815 d6bd c0fa b9bd ceee ce3b
00000010: b392 a63d 7e68 673d 9a55 063e 5786 123e
00000020: 6572 e63d f1b6 023e cc45 19bb 2aca 153c
00000030: 1876 7b3d 1c77 c0bd c64f 743e 3e45 56be
00000040: ee78 de3d 1dc7 2fbe 4426 fb3d 753d 133d
00000050: 1d64 b43d 95ec 8b3d d60d 5fbd 147e 783d
00000060: 4261 5d3d dd58 4a3d db64 b8bc 4676 96bd
00000070: 7b88 2bbc 4356 c7bc 8b75 42bd a31c e63b
00000080: 3167 373e 3fcc 253d 4bcf 99bd 7893 88bd
00000090: fa8a 8e3d aa55 e23c 66c3 2d3d 168a e4bc
000000a0: 3674 edbd 8c75 f13d 0a49 22be fb22 c1bd
000000b0: 3d2f b63d 3c3c 0bbe 0fb6 9b3c 304d a8bd
000000c0: 8874 473e c1c6 ba3c 9aa6 09bc 5a93 be3c
000000d0: 5f17 55bd e3e6 a4bd 61cc 70bc 0c9e 133d
000000e0: 32de 6b3e 0620 3d3d 6559 a23d f849 d03d
000000f0: edd4 12be ff54 893d 987d 143e 964e f53c
00000100: 2556 9b3c 125c 173e d6ef 893d f63d b13b
00000110: b0a4 903c f761 533d 220a 9a3c db9e bdbd
00000120: 125f 153e 8027 da3d da23 3b3d 5e1f 883d
00000130: dce0 303e c66b bebb 03f9 193e 3c56 fc3c
00000140: 11df b63c 07a3 29bd ba7f 793e 0c37 1c3d
00000150: a6c5 3c3d 4b43 283e bbab aa3d f8c9 383e
00000160: 1fba 0fbc 02fd 473e 89ba 03bd 79f9 b4bc
00000170: 6669 9a3d f1db 5cbd a1df d63b 2491 14bd
00000180: 17c5 583d 8505 26bd 9cd9 f5bd c577 73bd
00000190: dadc e83d 5281 453c 98dc aabd 2b49 953b
000001a0: 9c4f 073d f8f8 6b3d 278e 93bc b5bf 97bd
000001b0: 789e ccbb bbb4 77bd b531 d7bc 5126 5e39
000001c0: 2ee1 45bd f000 f2bd 668d 493e c2e1 033e
000001d0: be53 ecbd 8103 273e 2d49 003d b620 e4bd
000001e0: 22de b33c 78ac 12be 7316 1c3e c10c 4bbd
000001f0: c076 9c3d 7e8f 2abe da72 e5bd d61e 213e

net_container.2.weight f4 [128, 128]
0.022110952 -0.10699148 0.06946199 -0.009381936 0.04990429 0.031452693 0.042836923 -0.12622553
-0.04981388 0.04529332 0.01777782 -0.17051165 0.13427413 -0.056882113 0.06384933 -0.013348896
-0.044263028 0.021363309 0.024246302 0.08941876 -0.04126634 0.016252294 -0.105056904 -0.01149853
-0.023798266 0.022171075 -0.09762099 0.07230956 -0.046548404 -0.07762919 -0.040845275 0.01579355
-0.06889167 -0.048697904 -0.11001607 0.042916816 -0.049405735 0.045962974 0.04798246 0.0052111656
0.06360816 0.12608448 0.0030890885 -0.13322195 -0.058858953 0.109942876 -0.091140874 0.02089489
0.05838551 -0.00879696 0.03739908 0.08039501 -0.065394096 -0.124277405 -0.05476848 -0.029630318
-0.19365323 -0.041893847 0.02293342 0.03308244 0.030296152 0.07498045 0.109677844 -0.14638002
-0.07224166 -0.03405684 -0.006296508 -0.118626036 -0.020638442 -0.04934062 -0.029744089 -0.02179619
0.07437914 -0.044146497 -0.07326161 0.028588677 -0.12660864 -0.102234274 0.06174665 0.048968907
0.057447195 0.0062446953 -0.009690713 0.083827674 -0.13714606 0.0009370943 -0.066576354 -0.12504064
-0.022721462 -0.047041673 -0.10370403 -0.07238353 -0.06529887 -0.009573861 -0.12587471 -0.06658587
0.1031778 0.09861937 0.03983433 0.038998667 0.059096836 0.045094986 -0.082333416 -0.013120872
0.05434168 -0.04636496 0.039604615 -0.02413541 0.05254325 0.033056457 -0.061397526 -0.06430404
-0.022567272 -0.04589819 -0.058311276 -0.082022354 -0.017235668 -0.14858635 -0.017706191 0.030575214
0.021352224 0.0089239925 -0.117588796 0.023436002 0.012723435 0.043187495 -0.07805489 -0.0589256
0.028930724 -0.0076235477 -0.14430808 -0.20238964 0.08029705 -0.09933439 0.0686215 0.12787065
0.09743562 -0.023194691 0.07273055 0.11549605 -0.051559042 0.028008059 -0.069143385 0.047154177
0.009247239 -0.0715762 0.04259463 -0.060227796 -0.1163301 -0.00052202336 -0.00908825 -0.018595163
-0.05658642 -0.01196958 -0.060067356 0.09291172 0.03215345 -0.07972299 0.116358645 -0.09384076
-0.13094054 -0.05292263 -0.06097143 -0.06883692 0.11762111 0.033047643 -0.15424977 -0.10176101
0.04818266 -0.0026228256 -0.034512054 0.108720735 -0.008251363 -0.0066247303 0.039505243 0.0362463
-0.05417486 -0.00065198436 -0.015184065 -0.12171264 0.03340677 -0.07135915 -0.027655182 0.011856377
-0.00690584 0.016250761 -0.013200481 0.045471102 -0.08255082 -0.001063218 -0.06155232 0.13805884
0.0115895625 -0.06273424 -0.050508928 -0.06598713 -0.07532227 -0.038531166 0.08701153 -0.11084821
0.012918507 0.063947365 -0.12167371 -0.029436218 0.018298753 0.026386619 0.0899724 -0.040765997
-0.12371935 -0.012910509 -0.0695129 -0.09481168 -0.12566863 -0.0075134803 0.08935932 -0.11662631
0.03775925 0.011831118 0.02489825 -0.104848094 0.08896084 0.08556913 -0.013821975 -0.11697944
0.0510814 0.0058956495 0.13395652 -0.038314015 0.022498352 -0.077653065 0.119650684 0.047959358
0.021215884 0.013588091 -0.13445531 -0.052626327 0.086300425 -0.059493743 -0.024104746 -0.05834324
-0.04278874 -0.028421776 0.039252505 -0.00089480745 -0.040568303 0.04353274 0.03295035 0.09334691
-0.028055388 -0.062151283 -0.050593093 -0.04758842 0.01482609 0.20001331 0.07513336 0.011386629
00000000: 0722 b53c 591e dbbd 1642 8e3d b1b6 19bc
00000010: 7168 4c3d 8ad4 003d c575 2f3d 4441 01be
00000020: a409 4cbd 7d85 393d caa2 913c 9b9a 2ebe
00000030: 287f 093e 38fd 68bd 70c3 823d 54b5 5abc
00000040: 264d 35bd 1b02 af3c 2ea0 c63c 2f21 b73d
00000050: e506 29bd 8823 853c 1328 d7bd 5564 3cbc
00000060: 95f4 c2bc 1da0 b53c 83ed c7bd 0917 943d
00000070: 8aa9 3ebd 0efc 9ebd 604d 27bd 7a61 813c
00000080: 1317 8dbd 7477 47bd 1b50 e1bd 8bc9 2f3d
00000090: ab5d 4abd ac43 3c3d 4289 443d 6dc2 aa3b
000000a0: ff44 823d 4a1c 013e 4e72 4a3b 566b 08be
000000b0: 1616 71bd bb29 e13d 11a8 babd c32b ab3c
000000c0: a525 6f3d 2021 10bc c72f 193d 24a6 a43d
000000d0: 57ed 85bd 2785 febd ea54 60bd 48bb f2bc
000000e0: 084d 46be e298 2bbd dede bb3c 7481 073d
000000f0: a32f f83c 5a8f 993d c79e e03d a5e4 15be
00000100: 6ff3 93bd 2f7f 0bbd f052 cebb 35f2 f2bd
00000110: f311 a9bc 6419 4abd e0a9 f3bc ec8d b2bc
00000120: 1754 983d f5d2 34bd 2f0a 96bd cd32 ea3c
00000130: b2a5 01be 3460 d1bd 0eea 7c3d 9f93 483d
00000140: c04d 6b3d 4da0 cc3b ccc5 1ebc d8ad ab3d
00000150: 0470 0cbe 55a7 753a 2f59 88bd a70a 00be
00000160: 5c22 babc c5ae 40bd c762 d4bd d13d 94bd
00000170: 6abb 85bd afdb 1cbc 4de5 00be 2c5e 88bd
00000180: e24e d33d f4f8 c93d 5329 233d 11bd 1f3d
00000190: 860f 723d 85b5 383d 6c9e a8bd edf8 56bc
000001a0: 6295 5e3d 2fe9 3dbd 7338 223d a0b7 c5bc
000001b0: 9737 573d 3566 073d f97b 7bbd d6b1 83bd
000001c0: 00df b8bc beff 3bbd ced7 6ebd 56fb a7bd
000001d0: d131 8dbc 0527 18be 930c 91bc df78 fa3c
000001e0: dcea ae3c f035 123c 65d2 f0bd dcfc bf3c
000001f0: f475 503c 5fe5 303d 3edb 9fbd f85b 71bd
00000200: 2000 ed3c f4ce f9bb 7fc5 13be 3b3f 4fbe
00000210: c872 a43d d46f cbbd 6e89 8c3d 86f0 023e
00000220: 548c c73d cb02 bebc c1f3 943d 3189 ec3d
00000230: 932f 53bd 2871 e53c 0c9b 8dbd bd24 413d
00000240: bb81 173c 8b96 92bd b577 2e3d 6cb1 76bd
00000250: 7a3e eebd 65d8 08ba e2e6 14bc e254 98bc
00000260: 29c7 67bd 0f1c 44bc 3009 76bd 8048 be3d
00000270: 56b3 033d cf45 a3bd 714d ee3d 962f c0bd
00000280: 4715 06be 66c5 58bd 2ebd 79bd 5ffa 8cbd
00000290: 56e3 f03d f75c 073d a7f3 1dbe 1468 d0bd
000002a0: 2e5b 453d b6e3 2bbb 835c 0dbd faa8 de3d
000002b0: ba30 07bc 4414 d9bb 40d0 213d 0077 143d
000002c0: 75e6 5dbd eee9 2aba 96c6 78bc 7a44 f9bd
000002d0: 8ad5 083d bf24 92bd 1f8d e2bc 4041 423c
000002e0: 624a e2bb 5120 853c d546 58bc e83f 3a3d
000002f0: 6810 a9bd ad5b 8bba 491e 7cbd 4c5f 0d3e
00000300: 26e2 3d3c cf7a 80bd 73e2 4ebd 4324 87bd
00000310: 9042 9abd dbd2 1dbd 1a33 b23d 6304 e3bd
00000320: 25a8 533c d6f6 823d 1130 f9bd 3924 f1bc
00000330: 44e7 953c c028 d83c 7343 b83d 3ffa 26bd
00000340: 9260 fdbd 9986 53bc c85c 8ebd a02c c2bd
00000350: 47af 00be a433 f6bb 0502 b73d c6d9 eebd
00000360: 71a9 1a3d 4ed7 413c 6af7 cb3c 99ba d6bd
00000370: 1a31 b63d de3e af3d 9175 62bc eb92 efbd
00000380: bb3a 513d 4b30 c13b e62b 093e 28ef 1cbd
00000390: 774e b83c 9208 9fbd 6b0b f53d 0871 443d
000003a0: efcc ad3c 96a0 5e3c a7ae 09be b48e 57bd
000003b0: 47be b03d b6af 73bd 5177 c5bc 52f9 6ebd
000003c0: 3f43 2fbd c9d4 e8bc 3cc7 203d 8391 6aba
000003d0: f32a 26bd 634f 323d f2f6 063d aa2c bf3d
000003e0: 6ad4 e5bc 5892 7ebd b43a 4fbd 13ec 42bd
000003f0: 21e9 723c 4ad0 4c3e 85df 993d fc8e 3a3c

net_container.2.bias f4 [128]
0.10091345 -0.19711322 -0.32758555 0.058159236 -0.14601426 0.049673125 -0.017652629 0.07749857
0.044061903 -0.12427296 0.226241 -0.021150209 0.024582792 -0.09169641 0.07705305 -0.10437672
-0.045557633 -0.047986574 -0.14471197 0.06287279 0.09989341 -0.032332912 0.068079814 -0.056879386
-0.018808043 0.057947177 0.07770009 -0.14080168 0.026906239 -0.18560109 -0.103379816 0.013005126
0.04672298 -0.10915272 0.005464344 -0.06842672 -0.12477477 -0.0028070223 -0.0017679556 -0.093336664
-0.13064069 -0.027999412 -0.14878781 -0.018890707 0.06455853 0.09406293 0.034960046 0.0009664311
0.06263303 -0.11501608 0.09375556 -0.08024127 -0.009320505 0.1440106 -0.092647634 -0.058198873
0.06626368 -0.11626594 0.040190414 0.20121768 -0.193903 -0.087964885 -0.13817719 0.053683802
-0.05121924 -0.16565005 0.17066175 0.0081764385 -0.09625204 0.044911075 -0.08980032 -0.15820748
-0.03743136 -0.0047717867 -0.051578805 -0.05525093 0.13169065 -0.09254097 -0.027851598 -0.020289393
-0.1000587 -0.049797706 0.008450499 -0.04978357 -0.11917145 -0.047422323 0.010596352 0.19602697
0.16149971 -0.12962936 -0.12659562 -0.0057633594 -0.20662838 -0.035601813 -0.12833385 0.0667946
0.017753704 0.010717049 -0.2924811 0.09186337 -0.1855446 -0.0438986 -0.083291255 -0.0018846841
-0.047709823 -0.18765289 0.017839609 -0.056444082 -0.13401954 -0.03907611 0.15535443 -0.09638797
-0.3245058 0.031057736 0.14035964 -0.121340096 0.2048068 -0.0015342737 -0.02385609 -0.067361
-0.0015874476 -0.19898164 0.07386886 -0.024938677 0.020785764 0.031512722 -0.07492488 -0.14740075
00000000: b6ab ce3d 0cd8 49be 4bb9 a7be 6138 6e3d
00000010: c384 15be 0c76 4b3d 3f9c 90bc 92b7 9e3d
00000020: 417a 343d d282 febd b9ab 673e 3443 adbc
00000030: da61 c93c 54cb bbbd fdcd 9d3d 76c3 d5bd
00000040: a49a 3abd 928d 44bd 602f 14be 73c3 803d
00000050: eb94 cc3d 846f 04bd 6e6d 8b3d 5cfa 68bd
00000060: 5313 9abc 055a 6d3d 3a21 9f3d 512e 10be
00000070: 796a dc3c 360e 3ebe ccb8 d3bd 7413 553c
00000080: 9860 3f3d 768b dfbd 3d0e b33b 4f23 8cbd
00000090: ea89 ffbd 05f6 37bb bfba e7ba 4b27 bfbd
000000a0: acc6 05be 065f e5bc d55b 18be afc0 9abc
000000b0: 4337 843d 11a4 c03d 4432 0f3d 1858 7d3a
000000c0: bf45 803d 8d8d ebbd ea02 c03d 8955 a4bd
000000d0: 08b5 18bc 8477 133e 0bbe bdbd f161 6ebd
000000e0: 41b5 873d d61c eebd b49e 243d 020c 4e3e
000000f0: 828e 46be ef26 b4bd 527e 0dbe 8ce3 5b3d
00000100: 44cb 51bd 2ba0 29be f4c1 2e3e 78f6 053c
00000110: ca1f c5bd adf4 373d 3be9 b7bd 2401 22be
00000120: a051 19bd a65c 9cbb 4c44 53bd cd4e 62bd
00000130: ead9 063e 1f86 bdbd 0929 e4bc f135 a6bc
00000140: 93eb ccbd aef8 4bbd f673 0a3c dbe9 4bbd
00000150: 2910 f4bd e93d 42bd 529c 2d3c 4bbb 483e
00000160: 2e60 253e 8fbd 04be 48a2 01be 90da bcbb
00000170: 6496 53be 35d3 11bd f369 03be 9bcb 883d
00000180: 3770 913c 9096 2f3c 15c0 95be dd22 bc3d
00000190: 67ff 3dbe 05cf 33bd 9b94 aabd 8107 f7ba
000001a0: 606b 43bd 1428 40be 5f24 923c e931 67bd
000001b0: 6b3c 09be 450e 20bd 3b15 1f3e 0e67 c5bd
000001c0: a025 a6be cb6c fe3c 70ba 0f3e 2881 f8bd
000001d0: e0b8 513e af19 c9ba d96d c3bc 90f4 89bd
000001e0: e711 d0ba d8c1 4bbe 8f48 973d 324c ccbc
000001f0: e846 aa3c 7c13 013d 3772 99bd 39f0 16be

net_container.4.weight f4 [128, 128]
-0.117935054 0.14685646 -0.036138322 -0.036124267 0.029263893 -0.1671431 0.13883318 0.053307857
-0.06055399 -0.028352585 -0.13945508 -0.035200827 0.09442722 0.0113468515 -0.0034454057 0.0080772145
-0.03388023 -0.024049373 0.002404559 0.011406486 -0.09144419 -0.08991941 0.042218428 -0.10569199
-0.022394957 0.059225976 -0.028962366 0.023571094 0.03434976 0.0971057 0.02810093 0.038351122
-0.037227396 0.010560097 0.012735709 -0.09458573 0.007017225 0.013724896 0.019480305 0.027842676
-0.041360244 0.0059971097 0.049702432 -0.0258922 -0.096105024 0.014142492 0.05738081 0.07632386
-0.106834486 -0.01213845 0.0023975258 0.07872891 0.09482457 0.005126999 0.020228669 0.01581494
0.03275397 -0.05140522 0.034195285 -0.12110433 0.072231896 0.021350203 0.027066732 -0.011393393
0.00228475 0.014947758 -0.08265907 -0.017430691 0.060922462 -3.8751357e-05 0.018113678 0.15921523
0.12371043 0.09645898 -0.07333128 -0.10183555 -0.0592033 0.047497172 0.07322427 -0.06494054
0.04780699 0.05256879 -0.07277361 -0.041987296 0.073841766 0.065962814 -0.017578531 -0.12055146
-0.0030214782 -0.008682754 0.08794523 -0.07649225 0.18678099 0.028858623 -0.07745784 -0.14313023
-0.029509844 0.05499467 0.0049797576 0.044835836 0.11211237 0.05820283 0.051749166 0.057633724
-0.08026583 0.12471275 0.11843876 -0.00078988064 0.031115422 -0.15580763 -0.076062225 -0.0020025687
0.026392477 0.1042371 -0.02254727 0.08320436 -0.10518818 0.0064699217 -0.023692003 -0.003496429
0.06606064 -0.07163574 0.012821621 0.014202899 0.0071479785 -0.009317494 0.07849244 0.05273809
0.09696471 -0.08836613 -0.036510717 0.022864245 0.07990267 0.0027356634 -0.11390968 -0.030107692
-0.14131236 -0.11808812 0.09744914 -0.035489738 0.088588126 0.04577488 0.118319385 -0.096901424
-0.014643484 -0.030430943 0.0009816465 0.05165817 0.030964434 -0.0091758175 -0.0036045122 0.038690265
0.041657466 0.009582919 0.106008634 -0.09877422 0.026598679 -0.06333242 -0.01249875 0.12176242
0.09263225 0.0836941 -0.019951377 0.04008063 0.03759589 -0.023929223 -0.003594269 -0.04778173
0.03267813 -0.04953856 -0.08255407 0.050312456 -0.07517809 0.04920477 -0.14660802 0.0134013565
-0.08513746 -0.06691562 0.025749264 0.03226031 -0.04845204 0.08762284 -0.05299366 -0.059058882
0.07621761 0.026323354 0.08739099 0.03512123 0.05813269 0.038034696 0.034610588 -0.10385338
-0.030311527 -0.010257469 0.043830443 0.040017452 0.04341974 0.00082685077 -0.080178335 -0.06440734
0.11326946 0.035109356 0.072065495 0.114513904 0.04531612 -0.073068984 -0.07335281 -0.019802108
-0.053306844 -0.01638398 0.0027539295 0.039544765 -0.05618768 -0.01660394 -0.10509858 0.03487971
0.06488142 -0.12234087 -0.063162036 0.0021732294 -0.04489434 -0.043350328 -0.04083646 0.07502419
0.009302292 -0.028270114 0.02923996 0.02059788 0.032730136 0.015737534 0.022603298 0.068669245
0.022619566 -0.09071512 -0.02612717 -0.007939061 0.023582794 -0.041426446 -0.010942795 -0.05403042
-0.059229564 0.060129683 0.060269367 0.0060328012 0.060277823 -0.0509956 0.010656037 0.060467936
-0.035898343 -0.049529057 0.10666799 0.07546891 0.06621269 -0.0216806 0.018227208 0.031840194
00000000: ef87 f1bd 8a61 163e c705 14bd 0af7 13bd
00000010: d5ba ef3c 9027 2bbe 492a 0e3e 5759 5a3d
00000020: 7607 78bd ae43 e8bc 50cd 0ebe be2e 10bd
00000030: 0f63 c13d 25e8 393c 51cc 61bb 4b56 043c
00000040: ffc5 0abd 3103 c5bc ce95 1d3b 45e2 3a3c
00000050: 1747 bbbd ab27 b8bd 3bed 2c3d 0b75 d8bd
00000060: a175 b7bc f096 723d 7c42 edbc 2b18 c13c
00000070: 55b2 0c3d 5adf c63d ec33 e63c 1116 1d3d
00000080: c17b 18bd 4204 2d3c 6fa9 503c 2ab6 c1bd
00000090: c0f0 e53b 63de 603c 2995 9f3c 5316 e43c
000000a0: 5c69 29bd 6783 c43b c794 4b3d e11b d4bc
000000b0: b6d2 c4bd e9b5 673c 2408 6b3d af4f 9c3d
000000c0: 0acc dabd 59e0 46bc cf1f 1d3b 9f3c a13d
000000d0: 6233 c23d 6300 a83b 98b6 a53c 558e 813c
000000e0: 0729 063d 488e 52bd 5b10 0c3d 8c05 f8bd
000000f0: 51ee 933d 9fe6 ae3c 0dbb dd3c 5bab 3abc
00000100: bfbb 153b 71e7 743c 2949 a9bd cfca 8ebc
00000110: d589 793d f488 22b8 2363 943c 5109 233e
00000120: e55b fd3d 498c c53d b62e 96bd 288f d0bd
00000130: 297f 72bd 658c 423d 9bf6 953d 8cff 84bd
00000140: 43d1 433d 5f52 573d 550a 95bd dffa 2bbd
00000150: 5a3a 973d 8317 873d da00 90bc afe3 f6bd
00000160: fe03 46bb 1c42 0ebc a11c b43d f8a7 9cbd
00000170: 8443 3f3e eb68 ec3c 37a2 9ebd bb90 12be
00000180: a1be f1bc 1742 613d 3c2d a33b c8a5 373d
00000190: 2c9b e53d 1766 6e3d eff6 533d 5711 6c3d
000001a0: 6962 a4bd 6669 ff3d 0590 f23d fe0f 4fba
000001b0: c5e5 fe3c 098c 1fbe 83c6 9bbd 873d 03bb
000001c0: 0935 d83c 437a d53d 0db5 b8bc 0c67 aa3d
000001d0: e76c d7bd a301 d43b bb15 c2bc 5824 65bb
000001e0: cd4a 873d c2b5 92bd c711 523c 47b3 683c
000001f0: 9739 ea3b 67a8 18bc a5c0 a03d e503 583d
00000200: 6f95 c63d 4df9 b4bd 438c 15bd cc4d bb3c
00000210: 03a4 a33d d148 333b 7a49 e9bd 68a4 f6bc
00000220: 30b4 10be 2fd8 f1bd 6a93 c73d b05d 11bd
00000230: b16d b53d 717e 3b3d 6f51 f23d 4174 c6bd
00000240: 39eb 6fbc 504a f9bc 97aa 803a 8497 533d
00000250: 20a9 fd3c 2b56 16bc ae39 6cbb af79 1e3d
00000260: 05a1 2a3d ad01 1d3c 0e1b d93d 234a cabd
00000270: 79e5 d93c 6eb4 81bd 8fc7 4cbc 935e f93d
00000280: fab5 bd3d d067 ab3d 1271 a3bc 962b 243d
00000290: 26fe 193d 3807 c4bc d48d 6bbb c6b6 43bd
000002a0: 81d9 053d f2e8 4abd 1c12 a9bd 6f14 4e3d
000002b0: f8f6 99bd f18a 493d 6a20 16be 5d91 5b3c
000002c0: 8c5c aebd 0e0b 89bd 1ff0 d23c 6323 043d
000002d0: a575 46bd 9b73 b33d e10f 59bd bae7 71bd
000002e0: fa17 9c3d 13a4 d73c 0cfa b23d 47db 0f3d
000002f0: 8b1c 6e3d 45ca 1b3d d5c3 0d3d 15b1 d4bd
00000300: e14f f8bc f10e 28bc 8d87 333d 57e9 233d
00000310: e6d8 313d 04c1 583a 8a34 a4bd ffe7 83bd
00000320: d2f9 e73d d4ce 0f3d 1397 933d 4486 ea3d
00000330: 659d 393d 31a5 95bd 003a 96bd 0838 a2bc
00000340: 4758 5abd b237 86bc 457b 343b b1f9 213d
00000350: 0e25 66bd fc04 88bc ed3d d7bd 07de 0e3d
00000360: 8de0 843d da8d fabd 195b 81bd bd6c 0e3b
00000370: 21e3 37bd 1d90 31bd 2244 27bd 48a6 993d
00000380: a468 183c ba96 e7bc a488 ef3c e3bc a83c
00000390: 0910 063d 00ec 803c 8d2a b93c 76a2 8c3d
000003a0: ab4c b93c d9c8 b9bd a608 d6bc d612 02bc
000003b0: b430 c13c c7ae 29bd 6949 33bc 004f 5dbd
000003c0: b39a 72bd 8b4a 763d 03dd 763d ceae c53b
000003d0: e1e5 763d c3e0 50bd a996 2e3c 3aad 773d
000003e0: 240a 13bd fbde 4abd bf74 da3d 728f 9a3d
000003f0: 859a 873d 839b b1bc 3a51 953c dd6a 023d

net_container.4.bias f4 [128]
-0.15534978 -0.008867099 -0.03305458 -0.16082545 -0.10971272 -0.10018312 -0.15811954 -0.10837204
0.0031278133 0.01521535 0.042672582 -0.14877146 -0.045837473 -0.092246644 -0.016936047 0.09946944
-0.116393305 -0.0037786888 0.09565374 -0.0072234436 -0.03638727 0.09037105 -0.13265176 0.003356644
-0.026813047 -0.05528282 0.12320271 3.1006835e-05 -0.114282966 0.0050124438 -0.09517653 0.03937833
-0.014305352 -0.07860805 -0.063519284 -0.10881144 -0.08588842 0.071797125 -0.0034881365 0.037071753
-0.0059531345 -0.06452088 0.02744396 -0.077839084 -0.08988261 0.024417946 -0.0861332 0.013236946
0.023653299 0.02871733 0.031205704 -0.08286531 -0.05669131 -0.087152556 -0.01076984 0.033281658
0.09253822 -0.10120912 -0.02448627 0.038993694 -0.0044470252 -0.027149323 -0.081663676 -0.07085778
-0.12829453 -0.012432318 -0.094463974 0.060456432 -0.08279159 -0.0036407525 0.097903594 -0.0015532427
-0.049383204 0.15531711 -0.03064328 0.041801896 0.010887098 0.056644782 0.038102217 -0.0646462
0.037853513 -0.01204168 -0.065474056 -0.038012538 0.022314014 -0.07282308 -0.058969393 -0.12660193
0.08441326 -0.056983538 0.020685922 -0.031221384 -0.029659249 -0.061617363 0.06639647 -0.04284054
-0.042672623 -0.08293743 -0.010870807 -0.0200619 -0.1290307 -0.110202044 -0.1608467 0.046199054
0.1342813 -0.00968146 0.033294797 -0.009578125 -0.13756733 -0.0046158517 -0.02758898 0.061670385
-0.102804236 -0.10953741 0.1303367 0.087322064 0.033658374 0.062886424 -0.007631114 0.100413844
0.00854406 0.054120366 0.013998037 -0.017553054 -0.046404544 -0.048940767 -0.022252198 -0.017795162
00000000: 0314 1fbe 4f47 11bc 3d64 07bd 6daf 24be
00000010: 10b1 e0bd cf2c cdbd 17ea 21be 29f2 ddbd
00000020: 00fc 4c3b ce49 793c 72c9 2e3d 8c57 18be
00000030: 13c0 3bbd cfeb bcbd 77bd 8abc a2b6 cb3d
00000040: 9d5f eebd e1a3 77bb 1ce6 c33d a3b2 ecbb
00000050: d10a 15bd 7514 b93d ddd5 07be 24fb 5b3b
00000060: 09a7 dbbc 3d70 62bd b451 fc3d 560d 0238
00000070: 300d eabd 6d3f a43b eaeb c2bd 2c4b 213d
00000080: ff60 6abc 42fd a0bd 6616 82bd 88d8 debd
00000090: 45e6 afbd 5f0a 933d 3899 64bb 8dd8 173d
000000a0: 8312 c3bb 8623 84bd 28d2 e03c 196a 9fbd
000000b0: 6014 b8bd 2508 c83c 9a66 b0bd c7df 583c
000000c0: 90c4 c13c 9b40 eb3c 1ba3 ff3c 4ab5 a9bd
000000d0: 2635 68bd 0a7d b2bd fc73 30bc 5952 083d
000000e0: ae84 bd3d ba46 cfbd 6e97 c8bc dab7 1f3d
000000f0: 5ab8 91bb 4268 debc 493f a7bd e21d 91bd
00000100: a45f 03be ecb0 4bbc 5476 c1bd 2aa1 773d
00000110: a38e a9bd b199 6ebb ae81 c83d 2d96 cbba
00000120: 0b46 4abd 730b 1f3e 9e07 fbbc 7738 2b3d
00000130: cc5f 323c 5c04 683d 1211 1c3d 3a65 84bd
00000140: 490c 1b3d 774a 45bc 4317 86bd 09b3 1bbd
00000150: e1cb b63c 4424 95bd e489 71bd f0a3 01be
00000160: dce0 ac3d 9267 69bd 8675 a93c fdc3 ffbc
00000170: f4f7 f2bc 7d62 7cbd dffa 873d 9079 2fbd
00000180: 7dc9 2ebd 19db a9bd 781b 32bc db58 a4bc
00000190: a020 04be 9cb1 e1bd ffb4 24be 383b 3d3d
000001a0: 0981 093e fd9e 1ebc 2060 083d 91ed 1cbc
000001b0: 73de 0cbe 9240 97bb 4902 e2bc 169a 7c3d
000001c0: 078b d2bd 2655 e0bd fc76 053e e9d5 b23d
000001d0: 5ddd 093d 99ca 803d 6d0e fabb c6a5 cd3d
000001e0: 63fc 0b3c 51ad 5d3d 0658 653c 6ccb 8fbc
000001f0: b112 3ebd 1d76 48bd 3e4a b6bc 29c7 91bc

policy_layer.weight f4 [19, 128]
0.052587647 -0.010263112 -0.013289687 0.01565107 -0.05566089 0.08162632 0.015233992 -0.027912065
-0.0008046091 0.01978834 -0.026213499 0.020477053 0.03708219 0.0041192956 -0.0122931935 0.008145893
0.01300203 -0.048422173 0.044401918 0.009227586 -0.0047545005 0.0056382567 0.09482769 -0.07129821
-0.026845105 -0.0146676935 0.010956716 -0.0036125665 0.08309517 0.042584512 -0.03864073 0.011581564
-0.06141788 -0.0061407103 0.04330364 -0.040140536 0.030132057 0.091694646 -0.007752782 -0.0046738493
-0.0073028607 0.035164256 -0.068137474 0.053070724 -0.025653709 -0.052460875 0.052579872 -0.0024448102
0.0135031035 0.04699728 -0.028225325 0.018074099 0.026997155 0.015292061 0.0057142316 0.02120666
-0.0018405012 -0.007003225 0.023582127 0.03885483 0.019870691 0.061718177 0.0018524233 -0.009970292
0.00813439 0.0037442253 -0.04081026 0.039580386 -0.031413686 -0.024910524 0.005309672 0.017156798
0.03285548 -0.011176645 0.019422252 -0.011222126 0.035708204 -0.004728742 0.0298735 0.027607847
-0.04248604 -0.05080698 0.046158873 -0.05678535 0.06093299 -0.042206462 0.032340594 0.040936526
-0.011420309 0.079733424 0.046219133 -0.017832173 -0.052751593 0.068223886 -0.041446365 -0.06509299
0.04116978 0.047401376 -0.018168489 0.0018576317 0.033165246 0.023245703 -0.02335074 -0.047199436
0.004831458 -0.014009807 0.04332587 0.039155953 -0.030214526 -0.028755233 0.052242108 0.01950718
0.011335586 0.013094372 0.039057657 0.02005771 -0.05074144 0.039852213 -0.035686824 -0.008802207
0.003345608 -0.045955162 -0.017709674 -0.012296714 -0.06450361 -0.026139744 -0.032836277 -0.030858694
-0.043425344 0.030956637 0.06806977 -0.03722789 -0.04328774 0.07418133 -0.010810692 -0.012381796
-0.008304613 0.043221828 -0.059233367 0.026760466 -0.017911207 -0.045423023 0.018702636 -0.011140762
0.019824348 -0.004530759 0.03553685 -0.025905218 0.012850254 -0.020413354 -0.028635863 0.055790704
-0.01570697 0.031098349 0.012501924 0.036856826 -0.025333662 -0.005902634 0.025471427 -0.016258268
0.018945497 0.016525159 0.017590646 -0.04295603 0.021538861 0.0013630537 0.042844016 -0.009676201
-0.026153997 -0.025550535 0.005266623 -0.0061735963 0.034009006 0.060056437 -0.040302016 0.0012763332
0.0010106994 0.01689224 -0.041492164 -0.04542405 0.012090141 0.02968177 0.017968005 0.039778233
-0.034206364 0.0080445595 -0.07723271 0.079868294 -0.060860734 0.017662192 -0.05670917 -0.010770625
-0.005256739 -0.059048362 0.03841217 -0.0243908 0.038272362 0.057716962 -0.06827965 -0.063668475
-0.024825532 -0.05970651 0.011382747 0.0036608202 0.0079393005 0.008158716 0.04250007 -0.08248514
0.0065408247 0.07185964 -0.0030562838 0.08536338 -0.0047033564 0.024768444 -0.011793579 0.012056768
-0.008208274 -0.0072483 -0.037028387 -0.030276017 -0.038487937 -0.031188548 0.018846761 0.062436927
0.010517952 0.00879152 -0.037262414 -0.027102822 -0.0039813276 0.041835576 0.0363287 0.030208206
0.010932887 -0.003923463 0.0030238684 0.026374878 -0.09213014 0.011078906 -0.030508885 -0.03257339
-0.06580108 -0.034610957 -0.011579442 0.007854718 0.07247086 -0.0178455 -0.01888613 -0.03391088
0.008873153 0.004576646 0.029124785 0.024073102 0.049766798 -0.013566671 -0.048244376 0.026347773
00000000: 2566 573d 9d26 28bc fdbc 59bc ac36 803c
00000010: acfc 63bd b32b a73d fe97 793c d8a7 e4bc
00000020: 67ec 52ba 281b a23c b1bd d6bc 7ebf a73c
00000030: 7fe3 173d 28fb 863b 6469 49bc 5a76 053c
00000040: 7706 553c 5456 46bd c9de 353d 4d2f 173c
00000050: a4cb 9bbb 20c1 b83b 0535 c23d cc04 92bd
00000060: 44ea dbbc c450 70bc cc83 333c cfc0 6cbb
00000070: cd2d aa3d 196d 2e3d be45 1ebd 9ac0 3d3c
00000080: 5191 7bbd 0338 c9bb 285f 313d 676a 24bd
00000090: 81d7 f63c 67ca bb3d 0d0b febb 1727 99bb
000000a0: d64c efbb 6508 103d a98b 8bbd b060 593d
000000b0: ba27 d2bc 37e1 56bd fe5d 573d 1c39 20bb
000000c0: 1f3c 5d3c 3880 403d cc38 e7bc 2210 943c
000000d0: 2329 dd3c 8d8b 7a3c 733e bb3b 97b9 ad3c
000000e0: f93c f1ba 4f7b e5bb 4e2f c13c 3e26 1f3d
000000f0: dcc7 a23c 33cc 7c3d 03cd f23a 705a 23bc
00000100: 1b46 053c ad61 753b a928 27bd 0b1f 223d
00000110: a3ab 00bd 2811 ccbc c2fc ad3b 6a8c 8c3c
00000120: 7893 063d 3f1e 37bc 6a1b 9f3c 02dd 37bc
00000130: c442 123d 90f3 9abb 45b9 f43c da29 e23c
00000140: d805 2ebd fb1a 50bd 1611 3d3d c197 68bd
00000150: df94 793d afe0 2cbd 9277 043d 0fad 273d
00000160: 3f1c 3bbc 474b a33d 4650 3d3d c714 92bc
00000170: 0e12 58bd f7b8 8b3d aac3 29bd 794f 85bd
00000180: a5a1 283d f227 423d 15d6 94bc c77b f33a
00000190: 48d8 073d c66d be3c 0d4a bfbc 3254 41bd
000001a0: 3551 9e3b 6489 65bc 7876 313d fe61 203d
000001b0: 7484 f7bc 1890 ebbc d2fb 553d 86cd 9f3c
000001c0: e5b8 393c c789 563c ecfa 1f3d 1150 a43c
000001d0: 42d6 4fbd 133c 233d 592c 12bd 2237 10bc
000001e0: fd41 5b3b 7b3b 3cbd e113 91bc 2878 49bc
000001f0: 781a 84bd 0423 d6bc 557f 06bd 5fcb fcbc
00000200: c6de 31bd c698 fd3c 2a68 8b3d 467c 18bd
00000210: 7c4e 31bd 62ec 973d 541f 31bc 04dd 4abc
00000220: 1210 08bc 5f09 313d b09e 72bd c438 db3c
00000230: 86ba 92bc 7e0d 3abd 4536 993c be87 36bc
00000240: ac66 a23c c376 94bb 178f 113d 2e37 d4bc
00000250: df89 523c e839 a7bc c295 eabc cb84 643d
00000260: e7ab 80bc f7c1 fe3c dfd4 4c3c 2ff7 163d
00000270: 8a88 cfbc e26a c1bb 74a9 d03c 0f30 85bc
00000280: 9633 9b3c c55f 873c 421a 903c aaf2 2fbd
00000290: 4472 b03c 7ea8 b23a 357d 2f3d ee88 1ebc
000002a0: e840 d6bc 5b4f d1bc a393 ac3b e14b cabb
000002b0: 074d 0b3d bdfd 753d ba13 25bd a34a a73a
000002c0: 7279 843a 9861 8a3c b0f3 29bd 920e 3abd
000002d0: ba15 463c 2f27 f33c a331 933c 80ee 223d
000002e0: f91b 0cbd 54cd 033c 2f2c 9ebd fd91 a33d
000002f0: 1b49 79bd 4db0 903c e047 68bd 4777 30bc
00000300: b940 acbb b2dc 71bd 1456 1d3d 37cf c7bc
00000310: 7bc3 1c3d 9f68 6c3d 33d6 8bbd 9e64 82bd
00000320: ea5e cbbc d08e 74bd b47e 3a3c 5fea 6f3b
00000330: d713 023c 23ac 053c 8e14 2e3d f8ed a8bd
00000340: 6a54 d63b 262b 933d ef4b 48bb ffd2 ae3d
00000350: 9d1e 9abb 31e7 ca3c db39 41bc c089 453c
00000360: ff7b 06bc 2683 edbb 14ab 17bd 6905 f8bc
00000370: 87a5 1dbd 207f ffbc 8664 9a3c ddbd 7f3d
00000380: 7d53 2c3c 4f0a 103c 79a0 18bd bd06 debc
00000390: cc75 82bb c85b 2b3d 67cd 143d 3377 f73c
000003a0: da1f 333c 6590 80bb 182c 463b 2110 d83c
000003b0: baae bcbd 4d84 353c c5ed f9bc ad6b 05bd
000003c0: b7c2 86bd 38c4 0dbd b3b7 3dbc 13b1 003c
000003d0: 9a6b 943d ba30 92bc 16b7 9abc 23e6 0abd
000003e0: b360 113c b0f7 953b 1a97 ee3c f434 c53c
000003f0: 45d8 4b3d be46 5ebc e59b 45bd 49d7 d73c

policy_layer.bias f4 [19]
-0.051431663 -0.023693884 -0.015423868 0.0022279676 0.0013532409 0.0060134446 -0.032978848 0.013865123
-0.06409772 0.07262058 0.009893556 0.07528122 0.058399983 0.029627755 -0.021461667 -0.1916902
-0.122873746 0.002096671 -0.07748392
00000000: 02aa 52bd ad19 c2bc 64b4 7cbc 1803 123b
00000010: 3b5f b13a 6e0c c53b d414 07bd 8a2a 633c
00000020: aa45 83bd 19ba 943d 9518 223c 0a2d 9a3d
00000030: d234 6f3d e8b5 f23c 61d0 afbc 704a 44be
00000040: 3ba5 fbbd 4d68 093b e4af 9ebd

value_layer.weight f4 [1, 128]
-0.15580852 0.05262549 -0.11695011 0.0074032447 -0.11658257 0.030075364 -0.15929809 0.005502018
0.08068987 0.0733261 -0.10397418 -0.092432454 0.06707549 0.042234212 -0.040357333 -0.050993264
-0.03334694 -0.06555739 0.10680321 -0.023344195 -0.14125426 0.21639733 0.012433945 0.035504557
-0.06691442 0.08561569 0.027123641 -0.09599765 -0.029212395 -0.05716002 0.11688957 0.09306055
-0.02313339 -0.048765138 0.056921467 0.027682979 -0.22002849 0.07199521 -0.15058672 -0.1161921
0.011245059 0.08680292 -0.007042076 -0.014579821 0.10587596 -0.10943989 0.060333885 0.051124282
-0.1262376 0.067051455 0.03559115 -0.006991274 -0.13546129 -0.09164176 -0.044620585 -0.07274842
0.08620759 -0.11090892 0.030123854 0.005737893 0.12177127 0.1300572 -0.14250875 -0.10054185
-0.124004595 0.058694255 0.037072506 -0.023642424 -0.09755345 0.101227455 -0.06714538 0.041827377
-0.0043626623 0.17143984 0.08332377 -0.14444399 0.004483716 0.040841304 -0.04883347 -0.047701217
-0.09440624 -0.0734079 -0.15881993 0.012710313 0.03200938 0.044535905 -0.032676626 -0.06559413
0.12749039 -0.06509225 0.17153928 -0.021300277 0.058899183 -0.0067224326 0.0552151 -0.08231042
0.013585485 0.06493241 -0.036513425 0.0024832482 -0.02641429 -0.12817669 -0.08891568 0.04304916
0.13971183 -0.06510156 0.015082128 0.09071862 -0.12249951 0.10530557 -0.015163781 0.09120023
-0.17848936 0.10067756 0.07555556 -0.08922786 -0.0652365 0.049818262 0.07881252 -0.007057999
0.12021968 0.05726437 -0.0062238546 0.06722215 -0.03079515 0.02960843 -0.17196465 -0.020124322
00000000: 458c 1fbe d38d 573d 8a83 efbd eb96 f23b
00000010: d8c2 eebd 9c60 f63c 0a1f 23be 464a b43b
00000020: bb40 a53d ff2b 963d 6af0 d4bd 3a4d bdbd
00000030: e05e 893d c8fd 2c3d bb4d 25bd 50de 50bd
00000040: cd96 08bd f442 86bd a4bb da3d 533c bfbc
00000050: f5a4 10be 4397 5d3e bfb7 4b3c 3a6d 113d
00000060: 6d0a 89bd 4757 af3d 6632 de3c 6a9a c4bd
00000070: d54e efbc a020 6abd cd63 ef3d 8896 be3d
00000080: 3c82 bdbc f4bd 47bd 7c26 693d 6ac7 e23c
00000090: 264f 61be 3a72 933d 6833 1abe 20f6 edbd
000000a0: 323d 383c bbc5 b13d 37c1 e6bb 34e0 6ebc
000000b0: 7fd5 d83d 0522 e0bd aa20 773d b267 513d
000000c0: 6e44 01be 4652 893d 07c8 113d 0f17 e5bb
000000d0: 5db6 0abe adae bbbd 13c4 36bd 20fd 94bd
000000e0: 9b8d b03d 3724 e3bd 4dc6 f63c ef04 bc3b
000000f0: 3763 f93d b72d 053e d0ed 11be e3e8 cdbd
00000100: 1ff6 fdbd 6369 703d 57d9 173d c2ad c1bc
00000110: 1aca c7bd 5750 cf3d 8483 89bd 2f53 2b3d
00000120: aaf4 8ebb ed8d 2f3e a7a5 aa3d 20e9 13be
00000130: 23ec 923b 3649 273d 9b05 48bd 5a62 43bd
00000140: 0f58 c1bd e256 96bd b1a1 22be eb3e 503c
00000150: 451c 033d 486b 363d edd7 05bd 3756 86bd
00000160: d78c 023e 164f 85bd fea7 2f3e eb7d aebc
00000170: 4540 713d da47 dcbb 3b29 623d 5e92 a8bd
00000180: a795 5e3c 49fb 843d 1a8f 15bd febd 223b
00000190: c862 d8bc c040 03be 6d19 b6bd 5154 303d
000001a0: 9e10 0f3e f753 85bd 081b 773c afca b93d
000001b0: 06e1 fabd 72aa d73d 8271 78bc 30c7 ba3d
000001c0: eac5 36be 0930 ce3d e0bc 9a3d 19bd b6bd
000001d0: b79a 85bd 3c0e 4c3d 7568 a13d c946 e7bb
000001e0: bc35 f63d 0b8e 6a3d 7af1 cbbb c4ab 893d
000001f0: 1c46 fcbc 618d f23c 8017 30be c3db a4bc

log_std_parameter f4 [19]
-2.8484752 -2.8728023 -3.0271664 -1.6722814 -1.6642431 -0.7507967 -0.77710253 -2.1038306
-2.0976505 -0.62943923 -0.5726833 -1.3126363 -1.3668911 -0.6056184 -0.746487 -0.7560679
-0.6324297 -0.6856782 -0.73849064
00000000: 6b4d 36c0 fedb 37c0 18bd 41c0 510d d6bf
00000010: eb05 d5bf 3634 40bf 31f0 46bf 29a5 06c0
00000020: e83f 06c0 ee22 21bf 5f9b 12bf 7704 a8bf
00000030: 4af6 aebf cf09 1bbf c619 3fbf aa8d 41bf
00000040: eae6 21bf 9b88 2fbf b90d 3dbf

net_container.0.weight f4 [128, 69]
-0.11273061 -0.20646079 0.23092496 -0.016856147 0.094969004 -0.038531307 0.029221762 -0.5993659
0.13301465 -0.14360799 -0.062220123 0.0025564872 0.22875407 -0.2046842 -0.3324171 -0.1512003
0.40833828 -0.20872506 0.22985049 -0.49713454 -0.014760518 -0.024259508 0.06625835 -0.47093284
-0.47680175 -0.038105227 -0.23856993 0.1967996 0.20906624 -0.24595007 0.14102232 -0.10050203
0.0015672669 -0.04671595 -0.00975033 -0.009961173 0.054133333 -0.112372 -0.11720289 0.07959435
0.067307584 -0.017783878 0.117485285 0.005904633 0.084855504 0.051625315 -0.20489 0.11126701
0.016822228 -0.018294387 0.02542212 -0.02906152 0.14140774 0.07545992 -0.2485111 -0.1606471
-0.11705507 0.06523333 -0.033758353 0.19062991 -0.07381908 -0.014301872 -0.187602 -0.11198803
0.045100838 0.013613025 -0.021223163 0.034437545 0.062381078 0.09243444 0.06438803 0.68555593
-0.10133372 -0.2471682 0.20819904 -0.2730174 -0.042315464 0.068954036 0.12891045 -0.041140597
0.18857086 -0.15618977 0.081741124 0.65138656 0.11621271 0.1818147 0.18042043 -0.4346357
0.010305508 0.4467083 0.17923574 0.10707493 -0.028903255 0.10994844 0.08628486 0.111761786
0.106693625 0.13975725 -0.17631756 -0.11475479 -0.034382764 0.10440132 -0.075622514 -0.13078938
0.03449161 -0.054853074 -0.020992374 0.06577182 0.019728413 0.024638453 0.043352373 -0.020107176
0.014113661 0.025017953 0.07576483 0.13226889 0.03146815 -0.0666572 -0.0032363536 0.005700533
0.041062582 0.13601251 0.099851325 0.15440348 -0.01417591 -0.0947537 0.03365722 -0.13071708
-0.0652259 -0.018620593 0.055913523 -0.07513009 -0.083676465 -0.06393081 -0.16034865 -0.02749243
-0.17698531 -0.014530348 -0.1639833 -0.16195376 -0.15517111 0.07046329 -0.0155327385 -0.022256983
-0.40909135 -0.37734953 0.21309273 0.18215953 0.041517723 0.045627516 -0.24317944 -0.13319229
-0.27458268 0.07114935 -0.14429402 -0.0420407 -0.19662301 -0.6290939 0.011009478 -0.33549616
-0.018998057 0.08689791 0.20900445 -0.21682324 0.09492058 -0.013317253 -0.17754714 -0.13621524
0.16457002 0.019861402 0.00779829 0.03020792 0.13159136 -0.02499148 0.002384174 0.05503032
-0.095381945 0.072730854 0.015774371 -0.013148121 0.024752704 0.014932456 0.09434804 0.0699563
-0.0511592 -0.14494541 0.05941559 -0.0076342053 -0.07395979 -0.05447063 -0.04757298 -0.0149311945
0.048420034 0.09446585 0.017092586 -0.18411256 0.21391931 0.108452454 -0.08003453 0.09249759
0.050530657 -0.020863337 -0.046954937 0.07668204 0.024398115 0.14904892 0.0112221595 0.17072707
0.02804386 0.08098837 -0.042835124 0.044927668 -0.04751805 1.1654977 0.10327849 -0.0425138
-0.1047665 0.116648525 -0.14037684 -0.09533085 -0.591755 -0.10676014 0.42930162 -0.45235953
-0.06702897 -0.020948136 0.6250948 0.3300111 -0.09676038 0.019195173 0.14185904 0.3050109
0.2967818 -0.13826907 -0.07046569 -0.077563986 -0.3309089 0.10561631 0.018051418 -0.00069453585
-0.027157947 -0.01809265 -0.024661206 0.070625596 0.023189664 0.0040322808 -0.011123408 -0.057360254
-0.013977574 -0.0039422363 0.002269173 0.07497078 0.073686235 0.057869185 0.014545163 -0.082807675
00000000: 4edf e6bd 756a 53be 9877 6c3e e715 8abc
00000010: 1c7f c23d 01d3 1dbd 7a62 ef3c 0b70 19bf
00000020: fe34 083e f90d 13be 87da 7ebd bd8a 273b
00000030: 823e 6a3e bc98 51be 9332 aabe 40d4 1abe
00000040: b711 d13e 06bc 55be ed5d 6b3e 6b88 febe
00000050: 1ad6 71bc e0bb c6bc 75b2 873d 1c1e f1be
00000060: 5c1f f4be 3a14 1cbd ad4b 74be d685 493e
00000070: 7615 563e 56da 7bbe 2868 103e 02d4 cdbd
00000080: c06c cd3a 3959 3fbd d9bf 1fbc 3034 23bc
00000090: eaba 5d3d 4b23 e6bd 1208 f0bd 5d02 a33d
000000a0: 8fd8 893d 7faf 91bc 209c f03d a77b c13b
000000b0: b9c8 ad3d 1175 533d afce 51be f5df e33d
000000c0: c5ce 893c 1cde 95bc 0d42 d03c 6d12 eebc
000000d0: 31cd 103e bb8a 9a3d b279 7ebe ac80 24be
000000e0: 92ba efbd 0d99 853d 3346 0abd 7d34 433e
000000f0: 752e 97bd 6652 6abc bd1a 40be fb59 e5bd
00000100: a8bb 383d 2a09 5f3c 33dc adbc 620e 0d3d
00000110: 4d83 7f3d 454e bd3d dfdd 833d 9880 2f3f
00000120: 0e88 cfbd a919 7dbe 2132 553e f0c8 8bbe
00000130: fb52 2dbd c637 8d3d 1a01 043e 0b83 28bd
00000140: b818 413e 36f0 1fbe e467 a73d 45c1 263f
00000150: ee00 ee3d a22d 3a3e 22c0 383e 9288 debe
00000160: 6fd8 283c f3b6 e43e 9389 373e 1a4a db3d
00000170: 85c6 ecbc a62c e13d 1eb6 b03d 5de3 e43d
00000180: 3082 da3d 861c 0f3e 978c 34be 8f04 ebbd
00000190: f1d4 0cbd 5cd0 d53d fadf 9abd a7ed 05be
000001a0: 1347 0d3d 9ead 60bd 33f8 abbc 60b3 863d
000001b0: 7b9d a13c 95d6 c93c 4292 313d ceb7 a4bc
000001c0: fc3c 673c 73f2 cc3c 972a 9b3d 7f71 073e
000001d0: bfe4 003d 9283 88bd 0119 54bb 89cb ba3b
000001e0: 3d31 283d dd46 0b3e da7e cc3d f21b 1e3e
000001f0: 1342 68bc 3a0e c2bd 27dc 093d b3da 05be
00000200: 2895 85bd 378a 98bc 9405 653d cedd 99bd
00000210: 915e abbd 28ee 82bd 7032 24be ce37 e1bc
00000220: a33b 35be b210 6ebc 3deb 27be 35d7 25be
00000230: 2de5 1ebe 0f4f 903d 077d 7ebc 4754 b6bc
00000240: 6c74 d1be f533 c1be fb34 5a3e 0788 3a3e
00000250: 7d0e 2a3d ebe3 3a3d 0804 79be 8f63 08be
00000260: 1a96 8cbe c0b6 913d d0c1 13be de32 2cbd
00000270: 8b57 49be 4c0c 21bf 1961 343c 27c6 abbe
00000280: d0a1 9bbc 88f7 b13d 4305 563e e906 5ebe
00000290: b965 c23d 9c30 5abc ebce 35be 027c 0bbe
000002a0: 0b85 283e 61b4 a23c cc88 ff3b 9a76 f73c
000002b0: e3bf 063e efba ccbc cd3f 1c3b 7967 613d
000002c0: 9c57 c3bd eaf3 943d 4139 813c 376b 57bc
000002d0: 2fc6 ca3c 43a7 743c 8c39 c13d 4045 8f3d
000002e0: 4f8c 51bd 926c 14be c35d 733d 5b28 fabb
000002f0: 3b78 97bd 981c 5fbd e3db 42bd f8a1 74bc
00000300: 1654 463d 5077 c13d c005 8c3c 0188 3cbe
00000310: aa0d 5b3e 521c de3d 25e9 a3bd 606f bd3d
00000320: 3cf9 4e3d 97e9 aabc d253 40bd 790b 9d3d
00000330: 8ede c73c 48a0 183e 26dd 373c 14d3 2e3e
00000340: 3dbc e53c 3bdd a53d e273 2fbd 1306 383d
00000350: 49a2 42bd 072f 953f ac83 d33d f322 2ebd
00000360: d28f d6bd 6ce5 ee3d f2be 0fbe d23c c3bd
00000370: 417d 17bf 0fa5 dabd 6ccd db3e ab9b e7be
00000380: 7c46 89bd 6d9b abbc 3606 203f 37f7 a83e
00000390: 4e2a c6bd 323f 9d3c 7f43 113e 642a 9c3e
000003a0: c9f3 973e 6896 0dbe 5150 90bd ded9 9ebd
000003b0: e46c a9be 5d4d d83d 91e0 933c 8311 36ba
000003c0: 587a debc 0a37 94bc 4c06 cabc 27a4 903d
000003d0: 40f8 bd3c 3921 843b f43e 36bc 96f2 6abd
000003e0: 3202 65bc e02d 81bb 68b6 143b 488a 993d
000003f0: cfe8 963d 3d08 6d3d d64e 6e3c 1297 a9bd

net_container.0.bias f4 [128]
0.03917731 -0.10453242 -0.0908103 0.006315089 0.081334494 0.056496136 0.13118592 0.14309059
0.11252288 0.12765099 -0.002338755 0.009142438 0.06139192 -0.09397718 0.23858556 -0.20924851
0.10862909 -0.171658 0.12263158 0.035947282 0.088081576 0.06832234 -0.054456554 0.060667112
0.05404783 0.049401153 -0.02250903 -0.073467776 -0.010469551 -0.024333125 -0.04747538 0.0070224567
0.17910458 0.040477987 -0.07510241 -0.066687524 0.069601014 0.027628738 0.042422675 -0.027897876
-0.11594431 0.117899984 -0.15848175 -0.094305 0.08895729 -0.13597196 0.01900771 -0.08217847
0.19478047 0.022799851 -0.008401537 0.023263622 -0.05202424 -0.08051851 -0.014697165 0.036039397
0.2303398 0.046173118 0.07927207 0.101703584 -0.14339037 0.06705665 0.14501035 0.0299447
0.018961975 0.14781216 0.06735198 0.0054089976 0.017656654 0.0516071 0.01880366 -0.09258815
0.14587048 0.10652065 0.045688488 0.06646608 0.17273277 -0.0058111874 0.15036397 0.030802839
0.022323163 -0.04141524 0.2436513 0.038138434 0.04608693 0.1643192 0.08333536 0.18045795
-0.008772402 0.19530109 -0.032160316 -0.022091614 0.075396344 -0.05392069 0.0065574204 -0.03627123
0.052922335 -0.040532608 -0.12004396 -0.059440393 0.11370249 0.012054758 -0.08342856 0.0045558414
0.033034906 0.057610482 -0.01801212 -0.07409612 -0.006244477 -0.060475092 -0.02626882 0.00021185844
-0.04831045 -0.11816585 0.19682845 0.12879089 -0.1153941 0.1630993 0.031319786 -0.111390516
0.021956507 -0.14323604 0.15242939 -0.04957271 0.07639837 -0.166563 -0.11203547 0.15734419
00000000: 6378 203d 1815 d6bd c0fa b9bd ceee ce3b
00000010: b392 a63d 7e68 673d 9a55 063e 5786 123e
00000020: 6572 e63d f1b6 023e cc45 19bb 2aca 153c
00000030: 1876 7b3d 1c77 c0bd c64f 743e 3e45 56be
00000040: ee78 de3d 1dc7 2fbe 4426 fb3d 753d 133d
00000050: 1d64 b43d 95ec 8b3d d60d 5fbd 147e 783d
00000060: 4261 5d3d dd58 4a3d db64 b8bc 4676 96bd
00000070: 7b88 2bbc 4356 c7bc 8b75 42bd a31c e63b
00000080: 3167 373e 3fcc 253d 4bcf 99bd 7893 88bd
00000090: fa8a 8e3d aa55 e23c 66c3 2d3d 168a e4bc
000000a0: 3674 edbd 8c75 f13d 0a49 22be fb22 c1bd
000000b0: 3d2f b63d 3c3c 0bbe 0fb6 9b3c 304d a8bd
000000c0: 8874 473e c1c6 ba3c 9aa6 09bc 5a93 be3c
000000d0: 5f17 55bd e3e6 a4bd 61cc 70bc 0c9e 133d
000000e0: 32de 6b3e 0620 3d3d 6559 a23d f849 d03d
000000f0: edd4 12be ff54 893d 987d 143e 964e f53c
00000100: 2556 9b3c 125c 173e d6ef 893d f63d b13b
00000110: b0a4 903c f761 533d 220a 9a3c db9e bdbd
00000120: 125f 153e 8027 da3d da23 3b3d 5e1f 883d
00000130: dce0 303e c66b bebb 03f9 193e 3c56 fc3c
00000140: 11df b63c 07a3 29bd ba7f 793e 0c37 1c3d
00000150: a6c5 3c3d 4b43 283e bbab aa3d f8c9 383e
00000160: 1fba 0fbc 02fd 473e 89ba 03bd 79f9 b4bc
00000170: 6669 9a3d f1db 5cbd a1df d63b 2491 14bd
00000180: 17c5 583d 8505 26bd 9cd9 f5bd c577 73bd
00000190: dadc e83d 5281 453c 98dc aabd 2b49 953b
000001a0: 9c4f 073d f8f8 6b3d 278e 93bc b5bf 97bd
000001b0: 789e ccbb bbb4 77bd b531 d7bc 5126 5e39
000001c0: 2ee1 45bd f000 f2bd 668d 493e c2e1 033e
000001d0: be53 ecbd 8103 273e 2d49 003d b620 e4bd
000001e0: 22de b33c 78ac 12be 7316 1c3e c10c 4bbd
000001f0: c076 9c3d 7e8f 2abe da72 e5bd d61e 213e
